output_nn_denoise/ckpt/resnet_epoch36.pth (torch, 641699 bytes, 31 tensors)

module.model.0.weight f4 [64, 1, 1, 1]
-0.15898529 -0.16208956 0.25034395 -0.036102414 -0.20647877 0.19441457 0.026945716 0.24356367
-0.14476767 -0.14802861 0.2816655 0.029711505 -0.18487245 -0.1852981 0.043553744 0.15329307
-0.29396328 0.13536616 -0.18698908 -0.113151655 -0.1886474 0.12886806 -0.008068425 0.2527484
-0.12253116 -0.07418782 -0.23219474 0.2786364 -0.106007084 -0.2489175 -0.07956145 -0.25996083
-0.07817829 0.06793262 -0.1645486 0.15536195 -0.06947371 -0.118513584 0.26376647 0.0087216925
-0.24099821 -0.29824373 -0.156783 0.15019035 -0.26488593 0.08981657 -0.18887904 0.26219884
0.2031539 -0.103676416 0.2779161 -0.072705284 -0.19334953 0.024397822 0.21014617 -0.023352213
-0.29721195 -0.0015783773 -0.28836435 -0.014172391 0.0719735 0.2520708 0.026254697 0.15086849
00000000: 0acd 22be cefa 25be 152d 803e 20e0 13bd
00000010: 2c6f 53be 9d14 473e 43bd dc3c c168 793e
00000020: fa3d 14be d094 17be 7636 903e 8b65 f33c
00000030: 344f 3dbe c9be 3dbe 6965 323d dcf8 1c3e
00000040: 5b82 96be 6d9d 0a3e 117a 3fbe 0ebc e7bd
00000050: c92c 41be fdf5 033e 6d31 04bc 3d68 813e
00000060: 9ef1 fabd c9ef 97bd 75c4 6dbe 6ea9 8e3e
00000070: 3e1a d9bd 3be4 7ebe 1df1 a2bd 9619 85be
00000080: f01b a0bd 4220 8b3d 6e7f 28be 3417 1f3e
00000090: 3c48 8ebd 40b7 f2bd 660c 873e 6ee5 0e3c
000000a0: 3cc8 76be 67b3 98be b98b 20be 80cb 193e
000000b0: 219f 87be c0f1 b73d 8269 41be ed3e 863e
000000c0: 9307 503e 4d54 d4bd 054b 8e3e 82e6 94bd
000000d0: 6bfd 45be f1dd c73c 8f30 573e 244d bfbc
000000e0: 2a2c 98be 8ee1 ceba 7ea4 93be 5133 68bc
000000f0: d866 933d 6d0f 813e 1714 d73c 457d 1a3e

module.model.0.bias f4 [64]
0.0020988595 -0.00016842641 0.002951429 0.0029530886 -0.0013885351 0.002747024 0.0026534244 -0.001267102
-0.00107589 -0.00026686568 0.00033558207 -0.00113886 0.0020982581 -0.001752891 -0.00092558155 0.0033407537
0.0036452126 0.0017970955 0.0019447755 -0.00069978886 -0.0007906166 0.0023249215 0.003306115 -0.0016669031
7.109882e-05 0.0007969765 -0.0013929458 0.0035352865 -0.0013280462 -0.0014904293 0.0026189424 -0.0014455768
0.0025967497 -0.0006150549 0.003453002 -0.001721107 -0.00097264454 0.0022815685 -0.0010356541 -0.00067710713
-0.0011788151 0.003488922 -0.00042538779 0.003639266 0.0018192284 -0.00079528685 0.00090928574 0.00090444577
0.00013066371 -0.0015918707 0.0029177763 0.002608169 0.0005540146 -0.0009331431 0.0023368136 0.0002950651
0.002456857 -0.0012471371 0.0027804354 -0.000642739 0.003831347 -0.001119088 -0.0014752782 0.0030974862
00000000: 058d 093b 9f9b 30b9 c36c 413b 9b88 413b
00000010: 82ff b5ba 6a07 343b 13e5 2d3b e314 a6ba
00000020: e104 8dba 1bea 8bb9 10f1 af39 cd45 95ba
00000030: ee82 093b 43c1 e5ba baa2 72ba 8cf0 5a3b
00000040: 85e4 6e3b 858c eb3a d6e7 fe3a 0972 37ba
00000050: 6241 4fba b65d 183b 68ab 583b fd7b daba
00000060: e31a 9538 30ec 503a 8193 b6ba 44b0 673b
00000070: d611 aeba 825a c3ba 90a2 2b3b 8279 bdba
00000080: 3b2e 2a3b a33b 21ba c34b 623b c596 e1ba
00000090: 12f9 7eba 5e86 153b c9be 87ba e47f 31ba
000000a0: 7982 9aba 66a6 643b 9506 dfb9 c080 6e3b
000000b0: 2d73 ee3a cc7a 50ba 225d 6e3a 5418 6d3a
000000c0: c602 0939 51a6 d0ba 2a38 3f3b d1ed 2a3b
000000d0: 4a3b 113a 2c9e 74ba 3a25 193b f8b2 9a39
000000e0: 3803 213b fa76 a3ba f737 363b 7c7d 28ba
000000f0: 5617 7b3b 5dae 92ba 1f5e c1ba 32ff 4a3b

module.model.1.model.0.weight f4 [64, 64, 3, 3]
0.07397999 -0.013903711 0.037266366 -0.0076421257 -0.048910454 -0.055522013 0.011967058 -0.06786581
0.060866263 -0.06560875 -0.029104162 -0.054040004 0.04330866 -0.059242744 -0.029792106 -0.013500695
0.025025584 -0.06590459 -0.044353466 -0.06888091 -0.034453847 0.06302065 0.03813857 0.021843733
0.038113784 0.039024368 -0.016112145 0.04475379 -0.04759182 -0.0026155806 0.04554261 0.057353225
-0.0028434696 0.07022104 0.023508823 0.05973462 0.05803158 0.043313827 0.004415957 -0.057632085
-0.044242606 -0.03301275 -0.036771238 0.04039176 0.058561407 -0.035149924 0.02146175 0.028807946
-0.03267879 0.0017281382 0.007875319 -0.02382873 -0.059176397 0.053316128 0.034771957 0.029265247
-0.050452586 0.020004334 0.033685192 -0.01115503 -0.0025819808 0.034920786 -9.288304e-05 0.0010030471
-0.029892819 -0.005903498 0.04427051 0.03500576 0.011695446 -0.0021243708 -0.06394208 -0.021508813
0.053643625 0.057714358 -0.030645091 -0.04217017 -0.05170337 -0.011705615 0.03573466 0.020232907
0.055554207 0.0029708124 0.058183044 -0.0037651418 -0.019732056 0.04660388 0.030780232 0.031127382
0.04891333 0.010787643 0.018798945 0.018627936 -0.030955477 0.037463993 -0.025668154 0.017746687
-0.073378205 0.00827039 4.4836663e-05 0.04007602 0.027178159 -0.07049839 -0.04058466 0.05602241
-0.036429364 -0.0068918057 -0.06386517 -0.021222444 0.0046518813 0.008397725 -0.06411686 -0.033375736
-0.056422006 0.04731562 -0.06616538 -0.0006633496 -0.011710879 -0.05101146 -0.064960435 0.071379535
0.019578436 0.0597579 -0.053226832 -0.027219608 -0.044749778 0.0055095274 -0.043501846 -0.014995139
-0.01351054 -0.034616258 0.007870176 -0.0015216194 0.045366812 0.019939097 0.049176134 -0.0025846304
0.0150219025 -0.056143217 0.022900391 0.049756285 0.022156542 0.004545512 -0.023624826 -0.058417957
-0.03239019 0.0005063707 0.06500146 0.026180191 0.07186807 -0.00257407 0.0062071546 0.054096013
0.009600832 0.019084463 -0.058239356 -0.06043581 0.027591394 -0.04352641 0.047348775 -0.031381976
0.04053824 0.02584592 -0.058494147 0.06932549 0.05875489 -0.0648207 -0.039210286 -0.04458762
0.026394019 0.047318075 -0.020831382 0.05016058 -0.0631772 -0.0609338 -0.027178654 -0.035770018
0.0010568906 0.0106439255 -0.002975672 0.0011549364 -0.024960682 -0.06434001 0.07268384 -0.056644596
-0.0036129775 -0.007833904 -0.016378896 0.043459065 -0.028134804 -0.019904384 -0.063047536 -0.031062473
0.048850913 0.015963897 -0.028473198 -0.033837654 -0.049399815 -0.06807454 -0.019940935 -0.016178004
-0.010151922 0.07262984 -0.023881832 0.06869001 0.027852917 -0.044257604 0.020808881 -0.016552113
0.0044668117 0.047402263 0.04628978 0.0033250146 0.0073673967 -0.023704337 0.045448743 -0.036352854
-0.04840503 -0.047890786 0.013131333 0.02590465 -0.060788088 -0.026660323 0.030438567 0.06112652
-0.03665571 -0.035185788 -0.0397099 0.040724322 0.05112074 -0.057281684 0.011562232 -0.004145029
-0.030884283 0.0009979999 -0.00778082 0.020405179 0.042607073 0.014001098 0.008106302 0.04836829
0.045621008 0.041696433 -0.061154157 0.019483013 -0.061377387 0.024968788 0.0066291234 0.006254026
0.049356952 -0.058453377 0.049491912 0.021392766 0.024861906 0.05348983 -0.06006675 0.047549058
00000000: d282 973d 64cc 63bc 9ea4 183d cc6a fabb
00000010: 5456 48bd 0d6b 63bd 7b11 443c 3bfd 8abd
00000020: e74e 793d e15d 86bd da6b eebc 0d59 5dbd
00000030: 6c64 313d 85a8 72bd 930e f4bc 0532 5dbc
00000040: 7402 cd3c fcf8 86bd fbab 35bd 6f11 8dbd
00000050: 7a1f 0dbd f810 813d 3037 1c3d a1f1 b23c
00000060: 331d 1c3d 04d8 1f3d 9efd 83bc c04f 373d
00000070: a4ef 42bd 296a 2bbb e38a 3a3d 37eb 6a3d
00000080: 8159 3abb 0cd0 8f3d 9395 c03c 4aac 743d
00000090: 86b2 6d3d d769 313d bbb3 903b 9f0f 6cbd
000000a0: bc37 35bd 6138 07bd 709d 16bd d571 253d
000000b0: 16de 6f3d 5ef9 0fbd 8dd0 af3c a4fe eb3c
000000c0: 32da 05bd b282 e23a 7b07 013c 7834 c3bc
000000d0: f362 72bd 0362 5a3d 0a6d 0e3d acbd ef3c
000000e0: 5fa7 4ebd 21e0 a33c 7cf9 093d 96c3 36bc
000000f0: 7336 29bb 1909 0f3d 34ca c2b8 ad78 833a
00000100: c9e1 f4bc 2172 c1bb ff54 353d 3362 0f3d
00000110: 429e 3f3c 0739 0bbb 11f4 82bd 4033 b0bc
00000120: 6bb9 5b3d e465 6c3d 6a0b fbbc a1ba 2cbd
00000130: eac6 53bd e8c8 3fbc 825e 123d 7bbf a53c
00000140: cf8c 633d f6b1 423b 5851 6e3d 99c0 76bb
00000150: 1fa5 a1bc b6e3 3e3d d326 fc3c dafe fe3c
00000160: 5859 483d a7be 303c 3f00 9a3c 9d99 983c
00000170: 5796 fdbc d873 193d 0546 d2bc 8061 913c
00000180: 5047 96bd 8880 073c 000f 3c38 c126 243d
00000190: bba4 de3c 7661 90bd 1a3c 26bd c177 653d
000001a0: f536 15bd a8d4 e1bb becb 82bd b1da adbc
000001b0: cf6e 983b 9d96 093c b34f 83bd ffb4 08bd
000001c0: c31a 67bd 06ce 413d b781 87bd a3e4 2dba
000001d0: fdde 3fbc 65f1 50bd fa09 85bd 6f2f 923d
000001e0: f562 a03c b3c4 743d 6104 5abd a8fb debc
000001f0: 8b4b 37bd 4489 b43b fe2e 32bd 2cae 75bc
00000200: 505b 5dbc c7c9 0dbd e9f1 003c 1371 c7ba
00000210: 8dd2 393d 5157 a33c ea6c 493d e762 29bb
00000220: 6d1e 763c 6ef6 65bd 9a99 bb3c 3fcd 4b3d
00000230: a381 b53c 85f2 943b da88 c1bc ab47 6fbd
00000240: 93ab 04bd f6bd 043a 7c1f 853d d777 d63c
00000250: 912f 933d bab1 28bb 6365 cb3b c893 5d3d
00000260: cf4c 1d3c 0557 9c3c 648c 6ebd 8a8b 77bd
00000270: 5907 e23c c048 32bd caf0 413d 638a 00bd
00000280: 6d0b 263d d3ba d33c 8f97 6fbd 86fa 8d3d
00000290: f8a8 703d b7c0 84bd f79a 20bd 82a1 36bd
000002a0: 4538 d83c 99d0 413d 93a6 aabc 2e75 4d3d
000002b0: 0c63 81bd b895 79bd c5a5 debc 9583 12bd
000002c0: 5d87 8a3a dc63 2e3c 7e03 43bb 3c61 973a
000002d0: 587a ccbc b2c4 83bd 44db 943d 2a04 68bd
000002e0: b4c7 6cbb c659 00bc 092d 86bc 2202 323d
000002f0: f67a e6bc 850e a3bc 111f 81bd ba76 febc
00000300: e517 483d b8c6 823c a040 e9bc 5a99 0abd
00000310: 7657 4abd aa6a 8bbd 2c5b a3bc bc87 84bc
00000320: 3f54 26bc f4be 943d d5a3 c3bc 59ad 8c3d
00000330: cd2b e43c 7647 35bd 6377 aa3c 4c98 87bc
00000340: 555e 923b e028 423d 5a9a 3d3d 7de8 593b
00000350: 346a f13b 992f c2bc 7628 3a3d bbe6 14bd
00000360: 5a44 46bd 2129 44bd cd24 573c fd35 d43c
00000370: eefc 78bd c066 dabc 4d5a f93c cd5f 7a3d
00000380: 4c24 16bd f91e 10bd d9a6 22bd 8cce 263d
00000390: fb63 513d 33a0 6abd 846f 3d3c 06d3 87bb
000003a0: 0901 fdbc 52cf 823a 40f6 febb c328 a73c
000003b0: c184 2e3d dd64 653c 4bd0 043c d41d 463d
000003c0: 18dd 3a3d e1c9 2a3d c87c 7abd d79a 9f3c
000003d0: db66 7bbd 588b cc3c 1e39 d93b 93ee cc3b
000003e0: 842a 4a3d cf6c 6fbd 08b8 4a3d e23f af3c
000003f0: 32ab cb3c 2718 5b3d 8d08 76bd cdc2 423d

module.model.1.model.0.bias f4 [64]
0.0016409375 0.0013002208 0.0007437521 0.00077057123 0.0008959384 0.0013169894 0.0007970166 0.00072684843
0.0017290007 0.0012367963 0.0009757651 0.0012825768 0.000930956 0.0015010171 0.00078881346 0.0010953647
0.00083853153 0.00058960414 0.0006446527 0.0009425032 0.00067022874 0.00066545996 0.0005556539 0.0012535044
0.0014367827 0.0009392191 0.0012387239 0.0011557165 0.0012341029 0.00075664226 0.0016894584 0.0008939659
0.0013482367 0.00071737205 0.00032647862 0.0009971284 0.0008560941 0.0009726512 0.0012077411 0.00088477123
0.00090770336 0.00046910672 0.0011241897 0.0012276805 0.0011361733 0.0010823312 0.0014535318 0.0009231653
0.0007894733 0.0012312427 0.0010442013 0.0010110213 0.00095499866 0.000904466 0.0006780909 0.00049619505
0.0015522148 0.00123033 0.00044327794 0.0010159775 0.0011192294 0.0012273729 0.0011096942 0.0012110767
00000000: ba14 d73a 2c6c aa3a 5cf8 423a 2900 4a3a
00000010: 69dd 6a3a d59e ac3a e1ee 503a f989 3e3a
00000020: a39f e23a ff1b a23a 7dca 7f3a 231c a83a
00000030: 660b 743a c7bd c43a 60c8 4e3a 5792 8f3a
00000040: e6d0 5b3a aa8f 1a3a e9fd 283a 5212 773a
00000050: 4ab2 2f3a 4372 2e3a 4da9 113a a14c a43a
00000060: 6d52 bc3a ed35 763a ad5c a23a 697b 973a
00000070: 9fc1 a13a 6759 463a d170 dd3a 0959 6a3a
00000080: 51b7 b03a 060e 3c3a 382b ab39 14b2 823a
00000090: 816b 603a 84f9 7e3a 114d 9e3a feef 673a
000000a0: f1f2 6d3a 70f2 f539 8c59 933a 1fea a03a
000000b0: a6eb 943a 02dd 8d3a 6f84 be3a 9300 723a
000000c0: a8f4 4e3a a661 a13a 95dd 883a 3f84 843a
000000d0: e058 7a3a b019 6d3a e9c1 313a 1613 023a
000000e0: b073 cb3a 0643 a13a c267 e839 8c2a 853a
000000f0: 1bb3 923a cddf a03a 2973 913a febc 9e3a

module.model.1.model.1.weight f4 [64]
0.99755496 1.0009758 1.001348 1.0019846 1.0026467 0.9992941 1.0021579 1.0025383
1.0000643 0.9987913 1.002217 0.9976229 1.0023654 0.99856746 0.99842674 1.0016695
0.99929065 1.0012333 1.0015281 1.001481 0.99943596 0.99815816 0.9980278 1.0008833
1.0015702 0.9986449 0.9982949 0.9978992 1.0021839 1.0021241 0.99793184 0.9974233
1.0019069 0.9994656 0.9995905 0.9985037 1.0003073 0.99840367 0.9987637 0.99792755
0.9983162 0.9986769 0.9978822 1.0002539 1.0023046 0.99994254 0.9974468 1.0023106
0.9978902 0.99761814 0.9979265 1.0015552 1.0020199 0.99781215 1.002169 1.0004855
0.99752545 1.0014952 1.0016148 1.0023223 1.0019071 0.9983538 1.0006597 0.9974371
00000000: c35f 7f3f fa1f 803f 2c2c 803f 0841 803f
00000010: ba56 803f bdd1 7f3f b646 803f 2d53 803f
00000020: 1b02 803f c9b0 7f3f a648 803f 3764 7f3f
00000030: 824d 803f 1ea2 7f3f e598 7f3f b536 803f
00000040: 83d1 7f3f 6a28 803f 1332 803f 8830 803f
00000050: 09db 7f3f 4b87 7f3f c07e 7f3f f21c 803f
00000060: 7433 803f 31a7 7f3f 4190 7f3f 5276 7f3f
00000070: 9047 803f 9a45 803f 7678 7f3f 2257 7f3f
00000080: 7c3e 803f fadc 7f3f 2ae5 7f3f f09d 7f3f
00000090: 120a 803f 6297 7f3f faae 7f3f 2e78 7f3f
000000a0: a791 7f3f 4aa9 7f3f 3575 7f3f 5208 803f
000000b0: 844b 803f 3cfc 7f3f ac58 7f3f b74b 803f
000000c0: bb75 7f3f e763 7f3f 1c78 7f3f f632 803f
000000d0: 3042 803f 9e70 7f3f 1347 803f e90f 803f
000000e0: d45d 7f3f ff30 803f ea34 803f 194c 803f
000000f0: 7e3e 803f 1d94 7f3f 9e15 803f 0a58 7f3f

module.model.1.model.1.bias f4 [64]
-0.0022051102 0.0019789548 9.7244876e-05 0.0013256702 0.0027279856 -0.0025898993 0.0021395616 -4.4822846e-05
-0.00056449726 -0.0013464963 0.0013426669 -0.0024493437 0.002409526 -0.002255184 -0.0026597297 0.002231967
-0.0014652273 0.002801447 0.0029541408 0.0019937807 0.0006949343 -0.00073261483 0.00017368782 0.0011256221
-0.00015556758 0.0015623663 -0.0025845156 -0.0022921541 0.0023275048 0.0024980314 -0.0020182643 0.0013542987
0.0018893261 0.00094982074 0.0019970348 -0.002240204 0.0023546289 0.0008695652 -0.0018467954 -0.002039114
-0.0011662801 0.0020945796 -0.0002753444 -0.0022436373 0.00029228875 -0.001352092 -0.0022519953 0.0010649526
-0.00029180798 -0.0023876159 0.0018166921 -0.0020618688 0.002444641 -0.0028388272 0.002479356 0.0015491337
-0.0026227497 -0.0023627721 0.0026185645 0.0005010006 -0.0009454645 -0.0023992327 0.0017439274 -0.0027546198
00000000: 9c83 10bb 5ab1 013b f2ef cb38 1cc2 ad3a
00000010: 01c8 323b 4dbb 29bb e337 0c3b 2a00 3cb8
00000020: c5fa 13ba eb7c b0ba 6dfc af3a 2b85 20bb
00000030: 23e9 1d3b b6cb 13bb dc4e 2ebb 3146 123b
00000040: df0c c0ba 7b98 373b 429a 413b 17aa 023b
00000050: 402c 363a f30c 40ba f81f 3639 9c89 933a
00000060: db1f 23b9 50c8 cc3a fa60 29bb f737 16bb
00000070: 0d89 183b 03b6 233b db44 04bb b982 b13a
00000080: 44a3 f73a 64fd 783a afe0 023b 63d0 12bb
00000090: 1e50 1a3b 88f3 633a 2c10 f2ba a8a2 05bb
000000a0: dedd 98ba 3745 093b 1a5c 90b9 fd09 13bb
000000b0: 553e 9939 ae38 b1ba 3696 13bb e195 8b3a
000000c0: cefd 98b9 8c79 1cbb 121e ee3a 6b20 07bb
000000d0: 4536 203b 9e0b 3abb b17c 223b 4d0c cb3a
000000e0: 70e2 2bbb bdd8 1abb 399c 2b3b 9555 033a
000000f0: 0cd9 77ba 723c 1dbb 7e94 e43a da86 34bb

module.model.1.model.1.running_mean f4 [64]
0.0009513471 0.002948731 0.0019166298 0.0016081363 0.0019156988 0.0007560666 -0.00048091303 0.0038392316
0.0035036409 0.0064035673 0.0015106015 0.0009988719 0.0025913566 0.00046872153 -0.0019670364 0.0011979433
0.003418487 0.0007102592 -0.0036184695 0.0035209812 0.00033029588 -0.0004862131 0.0004991082 0.0018763713
0.004433626 -0.00023544248 0.00062634813 0.0012911208 -0.00021796807 -0.0008456448 0.0032381776 0.001653614
-0.0025337534 -0.0001603056 0.0020627456 -0.00021283884 0.0016033052 0.007024189 0.001436153 0.002131428
0.0037567408 0.003453198 0.0037301416 0.003706646 0.0042103934 0.0016766477 0.00092020945 -0.0025371574
0.000997693 -0.001836114 0.0033462867 0.0021401655 0.000974569 -0.00034422957 0.0040136604 0.005078332
0.0012792118 0.0023116637 0.00095344306 0.0029531196 0.0010779789 0.0031742493 0.00021125727 0.0027130528
00000000: d363 793a 7f3f 413b 6d37 fb3a 1ac8 d23a
00000010: 2f18 fb3a c532 463a 0e23 fcb9 9e9b 7b3b
00000020: 579d 653b 04d5 d13b 60ff c53a 94ec 823a
00000030: c0d3 293b bdbe f539 65e9 00bb 4f04 9d3a
00000040: b208 603b b030 3a3a d823 6dbb 43c0 663b
00000050: 902b ad39 6bea feb9 96d6 023a 93f0 f53a
00000060: f347 913b 1ce1 76b9 8331 243a d33a a93a
00000070: 5c8e 64b9 43ae 5dba 9b37 543b 14be d83a
00000080: 540d 26bb b517 28b9 212f 073b 7e2d 5fb9
00000090: ff25 d23a 2b2b e63b 4c3d bc3a 6eaf 0b3b
000000a0: a733 763b 0c4f 623b 6475 743b 33eb 723b
000000b0: 57f7 893b f6c2 db3a 363a 713a 7046 26bb
000000c0: 06c5 823a c3a9 f0ba 604d 5b3b 0542 0c3b
000000d0: 387a 7f3a b679 b4b9 0685 833b 2368 a63b
000000e0: 3aab a73a 487f 173b 7bf0 793a 2089 413b
000000f0: f84a 8d3a 1107 503b f184 5d39 79cd 313b

module.model.1.model.1.running_var f4 [64]
2.382519e-05 7.752871e-05 0.00022634947 0.00012093581 0.00019832043 1.629221e-05 0.000109153916 8.875096e-05
2.8566508e-05 3.4590998e-05 0.00019195517 4.120834e-05 0.00035778567 0.0003374416 1.6701308e-06 3.4416713e-05
3.0343002e-05 0.00016897642 0.00020794677 1.743855e-05 0.000105851395 2.9441193e-05 5.2690437e-05 9.259281e-05
6.159954e-05 6.9082445e-05 6.597792e-06 9.0832245e-06 8.956528e-05 0.0001538956 1.0982914e-06 5.6665696e-05
1.3972518e-06 3.1975727e-05 9.017833e-05 4.3930766e-05 0.00015919103 0.00034271544 0.00012852726 7.259906e-07
4.4234425e-06 7.163429e-05 7.746341e-06 2.9293356e-06 0.00019265202 1.4631528e-06 6.988114e-07 5.1674847e-06
5.7550038e-05 2.2882421e-05 7.922302e-06 0.00021154877 0.0003247331 1.0183949e-05 0.00019914446 2.6994938e-05
0.00016862154 2.8615937e-05 0.00033808226 0.000112640184 5.6394285e-05 3.185206e-05 0.00013861342 3.7541682e-05
00000000: 35dc c737 e996 a238 3958 6d39 eb9e fd38
00000010: 3cf4 4f39 41ab 8837 90e9 e438 cf1f ba38
00000020: 1ca2 ef37 cd15 1138 9347 4939 1ed7 2c38
00000030: 2e95 bb39 a5ea b039 4229 e035 aa5a 1038
00000040: 1a89 fe37 432f 3139 490c 5a39 0049 9237
00000050: 89fc dd38 7bf8 f637 edff 5c38 632e c238
00000060: 002f 8138 5be0 9038 9a62 dd36 2764 1837
00000070: fed4 bb38 095f 2139 0169 9335 54ac 6d38
00000080: 3589 bb35 ad1d 0638 1f1e bd38 4d42 3838
00000090: 84ec 2639 7dae b339 46c5 0639 b2e1 4235
000000a0: 156d 9436 5e3a 9638 48f6 0137 9a95 4436
000000b0: a202 4a39 8c61 c435 f495 3b35 5b64 ad36
000000c0: e261 7138 a0f3 bf37 07ea 0437 31d3 5d39
000000d0: f040 aa39 badb 2a37 6fd1 5039 3073 e237
000000e0: 00d0 3039 420c f037 a240 b139 3d39 ec38
000000f0: e788 6c38 e498 0538 c258 1139 1376 1d38

module.model.1.model.3.weight f4 [64, 64, 3, 3]
-0.011072415 -0.0011142393 -0.043187637 0.031504083 -0.058754526 -0.04534306 0.043747026 0.063078575
-0.014956683 0.053161122 0.055357028 0.028316151 -0.024301497 -0.01402165 0.036429945 0.030816458
-0.041991394 -0.023797723 0.011972629 0.061683733 0.040203232 -0.025072956 -0.013231793 -0.018192835
0.07203636 0.032304335 -0.059824575 -0.008558807 -0.03436607 0.062521376 -0.06584197 0.025012605
0.031321462 -0.06556281 -0.023744673 0.042058684 -0.019548276 -0.0052005253 0.07203657 0.067041844
-0.05093576 -0.022617428 0.058678016 -0.032334797 0.020639258 -0.0014550537 0.0110805025 0.05963373
0.025477614 -0.038162876 -0.029356636 0.004032274 -0.010771646 0.012596111 -0.03511834 0.05613775
-0.06112623 0.019541148 0.06659115 0.04919232 -0.0442026 0.016722197 0.054655697 0.024508923
0.015178718 0.026691064 -0.036369562 -0.059917357 0.0147682065 0.027527029 -0.034138523 -0.020842569
-0.052002016 -0.03381066 0.0621736 -0.0036081714 -0.06816832 0.006850033 0.019488294 -0.054353427
-0.0643218 0.016151045 -6.58864e-06 0.011936045 -0.029775027 0.01170913 0.055402625 0.021885063
-0.06042862 -0.032756638 -0.017628096 0.033114072 0.034324225 -0.0507052 0.010320639 0.074057944
0.039003182 -0.03787638 -0.06801479 0.029467203 -0.058793332 -0.06824818 0.0053003165 0.042565256
0.043664187 0.031171732 -0.032720864 0.005786769 -0.06423894 0.04284641 -0.00062003406 0.020274997
0.037854012 0.05068648 0.05194611 0.02343875 0.012032931 0.062125918 0.020590514 0.051475972
-0.06577638 -0.024680497 0.006891249 0.05522267 -0.01214627 0.023027666 -0.0046640704 0.06975285
-0.025432762 0.026766028 -0.0039554243 -0.004102272 0.034493104 -0.06570832 0.009315124 -0.031806517
0.048741054 0.024267908 0.05339937 0.054111514 0.052896086 -0.026511712 0.021800758 0.054339744
-0.06739429 0.03478189 -0.037844203 0.04303963 0.054080896 -0.06978868 -0.0099616535 0.062704764
0.044821773 -0.06171072 0.00063108024 -0.010980193 -0.04481425 -0.03627531 -0.049433663 -0.027584156
-0.033489086 0.026565393 0.047809344 0.042124085 -0.06557716 0.0066487594 0.07329203 0.03329572
-0.006223917 0.073140025 0.0358067 0.04934657 0.014241305 -0.06600234 -0.011058721 0.024485577
0.009247257 -0.05138406 0.005066926 0.014778122 -0.0669302 0.06663675 0.060251188 0.003656707
-0.048544355 0.042056162 -0.05580763 0.031191539 0.013879158 -0.063089244 0.022967834 -0.0698855
0.06246461 0.02469029 -0.01626479 -0.059765704 -0.013717418 -0.028232288 0.016363522 0.020044988
0.056742467 -0.0512709 0.061822508 -0.041864686 0.0011904453 -0.02152886 0.029931823 -0.0026791624
-0.042240128 0.024469938 0.0029033169 -0.0063271793 -0.061909277 0.06810543 -0.044047646 0.0043475563
0.057214998 -0.0044986405 0.040474836 -0.0271037 0.044031326 -0.0293462 -0.017683208 -0.057423685
-0.009802398 0.047168907 0.030515479 -0.041201066 -0.028807266 0.01096449 -0.060404204 -0.053155694
-0.047514785 -0.004589638 -0.014412323 0.05698258 0.04662056 0.05677647 -0.0058251144 0.058347166
-0.022339322 0.05130585 0.053928167 0.023938723 -0.065675884 -0.020759953 0.026070932 0.032138404
0.06590097 -0.02322592 0.002246355 -0.064505436 0.0030006012 0.037912607 -0.071293145 -0.036189962
00000000: 1369 35bc ab0b 92ba 85e5 30bd 6d0a 013d
00000010: 96a8 70bd a5b9 39bd 1530 333d 572f 813d
00000020: e00c 75bc 7abf 593d 0dbe 623d 46f7 e73c
00000030: ef13 c7bc 10bb 65bc 9137 153d cc72 fc3c
00000040: 2bff 2bbd 71f3 c2bc d928 443c 15a8 7c3d
00000050: 25ac 243d cd65 cdbc 2aca 58bc 2409 95bc
00000060: cd87 933d 8d51 043d 9d0a 75bd 3d3a 0cbc
00000070: 70c3 0cbd 350b 803d 28d8 86bd 3ce7 cc3c
00000080: ef4a 003d cb45 86bd 3084 c2bc ba45 2c3d
00000090: b523 a0bc 2b69 aabb e987 933d 3c4d 893d
000000a0: 04a2 50bd 2f48 b9bc 5c58 703d 7e71 04bd
000000b0: a913 a93c 80b7 beba ff8a 353c 8042 743d
000000c0: 6eb6 d03c ad50 1cbd 547d f0bc 2a21 843b
000000d0: 8f7b 30bc eb5f 4e3c 40d8 0fbd b3f0 653d
000000e0: 7f5f 7abd c214 a03c f160 883d e37d 493d
000000f0: c90d 35bd fdfc 883c a7de 5f3d f0c6 c83c
00000100: 28b0 783c 38a7 da3c 40f8 14bd e76b 75bd
00000110: 59f6 713c 5d80 e13c d6d4 0bbd 09be aabc
00000120: 1100 55bd 0c7d 0abd bfa9 7e3d 1277 6cbb
00000130: d59b 8bbd 3e76 e03b eaa5 9f3c b3a1 5ebd
00000140: 26bb 83bd 324f 843c fd13 ddb6 678f 433c
00000150: c2ea f3bc a7d7 3f3c dded 623d 4e48 b33c
00000160: 0084 77bd d32b 06bd cc68 90bc 9fa2 073d
00000170: 8f97 0c3d 41b0 4fbd e617 293c b1ab 973d
00000180: cdc1 1f3d 4324 1bbd 574b 8bbd 3465 f13c
00000190: 47d1 70bd b4c5 8bbd 47ae ad3b e858 2e3d
000001a0: 38d9 323d dc5b ff3c 5006 06bd f09e bd3b
000001b0: b58f 83bd b87f 2f3d c889 22ba c017 a63c
000001c0: cf0c 1b3d a09c 4f3d 72c5 543d 9f02 c03c
000001d0: c525 453c bf77 7e3d 70ad a83c 78d8 523d
000001e0: c4b5 86bd c12e cabc fdcf e13b 2b31 623d
000001f0: 2601 47bc 84a4 bc3c 0fd5 98bb 95da 8e3d
00000200: 5e58 d0bc 6e44 db3c 819c 81bb 5a6c 86bb
00000210: a448 0d3d 1592 86bd 769e 183c 8d47 02bd
00000220: b3a4 473d 7ecd c63c 4cb9 5a3d 09a4 5d3d
00000230: 91a9 583d 172f d9bc 8197 b23c 5a93 5e3d
00000240: 0406 8abd 7577 0e3d 8602 1bbd 534a 303d
00000250: ee83 5d3d 5eed 8ebd 3436 23bc 5b6b 803d
00000260: 0997 373d 61c4 7cbd 146f 253a 44e6 33bc
00000270: 268f 37bd 6b95 14bd f47a 4abd 2bf8 e1bc
00000280: da2b 09bd ab9f d93c bbd3 433d 4e8a 2c3d
00000290: 514d 86bd d6dd d93b 221a 963d 1861 083d
000002a0: 00f2 cbbb 70ca 953d 0caa 123d a11f 4a3d
000002b0: 5d54 693c 3c2c 87bd a32f 35bc fa95 c83c
000002c0: cf81 173c 1878 52bd 7508 a63b f01f 723c
000002d0: b312 89bd d978 883d f3c9 763d 5da5 6f3b
000002e0: 72d6 46bd 1543 2c3d 8b96 64bd 6685 ff3c
000002f0: 6865 633c ef34 81bd 0a27 bc3c 2120 8fbd
00000300: e4da 7f3d 4b43 ca3c bd3d 85bc e2cc 74bd
00000310: 05bf 60bc 6647 e7bc cb0c 863c 6335 a43c
00000320: ca6a 683d 6f01 52bd 9939 7d3d 4e7a 2bbd
00000330: b708 9c3a 4b5d b0bc 9533 f53c e394 2fbb
00000340: fc03 2dbd 2e75 c83c 9345 3e3b 3a54 cfbb
00000350: 9594 7dbd dc7a 8b3d 4e6b 34bd f275 8e3b
00000360: 465a 6a3d 5569 93bb f1c8 253d 9408 debc
00000370: 315a 343d 7167 f0bc 60dc 90bc 1935 6bbd
00000380: 3d9a 20bc 2f34 413d 99fb f93c 73c2 28bd
00000390: 37fd ebbc 67a4 333c 666a 77bd c9b9 59bd
000003a0: dd9e 42bd ad64 96bb aa21 6cbc 9166 693d
000003b0: 33f5 3e3d 728e 683d 9ae0 bebb 70fd 6e3d
000003c0: f400 b7bc 1526 523d c8e3 5c3d 241b c43c
000003d0: 1481 86bd c710 aabc b592 d53c 8fa3 033d
000003e0: 16f7 863d 4944 bebc 9537 133b 6d1b 84bd
000003f0: bca5 443b 404a 1b3d 2402 92bd ed3b 14bd

module.model.1.model.3.bias f4 [64]
0.00047880795 0.0017598621 0.00045814196 0.0007658154 0.0017604876 0.00080442114 -5.4096272e-05 0.0013679634
0.0015825632 0.0009319976 0.0010296875 0.001624751 0.0006301122 0.0023958366 0.0017258248 0.00035210123
0.00033994828 0.0015853 0.0013464903 0.0014403157 0.0012031102 0.00029615118 0.00025051498 0.0019441119
0.00087006134 0.0011244775 0.0013560153 -7.0289104e-07 0.0007133428 0.0020890967 0.000674994 0.0013958508
0.0012251243 0.00152496 0.000449701 0.0020527223 0.0017593312 0.0004631773 0.0015866862 0.0012361082
0.0019786796 0.00021305172 0.00082684925 0.0005354649 0.00092005206 0.0010556576 0.0012095388 0.00067679584
0.001249587 0.0019300374 0.00085104466 0.0013102423 0.0015633263 0.0012174607 0.000673984 0.000791836
0.00044411502 0.0013136595 0.0008561853 0.0010463977 0.0006453477 0.0020222452 0.0019174117 0.0005694386
00000000: 8408 fb39 2cab e63a c632 f039 00c1 483a
00000010: 29c0 e63a cadf 523a 6ee5 62b8 3c4d b33a
00000020: 026e cf3a 4d51 743a 94f6 863a 99f5 d43a
00000030: 1d2e 253a 7803 1d3b 1235 e23a 3a9a b839
00000040: 163b b239 d7c9 cf3a b87c b03a fac8 bc3a
00000050: aeb1 9d3a bd44 9b39 8d57 8339 92d1 fe3a
00000060: d414 643a 3463 933a 53bc b13a 4eae 3cb5
00000070: a0ff 3a3a 3ae9 083b 15f2 303a fbf4 b63a
00000080: 5a94 a03a 2be1 c73a d9c5 eb39 f786 063b
00000090: 5c99 e63a 9bd6 f239 5bf8 cf3a e904 a23a
000000a0: bcac 013b a366 5f39 eac0 583a 715e 0c3a
000000b0: a62f 713a fe5d 8a3a 6389 9e3a 006b 313a
000000c0: 2fc9 a33a 4ff9 fc3a a418 5f3a 70bc ab3a
000000d0: 87e8 cc3a 3493 9f3a 4dae 303a 3793 4f3a
000000e0: 1cd8 e839 192f ac3a 9f71 603a 4827 893a
000000f0: 8d2c 293a a587 043b a951 fb3a 6146 153a

module.model.1.model.4.weight f4 [64]
1.0025082 0.99731547 1.0022528 1.0028099 0.9975659 1.0020653 1.0024985 0.9981383
0.99807686 0.9993495 1.0025411 0.997334 1.0026405 0.99775827 0.99775225 1.0018879
1.0024049 0.9972529 0.9975943 0.99755967 0.997285 1.0026524 1.002297 0.9973333
1.0019176 0.9986834 1.0019027 1.0025467 1.0018688 0.99759394 1.002433 0.9977118
0.9976956 1.0013614 1.0021713 0.99764496 0.99742985 1.002349 0.9976041 0.997346
0.9973761 1.0023365 1.0028265 1.0027072 0.99934274 1.0017754 0.9991744 1.0024787
0.99729216 0.9976517 0.99778104 1.0000905 0.9982621 0.99854904 0.99846613 0.9996011
1.0027876 1.0002536 1.002559 0.99805313 1.0021374 0.99764 0.99768025 1.0029657
00000000: 3052 803f 1150 7f3f d249 803f 135c 803f
00000010: 7b60 7f3f ad43 803f df51 803f fe85 7f3f
00000020: f781 7f3f 5ed5 7f3f 4453 803f 4851 7f3f
00000030: 8656 803f 166d 7f3f b16c 7f3f dd3d 803f
00000040: ce4e 803f f74b 7f3f 5762 7f3f 1260 7f3f
00000050: 124e 7f3f ea56 803f 454b 803f 3c51 7f3f
00000060: d63e 803f b7a9 7f3f 593e 803f 7353 803f
00000070: 3d3d 803f 5162 7f3f b94f 803f 0a6a 7f3f
00000080: fb68 7f3f 9c2c 803f 2647 803f a965 7f3f
00000090: 9057 7f3f f94c 803f fb62 7f3f 1152 7f3f
000000a0: 0a54 7f3f 904c 803f 9e5c 803f b658 803f
000000b0: edd4 7f3f 2d3a 803f e5c9 7f3f 3951 803f
000000c0: 8a4e 7f3f 1a66 7f3f 946e 7f3f f702 803f
000000d0: 1b8e 7f3f e9a0 7f3f 7a9b 7f3f dce5 7f3f
000000e0: 585b 803f 4f08 803f da53 803f 6980 7f3f
000000f0: 0a46 803f 5665 7f3f f967 7f3f 2e61 803f

module.model.1.model.4.bias f4 [64]
0.0026772395 -0.0027812922 0.0026020806 0.002932893 -0.0026617488 0.0026160271 0.0026095274 -0.0023960562
-0.002401189 -0.0029363523 0.0025730738 -0.0027096837 0.0026575446 -0.0024311922 -0.0023306867 0.0024540783
0.0026686536 -0.0027247132 -0.002469054 -0.0024363564 -0.0026358096 0.0023778882 0.0026220737 -0.0026146143
0.0024123495 -0.0020420793 -0.002559288 0.0025498972 0.0008707995 -0.0025687604 0.0024285745 -0.0022288344
-0.0024138382 -0.002544904 0.0027339158 -0.002480927 -0.0026108767 0.0025928887 -0.0024557847 -0.0026082222
-0.0026440972 0.002626377 0.002774011 0.0025948389 -0.0025110336 0.002582256 -0.0010758656 0.0025626356
-0.0016226679 -0.0024318402 -0.0015048094 -0.002292705 -0.0019884566 -0.002288398 0.0011652337 0.0030528165
0.002841706 -0.0023664476 0.0024598863 -0.0026217639 0.0025245468 -0.0024082223 -0.002406609 0.0029126941
00000000: a074 2f3b 5746 36bb ab87 2a3b c835 403b
00000010: bc70 2ebb a771 2b3b 9b04 2b3b 2707 1dbb
00000020: 445d 1dbb d16f 40bb 04a1 283b f394 31bb
00000030: 332a 2e3b a354 1fbb 6fbe 18bb 9ad4 203b
00000040: 94e4 2e3b 1a91 32bb dacf 21bb 47ab 1fbb
00000050: 8cbd 2cbb 58d6 1b3b 19d7 2b3b f359 2bbb
00000060: 8218 1e3b 68d4 05bb bab9 27bb 2d1c 273b
00000070: 5d46 643a a658 28bb b828 1f3b a311 12bb
00000080: 7c31 1ebb 67c8 26bb 7f2b 333b 0c97 22bb
00000090: 3e1b 2bbb 74ed 293b 3bf1 20bb b5ee 2abb
000000a0: 9748 2dbb 4b1f 2c3b 2fcc 353b 2c0e 2a3b
000000b0: 2790 24bb 113b 293b 0f04 8dba e4f1 273b
000000c0: b3af d4ba 825f 1fbb 063d c5ba 3541 16bb
000000d0: c450 02bb f3f8 15bb c1ba 983a c311 483b
000000e0: ea3b 3a3b 6716 1bbb 0b36 213b e6d1 2bbb
000000f0: de72 253b 44d3 1dbb 33b8 1dbb e6e2 3e3b

module.model.1.model.4.running_mean f4 [64]
0.32221016 -0.4348713 -0.14663734 0.15184377 -0.018002352 -0.20962477 0.11299245 0.43199098
-0.36031306 -0.4058383 0.56287766 -0.3492266 -0.134202 -0.58917737 -0.032748517 0.2922258
0.19100314 0.27105412 0.23789296 -0.66318315 0.3796153 0.08475237 -0.20001379 0.31520042
-0.5206902 0.16233845 0.4244813 -0.083144434 -0.34250322 0.019148506 0.046368845 -0.37379307
0.04427312 0.97733676 -0.25476444 -0.41864648 -0.21260093 -0.03351141 0.30547795 0.5700848
-0.25261787 0.10030471 -0.6694369 -0.0023214226 0.57898283 0.45886147 -0.085425965 0.26532775
-0.498293 0.22496656 0.40326056 0.5380236 -0.5186693 0.28603354 -0.43869093 -0.54188305
-0.41572097 0.2628985 0.26582748 0.75506496 0.15165867 -0.11084285 -0.4396937 -0.3404264
00000000: bbf8 a43e 73a7 debe 1928 16be ef7c 1b3e
00000010: ab79 93bc e0a7 56be 9668 e73d ec2d dd3e
00000020: f47a b8be 0aca cfbe c018 103f d4cd b2be
00000030: 406c 09be 54d4 16bf 4f23 06bd 9f9e 953e
00000040: 5496 433e 9bc7 8a3e 369a 733e 5fc6 29bf
00000050: f05c c23e a792 ad3d 6ad0 4cbe f361 a13e
00000060: f44b 05bf 0d3c 263e 9d55 d93e a147 aabd
00000070: 955c afbe 54dd 9c3c 42ed 3d3d ce61 bfbe
00000080: bb57 353d be32 7a3f 7c70 82be d558 d6be
00000090: 0fb4 59be 4343 09bd 9b67 9c3e 14f1 113f
000000a0: 2157 81be 8e6c cd3d 3760 2bbf 0223 18bb
000000b0: 3838 143f e4ef ea3e cff3 aebd 0ad9 873e
000000c0: 4320 ffbe a25d 663e 2b78 ce3e eabb 093f
000000d0: 83c7 04bf fd72 923e 199c e0be d9b8 0abf
000000e0: 61d9 d4be a29a 863e 8a1a 883e f04b 413f
000000f0: 694c 1b3e 9301 e3bd 881f e1be 5e4c aebe

module.model.1.model.4.running_var f4 [64]
0.55819 0.24410617 0.52376556 0.45580888 0.46871063 0.6935558 0.06615329 0.22931963
1.0661498 0.31918815 0.3876886 0.078024566 0.49547648 0.21645993 0.615069 0.1335193
0.090617545 0.03040568 0.052787304 0.28618622 0.052237738 0.57929385 0.025068691 0.93662626
0.13009855 0.67326874 0.11898032 0.029671393 0.20416135 0.15731524 0.32961276 0.08959306
0.33368143 0.352425 0.4305906 0.591892 0.24056338 0.58997476 0.06163837 0.12773488
0.18505047 1.8437535 0.12813506 0.12722331 0.15652065 0.73592377 1.1992948 0.38430014
0.17943627 0.94856185 0.034534257 0.07644525 0.7582809 1.1656353 0.15269524 0.6433047
1.1013445 0.22040139 0.09521682 0.33903986 0.70605594 0.101115726 0.76917136 0.21344423
00000000: 8ae5 0e3f f8f6 793e 8015 063f c85f e93e
00000010: d7fa ef3e df8c 313f 607b 873d c4d2 6a3e
00000020: 9977 883f a16c a33e 1f7f c63e 58cb 9f3d
00000030: 18af fd3e aca7 5d3e 2975 1d3f 49b9 083e
00000040: b195 b93d 5515 f93c 8037 583d 0087 923e
00000050: 3df7 553d 9a4c 143f db5c cd3c bdc6 6f3f
00000060: 8e38 053e 575b 2c3f f4ab f33d 6c11 f33c
00000070: ac0f 513e 3f17 213e 01c3 a83e 917c b73d
00000080: 4bd8 aa3e 0d71 b43e 5f76 dc3e 3c86 173f
00000090: 3f56 763e 9608 173f 8478 7c3d efcc 023e
000000a0: df7d 3d3e 1d00 ec3f d635 033e d446 023e
000000b0: f346 203e 8065 3c3f 7e82 993f fdc2 c43e
000000c0: 24be 373e f3d4 723f cb73 0d3d 548f 9c3d
000000d0: b21e 423f 8a33 953f 245c 1c3e 9eaf 243f
000000e0: dbf8 8c3f e7b0 613e 0901 c33d a296 ad3e
000000f0: 15c0 343f c315 cf3d 6ae8 443f 2091 5a3e

module.model.2.model.0.weight f4 [64, 64, 3, 3]
-0.07273645 -0.03210555 0.051901672 0.0091790715 -0.043527354 -0.027142186 0.06684674 -0.034686394
0.06194859 0.058215156 -0.02682614 -0.014780867 -0.0418822 0.012482545 0.020507883 -0.010846935
0.05809846 0.061969038 -0.06707886 -0.005197053 -0.06372644 -0.028813675 0.014966365 -0.005601542
0.051618543 -0.03801718 -0.06716529 -0.021115826 -0.06989121 0.044548333 0.035238136 0.046115324
0.017638637 0.010881984 0.006628009 -0.059089493 0.045835365 -0.03972512 0.034620073 0.021961436
-0.0496207 0.007562158 0.0039053108 0.023340715 -0.0065403394 0.039107423 -0.029979821 -0.057750337
-0.07304238 0.04666127 -0.049999993 0.007922381 0.064724326 0.04122155 -0.038515095 0.061177153
-0.017281404 -0.036470976 -0.021269828 -0.013100406 -0.01604115 0.064596914 -0.009193649 0.016177762
0.019457323 -0.022000216 0.03227134 -0.05559529 -0.0053790826 -0.019686224 -0.043369103 -0.041600592
0.04422522 -0.04852636 -0.04064786 0.012306245 -0.070204884 0.044487193 -0.01767915 0.050686527
-0.012689826 0.003725703 0.045116704 0.026951097 -0.021070749 0.067005426 0.030557707 -0.0038349666
-0.010356381 0.038316824 0.054419484 -0.010100101 0.05312647 -0.0005994059 -0.05027072 -0.040472373
-0.06205208 -0.009911305 -0.059986215 -0.047677584 0.054606628 -0.029592166 -0.021843351 -0.013778393
0.062304392 -0.030597653 0.05086363 -0.03011855 0.04910451 -0.0062237396 0.06245261 -0.013762967
-0.0018209168 0.018020382 0.040408473 0.023536785 0.05755153 -0.028816879 0.06598038 -0.019589113
-0.06112293 0.05574433 0.053175937 -0.03911026 -0.03637095 -0.0067133573 0.019742858 -0.0155257955
-0.013864373 -0.046884023 0.06960157 -0.043130048 0.056378357 0.06902221 -0.013714506 0.05266975
-0.02967505 0.008214699 -0.0007992099 0.062098663 -0.04270289 0.015510897 -0.065595485 0.061962076
-0.030859543 0.04319838 0.02387965 0.059565358 -0.03584859 -0.064065054 -0.02492942 -0.04203108
-0.0083788335 -0.059869576 0.03868088 -0.06870408 0.0454955 0.0027543132 0.059940163 -0.07312557
0.02921573 0.034079168 0.035545554 -0.06294963 -0.007977614 -0.06833107 -0.06241839 -0.020065885
-0.05666111 -0.06116924 0.025707673 -0.03837546 0.010623983 -0.02631778 -0.05415593 -0.06830267
0.002936519 -0.07215068 -0.009779743 -0.008262636 0.015812663 0.020130742 -0.009109846 -0.0010593609
0.010760704 -0.011695867 -0.032095317 -0.046821404 0.02031448 -0.013730663 -0.0071935663 -0.05138469
0.014532373 -0.019096766 0.04792272 -0.034827977 0.05227846 0.029449573 -0.070126764 -0.00064109854
-0.05588727 0.0010721943 -0.04860386 -0.006963232 -0.013278322 -0.028021961 0.016674256 -0.033762902
0.026582027 -0.056528028 -0.0012359 -0.030787397 -0.06234549 -0.056380384 0.01854171 -0.009344384
0.013818923 0.059213452 0.02084372 0.028569834 -0.05746913 -0.067364365 0.07125635 0.019420464
-0.041959424 -0.04090791 0.07087083 0.06726216 0.030595195 -0.03807852 0.0012753021 -0.043814734
-0.02026616 -0.044136778 0.031568415 -0.004072249 -0.026067376 -0.0027225874 0.044246405 0.059111744
-0.064957395 0.036226038 0.0591084 -0.063528284 -0.054419015 -0.011717741 0.050676778 -0.040940873
0.057072245 0.053425763 0.041214988 -0.008740057 -0.06300754 -0.0518171 -0.06945763 0.020681141
00000000: d9f6 94bd 1c81 03bd d996 543d d163 163c
00000010: bd49 32bd 4a59 debc f2e6 883d 5213 0ebd
00000020: cebd 7d3d 0473 6e3d 7ec2 dbbc 732b 72bc
00000030: ab8c 2bbd 9783 4c3c 2600 a83c 58b7 31bc
00000040: a7f8 6d3d 3fd3 7d3d a460 89bd 0a4c aabb
00000050: 0283 82bd a80a ecbc 7c35 753c 248d b7bb
00000060: f76d 533d e7b7 1bbd f58d 89bd 19fb acbc
00000070: 1f23 8fbd 5078 363d dd55 103d 6ce3 3c3d
00000080: e77e 903c 594a 323c c52f d93b d307 72bd
00000090: ddbd 3b3d cfb6 22bd c7cd 0d3d 78e8 b33c
000000a0: 133f 4bbd fbcb f73b 3ef0 7f3b 0735 bf3c
000000b0: 5850 d6bb 1b2f 203d 3e98 f5bc 9e8b 6cbd
000000c0: 3e97 95bd e31f 3f3d cbcc 4cbd e0cc 013c
000000d0: 308e 843d eed7 283d 01c2 1dbd e594 7a3d
000000e0: bb91 8dbc 9762 15bd 103e aebc 16a3 56bc
000000f0: bb68 83bc 634b 843d f5a0 16bc 3a87 843c
00000100: f764 9f3c cc39 b4bc f42e 043d e3b7 63bd
00000110: 0443 b0bb 0145 a1bc cda3 31bd 6265 2abd
00000120: 8125 353d 94c3 46bd 5f7e 26bd 22a0 493c
00000130: 94c7 8fbd 3438 363d ddd3 90bc ad9c 4f3d
00000140: fde8 4fbc ed2a 743b 4bcc 383d 8cc8 dc3c
00000150: 909c acbc 243a 893d 2854 fa3c 1054 7bbb
00000160: cfad 29bc 1af2 1c3d f7e6 5e3d e57a 25bc
00000170: 249b 593d 7321 1dba ace8 4dbd 5cc6 25bd
00000180: 522a 7ebd 0763 22bc 1bb4 75bd 9249 43bd
00000190: 33ab 5f3d 456b f2bc d4f0 b2bc c5be 61bc
000001a0: e432 7f3d eea7 fabc 6256 503d 2dbb f6bc
000001b0: d021 493d 83f0 cbbb 4fce 7f3d 117e 61bc
000001c0: d4ab eeba 7b9f 933c 5b83 253d 37d0 c03c
000001d0: 27bb 6b3d 6011 ecbc b920 873d 5979 a0bc
000001e0: 0a5c 7abd 2b54 643d 03cf 593d 1432 20bd
000001f0: b5f9 14bd b9fb dbbb c6bb a13c e85f 7ebc
00000200: 6527 63bc 7609 40bd 458b 8e3d 22a9 30bd
00000210: feec 663d 845b 8d3d cfb2 60bc 3cbc 573d
00000220: 1719 f3bc f296 063c 1282 51ba 2b5b 7e3d
00000230: 3ae9 2ebd 6b21 7e3c ed56 86bd f2cb 7d3d
00000240: 27cd fcbc c9f0 303d 419f c33c cefa 733d
00000250: f9d5 12bd 8a34 83bd c838 ccbc c828 2cbd
00000260: 6047 09bc cd39 75bd d86f 1e3d bab4 8cbd
00000270: 7d59 3a3d b581 343b d183 753d dcc2 95bd
00000280: d455 ef3c 9996 0b3d 3798 113d bceb 80bd
00000290: 8ab4 02bc 29f1 8bbd 6daa 7fbd 3661 a4bc
000002a0: 7b15 68bd 998c 7abd e698 d23c 962f 1dbd
000002b0: 3710 2e3c 6398 d7bc 9cd2 5dbd 45e2 8bbd
000002c0: 9d72 403b bcc3 93bd 373b 20bc 0260 07bc
000002d0: 8f89 813c 3ae9 a43c 7741 15bc 41da 8aba
000002e0: aa4d 303c 06a0 3fbc 6176 03bd cdc7 3fbd
000002f0: 8d6a a63c 93f6 60bc 02b8 ebbb c178 52bd
00000300: 3119 6e3c d270 9cbc 9d4a 443d c8a7 0ebd
00000310: f021 563d 3b40 f13c 9f9e 8fbd 650f 28ba
00000320: 0dea 64bd df88 8c3a d714 47bd d32b e4bb
00000330: 528d 59bc 508e e5bc 7398 883c f84a 0abd
00000340: 8dc2 d93c ef89 67bd ecfd a1ba da35 fcbc
00000350: fc5d 7fbd 1eef 66bd c9e4 973c 3019 19bc
00000360: c468 623c ce89 723d 73c0 aa3c 490b ea3c
00000370: c064 6bbd 54f6 89bd d9ee 913d aa17 9f3c
00000380: a5dd 2bbd 0d8f 27bd ba24 913d bec0 893d
00000390: c6a2 fa3c 39f8 1bbd 0a28 a73a 1477 33bd
000003a0: 3805 a6bc c4c8 34bd e24d 013d 8070 85bb
000003b0: 408b d5bc 706d 32bb b83b 353d 281f 723d
000003c0: 6208 85bd c161 143d a61b 723d 1e1b 82bd
000003d0: 79e6 5ebd c5fb 3fbc 7492 4f3d 9eb1 27bd
000003e0: 96c4 693d f9d4 5a3d 0cd1 283d 7532 0fbc
000003f0: 190a 81bd 2b3e 54bd cd3f 8ebd 7f6b a93c

module.model.2.model.0.bias f4 [64]
0.0010358286 0.00085994956 0.0008070491 0.0012611521 0.0010947511 0.0010052149 0.000648954 0.0011087509
0.0009773882 0.0006346581 0.0011799737 0.0011073417 0.0011682129 0.0010529124 0.001047258 0.0009239597
0.0011579087 0.0009568801 0.0011130541 0.0009805575 0.0009341891 0.00049369 0.0007435331 0.0011087013
0.0010407253 0.0012108805 0.00085277663 0.0012763258 0.0011381129 0.0013234661 0.0010203449 0.0011638771
0.0010135078 0.00091320573 0.00091610214 0.0010233038 0.0010558964 0.00063013233 0.00084167696 0.0011066163
0.00094930665 0.00055974285 0.0010776246 0.0012847689 0.0011576504 0.0013926156 0.00072666985 0.000936091
0.00089777925 0.0012817453 0.0010105373 0.00064867054 0.0012016853 0.0009257697 0.0009156758 0.00088988064
0.0009502803 0.00088128686 0.0012117021 0.0010058383 0.00076770864 0.001084696 0.0010935552 0.0008441914
00000000: a4c4 873a 3d6e 613a 2690 533a 3e4d a53a
00000010: c07d 8f3a 6ac1 833a 911e 2a3a 8253 913a
00000020: b51b 803a 2f5f 263a 59a9 9a3a 3924 913a
00000030: b81e 993a e101 8a3a 2644 893a e335 723a
00000040: f8c4 973a 23d7 7a3a e6e3 913a 0d86 803a
00000050: 5fe4 743a fa6a 013a a9e9 423a d851 913a
00000060: f268 883a 68b6 9e3a df8c 5f3a 634a a73a
00000070: bb2c 953a 2778 ad3a 18bd 853a 3c8d 983a
00000080: aed7 843a 3364 6f3a 9326 703a 6120 863a
00000090: 0166 8a3a 772f 253a fca3 5c3a e20b 913a
000000a0: e4da 783a b5bb 123a 153f 8d3a b165 a83a
000000b0: 4dbc 973a 6d88 b63a fd7d 3e3a 0164 753a
000000c0: f258 6b3a 3c00 a83a 0174 843a 8b0b 2a3a
000000d0: de81 9d3a 5aaf 723a f609 703a e146 693a
000000e0: 3b1c 793a 2906 673a fad1 9e3a 55d6 833a
000000f0: 0e40 493a 5c2c 8e3a a055 8f3a ba4c 5d3a

module.model.2.model.1.weight f4 [64]
0.9990098 1.0001975 1.0027051 1.0004126 0.998077 0.9989035 1.0025717 1.0018804
0.99835825 1.0021781 0.99796385 0.9974772 0.9982494 0.99854124 1.0013585 1.0017081
0.99817294 1.0018504 0.9984244 1.0012424 1.0003732 1.0027567 1.0021584 0.9983966
1.0004914 0.99847233 0.9986075 0.9972781 1.001788 1.0023568 1.0016552 0.99934965
0.999274 0.99829465 0.9999031 0.9993717 0.9977008 1.002203 1.0015042 0.9989686
0.9988802 1.0023363 0.9990522 0.9989564 0.99746877 0.9974059 1.0009038 0.99991465
0.9996157 0.99783534 1.0005796 1.0027727 0.9976106 1.0007282 0.99850476 1.0021038
0.9982998 1.0013485 0.99773324 0.99771315 1.0022175 0.9977528 0.9974004 1.0015227
00000000: 1bbf 7f3f 7906 803f a458 803f 850d 803f
00000010: f981 7f3f 24b8 7f3f 4554 803f 9e3d 803f
00000020: 6894 7f3f 5f47 803f 8f7a 7f3f aa5a 7f3f
00000030: 468d 7f3f 66a0 7f3f 842c 803f f937 803f
00000040: 4388 7f3f a23c 803f be98 7f3f b628 803f
00000050: 3b0c 803f 555a 803f ba46 803f eb96 7f3f
00000060: 1a10 803f e29b 7f3f bea4 7f3f 9e4d 7f3f
00000070: 973a 803f 3a4d 803f 3d36 803f 61d5 7f3f
00000080: 6cd0 7f3f 3d90 7f3f a6f9 7f3f d3d6 7f3f
00000090: 5269 7f3f 3048 803f 4a31 803f 68bc 7f3f
000000a0: 9db6 7f3f 8e4c 803f e3c1 7f3f 9bbb 7f3f
000000b0: 1d5a 7f3f fe55 7f3f 9e1d 803f 68fa 7f3f
000000c0: d1e6 7f3f 2372 7f3f fe12 803f db5a 803f
000000d0: 6963 7f3f dd17 803f 029e 7f3f f044 803f
000000e0: 9390 7f3f 302c 803f 726b 7f3f 216a 7f3f
000000f0: aa48 803f ba6c 7f3f a255 7f3f e531 803f

module.model.2.model.1.bias f4 [64]
-0.0011902573 0.00066846353 0.002435432 -0.0010662042 -0.0016656088 -0.0019981011 0.0028412607 0.0026979966
0.00038992707 0.0024520091 -0.0020628269 -0.0027262124 -0.001910934 -0.0020842445 0.0004074273 -0.0011126461
-0.0019868533 0.0027398432 -0.0021235093 0.0008485957 0.0026131398 0.0027704737 0.0013516131 -0.0026849844
0.0023500083 0.0005793659 -0.0026820034 -0.0018596505 0.00200825 0.001824472 0.0009846211 -0.0016490243
-0.0019483924 1.2682319e-05 0.0020834673 -0.0012047032 -0.0018535809 0.0026333837 0.0017476532 -0.001226781
0.0012982202 0.0021899466 -0.00013190118 -0.0023121373 -0.002665091 -0.0024795048 0.0023359982 0.00057382125
0.00085632916 -0.0022206935 -0.00031023164 0.0027554627 -0.0022331714 -0.0001251106 -0.0010930654 0.0018234195
0.0012057178 0.0014135048 -0.002625531 -0.0025493202 0.002298699 -0.0021218574 -0.0024545137 0.0020147003
00000000: 6802 9cba d43b 2f3a c59b 1f3b e0bf 8bba
00000010: 8f50 daba 93f2 02bb 7234 3a3b dfd0 303b
00000020: 206f cc39 e3b1 203b 7e30 07bb 41aa 32bb
00000030: 4e78 faba d297 08bb f79b d539 35d6 91ba
00000040: de35 02bb f18e 333b 932a 0bbb 4b74 5e3a
00000050: 3641 2b3b d690 353b 9c28 b13a 90f6 2fbb
00000060: 9902 1a3b 96e0 173a 8dc4 2fbb 84bf f3ba
00000070: d89c 033b 1f23 ef3a 670e 813a 1324 d8ba
00000080: 3361 ffba 25c6 5437 c88a 083b 22e7 9dba
00000090: dbf3 f2ba d994 2c3b 8311 e53a f1cb a0ba
000000a0: 0b29 aa3a 3585 0f3b f44e 0ab9 3a87 17bb
000000b0: cfa8 2ebb 307f 22bb 8c17 193b 7e6c 163a
000000c0: 477b 603a 0e89 11bb 96a6 a2b9 fe94 343b
000000d0: 665a 12bb 1f30 03b9 3045 8fba ceff ee3a
000000e0: 2d09 9e3a 5a45 b93a 1a11 2cbb 7f12 27bb
000000f0: c5a5 163b dc0e 0bbb e8db 20bb 1009 043b

module.model.2.model.1.running_mean f4 [64]
0.016018191 -0.1374068 0.014955804 1.0028266 0.19394681 0.20678751 -0.4013125 0.36697158
-0.3206367 -0.076418035 -0.38699037 0.14663142 -0.03161687 -0.23310615 0.4236462 0.4643173
-0.13956705 -0.18597297 -0.11221293 -0.007851172 -0.59358716 -0.2969706 -0.0108195385 -0.062720485
0.16917402 -0.554689 0.5712004 -0.44427395 0.5179591 0.4833527 0.060461603 -0.069088265
0.4189149 0.029749995 0.38473246 -0.16951007 -0.101770416 -0.8460104 -0.0063285907 0.044015158
-0.24465166 0.0881929 0.37741178 0.39493158 -0.3651524 -0.13028838 -0.34936297 0.1445538
-0.024775762 -0.114551015 0.32753676 -0.19970568 -0.22411485 -0.023454482 -0.1421458 0.60168284
0.39740324 -0.06861997 -0.29116502 0.0013283113 0.081507504 -0.12739244 0.3421448 0.032430828
00000000: 9538 833c 5eb4 0cbe 3009 753c 9f5c 803f
00000010: fe99 463e 1bc0 533e d578 cdbe b3e3 bb3e
00000020: 7e2a a4be 0f81 9cbd 9a23 c6be 8c26 163e
00000030: b180 01bd 61b3 6ebe 28e8 d83e ffba ed3e
00000040: aaea 0ebe b36f 3ebe e5cf e5bd 34a2 00bc
00000050: 54f5 17bf 880c 98be 6f44 31bc 9973 80bd
00000060: f43b 2d3e 1900 0ebf 303a 123f e077 e3be
00000070: f898 043f 017a f73e 96a6 773d 267e 8dbd
00000080: 047c d63e 43b6 f33c a7fb c43e 0c94 2dbe
00000090: 026d d0bd 2394 58bf 1160 cfbb 3d49 343d
000000a0: f785 7abe 7b9e b43d 1e3c c13e 7934 ca3e
000000b0: 41f5 babe 516a 05be b4df b2be e905 143e
000000c0: 8af6 cabc b999 eabd e6b2 a73e a57f 4cbe
000000d0: 5d7e 65be 9d23 c0bc ab8e 11be e307 1a3f
000000e0: 7078 cb3e a088 8cbd 9513 95be bb1a ae3a
000000f0: 68ed a63d 2a73 02be 9a2d af3e 30d6 043d

module.model.2.model.1.running_var f4 [64]
0.41839245 1.0319899 0.2160071 0.38467515 0.44789955 1.0892168 2.0500062 0.373971
0.94535714 0.2904296 0.26632375 0.41625395 0.38072866 0.4212155 0.5045072 0.06285651
1.114541 0.43740416 0.62662673 0.26128647 0.5191758 0.6970889 0.047735076 0.11264842
1.4705712 0.32051387 0.08052025 0.18939222 0.2742667 0.2359185 0.2184288 0.056675423
1.2708229 0.11563893 0.6779702 0.26246223 0.98269755 1.0644957 0.25109497 0.07493035
0.41970727 0.52195615 0.11723576 0.40190914 0.21451117 0.4631314 0.6543411 0.21898252
0.270347 0.12071114 0.07468626 0.18411422 0.3876981 0.76486987 0.12243971 0.9200364
1.1353164 0.097392336 0.1543497 0.2853159 1.0762174 0.1843502 1.143415 0.62093437
00000000: 8937 d63e 3f18 843f f730 5d3e 24f4 c43e
00000010: 1753 e53e 756b 8b3f 4d33 0340 2079 bf3e
00000020: ed02 723f 30b3 943e 965b 883e 3d1f d53e
00000030: deee c23e 8fa9 d73e 6227 013f eaba 803d
00000040: 48a9 8e3f 70f3 df3e 9c6a 203f 57c7 853e
00000050: b5e8 043f 6b74 323f db85 433d 37b4 e63d
00000060: ad3b bc3f 651a a43e cde7 a43d 09f0 413e
00000070: af6c 8c3e 9f94 713e cdab 5f3e 7d24 683d
00000080: 53aa a23f 1ad4 ec3d 748f 2d3f 7361 863e
00000090: 1192 7b3f 6541 883f 858f 803e 1575 993d
000000a0: dfe3 d63e eb9e 053f 4d19 f03d 09c7 cd3e
000000b0: d1a8 5b3e 8f1f ed3e e682 273f f43c 603e
000000c0: ec6a 8a3e 6737 f73d 1cf5 983d 7088 3c3e
000000d0: 5e80 c63e 83ce 433f acc1 fa3d 8187 6b3f
000000e0: 0c52 913f a275 c73d d90d 1e3e ed14 923e
000000f0: 7ec1 893f 4dc6 3c3e 6c5b 923f 8ef5 1e3f
