output_nn_denoise/ckpt/resnet_epoch14.pth (torch, 641699 bytes, 31 tensors)

module.model.0.weight f4 [64, 1, 1, 1]
000000 6a c2 22 be 1d 32 26 be 04 5d 80 3e 81 32 13 bd
       -0.15894476 -0.16230054 0.25070965 -0.035936836
000010 a9 02 53 be aa 13 47 3e 22 3c df 3c bf f4 78 3e
       -0.20606484 0.19441095 0.027250353 0.24312113
000020 b4 a2 13 be e8 ce 17 be d2 72 90 3e 63 58 f5 3c
       -0.14417535 -0.14825022 0.282126 0.029949373
000030 b0 f0 3d be 41 57 3e be b0 f3 35 3d 11 de 1c 3e
       -0.18548846 -0.18587972 0.04442185 0.15319087
000040 44 6b 96 be b9 3a 0b 3e b6 21 3f be c8 f8 e7 bd
       -0.29378712 0.1359662 -0.18665203 -0.11326748
000050 20 90 41 be e8 a4 03 3e c8 6b 01 bc 7e 2f 81 3e
       -0.18902636 0.12855875 -0.007899232 0.25231546
000060 f8 f7 fb bd ed 0a 99 bd a3 86 6d be cd d9 8e 3e
       -0.12303156 -0.07472787 -0.23195891 0.27900544
000070 cc 4c da bd 69 72 7e be 33 e5 a3 bd 1f 28 85 be
       -0.10659179 -0.24848332 -0.08002701 -0.26007172
000080 e3 80 9f bd 42 cd 8a 3d 56 ff 28 be 6e bc 1e 3e
       -0.07788255 0.06777431 -0.16503653 0.15501568
000090 28 30 8e bd 38 1e f2 bd 4e 43 87 3e 83 68 06 3c
       -0.06942779 -0.1182217 0.26418537 0.0082036285
0000a0 29 20 76 be 0f fe 98 be 21 7b 20 be dd 33 1a 3e
       -0.24035706 -0.2988133 -0.1567197 0.15058847
0000b0 ca 53 87 be c9 e7 b7 3d d1 d5 40 be 29 92 86 3e
       -0.26431113 0.089797564 -0.18831564 0.26283386
0000c0 e3 77 50 3e 4b 98 d4 bd b0 17 8e 3e 4c f3 95 bd
       0.20358233 -0.1038061 0.27752447 -0.07321796
0000d0 6e 9b 46 be 4a 3f cc 3c 09 9f 57 3e 59 7a bd bc
       -0.19395229 0.024932522 0.21056761 -0.023129629
0000e0 1d db 97 be a8 2d 94 ba 4d ed 93 be e4 52 62 bc
       -0.29659358 -0.001130511 -0.28891984 -0.013813708
0000f0 52 fb 92 3d d8 e7 80 3e 67 02 d1 3c 3d 29 1a 3e
       0.07176842 0.25176883 0.02551384 0.15054794

module.model.0.bias f4 [64]
000000 1c 13 e7 3a cb 46 8f 39 94 83 1c 3b 65 3d 1f 3b
       0.0017629596 0.0002732783 0.0023882138 0.0024298069
000010 1f 2c 15 ba f0 67 0e 3b 3f 3a 0f 3b 63 09 00 ba
       -0.00056904735 0.0021729432 0.0021854786 -0.0004884211
000020 56 eb b6 b9 8d 42 90 38 99 00 3b 3a 79 c6 d4 b9
       -0.00034889084 6.878851e-05 0.0007133573 -0.00040583665
000030 6e e6 e5 3a 6e 89 51 ba 75 6e 99 b9 d5 74 2c 3b
       0.0017539987 -0.0007993196 -0.0002926473 0.0026314755
000040 59 e6 36 3b 2b 2e dd 3a 6f c7 b5 3a f3 6c 30 b9
       0.0027908294 0.0016874721 0.001386864 -0.00016825255
000050 7e ef 46 b9 06 75 01 3b 11 08 27 3b 31 77 50 ba
       -0.00018971969 0.001975359 0.0025486986 -0.0007952331
000060 02 81 d9 39 54 85 87 3a 15 8a 1d ba 08 74 31 3b
       0.00041485584 0.0010339417 -0.00060096505 0.0027077217
000070 6b 07 08 ba 60 6a 27 ba 5c ad 13 3b dd da 07 ba
       -0.00051890936 -0.00063863955 0.002253375 -0.00051824545
000080 29 5c 0c 3b 75 ba 24 b8 54 e3 29 3b 09 b2 4a ba
       0.0021417236 -3.92743e-05 0.0025922852 -0.0007732218
000090 89 36 87 b9 4a c1 f4 3a 98 e1 00 ba b0 7c c4 36
       -0.00025789838 0.0018673327 -0.00049164286 5.8557707e-06
0000a0 18 16 e6 b9 1a ea 30 3b 27 92 f8 b8 64 c0 34 3b
       -0.0004388548 0.0026995004 -0.000118527845 0.0027580494
0000b0 73 16 cd 3a a2 58 8a b9 10 3e 80 3a cb 48 8f 3a
       0.0015646949 -0.00026387448 0.0009784121 0.0010931728
0000c0 e7 12 e7 39 1a 62 37 ba 18 c0 17 3b 16 b2 0e 3b
       0.00044073837 -0.0006995514 0.0023155268 0.0021773628
0000d0 62 7b 04 3a e0 0d b6 b9 bb fa f0 3a 9b 3a df 39
       0.0005053786 -0.00034724083 0.001838527 0.0004257754
0000e0 dd 9e f8 3a 1d 0a 1c ba a2 4f 15 3b b4 88 3c b9
       0.0018968243 -0.0005952435 0.002278306 -0.00017980003
0000f0 43 ae 36 3b ab 88 df b9 c3 d9 1f ba 55 6e 21 3b
       0.0027874864 -0.000426357 -0.00060978177 0.0024632413

module.model.1.model.0.weight f4 [64, 64, 3, 3]
000000 c6 32 96 3d 48 3c 6d bc d4 3c 17 3d 5c e1 06 bc
       0.07333903 -0.014479704 0.036923245 -0.008232441
000010 9b 83 4a bd 8f de 65 bd 43 66 3a 3c 7c ff 8b bd
       -0.049441915 -0.05612045 0.01137692 -0.06835839
000020 06 72 77 3d bd ae 87 bd e6 21 f3 bc 96 bd 5e bd
       0.060411476 -0.066251256 -0.02967925 -0.054380022
000030 a6 f6 2e 3d c2 d5 74 bd 02 f3 f8 bc 71 e6 66 bc
       0.04271569 -0.059774168 -0.030389313 -0.014093027
000040 ba f9 c8 3c 6f e6 87 bd 42 07 33 bd ac e6 8b bd
       0.024533141 -0.066357486 -0.043708093 -0.068311065
000050 ec c7 0b bd ae 4c 82 3d 91 64 1e 3d 24 cf b7 3c
       -0.034126207 0.06362282 0.038670126 0.02243764
000060 6a 90 1e 3d 72 d9 21 3d e1 59 80 bc 49 b8 34 3d
       0.038711943 0.039514013 -0.015667858 0.04412106
000070 71 5d 45 bd 34 5e 44 bb b4 3b 38 3d 2d bb 68 3d
       -0.048184816 -0.0029963376 0.044978812 0.05681913
000080 14 8c 62 bb 00 a4 8e 3d 11 79 bc 3c e4 b2 72 3d
       -0.0034568356 0.06964874 0.023006948 0.059252635
000090 8f 0e 6b 3d 9e 0f 2f 3d bc ab 85 3b 71 81 6e bd
       0.05738693 0.042739503 0.00407931 -0.058228914
0000a0 9c 65 37 bd 50 aa 09 bd 55 0d 19 bd 6f 6d 23 3d
       -0.044774637 -0.03360969 -0.03736623 0.039899286
0000b0 f3 04 6e 3d dd 53 0d bd a9 7a b4 3c 34 aa ee 3c
       0.05811019 -0.034503806 0.022031145 0.029133894
0000c0 20 61 03 bd 4a 1b 14 3b d8 c1 0a 3c b3 4b be bc
       -0.032075047 0.0022599273 0.0084690675 -0.023229456
0000d0 b2 61 70 bd d2 32 5c 3d 9a 1a 11 3d 1f 37 f4 3c
       -0.05868692 0.053759404 0.03542576 0.02981144
0000e0 40 85 4d bd 92 0d a9 3c 53 24 0c 3d 2c 55 2d bc
       -0.050175905 0.020636354 0.03421433 -0.010579389
0000f0 92 a5 00 bb 61 fd 10 3d 3e a4 a4 39 c6 dd d7 3a
       -0.0019629938 0.03539789 0.00031402888 0.0016469292
000100 20 32 f0 bc b6 8b b6 bb e7 c8 37 3d 05 90 11 3d
       -0.029320776 -0.005570854 0.04486933 0.03553774
000110 cc 62 49 3c 48 62 c8 ba e8 f2 81 bd 97 88 ac bc
       0.012291621 -0.0015288079 -0.06345159 -0.021061225
000120 24 15 59 3d 29 0a 6a 3d 47 d2 fd bc 8a 2b 2f bd
       0.052998677 0.057138596 -0.030984057 -0.04276613
000130 30 f5 55 bd 78 94 49 bc f8 ee 0f 3d 66 b4 a1 3c
       -0.052235782 -0.012303464 0.035140008 0.019739341
000140 88 b1 61 3d 29 98 18 3b 38 f8 6b 3d 4e 6d 86 bb
       0.055100948 0.0023284054 0.057609767 -0.0041023856
000150 0a 83 a6 bc 09 b7 3c 3d 2c 45 f7 3c 6b 23 fa 3c
       -0.020326156 0.046072993 0.03018435 0.030534467
000160 2d 56 46 3d cb 5b 29 3c 3b 46 9f 3c d4 45 9d 3c
       0.048422027 0.010336827 0.019442668 0.019198336
000170 dc e1 fa bc 62 e8 1b 3d ec eb cd bc 36 40 96 3c
       -0.030625276 0.038063414 -0.02513691 0.018341165
000180 d0 0e 95 bd 8d 85 0f 3c 49 8e 00 3a d7 c3 26 3d
       -0.07278216 0.008759868 0.00049040146 0.04071411
000190 f7 3c e3 3c 1c bb 8f bd c5 c4 23 bd b0 a2 67 3d
       0.027739031 -0.0701811 -0.039982576 0.056551635
0001a0 31 cc 12 bd c9 54 ce bb 85 cf 81 bd 21 50 aa bc
       -0.035839263 -0.0062967283 -0.06338409 -0.020790162
0001b0 f6 71 83 3b 74 2a 00 3c 00 03 84 bd f5 1f 0b bd
       0.004011388 0.007822622 -0.06445885 -0.033966023
0001c0 8a 47 69 bd 81 5b 3f 3d 15 b7 88 bd 66 6c 97 ba
       -0.05695299 0.046718124 -0.06675545 -0.0011552691
0001d0 a9 4d 47 bc d6 94 53 bd bf 36 86 bd 4e 7f 91 3d
       -0.012164512 -0.051655613 -0.06553411 0.071043596
0001e0 44 80 9b 3c 4f 97 72 3d 8b 75 5c bd fc da e3 bc
       0.01898206 0.05922633 -0.053823035 -0.02781438
0001f0 62 4f 39 bd 39 c6 a5 3b e2 8f 2f bd 7e 6d 6c bc
       -0.04524172 0.0050590304 -0.042861827 -0.014430402
000200 22 14 58 bc 5e 54 0b bd 9e 9f 09 3c a0 c7 73 ba
       -0.013188394 -0.034016006 0.008399872 -0.0009299461
000210 aa 42 3c 3d 98 4e a7 3c 63 37 4b 3d b0 e6 fd ba
       0.045962013 0.020423219 0.049613368 -0.0019371118
000220 69 6f 7f 3c 9e a3 64 bd fe 90 c0 3c 12 fb 4d 3d
       0.015590527 -0.0558201 0.023506638 0.050288267
000230 3d 5d ba 3c d2 a5 a8 3b a7 86 bd bc a5 78 6d bd
       0.022749538 0.0051467204 -0.023135496 -0.057976384
000240 ca 4c 07 bd 66 18 90 b8 12 6d 84 3d 14 9c d1 3c
       -0.033032216 -6.871e-05 0.06466116 0.02558712
000250 c1 18 92 3d 01 e4 4f bb c2 00 b8 3b b8 8f 5b 3d
       0.07133628 -0.0031721594 0.0056153247 0.053603858
000260 bd e0 15 3c 63 9f a1 3c 0d 3a 6c bd 2d 39 76 bd
       0.00914782 0.019729322 -0.05767255 -0.06011312
000270 a5 f9 e6 3c 49 1c 30 bd 33 5d 44 3d 73 2c fc bc
       0.028195212 -0.042995725 0.047940444 -0.030782914
000280 96 0a 28 3d ce 55 d7 3c 01 3a 72 bd cf cc 8c 3d
       0.04102572 0.026286032 -0.059137348 0.06875002
000290 76 44 6f 3d 40 f8 85 bd 02 c9 22 bd dd 14 39 bd
       0.0584149 -0.065414906 -0.039742477 -0.045185912
0002a0 02 5d d3 3c 02 cc 3f 3d 1d 5d ae bc 37 d2 4a 3d
       0.025801186 0.046825416 -0.021284634 0.049516883
0002b0 a4 90 82 bd b3 f9 7a bd e2 83 e3 bc 10 b1 14 bd
       -0.06375244 -0.061273288 -0.027772848 -0.036301672
0002c0 2c 07 f1 39 f7 aa 24 3c e8 51 63 bb 58 fc 37 3a
       0.00045972446 0.010050527 -0.003468627 0.0007018498
0002d0 91 be d1 bc 51 f1 84 bd a7 2a 94 3d ea 73 6a bd
       -0.025603564 -0.0649134 0.07234698 -0.05723945
0002e0 5f cb 87 bb 79 1d 0a bc a8 09 8b bc b8 fe 2f 3d
       -0.004144117 -0.008429878 -0.016972378 0.042967528
0002f0 13 2c ea bc a5 c1 9d bc d7 ea 7f bd 58 d3 fb bc
       -0.02858547 -0.019257376 -0.06247982 -0.030740425
000300 d2 93 4a 3d e7 21 87 3c e3 65 e4 bc 18 23 08 bd
       0.04945738 0.016495658 -0.027880615 -0.033236593
000310 1f 57 48 bd b5 83 8a bd 75 db a7 bc 81 b9 89 bc
       -0.04891121 -0.067634024 -0.020490387 -0.016812088
000320 e7 c2 2e bc fd f5 93 3d 6f fc c7 bc e6 55 8b 3d
       -0.0106665855 0.07224653 -0.024412362 0.06803493
000330 2c 6d e0 3c 67 6c 37 bd 81 c6 a5 3c 4d 52 82 bc
       0.027395807 -0.044781115 0.020236256 -0.015908385
000340 ce 1e a5 3b 41 86 43 3d dd 0d 40 3d 2b c6 7c 3b
       0.0050390726 0.047735456 0.04688822 0.0038570266
000350 a3 7a 02 3c 30 4f bd bc e2 2a 3c 3d fc 10 13 bd
       0.007963809 -0.023109049 0.045939334 -0.03590487
000360 b7 e4 48 bd 8a 83 46 bd 95 90 51 3c 00 5e cf 3c
       -0.049046244 -0.04846529 0.012790819 0.025313377
000370 67 29 7b bd c7 49 df bc ba 82 f4 3c 08 5c 78 3d
       -0.06131878 -0.02725686 0.029847492 0.060634643
000380 22 ff 17 bd 83 bb 12 bd d2 05 25 bd c9 5d 25 3d
       -0.037108548 -0.035823356 -0.040288754 0.040372644
000390 cf 01 4f 3d 52 cc 6c bd da 9d 33 3c 38 fe 9a bb
       0.050538834 -0.057812043 0.010962928 -0.0047300123
0003a0 a1 86 00 bd 52 f9 0c 3a 33 0a 0a bc 2e 75 a2 3c
       -0.031378392 0.0005377728 -0.008425283 0.019831266
0003b0 61 24 2d 3d 0b 9d 5b 3c 92 32 f8 3b 46 ac 43 3d
       0.04227102 0.013404141 0.007574388 0.047771715
0003c0 26 6d 38 3d d6 c5 28 3d 56 55 7c bd 0b e3 a4 3c
       0.045025967 0.041204296 -0.06160482 0.020127794
0003d0 9c 11 79 bd a9 3a cf 3c ad ed ec 3b 61 56 de 3b
       -0.06080781 0.025296526 0.0072304816 0.0067851995
0003e0 dc 98 4c 3d 25 fa 6c bd 1d b9 4c 3d 33 e3 b2 3c
       0.049950466 -0.057855744 0.049981225 0.021836853
0003f0 0c 67 c6 3c 1e be 58 3d 6a 6b 77 bd 80 54 40 3d
       0.024219058 0.052915685 -0.060405172 0.046955585

module.model.1.model.0.bias f4 [64]
000000 5a 32 be 3a f9 2f a2 3a 3b e9 51 3a 56 a0 57 3a
       0.0014510856 0.0012373916 0.00080074713 0.0008225491
000010 c9 71 7c 3a 67 8e 9c 3a 77 c7 61 3a ae aa 52 3a
       0.00096299924 0.0011944295 0.00086127914 0.00080362975
000020 7a 2a c3 3a 41 bc 9b 3a 52 65 81 3a d1 5d 9e 3a
       0.0014889978 0.0011881666 0.0009872115 0.0012082403
000030 97 02 7c 3a 34 88 b1 3a cf 4f 60 3a 47 c6 8a 3a
       0.0009613423 0.001354462 0.0008556814 0.0010587656
000040 82 da 6a 3a 49 f6 3c 3a 1b 5d 47 3a be 78 7f 3a
       0.0008958952 0.000720833 0.00076051214 0.000974547
000050 8c c0 51 3a 38 62 42 3a a0 b3 26 3a 67 6f 9a 3a
       0.0008001409 0.00074151484 0.00063591637 0.0011782468
000060 64 1b ad 3a 12 34 82 3a 71 72 8b 3a b7 80 91 3a
       0.0013207016 0.0009933731 0.0010638965 0.0011100982
000070 10 cb 99 3a 2b 1e 54 3a 91 3a c7 3a 19 8c 70 3a
       0.0011733491 0.00080916536 0.0015199949 0.00091761496
000080 25 30 a4 3a 15 b9 4b 3a ad 62 ff 39 32 f4 87 3a
       0.0012526555 0.0007771415 0.0004871091 0.0010372458
000090 3c a9 6d 3a b8 3b 80 3a 06 ac 91 3a e2 1a 71 3a
       0.00090660504 0.0009783423 0.0011113889 0.0009197426
0000a0 15 32 6b 3a 9d 50 1f 3a d5 7f 8d 3a c1 a3 96 3a
       0.00089720014 0.0006077381 0.0010795543 0.0011492894
0000b0 af 8a 8f 3a cc bd 87 3a cb 3e aa 3a d3 2e 7f 3a
       0.0010951365 0.0010356246 0.0012988684 0.00097344554
0000c0 bc 74 5f 3a 0f 09 95 3a e0 03 8d 3a 1c 6a 81 3a
       0.00085241697 0.0011370498 0.0010758601 0.0009873542
0000d0 7c 43 80 3a 29 09 6a 3a a9 e5 53 3a 49 8c 2a 3a
       0.0009785737 0.00089277566 0.0008083233 0.00065058895
0000e0 db 4f b8 3a 08 45 96 3a 9e e9 1c 3a 7b 39 87 3a
       0.0014061885 0.0011464665 0.00059857394 0.0010316813
0000f0 09 ed 8f 3a cd 6a 9c 3a d2 1e 93 3a 4d 1e 98 3a
       0.0010980676 0.0011933685 0.0011224395 0.001160571

module.model.1.model.1.weight f4 [64]
000000 32 8f 7f 3f 48 18 80 3f 14 21 80 3f 40 2d 80 3f
       0.99827874 1.000741 1.0010095 1.0013809
000010 4e 39 80 3f d8 04 80 3f ed 30 80 3f 5b 35 80 3f
       1.0017488 1.0001478 1.0014931 1.0016283
000020 11 ff 7f 3f 78 c9 7f 3f 32 2f 80 3f c6 99 7f 3f
       0.99998575 0.9991679 1.0014403 0.99844015
000030 f5 32 80 3f c5 c0 7f 3f a4 ba 7f 3f ef 1d 80 3f
       1.0015551 0.9990352 0.99894166 1.0009135
000040 c8 f6 7f 3f f5 12 80 3f d6 1d 80 3f d5 22 80 3f
       0.99985933 1.0005785 1.0009105 1.001063
000050 f9 e4 7f 3f 4a b0 7f 3f ce a1 7f 3f 94 0b 80 3f
       0.9995876 0.9987837 0.9985627 1.0003533
000060 9b 2f 80 3f 14 b5 7f 3f fb bf 7f 3f f8 9c 7f 3f
       1.0014528 0.9988568 0.99902314 0.9984889
000070 58 30 80 3f 26 34 80 3f 1d 9e 7f 3f 89 8a 7f 3f
       1.0014753 1.0015914 0.99850637 0.9982076
000080 01 2d 80 3f 5b 01 80 3f 65 e5 7f 3f 58 b1 7f 3f
       1.0013734 1.0000414 0.99959403 0.9987998
000090 46 0b 80 3f de aa 7f 3f 8a b9 7f 3f bc a1 7f 3f
       1.000344 0.998701 0.99892485 0.9985616
0000a0 f0 be 7f 3f 31 df 7f 3f ab 9d 7f 3f 81 0d 80 3f
       0.9990072 0.9994994 0.9984996 1.0004121
0000b0 79 38 80 3f 3d 01 80 3f 85 8d 7f 3f 64 35 80 3f
       1.0017234 1.0000378 0.99825317 1.0016294
0000c0 54 9d 7f 3f 94 96 7f 3f 12 a1 7f 3f 23 28 80 3f
       0.9984944 0.9983914 0.9985515 1.0012249
0000d0 b0 2c 80 3f 34 a7 7f 3f bd 31 80 3f f1 13 80 3f
       1.0013638 0.99864507 1.0015179 1.0006086
0000e0 ca 90 7f 3f cb 25 80 3f 9e 28 80 3f 75 2d 80 3f
       0.99830306 1.0011533 1.0012395 1.0013872
0000f0 43 2c 80 3f fa d2 7f 3f 31 06 80 3f 43 93 7f 3f
       1.0013508 0.999313 1.000189 0.9983408

module.model.1.model.1.bias f4 [64]
000000 db ed d0 ba 97 f7 a2 3a 6c 63 c0 39 ed b5 9b 3a
       -0.0015940027 0.0012433407 0.0003669517 0.001187978
000010 12 09 db 3a af 0e a4 ba c8 8d b1 3a cc 91 99 b9
       0.0016711077 -0.0012516583 0.0013546282 -0.0002929106
000020 fd 25 a4 b9 5a f4 7c ba 38 d6 4e 3a 07 5b da ba
       -0.0003130882 -0.00096494483 0.00078901974 -0.0016659208
000030 2d 5a e2 3a 3b 59 d4 ba cc 0f e5 ba 84 c0 ca 3a
       0.0017269306 -0.0016200909 -0.0017476021 0.0015468751
000040 c7 11 7f ba 5d 59 e9 3a e7 d9 e6 3a 1b 65 bb 3a
       -0.0009730127 0.0017803122 0.0017612547 0.00142971
000050 1c 9d 6a 39 8e ac ff b9 8b da ab 39 2b 6d ce 39
       0.00022374507 -0.00048765953 0.0003277849 0.00039372718
000060 c7 0c a8 39 46 b3 e7 39 7f 04 d4 ba 83 16 d0 ba
       0.00032052977 0.00044193323 -0.0016175656 -0.001587585
000070 ef 06 b6 3a 18 07 dc 3a 15 bc b8 ba ea 5b 60 3a
       0.0013887564 0.0016786782 -0.0014094139 0.0008558618
000080 55 43 b2 3a ea 2b 58 3a 71 1e 92 3a 4b 9d cc ba
       0.0013600389 0.000824629 0.0011147988 -0.0015610842
000090 84 44 b6 3a 35 7e b6 38 2c 24 b0 ba c9 12 c1 ba
       0.0013905917 8.701944e-05 -0.0013438514 -0.001473033
0000a0 12 cb 2c ba c8 31 c6 3a fc 19 a6 b8 a7 11 aa ba
       -0.0006591539 0.0015121037 -7.920337e-05 -0.0012975232
0000b0 b2 ad 0e 3a fc 1d 5c ba e0 57 ca ba b7 19 2a 3a
       0.0005442753 -0.0008396802 -0.0015437566 0.0006488817
0000c0 64 1d 45 b9 3b 50 d6 ba bd c6 45 3a 52 a9 c5 ba
       -0.00018798333 -0.0016350815 0.0007544568 -0.0015080369
0000d0 e5 18 c7 3a 00 4d d9 ba 65 d5 d7 3a c9 77 9a 3a
       0.0015189914 -0.0016578734 0.0016466795 0.0011784966
0000e0 64 f5 ea ba 65 f2 d6 ba 71 a2 d4 3a 7b 6b 8a 36
       -0.0017925915 -0.0016399143 0.0016222728 4.125233e-06
0000f0 1f bd 31 ba 80 21 9c ba e1 5b 77 3a bd d2 dc ba
       -0.00067801954 -0.0011911839 0.0009435993 -0.0016847473

module.model.1.model.1.running_mean f4 [64]
000000 0f ed 86 3a 79 5f eb 3a 6a a0 d5 3a de 59 9f 3a
       0.0010294038 0.001795753 0.0016298417 0.001215752
000010 4d 8b b9 3a 11 57 1d 3a 25 ac e7 39 ba 11 56 3b
       0.0014155895 0.00060020486 0.0004418801 0.0032664374
000020 6f d5 35 3b fc 2b 93 3b 06 f0 9b 3a 1c ca 68 39
       0.0027745625 0.0044913273 0.0011897094 0.00022200536
000030 aa 42 29 3b bc c1 20 3a 82 25 80 ba c4 6a a1 3a
       0.0025827088 0.00061323843 -0.0009776803 0.0012315144
000040 36 36 32 3b a5 10 a0 3a c0 41 25 bb 95 7e 40 3b
       0.0027192957 0.0012211992 -0.0025216192 0.0029372324
000050 4e 17 4e 3a e8 a8 07 ba e7 b3 d4 39 25 12 cd 3a
       0.0007861749 -0.00051750103 0.0004056983 0.0015645666
000060 ff 5c 65 3b 75 78 ef 39 79 4a f2 39 24 ec c5 3a
       0.0034998057 0.0004567538 0.00046213323 0.0015100283
000070 d1 e5 2c 39 f2 08 d5 b9 20 66 2d 3b 03 a6 83 3a
       0.00016488812 -0.0004063319 0.0026458576 0.0010043982
000080 49 d6 e6 ba 6a 78 37 39 d2 c5 ea 3a 8e 8c 0e 3a
       -0.0017611469 0.00017497098 0.0017911738 0.00054378144
000090 61 12 60 3a 5c a7 b7 3b b4 81 69 3a 7a da 10 3b
       0.00085476605 0.0056046676 0.0008907572 0.0022102878
0000a0 7a 81 27 3b 2b 81 4c 3b fe 98 52 3b 95 73 59 3b
       0.0025559352 0.003120492 0.0032134647 0.0033180465
0000b0 f1 df 3e 3b f8 42 f1 3a 1a 7c 65 3a d7 f4 57 ba
       0.0029125179 0.0018406799 0.00087541493 -0.0008238083
0000c0 27 96 51 3a 09 fc 62 ba cd f6 28 3b 20 6b 12 3b
       0.0007995092 -0.0008658772 0.002578187 0.0022341684
0000d0 e9 e1 37 3a 3b 20 6a b9 16 61 7a 3b e5 1a 8a 3b
       0.0007014559 -0.00022327986 0.003820484 0.004214632
0000e0 8e 9b a2 3a a2 c9 ef 3a 2f 58 7d 3a 2c 95 2a 3b
       0.0012405978 0.0018294344 0.00096643245 0.0026028855
0000f0 c5 cf 5b 3a 71 d4 41 3b 57 4c 10 3a 37 4c 00 3b
       0.0008385147 0.0029576088 0.00055045396 0.0019576678

module.model.1.model.1.running_var f4 [64]
000000 e6 89 be 36 d8 1a 0a 38 55 37 ab 38 39 4f 35 38
       5.6784947e-06 3.2926764e-05 8.164222e-05 4.3227545e-05
000010 38 e1 89 38 b3 29 90 37 a6 95 17 38 f2 59 0f 38
       6.574619e-05 1.7185555e-05 3.6140576e-05 3.4177625e-05
000020 f7 14 43 37 a8 d9 52 37 06 b8 85 38 33 e3 c0 37
       1.1627787e-05 1.2567652e-05 6.376211e-05 2.2993981e-05
000030 ef eb 1b 39 76 fc 1d 39 23 ee ed 35 d6 a6 97 37
       0.00014869844 0.00015066736 1.7727183e-06 1.8078292e-05
000040 63 aa 34 37 86 20 97 38 98 4b c5 38 20 2c 87 36
       1.0768507e-05 7.206299e-05 9.4077724e-05 4.0284503e-06
000050 eb ec 3d 38 9f b7 0f 37 ba 2b 71 37 e4 d2 eb 37
       4.528176e-05 8.566217e-06 1.43749e-05 2.8112387e-05
000060 ee a4 8f 37 08 2d 06 38 87 4e cc 36 1a 7d ab 36
       1.712373e-05 3.199003e-05 6.0888156e-06 5.110761e-06
000070 a3 e8 0f 38 15 49 53 38 d0 58 67 35 b4 43 91 37
       3.4310517e-05 5.0374383e-05 8.6183445e-07 1.7316874e-05
000080 e1 7f 96 35 fe ae e2 37 b3 b7 44 38 28 b6 39 37
       1.1213089e-06 2.7022787e-05 4.6901125e-05 1.1069271e-05
000090 d5 4d 88 38 55 0a 24 39 12 af 4b 38 2b 54 9e 35
       6.499483e-05 0.00015644108 4.856202e-05 1.1796413e-06
0000a0 e6 4a 05 36 49 e6 bb 37 b2 a6 f2 36 a6 82 d1 35
       1.986214e-06 2.2399372e-05 7.231568e-06 1.5609737e-06
0000b0 3a 81 b3 38 5c 0d 76 35 a4 f4 76 36 fe a3 b4 35
       8.5594555e-05 9.166158e-07 3.6799256e-06 1.3458773e-06
0000c0 8a 14 b6 37 5b 5a a7 36 62 1b c3 36 37 cd 99 38
       2.1705655e-05 4.9875066e-06 5.8146406e-06 7.333833e-05
0000d0 5a 5b 16 39 65 81 fa 35 0a 41 96 38 78 50 37 37
       0.00014339146 1.866411e-06 7.164672e-05 1.0926386e-05
0000e0 30 bd a3 38 a9 9d 94 37 63 d3 24 39 31 0a 1c 38
       7.8076846e-05 1.7716391e-05 0.00015719006 3.720279e-05
0000f0 3d 44 dd 37 7a 79 d1 37 03 68 40 38 8e a9 4e 37
       2.6377029e-05 2.4971308e-05 4.5873236e-05 1.2318034e-05

module.model.1.model.3.weight f4 [64, 64, 3, 3]
000000 34 76 2c bc bd 8a bd ba 9f 9e 32 bd e0 dc 03 3d
       -0.010526229 -0.0014460903 -0.043608304 0.032193065
000010 6a 4e 6d bd 3f 07 36 bd 66 c6 34 3d c6 b2 81 3d
       -0.05793611 -0.044440504 0.04413452 0.063329265
000020 26 a0 72 bc cb 55 5d 3d c9 84 66 3d 9c 6a ef 3c
       -0.01480869 0.054036897 0.056278978 0.02922564
000030 b1 47 c2 bc e8 76 57 bc 39 2d 19 3d a4 5b ff 3c
       -0.023715826 -0.013150908 0.037396643 0.031171627
000040 b9 15 2b bd 5a 5c bf bc cb e6 38 3c 59 14 7a 3d
       -0.041768763 -0.023359466 0.011285494 0.06105456
000050 c1 41 22 3d ea e5 d2 bc 9b e2 63 bc 2b e5 99 bc
       0.03961349 -0.025744397 -0.013909007 -0.018786034
000060 78 0c 92 3d 53 64 01 3d 77 80 77 bd 52 95 09 bc
       0.071312845 0.031589817 -0.060425248 -0.008397417
000070 db 45 0b bd c9 96 81 3d 30 4f 86 bd ba 4b cd 3c
       -0.034002166 0.06327588 -0.065580726 0.025060523
000080 cd dc 00 3d 24 f8 84 bd 5a 06 bd bc 5d 15 2e 3d
       0.031460572 -0.064926416 -0.023074318 0.042500842
000090 ca 73 a6 bc e4 29 c0 bb 3c 55 92 3d 78 ef 87 3d
       -0.020318884 -0.0058643688 0.071451634 0.06637472
0000a0 96 de 52 bd c3 f2 bd bc b9 fb 6d 3d 0a 55 06 bd
       -0.051481806 -0.023187047 0.05810139 -0.032795943
0000b0 be 1a a6 3c 0b 0b e6 b9 2f e4 44 3c 67 1d 78 3d
       0.020276424 -0.00043877246 0.012017294 0.060574915
0000c0 51 e2 d7 3c af 93 18 bd 15 bf e8 bc 56 b9 8f 3b
       0.026353033 -0.037250217 -0.028411428 0.0043861074
0000d0 34 44 2b bc 65 a0 57 3c 89 e0 0e bd 85 b4 66 3d
       -0.010453273 0.0131608 -0.034882102 0.0563245
0000e0 96 2e 79 bd 9a 8d a6 3c a6 4b 89 3d 38 87 4a 3d
       -0.060835443 0.020331193 0.06703882 0.04944536
0000f0 3d 28 33 bd d8 62 8e 3c 03 bc 62 3d 36 52 cd 3c
       -0.043739546 0.017381117 0.055355083 0.025063615
000100 f2 a7 7e 3c e4 04 df 3c 9b c3 13 bd 4b 61 74 bd
       0.015542971 0.027224012 -0.036075216 -0.0596631
000110 8d 4c 76 3c 11 96 e4 3c ad 4e 0a bd 3b f3 a4 bc
       0.0150329 0.027903588 -0.033766437 -0.020135513
000120 75 a8 57 bd 18 2e 08 bd b0 fb 7c 3d c7 85 86 bb
       -0.052650888 -0.033247083 0.061763465 -0.004105303
000130 4e ad 8c bd 41 e5 d5 3b b9 10 9e 3c 8a 6e 5f bd
       -0.06868993 0.0065275733 0.019295083 -0.054548778
000140 49 57 84 bd a1 5e 7d 3c 2d aa 02 ba 74 71 39 3c
       -0.06461961 0.015464456 -0.00049844646 0.011318553
000150 0c cb f7 bc d4 f5 37 3c 26 7c 61 3d e2 76 b0 3c
       -0.030248187 0.011228044 0.055050038 0.021541063
000160 12 6c 79 bd 2e a3 05 bd c0 5a 96 bc 9d dd 04 3d
       -0.06089408 -0.032626323 -0.01835382 0.03243791
000170 b7 94 0a 3d b9 78 52 bd 51 bd 1d 3c f5 77 96 3d
       0.03383323 -0.05138466 0.009627656 0.07347099
000180 37 2a 1d 3d fe e2 1c bd 0a 57 8c bd d9 d1 eb 3c
       0.038370337 -0.038302414 -0.06852539 0.028786587
000190 86 c2 73 bd 21 11 8d bd 79 3c 98 3b 0d 89 2b 3d
       -0.059511684 -0.06888033 0.004645881 0.04187875
0001a0 5b 56 30 3d 9a 93 f9 3c aa aa 08 bd 83 54 aa 3b
       0.043051105 0.03046589 -0.033365883 0.005198063
0001b0 a0 08 85 bd 7e dd 2c 3d 70 a4 a0 ba e7 4e a0 3c
       -0.06495786 0.04220342 -0.0012256037 0.019568874
0001c0 92 3e 18 3d 81 22 4d 3d d3 37 52 3d 8a ef ba 3c
       0.037169047 0.050081734 0.05132277 0.0228193
0001d0 f7 bc 3c 3c 47 95 7b 3d 8f 77 a3 3c b8 6f 50 3d
       0.011519662 0.06142166 0.01995447 0.050887793
0001e0 fb 12 88 bd 49 aa ce bc 42 02 d0 3b d6 17 60 3d
       -0.06644245 -0.025227683 0.0063479254 0.05471023
0001f0 b0 5d 4e bc ef 20 ba 3c e9 fa ab bb c3 37 8d 3d
       -0.012595579 0.022720782 -0.0052484167 0.06895401
000200 9c 51 d7 bc 0f bf d4 3c e4 21 9c bb 88 ae a3 bb
       -0.026284032 0.02597001 -0.0047647823 -0.004995171
000210 d1 66 09 3d ce 8a 88 bd 0e 61 11 3c bd b6 00 bd
       0.03354532 -0.066671 0.008873237 -0.031424273
000220 dd 78 49 3d ce 47 cd 3c 23 52 5c 3d 14 5e 5e 3d
       0.04918753 0.025058653 0.05378927 0.05428894
000230 02 e5 58 3d ea 5b d5 bc 58 f2 b5 3c 08 5c 60 3d
       0.052952774 -0.026044805 0.022210285 0.054775268
000240 69 e8 87 bd a8 8b 12 3d d2 e3 17 bd 92 79 34 3d
       -0.066361256 0.035777718 -0.0370825 0.04406125
000250 9e dc 61 3d 91 b7 8c bd dc 49 19 bc ec 6d 82 3d
       0.055142038 -0.0687095 -0.009355988 0.06368622
000260 4c 04 3b 3d c3 20 79 bd a6 e1 ce 3a 52 5e 24 bc
       0.045658395 -0.06082226 0.0015783801 -0.010032253
000270 2f 67 35 bd 3f 97 11 bd ff ec 46 bd bc d3 de bc
       -0.044287857 -0.03554463 -0.04856586 -0.027200572
000280 fc 2b 08 bd 84 51 dc 3c 03 f3 40 3d 4c dd 29 3d
       -0.03324507 0.026894338 0.047106754 0.04147081
000290 a6 97 87 bd 74 ba c2 3b fd c2 94 3d 2b bd 05 3d
       -0.066207215 0.005942637 0.072637536 0.032651108
0002a0 eb 83 e1 bb 75 83 94 3d 27 86 10 3d bb ea 48 3d
       -0.006882181 0.07251636 0.035284188 0.04905198
0002b0 7e 79 69 3c 06 62 87 bd 68 94 38 bc ba 9c c5 3c
       0.014250157 -0.06610493 -0.011265852 0.024122585
0002c0 d4 65 24 3c 81 2d 4f bd f1 d1 bd 3b e5 f6 76 3c
       0.010034043 -0.050580505 0.005792849 0.015073513
0002d0 dc 1d 88 bd 3b 49 89 3d c6 4b 78 3d fb 5d 81 3b
       -0.0664632 0.06703421 0.06061914 0.003947971
0002e0 51 da 45 bd b6 54 2d 3d aa 19 62 bd 76 87 01 3d
       -0.048303906 0.042317115 -0.055200256 0.031623326
0002f0 97 69 67 3c 93 10 81 bd 00 76 ba 3c eb d2 8f bd
       0.014124296 -0.063019894 0.022761345 -0.07022651
000300 ae ed 80 3d 64 3e d0 3c 16 48 83 bc cd 04 71 bd
       0.06295334 0.025420375 -0.016025584 -0.05884247
000310 16 1f 59 bc 0a a5 e4 bc 30 d5 85 3c 97 cc 9d 3c
       -0.01325204 -0.027910728 0.016337007 0.019262595
000320 96 23 68 3d ce 5f 51 bd 8a 09 7f 3d 35 70 2a bd
       0.056674562 -0.051116757 0.062264957 -0.041610915
000330 14 6f 36 3a 59 98 b5 bc 8b c0 f8 3c d5 89 d4 ba
       0.0006959301 -0.022167372 0.03036525 -0.0016215394
000340 e8 16 29 bd 93 51 d0 3c e1 4b 70 3b e9 b5 b4 bb
       -0.04128161 0.025429523 0.003666632 -0.0055148494
000350 ad 70 79 bd 55 9d 8c 3d 49 57 32 bd fb 39 a6 3b
       -0.06089847 0.06865946 -0.043540273 0.00507283
000360 91 b2 6c 3d ec 21 8c bb a8 36 26 3d 5d bf d6 bc
       0.05778748 -0.0042765047 0.040579468 -0.026214296
000370 dd 65 36 3d 83 d3 ef bc f9 24 88 bc db 4b 67 bd
       0.04453074 -0.029275661 -0.016619192 -0.056468826
000380 7d 24 1a bc fd a0 43 3d 74 e7 fd 3c 44 34 26 bd
       -0.009408114 0.047760952 0.030994155 -0.040577188
000390 41 a9 e6 bc d1 d7 3b 3c 50 b6 76 bd 54 5f 58 bd
       -0.028156878 0.011465029 -0.06023246 -0.052825287
0003a0 02 34 41 bd 76 98 82 bb 61 64 5b bc 3d ca 6c 3d
       -0.04716874 -0.00398546 -0.013390631 0.057810057
0003b0 66 27 42 3d 82 07 6b 3d 19 4d ae bb f0 f3 72 3d
       0.047400855 0.057380207 -0.0053192494 0.05931467
0003c0 0a 11 b2 bc c6 13 54 3d 86 7e 5d 3d 89 9d c9 3c
       -0.02173664 0.05177667 0.05407574 0.024611251
0003d0 d7 af 84 bd c7 10 aa bc cf 2a d9 3c 64 60 06 3d
       -0.06478851 -0.020759953 0.02650967 0.03280677
0003e0 c2 be 88 3d 65 77 b7 bc 9f 70 43 3b 3d 7d 84 bd
       0.06677009 -0.022395799 0.0029821766 -0.064692
0003f0 45 ed 81 3b d0 50 1f 3d 29 fe 8f bd 9f 3e 11 bd
       0.0039650523 0.03889543 -0.07030899 -0.03546011

module.model.1.model.3.bias f4 [64]
000000 4f bb 20 3a 63 46 c9 3a 6d 6e 18 3a f1 95 60 3a
       0.0006131427 0.001535606 0.00058147946 0.0008567265
000010 b6 03 d0 3a ee d6 62 3a 4d a0 80 39 37 bc aa 3a
       0.0015870247 0.0008653243 0.00024533496 0.0013026063
000020 2f b9 be 3a 26 8d 6f 3a 09 7b 88 3a 0f 67 bd 3a
       0.0014551039 0.0009138159 0.0010412644 0.001445027
000030 b8 a8 43 3a 4f 82 05 3b 73 1e c8 3a 9c 7d 05 3a
       0.0007463801 0.002037186 0.0015267864 0.00050922646
000040 d4 73 08 3a b7 2a b8 3a e5 6e a5 3a 3c fb af 3a
       0.0005205248 0.0014050816 0.001262155 0.0013426314
000050 a6 ae 99 3a 6f 9e ee 39 88 ac 00 3a fd e5 df 3a
       0.0011725023 0.0004551294 0.00049085217 0.0017082092
000060 c2 0f 6d 3a 12 1f 91 3a 47 26 a8 3a 39 b5 97 39
       0.00090431806 0.0011071882 0.001282879 0.00028935986
000070 d4 08 58 3a 83 92 ee 3a aa 8a 42 3a 49 65 aa 3a
       0.00082410616 0.0018201623 0.0007421175 0.0013000156
000080 83 23 95 3a fc 39 ba 3a 63 aa 18 3a 86 51 eb 3a
       0.0011378381 0.0014207955 0.00058237294 0.0017953373
000090 da 50 c9 3a fd cf 1b 3a 28 63 bc 3a d9 b7 9d 3a
       0.0015359179 0.00059437734 0.0014372813 0.001203294
0000a0 8d 34 de 3a 94 5f d4 39 f1 7e 73 3a c5 11 35 3a
       0.0016952917 0.00040507002 0.000928863 0.000690725
0000b0 88 5e 6d 3a 84 d6 88 3a 87 8c 99 3a 2a bd 3f 3a
       0.0009054919 0.0010439907 0.0011714854 0.00073142594
0000c0 3d cd 97 3a 6b 08 e1 3a e2 49 60 3a 91 25 a0 3a
       0.0011581552 0.0017168646 0.0008555931 0.0012218227
0000d0 05 e2 bd 3a 43 22 9a 3a a5 e4 47 3a a8 f3 63 3a
       0.0014486915 0.0011759478 0.0007625318 0.00086956704
0000e0 d2 e1 1e 3a a1 63 a2 3a df b1 64 3a 41 fb 86 3a
       0.00060608715 0.0012389311 0.00087240146 0.0010298268
0000f0 d7 ea 3f 3a b1 b6 e7 3a 6a e9 dc 3a c5 5a 3a 3a
       0.00073210656 0.0017678348 0.0016854231 0.00071088626

module.model.1.model.4.weight f4 [64]
000000 11 36 80 3f b2 8a 7f 3f 50 33 80 3f 1f 3a 80 3f
       1.00165 0.9982101 1.0015659 1.0017737
000010 75 95 7f 3f c7 2c 80 3f ab 38 80 3f 65 a9 7f 3f
       0.9983743 1.0013665 1.0017294 0.9986785
000020 51 a3 7f 3f 61 fb 7f 3f bb 38 80 3f 37 8e 7f 3f
       0.99858576 0.9999295 1.0017313 0.9982638
000030 13 37 80 3f 4c 98 7f 3f f2 97 7f 3f 8f 29 80 3f
       1.0016807 0.9984176 0.99841225 1.0012683
000040 b1 33 80 3f 51 8a 7f 3f 9c 93 7f 3f d5 94 7f 3f
       1.0015775 0.9982043 0.9983461 0.99836475
000050 7c 8a 7f 3f 1a 3a 80 3f dd 32 80 3f 40 8c 7f 3f
       0.99820685 1.0017731 1.0015522 0.9982338
000060 d0 2f 80 3f 3c ba 7f 3f ac 2b 80 3f 02 38 80 3f
       1.0014591 0.99893546 1.0013328 1.0017092
000070 dc 26 80 3f e6 92 7f 3f df 37 80 3f 4e 9b 7f 3f
       1.0011859 0.99833524 1.001705 0.9984635
000080 45 96 7f 3f be 22 80 3f 9b 31 80 3f 7e 94 7f 3f
       0.9983867 1.0010602 1.0015138 0.99835956
000090 b0 8e 7f 3f fa 34 80 3f 87 94 7f 3f d4 8d 7f 3f
       0.998271 1.0016167 0.9983601 0.9982579
0000a0 b2 8e 7f 3f 5b 34 80 3f c3 36 80 3f ae 3a 80 3f
       0.9982711 1.0015978 1.0016712 1.0017908
0000b0 16 db 7f 3f 3f 1a 80 3f 9e cf 7f 3f 9c 38 80 3f
       0.99943674 1.000801 0.99926174 1.0017276
0000c0 82 99 7f 3f 46 97 7f 3f fa 93 7f 3f b7 fe 7f 3f
       0.9984361 0.998402 0.9983517 0.9999804
0000d0 4f aa 7f 3f 3a b4 7f 3f a2 af 7f 3f 2d c3 7f 3f
       0.99869245 0.9988438 0.9987737 0.9990719
0000e0 aa 3b 80 3f 5b 07 80 3f 2e 37 80 3f 2b ae 7f 3f
       1.0018208 1.0002245 1.001684 0.99875134
0000f0 e2 31 80 3f f2 92 7f 3f 44 96 7f 3f 01 31 80 3f
       1.0015223 0.99833596 0.9983866 1.0014955

module.model.1.model.4.bias f4 [64]
000000 9f e5 e1 3a 61 d3 ef ba 03 9b e3 3a 8d 55 f1 3a
       0.001723457 -0.0018297249 0.0017364923 0.0018412337
000010 08 49 e7 ba c0 e0 de 3a e8 be e3 3a b9 98 d8 ba
       -0.0017645666 0.0017004237 0.001737562 -0.0016525007
000020 2a 10 da ba 8c 1c ee ba a8 74 e3 3a 2e 7a e4 ba
       -0.0016636897 -0.0018166467 0.0017353492 -0.0017431432
000030 94 03 e4 3a 55 82 db ba 06 32 d4 ba d6 5c d8 3a
       0.0017396086 -0.0016747216 -0.0016189225 0.001650716
000040 35 5c e5 3a e3 f6 e9 ba 5a fb de ba 97 4b d8 ba
       0.0017498793 -0.0017850067 -0.0017012164 -0.001650202
000050 2b 71 e7 ba 70 e6 d4 3a f1 09 e5 3a 88 2a e5 ba
       -0.0017657628 0.0016242992 0.0017474276 -0.0017483989
000060 3b 4b e0 3a 53 d9 c7 ba 15 f2 e0 ba 52 c7 e1 3a
       0.0017112264 -0.0015247263 -0.001716199 0.001722554
000070 60 3f d4 39 4b 91 e4 ba dd bf d9 3a c7 8f c9 ba
       0.0004048301 -0.001743832 0.0016612966 -0.0015377932
000080 04 59 d8 ba d1 07 e2 ba fc 0b eb 3a b6 0a e0 ba
       -0.0016506021 -0.0017244761 0.0017932649 -0.0017093036
000090 f1 73 e7 ba 29 b9 e1 3a e7 2f dd ba 5a 5c e4 ba
       -0.0017658455 0.001722132 -0.0016875238 -0.0017422542
0000a0 09 27 e7 ba fe 06 e8 3a b3 90 dd 3a a4 6c e4 3a
       -0.0017635535 0.0017702279 0.0016904086 0.0017427397
0000b0 b1 1e d6 ba 76 5a b2 3a dd 3f 6e ba 40 9c e4 3a
       -0.0016336051 0.0013607282 -0.0009088496 0.0017441586
0000c0 b9 3e 2c ba e1 62 d9 ba 48 6c 8d ba 55 10 d2 ba
       -0.00065706257 -0.0016585254 -0.0010789717 -0.0016026596
0000d0 90 44 be ba 15 a1 d6 ba 82 0a af 39 10 d0 e8 3a
       -0.0014516283 -0.001637491 0.0003338643 0.0017762203
0000e0 84 10 f4 3a 90 60 ce ba 23 0a de 3a c8 93 de ba
       0.0018620645 -0.0015745331 0.0016940277 -0.0016981298
0000f0 3a ff e1 3a 06 66 dc ba 61 d9 db ba 26 08 f1 3a
       0.0017242201 -0.0016815073 -0.0016773158 0.0018389269

module.model.1.model.4.running_mean f4 [64]
000000 82 31 c1 3e e5 21 ba be 1e 08 e3 bd f9 a1 ae 3d
       0.37733084 -0.36353984 -0.110855326 0.085269876
000010 af c7 dc 3b e4 07 e9 bd 72 be a8 3d b5 ad d3 3e
       0.0067376713 -0.11378458 0.082394496 0.41343465
000020 47 2c 9c be b9 9e 9d be 96 16 e8 3e 81 84 50 be
       -0.3050253 -0.30785158 0.45329732 -0.20363046
000030 b8 6f 1c be ae 95 f3 be ee 74 71 bd a7 ec 95 3e
       -0.15276992 -0.47575134 -0.058949403 0.29282114
000040 ba b4 55 3e 56 a4 c3 3d a7 c8 67 3e 28 ad fa be
       0.20869723 0.09552829 0.22635137 -0.48960233
000050 fb 31 86 3e 42 ad 82 3d 7e 13 b1 bd 32 c3 81 3e
       0.26210007 0.063807026 -0.08646296 0.25344235
000060 76 09 c0 be d8 02 ca 3d 1a da 49 3e 15 fb 11 bd
       -0.37507218 0.09863824 0.19712105 -0.03563984
000070 cf 9a 83 be 8f fd af bd 00 7a db 3c 4a 67 90 be
       -0.25704047 -0.08593284 0.026791573 -0.28203803
000080 99 e0 9c 3b 1f cf 44 3f 9c 98 39 be 45 21 9d be
       0.0047875163 0.7687854 -0.18124622 -0.30689445
000090 6f 42 1f be bc 18 86 bd 50 14 67 3e f9 04 f9 3e
       -0.15552686 -0.065476865 0.22566342 0.48636606
0000a0 e6 c7 43 be b0 ed 69 3d 8f d1 1c bf 51 5b 83 bd
       -0.19119224 0.057111442 -0.6125726 -0.064139016
0000b0 53 6d f3 3e 79 b2 b9 3e 66 93 de bd c0 66 5d 3e
       0.47544345 0.36268976 -0.10867958 0.21621227
0000c0 b1 f2 d2 be d4 ad 42 3e ba 07 8e 3e d4 4c df 3e
       -0.41200784 0.19011623 0.2774027 0.43613303
0000d0 20 3b b8 be ef 2d 9a 3e 76 82 ad be 33 91 a3 be
       -0.3598261 0.3011317 -0.33888596 -0.31946716
0000e0 e6 99 a6 be 35 d4 0d 3e 58 ac 95 3e 3b 4d 27 3f
       -0.3253929 0.13850482 0.2923305 0.6535222
0000f0 97 c9 08 3e 35 8f 00 be b6 b5 b0 be 5c 71 94 be
       0.1335815 -0.12554629 -0.34513634 -0.28992736

module.model.1.model.4.running_var f4 [64]
000000 24 ca db 3e 4c 7f 32 3e e9 b6 19 3f da d1 94 3e
       0.4292766 0.17431372 0.60044724 0.29066354
000010 1c 27 9a 3e 15 2f 19 3f 1e b7 1a 3d cf b2 25 3e
       0.30107963 0.59837466 0.03777229 0.16181491
000020 09 b4 4f 3f cf d6 f9 3d 22 24 ba 3e eb 6e 0d 3e
       0.81134087 0.121991746 0.36355692 0.13811843
000030 0a 8f 91 3e ac 22 60 3e 18 ba 98 3e 05 9c aa 3d
       0.28429443 0.21888226 0.29829478 0.083305396
000040 24 1f 01 3e 71 ae 41 3d 58 23 5d 3d a0 7e 99 3e
       0.12609535 0.0472855 0.053988785 0.2997942
000050 8e 44 11 3d 28 62 a5 3e f3 84 c1 3c 7b 6e 14 3f
       0.03546577 0.3230145 0.023622965 0.5798108
000060 40 32 a7 3d ba 53 ac 3e f0 aa 18 3e ed b8 e0 3c
       0.08163881 0.33657628 0.14908957 0.02743193
000070 54 d2 b8 3d e9 0d 8c 3e 2a e9 74 3e f5 c7 63 3d
       0.09024492 0.27354363 0.2391707 0.055610616
000080 0a 83 43 3e e5 6a a6 3e 51 41 9c 3e 82 97 e0 3e
       0.19092956 0.3250343 0.30518582 0.4386559
000090 28 90 2a 3e b4 5b 04 3f 08 1f ae 3d f6 82 c4 3d
       0.16656554 0.5170243 0.085020125 0.09595291
0000a0 d0 d3 39 3e 35 55 b7 3f a0 ab 14 3e c5 e7 09 3e
       0.18147206 1.4322878 0.14518595 0.1346732
0000b0 bb 29 1f 3e e3 aa d2 3e 4c 63 36 3f 77 1e 2e 3e
       0.15543263 0.41146 0.71245265 0.17003809
0000c0 87 56 db 3d eb 65 40 3f 6d a7 2f 3d bf 21 cc 3d
       0.10709863 0.75155514 0.04288428 0.09967374
0000d0 6a ab d7 3e f0 b3 85 3f 2c 77 0a 3e 39 d5 16 3f
       0.42122966 1.0445538 0.13522023 0.589191
0000e0 78 d2 57 3f c0 04 94 3e 70 59 c0 3d 85 7f 5a 3e
       0.84305525 0.28909874 0.09392059 0.21337707
0000f0 c5 7d 10 3f 20 97 a1 3d 0b 07 b1 3e 42 48 19 3e
       0.5644191 0.07890153 0.34575686 0.1496897

module.model.2.model.0.weight f4 [64, 64, 3, 3]
000000 b8 f5 93 bd 9e 7e 01 bd 6b ce 56 3d 90 43 20 3c
       -0.072246015 -0.031614892 0.05244295 0.009781733
000010 9d c1 2f bd 1d 83 d9 bc f6 1a 8a 3d 9e 9b 0b bd
       -0.042909253 -0.026551777 0.06743424 -0.034083955
000020 ba 13 80 3d 26 a6 6b 3d 1c 23 e2 bc 38 ae 7d bc
       0.062537625 0.0575315 -0.027604632 -0.0154834315
000030 2e 97 2e bd f7 0c 41 3c b3 aa a4 3c 72 8c 3d bc
       -0.042624645 0.011782876 0.020100927 -0.011569129
000040 2b 29 6b 3d 74 d9 7a 3d 63 03 8b bd 40 c1 c4 bb
       0.057412308 0.061242536 -0.06787755 -0.0060044825
000050 c0 1c 84 bd 9c 5d f2 bc 4c 57 69 3c a4 f5 d0 bb
       -0.06450796 -0.029585652 0.014242005 -0.006376939
000060 6f 37 50 3d 72 16 1f bd bf 4c 8b bd de aa a6 bc
       0.050834116 -0.038839765 -0.068017475 -0.020345148
000070 b7 86 8d bd 76 e8 39 3d 3d dc 13 3d 06 49 40 3d
       -0.069104604 0.045387708 0.036098707 0.04694464
000080 ee be 96 3c 25 41 40 3c 5a ec f3 3b 40 ec 6e bd
       0.01840159 0.011734282 0.007443947 -0.058330774
000090 4b 5e 3e 3d 79 2e 20 bd e5 6b 10 3d b9 84 b9 3c
       0.046476644 -0.03910682 0.035259146 0.022646295
0000a0 76 2d 48 bd b2 b7 08 3c 43 05 98 3b f7 db c5 3c
       -0.04887148 0.008344578 0.004639299 0.024152739
0000b0 39 5a bc bb ed 18 23 3d 7a ae ef bc fd a3 69 bd
       -0.00574806 0.039818693 -0.029258002 -0.057041157
0000c0 d5 13 94 bd d2 2f 42 3d 2b c0 49 bd f5 ff 0d 3c
       -0.07230345 0.047408886 -0.04925553 0.008666982
0000d0 5c 1b 86 3d 8a ea 2b 3d db b5 1a bd 4d fd 7d 3d
       0.06548187 0.04197172 -0.037771087 0.062009145
0000e0 09 67 86 bc a1 9f 11 bd dc 00 a7 bc 95 fa 49 bc
       -0.016406553 -0.035552625 -0.020386152 -0.01232781
0000f0 ac f7 77 bc 54 bd 85 3d d6 08 0d bc 3e 86 81 3c
       -0.015134733 0.06530252 -0.008608064 0.015811082
000100 9a 1f 9d 3c 4a f8 b7 bc 88 1b 03 3d 16 f3 65 bd
       0.019180108 -0.02245726 0.032008678 -0.056140028
000110 c8 c5 c4 bb 50 49 a6 bc 0e 82 34 bd 5e 00 2d bd
       -0.0060050227 -0.02029863 -0.044069342 -0.04223668
000120 fc cb 31 3d 6c f3 49 bd 85 c3 29 bd cf 60 3d 3c
       0.043407425 -0.04930441 -0.041446228 0.0115587255
000130 28 25 91 bd e2 d8 32 3d 8c 3e 97 bc a9 48 4c 3d
       -0.07087165 0.043663867 -0.018462442 0.04987398
000140 80 57 5d bc 52 c4 59 3b 33 c9 39 3d 20 b7 db 3c
       -0.013509631 0.0033228588 0.045357894 0.02682072
000150 37 78 ae bc 71 af 88 3d bf e2 f7 3c 54 ab 82 bb
       -0.021297557 0.06674088 0.030259488 -0.003987709
000160 f6 38 2a bc 61 c6 1a 3d 80 3d 61 3d c3 d6 1b bc
       -0.010389557 0.037786845 0.05499029 -0.009511652
000170 d7 29 5c 3d 78 0a 87 b8 14 e6 4b bd 07 a8 23 bd
       0.05375084 -6.4392516e-05 -0.049779966 -0.039955165
000180 56 01 7c bd b8 bb 18 bc b0 3d 73 bd 05 f5 3f bd
       -0.06152471 -0.009322099 -0.059385 -0.04686453
000190 cd 14 63 3d ed d8 eb bc ca 29 ac bc 4f b5 53 bc
       0.05543976 -0.028789962 -0.02101602 -0.012921645
0001a0 1d 49 81 3d 99 05 f4 bc 1d c2 53 3d b4 fa ef bc
       0.063127734 -0.029787825 0.051698793 -0.02929435
0001b0 15 a8 45 3d 5e f4 e6 bb 31 b3 7c 3d a8 24 70 bc
       0.048256 -0.007048174 0.061694328 -0.014657177
0001c0 95 0d 27 bb 57 3b 8e 3c 5d 3e 22 3d 73 af ba 3c
       -0.0025490273 0.01736228 0.039610256 0.022788739
0001d0 f7 9b 68 3d 93 23 f1 bc 58 c3 85 3d 96 c8 a6 bc
       0.056789365 -0.029435908 0.065313995 -0.020359319
0001e0 6b e1 7b bd 24 61 61 3d 41 a8 56 3d e5 5b 23 bd
       -0.061494272 0.05502428 0.052406553 -0.03988256
0001f0 45 ff 17 bd 82 d8 f2 bb a5 6d 9b 3c 05 66 84 bc
       -0.03710868 -0.0074110636 0.018973181 -0.016161928
000200 51 b5 6e bc 2c 8e 42 bd 6c 4e 8d 3d ce f0 33 bd
       -0.014569596 -0.047498867 0.068997234 -0.04393082
000210 16 05 64 3d 0f d0 8b 3d 18 08 6f bc 88 dc 54 3d
       0.055668913 0.068267934 -0.014589332 0.051968127
000220 46 8d f8 bc b0 7f f4 3b 37 d4 b5 ba bb 1e 7b 3d
       -0.030340802 0.0074615106 -0.0013872449 0.061308604
000230 f0 48 31 bd ce 42 76 3c 4d 7c 87 bd 43 cc 7b 3d
       -0.04328245 0.015030576 -0.06615505 0.061474096
000240 f8 82 f7 bc e4 9a 33 3d c7 d4 c8 3c 66 e0 76 3d
       -0.030213818 0.043848887 0.024515523 0.060272597
000250 0d 1e 10 bd 2f f5 81 bd 4f e3 c6 bc 0d 93 29 bd
       -0.03518491 -0.06345593 -0.024278311 -0.041400004
000260 76 3c fd bb 0e dd 71 bd e9 9b 21 3d 0e 34 8b bd
       -0.007728155 -0.059048705 0.039455328 -0.06797038
000270 d9 96 3d 3d 88 29 66 3b 63 a3 78 3d 1d 3a 94 bd
       0.046286438 0.003511997 0.060702693 -0.07237647
000280 3b 7f f5 3c f5 ca 0e 3d a3 23 0e 3d 0a 04 83 bd
       0.029967895 0.034861524 0.034701955 -0.06397255
000290 bb 0c 0f bc d6 66 8d bd cd 46 81 bd a5 8d a8 bc
       -0.0087310625 -0.0690438 -0.06312332 -0.020575354
0002a0 b4 b1 6b bd 1f 91 7d bd da 56 ce 3c d2 af 19 bd
       -0.057542518 -0.061905976 0.025187898 -0.03752119
0002b0 ca 4a 3c 3c c5 96 d0 bc da 68 5a bd 51 28 8a bd
       0.0114924405 -0.025462518 -0.05332265 -0.06745971
0002c0 0c 1c 77 3b 1e 00 92 bd 69 8d 12 bc 97 ed f3 bb
       0.0037705926 -0.071289286 -0.008944848 -0.0074440944
0002d0 0e b7 76 3c d0 60 9c 3c 0c 3b 24 bc 64 68 04 bb
       0.015058292 0.019089133 -0.0100238435 -0.0020203823
0002e0 7c c6 21 3c fb 09 47 bc 95 40 07 bd 4f ad 42 bd
       0.0098739825 -0.012148376 -0.033020575 -0.04752856
0002f0 28 4d a2 3c e3 50 56 bc b3 80 d8 bb 4c a6 4f bd
       0.019812182 -0.013080808 -0.006607139 -0.050695702
000300 3e 3d 79 3c e6 89 96 bc d8 bb 46 3d 1a b4 0b bd
       0.015212355 -0.018376302 0.048518986 -0.034107305
000310 86 4e 59 3d 6e b2 f7 3c 3a 1d 8e bd 63 a7 56 37
       0.0530534 0.03023645 -0.06939168 1.2794367e-05
000320 cb 7a 62 bd fc 13 e6 3a f3 77 44 bd ca e5 cd bb
       -0.055292886 0.0017553563 -0.047965955 -0.0062834965
000330 a5 df 4d bc 9c e0 df bc c0 68 8f 3c 37 cd 07 bd
       -0.012565528 -0.027328782 0.017506003 -0.033154693
000340 9d b7 de 3c a4 3e 65 bd 45 60 1c ba 90 44 f7 bc
       0.027187163 -0.055967942 -0.0005965273 -0.03018406
000350 ab c0 7c bd 29 80 64 bd aa 8f 9d 3c a0 d5 0d bc
       -0.06170718 -0.055786286 0.019233543 -0.008656889
000360 ad 28 62 3c 99 d9 70 3d 22 0c a6 3c 29 29 e5 3c
       0.013803643 0.058801267 0.020269457 0.027973728
000370 e5 f8 6d bd c6 5b 8b bd 25 a1 90 3d 3c 6c 9a 3c
       -0.058098692 -0.06804614 0.07061986 0.018850438
000380 cf 2b 2e bd c2 3f 2a bd 88 2d 90 3d 81 32 88 3d
       -0.042522248 -0.04156471 0.070399344 0.06650258
000390 c1 6d f3 3c 91 90 1f bd b4 7b fb 39 cd e4 36 bd
       0.02971542 -0.03895623 0.00047966617 -0.044651795
0003a0 f7 cb ac bc 01 0b 38 bd bd 4e ff 3c 1b c3 8e bb
       -0.021093352 -0.04493237 0.031165475 -0.0043567545
0003b0 92 1e dc bc 63 58 5d bb 95 24 32 3d 7f 9a 6e 3d
       -0.026870046 -0.0033774606 0.04349192 0.058252808
0003c0 12 c6 86 bd 37 d1 10 3d 16 d9 6e 3d da 91 81 bd
       -0.06580748 0.035355773 0.058312498 -0.06326647
0003d0 9b 33 5c bd ce 02 34 bc c0 0b 4f 3d a4 03 27 bd
       -0.053760152 -0.010986997 0.050548315 -0.040774956
0003e0 11 28 69 3d 21 86 5d 3d 89 0e 2b 3d 9f da 0f bc
       0.056922976 0.054082993 0.04176191 -0.008780151
0003f0 eb e8 7f bd 47 7f 53 bd e5 af 8c bd 28 b1 b0 3c
       -0.062477987 -0.051635053 -0.06869487 0.02156885

module.model.2.model.0.bias f4 [64]
000000 88 4e 86 3a 0a b3 63 3a 3b a7 5e 3a cd a5 97 3a
       0.0010246793 0.00086860417 0.0008493547 0.0011569798
000010 e3 19 8d 3a d4 83 82 3a 07 13 3d 3a fd 65 90 3a
       0.0010765161 0.0009957501 0.0007212613 0.0011016723
000020 e2 46 80 3a 03 2a 3a 3a ff 7a 96 3a a3 b3 8d 3a
       0.000978675 0.0007101597 0.0011480747 0.0010810982
000030 a1 d3 92 3a df 8c 88 3a 1a f2 87 3a 4a 6a 74 3a
       0.0011201986 0.001041796 0.0010371835 0.00093236996
000040 aa 82 95 3a 4f c8 7d 3a 9e 94 8f 3a 0b ec 80 3a
       0.0011406739 0.00096810324 0.0010954326 0.0009835971
000050 6b 7f 7b 3a 2f 94 21 3a 8f c1 4e 3a e4 f2 8d 3a
       0.0009593877 0.00061637437 0.0007887119 0.0010829833
000060 02 54 88 3a 9f 48 9e 3a 4b ae 6c 3a 91 e1 9b 3a
       0.0010401013 0.0012076086 0.0009028657 0.0011892786
000070 d4 e2 90 3a 99 92 a5 3a 34 1c 86 3a fa 8d 96 3a
       0.0011053928 0.001263219 0.0010231794 0.0011486404
000080 48 2f 84 3a 63 0e 76 3a 90 be 78 3a b8 d2 83 3a
       0.0010084892 0.0009386299 0.0009488845 0.0010057306
000090 85 dc 88 3a 2b 8f 3a 3a 17 16 60 3a 3c 21 8e 3a
       0.0010441697 0.00071166706 0.00085482135 0.0010843645
0000a0 e6 5e 7b 3a ee 44 26 3a 7d 48 8c 3a b2 15 a1 3a
       0.0009589031 0.0006342669 0.0010702756 0.0012289791
0000b0 e0 da 91 3a 49 a7 ac 3a a0 d5 4f 3a 43 bc 78 3a
       0.0011127852 0.0013172413 0.0007928256 0.00094885024
0000c0 b6 df 70 3a c6 d6 a0 3a 8d b9 83 3a dd 7e 42 3a
       0.0009188609 0.0012271039 0.0010049805 0.0007419417
0000d0 2d 8c 99 3a d1 2e 76 3a 91 73 78 3a 97 c0 6c 3a
       0.0011714749 0.00093911315 0.000947767 0.00090313837
0000e0 58 5a 7a 3a 9d 63 75 3a e5 21 94 3a a8 77 82 3a
       0.00095502054 0.0009360852 0.0011301605 0.0009953873
0000f0 00 5e 55 3a 05 3f 8b 3a f5 b9 8c 3a 3d 62 68 3a
       0.0008139312 0.001062364 0.0010736572 0.00088647363

module.model.2.model.1.weight f4 [64]
000000 84 c6 7f 3f 01 08 80 3f cb 3b 80 3f 4b 02 80 3f
       0.99912286 1.0002443 1.0018247 1.00007
000010 0e a2 7f 3f f4 c7 7f 3f 1c 38 80 3f 2a 24 80 3f
       0.9985665 0.9991448 1.0017123 1.0011036
000020 18 a7 7f 3f fb 2d 80 3f 1b a0 7f 3f b2 91 7f 3f
       0.9986434 1.0014032 0.99853677 0.9983169
000030 c6 ca 7f 3f 6c b3 7f 3f ed 20 80 3f 45 28 80 3f
       0.9991878 0.9988315 1.0010048 1.0012289
000040 2b a7 7f 3f a2 23 80 3f 4b b7 7f 3f 17 1f 80 3f
       0.99864453 1.0010874 0.9988906 1.0009488
000050 82 00 80 3f 0f 39 80 3f 60 34 80 3f cb be 7f 3f
       1.0000155 1.0017413 1.0015984 0.999005
000060 c0 04 80 3f 32 ad 7f 3f 2f d7 7f 3f bc 8d 7f 3f
       1.000145 0.9987365 0.9993772 0.99825644
000070 d2 2a 80 3f 3b 36 80 3f b0 25 80 3f 06 cd 7f 3f
       1.0013068 1.001655 1.0011501 0.99922216
000080 7b dd 7f 3f be b6 7f 3f 98 ec 7f 3f 35 f6 7f 3f
       0.9994733 0.9988822 0.9997039 0.9998506
000090 8a 9b 7f 3f 68 30 80 3f 9a 24 80 3f 7b ed 7f 3f
       0.9984671 1.0014772 1.001117 0.9997174
0000a0 21 ba 7f 3f 73 36 80 3f c5 db 7f 3f 96 c8 7f 3f
       0.99893385 1.0016617 0.99944717 0.99915445
0000b0 65 94 7f 3f 18 8c 7f 3f d6 12 80 3f 81 03 80 3f
       0.9983581 0.9982314 1.0005748 1.0001069
0000c0 21 fa 7f 3f 60 9d 7f 3f fe 11 80 3f f1 38 80 3f
       0.9999104 0.9984951 1.0005491 1.0017377
0000d0 07 92 7f 3f 04 16 80 3f 33 bf 7f 3f 5b 31 80 3f
       0.99832195 1.0006719 0.9990112 1.0015062
0000e0 a5 b2 7f 3f 83 19 80 3f ac a5 7f 3f b9 9c 7f 3f
       0.99881965 1.0007786 0.9986217 0.99848515
0000f0 0a 33 80 3f da 97 7f 3f bc 8e 7f 3f fc 1c 80 3f
       1.0015576 0.9984108 0.9982717 1.0008845

module.model.2.model.1.bias f4 [64]
000000 bc c9 84 ba ad 27 1c 3a 4b f0 da 3a a2 60 76 ba
       -0.0010130922 0.000595684 0.0016703693 -0.00093985547
000010 74 48 ae ba b5 f5 b5 ba 9a 79 ea 3a b3 07 bd 3a
       -0.0013296739 -0.001388243 0.0017889023 0.001442185
000020 a2 29 54 39 55 3d cc 3a 70 5a bc ba 11 ad e5 ba
       0.00020233405 0.0015582243 -0.0014370214 -0.0017522891
000030 45 7b 84 ba c1 e6 c9 ba b9 63 42 39 00 02 f1 b9
       -0.0010107538 -0.0015403853 0.00018538431 -0.00045968592
000040 70 58 ca ba c4 06 de 3a 4e ae c9 ba 91 24 1e 3a
       -0.0015437733 0.0016939272 -0.001538703 0.00060326705
000050 48 1d d7 3a 86 e0 d6 3a f4 a5 7b 3a f4 7d e6 ba
       0.0016411925 0.0016393817 0.0009599619 -0.0017585144
000060 51 5b c4 3a 0b 5e 16 b9 9b c3 e0 ba 7c bd 91 ba
       0.0014980828 -0.00014340148 -0.0017148139 -0.0011119093
000070 76 d7 b9 3a 2b aa a7 3a df 66 3e 3a 4d d9 a3 ba
       0.0014178592 0.0012791803 0.0007263254 -0.0012500674
000080 dd bc 7d ba 15 03 25 b8 c6 6a a6 3a fb a4 1d ba
       -0.0009679327 -3.9341936e-05 0.0012696616 -0.0006013659
000090 1f 1d 9d ba cd c7 df 3a 5c 2b a9 3a 6d 4b 7a ba
       -0.0011986828 0.0017073095 0.0012906599 -0.00095479825
0000a0 36 5f 33 3a f6 05 d3 3a 6b 2b 4c b9 84 64 cb ba
       0.00068424956 0.0016099799 -0.0001947113 -0.0015517627
0000b0 61 75 dd ba b8 a3 e1 ba 7b 37 c9 3a ca 03 ea 39
       -0.0016895944 -0.001721493 0.0015351617 0.0004463478
0000c0 97 a0 3e 3a 66 c5 ce ba 70 7e 1f 38 c3 7c de 3a
       0.00072718546 -0.0015775382 3.8026308e-05 0.0016974438
0000d0 96 2a d6 ba bf 4f 88 38 25 a9 86 ba f7 ea b5 3a
       -0.0016339596 6.499839e-05 -0.0010273798 0.0013879229
0000e0 30 f4 62 3a b2 0a 3d 3a 20 1e d8 ba 64 11 e4 ba
       0.00086576026 0.00072113716 -0.001648847 -0.0017400202
0000f0 09 86 d4 3a 75 ad c8 ba 3b aa d1 ba 12 66 93 3a
       0.0016214262 -0.0015310483 -0.0015996167 0.0011245629

module.model.2.model.1.running_mean f4 [64]
000000 9f c3 01 3d 84 a6 da bd 33 b5 de 3c ea fc 61 3f
       0.0316807 -0.106762916 0.027186012 0.8827654
000010 f3 ee 37 3e a1 a8 56 3e 00 54 cb be f5 00 a1 3e
       0.17962246 0.20962764 -0.39712524 0.31446043
000020 46 26 9e be 6a a6 ab bd 30 c1 b7 be 31 d1 0a 3e
       -0.30888575 -0.0838135 -0.35889578 0.13556363
000030 c6 5d 82 bb 1e 82 3b be d1 e0 be 3e 37 32 d0 3e
       -0.003978464 -0.18311355 0.37280896 0.4066331
000040 6f 86 79 bd d1 5b 0b be eb f3 c0 bd 17 7e f1 bc
       -0.06091922 -0.13609244 -0.09421524 -0.02947907
000050 73 6f 0c bf 3f a4 82 be 75 b3 06 bd 20 34 e0 bc
       -0.5485756 -0.25515935 -0.032885987 -0.027368605
000060 d8 94 48 3e 11 06 de be 4c 8f e4 3e cf 9f ba be
       0.1958803 -0.43364003 0.44640577 -0.3645005
000070 f2 36 df 3e b7 aa d5 3e e6 31 e2 3c 5e 7a 4e bd
       0.43596607 0.41731808 0.027611684 -0.050409667
000080 72 2e c1 3e c0 a8 0b bc 95 74 d0 3e 05 bf 27 be
       0.37730747 -0.00852412 0.40713945 -0.16381462
000090 01 87 0f bd bd 79 4f bf ea 95 ec bc 94 38 7a 3d
       -0.03504086 -0.8104513 -0.028880078 0.061089113
0000a0 80 83 2a be b5 d8 85 3c 09 d3 92 3e 4c 38 9b 3e
       -0.16651726 0.016338686 0.28676632 0.3031639
0000b0 86 c6 9e be a1 e2 fa bd 66 96 8e be c9 44 16 3e
       -0.31010836 -0.12250257 -0.2784912 0.14674677
0000c0 ce 1f 92 3c b2 fe ee bd f9 a8 94 3e ca 60 fe bd
       0.017837431 -0.11669673 0.29035166 -0.12420805
0000d0 87 c1 23 be ec 73 8d bd a2 3f 19 be 2f 63 eb 3e
       -0.15991794 -0.06906876 -0.1496568 0.4597411
0000e0 a0 ac b9 3e 61 f5 04 3c b3 ec 8c be 31 90 a1 bc
       0.36264515 0.0081151435 -0.27524337 -0.019722076
0000f0 16 3e 9a 3d dc 71 26 be b5 7c a2 3e a5 c1 99 3d
       0.07531373 -0.16254371 0.3173577 0.07507638
