output_nn_denoise/ckpt/resnet_epoch37.pth (torch, 641699 bytes, 31 tensors)

module.model.0.weight f4 [64, 1, 1, 1]
0	0xbe22cc60	-0.15898275
1	0xbe25f8bf	-0.1620817
2	0x3e802b6c	0.25033128
3	0xbd13e3d8	-0.03610596
4	0xbe5371ab	-0.2064883
5	0x3e471454	0.19441348
6	0x3cdcb134	0.026939966
7	0x3e796bcf	0.24357532
8	0xbe144236	-0.14478382
9	0xbe17931c	-0.14802212
10	0x3e903522	0.28165537
11	0x3cf35f64	0.029708572
12	0xbe3d4afd	-0.18485637
13	0xbe3dbaa2	-0.18528226
14	0x3d32508e	0.043533854
15	0x3e1cf8ed	0.15329333
16	0xbe968264	-0.29396355
17	0x3e0a999a	0.13535157
18	0xbe3f7ca8	-0.18699896
19	0xbde7b962	-0.11314656
20	0xbe412a3d	-0.18863769
21	0x3e03f83a	0.1288766
22	0xbc044638	-0.008073382
23	0x3e816980	0.25275803
24	0xbdfaebcc	-0.12252006
25	0xbd97eb81	-0.07417966
26	0xbe6dc51f	-0.23219727
27	0x3e8ea891	0.2786298
28	0xbdd90e3e	-0.105984196
29	0xbe7ee727	-0.24892865
30	0xbda2efaf	-0.07955872
31	0xbe8518a9	-0.25995377
32	0xbda01eb0	-0.07818353
33	0x3d8b2185	0.06793503
34	0xbe287c51	-0.16453673
35	0x3e1f18fc	0.15536875
36	0xbd8e4a3a	-0.06947751
37	0xbdf2bb62	-0.11852147
38	0x3e870b56	0.26375836
39	0x3c0f17f0	0.0087337345
40	0xbe76cbcd	-0.24101181
41	0xbe98b230	-0.29823446
42	0xbe208c85	-0.15678604
43	0x3e19ca37	0.15018545
44	0xbe87a0a8	-0.26489758
45	0x3db7f221	0.08981729
46	0xbe416cad	-0.18889113
47	0x3e863cde	0.26218313
48	0x3e500549	0.20314516
49	0xbdd4525a	-0.1036727
50	0x3e8e4c26	0.27792472
51	0xbd94de0a	-0.07268913
52	0xbe45f957	-0.19333397
53	0x3cc7c8fd	0.02438783
54	0x3e572e97	0.21013866
55	0xbcbf57ba	-0.023357261
56	0xbe982e44	-0.29722798
57	0xbacfea16	-0.001586261
58	0xbe93a33a	-0.2883547
59	0xbc684727	-0.01417712
60	0x3d936863	0.071976446
61	0x3e810fc2	0.25207335
62	0x3cd7386d	0.026272023
63	0x3e1a7f65	0.1508766

module.model.0.bias f4 [64]
0	0x3b0a293d	0.002108171
1	0xb939c302	-0.00017715621
2	0x3b426c57	0.0029666626
3	0x3b424c0f	0.0029647385
4	0xbab8b140	-0.001409091
5	0x3b350a29	0.0027624464
6	0x3b2e9ccb	0.002664375
7	0xbaa8949e	-0.0012861674
8	0xba8f59d9	-0.0010936811
9	0xb98ff53d	-0.00027457802
10	0x39acc1c3	0.0003295076
11	0xba97c69d	-0.0011579577
12	0x3b0a2418	0.0021078642
13	0xbae8dfd9	-0.0017766907
14	0xba76d57b	-0.00094159663
15	0x3b5c0c87	0.0033576803
16	0x3b702aa8	0.003664652
17	0x3aebb2c7	0.0017982357
18	0x3b0050d2	0.0019579423
19	0xba3abd44	-0.00071235397
20	0xba531ab5	-0.0008052991
21	0x3b18ed39	0.0023334755
22	0x3b59c69c	0.0033229953
23	0xbadd3ab6	-0.0016878459
24	0x38839caa	6.275748e-05
25	0x3a4faceb	0.000792219
26	0xbab927f3	-0.0014126286
27	0x3b68f7f0	0.0035548173
28	0xbab0842b	-0.0013467123
29	0xbac63c16	-0.0015124108
30	0x3b2c1e86	0.002626331
31	0xbac06c8c	-0.0014680787
32	0x3b2abd05	0.0026052606
33	0xba24d4de	-0.0006287823
34	0x3b63a694	0.003473674
35	0xbae4a6a6	-0.0017444685
36	0xba81a46b	-0.0009890919
37	0x3b164058	0.0022926535
38	0xba89807a	-0.001049056
39	0xba35ee58	-0.0006940118
40	0xba9cf19c	-0.0011973861
41	0x3b65da70	0.0035072826
42	0xb9e19fef	-0.00043034504
43	0x3b6fdf82	0.0036601727
44	0x3aef0c86	0.0018237985
45	0xba538aac	-0.0008069675
46	0x3a6d66ad	0.00090561324
47	0x3a6b8c01	0.0008985401
48	0x39005305	0.00012237958
49	0xbad38dd0	-0.0016140286
50	0x3b4044ce	0.0029337886
51	0x3b2b8079	0.0026169105
52	0x3a11b2f7	0.0005557979
53	0xba787d55	-0.0009479125
54	0x3b19f9f5	0.0023494933
55	0x3999fd44	0.00029371132
56	0x3b21e5fd	0.0024703734
57	0xbaa585cd	-0.0012628377
58	0x3b36e54f	0.0027907675
59	0xba2b8113	-0.0006542366
60	0x3b7cd103	0.003857673
61	0xba94c748	-0.0011350894
62	0xbac40954	-0.0014956393
63	0x3b4bec18	0.0031116065

module.model.1.model.0.weight f4 [64, 64, 3, 3]
0	0x3d978af5	0.07399551
1	0xbc6391ed	-0.013889772
2	0x3d18ad74	0.037274793
3	0xbbf9f311	-0.0076278527
4	0xbd4848ee	-0.048897676
5	0xbd635c22	-0.055507787
6	0x3c444c65	0.0119811045
7	0xbd8af716	-0.06785409
8	0x3d795a15	0.060876925
9	0xbd8655b9	-0.06559319
10	0xbcee4ea7	-0.029090239
11	0xbd5d5048	-0.05403164
12	0x3d317374	0.043322995
13	0xbd729b1f	-0.059229966
14	0xbcf3f0ca	-0.029777903
15	0xbc5cf6de	-0.013486592
16	0x3ccd1b0a	0.025037307
17	0xbd86f36a	-0.06589396
18	0xbd35bc5c	-0.044369087
19	0xbd8d18ac	-0.068894714
20	0xbd0d27f2	-0.034461923
21	0x3d810959	0.06300611
22	0x3d1c29ca	0.03812579
23	0x3cb2d402	0.021829609
24	0x3d1c0e44	0.038099542
25	0x3d1fcbc9	0.039012704
26	0xbc841382	-0.016122583
27	0x3d375fd6	0.04476913
28	0xbd42e0a0	-0.0475775
29	0xbb2acec3	-0.002606318
30	0x3d3a993d	0.045556296
31	0x3d6af8ae	0.057366066
32	0xbb396507	-0.0028288977
33	0x3d8fd72f	0.07023465
34	0x3cc0ae7c	0.0235207
35	0x3d74b80e	0.05974584
36	0x3d6dc2e5	0.058047194
37	0x3d31786d	0.043327738
38	0x3b90f942	0.004424245
39	0xbd6c007f	-0.05761766
40	0xbd352a52	-0.044229813
41	0xbd07297e	-0.032998554
42	0xbd168e94	-0.036757067
43	0x3d257e21	0.04040349
44	0x3d6fe933	0.058572005
45	0xbd1009c5	-0.035165567
46	0x3cafb39e	0.021447953
47	0x3cebedc6	0.028799903
48	0xbd05e97c	-0.03269337
49	0x3ae0d5ad	0.0017153524
50	0x3c00cc3d	0.007861194
51	0xbcc35264	-0.023842998
52	0xbd726f2e	-0.05918806
53	0x3d5a5716	0.053305708
54	0x3d0e5c78	0.034756154
55	0x3cefa1d7	0.029251976
56	0xbd4eaea4	-0.05045952
57	0x3ca3c040	0.019989133
58	0x3d09ec27	0.033672478
59	0xbc36fd14	-0.011168737
60	0xbb2a2ded	-0.0025967315
61	0x3d0efd1a	0.034909345
62	0xb8d709ab	-0.000102538
63	0x3a816da5	0.0009874596
64	0xbcf4fed7	-0.029906673
65	0xbbc1b6cb	-0.005911683
66	0x3d3545d3	0.044256043
67	0x3d0f54c9	0.034992967
68	0x3c3f62c9	0.011681267
69	0xbb0c26e0	-0.0021385476
70	0xbd82fa31	-0.063953765
71	0xbcb04944	-0.02151931
72	0x3d5bc9cd	0.05365925
73	0x3d6c7485	0.05772831
74	0xbcfaf9e9	-0.030636745
75	0xbd2cab85	-0.04215576
76	0xbd53b97c	-0.051690564
77	0xbc3f8d43	-0.011691394
78	0x3d126d5c	0.035748824
79	0x3ca5d822	0.020244662
80	0x3d6397f8	0.05556485
81	0x3b43b6e8	0.002986366
82	0x3d6e5fe6	0.058196925
83	0xbb76356d	-0.0037568465
84	0xbca18703	-0.019717699
85	0x3d3ef118	0.046616644
86	0x3cfc448b	0.030794403
87	0x3cff1c73	0.031141495
88	0x3d48659c	0.048925027
89	0x3c30eb07	0.010798222
90	0x3c99df92	0.018783364
91	0x3c987ca5	0.018614123
92	0xbcfda764	-0.030963607
93	0x3d1964ab	0.03744952
94	0xbcd260ce	-0.025680926
95	0x3c9143d9	0.017732548
96	0xbd964ec0	-0.07339239
97	0x3c074fa7	0.008258737
98	0x38103242	3.437908e-05
99	0x3d241698	0.04006061
100	0x3cde884a	0.027164597
101	0xbd90658c	-0.070506185
102	0xbd264b54	-0.040599182
103	0x3d656a6c	0.056009695
104	0xbd1545aa	-0.03644339
105	0xbbe24b49	-0.0069059473
106	0xbd82d1bd	-0.06387661
107	0xbcadefe6	-0.021232557
108	0x3b98f0e1	0.004667387
109	0x3c09d0fc	0.008411642
110	0xbd834b4c	-0.06410846
111	0xbd08a608	-0.033361465
112	0xbd670d60	-0.05640924
113	0x3d41dceb	0.047329824
114	0xbd877a5a	-0.066151336
115	0xba2ad37e	-0.00065165
116	0xbc3fb265	-0.011700247
117	0xbd50e10a	-0.050995864
118	0xbd8502b2	-0.06494655
119	0x3d9233c5	0.071387805
120	0x3ca0812e	0.019592848
121	0x3d74d219	0.059770677
122	0xbd59f583	-0.053212654
123	0xbcdeddf4	-0.027205445
124	0xbd373f42	-0.04473806
125	0x3bb4e204	0.005520107
126	0xbd323f35	-0.04351731
127	0xbc75e775	-0.015008797
128	0xbc5d7c84	-0.013518456
129	0xbd0dd8f4	-0.03463073
130	0x3c00bc8b	0.007857452
131	0xbac948f5	-0.0015356826
132	0x3d39c3b6	0.04535266
133	0x3ca33f2d	0.019927585
134	0x3d49622c	0.04916589
135	0xbb2a69e9	-0.0026003069
136	0x3c75e49c	0.015008118
137	0xbd65fecd	-0.0561512
138	0x3cbb7ae8	0.022885755
139	0x3d4bbfd5	0.049743492
140	0x3cb5640d	0.022142434
141	0x3b947a68	0.0045311935
142	0xbcc1a153	-0.023636496
143	0xbd6f528f	-0.058428343
144	0xbd049b46	-0.032374643
145	0x3a08641f	0.00052029075
146	0x3d8523de	0.06500982
147	0x3cd695e8	0.026194528
148	0x3d933645	0.071880855
149	0xbb27c322	-0.0025598486
150	0x3bcbdb8e	0.0062212413
151	0x3d5da00f	0.054107722
152	0x3c1d7957	0.009611449
153	0x3c9c364c	0.01906886
154	0xbd6e9ac9	-0.058253083
155	0xbd7793e2	-0.060443766
156	0x3ce1e8c9	0.02757682
157	0xbd325620	-0.043539166
158	0x3d41e208	0.0473347
159	0xbd009957	-0.031396236
160	0x3d25ff3f	0.040526625
161	0x3cd3a522	0.025835577
162	0xbd6f873a	-0.05847857
163	0x3d8e01d4	0.069339424
164	0x3d70b1bb	0.058763247
165	0xbd84b92e	-0.06480633
166	0xbd208d8d	-0.039197493
167	0xbd369297	-0.044573393
168	0x3cd855dc	0.026408128
169	0x3d41dce4	0.0473298
170	0xbcaa904b	-0.020820757
171	0x3d4d8587	0.05017617
172	0xbd815bbe	-0.063163266
173	0xbd798cf5	-0.060925443
174	0xbcde87a6	-0.027164292
175	0xbd12762f	-0.03575724
176	0x3a8c63e9	0.0010710928
177	0x3c2e9f22	0.010658057
178	0xbb423e8c	-0.0029639332
179	0x3a98c62e	0.0011655742
180	0xbccc59b3	-0.024945116
181	0xbd83bd6b	-0.06432613
182	0x3d94df9d	0.07269213
183	0xbd67f518	-0.056630224
184	0xbb6bf17e	-0.0036002095
185	0xbc001e54	-0.007819731
186	0xbc860f67	-0.016364766
187	0x3d320e67	0.043470766
188	0xbce664c6	-0.028124224
189	0xbca32f5e	-0.019920047
190	0xbd812647	-0.06306129
191	0xbcfe876a	-0.03107043
192	0x3d48088a	0.04883627
193	0x3c82abe7	0.01595111
194	0xbce95e30	-0.028487295
195	0xbd0aa85c	-0.033851966
196	0xbd4a63ad	-0.049411464
197	0xbd8b7017	-0.06808489
198	0xbca33f2b	-0.019927582
199	0xbc846804	-0.01616288
200	0xbc262157	-0.010139785
201	0x3d94c3f7	0.0726394
202	0xbcc38912	-0.023869071
203	0x3d8cb578	0.0687055
204	0x3ce4425f	0.02786368
205	0xbd353ac1	-0.044245485
206	0x3caa92ac	0.020821892
207	0xbc87b8fb	-0.016567698
208	0x3b91ea17	0.0044529545
209	0x3d422048	0.047394067
210	0x3d3d8b30	0.046275318
211	0x3b5911de	0.0033122222
212	0x3bf0f33a	0.0073532136
213	0xbcc24d51	-0.023718508
214	0x3d3a1c38	0.045437068
215	0xbd14f1bf	-0.03636336
216	0xbd463413	-0.048389506
217	0xbd441a8c	-0.04787688
218	0x3c5747e8	0.013139702
219	0x3cd453f4	0.025918938
220	0xbd78ef8e	-0.060775332
221	0xbcda4900	-0.026646137
222	0x3cf977cf	0.030452637
223	0x3d7a6c13	0.061138224
224	0xbd161928	-0.036645085
225	0xbd100ec9	-0.03517035
226	0xbd22982b	-0.0396959
227	0x3d26d795	0.04073294
228	0x3d5172bc	0.05113481
229	0xbd6a92d6	-0.05726894
230	0x3c3dab43	0.0115764765
231	0xbb875e39	-0.0041311053
232	0xbcfce866	-0.030872535
233	0x3a843941	0.0010087864
234	0xbbfe7352	-0.007765212
235	0x3ca745ea	0.02041908
236	0x3d2e8d6e	0.042615347
237	0x3c65a15f	0.014015525
238	0x3c0505ee	0.0081190895
239	0x3d462cb5	0.04838248
240	0x3d3aebf4	0.04563518
241	0x3d2ad62c	0.041708156
242	0xbd7a71b0	-0.061143577
243	0x3c9f7a1d	0.019467408
244	0xbd7b7553	-0.061391186
245	0x3ccc7a65	0.024960706
246	0x3bd8bf4f	0.0066146026
247	0x3bcc8376	0.0062412573
248	0x3d4a1bb7	0.049342837
249	0xbd6f7bba	-0.058467604
250	0x3d4aabce	0.049480252
251	0x3caf2a00	0.021382332
252	0x3ccbcbd8	0.024877474
253	0x3d5b26bb	0.053503733
254	0xbd75ffd1	-0.06005842
255	0x3d42d1d7	0.0475634

module.model.1.model.0.bias f4 [64]
0	0x3ad7a6d5	0.0016452918
1	0x3aaa94b4	0.0013014288
2	0x3a42b7bb	0.00074278907
3	0x3a49c226	0.0007696472
4	0x3a6a67eb	0.00089418766
5	0x3aad074b	0.0013201026
6	0x3a5080c7	0.00079537596
7	0x3a3e1396	0.00072508433
8	0x3ae3554e	0.0017344148
9	0x3aa24109	0.0012379001
10	0x3a7fb8a2	0.00097549905
11	0x3aa85a10	0.0012844224
12	0x3a73e3c0	0.0009303652
13	0x3ac53412	0.0015045425
14	0x3a4e54ea	0.00078709295
15	0x3a8fac45	0.0010961375
16	0x3a5b75f3	0.0008371763
17	0x3a19d00d	0.0005867489
18	0x3a282a7f	0.0006415024
19	0x3a76dca4	0.0009417033
20	0x3a2ee0e6	0.0006671086
21	0x3a2df495	0.0006635872
22	0x3a112987	0.0005537499
23	0x3aa48219	0.0012550979
24	0x3abcb0c9	0.0014395948
25	0x3a75bd1f	0.00093741895
26	0x3aa30b37	0.0012439255
27	0x3a97a3b9	0.0011569179
28	0x3aa1edc3	0.0012354184
29	0x3a45f988	0.00075521367
30	0x3addfccb	0.00169363
31	0x3a6a31e0	0.00089338236
32	0x3ab0ff5d	0.0013503839
33	0x3a3bb27b	0.00071600795
34	0x39a91bb8	0.00032254844
35	0x3a8296f3	0.0009963199
36	0x3a6006db	0.00085459434
37	0x3a7edd89	0.00097223424
38	0x3a9e9620	0.0012099184
39	0x3a67bcf6	0.0008840108
40	0x3a6e0763	0.000908008
41	0x39f434a4	0.00046578527
42	0x3a937d87	0.001125262
43	0x3aa1333b	0.0012298593
44	0x3a950daa	0.001137187
45	0x3a8e008f	0.0010833907
46	0x3abf0978	0.0014574965
47	0x3a71c135	0.00092222105
48	0x3a4e7d73	0.000787697
49	0x3aa1b83d	0.0012338232
50	0x3a88add4	0.0010427781
51	0x3a849a2e	0.001011675
52	0x3a7a26bc	0.0009542515
53	0x3a6d438b	0.0009050897
54	0x3a30e26f	0.00067476084
55	0x3a011f53	0.0004925627
56	0x3acbe16b	0.0015554851
57	0x3aa17dbd	0.0012320798
58	0x39e650f8	0.00043929345
59	0x3a8517dc	0.0010154205
60	0x3a92c3da	0.0011197284
61	0x3aa0fdab	0.001228263
62	0x3a915e5f	0.0011090747
63	0x3a9eec65	0.0012124894

module.model.1.model.1.weight f4 [64]
0	0x3f7f5eb3	0.99753875
1	0x3f80203e	1.000984
2	0x3f802c48	1.0013514
3	0x3f80416e	1.0019968
4	0x3f805768	1.0026674
5	0x3f7fd02c	0.9992702
6	0x3f80473e	1.0021741
7	0x3f8053d7	1.0025586
8	0x3f80023d	1.0000683
9	0x3f7fb0eb	0.9987933
10	0x3f804940	1.0022354
11	0x3f7f62f4	0.99760365
12	0x3f804e2c	1.0023856
13	0x3f7fa163	0.9985563
14	0x3f7f982a	0.9984156
15	0x3f80375f	1.0016898
16	0x3f7fd0fb	0.99928254
17	0x3f8028b6	1.0012424
18	0x3f803281	1.0015413
19	0x3f8030dd	1.0014912
20	0x3f7fdac5	0.9994319
21	0x3f7f86e0	0.9981518
22	0x3f7f7e16	0.99801767
23	0x3f801d8b	1.0009016
24	0x3f80331a	1.0015595
25	0x3f7fa70f	0.99864286
26	0x3f7f8eed	0.9982746
27	0x3f7f7564	0.997885
28	0x3f804818	1.0022001
29	0x3f804600	1.0021362
30	0x3f7f7788	0.99791765
31	0x3f7f5601	0.99740607
32	0x3f803ed1	1.001917
33	0x3f7fdbea	0.9994494
34	0x3f7fe54c	0.99959254
35	0x3f7f9d57	0.99849457
36	0x3f8009f0	1.0003033
37	0x3f7f9751	0.99840266
38	0x3f7faee9	0.99876267
39	0x3f7f772f	0.99791235
40	0x3f7f9075	0.998298
41	0x3f7fa855	0.9986623
42	0x3f7f7447	0.997868
43	0x3f8007ec	1.0002418
44	0x3f804bfb	1.0023187
45	0x3f7ffbf8	0.9999385
46	0x3f7f5769	0.9974275
47	0x3f804c0c	1.0023208
48	0x3f7f7522	0.99788105
49	0x3f7f6260	0.99759483
50	0x3f7f76b7	0.9979052
51	0x3f803318	1.0015593
52	0x3f8042b8	1.0020361
53	0x3f7f6f47	0.9977917
54	0x3f80479b	1.0021852
55	0x3f800fe9	1.0004855
56	0x3f7f5cbc	0.99750876
57	0x3f803143	1.0015033
58	0x3f80352e	1.0016229
59	0x3f804ce5	1.0023466
60	0x3f803ee4	1.0019193
61	0x3f7f9274	0.99832845
62	0x3f801626	1.0006759
63	0x3f7f569a	0.9974152

module.model.1.model.1.bias f4 [64]
0	0xbb11623a	-0.0022183792
1	0x3b033617	0.0020021254
2	0x38b15eb6	8.457659e-05
3	0x3aad4ce9	0.0013221774
4	0x3b34b653	0.0027574494
5	0xbb2bf9b7	-0.002624137
6	0x3b0dac53	0.0021617606
7	0xb8286d14	-4.015591e-05
8	0xba14bc9f	-0.00056738587
9	0xbab038b3	-0.0013444632
10	0x3ab1bd3d	0.0013560426
11	0xbb21c58d	-0.00246844
12	0x3b1eeaa5	0.0024248746
13	0xbb14da0e	-0.0022712979
14	0xbb2f974f	-0.0026793068
15	0x3b1366e0	0.0022491738
16	0xbac16bf3	-0.0014756903
17	0x3b38eefa	0.0028218613
18	0x3b43ceda	0.0029877932
19	0x3b03a43e	0.002008691
20	0x3a397707	0.00070749264
21	0xba4110ab	-0.00073648494
22	0x3933155a	0.00017078724
23	0x3a96cb0a	0.0011504602
24	0xb939744d	-0.000176863
25	0x3ad12579	0.0015956602
26	0xbb2b2804	-0.002611638
27	0xbb1763b2	-0.0023100195
28	0x3b1a20e9	0.002351815
29	0x3b254929	0.0025220609
30	0xbb055301	-0.0020343664
31	0x3ab3331d	0.0013671849
32	0x3af96cdb	0.0019029634
33	0x3a79b271	0.0009525186
34	0x3b0461df	0.0020199937
35	0xbb13fea0	-0.0022582188
36	0x3b1c3b7c	0.0023839166
37	0x3a6b16af	0.00089679187
38	0xbaf371dc	-0.0018573361
39	0xbb068fb1	-0.0020532424
40	0xba9aaf15	-0.0011801446
41	0x3b0a5941	0.0021110328
42	0xb9924ede	-0.0002790605
43	0xbb14c81f	-0.002270229
44	0x39950fe8	0.00028431346
45	0xbab2c769	-0.0013639751
46	0xbb14c38d	-0.0022699565
47	0x3a8ca2dd	0.0010729689
48	0xb99265a2	-0.00027923012
49	0xbb1dca19	-0.0024076758
50	0x3af2211a	0.0018473
51	0xbb0819dc	-0.0020767367
52	0x3b21dad8	0.0024697091
53	0xbb3c2c84	-0.0028713057
54	0x3b23efcc	0.0025014756
55	0x3acc578d	0.0015590057
56	0xbb2d1573	-0.002641049
57	0xbb1bd216	-0.0023776344
58	0x3b2d7b2c	0.0026471121
59	0x3a08207f	0.00051928306
60	0xba79a536	-0.00095232145
61	0xbb1f2c01	-0.0024287703
62	0x3ae7dd71	0.0017689896
63	0xbb36651e	-0.0027831267

module.model.1.model.1.running_mean f4 [64]
0	0x3a7862a8	0.000947515
1	0x3b4313c2	0.0029766415
2	0x3afc643e	0.0019255949
3	0x3ad41456	0.0016180377
4	0x3afc918d	0.0019269452
5	0x3a4766a0	0.000760654
6	0xba044581	-0.0005045757
7	0x3b7c7768	0.003852332
8	0x3b66de11	0.0035227577
9	0x3bd35a81	0.006449998
10	0x3ac743a9	0.0015202659
11	0x3a8553ff	0.0010172128
12	0x3b29cd55	0.002590974
13	0x39f4f916	0.0004672489
14	0xbb0275ee	-0.0019906717
15	0x3a9d0528	0.0011979686
16	0x3b60f1d8	0.0034323838
17	0x3a36da72	0.00069753
18	0xbb6ecbe8	-0.0036437456
19	0x3b67a71e	0.0035347412
20	0x39a6e6cf	0.00031833953
21	0xb9fd3827	-0.00048297757
22	0x3a03b982	0.0005024896
23	0x3af6b572	0.0018822385
24	0x3b91f40c	0.0044541415
25	0xb9840428	-0.000251801
26	0x3a259087	0.0006315787
27	0x3aa8b5bb	0.0012871543
28	0xb9716408	-0.00023020816
29	0xba602967	-0.00085510913
30	0x3b5517a1	0.0032515305
31	0x3ada9729	0.0016677129
32	0xbb271658	-0.0025495496
33	0xb92e2d35	-0.00016610774
34	0x3b0786d0	0.002067972
35	0xb972b1a6	-0.00023145098
36	0x3ad44dc1	0.0016197489
37	0x3be72f85	0.0070552253
38	0x3abde632	0.0014488159
39	0x3b0b6b0a	0.0021273517
40	0x3b7815a1	0.0037854689
41	0x3b62cc67	0.0034606697
42	0x3b75303e	0.0037412788
43	0x3b7374b0	0.0037148409
44	0x3b8af6df	0.004240855
45	0x3adb5e00	0.0016736388
46	0x3a715a52	0.0009206879
47	0xbb29004c	-0.002578753
48	0x3a836223	0.0010023754
49	0xbaf39dc9	-0.0018586452
50	0x3b5c7cf6	0.0033643818
51	0x3b0c00ec	0.0021362854
52	0x3a80ce5b	0.0009827124
53	0xb9b53a6d	-0.0003456654
54	0x3b83ab11	0.0040181954
55	0x3ba70ce2	0.0050979713
56	0x3aa7f58f	0.0012814271
57	0x3b183f1d	0.0023230978
58	0x3a7a68a6	0.0009552337
59	0x3b41f60b	0.0029596116
60	0x3a8e382c	0.0010850481
61	0x3b506228	0.0031796787
62	0x3954d383	0.0002029669
63	0x3b32fd33	0.0027311563

module.model.1.model.1.running_var f4 [64]
0	0x37cceaa1	2.4427953e-05
1	0x38a45ee3	7.8378034e-05
2	0x397096b2	0.00022944322
3	0x39008c98	0.00012259407
4	0x3953265e	0.00020136821
5	0x3786749a	1.6028342e-05
6	0x38e87366	0.00011084117
7	0x38bc729e	8.985888e-05
8	0x37f3130b	2.8976725e-05
9	0x381436c5	3.5336958e-05
10	0x394c6627	0.00019493011
11	0x382da1d0	4.1397114e-05
12	0x39bd9ac8	0.0003616421
13	0x39b27808	0.00034040236
14	0x35e2e0ed	1.6903774e-06
15	0x3811ac81	3.473135e-05
16	0x3801431d	3.08185e-05
17	0x3932d86c	0.00017056026
18	0x395bf95f	0.00020978366
19	0x379622a7	1.789753e-05
20	0x38e04f67	0.00010695942
21	0x37fc198d	3.0052639e-05
22	0x386155a9	5.3723958e-05
23	0x38c5a55d	9.424493e-05
24	0x38838970	6.2721665e-05
25	0x38926323	6.980288e-05
26	0x36d9b072	6.487645e-06
27	0x3719d025	9.167973e-06
28	0x38be232a	9.066456e-05
29	0x3923eabc	0.00015632337
30	0x3592d349	1.093934e-06
31	0x3871ffd2	5.769713e-05
32	0x35bb27c5	1.394416e-06
33	0x3804dff0	3.167981e-05
34	0x38be3901	9.070524e-05
35	0x383c1d21	4.484982e-05
36	0x3928ae1e	0.00016086592
37	0x39b54c38	0.00034579798
38	0x39089b8c	0.00013027916
39	0x354296b2	7.248992e-07
40	0x3697033c	4.500527e-06
41	0x3898dcdc	7.289063e-05
42	0x37019a22	7.724886e-06
43	0x3642d278	2.9030762e-06
44	0x394be4f5	0.00019444882
45	0x35c8beb1	1.495666e-06
46	0x354faf50	7.736862e-07
47	0x36b03462	5.251307e-06
48	0x38751655	5.843335e-05
49	0x37c442f8	2.3396206e-05
50	0x37021bca	7.755074e-06
51	0x396107e6	0.00021460615
52	0x39abd4f7	0.00032774333
53	0x372f1c76	1.0437439e-05
54	0x3953b81a	0.00020191111
55	0x37e5887c	2.7362483e-05
56	0x393252e7	0.00017006286
57	0x37f07b1a	2.8667553e-05
58	0x39b2a319	0.00034072323
59	0x38f03a43	0.00011454944
60	0x386e5881	5.6826048e-05
61	0x3804a353	3.162336e-05
62	0x3913ab4d	0.00014082827
63	0x381fe7dd	3.8124494e-05

module.model.1.model.3.weight f4 [64, 64, 3, 3]
0	0xbc35e256	-0.011101326
1	0xba9203c4	-0.0011140038
2	0xbd30e166	-0.043183707
3	0x3d00f17e	0.031480305
4	0xbd70c254	-0.058779076
5	0xbd39dcd9	-0.045376632
6	0x3d3316bb	0.04372285
7	0x3d812352	0.06305565
8	0xbc755d53	-0.0149758635
9	0x3d59a21f	0.053133126
10	0x3d629f9a	0.05532799
11	0x3ce7bad3	0.028287327
12	0xbcc74018	-0.024322554
13	0xbc662e6b	-0.014049153
14	0x3d1518c9	0.03640059
15	0x3cfc5410	0.030801803
16	0xbd2c0aab	-0.04200236
17	0xbcc3173f	-0.023814796
18	0x3c44714b	0.011989902
19	0x3d7cb83a	0.06169913
20	0x3d24bb36	0.0402176
21	0xbccd451b	-0.025057366
22	0xbc588a19	-0.013216519
23	0xbc94ed8f	-0.018179683
24	0x3d938fac	0.072051376
25	0x3d04605e	0.032318465
26	0xbd74ff3b	-0.05981372
27	0xbc0c634c	-0.008568596
28	0xbd0cd364	-0.034381285
29	0x3d7ffc02	0.062496193
30	0xbd86dee2	-0.0658548
31	0x3cccd997	0.025006099
32	0x3d0041be	0.031312697
33	0xbd8651f2	-0.065585986
34	0xbcc2b51a	-0.023767997
35	0x3d2c33d4	0.042041615
36	0xbc9ffe07	-0.01953031
37	0xbba9ead7	-0.005185466
38	0x3d938e9e	0.072049364
39	0x3d895495	0.06705586
40	0xbd50965c	-0.050924644
41	0xbcb92ffc	-0.022605889
42	0x3d70635d	0.05868851
43	0xbd0469a7	-0.03232732
44	0x3ca91ec3	0.020644551
45	0xbac2c14b	-0.0014858631
46	0x3c35159c	0.011052515
47	0x3d74261e	0.059606664
48	0x3cd07e41	0.025450828
49	0xbd1c6d63	-0.038190257
50	0xbcf0b862	-0.029384796
51	0x3b83ab05	0.00401819
52	0xbc30b371	-0.01078497
53	0x3c4e0dc7	0.012576527
54	0xbd0fe513	-0.03513057
55	0x3d65e5cf	0.056127366
56	0xbd7a6d8d	-0.061139632
57	0x3c9fdbf5	0.019514063
58	0x3d885779	0.06657309
59	0x3d4970e6	0.049179934
60	0xbd352161	-0.044221286
61	0x3c88cb34	0.016698457
62	0x3d5fc530	0.054631412
63	0x3cc89e17	0.024489446
64	0x3c787063	0.015163514
65	0x3cda7d2f	0.02667102
66	0xbd15067c	-0.036383137
67	0xbd7578cc	-0.059929654
68	0x3c71c241	0.014755786
69	0x3ce15f3f	0.027511237
70	0xbd0be4fb	-0.03415392
71	0xbcaaeffc	-0.020866387
72	0xbd54f41a	-0.051990606
73	0xbd0a8fd7	-0.033828583
74	0x3d7eb002	0.062179573
75	0xbb6be458	-0.0035994258
76	0xbd8b96eb	-0.06815895
77	0x3be08e06	0.006852868
78	0x3c9fa32b	0.019486984
79	0xbd5ea0f2	-0.05435271
80	0xbd83b914	-0.06431785
81	0x3c846d3d	0.01616537
82	0x3647e376	2.978571e-06
83	0x3c43c697	0.011949203
84	0xbcf3e1c7	-0.029770745
85	0x3c3fe54f	0.011712386
86	0x3d62f016	0.055404745
87	0x3cb35011	0.021888765
88	0xbd777f5a	-0.060424186
89	0xbd0635c3	-0.032766115
90	0xbc90443e	-0.017610665
91	0x3d07b33d	0.03312992
92	0x3d0ca372	0.03433556
93	0xbd4fa0df	-0.050690528
94	0x3c29546f	0.010335072
95	0x3d97b1aa	0.074069336
96	0x3d1fcca3	0.039013516
97	0xbd1b1d22	-0.03786958
98	0xbd8b46a9	-0.06800587
99	0x3cf188b5	0.029484132
100	0xbd70bf3c	-0.058776125
101	0xbd8bbdcd	-0.06823311
102	0x3bae2cac	0.005315384
103	0x3d2e68f4	0.04258056
104	0x3d32e708	0.04367736
105	0x3cff7af4	0.031186558
106	0xbd05f906	-0.03270819
107	0x3bbdf7fc	0.0057973843
108	0xbd838695	-0.06422154
109	0x3d2f8fa9	0.042861614
110	0xba1ed059	-0.0006058268
111	0x3ca638bb	0.020290723
112	0x3d1b1c1e	0.03786861
113	0x3d4fa9e2	0.050699122
114	0x3d54d288	0.05195859
115	0x3cc01b47	0.023450507
116	0x3c454937	0.012041382
117	0x3d7e8875	0.062141854
118	0x3ca8cb2a	0.020604689
119	0x3d52e609	0.05148891
120	0xbd86aee3	-0.06576326
121	0xbcca19c7	-0.024670495
122	0x3be2271d	0.0069016353
123	0x3d623a93	0.055231642
124	0xbc46e551	-0.012139634
125	0x3cbcabc4	0.023031123
126	0xbb985a20	-0.0046494156
127	0x3d8ee4b0	0.069772124
128	0xbcd02d1e	-0.025412139
129	0x3cdb6c99	0.026785182
130	0xbb80fade	-0.0039361557
131	0xbb85bbbf	-0.004081219
132	0x3d0d616b	0.034516733
133	0xbd868554	-0.06568399
134	0x3c18cd6c	0.00932632
135	0xbd025712	-0.031821318
136	0x3d47933d	0.0487244
137	0x3cc699a9	0.024243193
138	0x3d5aa910	0.053383887
139	0x3d5d9a33	0.054102134
140	0x3d58a353	0.052890133
141	0xbcd95422	-0.026529375
142	0x3cb275ec	0.021784745
143	0x3d5e8235	0.054323394
144	0xbd8a1892	-0.06742968
145	0x3d0e55f7	0.03474995
146	0xbd1b2011	-0.037872378
147	0x3d302a49	0.043009076
148	0x3d5d6096	0.05404719
149	0xbd8eff9e	-0.06982349
150	0xbc239aea	-0.009985665
151	0x3d805a06	0.062671706
152	0x3d377811	0.04479224
153	0xbd7ce1a0	-0.06173861
154	0x3a1dd7e1	0.0006021243
155	0xbc345f8c	-0.011009108
156	0xbd37a331	-0.044833366
157	0xbd14ae95	-0.036299307
158	0xbd4a9768	-0.0494608
159	0xbce21873	-0.027599549
160	0xbd0937ed	-0.0335006
161	0x3cd9827e	0.026551481
162	0x3d43e595	0.04782637
163	0x3d2c9a89	0.042139564
164	0xbd8645a0	-0.06556249
165	0x3bda61a4	0.0066644717
166	0x3d962188	0.07330614
167	0x3d086f59	0.033309314
168	0xbbcb828a	-0.00621063
169	0x3d95d0a8	0.07315189
170	0x3d12b360	0.035815597
171	0x3d4a2052	0.04934723
172	0x3c692017	0.014228842
173	0xbd872f74	-0.06600848
174	0xbc354172	-0.011062967
175	0x3cc89644	0.024485715
176	0x3c16f6ba	0.009214098
177	0xbd529a7d	-0.051416863
178	0x3ba4fee0	0.0050352663
179	0x3c71be25	0.014754807
180	0xbd891c04	-0.06694797
181	0x3d8870ab	0.06662115
182	0x3d76ba34	0.06023617
183	0x3b6ec1bf	0.00364314
184	0xbd46e2f1	-0.048556272
185	0x3d2c3679	0.042044137
186	0xbd64ad62	-0.055829413
187	0x3cff61c3	0.031174546
188	0x3c63341a	0.013867402
189	0xbd813a46	-0.06309943
190	0x3cbc25e4	0.022967286
191	0xbd8f1e22	-0.06988169
192	0x3d7fbe83	0.062437546
193	0x3cca0097	0.024658484
194	0xbc8561e9	-0.016282039
195	0xbd74f230	-0.05980128
196	0xbc612b94	-0.0137433
197	0xbce776b4	-0.028254844
198	0x3c860d30	0.01636371
199	0x3ca458a4	0.020061798
200	0x3d686a93	0.056742262
201	0xbd5207ce	-0.051276974
202	0x3d7d2c62	0.061809905
203	0xbd2b84e8	-0.041874796
204	0x3a9d26a9	0.0011989671
205	0xbcb04b88	-0.021520391
206	0x3cf514d4	0.029917158
207	0xbb31ba3a	-0.0027119056
208	0xbd2d226b	-0.04226915
209	0x3cc83aa8	0.024442032
210	0x3b3c9949	0.0028777889
211	0xbbd03a28	-0.006354589
212	0xbd7db4bd	-0.061939944
213	0x3d8b6fe2	0.06808449
214	0xbd34802b	-0.044067543
215	0x3b8da5cc	0.004322743
216	0x3d6a4172	0.05719132
217	0xbb93d4bf	-0.0045114453
218	0x3d25be80	0.040464878
219	0xbcde4ceb	-0.027136287
220	0x3d34431e	0.04400932
221	0xbcf07b52	-0.029355679
222	0xbc912811	-0.0177193
223	0xbd6b58f8	-0.057457894
224	0xbc20edc3	-0.009822312
225	0x3d411ed0	0.047148526
226	0x3cf9d690	0.03049782
227	0xbd28d8e7	-0.04122248
228	0xbcec2bca	-0.028829474
229	0x3c335859	0.010946357
230	0xbd777490	-0.060413897
231	0xbd59c878	-0.053169698
232	0xbd42ae40	-0.04752946
233	0xbb97151d	-0.004610671
234	0xbc6ca7fe	-0.014444349
235	0x3d694e5f	0.056959506
236	0x3d3edecb	0.04659919
237	0x3d687910	0.05675608
238	0xbbbf7db4	-0.0058438424
239	0x3d6edec1	0.058317903
240	0xbcb72d49	-0.02236046
241	0x3d521411	0.051288668
242	0x3d5cdb04	0.053919807
243	0x3cc3dfbb	0.023910394
244	0xbd8691e1	-0.06570793
245	0xbcaa268b	-0.020770332
246	0x3cd5641f	0.026048718
247	0x3d03890b	0.032113116
248	0x3d86e8ad	0.06587348
249	0xbcbe7e8f	-0.023253707
250	0x3b114fec	0.0022172881
251	0xbd841d25	-0.064508714
252	0x3b42a462	0.002970003
253	0x3d1b2a77	0.037882295
254	0xbd9211a6	-0.071322724
255	0xbd1455a6	-0.036214493

module.model.1.model.3.bias f4 [64]
0	0x39f97c6c	0.00047585682
1	0x3ae747fe	0.0017645357
2	0x39eee4bb	0.00045565315
3	0x3a4834a6	0.000763724
4	0x3ae73402	0.0017639401
5	0x3a528e24	0.0008032045
6	0xb8802b11	-6.1115374e-05
7	0x3ab37955	0.0013692776
8	0x3acfbfe0	0.001585003
9	0x3a747262	0.00093249057
10	0x3a86ea6d	0.0010293253
11	0x3ad586f1	0.0016290826
12	0x3a24815c	0.00062753796
13	0x3b1d830a	0.0024034404
14	0x3ae2bc6d	0.0017298587
15	0x39b6f8b2	0.00034899038
16	0x39b01ce1	0.00033590852
17	0x3ad04481	0.0015889556
18	0x3ab0b79f	0.0013482458
19	0x3abd0966	0.0014422357
20	0x3a9dc23a	0.0012036033
21	0x399996a2	0.00029294664
22	0x39806778	0.00024491153
23	0x3aff752b	0.0019489875
24	0x3a63ef7d	0.00086950493
25	0x3a936cfc	0.001124769
26	0x3ab1eb91	0.0013574233
27	0xb7000004	-7.629398e-06
28	0x3a3a51a6	0.00071075035
29	0x3b0944e3	0.00209456
30	0x3a309483	0.0006735997
31	0x3ab73cfc	0.0013979967
32	0x3aa0d41a	0.0012270242
33	0x3ac82017	0.0015268353
34	0x39ea4ce4	0.00044689246
35	0x3b06dc3c	0.0020578047
36	0x3ae733d6	0.001763935
37	0x39f170a9	0.0004605104
38	0x3ad058ab	0.0015895566
39	0x3aa2158a	0.0012366038
40	0x3b02155f	0.0019849164
41	0x395b6e49	0.00020926552
42	0x3a57eafa	0.00082366134
43	0x3a0b83fc	0.00053220964
44	0x3a715624	0.00092062564
45	0x3a8a63b0	0.0010558274
46	0x3a9ea0a9	0.0012102324
47	0x3a311cca	0.0006756304
48	0x3aa40eb2	0.0012516587
49	0x3afd8607	0.0019342311
50	0x3a5f3537	0.00085147045
51	0x3aabf0f0	0.001311807
52	0x3acd385f	0.0015657059
53	0x3a9faacb	0.0012181638
54	0x3a303b8c	0.00067227404
55	0x3a4f1cfc	0.00079007423
56	0x39e717e5	0.00044077556
57	0x3aac62ab	0.0013151964
58	0x3a6060e4	0.00085593597
59	0x3a893010	0.0010466594
60	0x3a28b788	0.00064360397
61	0x3b04da10	0.0020271577
62	0x3afbf0c8	0.0019221539
63	0x3a146ea3	0.0005662238

module.model.1.model.4.weight f4 [64]
0	0x3f8052da	1.0025284
1	0x3f7f4e9b	0.9972932
2	0x3f804a5a	1.002269
3	0x3f805cf0	1.0028362
4	0x3f7f5f2f	0.99754614
5	0x3f804424	1.0020795
6	0x3f805267	1.0025147
7	0x3f7f8532	0.99812615
8	0x3f7f812b	0.9980647
9	0x3f7fd44e	0.99933326
10	0x3f8053e2	1.0025599
11	0x3f7f4fb8	0.99731016
12	0x3f80575b	1.0026659
13	0x3f7f6c16	0.997743
14	0x3f7f6bb2	0.99773705
15	0x3f803e59	1.0019027
16	0x3f804f67	1.0024232
17	0x3f7f4a73	0.99722975
18	0x3f7f6130	0.9975767
19	0x3f7f5ecf	0.9975404
20	0x3f7f4c9c	0.9972627
21	0x3f8057a5	1.0026747
22	0x3f804bde	1.0023153
23	0x3f7f4fc6	0.997311
24	0x3f803f1a	1.0019257
25	0x3f7fa962	0.9986783
26	0x3f803ed0	1.0019169
27	0x3f80541d	1.0025669
28	0x3f803df8	1.0018911
29	0x3f7f6128	0.99757624
30	0x3f805041	1.0024492
31	0x3f7f68b6	0.9976915
32	0x3f7f67eb	0.9976794
33	0x3f802ccf	1.0013674
34	0x3f8047bf	1.0021895
35	0x3f7f6499	0.99762875
36	0x3f7f563c	0.9974096
37	0x3f804d92	1.0023673
38	0x3f7f61c9	0.99758583
39	0x3f7f508a	0.9973227
40	0x3f7f5294	0.9973538
41	0x3f804d29	1.0023547
42	0x3f805dbf	1.0028609
43	0x3f805971	1.0027295
44	0x3f7fd4ed	0.99934274
45	0x3f803b0a	1.0018017
46	0x3f7fc9d4	0.9991734
47	0x3f8051d2	1.002497
48	0x3f7f4c9b	0.99726266
49	0x3f7f64f8	0.9976344
50	0x3f7f6e2e	0.99777496
51	0x3f800308	1.0000925
52	0x3f7f8d71	0.998252
53	0x3f7fa094	0.998544
54	0x3f7f9af2	0.998458
55	0x3f7fe741	0.9996224
56	0x3f805c24	1.0028119
57	0x3f80084f	1.0002536
58	0x3f805490	1.0025806
59	0x3f7f7f15	0.99803287
60	0x3f804681	1.0021516
61	0x3f7f6457	0.9976248
62	0x3f7f66e9	0.99766403
63	0x3f806293	1.0030082

module.model.1.model.4.bias f4 [64]
0	0x3b3114aa	0.0027020373
1	0xbb37d8a2	-0.0028052707
2	0x3b2bf4ca	0.0026238435
3	0x3b421f4d	0.0029620708
4	0xbb2fe124	-0.0026837075
5	0x3b2ced01	0.0026386383
6	0x3b2c725a	0.0026313276
7	0xbb1e2659	-0.0024131744
8	0xbb1e862e	-0.0024188864
9	0xbb427c71	-0.0029676224
10	0x3b29f9a6	0.0025936156
11	0xbb333d64	-0.0027349824
12	0x3b2fb808	0.0026812572
13	0xbb20867a	-0.0024494217
14	0xbb19d313	-0.0023471757
15	0x3b221d8a	0.0024736845
16	0x3b306334	0.0026914598
17	0xbb340d7b	-0.0027473855
18	0xbb22ffa7	-0.002487162
19	0xbb20e9ac	-0.0024553342
20	0xbb2e2349	-0.0026571325
21	0x3b1d0bac	0.0023963256
22	0x3b2d42cf	0.0026437526
23	0xbb2cc074	-0.0026359828
24	0x3b1f13be	0.0024273242
25	0xbb066b6d	-0.0020510808
26	0xbb290441	-0.002578989
27	0x3b287604	0.0025705108
28	0x3a690553	0.0008889038
29	0xbb29a6ff	-0.002588689
30	0x3b2067ce	0.0024475935
31	0xbb132b9f	-0.002245642
32	0xbb1f72fd	-0.0024330013
33	0xbb280955	-0.0025640328
34	0x3b34d071	0.002759006
35	0xbb23c3ab	-0.0024988453
36	0xbb2c6bcf	-0.0026309376
37	0x3b2b5dbd	0.0026148402
38	0xbb2221e4	-0.0024739439
39	0xbb2c613e	-0.0026303078
40	0xbb2eb4f0	-0.002665814
41	0x3b2d7e63	0.0026473037
42	0x3b37d2e1	0.0028049278
43	0x3b2b6aaa	0.0026156106
44	0xbb25e8e7	-0.0025315823
45	0x3b2b7d6c	0.0026167287
46	0xba8d41ad	-0.0010777019
47	0x3b29413e	0.002582624
48	0xbad83eb1	-0.0016498176
49	0xbb20951a	-0.0024502934
50	0xbac5f128	-0.0015101777
51	0xbb174b61	-0.00230857
52	0xbb031bd3	-0.0020005598
53	0xbb16e213	-0.0023022934
54	0x3a9b5bbb	0.0011852899
55	0x3b4a6b04	0.003088654
56	0x3b3bdd28	0.0028665755
57	0xbb1c654d	-0.002386409
58	0x3b226525	0.0024779525
59	0xbb2d6e3e	-0.0026463415
60	0x3b26b95b	0.002544007
61	0xbb1ee02b	-0.0024242501
62	0xbb1ecb58	-0.002423009
63	0x3b40b682	0.0029405658

module.model.1.model.4.running_mean f4 [64]
0	0x3ea36cfb	0.31919083
1	0xbedfca75	-0.4370915
2	0xbe188d3b	-0.14897625
3	0x3e1a5910	0.15073037
4	0xbca88c50	-0.020574719
5	0xbe58e9d4	-0.21182948
6	0x3de022ea	0.10944159
7	0x3edd1e23	0.43187055
8	0xbeb903cb	-0.36135706
9	0xbed09dfb	-0.4074553
10	0x3f10da69	0.5658327
11	0xbeb35014	-0.35022032
12	0xbe08f16b	-0.13373344
13	0xbf178719	-0.5919052
14	0xbd07315e	-0.033006065
15	0x3e954dd4	0.2916094
16	0x3e43adcc	0.19109267
17	0x3e8b4ef8	0.27208686
18	0x3e7226eb	0.23647659
19	0xbf2aa3b5	-0.6665605
20	0x3ec3c422	0.38235575
21	0x3dac15bd	0.08402584
22	0xbe519463	-0.20466761
23	0x3ea1c30f	0.3159413
24	0xbf05edba	-0.52315867
25	0x3e27d5f5	0.16390212
26	0x3eda8be9	0.42684868
27	0xbdafb9ff	-0.08580398
28	0xbeb0f63a	-0.34562856
29	0x3c979a3b	0.01850616
30	0x3d40d629	0.04707924
31	0xbebfe7a0	-0.37481403
32	0x3d383f41	0.0449822
33	0x3f7b0fa3	0.98070735
34	0xbe8381e4	-0.25685036
35	0xbed77b4d	-0.4208626
36	0xbe5a3147	-0.2130786
37	0xbd03882e	-0.032112293
38	0x3e9ccacf	0.3062348
39	0x3f12ec08	0.57391405
40	0xbe81380a	-0.25238067
41	0x3dcd2100	0.1001606
42	0xbf2be1cd	-0.6714142
43	0xbb8053ae	-0.0039162254
44	0x3f14cb9a	0.5812317
45	0x3eeac4e4	0.4585334
46	0xbdadfcac	-0.08495459
47	0x3e88cd77	0.26719257
48	0xbeff5619	-0.49870375
49	0x3e671773	0.22567539
50	0x3eceb008	0.40368676
51	0x3f0a70de	0.5407847
52	0xbf055436	-0.5208162
53	0x3e9316fe	0.2872848
54	0xbee21506	-0.44156665
55	0xbf0bb103	-0.54566973
56	0xbed56a44	-0.41682637
57	0x3e889e02	0.2668305
58	0x3e88702d	0.26648083
59	0x3f41edaa	0.7575327
60	0x3e1b76b3	0.15181999
61	0xbde34c82	-0.11098577
62	0xbee35cef	-0.4440684
63	0xbeaf24b4	-0.3420769

module.model.1.model.4.running_var f4 [64]
0	0x3f10a102	0.5649568
1	0x3e7a4613	0.24440794
2	0x3f04e023	0.51904505
3	0x3eeb4ae5	0.45955577
4	0x3ef2139c	0.47280586
5	0x3f31a97f	0.69399256
6	0x3d8ddcb1	0.06926859
7	0x3e6dd02f	0.23223947
8	0x3f88563e	1.0651319
9	0x3ea514b3	0.32242355
10	0x3ec5c2f8	0.38625312
11	0x3d9e45d8	0.077281654
12	0x3f004949	0.50111824
13	0x3e5df2d7	0.21674667
14	0x3f1f470b	0.6221778
15	0x3e0a06ba	0.13479128
16	0x3db954d2	0.09049381
17	0x3d00375a	0.031302787
18	0x3d564d22	0.052319653
19	0x3e9169bd	0.28400984
20	0x3d5dd7d5	0.05416091
21	0x3f15806d	0.5839909
22	0x3cd285ff	0.02569866
23	0x3f71bcab	0.9442851
24	0x3e07362d	0.1320426
25	0x3f2ecb9e	0.68279445
26	0x3df21c6a	0.11821826
27	0x3cf5e761	0.030017557
28	0x3e55e97c	0.20889848
29	0x3e1e88a1	0.15481807
30	0x3ea9dd41	0.33176616
31	0x3db9bd39	0.090692945
32	0x3eacd9ea	0.33760005
33	0x3eb556a8	0.35417676
34	0x3eddc311	0.43312886
35	0x3f188337	0.5957522
36	0x3e784c10	0.24247766
37	0x3f17656d	0.5913914
38	0x3d7aa280	0.06119013
39	0x3e08e5af	0.13368867
40	0x3e3e76fd	0.18600078
41	0x3feceb9c	1.8509402
42	0x3e05b42f	0.13057016
43	0x3e01477f	0.1262493
44	0x3e1fb98b	0.15598123
45	0x3f3da374	0.74077535
46	0x3f9aa893	1.2082695
47	0x3ec86200	0.39137268
48	0x3e3bffcd	0.18359299
49	0x3f731355	0.94951373
50	0x3d0b2c26	0.03397765
51	0x3d9be855	0.07612673
52	0x3f44482c	0.76672626
53	0x3f955d0c	1.1669021
54	0x3e1d38a1	0.15353633
55	0x3f23697c	0.6383283
56	0x3f8d4455	1.1036478
57	0x3e5f45bf	0.2180395
58	0x3dc44024	0.09582546
59	0x3eb06585	0.34452453
60	0x3f35acd0	0.70966816
61	0x3dcf99db	0.101367675
62	0x3f48fb1d	0.7850817
63	0x3e5b6ec5	0.21428974

module.model.2.model.0.weight f4 [64, 64, 3, 3]
0	0xbd94fca8	-0.07274753
1	0xbd038cb2	-0.0321166
2	0x3d548a15	0.051889498
3	0x3c162aec	0.009165507
4	0xbd325851	-0.043541256
5	0xbcde74ff	-0.027155397
6	0x3d88e005	0.06683353
7	0xbd0e216e	-0.03469985
8	0x3d7db03b	0.061935645
9	0x3d6e83c7	0.05823114
10	0xbcdb9c77	-0.026808007
11	0xbc71e708	-0.014764555
12	0xbd2b7a7a	-0.04186485
13	0x3c4cc775	0.012498726
14	0x3ca8130d	0.020516897
15	0xbc317077	-0.010830036
16	0x3d6e0970	0.05811447
17	0x3d7de4dc	0.061985835
18	0xbd8956dc	-0.0670602
19	0xbba9ae6e	-0.0051782643
20	0xbd827978	-0.063708246
21	0xbcebe508	-0.028795734
22	0x3c757baa	0.014983097
23	0xbbb6f6ce	-0.0055836206
24	0x3d538113	0.051636767
25	0xbd1ba3ee	-0.037998132
26	0xbd8983a3	-0.06714561
27	0xbcad1fec	-0.021133386
28	0xbd8f2c50	-0.06990874
29	0x3d3664b3	0.044529628
30	0x3d10417a	0.035218693
31	0x3d3ccfb7	0.04609653
32	0x3c905ab0	0.017621368
33	0x3c31f877	0.010862461
34	0x3bd89587	0.006609622
35	0xbd7219d4	-0.059106663
36	0x3d3bae7c	0.0458207
37	0xbd22c54c	-0.03973894
38	0x3d0dbee2	0.03460587
39	0x3cb3c839	0.02194606
40	0xbd4b50c8	-0.049637586
41	0x3bf73659	0.0075443205
42	0x3b7ed866	0.0038886308
43	0x3cbf0eb0	0.023322433
44	0xbbd6e73a	-0.006558326
45	0x3d201de5	0.03909101
46	0xbcf5bb29	-0.029996471
47	0xbd6c9ca7	-0.057766583
48	0xbd95a02d	-0.07305942
49	0x3d3f0dd8	0.04664406
50	0xbd4cde9d	-0.050016988
51	0x3c0184ee	0.007905228
52	0x3d84850c	0.06470689
53	0x3d28c5f9	0.041204426
54	0xbd1dd356	-0.038531624
55	0x3d7a81a3	0.061158787
56	0xbc8dba3f	-0.017300723
57	0xbd157853	-0.036491703
58	0xbcae6793	-0.021289622
59	0xbc56e614	-0.013116378
60	0xbc839321	-0.016061367
61	0x3d844347	0.06458145
62	0xbc16d4cd	-0.009206009
63	0x3c849a8e	0.016186979
64	0x3c9f744f	0.01946464
65	0xbcb4212f	-0.02198848
66	0x3d04363b	0.03227828
67	0xbd63a98a	-0.055581607
68	0xbbafbdce	-0.0053632027
69	0xbca1255f	-0.01967114
70	0xbd319185	-0.04335167
71	0xbd2a5439	-0.041584227
72	0x3d353978	0.04424426
73	0xbd46b09b	-0.048508268
74	0xbd266af3	-0.04062934
75	0x3c49e886	0.012323504
76	0xbd8fbf8f	-0.07018959
77	0x3d364c31	0.044506256
78	0xbc90add2	-0.017661009
79	0x3d4fb055	0.050705273
80	0xbc4f99c3	-0.012670937
81	0x3b74c6c6	0.0037349924
82	0x3d38c631	0.045110885
83	0x3cdcceb4	0.026954032
84	0xbcac9228	-0.021065786
85	0x3d893d4a	0.06701143
86	0x3cfa6293	0.030564582
87	0xbb7b2153	-0.0038319423
88	0xbc29aca2	-0.0103561
89	0x3d1cfef1	0.03832907
90	0x3d5ed98b	0.054406684
91	0xbc25b203	-0.010113242
92	0x3d598cea	0.0531129
93	0xba2041f9	-0.00061133463
94	0xbd4df3ae	-0.05028122
95	0xbd25d1a1	-0.04048312
96	0xbd7e3685	-0.062063713
97	0xbc229945	-0.009924238
98	0xbd75c1c4	-0.059999242
99	0xbd435d87	-0.047696617
100	0x3d5f96fc	0.05458735
101	0xbcf2925b	-0.029610803
102	0xbcb3194d	-0.02186265
103	0xbc62116c	-0.013798099
104	0x3d7f1eed	0.062285352
105	0xbcfacf83	-0.030616527
106	0x3d50422c	0.050844356
107	0xbcf6e328	-0.030137613
108	0x3d4936df	0.049124595
109	0xbbcb4d8d	-0.006204313
110	0x3d7fe110	0.062470496
111	0xbc612565	-0.013741826
112	0xbaec6cc5	-0.0018037787
113	0x3c93bfdf	0.018035827
114	0x3d259708	0.040427238
115	0x3cc0f4f0	0.023554295
116	0x3d6bcdca	0.057569303
117	0xbcebf4ad	-0.028803194
118	0x3d872880	0.06599522
119	0xbca05511	-0.019571813
120	0xbd7a545b	-0.061115604
121	0x3d6464ed	0.055760313
122	0x3d59e14c	0.053193375
123	0xbd201fc2	-0.039092787
124	0xbd14e859	-0.036354396
125	0xbbdb7903	-0.0066977753
126	0x3ca1e1c7	0.01976098
127	0xbc7e217a	-0.015510911
128	0xbc62e2b4	-0.013847996
129	0xbd3ffa50	-0.046869576
130	0x3d8e9298	0.06961554
131	0xbd3095ab	-0.043111484
132	0x3d66fe4f	0.05639487
133	0x3d8d64a2	0.0690396
134	0xbc605dbd	-0.013694224
135	0x3d57ce57	0.052687015
136	0xbcf2f653	-0.029658472
137	0x3c06e5b4	0.008233476
138	0xba4d9b27	-0.0007843249
139	0x3d7e6fa5	0.06211819
140	0xbd2ed941	-0.04268766
141	0x3c7e55a4	0.015523348
142	0xbd864f60	-0.06558108
143	0x3d7dd99c	0.061975107
144	0xbcfcec0f	-0.03087428
145	0x3d30e14d	0.043183614
146	0x3cc3812e	0.023865309
147	0x3d73e9d7	0.05954918
148	0xbd12e5c7	-0.035863664
149	0xbd833ba7	-0.06407862
150	0xbccc5791	-0.024944099
151	0xbd2c37b9	-0.04204533
152	0xbc09844d	-0.008393359
153	0xbd754dd5	-0.05988868
154	0x3d1e5d51	0.038663212
155	0xbd8cbd66	-0.068720624
156	0x3d3a4624	0.045477048
157	0x3b33624b	0.002737182
158	0x3d7571f7	0.05992314
159	0xbd95cbf0	-0.073142886
160	0x3cef3238	0.02919875
161	0x3d0b83fb	0.034061413
162	0x3d11ae1c	0.035566434
163	0xbd80dea5	-0.06292466
164	0xbc026580	-0.00795877
165	0xbd8be7de	-0.068313345
166	0xbd7f9842	-0.062401064
167	0xbca446d7	-0.02005331
168	0xbd67ff2c	-0.056639835
169	0xbd7a79f0	-0.061151445
170	0x3cd2b34c	0.025720261
171	0xbd1d44cb	-0.038395684
172	0x3c2dbaad	0.010603589
173	0xbcd7c24d	-0.026337767
174	0xbd5de737	-0.05417558
175	0xbd8beca0	-0.06832242
176	0x3b3f2c23	0.0029170595
177	0xbd93ce5d	-0.07217095
178	0xbc208d0e	-0.009799255
179	0xbc07afc0	-0.008281648
180	0x3c81b17c	0.015831701
181	0x3ca51f3b	0.020156493
182	0xbc14e164	-0.00908694
183	0xba87ce3b	-0.0010361144
184	0x3c30a8a6	0.010782396
185	0xbc3f6d2c	-0.011683743
186	0xbd035eb6	-0.032072745
187	0xbd3fb5be	-0.046804182
188	0x3ca6852b	0.020327171
189	0xbc613399	-0.013745212
190	0xbbec24ef	-0.0072065513
191	0xbd528910	-0.051400244
192	0x3c6dd8f9	0.014517062
193	0xbc9c925e	-0.019112762
194	0x3d443d51	0.04791004
195	0xbd0eb8b9	-0.034844134
196	0x3d560f8a	0.052260913
197	0x3cf11af4	0.029431798
198	0xbd8fa7a3	-0.07014396
199	0xba2c0c12	-0.0006563078
200	0xbd64f81b	-0.055900674
201	0x3a8a725e	0.0010562649
202	0xbd472456	-0.048618637
203	0xbbe4af50	-0.0069789067
204	0xbc59d2a7	-0.013294852
205	0xbce5b014	-0.028038062
206	0x3c88702f	0.016655056
207	0xbd0a5974	-0.033776715
208	0x3cd9a5d0	0.026568323
209	0xbd6796c6	-0.056540273
210	0xbaa3e10d	-0.0012502983
211	0xbcfc5217	-0.030800862
212	0xbd7f6c9d	-0.06235944
213	0xbd66fcef	-0.05639356
214	0x3c97c50e	0.01852658
215	0xbc195635	-0.009358932
216	0x3c626851	0.013818816
217	0x3d7293a7	0.059222843
218	0x3caadc31	0.020856949
219	0x3cea2812	0.02858356
220	0xbd6b555f	-0.057454463
221	0xbd89ee10	-0.0673486
222	0x3d91f696	0.07127111
223	0x3c9f33d3	0.019433891
224	0xbd2bcffb	-0.041946393
225	0xbd277eb4	-0.040892318
226	0x3d912a97	0.070882015
227	0x3d89ca0e	0.06727992
228	0x3cface2e	0.030615892
229	0xbd1be2aa	-0.03805796
230	0x3aa995d4	0.0012938329
231	0xbd336283	-0.04379512
232	0xbca5dcb2	-0.020246837
233	0xbd34b562	-0.044118293
234	0x3d01574a	0.031577386
235	0xbb853ed5	-0.004066328
236	0xbcd564a3	-0.026048964
237	0xbb3173f7	-0.0027077177
238	0x3d354d92	0.04426343
239	0x3d7233cd	0.059131432
240	0xbd84fe25	-0.06493787
241	0x3d147695	0.0362459
242	0x3d722ec1	0.05912662
243	0xbd821de3	-0.06353357
244	0xbd5ef58f	-0.0544334
245	0xbc4041a1	-0.011734397
246	0x3d4f9647	0.050680425
247	0xbd27b475	-0.04094358
248	0x3d69c8f1	0.0570764
249	0x3d5ac575	0.053410966
250	0x3d28c477	0.04120299
251	0xbc0f2bb4	-0.008738447
252	0xbd8110a3	-0.06302001
253	0xbd544297	-0.051821318
254	0xbd8e4930	-0.06947553
255	0x3ca93feb	0.020660361

module.model.2.model.0.bias f4 [64]
0	0x3a87cab7	0.0010360096
1	0x3a616324	0.0008597842
2	0x3a535dd6	0.0008062994
3	0x3aa59092	0.0012631586
4	0x3a8f8655	0.0010950068
5	0x3a83c666	0.0010053634
6	0x3a29c554	0.00064762426
7	0x3a91556d	0.0011088081
8	0x3a8017b9	0.0009772695
9	0x3a25f6a5	0.00063310034
10	0x3a9abc4b	0.0011805383
11	0x3a9135fd	0.0011078712
12	0x3a994040	0.0011692122
13	0x3a8a091a	0.0010531277
14	0x3a894979	0.0010474167
15	0x3a720b5d	0.00092332606
16	0x3a97ccd7	0.0011581433
17	0x3a7ac690	0.0009566331
18	0x3a91ee23	0.0011133592
19	0x3a808452	0.000980506
20	0x3a74c101	0.0009336621
21	0x3a00c83c	0.000491265
22	0x3a42b9d0	0.0007428201
23	0x3a91611b	0.0011091562
24	0x3a8867f7	0.001040696
25	0x3a9eaf21	0.0012106636
26	0x3a5f2f97	0.00085138663
27	0x3aa788ff	0.0012781917
28	0x3a954319	0.0011387795
29	0x3aad9c34	0.0013245405
30	0x3a85b986	0.0010202385
31	0x3a98930e	0.0011640505
32	0x3a84dc75	0.0010136502
33	0x3a6f4134	0.00091268425
34	0x3a6ff9b8	0.00091543375
35	0x3a862bb8	0.0010236418
36	0x3a8a6f33	0.0010561704
37	0x3a24c755	0.00062858063
38	0x3a5c97a3	0.00084149296
39	0x3a911326	0.0011068329
40	0x3a78ccef	0.00094909867
41	0x3a1264de	0.00055844884
42	0x3a8d42c5	0.0010777345
43	0x3aa88918	0.001285824
44	0x3a97dbce	0.0011585893
45	0x3ab6b6fc	0.0013940032
46	0x3a3e267b	0.0007253659
47	0x3a7550f9	0.0009358074
48	0x3a6b4197	0.0008974312
49	0x3aa82469	0.0012828234
50	0x3a847251	0.001010487
51	0x3a29807f	0.0006465986
52	0x3a9d90d2	0.0012021309
53	0x3a729e6b	0.00092551735
54	0x3a6fcaaf	0.00091473287
55	0x3a6937a5	0.00088965363
56	0x3a79142d	0.00095016026
57	0x3a66ac80	0.0008799508
58	0x3a9f10fc	0.0012135799
59	0x3a83dc20	0.0010060109
60	0x3a4905d0	0.00076684076
61	0x3a8e3a21	0.0010851064
62	0x3a8f629d	0.0010939423
63	0x3a5d1545	0.00084336504

module.model.2.model.1.weight f4 [64]
0	0x3f7fbf0a	0.9990088
1	0x3f800679	1.0001975
2	0x3f80593f	1.0027236
3	0x3f800dda	1.0004227
4	0x3f7f813e	0.9980658
5	0x3f7fb7ff	0.9989013
6	0x3f8054ef	1.002592
7	0x3f803e7b	1.0019068
8	0x3f7f9504	0.99836755
9	0x3f80482b	1.0022024
10	0x3f7f79c3	0.9979517
11	0x3f7f5956	0.9974569
12	0x3f7f8b6a	0.99822104
13	0x3f7f9fcd	0.9985321
14	0x3f802cb7	1.0013646
15	0x3f803830	1.0017147
16	0x3f7f8799	0.9981628
17	0x3f803d3b	1.0018686
18	0x3f7f97e1	0.99841124
19	0x3f8028bb	1.001243
20	0x3f800c90	1.0003834
21	0x3f805b19	1.0027801
22	0x3f80470f	1.0021685
23	0x3f7f95fd	0.9983824
24	0x3f80105e	1.0004995
25	0x3f7f9baf	0.9984693
26	0x3f7fa326	0.9985832
27	0x3f7f4be4	0.99725175
28	0x3f803b08	1.0018015
29	0x3f804dba	1.002372
30	0x3f8036c5	1.0016714
31	0x3f7fd5e9	0.99935776
32	0x3f7fd06c	0.999274
33	0x3f7f8f60	0.9982815
34	0x3f7ff9df	0.9999065
35	0x3f7fd618	0.99936056
36	0x3f7f67f7	0.9976801
37	0x3f8048c9	1.0022212
38	0x3f80318e	1.0015123
39	0x3f7fbb58	0.9989524
40	0x3f7fb6ae	0.9988812
41	0x3f804d05	1.0023504
42	0x3f7fc128	0.9990411
43	0x3f7fbb68	0.99895334
44	0x3f7f5896	0.99744546
45	0x3f7f54bb	0.99738663
46	0x3f801de2	1.000912
47	0x3f7ff9cf	0.9999055
48	0x3f7fe638	0.9996066
49	0x3f7f7102	0.9978181
50	0x3f8012ed	1.0005776
51	0x3f805bc9	1.0028011
52	0x3f7f626a	0.9975954
53	0x3f8017dd	1.0007282
54	0x3f7f9d69	0.99849564
55	0x3f804563	1.0021175
56	0x3f7f8f72	0.99828255
57	0x3f802cc9	1.0013667
58	0x3f7f69c9	0.9977079
59	0x3f7f6904	0.99769616
60	0x3f804932	1.0022337
61	0x3f7f6bbb	0.9977376
62	0x3f7f544e	0.99738014
63	0x3f80326d	1.0015389

module.model.2.model.1.bias f4 [64]
0	0xba9c5ec5	-0.0011930099
1	0x3a2fb158	0.00067021465
2	0x3b20b335	0.0024520878
3	0xba8bcbbb	-0.0010665575
4	0xbadae46f	-0.0016700159
5	0xbb03bb33	-0.0020100593
6	0x3b3bff20	0.0028686002
7	0x3b3358db	0.0027366194
8	0x39d67e25	0.00040911246
9	0x3b2257ef	0.002477165
10	0xbb081b89	-0.0020768365
11	0xbb3441f8	-0.002750514
12	0xbafddf46	-0.0019368909
13	0xbb097a9a	-0.0020977617
14	0x39d824a8	0.00041226042
15	0xba949823	-0.0011336844
16	0xbb02b91c	-0.001994676
17	0x3b3557cf	0.0027670746
18	0xbb0c0b01	-0.0021368864
19	0x3a5fedfc	0.00085422373
20	0x3b2ce078	0.002637891
21	0x3b3793a4	0.0028011585
22	0x3ab21067	0.001358521
23	0xbb315667	-0.0027059556
24	0x3b1b9431	0.0023739452
25	0x3a1d8551	0.00060089404
26	0xbb316f70	-0.0027074479
27	0xbaf65c87	-0.0018795886
28	0x3b04912e	0.0020228135
29	0x3af09c3b	0.0018357107
30	0x3a824bb0	0.000994077
31	0xbad91eaf	-0.001656493
32	0xbb015f2e	-0.001974057
33	0x37859f13	1.592891e-05
34	0x3b09e8c9	0.0021043292
35	0xbaa00158	-0.0012207432
36	0xbaf5c584	-0.0018750881
37	0x3b2e27a5	0.0026573923
38	0x3ae65671	0.0017573369
39	0xbaa02173	-0.0012217
40	0x3aac41ca	0.0013142165
41	0x3b104a4e	0.0022016945
42	0xb90c1c5b	-0.00013362004
43	0xbb18bc1a	-0.0023305477
44	0xbb3059a5	-0.00269089
45	0xbb23a36a	-0.0024969229
46	0x3b1a68d9	0.002356103
47	0x3a16d5b4	0.000575389
48	0x3a60c2f1	0.00085739704
49	0xbb128f90	-0.0022363402
50	0xb9a808f5	-0.0003205013
51	0x3b36827f	0.0027848778
52	0xbb1308cf	-0.002243567
53	0xb9067ea4	-0.00012826413
54	0xba8ed2eb	-0.0010896599
55	0x3aeffb42	0.0018309134
56	0x3a9f8199	0.001216936
57	0x3abbbc1d	0.001432303
58	0xbb2dce89	-0.002652081
59	0xbb28445e	-0.0025675516
60	0x3b17c751	0.0023159573
61	0xbb0bf7ce	-0.002135742
62	0xbb224e44	-0.0024765888
63	0x3b058cb3	0.0020378053

module.model.2.model.1.running_mean f4 [64]
0	0x3c869f62	0.016433422
1	0xbe0d46b8	-0.13796508
2	0x3c6c734b	0.014431785
3	0x3f80a0df	1.0049094
4	0x3e477315	0.19477494
5	0x3e5345bd	0.20632072
6	0xbecd929d	-0.4015092
7	0x3ebc4444	0.36770833
8	0xbea3c8ac	-0.31989038
9	0xbd9cbb23	-0.07652881
10	0xbec6471a	-0.3872612
11	0x3e1616ed	0.14657183
12	0xbd00f94c	-0.031487748
13	0xbe7048a9	-0.23465218
14	0x3ed95ae9	0.4245217
15	0x3eee3fa4	0.4653293
16	0xbe11d8f1	-0.14242913
17	0xbe3fb2be	-0.18720528
18	0xbde6186c	-0.11235127
19	0xbc00ddec	-0.00786541
20	0xbf180285	-0.59378844
21	0xbe985059	-0.297488
22	0xbc31ae83	-0.0108448295
23	0xbd7e06cc	-0.0620182
24	0x3e2c8f76	0.16851601
25	0xbf0eb079	-0.55738026
26	0x3f12dcfb	0.5736844
27	0xbee46445	-0.4460775
28	0x3f051878	0.5199046
29	0x3ef80efb	0.4844893
30	0x3d78a490	0.060703814
31	0xbd8f6c1d	-0.07003043
32	0x3ed6cfc6	0.41955394
33	0x3cf9abaf	0.030477373
34	0x3ec4e1b8	0.3845346
35	0xbe2d5871	-0.16928269
36	0xbdd30880	-0.103043556
37	0xbf5886a3	-0.8458044
38	0xbbcc3600	-0.0062320232
39	0x3d32bd3a	0.04363749
40	0xbe7d0fef	-0.2471311
41	0x3db5f6e0	0.08884978
42	0x3ec22aec	0.37923372
43	0x3ecb7ba0	0.39742756
44	0xbebb7867	-0.36615297
45	0xbe050293	-0.12989263
46	0xbeb3f6d2	-0.35149246
47	0x3e1372d2	0.14399269
48	0xbcd30241	-0.02575791
49	0xbde9e1ad	-0.11419997
50	0x3ea7b548	0.32755494
51	0xbe4f530b	-0.20246522
52	0xbe66f924	-0.22555977
53	0xbcb85563	-0.022501653
54	0xbe126c64	-0.1429916
55	0x3f1ac518	0.6045699
56	0x3ecbd81d	0.3981332
57	0xbd90f566	-0.07078056
58	0xbe955efd	-0.29174033
59	0x3afbcb0a	0.0019210291
60	0x3da64713	0.08119025
61	0xbe01723c	-0.12641233
62	0x3eaf654d	0.34256974
63	0x3cf8751e	0.030329283

module.model.2.model.1.running_var f4 [64]
0	0x3ed9ac89	0.42514446
1	0x3f8512ef	1.0396403
2	0x3e5e9569	0.21736683
3	0x3ec53674	0.38518107
4	0x3ee4ffa0	0.44726276
5	0x3f8bcdaa	1.0922139
6	0x40039af3	2.0563323
7	0x3ec1c8e5	0.37848583
8	0x3f73363f	0.9500465
9	0x3e95b9ce	0.2924332
10	0x3e883839	0.26605394
11	0x3ed60f5f	0.41808602
12	0x3ec4a279	0.38405207
13	0x3ed8e7f6	0.42364472
14	0x3f02aa87	0.51041454
15	0x3d7daed5	0.06193431
16	0x3f8ced31	1.1009885
17	0x3ee03fbf	0.43798634
18	0x3f1f1011	0.6213389
19	0x3e8609a0	0.26179218
20	0x3f050f0f	0.519761
21	0x3f322981	0.6959458
22	0x3d458d7c	0.048230633
23	0x3de85797	0.113448314
24	0x3fbcd148	1.4751368
25	0x3ea31954	0.3185526
26	0x3da4eeb9	0.08053345
27	0x3e43c8f6	0.1911963
28	0x3e8c8e9f	0.2745256
29	0x3e7002bf	0.23438548
30	0x3e5e4579	0.21706189
31	0x3d681383	0.056659233
32	0x3fa25526	1.2682235
33	0x3decfc0b	0.11571511
34	0x3f2ea8c3	0.6822626
35	0x3e86ad3a	0.26304036
36	0x3f7b86ce	0.9825257
37	0x3f895ec2	1.0732043
38	0x3e7feadd	0.24991937
39	0x3d9965c8	0.07490116
40	0x3ed5fb19	0.41793135
41	0x3f052c01	0.5202027
42	0x3df0c554	0.11756387
43	0x3ecbe8e5	0.39826122
44	0x3e59941b	0.21247904
45	0x3eeeea33	0.46663055
46	0x3f279ebc	0.65476584
47	0x3e639b60	0.2222724
48	0x3e8ba4bf	0.2727413
49	0x3df61757	0.120161705
50	0x3d9845d1	0.074351914
51	0x3e40886e	0.18802044
52	0x3ec52a6f	0.38508937
53	0x3f45085d	0.76965886
54	0x3e011e06	0.1260911
55	0x3f6b581a	0.9193131
56	0x3f910358	1.1329145
57	0x3dc6cae3	0.09706666
58	0x3e1f9ef3	0.15587978
59	0x3e9336c1	0.2875271
60	0x3f89e17a	1.0771935
61	0x3e3cc2fc	0.18433756
62	0x3f935402	1.1510012
63	0x3f1f580b	0.6224372
