output_nn_denoise/ckpt/resnet_epoch25.pth (torch, 641699 bytes, 31 tensors)

module.model.0.weight f4 [64, 1, 1, 1]
0	0xbe22d1b6	-0.15900311
1	0xbe26153f	-0.16219042
2	0x3e804201	0.25050357
3	0xbd13ae12	-0.03605468
4	0xbe5349cd	-0.20633622
5	0x3e471707	0.19442378
6	0x3cdd8ed5	0.027045647
7	0x3e793e21	0.24340107
8	0xbe14027c	-0.14454073
9	0xbe17a77f	-0.14809988
10	0x3e904af2	0.2818218
11	0x3cf3f44a	0.029779572
12	0xbe3d8be2	-0.18510392
13	0xbe3dfaeb	-0.18552749
14	0x3d33a28b	0.043856185
15	0x3e1cf4ab	0.15327708
16	0xbe967f26	-0.29393882
17	0x3e0ad64f	0.13558315
18	0xbe3f576b	-0.18685691
19	0xbde7e620	-0.1132319
20	0xbe4152a3	-0.1887918
21	0x3e03d37d	0.12873645
22	0xbc030f14	-0.0079992
23	0x3e81551d	0.2526025
24	0xbdfb4a5a	-0.12270041
25	0xbd984268	-0.07434541
26	0xbe6db4d4	-0.23213512
27	0x3e8eb777	0.27874348
28	0xbdd9a5d5	-0.10627333
29	0xbe7eb96d	-0.24875422
30	0xbda32f75	-0.07968036
31	0xbe85229d	-0.2600297
32	0xbd9fefa9	-0.078093834
33	0x3d8b0add	0.067891814
34	0xbe28ad07	-0.16472255
35	0x3e1ef8c4	0.15524584
36	0xbd8e33c4	-0.06943467
37	0xbdf27e8f	-0.118405454
38	0x3e871d8b	0.26389727
39	0x3c0bf523	0.008542332
40	0xbe768fc3	-0.24078278
41	0xbe98ca59	-0.2984188
42	0xbe20827f	-0.1567478
43	0x3e19e753	0.1502965
44	0xbe8786dd	-0.2647008
45	0x3db7ef35	0.08981172
46	0xbe4136cc	-0.1886856
47	0x3e865df9	0.2624357
48	0x3e502c19	0.20329322
49	0xbdd46e25	-0.10372571
50	0x3e8e390b	0.27777895
51	0xbd95578a	-0.072920874
52	0xbe463839	-0.19357385
53	0x3cc953b3	0.024576044
54	0x3e575095	0.21026833
55	0xbcbea6a3	-0.023272818
56	0xbe980de5	-0.296981
57	0xbabc7ecc	-0.001438105
58	0xbe93bab1	-0.28853372
59	0xbc669ad7	-0.014075003
60	0x3d93452d	0.071909286
61	0x3e810598	0.2519958
62	0x3cd4f0be	0.025993701
63	0x3e1a5f11	0.15075327

module.model.0.bias f4 [64]
0	0x3b00f63c	0.0019678017
1	0xb801415a	-3.081686e-05
2	0x3b337098	0.0027380344
3	0x3b35c4ed	0.0027735785
4	0xba8e82ab	-0.0010872682
5	0x3b2590ed	0.0025263384
6	0x3b233403	0.0024902828
7	0xba812909	-0.0009854148
8	0xba556ff9	-0.00081419904
9	0xb91eec1c	-0.00015156012
10	0x39ea5b65	0.00044700052
11	0xba622423	-0.00086266006
12	0x3b009e30	0.0019625537
13	0xbab7e7ea	-0.0014030908
14	0xba351626	-0.00069079024
15	0x3b4a5a24	0.0030876482
16	0x3b5b6f53	0.0033483102
17	0x3ae844c2	0.0017720687
18	0x3ae4dc3a	0.0017460652
19	0xba06297e	-0.0005117877
20	0xba170f77	-0.00057624973
21	0x3b101580	0.0021985471
22	0x3b47aa71	0.0030466581
23	0xbab19da6	-0.0013551011
24	0x394c03be	0.0001945635
25	0x3a655359	0.00087480765
26	0xba90407f	-0.001100555
27	0x3b547576	0.0032418645
28	0xba88f199	-0.0010447978
29	0xba994e5b	-0.0011696325
30	0x3b23f49e	0.002501763
31	0xba917235	-0.0011096658
32	0x3b20da09	0.0024544022
33	0xb9d4fcaa	-0.0004062404
34	0x3b4e1220	0.0031443909
35	0xbab49352	-0.0013776815
36	0xba3d40da	-0.00072194415
37	0x3b0b0137	0.002121044
38	0xba5c1952	-0.0008396107
39	0xb9e2068e	-0.00043110963
40	0xba6dc343	-0.0009069929
41	0x3b5286df	0.0032123846
42	0xb9b15058	-0.00033819932
43	0x3b59ffc4	0.003326402
44	0x3ae3be5f	0.0017375461
45	0xba214d31	-0.0006153165
46	0x3a7afdba	0.00095745514
47	0x3a81797f	0.0009878128
48	0x39830170	0.00024987338
49	0xbaa5f960	-0.001266282
50	0x3b3012e2	0.0026866724
51	0x3b21ecb0	0.0024707727
52	0x3a0b4d79	0.00053139735
53	0xba3c0686	-0.0007172603
54	0x3b0cfc67	0.0021512748
55	0x39aaaf8a	0.00032555714
56	0x3b14443f	0.0022623686
57	0xba84b122	-0.001012359
58	0x3b2b6e6f	0.0026158353
59	0xb9f85e70	-0.00047372608
60	0x3b61d4a6	0.0034459024
61	0xba651a28	-0.00087395543
62	0xba98dd3e	-0.0011662615
63	0x3b3cba8c	0.0028797714

module.model.1.model.0.weight f4 [64, 64, 3, 3]
0	0x3d9709ad	0.073748924
1	0xbc673386	-0.014111405
2	0x3d182122	0.037140973
3	0xbc00b1c2	-0.007854881
4	0xbd491e88	-0.049101382
5	0xbd644b07	-0.055735614
6	0x3c409e96	0.01175656
7	0xbd8b5977	-0.068041734
8	0x3d78a5da	0.060705043
9	0xbd86d752	-0.06584038
10	0xbcf01ed5	-0.029311577
11	0xbd5ddb71	-0.054164354
12	0x3d308460	0.043094993
13	0xbd7370b4	-0.059433654
14	0xbcf5cda1	-0.030005278
15	0xbc60a851	-0.013712005
16	0x3ccb9167	0.024849607
17	0xbd874d3b	-0.066065274
18	0xbd34b817	-0.044120874
19	0xbd8ca5a2	-0.068675295
20	0xbd0ca199	-0.0343338
21	0x3d8182a6	0.06323747
22	0x3d1cff6c	0.038329527
23	0x3cb4ae3e	0.022055741
24	0x3d1cfcf5	0.038327176
25	0x3d208f9d	0.03919946
26	0xbc82b2d3	-0.01595441
27	0x3d36604a	0.044525422
28	0xbd43cf96	-0.04780539
29	0xbb347cf4	-0.0027540298
30	0x3d39b532	0.045338817
31	0x3d6a21f0	0.05716127
32	0xbb48b1f2	-0.0030623642
33	0x3d8f650f	0.07001697
34	0x3cbf1ec6	0.023330104
35	0x3d73f9c8	0.05956438
36	0x3d6cbece	0.057799153
37	0x3d309093	0.043106627
38	0x3b8ca9fd	0.004292725
39	0xbd6cf119	-0.057847116
40	0xbd36002c	-0.044433758
41	0xbd0817d3	-0.033225846
42	0xbd177c08	-0.03698352
43	0x3d24b93a	0.04021571
44	0x3d6f362c	0.05840127
45	0xbd0f0533	-0.034917068
46	0x3cb17f78	0.021667227
47	0x3cecf932	0.02892742
48	0xbd04f63e	-0.032461397
49	0x3afb8d2e	0.0019191855
50	0x3c04808c	0.008087289
51	0xbcc1741d	-0.023614937
52	0xbd71ab60	-0.059001327
53	0x3d5b0710	0.053473532
54	0x3d0f63c7	0.035007264
55	0x3cf15ba5	0.029462645
56	0xbd4e3c1a	-0.050350286
57	0x3ca5bc00	0.020231247
58	0x3d0ac0b6	0.03387519
59	0xbc336579	-0.010949486
60	0xbb1abcea	-0.0023611137
61	0x3d0fbcb0	0.035092056
62	0x385bb0f0	5.2378455e-05
63	0x3aa1e3f7	0.0012351264
64	0xbcf33107	-0.029686464
65	0xbbbd74b4	-0.0057817344
66	0x3d36372b	0.044486206
67	0x3d102aa0	0.0351969
68	0x3c431ae6	0.011908269
69	0xbafa99ff	-0.0019119381
70	0xbd82982a	-0.06376679
71	0xbcaee648	-0.021350041
72	0x3d5ac58d	0.053411055
73	0x3d6b8c11	0.057506625
74	0xbcfc0fa2	-0.030769173
75	0xbd2d9bd6	-0.042384945
76	0xbd548f7e	-0.051894657
77	0xbc434810	-0.0119190365
78	0x3d118001	0.035522465
79	0x3ca44d6d	0.02005645
80	0x3d62e424	0.055393353
81	0x3b338501	0.002739251
82	0x3d6d788c	0.05797629
83	0xbb7ed650	-0.0038885064
84	0xbca365fa	-0.019946087
85	0x3d3e1bbf	0.04641318
86	0x3cfa68d0	0.030567557
87	0x3cfd4348	0.030915871
88	0x3d47a142	0.04873777
89	0x3c2e1fd1	0.010627703
90	0x3c9be6c2	0.019030932
91	0x3c9a4919	0.018833684
92	0xbcfc98cd	-0.03083458
93	0x3d1a5630	0.03767985
94	0xbcd0b5d5	-0.02547733
95	0x3c931e81	0.017958881
96	0xbd95d7d9	-0.0731656
97	0x3c0a5e58	0.008445345
98	0x3954cb91	0.0002029373
99	0x3d25179a	0.04030571
100	0x3ce04cb0	0.027380317
101	0xbd90249b	-0.07038232
102	0xbd2558fa	-0.040368058
103	0x3d663f03	0.056212436
104	0xbd145a22	-0.03621877
105	0xbbdae1e9	-0.0066797626
106	0xbd8271b6	-0.06369345
107	0xbcac997e	-0.021069285
108	0x3b90de27	0.004421014
109	0x3c0630ea	0.008190373
110	0xbd83913b	-0.06424185
111	0xbd099408	-0.03358844
112	0xbd67e2c4	-0.056612745
113	0x3d40ee6b	0.047102373
114	0xbd87f00f	-0.066375844
115	0xba5bf397	-0.0008390485
116	0xbc428192	-0.011871712
117	0xbd51e4de	-0.051243655
118	0xbd857679	-0.065167375
119	0x3d91eefa	0.07125659
120	0x3c9ea065	0.019363591
121	0x3d73fc77	0.05956694
122	0xbd5ae388	-0.053439647
123	0xbce0b8aa	-0.027431805
124	0xbd3803f1	-0.044925634
125	0x3baf4c06	0.005349639
126	0xbd313d63	-0.043271434
127	0xbc725865	-0.014791583
128	0xbc5b6d12	-0.013392704
129	0xbd0ce750	-0.034400284
130	0x3c040f9d	0.008060363
131	0xbaabc468	-0.0013104798
132	0x3d3ab103	0.045578968
133	0x3ca4c1e3	0.020111984
134	0x3d4a0f76	0.04933115
135	0xbb1a178c	-0.002351257
136	0x3c797b3f	0.015227138
137	0xbd657a26	-0.056024693
138	0x3cbd6353	0.02311865
139	0x3d4c95ac	0.049947426
140	0x3cb73d9d	0.022368247
141	0x3b9bf9e8	0.0047600158
142	0xbcc019b6	-0.02344976
143	0xbd6ea32f	-0.058261093
144	0xbd059e41	-0.032621626
145	0x399cc04d	0.00029897914
146	0x3d84de40	0.06487703
147	0x3cd4b79f	0.025966464
148	0x3d92cb69	0.07167704
149	0xbb36af63	-0.0027875535
150	0x3bc47a8d	0.0059960545
151	0x3d5cdb74	0.053920224
152	0x3c1aab21	0.009440214
153	0x3c9e3e42	0.019316796
154	0xbd6db5f3	-0.05803485
155	0xbd770f87	-0.060317542
156	0x3ce3cf1d	0.02780872
157	0xbd3180e1	-0.0433358
158	0x3d42ce3b	0.047559958
159	0xbcff54a4	-0.03116829
160	0x3d26c23c	0.04071258
161	0x3cd50290	0.026002198
162	0xbd708abb	-0.058726054
163	0x3d8d8db6	0.06911795
164	0x3d702698	0.058630556
165	0xbd8530fb	-0.06503483
166	0xbd216375	-0.03940149
167	0xbd378174	-0.04480119
168	0x3cd67cc3	0.026182538
169	0x3d41180a	0.047142066
170	0xbcabf79f	-0.020992098
171	0x3d4c81d4	0.0499285
172	0xbd81cfd8	-0.06338471
173	0xbd7a17fa	-0.061058022
174	0xbce066ca	-0.027392764
175	0xbd134bdc	-0.035961017
176	0x3a5d2dce	0.00084373064
177	0x3c2aebdd	0.010432211
178	0xbb4e8fae	-0.0031518745
179	0x3a824e84	0.0009941612
180	0xbcce6057	-0.025192423
181	0xbd84311e	-0.06454681
182	0x3d949aa5	0.072560586
183	0xbd68e4d7	-0.056858864
184	0xbb7948a2	-0.0038037677
185	0xbc03d5fe	-0.008046625
186	0xbc87e907	-0.016590608
187	0x3d3149ea	0.04328338
188	0xbce7ca52	-0.028294716
189	0xbca12586	-0.019671213
190	0xbd80b3a3	-0.06284263
191	0xbcfd7efe	-0.030944344
192	0x3d48fcd3	0.049069237
193	0x3c84575b	0.016154936
194	0xbce784f3	-0.028261637
195	0xbd09b87b	-0.0336232
196	0xbd49a030	-0.049225032
197	0xbd8b189f	-0.067918055
198	0xbca4fc9c	-0.020139985
199	0xbc866348	-0.016404763
200	0xbc29577a	-0.010335797
201	0x3d9474e5	0.07248858
202	0xbcc53396	-0.02407245
203	0x3d8c32fc	0.06845662
204	0x3ce2d769	0.027690606
205	0xbd36084b	-0.044441503
206	0x3ca8d4cd	0.020609284
207	0xbc85b1b1	-0.016320081
208	0x3b9921f9	0.0046732393
209	0x3d42a8c2	0.04752422
210	0x3d3e7c63	0.046505343
211	0x3b666f3a	0.003516151
212	0x3bf8642f	0.007580302
213	0xbcc0724d	-0.023492003
214	0x3d3ae04a	0.045624055
215	0xbd14401c	-0.036193952
216	0xbd4736b5	-0.048636157
217	0xbd450259	-0.048097942
218	0x3c551aa8	0.013006844
219	0x3cd2773b	0.02569162
220	0xbd79c4cd	-0.0609787
221	0xbcdc2540	-0.026873231
222	0x3cf7a01f	0.030227719
223	0x3d79a787	0.060950782
224	0xbd16ccb8	-0.03681633
225	0xbd110ffb	-0.03541563
226	0xbd23819a	-0.03991852
227	0x3d2647f3	0.04059596
228	0x3d508808	0.05091098
229	0xbd6b67ed	-0.05747216
230	0x3c39ee8c	0.011348378
231	0xbb8ea958	-0.0043536834
232	0xbcfe730b	-0.031060716
233	0x3a5adb2d	0.00083487
234	0xbc0349a2	-0.008013161
235	0x3ca57691	0.020198138
236	0x3d2e03c6	0.042484067
237	0x3c61deca	0.013786027
238	0x3c01aec5	0.007915203
239	0x3d453e87	0.048155334
240	0x3d39fe80	0.045408726
241	0x3d2a116a	0.041520514
242	0xbd7b247a	-0.061314084
243	0x3ca18223	0.019715374
244	0xbd7a8f60	-0.06117189
245	0x3ccd8724	0.025088854
246	0x3be05177	0.006845649
247	0x3bd32f1f	0.0064448263
248	0x3d4b08a9	0.049568806
249	0xbd6e8d44	-0.05824019
250	0x3d4b6f7d	0.04966687
251	0x3cb08a89	0.021550434
252	0x3cc9c535	0.024630168
253	0x3d5a3f03	0.05328275
254	0xbd768a60	-0.06019056
255	0x3d41e2a2	0.047335275

module.model.1.model.0.bias f4 [64]
0	0x3ace7245	0.0015750608
1	0x3aa7cfe0	0.001280304
2	0x3a47312f	0.00075985765
3	0x3a4e0aa7	0.00078598637
4	0x3a7189d9	0.00092139613
5	0x3aa66620	0.001269523
6	0x3a57211a	0.00082065316
7	0x3a45a4fc	0.0007539538
8	0x3ad7b544	0.001645722
9	0x3a9fd48e	0.0012194084
10	0x3a806e68	0.0009798529
11	0x3aa47595	0.0012547249
12	0x3a7669c0	0.0009399913
13	0x3abdebc0	0.0014489815
14	0x3a552be3	0.0008131845
15	0x3a8df3c0	0.001083009
16	0x3a612314	0.0008588296
17	0x3a26751b	0.00063498475
18	0x3a34bc81	0.00068945443
19	0x3a7a20cd	0.0009541631
20	0x3a3be530	0.00071676355
21	0x3a359671	0.00069270196
22	0x3a190124	0.0005836657
23	0x3aa10d07	0.0012287208
24	0x3ab6d9e9	0.001395044
25	0x3a7cd909	0.0009645378
26	0x3a98fa82	0.0011671337
27	0x3a954282	0.0011387619
28	0x3a9f2647	0.0012142145
29	0x3a4b9d5d	0.00077672844
30	0x3ad57043	0.0016284067
31	0x3a6caeb5	0.0009028719
32	0x3aac7132	0.0013156293
33	0x3a419b41	0.00073855004
34	0x39c95607	0.00038401803
35	0x3a8469ab	0.0010102292
36	0x3a65bdce	0.000876394
37	0x3a801bf0	0.0009773951
38	0x3a99e64d	0.0011741609
39	0x3a6b2a49	0.00089708396
40	0x3a6cc6ef	0.0009032329
41	0x3a07f854	0.0005186845
42	0x3a9132e7	0.0011077792
43	0x3a9cd7e9	0.0011966202
44	0x3a92ea30	0.0011208709
45	0x3a8bc9a4	0.0010664952
46	0x3ab6fde7	0.0013961167
47	0x3a7675fb	0.0009401736
48	0x3a5544fe	0.0008135586
49	0x3a9ca6d5	0.0011951575
50	0x3a8b03a9	0.0010605949
51	0x3a8350b0	0.0010018554
52	0x3a7cd8a2	0.0009645318
53	0x3a6acddb	0.00089570665
54	0x3a3e712b	0.0007264788
55	0x3a10707b	0.0005509925
56	0x3ac4e299	0.0015021145
57	0x3a9da52c	0.0012027374
58	0x3a034460	0.0005007442
59	0x3a862d7e	0.0010236946
60	0x3a91c628	0.0011121677
61	0x3a9efaf3	0.0012129232
62	0x3a926adf	0.0011170766
63	0x3a9c1c0d	0.0011910215

module.model.1.model.1.weight f4 [64]
0	0x3f7f7031	0.99780566
1	0x3f801c42	1.0008624
2	0x3f8029dd	1.0012776
3	0x3f803aca	1.0017941
4	0x3f804c0f	1.0023211
5	0x3f7fe9c5	0.9996608
6	0x3f803f1d	1.0019261
7	0x3f8048bc	1.0022197
8	0x3f8000a5	1.0000197
9	0x3f7fb2be	0.99882114
10	0x3f803f6c	1.0019355
11	0x3f7f777b	0.9979169
12	0x3f804403	1.0020756
13	0x3f7faca8	0.9987283
14	0x3f7fa45e	0.9986018
15	0x3f802d3d	1.0013806
16	0x3f7fdba5	0.99944526
17	0x3f802203	1.001038
18	0x3f802a52	1.0012915
19	0x3f802b49	1.001321
20	0x3f7fde7d	0.99948865
21	0x3f7f91e9	0.99832016
22	0x3f7f8a50	0.99820423
23	0x3f8014b3	1.0006317
24	0x3f803612	1.0016501
25	0x3f7faa1c	0.9986894
26	0x3f7fa33f	0.9985847
27	0x3f7f845f	0.9981136
28	0x3f803f61	1.0019342
29	0x3f803ff5	1.0019518
30	0x3f7f8637	0.9981417
31	0x3f7f686d	0.99768716
32	0x3f8038e5	1.0017363
33	0x3f7feb6a	0.9996859
34	0x3f7fe538	0.99959135
35	0x3f7fa5df	0.99862474
36	0x3f800bfa	1.0003655
37	0x3f7f9aad	0.9984539
38	0x3f7fb0bf	0.9987907
39	0x3f7f86d5	0.9981511
40	0x3f7fa2e3	0.9985792
41	0x3f7fba85	0.9989398
42	0x3f7f8372	0.99809945
43	0x3f800c73	1.0003799
44	0x3f804537	1.0021123
45	0x3f7fff28	0.9999871
46	0x3f7f6b89	0.9977346
47	0x3f8044d2	1.0021002
48	0x3f7f8168	0.99806833
49	0x3f7f7806	0.99792516
50	0x3f7f894d	0.9981888
51	0x3f802ff6	1.0014637
52	0x3f803a9e	1.0017889
53	0x3f7f857e	0.9981307
54	0x3f803f46	1.001931
55	0x3f8010d2	1.0005133
56	0x3f7f6ee2	0.9977857
57	0x3f802ce3	1.0013698
58	0x3f803135	1.0015017
59	0x3f803fda	1.0019486
60	0x3f803830	1.0017147
61	0x3f7fade3	0.99874705
62	0x3f800efa	1.000457
63	0x3f7f6dc8	0.9977689

module.model.1.model.1.bias f4 [64]
0	0xbb0307cb	-0.0019993659
1	0x3ada97ac	0.0016677282
2	0x3985b277	0.00025500703
3	0x3aaffd0e	0.0013426857
4	0x3b175c9b	0.0023095969
5	0xbb076990	-0.0020662285
6	0x3af08ed7	0.0018353116
7	0xb90c050d	-0.00013353322
8	0xba024abb	-0.0004970242
9	0xbaabf3ce	-0.0013118924
10	0x3a958ecb	0.0011410353
11	0xbb0daecf	-0.0021619087
12	0x3b0eef31	0.002181005
13	0xbb04b72f	-0.0020250787
14	0xbb19cd70	-0.0023468398
15	0x3b01e8dd	0.0019822635
16	0xbaaae778	-0.0013038954
17	0x3b20ef0f	0.0024556553
18	0x3b227ef4	0.0024794908
19	0x3ae9b34e	0.0017829926
20	0x3a07453f	0.000516016
21	0xba2c1375	-0.00065641786
22	0x3973038c	0.00023175607
23	0x3a4ef121	0.00078942074
24	0x38d96a2c	0.000103671424
25	0x3a8f13b8	0.0010915911
26	0xbb10613f	-0.002203062
27	0xbb056906	-0.0020356788
28	0x3b00cde1	0.0019653963
29	0x3b0e88e3	0.0021749071
30	0xbaea73f8	-0.0017887345
31	0x3a975363	0.0011545237
32	0x3add3e6e	0.0016879567
33	0x3a6ce291	0.00090364466
34	0x3adb5854	0.0016734698
35	0xbb020056	-0.0019836626
36	0x3b0090d6	0.001961758
37	0x3a047f3b	0.0005054359
38	0xbadbfd1d	-0.0016783808
39	0xbaf0d9bc	-0.0018375437
40	0xba7cdc2e	-0.00096458464
41	0x3af4ad40	0.0018667355
42	0xb94c0266	-0.0001945585
43	0xbaf4ec13	-0.0018686078
44	0x39dbfdf0	0.00041960133
45	0xba9a3a94	-0.0011766725
46	0xbb024bc3	-0.0019881583
47	0x3a6f5678	0.00091300113
48	0xb9ba4aea	-0.000355325
49	0xbb09dd2b	-0.0021036367
50	0x3ab586b8	0.0013849353
51	0xbaf3038c	-0.0018540486
52	0x3b093e43	0.0020941652
53	0xbb1b0e7f	-0.0023659763
54	0x3b0dbebf	0.0021628586
55	0x3ab827c4	0.0014049937
56	0xbb195898	-0.0023398753
57	0xbb0b9f7d	-0.002130478
58	0x3b11bec7	0.0022238956
59	0x397ca706	0.00024094814
60	0xba615f80	-0.00085972995
61	0xbafd095a	-0.0019305155
62	0x3ab8954c	0.001408258
63	0xbb1997be	-0.0023436393

module.model.1.model.1.running_mean f4 [64]
0	0x3a82cf92	0.0009980074
1	0x3b262ea1	0.0025357383
2	0x3aeb2cc9	0.0017942424
3	0x3abf7e11	0.0014609714
4	0x3ae49941	0.0017440693
5	0x3a354e84	0.0006916302
6	0xb9085a69	-0.00013003651
7	0x3b6ea3d2	0.0036413562
8	0x3b536bb8	0.003226025
9	0x3bbb3372	0.00571292
10	0x3ab4abf9	0.0013784162
11	0x3a3d558c	0.00072225253
12	0x3b2a0db1	0.0025948102
13	0x3a033b65	0.0005006104
14	0xbad4114c	-0.0016179471
15	0x3a9d32b6	0.0011993262
16	0x3b513c6b	0.003192688
17	0x3a6b7803	0.0008982422
18	0xbb5458ba	-0.0032401518
19	0x3b596ca9	0.0033176339
20	0x3a038e9c	0.0005018504
21	0xba083dd3	-0.0005197201
22	0x39ee78ad	0.00045484808
23	0x3ae9617b	0.0017805541
24	0x3b86e9f4	0.004117245
25	0x3722ba85	9.69938e-06
26	0x3a113bdd	0.00055402314
27	0x3ab21e25	0.0013589306
28	0xb85d641f	-5.278375e-05
29	0xba36e4d6	-0.0006976848
30	0x3b471d86	0.0030382588
31	0x3abc479d	0.0014364604
32	0xbb15bf25	-0.0022849527
33	0xb8870402	-6.438048e-05
34	0x3b01a39e	0.0019781361
35	0x388aba25	6.615025e-05
36	0x3ab05c3f	0.0013455226
37	0x3bd68a97	0.006547283
38	0x3aa30b0d	0.0012439206
39	0x3b0ea265	0.0021764275
40	0x3b59d474	0.0033238204
41	0x3b5b0691	0.0033420662
42	0x3b692df4	0.0035580369
43	0x3b6a8cc7	0.0035789476
44	0x3b759859	0.003747484
45	0x3ae25253	0.0017266966
46	0x3a6ec545	0.0009108375
47	0xbafae2d6	-0.0019141089
48	0x3a7179e1	0.0009211582
49	0xbac3bca7	-0.0014933542
50	0x3b49584c	0.0030722795
51	0x3b0fb2e9	0.0021926707
52	0x3a61e43b	0.0008617078
53	0xb9a45df7	-0.00031350527
54	0x3b812ccb	0.0039421073
55	0x3b9c9d23	0.0047794743
56	0x3aa45c2d	0.0012539678
57	0x3b0c5fae	0.0021419334
58	0x3a75b86d	0.000937349
59	0x3b3a992a	0.002847264
60	0x3a805655	0.0009791354
61	0x3b4ade74	0.0030955346
62	0x39afc1af	0.00033522907
63	0x3b203fad	0.0024452016

module.model.1.model.1.running_var f4 [64]
0	0x3774b718	1.4586163e-05
1	0x3879fae2	5.959988e-05
2	0x392e6f30	0.00016635354
3	0x38ba3870	8.8796834e-05
4	0x3914b287	0.00014180887
5	0x379ba5e0	1.8554681e-05
6	0x38a39d22	7.801714e-05
7	0x388b195f	6.632762e-05
8	0x37b107dc	2.1103704e-05
9	0x37c4113f	2.3373052e-05
10	0x390fca5c	0.00013712927
11	0x381399a7	3.519063e-05
12	0x39906fb3	0.00027549043
13	0x398bc8d2	0.0002666177
14	0x35c3904f	1.4570631e-06
15	0x37e9de47	2.787927e-05
16	0x37b67c14	2.1753869e-05
17	0x390a3563	0.00013180594
18	0x392c8eef	0.00016456445
19	0x37311d3c	1.0556829e-05
20	0x38abcea5	8.192406e-05
21	0x37a3db7d	1.9533321e-05
22	0x38142001	3.5315756e-05
23	0x3885e2f9	6.384211e-05
24	0x3830226e	4.1993735e-05
25	0x3861ce43	5.3836276e-05
26	0x36f02cf8	7.1577924e-06
27	0x36f3c16e	7.2644825e-06
28	0x388cd7fc	6.7159504e-05
29	0x38e5d4bb	0.00010959195
30	0x358714aa	1.0064298e-06
31	0x3822e52e	3.883725e-05
32	0x35a98d36	1.2632579e-06
33	0x38071769	3.220831e-05
34	0x389dbbb4	7.521306e-05
35	0x37f005d6	2.8612947e-05
36	0x39007f9a	0.00012254567
37	0x398e4ad6	0.00027140108
38	0x38c6ea67	9.4850366e-05
39	0x35433aea	7.272889e-07
40	0x3657d264	3.215996e-06
41	0x38506e15	4.9693586e-05
42	0x3705901c	7.960971e-06
43	0x3637eebc	2.7408087e-06
44	0x391f6506	0.00015201056
45	0x35825cbb	9.712743e-07
46	0x35a080b0	1.1958382e-06
47	0x36668d8d	3.4355064e-06
48	0x382ff38e	4.195008e-05
49	0x37720607	1.4425727e-05
50	0x3705c3e6	7.973029e-06
51	0x3920f0eb	0.00015348538
52	0x398606be	0.00025563495
53	0x36d4cd56	6.3419966e-06
54	0x39191278	0.00014598097
55	0x37a83ac3	2.0054524e-05
56	0x390ccdab	0.00013428058
57	0x37d26c87	2.5084488e-05
58	0x398e5e5c	0.00027154654
59	0x38a554d3	7.883613e-05
60	0x383d5d20	4.514784e-05
61	0x380625bb	3.198323e-05
62	0x38ceccd0	9.860995e-05
63	0x37e0bb4a	2.6790094e-05

module.model.1.model.3.weight f4 [64, 64, 3, 3]
0	0xbc2fd888	-0.010732777
1	0xba98cf0b	-0.0011658383
2	0xbd314b76	-0.043284856
3	0x3d024e8d	0.031813193
4	0xbd6f497e	-0.058419697
5	0xbd37f8e3	-0.04491509
6	0x3d344e9c	0.04402028
7	0x3d81b042	0.06332447
8	0xbc71da28	-0.014761485
9	0x3d5b484b	0.05353574
10	0x3d645796	0.05574759
11	0x3ceb22a6	0.028703045
12	0xbcc4daf1	-0.02403018
13	0xbc5fad65	-0.01365218
14	0x3d16dabd	0.0368297
15	0x3cfdeecc	0.030997656
16	0xbd2b7775	-0.04186197
17	0xbcc1313c	-0.023583047
18	0x3c3ffb8e	0.01171769
19	0x3d7bb767	0.061454203
20	0x3d23cac9	0.039988313
21	0xbccf58e0	-0.025310934
22	0xbc5ca6aa	-0.01346747
23	0xbc96b646	-0.018397462
24	0x3d9308bc	0.071794
25	0x3d035d47	0.032071378
26	0xbd75cf23	-0.060011994
27	0xbc0a6c8f	-0.008448734
28	0xbd0bfece	-0.034178548
29	0x3d80b94c	0.062853426
30	0xbd8688c7	-0.06569057
31	0x3ccd6e5f	0.025077043
32	0x3d00b171	0.03141922
33	0xbd85a9d0	-0.0652653
34	0xbcc0079d	-0.02344113
35	0x3d2d2747	0.042273786
36	0xbca261b3	-0.019821977
37	0xbbb205ce	-0.005432821
38	0x3d931eb2	0.07183589
39	0x3d88d78a	0.06681736
40	0xbd515f06	-0.051116012
41	0xbcbad075	-0.022804478
42	0x3d6f9af6	0.05849739
43	0xbd050097	-0.032471266
44	0x3ca83d85	0.020537147
45	0xba878fac	-0.00103425
46	0x3c3bd6b6	0.011464765
47	0x3d75cd72	0.06001038
48	0x3cd3b3c4	0.025842555
49	0xbd1ac6ef	-0.037787374
50	0xbced5168	-0.028969482
51	0x3b89f011	0.0042095263
52	0xbc2dc5df	-0.010606258
53	0x3c529453	0.012852746
54	0xbd0f42c4	-0.034975782
55	0x3d666d56	0.056256615
56	0xbd79b6ea	-0.060965456
57	0x3ca2fbb6	0.019895416
58	0x3d88d6d0	0.06681597
59	0x3d4a1746	0.0493386
60	0xbd3419ed	-0.043970037
61	0x3c8b7de5	0.017027805
62	0x3d612a2d	0.054971863
63	0x3ccad8cd	0.024761582
64	0x3c7bc1e9	0.015366056
65	0x3cdcbd5d	0.026945764
66	0xbd144d7a	-0.0362067
67	0xbd74d31b	-0.05977164
68	0x3c7463ea	0.0149163995
69	0x3ce317d3	0.027721321
70	0xbd0b0d80	-0.03394842
71	0xbca82d91	-0.02052954
72	0xbd55d1d4	-0.05220206
73	0xbd09859c	-0.033574685
74	0x3d7e30f8	0.06205842
75	0xbb76789e	-0.0037608515
76	0xbd8bf07b	-0.068329774
77	0x3bddff47	0.006774816
78	0x3c9f79be	0.01946723
79	0xbd5ec8fc	-0.054390892
80	0xbd83e51d	-0.06440184
81	0x3c8270b4	0.015922882
82	0xb92cdd22	-0.00016485577
83	0x3c4028a5	0.01172844
84	0xbcf4d571	-0.029886933
85	0x3c3e253e	0.011605559
86	0x3d629ff6	0.055328332
87	0x3cb2938e	0.021798875
88	0xbd77f854	-0.06053956
89	0xbd05c3d0	-0.032657444
90	0xbc928ed4	-0.017890371
91	0x3d06a5b8	0.032872885
92	0x3d0be1d9	0.034150932
93	0xbd50a2ff	-0.050936695
94	0x3c254d3d	0.010089216
95	0x3d9748a3	0.07386901
96	0x3d1efac5	0.03881337
97	0xbd1ba7b7	-0.038001742
98	0xbd8b9cff	-0.06817054
99	0x3cef57a5	0.029216597
100	0xbd71e01e	-0.059051625
101	0xbd8c3d07	-0.068475775
102	0x3ba61fc6	0.0050697057
103	0x3d2d603a	0.042328097
104	0x3d31ff2e	0.04345625
105	0x3cfd6a29	0.03093441
106	0xbd06e202	-0.03293038
107	0x3bb79dbe	0.005603521
108	0xbd84184d	-0.064499475
109	0x3d2e8ef6	0.042616807
110	0xba5afd24	-0.0008353761
111	0x3ca416e2	0.020030443
112	0x3d1a1a4c	0.037622735
113	0x3d4ec8c5	0.050484437
114	0x3d53eedb	0.051741462
115	0x3cbe64bf	0.023241399
116	0x3c42a4c4	0.0118801035
117	0x3d7d766e	0.06188052
118	0x3ca6e0b5	0.02037082
119	0x3d52052c	0.051274464
120	0xbd87272f	-0.065992706
121	0xbccb9550	-0.024851471
122	0x3bdc24ca	0.006718253
123	0x3d618c79	0.055065606
124	0xbc491637	-0.012273363
125	0x3cbc01db	0.022950104
126	0xbb9fda86	-0.004878345
127	0x3d8e4459	0.0694663
128	0xbcd2dde5	-0.025740573
129	0x3cd8f1af	0.026482431
130	0xbb8b094d	-0.004243052
131	0xbb90ce11	-0.0044190963
132	0x3d0bddc9	0.034147058
133	0xbd874c79	-0.06606383
134	0x3c15e988	0.0091499165
135	0xbd0183fb	-0.031620007
136	0x3d48832d	0.048953224
137	0x3cc98872	0.024601195
138	0x3d5b8454	0.053592995
139	0x3d5e15fb	0.05422018
140	0x3d58e94c	0.052956864
141	0xbcd758f0	-0.026287526
142	0x3cb43d66	0.022001933
143	0x3d5f6d4d	0.054547597
144	0xbd891341	-0.066931255
145	0x3d10369a	0.035208322
146	0xbd198916	-0.03748425
147	0x3d320082	0.043457516
148	0x3d5f5d3e	0.054532282
149	0xbd8dfa3f	-0.06932496
150	0xbc1e49cd	-0.00966115
151	0x3d814f0e	0.063139066
152	0x3d392811	0.045204226
153	0xbd7b3a90	-0.061335146
154	0x3a864c19	0.0010246068
155	0xbc2d74cc	-0.010586929
156	0xbd368d95	-0.044568617
157	0xbd134798	-0.03595695
158	0xbd48fb48	-0.049067765
159	0xbce065ad	-0.027392233
160	0xbd089bf8	-0.03335187
161	0x3cdb061a	0.026736308
162	0x3d42c8b9	0.047554705
163	0x3d2b9557	0.04189047
164	0xbd86c24c	-0.06580028
165	0x3bd1da47	0.0064041945
166	0x3d95a58c	0.07306966
167	0x3d077e4c	0.03307943
168	0xbbd30dfc	-0.006440876
169	0x3d95620c	0.072940916
170	0x3d12042b	0.035648506
171	0x3d49eac4	0.049296156
172	0x3c6b2540	0.014352143
173	0xbd871895	-0.065964855
174	0xbc35147d	-0.011052248
175	0x3cc8223c	0.024430387
176	0x3c1e3866	0.009657001
177	0xbd50ccbc	-0.0509765
178	0x3bb2b6f6	0.0054539395
179	0x3c7647d6	0.015031775
180	0xbd889c9b	-0.06670495
181	0x3d88df73	0.066832446
182	0x3d778d32	0.06043739
183	0x3b7a4bb9	0.0038192107
184	0xbd464328	-0.04840389
185	0x3d2cda45	0.042200346
186	0xbd636fd2	-0.055526562
187	0x3d00a223	0.031404626
188	0x3c65aeda	0.014018739
189	0xbd81009d	-0.06298945
190	0x3cbbf077	0.022941811
191	0xbd8f4c43	-0.06996968
192	0x3d809390	0.06278145
193	0x3ccd7893	0.025081908
194	0xbc83b1ff	-0.016076086
195	0xbd72f417	-0.059314813
196	0xbc5bd0ba	-0.0134164635
197	0xbce539d5	-0.027981678
198	0x3c85f71c	0.016353182
199	0x3ca206e6	0.01977868
200	0x3d685e88	0.056730777
201	0xbd51b757	-0.051200237
202	0x3d7deec8	0.061995298
203	0xbd2afa8f	-0.041742858
204	0x3a881f32	0.0010385273
205	0xbcb1cb9d	-0.021703536
206	0x3cf6bf3b	0.030120483
207	0xbb1290c1	-0.0022364112
208	0xbd2b6558	-0.041844696
209	0x3ccb9e41	0.024855735
210	0x3b54512f	0.0032397022
211	0xbbc386d9	-0.005967003
212	0xbd7bded3	-0.0614918
213	0x3d8c0610	0.06837094
214	0xbd336568	-0.04379788
215	0x3b9918d6	0.00467215
216	0x3d6b8d98	0.05750808
217	0xbb8ea5a3	-0.0043532415
218	0x3d26352b	0.04057805
219	0xbcda9bbb	-0.026685586
220	0x3d3572e7	0.044299033
221	0xbcefa22c	-0.029252134
222	0xbc8cfb0e	-0.017209556
223	0xbd6965ed	-0.05698197
224	0xbc1cc3cb	-0.009568165
225	0x3d424b3c	0.04743503
226	0x3cfbd4df	0.030741153
227	0xbd279ce1	-0.040921096
228	0xbce99b74	-0.028516509
229	0x3c37759e	0.011197476
230	0xbd76f65e	-0.060293548
231	0xbd59058c	-0.052983806
232	0xbd41e212	-0.047334738
233	0xbb8d6d18	-0.0043159835
234	0xbc650d50	-0.013980225
235	0x3d6abac6	0.057307027
236	0x3d40325d	0.04692303
237	0x3d69a841	0.057045225
238	0xbbb70296	-0.005585025
239	0x3d70a0b9	0.058747027
240	0xbcb4be3c	-0.022063367
241	0x3d530e80	0.0515275
242	0x3d5d48d4	0.054024532
243	0x3cc6ff8d	0.024291778
244	0xbd85a83e	-0.0652623
245	0xbca94e35	-0.020667175
246	0x3cd7bf5c	0.026336364
247	0x3d04f55c	0.032460555
248	0x3d87b88e	0.06626998
249	0xbcbb3ebd	-0.022857064
250	0x3b2b4a0b	0.0026136662
251	0xbd841a3a	-0.06450315
252	0x3b5f8d72	0.0034111408
253	0x3d1cf8d3	0.038323235
254	0xbd912e23	-0.07088878
255	0xbd12e954	-0.03586705

module.model.1.model.3.bias f4 [64]
0	0x3a098b32	0.0005246877
1	0x3add0134	0.001686132
2	0x3a0282a6	0.00049785746
3	0x3a5134f4	0.0007980608
4	0x3adf66a8	0.0017044144
5	0x3a58101c	0.00082421466
6	0x385eb8c4	5.3101e-05
7	0x3ab0868e	0.0013467835
8	0x3aca2cbe	0.0015424711
9	0x3a7289e2	0.00092521135
10	0x3a879e30	0.0010346826
11	0x3acc628b	0.0015593333
12	0x3a2fb1dd	0.0006702224
13	0x3b152c52	0.0022762013
14	0x3ad9b64e	0.0016610117
15	0x39d2dd4a	0.00040219194
16	0x39d2dfe4	0.00040221133
17	0x3ac7bf9e	0.0015239601
18	0x3aacd970	0.001318736
19	0x3ab8a094	0.0014085942
20	0x3a9ca831	0.001195198
21	0x39b64114	0.00034762232
22	0x39b09473	0.0003367994
23	0x3af4a117	0.0018663731
24	0x3a66b529	0.00088007987
25	0x3a92b737	0.0011193518
26	0x3aaead79	0.0013326845
27	0x38d78d48	0.000102783146
28	0x3a454563	0.0007525293
29	0x3b033074	0.0020017894
30	0x3a36d673	0.00069747044
31	0x3ab29b75	0.0013626652
32	0x3a9cb815	0.0011956716
33	0x3ac3b607	0.0014931568
34	0x3a0169b8	0.0004936713
35	0x3b011e01	0.0019701722
36	0x3adceb0c	0.0016854717
37	0x3a049cc0	0.0005058758
38	0x3ac9c33c	0.0015393267
39	0x3aa0e74b	0.0012275962
40	0x3af6a101	0.0018816293
41	0x398fe1fa	0.0002744345
42	0x3a63e11f	0.00086929085
43	0x3a19ee14	0.0005871963
44	0x3a6f4a75	0.00091282214
45	0x3a89f3de	0.0010524949
46	0x3a9cf7f2	0.0011975749
47	0x3a363040	0.0006949939
48	0x3a9f8fcd	0.0012173593
49	0x3af402c3	0.0018616546
50	0x3a5e3560	0.00084765814
51	0x3aa836fc	0.001283377
52	0x3ac7f65a	0.0015255914
53	0x3a9dfffe	0.0012054441
54	0x3a3840a0	0.0007028673
55	0x3a56c491	0.0008192743
56	0x3a025701	0.0004972071
57	0x3aa8ea82	0.0012887272
58	0x3a61797a	0.000860117
59	0x3a888005	0.0010414129
60	0x3a3083e3	0.000673352
61	0x3afe72b8	0.0019412851
62	0x3af1589b	0.0018413247
63	0x3a224337	0.00061898254

module.model.1.model.4.weight f4 [64]
0	0x3f80480f	1.002199
1	0x3f7f6543	0.9976389
2	0x3f8041c2	1.0020068
3	0x3f804f4b	1.0024198
4	0x3f7f73e7	0.9978623
5	0x3f803bd4	1.0018258
6	0x3f804989	1.0022441
7	0x3f7f9212	0.9983226
8	0x3f7f8dae	0.9982556
9	0x3f7fe40b	0.9995734
10	0x3f8049e5	1.0022551
11	0x3f7f681c	0.99768233
12	0x3f804a6e	1.0022714
13	0x3f7f7c73	0.9979927
14	0x3f7f7bb8	0.99798155
15	0x3f80365c	1.0016589
16	0x3f80453c	1.0021129
17	0x3f7f6260	0.99759483
18	0x3f7f73c5	0.99786025
19	0x3f7f732b	0.9978511
20	0x3f7f6406	0.99762
21	0x3f804c75	1.0023333
22	0x3f80423d	1.0020214
23	0x3f7f66b2	0.99766076
24	0x3f803a1b	1.0017732
25	0x3f7faf15	0.9987653
26	0x3f8037ae	1.0016992
27	0x3f804985	1.0022436
28	0x3f8033be	1.001579
29	0x3f7f7388	0.9978566
30	0x3f80478e	1.0021837
31	0x3f7f7cbc	0.99799705
32	0x3f7f7886	0.9979328
33	0x3f802980	1.0012665
34	0x3f803eed	1.0019203
35	0x3f7f7611	0.9978953
36	0x3f7f6b74	0.99773335
37	0x3f80444c	1.0020843
38	0x3f7f74b3	0.99787444
39	0x3f7f6881	0.99768835
40	0x3f7f69a5	0.99770576
41	0x3f8043e7	1.0020722
42	0x3f804d43	1.0023578
43	0x3f804e01	1.0023805
44	0x3f7fd642	0.99936306
45	0x3f802d81	1.0013887
46	0x3f7fcbd1	0.99920374
47	0x3f80488b	1.0022138
48	0x3f7f6ae2	0.99772465
49	0x3f7f7791	0.9979182
50	0x3f7f779b	0.9979188
51	0x3f8001c5	1.000054
52	0x3f7f97c4	0.9984095
53	0x3f7fa592	0.99862015
54	0x3f7fa265	0.9985717
55	0x3f7fd341	0.9993172
56	0x3f804f83	1.0024265
57	0x3f80084f	1.0002536
58	0x3f804980	1.002243
59	0x3f7f9282	0.9983293
60	0x3f803ed7	1.0019177
61	0x3f7f74da	0.99787676
62	0x3f7f7843	0.9979288
63	0x3f804d75	1.0023638

module.model.1.model.4.bias f4 [64]
0	0x3b17dac9	0.0023171178
1	0xbb1f7d42	-0.0024336134
2	0x3b15bf48	0.0022849608
3	0x3b24cd0b	0.002514663
4	0xbb190c37	-0.0023353228
5	0x3b157dbd	0.0022810542
6	0x3b1612ae	0.0022899318
7	0xbb0bfdfa	-0.0021361099
8	0xbb0c0a11	-0.0021368305
9	0xbb246f0b	-0.00250906
10	0x3b14cab9	0.002270384
11	0xbb19a2fd	-0.0023443096
12	0x3b179731	0.0023130889
13	0xbb0d9174	-0.002160159
14	0xbb0853ef	-0.0020801981
15	0x3b0db29b	0.002162135
16	0x3b18b9d9	0.0023304133
17	0xbb1c3f74	-0.0023841532
18	0xbb0ff6f7	-0.002196727
19	0xbb0d14b3	-0.002152723
20	0xbb18067d	-0.0023197227
21	0x3b09f5e8	0.0021051113
22	0x3b16ddb0	0.002302032
23	0xbb16afd0	-0.0022992976
24	0x3b0e9590	0.0021756627
25	0xbaf6f339	-0.0018840797
26	0xbb140dba	-0.002259119
27	0x3b134ec0	0.0022477359
28	0x3a2a72de	0.0006502102
29	0xbb14f783	-0.0022730536
30	0x3b0cc046	0.0021476909
31	0xbb01ac80	-0.0019786656
32	0xbb0c1039	-0.0021371974
33	0xbb13b69c	-0.0022539264
34	0x3b1befa4	0.002379396
35	0xbb10d239	-0.0022097959
36	0xbb174e2f	-0.0023087373
37	0x3b14ebf2	0.0022723642
38	0xbb0f1080	-0.0021829903
39	0xbb15e9e4	-0.0022875005
40	0xbb1846ea	-0.0023235627
41	0x3b17ddf6	0.002317307
42	0x3b19be21	0.0023459273
43	0x3b15d3a9	0.0022861755
44	0xbb0f87bd	-0.0021900975
45	0x3b09457e	0.0020945962
46	0xba8544ee	-0.0010167637
47	0x3b14ab09	0.0022684953
48	0xbaa25415	-0.0012384678
49	0xbb0d3bce	-0.002155054
50	0xbab65c69	-0.0013913038
51	0xbb065bb1	-0.002050143
52	0xbaec5e73	-0.0018033519
53	0xbb07fb49	-0.0020749143
54	0x3a5fee51	0.0008542287
55	0x3b26d916	0.0025458983
56	0x3b228909	0.0024800918
57	0xbb07d159	-0.0020724146
58	0x3b0f8fb7	0.002190573
59	0xbb14e108	-0.0022717137
60	0x3b129118	0.0022364315
61	0xbb0d6f5f	-0.0021581275
62	0xbb0d1cb6	-0.0021532006
63	0x3b245377	0.0025074163

module.model.1.model.4.running_mean f4 [64]
0	0x3eb4e564	0.3533126
1	0xbed3e9f5	-0.41389433
2	0xbe0451ee	-0.12921879
3	0x3e1353a9	0.14387383
4	0xbc17875d	-0.009248582
5	0xbe327d70	-0.17430663
6	0x3de57c78	0.11205381
7	0x3ed80db3	0.42197952
8	0xbeaf70a4	-0.34265625
9	0xbebe09e4	-0.3711692
10	0x3f08b77c	0.53404975
11	0xbe9a1258	-0.3009212
12	0xbe0e2949	-0.13882937
13	0xbf0de04c	-0.55420375
14	0xbd1ad1e2	-0.037797816
15	0x3e93a633	0.28837737
16	0x3e590741	0.21194173
17	0x3e591561	0.21199562
18	0x3e65e8d5	0.224521
19	0xbf1869b6	-0.595363
20	0x3eb0b65c	0.3451413
21	0x3d9b6bb4	0.07588902
22	0xbe124825	-0.14285333
23	0x3e9321a9	0.28736618
24	0xbef143e3	-0.47122106
25	0x3e103602	0.14083102
26	0x3ead0385	0.33791748
27	0xbd7ee399	-0.062228773
28	0xbea1fe57	-0.31639358
29	0xbc9e0e99	-0.01929407
30	0x3d2cd545	0.042195577
31	0xbeaffa2a	-0.34370548
32	0x3d18d686	0.03731396
33	0x3f682d49	0.906941
34	0xbe687361	-0.22700264
35	0xbec19973	-0.37812385
36	0xbe467196	-0.19379267
37	0xbd3092e0	-0.04310882
38	0x3e8eb615	0.27873293
39	0x3f0bcef8	0.54612684
40	0xbe72c89f	-0.23709343
41	0x3dbe6800	0.0929718
42	0xbf287a2c	-0.6581142
43	0xbceab296	-0.02864961
44	0x3f0b319f	0.5437259
45	0x3edba761	0.42901137
46	0xbdc4dfe1	-0.09613014
47	0x3e7dbc06	0.24778756
48	0xbef26e5a	-0.47349817
49	0x3e615d38	0.22008216
50	0x3eb6bb72	0.35689884
51	0x3f01941e	0.50616634
52	0xbeeff9ca	-0.4687026
53	0x3e95bd59	0.29246023
54	0xbecfadd4	-0.40562308
55	0xbeec5105	-0.46155563
56	0xbec4e155	-0.38453165
57	0x3e57e28c	0.21082515
58	0x3e8b51f8	0.27210975
59	0x3f38cbc2	0.7218591
60	0x3e1a1dd8	0.15050447
61	0xbdf2766b	-0.11838993
62	0xbed36a85	-0.41292205
63	0xbea21e3c	-0.31663692

module.model.1.model.4.running_var f4 [64]
0	0x3ef6c4a0	0.48196888
1	0x3e6d8b0c	0.23197573
2	0x3f13dc8c	0.577584
3	0x3eca192f	0.3947234
4	0x3ec898cf	0.39179084
5	0x3f2c51e6	0.6731247
6	0x3d183e67	0.037168887
7	0x3e453613	0.19258909
8	0x3f82fc94	1.0233331
9	0x3e7e7301	0.24848558
10	0x3ece6f4c	0.40319288
11	0x3dc64bd1	0.096824296
12	0x3ed2fd41	0.41208842
13	0x3e60ab72	0.21940401
14	0x3efe7be4	0.49703896
15	0x3de03c25	0.10948972
16	0x3dcd3137	0.100191526
17	0x3c9741d0	0.018463999
18	0x3d6565f8	0.056005448
19	0x3ea1626c	0.31520402
20	0x3d1b272e	0.03787916
21	0x3ef654e2	0.48111635
22	0x3c8a6418	0.016893432
23	0x3f4d198c	0.80117106
24	0x3dd1afc4	0.10238603
25	0x3f0b3deb	0.54391354
26	0x3e06b7d7	0.13156067
27	0x3cd3bc47	0.025846614
28	0x3e1609d5	0.14652188
29	0x3e5297af	0.20565675
30	0x3e97f38d	0.29678002
31	0x3d940b56	0.07228725
32	0x3e8cb3f3	0.2748104
33	0x3eb04428	0.34427
34	0x3ec87ec6	0.3915922
35	0x3f09f361	0.5388699
36	0x3e5c8be2	0.21537736
37	0x3f0ef06e	0.55835617
38	0x3d8b4de7	0.06801968
39	0x3da02b8b	0.07820805
40	0x3e3a1ccd	0.18175049
41	0x3fdba7c0	1.7160568
42	0x3df262a3	0.1183522
43	0x3e13ee1d	0.14446302
44	0x3e26471a	0.1623806
45	0x3f1ed8fb	0.62049836
46	0x3f8572ae	1.0425622
47	0x3e93b346	0.28847712
48	0x3e0820aa	0.1329371
49	0x3f67d5d7	0.9056067
50	0x3d1a0ad5	0.037607986
51	0x3da993a0	0.0828011
52	0x3f248622	0.6426717
53	0x3f93ca22	1.1546061
54	0x3e150988	0.14554417
55	0x3f2dcf89	0.678948
56	0x3f836da9	1.0267841
57	0x3e811761	0.2521315
58	0x3dbe90cd	0.09304962
59	0x3e8e4310	0.2778554
60	0x3f2624bd	0.6489981
61	0x3dc27841	0.09495593
62	0x3f10f528	0.5662408
63	0x3e487c72	0.19578722

module.model.2.model.0.weight f4 [64, 64, 3, 3]
0	0xbd949e17	-0.07256716
1	0xbd02cfd8	-0.031936496
2	0x3d555a2c	0.052087948
3	0x3c19caf2	0.009386765
4	0xbd316a83	-0.043314468
5	0xbcdcb073	-0.026939606
6	0x3d89511b	0.06704923
7	0xbd0d3a93	-0.03447969
8	0x3d7e8f82	0.06214858
9	0x3d6d75ad	0.057973552
10	0xbcde014c	-0.027100228
11	0xbc7635f8	-0.015027516
12	0xbd2c9f27	-0.042143967
13	0x3c487eae	0.012237234
14	0x3ca6db98	0.020368382
15	0xbc35e38f	-0.0111016175
16	0x3d6cfb5a	0.057856895
17	0x3d7cc87c	0.061714634
18	0xbd89f3dd	-0.06735966
19	0xbbb393d3	-0.0054802685
20	0xbd8312c1	-0.064000614
21	0xbcee4249	-0.029084342
22	0x3c711030	0.014713332
23	0xbbc06e74	-0.005872542
24	0x3d524d8e	0.051343493
25	0xbd1ce5ce	-0.038305096
26	0xbd8a2a0f	-0.06746303
27	0xbcaaca0b	-0.020848295
28	0xbd8e95d2	-0.0696217
29	0x3d37a5bc	0.04483579
30	0x3d118da0	0.035535455
31	0x3d3e103a	0.046402194
32	0x3c92a7c5	0.017902264
33	0x3c3726d5	0.011178692
34	0x3be26816	0.0069093807
35	0xbd70f4e9	-0.058827315
36	0x3d3ca7da	0.046058513
37	0xbd21d828	-0.039512783
38	0x3d0eb335	0.034838874
39	0x3cb5d745	0.022197375
40	0xbd4a3003	-0.049362194
41	0x3c00593b	0.007833774
42	0x3b885003	0.0041599288
43	0x3cc1806e	0.02362081
44	0xbbcd51e9	-0.006265868
45	0x3d2133f1	0.039356176
46	0xbcf3870f	-0.029727487
47	0xbd6b88cc	-0.057503507
48	0xbd950fc9	-0.072784014
49	0x3d4031a3	0.046922337
50	0xbd4bbda3	-0.0497414
51	0x3c061076	0.0081826355
52	0x3d8518e2	0.06498887
53	0x3d29e932	0.041482158
54	0xbd1cb782	-0.038260944
55	0x3d7bbd6c	0.061459944
56	0xbc8b2277	-0.016984208
57	0xbd14167a	-0.036154248
58	0xbcabc273	-0.020966744
59	0xbc5280c0	-0.012848079
60	0xbc80ddb4	-0.015730716
61	0x3d84c8bd	0.064836
62	0xbc137313	-0.008999604
63	0x3c836c58	0.016042873
64	0x3c9e8830	0.019352049
65	0xbcb59fc9	-0.022170918
66	0x3d03c660	0.032171607
67	0xbd648a33	-0.05579586
68	0xbbb7ddfb	-0.005611179
69	0xbca317a0	-0.019908726
70	0xbd32b09d	-0.043625463
71	0xbd2b5eee	-0.04183858
72	0x3d33f864	0.043938056
73	0xbd47e1d7	-0.048799362
74	0xbd27a3a7	-0.040927555
75	0x3c45583f	0.012044965
76	0xbd904140	-0.070436954
77	0x3d350a21	0.044199113
78	0xbc93131a	-0.017953444
79	0x3d4e730b	0.050402682
80	0xbc54993a	-0.012975985
81	0x3b6aea95	0.0035845388
82	0x3d392672	0.04520268
83	0x3cdc69de	0.02690595
84	0xbcad3fb5	-0.021148542
85	0x3d8909eb	0.06691345
86	0x3cf97911	0.030453237
87	0xbb7e993c	-0.003884866
88	0xbc29d057	-0.0103646135
89	0x3d1c2f75	0.038131196
90	0x3d5fb4a6	0.05461564
91	0xbc222d24	-0.009898458
92	0x3d5a77b3	0.05333681
93	0xb9da1ec8	-0.00041603134
94	0xbd4d3ca6	-0.050106667
95	0xbd251459	-0.04030261
96	0xbd7d6ddd	-0.061872352
97	0xbc1f1c55	-0.009711345
98	0xbd74dff8	-0.059783906
99	0xbd421d88	-0.047391444
100	0x3d60dc9c	0.05489789
101	0xbcf01e2b	-0.02931126
102	0xbcb08f97	-0.021552844
103	0xbc5cdaf4	-0.013479937
104	0x3d803027	0.06259184
105	0xbcf853c6	-0.030313384
106	0x3d51880d	0.05115514
107	0xbcf45f64	-0.029830642
108	0x3d47e673	0.048803758
109	0xbbd57d12	-0.0065151537
110	0x3d7eb549	0.062184606
111	0xbc66ae63	-0.014079663
112	0xbb082f48	-0.0020780135
113	0x3c91b944	0.017788537
114	0x3d245bcf	0.040126618
115	0x3cbea7db	0.0232734
116	0x3d6aa287	0.057283904
117	0xbcedce1b	-0.029028943
118	0x3d86a89b	0.06575128
119	0xbca2a749	-0.019855158
120	0xbd7adaa9	-0.061243687
121	0x3d635100	0.05549717
122	0x3d58b703	0.05290891
123	0xbd214acf	-0.039377984
124	0xbd1604f3	-0.036625814
125	0xbbe3de84	-0.006954016
126	0x3c9f81d0	0.01947108
127	0xbc810467	-0.01574917
128	0xbc6731a9	-0.014110961
129	0xbd40ec8f	-0.0471006
130	0x3d8e1cdb	0.069390975
131	0xbd31cec4	-0.043410078
132	0x3d65e825	0.056129593
133	0x3d8cd1a2	0.06875922
134	0xbc65b750	-0.014020756
135	0x3d56b0f4	0.05241485
136	0xbcf5183f	-0.029918788
137	0x3c0210f5	0.007938613
138	0xba85395b	-0.0010164188
139	0x3d7d2d76	0.061810933
140	0xbd2fcf79	-0.04292247
141	0x3c7b2f82	0.015331151
142	0xbd86c462	-0.06580426
143	0x3d7d085d	0.061775554
144	0xbcfaf6f6	-0.030635338
145	0x3d31dcd2	0.04342348
146	0x3cc56aab	0.024098715
147	0x3d74fccf	0.05981141
148	0xbd11e4e6	-0.035618685
149	0xbd82c738	-0.06385654
150	0xbcca6175	-0.024704674
151	0xbd2b4440	-0.041813135
152	0xbc059feb	-0.008155803
153	0xbd740b3a	-0.05958102
154	0x3d1f8921	0.038949136
155	0xbd8c309f	-0.06845211
156	0x3d3b7d50	0.045773804
157	0x3b459385	0.0030147743
158	0x3d769429	0.06019989
159	0xbd953998	-0.07286376
160	0x3cf17349	0.029473918
161	0x3d0cb105	0.034348506
162	0x3d10583e	0.035240404
163	0xbd81ac60	-0.06331706
164	0xbc072faf	-0.008251115
165	0xbd8c784b	-0.068588816
166	0xbd8059ce	-0.06267129
167	0xbca5e0bf	-0.020248769
168	0xbd695ec9	-0.05697516
169	0xbd7b9f62	-0.061431296
170	0x3cd115cc	0.025523089
171	0xbd1bf1d9	-0.03807244
172	0x3c331619	0.010930561
173	0xbcd52148	-0.026016846
174	0xbd5c9d5c	-0.053861007
175	0xbd8b4676	-0.06800549
176	0x3b53aa77	0.003229765
177	0xbd932410	-0.07184613
178	0xbc1b6a15	-0.009485741
179	0xbc02abd3	-0.007975536
180	0x3c7e8836	0.015535405
181	0x3ca1ce9f	0.019751845
182	0xbc1ac135	-0.009445478
183	0xbab80b65	-0.0014041482
184	0x3c2b0e05	0.010440354
185	0xbc4274b0	-0.011868641
186	0xbd04d42e	-0.032428913
187	0xbd40d2ea	-0.047076143
188	0x3ca4e65d	0.020129377
189	0xbc5d4da7	-0.013507283
190	0xbbe5291c	-0.006993426
191	0xbd517f99	-0.051147077
192	0x3c71f080	0.014766812
193	0xbc9a6c70	-0.018850535
194	0x3d451aee	0.048121385
195	0xbd0da3d0	-0.034580052
196	0x3d573ad5	0.05254634
197	0x3cf37993	0.029721057
198	0xbd8f16fa	-0.06986804
199	0xb9d7facb	-0.0004119485
200	0xbd64141a	-0.055683233
201	0x3aabfd2f	0.0013121719
202	0xbd462b23	-0.048380982
203	0xbbdc67b4	-0.0067262296
204	0xbc55765a	-0.0130287055
205	0xbce390d0	-0.027779013
206	0x3c8af9bc	0.016964786
207	0xbd096e1d	-0.033552278
208	0x3cdb78ee	0.026791062
209	0xbd66c348	-0.05633858
210	0xba851af4	-0.0010155127
211	0xbcfa847a	-0.030580748
212	0xbd7e7ba0	-0.062129617
213	0xbd661a28	-0.05617729
214	0x3c99d00b	0.01877596
215	0xbc155c23	-0.009116205
216	0x3c6252df	0.013813703
217	0x3d71f0e5	0.059067626
218	0x3ca91862	0.02064151
219	0x3ce85263	0.028359598
220	0xbd6c4e9b	-0.05769215
221	0xbd8a7465	-0.06760482
222	0x3d9178a4	0.071030885
223	0x3c9d6be1	0.01921648
224	0xbd2caec0	-0.042158842
225	0xbd2882e6	-0.04114046
226	0x3d90cd76	0.070704386
227	0x3d8934de	0.06699537
228	0x3cf817c4	0.03028477
229	0xbd1d3c3f	-0.038387533
230	0x3a829d4c	0.0009965091
231	0xbd34ac01	-0.04410935
232	0xbca866c0	-0.020556808
233	0xbd35ecf5	-0.044415433
234	0x3d00bfa9	0.03143278
235	0xbb887137	-0.004163887
236	0xbcd7d2bf	-0.026345609
237	0xbb4129d9	-0.0029474406
238	0x3d342c78	0.04398772
239	0x3d70e6ce	0.058813863
240	0xbd85a319	-0.06525249
241	0x3d1325f4	0.035924867
242	0x3d70fa2e	0.05883234
243	0xbd81efea	-0.06344588
244	0xbd5dfe59	-0.054197643
245	0xbc3bd8eb	-0.0114652915
246	0x3d4f5b74	0.050624326
247	0xbd278138	-0.040894717
248	0x3d6985b5	0.05701228
249	0x3d5bc00b	0.053649943
250	0x3d2991f7	0.04139897
251	0xbc0f8e92	-0.008762019
252	0xbd80a781	-0.06281949
253	0xbd53fa9c	-0.05175267
254	0xbd8db25d	-0.06918786
255	0x3cabfc9a	0.020994473

module.model.2.model.0.bias f4 [64]
0	0x3a875c57	0.0010327202
1	0x3a621ab5	0.00086251955
2	0x3a56e9ee	0.00081983104
3	0x3aa0f8b2	0.0012281148
4	0x3a8edbd8	0.0010899259
5	0x3a8364c7	0.0010024541
6	0x3a2ff2c2	0.0006711894
7	0x3a9121a0	0.0011072643
8	0x3a804290	0.0009785462
9	0x3a2cd0f9	0.00065924186
10	0x3a9966c5	0.0011703601
11	0x3a8ffe4c	0.001098582
12	0x3a970dad	0.0011524461
13	0x3a899313	0.0010496102
14	0x3a88e50a	0.0010444236
15	0x3a73fdae	0.00093075156
16	0x3a973031	0.0011534748
17	0x3a7bd627	0.00096068013
18	0x3a9136e8	0.0011078985
19	0x3a80aa73	0.0009816423
20	0x3a7719fa	0.0009426173
21	0x3a0bbf61	0.0005330947
22	0x3a466856	0.0007568648
23	0x3a905370	0.0011011194
24	0x3a8871e3	0.0010409917
25	0x3a9effe1	0.0012130701
26	0x3a64dd6b	0.00087305036
27	0x3aa36c85	0.0012468254
28	0x3a93c1ef	0.0011273007
29	0x3aab1d5e	0.0013055017
30	0x3a85e950	0.0010216627
31	0x3a980d49	0.0011600639
32	0x3a848fba	0.0010113635
33	0x3a71863b	0.00092134223
34	0x3a72f0d2	0.00092674524
35	0x3a856d8c	0.0010179742
36	0x3a89da0b	0.0010517252
37	0x3a2be76d	0.00065576175
38	0x3a5d8501	0.00084503
39	0x3a905c2b	0.0011013796
40	0x3a79cc65	0.00095290533
41	0x3a18833f	0.0005817897
42	0x3a8cfbea	0.0010756229
43	0x3aa61685	0.0012671506
44	0x3a95c656	0.0011426907
45	0x3ab3847a	0.0013696097
46	0x3a441bf0	0.00074809697
47	0x3a76a07b	0.0009408069
48	0x3a6cd742	0.00090347615
49	0x3aa5c06d	0.0012645848
50	0x3a847cc9	0.001010799
51	0x3a3286fd	0.0006810276
52	0x3a9c660d	0.0011932269
53	0x3a73c299	0.00092987117
54	0x3a73bcc1	0.0009297841
55	0x3a6a4f97	0.00089382514
56	0x3a799083	0.000952013
57	0x3a6c1ba1	0.00090068026
58	0x3a9b0b94	0.0011829012
59	0x3a837131	0.001002824
60	0x3a4d00bf	0.00078202406
61	0x3a8d48a7	0.0010779098
62	0x3a8e8122	0.0010872225
63	0x3a60d631	0.0008576839

module.model.2.model.1.weight f4 [64]
0	0x3f7fc07e	0.99903095
1	0x3f8006f0	1.0002117
2	0x3f804ead	1.002401
3	0x3f800911	1.0002767
4	0x3f7f8d7e	0.99825275
5	0x3f7fbc7a	0.9989697
6	0x3f804a2a	1.0022633
7	0x3f803226	1.0015304
8	0x3f7f93f2	0.9983512
9	0x3f803cb9	1.0018531
10	0x3f7f8737	0.99815696
11	0x3f7f6ea7	0.9977822
12	0x3f7fa62d	0.9986294
13	0x3f7fa6f9	0.99864155
14	0x3f8028c1	1.0012437
15	0x3f8033a0	1.0015755
16	0x3f7f92ba	0.9983326
17	0x3f803384	1.0015721
18	0x3f7fa4bb	0.99860734
19	0x3f802672	1.0011733
20	0x3f80078c	1.0002303
21	0x3f804e79	1.0023948
22	0x3f804103	1.001984
23	0x3f7fa454	0.9986012
24	0x3f800bbe	1.0003583
25	0x3f7f9ff5	0.9985345
26	0x3f7fbaa2	0.99894154
27	0x3f7f661f	0.997652
28	0x3f80347b	1.0016016
29	0x3f80458c	1.0021224
30	0x3f802f5d	1.0014454
31	0x3f7fcf89	0.9992605
32	0x3f7fd3a5	0.9993232
33	0x3f7f9da7	0.99849933
34	0x3f7ff38b	0.9998099
35	0x3f7fe1be	0.9995383
36	0x3f7f7c93	0.9979946
37	0x3f803f6e	1.0019357
38	0x3f802d12	1.0013754
39	0x3f7fcd93	0.99923056
40	0x3f7fb5d7	0.9988684
41	0x3f8044f2	1.002104
42	0x3f7fcbfb	0.99920624
43	0x3f7fbf83	0.999016
44	0x3f7f7011	0.99780375
45	0x3f7f68de	0.9976939
46	0x3f80193b	1.00077
47	0x3f80008b	1.0000166
48	0x3f7fef62	0.99974644
49	0x3f7f8277	0.9980845
50	0x3f80138b	1.0005964
51	0x3f804db8	1.0023718
52	0x3f7f7369	0.99785477
53	0x3f801788	1.0007181
54	0x3f7fa82f	0.99866
55	0x3f803e2f	1.0018977
56	0x3f7f9fed	0.998534
57	0x3f8024f3	1.0011276
58	0x3f7f8283	0.9980852
59	0x3f7f7b5b	0.997976
60	0x3f804113	1.0019859
61	0x3f7f7c17	0.9979872
62	0x3f7f6a00	0.9977112
63	0x3f8029ed	1.0012795

module.model.2.model.1.bias f4 [64]
0	0xba95e060	-0.0011434667
1	0x3a292ca6	0.00064534915
2	0x3b0e3eb8	0.0021704864
3	0xba896a9d	-0.0010484044
4	0xbace833a	-0.0015755661
5	0xbaeaf4b7	-0.0017925714
6	0x3b202479	0.0024435802
7	0x3b0e9005	0.0021753323
8	0x3965e85b	0.00021925701
9	0x3b09fc1e	0.0021054815
10	0xbaf241a4	-0.0018482697
11	0xbb1ab6e6	-0.002360755
12	0xbacc02ec	-0.0015564836
13	0xbaf7ff22	-0.001892064
14	0x39acef3c	0.0003298464
15	0xba5a9ef1	-0.0008339724
16	0xbaf340ff	-0.0018558799
17	0x3b19f92c	0.0023494465
18	0xbafbdf98	-0.0019216416
19	0x3a463fe2	0.000756262
20	0x3b13880e	0.0022511515
21	0x3b18e406	0.0023329272
22	0x3aa00047	0.0012207114
23	0xbb1b1fed	-0.0023670152
24	0x3b03ed0f	0.0020130312
25	0x398d46ca	0.00026946358
26	0xbb179cd1	-0.0023134241
27	0xbace2937	-0.0015728836
28	0x3aeb8ab0	0.0017970409
29	0x3ad6eeb6	0.0016398046
30	0x3a635f45	0.0008673559
31	0xbac7b88a	-0.0015237492
32	0xbacc63b3	-0.0015593678
33	0xb7af3a49	-2.0888767e-05
34	0x3ae8c915	0.0017760122
35	0xba815b29	-0.0009869087
36	0xbacdd661	-0.0015704149
37	0x3b15a103	0.0022831566
38	0x3ad164c4	0.0015975465
39	0xbaa1b13c	-0.0012336145
40	0x3a88b3cd	0.0010429561
41	0x3b033c2a	0.0020024874
42	0xb90a2307	-0.00013173754
43	0xbb0558aa	-0.0020347037
44	0xbb16555d	-0.0022939064
45	0xbb113aee	-0.002216037
46	0x3b055f8f	0.0020351147
47	0x3a084f9b	0.00051998504
48	0x3a5d4ea4	0.00084421993
49	0xbb027ef7	-0.0019912103
50	0xb92d05c8	-0.0001650072
51	0x3b194f0c	0.0023393063
52	0xbb05ee46	-0.0020436211
53	0xb882acde	-6.231082e-05
54	0xba92dfcb	-0.0011205612
55	0x3add314c	0.0016875654
56	0x3a8d0000	0.0010757446
57	0x3a96c8e1	0.0011503958
58	0xbb134c0d	-0.002247575
59	0xbb14a5c3	-0.002268181
60	0x3b066b17	0.0020510608
61	0xbafae225	-0.0019140883
62	0xbb0bca44	-0.0021330277
63	0x3adc3a05	0.0016801959

module.model.2.model.1.running_mean f4 [64]
0	0x3c5ed3ff	0.0136003485
1	0xbe02a401	-0.12757875
2	0x3c8709b5	0.01648412
3	0x3f768327	0.9629387
4	0x3e378e02	0.17925265
5	0x3e5ac75b	0.2136511
6	0xbeca01fa	-0.39454633
7	0x3eb2672b	0.34844336
8	0xbea877b6	-0.32903832
9	0xbd9a8224	-0.075443536
10	0xbec2cc36	-0.38046426
11	0x3e142b97	0.14469753
12	0xbd0a2e8a	-0.03373579
13	0xbe598a00	-0.21244049
14	0x3ed1f434	0.41006625
15	0x3ee0e1b6	0.43922204
16	0xbdbf034d	-0.093268014
17	0xbe2768bf	-0.16348551
18	0xbde9b12c	-0.11410746
19	0xbc917421	-0.01775557
20	0xbf15b255	-0.5847524
21	0xbe94f806	-0.29095477
22	0xbc8c031e	-0.01709133
23	0xbd8461cd	-0.064639665
24	0x3e35e916	0.17764696
25	0xbf020c8c	-0.50800395
26	0x3f06c1de	0.5263957
27	0xbed3e2a6	-0.41383857
28	0x3efa08fd	0.48834983
29	0x3eece89e	0.46271223
30	0x3d70beea	0.05877582
31	0xbd71e8ce	-0.05905991
32	0x3ed31b76	0.4123189
33	0x3c92e6d8	0.01793234
34	0x3ec80960	0.39069653
35	0xbe2b5d30	-0.16734767
36	0xbd9afafc	-0.07567403
37	0xbf5816c1	-0.8440972
38	0xbbde1450	-0.006777324
39	0x3d668c03	0.05628587
40	0xbe530023	-0.20605521
41	0x3da79833	0.081833266
42	0x3eb0f452	0.34561402
43	0x3eb56921	0.3543177
44	0xbeb01b53	-0.34395847
45	0xbe05b9a6	-0.130591
46	0xbea23384	-0.31679928
47	0x3e18b4a0	0.14912653
48	0xbc0d75c0	-0.008634031
49	0xbdf70a6f	-0.12062537
50	0x3ea4b394	0.32168257
51	0xbe25ae0e	-0.16179678
52	0xbe4fc48c	-0.2028982
53	0xbd31543d	-0.043293227
54	0xbe099a72	-0.13437822
55	0x3f0d7e0c	0.5527046
56	0x3ec50987	0.3848383
57	0xbd207b43	-0.03918005
58	0xbe91dd01	-0.28488925
59	0xbc24c36d	-0.010056359
60	0x3db4ec35	0.088341154
61	0xbe0ed974	-0.1395014
62	0x3eac4588	0.33646798
63	0x3d73cdc3	0.0595224

module.model.2.model.1.running_var f4 [64]
0	0x3e9e5d17	0.30930397
1	0x3f566d38	0.83760405
2	0x3e588fd0	0.2114861
3	0x3ed26cf6	0.41098756
4	0x3f09ef58	0.53880835
5	0x3f6817c6	0.90661275
6	0x3fec2c65	1.8451048
7	0x3e96e2e7	0.29469988
8	0x3f5b0c27	0.8556542
9	0x3e8725f5	0.26396146
10	0x3e9e9988	0.3097651
11	0x3ebc9341	0.36831096
12	0x3e9c31a1	0.30506614
13	0x3eb6f5a7	0.35734293
14	0x3ee08a52	0.4385553
15	0x3db5bf7f	0.088744156
16	0x3fb1e0b2	1.3896697
17	0x3ecec6da	0.40386087
18	0x3f4ed95d	0.8080042
19	0x3e6b49d3	0.2297738
20	0x3ef29924	0.47382462
21	0x3f3f74d1	0.7478762
22	0x3d2b82c8	0.04187277
23	0x3de5a61b	0.11213323
24	0x3fb281fa	1.3945916
25	0x3eb37943	0.35053453
26	0x3db9008b	0.09033307
27	0x3e21f41b	0.15815775
28	0x3e8b0328	0.27150846
29	0x3e8719d3	0.2638689
30	0x3e7bcad9	0.24589099
31	0x3d856137	0.06512683
32	0x3fabd24b	1.3423551
33	0x3e106cf3	0.14104061
34	0x3f12076d	0.5704258
35	0x3e753db5	0.2394932
36	0x3f69c905	0.91322356
37	0x3f7937a7	0.97350544
38	0x3e98ac63	0.2981902
39	0x3dbe9a76	0.09306805
40	0x3f0105e9	0.50399643
41	0x3f11df0d	0.56980973
42	0x3e07828a	0.1323339
43	0x3ef5cdc0	0.48008537
44	0x3e6fedaa	0.23430505
45	0x3ec24335	0.379419
46	0x3f33748d	0.7009972
47	0x3e44e4c1	0.19227888
48	0x3e4ec2a6	0.2019144
49	0x3e0fdb53	0.1404851
50	0x3da61ad4	0.08110586
51	0x3e175a5e	0.14780566
52	0x3edf5555	0.4361979
53	0x3f324f26	0.6965202
54	0x3d95edd8	0.07320756
55	0x3f803574	1.0016313
56	0x3f919b63	1.1375545
57	0x3de68969	0.11256678
58	0x3e1cd9a8	0.15317404
59	0x3e72609d	0.23669668
60	0x3f8498e3	1.0359157
61	0x3e4cea37	0.20011221
62	0x3f79f22a	0.9763514
63	0x3f063d73	0.52437514
