output_nn_denoise/ckpt/resnet_epoch40.pth (torch, 641699 bytes, 31 tensors)

module.model.0.weight f4 [64, 1, 1, 1]
00000000: 52ca 22be f8f2 25be a026 803e 34ee 13bd
00000010: 8d78 53be 5713 473e 9e91 dc3c 6074 793e
00000020: ed4d 14be 1b8e 17be 8431 903e 6c51 f33c
00000030: 6a3f 3dbe 30af 3dbe 8a17 323d fbf8 1c3e
00000040: 4782 96be 308f 0a3e e583 3fbe 9ab2 e7bd
00000050: 4e23 41be 4bfe 033e d87e 04bc e36c 813e
00000060: f4db fabd a4e0 97bd c1c6 6dbe 52a6 8e3e
00000070: 02ec d8bd 23ef 7ebe 76ed a2bd d915 85be
00000080: 3a26 a0bd 0a25 8b3d ce73 28be 961d 1f3e
00000090: fd4f 8ebd e6c6 f2bd 7a08 873e 61a1 0f3c
000000a0: 69d5 76be eeae 98be e98e 20be 20c7 193e
000000b0: d7a4 87be 1ff3 b73d 1d75 41be 5037 863e
000000c0: 38ff 4f3e f84c d4bd 234f 8e3e 6cc6 94bd
000000d0: 30ee 45be a892 c73c 4629 573e b874 bfbc
000000e0: 0934 98be 6599 d2ba ea9f 93be 4d79 68bc
000000f0: da6b 933d 7a10 813e 8d9b d73c 5f85 1a3e
-0.15897492 -0.16205966 0.2502947 -0.03611584 -0.20651455 0.19440971 0.026924904 0.243608
-0.14482851 -0.14800303 0.28162777 0.02970191 -0.18481222 -0.1852386 0.04347948 0.15329354
-0.2939627 0.13531184 -0.18702658 -0.113133624 -0.18861124 0.12889974 -0.0080868825 0.25278386
-0.12248984 -0.07415894 -0.2322035 0.27861267 -0.1059189 -0.24895911 -0.07955448 -0.2599323
-0.07819791 0.06794174 -0.16450426 0.1553863 -0.0694885 -0.11854343 0.26373655 0.008766503
-0.24104847 -0.2982096 -0.15679516 0.15017366 -0.2649295 0.089819185 -0.18892331 0.26214075
0.20312202 -0.10366243 0.27794752 -0.072644085 -0.19329143 0.024361923 0.21011838 -0.023371086
-0.297272 -0.0016067444 -0.28832942 -0.014189077 0.071983054 0.25207883 0.02631929 0.1508994

module.model.0.bias f4 [64]
00000000: 74d9 0b3b 02a0 52b9 ae33 453b 335d 443b
00000010: a718 c0ba 38d4 373b 6993 303b 166c afba
00000020: 9ac1 95ba 0714 9bb9 bf8a a439 8bac 9eba
00000030: 48e2 0b3b 0f6e f1ba 5d2b 81ba 7814 5f3b
00000040: 89a0 733b 0f13 ec3a d4ab 023b 4bbd 43ba
00000050: 66b5 5dba 3875 1a3b a7c7 5c3b 49bd e4ba
00000060: e4d8 2638 fb60 4c3a c336 c0ba 8776 6c3b
00000070: 372e b7ba e125 ceba 7c6d 2d3b df7a c8ba
00000080: e537 2c3b be97 2eba 075b 673b 9e0d edba
00000090: 407f 87ba 3a41 183b 1856 8eba cd29 42ba
000000a0: ea9d a3ba 2323 693b 0c6f e8b9 829e 733b
000000b0: 7f92 f03a 5fdd 5bba 09bc 6a3a 3649 673a
000000c0: 06c3 d038 2c85 dbba 4e2a 433b c60e 2d3b
000000d0: 9aff 123a ec90 81ba c141 1c3b 0325 9839
000000e0: 215c 243b ce23 abba cab7 383b f4c4 33ba
000000f0: 8fc6 803b 3c71 9aba 214a cbba 0570 4e3b
0.002133933 -0.00020086768 0.0030090618 0.0029962778 -0.0014655784 0.0028050076 0.0026943332 -0.0013383653
-0.0011425496 -0.00029578825 0.00031383891 -0.0012105865 0.002134459 -0.0018419641 -0.0009854842 0.00340393
0.0037174544 0.0018011051 0.0019938843 -0.00074668665 -0.00084575114 0.0023568403 0.0033688338 -0.0017451431
3.977948e-05 0.00077964336 -0.0014664758 0.003608139 -0.0013975565 -0.0015727842 0.0026462963 -0.0015295408
0.0026278433 -0.00066601846 0.003530206 -0.0018085723 -0.0010337606 0.0023232237 -0.0010859398 -0.00074067415
-0.0012482975 0.0035573922 -0.00044333225 0.0037173335 0.0018354206 -0.0008387174 0.0008954411 0.000882286
9.954539e-05 -0.0016748062 0.0029779854 0.002640651 0.00056075456 -0.0009885109 0.0023842903 0.00029019275
0.0025079327 -0.0013056935 0.0028185719 -0.00068576564 0.00392992 -0.0011783014 -0.0015509763 0.0031499874

module.model.1.model.0.weight f4 [64, 64, 3, 3]
00000000: 38a1 973d e1f1 62bc acc5 183d 6eab f8bb
00000010: 4624 48bd 5e33 63bd 64ed 443c 47e6 8abd
00000020: 9778 793d 673f 86bd b9fe edbc 3d38 5dbd
00000030: 939c 313d 7876 72bd 6b9f f3bc 3555 5cbc
00000040: 465e cd3c 34e4 86bd 2fe9 35bd 7d2c 8dbd
00000050: 2f3f 0dbd 7ff4 803d 2105 1c3d 0e83 b23c
00000060: 74e5 1b3d 53aa 1f3d 4c4f 84bc d98b 373d
00000070: 89b7 42bd 5c25 29bb 86c0 3a3d 8c1d 6b3d
00000080: 3fc9 36bb adea 8f3d 8df2 c03c 21d8 743d
00000090: b3ef 6d3d 5fa0 313d f9b7 913b 1ad7 6bbd
000000a0: 9e05 35bd d200 07bd fb65 16bd c49f 253d
000000b0: 8807 703d a936 10bd 6664 af3c 82bf eb3c
000000c0: 4f13 06bd ed3f dc3a 5e2a 003c 2ca4 c3bc
000000d0: a390 72bd 4039 5a3d 1f2f 0e3d 9c55 ef3c
000000e0: 9fc2 4ebd 0c69 a33c afc7 093d 399a 37bc
000000f0: 6dd2 2cbb 45dc 0e3d 5f36 07b9 b1ac 773a
00000100: 5e4e f5bc 1d73 c2bb 501c 353d 1730 0f3d
00000110: 4fc0 3e3c d3b0 0ebb ee0a 83bd 6185 b0bc
00000120: a3f6 5b3d 919c 6c3d e7c9 fabc 2c82 2cbd
00000130: c194 53bd 48ea 3ebc f495 123d 901b a63c
00000140: 72b6 633d 0881 463b be87 6e3d cfb7 74bb
00000150: a234 a1bc b415 3f3d ba95 fc3c 576d ff3c
00000160: 2687 483d 3264 313c 2886 993c 582d 983c
00000170: 27d6 fdbc 203b 193d 13aa d2bc d6f2 903c
00000180: 1563 96bd f9c9 063c 6c74 c336 62ea 233d
00000190: 713a de3c bd70 90bd f774 26bd f145 653d
000001a0: d96d 15bd 5a8f e3bb 20e2 82bd c129 aebc
000001b0: d054 9a3b c170 0a3c 3a3f 83bd 177d 08bd
000001c0: c4e8 66bd 9f05 423d 3b66 87bd a370 22ba
000001d0: aa38 3fbc 47b4 50bd c3ee 84bd aa3f 923d
000001e0: e0d3 a03c c1f6 743d e2cc 59bd c68c debc
000001f0: a71d 37bd 65d4 b53b 936b 32bd 3e84 76bc
00000200: 84d7 5dbc 7a02 0ebd 8a2a 003c 1752 ceba
00000210: 2a9b 393d 32fd a23c de44 493d b839 2dbb
00000220: 4f46 753c c615 66bd ed26 bb3c 239b 4b3d
00000230: 3213 b53c 2332 933b 42e4 c1bc 4c70 6fbd
00000240: aa6e 04bd 5261 123a e12f 853d 2ee8 d63c
00000250: 9b48 933d 4237 25bb 781e cd3b a0c1 5d3d
00000260: e5f2 1d3c c0dc 9b3c 35c2 6ebd c6aa 77bd
00000270: 2b95 e13c b67a 32bd b6b9 413d 35c2 00bd
00000280: eedd 253d e669 d33c 865a 6fbd d215 8e3d
00000290: c2c9 703d 92a4 84bd d768 20bd d369 36bd
000002a0: bca6 d83c 80fe 413d 7853 aabc 45b2 4d3d
000002b0: c047 81bd ee74 79bd 3a35 debc 8251 12bd
000002c0: 027a 913a 1d41 2f3c f023 40bb de94 9c3a
000002d0: 5d00 ccbc 7fa9 83bd 87eb 943d dbcb 67bd
000002e0: 6fa7 69bb d0f7 febb 6bbe 85bc f52f 323d
000002f0: 3128 e6bc 4289 a3bc 063a 81bd 30b5 febc
00000300: 89de 473d 8b62 823c f9ae e9bc 61d1 0abd
00000310: 1685 4abd ec7e 8bbd a2f2 a2bc 5d11 84bc
00000320: ad96 25bc b2d1 943d dc3f c3bc 9fcb 8c3d
00000330: e77f e43c 2418 35bd c4dc aa3c 6b12 88bc
00000340: ddab 903b b408 423d b461 3d3d b0c6 563b
00000350: 24ae ef3b 859e c2bc bcfa 393d d30f 15bd
00000360: 8707 46bd a3f2 43bd 24a8 573c f5a5 d43c
00000370: f8ca 78bd bbf7 d9bc 74c8 f93c a58d 7a3d
00000380: bdfa 15bd 7ce2 0fbd fd6f 22bd 5af0 263d
00000390: 1c9b 513d 456e 6abd 7f4e 3e3c 0f1f 86bb
000003a0: 08a5 fcbc 4215 883a 010d fdbb b895 a73c
000003b0: 3aa5 2e3d f646 663c af98 053c 5c55 463d
000003c0: 8d14 3b3d c8f7 2a3d 6553 7abd 8920 9f3c
000003d0: ee9c 7bbd e84b cc3c 0572 d73b 6b5e cb3b
000003e0: 46f3 493d 81a4 6fbd 5f8a 4a3d 3dee ae3c
000003f0: 2f25 cc3c a44e 5b3d dee7 75bd fcfa 423d
0.07403797 -0.013851614 0.03729789 -0.0075887954 -0.048862718 -0.05546891 0.012019489 -0.06782203
0.06090602 -0.06555062 -0.029052125 -0.05400871 0.04336221 -0.05919501 -0.029739102 -0.013448049
0.025069367 -0.06586495 -0.044411834 -0.06893251 -0.034484085 0.06296634 0.03809083 0.021791007
0.03806062 0.038980793 -0.016151093 0.044811103 -0.047538314 -0.0025809621 0.04559376 0.057401225
-0.0027890948 0.07027183 0.023553157 0.05977643 0.058089923 0.043365832 0.00444698 -0.057578184
-0.04419481 -0.032959767 -0.03671835 0.040435567 0.058600932 -0.035208378 0.021410178 0.028777841
-0.032733258 0.0016803719 0.007822601 -0.023881994 -0.059219968 0.053277254 0.034712907 0.029215626
-0.050478574 0.019947551 0.0336377 -0.011206203 -0.002637054 0.034878034 -0.00012894858 0.0009448035
-0.029944595 -0.0059341327 0.044216454 0.03495797 0.01164253 -0.0021772876 -0.06398569 -0.021547975
0.053702008 0.0577665 -0.030613853 -0.04211633 -0.051655535 -0.011652537 0.035787538 0.020276815
0.055593915 0.003028931 0.058234923 -0.0037341004 -0.019678418 0.046651557 0.030833114 0.031180067
0.048957013 0.010827111 0.018740728 0.01857631 -0.030985905 0.0374099 -0.025715863 0.017693918
-0.07343117 0.008226865 5.825006e-06 0.040018447 0.027127476 -0.07052753 -0.04063889 0.055974904
-0.036481712 -0.006944579 -0.06390786 -0.021260144 0.0047098175 0.008449734 -0.06408544 -0.03332242
-0.056374326 0.047368642 -0.06611296 -0.0006196594 -0.011671225 -0.050953176 -0.06490853 0.07141049
0.01963228 0.059805635 -0.053173907 -0.027166735 -0.044706013 0.005549001 -0.043559622 -0.015046177
-0.013540152 -0.03467033 0.007822642 -0.0015741017 0.04531399 0.019896124 0.049137942 -0.0026432108
0.014970376 -0.05617311 0.02284571 0.049708497 0.02210388 0.0044920607 -0.023668412 -0.058456704
-0.0323321 0.000558396 0.06503273 0.026233759 0.07191583 -0.0025209938 0.0062597357 0.054139733
0.00964043 0.01902616 -0.05829068 -0.060465597 0.02753695 -0.043574058 0.04729625 -0.03143521
0.04049485 0.025807332 -0.05843594 0.06937756 0.05878616 -0.06476702 -0.039162483 -0.044534516
0.026446693 0.04736185 -0.020791754 0.05021884 -0.06312513 -0.06090253 -0.02712499 -0.035722263
0.0011098983 0.010696677 -0.0029318295 0.0011946221 -0.024902517 -0.06428813 0.07271486 -0.056590896
-0.0035652777 -0.0077810064 -0.01632615 0.043502767 -0.028095337 -0.01996291 -0.06309895 -0.031092256
0.04879621 0.01591613 -0.028525816 -0.033891086 -0.049443327 -0.06811318 -0.019891087 -0.01612156
-0.010106725 0.07266559 -0.023834161 0.06874775 0.02789302 -0.044212475 0.020857222 -0.016610345
0.004415019 0.04737158 0.046235755 0.0032772236 0.0073144604 -0.023757229 0.045405135 -0.036392044
-0.048347022 -0.04783882 0.013162646 0.02595804 -0.06074044 -0.026607385 0.030491091 0.06117024
-0.036616076 -0.0351281 -0.03965758 0.04075656 0.051173314 -0.057234067 0.011615395 -0.004093058
-0.030840412 0.0010382312 -0.0077224975 0.020457134 0.04263804 0.014055004 0.008154078 0.04842125
0.045673896 0.04174021 -0.061114687 0.019424694 -0.061428957 0.024938539 0.0065748715 0.006206324
0.04930427 -0.058506493 0.049448367 0.021353835 0.024920074 0.053541794 -0.06003558 0.04760264

module.model.1.model.0.bias f4 [64]
00000000: ce33 d93a c7ff aa3a 2707 423a 5a1f 493a
00000010: e824 693a 7722 ae3a fc50 4f3a 6cd3 3c3a
00000020: c241 e53a f9a1 a23a d587 7f3a 6000 a93a
00000030: 7276 733a 9078 c63a 1713 4d3a f9f1 8f3a
00000040: 277f 5a3a 41cd 173a 96e6 253a 3848 763a
00000050: 33a3 2c3a 589c 2c3a 7dc9 0f3a 0812 a53a
00000060: 24b2 bd3a 2d6c 743a f6f0 a43a cd12 983a
00000070: 8c65 a23a 73f0 443a 477c df3a d1c7 693a
00000080: cac4 b13a a4ba 3a3a d06c a339 d84d 823a
00000090: 27ee 5e3a a18f 7e3a 695b 9f3a eb35 673a
000000a0: 143f 6e3a d475 ef39 8ade 933a dafc a13a
000000b0: df69 953a 6261 8e3a 9c74 c03a fa1d 713a
000000c0: ca2f 4d3a 90a9 a23a 6e1d 883a 08d7 843a
000000d0: a195 793a 95b7 6d3a 3c7b 2e3a 2811 fd39
000000e0: 9d0b cd3a c71b a23a 778a e039 a7e4 843a
000000f0: 9bf1 923a 9d4c a13a e722 913a ed6e 9f3a
0.0016571225 0.0013046198 0.00074015785 0.0007672213 0.0008893744 0.0013285418 0.0007908491 0.0007203135
0.0017490911 0.0012407891 0.00097477186 0.0012893789 0.0009287364 0.0015142132 0.0007822974 0.0010982148
0.0008334987 0.0005790778 0.00063286105 0.00093949167 0.0006585598 0.00065845763 0.0005485041 0.0012593875
0.0014472646 0.0009323981 0.0012584019 0.0011602283 0.0012389882 0.00075126364 0.0017050587 0.00089180196
0.0013562676 0.00071231485 0.00031170854 0.0009941412 0.00085041154 0.00097107334 0.001215798 0.0008819985
0.0009088379 0.0004567342 0.0011281532 0.0012358681 0.001139935 0.0010862763 0.001468319 0.0009197887
0.00078272505 0.0012410153 0.0010384747 0.0010134885 0.00095208926 0.00090681884 0.00066559366 0.00048268703
0.001564372 0.0012367897 0.00042827774 0.0010138944 0.001121092 0.0012306158 0.0011073024 0.0012163796

module.model.1.model.1.weight f4 [64]
00000000: c45b 7f3f 0a21 803f 7b2c 803f 7e42 803f
00000010: 4559 803f f9cb 7f3f a348 803f 9155 803f
00000020: a302 803f 51b1 7f3f fa4a 803f 915f 7f3f
00000030: f44f 803f 609f 7f3f 2696 7f3f 4039 803f
00000040: 85cf 7f3f 7129 803f 9133 803f dc31 803f
00000050: f9d9 7f3f e885 7f3f 4f7c 7f3f 231f 803f
00000060: f031 803f a9a6 7f3f 278b 7f3f c472 7f3f
00000070: 8949 803f 1f47 803f ed74 7f3f df52 7f3f
00000080: bf3f 803f dcd8 7f3f c7e5 7f3f ae9b 7f3f
00000090: 8a09 803f 3d97 7f3f b6ae 7f3f 8774 7f3f
000000a0: 458d 7f3f cca5 7f3f d171 7f3f ce06 803f
000000b0: 604d 803f 2ffb 7f3f 0554 7f3f ec4c 803f
000000c0: 9f73 7f3f 315e 7f3f ad72 7f3f 7e33 803f
000000d0: 3f44 803f b06b 7f3f 0949 803f e90f 803f
000000e0: bf59 7f3f f931 803f c735 803f 274f 803f
000000f0: f73f 803f 008e 7f3f 8b17 803f c052 7f3f
0.997494 1.0010083 1.0013574 1.0020292 1.0027243 0.9992061 1.0022167 1.0026113
1.0000805 0.9987994 1.0022881 0.997552 1.00244 0.9985256 0.99838483 1.0017471
0.99926025 1.0012647 1.0015737 1.0015216 0.99941975 0.998137 0.99799055 1.0009502
1.001524 0.9986368 0.99821705 0.99784493 1.0022441 1.0021704 0.9978779 0.99735826
1.0019454 0.99940276 0.9995999 0.99846923 1.0002911 0.99840146 0.9987596 0.9978718
0.99824935 0.9986236 0.99783045 1.0002077 1.0023613 0.9999265 0.9973758 1.0023475
0.997858 0.997531 0.99784356 1.0015714 1.0020827 0.99773693 1.0022289 1.0004855
0.99746317 1.001525 1.0016412 1.0024155 1.001952 0.9982605 1.0007185 0.9973564

module.model.1.model.1.bias f4 [64]
00000000: 53ba 13bb 4677 073b 3299 4c38 34d4 ab3a
00000010: 1a0e 3a3b f70f 32bb 8cbb 113b b303 f0b7
00000020: a876 16ba 6528 afba eb84 b63a fb2b 25bb
00000030: e4ae 213b a4c7 17bb 3905 33bb 817f 163b
00000040: 1f2f c5ba b476 3c3b 3be8 493b 8e56 063b
00000050: 3696 423a faa1 43ba d5dc 2b39 09ee 9f3a
00000060: c116 79b9 a32e dd3a 9213 30bb 669e 1abb
00000070: 1b7d 1e3b 59b8 293b b43c 08bb 69b2 b73a
00000080: 4540 fe3a 9b8a 7b3a 4e95 083b 5a3f 17bb
00000090: 93ac 213b 37fb 7e3a 2128 f7ba ec20 09bb
000000a0: a69e 9fba 3652 0d3b c59f 96b9 db9a 19bb
000000b0: 010a 8a39 c60f b7ba 53fc 17bb 9d5c 8f3a
000000c0: 6e44 7ab9 9969 21bb a03c fd3a 46ce 0abb
000000d0: dd6f 263b 6b04 42bb 78f1 273b fed8 cf3a
000000e0: 2e57 30bb bd73 1ebb 26b7 323b 2e3b 153a
000000f0: 1ead 7eba b555 24bb 7817 f13a 4f88 3bbb
-0.0022541478 0.0020670458 4.8780064e-05 0.0013109506 0.0028389753 -0.002717016 0.002223703 -2.8611952e-05
-0.0005739727 -0.0013363479 0.0013925111 -0.0025203216 0.0024670893 -0.0023159767 -0.0027316345 0.0022964182
-0.001504395 0.0028757276 0.0030808586 0.0020498368 0.0007422896 -0.0007462796 0.00016390097 0.0012201677
-0.00023754967 0.0016874861 -0.0026867134 -0.0023592948 0.0024183455 0.0025897233 -0.0020788135 0.0014014962
0.0019397816 0.0009595544 0.0020840946 -0.0023078532 0.0024669513 0.0009726765 -0.0018856564 -0.0020924164
-0.0012178018 0.0021563894 -0.00028729267 -0.0023438248 0.00026328865 -0.0013966493 -0.0023191168 0.0010937635
-0.0002386735 -0.0024629591 0.0019320436 -0.0021180077 0.0025396266 -0.0029604684 0.0025626104 0.0015857515
-0.0026907432 -0.0024177872 0.002726981 0.00056927174 -0.00097151275 -0.00250755 0.0018393835 -0.0028615182

module.model.1.model.1.running_mean f4 [64]
00000000: 457a 753a ed15 483b 68aa ff3a 229d d73a
00000010: ff4b 003b 28bb 4a3a de39 15ba 1fcc 7e3b
00000020: 1150 6a3b 6084 d73b 04ce ca3a 94e0 8b3a
00000030: f2bc 293b d01f f339 d1b9 06bb 8a05 9d3a
00000040: 9f61 633b 7fb8 2d3a 4854 73bb 071f 6a3b
00000050: 668c 9539 e65b f8b9 0c40 063a 42c2 f83a
00000060: 4ac6 933b 4f84 9bb9 6257 293a 8357 a73a
00000070: 8fab 8ab9 3cdf 66ba 9b7c 573b 409d df3a
00000080: 43e5 29bb 14a6 3eb9 d272 083b 18df 93b9
00000090: 251f da3a ecf2 e93b b46b c23a 03a3 0a3b
000000a0: 8536 7d3b 1c27 643b 8c2b 773b fde8 743b
000000b0: 1fad 8d3b dd4c da3a 32ac 713a 9e71 30bb
000000c0: 33fd 843a 5aa6 fbba d3b4 5f3b b84e 0b3b
000000d0: 65c7 833a 0211 b7b9 c810 843b 29ce a83b
000000e0: 5fcd a83a c34f 1a3b 85d3 7b3a 0b18 433b
000000f0: 11c6 903a 375d 513b 9c2d 3d39 d93e 363b
0.0009364228 0.0030530647 0.0019505741 0.0016450027 0.0019576547 0.0007733577 -0.0005692522 0.003887899
0.003575329 0.0065770596 0.0015472774 0.0010671788 0.0025899974 0.00046372274 -0.0020557533 0.00119798
0.0034695638 0.00066269183 -0.0037129093 0.003572406 0.000285241 -0.00047370716 0.0005121238 0.0018978792
0.004509722 -0.0002966248 0.00064598594 0.0012767169 -0.00026449232 -0.0008807068 0.0032880667 0.0017060414
-0.0025924004 -0.00018181681 0.0020820391 -0.00028204243 0.0016641362 0.0071395542 0.0014833123 0.0021154291
0.0038637233 0.003481335 0.0037715165 0.0037370317 0.004323616 0.0016654987 0.00092190795 -0.002692319
0.001014626 -0.0019199357 0.003413488 0.0021256637 0.0010053931 -0.00034917152 0.004030321 0.0051515293
0.0012878588 0.0023546077 0.0009606409 0.002976897 0.0011045357 0.003194643 0.00018041435 0.0027808456

module.model.1.model.1.running_var f4 [64]
00000000: d11a da37 ef79 a838 675f 7839 94b9 0439
00000010: d4f5 5a39 16ab 7f37 551d f138 31e7 c138
00000020: d385 fb37 0e5d 1c38 0a0c 5439 3414 2f38
00000030: 0b40 c239 c1d2 b539 63db ea35 7bbd 1438
00000040: 382c 0638 7d78 3639 6226 6039 cb3f a037
00000050: e79c e538 aaa0 0438 fe50 6c38 4054 ce38
00000060: 206a 8938 0ddd 9538 b51e ce36 b5ce 1c37
00000070: c68c c338 a52d 2a39 e4d8 8f35 f6d4 7c38
00000080: fea5 b735 349f 0038 ae68 c038 43e8 4538
00000090: 0eb1 2c39 c7db b839 3905 0d39 85b6 4035
000000a0: fac5 9d36 3472 9f38 a6e4 0037 ed19 3c36
000000b0: 011b 5039 1996 d335 67f5 8f35 33a7 b636
000000c0: 5f54 7e38 5240 cf37 4bd9 f036 43ca 6839
000000d0: 8c55 af39 6542 3a37 21b5 5a39 6afb ec37
000000e0: dd97 3539 7856 f037 1f8d b539 2c2d fa38
000000f0: 6710 7238 7f6f 0138 c467 1939 e1e9 2538
2.6000112e-05 8.033576e-05 0.00023686663 0.00012657634 0.00020881678 1.52390185e-05 0.00011497239 9.24602e-05
2.9983848e-05 3.7279962e-05 0.0002022238 4.1742067e-05 0.0003705028 0.00034680034 1.7498209e-06 3.5462417e-05
3.198927e-05 0.00017401758 0.00021376603 1.9103192e-05 0.00010948796 3.1620883e-05 5.6342215e-05 9.838538e-05
6.5524364e-05 7.1460476e-05 6.142853e-06 9.346452e-06 9.324546e-05 0.00016229467 1.0717454e-06 6.0279817e-05
1.3682873e-06 3.0665848e-05 9.1747715e-05 4.718477e-05 0.00016469156 0.00035258962 0.00013448753 7.1791175e-07
4.702012e-06 7.602983e-05 7.682631e-06 2.8029274e-06 0.00019846486 1.5764409e-06 1.0725752e-06 5.443487e-06
6.0636896e-05 2.4706274e-05 7.1778536e-06 0.00022200593 0.00033442338 1.1101923e-05 0.00020857576 2.8250466e-05
0.00017318079 2.8650495e-05 0.00034628154 0.00011929343 5.7712572e-05 3.0859836e-05 0.00014629873 3.9556882e-05

module.model.1.model.3.weight f4 [64, 64, 3, 3]
00000000: 6b40 37bc 223e 92ba 25d8 30bd eeaa 003d
00000010: 5f0a 71bd e740 3abd f9cc 323d 0800 813d
00000020: ae4b 76bc a94f 593d 294a 623d 2011 e73c
00000030: 37bd c7bc 3572 67bc a3c2 143d 2cfc fb3c
00000040: ec2b 2cbd 467d c3bc e836 453c 33e4 7c3d
00000050: 2fe4 243d 9fec ccbc 0add 57bc 36a3 94bc
00000060: 9ea4 933d 9987 043d 87e1 74bd f6da 0cbc
00000070: 1401 0dbd a1b1 7f3d 44f2 86bd e7b0 cc3c
00000080: d726 003d 6974 86bd 6f3f c3bc d500 2c3d
00000090: 0998 9fbc 0696 a8bb a2a0 933d 3268 893d
000000a0: 5877 50bd 7fef b8bc 1480 703d 9255 04bd
000000b0: a03a a93c db07 ceba 2fce 333c 39d7 733d
000000c0: 44e1 cf3c 7fbd 1cbd 0d5d f1bc 165b 823b
000000d0: d652 31bc 2926 4d3c 340a 10bd 31c6 653d
000000e0: fa95 7abd 863b 9f3c 6c3c 883d 694b 493d
000000f0: 5059 35bd 153e 883c 2c7d 5f3d 772a c83c
00000100: e1b9 773c ad05 da3c 7a2f 15bd 0e9e 75bd
00000110: 2d2c 713c 7700 e13c 2b13 0cbd ec7c abbc
00000120: 1dd5 54bd fec4 0abd bfbf 7e3d 5b66 6abb
00000130: 0f8a 8bbd 8ac1 e03b 6397 9f3c 41a0 5ebd
00000140: f4b3 83bd c5bd 843c 0b81 ed37 f55a 443c
00000150: 33ce f3bc 6aff 3f3c fbf3 623d 0a62 b33c
00000160: ea74 77bd 0b53 06bd 00e1 8fbc 33e0 073d
00000170: 9ec3 0c3d 9d77 4fbd 23f6 293c 75c1 973d
00000180: 38e8 1f3d f60a 1bbd 793a 8bbd 81e9 f13c
00000190: 2b8e 70bd 5fa8 8bbd 7a82 af3b 3f94 2e3d
000001a0: 190c 333d f5cd ff3c dfd5 05bd 90e0 be3b
000001b0: bf6d 83bd f1ba 2f3d 18b5 14ba 8491 a63c
000001c0: 2645 1b3d 5ecd 4f3d 3cf5 543d 425c c03c
000001d0: 66a4 453c a0b5 7e3d 5f1b a93c 9b0a 533d
000001e0: ac9c 86bd d3e2 c9bc 860d e33b 0553 623d
000001f0: 269f 46bc dcbc bc3c 4308 97bb 5700 8f3d
00000200: 1ab7 cfbc b8da db3c 1f82 7ebb b2da 83bb
00000210: 85a5 0d3d 4962 86bd dd4d 193c 4583 02bd
00000220: a361 473d 4c08 c63c c57a 5a3d b17d 5d3d
00000230: d590 583d 6fbd d9bc 3216 b23c 7e51 5e3d
00000240: f74c 8abd ccf7 0d3d ec73 1bbd bad0 2f3d
00000250: 4cfd 5c3d ec32 8fbd 28ba 24bc 2329 803d
00000260: 6b20 373d 9d33 7dbd 4199 083a e3b2 35bc
00000270: 05dc 37bd 6df5 14bd 36e7 4abd 9374 e2bc
00000280: ae5a 09bd f52e d93c 2e16 443d 9cc6 2c3d
00000290: cb30 86bd 4fc4 db3b 6935 963d 8895 083d
000002a0: c65a cabb 0ae1 953d 7ecb 123d 1020 4a3d
000002b0: a481 683c ab39 87bd f87d 35bc 7d91 c83c
000002c0: e468 153c c1fc 52bd 8c05 a23b b09f 703c
000002d0: 8936 89bd 5c59 883d 3f8d 763d bb32 6c3b
000002e0: 1007 47bd 3212 2c3d 18ee 64bd 25fc fe3c
000002f0: e6a5 623c 3c4a 81bd 2f1f bc3c 5e19 8fbd
00000300: 966c 7f3d bc41 c93c d1cb 85bc 455c 75bd
00000310: 9665 62bc bb00 e8bc a90c 863c e6b6 a43c
00000320: ff68 683d 851a 52bd 6d07 7d3d 79a3 2bbd
00000330: 7f05 a03a 4d20 b0bc 94bd f43c adbd 37bb
00000340: 8a77 2dbd 8d97 c73c aae1 373b efc2 d2bb
00000350: b30e 7ebd ad50 8b3d b0bb 34bd db59 8b3b
00000360: 81fa 693d 370d 95bb 9c9f 253d c10e dfbc
00000370: ec00 343d 8bb6 f0bc bbfd 91bc 9dbe 6bbd
00000380: 0ddf 21bc 6fe2 403d 716d f93c 5618 29bd
00000390: 4daf ecbc af80 323c 1f92 77bd 88f2 59bd
000003a0: 4dda 42bd 1c08 99bb ed1f 6ebc 4a0b 693d
000003b0: caa0 3e3d ea3c 683d 463a c1bb 1a89 6e3d
000003c0: 48aa b7bc 1de1 513d bac1 5c3d f336 c33c
000003d0: 4dc1 86bd 1868 aabc bdde d43c f23d 033d
000003e0: 3bc0 863d 1a22 bfbc 73e7 0b3b 0423 84bd
000003f0: 5d03 3d3b 6ed1 1a3d 023d 92bd 329e 14bd
-0.011184792 -0.0011157433 -0.04317488 0.03141301 -0.05884778 -0.045472052 0.04365251 0.06298834
-0.015032692 0.053054485 0.055246506 0.028206408 -0.024382217 -0.01412635 0.036318433 0.030759893
-0.042034075 -0.023863446 0.012037016 0.061741065 0.040256675 -0.025015173 -0.013175258 -0.018144231
0.072091326 0.03235588 -0.059785392 -0.008597126 -0.034424856 0.06242526 -0.06589177 0.024986697
0.03128704 -0.06565172 -0.023833958 0.04199298 -0.019481676 -0.0051448373 0.07208373 0.06709327
-0.050895065 -0.022575138 0.058715895 -0.03230817 0.020657837 -0.0015718894 0.010974451 0.059531424
0.02537597 -0.038266655 -0.029463315 0.0039781434 -0.010822972 0.012521305 -0.03516598 0.056097213
-0.061178185 0.019437563 0.066521496 0.049144182 -0.04427463 0.016631166 0.054562733 0.024434311
0.015120001 0.026614035 -0.03642223 -0.059965186 0.014720005 0.027466042 -0.034197967 -0.02093359
-0.051961053 -0.033879273 0.062194582 -0.0035766575 -0.06813442 0.006859009 0.019481367 -0.05435205
-0.06430808 0.01620377 2.8312692e-05 0.0119845765 -0.02976141 0.01171861 0.05540846 0.021897335
-0.060414232 -0.03279404 -0.017563343 0.033172797 0.034366243 -0.05065118 0.010373625 0.07409946
0.03903982 -0.03785225 -0.06798262 0.029530289 -0.058729332 -0.068192236 0.00535613 0.042621847
0.04371271 0.031226138 -0.032674666 0.00582511 -0.06417417 0.04290289 -0.0005672737 0.02033306
0.037907742 0.050732963 0.051991686 0.023481492 0.012063121 0.06218493 0.020642934 0.051523786
-0.065728515 -0.024644291 0.0069291024 0.055254955 -0.012122905 0.023039274 -0.004609139 0.06982487
-0.025355864 0.026837692 -0.0038834882 -0.0040238732 0.03458168 -0.06561715 0.009356943 -0.03186347
0.048677098 0.024173878 0.05333974 0.054074947 0.052872498 -0.026579587 0.0217391 0.054276936
-0.06752961 0.034660146 -0.03795235 0.042923667 0.0539525 -0.069921345 -0.010054149 0.06257846
0.04470865 -0.0618168 0.0005210825 -0.011090013 -0.04488756 -0.03636687 -0.049536906 -0.027643478
-0.033533745 0.026511649 0.047872715 0.042181596 -0.06552275 0.0067067514 0.07334406 0.03334573
-0.006175372 0.073183134 0.035838597 0.049346983 0.014191065 -0.06602796 -0.011077397 0.024483437
0.009119246 -0.051510576 0.004944509 0.01468651 -0.06699855 0.06657669 0.060193297 0.003604098
-0.04859072 0.04200954 -0.055891126 0.031126091 0.013833499 -0.06312987 0.022964088 -0.0698726
0.062359415 0.024567477 -0.016332539 -0.05990245 -0.013818165 -0.02832066 0.016363459 0.020106744
0.056740757 -0.051294822 0.06177466 -0.041903947 0.0012208669 -0.021499777 0.029875554 -0.002803664
-0.04235033 0.024364257 0.002805809 -0.0064319293 -0.062025737 0.06802497 -0.044124305 0.004252655
0.057123665 -0.0045486945 0.04043542 -0.027228715 0.04394619 -0.029383918 -0.017821183 -0.05755483
-0.00987984 0.047090944 0.030447694 -0.041282974 -0.028892184 0.010894938 -0.060442086 -0.05320981
-0.04757147 -0.004670156 -0.014533979 0.05689553 0.04654006 0.056698717 -0.0058968393 0.05823622
-0.022420064 0.051240075 0.05389569 0.023829913 -0.06579838 -0.020801589 0.025985116 0.032041498
0.06579634 -0.02333169 0.0021347671 -0.06451991 0.0028841116 0.037797384 -0.071405426 -0.03628368

module.model.1.model.3.bias f4 [64]
00000000: 7d49 f539 9bee e83a 8667 eb39 52b7 463a
00000010: b268 e83a 7eb4 513a 511c a8b8 53ef b33a
00000020: a199 d03a 44cf 743a 02c9 863a 0712 d73a
00000030: c4af 223a 4fdb 1e3b c926 e43a da9b b239
00000040: c56f aa39 1e89 d13a 8155 b13a 8ab3 bd3a
00000050: d7ee 9d3a d117 9539 a9f9 7039 ff95 003b
00000060: c18f 633a 9286 933a d468 b23a a706 deb7
00000070: 0d77 383a e53a 0a3b 1d99 2f3a 2cff b73a
00000080: b680 a13a 26c6 c83a aa52 e639 14c0 073b
00000090: 55d1 e83a 17b1 ed39 9c57 d13a b541 a23a
000000a0: f62f 033b 77d1 5039 ad94 553a 193b 093a
000000b0: 0dc1 713a 5572 8a3a 9fdd 9e3a 424a 303a
000000c0: 94c9 a43a 03fd fe3a b18b 5f3a 217b ac3a
000000d0: e00e ce3a d8e8 9f3a 1a0f 2f3a 2ddc 4d3a
000000e0: 2666 e239 a8eb ac3a dc33 603a 8c46 893a
000000f0: 4d7e 273a feb3 053b b99a fd3a b227 123a
0.00046784795 0.0017771305 0.00044899824 0.00075804174 0.0017731397 0.0007999613 -8.0161386e-05 0.001372794
0.0015914926 0.00093387463 0.0010283294 0.0016408571 0.00062060007 0.0024239605 0.0017406578 0.00034066924
0.00032508202 0.0015986299 0.001352951 0.0014473062 0.0012049329 0.0002843724 0.00022981189 0.0019620655
0.0008680784 0.0011255315 0.0013611563 -2.646756e-05 0.0007036783 0.0021092233 0.0006698536 0.0014037839
0.0012321684 0.0015317842 0.00043930608 0.0020713853 0.0017762581 0.00045336105 0.0015971544 0.0012379201
0.00200176 0.00019914458 0.00081474596 0.00052349415 0.0009222187 0.0010562638 0.0012120492 0.00067249325
0.0012572282 0.0019454065 0.00085275905 0.0013159254 0.0015720986 0.001220013 0.00066779705 0.0007852938
0.00043182186 0.001319279 0.00085526495 0.0010473295 0.0006389365 0.0020401473 0.0019348479 0.0005575373

module.model.1.model.4.weight f4 [64]
00000000: a954 803f 9f4a 7f3f d64b 803f 435f 803f
00000010: 9e5b 7f3f 7445 803f d353 803f 1283 7f3f
00000020: 0b7f 7f3f 40d1 7f3f 9c55 803f 694b 7f3f
00000030: a059 803f 4c69 7f3f ff68 7f3f ad3f 803f
00000040: 1051 803f 4b46 7f3f 035e 7f3f 6c5b 7f3f
00000050: a048 7f3f 9259 803f 874d 803f ca4b 7f3f
00000060: d93f 803f 63a8 7f3f 0a40 803f f955 803f
00000070: 0740 803f f85d 7f3f af51 803f 2065 7f3f
00000080: 1065 7f3f 3d2d 803f 7949 803f a361 7f3f
00000090: 9652 7f3f 364f 803f 915e 7f3f 4e4c 7f3f
000000a0: 944e 7f3f c14e 803f 0061 803f 5d5b 803f
000000b0: 07d5 7f3f 633d 803f a1c9 7f3f 6a53 803f
000000c0: 3f47 7f3f d661 7f3f 426d 7f3f 3b03 803f
000000d0: b78b 7f3f 989f 7f3f 8d99 7f3f 3deb 7f3f
000000e0: 665e 803f 4f08 803f 7d56 803f 3b7b 7f3f
000000f0: d547 803f b161 7f3f 1e64 7f3f 8466 803f
1.0025836 0.9972324 1.0023143 1.0029072 0.9974917 1.0021195 1.0025581 0.9980937
0.9980323 0.99928665 1.0026126 0.9972444 1.0027351 0.99770045 0.99769586 1.0019432
1.0024738 0.99716634 0.99752825 0.99748874 0.9972019 1.0027335 1.002366 0.9972502
1.0019485 0.9986631 1.0019543 1.0026237 1.001954 0.9975276 1.0024928 0.9976368
0.99763584 1.0013806 1.0022422 0.99758357 0.9973539 1.0024173 0.9975367 0.99725807
0.99729276 1.0024034 1.0029602 1.0027882 0.9993443 1.0018734 0.99917036 1.0025456
0.9971809 0.9975866 0.9977609 1.0000986 0.9982256 0.99852896 0.99843675 0.9996832
1.0028808 1.0002536 1.0026394 0.9979741 1.0021921 0.9975844 0.9976214 1.0031285

module.model.1.model.4.bias f4 [64]
00000000: f98b 353b f52e 3cbb 03e2 2f3b 5566 473b
00000010: e0cf 33bb 56fa 303b 9d5f 303b b733 21bb
00000020: 19b0 21bb df42 48bb a8aa 2d3b 0ecf 37bb
00000030: 9ffe 333b 52cb 23bb e2c2 1cbb a29f 253b
00000040: da78 343b ed1b 38bb c93b 26bb bb4d 24bb
00000050: 13f6 31bb d35a 203b 2627 313b ae96 30bb
00000060: 52b5 213b 8df0 07bb de85 2cbb bb2a 2c3b
00000070: 7db3 763a 683a 2dbb d4cf 233b e52a 16bb
00000080: a6ec 22bb 046f 2bbb c161 393b 0af6 26bb
00000090: 0100 30bb 2452 2f3b 9b60 25bb 1e5d 30bb
000000a0: 769b 32bb e240 313b 6d77 3d3b 1023 2f3b
000000b0: b381 29bb daba 313b 11a0 8dba 0ada 2c3b
000000c0: 2c13 e2ba cee0 23bb 56a6 c7ba 961d 1abb
000000d0: 9c42 05bb a75e 19bb 2f67 a23a 19ec 503b
000000e0: 8859 403b 1efa 1fbb 8fa3 253b 19e6 31bb
000000f0: 6337 2a3b 11b4 21bb abb2 21bb b9ba 453b
0.0027701838 -0.0028714512 0.0026837594 0.0030425985 -0.0027437136 0.002700468 0.0026912459 -0.0024597475
-0.0024671613 -0.0030557436 0.0026499424 -0.0028046998 0.0027464998 -0.0024993015 -0.002391987 0.002527215
0.0027537853 -0.0028092817 -0.0025365225 -0.0025070745 -0.0027154728 0.0024468198 0.002703139 -0.002694528
0.0024674726 -0.0020742745 -0.0026324908 0.0026270587 0.0009410901 -0.0026432518 0.0024995701 -0.002291375
-0.0024860292 -0.00261587 0.0028287026 -0.002547624 -0.002685547 0.002675184 -0.0025234583 -0.002691097
-0.0027253306 0.002704673 0.0028910295 0.002672378 -0.002586466 0.002711943 -0.001080515 0.0026375079
-0.0017248145 -0.002500582 -0.0015232067 -0.002351617 -0.0020333892 -0.0023402364 0.001239037 0.0031879006
0.002935024 -0.0024410556 0.002527449 -0.0027145206 0.0025972954 -0.0024673978 -0.0024673145 0.003017111

module.model.1.model.4.running_mean f4 [64]
00000000: 6c2a 9f3e 93dc e2be 33af 1fbe 346c 163e
00000010: 0721 e2bc 1035 5fbe 313f c93d 100b dd3e
00000020: 3349 babe eba5 d2be b1eb 123f e85b b4be
00000030: 1c97 07be 0877 19bf dee7 0bbd 1b5d 943e
00000040: 85c9 433e b15b 8c3e fe38 6e3e 05fd 2cbf
00000050: 9c65 c73e f43c a73d 9238 5fbe f9d7 a23e
00000060: 8aa5 07bf 1aea 2b3e 505d dd3e 05a1 c0bd
00000070: 3869 b5be 936f 843c 5993 483d e460 c1be
00000080: f06c 403d 2a49 7d3f 467e 86be 029b dabe
00000090: 934c 5bbe 9ed6 e9bc bda6 9d3e 96a7 153f
000000a0: c07d 80be 9f27 cb3d 7b58 2dbf 4e59 13bc
000000b0: c54f 163f e2ff e93e 3e29 acbd 7051 8b3e
000000c0: 9dcb ffbe 543f 693e 35fd ce3e d764 0c3f
000000d0: 4baa 06bf 2209 953e 9a39 e6be 5378 0ebf
000000e0: 0cc4 d6be b74c 8e3e 3789 893e 06ae 433f
000000f0: 31af 1b3e a92d e4bd 28a6 e9be 18b4 b1be
0.31087053 -0.4430891 -0.15594177 0.14689714 -0.02760364 -0.21797585 0.09826506 0.43172503
-0.36383972 -0.4114221 0.57390887 -0.3522637 -0.13241237 -0.5994725 -0.034156673 0.28977284
0.19119842 0.27413705 0.23263928 -0.6757358 0.3894471 0.08165923 -0.21798924 0.318054
-0.5298697 0.16788521 0.43235254 -0.09405712 -0.35431838 0.016166484 0.048968647 -0.37769234
0.04697889 0.98939764 -0.26268214 -0.42696387 -0.2141593 -0.02854472 0.30791274 0.5845884
-0.2509594 0.099196665 -0.67713135 -0.00899346 0.5871547 0.45703036 -0.08406304 0.2721057
-0.49960032 0.22778064 0.40427557 0.5484137 -0.52603596 0.2910853 -0.44965822 -0.5565235
-0.41946447 0.27792904 0.268625 0.76437414 0.15203549 -0.111415215 -0.4563458 -0.34707713

module.model.1.model.4.running_var f4 [64]
00000000: 0dd5 153f c365 7a3e 8e57 013f cf83 f03e
00000010: 669c f73e 5bd6 313f 8ef2 a03d fa8f 763e
00000020: 8c98 873f ca00 a93e b241 c33e d311 9b3d
00000030: 5637 043f 2dd8 5e3e 2905 243f 6391 0d3e
00000040: 71ca b83d 43b1 0a3d 7932 513d bd55 8e3e
00000050: 5ee5 753d f36a 183f 5310 e03c efe8 763f
00000060: ef9c 0c3e 8bb1 353f c426 ee3d 3428 fe3c
00000070: 358c 633e f21a 183e dac9 ac3e a111 c03d
00000080: f048 b23e db38 b83e 914e e13e b33f 1b3f
00000090: 80d4 7d3e 015b 183f 0af2 743d b7df 1a3e
000000a0: 4bc8 413e c259 ef3f 49f9 0c3e c849 fd3d
000000b0: 43e9 1d3e a874 403f 02b6 9d3f fba1 d23e
000000c0: f282 483e 9f5b 733f 8246 053d a8e4 993d
000000d0: ad62 4a3f 1bd7 953f 44d4 1f3e 6a71 1f3f
000000e0: 75b8 8d3f 5598 583e f21b c83d 255d b83e
000000f0: 131f 383f 2fa0 d03d 9885 543f b842 5d3e
0.58528215 0.24452882 0.5052422 0.46975562 0.4836151 0.69467705 0.07858764 0.2407836
1.0593429 0.33008415 0.3813606 0.07571759 0.51646936 0.21762152 0.64070374 0.13824992
0.09022988 0.033860456 0.051073525 0.27799788 0.060033195 0.5953819 0.027351534 0.9644918
0.1373174 0.70974034 0.11628488 0.03102503 0.22221453 0.14854029 0.3374775 0.093783624
0.34821272 0.35980877 0.44005254 0.6064407 0.24788094 0.5951386 0.05980114 0.15124403
0.18924062 1.8699267 0.1376697 0.12367588 0.15421014 0.75178003 1.2321169 0.41139206
0.19581202 0.9506168 0.032537945 0.07514316 0.7905682 1.170627 0.15608317 0.6228243
1.1071917 0.2115186 0.09770955 0.36008564 0.71922415 0.101868026 0.8301635 0.21607482

module.model.2.model.0.weight f4 [64, 64, 3, 3]
00000000: 680c 95bd 1cac 03bd 7167 543d a890 153c
00000010: dc7f 32bd 27c0 debc 3ccd 883d ab47 0ebd
00000020: 808b 7d3d 60b1 6e3d f734 dbbc cb2c 71bc
00000030: ed48 2bbd 0980 4d3c 1a46 a83c 5daf 30bc
00000040: 2737 6e3d c714 7e3d 2a3c 89bd a200 a8bb
00000050: 785f 82bd 787e ebbc e33a 763c 2d5d b5bb
00000060: 27b5 533d 806d 1bbd 8767 89bd f083 adbc
00000070: 3445 8fbd 902f 363d 2b0a 103d 369a 3c3d
00000080: 60f8 8f3c e319 313c 19f3 d63b b54a 72bd
00000090: b084 3b3d 89ec 22bd 8d96 0d3d d570 b33c
000000a0: d380 4bbd cb9f f53b c6e0 7b3b b6a6 be3c
000000b0: e480 d8bb 11ef 1f3d 291a f6bc f7ca 6cbd
000000c0: 7ab8 95bd c5dc 3e3d 0c0f 4dbd 49c1 003c
000000d0: 2f6c 843d 2d95 283d 4e02 1ebd 714d 7a3d
000000e0: 1e28 8ebc 58b3 15bd 46d8 aebc 719a 57bc
000000f0: 1506 84bc 512d 843d 8460 17bc c0cf 843c
00000100: bc9e 9f3c 63dd b3bc 604a 043d 1c82 63bd
00000110: 8c4f aebb 93ce a0bc 575f 31bd fa24 2abd
00000120: e66f 353d e17c 46bd 0336 26bd acad 4a3c
00000130: baa9 8fbd 9f82 363d 3446 90bc dae5 4f3d
00000140: 10c2 4ebc 346e 763b 6db5 383d 58df dc3c
00000150: 3576 acbc d145 893d c089 fa3c 659b 7abb
00000160: 72aa 29bc dd21 1d3d 2fb5 5e3d 7647 26bc
00000170: 7566 593d b7b9 28ba 5c11 4ebd ecef 25bd
00000180: 8257 7ebd f92b 23bc aee6 75bd 0094 43bd
00000190: dd5f 5f3d fcfc f2bc bc87 b3bc 90f2 62bc
000001a0: 82e8 7e3d 7a3b fbbc 240b 503d 1d50 f7bc
000001b0: 6870 493d 9290 c9bb 2a0a 803d 2433 60bc
000001c0: 0a4a e6ba 6018 943c c1cc 253d 2759 c13c
000001d0: a600 6c3d 39a7 ebbc 863d 873d e5f2 9fbc
000001e0: 1d40 7abd 3192 643d d612 5a3d 23ee 1fbd
000001f0: 61b9 14bd 1d18 dabb 9749 a23c db76 7dbc
00000200: 2527 62bc e2d0 3fbd 98a6 8e3d 9660 30bd
00000210: 8f2d 673d 807d 8d3d ce75 5fbc 0300 583d
00000220: d796 f2bc eabd 073c 8bdd 42ba d5a7 7e3d
00000230: 2dad 2ebd dce5 7e3c 893a 86bd 64ff 7d3d
00000240: 0840 fdbc 40b7 303d 8c2f c33c c1bb 733d
00000250: af10 13bd f04e 83bd 0fab ccbc 4360 2cbd
00000260: 7129 0abc 4684 75bd f72a 1e3d efd4 8cbd
00000270: 7e11 3a3d c755 303b 8641 753d 9ce4 95bd
00000280: 81d1 ee3c 5651 0b3d 7dea 113d 9cba 80bd
00000290: da8a 01bc 2bce 8bbd 1366 7fbd d1fd a3bc
000002a0: d0c1 67bd 8746 7abd 41fc d23c b37e 1dbd
000002b0: 3dd1 2c3c a234 d8bc 721f 5ebd e108 8cbd
000002c0: eab1 3b3b 5deb 93bd 326c 21bc 1389 08bc
000002d0: ae1f 823c b1b3 a53c 0dd9 13bc fee6 7eba
000002e0: 7ca2 313c e3df 3ebc bb1d 03bd 2584 3fbd
000002f0: 9ece a63c e8d8 61bc b14b edbb 53b5 52bd
00000300: d72a 6d3c 36ed 9cbc 7e19 443d a5e6 0ebd
00000310: 92dd 553d c4b5 f03c 39c0 8fbd 7fec 36ba
00000320: 5a1e 65bd bfc0 843a 974e 47bd 9615 e6bb
00000330: 9a8f 5abc 1a0c e6bc 8302 883c c780 0abd
00000340: cd57 d93c 81b9 67bd 6cff a8ba 9e9e fcbc
00000350: 2e94 7fbd 5422 67bd 486f 973c 9cfa 19bc
00000360: 9b64 623c 0dae 723d 4a27 ab3c da75 ea3c
00000370: b42b 6bbd acd7 89bd 860b 923d 1580 9f3c
00000380: 14ab 2bbd ee51 27bd a73a 913d 84e3 893d
00000390: c144 fb3c cea7 1bbd 6d38 b03a 552a 33bd
000003a0: 0d6e a5bc 7a80 34bd 1771 013d 0ab7 84bb
000003b0: 37fb d4bc f7c9 2ebb 3d7e 353d 216c 723d
000003c0: 32e2 84bd 57af 143d d762 723d 7025 82bd
000003d0: 8f1e 5fbd 1000 41bc bca0 4f3d 0ebc 27bd
000003e0: d6d4 693d 1d9b 5a3d 40a2 283d 2e19 0fbc
000003f0: 6e22 81bd 994e 54bd c662 8ebd 2ec9 a83c
-0.07277757 -0.03214656 0.051856462 0.009128727 -0.043578967 -0.027191235 0.0667977 -0.034736317
0.061900616 0.058274627 -0.026758654 -0.014720152 -0.041817594 0.012542733 0.02054124 -0.010783997
0.058158066 0.062031534 -0.067009285 -0.0051270286 -0.063658655 -0.028746828 0.015028688 -0.005534789
0.051686432 -0.037946224 -0.067091994 -0.021181077 -0.06995621 0.044478953 0.035165947 0.046045505
0.01757449 0.0108093945 0.006559741 -0.059153277 0.045780838 -0.03977636 0.034567405 0.021904388
-0.049683403 0.0074958554 0.0038433536 0.023272853 -0.006607162 0.03904635 -0.030041771 -0.05781075
-0.07310577 0.04659726 -0.050063178 0.007858583 0.06465947 0.04115789 -0.038576417 0.06110901
-0.017353114 -0.03654799 -0.021343362 -0.01315938 -0.016116181 0.06453956 -0.00923932 0.016212344
0.01948487 -0.021956151 0.032297492 -0.055544004 -0.0053195413 -0.019629752 -0.043303814 -0.04153917
0.044296168 -0.048458938 -0.040578853 0.012370508 -0.07014795 0.044558164 -0.0176116 0.050756313
-0.01261951 0.0037602307 0.045094896 0.026961967 -0.02105246 0.067027695 0.030583262 -0.0038239595
-0.010355579 0.038362373 0.05437201 -0.010148874 0.053076226 -0.0006436365 -0.050309524 -0.04051201
-0.062095173 -0.009959214 -0.060034446 -0.047748566 0.05453478 -0.029661648 -0.02191531 -0.013851777
0.062233455 -0.03066801 0.050791875 -0.030189568 0.049179465 -0.0061512673 0.06251939 -0.013684068
-0.0017569673 0.01807803 0.04047847 0.023602081 0.057617806 -0.028766261 0.066035315 -0.019525
-0.0610963 0.05580348 0.05324062 -0.039045464 -0.036309604 -0.0066557066 0.019810481 -0.015470232
-0.013803278 -0.046830066 0.06965369 -0.04306086 0.056439932 0.06908703 -0.013638927 0.052734386
-0.029612942 0.008285025 -0.0007433525 0.062171776 -0.042645622 0.015557732 -0.065541334 0.062011138
-0.030914322 0.04314351 0.023826383 0.059505228 -0.035904583 -0.064115405 -0.02498391 -0.04208399
-0.008432732 -0.0599406 0.038615193 -0.06876551 0.045426838 0.0026906596 0.05987694 -0.073189944
0.029152634 0.034013115 0.035624016 -0.06285593 -0.00790664 -0.06826433 -0.062353205 -0.02001849
-0.05658132 -0.061102416 0.02575505 -0.038450908 0.010547933 -0.026392285 -0.054229207 -0.06837631
0.002863998 -0.07222626 -0.009852456 -0.008333462 0.015884247 0.020227285 -0.009023917 -0.00097237516
0.010841962 -0.011650058 -0.032010775 -0.046756882 0.020362195 -0.013784625 -0.007241689 -0.051442456
0.014475546 -0.01915608 0.047875874 -0.03488793 0.05221326 0.029383548 -0.070190854 -0.00069779897
-0.05593715 0.0010128244 -0.048658933 -0.007021616 -0.013339901 -0.028081942 0.01660276 -0.033814218
0.026531124 -0.056573395 -0.0012893504 -0.030837353 -0.062397175 -0.056429222 0.01848568 -0.009398129
0.0138179315 0.05924802 0.020892758 0.02862065 -0.057414725 -0.06730589 0.07131104 0.019470254
-0.0419112 -0.04084962 0.07091265 0.06732848 0.030672433 -0.038001828 0.001344455 -0.043741543
-0.020194078 -0.044067837 0.03160199 -0.0040501403 -0.025998695 -0.0026670673 0.044309843 0.05918515
-0.06488456 0.03630003 0.059176292 -0.06354797 -0.054472502 -0.0117798 0.050690398 -0.040950827
0.05708774 0.053370584 0.04117036 -0.008734031 -0.06305395 -0.05183277 -0.06952433 0.020603742

module.model.2.model.0.bias f4 [64]
00000000: ecda 873a f944 613a a7d9 523a cc43 a63a
00000010: 699c 8f3a 2ad3 833a fbd8 283a 2559 913a
00000020: e70b 803a 3bdd 243a 6eee 9a3a e864 913a
00000030: 399a 993a 1d1d 8a3a 4357 893a 898e 713a
00000040: 2ae1 973a c999 7a3a 2d09 923a f080 803a
00000050: 5862 743a 5330 fe39 0f3f 423a ef89 913a
00000060: 2465 883a 5c9a 9e3a 7332 5e3a c031 a83a
00000070: cb7e 953a 04fc ad3a 75af 853a 89a0 983a
00000080: 72e9 843a 1ce2 6e3a 2b82 6f3a 674a 863a
00000090: 4988 8a3a e5b2 233a 6c77 5c3a 9d25 913a
000000a0: 82a8 783a d87f 113a 614b 8d3a c6e6 a83a
000000b0: 6d30 983a 6b32 b73a c23e 3d3a 981f 753a
000000c0: a202 6b3a 4286 a83a b66d 843a a309 283a
000000d0: eeb5 9d3a 1071 723a 5620 6f3a ac0f 693a
000000e0: 9ffd 783a bdb4 653a 14bb 9f3a dfea 833a
000000f0: 5b6a 483a be5e 8e3a 6685 8f3a 4481 5c3a
0.0010364926 0.00085933466 0.0008043297 0.0012685 0.0010956648 0.0010057439 0.0006441024 0.0011089189
0.0009769172 0.00062890694 0.0011820325 0.0011092694 0.0011718936 0.0010537241 0.0010478277 0.000921466
0.001158749 0.0009559659 0.0011141651 0.0009804051 0.00093225157 0.0004848266 0.0007409909 0.001110373
0.0010406119 0.0012100446 0.00084761454 0.001283221 0.0011405585 0.0013273959 0.0010199385 0.0011644523
0.0010140373 0.00091126724 0.0009136523 0.0010245562 0.0010569181 0.0006244614 0.0008410129 0.0011073832
0.0009485559 0.0005550361 0.0010779911 0.0012886159 0.0011611112 0.0013976818 0.00072191295 0.0009350716
0.0008964931 0.0012857395 0.0010103497 0.00064101274 0.0012032369 0.0009248415 0.0009121945 0.000889058
0.00094982417 0.0008762589 0.0012186491 0.0010064504 0.0007645243 0.0010861976 0.001094979 0.0008411596

module.model.2.model.1.weight f4 [64]
00000000: e6be 7f3f 7906 803f e85a 803f a60e 803f
00000010: 467f 7f3f b3b7 7f3f bf56 803f f040 803f
00000020: 2297 7f3f 7e4a 803f 9677 7f3f c055 7f3f
00000030: 3c86 7f3f 029e 7f3f 502d 803f c938 803f
00000040: bd85 7f3f f53e 803f 8e95 7f3f b628 803f
00000050: 6d0d 803f 285d 803f db47 803f 7793 7f3f
00000060: 2111 803f 269b 7f3f b39e 7f3f 1c47 7f3f
00000070: 3a3c 803f 114f 803f 3b38 803f 81d7 7f3f
00000080: 95d0 7f3f 128d 7f3f 3ffa 7f3f 09d4 7f3f
00000090: 2e64 7f3f 644a 803f 5532 803f 72b8 7f3f
000000a0: aeb6 7f3f 594e 803f 19bf 7f3f cfba 7f3f
000000b0: 6754 7f3f 5851 7f3f ae1e 803f 04f8 7f3f
000000c0: a2e4 7f3f d26d 7f3f ba12 803f 715e 803f
000000d0: d35f 7f3f dd17 803f c29b 7f3f 9546 803f
000000e0: 5b8c 7f3f 612e 803f 3465 7f3f 0766 7f3f
000000f0: 974a 803f f268 7f3f b250 7f3f d833 803f
0.9990066 1.0001975 1.0027742 1.000447 0.9980358 0.9988968 1.0026473 1.0019817
0.99839985 1.0022733 0.9979185 0.9974022 0.998142 0.99850476 1.0013828 1.001733
0.99813443 1.0019213 0.9983758 1.0012424 1.0004097 1.0028429 1.0021929 0.9983439
1.0005227 0.9984611 0.9985153 0.9971788 1.001838 1.0024129 1.001716 0.9993821
0.99927646 0.9982463 0.9999122 0.99932915 0.9976224 1.0022702 1.001536 0.99890816
0.9988812 1.002391 0.99900967 0.9989442 0.9973816 0.99733496 1.0009363 0.99987817
0.9995824 0.9977695 1.0005715 1.0028821 0.9975559 1.0007282 0.9984704 1.002154
0.9982354 1.0014154 0.997638 0.99765056 1.0022763 0.9976951 0.99732506 1.0015821

module.model.2.model.1.bias f4 [64]
00000000: 3f52 9dba 6e03 313a af9c 233b 8ed9 8bba
00000010: b54f dcba b8c1 05bb 3feb 403b 8471 3a3b
00000020: 744e f539 67f7 263b fb9c 0abb 6c93 38bb
00000030: a4b3 03bb aaf1 0bbb c9dc de39 385a 9cba
00000040: 0416 04bb 7446 3a3b 856e 0ebb 58c4 633a
00000050: 4d55 313b cb22 3d3b d143 b43a c218 35bb
00000060: 41ec 1f3b 56ec 2c3a df02 36bb 6394 fdba
00000070: 1436 073b 6284 f43a 73da 853a a6a8 dbba
00000080: 5be3 05bb 9747 d637 1fa5 0d3b 41ed a5ba
00000090: 1ebe fdba 0178 323b a6c8 e93a 35ea 9dba
000000a0: 3aba b13a fb5a 123b 9f5f 12b9 b003 1cbb
000000b0: 6304 35bb 36c0 26bb c6fb 1d3b 6f5d 173a
000000c0: b2b9 613a 5c61 15bb a5d9 b6b9 5ad7 3b3b
000000d0: 1fc2 14bb f5c1 0eb9 f17a 8dba 2879 f23a
000000e0: 7add a33a 1698 c23a 7f9c 32bb be7e 2bbb
000000f0: 35e7 1a3b 9974 0ebb d449 26bb ebb7 093b
-0.0012002661 0.0006752525 0.0024965217 -0.0010669695 -0.0016808423 -0.0020409655 0.0029437093 0.0028449008
0.00046788494 0.0025477053 -0.0021150697 -0.0028164042 -0.0020096088 -0.002135376 0.00042507637 -0.0011928743
-0.0020154724 0.002842334 -0.0021733355 0.00086886203 0.00270589 0.002885985 0.0013753121 -0.0027633165
0.0024402293 0.0006596496 -0.0027772707 -0.0019346591 0.0020631598 0.0018655176 0.0010212198 -0.0016758635
-0.0020429704 2.5544125e-05 0.0021613312 -0.0012659208 -0.0019359028 0.0027232172 0.0017836287 -0.0012047949
0.0013559528 0.002233206 -0.00013959267 -0.002380591 -0.0027621023 -0.0025444156 0.0024106367 0.00057741156
0.00086107396 -0.0022793626 -0.00034875903 0.0028662295 -0.0022698713 -0.0001361443 -0.0010794086 0.0018499242
0.0012501918 0.001484635 -0.0027253923 -0.0026168074 0.0023636345 -0.0021736978 -0.0025373595 0.0021014165

module.model.2.model.1.running_mean f4 [64]
00000000: c1ba 923c 03c1 0ebe a37c 4d3c c251 813f
00000010: eab1 493e 9a03 523e 4acd cdbe 314a bd3e
00000020: 77bf a2be 238f 9dbd 7bba c6be 391a 163e
00000030: 00cc febc 9cda 74be 0f8d da3e 5076 ef3e
00000040: ccf0 19be da0a 43be 7342 e7bd 289a 0abc
00000050: b11a 18bf 0610 99be 8909 39bc 6e09 74bd
00000060: bac3 2a3e 5087 10bf 928f 143f 87f9 e6be
00000070: 0a87 063f f49e f93e 6616 7b3d c69d 95bd
00000080: 3eba d73e b3e7 033d 1da2 c43e 0193 2cbe
00000090: b253 d9bd da64 58bf 4c75 bcbb e886 2e3d
000000a0: d111 82be 3823 ba3d 1da9 c43e e900 cf3e
000000b0: 28b9 bcbe ca96 03be 8512 b7be 11cf 113e
000000c0: 8022 e8bc 0ebc e8bd 03bc a73e 122c 57be
000000d0: 4f08 6bbe 0614 a5bc a91e 15be acbd 1c3f
000000e0: f8ed cc3e d3a4 9dbd 3a35 96be 1d83 5f3b
000000f0: 2951 a43d 1f75 fdbd ef10 b03e cd9a c83c
0.017911317 -0.13940816 0.012541923 1.0103076 0.19696775 0.20509186 -0.40195686 0.36970666
-0.317867 -0.07693317 -0.38814148 0.1465844 -0.031103134 -0.23911518 0.42685744 0.46769953
-0.15033263 -0.19047108 -0.11291971 -0.008459605 -0.5941573 -0.29895037 -0.011293777 -0.059579305
0.16676226 -0.5645647 0.5803157 -0.4511225 0.52549803 0.48754084 0.061300658 -0.073054835
0.4213428 0.032203387 0.38404933 -0.16852953 -0.10611667 -0.8452889 -0.0057512876 0.042609125
-0.25404218 0.09088749 0.38410273 0.40430382 -0.36860013 -0.1285049 -0.35756317 0.14239146
-0.028336763 -0.113639936 0.3276063 -0.21012905 -0.22952388 -0.02015115 -0.14562477 0.61226916
0.40025306 -0.07697453 -0.29337484 0.003410525 0.080232926 -0.12375855 0.3438792 0.024487877

module.model.2.model.1.running_var f4 [64]
00000000: 4407 e33e bc86 873f 673b 623e e859 c63e
00000010: ce18 e53e 225b 8c3f c887 0440 f32b c83e
00000020: 2e5e 763f ead2 983e 4982 883e 2697 d83e
00000030: 7902 c93e b6ae db3e 9b1d 073f 703a 753d
00000040: 8d89 883f 8f7a e03e 5f12 1c3f 0475 863e
00000050: 1130 053f 08b6 313f 3806 4b3d 816e ec3d
00000060: 4e6a be3f 438d a03e 17d2 a53d c1c6 483e
00000070: 82c9 8c3e 8810 6c3e 8930 5b3e b0c4 693d
00000080: a269 a13f 9ea3 ee3d dc70 313f 5240 873e
00000090: 8e26 7b3f e484 8c3f 86fb 7c3e bf2b 9a3d
000000a0: f162 d43e 060c 043f 4434 f23d 3e5c c73e
000000b0: d4cc 533e 83d8 f33e 496b 283f 9286 6d3e
000000c0: 592c 8e3e 0091 f33d b468 963d 2abc 4b3e
000000d0: 38a2 c13e 5a6a 483f 181c 0b3e 6ec3 6b3f
000000e0: 4523 903f 3b4f c53d 6266 243e e5fd 953e
000000f0: 801f 8a3f fab7 3d3e 74fd 953f d6e5 1f3f
0.4434148 1.0587993 0.22092973 0.38740468 0.44745487 1.0965312 2.0707874 0.3909603
0.96237457 0.29848415 0.266619 0.42302817 0.392597 0.4290673 0.5277955 0.059870183
1.0666977 0.43843505 0.6096553 0.2626115 0.5202647 0.6941838 0.049566478 0.115445144
1.4876192 0.31357774 0.08096712 0.19607069 0.27497488 0.23053181 0.21405233 0.05707234
1.2610362 0.11652301 0.69312835 0.2641626 0.98105705 1.0978055 0.24705324 0.07527875
0.41481736 0.51580846 0.11826375 0.38937563 0.20683604 0.47626123 0.65788704 0.23195866
0.2776821 0.11892891 0.07344189 0.19895998 0.37819076 0.7828728 0.13584936 0.9209508
1.1260763 0.09634253 0.16054681 0.2929527 1.0790863 0.18527213 1.1717973 0.62460077
