output_nn_denoise/ckpt/resnet_epoch16.pth (torch, 641699 bytes, 31 tensors)

module.model.0.weight f4 [64, 1, 1, 1]
0	0xbe22c7e6	-0.15896568
1	0xbe262d27	-0.16228162
2	0x3e80592e	0.2506804
3	0xbd135723	-0.035971772
4	0xbe53134c	-0.2061283
5	0x3e471569	0.19441761
6	0x3cded846	0.027202737
7	0x3e790544	0.24318415
8	0xbe13b8d6	-0.14425978
9	0xbe17c232	-0.14820173
10	0x3e90692e	0.28205246
11	0x3cf5048e	0.029909398
12	0xbe3dd989	-0.18540014
13	0xbe3e440a	-0.18580642
14	0x3d356cf5	0.044293363
15	0x3e1ce4b9	0.15321626
16	0xbe967205	-0.29383865
17	0x3e0b2342	0.13587669
18	0xbe3f2eb9	-0.18670167
19	0xbde7fd28	-0.113275826
20	0xbe41829b	-0.18897478
21	0x3e03ac3f	0.12858675
22	0xbc01ca56	-0.007921776
23	0x3e81388f	0.25238463
24	0xbdfbcdca	-0.122951105
25	0xbd98d9b3	-0.07463398
26	0xbe6d9208	-0.23200238
27	0x3e8ed066	0.2789337
28	0xbdda23be	-0.106513485
29	0xbe7e8277	-0.24854456
30	0xbda3bff4	-0.079955965
31	0xbe85277f	-0.26006696
32	0xbd9f9b70	-0.07793319
33	0x3d8adfd8	0.06780976
34	0xbe28eb29	-0.16495956
35	0x3e1ecab4	0.15507013
36	0xbd8e2f74	-0.06942645
37	0xbdf236cc	-0.11826858
38	0x3e873a0f	0.26411483
39	0x3c07c79e	0.008287339
40	0xbe763abb	-0.24045841
41	0xbe98f2c4	-0.29872715
42	0xbe207c10	-0.15672326
43	0x3e1a2077	0.15051447
44	0xbe875fdb	-0.2644032
45	0x3db7ebc7	0.08980518
46	0xbe40ed10	-0.18840432
47	0x3e868671	0.26274446
48	0x3e50651b	0.20351069
49	0xbdd48de9	-0.1037863
50	0x3e8e1fb3	0.2775856
51	0xbd95d16b	-0.07315334
52	0xbe468439	-0.19386376
53	0x3ccb96ea	0.024852235
54	0x3e578a7e	0.21048924
55	0xbcbdbd4a	-0.02316155
56	0xbe97e6f8	-0.29668403
57	0xba9dc4d7	-0.0012036812
58	0xbe93e0c0	-0.28882408
59	0xbc6365f9	-0.013879293
60	0x3d930a7f	0.07179736
61	0x3e80ee87	0.25181982
62	0x3cd1ea1c	0.025624327
63	0x3e1a3636	0.15059742

module.model.0.bias f4 [64]
0	0x3aecdbbe	0.0018070859
1	0x394d827b	0.00019598931
2	0x3b21bfe3	0.0024681024
3	0x3b24b135	0.0025130038
4	0xba3424e0	-0.000687195
5	0x3b138c7b	0.0022514153
6	0x3b1411ba	0.0022593574
7	0xba1e449d	-0.0006037446
8	0xb9f00c99	-0.00045785753
9	0x3784ba53	1.582239e-05
10	0x3a29e51d	0.0006480979
11	0xba051477	-0.0005076597
12	0x3aebb259	0.0017982229
13	0xba75afac	-0.00093721855
14	0xb9c8a5a4	-0.00038270385
15	0x3b336f6c	0.0027379645
16	0x3b3f84f2	0.0029223529
17	0x3ae03460	0.0017105453
18	0x3ac08570	0.0014688205
19	0xb98279da	-0.0002488632
20	0xb993607c	-0.0002810991
21	0x3b04d1ac	0.0020266576
22	0x3b2ec97b	0.0026670385
23	0xba72981f	-0.0009254235
24	0x39bf6db6	0.000365121
25	0x3a8265f7	0.0009948601
26	0xba3adb5f	-0.0007128026
27	0x3b399d60	0.0028322563
28	0xba284c96	-0.00064201036
29	0xba466b40	-0.0007569082
30	0x3b17b6b0	0.0023149662
31	0xba2afb02	-0.00065223884
32	0x3b116cc7	0.002219008
33	0xb90073ba	-0.00012250143
34	0x3b323c7a	0.0027196691
35	0xba6f750a	-0.00091345666
36	0xb9c085ab	-0.00036720684
37	0x3afbcccc	0.0019210814
38	0xba164ed3	-0.00057337916
39	0xb8ca3049	-9.6411044e-05
40	0xba0f2d3a	-0.00054617564
41	0x3b38d3ea	0.0028202482
42	0xb9398183	-0.00017691222
43	0x3b3d739a	0.0028908015
44	0x3ad2834f	0.0016060862
45	0xb9b68e9e	-0.00034820003
46	0x3a80d194	0.0009828084
47	0x3a8ccab6	0.0010741565
48	0x39d1e05b	0.00040030744
49	0xba597c42	-0.0008296409
50	0x3b1d063a	0.002396001
51	0x3b13771a	0.002250141
52	0x3a05dac6	0.0005106147
53	0xb9e2628a	-0.00043179496
54	0x3afa3854	0.0019090273
55	0x39d1d2d3	0.00040020663
56	0x3b02266b	0.0019859325
57	0xba3566df	-0.0006919931
58	0x3b1aa6ac	0.002359788
59	0xb9819d67	-0.0002472207
60	0x3b4078d5	0.0029368897
61	0xba0b456b	-0.0005312773
62	0xba4156d8	-0.00073753064
63	0x3b27e0e4	0.0025616223

module.model.1.model.0.weight f4 [64, 64, 3, 3]
0	0x3d96641f	0.07343315
1	0xbc6bdab6	-0.0143954065
2	0x3d176fb5	0.036971767
3	0xbc05767a	-0.008145923
4	0xbd4a31c5	-0.04936387
5	0xbd6581ad	-0.05603187
6	0x3c3bd661	0.011464686
7	0xbd8bd982	-0.06828596
8	0x3d77b88a	0.060478725
9	0xbd877d44	-0.066156894
10	0xbcf2716c	-0.0295951
11	0xbd5e8b38	-0.054331988
12	0x3d2f51ca	0.04280261
13	0xbd7483ec	-0.059696123
14	0xbcf839a2	-0.030300919
15	0xbc65750a	-0.014004955
16	0x3cc99180	0.024605513
17	0xbd87c35b	-0.06629058
18	0xbd336ab0	-0.043802917
19	0xbd8c125c	-0.06839439
20	0xbd0bf84b	-0.034172338
21	0x3d821e5a	0.06353445
22	0x3d1e12ba	0.038592078
23	0x3cb716d5	0.022349754
24	0x3d1e3329	0.03862301
25	0x3d218e15	0.03944214
26	0xbc80e350	-0.015733391
27	0x3d351988	0.0442138
28	0xbd450255	-0.048097927
29	0xbb40d01c	-0.0029420918
30	0x3d3891f9	0.045061085
31	0x3d690d59	0.056897495
32	0xbb5c9916	-0.0033660582
33	0x3d8ed0a6	0.0697339
34	0x3cbd1485	0.023081074
35	0x3d72fe0c	0.05932431
36	0x3d6b71d3	0.057481598
37	0x3d2f67b1	0.042823497
38	0x3b873a14	0.0041267965
39	0xbd6e25ae	-0.058141403
40	0xbd3713b2	-0.044696517
41	0xbd094dae	-0.033521347
42	0xbd18b097	-0.037277784
43	0x3d23b948	0.03997162
44	0x3d6e4acc	0.0581768
45	0xbd0db769	-0.03459874
46	0x3cb3cc13	0.021947896
47	0x3cee4a01	0.029088022
48	0xbd03be0d	-0.03216367
49	0x3b0efd29	0.0021818376
50	0x3c09515a	0.008381212
51	0xbcbf068e	-0.023318555
52	0xbd70ad04	-0.05875875
53	0x3d5bee49	0.053694043
54	0x3d10b5a9	0.035329495
55	0x3cf38fe6	0.029731702
56	0xbd4dad85	-0.05021431
57	0x3ca84a33	0.020543193
58	0x3d0bd2c2	0.03413654
59	0xbc2eba71	-0.010664568
60	0xbb06ad4a	-0.0020550066
61	0x3d10b45d	0.035328258
62	0x398573d8	0.00025454047
63	0x3acb77bd	0.0015523356
64	0xbcf0e196	-0.029404443
65	0xbbb81520	-0.0056177527
66	0x3d376ccc	0.04478149
67	0x3d113e1f	0.035459634
68	0x3c47f0ca	0.012203405
69	0xbad3fe57	-0.0016173822
70	0xbd8218b1	-0.06352366
71	0xbcad1332	-0.021127317
72	0x3d59786d	0.053093363
73	0x3d6a626f	0.05722278
74	0xbcfd6dfd	-0.030936236
75	0xbd2ecff7	-0.0426788
76	0xbd55a338	-0.05215761
77	0xbc48216b	-0.012214999
78	0x3d104ba6	0.035228394
79	0x3ca24c6b	0.01981183
80	0x3d61f7b4	0.05516787
81	0x3b1ec75e	0.0024227719
82	0x3d6c5031	0.057693664
83	0xbb84ddc0	-0.004054755
84	0xbca5cc53	-0.020239031
85	0x3d3d08cc	0.046150967
86	0x3cf7fe27	0.030272556
87	0x3cfadc51	0.030622633
88	0x3d46a1e5	0.04849424
89	0x3c2a7321	0.010403425
90	0x3c9e7fdb	0.019348076
91	0x3c9c96d6	0.019114893
92	0xbcfb4379	-0.030671822
93	0x3d1b8c24	0.037975445
94	0xbcce8f8a	-0.02521493
95	0x3c9587b1	0.01825318
96	0xbd953d48	-0.07287079
97	0x3c0e57fa	0.008687967
98	0x39dea067	0.0004246265
99	0x3d266155	0.040620167
100	0x3ce290bf	0.027656911
101	0xbd8fd28f	-0.07022583
102	0xbd24219a	-0.040071107
103	0x3d67511e	0.056473844
104	0xbd1327cb	-0.03592662
105	0xbbd13c97	-0.0063853967
106	0xbd81f4a2	-0.06345488
107	0xbcaad622	-0.02085406
108	0x3b868737	0.0041054743
109	0x3c018b8e	0.007906808
110	0xbd83e9a3	-0.06441047
111	0xbd0ac537	-0.033879485
112	0xbd68f5c3	-0.056875
113	0x3d3fb845	0.046806592
114	0xbd88890f	-0.06666767
115	0xba8df0bf	-0.0010829194
116	0xbc463454	-0.012097437
117	0xbd5331a1	-0.051561
118	0xbd860ac0	-0.06545019
119	0x3d919829	0.071091
120	0x3c9c37ae	0.019069519
121	0x3d72e926	0.05930438
122	0xbd5c1904	-0.053734794
123	0xbce3218b	-0.027725955
124	0xbd39039e	-0.045169465
125	0x3ba7f41e	0.0051255366
126	0xbd2ff2a7	-0.04295602
127	0xbc6dc856	-0.014513096
128	0xbc58d2c1	-0.013233841
129	0xbd0bb0e4	-0.034104243
130	0x3c08590c	0.008322012
131	0xba855f7a	-0.0010175549
132	0x3d3be5b8	0.045873374
133	0x3ca6b943	0.020352012
134	0x3d4af3a5	0.049548764
135	0xbb052f83	-0.0020322509
136	0x3c7e12cd	0.015507412
137	0xbd64d33e	-0.05586552
138	0x3cbfd65b	0.023417642
139	0x3d4da92b	0.05021016
140	0x3cb9a53b	0.022661796
141	0x3ba5b81b	0.0050573475
142	0xbcbe1d2b	-0.023207268
143	0xbd6dbcde	-0.058041446
144	0xbd06e9e9	-0.032937918
145	0x37817c99	1.5436019e-05
146	0x3d848646	0.06470923
147	0x3cd25268	0.02567406
148	0x3d9241b4	0.07141438
149	0xbb4a16fa	-0.003083645
150	0x3bbae31c	0.005703343
151	0x3d5bdb99	0.05367622
152	0x3c16f99a	0.009214783
153	0x3ca0d894	0.019634522
154	0xbd6c90f9	-0.057755444
155	0xbd7668cc	-0.060158536
156	0x3ce63fac	0.028106533
157	0xbd306e08	-0.043073684
158	0x3d44015e	0.047852866
159	0xbcfce74d	-0.030872012
160	0x3d27bf8d	0.04095416
161	0x3cd6cdb5	0.026221136
162	0xbd71d6f8	-0.0590429
163	0x3d8cf8f3	0.06883421
164	0x3d6f76cc	0.058462903
165	0xbd85ca95	-0.0653278
166	0xbd227710	-0.039664328
167	0xbd38b809	-0.045097385
168	0x3cd415e3	0.025889343
169	0x3d4017f1	0.046897832
170	0xbcadd0a4	-0.021217652
171	0x3d4b3554	0.049611405
172	0xbd826487	-0.0636683
173	0xbd7ac76f	-0.06122535
174	0xbce2cd37	-0.027685745
175	0xbd145f36	-0.036223613
176	0x3a0faebd	0.0005481055
177	0x3c261cf0	0.010138735
178	0xbb5e92ee	-0.0033962089
179	0x3a4986ae	0.00076876103
180	0xbcd0f885	-0.025509128
181	0xbd84c557	-0.06482952
182	0x3d944396	0.072394535
183	0xbd6a186e	-0.057152204
184	0xbb853cf7	-0.0040661055
185	0xbc08ab7a	-0.008341664
186	0xbc8a5097	-0.016884131
187	0x3d304a73	0.04303975
188	0xbce9a07f	-0.028518913
189	0xbc9e8908	-0.019352451
190	0xbd8020ef	-0.062562816
191	0xbcfc3247	-0.030785693
192	0x3d4a3678	0.04936835
193	0x3c867e27	0.016417576
194	0xbce51dc4	-0.027968295
195	0xbd0880cd	-0.03332596
196	0xbd48a24a	-0.048982896
197	0xbd8aa5bc	-0.067698926
198	0xbca73393	-0.020410335
199	0xbc88f4fc	-0.01671838
200	0xbc2d8709	-0.010591277
201	0x3d941282	0.072300926
202	0xbcc75917	-0.024334474
203	0x3d8b88d8	0.0681321
204	0x3ce0fcd1	0.027464302
205	0xbd3719a5	-0.04470219
206	0x3ca67cd9	0.020323204
207	0xbc8318a1	-0.016002955
208	0x3ba260a9	0.0049553704
209	0x3d4354fe	0.047688477
210	0x3d3fb1ce	0.046800427
211	0x3b77a79d	0.0037789114
212	0x3c01087d	0.007875559
213	0xbcbe08da	-0.02319758
214	0x3d3bdf4d	0.045867253
215	0xbd13565b	-0.035971027
216	0xbd4881f3	-0.048952054
217	0xbd462b60	-0.04838121
218	0x3c525a81	0.012838961
219	0x3cd013d3	0.025400078
220	0xbd7ad7a7	-0.06124082
221	0xbcde9092	-0.027168546
222	0x3cf53b11	0.029935392
223	0x3d78a7dc	0.06070696
224	0xbd17b8f4	-0.03704162
225	0xbd125953	-0.035729717
226	0xbd24acea	-0.040203966
227	0x3d259216	0.04042252
228	0x3d4f5b37	0.0506241
229	0xbd6c7a9d	-0.05773412
230	0x3c35121c	0.011051681
231	0xbb982461	-0.0046430086
232	0xbd003a61	-0.031305674
233	0x3a1ed492	0.0006058897
234	0xbc087d3a	-0.008330638
235	0x3ca3253c	0.019915216
236	0x3d2d5615	0.042318422
237	0x3c5d0c2f	0.013491674
238	0x3bfac1c2	0.0076524923
239	0x3d4408d9	0.04786
240	0x3d38c9e8	0.045114428
241	0x3d2911a1	0.041276578
242	0xbd7c0f91	-0.061538283
243	0x3ca41c57	0.020033045
244	0xbd7968f6	-0.060891114
245	0x3cced9d8	0.02525036
246	0x3bea0941	0.0071422164
247	0x3bdbc7f0	0.006707184
248	0x3d4c3cc0	0.049862623
249	0xbd6d5756	-0.05794462
250	0x3d4c6dc9	0.049909387
251	0x3cb259d3	0.021771347
252	0x3cc72d10	0.02431348
253	0x3d591639	0.05299971
254	0xbd773948	-0.060357362
255	0x3d40afc4	0.047042623

module.model.1.model.0.bias f4 [64]
0	0x3ac2139c	0.001480687
1	0x3aa38f40	0.0012478605
2	0x3a4f0ae4	0.0007898046
3	0x3a5512e2	0.0008128119
4	0x3a7a0f6e	0.00095390424
5	0x3a9e8cd9	0.0012096419
6	0x3a5f526e	0.0008519058
7	0x3a4fa427	0.0007920884
8	0x3ac800dc	0.0015259045
9	0x3a9cae2c	0.0011953763
10	0x3a812f70	0.0009856056
11	0x3a9fb57a	0.0012184822
12	0x3a7a9615	0.0009559107
13	0x3ab47ada	0.0013769523
14	0x3a5da0ae	0.0008454424
15	0x3a8b8aa8	0.0010646181
16	0x3a689165	0.0008871763
17	0x3a37d2f8	0.0007012333
18	0x3a434ea5	0.00074503786
19	0x3a7e336d	0.0009696994
20	0x3a4cae91	0.0007807995
21	0x3a3f557c	0.000729881
22	0x3a235daf	0.00062319165
23	0x3a9c13d9	0.001190777
24	0x3aaf5fcc	0.001337999
25	0x3a819feb	0.0009889578
26	0x3a8e42b9	0.0010853625
27	0x3a926689	0.0011169474
28	0x3a9b2d59	0.0011839076
29	0x3a522a82	0.00080171984
30	0x3aca8c76	0.0015453238
31	0x3a6fb7e0	0.0009144526
32	0x3aa62533	0.0012675881
33	0x3a496426	0.0007682465
34	0x39f2ab6e	0.00046285562
35	0x3a871bdc	0.0010307985
36	0x3a6bf7fe	0.0009001492
37	0x3a8057ba	0.000979177
38	0x3a939cd6	0.0011261951
39	0x3a6fcaa4	0.0009147322
40	0x3a6b853f	0.0008984394
41	0x3a19d9a9	0.00058689207
42	0x3a8e4b42	0.0010856169
43	0x3a97f31b	0.0011592837
44	0x3a903bb0	0.0011004116
45	0x3a88b2b3	0.0010429233
46	0x3aad2761	0.0013210588
47	0x3a7d4dd6	0.00096627825
48	0x3a5d076d	0.00084315875
49	0x3a96c96d	0.0011504121
50	0x3a8cb14b	0.001073399
51	0x3a81dce0	0.0009907745
52	0x3a7fb043	0.0009753743
53	0x3a699fd7	0.00089120626
54	0x3a4f14e5	0.0007899537
55	0x3a24789c	0.0006274076
56	0x3abb4dfa	0.0014290207
57	0x3a98157a	0.001160308
58	0x3a171299	0.0005762964
59	0x3a871b4a	0.0010307815
60	0x3a906e0e	0.0011019127
61	0x3a9cd902	0.0011966529
62	0x3a9312f2	0.0011220856
63	0x3a98eece	0.0011667849

module.model.1.model.1.weight f4 [64]
0	0x3f7f87c3	0.9981653
1	0x3f8018f2	1.0007613
2	0x3f80237b	1.0010828
3	0x3f8030ac	1.0014853
4	0x3f803d88	1.0018778
5	0x3f800262	1.0000727
6	0x3f803442	1.0015948
7	0x3f8039c9	1.0017635
8	0x3f7fff88	0.99999285
9	0x3f7fc304	0.99906945
10	0x3f8032e4	1.001553
11	0x3f7f9200	0.99832153
12	0x3f803707	1.0016793
13	0x3f7fbbc9	0.9989591
14	0x3f7fb551	0.9988604
15	0x3f802155	1.0010172
16	0x3f7ff00c	0.9997566
17	0x3f801655	1.0006815
18	0x3f802032	1.0009825
19	0x3f8024c4	1.001122
20	0x3f7fe34d	0.9995621
21	0x3f7fa913	0.9986736
22	0x3f7f9c29	0.99847656
23	0x3f800cbd	1.0003887
24	0x3f803225	1.0015303
25	0x3f7fb1c6	0.99880636
26	0x3f7fb9c8	0.99892855
27	0x3f7f9743	0.9984018
28	0x3f8033cb	1.0015806
29	0x3f80373a	1.0016854
30	0x3f7f9894	0.9984219
31	0x3f7f822e	0.99808013
32	0x3f802ff1	1.001463
33	0x3f7ffd78	0.9999614
34	0x3f7fe5d9	0.99960095
35	0x3f7faeb8	0.99875975
36	0x3f800ba7	1.0003556
37	0x3f7fa626	0.998629
38	0x3f7fb6bc	0.99888206
39	0x3f7f9b61	0.99846464
40	0x3f7fb8ae	0.99891174
41	0x3f7fd6ea	0.9993731
42	0x3f7f97a2	0.9984075
43	0x3f800dce	1.0004213
44	0x3f803c11	1.0018331
45	0x3f8000d7	1.0000256
46	0x3f7f8594	0.998132
47	0x3f8038f6	1.0017383
48	0x3f7f9686	0.99839056
49	0x3f7f8fab	0.99828595
50	0x3f7f9b2a	0.99846137
51	0x3f802a10	1.0012836
52	0x3f802fec	1.0014625
53	0x3f7fa009	0.9985357
54	0x3f8034e8	1.0016146
55	0x3f801323	1.000584
56	0x3f7f88ba	0.99818003
57	0x3f802752	1.0012
58	0x3f802ad8	1.0013075
59	0x3f803113	1.0014976
60	0x3f802f03	1.0014347
61	0x3f7fcc36	0.99920976
62	0x3f8007f0	1.0002422
63	0x3f7f8aed	0.9982136

module.model.1.model.1.bias f4 [64]
0	0xbaddecd6	-0.0016931545
1	0x3aaeaa2a	0.0013325859
2	0x39bb9dba	0.00035784935
3	0x3aa35bc0	0.0012463257
4	0x3aecb7a5	0.0018060101
5	0xbab95ed6	-0.0014142643
6	0x3abf843f	0.0014611556
7	0xb9892e37	-0.0002616511
8	0xb9bb0c73	-0.00035676695
9	0xba8bf5ff	-0.0010678171
10	0x3a63a24a	0.0008683546
11	0xbae90005	-0.0017776495
12	0x3af157ce	0.0018413009
13	0xbae10095	-0.0017166311
14	0xbaf72a67	-0.0018857241
15	0x3ad7e0ca	0.0016470191
16	0xba89ca28	-0.0010512518
17	0x3afd2172	0.0019312336
18	0x3afad413	0.0019136689
19	0x3ac66735	0.0015136959
20	0x399781ab	0.00028897575
21	0xba09000d	-0.0005226143
22	0x39a2e6e9	0.0003107109
23	0x39f079a7	0.00045867005
24	0x399a6bd7	0.00029453516
25	0x3a14b0af	0.000567208
26	0xbae494d8	-0.0017439378
27	0xbaddf71d	-0.0016934607
28	0x3ac59cfc	0.0015076692
29	0x3aeac6f8	0.001791208
30	0xbac40631	-0.0014955458
31	0x3a6f8fbc	0.00091385446
32	0x3abc0347	0.0014344238
33	0x3a5c69ef	0.00084081193
34	0x3aa3382f	0.0012452657
35	0xbad96d5c	-0.0016588378
36	0x3ac5c394	0.0015088194
37	0x3925c7cb	0.00015810055
38	0xbabaa69d	-0.0014240328
39	0xbaccd147	-0.0015626334
40	0xba3e0fd9	-0.0007250286
41	0x3ad0f8f8	0.0015943339
42	0xb8c09c06	-9.184335e-05
43	0xbab9f6d6	-0.0014187943
44	0x3a0c87f6	0.0005360836
45	0xba715487	-0.0009206016
46	0xbad7b7e6	-0.0016458004
47	0x3a366882	0.0006958322
48	0xb96ed430	-0.00022776495
49	0xbae469b5	-0.0017426523
50	0x3a66d107	0.0008804951
51	0xbad08a08	-0.0015910277
52	0x3ad81fc2	0.0016488957
53	0xbaec26aa	-0.0018016894
54	0x3ae6fcd0	0.0017622951
55	0x3aa10b17	0.001228663
56	0xbafbf85f	-0.0019223801
57	0xbae706f5	-0.0017625975
58	0x3ae5b5dd	0.0017525513
59	0x37b3eff5	2.1450202e-05
60	0xba408da4	-0.0007345325
61	0xbaaf5f4a	-0.0013379839
62	0x3a883868	0.0010392787
63	0xbaefa933	-0.0018284678

module.model.1.model.1.running_mean f4 [64]
0	0x3a86d97b	0.0010288203
1	0x3b0122f2	0.0019704667
2	0x3ad9c81d	0.0016615425
3	0x3aa6731f	0.0012699104
4	0x3ac3bf19	0.0014934271
5	0x3a228893	0.0006200161
6	0x39a6eb3a	0.00031837245
7	0x3b5bf0b1	0.0033560211
8	0x3b3c50ee	0.0028734761
9	0x3b9c6251	0.0047724624
10	0x3aa0eec3	0.0012278188
11	0x39b07772	0.0003365833
12	0x3b297fe8	0.0025863592
13	0x3a185661	0.00058112113
14	0xba940bb1	-0.0011294988
15	0x3a9fdc27	0.0012196348
16	0x3b39d06d	0.0028352991
17	0x3a9695d5	0.0011488745
18	0xbb307d7d	-0.0026930266
19	0x3b468d25	0.003029653
20	0x3a3d2316	0.0007215006
21	0xba09313c	-0.0005233472
22	0x39d89512	0.00041309797
23	0x3ad452bc	0.0016198973
24	0x3b6f23c2	0.003648982
25	0x39b87f84	0.0003519022
26	0x39fb6c2d	0.00047955048
27	0x3ac12acb	0.0014737485
28	0x39019d7a	0.00012361063
29	0xb9f9c264	-0.00047637813
30	0x3b33b184	0.002741904
31	0x3a91814f	0.0011101159
32	0xbaf806f6	-0.0018922973
33	0x38eb3d75	0.000112171205
34	0x3af0ce97	0.0018372115
35	0x39e4ce0f	0.00043641074
36	0x3a7de867	0.0009685815
37	0x3bbf3377	0.0058349925
38	0x3a7ed309	0.0009720778
39	0x3b108d36	0.0022056825
40	0x3b3305ac	0.0027316613
41	0x3b500423	0.0031740747
42	0x3b58159e	0.003297187
43	0x3b5db277	0.0033828297
44	0x3b4b6812	0.0031037373
45	0x3aed799d	0.0018117909
46	0x3a67d3d3	0.0008843515
47	0xba8c4aed	-0.0010703482
48	0x3a57c8c1	0.0008231514
49	0xba848164	-0.0010109362
50	0x3b3074ad	0.0026925013
51	0x3b123a45	0.0022312563
52	0x3a402a2b	0.0007330502
53	0xb9822c12	-0.00024828367
54	0x3b7c1f18	0.0038470682
55	0x3b8e82d3	0.0043490916
56	0x3aa2be75	0.001241638
57	0x3af96f92	0.0019030443
58	0x3a798574	0.0009518482
59	0x3b2ece6f	0.0026673337
60	0x3a634558	0.0008669696
61	0x3b43eb78	0.002989499
62	0x3a0377f4	0.0005015128
63	0x3b07cde8	0.0020722095

module.model.1.model.1.running_var f4 [64]
0	0x36d9a0fe	6.485846e-06
1	0x3818a7b2	3.6395802e-05
2	0x38c3323c	9.3076815e-05
3	0x384f82e6	4.9474555e-05
4	0x389f8d24	7.608e-05
5	0x3790cbee	1.72611e-05
6	0x382f7d58	4.1839987e-05
7	0x3820d2ac	3.8343176e-05
8	0x3754bb31	1.2679769e-05
9	0x3764fc72	1.3648636e-05
10	0x389a6692	7.3623974e-05
11	0x37ce0f54	2.4564251e-05
12	0x392e0f86	0.00016599716
13	0x392e21b2	0.00016606486
14	0x35c93b1e	1.4992872e-06
15	0x37a06ea6	1.9125011e-05
16	0x374b5d49	1.21214625e-05
17	0x38a7dd66	8.004419e-05
18	0x38d89507	0.00010327441
19	0x369b56a9	4.6294485e-06
20	0x38520d90	5.0080533e-05
21	0x3724c453	9.820872e-06
22	0x378fdb32	1.7149e-05
23	0x38096f87	3.2767213e-05
24	0x37ac35e8	2.05291e-05
25	0x38105686	3.4412857e-05
26	0x36ccc111	6.1021497e-06
27	0x36aa6004	5.0775725e-06
28	0x382272f2	3.873086e-05
29	0x387523b7	5.8445814e-05
30	0x355410fd	7.9000876e-07
31	0x37a6f5b5	1.9903158e-05
32	0x358af6ce	1.0353631e-06
33	0x37e3a792	2.713854e-05
34	0x38545862	5.062705e-05
35	0x375ca3df	1.3151176e-05
36	0x3898aae8	7.2797586e-05
37	0x3933d031	0.00017148328
38	0x3864b116	5.452436e-05
39	0x356976a6	8.697192e-07
40	0x360795c9	2.0203754e-06
41	0x37d8e27e	2.5854675e-05
42	0x36f23028	7.217768e-06
43	0x35ea693c	1.7464986e-06
44	0x38c6b2d6	9.4746865e-05
45	0x354c6ec2	7.6157096e-07
46	0x36474945	2.969596e-06
47	0x35d1bb7e	1.5626281e-06
48	0x37cbb651	2.4284383e-05
49	0x36ccea8a	6.1069777e-06
50	0x36bd877f	5.6484128e-06
51	0x38b07966	8.414946e-05
52	0x39262f1d	0.00015848545
53	0x36251a2b	2.4602148e-06
54	0x38ab735f	8.175405e-05
55	0x3748b437	1.19628885e-05
56	0x38b3143b	8.539153e-05
57	0x379ad0b7	1.8455421e-05
58	0x3934e567	0.00017251597
59	0x38313cb8	4.2256637e-05
60	0x37f07bd4	2.8667891e-05
61	0x37d9a94b	2.5947249e-05
62	0x385e4384	5.2991803e-05
63	0x376e648f	1.4209319e-05

module.model.1.model.3.weight f4 [64, 64, 3, 3]
0	0xbc2c8c71	-0.010531531
1	0xbab2ceb6	-0.0013641927
2	0xbd3241ed	-0.043519903
3	0x3d0390bb	0.032120448
4	0xbd6db9a6	-0.058038376
5	0xbd365cd3	-0.044522118
6	0x3d34d2b4	0.044146255
7	0x3d81cade	0.06337522
8	0xbc71c7b8	-0.014757089
9	0x3d5cec8f	0.053936537
10	0x3d6613fa	0.056171395
11	0x3cee8dd4	0.029120363
12	0xbcc2be63	-0.023772424
13	0xbc591fb6	-0.013252189
14	0x3d18b1bf	0.037278887
15	0x3cff24f2	0.031145547
16	0xbd2b1e8c	-0.04177718
17	0xbcbfa8fc	-0.023396008
18	0x3c3a7fb2	0.011382984
19	0x3d7a73eb	0.061145704
20	0x3d229b6c	0.039699003
21	0xbcd21306	-0.025643837
22	0xbc623052	-0.013805466
23	0xbc992565	-0.018694589
24	0x3d92485d	0.071427085
25	0x3d01ddde	0.03170573
26	0xbd771685	-0.06032421
27	0xbc098ce3	-0.008395406
28	0xbd0b60d8	-0.034027904
29	0x3d816bea	0.06319411
30	0xbd86547c	-0.06559083
31	0x3ccd6e30	0.025076956
32	0x3d00e024	0.031463757
33	0xbd8517a2	-0.06498648
34	0xbcbd95bb	-0.023142686
35	0x3d2dede3	0.042463195
36	0xbca5822a	-0.020203669
37	0xbbbcdbef	-0.005763523
38	0x3d9284c1	0.07154227
39	0x3d882696	0.06647985
40	0xbd52828e	-0.051394038
41	0xbcbd3121	-0.023094716
42	0x3d6e615a	0.05819831
43	0xbd05ffe6	-0.032714747
44	0x3ca6a5ef	0.020342795
45	0xba135492	-0.0005620207
46	0x3c42fffc	0.011901852
47	0x3d779ecb	0.06045417
48	0x3cd70696	0.026248258
49	0xbd1908e9	-0.037362013
50	0xbce9b39c	-0.028528027
51	0x3b8ed66d	0.0043590576
52	0xbc2b9d99	-0.010474586
53	0x3c56b34b	0.01310427
54	0xbd0ee732	-0.034888454
55	0x3d66b273	0.056322526
56	0xbd793e7c	-0.060850605
57	0x3ca5e13a	0.020248998
58	0x3d89398b	0.067004286
59	0x3d4a7cc5	0.049435396
60	0xbd334db3	-0.04377527
61	0x3c8dddaa	0.017317612
62	0x3d6270ef	0.055283483
63	0x3cccdcdd	0.02500766
64	0x3c7e3aef	0.015516981
65	0x3cdea10b	0.0271764
66	0xbd13d39e	-0.036090486
67	0xbd746c81	-0.05967379
68	0x3c76167c	0.015020009
69	0x3ce45e5d	0.027877027
70	0xbd0a6b2e	-0.03379362
71	0xbca59223	-0.020211285
72	0xbd5733f3	-0.052539777
73	0xbd0877a4	-0.033317223
74	0x3d7d4af4	0.06183906
75	0xbb83bcd7	-0.004020314
76	0xbd8c7e99	-0.06860084
77	0x3bd80b7d	0.0065931664
78	0x3c9e7974	0.019345023
79	0xbd5f4103	-0.05450536
80	0xbd843997	-0.06456297
81	0x3c7f2c8d	0.015574587
82	0xb9dac076	-0.00041723595
83	0x3c3b0e05	0.011416917
84	0xbcf701f6	-0.030152302
85	0x3c39a271	0.011330233
86	0x3d61cbf5	0.05512615
87	0x3cb10465	0.02160854
88	0xbd790960	-0.060799956
89	0xbd059f14	-0.03262241
90	0xbc957b99	-0.018247413
91	0x3d0546af	0.032538112
92	0x3d0ae229	0.03390709
93	0xbd5209a8	-0.05127874
94	0x3c1f8c71	0.009738074
95	0x3d96aaa1	0.07356764
96	0x3d1d9d2c	0.03847997
97	0xbd1c945b	-0.03822742
98	0xbd8c28da	-0.06843729
99	0x3cec9ee0	0.028884351
100	0xbd735341	-0.05940557
101	0xbd8ce06e	-0.06878744
102	0x3b9b79c8	0.004744742
103	0x3d2bf825	0.041984696
104	0x3d30bb21	0.04314721
105	0x3cfa7d75	0.0305774
106	0xbd083c63	-0.033260714
107	0x3bad95e0	0.0052974075
108	0xbd84d184	-0.064852744
109	0x3d2d41cb	0.042299073
110	0xba94c4af	-0.001135012
111	0x3ca13251	0.019677313
112	0x3d18afc0	0.037276983
113	0x3d4d8788	0.05017808
114	0x3d52a146	0.051423334
115	0x3cbbc720	0.022922099
116	0x3c3e35c9	0.011609503
117	0x3d7c0631	0.061529342
118	0x3ca445a8	0.020052746
119	0x3d50cfd5	0.050979454
120	0xbd87d9f4	-0.06633368
121	0xbccde895	-0.025135318
122	0x3bd2fba3	0.006438689
123	0x3d607407	0.054798152
124	0xbc4d0605	-0.012513642
125	0x3cba9f31	0.022780987
126	0xbba9308a	-0.005163257
127	0x3d8d7612	0.06907286
128	0xbcd64c5c	-0.026159458
129	0x3cd5bbf9	0.026090609
130	0xbb981d5d	-0.0046421723
131	0xbb9f44f4	-0.004860515
132	0x3d09f8b8	0.033684462
133	0xbd88420f	-0.06653225
134	0x3c126541	0.008935274
135	0xbd00d89b	-0.03145657
136	0x3d494e5d	0.049147
137	0x3ccc8480	0.024965525
138	0x3d5c3152	0.053757973
139	0x3d5e59dc	0.054284915
140	0x3d58f149	0.052964482
141	0xbcd5b25c	-0.026086025
142	0x3cb5ab47	0.022176398
143	0x3d603306	0.05473616
144	0xbd882089	-0.066468306
145	0x3d1213ff	0.0356636
146	0xbd182d02	-0.037152298
147	0x3d33f444	0.04393412
148	0x3d615b95	0.05501898
149	0xbd8cf7d2	-0.068832055
150	0xbc1a14ec	-0.009404402
151	0x3d8236d6	0.063581154
152	0x3d3aacef	0.04557508
153	0xbd798dd2	-0.060926266
154	0x3abfe1fa	0.001463949
155	0xbc263faa	-0.010147015
156	0xbd359b92	-0.044337817
157	0xbd11ebe9	-0.035625372
158	0xbd475803	-0.04866792
159	0xbcdf128e	-0.027230527
160	0xbd083803	-0.033256542
161	0x3cdc2266	0.026871871
162	0x3d415ed7	0.047209587
163	0x3d2a4319	0.041567896
164	0xbd876616	-0.06611268
165	0x3bc6482f	0.0060510854
166	0x3d94f8c5	0.072740115
167	0x3d06287a	0.032753445
168	0xbbde0b9b	-0.006776286
169	0x3d94b99d	0.072619654
170	0x3d10e4cb	0.035374444
171	0x3d493443	0.049122106
172	0x3c6a50de	0.014301507
173	0xbd87476c	-0.066054195
174	0xbc376e29	-0.011195698
175	0x3cc65aa2	0.024213139
176	0x3c2393ee	0.009984
177	0xbd4f6b0e	-0.050639205
178	0x3bbc6b1c	0.005750073
179	0x3c778294	0.015106816
180	0xbd883335	-0.06650392
181	0x3d89381a	0.06700154
182	0x3d782eb2	0.060591407
183	0x3b80e5bd	0.003933637
184	0xbd45e36f	-0.0483126
185	0x3d2d4673	0.042303514
186	0xbd62575c	-0.055259094
187	0x3d016282	0.031588085
188	0x3c673ca9	0.014113584
189	0xbd8102aa	-0.06299336
190	0x3cbae76a	0.022815425
191	0xbd8fae96	-0.070157215
192	0x3d80f01e	0.06295799
193	0x3ccfed87	0.025381817
194	0xbc832487	-0.016008629
195	0xbd715283	-0.05891658
196	0xbc5917a0	-0.013250262
197	0xbce473c1	-0.027887227
198	0x3c85d8ec	0.016338788
199	0x3c9ecca7	0.019384695
200	0x3d6832f3	0.056689214
201	0xbd517214	-0.051134184
202	0x3d7ec9cc	0.062204167
203	0xbd2a8aac	-0.041636154
204	0x3a4c8784	0.0007802176
205	0xbcb4a00c	-0.022048973
206	0x3cf8559f	0.030314265
207	0xbae51222	-0.0017476717
208	0xbd299201	-0.041399006
209	0x3ccf507f	0.025306938
210	0x3b6ae269	0.0035840517
211	0xbbb78d05	-0.0056015276
212	0xbd79f22c	-0.06102197
213	0x3d8c8390	0.06861031
214	0xbd3282fa	-0.04358194
215	0x3ba3bd37	0.0049969214
216	0x3d6c8793	0.05774648
217	0xbb8c255e	-0.0042769155
218	0x3d264890	0.040596545
219	0xbcd76ab8	-0.026296005
220	0x3d3646cd	0.044501115
221	0xbcefa1ac	-0.029251896
222	0xbc890f7b	-0.016731014
223	0xbd67aba9	-0.056560192
224	0xbc1a5552	-0.009419756
225	0x3d436094	0.047699526
226	0x3cfd8a70	0.030949801
227	0xbd26784e	-0.040642075
228	0xbce7386e	-0.02822515
229	0x3c3b0ead	0.011417073
230	0xbd76b779	-0.060233567
231	0xbd587703	-0.052847873
232	0xbd414cc2	-0.047192343
233	0xbb849d40	-0.004047066
234	0xbc5d59f8	-0.01351022
235	0x3d6c571c	0.05770026
236	0x3d41b902	0.047295578
237	0x3d6ac48a	0.05731634
238	0xbbafce3b	-0.0053651608
239	0x3d727852	0.059196778
240	0xbcb28da5	-0.021796057
241	0x3d53e645	0.051733274
242	0x3d5d7e84	0.054075733
243	0x3cc9449b	0.024568846
244	0xbd84dc1b	-0.06487294
245	0xbca9b011	-0.020713838
246	0x3cd916fa	0.026500214
247	0x3d062346	0.032748483
248	0x3d888978	0.06666845
249	0xbcb82fd0	-0.022483736
250	0x3b3fbc77	0.002925662
251	0xbd845cb3	-0.064629935
252	0x3b7c8ba8	0.003853539
253	0x3d1ed57a	0.038777806
254	0xbd903db7	-0.07043021
255	0xbd1190a4	-0.03553833

module.model.1.model.3.bias f4 [64]
0	0x3a1b3385	0.0005920458
1	0x3ace1e7d	0.0015725639
2	0x3a12f5ad	0.00056060666
3	0x3a5d10d5	0.0008432989
4	0x3ad3cf35	0.0016159775
5	0x3a60395e	0.000855347
6	0x395264f6	0.00020064772
7	0x3aac2ef3	0.001313655
8	0x3ac19fd0	0.0014772359
9	0x3a703fca	0.0009164779
10	0x3a8852db	0.0010400669
11	0x3ac0d0bb	0.0014710644
12	0x3a3ef561	0.0007284489
13	0x3b0950ce	0.0020952704
14	0x3acc7244	0.0015598019
15	0x39fcac26	0.00048193446
16	0x3a010496	0.0004921643
17	0x3abbbffc	0.0014324184
18	0x3aa744be	0.0012761576
19	0x3ab21a77	0.0013588209
20	0x3a9a80ad	0.0011787616
21	0x39e0ac17	0.00042852826
22	0x39ef5490	0.00045648636
23	0x3ae4f85c	0.0017469036
24	0x3a6b68c3	0.0008980149
25	0x3a9188d7	0.0011103404
26	0x3aa9c139	0.0012951262
27	0x39808b8d	0.00024518036
28	0x3a53a073	0.000807292
29	0x3af4761e	0.0018650924
30	0x3a3fb302	0.0007312746
31	0x3aac5e64	0.0013150689
32	0x3a96fa03	0.0011518601
33	0x3abca3e1	0.0014392101
34	0x3a12f44b	0.00056058605
35	0x3af1054c	0.0018388419
36	0x3ace112e	0.0015721673
37	0x3a1617f3	0.00057256146
38	0x3abfb71d	0.0014626716
39	0x3a9eb07a	0.0012107037
40	0x3ae3fc98	0.0017394004
41	0x39c343d9	0.0003724385
42	0x3a70168f	0.0009158635
43	0x3a2e810e	0.0006656804
44	0x3a6dad90	0.00090666953
45	0x3a8923eb	0.0010462975
46	0x3a9a6561	0.0011779481
47	0x3a3d6c39	0.0007225904
48	0x3a999424	0.0011717123
49	0x3ae5bf24	0.0017528278
50	0x3a5f5612	0.00085196004
51	0x3aa23345	0.0012374899
52	0x3ac05d06	0.0014676161
53	0x3a9b2790	0.0011837352
54	0x3a4439ba	0.00074854086
55	0x3a61027b	0.00085834385
56	0x3a17d7ba	0.00057923386
57	0x3aa3f269	0.0012508157
58	0x3a63b921	0.0008686949
59	0x3a875969	0.0010326329
60	0x3a3c164f	0.0007174955
61	0x3aed59f5	0.0018108474
62	0x3ae1e77c	0.0017235125
63	0x3a34b793	0.000689381

module.model.1.model.4.weight f4 [64]
0	0x3f803a26	1.0017745
1	0x3f7f8203	0.9980776
2	0x3f8036ac	1.0016685
3	0x3f803ec9	1.001916
4	0x3f7f8dd8	0.9982581
5	0x3f803030	1.0014706
6	0x3f803cb9	1.0018531
7	0x3f7fa3e2	0.9985944
8	0x3f7f9e2a	0.99850714
9	0x3f7ff60f	0.9998483
10	0x3f803cc9	1.001855
11	0x3f7f85b5	0.99813396
12	0x3f803b51	1.0018102
13	0x3f7f91c0	0.9983177
14	0x3f7f9145	0.9983104
15	0x3f802c6a	1.0013554
16	0x3f8037ac	1.001699
17	0x3f7f8137	0.9980654
18	0x3f7f8c33	0.998233
19	0x3f7f8d22	0.99824727
20	0x3f7f81ad	0.99807245
21	0x3f803e57	1.0019025
22	0x3f803654	1.001658
23	0x3f7f83a3	0.99810237
24	0x3f803260	1.0015373
25	0x3f7fb761	0.9988919
26	0x3f802e84	1.0014195
27	0x3f803c17	1.0018338
28	0x3f802984	1.001267
29	0x3f7f8b8d	0.9982231
30	0x3f803b99	1.0018188
31	0x3f7f9466	0.99835813
32	0x3f7f8f18	0.9982772
33	0x3f802467	1.0011109
34	0x3f8034a8	1.001607
35	0x3f7f8d51	0.99825007
36	0x3f7f8695	0.9981473
37	0x3f80388a	1.0017254
38	0x3f7f8d1a	0.9982468
39	0x3f7f8577	0.99813026
40	0x3f7f8652	0.9981433
41	0x3f8037f7	1.0017079
42	0x3f803bb9	1.0018226
43	0x3f803f24	1.0019269
44	0x3f7fd9df	0.9994182
45	0x3f801e4c	1.0009246
46	0x3f7fcebd	0.9992483
47	0x3f803c5f	1.0018424
48	0x3f7f8f3f	0.9982795
49	0x3f7f8fee	0.99828994
50	0x3f7f8c2c	0.9982326
51	0x3f7fffe8	0.99999857
52	0x3f7fa5c4	0.99862313
53	0x3f7fb045	0.9987834
54	0x3f7fac2d	0.99872094
55	0x3f7fc496	0.9990934
56	0x3f80402e	1.0019586
57	0x3f8007d8	1.0002394
58	0x3f803b5d	1.0018116
59	0x3f7fa828	0.9986596
60	0x3f8034ee	1.0016153
61	0x3f7f8bc0	0.99822617
62	0x3f7f8f55	0.9982808
63	0x3f8036c8	1.0016718

module.model.1.model.4.bias f4 [64]
0	0x3af33184	0.0018554186
1	0xbb010387	-0.001968594
2	0x3af41d00	0.0018624365
3	0x3b026873	0.0019898682
4	0xbaf868ad	-0.0018952094
5	0x3af01f35	0.0018319847
6	0x3af449d0	0.001863772
7	0xbae77f05	-0.0017661756
8	0xbae886f7	-0.0017740418
9	0xbb015d5d	-0.0019739487
10	0x3af3b914	0.0018594586
11	0xbaf601b9	-0.0018768824
12	0x3af4dd09	0.0018681596
13	0xbaea51c1	-0.0017877148
14	0xbae25821	-0.0017268696
15	0x3ae7b3d3	0.0017677493
16	0x3af68a7e	0.0018809584
17	0xbafbb1b9	-0.0019202746
18	0xbaee288d	-0.0018170044
19	0xbae7838d	-0.0017663107
20	0xbaf82197	-0.0018930909
21	0x3ae37772	0.0017354323
22	0x3af59ceb	0.0018738782
23	0xbaf5c1f6	-0.0018749821
24	0x3aeee701	0.0018226804
25	0xbad3b58c	-0.0016152128
26	0xbaf1472c	-0.0018408052
27	0x3af1b028	0.001843934
28	0x39ebc503	0.00044969478
29	0xbaf4b738	-0.0018670326
30	0x3ae864cf	0.0017730239
31	0xbad70dbb	-0.001640729
32	0xbae73a92	-0.0017641357
33	0xbaf22725	-0.0018474801
34	0x3afc89a4	0.0019267094
35	0xbaef77dd	-0.0018269975
36	0xbaf7ee75	-0.001891567
37	0x3af2314f	0.001847783
38	0xbaec5863	-0.0018031712
39	0xbaf4b0e5	-0.0018668441
40	0xbaf7fbc5	-0.0018919638
41	0x3af8a3cd	0.0018969715
42	0x3af067cf	0.0018341484
43	0x3af4cbc3	0.0018676448
44	0xbae65cb8	-0.001757524
45	0x3ac68170	0.0015144777
46	0xba7384df	-0.00092895137
47	0x3af4a060	0.0018663518
48	0xba4c3a70	-0.000779069
49	0xbae87ba7	-0.0017737047
50	0xba980ecf	-0.0011601093
51	0xbadfcc57	-0.0017074448
52	0xbac9521e	-0.0015359556
53	0xbae4b135	-0.0017447831
54	0x39e8cc6e	0.000444028
55	0x3afe2424	0.0019389433
56	0x3b034d42	0.0020035063
57	0xbadd0eb8	-0.0016865348
58	0x3aed6cec	0.0018114126
59	0xbaef4a15	-0.0018256331
60	0x3af19ce1	0.0018433594
61	0xbaeb2679	-0.0017940543
62	0xbaea833c	-0.0017891894
63	0x3b024978	0.0019880217

module.model.1.model.4.running_mean f4 [64]
0	0x3ebff850	0.37494135
1	0xbebee2ef	-0.37282512
2	0xbde97d58	-0.114008605
3	0x3dcd67d8	0.10029572
4	0x3b8f9759	0.0043820557
5	0xbe0199bd	-0.12656303
6	0x3db4257a	0.087962106
7	0x3ed46f03	0.41490945
8	0xbe9f46dd	-0.31108752
9	0xbea4381b	-0.32074055
10	0x3ef1c83a	0.47223073
11	0xbe64e1b2	-0.22351721
12	0xbe18107e	-0.14850041
13	0xbefc3143	-0.49256334
14	0xbd5d6f08	-0.054060966
15	0x3e952874	0.29132426
16	0x3e5787de	0.21047923
17	0x3df2dafa	0.11858173
18	0x3e671909	0.22568144
19	0xbf02e470	-0.5112982
20	0x3e8f4834	0.27984774
21	0x3d8785e5	0.06617335
22	0xbdc90180	-0.09814739
23	0x3e84db9d	0.25948802
24	0xbeca51ec	-0.39515626
25	0x3ddc22e3	0.107488416
26	0x3e651bbf	0.22373866
27	0xbd35774b	-0.04430322
28	0xbe89bd5a	-0.26902276
29	0xbd93e440	-0.072212696
30	0x3cff1d95	0.031142035
31	0xbe977a2d	-0.295854
32	0x3c5d81bc	0.013519701
33	0x3f4c168c	0.79721904
34	0xbe4311c9	-0.19049753
35	0xbea49cd2	-0.32150894
36	0xbe27f099	-0.16400374
37	0xbd79acfe	-0.060955994
38	0x3e712fe6	0.23553428
39	0x3eff285a	0.49835473
40	0xbe4bbb95	-0.19895776
41	0x3d8360f5	0.064149775
42	0xbf1fd03c	-0.62427115
43	0xbd6f9164	-0.058488265
44	0x3efa58c9	0.48895863
45	0x3ec054c7	0.3756468
46	0xbddba827	-0.10725432
47	0x3e6210dc	0.22076744
48	0xbed986f0	-0.42485762
49	0x3e4ad155	0.19806416
50	0x3e9586ea	0.29204494
51	0x3ee6b9eb	0.4506372
52	0xbec37e37	-0.38182232
53	0x3e99eaf2	0.30062062
54	0xbeb59d08	-0.35471368
55	0xbeb44dbe	-0.35215563
56	0xbeac844d	-0.33694687
57	0x3e1ba582	0.15199855
58	0x3e933d05	0.28757492
59	0x3f2abf97	0.6669859
60	0x3e0c5b27	0.13706647
61	0xbdfbe995	-0.123004116
62	0xbeb8e52f	-0.36112353
63	0xbe96f85f	-0.29486367

module.model.1.model.4.running_var f4 [64]
0	0x3edefa2d	0.43550244
1	0x3e3d9c84	0.18516737
2	0x3f17f20b	0.59353703
3	0x3e9f1ee4	0.31078255
4	0x3e9e55f6	0.30924958
5	0x3f1bcf6b	0.6086337
6	0x3d0afbc7	0.03393152
7	0x3e2ccd76	0.16875252
8	0x3f5bb264	0.8581908
9	0x3e1343ea	0.14381376
10	0x3ec059ea	0.375686
11	0x3e02cf0e	0.12774298
12	0x3e9f84b0	0.3115592
13	0x3e61787a	0.22018614
14	0x3eab68e6	0.3347847
15	0x3dadc710	0.08485234
16	0x3de8b5bc	0.11362788
17	0x3d0d417d	0.034486283
18	0x3d57bc67	0.05266991
19	0x3e9d5838	0.30731368
20	0x3d0b3ff5	0.03399654
21	0x3eb2841d	0.3486642
22	0x3c8eab53	0.017415678
23	0x3f204e2f	0.626193
24	0x3da75aa1	0.08171583
25	0x3ec2ccef	0.38046977
26	0x3e0e8d4a	0.13921085
27	0x3cbdb59c	0.023157887
28	0x3dc956f2	0.098310366
29	0x3e82c5f2	0.25541645
30	0x3e7e2eb9	0.24822511
31	0x3d6c6786	0.057715915
32	0x3e52dfc0	0.20593166
33	0x3ea85abb	0.32881722
34	0x3ea6cfff	0.32580563
35	0x3eec3b10	0.4613881
36	0x3e3229bc	0.17398733
37	0x3f052cd6	0.5202154
38	0x3da251cb	0.07925757
39	0x3dade0d6	0.0849015
40	0x3e371271	0.17878129
41	0x3fbe414a	1.4863675
42	0x3e0d6e6c	0.13811654
43	0x3e0d8b57	0.13822685
44	0x3e20d690	0.15706849
45	0x3ee7f412	0.45303398
46	0x3f478348	0.77934694
47	0x3e4113eb	0.18855254
48	0x3ddf9973	0.1091794
49	0x3f48ab5b	0.7838647
50	0x3d1aca57	0.037790623
51	0x3db923e2	0.09040047
52	0x3eedd612	0.46452385
53	0x3f89d08d	1.076677
54	0x3e08305f	0.13299702
55	0x3f1bf0a7	0.6091408
56	0x3f626f08	0.8845067
57	0x3e8e5b9c	0.27804267
58	0x3dbf96dd	0.09354947
59	0x3e6606b1	0.2246349
60	0x3f1303c6	0.5742763
61	0x3da399d4	0.07988325
62	0x3ec4f85d	0.38470736
63	0x3e215c29	0.15757813

module.model.2.model.0.weight f4 [64, 64, 3, 3]
0	0xbd941dd4	-0.07232252
1	0xbd01cf11	-0.031691615
2	0x3d56757a	0.052358128
3	0x3c1eb8e1	0.009687633
4	0xbd3026ee	-0.043005876
5	0xbcda45b3	-0.026644563
6	0x3d89eae4	0.06734255
7	0xbd0bfebc	-0.03417848
8	0x3d7fc543	0.062443983
9	0x3d6c126f	0.057634767
10	0xbce12ae4	-0.027486272
11	0xbc7bebe8	-0.015376069
12	0xbd2e20e7	-0.042511847
13	0x3c42cd60	0.0118897855
14	0x3ca52ff3	0.020164466
15	0xbc3bbfcc	-0.011459302
16	0x3d6b96c0	0.057516813
17	0x3d7b4e2d	0.06135385
18	0xbd8ac38f	-0.06775581
19	0xbbc0b479	-0.005880889
20	0xbd83de07	-0.06438833
21	0xbcf16610	-0.029467613
22	0x3c6b29c4	0.014353219
23	0xbbcd0f77	-0.006257947
24	0x3d50b557	0.05095419
25	0xbd1e9230	-0.038713634
26	0xbd8b0815	-0.06788651
27	0xbca7a51a	-0.020464469
28	0xbd8dc787	-0.069228224
29	0x3d395df8	0.04525563
30	0x3d134fdc	0.03596483
31	0x3d3fc1c8	0.046815664
32	0x3c95c5b8	0.018282756
33	0x3c3e1974	0.011602748
34	0x3befc0e6	0.0073166965
35	0xbd6f682a	-0.058448948
36	0x3d3df68f	0.046377715
37	0xbd2093f6	-0.039203607
38	0x3d1002ad	0.0351588
39	0x3cb8a4f1	0.022539588
40	0xbd48a7d7	-0.04898819
41	0x3c06bba7	0.008223451
42	0x3b944ca8	0.0045257397
43	0x3cc4d2aa	0.024026234
44	0xbbc0612d	-0.0058709593
45	0x3d22a687	0.039709594
46	0xbcf096e0	-0.029368818
47	0xbd6a16c9	-0.057150636
48	0xbd944f44	-0.07241681
49	0x3d41b758	0.04729399
50	0xbd4a38f4	-0.04937072
51	0x3c0c20ac	0.008552711
52	0x3d85de4f	0.065365426
53	0x3d2b70d9	0.041855667
54	0xbd1b30cb	-0.03788833
55	0x3d7d72ff	0.061877247
56	0xbc878a7d	-0.016545529
57	0xbd1235f3	-0.03569598
58	0xbca8244b	-0.020525118
59	0xbc4c147a	-0.012456054
60	0xbc7a4dbf	-0.015277325
61	0x3d858266	0.06519012
62	0xbc0e99f5	-0.008703698
63	0x3c81f511	0.015863927
64	0x3c9d6f6b	0.019218167
65	0xbcb77177	-0.022392971
66	0x3d034183	0.0320449
67	0xbd65a0f9	-0.05606172
68	0xbbc1daf2	-0.005915993
69	0xbca58d0f	-0.020208864
70	0xbd34179d	-0.043967832
71	0xbd2ca299	-0.042147253
72	0x3d324eff	0.043532368
73	0xbd49769e	-0.049185388
74	0xbd294335	-0.04132386
75	0x3c3f4171	0.011673317
76	0xbd90ef4b	-0.070768915
77	0x3d335d50	0.04379016
78	0xbc9642db	-0.018342426
79	0x3d4ccb91	0.049998824
80	0xbc5b46a1	-0.013383538
81	0x3b5dcd30	0.0033844225
82	0x3d39a2e4	0.04532136
83	0x3cdbe186	0.026840936
84	0xbcae2e72	-0.021262381
85	0x3d88c4d7	0.06678169
86	0x3cf84270	0.030305117
87	0xbb81dbc8	-0.0039629675
88	0xbc2a1e8c	-0.0103832595
89	0x3d1b1b82	0.03786803
90	0x3d60df9d	0.054900754
91	0xbc1d5b69	-0.009604313
92	0x3d5bc0a5	0.053650517
93	0xb91bbcc2	-0.0001485227
94	0xbd4c3956	-0.049859367
95	0xbd24019f	-0.04004061
96	0xbd7c58c6	-0.0616081
97	0xbc1a44b6	-0.009415796
98	0xbd73a306	-0.059481643
99	0xbd40770e	-0.04698854
100	0x3d628e8b	0.05531172
101	0xbcecdb37	-0.028913124
102	0xbcad3316	-0.021142524
103	0xbc55dfe0	-0.013053864
104	0x3d81069a	0.06300087
105	0xbcf5097e	-0.029911753
106	0x3d533b35	0.051570136
107	0xbcf104f9	-0.029421316
108	0x3d462e63	0.04838408
109	0xbbe2dc15	-0.0069232085
110	0x3d7d2b9f	0.06180918
111	0xbc6dee58	-0.014522158
112	0xbb1fd0fe	-0.0024386044
113	0x3c8f0d4d	0.017462397
114	0x3d22bd47	0.03973129
115	0x3cbb9e1a	0.022902537
116	0x3d6915db	0.05690561
117	0xbcf0575f	-0.029338537
118	0x3d85fa0f	0.065418355
119	0xbca5ccf4	-0.02023933
120	0xbd7ba0fe	-0.06143283
121	0x3d61d79c	0.05513726
122	0x3d57253d	0.052525748
123	0xbd22de4a	-0.039762773
124	0xbd1786dc	-0.036993846
125	0xbbef47f5	-0.007302279
126	0x3c9c6283	0.019089943
127	0xbc839a42	-0.016064767
128	0xbc6ceec2	-0.014461221
129	0xbd422c69	-0.047405634
130	0x3d8d7f2b	0.06909021
131	0xbd33701c	-0.043808088
132	0x3d6476bb	0.055777293
133	0x3d8c0ccf	0.068383805
134	0xbc6cd5f2	-0.014455305
135	0x3d55482d	0.052070785
136	0xbcf7c30e	-0.030244377
137	0x3bf8127f	0.0075705643
138	0xbaaac9c5	-0.0013030103
139	0x3d7b97bb	0.061424
140	0xbd30f4f2	-0.043202348
141	0x3c775e46	0.01509816
142	0xbd8752c5	-0.06607584
143	0x3d7c1254	0.061540917
144	0xbcf854c6	-0.03031386
145	0x3d3330d4	0.043747738
146	0x3cc8043d	0.024416083
147	0x3d766dd6	0.06016334
148	0xbd108a1f	-0.035287973
149	0xbd822774	-0.06355181
150	0xbcc7b81e	-0.024379786
151	0xbd29fa1f	-0.0414983
152	0xbc004b3b	-0.007830436
153	0xbd7260e9	-0.059174452
154	0x3d211d2f	0.039334472
155	0xbd8b70be	-0.06808613
156	0x3d3d17fa	0.046165444
157	0x3b5e53b2	0.0033924398
158	0x3d7823c5	0.060580987
159	0xbd9476c3	-0.072492145
160	0x3cf48600	0.029849052
161	0x3d0e49d7	0.034738388
162	0x3d0ea583	0.034825813
163	0xbd82b487	-0.06382089
164	0xbc0d3f28	-0.008621015
165	0xbd8d3002	-0.068939224
166	0xbd811001	-0.06301881
167	0xbca7ef7b	-0.020499935
168	0xbd6b273a	-0.057410456
169	0xbd7d1d64	-0.061795607
170	0x3ccef9be	0.02526557
171	0xbd1a36eb	-0.03765003
172	0x3c3a220f	0.011360659
173	0xbcd1a842	-0.025592927
174	0xbd5aed16	-0.05344876
175	0xbd8a6b8a	-0.06758793
176	0x3b6ec38b	0.003643247
177	0xbd92447f	-0.07141971
178	0xbc14a277	-0.009071938
179	0xbbf8084c	-0.0075693484
180	0x3c787b45	0.0151661085
181	0x3c9d9dd8	0.019240305
182	0xbc221672	-0.009893047
183	0xbaf6259e	-0.0018779521
184	0x3c23e7af	0.010003968
185	0xbc460ba3	-0.012087735
186	0xbd06b20e	-0.03288465
187	0xbd42403f	-0.04742455
188	0x3ca2e291	0.019883426
189	0xbc57fb19	-0.013182425
190	0xbbdb8905	-0.0066996836
191	0xbd501729	-0.050803337
192	0x3c778095	0.01510634
193	0xbc9777eb	-0.018489799
194	0x3d465692	0.048422404
195	0xbd0c2a26	-0.034219883
196	0x3d58d009	0.052932773
197	0x3cf6b0dc	0.03011363
198	0xbd8e5812	-0.06950392
199	0xb8b7945f	-8.753756e-05
200	0xbd62dd46	-0.055386804
201	0x3ad85da9	0.0016507405
202	0xbd44df5d	-0.04806458
203	0xbbd1583a	-0.0063886913
204	0xbc4fab14	-0.012675066
205	0xbce0bfdd	-0.027435238
206	0x3c8e5bc6	0.017377745
207	0xbd083047	-0.033249166
208	0x3cddf1b4	0.027092792
209	0xbd659c7f	-0.05605745
210	0xba3688a8	-0.00069631124
211	0xbcf80bae	-0.030279007
212	0xbd7d2b9c	-0.061809167
213	0xbd64e235	-0.05587979
214	0x3c9ca87d	0.01912331
215	0xbc0fab8b	-0.008768926
216	0x3c622e74	0.013805021
217	0x3d711a61	0.058863048
218	0x3ca6c2a4	0.020356484
219	0x3ce5e696	0.028064054
220	0xbd6d956e	-0.058003835
221	0xbd8b25ad	-0.067942955
222	0x3d90d35f	0.07071566
223	0x3c9b1d63	0.018934911
224	0xbd2dd340	-0.04243779
225	0xbd29d7d5	-0.0414656
226	0x3d9052d9	0.07047052
227	0x3d886f41	0.06661845
228	0x3cf485b5	0.029848913
229	0xbd1f046d	-0.03882258
230	0x3a1d9961	0.000601193
231	0xbd365f4e	-0.044524483
232	0xbcabc396	-0.020967286
233	0xbd378b5e	-0.044810645
234	0x3cffd64b	0.031230113
235	0xbb8d31e3	-0.0043089255
236	0xbcdb195a	-0.026745487
237	0xbb569d94	-0.0032747732
238	0x3d32a0dd	0.043610442
239	0x3d6f2617	0.058385935
240	0xbd868120	-0.065675974
241	0x3d115ef3	0.03549094
242	0x3d6f5a70	0.058435857
243	0xbd81a9fd	-0.06331251
244	0xbd5ca367	-0.05386677
245	0xbc35e2a1	-0.011101396
246	0x3d4f1bcc	0.05056362
247	0xbd2725df	-0.0408076
248	0x3d693b3a	0.05694125
249	0x3d5d17f5	0.053977925
250	0x3d2ab184	0.0416732
251	0xbc0fd781	-0.0087794075
252	0xbd801df0	-0.0625571
253	0xbd539b88	-0.051661998
254	0xbd8cec49	-0.06881005
255	0x3caf972d	0.02143439

module.model.2.model.0.bias f4 [64]
0	0x3a8699f9	0.0010269276
1	0x3a633e8e	0.0008668684
2	0x3a5caade	0.0008417795
3	0x3a99f901	0.0011747183
4	0x3a8d93a3	0.0010801445
5	0x3a82bdb8	0.0009974753
6	0x3a39ba87	0.00070849847
7	0x3a909a11	0.0011032243
8	0x3a804a17	0.0009787705
9	0x3a36d9c5	0.0006975199
10	0x3a973736	0.001153684
11	0x3a8e3d4d	0.0010852009
12	0x3a93e0c7	0.0011282199
13	0x3a88d447	0.001043924
14	0x3a8832ed	0.0010391154
15	0x3a748696	0.0009327916
16	0x3a95fad5	0.0011442552
17	0x3a7d5041	0.0009663143
18	0x3a90047b	0.0010987663
19	0x3a80e1f0	0.000983296
20	0x3a7a6fc4	0.00095533975
21	0x3a1c2b66	0.00059573946
22	0x3a4c9e15	0.00078055385
23	0x3a8e8c45	0.0010875544
24	0x3a885ec8	0.0010404224
25	0x3a9ea5f7	0.0012103905
26	0x3a6b109e	0.0008967015
27	0x3a9daa28	0.001202886
28	0x3a919282	0.0011106285
29	0x3aa706a1	0.0012743064
30	0x3a8612e5	0.001022902
31	0x3a96f946	0.0011518381
32	0x3a843f31	0.0010089633
33	0x3a74f222	0.0009343942
34	0x3a774df1	0.00094339164
35	0x3a84405c	0.0010089981
36	0x3a891604	0.0010458832
37	0x3a36dc1b	0.00069755473
38	0x3a5f5cd7	0.0008520609
39	0x3a8ebdcc	0.0010890304
40	0x3a7b101c	0.00095772906
41	0x3a22a980	0.0006205067
42	0x3a8c7811	0.0010716935
43	0x3aa2555f	0.0012385062
44	0x3a92cd51	0.0011200105
45	0x3aae6ab4	0.0013306946
46	0x3a4cf533	0.000781852
47	0x3a785495	0.0009473053
48	0x3a6fbe00	0.00091454387
49	0x3aa21a34	0.0012367428
50	0x3a84062d	0.0010072641
51	0x3a3ebcc6	0.0007276054
52	0x3a9a4b15	0.0011771644
53	0x3a758b6d	0.00093667844
54	0x3a779a70	0.0009445315
55	0x3a6c1dfa	0.00090071524
56	0x3a7a2ab8	0.0009543109
57	0x3a7327ca	0.00092756434
58	0x3a95be1a	0.0011424453
59	0x3a82b77c	0.0009972895
60	0x3a533a67	0.0008057714
61	0x3a8bc727	0.001066421
62	0x3a8d29f2	0.0010769947
63	0x3a668310	0.00087933335

module.model.2.model.1.weight f4 [64]
0	0x3f7fc47d	0.9990919
1	0x3f8007e3	1.0002407
2	0x3f804033	1.0019592
3	0x3f8003b0	1.0001125
4	0x3f7f9d57	0.99849457
5	0x3f7fc543	0.9991037
6	0x3f803c3d	1.0018383
7	0x3f8026bb	1.001182
8	0x3f7fa1d3	0.998563
9	0x3f80311a	1.0014985
10	0x3f7f9a41	0.9984475
11	0x3f7f89b4	0.99819493
12	0x3f7fc2b4	0.9990647
13	0x3f7fafc2	0.9987756
14	0x3f8022dd	1.001064
15	0x3f802b29	1.0013171
16	0x3f7fa234	0.9985688
17	0x3f802755	1.0012003
18	0x3f7fb32b	0.99882764
19	0x3f8020e2	1.0010035
20	0x3f8001f8	1.0000601
21	0x3f803de6	1.001889
22	0x3f803771	1.0016919
23	0x3f7fb85b	0.9989068
24	0x3f80064c	1.0001922
25	0x3f7fa96c	0.9986789
26	0x3f7fd18a	0.99929106
27	0x3f7f84fa	0.9981228
28	0x3f802ce1	1.0013696
29	0x3f8039ea	1.0017674
30	0x3f8027bf	1.001213
31	0x3f7fccb9	0.99921757
32	0x3f7fdb3f	0.9994392
33	0x3f7fb0da	0.9987923
34	0x3f7fed42	0.999714
35	0x3f7ff131	0.99977404
36	0x3f7f94bc	0.99836326
37	0x3f8033d5	1.0015818
38	0x3f8026af	1.0011805
39	0x3f7fe671	0.99961
40	0x3f7fb82d	0.99890405
41	0x3f8039ee	1.0017679
42	0x3f7fd827	0.999392
43	0x3f7fc665	0.999121
44	0x3f7f8c48	0.9982343
45	0x3f7f83c6	0.99810445
46	0x3f80141e	1.0006139
47	0x3f8002f9	1.0000907
48	0x3f7ff886	0.9998859
49	0x3f7f9745	0.99840194
50	0x3f8012a6	1.0005691
51	0x3f803d91	1.0018789
52	0x3f7f8ad5	0.99821216
53	0x3f801676	1.0006855
54	0x3f7fb97f	0.9989242
55	0x3f803469	1.0015994
56	0x3f7faf30	0.9987669
57	0x3f801c2d	1.0008599
58	0x3f7f9e1b	0.99850625
59	0x3f7f94c5	0.9983638
60	0x3f80365e	1.0016592
61	0x3f7f9154	0.9983113
62	0x3f7f8651	0.99814326
63	0x3f801fb5	1.0009676

module.model.2.model.1.bias f4 [64]
0	0xba89c34e	-0.0010510476
1	0x3a1ff501	0.0006101877
2	0x3aea3e5c	0.0017871368
3	0xba7fabed	-0.0009753097
4	0xbab6d170	-0.0013947915
5	0xbac21056	-0.0014805894
6	0x3afd7b91	0.0019339194
7	0x3ad0bd8f	0.0015925633
8	0x394730b9	0.0001899627
9	0x3adc3b4c	0.001680234
10	0xbac8f0e5	-0.0015330581
11	0xbaf74be7	-0.0018867225
12	0xba9494c3	-0.0011335838
13	0xbad538d0	-0.0016267542
14	0x3966443c	0.00021959929
15	0xba0cec57	-0.00053757936
16	0xbad4fe7a	-0.0016250156
17	0x3af186ad	0.0018426977
18	0xbad5d304	-0.0016313498
19	0x3a268c75	0.0006353327
20	0x3ae90ae6	0.0017779737
21	0x3aeaa712	0.0017902574
22	0x3a85da63	0.0010212179
23	0xbaf8fb76	-0.001899584
24	0x3ad31dc7	0.0016106897
25	0xb88c8032	-6.6995985e-05
26	0xbaf24c10	-0.0018485803
27	0xba9ef7ea	-0.0012128328
28	0x3ac56b42	0.0015061873
29	0x3ab27ae8	0.0013616951
30	0x3a45a1c2	0.00075390574
31	0xbaacd274	-0.0013185279
32	0xba8e9c89	-0.0010880391
33	0xb8233d30	-3.8919214e-05
34	0x3ab518ac	0.0013816557
35	0xba3680a0	-0.00069619156
36	0xbaa6c43d	-0.0012723278
37	0x3af0a3a6	0.0018359318
38	0x3ab3198e	0.0013664232
39	0xba88a253	-0.0010424353
40	0x3a449089	0.0007498344
41	0x3adfc566	0.0017072379
42	0xb93b3e1a	-0.00017856844
43	0xbad99c6d	-0.0016602405
44	0xbaeeef14	-0.001822921
45	0xbaf0fec0	-0.0018386468
46	0x3ad7b3bc	0.0016456763
47	0x39ed6712	0.00045280956
48	0x3a4a5f99	0.00077199336
49	0xbadba4e8	-0.001675752
50	0xb63b8bfd	-2.7946655e-06
51	0x3af0bbc2	0.0018366503
52	0xbae31a8f	-0.0017326641
53	0x38224c84	3.869507e-05
54	0xba8b8382	-0.0010644051
55	0x3abf8306	0.0014611192
56	0x3a70d448	0.0009186906
57	0x3a563d8b	0.0008172623
58	0xbae94b17	-0.0017798868
59	0xbaf4502c	-0.0018639616
60	0x3ae1cb36	0.0017226699
61	0xbad49929	-0.0016219962
62	0xbae11606	-0.0017172701
63	0x3aa3b515	0.001248988

module.model.2.model.1.running_mean f4 [64]
0	0x3cb88381	0.022523643
1	0xbdea19ed	-0.11430726
2	0x3cbf343a	0.023340333
3	0x3f67d2ce	0.9055604
4	0x3e3514a0	0.17683649
5	0x3e54110e	0.20709631
6	0xbec9d419	-0.3941963
7	0x3ea2faf5	0.3183209
8	0xbea28135	-0.31739202
9	0xbda054a8	-0.07828647
10	0xbebb287a	-0.3655432
11	0x3e0b8d62	0.13628152
12	0xbc7c12d9	-0.015385353
13	0xbe42b180	-0.19013023
14	0x3ec67612	0.38761955
15	0x3ed39be1	0.41329864
16	0xbd83b61e	-0.064312205
17	0xbe12e63f	-0.14345644
18	0xbdcc51ce	-0.099765405
19	0xbd0a7875	-0.033806283
20	0xbf0f3a53	-0.5594837
21	0xbe88c7bd	-0.26714888
22	0xbcef8f94	-0.029243268
23	0xbd22e304	-0.03976728
24	0x3e4441a5	0.19165666
25	0xbee92d0e	-0.45542186
26	0x3eedb476	0.46426743
27	0xbebf3f34	-0.37352908
28	0x3ee49630	0.44645834
29	0x3edcebae	0.4314856
30	0x3d1c80d1	0.038208786
31	0xbd4941d0	-0.04913503
32	0x3ec80172	0.39063603
33	0x3ae80ccc	0.0017704009
34	0x3eced589	0.4039729
35	0xbe28881b	-0.1645817
36	0xbd470378	-0.048587292
37	0xbf52d492	-0.82355607
38	0xbcac1ba2	-0.02100927
39	0x3d82d82c	0.06388888
40	0xbe2d89b6	-0.16947064
41	0x3d1fd34c	0.039019868
42	0x3e98c6f2	0.29839283
43	0x3e9ebf33	0.31005248
44	0xbea31bcb	-0.31857142
45	0xbe030244	-0.12793833
46	0xbe928c87	-0.2862284
47	0x3e1b523f	0.15168093
48	0x3c591c86	0.013251429
49	0xbdf34d69	-0.11879999
50	0x3e989acc	0.298056
51	0xbe03dbaa	-0.12876764
52	0xbe2e5881	-0.17025949
53	0xbd857a02	-0.06517412
54	0xbe105938	-0.14096534
55	0x3ef56ea9	0.4793599
56	0x3ebaaf46	0.36461848
57	0x3b0e4775	0.0021710072
58	0xbe91e27b	-0.28493103
59	0xbca68c78	-0.020330653
60	0x3db18cf4	0.08669463
61	0xbe239613	-0.15975218
62	0x3ea543e5	0.32278362
63	0x3d8e8396	0.06958692

module.model.2.model.1.running_var f4 [64]
0	0x3e57a01d	0.21057172
1	0x3f0ed784	0.557976
2	0x3e4e2caf	0.20134233
3	0x3edb404a	0.42822486
4	0x3f3dfefb	0.74217194
5	0x3f1ddc3a	0.61664164
6	0x3fbc8867	1.4729127
7	0x3e26f9b5	0.16306193
8	0x3f373f0c	0.71580577
9	0x3e7ade1d	0.24498792
10	0x3ec34a40	0.38142586
11	0x3e832901	0.2561722
12	0x3e4a5a25	0.1976095
13	0x3e9b7a2b	0.30366644
14	0x3ece9c0a	0.40353423
15	0x3dd82af9	0.105550714
16	0x3fd29a79	1.6453391
17	0x3e9f7c9a	0.3114975
18	0x3f98ac3c	1.1927562
19	0x3e7c4f62	0.24639657
20	0x3ee3151f	0.44352052
21	0x3f4a1bc4	0.78948617
22	0x3d6a4eae	0.05720394
23	0x3e09ab3e	0.1344423
24	0x3f926e1a	1.143985
25	0x3eb34e0f	0.3502049
26	0x3dc892b1	0.09793604
27	0x3e00894f	0.12552379
28	0x3e836d8d	0.25669518
29	0x3e93aac4	0.2884122
30	0x3e897fd4	0.26855338
31	0x3dcb27f6	0.09919731
32	0x3fafe0fd	1.3740536
33	0x3e207b30	0.15671992
34	0x3eb558d5	0.35419336
35	0x3e88f48c	0.26749074
36	0x3f1f1d39	0.62153965
37	0x3f57c847	0.84289974
38	0x3ed8f275	0.4237248
39	0x3dfeb171	0.12436188
40	0x3f212b74	0.6295693
41	0x3f12ac5e	0.5729426
42	0x3e388a2d	0.1802146
43	0x3f138fd0	0.57641315
44	0x3e77d16e	0.24200985
45	0x3e7430bd	0.23846717
46	0x3f364db3	0.7121231
47	0x3e3c3e1a	0.18383065
48	0x3e0d889b	0.13821642
49	0x3e3caffa	0.18426505
50	0x3dd5c43b	0.104378186
51	0x3e018900	0.12649918
52	0x3f190b49	0.59782845
53	0x3f25dddb	0.6479165
54	0x3d96e354	0.07367578
55	0x3f8da509	1.106599
56	0x3f6ec2b8	0.9326587
57	0x3e222aba	0.15836611
58	0x3e2a6c97	0.16642986
59	0x3e480e3a	0.19536677
60	0x3f663009	0.89917046
61	0x3e68892c	0.22708577
62	0x3f3b25b8	0.7310443
63	0x3eba195a	0.36347467
