output_gd_deblur_noise/ckpt/resnet_epoch39.pth (torch, 641727 bytes, 31 tensors)

module.model.0.weight f4 [64, 1, 1, 1]
000000 9b 7e 17 3d 40 0e da bd fc 6b 8a 3e 4b 64 48 3e
       0.036985975 -0.10647249 0.2703551 0.19569509
000010 85 a6 cc 3d 1b a9 08 3e 06 fc 56 3d e8 dc 59 3e
       0.099926986 0.13345759 0.052486442 0.21275675
000020 a3 b9 14 3d 0e 3b 2a be 50 ac 05 be 52 a5 7d 3e
       0.03630985 -0.1662409 -0.13054013 0.24770096
000030 8d 19 e8 3d 04 9e 92 3e da c6 68 bb 26 f3 b5 3b
       0.113329984 0.2863618 -0.0035518915 0.005552667
000040 e3 47 0e be bb b0 07 bd 80 dd 3d 3e 33 65 8e be
       -0.1389461 -0.033127528 0.18541527 -0.27811584
000050 1d 2d 51 3e 74 66 1e 3e 52 b3 cb 3d f9 02 2c 3d
       0.20427366 0.1546877 0.09946312 0.041995022
000060 d5 a8 9b 3e f2 1a 60 be bc d0 d3 bd 22 20 2f 3e
       0.30402246 -0.21885279 -0.10342547 0.17102101
000070 b2 f5 8e be 8b 93 25 3e 8c 88 7a be f5 49 38 3e
       -0.27921826 0.16169564 -0.24466151 0.17996962
000080 29 e7 81 3e 31 92 96 3e 75 d3 69 3e f0 f9 dc bd
       0.25371674 0.2940841 0.2283457 -0.10789859
000090 c2 b3 87 be 06 f5 c0 bc 88 7e 39 3e 9d 0d 28 bc
       -0.26504332 -0.023554336 0.18114674 -0.010257152
0000a0 44 8a d8 3d 0a 18 8c be a3 d5 4c bd ea 57 98 3e
       0.10573247 -0.2736209 -0.050008427 0.29754573
0000b0 5e 40 5f be 13 61 6c 3e b6 51 80 be e6 76 90 be
       -0.21801898 0.23083906 -0.2506234 -0.28215712
0000c0 59 ff b2 3d d9 9e 10 3e 9a 02 15 3e 6b 2e f0 bd
       0.0874011 0.14123096 0.14551774 -0.117276035
0000d0 8c b7 2f be d6 05 d4 3d 2a 56 ed 3d fa 1a b3 3d
       -0.17159861 0.103526756 0.115887 0.0874538
0000e0 3c 43 c5 3b db ac 7a 3e 87 8c 8e be 51 f4 bc bd
       0.006019978 0.24480002 -0.2784159 -0.09226287
0000f0 dd fa 30 3e 69 f1 e2 bd ec e5 38 be 7f af d3 3c
       0.17283197 -0.110812016 -0.18056458 0.025840519

module.model.0.bias f4 [64]
000000 ca f1 96 3a 8b da 5c b9 d0 7d 2f b8 05 ae 3a ba
       0.001151615 -0.00021062249 -4.1840423e-05 -0.0007121268
000010 15 13 cd 39 e4 52 a4 b7 fd a4 d6 ba 09 0e 83 3a
       0.00039114864 -1.9588922e-05 -0.0016376075 0.000999869
000020 d5 17 22 3a ee bc 05 3b 42 33 f9 39 18 87 00 3b
       0.0006183361 0.00204068 0.0004753117 0.0019611772
000030 f1 47 03 3b fc 0f 59 3a 07 38 41 38 0f e3 c0 3a
       0.0020031894 0.0008280275 4.6066965e-05 0.0014716106
000040 b5 ff 26 3b 8a 46 33 3b 7f a6 58 ba 9c e0 5d 39
       0.0025482003 0.0027355277 -0.0008264556 0.00021159876
000050 57 b1 14 3b 65 e3 99 b9 d1 72 fc 3a b4 aa 9f b9
       0.002268871 -0.00029351856 0.0019260292 -0.00030454027
000060 2d e9 36 ba db 92 2f 3a fc 00 79 3a 6d fd ac 3a
       -0.0006977495 0.00066976034 0.0009498743 0.0013198085
000070 f7 62 b6 3a 5a 8f e1 b9 66 16 98 b8 98 6c 73 b9
       0.0013914992 -0.0004302215 -7.252097e-05 -0.0002321474
000080 42 0e 05 39 4e 8d 2d 39 49 b3 28 3a 0f 60 47 ba
       0.0001268918 0.00016551206 0.0006435407 -0.00076055614
000090 23 dc 24 3b 3d a7 09 3b 27 87 1a 3b 4f ea 5b 3a
       0.0025155626 0.0021004223 0.0023579092 0.0008389102
0000a0 17 bd 1e 3a 17 ac 91 3a b3 8f fe 3a 77 65 ca 3a
       0.0006055398 0.0011113909 0.0019421488 0.0015441616
0000b0 d7 49 68 3b 5c 40 e3 37 42 59 24 38 c1 f0 a2 3a
       0.0035444403 2.7090478e-05 3.9183775e-05 0.0012431369
0000c0 bf 0a 14 3b 28 a2 3f 3b 2d 9d 44 3a 71 cf ab 3a
       0.0022589413 0.002924094 0.00075002277 0.0013108087
0000d0 15 50 ce 39 f0 02 a8 3a a4 f6 1c 39 fa 95 8b ba
       0.00039351048 0.0012818258 0.000149692 -0.0010649555
0000e0 7d c9 5e 3a 94 55 c2 ba 09 18 41 3b 25 f2 d3 ba
       0.0008498652 -0.001482653 0.002946379 -0.0016170187
0000f0 ef 7e 78 3a 9e 96 1a 3b 18 16 05 b9 73 3a 0a ba
       0.0009479364 0.002358831 -0.00012692099 -0.0005272992

module.model.1.model.0.weight f4 [64, 64, 3, 3]
000000 49 e1 07 3d 8a fe 70 bc 95 e7 1f bd 55 d3 36 bd
       0.033173833 -0.014709124 -0.039039213 -0.044635136
000010 75 c8 53 3d 9c df 8f 3d 01 73 36 bd ae f5 e2 3c
       0.051704843 0.07025072 -0.04454327 0.02770504
000020 f0 c5 81 3d 0b cb ff bc c2 ca 19 3d 45 e2 3a bd
       0.06336582 -0.031224748 0.03754688 -0.045625944
000030 cc 91 92 bc 6a 9a 84 bd af 31 83 bd 45 dc 35 bc
       -0.017891787 -0.06474765 -0.06405961 -0.01109988
000040 ac ab 7a 3d 73 a0 d7 bc 65 74 62 3c 7b 84 80 3d
       0.061198875 -0.026321625 0.013821696 0.06275269
000050 91 28 49 3d a4 a0 30 3d cc 7e 00 bd 24 ed 8a 3c
       0.049110953 0.04312195 -0.031370923 0.01695878
000060 d6 5f aa bc 7d 3e 54 bd 1f dd 28 bd 43 95 e3 bc
       -0.020797651 -0.051817406 -0.041226503 -0.027781134
000070 40 da 72 bd 08 f8 8d 3d a6 42 74 3d c2 55 10 3d
       -0.05929017 0.06932074 0.059633873 0.035238035
000080 b4 80 88 bd 73 0f 6c bc fe 12 fa bc 2e a4 61 3d
       -0.06665173 -0.01440798 -0.030526634 0.055088215
000090 a2 d4 af ba e6 1d 5c 3d 7a 1e 47 3d eb 8f a2 3c
       -0.001341481 0.05373945 0.04861305 0.019844016
0000a0 0b f6 5d bd b1 b2 fb bc 51 79 f8 3c d1 22 7e bd
       -0.054189723 -0.030724855 0.030331286 -0.062044922
0000b0 5d e3 72 bd 65 3e 9f bc 5d 55 8d bd d9 f4 81 3c
       -0.05929886 -0.019438932 -0.069010474 0.015863823
0000c0 e5 49 9b bb 57 af 66 3d 85 de 54 bd 04 ec d2 bc
       -0.0047390335 0.05631956 -0.051970024 -0.025747307
0000d0 57 05 a2 3c 7c e6 37 3c 7d e4 6d bd 91 16 1b 3d
       0.019777937 0.011224385 -0.05807923 0.037863318
0000e0 8d 0c 0e 3d 03 04 fe ba 9d c8 82 bc ff 93 4e bd
       0.034679938 -0.0019379858 -0.0159648 -0.05043411
0000f0 b3 65 02 3c 0f f8 35 bd a1 10 87 bd 12 6d 8b bd
       0.007958817 -0.04442602 -0.065949686 -0.06807913
000100 ba 2a 82 bd 09 32 90 bd 68 1d 4a bc 54 9a ed 3c
       -0.06355806 -0.070407934 -0.012336113 0.029004253
000110 51 99 88 3d ef a8 7a 3d 44 2a 7a 3c 4b 83 05 3c
       0.06669868 0.061196264 0.015268866 0.008148978
000120 7e 6b 83 3d a3 d5 f6 bb 18 61 c1 3c 1b 60 e8 3c
       0.06416987 -0.0075327917 0.023605868 0.02836614
000130 a0 1a 1c bd 9c 2d 28 bd 98 cb 59 3d ec 70 34 3c
       -0.03811133 -0.04105912 0.053172678 0.011013251
000140 6b a4 a4 3c 1b 48 84 bd 55 2b 7a 3d e2 43 3a 3d
       0.020097932 -0.064590655 0.06107648 0.045474894
000150 65 52 4e bd 32 ef 6b bd d1 8a 8f bd 19 49 91 bd
       -0.050371546 -0.05760116 -0.07008899 -0.070940204
000160 86 5d 35 3d 66 4d 60 bd b1 23 ca 3c c6 99 9c 3c
       0.044278644 -0.054761313 0.024675222 0.019116294
000170 7a c8 82 bd 0b d3 ef bb 08 d3 2d 3c 59 2c d5 3c
       -0.06385894 -0.0073188595 0.010609396 0.026022123
000180 77 95 63 3d ac 4a 55 3d 72 c5 69 3d a9 15 8c ba
       0.055562463 0.052073166 0.057073064 -0.0010687608
000190 bf 40 8d bd f7 f8 ea 3c 24 19 fc 3c 5e c7 76 bd
       -0.06897115 0.028683169 0.030773707 -0.060248725
0001a0 40 0e 95 3c e6 e3 3f 3d e6 44 ad bc 3b c2 74 bd
       0.018195271 0.0468482 -0.021151017 -0.059755545
0001b0 8e 9b 85 3d 8b 60 37 bd 0b ab 54 bd 18 7f 65 3d
       0.0652381 -0.044769805 -0.05192093 0.05602941
0001c0 6b 1f 35 3d 7c 82 95 bc be 59 7b bd 7a eb 69 3c
       0.044219416 -0.018250696 -0.06136488 0.014277333
0001d0 3a f6 40 3d fd f8 6c bc b7 d3 4a 3d 50 2d 3e 3d
       0.04710982 -0.01446366 0.049518313 0.046429932
0001e0 8c 56 10 3d e1 23 95 3d cd b7 33 bd 93 0d 1a 3b
       0.035238788 0.07282234 -0.043876458 0.0023506626
0001f0 26 08 05 bd 09 22 d6 ba 15 35 ce bc 4b 2c 36 bd
       -0.032478474 -0.0016337048 -0.025171796 -0.044475835
000200 44 80 17 38 cb 08 e6 3c 7a 90 09 3d ec 22 91 bd
       3.6120662e-05 0.028080365 0.03358505 -0.07086739
000210 2f e9 1b bd 34 7b 11 3d a8 3e 83 bd 10 ff 12 bd
       -0.038064178 0.035517886 -0.06408435 -0.035887778
000220 50 4f d9 3c 4e 20 c4 3c 4f e7 b9 bc 86 00 70 bd
       0.026527077 0.023941185 -0.022693304 -0.05859425
000230 4f c3 8f 3d f6 70 61 3d 5d 84 78 bd 34 fb 82 bd
       0.07019674 0.05503937 -0.060673106 -0.063955694
000240 f4 0b 16 bd c1 b1 8e bc c3 82 87 bc 4e ec 85 3c
       -0.036632493 -0.017418744 -0.016541844 0.01634803
000250 ef f7 5d bd a8 9a 6c 3d 48 90 87 3d 01 1e a5 bc
       -0.054191526 0.05776468 0.06619316 -0.020155909
000260 26 36 10 3d 6c e0 20 3c 57 c8 b3 bb 0e 2e 1e bd
       0.03520789 0.009819131 -0.005486529 -0.03861814
000270 78 83 a3 3b d0 9a 42 3d 78 b1 09 3c a3 ef 65 3b
       0.0049900375 0.047510922 0.008404128 0.0035085462
000280 7e c7 3c 3d f0 2b 2a 3d 06 7a 87 bd e5 a9 e0 3c
       0.046088688 0.04154581 -0.06615071 0.027424762
000290 9a b2 78 bd 28 79 85 bd 2d 84 b3 bc 84 42 87 3d
       -0.060717203 -0.06517249 -0.021913612 0.06604484
0002a0 d0 a6 f2 3b ba ec 0a bd bc 87 d9 3c f7 2b 44 bd
       0.0074051395 -0.033917166 0.026553981 -0.04789349
0002b0 25 af 7f 3c 9a 35 29 bd 7d ca 67 3d 71 f8 43 3d
       0.015605723 -0.041310884 0.056589592 0.047844354
0002c0 4f 6b 69 3d e6 62 16 3b d9 47 4b bd b7 7d 40 3b
       0.056987103 0.0022947132 -0.049629066 0.0029371807
0002d0 ba 5f ad bc c0 57 62 3d 2f e5 04 3d 7a 64 f8 3b
       -0.02116381 0.055259466 0.03244513 0.007580337
0002e0 45 9e b2 3c c8 40 27 bd 11 75 84 3d 59 74 1d bb
       0.021803984 -0.040833265 0.06467641 -0.0024025647
0002f0 30 20 e4 3b 5b 4f 93 3d f6 0a 9a 3c 8b 4c 6a 3d
       0.006961845 0.0719287 0.018804055 0.057201903
000300 60 eb 06 bc f2 cd 67 bd 00 ed d3 bc 3f 61 dd 3c
       -0.008234829 -0.05659289 -0.025869846 0.02702391
000310 b4 a8 83 bc e8 a8 cb bc 6f 83 08 bd 10 13 6d 3d
       -0.016071655 -0.024860814 -0.03332847 0.057879508
000320 8b b0 8b 3d ee ec e1 3c 43 a8 81 3d 8c b0 34 bb
       0.06820782 0.027578797 0.063309215 -0.002757105
000330 5a 2a 90 bd 4f 25 38 3d 3f cc 64 3d 3d fc 20 3c
       -0.07039328 0.044957455 0.055858847 0.009825763
000340 89 b9 8b bc 0e 03 aa 3c d0 f5 88 3c f3 6d 71 3d
       -0.017056243 0.02075341 0.016718775 0.058942746
000350 ca 3e f2 3b 6c 08 b9 bc 76 ed 2d 3d 8f 19 7b bd
       0.007392739 -0.022587024 0.04246279 -0.06130367
000360 64 64 4f bd b6 50 38 bd 2a 9d 67 3d 34 c2 0b 3d
       -0.05063285 -0.044998847 0.056546368 0.034120753
000370 cc dd 6c 3b 2d e7 0e bd db 65 2e 3d bf aa ac bc
       0.0036142943 -0.034888435 0.042577606 -0.021077512
000380 24 c4 1e 3d 2c fc 57 bd 67 96 08 3d e0 92 50 3d
       0.038761273 -0.052730724 0.03334656 0.05092132
000390 8c 89 68 bd 3d c2 c7 bc 73 c6 cf 3c 1b dd 83 bd
       -0.0567718 -0.024384612 0.025363183 -0.06438657
0003a0 b3 ce 88 bd 00 8e 7a bd 20 5b 4a bd e1 fc 23 3d
       -0.0668005 -0.061170578 -0.04940331 0.040036086
0003b0 0b b7 8a bd 49 2b b3 bc 8f ab 69 bb 23 74 6c bd
       -0.06773194 -0.021871226 -0.0035655235 -0.057727944
0003c0 bb 96 1a 3d ff 08 c8 bb cb b3 af bc e7 05 6b 3d
       0.037741404 -0.006104588 -0.021448037 0.057378676
0003d0 d2 5c 47 bd 37 f6 97 3c fc 3f fd 3c 33 6d 4e 3d
       -0.048672505 0.018550022 0.0309143 0.05039711
0003e0 5c aa 1c bd 6f 5f 72 3b 9a 75 1b bd d3 92 63 bd
       -0.038248405 0.0036983152 -0.03795395 -0.055559944
0003f0 f6 18 71 bc 04 1f 41 bc 5c f2 5c bc fb bf 20 3d
       -0.014715424 -0.01178718 -0.013485517 0.039245587

module.model.1.model.0.bias f4 [64]
000000 17 a5 ba 3a 29 15 6b 3a e4 8a 57 3a 1c a4 38 3a
       0.0014239874 0.00089676917 0.00082222954 0.0007043497
000010 0a a0 2c 3a a1 74 b1 3a c2 f3 9e 3a d7 a3 61 3a
       0.0006585127 0.0013538786 0.0012127089 0.0008607483
000020 96 d4 97 3a fd 19 74 3a b5 37 3c 3a 54 c4 a8 3a
       0.0011583741 0.0009311734 0.0007179932 0.0012875893
000030 76 e0 87 3a cf 6c 33 3a e7 31 67 3a 5f 36 ae 3a
       0.0010366577 0.0006844522 0.0008819387 0.001329135
000040 7b 07 7d 3a 58 c4 5f 3a 3c e2 40 3a 9b 22 5e 3a
       0.0009652299 0.00085360324 0.00073579303 0.00084737845
000050 00 d4 c0 3a 31 9f b0 3a d3 b2 93 3a 5f 77 70 3a
       0.0014711618 0.0013475177 0.0011268504 0.0009173061
000060 53 38 8f 3a 4e 04 c9 3a 14 2d a8 3a 92 7a 88 3a
       0.001092682 0.0015336366 0.0012830817 0.0010412505
000070 45 31 9d 3a 7a 58 65 3a b7 71 79 3a 0a 40 61 3a
       0.0011992833 0.0008748841 0.0009515541 0.00085926114
000080 50 b4 75 3a b3 f4 8c 3a 95 2e 9e 3a 6d 97 56 3a
       0.0009372877 0.0010754078 0.0012068326 0.00081860163
000090 09 7b 9e 3a d2 c0 92 3a 37 e9 b1 3a 55 4b 9b 3a
       0.0012091111 0.0011196381 0.0013573532 0.0011848012
0000a0 16 39 55 3a 33 b5 a7 3a e4 89 a7 3a a1 2b 82 3a
       0.00081338116 0.001279509 0.0012782183 0.0009931215
0000b0 71 c2 3b 3a f8 c0 89 3a aa db 71 3a c7 e4 92 3a
       0.0007162458 0.001050978 0.0009226153 0.0011207097
0000c0 b9 68 b4 3a 52 6a 86 3a d2 e5 ad 3a ab 7c ac 3a
       0.001376412 0.0010255075 0.0013267344 0.0013159713
0000d0 79 89 80 3a 28 37 96 3a 32 9a 84 3a 65 ac aa 3a
       0.0009806595 0.001146053 0.0010116755 0.0013021348
0000e0 77 d7 15 3a 5a ed 50 3a 3e 7d 80 3a 64 92 15 3a
       0.00057160057 0.00079699385 0.000980295 0.0005705713
0000f0 56 fe e4 3a 38 ce 95 3a c3 08 79 39 34 84 88 39
       0.0017470818 0.0011429256 0.00023749754 0.0002603844

module.model.1.model.1.weight f4 [64]
000000 e9 03 80 3f 14 4d 80 3f f8 40 80 3f fb b0 7f 3f
       1.0001193 1.0023522 1.0019827 0.99879426
000010 6a 36 80 3f fb db 7f 3f 62 2b 80 3f 94 04 80 3f
       1.0016606 0.9994504 1.0013239 1.0001397
000020 c2 2e 80 3f 71 ac 7f 3f 6d 21 80 3f 98 5f 7f 3f
       1.0014269 0.998725 1.0010201 0.9975524
000030 32 34 80 3f 12 e1 7f 3f ff 3d 80 3f d0 33 80 3f
       1.0015929 0.99952805 1.001892 1.0015812
000040 d1 3e 80 3f 4f a6 7f 3f 74 29 80 3f 09 f6 7f 3f
       1.001917 0.9986314 1.001265 0.99984795
000050 bf 04 80 3f 2b 8d 7f 3f 9e b3 7f 3f 45 78 7f 3f
       1.0001448 0.9982478 0.9988345 0.9979289
000060 0c 33 80 3f 48 a7 7f 3f 3c cf 7f 3f e8 18 80 3f
       1.0015578 0.99864626 0.9992559 1.0007601
000070 85 8c 7f 3f 7f ee 7f 3f e3 54 7f 3f 0a 75 7f 3f
       0.9982379 0.9997329 0.997389 0.9978796
000080 85 6c 7f 3f 4b 85 7f 3f f9 b7 7f 3f f9 07 80 3f
       0.9977496 0.99812764 0.99890095 1.0002433
000090 72 dd 7f 3f 57 f0 7f 3f fb 00 80 3f 32 af 7f 3f
       0.99947274 0.99976104 1.0000299 0.998767
0000a0 ce 0a 80 3f 76 26 80 3f 60 4e 80 3f 1d 83 7f 3f
       1.0003297 1.0011737 1.0023918 0.9980944
0000b0 a6 0c 80 3f 08 ad 7f 3f b6 14 80 3f d6 28 80 3f
       1.000386 0.998734 1.000632 1.0012462
0000c0 55 08 80 3f 7d a4 7f 3f bc 96 7f 3f b3 8f 7f 3f
       1.0002543 0.99860364 0.9983938 0.9982864
0000d0 7a 30 80 3f 32 fd 7f 3f c4 e0 7f 3f 08 26 80 3f
       1.0014794 0.9999572 0.9995234 1.0011606
0000e0 d0 31 80 3f 4b 74 7f 3f 75 1f 80 3f 06 09 80 3f
       1.0015202 0.99786824 1.00096 1.0002754
0000f0 a3 89 7f 3f f8 cb 7f 3f fe 45 80 3f d3 34 80 3f
       0.9981939 0.99920607 1.002136 1.0016121

module.model.1.model.1.bias f4 [64]
000000 49 96 ab 3a 2d e6 25 3b f3 57 0d 3b 76 ed bb ba
       0.0013091053 0.0025314197 0.0021567314 -0.0014337737
000010 3d 77 7d 3a b5 a8 82 3a f4 e8 b7 3a 71 65 89 b9
       0.0009668952 0.0009968492 0.0014031217 -0.00026206256
000020 45 66 a4 3a 4b 14 17 bb ad 91 bf 3a 04 28 0a bb
       0.0012542686 -0.0023052867 0.0014615558 -0.002108098
000030 1a a5 93 3a e4 be 23 b9 d7 b2 ee 3a b5 cb 78 b8
       0.0011264414 -0.00015616004 0.0018211257 -5.9317525e-05
000040 ee b5 fa 3a b3 87 62 3a 4a 3a b4 b9 63 cf 4a 3a
       0.0019127706 0.00086414366 -0.00034375704 0.00077365915
000050 5e b0 f6 ba 1b f6 b7 ba af 97 06 bb 72 da dc ba
       -0.0018820872 -0.0014035137 -0.0020537188 -0.001684977
000060 f8 4a d7 3a ae 0c 8d ba df fa 81 ba 4d 7f 0f bb
       0.0016425541 -0.0010761225 -0.0009916684 -0.0021895946
000070 e0 00 00 bb b0 25 9d b8 55 76 f9 ba d5 80 ac ba
       -0.0019531772 -7.493363e-05 -0.0019032458 -0.0013160954
000080 54 9b 6f ba c2 5e c9 b9 91 bb 3c ba 5e 98 20 ba
       -0.0009140272 -0.00038408308 -0.00071995804 -0.000612622
000090 53 6f c5 ba 76 ca ff ba b8 b4 fc ba 17 9f be ba
       -0.0015063084 -0.0019515294 -0.0019279933 -0.0014543262
0000a0 37 55 19 3a 23 29 84 3a 51 3c 12 b9 e4 89 c8 ba
       0.0005849185 0.001008306 -0.00013946115 -0.0015299884
0000b0 34 e2 bf b9 56 d2 c2 b9 b6 b1 ab 3a a0 7b a2 3a
       -0.00036598893 -0.00037159276 0.0013099227 0.0012396462
0000c0 72 a1 bc ba 62 da 00 bb c1 1f db ba a2 0f 29 3a
       -0.0014391376 -0.0019661416 -0.0016717837 0.0006449168
0000d0 3a 75 f7 3a 3d 46 b0 39 ca 7d 5d b9 0a 34 f8 b9
       0.0018879541 0.00033621668 -0.00021123062 -0.00047341018
0000e0 78 e1 f7 b7 9f c3 bf ba d9 d4 25 3a e4 77 14 3b
       -2.9549687e-05 -0.0014630443 0.0006325967 0.0022654468
0000f0 db d8 02 bb 4d 17 0a ba 76 50 38 3b 69 3b 0e 3b
       -0.0019965682 -0.00052677543 0.002812413 0.0021702892

module.model.1.model.1.running_mean f4 [64]
000000 a3 dc 95 39 24 2f af 3a 65 a1 18 3b ba 33 58 ba
       0.00028583882 0.001336549 0.0023289558 -0.0008247454
000010 d5 49 3d ba 41 32 e4 3a f7 d1 83 3b 4c be 85 39
       -0.00072207797 0.0017409996 0.0040228325 0.0002550952
000020 18 4a 7e ba 37 28 73 3b c0 53 b0 3a 89 84 28 3b
       -0.0009700372 0.0037102827 0.0013452694 0.0025713763
000030 8f 06 3c ba cd 35 f5 3a 09 de e9 3a f0 a1 21 3b
       -0.0007172608 0.001870805 0.0017842661 0.0024663173
000040 fa aa 78 3a f9 53 11 3a f1 09 d2 3a e4 19 42 3a
       0.0009485927 0.0005543824 0.0016024691 0.00074043707
000050 81 04 ce ba 75 a2 d7 3a b6 de 83 b9 38 d2 39 3b
       -0.0015717895 0.0016451614 -0.000251522 0.002835406
000060 ae 95 31 ba c7 5d 39 3b 15 4a 9b 3a e5 7f cf 3a
       -0.0006774318 0.0028284655 0.001184764 0.0015830962
000070 14 a7 48 3a f5 06 3e ba fa 62 8d 3b 8a a3 26 3b
       0.0007654291 -0.00072489615 0.0043147774 0.0025427067
000080 c2 39 1e 3a 9e e6 60 b9 a1 08 ee 39 58 b1 88 3a
       0.0006035828 -0.00021448216 0.00045401326 0.0010428829
000090 7e d6 a1 3a d6 9a ac ba 8a 1e 46 3b 14 12 60 3a
       0.0012347249 -0.0013168703 0.0030230605 0.0008547616
0000a0 fc 0e 18 3a 12 50 86 ba 5c 3e 32 3b f8 0d 91 b9
       0.00058005727 -0.0010247251 0.0027197814 -0.00027666963
0000b0 b6 57 66 3a d9 79 9d b9 20 15 c7 ba a6 7f d2 39
       0.00087868737 -0.00030036157 -0.0015188791 0.00040149427
0000c0 bc 9e 01 ba 91 c2 4d 3a 4f 14 68 3b 7a 94 b1 3a
       -0.0004944613 0.0007849122 0.0035412495 0.0013548278
0000d0 92 88 9f 3a 87 3b 5d 3a 96 02 bd 3a a2 25 31 b7
       0.0012171438 0.0008439351 0.0014420326 -1.0558784e-05
0000e0 24 93 d4 b8 9d cb 28 3b 64 82 17 3b 15 e1 1a 3a
       -0.00010136355 0.0025756129 0.002311849 0.00059081736
0000f0 59 21 17 3a f4 34 6e 3b 87 73 75 3a 6d 4a 15 b9
       0.0005765162 0.003634748 0.0009363223 -0.00014237473

module.model.1.model.1.running_var f4 [64]
000000 12 7d c4 3a 48 d4 db 3a 93 15 b5 39 c7 73 b6 39
       0.0014990887 0.0016771639 0.00034539084 0.00034800006
000010 14 bf 37 3a 98 01 a8 39 dc fa 73 3a d8 f6 16 3a
       0.0007009369 0.00032044644 0.00093070953 0.00057588285
000020 b3 08 40 3a dd ad 39 38 92 44 85 3a 89 b5 91 37
       0.0007325515 4.426936e-05 0.001016753 1.736988e-05
000030 d7 d8 03 3a ba 43 74 38 a6 45 f5 39 8f 18 85 38
       0.0005029565 5.823721e-05 0.00046781934 6.3465086e-05
000040 90 b1 e0 3a 85 66 aa 38 c2 ca 74 3a 2e 18 53 39
       0.0017142761 8.1253274e-05 0.00093380746 0.00020131536
000050 33 41 9a 38 82 2c 7f 38 c5 0c 83 39 18 f7 16 38
       7.3554365e-05 6.083819e-05 0.0002499578 3.599291e-05
000060 45 62 83 3a e1 da 04 39 11 a8 88 39 0e 98 43 39
       0.0010023793 0.0001267004 0.0002606516 0.00018653294
000070 5c cb 31 39 86 42 b1 39 9d 59 ac 39 52 b6 58 37
       0.00016955793 0.00033809635 0.00032873164 1.2917053e-05
000080 4c 0e 0d 39 89 41 bc 3a b4 eb 97 38 66 36 d2 3a
       0.00013452134 0.0014362793 7.244144e-05 0.001603794
000090 16 de 43 3a 3b c5 c3 3a da e3 f7 3a e0 e5 3f 39
       0.0007471753 0.0014936099 0.001891251 0.00018300815
0000a0 e5 05 01 3a 09 d1 ef 38 43 06 87 39 1f 2d 98 39
       0.0004921838 0.00011435344 0.00025753872 0.00029025317
0000b0 31 76 cd 39 ad b9 24 39 96 6e dd 39 5e 91 4b 3a
       0.00039188706 0.00015709428 0.00042234798 0.0007765497
0000c0 72 35 93 3a 1d b9 4e 36 74 db 6a 39 c2 b3 1c 38
       0.0011231138 3.0804142e-06 0.00022397732 3.736071e-05
0000d0 fa e0 4a 3b 5a 46 6f 39 48 86 04 3a a7 68 7b 39
       0.003095685 0.00022819024 0.000505541 0.00023976211
0000e0 2c e2 ef 37 8d 31 b3 37 85 fe 8d 3a 42 8a 52 39
       2.859634e-05 2.1361537e-05 0.0010833299 0.00020078666
0000f0 d5 5b ae 39 79 92 30 3a a8 25 86 3a 89 3a d3 39
       0.00033256286 0.00067356933 0.0010234611 0.00040288668

module.model.1.model.3.weight f4 [64, 64, 3, 3]
000000 35 20 82 bd 5f a1 35 3d 3e 92 f3 3c ce e9 2a bb
       -0.06353799 0.04434335 0.02973282 -0.00260793
000010 19 53 39 3d c8 30 6c 3d f6 3f 6d bc 44 bd 9b bc
       0.045245264 0.05766371 -0.0144805815 -0.019011147
000020 7e 9b 21 3d cb 70 0a bd 93 fa 46 3d 5f 46 72 3d
       0.03945493 -0.033798974 0.04857881 0.059149142
000030 41 50 66 3d 53 44 80 3c a5 90 ca bc dd 1a 7a 3c
       0.05622888 0.01565758 -0.024727175 0.015265194
000040 f9 15 de bc 11 38 84 3d b3 cc 61 3c 6f 54 7d bd
       -0.027110087 0.06456006 0.013781714 -0.0618481
000050 ba d5 06 bd b4 f8 5d bd ed 04 18 bb ea 92 81 3d
       -0.03291867 -0.05419226 -0.0023196295 0.0632685
000060 df b6 4f bd 13 77 f1 bc c7 d6 5c 3d 98 b0 92 bd
       -0.05071151 -0.029475724 0.053915765 -0.07162589
000070 6e a7 55 3c 32 90 a7 bc 8c 76 5b bd 84 cc 0c 3d
       0.013040407 -0.0204545 -0.053579852 0.03437473
000080 f0 20 b8 ba a1 f1 a5 bc 41 2e 3c bd 54 3b a6 bc
       -0.0014047902 -0.02025682 -0.04594255 -0.020291962
000090 23 7b ac bc e2 52 ef bc 3f 12 77 3d 1d 85 38 3d
       -0.02105481 -0.029214326 0.060320135 0.04504882
0000a0 cb 89 6b bd 7f f4 c5 3c aa 7a 80 bc d9 8f 9b 3b
       -0.057504456 0.024164436 -0.01568349 0.0047473726
0000b0 15 47 68 3d 30 74 49 bd c1 80 67 bd 43 82 bf 3b
       0.056708414 -0.04918307 -0.056519274 0.005844386
0000c0 3a d3 6e bd 7c 78 b7 bc 60 5a 02 3d d9 95 e6 3c
       -0.05830691 -0.022396319 0.03182447 0.028147625
0000d0 07 79 54 bd 99 f8 95 3d 95 13 77 bb ed 46 6f 3c
       -0.051873233 0.07322807 -0.003770088 0.014604312
0000e0 54 fe 35 bc 78 25 e5 bb 4d f8 47 3d d9 34 2e b9
       -0.011108 -0.006992992 0.048820782 -0.0001661362
0000f0 d2 7e 15 3d 8e 9f 50 3d cf 08 5e b7 88 67 0c bd
       0.0364979 0.050933413 -1.3234282e-05 -0.034278423
000100 b2 ba 8b bd b6 92 4a bd 4a d2 86 bd c3 ae 4c 3d
       -0.06822719 -0.04945632 -0.06583078 0.049971353
000110 ae 31 8c bd 9c 87 91 3d fd ad 0d 3d fc 82 fa bc
       -0.06845413 0.071059436 0.034589756 -0.030580036
000120 b8 63 74 3d 54 5f 9f 3c f0 eb 22 bc 34 77 74 3c
       0.05966541 0.019454636 -0.009943947 0.014920998
000130 80 71 30 bd af 81 72 3c a3 38 23 ba c5 c8 81 bd
       -0.043076992 0.014801427 -0.0006226396 -0.06337122
000140 a6 64 04 3d 8a b9 91 bc 03 10 27 bd 0e bf 84 bd
       0.03232255 -0.017788667 -0.040786754 -0.06481753
000150 60 51 78 3d 7c e8 9b bc ad b6 28 bd d3 a2 25 3d
       0.06062448 -0.019031756 -0.04118984 0.040438484
000160 05 f1 31 bc 17 7e 7c bd a1 8f 1f bc 17 24 86 3c
       -0.010860686 -0.061643686 -0.009738834 0.01637463
000170 3d bb 38 bd a7 52 0f 3d 48 f9 4c bd e8 c1 51 bd
       -0.04510044 0.034990933 -0.05004242 -0.051210314
000180 06 7e 4f 3d f9 e1 cd 3c 42 9a 5c bd 2f 1f 91 3d
       0.050657295 0.025132166 -0.05385805 0.07086026
000190 da e5 05 bd af a2 4b 3c a0 1b 67 bd 5f 06 33 3d
       -0.032689907 0.0124289235 -0.05642283 0.043707248
0001a0 48 f0 83 bd 34 00 37 bd a0 39 fa 3c b3 3e c3 3c
       -0.064423144 -0.044677928 0.030545056 0.023833608
0001b0 14 a2 68 bd 0b a7 cc 3c a5 1e 8a 3d c7 07 4a bd
       -0.056795195 0.024981996 0.06744126 -0.049323823
0001c0 23 77 1c bc 66 4c 96 3d a3 4b 5a bd 8f 4e b1 bb
       -0.009549889 0.073387906 -0.05329479 -0.0054109762
0001d0 eb 9b 84 bd 5b a6 6b 3d 00 34 47 bd 4e 29 49 3d
       -0.064750515 0.057531696 -0.048633575 0.049111657
0001e0 bb e0 21 bd 72 bb f8 bc 55 b9 8d 3d d3 53 6b 3d
       -0.03952096 -0.030362818 0.06920115 0.057452988
0001f0 f4 f8 56 bd 6a 28 92 bd 1c 79 60 3d 0b a1 a8 bc
       -0.052483514 -0.071366146 0.054803 -0.020584604
000200 c9 b5 d0 3c 4d ff 2c bb c6 25 a3 3c 0b 3a 39 bd
       0.025477307 -0.0026397288 0.019915473 -0.04522137
000210 d4 f7 8d bc 24 34 5b bd a2 a0 0f 3d 8d 98 84 bd
       -0.017330088 -0.053516522 0.0350653 -0.06474409
000220 f2 16 9c 3a ef c7 c6 bc 8e 7e 84 3d b0 9a 12 bd
       0.0011908694 -0.024265258 0.06469451 -0.035792053
000230 49 8a 8c bd 33 73 c1 3c 39 15 79 3b cf 88 42 bd
       -0.06862313 0.023614502 0.0038007034 -0.047493752
000240 b5 bb 44 bd 5e 61 55 3d 8f 5b 31 bd 42 45 7d bd
       -0.048030574 0.05209481 -0.043300208 -0.061833628
000250 52 22 0d 3d 58 91 a9 3c 80 1b eb 3c 8d 83 24 3d
       0.03445656 0.020699188 0.028699636 0.04016452
000260 a5 b7 46 3c 20 43 23 bb b6 36 0e bd dd a8 46 bd
       0.012128745 -0.0024911836 -0.034720145 -0.048500884
000270 50 bb 8f 3c 5e 65 76 3d 37 98 81 bd 36 e2 42 3d
       0.017545372 0.060155265 -0.06327861 0.047579013
000280 f0 d8 5a bd d2 66 94 3b 9e d7 47 bd c3 b9 01 3d
       -0.053429544 0.0045288587 -0.048789613 0.031671297
000290 e3 05 c6 ba 21 16 d3 bc 11 7a 6e bd 09 34 9d bc
       -0.0015107956 -0.025767388 -0.05822188 -0.019189851
0002a0 72 f3 96 3d dd c2 84 3d 7a 94 a6 3c de 91 99 3d
       0.07370652 0.0648248 0.020334471 0.07498525
0002b0 43 f4 87 bd ab ea 7e 3b 31 54 fd bc 18 b0 64 3d
       -0.06638386 0.0038897197 -0.030923935 0.055832
0002c0 5d e1 13 bd 60 ef 5f bd 79 cd 86 bd 25 95 c7 bc
       -0.036103595 -0.054671645 -0.065821595 -0.02436311
0002d0 5d 02 4d ba 62 94 18 bd 38 42 6d bd 9f f0 64 bd
       -0.00078204816 -0.037250884 -0.05792448 -0.055893537
0002e0 99 2c 33 bd 5c 34 2c bd 93 ab 61 3d 66 6c a6 3c
       -0.043743704 -0.04204212 0.055095267 0.02031536
0002f0 ce b1 85 bd 8c 39 03 3d 8b 76 2b bd ed 96 1c bd
       -0.06528054 0.032037303 -0.0418611 -0.03822987
000300 3d e0 5c bc e7 dc 6d bc e5 c3 81 bc 4f 34 53 bd
       -0.013481197 -0.014517999 -0.01584048 -0.051563557
000310 c6 a9 06 bd e9 b6 55 bd a9 b8 ab ba 98 5b 14 3d
       -0.032876752 -0.05217639 -0.0013101298 0.036220163
000320 3b 01 8e bd 30 ef 4b 3d 3b e8 90 3d 18 f9 d1 3c
       -0.069338284 0.049788654 0.070755444 0.025631472
000330 f3 cf a1 3c 50 2d d4 3c ec 62 31 bd b7 89 10 3d
       0.019752478 0.025900513 -0.04330723 0.035287585
000340 7e fe 7e 3d 44 6f 66 bd ab bd 83 bd 47 40 66 3d
       0.06225442 -0.056258455 -0.06432661 0.056213643
000350 30 38 8c 3d 9e ea 75 bd 05 26 3b 3d 8b 8c 16 bc
       0.068466544 -0.0600382 0.045690555 -0.0091887815
000360 8a 53 5f bd 41 cc 95 3d 2f d7 1b bd d3 f1 70 3c
       -0.05452303 0.07314349 -0.038047012 0.014706093
000370 0f 36 86 3d 48 66 f3 3c 2d 27 31 3b 2e f1 40 3d
       0.065532796 0.029711857 0.0027031407 0.047105007
000380 75 4c 10 bd 01 46 7a 3d ba 57 d0 bc 31 9b 57 bd
       -0.035229165 0.061101917 -0.025432456 -0.052638236
000390 97 ea d9 bb 68 fb ae 3b dc 03 0c bb dd 82 6c 3d
       -0.0066502797 0.0053400286 -0.0021364605 0.05774199
0003a0 c5 1d eb bc ee 1c 76 bd 21 39 5b bd 32 7b f5 3c
       -0.028700719 -0.060086183 -0.05352128 0.02996597
0003b0 f6 04 68 3b 89 ed 36 ba 62 b7 7b 3d e4 4c fe 3c
       0.0035403348 -0.00069781445 0.061454184 0.031042524
0003c0 c1 7a 66 3d 1d cb 84 3c 78 18 28 bd 14 0c 1e 3c
       0.05626941 0.016210133 -0.04103896 0.009646434
0003d0 5f ec da bc 6d e9 a6 3c 19 91 84 3d b6 45 94 bc
       -0.026724039 0.020374978 0.06472988 -0.018099647
0003e0 6c fa 76 3c 60 0f f3 bb 75 24 8d 3d 6b b6 85 3d
       0.015074354 -0.0074176043 0.06891719 0.06528934
0003f0 4e db 6d 3d e3 63 02 3d 4c b9 85 bd db 38 5e 3d
       0.058070473 0.03183354 -0.06529483 0.05425344

module.model.1.model.3.bias f4 [64]
000000 74 0a 5d 3a 68 2f 92 3a c1 21 85 3a 52 0b 85 3a
       0.00084320386 0.0011153044 0.0010157154 0.0010150468
000010 34 24 85 3a 78 91 84 3a 11 b6 c8 3a 21 79 94 3a
       0.0010157884 0.0010114154 0.0015313049 0.0011327603
000020 87 1a 88 3a 2a f4 81 3a 3a ef 85 3a 39 8d b5 3a
       0.0010383882 0.0009914686 0.001021839 0.0013851292
000030 4e 1a 7a 3a 68 a6 7a 3a 2c 0b 8a 3a 28 d7 61 3a
       0.0009540663 0.00095615396 0.0010531894 0.00086151296
000040 67 bf 80 3a e2 eb 51 3a 27 09 75 3a d6 eb 85 3a
       0.0009822667 0.00080078666 0.0009347372 0.0010217379
000050 c8 96 42 3a 79 33 8a 3a 62 dd 71 3a 33 bf 81 3a
       0.0007422981 0.0010543905 0.0009226409 0.0009898901
000060 ec 71 90 3a 56 f4 5b 3a cd 50 8a 3a 2e 89 82 3a
       0.001102028 0.0008390596 0.0010552645 0.0009959096
000070 06 30 8b 3a f2 6b 9c 3a 92 ed 93 3a 25 bb 7f 3a
       0.001061917 0.0011934026 0.0011286011 0.0009755365
000080 1a c3 84 3a 7c 77 96 3a a4 53 c1 3a ca 6b b1 3a
       0.0010128946 0.0011479701 0.0014749658 0.0013536152
000090 b4 98 65 3a 54 60 7b 3a 1a 05 81 3a 01 a3 5d 3a
       0.0008758411 0.0009589244 0.0009843439 0.00084547704
0000a0 cc df 7f 3a 60 cd 9f 3a 84 59 68 3a c7 8e 91 3a
       0.00097608264 0.0012191944 0.00088634365 0.0011105173
0000b0 30 0f 60 3a 90 a4 9b 3a 10 5a 78 3a 5a 91 7c 3a
       0.0008547185 0.0011874605 0.00094738696 0.0009634696
0000c0 2b 01 84 3a d4 37 6d 3a 17 6f 83 3a 5e 02 5a 3a
       0.0010071149 0.00090491516 0.0010027614 0.0008316393
0000d0 39 20 ac 3a 17 72 75 3a 9e 42 45 3a 4a 05 7c 3a
       0.0013132162 0.0009363009 0.00075248803 0.0009613825
0000e0 30 2d 87 3a a6 43 90 3a a5 f8 46 3a cc c0 94 3a
       0.001031315 0.0011006489 0.00075901515 0.0011348962
0000f0 70 6e 86 3a 60 a3 8b 3a 9e ce 9a 3a 9b 04 8e 3a
       0.0010256302 0.0010653548 0.0011810844 0.0010835113

module.model.1.model.4.weight f4 [64]
000000 db 60 80 3f f3 7e 7f 3f 84 74 7f 3f af be 7f 3f
       1.0029558 0.99803084 0.99787164 0.99900335
000010 20 12 80 3f 4e 0a 80 3f 52 41 7f 3f 27 53 7f 3f
       1.0005531 1.0003145 0.99709046 0.99736255
000020 f0 56 80 3f 61 53 80 3f 59 5c 7f 3f f6 3a 7f 3f
       1.0026531 1.0025445 0.99750286 0.9969934
000030 0d 59 80 3f d2 3a 80 3f 2a 34 7f 3f be 6c 80 3f
       1.0027176 1.001795 0.9968897 1.0033185
000040 38 79 80 3f c8 65 80 3f a3 80 7f 3f d7 ae 7f 3f
       1.0036993 1.0031061 0.9980566 0.9987616
000050 24 56 80 3f 87 c0 7f 3f 54 51 80 3f f9 3d 80 3f
       1.0026288 0.9990315 1.0024819 1.0018913
000060 8c 59 7f 3f f4 6d 80 3f 62 7c 7f 3f 0c 4e 80 3f
       0.9974601 1.0033555 0.9979917 1.0023818
000070 09 1c 80 3f 7e 51 7f 3f 07 2e 7f 3f a3 a5 7f 3f
       1.0008556 0.9973372 0.9967961 0.99862117
000080 bb 36 7f 3f 43 8c 7f 3f 1f 4a 7f 3f 76 50 7f 3f
       0.9969289 0.998234 0.99722475 0.9973215
000090 8d 3a 80 3f c8 49 80 3f a5 5f 80 3f 86 4a 80 3f
       1.0017868 1.0022516 1.0029188 1.0022743
0000a0 a6 49 80 3f fa 4e 7f 3f 8e 55 80 3f 70 e7 7f 3f
       1.0022476 0.99729884 1.0026109 0.9996252
0000b0 f9 4e 80 3f d2 42 7f 3f d4 5c 80 3f d5 55 80 3f
       1.00241 0.99711335 1.0028329 1.0026194
0000c0 80 53 80 3f 63 44 80 3f b7 6e 7f 3f f3 5c 80 3f
       1.0025482 1.002087 0.9977831 1.0028366
0000d0 fb 38 7f 3f 9a 61 80 3f e5 5f 80 3f 7c ad 7f 3f
       0.9969632 1.0029786 1.0029265 0.9987409
0000e0 d8 d6 7f 3f 53 44 7f 3f 41 5d 80 3f 37 43 7f 3f
       0.999372 0.9971363 1.0028459 0.99711937
0000f0 13 64 7f 3f ae 3c 80 3f 9d 47 7f 3f ca 74 7f 3f
       0.99762076 1.0018518 0.9971865 0.9978758

module.model.1.model.4.bias f4 [64]
000000 40 05 6d 3b 70 2a 17 bb 1d 10 1c bb 31 b5 10 39
       0.003616646 -0.0023066066 -0.0023813315 0.00013800409
000010 ac c9 85 ba ac b4 a4 b9 68 ac 3e bb 23 6b 3e bb
       -0.0010207198 -0.0003141513 -0.0029094461 -0.0029055558
000020 bd 70 33 3b d4 3b 42 3b 78 51 39 bb 0c 08 46 bb
       0.002738043 0.002963771 -0.002827732 -0.0030217199
000030 5b 70 42 3b b1 b2 a9 3a 57 df 50 bb d6 16 5a 3b
       0.002966902 0.0012946931 -0.0031871402 0.0033277771
000040 53 c8 74 3b 5a 73 4e 3b a2 f9 fe ba ad 9c 28 bb
       0.0037350848 0.003150186 -0.0019453058 -0.0025728152
000050 f8 94 3b 3b 76 3d d6 ba bf d5 57 3b de 3f 1d 3b
       0.0028622728 -0.0016345221 0.00329338 0.0023994367
000060 44 2c 40 bb a4 b0 59 3b a9 e8 13 bb df 90 1d 3b
       -0.002932326 0.0033216858 -0.0022569096 0.0024042649
000070 e5 d9 91 ba ba eb 39 bb 86 a1 4d bb e9 4c 19 bb
       -0.001112756 -0.0028369264 -0.0031376793 -0.002339179
000080 cd 83 41 bb 9c 29 24 bb 04 5b 3b bb 60 f4 38 bb
       -0.0029528022 -0.0025049215 -0.0028588185 -0.002822183
000090 69 46 3a 3b 4c b5 48 3b 60 81 31 3b f7 2e 21 3b
       0.0028423315 0.003062564 0.002708517 0.0024594644
0000a0 77 dd 5c 3a e0 8c 35 bb 7a 66 46 3b 54 64 69 ba
       0.0008425335 -0.0027702376 0.0030273483 -0.00089031947
0000b0 dc 54 33 3b a7 29 39 bb 78 90 4a 3b 21 bc 3d 3b
       0.0027363813 -0.0028253586 0.0030908864 0.0028951245
0000c0 c4 81 44 3b 86 af 12 3b d8 72 21 bb 15 a3 42 3b
       0.0029984573 0.0022382452 -0.0024635103 0.0029699255
0000d0 71 86 42 bb a4 d8 4f 3b ea 64 43 3b b8 7a 22 bb
       -0.0029682184 0.0031714821 0.0029814788 -0.0024792384
0000e0 25 20 f2 38 88 75 3e bb 81 18 48 3b e8 b4 41 bb
       0.000115454466 -0.0029061753 0.0030532184 -0.0029557291
0000f0 f4 1c 30 bb 1f 35 f6 39 a6 fd 40 bb 0f 20 18 bb
       -0.0026872726 0.00046960355 -0.0029448061 -0.0023212468

module.model.1.model.4.running_mean f4 [64]
000000 c7 12 a1 bd 9e 13 17 3f fc 64 a5 be a0 4f b2 3d
       -0.078649096 0.5901431 -0.32303607 0.087065935
000010 c1 39 fd 3c 64 43 15 be bd bb 14 be 08 39 18 3e
       0.030911328 -0.14576489 -0.14524741 0.14865506
000020 82 d4 07 3f 19 02 29 3f f8 43 17 bd ee 4b 01 bf
       0.53058636 0.66018826 -0.036930054 -0.50506485
000030 1d e3 c9 3e f8 f3 61 3e 45 0d fa 3e c4 da 83 3d
       0.39431086 0.22065723 0.4883825 0.064382106
000040 7a 62 00 bf 32 ab 97 3d 8c 76 46 3e 58 4c 18 bf
       -0.50150263 0.074057 0.1938116 -0.5949149
000050 82 20 91 be bf a8 09 bf 3c 6f 48 bb 3e 26 1c be
       -0.28345114 -0.5377311 -0.003058388 -0.15248963
000060 87 40 63 bd 43 32 70 bf 20 6c ac bd b1 62 bc 3e
       -0.05548146 -0.93826693 -0.08419061 0.36794046
000070 94 dd 2e bf f0 e3 52 3d 4e a2 6e be c7 fe 71 3e
       -0.6830685 0.05148691 -0.23304102 0.23632346
000080 d5 d4 c4 3e 29 f9 71 3e f7 cd 16 bf 36 05 2e be
       0.38443628 0.23630203 -0.5890803 -0.16994175
000090 c2 13 a6 be cb d4 87 3e 4b a0 b8 be c8 53 01 3e
       -0.3243695 0.26529536 -0.36059794 0.12629616
0000a0 fd 93 f5 3e 20 23 ee 3d a9 9e 10 be 50 87 fe bd
       0.4796447 0.11627793 -0.14123024 -0.124281526
0000b0 2b 9f 67 be b0 16 cf be 54 fe 90 be 03 c6 4c 3e
       -0.22619312 -0.40446997 -0.28319037 0.1999741
0000c0 d3 c5 fe 3e d2 8b e2 3d a0 f6 69 3f 07 69 be be
       0.49760303 0.11061825 0.91391945 -0.37189505
0000d0 7a 28 86 3e 2b 3d 01 3f d2 f3 eb bc 22 a4 c3 3e
       0.26202756 0.5048396 -0.028802786 0.3821116
0000e0 fb 93 82 be ab 6e 47 3f 5e 28 a0 bc a8 7f ba 3e
       -0.25503525 0.7790324 -0.019550499 0.3642552
0000f0 7f e7 9b 3e 83 81 42 3e 0c 49 96 be a4 c8 3d be
       0.30450055 0.18994717 -0.29352605 -0.1853357

module.model.1.model.4.running_var f4 [64]
000000 b2 0e 03 3f f3 7f 8f 3e 4a 2b 86 3f 3e 11 13 3f
       0.511943 0.28027305 1.0481961 0.57448184
000010 4d fb 83 40 12 47 d7 3c 34 40 23 3e 31 41 19 3d
       4.1244264 0.026279006 0.1594246 0.037415687
000020 40 5f e2 3d 37 e3 2c 3f 3c f1 a1 3e f8 ee 01 3f
       0.11053324 0.675342 0.3162936 0.5075526
000030 5d ab db 3e f0 17 5e 3f a7 ee b1 3d 0d 94 27 3e
       0.42904177 0.86755276 0.086880974 0.1636507
000040 ef 5d ba 3f 03 18 40 3f da c1 97 3d b9 fc be 3e
       1.4559916 0.7503664 0.07410021 0.37302187
000050 eb b7 3b 3e f6 74 cb 3f 23 96 f0 3d 1c a4 9a 3e
       0.18331878 1.5895069 0.11747386 0.3020333
000060 b4 c5 a6 3f 66 b0 a4 3e da d7 07 40 36 41 2b 3f
       1.3029084 0.3216583 2.1225495 0.6689638
000070 17 f8 5c 3e 15 ec 29 3f dc 4e da 3d 2f 50 b1 3e
       0.21579014 0.6637586 0.106595725 0.34631488
000080 5c 51 d9 3e cc 55 12 3f fc 83 12 3e 18 f3 80 3d
       0.42444885 0.57162166 0.1430816 0.062963665
000090 2e ec ab 3d 17 93 91 3e 41 f6 67 3f ed 4e 54 3e
       0.08394657 0.28432533 0.9061013 0.20733233
0000a0 4b bf 15 3e 80 74 d2 3d 65 ed fc 3d 67 05 81 3e
       0.14623754 0.10276127 0.12349967 0.25199434
0000b0 02 26 1d 3f c7 77 8b 3d f2 1b db 3f 24 35 0a 3e
       0.6138612 0.06809955 1.7117903 0.13496834
0000c0 6c 77 f5 3f 3f 7c 63 3f 97 f2 1e 3f 67 00 13 3f
       1.917707 0.8886146 0.6208891 0.5742249
0000d0 c1 0c 9d 3d a8 50 a6 3e 7e a0 29 3e 8e be 43 3f
       0.07668448 0.3248341 0.16565129 0.7646264
0000e0 50 f5 39 3d 7f 04 83 3e ab 3c 2a 3f 5f 0f 7d 3f
       0.045399964 0.25589368 0.6649882 0.9885158
0000f0 e7 af 5d 3d 84 60 31 3f 36 e0 2f 3e 93 ed 82 3e
       0.05412283 0.69287896 0.17175373 0.2557188

module.model.2.model.0.weight f4 [64, 64, 3, 3]
000000 ee e1 96 bc 5e 87 2b bd 24 54 83 3c d5 f3 44 3c
       -0.018418279 -0.041877143 0.016031332 0.012021025
000010 1f 4c 88 bd 33 d5 35 3d a9 4a 29 3b c6 49 7c bc
       -0.06655144 0.044392776 0.0025831854 -0.015398448
000020 1b 77 8c 3b fa 36 8a 3a dc 6a 1c bc 35 e3 b0 bb
       0.0042866594 0.0010544949 -0.009546962 -0.005398179
000030 71 1a 65 3d 26 14 86 3c 85 18 76 bb 1f 2c 34 bd
       0.05593342 0.01636703 -0.0037551236 -0.04398739
000040 a2 47 80 bd 8a f8 51 bd b2 4f 78 3d 29 bd 52 bc
       -0.06263663 -0.051262416 0.06062288 -0.012862482
000050 21 25 3e 3d 8e 59 e1 3c e0 da 01 bd 52 d6 52 3d
       0.046422128 0.027508523 -0.031702876 0.051473923
000060 17 3a 09 bd 5b b0 8f 3c a2 3f 62 3d a3 38 7f 3c
       -0.033502664 0.017540148 0.055236466 0.015577468
000070 55 d1 64 3d f4 2c 22 bd e5 d2 87 3b 9d 57 1d bd
       0.055863697 -0.039593652 0.0041450136 -0.038413633
000080 cd fa cc bc c9 c7 07 3d b4 3d 3b 3d de 0f 10 3d
       -0.025021935 0.033149514 0.04571314 0.035171382
000090 c5 c1 29 bd 72 02 7c 3d e3 6b 76 bd 64 d8 94 bd
       -0.04144456 0.06152577 -0.060161483 -0.07267836
0000a0 11 53 3a 3d f9 b6 66 bd cc 1b f3 3a a1 0c 26 bd
       0.045489375 -0.05632684 0.0018547713 -0.040539388
0000b0 dd b3 7d 3d d0 5c ac bc a9 e0 ad 3c 16 62 af 3a
       0.06193911 -0.02104035 0.02122529 0.0013380672
0000c0 c8 f3 86 bd 74 76 08 bd d8 82 08 3c 75 ac 59 bd
       -0.06589466 -0.03331609 0.008331977 -0.053142983
0000d0 a5 a9 a7 bc a5 1e b4 bc a2 ad 56 bd 06 a5 81 bc
       -0.020466635 -0.021987269 -0.052411683 -0.01582576
0000e0 fb 80 10 3d 39 75 65 bd 47 79 0d bd 43 5e 44 bc
       0.035279255 -0.056019995 -0.034539487 -0.011985364
0000f0 f1 63 80 3c 3f 6a 1f bd 3d 69 c7 3c 76 0e e7 bc
       0.015672656 -0.038919684 0.024342174 -0.028205138
000100 82 59 43 bd 1d b7 e2 bc fa e8 2e 3b 43 48 8d bd
       -0.047692783 -0.027675206 0.0026689158 -0.068985485
000110 55 b1 20 bd a8 99 ac bc ae f6 12 bc cd 4d 03 bd
       -0.039231617 -0.021069363 -0.008969946 -0.03205662
000120 3b 81 fd 3c e1 ca 5a bd 0e 0e a9 3b bf d7 28 b8
       0.030945411 -0.053416137 0.005159146 -4.025525e-05
000130 12 f1 8d 3d 0f 92 4a 3d d6 7e 40 bd 79 9a 08 bd
       0.06930746 0.0494557 -0.04699596 -0.03335044
000140 f0 f7 07 bc a2 ec 16 3d 32 e9 3f bd 9f c4 88 bd
       -0.008298859 0.036846764 -0.04685325 -0.066781275
000150 8b 75 e8 3c 9a d2 45 bd 9b 64 85 bd 78 b3 84 bd
       0.028376361 -0.04829655 -0.065133296 -0.064795434
000160 12 b6 d3 bb 06 e6 86 3d 98 3f 16 3b 27 64 6c bd
       -0.0064609135 0.06586842 0.0022926088 -0.0577127
000170 f8 52 7b 3d 2c 8d 67 3d 4e 23 e0 bb 0d 8c a4 bc
       0.061358422 0.056531116 -0.006840146 -0.020086313
000180 b3 33 e1 bc 3e e4 36 bd a0 97 38 bd c8 6b 39 bd
       -0.027490472 -0.044651262 -0.045066476 -0.045268804
000190 f1 34 7e 3d f6 07 75 3d ab 09 61 3d fb 8a 2f 3d
       0.062062208 0.059822045 0.05494086 0.04285715
0001a0 a6 44 88 3d 2b 22 8f 3b 64 76 4f bd 40 6c 74 3c
       0.06653719 0.004368087 -0.050650015 0.014918387
0001b0 d5 29 6c 3c 35 6d 4c 3c 19 c3 f5 bb 4a dd 6b 3d
       0.01441427 0.012477209 -0.007500064 0.057584085
0001c0 1f 7f 4f 3c d0 d7 83 bd 35 09 5f 3c 11 dc 29 bd
       0.012664585 -0.06437647 0.013613035 -0.041469637
0001d0 d4 10 40 bd 06 63 46 3d c0 2b 7e bd f6 09 1f bc
       -0.04689105 0.04843428 -0.062053442 -0.009706965
0001e0 12 cf ad bc 28 15 ab b9 f0 38 77 3d d3 9e 97 3c
       -0.021216903 -0.00032631424 0.060357034 0.01850835
0001f0 27 22 ff 3c 7b 94 60 bd e3 85 02 bd df 10 4f bd
       0.031144215 -0.054829102 -0.031865966 -0.0505532
000200 d6 0b 1a 3c 50 3b f2 3c 3b 0e 3a bd 24 4d 06 3d
       0.009402236 0.029569298 -0.045423727 0.03278841
000210 82 02 1a 3a 85 87 90 bd 9a 34 86 bd 1c 0c 0c 3c
       0.00058750075 -0.07057098 -0.06553002 0.008547809
000220 35 73 38 3d ec 9a 0a 3b 6b ef 8a 3d aa ab 78 3d
       0.045031745 0.002114947 0.067839466 0.060710587
000230 ec c9 69 bd a4 ac 2d bd f3 55 ee 3c d9 d3 2e bd
       -0.057077333 -0.04240097 0.029093718 -0.042682502
000240 e5 74 67 bd df e0 02 3d e6 f2 8d bd b1 c0 ac 3c
       -0.056507964 0.031952735 -0.06931095 0.021087976
000250 e1 62 81 bb b8 d7 71 bd 11 08 34 3d c3 3b 68 bd
       -0.003948555 -0.059043616 0.043953005 -0.05669762
000260 7a 51 b0 3a 7f e6 0e 3d 17 9c 86 3d 9c a6 37 3d
       0.0013452016 0.034887787 0.065727405 0.044836625
000270 e3 12 5a 3c 34 ce 15 bd d4 e3 f6 bc 1c 53 14 3b
       0.013310167 -0.036573604 -0.030137934 0.0022632545
000280 e0 79 8b 3c 56 2a 0c bd ae 93 0e 3d 5d be 12 bd
       0.017025888 -0.034220062 0.034808807 -0.035826076
000290 e6 44 09 bd 90 07 36 3d 2b ec 7b 3d de 12 a3 bc
       -0.033512972 0.044440806 0.061504524 -0.019906458
0002a0 d4 02 8a 3c 11 43 6a bc d1 de 0e 3d da 0f 6a bd
       0.016847052 -0.014298216 0.034880463 -0.057144023
0002b0 0f 33 79 3c fe 24 f2 bc 58 60 8d 3d 50 de 86 3d
       0.015209927 -0.029558655 0.06903142 0.065853715
0002c0 d1 76 0d bd f9 67 05 bd cf 49 83 3d da bc 5e bd
       -0.03453714 -0.03256986 0.06410562 -0.05437932
0002d0 4b 64 94 bd 70 b2 84 bd 7d a0 8b 3d ac 1b 59 bd
       -0.07245692 -0.06479347 0.0681772 -0.053004906
0002e0 9c 93 3c bd b0 21 7c 3d bc aa 16 3d ff fb 41 3c
       -0.04603921 0.061555564 0.03678392 0.011839866
0002f0 a4 81 81 bc 8b fb f8 3c 9b e6 68 3d 6d 5e 08 3c
       -0.015808888 0.030393383 0.056860548 0.008323294
000300 be dc f2 bc 8a 1a c5 ba 07 98 31 bd 2d 99 3f bd
       -0.029646274 -0.0015037816 -0.043357875 -0.04677694
000310 2d 77 2b 3d 27 d0 66 3d 3d 03 08 bd 4c 7a 00 bc
       0.0418617 0.056350853 -0.033206213 -0.007841658
000320 5c 8f a8 bc 30 ee 56 bd e6 bf 9c bc 1f 96 7c bd
       -0.020576172 -0.052473247 -0.019134473 -0.061666604
000330 a1 98 af 3c bf dd c3 3b ad 59 44 3c bc 2f 3f bb
       0.021435084 0.005977362 0.011984271 -0.002917274
000340 f5 50 49 bb 06 3d 3e bd 5c a2 c9 3c ab ad 86 3a
       -0.003071842 -0.046444915 0.024613552 0.0010275146
000350 ee 39 75 3c b7 0c 32 3d 17 8c 7a bc 3d b4 ee 3c
       0.014967425 0.043469157 -0.015292189 0.029138679
000360 d3 2d 59 bc d2 db 82 3d c6 7b dd 38 7c 83 9e bb
       -0.013255554 0.06389584 0.00010561156 -0.0048374515
000370 02 91 21 bd b0 b4 12 bc 42 4e 92 39 19 ec 82 3d
       -0.03944493 -0.008954212 0.00027905597 0.06392688
000380 70 48 d6 bb 07 29 f5 bc 2f 40 0b bd c4 12 db bc
       -0.006539397 -0.02992679 -0.033996757 -0.026742347
000390 0e c0 29 3d b0 31 cd 3b 3e 35 47 bd 45 59 92 3d
       0.041442923 0.0062620267 -0.04863476 0.07145933
0003a0 81 3e 36 bd 8b b1 14 3d 2e ba 86 3d 7c d1 aa bc
       -0.044493202 0.03630213 0.0657848 -0.020851843
0003b0 2d 90 d0 3c af f2 eb 3c 74 4b c8 3c 42 0c 38 3d
       0.025459373 0.028802244 0.024450041 0.044933565
0003c0 8a d6 28 3d f0 18 c4 3c c8 81 89 bd 72 5e 87 bd
       0.041220225 0.023937672 -0.06714207 -0.06609811
0003d0 1d c2 8e 3d ed d0 28 bd ca 99 a8 3c 1a 3a 89 3d
       0.06970618 -0.041214872 0.020581145 0.06700535
0003e0 b7 79 d7 bc dd 35 26 3d 22 05 28 3d 00 0e 7b 3d
       -0.026303155 0.04057871 0.04102052 0.06129265
0003f0 02 d3 0f bd dc 04 8c 3c fe 35 81 3d 6b 29 56 bd
       -0.035113342 0.01709216 0.06309126 -0.052285593

module.model.2.model.0.bias f4 [64]
000000 a8 9c 88 3a bb ce 82 3a f0 24 81 3a b5 0a 88 3a
       0.0010422664 0.0009979823 0.0009852927 0.0010379168
000010 f7 7a 77 3a 4e c5 79 3a 5b 08 8a 3a 4d ac 80 3a
       0.00094406254 0.0009527997 0.0010531055 0.0009816975
000020 d9 fd 75 3a df 3a 81 3a 9d c9 84 3a 18 10 88 3a
       0.00093838345 0.0009859464 0.0010130886 0.0010380773
000030 63 29 83 3a 62 91 7f 3a d8 5b 80 3a 49 57 82 3a
       0.0010006841 0.0009749142 0.0009792997 0.0009944226
000040 68 db 7d 3a 69 5c 87 3a ff 77 85 3a 23 9d 83 3a
       0.0009683878 0.0010327223 0.0010182856 0.0010041337
000050 61 3e 82 3a 57 3f 81 3a ce 0b 84 3a f8 45 80 3a
       0.0009936803 0.0009860796 0.0010074319 0.0009786477
000060 8d ac 79 3a 60 d7 7d 3a 3e 7b 81 3a 7f 7c 7a 3a
       0.0009524308 0.00096832775 0.0009878648 0.00095552945
000070 95 dc 80 3a 9a cd 82 3a 42 52 87 3a 04 e6 85 3a
       0.0009831364 0.0009979487 0.0010324197 0.0010215645
000080 da f5 80 3a ce 0f 7f 3a 78 05 85 3a 8a 72 85 3a
       0.0009838894 0.0009729833 0.0010148725 0.001018123
000090 37 21 86 3a 91 7b 86 3a 27 20 77 3a da 4b 87 3a
       0.0010233287 0.0010260214 0.00094270933 0.0010322288
0000a0 21 42 86 3a 96 c0 84 3a b4 06 85 3a 08 7e 7e 3a
       0.0010243097 0.0010128196 0.0010149092 0.0009708111
0000b0 8d 33 81 3a 5f 0e 82 3a 1e 1a 81 3a 72 5e 7c 3a
       0.0009857282 0.0009922496 0.0009849702 0.00096271106
0000c0 75 8d 82 3a 03 8b 84 3a 90 cd 77 3a 7a 71 85 3a
       0.000996037 0.001011223 0.00094529334 0.0010180913
0000d0 d5 34 83 3a ba 06 83 3a 43 a0 81 3a 5e f4 79 3a
       0.0010010252 0.0009996512 0.0009889681 0.000953501
0000e0 18 a2 7b 3a ba 40 82 3a ee e9 81 3a 79 91 80 3a
       0.0009599044 0.0009937503 0.0009911635 0.0009808979
0000f0 bb 74 81 3a 5c 71 88 3a c4 4d 80 3a 09 6d 86 3a
       0.0009876707 0.001040976 0.0009788801 0.0010255884

module.model.2.model.1.weight f4 [64]
000000 b3 9e 7f 3f b3 3b 80 3f 74 09 80 3f bc 58 7f 3f
       0.9985153 1.0018219 1.0002885 0.9974477
000010 96 be 7f 3f 5b 25 80 3f 2c 78 7f 3f d0 94 7f 3f
       0.99900186 1.00114 0.9979274 0.99836445
000020 53 4d 80 3f 26 ee 7f 3f e0 2f 80 3f 6c 22 7f 3f
       1.0023597 0.9997276 1.001461 0.996619
000030 f4 fd 7f 3f 7a 23 80 3f b9 fc 7f 3f aa 03 80 3f
       0.99996877 1.0010827 0.99995 1.0001118
000040 e0 ef 7f 3f a7 88 7f 3f e2 c6 7f 3f 1e 5d 7f 3f
       0.99975395 0.9981789 0.99912846 0.9975146
000050 e2 36 80 3f 4e c1 7f 3f 70 06 80 3f 60 0b 80 3f
       1.0016749 0.99904335 1.0001965 1.0003471
000060 66 2c 80 3f 1f 16 80 3f 58 f9 7f 3f 90 42 7f 3f
       1.0013549 1.0006751 0.99989843 0.9971094
000070 e0 97 7f 3f da 09 80 3f 70 3f 80 3f 0d 37 80 3f
       0.9984112 1.0003006 1.001936 1.00168
000080 08 3e 80 3f 39 1c 80 3f e0 f2 7f 3f 55 20 80 3f
       1.001893 1.0008613 0.9997997 1.0009867
000090 fd 16 80 3f d4 40 7f 3f 6b d8 7f 3f 0c 48 80 3f
       1.0007015 0.99708295 0.999396 1.0021987
0000a0 cf 2a 80 3f ca 26 80 3f bf ba 7f 3f ba 28 80 3f
       1.0013064 1.0011837 0.99894327 1.0012429
0000b0 8f 13 80 3f 77 26 80 3f 5b 0b 80 3f 9a 22 80 3f
       1.0005969 1.0011739 1.0003465 1.001056
0000c0 72 a4 7f 3f b5 56 80 3f ac 10 80 3f cc a9 7f 3f
       0.998603 1.0026461 1.0005088 0.99868464
0000d0 cf 0c 80 3f 5b 31 80 3f 26 2a 80 3f 29 cb 7f 3f
       1.0003909 1.0015062 1.0012863 0.9991937
0000e0 1d 58 80 3f c8 8d 7f 3f 58 34 80 3f 37 67 80 3f
       1.002689 0.99825716 1.0015974 1.0031499
0000f0 25 f7 7f 3f 29 bc 7f 3f d4 90 7f 3f ec 4e 7f 3f
       0.9998649 0.99896485 0.99830365 0.997298

module.model.2.model.1.bias f4 [64]
000000 34 4a 1b ba 1e 29 a8 3a d4 98 8e 3a 7d 88 39 bb
       -0.0005923838 0.0012829637 0.0010879287 -0.0028310113
000010 07 87 45 ba b2 59 0d 3b 13 f2 19 bb 42 ea 16 39
       -0.0007535074 0.0021568355 -0.0023490235 0.00014392383
000020 c9 b4 35 3b ee e7 b4 3a e8 35 7f 3a 28 57 61 bb
       0.0027726165 0.0013802031 0.00097355107 -0.0034384225
000030 83 aa 36 ba 1c 1d 24 3b 13 1d 88 3a 26 30 ba 39
       -0.0006968157 0.0025041765 0.0010384641 0.00035512558
000040 24 03 50 39 19 7f 16 bb 65 7a af b9 21 70 34 bb
       0.00019837596 -0.002296394 -0.00033469792 -0.0027532654
000050 9c 64 b1 3a 29 56 9d b9 ba ed a6 39 51 48 37 3a
       0.0013534012 -0.00030009568 0.00031839107 0.0006991672
000060 e6 0b 06 3b c0 03 26 3b ff ca b3 39 95 41 2e bb
       0.002045387 0.0025331825 0.00034292784 -0.0026589383
000070 85 5e c4 b9 f8 6c 55 39 95 bc 28 3b 37 30 4f ba
       -0.00037454456 0.00020353857 0.002574717 -0.0007903608
000080 78 38 de 3a b6 9a 11 ba 5a d1 00 bb af 06 c1 ba
       0.0016954085 -0.0005554365 -0.0019656033 -0.0014726723
000090 13 a3 f9 ba a7 a7 3c bb 14 8e 8a ba 1d c8 e6 3a
       -0.0019045792 -0.0028786452 -0.0010570907 0.0017607246
0000a0 39 c2 76 3a 2e fe 01 3b 59 26 ac ba 59 54 73 3a
       0.00094130967 0.001983534 -0.0013133987 0.0009282283
0000b0 36 1e 89 3a 8b c6 2d b9 4e cd b6 39 fd 12 14 3a
       0.0010461274 -0.00016572529 0.0003486671 0.00056485814
0000c0 e2 e7 92 ba e4 dc 28 3b b8 74 54 3a 11 fd f7 ba
       -0.0011208022 0.0025766427 0.00081045507 -0.0018920024
0000d0 05 5b e1 3a b8 63 1a 3b 46 96 85 ba f5 91 c2 b9
       0.0017193264 0.0023557972 -0.001019188 -0.0003711131
0000e0 e4 f1 2e 3b 2e 22 09 bb 75 3e e2 3a f9 9f 46 3b
       0.002669447 -0.0020924914 0.0017261045 0.0030307753
0000f0 fd d7 42 ba a9 cb 60 ba 80 81 5e b9 65 01 33 bb
       -0.00074326975 -0.00085752696 -0.00021219812 -0.0027314064

module.model.2.model.1.running_mean f4 [64]
000000 82 c0 eb be 98 87 94 3e b5 2c 62 be 44 26 75 bc
       -0.4604531 0.290097 -0.22087367 -0.0149627365
000010 c3 31 be be 24 b3 3a 3e 08 f0 72 be 5d 9a 8c be
       -0.3714734 0.18232399 -0.23724377 -0.2746152
000020 4d 33 fc bd 42 00 10 3f 83 bf 0a 3e cf 9f 3d bf
       -0.12314472 0.56250393 0.13549618 -0.74071974
000030 b7 65 0b 3f f2 df 16 3e 01 68 87 be 12 30 0a be
       0.5445208 0.14733866 -0.26446536 -0.134949
000040 b0 5a d7 3e c4 e2 39 3d 0f fc cc 3e 1d 7c aa bb
       0.42061377 0.045382276 0.40036055 -0.0052027837
000050 24 77 8d 3e 32 69 2f 3f 19 d3 c1 bd 2b 31 ec 3d
       0.2762996 0.6851989 -0.09464092 0.115328155
000060 de 12 57 bf 1a 36 ee be dc 7c f0 be 3f 01 dd 3e
       -0.84013164 -0.4652565 -0.4697026 0.43165013
000070 10 0d a9 be ef 1b 8c be db e5 7e 3f c3 21 2a 3f
       -0.33017778 -0.27365062 0.9956948 0.66457766
000080 37 73 10 bf 2f 0f 5c be dc 17 18 3f e8 2b 30 3f
       -0.56425804 -0.21490167 0.59411407 0.68816996
000090 45 49 ed 3e be 36 53 3e d0 6a f9 bd fc 22 39 3c
       0.46344963 0.20626351 -0.12178576 0.011299845
0000a0 d9 f5 81 3e 1e 89 80 3e 55 b6 bb bd b8 ae ef 3e
       0.2538288 0.25104612 -0.091656365 0.46812987
0000b0 3d 5c 10 bf d9 e4 98 3e 49 f5 90 be 67 92 b5 be
       -0.56390744 0.29862097 -0.28312138 -0.3546326
0000c0 f8 50 cb be 18 42 bb 3d 7b ab d0 3d 80 5c 29 be
       -0.39710212 0.09143466 0.10188957 -0.16539192
0000d0 fc 19 c5 3b da 1f 0b be 9b 22 7e 3d 34 a8 83 be
       0.0060150605 -0.13586369 0.06204472 -0.25714266
0000e0 9d 9b 3e bd 27 24 47 3f 94 f1 0b be 28 f4 9e bd
       -0.046535123 0.7778954 -0.13666373 -0.07761413
0000f0 16 40 dd 3e 52 69 8b bd 5f 2b 0e bf 14 ab 52 3e
       0.43212956 -0.06807198 -0.5553493 0.20573074
