output_gd_deblur_noise/ckpt/resnet_epoch1.pth (torch, 641727 bytes, 31 tensors)

module.model.0.weight f4 [64, 1, 1, 1]
00000000: 855a 163d 3fe0 dbbd 871e 8b3e d590 473e
00000010: 639d cb3d b578 063e 24dd 4d3d 8126 5a3e
00000020: 17c2 0d3d edb4 29be fed4 04be a335 7d3e
00000030: da7e e33d eb57 923e c3b1 28bb fedc e73b
00000040: 3167 10be 8e6b 03bd 1f13 3d3e 16c2 8ebe
00000050: b627 533e fc7f 1c3e 34ae cb3d 5c91 2b3d
00000060: c187 9a3e b911 62be d61f d6bd 0770 303e
00000070: d08d 8fbe cbe5 253e 91a2 7abe 5549 393e
00000080: acc9 823e b196 953e f5e5 683e 56cc dabd
00000090: a273 87be 19eb b6bc 592e 383e 6466 3dbc
000000a0: aeeb db3d 86f3 8cbe 0750 51bd a1f4 983e
000000b0: 9472 5dbe ba19 6d3e fd11 7fbe 6040 91be
000000c0: 9c4b b03d ee26 113e cb73 133e a056 f3bd
000000d0: 92ee 30be 75f9 d33d c69d ed3d f994 b33d
000000e0: c608 973b 9e89 793e e79c 8ebe 648a b9bd
000000f0: e329 323e 9b44 e2bd 1373 38be d8da df3c
0.03670742 -0.10736131 0.27171728 0.19488843 0.099421285 0.13131984 0.050259724 0.2130375
0.034608927 -0.16572924 -0.12971875 0.24727492 0.111081794 0.285827 -0.002574072 0.007075905
-0.14101864 -0.032084994 0.18464325 -0.2788245 0.20620617 0.15283197 0.09945336 0.041886672
0.30181697 -0.22077073 -0.10455291 0.17230235 -0.28037882 0.1620094 -0.24476077 0.1809438
0.25544488 0.2921653 0.22743972 -0.10683505 -0.26455408 -0.0223289 0.1798643 -0.011560056
0.10738312 -0.27529544 -0.05110171 0.29874137 -0.2162574 0.23154345 -0.24909206 -0.28369427
0.08608171 0.14175007 0.1439964 -0.11881757 -0.17278507 0.103503145 0.116023585 0.08768649
0.0046092 0.24368903 -0.27854082 -0.09059599 0.17398791 -0.11048242 -0.18012647 0.027326033

module.model.0.bias f4 [64]
00000000: 6b28 823a d43d 3c3a 6996 633a 53db 4b3a
00000010: 8cd1 593a fe09 853a 9121 393a bf1b 8e3a
00000020: 795f 4c3a a822 743a eb2f 883a b76e 983a
00000030: 060d 9a3a 40ac 593a daab 6f3a d9ac 843a
00000040: ffcc 9e3a eac3 a73a 03c8 3a3a ae37 523a
00000050: 5840 933a af77 563a c704 6a3a 08e5 7d3a
00000060: 477c 623a 5750 563a 969f 973a 0c4b 7e3a
00000070: f6c2 923a 78a0 7a3a c5a9 4a3a 3e88 443a
00000080: e5c0 5f3a 07cb 4e3a 56b6 873a b1a2 3c3a
00000090: df61 8d3a 3ca8 9e3a 6917 9b3a 36a0 893a
000000a0: a5a2 4c3a 358c 8c3a 7456 8e3a 7705 933a
000000b0: 28cd a43a 6ac0 633a 1f75 4f3a b4cc 823a
000000c0: 2add a33a 3ba6 a83a 5094 683a 06f8 883a
000000d0: db45 623a 53a0 9f3a 519e 873a a4a4 493a
000000e0: 2d85 5d3a 58d9 383a 1212 a33a 1f1d 3d3a
000000f0: 638c 5b3a eecf 8f3a 2aca 533a bd9a 403a
0.0009930258 0.0007180844 0.00086817757 0.00077765173 0.0008309118 0.0010150073 0.0007062192 0.0010842009
0.0007796209 0.00093130255 0.0010390257 0.0011629675 0.0011753149 0.00083035603 0.00091427343 0.0010122313
0.0012115537 0.0012799476 0.0007125141 0.0008019161 0.0011234386 0.00081812864 0.00089271035 0.00096853124
0.00086397346 0.0008175424 0.0011567946 0.0009700514 0.0011197019 0.0009560655 0.0007730986 0.00074971083
0.00085355184 0.000788853 0.0010354023 0.0007195874 0.0010786614 0.0012104581 0.0011832538 0.0010500017
0.00078062183 0.0010722937 0.0010859505 0.0011216839 0.0012573348 0.0008688035 0.0007913876 0.0009979219
0.0012501825 0.0012866923 0.0008872198 0.0010449893 0.0008631625 0.0012178518 0.0010346865 0.0007692075
0.00084503257 0.000705143 0.0012441298 0.0007214117 0.0008375106 0.0010972002 0.0008079136 0.00073472766

module.model.1.model.0.weight f4 [64, 64, 3, 3]
00000000: 2239 053d fcaa 76bc adce 1dbd 34d8 36bd
00000010: da8b 4e3d 925b 8d3d ee93 3bbd 4fb8 e03c
00000020: 2554 813d 828b f9bc e426 1c3d 543b 3cbd
00000030: 29af 93bc 44fd 81bd 0f9e 80bd 3140 21bc
00000040: 0b85 7c3d 8d84 d5bc 789b 563c a5f3 7e3d
00000050: 21b8 4a3d 5a13 313d 74b9 05bd 29ac 803c
00000060: 84a1 b4bc 93c4 55bd 6dd9 29bd bb73 e9bc
00000070: 0ce8 74bd 4ec1 8e3d 88b6 743d 171b 0b3d
00000080: e010 8bbd 5142 80bc 0e0b fdbc 6daa 603d
00000090: 1564 06bb 0330 5a3d 72d4 483d c03a a33c
000000a0: 1931 63bd 19f3 02bd 442f ee3c a68c 7fbd
000000b0: d3d7 73bd 630a a5bc 354f 8ebd f452 853c
000000c0: 6e61 98bb 7474 613d 62fa 59bd e432 ddbc
000000d0: d922 9f3c ea08 343c d38a 70bd d658 193d
000000e0: 47c4 0f3d f2c7 efba cf3d 8dbc 10b2 53bd
000000f0: abf5 dc3b a820 37bd dc83 87bd 61e8 8cbd
00000100: 382f 83bd 325f 8fbd c998 48bc 8826 e33c
00000110: 2b0b 863d 0b80 753d 6d19 743c be9c 013c
00000120: 5015 823d 997c 01bc ba4b c53c ada0 e83c
00000130: 7b56 21bd 6b3b 2dbd caba 543d a715 303c
00000140: aae5 a23c 16c3 82bd 137c 7c3d daf3 383d
00000150: bcf4 4ebd 34b4 66bd 6bf5 8cbd 87bd 8ebd
00000160: 7a17 373d 0744 5fbd d75a d03c c165 a13c
00000170: ee65 83bd 7e11 f5bb 11b9 423c f082 df3c
00000180: 8bad 683d 7e11 573d 35cf 6a3d 0872 ebba
00000190: 6046 8ebd 4742 ee3c a4d4 fc3c 3802 7cbd
000001a0: bcd5 8a3c 6ab7 3a3d e65b b0bc b3be 75bd
000001b0: 5323 843d d742 39bd f7da 52bd ceb5 653d
000001c0: 73e4 2f3d b3aa 9fbc 5448 80bd e313 643c
000001d0: 90ff 3f3d bae8 78bc b3bc 483d d7be 3f3d
000001e0: 33c4 103d 7e86 923d 29d7 38bd 947c 8f3a
000001f0: 7892 06bd a1b1 f5ba 1075 c6bc 7a65 30bd
00000200: b234 4e3a ddc6 dc3c 66a6 0e3d 8a33 8ebd
00000210: 34ef 19bd de27 133d 910c 83bd b9b7 13bd
00000220: 94f2 db3c 10f6 ca3c 248f bdbc 112b 75bd
00000230: 9480 8d3d 7a35 5d3d 4dc9 78bd 8037 83bd
00000240: f2fc 12bd 1ae8 89bc 35ee 89bc b17c 843c
00000250: 0dbe 58bd d9c8 713d 4017 8a3d 7ea4 a1bc
00000260: 653e 113d 7f5f 2d3c 467e 9abb be22 1ebd
00000270: d10c 963b c3d1 473d 0c28 1f3c f8ed 973b
00000280: 09fe 3e3d 224b 2b3d 79f1 88bd a68b dc3c
00000290: 4824 77bd db3d 85bd c6f9 bdbc 01b2 843d
000002a0: baca c93b 2c67 0cbd 0a94 d73c cc1d 41bd
000002b0: 2058 843c 90a1 2abd 3b43 673d e732 493d
000002c0: 5490 6e3d fe91 683b 5f96 49bd 80d6 503b
000002d0: 4e55 b3bc 8d4f 603d 018c 063d d33a fb3b
000002e0: 112a a83c 405c 2cbd 4bdf 813d 2fba 35bb
000002f0: 954f dc3b 14d9 913d f0ff 953c f8e5 6b3d
00000300: c734 05bc 5408 6dbd ba2a debc 5525 d33c
00000310: ff92 86bc 6598 cdbc 9077 0bbd 2326 6b3d
00000320: 1c91 8c3d 7173 e23c c115 7e3d 3a08 83bb
00000330: 37c2 92bd f0b5 363d 67d8 633d 6a8b 163c
00000340: 2abe 8ebc f917 ae3c ae44 893c 4d34 6c3d
00000350: 52c3 c93b 3735 c3bc 5ac7 2c3d 71fd 7bbd
00000360: 8e5a 52bd 1c68 3abd 412a 693d 3738 0c3d
00000370: c339 193b fb07 14bd db45 293d 94b9 afbc
00000380: 11c8 1d3d 62ed 54bd 6edc 0a3d 872d 4f3d
00000390: df16 69bd 264d bdbc 3113 da3c b04c 81bd
000003a0: b9f3 87bd 1f87 79bd fa3d 47bd fb72 263d
000003b0: f649 8bbd 54a0 b4bc fffd 15bb 2045 67bd
000003c0: 8da7 1f3d 3e79 b9bb d99a adbc a311 683d
000003d0: 6a63 49bd 8b38 9b3c b805 fe3c 5833 493d
000003e0: 2bc7 21bd 2f16 203b 41f0 1cbd ca8a 64bd
000003f0: 64e5 64bc 7004 38bc 0d6b 62bc 232d 203d
0.03252519 -0.015055414 -0.03852718 -0.04463978 0.05042634 0.06902231 -0.045795374 0.027431635
0.063148774 -0.03046203 0.038123026 -0.045955017 -0.018027859 -0.06347135 -0.06280147 -0.009841965
0.061650317 -0.026064182 0.01309859 0.062244076 0.049492005 0.043231346 -0.032647565 0.015707092
-0.022049673 -0.05218942 -0.04146712 -0.028497567 -0.05979161 0.06970464 0.059744388 0.03396138
-0.06790328 -0.015656622 -0.03088906 0.05485003 -0.002050643 0.053268444 0.04903073 0.019925475
-0.055466745 -0.031970117 0.029075272 -0.062389992 -0.059531998 -0.020146554 -0.06948701 0.016274907
-0.0046502864 0.0550427 -0.0532173 -0.027001806 0.019425796 0.010988453 -0.058726143 0.037438236
0.035099294 -0.0018293841 -0.017241387 -0.051683486 0.006743153 -0.044708878 -0.06616947 -0.0688026
-0.06405491 -0.07000579 -0.012243458 0.027728334 0.06545099 0.059936564 0.01489864 0.007910905
0.06351721 -0.007903242 0.02408396 0.028396929 -0.039389115 -0.042292994 0.05193595 0.01074735
0.019884903 -0.06384866 0.061641764 0.04515443 -0.050526366 -0.0563242 -0.06882747 -0.06969743
0.044700123 -0.054508235 0.02543394 0.01970184 -0.06415926 -0.007478892 0.011884944 0.027284116
0.05680613 0.052506916 0.057326514 -0.0017963061 -0.06947017 0.029084338 0.030863114 -0.061525553
0.01694762 0.045585074 -0.021528196 -0.059996318 0.0645205 -0.04522976 -0.051478352 0.056081586
0.042942476 -0.019490575 -0.062637955 0.013920757 0.046874583 -0.015192205 0.049008083 0.04681286
0.03534336 0.071545586 -0.045127068 0.0010947161 -0.032854527 -0.0018744954 -0.024225742 -0.043065526
0.00078661286 0.026950294 0.03482666 -0.06943424 -0.037581638 0.035926692 -0.06398881 -0.036063883
0.026849069 0.024775535 -0.023139544 -0.059855524 0.0690929 0.054006077 -0.06073885 -0.0640707
-0.03588576 -0.016834307 -0.016837219 0.016172739 -0.05291562 0.059029434 0.06742716 -0.019731756
0.035459895 0.01058185 -0.00471476 -0.03860735 0.0045791646 0.04878403 0.009714138 0.0046365224
0.046628986 0.0418197 -0.06686682 0.026922058 -0.060337335 -0.065059386 -0.02319039 0.06479264
0.0061582 -0.03427808 0.026315708 -0.047147557 0.016155303 -0.041657984 0.0564606 0.04912081
0.05824311 0.0035487409 -0.04921567 0.0031866133 -0.021891262 0.054763366 0.032848362 0.0076669245
0.020527871 -0.042080164 0.06341418 -0.0027729382 0.006723354 0.071214825 0.018310517 0.057592362
-0.008130259 -0.05786927 -0.027119983 0.025774637 -0.016427515 -0.025097081 -0.03404957 0.057409417
0.06863615 0.027642937 0.062032465 -0.0039987834 -0.0716595 0.044607103 0.0556263 0.009188512
-0.017424662 0.021251665 0.016756382 0.057667065 0.006157317 -0.023829086 0.042182304 -0.061520997
-0.05135589 -0.045509443 0.056925062 0.0342333 0.0023380376 -0.036140423 0.041326385 -0.021450795
0.038520876 -0.0519842 0.033901624 0.050580528 -0.056906577 -0.023108076 0.02662048 -0.06313455
-0.06638283 -0.060919877 -0.04864309 0.040636998 -0.06801216 -0.022049107 -0.002288699 -0.056462407
0.03897815 -0.005660205 -0.021192001 0.056657445 -0.049167074 0.01894786 0.031008586 0.04912123
-0.039496582 0.0024427285 -0.03831506 -0.055796422 -0.013970707 -0.011231527 -0.013819468 0.039105546

module.model.1.model.0.bias f4 [64]
00000000: 05a8 953a f2c1 6d3a 865e 863a 0a42 6f3a
00000010: aa6a 723a 1482 8f3a 3fa4 873a 312e 6a3a
00000020: 4de8 7f3a 2577 863a fe42 6e3a 9d2c 853a
00000030: 9a51 7e3a 2a29 6b3a aeb7 813a a1c4 8d3a
00000040: d311 853a b1b5 853a 4ca0 773a f7fb 6e3a
00000050: 4123 943a c58d 943a c2d0 853a 52c7 863a
00000060: 9c2c 7e3a 6c5f 9b3a 0ec6 8d3a c918 8b3a
00000070: d62b 773a eb12 793a 3533 833a 5da5 7f3a
00000080: d852 7b3a 02e4 883a 9fd9 8c3a 967e 723a
00000090: bc17 863a b9f9 793a 537d 903a c292 803a
000000a0: 960c 823a 8a8c 863a 304a 883a 73d6 853a
000000b0: f235 5e3a a3d7 863a cedb 883a 1e08 8a3a
000000c0: 3e01 8e3a c187 843a 88d4 8d3a daf2 8c3a
000000d0: 16f0 8a3a c241 913a 5ea7 843a d9c3 903a
000000e0: 1a87 683a 53c0 693a 8dda 7b3a 1b3c 6e3a
000000f0: da66 903a c17b 8c3a d98e 633a b541 523a
0.0011417872 0.00090697326 0.0010251559 0.0009126967 0.00092474616 0.00109488 0.0010348632 0.00089332747
0.00097620935 0.0010258897 0.0009088962 0.001016039 0.00097014906 0.00089706725 0.000989666 0.0010816046
0.0010152407 0.0010201243 0.00094461883 0.0009116525 0.001130201 0.0011333755 0.0010209309 0.0010282791
0.00096959784 0.0011854 0.0010816471 0.0010612245 0.00094288343 0.0009501415 0.0010009768 0.0009752119
0.0009587235 0.0010443928 0.0010746008 0.000925043 0.0010230462 0.0009535808 0.0011023678 0.0009809362
0.0009921964 0.0010265273 0.0010398086 0.0010211006 0.00084766664 0.0010287653 0.0010441483 0.0010530984
0.001083411 0.0010111259 0.0010820786 0.0010753528 0.0010600116 0.001108222 0.001012068 0.0011044695
0.00088702294 0.0008916903 0.0009607457 0.0009087936 0.001101698 0.0010718034 0.0008680649 0.00080206554

module.model.1.model.1.weight f4 [64]
00000000: 13f9 7f3f dc09 803f ab06 803f b005 803f
00000010: b307 803f 2a01 803f 8cfc 7f3f 4309 803f
00000020: 5509 803f 8803 803f ce00 803f 3500 803f
00000030: ecef 7f3f 5e09 803f 34f3 7f3f ed07 803f
00000040: fc08 803f 7df2 7f3f 4705 803f c901 803f
00000050: cfee 7f3f 98ff 7f3f 0f00 803f ef05 803f
00000060: 7e09 803f d203 803f 11f1 7f3f f307 803f
00000070: 7dee 7f3f 0607 803f 8feb 7f3f 11f1 7f3f
00000080: c7ea 7f3f e4ea 7f3f 61f5 7f3f dcec 7f3f
00000090: e5ed 7f3f 2d09 803f 69ff 7f3f d5f1 7f3f
000000a0: ac08 803f e109 803f 260a 803f d6ec 7f3f
000000b0: 4f0a 803f 80ee 7f3f 22ec 7f3f d2ef 7f3f
000000c0: 6808 803f a9eb 7f3f f4ec 7f3f 87ee 7f3f
000000d0: 51fb 7f3f 8b02 803f 51ed 7f3f ca07 803f
000000e0: ac09 803f 77f7 7f3f 5c00 803f c8ed 7f3f
000000f0: cbed 7f3f 0aef 7f3f 6709 803f 6e07 803f
0.9998943 1.0003009 1.0002035 1.0001736 1.000235 1.0000355 0.9999473 1.0002826
1.0002848 1.0001078 1.0000246 1.0000063 0.99975467 1.0002859 0.99980474 1.0002419
1.0002742 0.9997938 1.000161 1.0000545 0.9997377 0.9999938 1.0000018 1.0001811
1.0002897 1.0001166 0.99977213 1.0002426 0.9997328 1.0002143 0.9996881 0.99977213
0.99967617 0.9996779 0.99983793 0.99970794 0.99972373 1.00028 0.999991 0.9997838
1.0002646 1.0003015 1.0003097 0.9997076 1.0003146 0.999733 0.99969685 0.9997531
1.0002565 0.99968964 0.99970937 0.9997334 0.99992853 1.0000776 0.9997149 1.0002377
1.0002952 0.99986976 1.000011 0.999722 0.9997222 0.9997412 1.0002869 1.0002267

module.model.1.model.1.bias f4 [64]
00000000: d980 0ab9 bf72 8839 4f69 1039 e2b7 06b9
00000010: c281 02b9 11af 25b9 8350 b6b8 6520 3d39
00000020: 1c3b 8b39 5f25 94b9 9ff2 7638 6de5 d3b7
00000030: b103 66b9 8595 8f39 6673 6eb9 dbd9 0539
00000040: f987 9539 96bb 02b9 d393 3e39 6c74 13b9
00000050: b2b8 9db9 f110 9ab9 80bd 65b9 ab45 1e38
00000060: e507 9039 f4e6 21b9 7de3 93b9 c945 e6b7
00000070: 5f27 86b9 41e5 2c39 c585 79b9 95d9 97b9
00000080: 092b a7b9 ad2d 8cb9 f005 cab7 e3ba a0b9
00000090: 7e09 99b9 a3aa 2639 3711 a6b9 1742 70b9
000000a0: 4cea 7839 2076 6e39 8714 4237 c143 a7b9
000000b0: 2139 8b39 c4cc 9ab9 413e 85b9 9881 91b9
000000c0: 0a77 1fb9 68c6 a0b9 cf8d a5b9 be7e 6eb9
000000d0: 09e6 02b9 37ce be37 135e 87b9 05b2 48b9
000000e0: d045 7439 64e9 9fb8 e2d3 a938 d1f1 3437
000000f0: 5ce3 9cb9 2648 94b9 8be5 a139 04e3 1039
-0.00013208705 0.00026025434 0.0001377214 -0.00012847738 -0.00012446105 -0.00015800844 -8.693433e-05 0.00018036512
0.00026556186 -0.00028256603 5.887693e-05 -2.5259995e-05 -0.00021935884 0.00027386486 -0.00022740438 0.00012765026
0.00028520802 -0.00012467647 0.00018174881 -0.00014062383 -0.00030082982 -0.0002938579 -0.00021909736 3.773502e-05
0.00027471702 -0.00015440193 -0.00028207517 -2.7450633e-05 -0.00025587805 0.00016488602 -0.00023796324 -0.00028963076
-0.00031884786 -0.00026736912 -2.4083041e-05 -0.0003065682 -0.00029189506 0.00015894561 -0.00031674813 -0.00022912804
0.00023738405 0.00022741454 1.15680805e-05 -0.00031903203 0.0002655471 -0.0002952573 -0.0002541412 -0.0002775311
-0.00015207767 -0.00030665402 -0.00031576908 -0.00022744664 -0.00012483461 2.2745791e-05 -0.00025819297 -0.00019139804
0.0002329566 -7.625183e-05 8.098014e-05 1.0785138e-05 -0.00029924035 -0.00028282515 0.00030879336 0.0001381748

module.model.1.model.1.running_mean f4 [64]
00000000: ed9b f8b9 b9fd 993a dac8 ea3a 6a85 09b9
00000010: f9be 0239 a1a0 933a c893 0f3b 3e95 753a
00000020: 3f78 1db9 8f40 093b 7416 53b9 b224 bc3a
00000030: 277c 183a d769 303a cf27 923a 845c ce3a
00000040: dcef 3239 34eb ba3a 42b1 eab8 df10 6339
00000050: 0fd3 26ba 0b82 0b3b 3e3f 9b38 bc96 073b
00000060: db4e 5dba af6f 083b 16a6 aa3a 418f 0e3b
00000070: 8f82 acb8 91b1 10b9 b204 163b 9e7f c13a
00000080: 823f 3dba 4a96 543a 52b0 a139 2524 9339
00000090: 3634 743a 448d d6b8 5c82 273a 687f 433a
000000a0: a7c7 a339 8c6f 493a 1b2e 093b 6381 f33a
000000b0: 264d f43a 7799 a73a 0428 b6b9 d250 fc39
000000c0: fbf2 68b9 2b4a 923a 2155 213b 0866 a33a
000000d0: f27b 0a3a 183d 9b3a e059 043b 9f65 0cba
000000e0: fe55 b03a 935f 2e3b abce 6b3a 47f1 883a
000000f0: 0f4d 6e3a 1ded f43a ddb6 3b3a da30 b4b9
-0.0004741842 0.0011748589 0.0017912642 -0.00013115039 0.00012468909 0.0011263081 0.0021908153 0.0009368247
-0.00015017482 0.002094302 -0.00020130893 0.0014354198 0.000581684 0.00067296386 0.001115078 0.0015744125
0.00017064757 0.001426077 -0.00011191006 0.00021654692 -0.00063638476 0.0021287228 7.402756e-05 0.002068921
-0.00084422313 0.0020818522 0.0013019468 0.0021752866 -8.2259176e-05 -0.00013799059 0.0022890982 0.0014762764
-0.0007219241 0.0008109553 0.00030839682 0.00028064955 0.00093156414 -0.00010230628 0.00063899695 0.00074576447
0.00031238535 0.0007684163 0.0020932022 0.0018577989 0.0018638715 0.0012786825 -0.0003474356 0.000481254
-0.00022215761 0.001116102 0.0024617391 0.0012466321 0.00052827515 0.0011843769 0.0020195171 -0.0005355719
0.0013453362 0.002660726 0.00089953345 0.0010447883 0.0009090462 0.0018686388 0.00071607326 -0.00034368673

module.model.1.model.1.running_var f4 [64]
00000000: 42ef c23a e980 ee3a 2be1 133a 8058 3d39
00000010: 5728 8739 7f7a 2e39 a883 4c3a 3d85 8239
00000020: 0cc9 3e3a 3892 3839 9707 8a3a eab4 a138
00000030: 6e1f a238 28b4 0438 6fa9 1139 b56f b738
00000040: d2f7 5d3a 455c 0738 c467 a339 2a59 8d39
00000050: 8b40 fc38 627a b438 42c4 2d3a 1df3 1539
00000060: 653e 9e3a 4df6 5639 2f3c 073a 58fb 9839
00000070: 2e0a bc38 7b1c 1639 9aaa 3c3a 295b e838
00000080: 255a ab38 498b ed3a c4c9 ce38 50fb 8a3a
00000090: 5647 d43a 8b7f 8d3a c40d 1f3b 508a fe37
000000a0: 7045 163a fb95 c638 ba97 cf38 9652 fc38
000000b0: 191b 5039 26ac 7938 d871 be38 9599 3c3a
000000c0: f216 e539 0b8f 3c39 d75a 1a3a bfc0 cd37
000000d0: 1f01 5c3b ada7 1339 e25d 243a 5568 ea39
000000e0: 7237 9439 eb19 8f39 216e 143a 1463 3e3a
000000f0: c3e9 4d3a dd91 973a 959d 023a 5b88 7039
0.001487233 0.0018196377 0.00056411576 0.00018057413 0.00025779262 0.00016639566 0.0007801601 0.00024894802
0.0007277883 0.00017602078 0.0010530826 7.710776e-05 7.730616e-05 3.1639036e-05 0.00013891397 8.746927e-05
0.0008467409 3.227244e-05 0.00031167094 0.00026960048 0.000120283185 8.6058644e-05 0.0006628671 0.00014300314
0.0012073038 0.00020500385 0.00051588094 0.00029178965 8.966435e-05 0.00014315725 0.00071970525 0.00011079602
8.170706e-05 0.0018123175 9.860427e-05 0.0010603461 0.0016195576 0.0010795457 0.002426968 3.0343566e-05
0.0005732393 9.469312e-05 9.8987904e-05 0.00012031679 0.0001984652 5.9526552e-05 9.081111e-05 0.00071945164
0.0004369538 0.00017982365 0.000588817 2.4527659e-05 0.0033570004 0.00014081477 0.0006270093 0.0004470969
0.0002827007 0.00027294396 0.00056621624 0.00072626886 0.00078549626 0.0011563856 0.0004982588 0.0002293898

module.model.1.model.3.weight f4 [64, 64, 3, 3]
00000000: cdd6 82bd af10 303d 5eae ec3c 042e 31bb
00000010: 28b3 363d 4cde 683d 4aaf 6ebc bb26 9dbc
00000020: 08f2 1d3d be6c 14bd 9a79 3c3d fc77 683d
00000030: 96c2 5c3d 9aca 583c b8aa ddbc acfb 553c
00000040: a988 f0bc 933c 7f3d 2635 3b3c 5794 83bd
00000050: 1844 11bd ba97 67bd d0df 98bb 6822 7a3d
00000060: 49fd 58bd a3e8 01bd 84e1 533d 6fa9 93bd
00000070: 9618 383c 7aad b6bc 2c14 5ebd 1f1e 083d
00000080: 47cc 4bbb 77a5 a9bc beb0 3ebd bdc0 b4bc
00000090: 03e6 babc e3b1 fbbc 54f0 6e3d 453b 343d
000000a0: 484b 72bd 1d35 b63c d500 86bc 3aaf 4b3b
000000b0: 397e 633d ec3b 52bd b9ba 6fbd c724 7c3b
000000c0: 24f4 77bd ff94 c9bc 7959 f33c a0b3 d43c
000000d0: d655 5dbd 6185 913d 1b42 c3bb 8a3a 4d3c
000000e0: b6e1 5fbc 6f74 17bc cc29 3f3d 9e94 19bb
000000f0: 1869 0c3d 34a4 473d 099c 0dbb c08c 17bd
00000100: bb23 91bd edce 53bd bde0 8bbd 6116 413d
00000110: de56 91bd 88b9 8d3d 145a 043d 8245 07bd
00000120: 8abe 693d 0196 8a3c 5d53 4fbc b0d1 4c3c
00000130: d875 3abd 8df9 473c 35f0 3bbb 022b 86bd
00000140: f60e f63c f6e0 a5bc 3226 31bd 0b05 8abd
00000150: fb73 6e3d 607b abbc 04c6 31bd 6253 1c3d
00000160: 5b6a 57bc bf87 82bd 8308 45bc 4718 633c
00000170: 93ce 42bd cafe 053d 7a57 56bd cde7 5abd
00000180: ef60 463d d88f bb3c 3c59 65bd d0c3 8b3d
00000190: 5eaf 0cbd 5ad3 243c 974b 70bd 43ad 2b3d
000001a0: 14fe 88bd 527a 41bd 104e f43c 4926 b33c
000001b0: 0296 72bd bf5b bc3c 3d8b 853d 4203 50bd
000001c0: 29a9 45bc a255 913d f39c 62bd e4a8 efbb
000001d0: 9846 89bd a8db 6c3d 59d5 46bd 69b6 473d
000001e0: 9492 20bd e8d3 f7bc 6aed 8b3d e334 6f3d
000001f0: 9396 51bd 2022 92bd f5eb 583d 976c aebc
00000200: 46a2 c03c d678 54bb 3cf5 9a3c 3ecb 3fbd
00000210: a223 97bc 3c79 5cbd a2c3 093d 5d1d 8abd
00000220: d4a8 c8ba fab5 dabc 2334 7e3d 1adf 1dbd
00000230: 3618 92bd 626a ab3c 4f8c 833a bf68 4dbd
00000240: 31f9 4dbd 3e3e 4a3d 1979 3abd a431 83bd
00000250: a47d 033d e13e 983c 7c2a d93c 087d 1b3d
00000260: cae3 223c 0b9e b9bb 227d 19bd 184d 53bd
00000270: 7877 6a3c 408c 693d badb 87bd 7520 373d
00000280: acd6 67bd a02c cd3a bd55 4cbd 0647 f13c
00000290: befc 68bb 36ba ddbc 34d2 76bd 22a1 b3bc
000002a0: 9e0a 943d 42a5 823d 2ed4 933c da2e 943d
000002b0: 1e58 8dbd fb28 be3a e235 0bbd 8147 583d
000002c0: af54 1fbd 7dbf 69bd bd18 8cbd 5a6a ddbc
000002d0: 60fc 12bb 2d50 20bd 5b14 78bd 1a83 6fbd
000002e0: 0f01 3dbd c561 37bd 9075 583d d19f 933c
000002f0: 68ec 89bd 475c fc3c b0c9 35bd 4805 24bd
00000300: 3ef3 82bc b91e 8dbc 1931 94bc c372 52bd
00000310: fdda 0fbd 0ff6 5cbd b14e 7fbb 6a07 0b3d
00000320: 7a69 92bd c907 413d 9dc2 8b3d b2e0 be3c
00000330: 81e0 903c 5c57 c03c f8b7 3bbd 306c 0f3d
00000340: 80f1 753d 40c1 65bd 93de 84bd 3f0a 5d3d
00000350: e716 893d 48c2 77bd 0ea9 353d 789e 25bc
00000360: 234f 69bd 5da2 903d df83 25bd c173 4a3c
00000370: ca40 813d a1d3 df3c e023 fa39 b0e0 373d
00000380: 57bc 19bd 0cab 723d a3d7 dcbc eeaf 60bd
00000390: 7efb 0fbc 0bb5 633b 8d6c 83bb 47e9 633d
000003a0: 2463 fbbc 12a4 7dbd 97c3 65bd 3b76 df3c
000003b0: ee12 a73a aa1a 47bb dca2 713d 1653 ea3c
000003c0: 6042 5d3d e5c6 643c 33b1 31bd 8853 fc3b
000003d0: 2297 e9bc 5a25 943c 3c05 803d b120 a5bc
000003e0: 065a 563c c44e 1dbc 88ac 883d c39b 813d
000003f0: bcf6 623d caf0 ea3c 6194 88bd 1e01 533d
-0.06388626 0.04298466 0.028891739 -0.0027035484 0.04460445 0.056852624 -0.014568159 -0.019183507
0.038560897 -0.036236517 0.046014406 0.05675505 0.05389651 0.013231898 -0.027058944 0.0130604915
-0.02936204 0.062313627 0.011426246 -0.06424778 -0.03546533 -0.056541182 -0.0046653524 0.06106797
-0.052975927 -0.031716 0.05172874 -0.07210051 0.0112363305 -0.022299517 -0.054218456 0.03323185
-0.00310971 -0.020708783 -0.046555273 -0.022064561 -0.022814756 -0.030724471 0.058334664 0.044001836
-0.059153825 0.022242123 -0.016357819 0.0031079785 0.055540297 -0.051326677 -0.058527682 0.003847407
-0.060535565 -0.02460718 0.02970575 0.025964558 -0.054036938 0.07105518 -0.005958808 0.012526164
-0.0136646535 -0.0092440685 0.04667072 -0.002343453 0.034279913 0.04874058 -0.0021607897 -0.036999464
-0.07086893 -0.05171101 -0.06829975 0.047140483 -0.07096647 0.06920153 0.032312468 -0.033025272
0.057066478 0.01691723 -0.012654153 0.012501165 -0.04552254 0.012205494 -0.002867711 -0.06551172
0.03003643 -0.020248871 -0.043249317 -0.06739243 0.058216076 -0.020932853 -0.043401733 0.038165458
-0.013147916 -0.06373548 -0.012025955 0.013860769 -0.047560286 0.03271369 -0.052329518 -0.05344372
0.048432287 0.022895738 -0.055993304 0.06824458 -0.03434693 0.010060156 -0.058665838 0.041913282
-0.066890866 -0.047235794 0.02982238 0.021868842 -0.05922509 0.022992967 0.06520698 -0.050784357
-0.012064257 0.07096411 -0.05532546 -0.0073138345 -0.06702918 0.057826668 -0.048543308 0.048757944
-0.039202288 -0.030252412 0.068323925 0.058400046 -0.05116899 -0.07135415 0.0529594 -0.021292014
0.023514878 -0.0032420657 0.018915765 -0.046824686 -0.018449608 -0.053826556 0.033633836 -0.06743882
-0.0015309104 -0.026698101 0.06206144 -0.038542844 -0.07133524 0.02092475 0.0010036322 -0.05014872
-0.050286476 0.049375765 -0.045525644 -0.064059526 0.032102242 0.01858467 0.026509516 0.037961036
0.009942004 -0.005664592 -0.03747285 -0.051587194 0.01431071 0.05701852 -0.066337064 0.044708688
-0.05660121 0.0015653558 -0.049886454 0.029452812 -0.0035551037 -0.027066331 -0.06025906 -0.02192742
0.072285876 0.06379177 0.018045511 0.07235499 -0.06901573 0.0014508063 -0.033986934 0.052802566
-0.03889912 -0.057067383 -0.06840656 -0.027028251 -0.002242826 -0.03913896 -0.060566287 -0.058474638
-0.046143588 -0.044770975 0.05284649 0.018020542 -0.06734544 0.03080572 -0.044381797 -0.0400441
-0.015985128 -0.017226564 -0.018089818 -0.051378977 -0.035120953 -0.053945597 -0.0038956816 0.033942617
-0.07149024 0.047126565 0.06824229 0.023300502 0.017685177 0.023479156 -0.045829743 0.035015285
0.060044765 -0.0560925 -0.06487765 0.05396485 0.066938214 -0.060488015 0.044350676 -0.010108583
-0.056960236 0.07062218 -0.040408965 0.012356699 0.06311186 0.027322592 0.00047710445 0.044892013
-0.03753313 0.059245154 -0.026958292 -0.05485528 -0.008787988 0.0034745361 -0.004010743 0.055642392
-0.030686922 -0.061924048 -0.056094732 0.027278056 0.001274673 -0.0030380883 0.058993205 0.028604072
0.05401838 0.013963436 -0.04338188 0.0077003874 -0.028514449 0.018084217 0.062509984 -0.02015719
0.013082987 -0.009601299 0.06673533 0.06328537 0.055411085 0.02867927 -0.06668926 0.051514737

module.model.1.model.3.bias f4 [64]
00000000: 8e62 7a3a ffdd 863a f834 823a 3d9d 833a
00000010: f382 833a b106 823a 6364 903a ec5f 893a
00000020: 58b2 843a 2355 833a 7625 853a b3b7 8f3a
00000030: 6120 823a 0eef 7f3a 6b30 863a ea13 7e3a
00000040: afc8 823a 0d4d 7d3a 6617 803a 0593 833a
00000050: 8ac9 743a 84c1 853a 7b5e 803a df10 833a
00000060: 2702 863a 7a08 833a b295 843a 0d12 823a
00000070: b351 873a d8a9 863a 22f9 833a 0397 813a
00000080: db2a 843a 9e94 893a f35d 8c3a dd69 8b3a
00000090: d3c8 803a 4633 803a 75c6 833a 5c14 783a
000000a0: 10f8 803a c038 873a dd2b 813a 87fc 863a
000000b0: 0dd8 783a 4acb 833a c63d 843a 8fb3 823a
000000c0: 54b8 843a 40f6 7a3a 5d13 843a 97b3 813a
000000d0: 6431 8f3a 5ebe 813a 28c4 783a 444c 7d3a
000000e0: adbd 893a 1ad1 843a 7456 763a ede0 863a
000000f0: 39c3 853a cf94 863a a7ed 823a d07e 853a
0.0009551429 0.0010289549 0.0009933999 0.0010041367 0.0010033533 0.0009920207 0.0011016246 0.0010480857
0.0010123951 0.001001988 0.0010158259 0.0010964781 0.0009927863 0.00097631 0.0010237818 0.00096922985
0.0009978021 0.00096626655 0.0009772598 0.0010038322 0.0009337893 0.0010204767 0.0009793782 0.0009999535
0.001022403 0.0009997033 0.0010115413 0.0009923592 0.0010324031 0.0010274006 0.0010068754 0.0009886924
0.0010083573 0.0010496562 0.0010709151 0.0010636408 0.0009825475 0.0009780906 0.0010053652 0.0009463483
0.0009839553 0.0010316595 0.0009854991 0.0010298648 0.00094926433 0.0010055092 0.0010089211 0.0009971726
0.0010125735 0.0009573437 0.0010076571 0.0009895441 0.0010924754 0.0009898653 0.0009489679 0.00096625485
0.0010508798 0.0010133118 0.0009397038 0.0010290422 0.0010205276 0.0010267737 0.0009989039 0.0010184888

module.model.1.model.4.weight f4 [64]
00000000: 4102 803f 59f1 7f3f 56eb 7f3f 7bea 7f3f
00000010: 1a09 803f 24ec 7f3f 9fea 7f3f 99f0 7f3f
00000020: 4ffd 7f3f 2709 803f 94f2 7f3f 64ea 7f3f
00000030: 530a 803f 380a 803f bcf1 7f3f e30a 803f
00000040: 5c09 803f d30a 803f e4ea 7f3f dcec 7f3f
00000050: cf0a 803f 44eb 7f3f e609 803f 67ff 7f3f
00000060: a1f2 7f3f 720a 803f 62eb 7f3f 070a 803f
00000070: 970a 803f 42ea 7f3f 5dea 7f3f 9305 803f
00000080: c3ed 7f3f 9fea 7f3f 49ea 7f3f 97ea 7f3f
00000090: 900a 803f 3203 803f dc08 803f 260a 803f
000000a0: 1c0a 803f 3deb 7f3f 3300 803f 9ded 7f3f
000000b0: ca0a 803f 5bea 7f3f bc0a 803f 6501 803f
000000c0: 2304 803f 3e08 803f 2ff6 7f3f 950a 803f
000000d0: 5cea 7f3f 2c0a 803f d20a 803f a7ea 7f3f
000000e0: 52ec 7f3f 4aea 7f3f dc0a 803f 63ea 7f3f
000000f0: f5eb 7f3f 310a 803f 7aea 7f3f 23eb 7f3f
1.0000688 0.9997764 0.9996847 0.99967164 1.0002778 0.99969697 0.9996738 0.999765
0.99995893 1.0002793 0.9997952 0.99967027 1.0003151 1.0003119 0.9997823 1.0003322
1.0002856 1.0003303 0.9996779 0.99970794 1.0003299 0.9996836 1.0003021 0.9999909
0.999796 1.0003188 0.9996854 1.000306 1.0003232 0.99966824 0.99966985 1.0001701
0.9997217 0.9996738 0.99966866 0.9996733 1.0003223 1.0000975 1.0002704 1.0003097
1.0003085 0.9996832 1.0000061 0.99971944 1.0003293 0.99966973 1.0003276 1.0000426
1.0001262 1.0002515 0.9998502 1.0003229 0.9996698 1.0003104 1.0003302 0.99967426
0.9996997 0.9996687 1.0003314 0.9996702 0.99969417 1.000311 0.9996716 0.99968165

module.model.1.model.4.bias f4 [64]
00000000: fde3 a939 7f01 aeb9 32b8 a8b9 d621 acb9
00000010: f80e 1138 37e9 a2b9 aa92 aeb9 0875 adb9
00000020: c931 9db8 69c0 ad39 ef08 a4b9 8d3b aeb9
00000030: 89ce aa39 ef50 9139 2f5b aeb9 4abd ae39
00000040: cdaf a139 6c0a af39 03d0 adb9 aec8 aab9
00000050: 4d81 ad39 c15f aab9 27f7 ab39 6687 2b39
00000060: 3364 a9b9 0f5d a739 155a aeb9 36e0 aa39
00000070: 3f2c a039 c0fa aeb9 31b2 aeb9 acf2 4cb9
00000080: 788a a9b9 93f4 adb9 0ead aeb9 ca92 aeb9
00000090: de49 ae39 e75d a439 b117 ab39 c68c ab39
000000a0: b56a a539 dcd0 acb9 3192 aa39 eee2 9cb9
000000b0: adab ad39 17cb aeb9 a2e0 ad39 c8db db38
000000c0: a68e 9e39 a65f 9f39 a3b5 abb9 7ce8 ae39
000000d0: 86ce aeb9 2b3c ae39 0d96 ae39 4c3d adb9
000000e0: aa86 a9b9 3ebb aeb9 3514 af39 5d64 aeb9
000000f0: 5020 a5b9 01bc edb6 0b15 aeb9 9cae aeb9
0.00032404056 -0.0003318898 -0.00032180693 -0.00032831606 3.4584635e-05 -0.00031072806 -0.0003329714 -0.00033084326
-7.4956166e-05 0.00033140488 -0.00031287174 -0.00033232235 0.00032578807 0.00027716855 -0.00033255803 0.00033328898
0.00030839295 0.00033386366 -0.00033152112 -0.00032574445 0.00033093468 -0.0003249627 0.00032799804 0.0001635827
-0.00032308846 0.00031922056 -0.00033254983 0.00032591977 0.00030550544 -0.0003337469 -0.0003332063 -0.00019545358
-0.0003233736 -0.00033179353 -0.00033316802 -0.00033297233 0.00033242902 0.0003135048 0.00032633313 0.00032720546
0.00031550755 -0.0003296201 0.00032533848 -0.00029923714 0.0003312504 -0.0003333918 0.00033164496 0.00010483671
0.0003024239 0.00030398107 -0.00032750992 0.0003336108 -0.00033341738 0.00033232695 0.00033299663 -0.000330428
-0.00032334524 -0.00033327373 0.00033393656 -0.00033262643 -0.00031495327 -7.085037e-06 -0.00033203544 -0.0003331796

module.model.1.model.4.running_mean f4 [64]
00000000: a9fe a5be 5ec1 cd3e 2c68 01be 6c24 963d
00000010: e6d4 0d3c eaa7 02be 9ad9 70be 0f7d 06bd
00000020: e122 c53e 459f 3e3f 4744 0c3d 4a25 ccbe
00000030: 9fbd bc3e 0d80 8a3e d2e6 b53e 666a 953d
00000040: 2dd7 0ebf d0ee 883d f2ef 583e 0b79 c0be
00000050: be2e c8bd d819 d2be 7e77 a83d dd19 ac3d
00000060: 7f49 60be 0489 43bf cd59 383e 40d5 a83e
00000070: 0589 23bf e0cb 7bbe 2d91 50be ff2b de3d
00000080: 2436 833e 53ee e03d 8fe5 cfbe f362 a0bd
00000090: ea24 3fbe 46da 6e3e 2021 e3be d78a d63d
000000a0: af88 ad3e 795f cd3d 3f64 59bd e6a1 afbb
000000b0: dbe0 123d 875c 7bbe 44c3 64be 029a 2f3e
000000c0: e37e a63e 9317 f53d e86c 403f 394a 04be
000000d0: 6c84 173e 6dce cf3e ce1c 22be b285 9d3e
000000e0: ba26 dbbe 7635 3a3f 2336 1b3e d038 8b3e
000000f0: 3fbf 853e 50ea 813e 1c16 a1be 4c25 a2bd
-0.32420853 0.4018659 -0.12637395 0.07331166 0.008656716 -0.12759367 -0.23520508 -0.03283411
0.38503173 0.74461776 0.0342448 -0.398722 0.3686342 0.2705082 0.35527664 0.072956845
-0.5579708 0.06686175 0.21185282 -0.37592348 -0.0977454 -0.41035342 0.08225916 0.084033705
-0.21903037 -0.76380944 0.18003006 0.32975197 -0.6388095 -0.24589491 -0.2036788 0.10848235
0.25627244 0.10982957 -0.40604827 -0.07831373 -0.18666425 0.23325452 -0.4436121 0.104757
0.33893344 0.100279756 -0.053074118 -0.005359876 0.03585897 -0.24547015 -0.22340113 0.17148593
0.32518682 0.11967387 0.7516618 -0.12918939 0.14796609 0.40587178 -0.158313 0.30766064
-0.42802984 0.72737825 0.1515737 0.27191782 0.26122472 0.2537408 -0.3146218 -0.0791727

module.model.1.model.4.running_var f4 [64]
00000000: 253f 603f 9283 053e c75a 423f 69d7 073f
00000010: bb57 403f cfa4 453e 9519 4d3e 9420 ac3e
00000020: d595 853e cdc8 ba3e aa4b 3b3e c0c1 ed3d
00000030: d12c 133e 429f ba3e 1472 903e ad9e 803e
00000040: 19e2 ea3e 1fe3 b13d a1d1 043e 605b aa3e
00000050: 6c6a 793e 9f0a 733e a247 043e 957b 273f
00000060: d79f 1c3f 2653 a93e bb7e 503f aaed ec3d
00000070: 42a0 7e3e 566f 763e 2c5f 503e ac42 0f3e
00000080: 14b2 0e3e 6be2 1c3f 3646 3e3e 056f a63e
00000090: ef3d a63e d1f6 263e 5a24 a63e 8625 623e
000000a0: bbf8 3c3e 4897 013e 6431 f03e 9d93 cb3d
000000b0: ccf1 093f 0211 ac3d cdd7 0c3f 95ae b03d
000000c0: e603 bf3e ed5e 9f3e a89a 263f 4a2b 933e
000000d0: 5aeb e13d 2414 633e 2aac 6a3e f7d7 8b3e
000000e0: 4996 0b3e 0740 ac3e 88e0 6d3e 72bb 343f
000000f0: 81fd 713e d4c8 3f3e 6111 153e bffa 583f
0.8759635 0.13038471 0.75919765 0.53063065 0.75133866 0.1930115 0.2002929 0.33618605
0.26090875 0.36481324 0.18290582 0.116092205 0.14372565 0.3644963 0.28212035 0.2512106
0.45875624 0.08685898 0.12970592 0.3327284 0.24357003 0.2373452 0.12917951 0.65422946
0.61181396 0.3307125 0.81443375 0.11568768 0.24865821 0.24065909 0.20348805 0.13990277
0.13935119 0.61282986 0.18581471 0.32506576 0.32469127 0.1630509 0.3244961 0.22084627
0.18454258 0.12655365 0.46912682 0.099402644 0.5388458 0.084016815 0.55016786 0.08627049
0.37307662 0.3112711 0.65079737 0.28743964 0.11031218 0.22175652 0.22917238 0.27313206
0.13631548 0.336426 0.23230183 0.7059852 0.2363186 0.18728954 0.14557411 0.8475761

module.model.2.model.0.weight f4 [64, 64, 3, 3]
00000000: f5b5 97bc cba4 2ebd f496 713c 2764 303c
00000010: 1a59 89bd 4b02 313d 50d0 103b 4edf 8abc
00000020: 3571 6d3b f737 3a3b a861 f6bb 36bc 5fbb
00000030: f970 6d3d 4b88 963c 7b3e fdba 5a4b 2cbd
00000040: 2d26 78bd ff6b 49bd c2fc 783d dfae 49bc
00000050: 4eef 3f3d d3e4 e23c 6258 03bd 3a86 523d
00000060: a1b6 07bd 5a7b 923c fe26 5f3d 2e11 923c
00000070: 8095 6d3d 8401 1abd 0393 db3b f184 13bd
00000080: ad07 bcbc e373 123d ab58 453d 843d 1a3d
00000090: b506 21bd 8350 813d ebd6 6dbd a316 90bd
000000a0: 3b7b 423d 2e5d 5dbd 88b8 8d3b 9761 1cbd
000000b0: 68d7 823d a170 adbc 633e b23c fb37 553b
000000c0: 400e 83bd 4a68 01bd f412 283c fe7b 54bd
000000d0: 3eac 9abc dfd3 a9bc 4ca5 50bd e80e 84bc
000000e0: 1588 153d f603 5fbd ea09 07bd d707 2bbc
000000f0: b6f6 893c 7ef2 1dbd 7d88 d63c 3e3a d3bc
00000100: 3f47 3abd d49a d0bc 28ec a93b daf0 87bd
00000110: c7ec 19bd 485b 98bc adc7 d1bb f2c2 f1bc
00000120: ae59 063d 9597 52bd af42 da3b 3746 de3a
00000130: 4c7c 923d 60df 523d 3404 39bd 8552 00bd
00000140: 2902 d5bb 312a 1f3d c5c0 36bd 4432 84bd
00000150: e587 fa3c 6e53 3dbd 4de8 80bd ccd6 7fbd
00000160: 42f3 89bb dd46 8b3d 881c 863b 3f54 64bd
00000170: d4f0 813d c891 683d c9ce aebb 501a 9dbc
00000180: 9892 dcbc 15db 33bd c5f4 37bd 194b 43bd
00000190: 31b4 793d 78c9 6a3d e199 5a3d e207 2e3d
000001a0: 54f4 883d f5e8 273b e1cf 58bd 1089 4d3c
000001b0: 443c 873c 92d0 6c3c 467b b5bb 66f7 733d
000001c0: 59fd 6e3c a18c 80bd eada 803c 2535 21bd
000001d0: 32cd 39bd 4c80 4b3d a6c9 78bd 0f3f 1dbc
000001e0: e0bf a4bc 7721 1c3a 36ed 7b3d 54a6 a23c
000001f0: 67a2 043d 66e7 5cbd f773 f3bc c6bf 47bd
00000200: bcda 343c 9c57 023d 263c 31bd a112 0f3d
00000210: c3dc 383b 2e59 8cbd 13ac 81bd c776 283c
00000220: a201 3e3d d9d2 403b 43b3 8f3d 03bf 803d
00000230: ff50 60bd a448 2ebd feb7 fa3c ed6c 26bd
00000240: 8e24 6cbd 1cc8 f93c 9ef2 92bd efee 993c
00000250: 0b99 b8bb 1d40 72bd fd5b 2c3d c694 71bd
00000260: 24e7 84ba 7b53 183d f761 8b3d 54e1 3f3d
00000270: 62e7 7d3c 652c 0cbd c5b4 e2bc 036c 933b
00000280: 6314 a03c e2d3 04bd 402f 173d dbe6 0abd
00000290: 7cd8 00bd 1143 3f3d 1eb4 823d f7b9 90bc
000002a0: 0f87 903c 2bb9 4abc eeab 153d ee05 71bd
000002b0: cc94 553c 98d3 02bd f2a7 893d 066e 823d
000002c0: 56cb 0fbd 016f 0fbd e72d 7c3d ef8b 68bd
000002d0: 6398 92bd 21e4 83bd 2226 8d3d fd4b 5dbd
000002e0: 9002 39bd d7f6 7c3d 888c 193d 858f 3d3c
000002f0: da66 94bc 9d17 f03c 5603 6a3d a719 fa3b
00000300: d915 ffbc 751c d9ba 4983 2dbd e35f 45bd
00000310: 6302 233d 9f0c 5f3d 2f08 03bd b1d7 b5bb
00000320: da5f 99bc 7d8c 51bd 3f7a 8cbc 6e6e 73bd
00000330: 3468 c03c 0a45 013c e1c8 663c 3c82 39bb
00000340: 1dfd 08bb 1180 3fbd bdd2 c63c f396 d93a
00000350: a456 7c3c 2dea 363d d4f2 64bc b250 f73c
00000360: 1164 4fbc 1519 863d b50a 8d3a fcc9 9cbb
00000370: 4bbf 18bd 64e2 d4bb 7383 913a ecc8 853d
00000380: ceca 95bb 65f5 03bd 5fe1 15bd a417 f1bc
00000390: df45 1f3d c8dd 823b b0a7 50bd a604 8d3d
000003a0: 6b07 41bd 2ad7 093d b579 8b3d c5a4 98bc
000003b0: 1919 e13c d2e7 fe3c 9019 dc3c af82 403d
000003c0: a4b1 313d 81f5 d83c ec6f 84bd 909c 83bd
000003d0: 6e53 923d 8a35 22bd 9ec1 b63c 67f2 8b3d
000003e0: 6bd7 d0bc a1fd 2e3d a16f 313d 2331 813d
000003f0: 303b 1abd c5ae 703c 0633 783d c41c 5ebd
-0.018519381 -0.042637628 0.014745463 0.010766066 -0.06706448 0.043215077 0.002209682 -0.016952183
0.0036230807 0.0028414705 -0.0075189658 -0.0034139282 0.057969067 0.018375536 -0.0019320989 -0.04206405
-0.060583282 -0.04917526 0.060787924 -0.012309759 0.046859078 0.027697003 -0.03206671 0.05139754
-0.033133153 0.017881084 0.054480545 0.017830458 0.058003902 -0.0375991 0.006700875 -0.036015455
-0.022952879 0.03575505 0.048180263 0.037656322 -0.039313037 0.063141845 -0.05806629 -0.070355676
0.047480803 -0.05404394 0.0043249764 -0.038179006 0.06388742 -0.02117187 0.021758264 0.0032534588
-0.06399202 -0.0315936 0.010258425 -0.05187606 -0.01888096 -0.02073091 -0.05093889 -0.01612039
0.03650673 -0.054447137 -0.03296844 -0.010438881 0.016841274 -0.038561337 0.02618813 -0.025784608
-0.0454781 -0.025464453 0.0051856227 -0.06637736 -0.037579324 -0.018598214 -0.006401977 -0.029511902
0.03280037 -0.05141409 0.0066607813 0.0016958182 0.07152614 0.05148256 -0.045170024 -0.031328697
-0.0065005017 0.038858596 -0.044617433 -0.064549 0.030582378 -0.046222143 -0.06294308 -0.062460706
-0.004209907 0.068006255 0.0040927567 -0.055744406 0.063447624 0.056779653 -0.0053347093 -0.019177586
-0.02692537 -0.043910105 -0.044911165 -0.04767904 0.06096286 0.05732104 0.053369407 0.042487986
0.06687227 0.002562103 -0.052932624 0.012544885 0.01650823 0.014454024 -0.005538377 0.05956211
0.01458677 -0.06276823 0.015729386 -0.039357323 -0.045361705 0.0496829 -0.060739182 -0.009597554
-0.020111024 0.00059559144 0.06150552 0.019854702 0.03238144 -0.053931616 -0.029718382 -0.048766874
0.011038478 0.031821832 -0.043270253 0.034929875 0.0028207756 -0.06852947 -0.06331649 0.010282225
0.046388276 0.002942255 0.07016613 0.062864326 -0.054764744 -0.042549744 0.030605312 -0.040631223
-0.05765205 0.030490927 -0.07175182 0.01879069 -0.0056334785 -0.059143174 0.042079914 -0.058979772
-0.0010139686 0.03718899 0.06805795 0.04684575 0.0154970605 -0.034222025 -0.027674088 0.00449896
0.019540971 -0.03242863 0.036910295 -0.033911567 -0.031456456 0.04669482 0.06382011 -0.0176668
0.017642526 -0.012373249 0.036540918 -0.058843546 0.013035964 -0.031940073 0.06721486 0.063686416
-0.035106026 -0.03501797 0.061567213 -0.056774076 -0.07157972 -0.064399965 0.06892039 -0.054027546
-0.04516846 0.061758842 0.037487537 0.011569862 -0.01811545 0.029308135 0.057132088 0.0076324525
-0.031138347 -0.0016564267 -0.04236153 -0.048187148 0.039797198 0.054455396 -0.031990226 -0.005549394
-0.018722463 -0.05115937 -0.017148135 -0.059431486 0.023487188 0.007889995 0.014085979 -0.0028306386
-0.002090282 -0.046752993 0.02427041 0.0016600773 0.015401516 0.04465692 -0.01397391 0.030189846
-0.012658135 0.06547753 0.0010760637 -0.0047848206 -0.037291806 -0.0064967144 0.0011101797 0.065324634
-0.0045712953 -0.03221645 -0.036591884 -0.029430218 0.038884994 0.0039937235 -0.05094117 0.06885652
-0.047126215 0.033652462 0.06810323 -0.018633256 0.027477788 0.0311164 0.026867658 0.04699963
0.043382302 0.026484253 -0.0646666 -0.06426346 0.07144819 -0.03960184 0.02230912 0.06833344
-0.025493344 0.042722348 0.04331935 0.063082 -0.0376541 0.014690106 0.060595535 -0.05422665

module.model.2.model.0.bias f4 [64]
00000000: 7f76 853a 5839 813a d207 823a dbf4 833a
00000010: c1d3 803a de30 813a aad6 843a 58da 843a
00000020: b0c6 803a aa6d 833a 06bb 843a 1d0a 833a
00000030: 2818 833a b33e 823a f322 833a beb6 833a
00000040: 185d 813a 0715 853a 1951 843a 36d7 823a
00000050: b060 823a 97ad 823a 265f 823a e07c 813a
00000060: 4571 803a 7369 823a ab25 823a 3b3a 823a
00000070: 1878 803a fdb2 823a fea0 843a 1f10 843a
00000080: 2793 823a 8f4e 843a 6695 823a 4895 843a
00000090: 3a76 833a cddb 833a 8bfb 7d3a 21cd 863a
000000a0: 999d 843a 2e78 843a 76e6 833a 6f2d 833a
000000b0: e210 833a 378b 823a 7043 823a ea57 803a
000000c0: f17a 813a 03bc 843a 683d 7f3a 3c2c 843a
000000d0: eb41 833a abe6 833a 7c5b 823a 5a01 803a
000000e0: 2d68 823a a712 833a 4815 843a a149 823a
000000f0: ed8d 833a 8220 843a d05e 823a 4892 833a
0.0010182409 0.0009859009 0.0009920544 0.001006748 0.0009828733 0.0009856483 0.0010134776 0.0010135872
0.0009824838 0.0010027189 0.0010126538 0.0009997521 0.0010001706 0.0009936899 0.0010004923 0.0010048968
0.0009869663 0.0010153361 0.001009497 0.0009982351 0.0009947028 0.0009969947 0.0009946569 0.0009879135
0.0009799382 0.0009949639 0.0009929439 0.0009935567 0.0009801416 0.0009971556 0.001011878 0.0010075605
0.0009962068 0.0010094213 0.0009962737 0.001011529 0.0010029741 0.0010060013 0.0009688667 0.0010284522
0.0010117769 0.0010106617 0.001006319 0.0010008047 0.0009999538 0.0009959702 0.0009938311 0.0009791825
0.0009878558 0.0010126833 0.0009736628 0.0010083984 0.0010014152 0.0010063251 0.0009945477 0.0009766028
0.000994926 0.0010000066 0.0010077143 0.0009940156 0.0010036804 0.0010080489 0.0009946469 0.0010038102

module.model.2.model.1.weight f4 [64]
00000000: d0ea 7f3f 5201 803f 5702 803f 02f6 7f3f
00000010: 5dec 7f3f a808 803f dded 7f3f e6f1 7f3f
00000020: f1f4 7f3f 0409 803f 6d01 803f 4eeb 7f3f
00000030: e7ed 7f3f ac09 803f 210a 803f 80ed 7f3f
00000040: fd06 803f fdeb 7f3f 49fe 7f3f a5ea 7f3f
00000050: 1b00 803f a8f8 7f3f 280a 803f ac03 803f
00000060: 000a 803f c2f7 7f3f cb09 803f 4bea 7f3f
00000070: 4100 803f 4ef7 7f3f 370a 803f 7608 803f
00000080: 2805 803f 5b08 803f 40ef 7f3f 440a 803f
00000090: fa09 803f 13ed 7f3f 9beb 7f3f a90a 803f
000000a0: e203 803f fb05 803f 86fd 7f3f 7b08 803f
000000b0: b0f2 7f3f e306 803f b9eb 7f3f d609 803f
000000c0: 0103 803f 9505 803f 2d09 803f 2ceb 7f3f
000000d0: 70fb 7f3f 3e03 803f 7709 803f e6ff 7f3f
000000e0: 470a 803f bfeb 7f3f 5408 803f 3b09 803f
000000f0: c503 803f df05 803f 8504 803f 96ea 7f3f
0.9996767 1.0000403 1.0000714 0.99984753 0.99970037 1.0002642 0.99972326 0.9997848
0.99983126 1.0002751 1.0000435 0.9996842 0.99972385 1.0002952 1.0003091 0.9997177
1.0002133 0.99969465 0.99997383 0.99967414 1.0000032 0.99988794 1.00031 1.000112
1.0003052 0.99987423 1.0002989 0.9996688 1.0000077 0.9998673 1.0003117 1.0002582
1.0001574 1.000255 0.9997444 1.0003133 1.0003045 0.9997112 0.9996888 1.0003253
1.0001185 1.0001825 0.9999622 1.0002588 0.99979687 1.0002102 0.9996906 1.0003002
1.0000917 1.0001704 1.00028 0.9996822 0.9999304 1.000099 1.0002888 0.99999845
1.0003136 0.99969095 1.0002542 1.0002817 1.000115 1.0001792 1.0001379 0.99967325

module.model.2.model.1.bias f4 [64]
00000000: 9d4b aab9 d039 7938 fded 1a39 638c 8cb9
00000010: 52d0 a0b9 5951 a639 15ca a9b9 f1e3 35b9
00000020: 895f 8ab8 1851 9f39 79b8 94b9 f742 99b9
00000030: d81e a4b9 3b43 8a39 55c5 a839 bbe2 91b9
00000040: cfd7 7239 f669 a3b9 7b6c a2b9 9155 a7b9
00000050: 2d89 0cb8 0110 9a39 46d7 9e39 f0e3 1db8
00000060: 3133 8139 019f ba38 b77f 9e39 e2dd acb9
00000070: 453e 9539 72c5 9bb9 1d2c 29b8 06cb 67b9
00000080: 22f8 8339 a854 9db9 8db5 9fb9 711c 5f38
00000090: eb14 1b39 f29f a6b9 870c a4b9 393f a639
000000a0: c814 91b6 09c3 9e39 56ff 13b9 13c1 8f38
000000b0: 64a1 f6b8 1e46 9539 b133 a4b9 fc03 8039
000000c0: 04b2 4638 649c 9bb8 0646 a739 1910 a6b9
000000d0: 61cf 7ab8 5aa8 36b9 af79 73b9 2516 74b9
000000e0: 88d4 a339 fe5d a8b9 6ed6 8739 c4f9 ed38
000000f0: d1ab da36 ac60 e1b8 1e5c 9237 4e09 adb9
-0.00032481263 5.942007e-05 0.00014775242 -0.00026807477 -0.0003067279 0.00031722596 -0.00032384755 -0.0001734642
-6.5981476e-05 0.00030387263 -0.00028366203 -0.00029232327 -0.00031303498 0.00026371502 0.0003219048 -0.00027825483
0.00023159313 -0.0003116873 -0.00030979872 -0.00031916474 -3.3506356e-05 0.00029385093 0.000302965 -3.7644e-05
0.00024642938 8.898788e-05 0.00030231263 -0.00032971712 0.0002846589 -0.00029711012 -4.0333824e-05 -0.00022105509
0.0002517114 -0.00030008447 -0.0003046211 5.319383e-05 0.00014789744 -0.00031781156 -0.0003128985 0.00031709092
-4.323756e-06 0.0003028142 -0.00014114133 6.854734e-05 -0.000117602554 0.00028471736 -0.0003131903 0.0002441703
4.737267e-05 -7.420106e-05 0.00031904894 -0.0003167398 -5.979778e-05 -0.00017419588 -0.00023219617 -0.00023277903
0.0003124813 -0.00032113487 0.0002590897 0.00011347563 6.5169083e-06 -0.000107468426 1.7447452e-05 -0.00033004064

module.model.2.model.1.running_mean f4 [64]
00000000: 749d 59be 96ca 803e fd48 13be f8f6 9cbd
00000010: 14c7 45be 6761 633e 1e45 13be 8082 fcbd
00000020: de15 be3c 67ec 133f 54e7 943d d247 33bf
00000030: c3e5 f33e bf58 083e a271 5ebe 43ec 5abe
00000040: 8529 a53e 32c8 143e 9c2d be3e c6c4 c1bd
00000050: 9c5b 863e 3a26 263f 6c4a e53c a760 b63d
00000060: e7df 22bf 693c 85be 1c49 febe a2c4 043f
00000070: dd03 40be 5e31 aebe 657c 6c3f ab66 043f
00000080: f230 06bf 078f 9cbe 757d fc3e 7c0b 1e3f
00000090: dc76 633e 9029 fb3d 91ea f4bd c1ec 733d
000000a0: a203 883e 84db 523e 7db2 75be 0311 c53e
000000b0: 2de9 02bf 5995 1c3e d378 98be 4781 a2be
000000c0: ee35 88be 0cde 243d bfe7 273e b303 54be
000000d0: 6703 cbbc 1d61 0dbe 6556 a23c 745f 52be
000000e0: 3614 a5bd ca88 243f 564b 36bd 57f4 6abd
000000f0: 7356 a53e 1658 9cbd 79bb d3be e213 0a3e
-0.2125147 0.2515456 -0.14383312 -0.07664293 -0.19314224 0.22205125 -0.14381835 -0.123295784
0.023203786 0.57782596 0.07270685 -0.70031464 0.47636232 0.13315104 -0.21723035 -0.21379189
0.3225824 0.14529493 0.37144172 -0.0946136 0.26241767 0.6490208 0.027989589 0.08905154
-0.636229 -0.26022652 -0.49665153 0.5186254 -0.18751474 -0.3402204 0.9237731 0.5171916
-0.52418435 -0.3057787 0.49314466 0.61736274 0.2221331 0.12263787 -0.119588025 0.059551958
0.26565272 0.20591551 -0.23993869 0.3848954 -0.5113705 0.15291347 -0.29779682 -0.31739256
-0.26603645 0.040250823 0.16396998 -0.20704536 -0.024781896 -0.13806577 0.019816587 -0.20544225
-0.080604956 0.64271224 -0.04450544 -0.057361927 0.32292518 -0.076339886 -0.41353968 0.13484147

module.model.2.model.1.running_var f4 [64]
00000000: 7666 e13e 94ba 723e 2d49 853e e132 ae3e
00000010: 99b8 8d3e a5ca 6d3e 6187 8c3e 38c0 443e
00000020: babb 2d3e 11fb c43e 6ed6 203e cbbf 553f
00000030: ddef 773f 064f eb3e bead 573e 456f f33e
00000040: 0a98 373f 15be 903e 3d49 c93e 6e89 d43e
00000050: f4fd b93e 9def 003f 52db 063f 2006 393e
00000060: 524f 093f 322e 8f3e 247f 793f c770 7e3e
00000070: 679a b43e 063d 8f3e 3754 343f 37b3 863e
00000080: 90de 183f ab37 423e 5391 9a3e 5670 033f
00000090: 0cc1 bb3e 0929 903e d335 e13e 9dd2 883e
000000a0: b8e2 133f 3d30 903e cd3d 1d3f 09ea 5b3e
000000b0: 0d2a d73e 5f5e b23e 4ad2 fe3e 5509 3a3e
000000c0: 562a ce3e 06d4 ce3e 423a 5a3e 93cf 993e
000000d0: dca0 3e3f d83c 103f 1761 0a3f adcb 543e
000000e0: fc08 683e 1e79 1e3f e959 cb3e 9cb4 d83e
000000f0: 8ae2 e83e 3c84 cd3e 11fb 693e 3c1d e73e
0.44023484 0.23703986 0.2603239 0.34023193 0.276799 0.23221834 0.27447036 0.1921395
0.16966143 0.38472798 0.15706798 0.8349578 0.9685038 0.45958728 0.21062371 0.4754583
0.7171637 0.2827002 0.3931369 0.415111 0.36326563 0.5036562 0.52678406 0.18068743
0.5363666 0.27964932 0.97459626 0.24847709 0.3527405 0.27976245 0.70441 0.26308605
0.59714603 0.18966548 0.30189 0.51343286 0.3667072 0.28156307 0.43986377 0.26723185
0.5776782 0.28161803 0.61422426 0.21475996 0.4202427 0.34837624 0.49769813 0.18167622
0.40266675 0.40396136 0.21311286 0.3004118 0.744642 0.5634284 0.540544 0.20780821
0.22659677 0.6190356 0.39717034 0.42325294 0.45485336 0.4013995 0.2284968 0.45139492
