output_gd_deblur_noise/ckpt/resnet_epoch8.pth (torch, 641727 bytes, 31 tensors)

module.model.0.weight f4 [64, 1, 1, 1]
00000000: b1c7 163d 810c dbbd 97f0 8a3e f5eb 473e
00000010: 1c15 cc3d c368 073e 173b 513d 37f1 593e
00000020: c7da 103d 1efc 29be 7b0e 05be 018f 7d3e
00000030: 6b61 e53d 4473 923e f0e7 38bb b3df d53b
00000040: 5ba7 0fbe baaf 04bd d696 3d3e 8489 8ebe
00000050: dd67 523e 545b 1d3e a485 cb3d 65e6 2b3d
00000060: 8cdd 9a3e 5549 61be bfbb d5bd 96e7 2f3e
00000070: d76a 8fbe 9e9f 253e 30bb 7abe 55c8 383e
00000080: 477d 823e a2fb 953e 0627 693e aaf4 dabd
00000090: 1f98 87be f25a bcbc ead2 383e ae00 36bc
000000a0: 51ee da3d 6f94 8cbe d761 4fbd d1ae 983e
000000b0: 6043 5ebe d296 6c3e 04af 7fbe 7aeb 90be
000000c0: f94e b13d 83d9 103e 06fc 133e 3689 f2bd
000000d0: 8575 30be 7ca0 d33d 03d9 ed3d 245c b33d
000000e0: accc ac3b 59e7 793e cea7 8ebe 2122 bbbd
000000f0: 06af 313e 7e5f e2bd 177a 38be 3639 dc3c
0.036811534 -0.10695744 0.2713668 0.19523604 0.09964964 0.13223557 0.051081743 0.21283422
0.035364892 -0.16600081 -0.12993805 0.24761583 0.11200222 0.28603566 -0.0028214417 0.006526911
-0.14028685 -0.03239415 0.1851457 -0.2783929 0.20547433 0.1536687 0.09937599 0.04196777
0.30247152 -0.2200063 -0.104362 0.17178187 -0.280112 0.1617417 -0.24485469 0.1804517
0.25486204 0.29293543 0.22768793 -0.10691197 -0.26483247 -0.022992585 0.18049207 -0.0111085605
0.106899865 -0.27456996 -0.050630417 0.29820874 -0.21705389 0.23104408 -0.24969107 -0.28304654
0.08657641 0.14145474 0.14451608 -0.11842577 -0.1723233 0.10333344 0.11613657 0.08757809
0.005273422 0.24404658 -0.278624 -0.09137369 0.17351922 -0.1105337 -0.18015324 0.026882749

module.model.0.bias f4 [64]
00000000: 52e0 6c3a dd98 8f39 0fe3 c639 1e8c 1a39
00000010: 1cde 433a 2764 263a 91c3 04b9 8eac 963a
00000020: b3e9 173a 41d1 b03a 7ffe 8b3a a1d5 c53a
00000030: 52b0 c83a af41 5d3a 55cc 233a 90a4 9c3a
00000040: 8bee d13a 324a fd3a 3661 1637 6454 fc39
00000050: 4f14 bc3a 59a4 8f39 872a a13a e7c0 1b3a
00000060: bc65 2639 e74c 2e3a e3f9 9a3a 097c 573a
00000070: f647 973a 1a23 1b3a 2b42 fb39 240f 7139
00000080: e373 0d3a 33cd 0a3a b5e1 813a 265a 5239
00000090: 149a c73a 4b77 e23a 6452 d83a f9df 733a
000000a0: 537a 153a 5cd2 9e3a 5ef7 ba3a 3fe7 a73a
000000b0: f468 073b 6852 043a 081b c539 2054 8c3a
000000c0: 0e0c e53a 51bb 023b c451 673a cf26 8a3a
000000d0: 73c7 493a 4b41 a33a c181 2e3a 291f ab38
000000e0: b13c 183a fc05 22b9 e539 f73a 6679 03b9
000000f0: 496e 4d3a ce00 d23a bed4 b739 acf7 5039
0.0009036112 0.00027388977 0.00037934675 0.00014738782 0.00074717565 0.00063473213 -0.00012661355 0.0011495517
0.0005795017 0.0013490097 0.0010680704 0.0015093574 0.0015311337 0.00084402686 0.00062484044 0.0011950899
0.0016016526 0.001932448 8.96333e-06 0.00048128061 0.0014349314 0.00027397534 0.0012295999 0.00059415255
0.00015868893 0.00066490326 0.001182374 0.0008220082 0.0011541832 0.00059180113 0.0004792375 0.00022989191
0.00053959916 0.00052948593 0.0009909185 0.00020060744 0.0015228414 0.0017277984 0.0016504047 0.0009303089
0.00057021267 0.0012117135 0.0014264395 0.0012810006 0.0020661922 0.000504768 0.00037594908 0.0010706224
0.0017474906 0.0019948075 0.0008824135 0.001054013 0.0007697262 0.0012455372 0.0006656908 8.1597194e-05
0.00058073836 -0.00015451753 0.0018861858 -0.00012538358 0.0007836563 0.0016021968 0.00035062985 0.00019928691

module.model.1.model.0.weight f4 [64, 64, 3, 3]
00000000: ae32 063d af98 73bc 0aad 1ebd 3229 37bd
00000010: 82de 503d 558d 8e3d 7b8d 39bd bf4a e13c
00000020: bc82 813d 3b1f fcbc 03f9 1a3d 0e9b 3bbd
00000030: 62c5 92bc 0226 83bd a9d3 81bd 8ac0 29bc
00000040: 6be8 7b3d 2d63 d6bc 5f70 5b3c 1402 803d
00000050: e306 4a3d 3ca7 303d c967 03bd 587e 853c
00000060: 596e b0bc 9c4a 55bd 4b71 29bd 8c0d e7bc
00000070: 45da 73bd 5068 8e3d c34a 743d db6c 0d3d
00000080: 65dc 89bd 6823 78bc 811e fcbc b111 613d
00000090: 25ba e7ba 2e2f 5b3d 9316 483d 5d6e a23c
000000a0: 27df 60bd 908b 00bd 8e5b f23c 6820 7fbd
000000b0: 3e73 73bd 67b5 a2bc 23ce 8dbd 4adb 833c
000000c0: a896 9bbb 90c6 633d 5492 57bd 3304 d9bc
000000d0: 5703 a03c 06a2 353c a170 6fbd c647 1a3d
000000e0: 3b08 0f3d 136d fcba 0b99 88bc 984a 51bd
000000f0: 834b ed3b a6c9 36bd a653 87bd c94f 8cbd
00000100: eea9 82bd a9bb 8fbd 693d 4abc 50c9 e73c
00000110: 413f 873d 049a 773d 6cf7 753c bd37 033c
00000120: 4e96 823d 1a76 fcbb 9ba6 c33c beee e73c
00000130: 6103 1fbd b1d6 2abd ecbe 563d df37 313c
00000140: 2d9e a33c d666 83bd 0751 7b3d f88f 393d
00000150: 9d7e 4ebd 1f06 69bd 362b 8ebd 1ccc 8fbd
00000160: 9d84 363d 2db2 5fbd a2c1 cd3c 1f01 9f3c
00000170: d11a 83bd f146 f1bb c473 393c 49ab da3c
00000180: 2690 663d a879 563d 0761 6a3d c540 c5ba
00000190: cbc0 8dbd 3bd0 ec3c bd02 fc3c 63b0 79bd
000001a0: 85a6 8f3c 20d2 3c3d 2268 afbc cf56 75bd
000001b0: 1cb5 843d b34a 38bd 2ba3 53bd a454 653d
000001c0: a436 323d 36dd 9abc 3578 7ebd 4dcc 653c
000001d0: df64 403d 2a13 74bc 61cd 493d 980c 3f3d
000001e0: 2d58 103d 67af 933d 2c6e 36bd 72bc d23a
000001f0: a317 06bd 8faf e8ba 1d38 cabc 33ee 32bd
00000200: 8a50 103a a590 df3c f35e 0c3d db67 8fbd
00000210: c207 1bbd 264a 123d ba22 83bd 8b0a 14bd
00000220: 3ff4 da3c bb67 c83c b869 bdbc 97e2 72bd
00000230: 05a1 8e3d 6a96 5e3d 42e9 78bd 8621 83bd
00000240: d34a 14bd 8d50 8cbc 47c9 88bc a472 853c
00000250: 3d0f 5bbd ce5c 6f3d 0e09 893d 17d0 a2bc
00000260: dcd0 103d 5d53 273c c3ea a6bb e1fe 1dbd
00000270: 485d 9b3b 1781 453d 4e51 153c cf5a 873b
00000280: f917 3e3d c1cf 2a3d ca57 88bd 2ba8 de3c
00000290: f7d4 77bd f773 85bd 0556 b9bc 8de6 853d
000002a0: 478a da3b 3ff1 0bbd bb62 d83c e45f 42bd
000002b0: fd12 823c a6fb 29bd 42b5 673d 4ae1 463d
000002c0: ec25 6c3d 1cbd 463b d122 4abd 1217 4a3b
000002d0: 44f4 b0bc 0e59 613d 49d2 053d fef6 f73b
000002e0: c6cc ac3c 28f4 29bd 3fec 823d a54c 2ebb
000002f0: 4985 df3b 2171 923d 7413 983c 4031 6b3d
00000300: abde 06bc 87b6 6abd 7a59 d9bc 3054 d73c
00000310: f0ac 85bc 74cb ccbc 7d50 0abd f822 6c3d
00000320: c32f 8c3d 68aa e13c c233 803d 9ca1 5fbb
00000330: b7b6 91bd 3b22 373d 313c 643d e0a3 1a3c
00000340: a316 8dbc a069 ac3c 4197 883c c785 6e3d
00000350: d3e5 dc3b 021f bfbc 9617 2d3d 5c9f 7bbd
00000360: a824 51bd 9456 39bd a579 683d 88cb 0b3d
00000370: 0354 3e3b dc9e 11bd 925f 2b3d eac3 aebc
00000380: 3f30 1e3d 5331 56bd 21b7 093d 19d1 4f3d
00000390: c6a3 68bd 39f0 c1bc e13d d53c 745b 82bd
000003a0: 253b 88bd a1f3 79bd ba8f 48bd a938 253d
000003b0: d002 8bbd b5a5 b3bc ab18 3bbb b5b1 69bd
000003c0: 618a 1d3d a868 bebb 3179 aebc cb41 693d
000003d0: 1d5a 48bd 72c9 993c 2c33 fd3c a184 4b3d
000003e0: fa5e 1fbd bb9d 413b 3c7c 1cbd b624 64bd
000003f0: cef5 69bc 559b 3cbc 27e7 5fbc 4ba1 203d
0.032763176 -0.014867946 -0.03873924 -0.04471702 0.05099345 0.06960551 -0.045300942 0.027501462
0.06323764 -0.03077661 0.037835132 -0.04580217 -0.017916385 -0.06403734 -0.06339199 -0.010360846
0.061500948 -0.026170338 0.013393491 0.06250396 0.049322974 0.043128237 -0.0320814 0.016295597
-0.021536993 -0.052073106 -0.04136781 -0.028204702 -0.05953433 0.0695349 0.05964161 0.03452764
-0.0673149 -0.01514516 -0.030776264 0.054948512 -0.0017679377 0.05351179 0.048849653 0.019828016
-0.054900315 -0.031383097 0.029584672 -0.062286764 -0.059436075 -0.01986189 -0.06924083 0.016095776
-0.0047481842 0.055609286 -0.052629784 -0.02649126 0.019532843 0.011085993 -0.05845702 0.037666105
0.03491996 -0.0019258581 -0.01667454 -0.05109653 0.0072416677 -0.0446259 -0.066077515 -0.06851155
-0.06380068 -0.07018215 -0.012343743 0.028294235 0.066038616 0.060449615 0.015012603 0.0080088945
0.063763246 -0.0077045085 0.023883155 0.028312083 -0.03882158 -0.041708652 0.05242817 0.010816543
0.019972885 -0.06416099 0.06135657 0.045303315 -0.050413717 -0.056890603 -0.069418356 -0.07021353
0.044560064 -0.05461328 0.025116745 0.019409714 -0.06401599 -0.007363193 0.011319105 0.026693003
0.056289814 0.052362114 0.05722144 -0.001504921 -0.06921538 0.028907886 0.030763024 -0.06095923
0.017535457 0.04609883 -0.02141196 -0.05989724 0.06479856 -0.044993114 -0.05166928 0.055988923
0.04350914 -0.01890431 -0.062126357 0.01402576 0.0469712 -0.014897147 0.04926813 0.04664287
0.03524034 0.0721119 -0.04453866 0.001607789 -0.032737385 -0.0017752516 -0.02468496 -0.043684196
0.00055051653 0.027290652 0.034270238 -0.07002231 -0.037849195 0.035715245 -0.06403108 -0.036142867
0.026727794 0.024463525 -0.0231217 -0.059298124 0.06964306 0.054342665 -0.060769327 -0.064028785
-0.03620417 -0.017128253 -0.016697539 0.016290016 -0.05348133 0.058438115 0.0669118 -0.019874616
0.035355434 0.010212746 -0.0050939037 -0.03857315 0.0047413446 0.048218813 0.009113623 0.0041306983
0.04640958 0.041702036 -0.066573694 0.027179798 -0.060505833 -0.06516259 -0.022624025 0.06538115
0.006669316 -0.034165617 0.026414266 -0.04745473 0.015878195 -0.041499756 0.056569345 0.048554696
0.057653353 0.003032512 -0.04934961 0.0030836505 -0.02160085 0.05501657 0.032671247 0.0075672856
0.021093737 -0.04149261 0.063927166 -0.0026595977 0.0068213088 0.07150484 0.018563963 0.057420015
-0.008231799 -0.057302978 -0.026531924 0.02628526 -0.016317815 -0.024999358 -0.033768166 0.057650536
0.06845047 0.027547076 0.06259872 -0.0034123426 -0.07114928 0.04471038 0.055721465 0.009438485
-0.017222708 0.02104646 0.016673686 0.05823305 0.0067412644 -0.023330215 0.04225882 -0.061431274
-0.05106035 -0.045248583 0.056756634 0.03412965 0.0029041774 -0.03555189 0.04183919 -0.021333653
0.03862023 -0.052293133 0.03362191 0.05073652 -0.05679681 -0.023674117 0.026030483 -0.063650995
-0.06651906 -0.06102336 -0.048965193 0.04033724 -0.06787646 -0.021929601 -0.0028548639 -0.05705424
0.038462047 -0.005810816 -0.021298023 0.05694751 -0.048914064 0.018772814 0.03090819 0.04968703
-0.038908936 0.0029543478 -0.038204417 -0.055699073 -0.014279796 -0.011511643 -0.013665951 0.03921632

module.model.1.model.0.bias f4 [64]
00000000: 1f28 a83a 8cc8 643a e12e 793a c092 553a
00000010: e1a9 533a 5b77 9c3a 7bf2 8f3a 7987 623a
00000020: 19db 883a 1e82 823a 0059 533a 7ce5 953a
00000030: 6bc5 833a deae 4d3a 98d3 793a 9fe7 9c3a
00000040: 5385 843a cdce 783a 7ec0 5c3a 02e9 683a
00000050: f9d1 a73a c0b8 a23a 4821 8d3a 0c1a 843a
00000060: 973e 803a e8e7 b03a 2ba2 983a 61a7 8b3a
00000070: 4112 883a d683 793a 6e56 7e3a 9732 723a
00000080: d01e 7a3a 57fe 8b3a d03b 953a 7fd9 653a
00000090: ab21 903a bb82 833a 3631 a43a fe64 8c3a
000000a0: 8ee3 6c3a f67c 953a ee36 963a 3cf2 833a
000000b0: 3b25 453a 7850 873a 5d9f 813a 8dd1 8e3a
000000c0: 5c74 a13a f61b 843a 40c9 9d3a 601b 9b3a
000000d0: 9358 893a fca5 953a 29ca 853a 7c69 9b3a
000000e0: d4eb 453a ea28 5e3a 2e95 7d3a 4937 463a
000000f0: 601f b53a 68b4 913a ca11 183a c6be 0f3a
0.001282934 0.00087273936 0.00095055817 0.00081471726 0.0008074325 0.0011937426 0.0010982299 0.0008641403
0.0010441273 0.0009956991 0.0008062273 0.001143619 0.0010053342 0.00078461866 0.0009530126 0.0011970884
0.0010110534 0.0009491265 0.00084210176 0.00088848185 0.0012803666 0.0012414679 0.0010767365 0.0010078563
0.0009784278 0.0013496848 0.001164501 0.0010654741 0.0010381417 0.0009518241 0.000970221 0.0009239106
0.00095413346 0.0010680658 0.0011385623 0.0008768066 0.0010996362 0.0010033468 0.0012526873 0.001071125
0.0009036594 0.0011405039 0.0011460462 0.0010066698 0.00075205014 0.0010323664 0.0009889413 0.0010896191
0.0012318003 0.0010079134 0.0012038127 0.001183372 0.0010478668 0.0011417265 0.0010207343 0.0011856998
0.0007550095 0.00084747246 0.00096734136 0.0007561339 0.0013818555 0.0011116387 0.00058009906 0.00054834445

module.model.1.model.1.weight f4 [64]
00000000: 3de1 7f3f 0c24 803f 2319 803f 84f4 7f3f
00000010: 7023 803f 24dd 7f3f c013 803f ec09 803f
00000020: 0215 803f 6d05 803f fb06 803f 8ecc 7f3f
00000030: 070b 803f 8a05 803f fa05 803f a21a 803f
00000040: 7f1d 803f dddf 7f3f ee1a 803f 6dff 7f3f
00000050: a0f5 7f3f 04d1 7f3f f6d1 7f3f e0ee 7f3f
00000060: 1118 803f a2e0 7f3f eadb 7f3f 6812 803f
00000070: 0bc1 7f3f e2f9 7f3f 90bd 7f3f 0ebf 7f3f
00000080: 03b6 7f3f dbac 7f3f 8cd6 7f3f 61ee 7f3f
00000090: 12f4 7f3f d20b 803f 2b03 803f 28df 7f3f
000000a0: 170a 803f c21b 803f 9e21 803f efbb 7f3f
000000b0: ba12 803f 83df 7f3f bbfe 7f3f 8b04 803f
000000c0: dd04 803f 8dcf 7f3f 1ec6 7f3f a8d3 7f3f
000000d0: c00f 803f a409 803f 8cd3 7f3f b512 803f
000000e0: f120 803f 0ad2 7f3f 190f 803f 55f5 7f3f
000000f0: 84d2 7f3f 3cdf 7f3f 4d23 803f 2c20 803f
0.9995306 1.0011001 1.0007671 0.99982476 1.0010815 0.9994681 1.0006027 1.0003028
1.0006411 1.0001656 1.000213 0.999215 1.0003365 1.000169 1.0001824 1.0008128
1.0009001 0.99950963 1.0008218 0.99999124 0.9998417 0.9992831 0.9992975 0.9997387
1.0007344 0.9995214 0.9994494 1.0005617 0.99903935 0.99990666 0.99898624 0.999009
0.998871 0.9987313 0.9993675 0.9997311 0.99981797 1.0003607 1.0000967 0.99949884
1.0003079 1.0008471 1.0010259 0.9989614 1.0005715 0.99950427 0.9999806 1.0001386
1.0001484 0.9992607 0.9991168 0.99932337 1.0004807 1.0002942 0.9993217 1.0005709
1.0010053 0.9992987 1.0004607 0.9998372 0.99930596 0.99950004 1.0010773 1.0009818

module.model.1.model.1.bias f4 [64]
00000000: 0cf5 3d38 f421 943a 2ef2 1b3a 61ec e4b9
00000010: 534c 6c39 990e 8738 fadf 143a 876e 3db8
00000020: 8587 243a 40a1 38ba 8d2e 0c3a bcf7 4dba
00000030: aab8 3c39 cc8f 5e39 e052 7139 11b0 e837
00000040: 9a1f 623a 111a 0039 3949 9e39 2eab 9bb8
00000050: 5cdc 79ba 45d6 75ba 6223 92ba 4108 88b9
00000060: 5fec 4d3a 83a9 f3b9 9015 15ba 4437 34ba
00000070: 5ba8 86ba c04c 06b9 a184 1dba 4b3d 52ba
00000080: 76b5 34ba 4c12 39ba 13d9 93b9 4c3a 24ba
00000090: 4035 0eba 57c3 eeb9 846a 8eba 5456 16ba
000000a0: 981e 063a 8c9f 443a 4d6b 83b9 0d97 80ba
000000b0: 1b88 d839 d77c 93b9 7267 8e39 a108 5d38
000000c0: 08ed 39ba d887 6cba 4275 6fba 50bc 8539
000000d0: 92ed 5939 9663 ea38 0687 19ba 2b2d 27ba
000000e0: b712 db39 a3c9 a9b9 2aa1 043a 1f1a 543a
000000f0: e630 50ba a0cf 11ba 8b12 a43a be1f 7e3a
4.528933e-05 0.0011301623 0.00059488683 -0.00043663665 0.00022535147 6.440021e-05 0.0005679127 -4.5164048e-05
0.00062762975 -0.0007043071 0.0005347513 -0.00078570447 0.0001799787 0.00021225138 0.00023014424 2.7738542e-05
0.0008625925 0.00012216742 0.00030190664 -7.422861e-05 -0.00095314323 -0.0009377937 -0.0011149461 -0.0002594609
0.00078553514 -0.00046474868 -0.0005687112 -0.00068746903 -0.0010273563 -0.00012807827 -0.0006008838 -0.00080199976
-0.0006893495 -0.00070599164 -0.00028199758 -0.00062647904 -0.0005424805 -0.00045540437 -0.0010865484 -0.000573491
0.0005116253 0.0007500581 -0.00025066212 -0.0009810642 0.00041300137 -0.00028131038 0.00027161423 5.2698542e-05
-0.00070925104 -0.0009022928 -0.0009134599 0.0002550804 0.00020783235 0.00011176539 -0.0005856607 -0.0006377275
0.0004178488 -0.00032384423 0.00050594157 0.00080910505 -0.0007941857 -0.00055622496 0.0012517733 0.0009694061

module.model.1.model.1.running_mean f4 [64]
00000000: 0632 34b9 7e1a 513a 4118 fb3a 16a1 90b9
00000010: 6420 81b9 3879 9b3a d76e 413b 4d1e 373a
00000020: 5488 18ba 3594 333b a5ee e239 aaf8 fa3a
00000030: daed 9d38 1bba a23a 6e54 b13a dbfe 023b
00000040: 9ee7 c639 99d8 773a 9db9 d439 443c 223a
00000050: cc44 5aba b7a1 0d3b 120b 49b9 10a3 1e3b
00000060: 9e2b 5bba f8f4 103b 48f2 b43a 45b0 003b
00000070: 5cc3 143a 8a28 a0b9 115e 413b 5b72 f93a
00000080: e502 f0b9 967c 093a ceb1 d439 1419 1e3a
00000090: 7977 823a 27fc 1fba a629 e63a 3d37 503a
000000a0: 42fe 173a 77a3 af38 a3ee 1f3b 792b a03a
000000b0: f703 c23a 5773 6f3a 7a11 37ba c33e 163a
000000c0: 9a56 ccb9 295b 843a c954 373b ed97 a93a
000000d0: bafc 7b3a 0547 8c3a e672 003b 49e6 bfb9
000000e0: b7b3 623a 547f 1d3b ee39 de3a a6ee a33a
000000f0: 93d8 4e3a 4866 323b fe5d 583a 1552 07b9
-0.00017184773 0.0007976665 0.0019157009 -0.0002758584 -0.0002462893 0.0011861688 0.0029515529 0.0006985411
-0.00058186543 0.002740157 0.00043283883 0.0019147594 7.530647e-05 0.0012415083 0.001352919 0.0019988331
0.0003793807 0.0009454578 0.00040574084 0.000618879 -0.00083262916 0.0021611282 -0.00019172978 0.002420608
-0.00083606865 0.002211867 0.0013805116 0.0019636315 0.0005674863 -0.00030547782 0.002950553 0.0019031273
-0.00045778524 0.00052447 0.00040568266 0.00060309586 0.0009953819 -0.0006102942 0.001756002 0.00079428015
0.000579808 8.375098e-05 0.0024403713 0.0012219987 0.0014802207 0.00091343134 -0.00069835 0.0005731398
-0.00038974435 0.0010097969 0.002797412 0.0012938954 0.00096125493 0.0010702318 0.0019599735 -0.00036601935
0.00086479954 0.0024032192 0.001695452 0.0012507036 0.00078905484 0.002722161 0.0008253752 -0.00012905181

module.model.1.model.1.running_var f4 [64]
00000000: fe0b 693a 1da7 883a b68e 8739 acd9 0439
00000010: a75d 7a39 d584 d338 2d30 003a aa9c 6f39
00000020: 9ab0 f539 6e89 b838 c732 173a 0e6b 0637
00000030: 3e70 f738 be18 cb35 3dd3 1439 f6ef af36
00000040: a448 3d3a 3960 ba37 cc1a 9e39 cfdd e738
00000050: 2480 9937 3dd4 4737 dcc4 4939 71a1 2938
00000060: 2b2c 333a f2e1 1b38 d695 7339 ad68 0339
00000070: f8c4 0a37 74e9 d538 1442 a639 29e4 3137
00000080: 9f1d 3936 c4b2 7c3a cd39 df37 df84 3e3a
00000090: 9bbe 3f3a d9f0 443a 49fa ac3a bb61 fe37
000000a0: 63f6 b039 36a6 7338 2bf9 4338 9768 9937
000000b0: 3169 3739 bdbf 2638 b764 b238 dc7e cf39
000000c0: a347 d439 ac12 1838 9ccb 5b39 77fe 3737
000000d0: eb26 f93a db85 f538 ee11 a239 1478 3c39
000000e0: 26d3 8938 82ed 8d38 8f18 f539 0135 7939
000000f0: 3948 a339 11cd 113a 1942 e039 eaca 2139
0.00088900316 0.001042578 0.00025855534 0.0001266959 0.00023876746 0.00010086006 0.0004889991 0.00022851178
0.0004686162 8.799402e-05 0.0005767759 8.011948e-06 0.000117987845 1.513188e-06 0.00014193072 5.2433415e-06
0.0007220602 2.2217735e-05 0.00030156074 0.000110562534 1.8298691e-05 1.191074e-05 0.0001924219 4.0443094e-05
0.00068348896 3.7165308e-05 0.00023230104 0.00012532128 8.271301e-06 0.000102001155 0.0003171122 1.0603145e-05
2.758439e-06 0.0009639675 2.6610587e-05 0.0007267724 0.0007314474 0.0007512696 0.0013197149 3.0324669e-05
0.00033752908 5.809051e-05 4.672368e-05 1.8287725e-05 0.00017491427 3.9756054e-05 8.506461e-05 0.00039576634
0.00040489165 3.6257014e-05 0.00020961318 1.0966897e-05 0.0019008791 0.00011707443 0.00030912407 0.0001797381
6.5719985e-05 6.767643e-05 0.0004674834 0.00023766236 0.00031143593 0.00055618683 0.00042773856 0.00015429748

module.model.1.model.3.weight f4 [64, 64, 3, 3]
00000000: 51fd 83bd 42ae 2f3d ba61 e93c 6c25 5bbb
00000010: 81f9 343d 0325 673d d30e 79bc 2c40 a2bc
00000020: e4ab 1c3d b917 11bd 0a99 3f3d 5db0 6b3d
00000030: e366 603d ed61 673c 1df0 d6bc 88b5 643c
00000040: f017 e9bc 7f6d 813d 841b 4a3c 51e5 81bd
00000050: b5f5 0dbd 0ab9 63bd 1507 75bb b47a 7d3d
00000060: d027 55bd 113b fcbc d499 573d b1d4 94bd
00000070: e206 3b3c c141 b6bc a448 60bd 39cd 063d
00000080: 99e2 4bbb dfa6 aebc 0306 41bd 5bc5 b3bc
00000090: 5d0a babc 24f3 fcbc 02c6 6f3d 13d3 323d
000000a0: a06f 72bd 3764 b73c f220 8abc bece 503b
000000b0: a154 623d c382 4ebd c84e 6cbd 7ded 983b
000000c0: 6517 74bd 50e1 c1bc 4cc4 fa3c 7194 dc3c
000000d0: dc6c 59bd 1c78 933d ffea a6bb c8a1 593c
000000e0: 9a00 51bc 57fe 07bc 73d2 423d 8631 bfba
000000f0: 7241 103d bd74 4b3d e6b4 a3ba 7644 14bd
00000100: 2473 8fbd c6a3 50bd fe4d 8abd 15f9 443d
00000110: 07ce 8fbd 1627 8f3d 97e9 073d 8d6c 03bd
00000120: 0701 6d3d 249c 903c ba04 41bc a727 5b3c
00000130: 1427 37bd 70ca 563c 5689 00bb 2b77 84bd
00000140: 9f3f fd3c f896 a0bc 7846 2ebd 3c24 88bd
00000150: 6c34 723d 2886 a7bc 0a75 2ebd 7c17 203d
00000160: a642 48bc 1bda 80bd 425a 37bc f347 703c
00000170: 4482 3fbd fdb8 093d 7bb3 52bd 1f8b 57bd
00000180: b528 4a3d 3623 c33c b7ce 61bd 9a42 8d3d
00000190: 6030 0cbd 967c 2e3c ff45 6dbd 0223 2d3d
000001a0: 7e77 87bd 45af 3dbd f7ab f43c df96 b83c
000001b0: d482 70bd 9625 bd3c 573b 863d 8ec8 50bd
000001c0: c211 3ebc 8c2b 923d eb40 61bd 22ea ebbb
000001d0: a983 88bd 6404 6b3d a29a 48bd 5a88 463d
000001e0: 1309 22bd ae20 fabc 4a28 8c3d 8e71 6d3d
000001f0: caff 53bd 6b2d 92bd 3016 5a3d dcb1 b2bc
00000200: c9c2 c23c 98e0 71bb 0087 973c c4d5 3fbd
00000210: b0d5 98bc 5bc9 5ebd fc74 093d 943d 88bd
00000220: b946 34ba bfae d4bc 52fd 803d 73e7 19bd
00000230: 0b2f 90bd 961d b33c bcbb 003b 9380 49bd
00000240: 07ca 4abd e909 4e3d 19ca 37bd ac65 81bd
00000250: 3643 073d cc76 9e3c f2a6 e03c 2c2e 1f3d
00000260: a14d 313c 55ea 9cbb d907 17bd affa 4fbd
00000270: 0a7a 793c f60c 6d3d 702c 86bd 5f8d 3a3d
00000280: 6a59 64bd 8921 1c3b 50ce 4dbd 4eec f43c
00000290: bd40 60bb e5b2 dfbc 35d5 75bd 0490 aebc
000002a0: 09da 933d 50e9 813d f35b 973c 6299 953d
000002b0: e033 8cbd b8ea ff3a 88f2 07bd 7cb0 5b3d
000002c0: 1362 1cbd d05b 67bd 62e8 8abd f8d9 d7bc
000002d0: bc5d e2ba ba65 1dbd f911 74bd 05a4 6bbd
000002e0: b7cd 39bd 1973 33bd 3637 5c3d e2e9 9a3c
000002f0: d33a 88bd bbdf fd3c 1806 32bd 2510 21bd
00000300: 4232 79bc d4c1 85bc 6302 8ebc eec4 53bd
00000310: ed93 0cbd 82b3 5abd 09d2 53bb 53b7 0c3d
00000320: a8a3 91bd 92ca 433d dae5 8c3d 505c c33c
00000330: 1ec8 933c cb9a c43c d32c 39bd 5199 0e3d
00000340: 0274 793d 845f 66bd e9a7 84bd 83c8 603d
00000350: f432 8a3d d347 77bd ed3a 383d 8548 20bc
00000360: 5600 66bd 1d45 923d 2373 22bd 4e15 593c
00000370: 2018 833d 52c1 e63c 84dc b53a c082 3b3d
00000380: 98ff 15bd 1f12 763d 4209 d7bc bed9 5cbd
00000390: 5368 00bc 4375 8e3b b1f1 4ebb b8d0 673d
000003a0: 6bb1 f3bc 400f 7abd d625 62bd 9a3e e63c
000003b0: fcd5 fe3a b090 0dbb e45e 753d de34 f13c
000003c0: fc07 613d 0971 733c f7ef 2dbd 61c0 0b3c
000003d0: 7e76 e3bc 14aa 9b3c 1cfa 813d ecb7 9dbc
000003e0: c36d 643c e1b6 0dbc 73a5 8a3d 9774 833d
000003f0: 1393 653d 767d f23c 09d2 88bd d1d5 553d
-0.06444801 0.042890795 0.028488982 -0.0033439053 0.044183258 0.05643178 -0.015201288 -0.01980599
0.038249865 -0.035423014 0.04677681 0.05754124 0.05478562 0.014122468 -0.026237542 0.013959296
-0.028453797 0.06319713 0.012335662 -0.06342567 -0.034658153 -0.05559639 -0.0037388254 0.061884597
-0.05203992 -0.030789884 0.052636936 -0.0726713 0.011415215 -0.02224815 -0.054756775 0.03291056
-0.0031110405 -0.021319805 -0.047124874 -0.021944692 -0.02271002 -0.030877657 0.058538444 0.043658327
-0.059188485 0.022386653 -0.016861413 0.003186151 0.05525649 -0.050417673 -0.05769232 0.0046669827
-0.059592623 -0.023667008 0.03061118 0.026926251 -0.053082332 0.072006434 -0.0050939317 0.013283201
-0.012756491 -0.008300385 0.04756398 -0.0014586903 0.035218664 0.049671877 -0.0012489825 -0.036198102
-0.07004383 -0.050937437 -0.06753157 0.048089106 -0.070217185 0.06989877 0.033181753 -0.032085944
0.057862308 0.017652579 -0.011780912 0.013376153 -0.044715002 0.013109788 -0.0019613109 -0.06468042
0.030914126 -0.019603238 -0.042547673 -0.06647536 0.059132025 -0.020449713 -0.042592086 0.039084896
-0.0122229215 -0.062916 -0.011190953 0.0146655915 -0.04675509 0.033623684 -0.051440697 -0.05262291
0.049355228 0.0238205 -0.05512878 0.06897469 -0.03422582 0.010649821 -0.05792808 0.042269714
-0.06614588 -0.04630973 0.029867155 0.022532878 -0.058718517 0.023089211 0.06554287 -0.050972514
-0.0116009135 0.07137212 -0.05499355 -0.0071995417 -0.06665737 0.057377234 -0.048975594 0.04846988
-0.039559435 -0.030533161 0.06843622 0.057969622 -0.05175761 -0.07137569 0.053243816 -0.021813326
0.023774521 -0.003690755 0.01849699 -0.046834722 -0.018656582 -0.054391246 0.03355883 -0.0665237
-0.00068769936 -0.025962232 0.06298317 -0.037574243 -0.07040223 0.021864694 0.0019643148 -0.049194884
-0.049509075 0.05030242 -0.04487047 -0.063182205 0.03302308 0.019343756 0.027423356 0.038862392
0.010821731 -0.0047886767 -0.03687272 -0.05077618 0.01522685 0.05787369 -0.065514445 0.04554498
-0.055749334 0.00238237 -0.050245583 0.029897835 -0.0034218275 -0.027306983 -0.060017783 -0.021308906
0.07219321 0.06343329 0.018476462 0.07304646 -0.06845832 0.0019524908 -0.03319028 0.053635105
-0.03817947 -0.056484044 -0.06782605 -0.026349053 -0.0017270367 -0.038427092 -0.059587453 -0.057529468
-0.0453622 -0.043810938 0.05376359 0.018910352 -0.06651845 0.030990472 -0.043462843 -0.039322037
-0.015209736 -0.016327776 -0.017335122 -0.05170148 -0.03432076 -0.05339385 -0.0032321236 0.03435452
-0.07111293 0.047800608 0.06879778 0.023847729 0.01803976 0.023999592 -0.045208763 0.034814183
0.06090165 -0.056243435 -0.06477339 0.054878723 0.06748 -0.06037123 0.04497807 -0.009782915
-0.056152664 0.071420886 -0.039660584 0.013249708 0.06401086 0.028168354 0.0013874923 0.04577899
-0.036620706 0.060075875 -0.026249532 -0.053918593 -0.007837373 0.004347475 -0.0031577165 0.056595534
-0.029747685 -0.0610497 -0.055211864 0.028106023 0.0019442434 -0.0021601133 0.059904948 0.029444154
0.054939255 0.014858493 -0.042465176 0.008529753 -0.027766462 0.019001998 0.06346533 -0.01925274
0.013942185 -0.008649559 0.06769838 0.06418722 0.056048464 0.02960084 -0.06680686 0.052205864

module.model.1.model.3.bias f4 [64]
00000000: 8434 6c3a bfa3 8d3a 98ac 833a eace 843a
00000010: c865 843a f24f 833a d1b1 ac3a 3d5e 8f3a
00000020: 5faa 863a 85ac 823a 0a7c 853a 8951 a33a
00000030: 1b11 803a 05ae 7c3a 4899 883a 1ddc 723a
00000040: 91f0 823a c450 693a 2ac0 793a bafb 833a
00000050: c2b4 5d3a 37ab 883a 7102 783a 5073 823a
00000060: 4b3f 8b3a bfdf 753a 6b15 883a e25f 823a
00000070: 5d4c 893a 6202 923a afe6 8a3a 55ce 7e3a
00000080: 400d 853a f0b5 903a d269 a43a 4ac2 9c3a
00000090: 620e 753a b95c 7d3a 7661 833a 653e 683a
000000a0: ef1f 803a 2c15 943a 2f64 793a fb03 8e3a
000000b0: 6920 6c3a ac89 8e3a c28f 803a dc37 813a
000000c0: be8b 843a bf3b 733a 1ade 833a e329 6e3a
000000d0: 5fe6 9e3a bb0c 7c3a a8b8 5f3a 4f7c 7a3a
000000e0: 7f15 8b3a 4e51 8b3a e5c5 5f3a 7b0c 8e3a
000000f0: b505 863a 17c5 893a b595 8d3a adf1 893a
0.0009010511 0.0010806246 0.0010045944 0.0010132466 0.0010101134 0.0010018332 0.0013175552 0.0010938119
0.0010274163 0.0009969628 0.0010184061 0.0012460212 0.0009770723 0.0009638968 0.0010421658 0.0009264367
0.0009989907 0.00089002796 0.0009527231 0.0010069527 0.0008457416 0.0010427003 0.0009460813 0.0009952579
0.0010623721 0.0009379349 0.001038236 0.0009946788 0.0010475029 0.0011139626 0.0010597314 0.0009720077
0.0010151044 0.001104055 0.0012543744 0.0011959758 0.00093481515 0.0009665001 0.0010023552 0.0008859395
0.0009775142 0.0011297814 0.0009513525 0.0010834927 0.0009007515 0.001087477 0.0009808468 0.0009858566
0.0010112447 0.0009278617 0.0010060698 0.0009085221 0.0012123099 0.0009614934 0.0008534291 0.00095552666
0.0010611265 0.0010629089 0.00085362635 0.001083746 0.001022509 0.0010511008 0.0010802062 0.0010524296

module.model.1.model.4.weight f4 [64]
00000000: e715 803f 71c2 7f3f 7dad 7f3f 90c7 7f3f
00000010: 5309 803f 4af2 7f3f 5aaa 7f3f a5ba 7f3f
00000020: 5918 803f 3725 803f 73b9 7f3f 56ac 7f3f
00000030: 6a1f 803f df1e 803f c6bc 7f3f 2d26 803f
00000040: 8328 803f 9c2a 803f 15b8 7f3f b6e8 7f3f
00000050: 7625 803f 37c9 7f3f af25 803f 1916 803f
00000060: adb9 7f3f 202a 803f 2cb8 7f3f 2b1f 803f
00000070: b20f 803f 42ab 7f3f 54a9 7f3f 24e9 7f3f
00000080: 37b1 7f3f 04c6 7f3f 9eae 7f3f aeb3 7f3f
00000090: ca1c 803f c819 803f 0a27 803f 011f 803f
000000a0: c01f 803f eeae 7f3f 9d1c 803f e2ce 7f3f
000000b0: 4624 803f 87ad 7f3f e429 803f 061c 803f
000000c0: d61c 803f ad1e 803f 1dbc 7f3f 3d2a 803f
000000d0: e7ab 7f3f 5526 803f be27 803f 2cc6 7f3f
000000e0: 6bcd 7f3f a3ac 7f3f 542a 803f 87aa 7f3f
000000f0: aacd 7f3f e217 803f f6ac 7f3f 68ba 7f3f
1.0006684 0.9990607 0.998741 0.99913883 1.0002846 0.9997908 0.9986931 0.9989417
1.000743 1.0011357 0.9989235 0.9987234 1.0009587 1.0009421 0.9989742 1.001165
1.0012363 1.0013003 0.9989026 0.99964464 1.0011432 0.99916404 1.00115 1.0006744
0.99892694 1.0012856 0.998904 1.0009512 1.000479 0.99870694 0.9986775 0.9996512
0.99879783 0.9991152 0.9987582 0.99883544 1.0008786 1.0007868 1.0011914 1.0009462
1.0009689 0.99876297 1.0008732 0.99925053 1.001107 0.99874157 1.0012784 1.0008552
1.00088 1.0009362 0.99896413 1.001289 0.9987168 1.0011698 1.0012128 0.9991176
0.9992282 0.998728 1.0012918 0.9986958 0.99923193 1.0007288 0.9987329 0.9989381

module.model.1.model.4.bias f4 [64]
00000000: 77e5 aa3a 7dfd 96ba f96f 9fba ede9 f2b9
00000010: 8c25 9cb9 c38f 01ba 451b adba 4eea a8ba
00000020: cc15 393a 200f ab3a d5e0 9bba a6e8 a9ba
00000030: 6582 8b3a 9385 323a 6768 acba 098b a73a
00000040: dc7f a63a 8773 ad3a 9076 99ba ac6b 89ba
00000050: 99aa a13a 7a45 7dba 3ba4 ab3a 0b62 6b3a
00000060: 4529 aaba d0b0 a73a 7238 98ba 01d7 933a
00000070: 465c ff38 eabd a9ba 6d81 adba d5af 81ba
00000080: b349 a7ba 77aa 96ba ee32 a7ba b701 a3ba
00000090: 8821 a13a c9d7 a33a a75c a23a 6e63 8e3a
000000a0: 9a2a f439 c73a a9ba 1f01 a83a b159 6fba
000000b0: 7f53 a03a dbad a5ba d1e7 ac3a 8dc5 813a
000000c0: 2f52 a33a 3324 863a d0b7 acba 77f5 ad3a
000000d0: 02bd a8ba ddab a63a 4116 a53a 167d 9cba
000000e0: eb53 2eba c8cc a7ba ed17 ad3a 8845 adba
000000f0: ed42 6bba ebe6 b2b9 7bca acba de5d 92ba
0.0013038357 -0.0011519637 -0.0012164108 -0.00046332125 -0.00029782613 -0.00049423816 -0.001320698 -0.0012887211
0.0007060438 0.0013050772 -0.0011892567 -0.0012963011 0.0010643719 0.0006810065 -0.0013153673 0.0012782525
0.00127029 0.0013233282 -0.0011708308 -0.0010484359 0.0012334167 -0.0009661537 0.0013095209 0.0008979148
-0.001298227 0.0012793783 -0.0011613502 0.0011279286 0.00012176535 -0.0012950276 -0.0013237424 -0.0009894321
-0.0012763053 -0.0011494894 -0.0012756267 -0.0012436424 0.0012293318 0.0012500222 0.0012387232 0.0010863373
0.00046571047 -0.0012911194 0.0012817717 -0.00091304915 0.0012231915 -0.0012640314 0.0013191645 0.0009900794
0.0012460406 0.0010234177 -0.0013177339 0.0013272007 -0.0012873712 0.0012716014 0.0012595133 -0.0011939134
-0.0006650078 -0.0012802118 0.0013205983 -0.0013219574 -0.00089745113 -0.00034122853 -0.0013182902 -0.0011166891

module.model.1.model.4.running_mean f4 [64]
00000000: 5cd8 97be cb2a 093f 6301 3ebe 9469 103d
00000010: 3e06 da3c 3484 8fbd 15a6 62be fac1 e0bc
00000020: 6609 163f eb41 503f c175 cbbd 685d d4be
00000030: 8460 d13e 77b0 b43e f196 c43e 9c35 e63d
00000040: d9db 11bf 9a60 ca3d 97bd 953e f078 d2be
00000050: 92f9 fcbd 823f 02bf 1168 c13d fca0 2e3d
00000060: 2372 33be e1d8 66bf 63e3 833d 0b01 a63e
00000070: 550b 2fbf 971f ebbd fc4c 3abe 2ec6 df3d
00000080: a4b2 843e 1722 df3d b267 d7be e23c cebc
00000090: 623b b3be d18a 723e 8ea7 d7be 6e36 253e
000000a0: d639 d83e 76ce 613e 2ae6 abbd a390 01bd
000000b0: 7964 93bd 077c c2be 3c4b 9fbe 72ed 353e
000000c0: d402 c63e 2fc5 3e3e 471d 4d3f 79af 7fbe
000000d0: 479a 373e e415 d63e a5b5 e1bd 86aa c33e
000000e0: 2952 97be 1013 373f 9f52 913c 6e26 b73e
000000f0: 497c ad3e e67a 563e 6669 bbbe 6f6f 8fbd
-0.29657257 0.5358092 -0.18555216 0.035256937 0.026614305 -0.070076376 -0.22133668 -0.027436245
0.5860809 0.8135058 -0.09934569 -0.41477513 0.40893948 0.35290882 0.3839641 0.11240694
-0.56976086 0.098817065 0.29246208 -0.41107893 -0.12352289 -0.50878155 0.09443677 0.042633995
-0.17524008 -0.9017468 0.06439855 0.3242267 -0.68376666 -0.11480635 -0.1819343 0.10926472
0.25917542 0.10895174 -0.420713 -0.025175516 -0.35006243 0.23685767 -0.42120022 0.16134045
0.42231625 0.22051415 -0.0839351 -0.031632077 -0.07196898 -0.3798525 -0.31112087 0.1776636
0.38674033 0.18629907 0.801228 -0.24969281 0.17929946 0.41813576 -0.11020974 0.38216037
-0.2955487 0.7151346 0.017739592 0.35771507 0.33883885 0.2094532 -0.3660385 -0.07003676

module.model.1.model.4.running_var f4 [64]
00000000: b46e 0f3f 3190 023e 940c 753f 208c ec3e
00000010: 21c6 1440 39f3 c73d a846 2d3e e768 403e
00000020: 21c2 3f3e c6f4 073f d8f5 223d 3b05 873e
00000030: 2cd9 2d3e 4502 2d3f 1259 ca3d caf8 dc3d
00000040: e979 a23f b4c2 353e 3c2f b93d d600 093f
00000050: d0d2 dd3d 9614 1e3f 3d8f ee3c 9c0a e33e
00000060: 4ee0 603f 789b 8e3e 42eb b23f c4a3 363e
00000070: 9532 643e 56fe 4e3e c49f 373e 48fd 343e
00000080: 4a2d d23d 50df 173f c712 d13d ee06 d23d
00000090: d502 023e cc30 6b3d 56ae 023f 331b 383e
000000a0: 763d 153e 23a2 d93d dcbf 3b3e 58de 023e
000000b0: 4cf0 153f ecb5 953d 0e51 903f 4345 c03d
000000c0: 050c 883f cb8b f13e 56e4 e03e 0dcd 103f
000000d0: 879f 0e3e 23ad 4b3e 8c62 453e f2e4 9b3e
000000e0: 1805 8d3d 6a79 723e 1e5f c63e 2054 693f
000000f0: f9c7 253e 79d8 083f 99b2 a13d 99c3 003f
0.56028295 0.12750317 0.9572232 0.46200657 2.3245928 0.09763188 0.16921484 0.18790017
0.18726398 0.5310787 0.039785236 0.26371178 0.16977376 0.6758159 0.0988027 0.1078964
1.2693454 0.17750055 0.09042212 0.535169 0.10831225 0.6175016 0.029121036 0.44344032
0.8784226 0.27852988 1.3978045 0.17835909 0.2228492 0.20214209 0.1793204 0.17674744
0.102625445 0.5932512 0.102086596 0.10255228 0.12696393 0.057419583 0.51047266 0.17979126
0.14574227 0.10626628 0.18334907 0.1278013 0.5856979 0.073100895 1.1274736 0.093882106
1.0628668 0.47176966 0.43924206 0.5656288 0.13928042 0.19890265 0.19275874 0.3044811
0.06885737 0.23679128 0.38744444 0.9114399 0.16189565 0.5345531 0.07895393 0.5029846

module.model.2.model.0.weight f4 [64, 64, 3, 3]
00000000: d914 98bc 4b8f 2dbd ee51 793c f09a 373c
00000010: 221a 89bd 4eb5 323d d75d 133b 0940 86bc
00000020: a51e 793b 0e8c 083b 8468 09bc 8bfd 8bbb
00000030: 92cd 693d 754e 8f3c 5244 33bb 2793 2fbd
00000040: f9b3 7bbd a21a 4dbd a580 783d 4353 4ebc
00000050: 5ff7 3e3d 5693 e13c d3d0 02bd 5159 523d
00000060: 8bc3 08bd 37a9 903c 0e14 603d 7a62 8b3c
00000070: ea77 6a3d 4cf4 1cbd ab05 bd3b b10d 17bd
00000080: 54e3 c1bc a8b4 0e3d 3bd2 413d f088 163d
00000090: 4c13 24bd f94f 803d 1bc7 70bd dfb4 91bd
000000a0: 82f9 3f3d 788a 60bd 1922 643b 8d83 1fbd
000000b0: fa96 813d c948 adbc 6706 af3c 29a9 1c3b
000000c0: 8eb7 84bd 71de 04bd 4d39 1a3c 7f9f 56bd
000000d0: b40f a0bc b4e5 adbc 4c08 53bd e637 82bc
000000e0: 9067 133d 7190 61bd 867f 09bd 1d40 35bc
000000f0: 4d41 873c 71fa 1dbd 458f d03c d34a dabc
00000100: 183e 3dbd c0bd d6bc 8533 8d3b 7bda 89bd
00000110: 259d 1bbd c1b9 9fbc 9108 f1bb f14d f9bc
00000120: c89d 033d 8bb1 55bd 6c66 ca3b ffd3 8e3a
00000130: 2ec8 903d 38cf 4f3d 3c9d 3bbd b05f 03bd
00000140: 86f8 e8bb e83e 1c3d aa25 3abd 51d9 85bd
00000150: 47d6 f33c 5a61 40bd 0d84 82bd 1da4 81bd
00000160: 5cef a4bb d6b5 893d e5be 643b 262b 67bd
00000170: 937e 803d bac2 683d ddfc bfbb 0524 a0bc
00000180: 33e7 ddbc d48c 34bd 1a4e 38bd 34c7 3fbd
00000190: f332 7a3d 6582 6e3d c16f 5c3d 7f74 2d3d
000001a0: b021 883d 1769 4a3b de73 55bd e136 5b3c
000001b0: ba25 803c da0b 5f3c 8c98 d1bb 6ccb 703d
000001c0: e9d4 613c 3bf6 81bd b8f7 723c c103 25bd
000001d0: 3b94 3cbd 2149 493d dd24 7bbd edbd 1cbc
000001e0: b4a6 a8bc 2be1 3e39 d1d6 793d 4f2e 9e3c
000001f0: 81a8 023d 4a4a 5ebd 0f08 fbbc 6cb4 4abd
00000200: 4cea 293c 4a3d fd3c 45c2 34bd fc9d 0b3d
00000210: 646a 003b 96f4 8dbd 857e 83bd f1ba 1c3c
00000220: c206 3c3d ffdc 2e3b 8b00 8e3d 901c 7e3d
00000230: 92b4 63bd 6e4d 2dbd 778b f63c 2594 29bd
00000240: 2dfd 6abd 0100 fd3c 9f34 91bd 94ca a03c
00000250: 9d79 a7bb 40ee 72bd 49f3 2e3d 471c 6ebd
00000260: 72a3 f1b8 87e2 143d d2b6 893d a301 3d3d
00000270: 70f8 703c a888 0fbd 113b eabc 4fb1 713b
00000280: 7397 983c d4f8 06bd e4bb 133d 1f19 0ebd
00000290: 9e66 04bd c0be 3b3d 4dc9 803d 7837 98bc
000002a0: 010f 8e3c d58d 58bc 3264 123d 55ec 6ebd
000002b0: 45b8 613c 28c2 febc 84bc 8a3d a6e9 833d
000002c0: 3ec6 0fbd 9cfa 0bbd e6f0 7f3d 06ef 64bd
000002d0: 8894 93bd b882 84bd 8541 8c3d 161d 5cbd
000002e0: 39cc 3abd 3d0b 7c3d e9b4 173d cdfa 3a3c
000002f0: de60 8ebc 3ee3 f33c 79bc 693d c0a5 023c
00000300: 88e0 f9bc 2b84 d7ba cd09 2fbd fcab 42bd
00000310: ed99 263d 7f59 623d 5edc 04bd 5ad3 d4bb
00000320: 4e58 9fbc cf5a 53bd 40b9 92bc a325 77bd
00000330: f57e ba3c 0485 ec3b ad70 593c dede 3abb
00000340: 3417 26bb 1bec 3ebd 8881 c83c b586 b63a
00000350: d884 793c e4f2 343d 7d7d 6dbc 8628 f43c
00000360: e14d 4fbc 5731 853d 5c1b 6f3a a179 95bb
00000370: 4b6e 1bbd a7b0 eebb fadd 843a 6013 853d
00000380: 3e9e a6bb 45da 00bd 6332 12bd b66b e9bc
00000390: e00c 233d 3c1f 9b3b bc97 4dbd edff 8e3d
000003a0: c117 3dbd 6cc9 0d3d 6bd1 893d b314 9fbc
000003b0: 297b db3c da71 f83c 74df d43c 03a2 3d3d
000003c0: 7ed2 2e3d db95 d13c 2433 86bd 2738 85bd
000003d0: 32c1 903d 013e 25bd e3d6 b03c efd3 8a3d
000003e0: 39c6 d3bc 4f81 2b3d 2693 2d3d d78f 7f3d
000003f0: 4d84 16bd ca59 7d3c 5084 7b3d 5472 5bbd
-0.018564628 -0.042372983 0.0152172875 0.011206374 -0.066944376 0.043629937 0.0022486353 -0.016387956
0.003801265 0.0020835432 -0.008386735 -0.004272168 0.057080813 0.017493466 -0.0027353955 -0.042864945
-0.061450932 -0.050074227 0.06066956 -0.012593093 0.04662263 0.027536076 -0.03193743 0.05135471
-0.03338961 0.017658813 0.054706626 0.01701473 0.057243265 -0.038318917 0.005768498 -0.03687829
-0.023667969 0.034840256 0.047319632 0.036751688 -0.040057465 0.062652536 -0.05878363 -0.071145765
0.04686881 -0.054819554 0.0034810363 -0.038943816 0.063276246 -0.02115287 0.021365358 0.0023904538
-0.06480323 -0.0324387 0.009413076 -0.0523982 -0.019538738 -0.021227695 -0.051521584 -0.015895795
0.035987437 -0.05506939 -0.03356888 -0.011062649 0.01651063 -0.038568918 0.025458941 -0.026647007
-0.046201795 -0.026213527 0.00430912 -0.06731125 -0.03799166 -0.019497754 -0.0073557575 -0.030432673
0.032132894 -0.05217127 0.0061767604 0.001089692 0.07069431 0.05073473 -0.045804247 -0.032073677
-0.0071097044 0.03814593 -0.045446075 -0.065355904 0.029765261 -0.04696784 -0.06372843 -0.0633013
-0.0050334167 0.067241356 0.003490382 -0.056437634 0.06274142 0.05682633 -0.005859001 -0.019548425
-0.027087783 -0.044079617 -0.04499636 -0.046820834 0.061083745 0.058229823 0.053817514 0.042347427
0.066470504 0.0030885392 -0.052112453 0.013379783 0.01564299 0.0136136655 -0.006396359 0.05878775
0.013783672 -0.06345793 0.014829569 -0.040286783 -0.0460398 0.049142007 -0.061314452 -0.009566766
-0.020587303 0.00018203694 0.06099588 0.019309191 0.03189898 -0.054270066 -0.030643491 -0.04948847
0.010370802 0.030913014 -0.044130582 0.034086213 0.0019594664 -0.06931417 -0.06420616 0.009566055
0.045904882 0.0026682017 0.06933697 0.062038958 -0.055592127 -0.04231017 0.030095799 -0.041401047
-0.057370353 0.03088379 -0.07090115 0.019627847 -0.005110933 -0.059309244 0.042712484 -0.058132436
-0.000115222196 0.036348846 0.06724323 0.04614414 0.01470767 -0.035042435 -0.028592618 0.0036879366
0.018626904 -0.032952145 0.03606786 -0.034691926 -0.032324426 0.04583621 0.06288395 -0.018581137
0.017341139 -0.013217409 0.035740085 -0.058330853 0.013776843 -0.03109844 0.06774238 0.06441049
-0.035101168 -0.034174547 0.062485598 -0.055892013 -0.072060645 -0.06470245 0.06848434 -0.053738676
-0.04560492 0.061534155 0.037037764 0.011412335 -0.017380174 0.029771443 0.057064507 0.007974088
-0.030502573 -0.0016442587 -0.042733956 -0.0475273 0.04067414 0.05526113 -0.03243672 -0.0064949216
-0.019451287 -0.051600274 -0.0179106 -0.060338628 0.022765616 0.007218005 0.013271493 -0.0028514187
-0.002534342 -0.046611886 0.024475828 0.0013925644 0.015229426 0.04417695 -0.014495251 0.02980448
-0.012652845 0.065035515 0.00091212033 -0.0045616184 -0.03794698 -0.007284242 0.0010136955 0.06497836
-0.005084782 -0.031458158 -0.035692584 -0.028493743 0.0398072 0.004733948 -0.050193533 0.06982408
-0.04616523 0.03461592 0.067293964 -0.01941905 0.026792126 0.030327726 0.025985457 0.046297085
0.04268121 0.025584152 -0.06552723 -0.06504851 0.07068099 -0.040342335 0.021586841 0.067787044
-0.025851356 0.041871365 0.04237666 0.062393036 -0.036747266 0.015463302 0.06140548 -0.05357583

module.model.2.model.0.bias f4 [64]
00000000: ffae 873a 13d8 813a 5320 813a 7211 863a
00000010: 0cc7 7b3a 0e54 7d3a f7c2 873a f87b 823a
00000020: 1415 7c3a d136 823a 4025 853a 3049 853a
00000030: ee47 833a f8fb 803a 4574 813a 3ce8 823a
00000040: 995e 7f3a 5c57 863a 650a 853a a0f0 823a
00000050: e7d0 813a 3bea 813a 1c68 833a 40f1 803a
00000060: 138e 7e3a 79b2 803a fdd4 813a 5f7a 7f3a
00000070: 0564 803a 26f6 823a f562 863a a5d8 843a
00000080: b591 813a c4c7 813a 4ccf 833a 1765 853a
00000090: 6fe6 843a 8242 853a 07fd 793a e16f 873a
000000a0: 0bab 853a 7ae4 843a 86bb 843a 5faf 813a
000000b0: d8aa 813a c718 823a 9dbc 813a 9a1b 7e3a
000000c0: 6eec 813a 35f6 843a 2482 7a3a 7521 853a
000000d0: 009a 833a 5a94 833a c9e2 813a af92 7d3a
000000e0: 52c1 7f3a b4bb 823a caf3 823a a2a8 813a
000000f0: a747 823a 61a1 863a 7cdb 803a 052c 853a
0.0010351836 0.0009906314 0.0009851552 0.0010228588 0.00096045504 0.0009663709 0.0010357787 0.0009955158
0.0009616178 0.000993455 0.0010158196 0.0010168906 0.0010015944 0.0009840718 0.000987657 0.0009987424
0.0009741574 0.0010249424 0.0010150193 0.0009989925 0.0009904177 0.0009911725 0.0010025534 0.0009837523
0.0009710502 0.0009818814 0.0009905394 0.0009745713 0.0009795433 0.0009991571 0.001025288 0.0010135366
0.0009885343 0.0009901454 0.0010056286 0.0010177222 0.0010139475 0.0010166916 0.00095363 0.0010333025
0.001019807 0.0010138892 0.0010126687 0.0009894184 0.0009892834 0.0009925597 0.000989813 0.0009693444
0.000991238 0.0010144176 0.00095561356 0.0010157066 0.0010040402 0.0010038719 0.0009909506 0.00096730416
0.0009756285 0.0009974153 0.0009990868 0.0009892175 0.0009939567 0.0010271483 0.0009831036 0.0010160214

module.model.2.model.1.weight f4 [64]
00000000: 0dc4 7f3f 8b1a 803f 1c09 803f 08d2 7f3f
00000010: 62d9 7f3f 8c0e 803f b8c0 7f3f bcd1 7f3f
00000020: 0d0c 803f a701 803f d118 803f 6aac 7f3f
00000030: e4f3 7f3f 3c15 803f 440d 803f b602 803f
00000040: 4401 803f 3ec1 7f3f 43db 7f3f d3b5 7f3f
00000050: 1e14 803f b3e4 7f3f 8607 803f 4801 803f
00000060: 9c0b 803f c1f7 7f3f d701 803f f6ac 7f3f
00000070: cdd4 7f3f 38da 7f3f c325 803f 5313 803f
00000080: de1b 803f 531e 803f 9de2 7f3f 831c 803f
00000090: c014 803f b8ae 7f3f b2d6 7f3f 5329 803f
000000a0: df15 803f 770c 803f cde9 7f3f 501a 803f
000000b0: 730b 803f 281d 803f 4bfa 7f3f 3114 803f
000000c0: c2ed 7f3f 4520 803f aa06 803f 7ccb 7f3f
000000d0: 1bf7 7f3f ae09 803f a81f 803f 01d6 7f3f
000000e0: d228 803f e8c9 7f3f 0a22 803f cb23 803f
000000f0: 1601 803f 58fb 7f3f 15e5 7f3f 47af 7f3f
0.99908525 1.00081 1.000278 0.9992986 0.99941075 1.0004439 0.9990344 0.99929404
1.0003678 1.0000504 1.0007573 0.9987246 0.9998152 1.000648 1.0004048 1.0000827
1.0000386 0.9990424 0.9994394 0.99886817 1.0006139 0.9995834 1.0002296 1.0000391
1.0003543 0.9998742 1.0000561 0.9987329 0.99934083 0.9994235 1.0011524 1.0005897
1.0008504 1.0009254 0.9995516 1.0008701 1.0006332 0.99875975 0.99936974 1.0012611
1.0006675 1.0003804 0.99966127 1.000803 1.0003494 1.0008898 0.9999129 1.0006162
0.99972165 1.0009848 1.0002034 0.9991987 0.9998643 1.0002954 1.0009661 0.9993592
1.0012457 0.9991746 1.0010388 1.0010923 1.0000331 0.99992895 0.99958926 0.99876827

module.model.2.model.1.bias f4 [64]
00000000: 5630 33ba 2e15 153a dfb4 273a c5ec 8dba
00000010: 0666 35ba d4cd 723a 26a8 a1ba 2526 83b8
00000020: 3232 1d3a 4a4c 293a e391 5839 591b a1ba
00000030: aeb7 2fba 5ab5 623a 46d6 2f3a a7fc 2b39
00000040: 6864 e039 b44d 8aba 7868 19ba 720d 95ba
00000050: 32c6 133a 2bfb 3b39 5efc 7939 feac 7538
00000060: 0bf8 e839 de49 5f3a 6c95 be38 2c9d a1ba
00000070: 2671 6938 4eeb 32ba 3728 2e3a 2edf 1fba
00000080: d9ba 4e3a 2431 9bb9 772b 92ba 6804 56b9
00000090: de99 6cb9 30eb a8ba 6a41 6aba 1d1d 953a
000000a0: efaf e839 b0a1 443a faf6 12ba cb6e af39
000000b0: 40fd 153a fc4f 363a f951 69b8 9e2b 7b39
000000c0: 679b cfb9 1457 253a 83ab dc39 d59e 83ba
000000d0: 8d10 8839 d2aa d939 43e2 dfb9 65f9 63ba
000000e0: c479 a33a 549d 7fba 2717 853a 802b 5e3a
000000f0: 3c72 eab9 6ff0 deb9 ed1f 2cb8 6810 a6ba
-0.0006835511 0.0005687055 0.00063974963 -0.0010828009 -0.0006919805 0.0009262238 -0.0012333437 -6.253672e-05
0.00059965544 0.00064582063 0.00020653712 -0.0012291475 -0.00067030906 0.00086482393 0.00067076494 0.00016401951
0.00042799418 -0.0010551722 -0.0005852054 -0.0011371805 0.00056371384 0.00017927277 0.00023840505 5.8573663e-05
0.00044435295 0.0008517782 9.087738e-05 -0.0012330166 5.5656907e-05 -0.0006825224 0.0006643566 -0.0006098625
0.0007886119 -0.00029600516 -0.001115187 -0.00020410272 -0.00022564034 -0.0012887474 -0.0008936139 0.0011376474
0.0004438157 0.00075009 -0.00056062604 0.00033461148 0.0005721636 0.00069546676 -5.5627872e-05 0.00023953474
-0.000395979 0.0006307226 0.00042089456 -0.0010041842 0.00025952273 0.00041516736 -0.00042702453 -0.00086965255
0.0012472202 -0.0009750922 0.0010153995 0.000847511 -0.0004471707 -0.00042522277 -4.103773e-05 -0.0012669684

module.model.2.model.1.running_mean f4 [64]
00000000: 41e8 8cbe 28da 903e ddc0 22be 99ad b6bd
00000010: ede3 8bbe 0f3f 5b3e fc8d 62be 71b1 49be
00000020: 2b39 8cbd 22f7 1f3f 25e1 693d 4211 3cbf
00000030: 51ea 063f 6918 f63d eb76 6dbe 6458 32be
00000040: 4492 c53e 21d1 c53d 8bc9 d43e c555 abbd
00000050: 6539 a33e bfc2 2b3f 4148 33bc 4c21 8e3d
00000060: 8449 50bf 1f9f b8be d844 00bf 3b1a 043f
00000070: b71d 79be 01ac a9be cd78 7f3f ee70 213f
00000080: 74b5 13bf 5811 82be 376d 0f3f 4c3a 313f
00000090: 22ac a43e f836 f23d 9565 0bbe 43d8 e6bb
000000a0: 0a70 863e 3eba 6b3e 8ecf 39be 8cc4 c43e
000000b0: 8102 04bf 94b5 4a3e 6fe3 9abe caf0 bbbe
000000c0: 836b c8be 9bfc df3c 7cfa 073e 1c63 4cbe
000000d0: d626 9b3c 5bbb 03be f86d 0b3c dfb8 60be
000000e0: 9575 8ebd f328 393f 11d7 29bd 50ae babd
000000f0: f00f bd3e 4b19 c2bd 65cf 05bf a207 3a3e
-0.27520946 0.2829144 -0.15893884 -0.0891983 -0.2732233 0.21410774 -0.22124475 -0.19696595
-0.068468414 0.6248647 0.05709948 -0.73463833 0.5270129 0.120163746 -0.23189895 -0.17416531
0.38588154 0.09659029 0.41560015 -0.083659686 0.31879726 0.67094034 -0.01094252 0.069399446
-0.81362176 -0.360589 -0.5010505 0.51602525 -0.24327742 -0.3313904 0.997937 0.6306294
-0.5769875 -0.25403857 0.56026024 0.6922958 0.32162577 0.11826891 -0.13612969 -0.0070448234
0.26257354 0.23020265 -0.18145582 0.38431203 -0.5156632 0.19795829 -0.30251643 -0.36707145
-0.39144525 0.027342131 0.13279146 -0.19959682 0.018939417 -0.12864439 0.008510105 -0.21945523
-0.06956021 0.7232811 -0.04146487 -0.09115279 0.36926222 -0.094774805 -0.52269584 0.18166974

module.model.2.model.1.running_var f4 [64]
00000000: dfb4 043f 46bc b83e 105b 703e 6628 7a3e
00000010: 4afd 1c3e eae6 6a3f d332 0e3e 6a71 053e
00000020: 6b4e 303e 28b3 b93e 396c be3d 1bdf 493f
00000030: c079 3f3f 4f13 773e 3f8d 903e d490 c93e
00000040: 3261 f23e 5910 8d3e d8a2 643f 35a5 a53e
00000050: dd07 123e 12c6 ce3e 6930 623f de83 003f
00000060: 9335 a23e 2cda a63e 850d 683f b182 5c3e
00000070: ff05 ab3e 78e0 963e cc65 873f 9e02 6b3e
00000080: 710b e53f c45f 1d3e 392b 043e 930c d93e
00000090: 8147 833e cf7e a53e aa9c 183e daec 8d3e
000000a0: 9714 ab3f e13c bf3e 97a8 003f 4f5e 003e
000000b0: 2193 ed3e c966 8d3e 7122 223f ff5c 2f3e
000000c0: 39b4 083e e782 a43e a3aa 943f 03fa 8d3e
000000d0: 3e94 e53e 3964 563f 5c9f fa3e c739 d43e
000000e0: 4f66 2a3f 3e0e d33e 50bf 813e 10fc 2d3f
000000f0: 2965 153f 851a db3e 96f9 803e 19a9 ea3e
0.5183849 0.3608114 0.23472238 0.24429473 0.15330997 0.91758597 0.13886575 0.13031545
0.17217414 0.36269498 0.092979856 0.78856057 0.7479515 0.2412846 0.28232762 0.39368308
0.4733978 0.27551535 0.8931098 0.32352605 0.14260812 0.4038549 0.8835512 0.50201213
0.316815 0.32588327 0.9064563 0.2153423 0.33403012 0.2946813 1.0577941 0.22950217
1.7894117 0.15368563 0.12907113 0.42392406 0.2564049 0.3232331 0.14903513 0.27719766
1.3365659 0.37351134 0.5025725 0.12535976 0.46401313 0.2761748 0.63333803 0.17125319
0.1335 0.3213112 1.1614574 0.27729806 0.44839662 0.8374668 0.48949707 0.4145033
0.6656236 0.41221803 0.25341272 0.6796274 0.58357483 0.4279367 0.2519042 0.45832136
