output_gd_deblur_noise/ckpt/resnet_epoch40.pth (torch, 641727 bytes, 31 tensors)

module.model.0.weight f4 [64, 1, 1, 1]
0.03699104 -0.106463574 0.27034718 0.19571143 0.099930406 0.13346659 0.05250136 0.21275328
0.036319077 -0.16624409 -0.13054493 0.24770147 0.11334708 0.2863618 -0.0035669338 0.005538226
-0.13892771 -0.033136573 0.18541248 -0.27812186 0.20426035 0.15469675 0.099467635 0.041989867
0.30404648 -0.21884222 -0.10341772 0.17101048 -0.2792027 0.16169336 -0.2446582 0.1799646
0.25369927 0.29409733 0.2283561 -0.1079088 -0.2650499 -0.02355873 0.1811565 -0.01024352
0.10571456 -0.27361026 -0.050002225 0.29753825 -0.21802658 0.23084109 -0.25063556 -0.28214142
0.08740273 0.14123264 0.14552137 -0.11726088 -0.1715882 0.103530936 0.115881346 0.087448604
0.006032639 0.24481536 -0.27841336 -0.09226853 0.17283456 -0.11080987 -0.18056846 0.025833659
00000000: eb83 173d 9309 dabd f26a 8a3e 9468 483e
00000010: 50a8 cc3d 77ab 083e ab0b 573d ffdb 593e
00000020: 50c3 143d e43b 2abe 92ad 05be 74a5 7d3e
00000030: 8422 e83d 049e 923e 38c3 69bb 027a b53b
00000040: 1143 0ebe 37ba 07bd c5dc 3d3e fd65 8ebe
00000050: a029 513e d368 1e3e b0b5 cb3d 91fd 2b3d
00000060: fbab 9b3e 2d18 60be abcc d3bd 5f1d 2f3e
00000070: a8f3 8ebe f292 253e ae87 7abe a448 383e
00000080: dfe4 813e ed93 963e 2ed6 693e 4aff dcbd
00000090: 9fb4 87be 3dfe c0bc 1781 393e 70d4 27bc
000000a0: e080 d83d a516 8cbe 22cf 4cbd ef56 983e
000000b0: 5c42 5fbe 9b61 6c3e 4e53 80be d774 90be
000000c0: 3400 b33d 4a9f 103e 8e03 153e 7926 f0bd
000000d0: d1b4 2fbe 0708 d43d 3353 ed3d 4118 b33d
000000e0: 72ad c53b e1b0 7a3e 328c 8ebe 48f7 bcbd
000000f0: 8bfb 303e 49f0 e2bd f0e6 38be 1ca1 d33c

module.model.0.bias f4 [64]
0.0011611726 -0.00021405319 -4.227252e-05 -0.00071966444 0.00038345603 -2.6817348e-05 -0.0016631102 0.0009981382
0.0006262702 0.0020470722 0.00046370266 0.0019670716 0.0020097957 0.000831142 3.7574355e-05 0.0014748132
0.0025672864 0.0027469816 -0.0008363543 0.0002044631 0.0022805214 -0.00029943217 0.0019358927 -0.0003143976
-0.00070192246 0.0006744283 0.0009428007 0.0013316936 0.0013940915 -0.00044617653 -7.991641e-05 -0.000234978
0.00012109626 0.0001622628 0.0006343664 -0.0007748811 0.0025327029 0.0021044898 0.0023717694 0.0008389059
0.0006093133 0.0011085877 0.0019514237 0.0015487515 0.0035668837 2.0901613e-05 4.0634244e-05 0.0012481139
0.002262863 0.0029344063 0.0007437047 0.0013159169 0.00038325557 0.0012845654 0.00014288168 -0.0010822127
0.0008600705 -0.0014981378 0.0029611597 -0.0016387675 0.00095100846 0.002366147 -0.00013318926 -0.0005337008
00000000: 7d32 983a 7773 60b9 c64d 31b8 dda7 3cba
00000010: 990a c939 d1f5 e0b7 b8fc d9ba f6d3 823a
00000020: 482c 243a 2c28 063b 1e1d f339 fce9 003b
00000030: c7b6 033b ffe0 593a 2899 1d38 854e c13a
00000040: eb3f 283b b406 343b c93e 5bba 2565 5639
00000050: cd74 153b 1bfd 9cb9 c8bd fd3a bbd5 a4b9
00000060: 3801 38ba 1ecc 303a 4926 773a 398c ae3a
00000070: f3b9 b63a cdec e9b9 cc98 a7b8 6d64 76b9
00000080: 0ff5 fd38 1725 2a39 9c4b 263a 6421 4bba
00000090: b4fb 253b 7beb 093b b06f 1b3b 06ea 5b3a
000000a0: 53ba 1f3a 084e 913a eac6 ff3a 7aff ca3a
000000b0: 61c2 693b df55 af37 b06e 2a38 c197 a33a
000000c0: 8b4c 143b 2b4f 403b 2df5 423a d87a ac3a
000000d0: b1ef c839 dd5e a83a 82d2 1539 08d9 8dba
000000e0: 5b76 613a 2a5d c4ba 0410 423b eacb d6ba
000000f0: 194d 793a 5c11 1b3b b8a8 0bb9 0ee8 0bba

module.model.1.model.0.weight f4 [64, 64, 3, 3]
0.033183523 -0.014704967 -0.039040282 -0.04463366 0.05171203 0.07025799 -0.044533715 0.027706645
0.063365884 -0.031233774 0.037541594 -0.045626137 -0.017891629 -0.064754836 -0.06406718 -0.011109028
0.06119641 -0.026321733 0.013830592 0.0627575 0.049110666 0.043122012 -0.03136373 0.016966313
-0.020788498 -0.051815387 -0.0412264 -0.027772332 -0.059285443 0.06932037 0.059633873 0.035245217
-0.06664419 -0.014398868 -0.030524682 0.0550883 -0.0013323771 0.053744107 0.048612528 0.019844405
-0.05418254 -0.030717393 0.030340564 -0.062043015 -0.059298787 -0.019429969 -0.069005825 0.015863316
-0.0047387825 0.05632672 -0.05196254 -0.025738087 0.019779852 0.011224452 -0.05807131 0.03786723
0.034678936 -0.0019383209 -0.01595768 -0.05042654 0.007967566 -0.044424612 -0.065949626 -0.06807001
-0.063553244 -0.070408314 -0.012335829 0.029011438 0.066706166 0.061205536 0.015270911 0.008149058
0.064179346 -0.0075285975 0.023604985 0.028367119 -0.03810421 -0.041051794 0.053181995 0.0110147195
0.020097924 -0.064599186 0.061071455 0.045474846 -0.050370988 -0.057608344 -0.07009664 -0.07094913
0.04427643 -0.054761425 0.024666393 0.01911102 -0.063859284 -0.007318369 0.010602226 0.026014496
0.055553492 0.05207088 0.05707299 -0.001059551 -0.06896627 0.028682847 0.030774055 -0.060241543
0.018202744 0.046857517 -0.021148924 -0.05975547 0.06524773 -0.044765014 -0.051921427 0.056030244
0.044226576 -0.018243322 -0.06135535 0.014279357 0.04710986 -0.014454609 0.049523193 0.046429686
0.035238914 0.07282952 -0.043868944 0.0023598762 -0.032476418 -0.0016336228 -0.02517838 -0.04448578
2.952225e-05 0.028090842 0.033578556 -0.07087694 -0.038066585 0.035516106 -0.06408411 -0.0358772
0.026528286 0.023937738 -0.022686068 -0.05858688 0.07020274 0.055048857 -0.060672157 -0.063955694
-0.036640827 -0.017423796 -0.01654199 0.016348833 -0.054198723 0.057756983 0.066184364 -0.020158118
0.03520776 0.009812941 -0.005491902 -0.038619664 0.004994079 0.047503803 0.008395879 0.0035013154
0.046086505 0.041545693 -0.06614193 0.027429493 -0.060717534 -0.06517249 -0.021906435 0.06605238
0.00741423 -0.03391523 0.026554069 -0.047902416 0.015600646 -0.041310877 0.05658972 0.04783716
0.056979533 0.00228559 -0.0496313 0.0029370827 -0.021154549 0.055264346 0.0324448 0.0075807534
0.02181118 -0.040825795 0.06468573 -0.0024004935 0.006961932 0.07193757 0.01880877 0.05720153
-0.008234758 -0.05658572 -0.025862327 0.02703305 -0.01606974 -0.024860745 -0.033318907 0.057884347
0.06820742 0.027579537 0.063316405 -0.002749705 -0.070383824 0.04495945 0.055858903 0.00983431
-0.017052438 0.020751996 0.01671943 0.05894992 0.0074001453 -0.02257782 0.042464342 -0.06130357
-0.050623987 -0.04499404 0.05654609 0.034120753 0.0036214695 -0.0348809 0.042586733 -0.0210755
0.038761348 -0.052739564 0.033341482 0.05092131 -0.05677158 -0.02439181 0.025355598 -0.064395644
-0.06680275 -0.06117069 -0.049411908 0.04003081 -0.067732334 -0.021870498 -0.0035727248 -0.057735622
0.037732545 -0.006106919 -0.021448145 0.05738779 -0.04866769 0.018549684 0.030914584 0.050404303
-0.03824091 0.0037075633 -0.037951957 -0.055559866 -0.014724216 -0.01179224 -0.013485561 0.039245903
00000000: 72eb 073d 1aed 70bc b4e8 1fbd c9d1 36bd
00000010: fecf 533d 6ce3 8f3d fc68 36bd 0cf9 e23c
00000020: f9c5 813d f9dd ffbc 37c5 193d 79e2 3abd
00000030: 7791 92bc 2f9e 84bd a735 83bd a402 36bc
00000040: 16a9 7a3d ada0 d7bc b599 623c 0187 803d
00000050: 4428 493d b5a0 303d 4177 00bd f0fc 8a3c
00000060: a44c aabc 5f3c 54bd 03dd 28bd cd82 e3bc
00000070: 4bd5 72bd d7f7 8d3d a642 743d 4a5d 103d
00000080: c07c 88bd 3be9 6bbc e60e fabc 45a4 613d
00000090: 28a3 aeba c822 5c3d ee1d 473d bc90 a23c
000000a0: 83ee 5dbd 0ba3 fbbc c68c f83c d120 7ebd
000000b0: 49e3 72bd 992b 9fbc ed52 8dbd c9f3 813c
000000c0: ca47 9bbb d9b6 663d acd6 54bd aed8 d2bc
000000d0: 5b09 a23c c4e6 373c 2fdc 6dbd ab1a 1b3d
000000e0: 800b 0e3d 420f feba aeb9 82bc 0f8c 4ebd
000000f0: 658a 023c 95f6 35bd 9910 87bd 4a68 8bbd
00000100: 3428 82bd 3c32 90bd 381c 4abc 65a9 ed3c
00000110: 3e9d 883d a8b2 7a3d d832 7a3c a083 053c
00000120: 7670 833d 74b2 f6bb 3e5f c13c 2962 e83c
00000130: 2913 1cbd ed25 28bd 5dd5 593d 1577 343c
00000140: 67a4 a43c 944c 84bd 1026 7a3d d543 3a3d
00000150: cf51 4ebd baf6 6bbd d48e 8fbd c74d 91bd
00000160: 345b 353d 844d 60bd 2d11 ca3c b78e 9c3c
00000170: a8c8 82bd eece efbb f5b4 2d3c 5a1c d53c
00000180: 0f8c 633d 4648 553d 5ec5 693d a2e0 8aba
00000190: 303e 8dbd 4af8 ea3c df19 fc3c d6bf 76bd
000001a0: ec1d 953c abed 3f3d 8240 adbc 27c2 74bd
000001b0: 9aa0 853d 855b 37bd 90ab 54bd f87f 653d
000001c0: ed26 353d 0573 95bc bf4f 7bbd f7f3 693c
000001d0: 45f6 403d 06d3 6cbc d5d8 4a3d 0e2d 3e3d
000001e0: ae56 103d a527 953d ecaf 33bd 27a8 1a3b
000001f0: fe05 05bd 491f d6ba e442 cebc b936 36bd
00000200: 8da6 f737 c41e e63c ab89 093d ee27 91bd
00000210: b5eb 1bbd 5679 113d 883e 83bd f9f3 12bd
00000220: d951 d93c 1319 c43c 22d8 b9bc ccf8 6fbd
00000230: 74c6 8f3d e97a 613d 5e83 78bd 34fb 82bd
00000240: b114 16bd 59bc 8ebc 1183 87bc fded 853c
00000250: 7bff 5dbd 9692 6c3d ab8b 873d a322 a5bc
00000260: 0336 103d 75c6 203c 6af5 b3bb a72f 1ebd
00000270: 5fa5 a33b 5993 423d de8e 093c 5376 653b
00000280: 34c5 3c3d d12b 2a3d 6c75 87bd d1b3 e03c
00000290: f3b2 78bd 2879 85bd 2075 b3bc 7846 873d
000002a0: 12f3 f23b b2ea 0abd eb87 d93c 5335 44bd
000002b0: da99 7f3c 9835 29bd 9fca 673d e6f0 433d
000002c0: 5f63 693d d6c9 153b 314a 4bbd 127c 403b
000002d0: 4e4c adbc de5c 623d d7e4 043d f867 f83b
000002e0: 5cad b23c f338 27bd f479 843d 9951 1dbb
000002f0: eb20 e43b 0154 933d da14 9a3c 274c 6a3d
00000300: 14eb 06bc 6ec6 67bd 3bdd d3bc 6a74 dd3c
00000310: b0a4 83bc c3a8 cbbc 6879 08bd 2318 6d3d
00000320: 55b0 8b3d 7bee e13c 08ac 813d 6534 34bb
00000330: 6525 90bd 6627 383d 4ecc 643d 1620 213c
00000340: 8eb1 8bbc 1700 aa3c 30f7 883c 7975 713d
00000350: eb7c f23b 1ff5 b8bc 17ef 2d3d 7419 7bbd
00000360: 195b 4fbd ac4b 38bd df9c 673d 34c2 0b3d
00000370: 2d56 6d3b 46df 0ebd 6d6f 2e3d 87a6 acbc
00000380: 38c4 1e3d 7105 58bd 1491 083d dd92 503d
00000390: 5189 68bd 55d1 c7bc 8bb6 cf3c dde1 83bd
000003a0: e1cf 88bd 1e8e 7abd 2464 4abd 59f7 233d
000003b0: 40b7 8abd c229 b3bc 6024 6abb 307c 6cbd
000003c0: 718d 1a3d 8d1c c8bb 05b4 afbc 760f 6b3d
000003d0: c657 47bd 82f5 973c 9540 fd3c be74 4e3d
000003e0: 80a2 1cbd 97fa 723b 8373 1bbd be92 63bd
000003f0: d73d 71bc 3d34 41bc 8bf2 5cbc 50c0 203d

module.model.1.model.0.bias f4 [64]
0.001425393 0.0008970464 0.00082033273 0.0007031684 0.00065674935 0.001355594 0.0012138787 0.00086044456
0.0011594241 0.00093105424 0.0007168353 0.0012893536 0.0010369592 0.00068296236 0.0008808918 0.0013308768
0.0009643388 0.0008520526 0.00073462544 0.0008465032 0.0014730652 0.0013483817 0.0011270748 0.0009168607
0.0010937739 0.0015359909 0.0012846666 0.0010411754 0.0012011066 0.00087368296 0.000951665 0.00085843034
0.0009372065 0.0010752999 0.0012075203 0.00081785186 0.0012104639 0.001121293 0.0013581939 0.0011861356
0.00081224326 0.0012813474 0.0012796049 0.0009926516 0.0007160893 0.0010511957 0.00092177594 0.0011208474
0.0013781345 0.0010256632 0.0013279567 0.0013174358 0.0009795622 0.0011463441 0.001011429 0.0013033806
0.0005696931 0.0007963383 0.0009805457 0.00056833366 0.0017516036 0.0011431252 0.00023333028 0.0002571141
00000000: 41d4 ba3a c427 6b3a 990b 573a d554 383a
00000010: b429 2c3a 30ae b13a 031b 9f3a 758f 613a
00000020: d1f7 973a fe11 743a 01ea 3b3a 87ff a83a
00000030: 94ea 873a d408 333a a6eb 663a d170 ae3a
00000040: aecb 7c3a 485c 5f3a e193 403a dee7 5d3a
00000050: de13 c13a 2fbc b03a 5bba 933a 7b59 703a
00000060: f65c 8f3a 4d53 c93a 4262 a83a 0d78 883a
00000070: 736e 9d3a df07 653a 2879 793a 4908 613a
00000080: ddae 753a 14f1 8c3a a845 9e3a 1c65 563a
00000090: 6ea8 9e3a 5af8 923a 6d05 b23a 1b78 9b3a
000000a0: b9ec 543a e2f2 a73a 6ab8 a73a dc1b 823a
000000b0: f0b7 3b3a 46c8 893a 56a3 713a 66e9 923a
000000c0: 85a2 b43a 8c6f 863a d50e ae3a cfad ac3a
000000d0: a764 803a ed40 963a ed91 843a 32d6 aa3a
000000e0: 7557 153a 5cc1 503a a785 803a 3afc 143a
000000f0: 1096 e53a ebd4 953a 1faa 7439 45cd 8639

module.model.1.model.1.weight f4 [64]
1.0001355 1.0023644 1.002003 0.99877805 1.0016545 0.9994534 1.0013359 1.0001357
1.0014452 0.99869156 1.001031 0.997524 1.0016172 0.99952096 1.0019264 1.0015832
1.0019352 0.9986279 1.001263 0.9998641 1.0001489 0.99823564 0.9988335 0.9978955
1.001572 0.9986328 0.9992569 1.0007601 0.9982308 0.99973595 0.99735963 0.99785936
0.9977344 0.9981337 0.99889284 1.0002555 0.99945855 0.99974585 1.0000218 0.99875337
1.0003318 1.0011706 1.0024127 0.9980863 1.00038 0.99871796 1.0006402 1.0012624
1.0002502 0.9985915 0.9983844 0.998288 1.0015078 0.99994504 0.9995315 1.0011667
1.0015216 0.99784696 1.000964 1.0002794 0.99817467 0.9992 1.0021522 1.0016055
00000000: 7104 803f 7a4d 803f a241 803f ebaf 7f3f
00000010: 3736 803f 2edc 7f3f c62b 803f 7204 803f
00000020: 5b2f 803f 40aa 7f3f c921 803f bc5d 7f3f
00000030: fe34 803f 9be0 7f3f 203f 803f e133 803f
00000040: 6a3f 803f 14a6 7f3f 6329 803f 18f7 7f3f
00000050: e104 803f 5f8c 7f3f 8db3 7f3f 1476 7f3f
00000060: 8333 803f 66a6 7f3f 4dcf 7f3f e818 803f
00000070: 0e8c 7f3f b2ee 7f3f f652 7f3f b673 7f3f
00000080: 866b 7f3f b185 7f3f 71b7 7f3f 5f08 803f
00000090: 84dc 7f3f 58ef 7f3f b700 803f 4dae 7f3f
000000a0: df0a 803f 5c26 803f 0f4f 803f 9582 7f3f
000000b0: 740c 803f fbab 7f3f fa14 803f 5e29 803f
000000c0: 3308 803f b1a3 7f3f 1f96 7f3f cd8f 7f3f
000000d0: 6831 803f 66fc 7f3f 4ce1 7f3f 3b26 803f
000000e0: dc31 803f e672 7f3f 971f 803f 2809 803f
000000f0: 6088 7f3f 92cb 7f3f 8646 803f 9c34 803f

module.model.1.model.1.bias f4 [64]
0.0013396027 0.0025476278 0.0021900593 -0.001453679 0.00097465987 0.0010139549 0.0014187614 -0.0002565006
0.0012785008 -0.002342332 0.0014753287 -0.0021294164 0.0011473355 -0.00015336592 0.0018531309 -6.794536e-05
0.0019340835 0.0008879655 -0.0003598052 0.0008032435 -0.0018867076 -0.0014043342 -0.0020571903 -0.0017177064
0.0016569478 -0.0010919804 -0.0010005514 -0.0022151668 -0.0019634918 -6.183289e-05 -0.0019363639 -0.0013239769
-0.00092183397 -0.00036096998 -0.00071905577 -0.00060712325 -0.001526706 -0.0019771997 -0.0019320609 -0.0014674409
0.0005898326 0.0010053959 -0.000135409 -0.0015302976 -0.00038184275 -0.00037141357 0.0013249064 0.0012647205
-0.0014572951 -0.0019820414 -0.0016765048 0.0006562682 0.001929333 0.0003374267 -0.0002000515 -0.00046178736
-4.1195806e-05 -0.0014820675 0.0006255032 0.002285069 -0.0020184675 -0.00052204815 0.0028365566 0.0021784902
00000000: 9c95 af3a 1af6 263b 1987 0f3b 6089 beba
00000010: 5180 7f3a aee6 843a bcf5 b93a ee7a 86b9
00000020: 5e93 a73a cf81 19bb d15f c13a ae8d 0bbb
00000030: 3162 963a dad0 20b9 c1e4 f23a e37d 8eb8
00000040: 1381 fd3a 5bc6 683a 3da4 bcb9 c290 523a
00000050: 674b f7ba a311 b8ba edd1 06bb aa24 e1ba
00000060: f12d d93a c820 8fba ef24 83ba 552c 11bb
00000070: edad 00bb 48ac 81b8 97cd fdba 4b89 adba
00000080: 3ba7 71ba 9240 bdb9 047f 3cba 5a27 1fba
00000090: c11b c8ba e893 01bb 353d fdba 2557 c0ba
000000a0: ff9e 1a3a 7dc7 833a 94fc 0db9 4494 c8ba
000000b0: 1132 c8b9 49ba c2b9 7ba8 ad3a fac4 a53a
000000c0: b602 bfba 23e5 01bb 2bbe dbba 6a09 2c3a
000000d0: ace1 fc3a a5e8 b039 eac4 51b9 0d1c f2b9
000000e0: a9c9 2cb8 ef41 c2ba cff8 233a 19c1 153b
000000f0: 4448 04bb 0fda 08ba 86e5 393b 00c5 0e3b

module.model.1.model.1.running_mean f4 [64]
0.00029375005 0.0013534662 0.0023417484 -0.0008339179 -0.000724737 0.0017528726 0.004034694 0.0002449254
-0.00097469287 0.0037189745 0.0013550603 0.0025818727 -0.0007278061 0.0018733296 0.0017923764 0.0024722575
0.0009537887 0.0005554057 0.001621037 0.00074036286 -0.0015839343 0.0016318654 -0.00025397574 0.0028353608
-0.0006788952 0.0028387087 0.0011774943 0.00157844 0.0007626233 -0.0007360471 0.0043394514 0.002552773
0.0006245985 -0.00022802074 0.00045412584 0.0010465155 0.0012376796 -0.0013254631 0.0030362597 0.0008499503
0.0005760583 -0.0010416666 0.002718784 -0.00029452174 0.0008695298 -0.00032225228 -0.0015350953 0.00039769724
-0.0005009043 0.00078015984 0.003554825 0.001356086 0.0012148428 0.0008413477 0.0014320947 -5.977906e-06
-0.00011483417 0.0025872767 0.0023156675 0.00057578523 0.0005727559 0.0036425632 0.0009358059 -0.00014532899
00000000: 7702 9a39 ca66 b13a 0578 193b 489b 5aba
00000010: 47fc 3dba a5c0 e53a 7735 843b 5569 8039
00000020: 8882 7fba 0aba 733b 479c b13a a334 293b
00000030: 3eca 3eba 838a f53a 2cee ea3a 9905 223b
00000040: ad07 7a3a a598 113a fa78 d43a e914 423a
00000050: 049c cfba 51e4 d53a 0c28 85b9 76d1 393b
00000060: e3f7 31ba a109 3a3b 2756 9a3a a8e3 ce3a
00000070: c9ea 473a 49f3 40ba f531 8e3b 6d4c 273b
00000080: 19bc 233a da18 6fb9 bd17 ee39 3c2b 893a
00000090: a339 a23a 29bb adba fcfb 463b 33cf 5e3a
000000a0: 9e02 173a 8888 88ba a02d 323b 0a6a 9ab9
000000b0: 28f1 633a f8f3 a8b9 4035 c9ba 0582 d039
000000c0: 1e4f 03ba a483 4c3a 11f8 683b b2be b13a
000000d0: 5c3b 9f3a e38d 5c3a 20b5 bb3a d295 c8b6
000000e0: 20d3 f0b8 4d8f 293b 74c2 173b 4bf0 163a
000000f0: ff24 163a 12b8 6e3b df50 753a 7463 18b9

module.model.1.model.1.running_var f4 [64]
0.0015123251 0.0016906594 0.00034726912 0.00035292614 0.0007104966 0.00032647984 0.00094087113 0.00058304257
0.0007384095 4.3273303e-05 0.0010260156 1.7683498e-05 0.00051160064 5.993275e-05 0.00047561433 6.5427004e-05
0.0017349899 8.3064726e-05 0.00094713597 0.00020557138 7.5563585e-05 6.2974694e-05 0.00025389137 3.5487952e-05
0.0010097547 0.00013066735 0.00026233334 0.00018869163 0.00017497833 0.0003437739 0.00032855148 1.2732212e-05
0.00013941377 0.0014478537 7.435489e-05 0.0016228108 0.00074711046 0.0015080427 0.0019045495 0.00018660563
0.00049563195 0.00011540435 0.00026281868 0.00029876095 0.00039634248 0.0001594902 0.00043000813 0.0007855078
0.0011374397 2.9919897e-06 0.00022491507 3.8443643e-05 0.003120925 0.00023028445 0.0005100562 0.00024252903
3.00685e-05 2.259188e-05 0.0010962018 0.00020158243 0.0003334983 0.0006770412 0.0010362305 0.000408203
00000000: 3639 c63a 1e99 dd3a ac11 b639 f208 b939
00000010: 9f40 3a3a 622b ab39 cba4 763a 53d7 183a
00000020: d391 413a 5b80 3538 5f7b 863a 0657 9437
00000030: f01c 063a 4d60 7b38 e05b f939 db35 8938
00000040: 9a68 e33a 0933 ae38 3849 783a a68e 5739
00000050: e477 9e38 4811 8438 b91c 8539 e6d8 1438
00000060: bf59 843a c003 0939 c989 8939 86db 4539
00000070: 637a 3739 8d3c b439 6f41 ac39 6f9c 5537
00000080: 992f 1239 e9c5 bd3a faee 9b38 7fb4 d43a
00000090: bcd9 433a 84a9 c53a 14a2 f93a 91ab 4339
000000a0: 4ced 013a 3d05 f238 edca 8939 04a3 9c39
000000b0: 30cc cf39 d33c 2739 b772 e139 89ea 4d3a
000000c0: 2516 953a fec9 4836 2ed7 6b39 8c3e 2138
000000d0: 6f88 4c3b 8378 7139 4bb5 053a 644f 7e39
000000e0: 9d3b fc37 b183 bd37 6eae 8f3a df5f 5339
000000f0: 62d9 ae39 777b 313a 20d2 873a 1404 d639

module.model.1.model.3.weight f4 [64, 64, 3, 3]
-0.063517034 0.044370208 0.029756224 -0.0025893834 0.04526674 0.057686515 -0.014462922 -0.018992689
0.039477196 -0.033781122 0.048599273 0.059167746 0.056243774 0.015673483 -0.024711646 0.015277413
-0.027097836 0.06457213 0.013796071 -0.061831806 -0.03289835 -0.054178413 -0.002305083 0.06328268
-0.050699033 -0.029463233 0.05392663 -0.071601965 0.013069722 -0.020423867 -0.053555496 0.034401715
-0.0013764556 -0.020233145 -0.045917835 -0.020263705 -0.021025864 -0.029185906 0.06034854 0.045074686
-0.057476427 0.024192758 -0.015659682 0.0047741253 0.056733035 -0.049172852 -0.0565098 0.005851773
-0.058295228 -0.022385169 0.03183374 0.028157175 -0.05186401 0.073237754 -0.0037575362 0.014616943
-0.011091322 -0.00698075 0.04883209 -0.00015438568 0.036509436 0.050944287 -3.3379633e-06 -0.034256764
-0.06820615 -0.049439196 -0.06581283 0.04999177 -0.06843637 0.07106911 0.03460328 -0.030565513
0.05968568 0.019475803 -0.009921963 0.014937897 -0.043058638 0.0148208095 -0.0006095015 -0.0633592
0.032336775 -0.01776613 -0.04076549 -0.064797536 0.06064114 -0.019016115 -0.04117388 0.04045288
-0.010847318 -0.06163212 -0.009723914 0.016392922 -0.04508167 0.035004444 -0.05002892 -0.05119638
0.050669305 0.025144052 -0.053847548 0.070886195 -0.032667708 0.0124512715 -0.056403335 0.04373144
-0.06439723 -0.04465861 0.030551659 0.023849934 -0.056763574 0.025013633 0.067470975 -0.0492946
-0.009517734 0.0734194 -0.05326556 -0.005381377 -0.064721376 0.057532676 -0.04862864 0.049120717
-0.03952415 -0.030361468 0.0692104 0.05743823 -0.05249922 -0.071372725 0.054830573 -0.020559559
0.025504958 -0.002617559 0.019941865 -0.045193512 -0.017304085 -0.053497802 0.03509105 -0.064716995
0.0012217996 -0.024237124 0.064720035 -0.03576727 -0.068599485 0.023642065 0.0038295214 -0.047469858
-0.0480149 0.052114442 -0.04328402 -0.06182069 0.034470968 0.020711515 0.028710417 0.040176388
0.012139296 -0.0024585607 -0.034689553 -0.048469275 0.017579235 0.060187783 -0.0632468 0.04760877
-0.053395674 0.004559307 -0.048761804 0.03170074 -0.0014796108 -0.02573864 -0.05819169 -0.019157216
0.07373451 0.064850725 0.020363122 0.07501435 -0.06635228 0.00391836 -0.030890025 0.055863813
-0.036072962 -0.054643515 -0.06579324 -0.024336344 -0.00077626563 -0.037241194 -0.057905138 -0.055877086
-0.043726433 -0.04202102 0.05510902 0.020329611 -0.06526725 0.032047518 -0.04184446 -0.038218707
-0.013462343 -0.014498483 -0.015825894 -0.051562816 -0.03286236 -0.052163396 -0.0012826017 0.036247116
-0.06931261 0.049817353 0.07078302 0.025656216 0.019777764 0.025925776 -0.04328171 0.035290435
0.062268514 -0.056259964 -0.06432651 0.056225408 0.06847589 -0.060042497 0.045691334 -0.00918683
-0.054504897 0.07316302 -0.038028833 0.014721088 0.06554869 0.029727457 0.0027153117 0.04711753
-0.03521667 0.061109256 -0.025429733 -0.052628532 -0.006640496 0.005346142 -0.0021300938 0.057750452
-0.028694337 -0.06008073 -0.05350188 0.029987687 0.0035589593 -0.0006818794 0.061471082 0.031059569
0.056282226 0.016223345 -0.041024785 0.009655474 -0.026716748 0.020386627 0.06474106 -0.018090691
0.015082682 -0.0074074417 0.068926945 0.065296814 0.058104098 0.031869426 -0.0652644 0.054289673
00000000: 3815 82bd 89bd 353d 53c3 f33c a5b2 29bb
00000010: 9e69 393d b248 6c3d e4f5 6cbc 8e96 9bbc
00000020: d7b2 213d 135e 0abd 0810 473d e159 723d
00000030: df5f 663d ad65 803c 1470 cabc 1d4e 7a3c
00000040: 48fc ddbc 653e 843d ea08 623c 5943 7dbd
00000050: 6cc0 06bd 2fea 5dbd e010 17bb 5a9a 813d
00000060: caa9 4fbd e15c f1bc 2ce2 5c3d 0da4 92bd
00000070: 6322 563c f44f a7bc 025d 5bbd d0e8 0c3d
00000080: 306a b4ba fbbf a5bc 5714 3cbd 1200 a6bc
00000090: 6f3e acbc 4817 efbc 0830 773d 3ca0 383d
000000a0: 676c 6bbd e42f c63c bc48 80bc 4470 9c3b
000000b0: e660 683d 7969 49bd d276 67bd 3bc0 bf3b
000000c0: fac6 6ebd 1a61 b7bc 1964 023d e0a9 e63c
000000d0: 5b6f 54bd adfd 953d ff40 76bb e77b 6f3c
000000e0: 60b8 35bc c6be e4bb 2804 483d 97e2 21b9
000000f0: eb8a 153d f5aa 503d c601 60b6 d250 0cbd
00000100: aaaf 8bbd c180 4abd e1c8 86bd 2cc4 4c3d
00000110: 5e28 8cbd ae8c 913d 2bbc 0d3d 8764 fabc
00000120: f978 743d b88b 9f3c bb8f 22bc 15be 743c
00000130: 415e 30bd fbd2 723c f4c6 1fba 78c2 81bd
00000140: 9173 043d 468a 91bc b7f9 26bd 92b4 84bd
00000150: d862 783d afc7 9bbc f1a5 28bd ebb1 253d
00000160: f3b8 31bc f671 7cbd 0d51 1fbc 734a 863c
00000170: 8fa7 38bd d260 0f3d 20eb 4cbd 4cb3 51bd
00000180: 9e8a 4f3d e6fa cd3c 3f8f 5cbd c82c 913d
00000190: 93ce 05bd 6b00 4c3c 2f07 67bd bd1f 333d
000001a0: b2e2 83bd f2eb 36bd 7947 fa3c f060 c33c
000001b0: ec80 68bd 64e9 cc3c 392e 8a3d 22e9 49bd
000001c0: 45f0 1bbc e95c 963d fd2c 5abd 4356 b0bb
000001d0: a48c 84bd 62a7 6b3d d32e 47bd ce32 493d
000001e0: 13e4 21bd 9db8 f8bc 2fbe 8d3d 5944 6b3d
000001f0: 6c09 57bd dd2b 92bd 0696 603d 856c a8bc
00000200: c6ef d03c 5a8b 2bbb 1f5d a33c d51c 39bd
00000210: 4cc1 8dbc 8320 5bbd a2bb 0f3d 588a 84bd
00000220: cb24 a03a ef8c c6bc f08b 843d b380 12bd
00000230: e37d 8cbd 01ad c13c b5f8 7a3b c16f 42bd
00000240: 46ab 44bd f475 553d 964a 31bd b137 7dbd
00000250: 6e31 0d3d 32ab a93c 1c32 eb3c ff8f 243d
00000260: e6e3 463c ce1f 21bb a216 0ebd b887 46bd
00000270: 5402 903c 7787 763d 8a87 81bd 6a01 433d
00000280: 6cb5 5abd 3d66 953b 75ba 47bd a3d8 013d
00000290: 80ef c1ba d7d9 d2bc 695a 6ebd 98ef 9cbc
000002a0: 1e02 973d 75d0 843d 90d0 a63c 20a1 993d
000002b0: b4e3 87bd 9665 803b 140d fdbc 74d1 643d
000002c0: 3ec1 13bd e1d1 5fbd 9bbe 86bd 035d c7bc
000002d0: 4e7e 4bba 398a 18bd f02d 6dbd 5fdf 64bd
000002e0: 7d1a 33bd 3c1e 2cbd ffb9 613d 498a a63c
000002f0: d6aa 85bd 4244 033d 1965 2bbd 388b 1cbd
00000300: 2991 5cbc 0c8b 6dbc 4ea5 81bc 8833 53bd
00000310: af9a 06bd 49a9 55bd f91c a8ba db77 143d
00000320: c5f3 8dbd 480d 4c3d b0f6 903d fc2c d23c
00000330: fa04 a23c 4b62 d43c 2a48 31bd b48c 103d
00000340: 450d 7f3d d970 66bd 9ebd 83bd 9d4c 663d
00000350: 163d 8c3d 1fef 75bd d626 3b3d 5c84 16bc
00000360: 8740 5fbd 7ed6 953d 1fc4 1bbd b830 713c
00000370: 643e 863d ff86 f33c 5ff3 313b 50fe 403d
00000380: 5b3f 10bd b34d 7a3d 0452 d0bc 0491 57bd
00000390: 8598 d9bb b12e af3b 0b99 0bbb bd8b 6c3d
000003a0: 6310 ebbc 3617 76bd ca24 5bbd bda8 f53c
000003b0: 6e3d 693b 27c0 32ba 1ac9 7b3d a370 fe3c
000003c0: 3188 663d d2e6 843c 9b09 28bd fe31 1e3c
000003d0: 15dd dabc db01 a73c f696 843d ee32 94bc
000003e0: 5a1d 773c 20ba f2bb 9229 8d3d 56ba 853d
000003f0: 90fe 6d3d 8489 023d 57a9 85bd d95e 5e3d

module.model.1.model.3.bias f4 [64]
0.0008425136 0.0011154971 0.0010157153 0.001015027 0.0010158268 0.0010118388 0.0015331687 0.0011330786
0.0010385066 0.0009914052 0.0010218817 0.0013864259 0.0009537039 0.0009560459 0.0010532056 0.000860577
0.0009819475 0.00079992093 0.0009344365 0.0010221534 0.0007410003 0.0010544792 0.00092223054 0.0009897719
0.0011023611 0.000837928 0.0010553718 0.0009959333 0.0010619217 0.0011940331 0.0011294464 0.0009755639
0.0010128571 0.001148367 0.0014771523 0.0013553866 0.00087497965 0.0009587925 0.0009841982 0.00084508327
0.0009760843 0.001219929 0.0008856489 0.0011105456 0.00085421954 0.0011886382 0.00094703364 0.00096324325
0.0010070654 0.0009046689 0.0010027003 0.00083097426 0.0013140942 0.00093605294 0.0007513828 0.0009614554
0.0010305203 0.0011010004 0.00075815973 0.0011353337 0.0010257406 0.0010654393 0.0011819833 0.0010838235
00000000: 21dc 5c3a df35 923a c021 853a a80a 853a
00000010: 7e25 853a ad9f 843a 9bf4 c83a cf83 943a
00000020: 801e 883a 0af2 813a a9f0 853a bcb8 b53a
00000030: fc01 7a3a 279f 7a3a b70b 8a3a 5898 613a
00000040: b1b4 803a c9b1 513a f9f4 743a c7f9 853a
00000050: b03f 423a 7336 8a3a d8c1 713a 3cbb 813a
00000060: 1a7d 903a 65a8 5b3a 6754 8a3a fa89 823a
00000070: 2e30 8b3a 1a81 9c3a ef09 943a fcbc 7f3a
00000080: d8c1 843a cd84 963a 029d c13a 3aa7 b13a
00000090: e45e 653a 7a57 7b3a 3600 813a 9488 5d3a
000000a0: e9df 7f3a 06e6 9f3a e42a 683a ba8f 913a
000000b0: b4ed 5f3a 14cc 9b3a 5a42 783a 2982 7c3a
000000c0: 82ff 833a 4d27 6d3a 0a6d 833a bdd5 593a
000000d0: af3d ac3a 7361 753a 72f8 443a 2e0a 7c3a
000000e0: 8612 873a 714f 903a 3dbf 463a 7acf 943a
000000f0: 2572 863a 36a6 8b3a c7ec 9a3a 150f 8e3a

module.model.1.model.4.weight f4 [64]
1.0030004 0.99801767 0.9978747 0.9990097 1.0005592 1.0003141 0.99706864 0.9973453
1.0026876 1.0025628 0.99748665 0.99696505 1.0027521 1.0018133 0.9968511 1.0033611
1.0037479 1.0031345 0.99804896 0.9987322 1.0026551 0.99903554 1.0025123 1.0019095
0.99744046 1.003392 0.9979856 1.0024041 1.0008758 0.99732304 0.9967667 0.99860597
0.9969005 0.9982198 0.99720347 0.9972992 1.0018051 1.002284 1.0029432 1.0022986
1.0022719 0.9972796 1.0026373 0.99965155 1.0024323 0.997088 1.0028572 1.0026498
1.0025786 1.0021154 0.997775 1.0028569 0.99693567 1.003011 1.0029569 0.9987404
0.9993924 0.997114 1.0028661 0.99709886 0.9975921 1.0018721 0.9971652 0.99785817
00000000: 5162 803f 167e 7f3f b774 7f3f 1abf 7f3f
00000010: 5312 803f 4b0a 803f e43f 7f3f 0652 7f3f
00000020: 1158 803f fa53 803f 495b 7f3f 1a39 7f3f
00000030: 2e5a 803f 6b3b 803f a231 7f3f 236e 803f
00000040: d07a 803f b666 803f 2380 7f3f eaac 7f3f
00000050: 0157 803f cbc0 7f3f 5352 803f 923e 803f
00000060: 4258 7f3f 266f 803f fc7b 7f3f c74e 803f
00000070: b31c 803f 9050 7f3f 1a2c 7f3f a4a4 7f3f
00000080: df34 7f3f 558b 7f3f ba48 7f3f 004f 7f3f
00000090: 263b 803f d84a 803f 7160 803f 524b 803f
000000a0: 724a 803f b74d 7f3f 6b56 803f 2ae9 7f3f
000000b0: b44f 803f 2941 7f3f a05d 803f d456 803f
000000c0: 7f54 803f 5145 803f 2f6e 7f3f 9d5d 803f
000000d0: 2d37 7f3f aa62 803f e460 803f 73ad 7f3f
000000e0: 2ed8 7f3f dd42 7f3f eb5d 803f df41 7f3f
000000f0: 3262 7f3f 583d 803f 3846 7f3f a273 7f3f

module.model.1.model.4.bias f4 [64]
0.0036606921 -0.0023143853 -0.0023863818 0.00015347147 -0.0010260852 -0.00031954277 -0.0029310738 -0.0029263254
0.0027752297 0.0029875266 -0.002848698 -0.0030492235 0.003005667 0.0013165582 -0.003219966 0.0033654086
0.0037829606 0.0031790687 -0.0019439751 -0.002604609 0.0028888653 -0.001645242 0.003332544 0.002433214
-0.0029544008 0.003357182 -0.0022683903 0.0024184836 -0.0011304915 -0.002857503 -0.0031656353 -0.0023566107
-0.0029747738 -0.0025259 -0.0028814233 -0.0028448314 0.00286826 0.0030987225 0.0027290809 0.002484192
0.00085721357 -0.0027888548 0.0030532475 -0.00087083445 0.0027597204 -0.0028494673 0.0031204051 0.0029292575
0.0030262629 0.0022661898 -0.0024604246 0.0029929278 -0.0029935115 0.0032050642 0.0030094446 -0.00249549
0.00014490203 -0.0029298377 0.0030790344 -0.0029783724 -0.0027225302 0.0004917276 -0.0029673825 -0.0023403454
00000000: 39e8 6f3b f1ac 17bb d864 1cbb 2fed 2039
00000010: b57d 86ba 4e88 a7b9 4217 40bb 98c7 3fbb
00000020: a1e0 353b 61ca 433b 39b1 3abb 7bd5 47bb
00000030: b9fa 443b 5d90 ac3a 1106 53bb 308e 5c3b
00000040: 8ceb 773b ec57 503b fbcc feba 16b2 2abb
00000050: 1e53 3d3b 29a5 d7ba cf66 5a3b 8f76 1f3b
00000060: 9f9e 41bb 2b04 5c3b 46a9 14bb 6c7f 1e3b
00000070: 002d 94ba f244 3bbb 8c76 4fbb 5e71 1abb
00000080: 6cf4 42bb 9289 25bb 43d6 3cbb 5a70 3abb
00000090: 6bf9 3b3b f013 4b3b 61da 323b d3cd 223b
000000a0: a1b6 603a 38c5 36bb fe18 483b b648 64ba
000000b0: 6ddc 343b 21be 3abb b67f 4c3b c9f8 3f3b
000000c0: 4454 463b 5b84 143b 133f 21bb ff24 443b
000000d0: ca2e 44bb 0e0c 523b 1a3a 453b 608b 23bb
000000e0: d8f0 1739 8502 40bb a0c9 493b cc30 43bb
000000f0: 7a6c 32bb 48e7 003a 6b78 42bb 7b60 19bb

module.model.1.model.4.running_mean f4 [64]
-0.07618529 0.5909862 -0.3218127 0.08922845 0.029975533 -0.1473895 -0.14803077 0.15131514
0.5321352 0.65905714 -0.036568996 -0.50658447 0.39524254 0.21714714 0.4897595 0.06459488
-0.501033 0.074350946 0.19401266 -0.598406 -0.28447255 -0.5368924 -0.0052854777 -0.15941504
-0.054159895 -0.9376643 -0.088091865 0.36966184 -0.68217295 0.05427474 -0.23363926 0.23599604
0.38414624 0.23842596 -0.58904237 -0.1711358 -0.32539916 0.263933 -0.35929108 0.12517284
0.48059434 0.115331806 -0.14078663 -0.12484645 -0.22841856 -0.4058212 -0.28366855 0.19982544
0.49931553 0.11139554 0.9136144 -0.3727569 0.26257345 0.50602466 -0.027359743 0.38288704
-0.25433892 0.78011984 -0.022212856 0.365539 0.30466235 0.1896696 -0.2933719 -0.18873222
00000000: 0907 9cbd df4a 173f a2c4 a4be 68bd b63d
00000010: 408f f53c 46ed 16be 6195 17be 5bf2 1a3e
00000020: 033a 083f f8b7 283f 5fc9 15bd 85af 01bf
00000030: 3b5d ca3e d25b 5e3e c2c1 fa3e 524a 843d
00000040: b343 00bf 4f45 983d 41ab 463e 2331 19bf
00000050: 63a6 91be c871 09bf cd31 adbb b23d 23be
00000060: c4d6 5dbd c40a 70bf 8269 b4bd 5144 bd3e
00000070: e3a2 2ebf 314f 5e3d 213f 6fbe f2a8 713e
00000080: d1ae c43e ef25 743e 7bcb 16bf 393e 2fbe
00000090: b89a a6be 3a22 873e 00f5 b7be 4f2d 003e
000000a0: 7610 f63e 1533 ec3d 5f2a 10be 7faf ffbd
000000b0: 8ee6 69be ccc7 cfbe 013d 91be 0a9f 4c3e
000000c0: 49a6 ff3e 5823 e43d a2e2 693f fed9 bebe
000000d0: 0770 863e d58a 013f 8a21 e0bc c509 c43e
000000e0: b638 82be efb5 473f bcf7 b5bc ee27 bb3e
000000f0: b4fc 9b3e bf38 423e d734 96be 0543 41be

module.model.1.model.4.running_var f4 [64]
0.51542574 0.28382623 1.0534513 0.5772683 4.13069 0.026219986 0.1574838 0.036616746
0.110844694 0.6802445 0.319814 0.5073486 0.43136987 0.87719595 0.088072255 0.16819738
1.4582536 0.75306123 0.078309484 0.37349957 0.18990953 1.6013709 0.1178154 0.30153042
1.3008605 0.31990805 2.1338694 0.6753006 0.2166054 0.665174 0.10598522 0.34484175
0.42600968 0.5747733 0.14323533 0.065088324 0.08467675 0.28674287 0.91298425 0.20890042
0.14550604 0.10469183 0.12521848 0.2557085 0.612468 0.06892702 1.7120979 0.13832995
1.9274261 0.89317584 0.6342423 0.57606864 0.07633233 0.32844216 0.17014821 0.7722328
0.046721395 0.25696522 0.66293854 0.9868917 0.054137252 0.6963925 0.17417155 0.25581816
00000000: f1f2 033f ac51 913e 7ed7 863f dbc7 133f
00000010: 9d2e 8440 4ccb d63c 6f43 213e 71fb 153d
00000020: 8b02 e33d 8124 2e3f a9be a33e 99e1 013f
00000030: 83dc dc3e ea8f 603f 3a5f b43d ef3b 2c3e
00000040: 0ea8 ba3f 9fc8 403f b960 a03d 563b bf3e
00000050: a577 423e b9f9 cc3f 3349 f13d 3262 9a3e
00000060: 9982 a63f fdca a33e 5191 0840 80e0 2c3f
00000070: cecd 5d3e d848 2a3f c70e d93d 198f b03e
00000080: f11d da3e 5824 133f 48ac 123e 074d 853d
00000090: 016b ad3d f6cf 923e 56b9 693f fee9 553e
000000a0: 89ff 143e ac68 d63d 4639 003e 39ec 823e
000000b0: b4ca 1c3f 9c29 8d3d 0626 db3f 5ea6 0d3e
000000c0: e6b5 f63f 2ca7 643f b45d 223f 3c79 133f
000000d0: 2054 9c3d 9229 a83e 553b 2e3e 0cb1 453f
000000e0: ef5e 3f3d f290 833e 57b6 293f efa4 7c3f
000000f0: 06bf 5d3d c746 323f 075a 323e 99fa 823e

module.model.2.model.0.weight f4 [64, 64, 3, 3]
-0.018430723 -0.04188771 0.016025985 0.012014256 -0.06655908 0.044388473 0.002573838 -0.015401002
0.0042794487 0.001033849 -0.009566969 -0.005417838 0.055912193 0.016347183 -0.0037729172 -0.044010054
-0.06265731 -0.051282525 0.06061065 -0.012873875 0.046411548 0.027498277 -0.031711143 0.051467437
-0.033511125 0.017530557 0.055234455 0.015558177 0.055844642 -0.03961085 0.0041225823 -0.038435146
-0.025041336 0.03312513 0.04568977 0.03514906 -0.041462522 0.061510198 -0.060180224 -0.0726987
0.045470018 -0.05634788 0.001833064 -0.040561654 0.061920166 -0.0210096 0.021251619 0.0013431759
-0.065891445 -0.033302832 0.008336866 -0.053136688 -0.020463893 -0.02198028 -0.05241699 -0.015820796
0.035274375 -0.056027886 -0.03454807 -0.011993887 0.01566656 -0.038921148 0.024330035 -0.028228626
-0.047716692 -0.027698282 0.0026440984 -0.06901052 -0.039255083 -0.021091325 -0.008992922 -0.032080106
0.030923564 -0.053437896 0.005137971 -6.083477e-05 0.06928372 0.049433704 -0.04701831 -0.03337233
-0.008320729 0.03682904 -0.046872366 -0.06680095 0.028357677 -0.04831527 -0.06515328 -0.06481553
-0.006480234 0.06584901 0.002276785 -0.057729416 0.06133986 0.05652608 -0.0068532215 -0.02009389
-0.02749569 -0.044658184 -0.045067538 -0.04525214 0.06207229 0.05984057 0.054952808 0.042862806
0.06653832 0.0043822876 -0.050632376 0.01493724 0.014390403 0.01245524 -0.0075220414 0.057560857
0.012642638 -0.06439623 0.013591469 -0.041490704 -0.046908677 0.04841512 -0.062071886 -0.009722496
-0.02123624 -0.00034342345 0.060340136 0.018486867 0.031123625 -0.054847196 -0.03188542 -0.050569855
0.009387121 0.029547757 -0.045443792 0.032769874 0.00056423777 -0.07059314 -0.06555066 0.008526063
0.045010224 0.002097711 0.067810886 0.06068858 -0.057103697 -0.04241505 0.029068887 -0.04270675
-0.056505464 0.031957682 -0.06930044 0.021093491 -0.003943313 -0.059046395 0.04395718 -0.056687787
0.0013581621 0.034869906 0.06570838 0.04481984 0.013293045 -0.036593173 -0.030157773 0.0022455691
0.017005367 -0.034237836 0.034787983 -0.035845622 -0.033530906 0.04441653 0.061484285 -0.019926704
0.016831331 -0.014315822 0.03486566 -0.057127886 0.015229113 -0.029537726 0.06905012 0.06587366
-0.0345269 -0.032547005 0.0641279 -0.0543581 -0.07246126 -0.06479455 0.068174765 -0.052996345
-0.04604358 0.06155669 0.03678238 0.011849739 -0.015785541 0.030407576 0.056863844 0.008331174
-0.029628653 -0.001494121 -0.043359876 -0.0467633 0.041879416 0.05636691 -0.033232857 -0.007870209
-0.020602353 -0.0525007 -0.01916191 -0.061693918 0.021402972 0.005949656 0.011956652 -0.0029306526
-0.0030866044 -0.04645301 0.024602056 0.0010122235 0.014954038 0.043450408 -0.015311154 0.029120624
-0.0132621145 0.063881904 9.492788e-05 -0.0048405705 -0.039463427 -0.008975933 0.000269361 0.06391265
-0.0065605296 -0.029895488 -0.033963993 -0.02670874 0.041475087 0.006292784 -0.0486031 0.07148934
-0.044462353 0.03633253 0.06576678 -0.020869814 0.025442 0.028783375 0.024430394 0.044915367
0.041202012 0.02391639 -0.06716361 -0.06612148 0.06968398 -0.041234847 0.020559084 0.06698523
-0.026319116 0.04055526 0.04099806 0.061272066 -0.03508081 0.017127063 0.063126095 -0.052254006
00000000: 07fc 96bc 7392 2bbd ed48 833c 71d7 443c
00000010: 2050 88bd b0d0 353d d6ad 283b 7c54 7cbc
00000020: 9e3a 8c3b 3782 873a c7be 1cbc 1f88 b1bb
00000030: 2f04 653d 87ea 853c 0c43 77bb e343 34bd
00000040: 7a52 80bd a00d 52bd df42 783d f2ec 52bc
00000050: 091a 3e3d 1144 e13c 8be3 01bd 85cf 523d
00000060: f642 09bd 3e9c 8f3c 863d 623d b9e7 7e3c
00000070: 5abd 643d fd3e 22bd ba16 873b 2c6e 1dbd
00000080: 7d23 cdbc 37ae 073d 3225 3b3d 76f8 0f3d
00000090: 9bd4 29bd 1ef2 7b3d 8a7f 76bd 0ee3 94bd
000000a0: c53e 3a3d 09cd 66bd 6c43 f03a fa23 26bd
000000b0: 00a0 7d3d 531c acbc e017 ae3c 810d b03a
000000c0: 18f2 86bd 8d68 08bd 5a97 083c dba5 59bd
000000d0: e5a3 a7bc fd0f b4bc 33b3 56bd 9d9a 81bc
000000e0: dd7b 103d 7f7d 65bd 4782 0dbd 0282 44bc
000000f0: 2857 803c c86b 1fbd c84f c73c b83f e7bc
00000100: 9472 43bd 82e7 e2bc 9c48 2d3b 6355 8dbd
00000110: f0c9 20bd b7c7 acbc 0c57 13bc 6e66 03bd
00000120: 6a53 fd3c b2e1 5abd 6d5c a83b d628 7fb8
00000130: 9fe4 8d3d ff7a 4a3d 4596 40bd 6db1 08bd
00000140: ab53 08bc 0cda 163d 3dfd 3fbd f0ce 88bd
00000150: 5c4e e83c 3ce6 45bd 156f 85bd 01be 84bd
00000160: 2558 d4bb d9db 863d 1d36 153b ae75 6cbd
00000170: 813f 7b3d e487 673d fd90 e0bb f19b a4bc
00000180: a43e e1bc 80eb 36bd bd98 38bd 4f5a 39bd
00000190: 833f 7e3d 631b 753d 3216 613d e990 2f3d
000001a0: 3e45 883d 4b99 8f3b e563 4fbd 53bb 743c
000001b0: bac5 6b3c 1011 4c3c 757b f6bb efc4 6b3d
000001c0: 1123 4f3c 2ce2 83bd c1ae 5e3c 28f2 29bd
000001d0: 5023 40bd ef4e 463d 173f 7ebd 1b4b 1fbc
000001e0: a0f7 adbc 840d b4b9 3827 773d c571 973c
000001f0: f9f6 fe3c 74a7 60bd 499a 02bd 5622 4fbd
00000200: 70cc 193c 230e f23c 4523 3abd b439 063d
00000210: 5be9 133a 2393 90bd 6d3f 86bd e6b0 0b3c
00000220: a45c 383d c079 093b 6fe0 8a3d 9794 783d
00000230: 91e5 69bd 67bb 2dbd e021 ee3c 46ed 2ebd
00000240: 4672 67bd 0fe6 023d 64ed 8dbd 42cc ac3c
00000250: e836 81bb a2da 71bd 720c 343d 7431 68bd
00000260: 5c04 b23a bfd3 0e3d 1d92 863d 0295 373d
00000270: 12cb 593c b9e2 15bd 6f0d f7bc 662a 133b
00000280: d74e 8b3c f93c 0cbd d87d 0e3d dcd2 12bd
00000290: b457 09bd 1bee 353d f2d6 7b3d 543d a3bc
000002a0: dce1 893c e98c 6abc 4bcf 0e3d eefe 69bd
000002b0: 8883 793c 1af9 f1bc 266a 8d3d c5e8 863d
000002c0: 146c 0dbd 0250 05bd 7d55 833d 99a6 5ebd
000002d0: 9266 94bd 01b3 84bd 369f 8b3d b212 59bd
000002e0: 3198 3cbd de22 7c3d 1fa9 163d 6825 423c
000002f0: ae50 81bc 4f19 f93c 10ea 683d 7a7f 083c
00000300: cab7 f2bc 62d6 c3ba 209a 31bd e08a 3fbd
00000310: c089 2b3d fde0 663d 2d1f 08bd 0df2 00bc
00000320: 44c6 a8bc f90a 57bd 70f9 9cbc c3b2 7cbd
00000330: 4955 af3c 55f5 c23b d5e5 433c 3110 40bb
00000340: a148 4abb 8345 3ebd 408a c93c 96ac 843a
00000350: c801 753c 0ef9 313d a2db 7abc 608e ee3c
00000360: 5749 59bc 84d4 823d 0414 c738 a69d 9ebb
00000370: 67a4 21bd cb0f 13bc 0539 8d39 a3e4 823d
00000380: b6f9 d6bb 62e7 f4bc d41d 0bbd 4acc dabc
00000390: c8e1 293d b333 ce3b 0b14 47bd 0169 923d
000003a0: 281e 36bd 6bd1 143d bcb0 863d 2cf7 aabc
000003b0: be6b d03c 1dcb eb3c 4022 c83c 2df9 373d
000003c0: 71c3 283d 4eec c33c 138d 89bd b36a 87bd
000003d0: 79b6 8e3d dfe5 28bd 866b a83c 8d2f 893d
000003e0: 309b d7bc 461d 263d 95ed 273d 6bf8 7a3d
000003f0: e5b0 0fbd 0e4e 8c3c 4148 813d 4c08 56bd

module.model.2.model.0.bias f4 [64]
0.0010423238 0.0009980672 0.0009852868 0.0010380261 0.0009440238 0.0009526825 0.001053234 0.0009815912
0.0009381149 0.0009858576 0.0010130728 0.0010382867 0.0010006445 0.0009747815 0.0009792041 0.0009945018
0.0009683739 0.0010327856 0.0010183068 0.0010041931 0.0009937405 0.0009860669 0.0010073886 0.0009785824
0.00095209474 0.000968187 0.0009877598 0.00095534854 0.0009831502 0.0009979014 0.0010324201 0.0010216893
0.0009838595 0.00097290956 0.0010149989 0.0010181105 0.0010234067 0.001026091 0.0009426228 0.0010322407
0.0010243517 0.001012783 0.0010149528 0.00097062683 0.0009856864 0.000992224 0.000984987 0.0009625721
0.0009962237 0.0010111893 0.0009451906 0.0010181499 0.0010009401 0.0009995819 0.0009890014 0.00095329504
0.0009597859 0.0009936542 0.0009910994 0.000980793 0.0009876032 0.001041087 0.0009788563 0.0010256623
00000000: 959e 883a 94d1 823a bd24 813a 600e 883a
00000010: 5d78 773a 71bd 793a ab0c 8a3a bca8 803a
00000020: d3eb 753a e437 813a 15c9 843a 1f17 883a
00000030: 0f28 833a 7b88 7f3a a358 803a f159 823a
00000040: 79da 7d3a 895e 873a b578 853a 219f 833a
00000050: 6640 823a ea3e 813a 5a0a 843a c743 803a
00000060: ff95 793a eecd 7d3a b877 813a 5b70 7a3a
00000070: 0cdd 803a 04cc 823a 4552 873a 34ea 853a
00000080: d9f4 803a db0a 7f3a b609 853a 1f72 853a
00000090: d523 863a e77d 863a 581a 773a 404c 873a
000000a0: 8a43 863a 5cbf 843a 2a08 853a aa71 7e3a
000000b0: 2632 813a 830d 823a ae1a 813a 1f55 7c3a
000000c0: b893 823a e289 843a abc6 773a 7173 853a
000000d0: fa31 833a 6704 833a 61a1 813a 8ce6 793a
000000e0: 249a 7b3a 813d 823a c7e7 813a f48d 803a
000000f0: 7772 813a 1575 883a f84c 803a 846f 863a

module.model.2.model.1.weight f4 [64]
0.9985067 1.001828 1.0002905 0.9974205 0.9989897 1.0011481 0.9979112 0.9983533
1.0024003 0.9997256 1.001461 0.9965855 0.99997586 1.0010867 0.99994594 1.0000936
0.99975294 0.9981707 0.99912643 0.9974933 1.0016891 0.9990442 1.0002025 1.0003573
1.0013894 1.0006953 0.99990624 0.9970861 0.99840105 1.0003293 1.00194 1.0017003
1.0018991 1.0008471 0.9998242 1.0009847 1.0006975 0.99705964 0.99939805 1.0022048
1.0013084 1.0012 0.9989291 1.0012368 1.0006009 1.0011657 1.0003425 1.0010701
0.99856937 1.0026643 1.000529 0.9986745 1.0004132 1.0015346 1.0012761 0.99920297
1.0027072 0.99824095 1.0016075 1.0031823 0.99985677 0.9989466 0.9982854 0.9972808
00000000: 239e 7f3f e63b 803f 8509 803f f356 7f3f
00000010: cabd 7f3f 9f25 803f 1c77 7f3f 1594 7f3f
00000020: a74e 803f 04ee 7f3f e02f 803f 3a20 7f3f
00000030: 6bfe 7f3f 9c23 803f 75fc 7f3f 1103 803f
00000040: cfef 7f3f 1d88 7f3f c0c6 7f3f b95b 7f3f
00000050: 5937 803f 5cc1 7f3f a306 803f b50b 803f
00000060: 872d 803f c916 803f dbf9 7f3f 0941 7f3f
00000070: 3697 7f3f ca0a 803f 923f 803f b737 803f
00000080: 3b3e 803f c21b 803f 7bf4 7f3f 4420 803f
00000090: db16 803f 4d3f 7f3f 8dd8 7f3f 3f48 803f
000000a0: e02a 803f 5227 803f d1b9 7f3f 8728 803f
000000b0: b113 803f 3326 803f 390b 803f 1123 803f
000000c0: 3ea2 7f3f 4e57 803f 5611 803f 22a9 7f3f
000000d0: 8a0d 803f 4932 803f d129 803f c4cb 7f3f
000000e0: b658 803f b88c 7f3f ad34 803f 4768 803f
000000f0: 9df6 7f3f f7ba 7f3f a28f 7f3f cb4d 7f3f

module.model.2.model.1.bias f4 [64]
-0.00059204147 0.0012803492 0.0010952307 -0.0028511172 -0.00075862854 0.0021822092 -0.002361148 0.00014788903
0.0028157595 0.0014001507 0.0009787966 -0.0034759203 -0.0006785213 0.0025419123 0.001051392 0.00034101476
0.00019066875 -0.0023138486 -0.00032723672 -0.0027768817 0.0013601132 -0.00030708895 0.0003298527 0.0007199348
0.0020855244 0.0025624665 0.00036328932 -0.0026768015 -0.0003779153 0.00022728078 0.0026162597 -0.0007916134
0.0017044903 -0.0005637638 -0.0019582375 -0.0014920839 -0.0019389766 -0.002899912 -0.0010558187 0.001761675
0.00094165857 0.00201018 -0.0013283843 0.0009284169 0.001053629 -0.00018856284 0.00034621256 0.00058551674
-0.0011480341 0.002600812 0.00083072967 -0.0019055534 0.0017544186 0.0023948345 -0.0010434708 -0.0003425584
0.0026880195 -0.002107895 0.00173483 0.0030732143 -0.0007335729 -0.0008638132 -0.00021586665 -0.0027494004
00000000: 3b33 1bba 64d1 a73a d88d 8f3a cfd9 3abb
00000010: b3de 46ba 6503 0f3b 7dbd 1abb a912 1b39
00000020: 9b88 383b 4385 b73a f74a 803a 44cc 63bb
00000030: cbde 31ba 3696 263b ddce 893a 3aca b239
00000040: 41ee 4739 f0a3 17bb f890 abb9 58fc 35bb
00000050: d345 b23a c800 a1b9 14f0 ac39 02ba 3c3a
00000060: 4bad 083b 0eef 273b de77 be39 476d 2fbb
00000070: ef22 c6b9 3852 6e39 8e75 2b3b 4784 4fba
00000080: 3469 df3a 8cc9 13ba c655 00bb 0792 c3ba
00000090: 4225 feba 730c 3ebb 6663 8aba 01e8 e63a
000000a0: a3d9 763a 39bd 033b 2e1d aeba 0161 733a
000000b0: ec19 8a3a f4b8 45b9 dd83 b539 5d7d 193a
000000c0: a279 96ba 6272 2a3b 53c5 593a c3c3 f9ba
000000d0: 85f4 e53a a8f2 1c3b 12c5 88ba 6999 b3b9
000000e0: 7c29 303b 9c24 0abb 3c63 e33a fb67 493b
000000f0: 3e4d 40ba 8671 62ba 435a 62b9 492f 34bb

module.model.2.model.1.running_mean f4 [64]
-0.4626182 0.29080957 -0.22202067 -0.014326249 -0.37248677 0.18117343 -0.23740953 -0.27488956
-0.123227 0.56060517 0.13734739 -0.7410763 0.544248 0.14573857 -0.26571706 -0.13443454
0.42135343 0.044769507 0.40081933 -0.0035007696 0.27602413 0.6858483 -0.09569015 0.11495976
-0.83973414 -0.46626014 -0.4695338 0.43004903 -0.33132973 -0.27277264 0.99445236 0.6641769
-0.5647073 -0.21473932 0.59485525 0.68869 0.46439117 0.20683779 -0.12120126 0.01087262
0.25421393 0.25101116 -0.08992551 0.46900865 -0.56505406 0.29839936 -0.2820413 -0.35504597
-0.3969029 0.092091106 0.10148926 -0.16552654 0.006101042 -0.135822 0.06245063 -0.25723153
-0.046993386 0.7786709 -0.13893661 -0.07852028 0.4314149 -0.067529894 -0.5561096 0.20599268
00000000: 4bdc ecbe fee4 943e 6359 63be a5b8 6abc
00000010: 96b6 bebe 8785 393e 7c1b 73be 53be 8cbe
00000020: 705e fcbd d283 0f3f cba4 0c3e 2db7 3dbf
00000030: d653 0b3f 7e3c 153e 110c 88be 35a9 09be
00000040: a3bb d73e 3b60 373d 3138 cd3e 2b6d 65bb
00000050: 0953 8d3e c193 2f3f 33f9 c3bd 0670 eb3d
00000060: d1f8 56bf a6b9 eebe bc66 f0be 632f dc3e
00000070: 0da4 a9be dba8 8bbe 6e94 7e3f 7f07 2a3f
00000080: a890 10bf a0e4 5bbe 6f48 183f fd4d 303f
00000090: aec4 ed3e 49cd 533e 5e38 f8bd 1323 323c
000000a0: 5428 823e 8984 803e de2a b8bd e721 f03e
000000b0: 62a7 10bf cdc7 983e b867 90be 96c8 b5be
000000c0: db36 cbbe 439a bc3d 9ad9 cf3d ca7f 29be
000000d0: 40eb c73b ec14 0bbe 3bcc 7f3d dab3 83be
000000e0: 237c 40bd fa56 473f 6645 0ebe 3ecf a0bd
000000f0: 6ae2 dc3e 1d4d 8abd 335d 0ebf bfef 523e

module.model.2.model.1.running_var f4 [64]
0.41654328 0.50295955 0.36908832 0.15443029 0.14160058 0.96050495 0.15481369 0.061740767
0.28048635 0.24194273 0.12198619 0.9106135 0.98802596 0.2848444 0.37541708 0.2144423
0.19320484 0.2892819 0.91309005 0.35304672 0.042515915 0.354747 0.7454956 0.57939327
0.57845265 0.5389194 0.34702563 0.19081509 0.33657402 0.5576639 1.4270298 0.21361645
3.3155339 0.2258541 0.358888 0.2481929 0.38257706 0.21773052 0.22674055 0.3639457
1.3927808 0.27196264 0.52452207 0.07092531 0.21026362 0.114708096 0.51896626 0.19393016
0.11652568 0.26917428 2.0274117 0.12833613 0.9746461 0.67189187 0.24552104 0.42466006
1.1137644 0.2019703 0.16651814 1.4444752 1.2461886 0.37492004 0.67592186 0.6152016
00000000: 2945 d53e f5c1 003f 25f9 bc3e f922 1e3e
00000010: beff 103e a7e3 753f 7b87 1e3e e3e3 7c3d
00000020: e89b 8f3e d6bf 773e e5d3 f93d f71d 693f
00000030: 45ef 7c3f 20d7 913e ab36 c03e c396 5b3e
00000040: 7dd7 453e c21c 943e 45c0 693f 8ac2 b43e
00000050: 2b25 2e3d 66a1 b53e cdd8 3e3f 1e53 143f
00000060: 7915 143f 9ff6 093f 58ad b13e 0865 433e
00000070: 6e53 ac3e 10c3 0e3f eaa8 b63f 45be 5a3e
00000080: b531 5440 4c46 673e 2bc0 b73e 4826 7e3e
00000090: 24e1 c33e c0f4 5e3e ad2e 683e 1757 ba3e
000000a0: a446 b23f b03e 8b3e 1447 063f 4a41 913d
000000b0: 594f 573e 14ec ea3d f9da 043f a195 463e
000000c0: 04a5 ee3d 36d1 893e 1dc1 0140 8c6a 033e
000000d0: 6882 793f 1b01 2c3f de69 7b3e 0b6d d93e
000000e0: d58f 8e3f 4dd1 4e3e bb83 2a3e 90e4 b83f
000000f0: 1c83 9f3f 85f5 bf3e 3709 2d3f da7d 1d3f
