output_gd_deblur_noise/ckpt/resnet_epoch27.pth (torch, 641727 bytes, 31 tensors)

module.model.0.weight f4 [64, 1, 1, 1]
00000000: c233 173d c44b dabd 8f82 8a3e 2335 483e
00000010: 1f88 cc3d 2578 083e 3ad8 553d a4e1 593e
00000020: f209 143d 762d 2abe 2a90 05be d6a3 7d3e
00000030: d290 e73d 279b 923e 5699 5abb bfb9 bd3b
00000040: 7395 0ebe 5312 07bd a1e5 3d3e ec60 8ebe
00000050: ac6b 513e e53b 1e3e 928d cb3d 802b 2c3d
00000060: 7977 9b3e 0f4f 60be eb2c d4bd cc4f 2f3e
00000070: 7c15 8fbe c398 253e 7799 7abe 845e 383e
00000080: 6309 823e dd73 963e 91a9 693e 5d7f dcbd
00000090: 6aa9 87be 5152 c0bc 1258 393e 25b6 2bbc
000000a0: 831e d93d 6f30 8cbe c931 4dbd 9f63 983e
000000b0: 6820 5fbe 6b5b 6c3e 8937 80be 1d93 90be
000000c0: 5cd5 b23d 2ea2 103e 5de0 143e cdba f0bd
000000d0: 97da 2fbe f5e5 d33d be8f ed3d eb3b b33d
000000e0: 6264 bf3b f46b 7a3e b192 8ebe 3aba bcbd
000000f0: 2c06 313e 81f7 e2bd b7cf 38be 8c00 d53c
0.036914594 -0.106589824 0.27052733 0.1955152 0.099869005 0.13327082 0.052208163 0.21277481
0.036142297 -0.16618904 -0.13043275 0.2476953 0.11306919 0.28633997 -0.0033355555 0.005789965
-0.13924198 -0.03297646 0.18544628 -0.2780832 0.2045123 0.15452535 0.09939112 0.042033672
0.30364588 -0.21905158 -0.1036013 0.17120284 -0.2794608 0.16171555 -0.24472605 0.18004805
0.25397786 0.29385272 0.2281859 -0.1076648 -0.2649644 -0.023476752 0.18100002 -0.010480438
0.10601523 -0.27380702 -0.050096307 0.29763505 -0.21789706 0.23081748 -0.2504237 -0.2823724
0.08732101 0.14124367 0.14538713 -0.117543794 -0.17173229 0.10346595 0.11599682 0.08751663
0.005840824 0.24455243 -0.27846292 -0.092152074 0.1728751 -0.11082364 -0.18047987 0.026001237

module.model.0.bias f4 [64]
00000000: 22f1 853a 4895 11b9 0639 32b7 fe49 16ba
00000010: 869e 053a 450f cb38 6252 a4ba 20d4 863a
00000020: 0c05 053a 589b fc3a 0713 283a 6afd f03a
00000030: 8c2c fa3a d5d9 503a 3bbc 4139 5a4a bc3a
00000040: b62c 153b dbd7 273b 8700 2dba b093 a439
00000050: ad1c 093b 2471 50b9 b45a e73a 22e0 fdb8
00000060: 986c 1dba bb1e 203a ab3f 883a db97 953a
00000070: 8c21 af3a 7970 3eb9 1b96 4e38 75b3 31b9
00000080: 00c8 6239 7530 6e39 18da 4a3a 32ea 0cba
00000090: ec09 133b 539c 053b 7ecb 0c3b aae9 5b3a
000000a0: fe27 123a 0891 973a ee47 eb3a 4c2f c13a
000000b0: 3017 513b 16f9 f138 9d6a 4d38 a104 9a3a
000000c0: 4ef1 0e3b b7ba 343b 544b 5c3a 885f a13a
000000d0: 872b 0f3a f87f a33a 74a8 8839 e223 4fba
000000e0: 7eef 3a3a 35ee a1ba dfb5 313b 21cb a6ba
000000f0: 7cfb 6b3a 579c 123b 571a c4b7 12e9 d7b9
0.0010218958 -0.00013883889 -1.0622904e-05 -0.00057330716 0.0005097169 9.6826385e-05 -0.0012536759 0.0010286607
0.00050742994 0.001927237 0.00064115267 0.001838607 0.0019086762 0.000796703 0.00018476036 0.001436542
0.0022762245 0.0025610838 -0.0006599505 0.00031390553 0.0020921633 -0.00019878574 0.0017650933 -0.00012105728
-0.00060052564 0.0006108095 0.0010394951 0.0011413054 0.0013361438 -0.00018161711 4.9254024e-05 -0.00016946888
0.00021627545 0.000227155 0.0007738187 -0.0005375474 0.0022436334 0.0020387366 0.0021483595 0.00083890057
0.00055754173 0.0011563608 0.0017950514 0.0014738827 0.003190469 0.000115381714 4.89751e-05 0.0011750647
0.002181131 0.002757711 0.0008403559 0.0012311796 0.0005461503 0.0012474051 0.0002606545 -0.00079017703
0.0007131024 -0.0012354316 0.002711646 -0.0012725332 0.00090020127 0.0022371018 -2.3377286e-05 -0.00041181647

module.model.1.model.0.weight f4 [64, 64, 3, 3]
00000000: d248 073d 1011 72bc a1d6 1fbd 9ded 36bd
00000010: 9f3d 533d 409d 8f3d e91b 37bd b2ad e23c
00000020: 36bf 813d b0a7 febc f124 1a3d 23db 3abd
00000030: 8e92 92bc 0955 84bd a3ec 82bd 1751 33bc
00000040: 73e1 7a3d cd7f d7bc c837 603c 7f5b 803d
00000050: fb29 493d 339d 303d 9609 01bd adda 893c
00000060: c2a5 abbc 8c6b 54bd 59ec 28bd e8b0 e4bc
00000070: e92a 73bd 29f9 8d3d e83f 743d 12cb 0f3d
00000080: 5cc5 88bd e998 6ebc 8c6a fabc 2a95 613d
00000090: 7b13 c2ba 05cf 5b3d 1824 473d bf7d a23c
000000a0: bf80 5ebd c1c2 fcbc 4f2f f73c 6e4d 7ebd
000000b0: f4f1 72bd 3d5e a0bc ce7c 8dbd 0bff 813c
000000c0: bd81 9bbb cd24 663d f566 55bd 5b34 d4bc
000000d0: 4caf a13c aeab 373c 5865 6ebd 9dd2 1a3d
000000e0: 7d18 0e3d 5ae5 fdba f8dc 83bc a21d 4fbd
000000f0: cbe2 ff3b d619 36bd 7617 87bd fcb5 8bbd
00000100: 9953 82bd 5530 90bd 183a 4abc 0085 ec3c
00000110: 1955 883d 1004 7a3d ef74 793c 9c47 053c
00000120: cf20 833d 4105 f9bb ab7a c13c 193b e83c
00000130: cea4 1cbd 7cb3 28bd 3426 593d ece8 333c
00000140: 3c8b a43c c302 84bd b881 7a3d 7849 3a3d
00000150: 6a58 4ebd 7c64 6bbd 4545 8fbd 65f9 90bd
00000160: e68e 353d 413d 60bd 1541 cb3c 674e 9d3c
00000170: 5cc3 82bd 2c00 f0bb 2bfd 2f3c 4e42 d63c
00000180: 5335 643d 797d 553d 47d5 693d fa88 9eba
00000190: ff69 8dbd b4fd ea3c bd08 fc3c 1452 77bd
000001a0: a1fd 933c 423e 3f3d 69a1 adbc 48d1 74bd
000001b0: f74e 853d 0eb1 37bd 11a5 54bd 056f 653d
000001c0: e994 343d db8f 96bc c002 7cbd a838 693c
000001d0: dae7 403d cf3e 6fbc c380 4a3d 062e 3e3d
000001e0: a451 103d 86de 943d bf40 34bd c3ce 0f3b
000001f0: d635 05bd 4b05 d8ba eb56 cdbc 167e 35bd
00000200: fc33 1c39 e1a1 e43c 1613 0a3d d5c9 90bd
00000210: 5abd 1bbd ec9e 113d ce3c 83bd d399 13bd
00000220: d93b d93c cea3 c43c 0fd2 babc ac8b 70bd
00000230: 2d8c 8f3d 3bce 603d 6e97 78bd 6afe 82bd
00000240: 0684 15bd 2603 8ebc db73 87bc 15d8 853c
00000250: 1f6d 5dbd 8226 6d3d f1de 873d 61bb a4bc
00000260: 6846 103d a889 223c c3c1 b0bb cf09 1ebd
00000270: eb98 a13b ba24 433d 7206 0c3c d131 6e3b
00000280: 55fc 3c3d 8f3d 2a3d d5c0 87bd 5a08 e03c
00000290: e2b0 78bd 3f7a 85bd 8a99 b4bc d1fd 863d
000002a0: 7e96 ed3b 3a18 0bbd bc69 d93c fb9b 43bd
000002b0: d884 803c c331 29bd b6ca 673d 2b83 443d
000002c0: 34f5 693d 678a 203b 6816 4bbd 0a7a 413b
000002d0: 3f88 aebc 4805 623d bce7 043d 441c f83b
000002e0: b788 b13c f2c8 27bd 3622 843d 7c4e 20bb
000002f0: 75a8 e33b df07 933d 486a 993c 1d4f 6a3d
00000300: 63fb 06bc 7f58 68bd 02ff d4bc 941b dc3c
00000310: e6fe 83bc 52c6 cbbc c91b 09bd d1c1 6c3d
00000320: d0b2 8b3d b2d0 e13c e662 813d de21 3dbb
00000330: 367e 90bd 67f9 373d e4bd 643d 51d7 1e3c
00000340: ec3a 8cbc f52c aa3c dfd8 883c 69e3 703d
00000350: 6008 ee3b 8650 babc d3c9 2d3d 7527 7bbd
00000360: 1ef3 4fbd bea2 38bd 339e 673d 9fbf 0b3d
00000370: 1234 643b 8170 0fbd 2fc3 2d3d ba04 adbc
00000380: 0fb5 1e3d 4c6d 57bd 38ed 083d 0f97 503d
00000390: 948a 68bd 98ac c6bc cfda d03c 2c8c 83bd
000003a0: cfb5 88bd 067e 7abd 7fcf 49bd 8a57 243d
000003b0: 54b1 8abd 1b3e b3bc ddfd 60bb 69e8 6bbd
000003c0: c234 1b3d a66b c6bb 3793 afbc e873 6a3d
000003d0: 62ae 47bd 84fb 973c 0332 fd3c 7ce2 4d3d
000003e0: dd32 1dbd d419 683b d8a1 1bbd a9a1 63bd
000003f0: 53e0 6ebc 8bc4 3fbc c5de 5cbc c7bd 203d
0.03302843 -0.014774576 -0.039023045 -0.0446602 0.05157244 0.07012415 -0.04470435 0.027670715
0.06335299 -0.031085819 0.037632886 -0.04561914 -0.017892148 -0.06461532 -0.06392791 -0.010944626
0.06125016 -0.026306057 0.013685174 0.062674515 0.0491123 0.043118667 -0.031503282 0.016827906
-0.020953063 -0.051860377 -0.041241024 -0.027916387 -0.059367094 0.06932289 0.05963126 0.035105772
-0.06678268 -0.014562824 -0.030568384 0.055073895 -0.0014806831 0.053664226 0.048618406 0.019835351
-0.054322 -0.030854585 0.030173926 -0.06208556 -0.059312776 -0.019576186 -0.0690857 0.015868684
-0.0047456906 0.05618744 -0.05210014 -0.025903871 0.019736908 0.011210365 -0.058202118 0.037798513
0.034691323 -0.001937072 -0.016096577 -0.05056537 0.0078090183 -0.044458233 -0.06596272 -0.0682182
-0.06363601 -0.070404686 -0.012342952 0.028872013 0.06656856 0.06103903 0.015225633 0.008134749
0.06402742 -0.0075995033 0.023618063 0.028348492 -0.038243107 -0.041186795 0.05301495 0.010980826
0.020085923 -0.06445839 0.061158866 0.04548022 -0.050377287 -0.057468876 -0.06995634 -0.07078818
0.04432573 -0.054745916 0.024811307 0.019202424 -0.06384918 -0.0073242392 0.010741512 0.026154663
0.055714916 0.052121613 0.057088163 -0.0012095266 -0.06904983 0.028685428 0.030765885 -0.06038101
0.018065276 0.046690233 -0.02119513 -0.0597699 0.06509202 -0.044846587 -0.051915232 0.05601408
0.044087324 -0.018379143 -0.06152606 0.014234699 0.04709611 -0.014602377 0.049439203 0.04643061
0.03523411 0.072690055 -0.04400706 0.0021943308 -0.032522045 -0.001648107 -0.02506586 -0.044309698
0.00014896685 0.027909221 0.033709608 -0.070697464 -0.038022377 0.03555195 -0.06408082 -0.03603537
0.026517795 0.02400389 -0.022805242 -0.05872695 0.07009158 0.054884177 -0.06069129 -0.06396182
-0.03650286 -0.017335486 -0.016534736 0.016338388 -0.054059144 0.057898052 0.066343196 -0.02010888
0.035223395 0.009920515 -0.005394192 -0.038583573 0.0049315593 0.047642447 0.008546459 0.003634561
0.04613908 0.041562613 -0.06628577 0.027347732 -0.060715564 -0.06517457 -0.02204587 0.065913804
0.007250606 -0.03395865 0.026539676 -0.047756176 0.015688345 -0.041307222 0.056589805 0.047976654
0.05711861 0.0024496557 -0.049581915 0.0029522204 -0.021305202 0.055180818 0.03244756 0.007571729
0.021671636 -0.04096312 0.06451838 -0.0024460843 0.006947572 0.07179236 0.018727437 0.057204355
-0.008238646 -0.05672502 -0.026000503 0.026868619 -0.016112756 -0.02487484 -0.033473764 0.057802025
0.06821215 0.027565334 0.063176915 -0.0028859298 -0.07055323 0.044915583 0.055845156 0.00969489
-0.01711794 0.02077339 0.016704975 0.058810625 0.007264182 -0.022743475 0.042428803 -0.061316926
-0.050768964 -0.045077078 0.056547355 0.03411829 0.0034821075 -0.0350194 0.04242247 -0.021120418
0.03874689 -0.052594468 0.033429354 0.05092531 -0.056772783 -0.024252221 0.025494961 -0.0642322
-0.06675302 -0.06115534 -0.04927015 0.040122546 -0.06772104 -0.0218802 -0.0034331002 -0.05759469
0.03789211 -0.006055313 -0.021432502 0.057239443 -0.04875029 0.01855255 0.030907637 0.05026482
-0.038378585 0.0035415785 -0.037996143 -0.055574093 -0.01457985 -0.011704574 -0.013480847 0.039243486

module.model.1.model.0.bias f4 [64]
00000000: 4963 b73a 4df6 693a 797a 5f3a bf27 3e3a
00000010: e66d 343a 9fa0 ad3a f215 9c3a ac98 623a
00000020: 9236 953a 9fbf 753a 8978 413a 7900 a53a
00000030: 901f 873a 4858 393a 6b96 6b3a a086 aa3a
00000040: 661b 803a 8de7 653a 1b28 463a 875d 613a
00000050: d510 bc3a af9e ae3a 6810 933a 5411 733a
00000060: 55b0 8c3a f121 c43a 36cc a43a f5cc 883a
00000070: 5d36 993a 4f42 6a3a ac88 793a f3f2 643a
00000080: ec59 763a d70e 8d3a ab98 9c3a 38b8 593a
00000090: 6d90 9b3a 9b61 8f3a 9ef7 af3a 8b69 983a
000000a0: 4445 5a3a ebd7 a33a 3066 a43a 4afe 823a
000000b0: afd7 3c3a 3b20 893a 2873 753a 7f5a 923a
000000c0: 8ac1 b03a e60c 863a dadf aa3a 3a02 a93a
000000d0: 22a4 823a f7a0 953a 9de0 843a 0ac2 a73a
000000e0: 6e49 1e3a a4d7 533a e8f8 7f3a 5f36 1f3a
000000f0: 1403 db3a c731 953a 5caf a039 16cc a539
0.0013991381 0.00089249463 0.0008525025 0.00072538474 0.0006882831 0.0013246721 0.0011908396 0.00086439657
0.0011384061 0.0009374562 0.0007380327 0.0012588642 0.0010309089 0.0007070345 0.00089869526 0.0013010092
0.000977379 0.00087701605 0.0007559077 0.00085970055 0.0014348278 0.0013322438 0.0011220099 0.00092722964
0.0010733703 0.0014963729 0.0012573067 0.0010437059 0.0011689175 0.00089362724 0.0009518962 0.0008733712
0.00093975547 0.0010761869 0.0011947354 0.0008305344 0.0011868604 0.0010939123 0.0013425236 0.0011628134
0.00083263614 0.0012500262 0.0012542661 0.0009993997 0.000720377 0.0010461876 0.0009363168 0.0011165886
0.0013485414 0.0010227233 0.0013036684 0.001289434 0.0009967128 0.0011415769 0.0010137741 0.0012798917
0.00060381636 0.0008081144 0.0009764568 0.00060734706 0.0016709291 0.0011382633 0.0003064823 0.00031623308

module.model.1.model.1.weight f4 [64]
00000000: 09f5 7f3f b945 803f bd37 803f 52c0 7f3f
00000010: 6939 803f d8d8 7f3f 9a26 803f e706 803f
00000020: 8526 803f 9dcc 7f3f 411a 803f 6e7a 7f3f
00000030: 8328 803f 24ea 7f3f f82c 803f 2532 803f
00000040: 9536 803f 49ad 7f3f b229 803f e0ed 7f3f
00000050: 9202 803f c79a 7f3f 94b4 7f3f 8899 7f3f
00000060: 3d2c 803f f5b2 7f3f 71ce 7f3f d718 803f
00000070: 2494 7f3f 81eb 7f3f be72 7f3f 6788 7f3f
00000080: 5a7c 7f3f 0682 7f3f 9dba 7f3f 7702 803f
00000090: 8fea 7f3f 71fe 7f3f d504 803f fbba 7f3f
000000a0: f008 803f dd26 803f 8843 803f 558a 7f3f
000000b0: 0a0f 803f b0c0 7f3f 6411 803f 3220 803f
000000c0: 1c08 803f 1cb0 7f3f 5aa1 7f3f 0d9a 7f3f
000000d0: ce23 803f c602 803f b5d9 7f3f c722 803f
000000e0: a230 803f 998a 7f3f bb1d 803f c306 803f
000000f0: 0f9d 7f3f 26d1 7f3f b43e 803f 8e35 803f
0.9998327 1.0021278 1.001701 0.9990283 1.001752 0.9994025 1.001178 1.0002106
1.0011755 0.9992159 1.0008012 0.9979619 1.0012363 0.99966645 1.0013723 1.0015303
1.0016657 0.9987379 1.0012724 0.99972343 1.0000784 0.99845546 0.99884915 0.99843645
1.00135 0.9988244 0.9992438 1.000758 0.9983542 0.99968725 0.9978446 0.9981751
0.9979912 0.99807775 0.99894124 1.0000752 0.99967283 0.9999762 1.0001475 0.99894685
1.0002728 1.001186 1.0020609 0.9982045 1.000459 0.9990339 1.0005307 1.0009825
1.0002475 0.99878097 0.9985558 0.9984444 1.0010927 1.0000846 0.9994157 1.0010613
1.0014842 0.9982086 1.0009073 1.0002064 0.9984903 0.9992851 1.0019135 1.0016344

module.model.1.model.1.bias f4 [64]
00000000: cdc9 623a 530c 133b 1721 df3a a0d7 98ba
00000010: dbba 5a3a 1d44 393a d5ab 9e3a 9f06 a1b9
00000020: 3f25 7e3a 52c4 e7ba 7c49 9f3a 27dc ecba
00000030: 9edf 603a 7ed9 15b9 e24f b13a a376 ff37
00000040: 0ab7 d23a 9a05 133a 0818 f3b8 50fa da39
00000050: 268d e3ba 8533 b5ba d9f3 00bb 8e13 9dba
00000060: ff9b ba3a 2ba2 6cba fd90 61ba 3666 ecba
00000070: f559 eaba 3ccb 72b9 1386 bbba 9216 9eba
00000080: 0e21 5cba f3f9 32ba 38e7 45ba 2e7d 2cba
00000090: 9a8c 9eba 70a1 ceba 5b32 f0ba 860b a8ba
000000a0: 273d 063a adce 843a 62fd 44b9 5503 c4ba
000000b0: 1569 0eb9 5003 a4b9 85f0 8e3a 96a1 6b3a
000000c0: 93da a1ba ecca dfba c977 c9ba de9e 113a
000000d0: a659 ab3a 7d25 9d39 1b37 b3b9 4a3e 1eba
000000e0: 4e09 2939 e7b3 97ba b237 423a c69f 003b
000000f0: 8713 d8ba 799f 18ba 291a 213b b62b 033b
0.00086512865 0.0022437766 0.0017023411 -0.0011660941 0.00083438837 0.00070673396 0.0012105653 -0.00030713246
0.0009694881 -0.0017682409 0.0012152637 -0.0018070982 0.00085782434 -0.0001429077 0.0013527835 3.0453613e-05
0.0016076278 0.00056084397 -0.00011591619 0.00041766698 -0.0017360791 -0.0013824558 -0.0019676595 -0.0011983977
0.0014237164 -0.00090268505 -0.0008604674 -0.0018035832 -0.0017879592 -0.00023154629 -0.0014306925 -0.001206117
-0.00083972595 -0.00068274065 -0.0007549408 -0.00065799325 -0.0012096346 -0.0015764665 -0.0018325554 -0.0012820817
0.0005120807 0.0010132395 -0.00018786409 -0.0014954606 -0.00013581321 -0.00031282986 0.0010905421 0.0008988617
-0.0012348465 -0.0017074025 -0.0015370782 0.0005554984 0.0013072982 0.00029973304 -0.00034182597 -0.00060365035
0.00016120562 -0.0011574001 0.0007408812 0.0019626482 -0.0016485312 -0.0005822103 0.0024582243 0.0020015067

module.model.1.model.1.running_mean f4 [64]
00000000: 4799 3039 cb49 8f3a 45b4 0c3b 7396 31ba
00000010: 2d95 2fba b4f9 cb3a b337 7b3b 259d d739
00000020: 4363 69ba 68db 673b 82e3 9a3a 78df 1d3b
00000030: 0efe 0cba dcde ee3a e791 d93a 3c2c 1c3b
00000040: 2408 5f3a 4c40 123a 64db aa3a 9099 3e3a
00000050: fe2c b5ba 20c1 f13a a852 74b9 66f5 373b
00000060: c243 33ba 9a01 2f3b 0786 a93a 7c71 d83a
00000070: 88a2 503a c921 16ba f130 813b 49a0 1c3b
00000080: 6492 9039 f1aa 46b7 aedd e839 d5c1 7e3a
00000090: fbd9 9a3a 286b 99ba 8165 373b 27e7 6d3a
000000a0: fb86 213a 0496 4dba 05b6 313b ffd4 0037
000000b0: 2cb8 853a d7a6 4b38 9419 a8ba 78f3 f339
000000c0: 21c8 dbb9 01a6 5e3a 012b 5a3b 5c13 af3a
000000d0: 2878 a13a 6a57 683a 5c8b d03a 23e9 c2b8
000000e0: 37ef d838 5d89 1e3b 4dfc 113b e8d9 523a
000000f0: 16be 233a 75eb 643b 7a05 773a 98c7 f0b8
0.00016841768 0.0010932026 0.0021469754 -0.0006774433 -0.0006697949 0.0015562088 0.003833276 0.00041125077
-0.0008903036 0.003537858 0.001181707 0.0024089497 -0.0005378433 0.0018224376 0.0016599268 0.0023830077
0.0008507988 0.0005579039 0.0013035354 0.00072708074 -0.0013822613 0.0018444397 -0.00023300445 0.0028069853
-0.0006838405 0.0026703835 0.001293362 0.0016513313 0.00079587894 -0.000572708 0.003942602 0.0023899248
0.0002757489 -1.184152e-05 0.00044415653 0.0009718214 0.0011814231 -0.0011704909 0.0027984085 0.0009075277
0.0006161776 -0.00078424835 0.0027116549 7.678987e-06 0.0010201982 4.8554353e-05 -0.0012825006 0.0004652997
-0.00041920043 0.00084933644 0.0033289792 0.001335721 0.0012319135 0.00088631234 0.0015910673 -9.294066e-05
0.0001034424 0.0024190762 0.0022275627 0.0008043335 0.00062462816 0.0034930382 0.00094231183 -0.00011481269

module.model.1.model.1.running_var f4 [64]
00000000: a9e4 aa3a 29b9 c13a 9798 a639 3527 9139
00000010: 3638 133a fc17 7939 08ca 4d3a 8c7f f739
00000020: b12c 2a3a de46 7838 d58e 663a 54d1 4437
00000030: 6af5 c639 3f40 1438 7a4f bb39 665c 1f38
00000040: 570f b93a 1c29 7538 39fc 413a 0803 2239
00000050: 7960 4538 aa3b 0c38 9785 5239 91f9 2e38
00000060: 7119 6b3a f90f 9e38 25ad 7839 f460 2639
00000070: 3e49 cb38 cc0e 8739 f1e8 ad39 07cf 3737
00000080: 03cf 9038 91c1 a63a db54 3c38 9223 ae3a
00000090: 3f60 433a 4996 a73a 289d de3a 34ef 0939
000000a0: 69fc e639 8c8c ce38 2b5e 4039 28e2 3739
000000b0: a971 ab39 b944 0139 c0fd a339 d57a 2a3a
000000c0: 124e 6f3a 8a5f 8936 99e4 6339 c4ba eb37
000000d0: 97c6 323b eb19 4d39 12a7 e739 d107 5639
000000e0: 7d7c b037 33c2 4a37 2fdb 6a3a 9a0d 4b39
000000f0: 7861 a739 eaaa 223a 3f19 5c3a b4c2 aa39
0.0013038117 0.0014779913 0.00031775676 0.00027685767 0.0005615981 0.00023755425 0.00078502344 0.0004720654
0.0006491645 5.9193808e-05 0.00087950873 1.1731248e-05 0.0003794835 3.5345784e-05 0.00035726634 3.7994607e-05
0.0014118952 5.8450838e-05 0.000739995 0.00015450653 4.7058307e-05 3.3434168e-05 0.00020076927 4.171726e-05
0.00089683296 7.537002e-05 0.00023715624 0.00015867112 9.693437e-05 0.0002576023 0.00033170686 1.0955852e-05
6.905014e-05 0.0012722482 4.490172e-05 0.0013285747 0.00074530015 0.0012785877 0.0016984092 0.00013154448
0.0004405708 9.849024e-05 0.00018345627 0.0001753649 0.00032700345 0.00012328 0.0003127884 0.0006503289
0.000912876 4.0940404e-06 0.00021733566 2.8101153e-05 0.0027279013 0.00019559979 0.0004418423 0.00020411542
2.1038804e-05 1.2085354e-05 0.00089590525 0.00019364656 0.00031925342 0.0006205278 0.0008396096 0.00032569992

module.model.1.model.3.weight f4 [64, 64, 3, 3]
00000000: 25d4 82bd 1ccc 333d 254a f03c 51d8 3ebb
00000010: 89d6 373d 3b92 6a3d a713 72bc cf4a 9ebc
00000020: f504 203d d6db 0bbd 2953 453d a2d5 703d
00000030: 082c 653d a496 7b3c 6e01 cdbc ac5e 763c
00000040: 15fb dfbc 46be 833d fd3c 5d3c 46ae 7ebd
00000050: fa6d 08bd 8a09 5fbd 97d2 29bb 4204 813d
00000060: 4dab 50bd df5c f3bc 4dfa 5b3d 857b 93bd
00000070: 02b8 4d3c f9cf abbc b51d 5dbd 0ff0 0a3d
00000080: 4b47 f8ba 5021 a9bc 90dd 3dbd 7735 aabc
00000090: ba77 b0bc 9a53 f3bc 220a 753d fcb9 363d
000000a0: 0487 6dbd 21e1 c13c e9c4 83bc d676 8c3b
000000b0: db7c 663d fd47 4abd d748 68bd 68ec b93b
000000c0: f1b2 6fbd ce25 b9bc 0da0 013d b41c e53c
000000d0: 652f 55bd 309a 953d 7e88 83bb 9e25 6b3c
000000e0: 4755 3bbc d28b ecbb b919 473d 9ef8 cab9
000000f0: 4ea0 143d 42cb 4f3d 7653 53b9 212c 0ebd
00000100: b091 8cbd f6e6 4bbd c690 87bd b80e 4b3d
00000110: 71f4 8cbd 221f 913d 489e 0c3d ecc8 fcbc
00000120: 96bf 723d 3aff 9b3c ffb5 29bc d63a 6f3c
00000130: 27e1 31bd 91a1 6c3c f809 63ba 3643 82bd
00000140: 4450 033d 8b48 95bc 00b6 28bd 037a 85bd
00000150: 9517 773d 7674 9ebc fde3 29bd d597 243d
00000160: bbf1 35bc 0a61 7dbd 4c53 24bc 8a23 833c
00000170: de32 3abd a34a 0e3d be08 4ebd 5ada 52bd
00000180: c893 4e3d de0f cc3c 8f71 5dbd 4724 903d
00000190: 3fa2 07bd e0a5 443c 7689 68bd 2b50 313d
000001a0: 44dc 84bd 7c79 38bd d4eb f83c 6b9b c03c
000001b0: 3dcd 6abd 553e c83c 5c0f 893d d30c 4cbd
000001c0: 848b 25bc 782c 953d 6a50 5cbd e010 c2bb
000001d0: 97aa 85bd 3d61 6b3d 80af 47bd 1c68 483d
000001e0: 9ee2 21bd f642 f9bc 4f56 8d3d 511b 6c3d
000001f0: 2c17 56bd d009 92bd ee98 5e3d 2510 acbc
00000200: 34cc cc3c 2c3b 45bb 5077 9f3c 1232 3bbd
00000210: 6885 91bc 8086 5cbd bdc7 0d3d 788a 85bd
00000220: f89b 2c3a 39d9 cabc e09a 833d e666 14bd
00000230: ca72 8dbd 51a8 bd3c 1008 593b 313f 44bd
00000240: 05fc 45bd 36d2 533d edb9 32bd 4a46 7ebd
00000250: 650a 0c3d 448f a73c ff69 e93c 269c 233d
00000260: aa51 433c 2411 49bb eb7b 10bd fb05 49bd
00000270: 9ce8 8a3c 2d07 743d a0c2 82bd 50c5 403d
00000280: d64e 5dbd 798d 823b 3bb8 49bd 0a6e ff3c
00000290: a7d1 05bb bcfd d6bc e48f 70bd c9d0 a1bc
000002a0: 45fe 953d f2db 833d ca76 a23c 198e 983d
000002b0: e611 89bd 2302 5e3b 3808 01bd 046f 623d
000002c0: c70d 16bd 5bec 61bd 0fda 87bd b59b cbbc
000002d0: f658 72ba f474 19bd c0b2 6ebd 303b 66bd
000002e0: 778d 34bd a1c4 2dbd 3998 603d 750c a43c
000002f0: d131 86bd bc58 023d 19bf 2cbd 5478 1dbd
00000300: cbda 62bc 69de 73bc 4a0e 84bc 6162 53bd
00000310: 50cd 07bd 6fb5 56bd 6576 eaba 9f66 123d
00000320: e4f0 8ebd 03e1 493d d0e4 8f3d 9352 ce3c
00000330: ca17 9e3c c34c d03c ae50 33bd 1634 103d
00000340: e9fa 7d3d 644c 66bd f1c5 83bd 2d68 653d
00000350: 92e7 8b3d 6bb1 75bd 710c 3b3d 790d 17bc
00000360: 03c2 60bd c005 953d 8148 1dbd 5558 6c3c
00000370: 6d9a 853d 41f0 f03c 2a3d 223b 59fd 3f3d
00000380: a845 11bd e8aa 793d 8c08 d1bc 4c65 58bd
00000390: e6cf dfbb 2804 ab3b 133f 14bb 02dc 6b3d
000003a0: 8125 ecbc 418f 76bd 43b7 5cbd e208 f23c
000003b0: 7a4a 503b 70f8 81ba d671 7a3d 0fa3 fb3c
000003c0: fc82 653d bfcb 823c da29 29bd dc1c 1b3c
000003d0: a438 dcbc 2607 a53c a625 843d 52aa 95bc
000003e0: 6b56 743c c33b f9bb 5ec5 8c3d 696a 853d
000003f0: 6792 6b3d 03d9 ff3c bccc 86bd c7c4 5b3d
-0.063881196 0.043895826 0.02933223 -0.0029120634 0.04488233 0.057268362 -0.014775193 -0.01932278
0.039067227 -0.0341452 0.04817501 0.058797486 0.055950195 0.01535574 -0.025025096 0.01503722
-0.027341405 0.06432776 0.01350331 -0.06217792 -0.033308007 -0.054452457 -0.0025912875 0.0629964
-0.050944615 -0.02970737 0.053705502 -0.07201294 0.012556078 -0.020973193 -0.05398341 0.033920344
-0.0018942145 -0.020645767 -0.046353877 -0.020777447 -0.021541465 -0.02970295 0.059824117 0.044610962
-0.05799009 0.02366692 -0.016085105 0.0042866273 0.056271415 -0.04938506 -0.05671009 0.005673934
-0.05852026 -0.022601034 0.031646777 0.027967788 -0.052047152 0.073047996 -0.004014074 0.01435223
-0.011433906 -0.0072188163 0.048608515 -0.00038713677 0.03628569 0.05073095 -0.0002015362 -0.034710053
-0.06863725 -0.04978081 -0.0661941 0.049574584 -0.06882561 0.07086016 0.034330636 -0.030857526
0.05926474 0.0190426 -0.010358333 0.01460143 -0.043427613 0.014442817 -0.0008660848 -0.06360476
0.03205897 -0.018223068 -0.041189194 -0.065174125 0.060325224 -0.019342642 -0.041477192 0.04018386
-0.011104996 -0.06186012 -0.010029625 0.016008157 -0.045458667 0.034739148 -0.050301306 -0.051477768
0.050433904 0.02490991 -0.054063376 0.07038169 -0.033113714 0.012002438 -0.056771718 0.043289345
-0.06487325 -0.04503773 0.03038589 0.023511609 -0.057324637 0.024443785 0.06692383 -0.049816918
-0.010104064 0.07283872 -0.053787626 -0.005922422 -0.06526678 0.05746578 -0.048751354 0.04892741
-0.03952276 -0.030427437 0.06901228 0.05764324 -0.052268192 -0.07130778 0.054345064 -0.021003792
0.024999715 -0.0030095084 0.019466072 -0.045702048 -0.017763808 -0.053839207 0.034614313 -0.065205514
0.00065845205 -0.024761783 0.064260244 -0.036230944 -0.0690666 0.023151549 0.0033116378 -0.047911827
-0.048336048 0.051714145 -0.043634344 -0.06207875 0.0341896 0.020454057 0.028492926 0.039943837
0.011921326 -0.0030680383 -0.035274427 -0.04907797 0.01695662 0.059577156 -0.06384778 0.047063172
-0.054030262 0.00398415 -0.04924796 0.0311804 -0.0020419152 -0.026244037 -0.058730975 -0.019752877
0.07323889 0.064384356 0.019832034 0.07448978 -0.06692867 0.0033875785 -0.03150198 0.055281654
-0.036634233 -0.055157047 -0.06633388 -0.02485452 -0.00092448236 -0.03746505 -0.058275938 -0.05620879
-0.044080224 -0.042423848 0.05483267 0.020025471 -0.065524705 0.031822905 -0.042174432 -0.038444832
-0.01384611 -0.01488457 -0.016120095 -0.051607493 -0.033154786 -0.052419122 -0.0017888068 0.0357424
-0.0697954 0.049286854 0.070260644 0.025185859 0.019298453 0.025427228 -0.043778114 0.035205923
0.062006865 -0.056225196 -0.06434239 0.056007553 0.06831278 -0.059983652 0.045666162 -0.009219521
-0.054872524 0.07276487 -0.038399223 0.014425357 0.06523595 0.029411437 0.0024755695 0.04687247
-0.03546682 0.060954005 -0.02551677 -0.05283098 -0.0068302033 0.0052190013 -0.0022620603 0.057582863
-0.028826477 -0.06019521 -0.05388571 0.029545251 0.0031782673 -0.0009915959 0.06114372 0.0307174
0.05603312 0.015966294 -0.04129968 0.00946733 -0.026882477 0.02014501 0.06452493 -0.018269692
0.014913182 -0.007606001 0.06873582 0.06514437 0.057512667 0.031231409 -0.06582019 0.05365446

module.model.1.model.3.bias f4 [64]
00000000: 9b0c 603a c3a3 913a 580d 853a 9c0e 853a
00000010: 480a 853a 09f3 833a d73f c43a 8ab9 933a
00000020: 64d9 873a 7217 823a 81cf 853a 7a82 b23a
00000030: aa85 7b3a b014 7b3a a0f2 893a 69e3 653a
00000040: a25e 813a f1f7 553a f721 763a 2428 853a
00000050: e04e 483a effc 893a 267a 733a 95f1 813a
00000060: 6ca2 8f3a 53f3 603a 8806 8a3a b67d 823a
00000070: fe0d 8b3a e9de 9a3a 1b1d 923a 5e93 7f3a
00000080: 41d3 843a b888 953a c442 bc3a c365 ad3a
00000090: 4420 693a 54e0 7b3a 3f5d 813a 206a 5f3a
000000a0: cada 7f3a d303 9e3a e174 6b3a 3d56 913a
000000b0: 933e 623a 0824 993a 9bed 793a b592 7d3a
000000c0: 7d1b 843a 0048 6e3a 738d 833a c52b 5d3a
000000d0: f301 aa3a e58e 763a c146 4a3a 37b0 7b3a
000000e0: 109c 883a 0d76 8f3a e8fd 4a3a 32b4 933a
000000f0: 1536 863a dd6a 8b3a 37b2 983a ee41 8d3a
0.00085468 0.0011111427 0.0010151071 0.0010151449 0.0010150159 0.0010066937 0.0014972639 0.0011270505
0.001036447 0.00099252 0.0010208936 0.0013619207 0.00095948076 0.0009577973 0.0010524578 0.00087695435
0.0009870122 0.00081622513 0.00093892164 0.0010159058 0.0007641148 0.0010527651 0.0009287916 0.0009913916
0.001095844 0.000858118 0.0010530511 0.0009955678 0.0010609028 0.00118157 0.001114759 0.00097494374
0.0010133759 0.0011408543 0.001436316 0.001322918 0.00088930526 0.00096083176 0.0009869708 0.0008522589
0.000976008 0.0012055583 0.0008981955 0.0011088323 0.000863054 0.0011683712 0.0009534002 0.0009673045
0.0010078993 0.00090897083 0.0010036662 0.0008437003 0.0012970552 0.0009405448 0.00077162316 0.0009601148
0.0010422487 0.0010945216 0.00077435235 0.0011268912 0.0010239506 0.0010636706 0.0011649792 0.0010777095

module.model.1.model.4.weight f4 [64]
00000000: 024b 803f 218e 7f3f bd76 7f3f 7fba 7f3f
00000010: 010f 803f 9f08 803f 8158 7f3f e268 7f3f
00000020: d545 803f 7849 803f 8f6f 7f3f 9257 7f3f
00000030: 0d48 803f 2d33 803f 485a 7f3f 5b58 803f
00000040: 1c62 803f 4157 803f 198a 7f3f 01c9 7f3f
00000050: bc49 803f e6bd 7f3f 7a44 803f 0536 803f
00000060: 526e 7f3f 2d5c 803f a985 7f3f 6f41 803f
00000070: 0c14 803f c761 7f3f cf4b 7f3f b4b5 7f3f
00000080: 4754 7f3f 909a 7f3f 9f60 7f3f 9d67 7f3f
00000090: 5c32 803f 1f3b 803f 1353 803f a33e 803f
000000a0: 4c3d 803f 9a63 7f3f 5f48 803f ded2 7f3f
000000b0: 7b44 803f de5b 7f3f a550 803f 1747 803f
000000c0: d344 803f bc38 803f 127b 7f3f eb51 803f
000000d0: 3855 7f3f 0652 803f 2951 803f 9aaf 7f3f
000000e0: 56c8 7f3f c85b 7f3f 2e52 803f 9459 7f3f
000000f0: 1d82 7f3f 1632 803f 965d 7f3f 2788 7f3f
1.002289 0.99826247 0.99790555 0.99893945 1.0004579 1.0002631 0.9974442 0.99769413
1.0021311 1.0022421 0.997796 0.99742997 1.0021988 1.0015618 0.99747133 1.0026964
1.0029941 1.0026628 0.99820095 0.9991608 1.0022502 0.9989914 1.0020897 1.0016485
0.9977771 1.002813 0.99813324 1.0019969 1.0006118 0.9975857 0.9972505 0.9988663
0.9973797 0.9984522 0.9975681 0.99767476 1.0015368 1.0018042 1.0025352 1.0019115
1.0018706 0.99761355 1.0022086 0.9993113 1.0020899 0.99749553 1.0024611 1.0021695
1.0021003 1.0017314 0.99797165 1.0024999 0.9973941 1.0025032 1.0024768 0.9987732
0.99915063 0.9974942 1.0025079 0.9974606 0.9980791 1.0015285 0.99752176 0.99817127

module.model.1.model.4.bias f4 [64]
00000000: 3a95 423b 51ff 09bb 701e 12bb 9997 7cb8
00000010: 954b 6bba 4cdb 98b9 abdc 27bb 578b 27bb
00000020: 1284 0e3b c55e 293b 5d34 21bb 764a 2abb
00000030: 257a 1d3b 7642 873a 7423 31bb 978f 353b
00000040: 33e7 463b f629 313b 38db f7ba 04a8 0abb
00000050: 242a 213b ce3f c2ba 504a 333b 22f3 ff3a
00000060: e1aa 28bb 7a8b 363b 8314 06bb b165 0c3b
00000070: 891e 55ba 5518 24bb b02d 31bb 7f7f 06bb
00000080: fc5e 29bb 96fa 0ebb 5acd 23bb 3062 21bb
00000090: 9b4e 203b 2967 273b 45c0 1c3b 1625 093b
000000a0: a343 2a3a 6f7a 21bb 8b11 2c3b f2a8 90ba
000000b0: 10de 1b3b c33a 21bb d0a9 2d3b 87ca 1c3b
000000c0: 9fe0 283b 6e8a f53a 1fbe 1cbb 6a9c 2a3b
000000d0: ed7b 28bb 353f 2f3b cd38 273b c4c2 10bb
000000e0: 2de3 85b9 00fb 25bb e4ad 2d3b e3e4 29bb
000000f0: d26c 0cbb bd33 2b39 c19c 29bb 61d1 03bb
0.0029690997 -0.0021056721 -0.0022295974 -6.022267e-05 -0.0008975801 -0.00029155088 -0.0025613706 -0.002556523
0.00217462 0.002584384 -0.0024597861 -0.0025984324 0.0024029103 0.001031949 -0.0027029188 0.0027703994
0.0030350208 0.0027033067 -0.0018909937 -0.0021157274 0.0024591768 -0.0014820041 0.0027357526 0.0019527415
-0.0025736617 0.002785413 -0.0020459003 0.0021422917 -0.0008129855 -0.0025038917 -0.0027035289 -0.002052277
-0.0025843969 -0.0021816841 -0.0024994225 -0.0024625175 0.0024460915 0.0025543666 0.0023918313 0.0020926646
0.0006495064 -0.0024639626 0.0026255574 -0.0011036678 0.0023783483 -0.0024601675 0.0026498921 0.0023924427
0.002576865 0.0018733272 -0.0023917032 0.0026033171 -0.002570863 0.0026740555 0.0025516034 -0.0022088746
-0.00025536996 -0.002532661 0.0026501352 -0.002592378 -0.0021427167 0.00016327105 -0.0025880786 -0.0020113813

module.model.1.model.4.running_mean f4 [64]
00000000: 1c9e 05be 6425 143f 6e3f a6be 8c0e 693d
00000010: d1fe 133d f4c8 f5bd d69c ebbd 2dde e13d
00000020: e194 023f 7411 2e3f 7da2 47bd 7211 f9be
00000030: 7a45 c43e ac7f 863e c3a0 ec3e 8b41 7c3d
00000040: f3b5 02bf e54b 9b3d 371a 473e 6cd3 09bf
00000050: 8345 89be 7519 0cbf 6df0 eb3c 0fe3 84bd
00000060: dee2 9bbd cf3a 71bf df03 f2bc e115 b43e
00000070: 6906 32bf b6bb 543c 3018 63be 4ed1 743e
00000080: d9f0 c33e f391 583e 6f07 16bf 488d 17be
00000090: a8b7 a1be fd44 8a3e 898a c0be 69da 0d3e
000000a0: 7cd3 ef3e e86f 063e f260 13be 2c55 e6bd
000000b0: 235e 49be 4e24 c8be bd5a 90be e3e3 4f3e
000000c0: 1513 f13e 91dc d73d beb4 683f 64b5 b6be
000000d0: e018 7f3e 325b f93e 6021 59bd bd43 bc3e
000000e0: 11ea 83be 97a7 423f 16e3 b13b 4192 b33e
000000f0: 8a7d 9f3e 9e70 433e c63f 99be b421 0fbe
-0.13048595 0.57869554 -0.32470268 0.05689864 0.036131684 -0.120012194 -0.115045235 0.11028705
0.5100842 0.6799538 -0.048738945 -0.48646122 0.38334256 0.2626928 0.462164 0.061585944
-0.5105888 0.07582835 0.19443594 -0.5383823 -0.26810846 -0.54726344 0.028801167 -0.064886205
-0.07611631 -0.9423036 -0.029542862 0.35172942 -0.6954103 0.012984207 -0.22177196 0.23907968
0.3826969 0.21149425 -0.5860509 -0.14799988 -0.3158543 0.2700576 -0.37605694 0.13852848
0.46841037 0.13128626 -0.1439245 -0.11246714 -0.19664817 -0.39090198 -0.28194228 0.20301776
0.4708487 0.105401166 0.9090079 -0.35685265 0.24911833 0.4870239 -0.053010345 0.3677043
-0.25764516 0.7603697 0.005428682 0.3507252 0.31150466 0.19085929 -0.29931468 -0.139777

module.model.1.model.4.running_var f4 [64]
00000000: 532f ec3e ff8b 6d3e aec8 803f b81c 0c3f
00000010: dcce 7d40 a790 fd3c b6f7 3a3e de76 5b3d
00000020: faac f73d 7dd1 223f 7938 833e 920f ff3e
00000030: d59e c33e 520a 3d3f 9d64 a43d dab2 e03d
00000040: 770f b63f 03da 2c3f 4d32 2a3d 77bd c83e
00000050: a2e1 d23d be25 b23f 114d cf3d cbc1 a33e
00000060: 960a a43f 07b1 ae3e b345 f83f d432 123f
00000070: 83a9 543e 03cb 1d3f f4a4 fe3d 713c b43e
00000080: 847a cd3e 06f7 0a3f 1926 103e ac5c 273d
00000090: 1f9b 963d c795 693e db23 473f c235 483e
000000a0: 37a5 203e e8bd a53d ded7 d03d f382 563e
000000b0: cb6f 1d3f af6e 813d 493d da3f ceb8 cc3d
000000c0: 65e4 df3f 4f6d 4c3f 8c0c dd3e 18e3 093f
000000d0: ce91 a73d bb34 8d3e 2691 e73d 9016 243f
000000e0: cef9 293d edfd 803e 33e2 2b3f 7ef1 813f
000000f0: 46aa 663d 3570 253f 4cce 083e c45a 813e
0.46129856 0.23197936 1.0061243 0.5473132 3.9657507 0.030952765 0.18258557 0.053580157
0.120935395 0.63600904 0.25629023 0.49816567 0.38207117 0.7384387 0.08027003 0.10971613
1.422347 0.6752016 0.041551877 0.3920705 0.10296942 1.3917768 0.10122121 0.3198379
1.281573 0.34119436 1.939627 0.5710881 0.20767789 0.61637896 0.12433806 0.35202363
0.40132535 0.5428318 0.14077033 0.040859863 0.07353806 0.22811042 0.77789086 0.19551757
0.15688024 0.08092862 0.101974234 0.2094839 0.6149871 0.06319939 1.7049953 0.09996186
1.7491575 0.7985429 0.43173635 0.5386214 0.08182107 0.27579293 0.11306982 0.6409693
0.041497998 0.2519373 0.6714203 1.0151823 0.05631473 0.6462434 0.13359946 0.2526456

module.model.2.model.0.weight f4 [64, 64, 3, 3]
00000000: ec5b 96bc e67a 2bbd 5dc8 823c f3f6 433c
00000010: ef4f 88bd 1286 353d 72d0 293b 7e2a 7ebc
00000020: c79c 8b3b ac93 aa3a 6d28 18bc 65cb a8bb
00000030: cf2e 663d f222 883c 23b9 67bb b511 33bd
00000040: f577 7fbd c3e9 50bd 78a2 783d 3915 51bc
00000050: 4d7f 3e3d 55cf e13c 36d1 01bd d9e2 523d
00000060: b900 09bd 7229 903c a3f0 613d 9856 823c
00000070: 1a27 663d eaf7 20bd 534c 943b c7da 1bbd
00000080: 4749 cabc 3178 093d 7bd8 3c3d 049a 113d
00000090: 4f75 28bd 5c22 7d3d 4317 75bd 401d 94bd
000000a0: 8db4 3b3d 703b 65bd e47e 123b 6f78 24bd
000000b0: 4708 7f3d 3c2a afbc 91b4 ab3c 977a b53a
000000c0: 25cc 86bd 50a9 08bd d285 093c ac94 59bd
000000d0: c50e a7bc dbf0 b3bc 6ffe 55bd cbc2 81bc
000000e0: 8919 113d 51a6 64bd a3a4 0cbd e317 41bc
000000f0: f6df 813c 7009 1fbd 4961 c93c c0ec e3bc
00000100: adc7 41bd 82ae dfbc 773b 493b a674 8cbd
00000110: 2c32 1fbd a0a6 a9bc 72de 0cbc 05c0 01bd
00000120: a9f8 ff3c aa88 59bd aa32 b23b 1b6c 7f39
00000130: bfa1 8e3d e9d7 4b3d 0c45 3fbd 2958 07bd
00000140: 5817 03bc 302b 183d a195 3ebd 6e17 88bd
00000150: 4b0e eb3c 8188 44bd f3b5 84bd 7e01 84bd
00000160: 7616 c9bb 288f 873d b12b 293b 2029 6bbd
00000170: d3ab 7c3d 7b08 683d b232 d8bb d665 a3bc
00000180: 9842 e0bc 284f 36bd a470 38bd f5bb 3abd
00000190: bc50 7d3d b7a5 733d 2b03 603d 91f9 2e3d
000001a0: e32d 883d bde5 853b 7dc6 50bd 26dc 6e3c
000001b0: 49ff 703c 0dd3 503c 783d edbb 6b0b 6d3d
000001c0: 56cc 533c a864 83bd e894 633c e8c7 28bd
000001d0: 6f46 3fbd 023e 473d 1253 7dbd b62c 1dbc
000001e0: 2e33 acbc 5c20 28b9 e9f4 773d d682 993c
000001f0: d074 003d 92dc 5fbd 5666 01bd e019 4ebd
00000200: e079 1d3c f7bd f43c 9ddf 38bd 0b70 073d
00000210: 31f2 6c3a caee 8fbd a59b 85bd df52 103c
00000220: 886a 393d 182b 153b b1b4 8b3d c6ef 793d
00000230: 4658 68bd 1c44 2dbd 30a6 f03c 9389 2dbd
00000240: d308 68bd f91d 023d 4c8b 8ebd fec0 aa3c
00000250: b22c 88bb 2c05 72bd 122b 333d 2557 69bd
00000260: 8d50 8a3a aa35 103d c14e 873d c1d8 383d
00000270: 1803 5f3c 705f 14bd da18 f4bc aaa0 283b
00000280: a76b 8e3c 5ae2 0abd ecbb 0f3d e3b9 11bd
00000290: 7043 08bd 1d5d 373d 1b20 7d3d 90c0 a0bc
000002a0: 4e20 8b3c 0e8f 66bc 1990 0f3d 3435 6bbd
000002b0: 20d0 733c ae0f f5bc 2eb7 8c3d 102c 863d
000002c0: d72d 0ebd cef5 06bd 8b87 823d eb2b 60bd
000002d0: 434d 94bd 3dbe 84bd 8ea6 8b3d 6eef 59bd
000002e0: ec6e 3cbd f5ef 7b3d 68b2 163d f3bf 3e3c
000002f0: 20d8 84bc 56a7 f73c 4eee 683d 40d9 063c
00000300: fc96 f4bc ec62 ceba 2933 31bd 1347 40bd
00000310: 5c70 2a3d ebdf 653d 5cdf 06bd 6f77 f5bb
00000320: 341a a6bc abaa 55bd aafa 99bc e62e 7bbd
00000330: e8d8 b23c 603a cf3b a8f9 493c 3fea 38bb
00000340: e9e3 3ebb 7721 3ebd 861d ca3c f826 993a
00000350: 681b 773c c0e4 323d bdfb 76bc c14a f03c
00000360: b5be 56bc a364 833d d972 a039 daad 9bbb
00000370: 3d26 20bd c440 0cbc b069 f739 de73 833d
00000380: e9e5 c9bb 77ae f8bc 0b23 0dbd 32f7 debc
00000390: 67ec 273d 9048 bf3b 1400 49bd eb7a 913d
000003a0: 9c08 38bd 4ee9 123d 846b 873d 9d2c a8bc
000003b0: 6917 d33c 5dc9 ee3c 5121 cb3c 045a 393d
000003c0: 5033 2a3d 1d30 c73c d3bb 88bd cbd0 86bd
000003d0: 7245 8f3d 7ced 27bd 41ad aa3c 4fa7 893d
000003e0: d164 d6bc 7673 273d d844 293d 8017 7c3d
000003f0: 5aac 11bd f417 883c 6237 803d cada 57bd
-0.018354379 -0.041865252 0.015964681 0.011960733 -0.06655871 0.044317313 0.0025911597 -0.015513061
0.0042606327 0.001301398 -0.009286982 -0.0051511996 0.056196984 0.016618226 -0.0035358153 -0.04371806
-0.06237026 -0.051004183 0.060701817 -0.0127614075 0.046508122 0.027564684 -0.03169366 0.05148587
-0.033447955 0.017597888 0.05516113 0.015910432 0.056189634 -0.03929893 0.0045257 -0.03805044
-0.024693144 0.03356189 0.04610489 0.03554727 -0.0411275 0.061800346 -0.059836637 -0.072321415
0.045826484 -0.055964887 0.0022353465 -0.040153917 0.062263753 -0.021382444 0.020960124 0.0013845739
-0.06581906 -0.033364594 0.008393722 -0.0531203 -0.020392785 -0.021965435 -0.0522446 -0.015839955
0.035424743 -0.055822674 -0.034336697 -0.01178548 0.015853863 -0.03882736 0.024582522 -0.027822852
-0.047309566 -0.027304891 0.003070561 -0.068581864 -0.038866207 -0.020709336 -0.008597957 -0.031677265
0.0312465 -0.05310885 0.0054381685 0.00024358967 0.06964444 0.049766455 -0.046696708 -0.03304306
-0.008001171 0.03715056 -0.046529416 -0.06645094 0.028693339 -0.047981743 -0.064800166 -0.06445597
-0.0061367108 0.06619102 0.0025813396 -0.057412267 0.0616873 0.056648713 -0.00659784 -0.01994602
-0.027375504 -0.044509083 -0.045029297 -0.045589406 0.061844572 0.05948421 0.05469052 0.042718474
0.06649377 0.004086225 -0.050970543 0.014578855 0.014709302 0.012745631 -0.0072399937 0.057872217
0.012927135 -0.06415683 0.0138904825 -0.04120627 -0.04669803 0.04864312 -0.0618468 -0.009593179
-0.021020498 -0.00016033783 0.0605363 0.018739145 0.0313614 -0.05465371 -0.031591736 -0.050317645
0.009611577 0.029875739 -0.04513513 0.033065837 0.0009038775 -0.07027967 -0.065238275 0.0088088205
0.04526761 0.0022761282 0.068215735 0.06101968 -0.05672481 -0.042301282 0.02937612 -0.04236753
-0.05664904 0.031766865 -0.069601625 0.020843979 -0.0041557187 -0.059086964 0.043742247 -0.056967873
0.001055257 0.035207428 0.06606818 0.045128588 0.013611577 -0.03622383 -0.029797006 0.002573053
0.017385317 -0.033907272 0.035091326 -0.035577666 -0.03326744 0.044766534 0.061798196 -0.019623071
0.016983178 -0.014072193 0.03504953 -0.057423785 0.014881164 -0.029914703 0.06870876 0.06551373
-0.034711685 -0.03294926 0.06373509 -0.054729383 -0.07241299 -0.064815976 0.06818877 -0.053206854
-0.04600422 0.061508138 0.036791235 0.011642444 -0.016216338 0.03023116 0.05686789 0.008230507
-0.029857151 -0.0015746034 -0.04326168 -0.04694278 0.04161106 0.056121748 -0.032927856 -0.0074910442
-0.020276166 -0.052164715 -0.018796284 -0.061324023 0.021831945 0.0063240975 0.012327589 -0.0028215793
-0.0029127544 -0.046418633 0.024672281 0.0011684587 0.015082218 0.043675184 -0.0150746675 0.02933252
-0.013106992 0.06415679 0.00030603146 -0.0047509493 -0.039098967 -0.008560363 0.00047190255 0.06418584
-0.0061614406 -0.030356629 -0.034457248 -0.027217481 0.040996935 0.0058375075 -0.04907234 0.07103523
-0.044930086 0.035867028 0.06612304 -0.020529086 0.025767999 0.029148752 0.02479616 0.04525186
0.04155284 0.024314934 -0.066764496 -0.06582793 0.069956675 -0.040997967 0.020834567 0.06721365
-0.02617112 0.040881597 0.04132542 0.06154585 -0.035564758 0.016612984 0.062605634 -0.052698888

module.model.2.model.0.bias f4 [64]
00000000: 607f 883a 2d9d 823a 5527 813a f8c1 873a
00000010: 23c4 773a 4d53 7a3a cabd 893a 2dec 803a
00000020: 8c2b 773a 6e6e 813a ffd0 843a 4090 873a
00000030: 8d37 833a 320f 803a 2093 803a 3a3a 823a
00000040: 4af4 7d3a 9d34 873a e269 853a 037a 833a
00000050: 2711 823a c34f 813a 7f16 843a 416b 803a
00000060: 1c0a 7b3a 707d 7e3a 87a9 813a c759 7b3a
00000070: 90d3 803a 3be9 823a ec45 873a 79a0 853a
00000080: 2e0b 813a a971 7f3a 08ba 843a e275 853a
00000090: ddef 853a d250 863a 658e 773a ce43 873a
000000a0: a727 863a 8bd2 843a 0cf0 843a cf46 7f3a
000000b0: 0d3d 813a 6911 823a a21b 813a 6ce8 7c3a
000000c0: 134d 823a b9a1 843a 8d45 783a 1952 853a
000000d0: be62 833a 072b 833a a194 813a 7ece 7a3a
000000e0: 9c36 7c3a 1d75 823a 600a 823a 12cd 803a
000000f0: ec99 813a ec26 883a 705e 803a a73d 863a
0.0010413937 0.0009965055 0.0009853641 0.001035749 0.0009451529 0.0009549156 0.0010508832 0.0009836011
0.0009428791 0.000987483 0.0010133086 0.0010342672 0.0010011062 0.0009770154 0.0009809472 0.0009935566
0.0009687586 0.0010315363 0.001017865 0.0010030869 0.0009923325 0.000986569 0.0010077505 0.0009797589
0.00095763966 0.00097080227 0.0009892442 0.0009588268 0.0009828676 0.0009987721 0.0010320521 0.0010194919
0.0009845251 0.0009744415 0.0010126242 0.0010182227 0.001021858 0.0010247475 0.00094435207 0.001031989
0.0010235206 0.0010133547 0.001014234 0.00097380293 0.0009860113 0.0009923402 0.0009850154 0.00096476707
0.0009941183 0.0010118998 0.0009470813 0.0010171562 0.0010023934 0.001000733 0.0009886214 0.0009567513
0.00096211745 0.0009953115 0.0009921305 0.0009826741 0.0009887791 0.0010387576 0.000979377 0.0010241763

module.model.2.model.1.weight f4 [64]
00000000: 77a6 7f3f 0737 803f 1608 803f 3477 7f3f
00000010: 42ca 7f3f 9f21 803f f687 7f3f 71a1 7f3f
00000020: 223a 803f 3ef1 7f3f de2e 803f 5345 7f3f
00000030: 3af7 7f3f d620 803f f800 803f 600a 803f
00000040: e7f0 7f3f e193 7f3f b2c8 7f3f 6573 7f3f
00000050: ad2e 803f f1c2 7f3f 2d04 803f c107 803f
00000060: 991d 803f 370c 803f 53f5 7f3f 835b 7f3f
00000070: 99a2 7f3f b3f5 7f3f 873d 803f 572d 803f
00000080: 0039 803f 4523 803f c9dd 7f3f 0d21 803f
00000090: 5f18 803f 9459 7f3f 93d7 7f3f a944 803f
000000a0: 9728 803f 221e 803f cdc6 7f3f 6329 803f
000000b0: 1613 803f 0028 803f 5b0b 803f 061d 803f
000000c0: 41bf 7f3f 104c 803f e508 803f ebb3 7f3f
000000d0: d702 803f 9024 803f b82c 803f cfc4 7f3f
000000e0: ab4e 803f e39e 7f3f 9b30 803f 5555 803f
000000f0: c9ff 7f3f 49d0 7f3f 6ea3 7f3f 8a62 7f3f
0.9986338 1.0016793 1.0002468 0.99791265 0.99917996 1.001026 0.99816835 0.99855715
1.0017741 0.9997748 1.0014303 0.99715155 0.9998661 1.0010021 1.0000296 1.0003166
0.9997696 0.9983502 0.9991561 0.99785453 1.0014244 0.9990683 1.0001274 1.0002366
1.0009032 1.0003728 0.9998371 0.9974901 0.9985748 0.9998428 1.0018777 1.0013837
1.0017395 1.0010763 0.9994779 1.0010086 1.0007437 0.9974606 0.99938315 1.0020953
1.0012387 1.0009196 0.9991272 1.001263 1.0005825 1.0012207 1.0003465 1.0008857
0.99901205 1.0023212 1.0002714 0.9988391 1.0000867 1.0011158 1.0013647 0.9990968
1.0024008 0.99851817 1.0014833 1.0026041 0.9999967 0.9992719 0.9985875 0.99759734

module.model.2.model.1.bias f4 [64]
00000000: ad8f 26ba 0ce5 a63a 9765 843a 3b49 22bb
00000010: f013 34ba 5e6a ec3a 7637 0dbb 2193 c238
00000020: ea17 0c3b 0248 923a b57e 663a f367 3bbb
00000030: fd35 69ba 0066 013b c5de 5f3a 63fe 043a
00000040: f7d3 9b39 9df5 03bb 5c59 edb9 e06e 1bbb
00000050: b75f 9f3a 7519 57b9 d97a 4239 84af e239
00000060: 34ca c23a 2aea 083b 72be d738 5be9 19bb
00000070: 265d a7b9 1ee5 3ab9 afd5 023b 54ed 42ba
00000080: 75dd c63a a192 d9b9 16b8 03bb 25af 94ba
00000090: 3e1b b9ba 820e 26bb b28f 8aba 60b5 e53a
000000a0: 8385 6f3a 0741 d03a 3630 8fba 35b5 673a
000000b0: aa2c 813a e26c 1339 b86d b639 7e9d aa39
000000c0: f569 5dba 5015 0d3b 693e 123a 78a7 dbba
000000d0: c134 9f3a ccfb e93a 6556 3aba 7c65 42ba
000000e0: 69af 1b3b 60d1 f0ba aed6 d23a 5341 1d3b
000000f0: 4afd 47ba d05b 3bba 7e8d 22b9 3025 1fbb
-0.0006353807 0.0012733056 0.0010101077 -0.0024762887 -0.0006869426 0.0018037071 -0.002154795 9.278046e-05
0.0021376559 0.0011160376 0.00087926845 -0.0028595894 -0.00088962895 0.0019744635 0.000853997 0.0005073307
0.0002972183 -0.002013541 -0.0004527074 -0.002371721 0.0012159263 -0.00020513481 0.00018547046 0.00043236848
0.0014861287 0.0020891526 0.00010287472 -0.0023485038 -0.00031922123 -0.00017823695 0.001996379 -0.00074358773
0.00151722 -0.00041498712 -0.0020098737 -0.0011343701 -0.0014122499 -0.0025338237 -0.0010571389 0.0017525367
0.0009137021 0.001588852 -0.0010924402 0.00088389526 0.000985523 0.00014059574 0.00034795492 0.00032542268
-0.000844627 0.0021527596 0.0005578758 -0.0016758284 0.0012146459 0.001785153 -0.00071082107 -0.0007415635
0.0023755676 -0.0018372945 0.0016085708 0.0023995235 -0.00076289906 -0.0007147165 -0.00015502234 -0.002428364

module.model.2.model.1.running_mean f4 [64]
00000000: bc8b d7be ddcd 8e3e d536 59be 9c89 c1bc
00000010: c8ea b4be e4a2 4c3e 5f66 6fbe e7ce 88be
00000020: 5695 febd efa8 153f 6273 e53d bf1e 3cbf
00000030: fa94 0b3f 0fba 203e 9560 80be e17b 0dbe
00000040: f519 d13e cba5 5e3d 63bc c93e f297 cabc
00000050: 9e77 8e3e d7ef 2c3f 4528 97bd 6e25 e23d
00000060: b479 56bf e369 e5be 7ee2 f1be 37cc ea3e
00000070: 32e6 a0be efd8 92be a0df 803f 5d0a 293f
00000080: ecbf 0ebf 7ed9 5cbe 0cec 143f 4ea5 2d3f
00000090: 54c0 e13e a692 443e a7f9 09be 084b 793c
000000a0: 6131 7c3e 913c 7b3e edfa f4bd d75d e73e
000000b0: 11ac 0cbf 1e42 943e 4091 98be c8e2 b0be
000000c0: b461 cbbe fe61 913d 96ac d93d 61e6 2cbe
000000d0: 437f 7bb9 164f 04be f29c 673d 8473 7ebe
000000e0: a7aa 2cbd 5a5a 423f d147 dabd b043 93bd
000000f0: ba5d df3e 55da 97bd e8e8 0abf 51d5 483e
-0.42098796 0.27891436 -0.21212323 -0.023625188 -0.35335374 0.19984013 -0.23378895 -0.26720354
-0.12430827 0.584609 0.11203648 -0.73484415 0.54524195 0.15695976 -0.25073686 -0.13816787
0.40840116 0.05435733 0.3940154 -0.024730656 0.27825636 0.67553467 -0.07380728 0.110422954
-0.83779454 -0.44807348 -0.47243112 0.4585893 -0.31425625 -0.28681132 1.0068245 0.6603144
-0.557616 -0.21567342 0.5817268 0.6783036 0.44092047 0.19196567 -0.13474141 0.015215643
0.24628212 0.24534823 -0.11961923 0.45188782 -0.5495005 0.28956693 -0.29798317 -0.3454802
-0.3972298 0.07098769 0.10628621 -0.16884758 -0.00023984634 -0.12920794 0.05654616 -0.24848753
-0.042154934 0.75919116 -0.10658229 -0.07190645 0.43626195 -0.074146904 -0.54261637 0.19612624

module.model.2.model.1.running_var f4 [64]
00000000: cee1 b93e 4c0a 0b3f 6c33 a63e 4aaf 083e
00000010: 0159 ea3d 5c63 6e3f 26b6 093e 98c7 ab3d
00000020: 72e8 a13e 43c8 5c3e 80e8 1d3e e4d2 4e3f
00000030: a525 563f 045b 523e 04af a73e e849 2d3e
00000040: 59c9 5e3e acb7 a73e fe31 7a3f d468 ae3e
00000050: aad1 713d dfff e43e 41e0 193f 89df 103f
00000060: e37b 0d3f 7f4c e83e 135d a53e 6b2c 3d3e
00000070: bb0d cf3e 1d4e 253f 5445 ae3f fce8 483e
00000080: 403e 3040 7dcc 673e 5ce8 3c3e b2df 873e
00000090: 2281 973e 49fd 7b3e b923 723e eb6a cf3e
000000a0: 066b b03f 9e96 983e 3b69 043f a4e1 af3d
000000b0: 3c8f 713e 6bbf ee3d e116 243f d62a 213e
000000c0: 7b1a dc3d 5437 6d3e 7e64 0b40 45c3 073e
000000d0: fada 143f 29ed 2d3f 0d98 7c3e 90fe 073f
000000e0: d520 8d3f 1967 783e e8cb 043e 57ad a63f
000000f0: 8157 933f f208 b53e 2096 fb3e e322 263f
0.36305088 0.54312587 0.32461107 0.13348117 0.114427574 0.9312036 0.1344839 0.08387679
0.31622654 0.21560769 0.15420723 0.80790544 0.8365119 0.20542532 0.32750714 0.16922724
0.21756496 0.32757318 0.9773253 0.34064353 0.05903784 0.44726464 0.6010781 0.5659109
0.5526716 0.45370862 0.32297572 0.18473975 0.40440163 0.64572316 1.3614907 0.19620126
2.7537994 0.226366 0.18448013 0.26537853 0.29590708 0.2460834 0.2364644 0.4051126
1.3782661 0.29802412 0.5172307 0.085879594 0.23589796 0.11657604 0.6409741 0.15738997
0.10747238 0.23165637 2.1780086 0.13258083 0.5814663 0.6794 0.24667378 0.53122807
1.1025645 0.24258079 0.12968409 1.3021649 1.1511079 0.35358387 0.49137974 0.6489698
