output_gd_deblur_noise/ckpt/resnet_epoch11.pth (torch, 641727 bytes, 31 tensors)

module.model.0.weight f4 [64, 1, 1, 1]
00000000: 3ac1 163d 16e0 dabd e5dc 8a3e a300 483e
00000010: b51e cc3d 84b0 073e 0757 523d 79ef 593e
00000020: 2cc8 113d b505 2abe 212d 05be 2398 7d3e
00000030: 41f2 e53d 3578 923e 360c 41bb e1fa d03b
00000040: d368 0fbe 6449 05bd 76b6 3d3e fe80 8ebe
00000050: d32e 523e da9b 1d3e df64 cb3d 4610 2c3d
00000060: efff 9a3e eb07 61be af6f d5bd 3dc6 2f3e
00000070: 8454 8fbe c89c 253e f9b0 7abe 7cab 383e
00000080: 4b6b 823e a618 963e 4b44 693e 1a33 dbbd
00000090: f19a 87be 68a4 bdbc 2efd 383e a584 33bc
000000a0: 167d da3d 5679 8cbe 389b 4ebd 1399 983e
000000b0: 3684 5ebe 5b86 6c3e 08d7 7fbe 45d3 90be
000000c0: 8eac b13d 69cc 103e 7133 143e 6332 f2bd
000000d0: 3e49 30be 76a2 d33d 6ac7 ed3d 5847 b33d
000000e0: 75f5 b13b 1eff 793e 3ba5 8ebe a78d bbbd
000000f0: 0788 313e 9294 e2bd de8e 38be 6da4 da3c
0.03680537 -0.10687272 0.27121654 0.19531493 0.099667944 0.13250929 0.051352527 0.21282758
0.03559129 -0.1660374 -0.13005497 0.24765067 0.11227847 0.28607336 -0.0029456741 0.0063775633
-0.14004831 -0.032540694 0.18526635 -0.27832788 0.20525675 0.15391484 0.09931349 0.042007707
0.30273387 -0.21975677 -0.104216926 0.17165466 -0.27994168 0.16173089 -0.24481572 0.18034166
0.25472483 0.2931568 0.22779958 -0.10703106 -0.26485398 -0.023149684 0.1806533 -0.010956918
0.106683895 -0.27436322 -0.050440997 0.29804286 -0.21730122 0.23098128 -0.24984372 -0.28286186
0.0867549 0.14140476 0.14472748 -0.11826017 -0.1721544 0.10333721 0.11610301 0.08753842
0.005430872 0.24413726 -0.27860436 -0.091578774 0.17337047 -0.11063494 -0.1802325 0.026689732

module.model.0.bias f4 [64]
00000000: 3420 6e3a 4717 2f39 65c2 8639 5783 4fb8
00000010: 186c 383a cced 003a 3ba5 cab9 a8a9 923a
00000020: 1516 093a 3562 c53a ece2 813a 390b ce3a
00000030: a723 d53a 09c6 583a e61c 083a a83d a43a
00000040: 639b e43a f251 093b bc92 30b9 bd0b e839
00000050: 8a89 cf3a 4fe9 1539 20f0 af3a 9229 e139
00000060: 73ef 87b8 ae24 263a 2b5b 993a a87a 613a
00000070: 30b1 9a3a 7dc5 dc39 2a51 c739 24bc f438
00000080: 4bd0 ef39 4c74 f139 54d0 7c3a 85b2 f837
00000090: aa1c dc3a 5709 ef3a 7259 e63a b813 673a
000000a0: b194 103a 4259 9e3a c101 c73a 68d7 ac3a
000000b0: 35a0 183b faab d239 c86a 8d39 2b00 8f3a
000000c0: 2dd3 f43a ed28 103b 4f1c 653a 64aa 8f3a
000000d0: 28a6 443a aa6d a03a 8528 103a 5ae2 f8b8
000000e0: cd3d 153a a58a e0b9 d88f 083b 50ca cdb9
000000f0: 9fb8 533a 748d e83a 3ff7 8639 4f97 1538
0.0009083778 0.00016697972 0.00025703307 -4.9474966e-05 0.000703515 0.0004918247 -0.0003865155 0.0011189478
0.0005229426 0.0015059175 0.0009909547 0.0015719897 0.0016261236 0.00082692556 0.00051922945 0.0012530582
0.0017441328 0.0020953384 -0.00016839331 0.00044259234 0.0015833837 0.00014296662 0.0013423003 0.00042946317
-6.4819025e-05 0.0006337863 0.0011700144 0.0008601346 0.0011802074 0.0004210881 0.0003801671 0.000116698706
0.00045740823 0.0004605375 0.00096440804 2.9647033e-05 0.001679321 0.0018237036 0.0017574264 0.0008814889
0.0005515321 0.0012081044 0.0015183018 0.0013186755 0.002328885 0.00040182454 0.00026973174 0.0010910084
0.0018678658 0.002199705 0.0008739875 0.0010960815 0.0007501566 0.0012239714 0.0005499202 -0.00011867723
0.0005693108 -0.00042827908 0.002083769 -0.00039251382 0.0008076522 0.0017742352 0.00025742684 3.5665285e-05

module.model.1.model.0.weight f4 [64, 64, 3, 3]
00000000: 584f 063d 877e 73bc 000e 1fbd 5f28 37bd
00000010: 3383 513d a8d5 8e3d e4fc 38bd 5d9c e13c
00000020: 3295 813d e582 fcbc b3d2 1a3d 2355 3bbd
00000030: 9ea2 92bc 2b78 83bd 1f1e 82bd 6401 2cbc
00000040: a5a8 7b3d 65bc d6bc d91e 5c3c e410 803d
00000050: efb9 493d b099 303d 67c3 02bd 1fa6 863c
00000060: 844e afbc ec14 55bd b147 29bd f5b7 e6bc
00000070: 7bbd 73bd b741 8e3d 3a3d 743d 4811 0e3d
00000080: 7992 89bd 0ae5 75bc 77b5 fbbc f23a 613d
00000090: c2af e2ba 4247 5b3d d6c3 473d 715a a23c
000000a0: aa3a 60bd 1bf1 ffbc b07c f33c 30ee 7ebd
000000b0: f94a 73bd 0b64 a2bc 9cc1 8dbd 3c38 833c
000000c0: d4ec 9bbb 186b 643d 0eff 56bd 6ae3 d7bc
000000d0: c269 a03c 2e45 363c 3a4e 6fbd eb5b 1a3d
000000e0: bab7 0e3d c2f2 fdba ce4f 87bc 3eb7 50bd
000000f0: 7aae f13b 009f 36bd 8740 87bd 4c3a 8cbd
00000100: 229c 82bd dae3 8fbd 536b 4abc ec11 e93c
00000110: f088 873d e32a 783d 12cd 763c 68dc 033c
00000120: 24a5 823d 2325 fcbb 86ee c23c 17e8 e73c
00000130: 8a5e 1ebd 4345 2abd a74d 573d 70d8 313c
00000140: dce7 a33c e87e 83bd 362b 7b3d 87d3 393d
00000150: 606b 4ebd 98aa 69bd d875 8ebd 6b13 90bd
00000160: 7148 363d 22de 5fbd eb5d cd3c fab0 9e3c
00000170: 29fa 82bd 51a4 f0bb 9ae2 363c 6f80 d93c
00000180: ae01 663d 083c 563d d534 6a3d 8edd bfba
00000190: f9b2 8dbd 032f ec3c 5bec fb3c f10b 79bd
000001a0: 4ccd 903c 5a63 3d3d 8afb aebc 392d 75bd
000001b0: fac8 843d 3235 38bd aefa 53bd 074e 653d
000001c0: 33db 323d 7bb8 99bc b6e5 7dbd c79a 663c
000001d0: 6a8d 403d d763 73bc d4ea 493d f1be 3e3d
000001e0: 224b 103d 9f01 943d 69da 35bd 23c7 e43a
000001f0: 70e1 05bd bd79 e3ba ac03 cbbc 8a93 33bd
00000200: cb2f ed39 a2c0 e03c aebd 0b3d c2c3 8fbd
00000210: 4b39 1bbd 6e19 123d ed2c 83bd 392e 14bd
00000220: 9c51 da3c c74e c73c 71f8 bcbc 3a41 72bd
00000230: bbe0 8e3d 8610 5f3d 7fdc 78bd 6118 83bd
00000240: a27c 14bd 5da2 8cbc a74a 88bc 2d9e 853c
00000250: 78b3 5bbd 22c7 6e3d 49c2 883d 0349 a3bc
00000260: fba4 103d d75d 263c 1d22 a9bb 12f2 1dbd
00000270: 92f2 9c3b 00dd 443d dce1 123c c057 833b
00000280: dfcb 3d3d 669e 2a3d 6d42 88bd 27e2 de3c
00000290: 8f21 78bd eb7a 85bd 200d b8bc 8530 863d
000002a0: 3505 df3b eebc 0bbd 4eb5 d83c 398f 42bd
000002b0: 06cd 813c 63b3 29bd 7bc5 673d eb3c 463d
000002c0: 5f91 6b3d 45be 3d3b c95d 4abd 3063 473b
000002d0: 519e b0bc 4874 613d 6a81 053d 8b9f f73b
000002e0: 5915 ae3c df60 29bd ca34 833d 41f7 2abb
000002f0: 89ce e03b 2086 923d 8c4a 983c e3e2 6a3d
00000300: fb11 07bc 1712 6abd 1e32 d8bc 8873 d83c
00000310: 9045 85bc 8979 ccbc df27 0abd 1a3a 6c3d
00000320: 2a05 8c3d 0e9a e13c f985 803d 0c78 56bb
00000330: e96d 91bd f954 373d 5564 643d 1820 1b3c
00000340: a6ff 8cbc 48b0 ab3c 6990 883c 132a 6f3d
00000350: 1c71 e13b 74ff bdbc 9441 2d3d 2e7a 7bbd
00000360: f4f8 50bd b138 39bd 0b2d 683d a7bd 0b3d
00000370: 359a 483b ed0a 11bd 68ef 2b3d 1c58 aebc
00000380: e759 1e3d 1661 56bd 3b93 093d 3018 503d
00000390: d592 68bd ea38 c3bc 7414 d43c 49a3 82bd
000003a0: e858 88bd 141f 7abd bdc2 48bd 150e 253d
000003b0: e5e3 8abd ca78 b3bc 005f 45bb 9647 6abd
000003c0: c1fc 1c3d bf60 c0bb 92d2 aebc 586c 693d
000003d0: c03e 48bd fd29 993c 9c1b fd3c e328 4c3d
000003e0: 8bcb 1ebd 46a3 4a3b 0a48 1cbd d6fb 63bd
000003f0: 17b4 6abc 902b 3dbc d6ce 5ebc d8b2 203d
0.03279051 -0.014861709 -0.03883171 -0.044716235 0.051150512 0.069743454 -0.04516305 0.02754038
0.06327285 -0.030824134 0.037798595 -0.04573549 -0.017899808 -0.064194046 -0.063534014 -0.010498378
0.06144013 -0.02621288 0.013435089 0.06253222 0.049249586 0.043115318 -0.03192463 0.016436635
-0.021399744 -0.052021906 -0.041328136 -0.02816389 -0.059506875 0.06946128 0.059628703 0.03468445
-0.067173906 -0.01500822 -0.030726178 0.054987855 -0.0017294812 0.053534754 0.048770748 0.019818516
-0.054743446 -0.031242898 0.029722542 -0.062238872 -0.05939767 -0.019823095 -0.06921694 0.016018026
-0.0047584567 0.055766195 -0.052489333 -0.026353557 0.01958168 0.011124892 -0.058424212 0.037685316
0.034843184 -0.0019374716 -0.016517546 -0.050956003 0.0073755356 -0.044585228 -0.066041045 -0.06847057
-0.06377436 -0.07025881 -0.01235469 0.028450929 0.06617916 0.060587775 0.015063541 0.008048154
0.06379154 -0.0076948567 0.023795377 0.028308911 -0.03866438 -0.04156996 0.05256429 0.010854825
0.02000802 -0.0642069 0.061320506 0.045367744 -0.05039537 -0.057047457 -0.06956071 -0.07034954
0.04450268 -0.0546552 0.025069198 0.019371498 -0.063953705 -0.007343807 0.011162424 0.0265505
0.056153946 0.052303344 0.05717929 -0.0014638172 -0.06918902 0.02883101 0.030752352 -0.060802404
0.017676018 0.046237327 -0.021360178 -0.05985758 0.06483646 -0.044972606 -0.05175274 0.055982616
0.043666076 -0.018764725 -0.061986648 0.014074988 0.047009863 -0.014855347 0.049296215 0.046568815
0.035227902 0.07226872 -0.044397745 0.0017454367 -0.032685697 -0.0017355006 -0.024782024 -0.043841876
0.0004523977 0.027435604 0.03411644 -0.0701976 -0.037896436 0.035668783 -0.06405053 -0.036176894
0.026650243 0.024329556 -0.023067685 -0.059144236 0.06976458 0.054459117 -0.060757156 -0.06401134
-0.03625167 -0.017167265 -0.01663716 0.016310776 -0.05363795 0.058295377 0.06677682 -0.019932276
0.035313588 0.010154209 -0.0051615373 -0.038560934 0.004789659 0.048062325 0.008964982 0.0040082633
0.046337005 0.041654967 -0.06653295 0.027207447 -0.06057888 -0.06517585 -0.022467196 0.06552223
0.0068060406 -0.034115724 0.02645364 -0.04749987 0.015844833 -0.041430842 0.056584816 0.04839794
0.057511684 0.002895252 -0.049405847 0.003042411 -0.021559866 0.055042535 0.032594122 0.007556861
0.021250414 -0.04135215 0.06406553 -0.0026087316 0.0068605584 0.071544886 0.018590234 0.057345282
-0.008244033 -0.057146158 -0.026391085 0.026422277 -0.016268522 -0.024960296 -0.03372943 0.057672597
0.068369225 0.02753928 0.06275553 -0.0032725362 -0.07101042 0.04475877 0.055759747 0.009468101
-0.017211746 0.02095808 0.016670423 0.058389734 0.0068799388 -0.023193099 0.04229887 -0.061395817
-0.05101867 -0.04522008 0.05668358 0.034116413 0.0030609493 -0.03541081 0.041976362 -0.021282248
0.038659956 -0.052338682 0.033587676 0.050804317 -0.056780655 -0.02383085 0.025888659 -0.063788004
-0.066575825 -0.061064795 -0.049013842 0.040296633 -0.06781749 -0.021908183 -0.003011644 -0.057197176
0.038326982 -0.005870908 -0.021340642 0.05698809 -0.048887968 0.01869678 0.030896954 0.04984368
-0.038768332 0.0030920072 -0.03815464 -0.05566009 -0.014325163 -0.011546031 -0.013599118 0.03923306

module.model.1.model.0.bias f4 [64]
00000000: 2247 ac3a 5a3e 663a be73 733a bca4 4f3a
00000010: 5da9 4b3a c952 a13a b2df 923a 58b8 623a
00000020: a637 8c3a 175a 803a 1e10 4f3a f5e0 993a
00000030: fb96 843a 296d 483a bf73 763a b665 a03a
00000040: 249a 833a 8d44 743a e4e1 563a 8412 673a
00000050: 49ae ac3a a993 a63a 7efd 8e3a 63cd 803a
00000060: fb86 833a 4160 b63a b889 9b3a c8ca 8a3a
00000070: 0fcf 8c3a 4e01 763a 08eb 7c3a 7e71 6e3a
00000080: 5d16 793a f461 8c3a 9d2f 973a 05bf 623a
00000090: 37f6 923a 5595 863a a7a5 a73a 248f 8f3a
000000a0: 3731 683a 4226 993a 1a12 9a3a 94ff 833a
000000b0: 46a0 423a 8e90 873a dea9 7f3a 98cd 8f3a
000000c0: 12ab a53a e678 843a d419 a13a de65 9e3a
000000d0: 7692 873a 861b 953a 0a86 853a 6c93 9e3a
000000e0: 50b4 3b3a 9d69 5b3a fa25 7e3a 3a97 3c3a
000000f0: 8079 be3a 3534 923a 7ea5 053a 0f0a 003a
0.0013143758 0.0008783095 0.0009286961 0.00079209707 0.00077690725 0.0012307997 0.0011205582 0.0008648685
0.0010697737 0.0009792474 0.0007898825 0.0011740016 0.0010115796 0.00076456607 0.0009401403 0.0012237343
0.0010040444 0.0009318076 0.00081971125 0.000881471 0.00131745 0.0012708801 0.0010909287 0.0009826835
0.0010034734 0.0013914184 0.0011866605 0.0010588998 0.0010742861 0.00093843497 0.00096480595 0.0009095891
0.00095019286 0.0010710345 0.0011534576 0.000864968 0.0011212294 0.0010267893 0.0012790457 0.0010952693
0.0008857431 0.0011684375 0.0011754662 0.0010070675 0.00074243953 0.0010342763 0.000975279 0.0010971306
0.0012639484 0.0010106831 0.0012291023 0.0012084802 0.0010343331 0.0011376 0.0010187041 0.0012098379
0.00071603525 0.00083699246 0.000969499 0.00071941654 0.001453206 0.0011154475 0.00050982076 0.00048843113

module.model.1.model.1.weight f4 [64]
00000000: 0fdd 7f3f 4e2c 803f a620 803f 3ae7 7f3f
00000010: 272c 803f 81d7 7f3f 9219 803f 8609 803f
00000020: b618 803f bf01 803f 5e0a 803f 38ba 7f3f
00000030: a411 803f 6401 803f ae0b 803f 8020 803f
00000040: 2b23 803f 14d6 7f3f 6a20 803f 44fb 7f3f
00000050: 65fa 7f3f a2c2 7f3f eec5 7f3f 44de 7f3f
00000060: 4a1c 803f 63d4 7f3f 70d8 7f3f e013 803f
00000070: 7ab2 7f3f 6bf3 7f3f abaf 7f3f f3b1 7f3f
00000080: 53a8 7f3f 1d9c 7f3f b6cc 7f3f 3cf3 7f3f
00000090: 08f8 7f3f d309 803f 6a05 803f 4ad7 7f3f
000000a0: a508 803f 241f 803f f528 803f f2ac 7f3f
000000b0: 0113 803f aadd 7f3f 5204 803f f00a 803f
000000c0: 7103 803f b9c9 7f3f 01be 7f3f 23cb 7f3f
000000d0: 9c13 803f b908 803f 16d2 7f3f 7117 803f
000000e0: ff25 803f 35c3 7f3f 4a13 803f 6dfb 7f3f
000000f0: 8cc8 7f3f 41dd 7f3f 992a 803f c127 803f
0.99946684 1.0013521 1.0009964 0.999622 1.0013474 0.9993821 1.0007803 1.0002906
1.0007541 1.0000533 1.0003164 0.9989352 1.0005383 1.0000424 1.0003564 1.0009918
1.0010732 0.9993603 1.0009892 0.99992776 0.99991447 0.9990636 0.9991139 0.99948525
1.0008633 0.9993345 0.9993963 1.0006065 0.9988171 0.999808 0.99877423 0.99880904
0.9986622 0.99847585 0.9992174 0.9998052 0.9998784 1.0002998 1.0001652 0.9993788
1.0002638 1.0009503 1.0012499 0.9987327 1.00058 0.9994761 1.0001318 1.0003338
1.000105 0.9991718 0.998993 0.9991934 1.0005984 1.0002662 0.9992994 1.0007154
1.0011595 0.9990724 1.0005887 0.9999302 0.99915385 0.9994698 1.0013 1.0012132

module.model.1.model.1.bias f4 [64]
00000000: 64cd 0f39 3142 b73a 99bb 583a 781e 22ba
00000010: 33a4 c739 0458 0139 5143 473a 9f61 26b9
00000020: 9089 343a e44c 62ba 7eba 323a 33df 88ba
00000030: 3fac b739 aab7 eb38 cf1c e339 0628 c737
00000040: ec18 843a 7a9f 5b39 d569 7839 94f5 d437
00000050: 3e6b 94ba 169c 93ba 9763 b6ba ae53 ccb9
00000060: 9469 703a 3bcf 1bba fd63 1cba dc4f 78ba
00000070: e84e a4ba 5e83 64b9 27e8 38ba 6060 6aba
00000080: 80c5 3dba 0960 59ba 9661 e9b9 f10e 27ba
00000090: 1224 28ba 8ce3 3dba ea04 abba 6287 4bba
000000a0: 10fb fd39 fb6e 583a 12b2 87b9 bafd 96ba
000000b0: 4cd9 aa39 78c9 76b9 d1d6 fb39 89b7 7e39
000000c0: 0b37 6bba 5a13 8bba e1f8 88ba 1f10 d539
000000d0: f71d cd39 c8fa 2d39 c17d 0fba ea70 24ba
000000e0: 4d4f d039 7900 f4b9 0443 243a daea 8f3a
000000f0: 6ed2 74ba b854 15ba 422c cb3a 8365 a43a
0.00013714057 0.0013981519 0.00082677003 -0.000618435 0.00038078576 0.00012335187 0.00076012785 -0.0001586736
0.00068869535 -0.00086326734 0.00068179506 -0.0010442495 0.00035032813 0.00011239883 0.00043318278 2.3741286e-05
0.0010078228 0.00020944877 0.00023690549 2.5386726e-05 -0.0011323465 -0.0011261727 -0.0013915178 -0.00038972258
0.0009171006 -0.00059436605 -0.0005965827 -0.0009472349 -0.0012535723 -0.00021792713 -0.00070536364 -0.00089407526
-0.00072392076 -0.00082922034 -0.0004451393 -0.0006372771 -0.00064140663 -0.0007243685 -0.0013047729 -0.0007764009
0.00048442977 0.00082562835 -0.0002588188 -0.0011519708 0.00032586826 -0.00023535441 0.000480345 0.000242917
-0.00089727406 -0.0010610626 -0.0010450148 0.00040638537 0.00039122973 0.00016591989 -0.0005473756 -0.0006272929
0.00039731935 -0.0004653966 0.00062660896 0.0010980025 -0.0009339218 -0.0005696523 0.0015500861 0.001254246

module.model.1.model.1.running_mean f4 [64]
00000000: 6028 d4b8 856a 573a 02d9 003b 4db3 bab9
00000010: 3a1a b7b9 e73f a53a 549a 513b 6ad6 273a
00000020: f90c 2cba 7cf3 403b f092 283a 0baf 053b
00000030: 8883 9fb8 7320 b83a 02c1 b73a 1133 0b3b
00000040: 3890 023a 1fc3 523a 610d 1f3a 6ed8 2d3a
00000050: 4044 76ba 8a38 0b3b a9d3 5db9 2059 263b
00000060: cd2d 49ba 6957 173b 41c8 b53a 8655 f73a
00000070: 52bc 303a d9bf b3b9 62b7 4f3b 582d 043b
00000080: 1518 acb9 f8d6 d239 159f d939 8e68 323a
00000090: 7322 873a e496 3eba 4630 063b e19e 5a3a
000000a0: 555d 1e3a 6136 0eb9 cc58 263b 46de 703a
000000b0: 1472 b53a cb12 413a 8c81 57ba 41b0 0f3a
000000c0: 171a cbb9 bd05 7e3a 43a8 3d3b 6671 ac3a
000000d0: 01c7 8c3a db34 883a 4f9b f53a 33a9 97b9
000000e0: b3cf 2e3a 17a7 1a3b c538 f23a 84f2 9f3a
000000f0: 3cf8 493a 136d 413b 43de 5e3a 4544 06b9
-0.00010116468 0.0008217472 0.0019660597 -0.00035610274 -0.0003492402 0.0012607545 0.0031982856 0.00064024946
-0.00065632124 0.0029442003 0.0006430587 0.0020398523 -7.6062104e-05 0.0014047757 0.0014019313 0.0021240155
0.0004980597 0.00080399396 0.0006067362 0.0006631677 -0.00093943253 0.0021243417 -0.00021155052 0.0025382712
-0.00076743664 0.0023092872 0.0013868884 0.0018870092 0.0006741929 -0.00034284478 0.0031694998 0.0020168629
-0.0003282434 0.00040214485 0.0004150799 0.0006805741 0.0010309949 -0.0007270409 0.002047555 0.0008339715
0.0006041129 -0.00013562433 0.0025382517 0.0009188395 0.0013843202 0.0007365166 -0.0008220903 0.0005481281
-0.00038738616 0.0009690186 0.0028939403 0.0013156354 0.001074046 0.0010391729 0.0018738302 -0.00028927028
0.0006668523 0.0023598128 0.0018480053 0.0012203013 0.00077045313 0.0029514476 0.00085017475 -0.00012804668

module.model.1.model.1.running_var f4 [64]
00000000: 79c6 643a 4276 853a 7ba3 7d39 e067 1039
00000010: 9a34 8e39 f024 e138 2d9f 013a 24a0 8339
00000020: 016f f039 92e1 9f38 8f3f 163a 398d cb36
00000030: d9ad 1b39 c23e 5336 28a4 2739 f82b 7536
00000040: 939e 4a3a 6d32 dd37 6d10 b539 45da da38
00000050: d39e 8737 08a0 1337 56de 2739 e697 2038
00000060: eaac 2b3a d1e1 f537 a537 5939 46e4 f238
00000070: 55ff 2f37 d284 f038 d809 9939 8780 8436
00000080: 2c06 2336 0a49 713a 8360 bd37 d356 473a
00000090: 7c40 2f3a a538 4b3a 42e3 a43a 3702 2e38
000000a0: 6863 a839 5bb4 7938 efaa 7938 90e6 e837
000000b0: 6e79 4239 c3a3 5138 2c83 e738 60bc d039
000000c0: a9eb ed39 f4c0 e037 8da9 4a39 8f38 7a37
000000d0: c80b f53a 18b9 fb38 e3d2 9d39 c10e 2a39
000000e0: 7e1a 3738 c166 4138 e8fb 013a 4599 5139
000000f0: cae2 9339 db55 053a fb39 f039 9afd 2f39
0.00087270845 0.0010182338 0.00024188861 0.00013771607 0.00027123542 0.00010735716 0.00049446785 0.0002510558
0.00045859072 7.6237266e-05 0.0005731517 6.066312e-06 0.00014846715 3.147798e-06 0.00015987514 3.6533438e-06
0.0007729318 2.6368734e-05 0.00034535248 0.00010435706 1.6167212e-05 8.799143e-06 0.00016009188 3.828844e-05
0.00065488985 2.931143e-05 0.00020715462 0.000115819785 1.0490262e-05 0.000114688315 0.00029189768 3.948869e-06
2.4292485e-06 0.0009204304 2.2575497e-05 0.00076041854 0.0006685329 0.0007752276 0.0012579935 4.1486895e-05
0.0003211752 5.9534195e-05 5.952542e-05 2.776392e-05 0.00018546518 4.9981998e-05 0.00011039371 0.00039813202
0.00045379743 2.6792732e-05 0.00019327384 1.491433e-05 0.0018695528 0.00012003089 0.00030102496 0.0001621796
4.3655273e-05 4.6110483e-05 0.00049584964 0.0001998889 0.00028206996 0.0005086341 0.00045819566 0.00016783774

module.model.1.model.3.weight f4 [64, 64, 3, 3]
00000000: 61fa 83bd 8f2f 303d 1d09 ea3c 85b1 5cbb
00000010: fe27 353d 2877 673d a66c 79bc cd57 a2bc
00000020: e1fb 1c3d 16e2 0fbd 08d5 403d f7d3 6c3d
00000030: 6e9c 613d 9856 6c3c 1693 d4bc 8d72 693c
00000040: 4dab e6bc 5a08 823d 8bf4 4e3c d549 81bd
00000050: a3b9 0cbd 7f7f 62bd b898 61bb 0d9f 7e3d
00000060: 60f4 53bd 4dd9 f9bc 21cc 583d cac9 94bd
00000070: c7ae 3d3c 63af b4bc d30f 60bd 1c49 073d
00000080: 07fe 3fbb 8171 aebc 4dd3 40bd 1168 b2bc
00000090: 7fa8 b8bc f396 fbbc 1da2 703d 143f 333d
000000a0: aeb6 71bd 5a12 b93c 93b5 89bc 73d4 5a3b
000000b0: 8bd8 623d b758 4dbd 5838 6bbd 45b8 a13b
000000c0: ebe0 72bd 4473 bfbc 562a fd3c 4506 df3c
000000d0: 4b33 58bd 0a15 943d 28b1 9dbb 62fd 5d3c
000000e0: 18dc 4bbc b52a 03bc befd 433d 79a8 99ba
000000f0: aa74 113d e0a9 4c3d b941 7aba 59f4 12bd
00000100: b3d5 8ebd 5598 4fbd 90af 89bd a259 463d
00000110: a132 8fbd 59ac 8f3d 2b19 093d 752d 02bd
00000120: d346 6e3d c008 933c 40f2 3bbc 4a09 603c
00000130: 40f0 35bd 96d5 5b3c 0b05 dbba 17e4 83bd
00000140: 5b9c ff3c 333b 9ebc 9918 2dbd f386 87bd
00000150: 246d 733d a68e a5bc 3861 2dbd 2b47 213d
00000160: 2e6a 43bc d149 80bd ebb0 32bc 8942 753c
00000170: 5152 3ebd 29ec 0a3d 347f 51bd e360 56bd
00000180: 4a5b 4b3d e28e c53c 24a0 60bd e6d8 8d3d
00000190: 4064 0bbd b111 333c 6635 6cbd eae6 2d3d
000001a0: 0ff1 86bd 4075 3cbd 95a1 f53c 3e54 ba3c
000001b0: 2385 6fbd 1feb be3c c6b7 863d ca23 50bd
000001c0: 30b8 39bc 84b1 923d 9f80 60bd 647b e5bb
000001d0: ef05 88bd 50fe 6a3d a984 48bd 7dd5 463d
000001e0: aafc 21bd a111 fabc f865 8c3d 6f49 6d3d
000001f0: 045e 54bd 7c16 92bd 3ec2 5a3d 7b39 b2bc
00000200: dc5d c43c 7874 6fbb 0f5e 983c ff33 3fbd
00000210: 5b20 98bc d2c1 5ebd 3105 0a3d 3aa6 87bd
00000220: e1e0 dbb9 f3d7 d2bc f592 813d 48a6 18bd
00000230: 6593 8fbd cc61 b53c 92aa 133b 0b4f 48bd
00000240: ffa6 49bd be5a 4f3d 07b5 36bd eacd 80bd
00000250: 777c 083d 5eb9 a03c dd10 e33c 2d5f 203d
00000260: d426 363c beb2 91bb 38c8 15bd c69e 4ebd
00000270: 3119 7f3c 086e 6e3d ce80 85bd a0c6 3b3d
00000280: 01fd 62bd 3fba 303b 0f57 4dbd 93b7 f63c
00000290: 4a36 51bb 0ba1 debc 6efd 74bd 8b3a acbc
000002a0: 141e 943d 641f 823d 3d46 993c 1b2c 963d
000002b0: 9d9d 8bbd 699a 113b 0596 06bd c00c 5d3d
000002c0: 4c21 1bbd a164 66bd 8355 8abd 826f d5bc
000002d0: 5ce8 c4ba f15b 1cbd 2fc2 72bd 534c 6abd
000002e0: a88c 38bd 5c1b 32bd 8f4f 5d3d 702c 9d3c
000002f0: 04b7 87bd 976a ff3c d5c0 30bd 0934 20bd
00000300: 312f 74bc 9204 83bc df9d 8bbc 0bc4 53bd
00000310: f878 0bbd e3ca 59bd f952 41bb 54c9 0d3d
00000320: 1723 91bd a9f5 443d a779 8d3d d382 c53c
00000330: de87 953c 63d0 c63c 5b05 38bd afe0 0e3d
00000340: 3491 7a3d a76c 66bd 0961 84bd 9900 623d
00000350: 81a5 8a3d b2a2 76bd e81e 393d 7e87 1dbc
00000360: 81cb 64bd 47e0 923d 3653 21bd 98f5 5d3c
00000370: a0b6 833d ef30 e93c f13a dc3a 9bb1 3c3d
00000380: 66c3 14bd 1520 773d af28 d5bc 7ca0 5bbd
00000390: 033f f7bb 2b52 973b f628 3dbb f100 693d
000003a0: 2459 f1bc e4f1 78bd 90e2 60bd 37cd e83c
000003b0: fb70 103b 90d5 f4ba d49d 763d eca7 f33c
000003c0: 093b 623d 0f33 783c d4b5 2cbd fc0a 103c
000003d0: 0673 e1bc f81a 9e3c 8595 823d 3364 9bbc
000003e0: 6dfe 683c 38e3 08bc e641 8b3d a70a 843d
000003f0: d1b1 663d d50d f53c 19b2 88bd d2d9 563d
-0.0644424 0.043014105 0.028568799 -0.0033675146 0.044227593 0.05651012 -0.015223658 -0.019817257
0.038326148 -0.03512772 0.047078162 0.057819333 0.055080824 0.014424942 -0.025949042 0.014248502
-0.028157854 0.06349249 0.012631546 -0.063129105 -0.034356724 -0.05529737 -0.0034423303 0.0621634
-0.051746726 -0.030499125 0.052929047 -0.07265051 0.011577315 -0.022056287 -0.05470259 0.033028707
-0.00292957 -0.021294357 -0.047076512 -0.021778138 -0.022541283 -0.030711627 0.058748353 0.043761328
-0.059012108 0.022591759 -0.016810214 0.003339079 0.055382293 -0.050133433 -0.05742678 0.0049352967
-0.05929653 -0.023370393 0.030903976 0.02722467 -0.05278329 0.072305754 -0.0048123784 0.013549181
-0.012442611 -0.008005788 0.04784941 -0.0011723182 0.03551165 0.049966693 -0.00095465366 -0.03587756
-0.06974354 -0.050682385 -0.06722939 0.048425324 -0.069920786 0.070152946 0.033471268 -0.031781632
0.058173012 0.017948508 -0.011471331 0.01367409 -0.044418573 0.013417622 -0.0016709877 -0.06439989
0.031202486 -0.019315338 -0.042259786 -0.066175364 0.059430256 -0.020209622 -0.042329043 0.03937451
-0.011927171 -0.06264079 -0.010906438 0.0149694765 -0.04646522 0.033916626 -0.0511467 -0.052338492
0.049647607 0.024115983 -0.054840222 0.06926136 -0.034031153 0.010929511 -0.057668112 0.042456545
-0.06588947 -0.046010256 0.029984275 0.022745248 -0.05847658 0.023305474 0.06578021 -0.05081538
-0.011335418 0.07162765 -0.054810163 -0.0070032347 -0.06641757 0.057371438 -0.04895464 0.048543442
-0.0395476 -0.030525984 0.068553865 0.05793136 -0.051847473 -0.07133195 0.0534079 -0.021755924
0.023970537 -0.0036537927 0.018599538 -0.046680447 -0.018570116 -0.05438406 0.033696357 -0.06623502
-0.00041938483 -0.025737738 0.06326858 -0.037267953 -0.07010535 0.02214136 0.0022532088 -0.048903506
-0.049231526 0.050623648 -0.044606235 -0.06289275 0.033321824 0.01961964 0.027718002 0.039153267
0.011117656 -0.0044463566 -0.036567897 -0.050444387 0.015569971 0.058210403 -0.06518708 0.04584372
-0.055417065 0.002696648 -0.050131854 0.030116832 -0.0031923228 -0.0271764 -0.059812002 -0.02102401
0.072322994 0.063536435 0.01871025 0.07332631 -0.06817172 0.002221728 -0.032857914 0.053967237
-0.03787355 -0.05624831 -0.06754591 -0.026054148 -0.0015022862 -0.03817362 -0.05926722 -0.057201695
-0.045056015 -0.043483123 0.05403095 0.019186229 -0.06626704 0.031178756 -0.04315265 -0.039112125
-0.014903829 -0.01599339 -0.017043052 -0.051700633 -0.03405091 -0.053172003 -0.0029498918 0.03461583
-0.07086771 0.048085842 0.06907969 0.024110233 0.018253263 0.024269288 -0.044926982 0.034882244
0.061173633 -0.056255963 -0.064638205 0.05517635 0.067698486 -0.060213752 0.04519549 -0.009614823
-0.05585814 0.07171684 -0.039385997 0.013547324 0.06431317 0.028465716 0.0016802234 0.046067815
-0.03631916 0.06033333 -0.026020376 -0.053619847 -0.0075453534 0.0046179495 -0.0028863526 0.056885663
-0.02946145 -0.06077756 -0.054903567 0.028418167 0.0022039998 -0.0018679369 0.06020911 0.029743157
0.05523208 0.015148892 -0.042165592 0.008791681 -0.027520668 0.01929997 0.06376175 -0.018968677
0.014220816 -0.008354954 0.067996785 0.06447344 0.056321923 0.029913822 -0.066745944 0.052453823

module.model.1.model.3.bias f4 [64]
00000000: 5ef1 683a 14dc 8e3a 0a25 843a 57e6 843a
00000010: b69b 843a 9c64 833a 94a8 b33a 68bd 903a
00000020: 8c05 873a 6f80 823a b76d 853a dcac a73a
00000030: d6f1 7e3a 7d40 7c3a da0d 893a f2ba 6f3a
00000040: 359f 823a fbef 633a 7fb7 783a d211 843a
00000050: fb37 583a d118 893a 84f4 763a b956 823a
00000060: 228c 8c3a 2054 703a 19b3 883a d466 823a
00000070: 55db 893a d1af 943a 2ec6 8c3a b803 7f3a
00000080: 3ef8 843a c525 923a a4f6 aa3a 43ff a03a
00000090: ccf1 713a c1fa 7c3a f5c2 823a a4a6 653a
000000a0: f10b 803a 5f0d 973a 6b7b 753a 4236 8f3a
000000b0: cc52 693a 5d69 913a ee12 7f3a 438e 803a
000000c0: 9a6d 843a e7c8 713a 94ca 833a 400f 693a
000000d0: 381a a23a 6c5f 7a3a 86df 593a 15bc 7a3a
000000e0: 7dae 8a3a 2e8a 8c3a 60b7 593a 51be 8f3a
000000f0: cc02 863a c34f 8a3a cad5 903a b3d8 8a3a
0.0008886064 0.0010899329 0.0010081839 0.0010139447 0.0010117206 0.0010024491 0.0013706856 0.0011042776
0.0010301336 0.0009956489 0.0010179792 0.0012792605 0.00097253674 0.00096226466 0.0010456399 0.00091449835
0.000996566 0.00086951227 0.0009487792 0.0010076112 0.0008248088 0.0010459666 0.0009420591 0.0009944058
0.0010722915 0.0009167809 0.0010429352 0.0009948858 0.0010517637 0.0011343901 0.0010740214 0.0009728032
0.0010144783 0.0011150172 0.0013043475 0.0012283105 0.0009229451 0.00096504024 0.0009976315 0.0008760488
0.0009769184 0.0011524371 0.0009364399 0.0010926204 0.00089005823 0.0011094023 0.0009730299 0.0009808022
0.0010103465 0.0009223357 0.001005488 0.0008890517 0.0012367433 0.0009550962 0.00083112007 0.00095647696
0.0010580566 0.0010722333 0.0008305218 0.0010966753 0.0010224222 0.0010552335 0.0011050042 0.0010593146

module.model.1.model.4.weight f4 [64]
00000000: fa1f 803f e3b5 7f3f 869b 7f3f 43c2 7f3f
00000010: 280a 803f 47fa 7f3f 2696 7f3f 81a7 7f3f
00000020: c021 803f 022e 803f 4ca8 7f3f 6599 7f3f
00000030: 7126 803f cc23 803f c7a8 7f3f d92f 803f
00000040: ec33 803f c134 803f 01ab 7f3f 78e8 7f3f
00000050: 9f2d 803f 11c4 7f3f a32c 803f 341e 803f
00000060: e4a6 7f3f e234 803f faaa 7f3f 5526 803f
00000070: ab0e 803f c497 7f3f 2194 7f3f 71dc 7f3f
00000080: 9a9c 7f3f 6cbc 7f3f 1b9c 7f3f 99a2 7f3f
00000090: df21 803f 2821 803f 7631 803f a425 803f
000000a0: 1226 803f 3c9c 7f3f bc26 803f 35c9 7f3f
000000b0: f02b 803f 709a 7f3f 2333 803f 9f25 803f
000000c0: 8725 803f 7e24 803f abaa 7f3f 1e34 803f
000000d0: 4098 7f3f 7f2f 803f cd30 803f 05bf 7f3f
000000e0: 53c8 7f3f 6a99 7f3f fe33 803f c496 7f3f
000000f0: 07c1 7f3f 551c 803f 4699 7f3f 35b0 7f3f
1.0009758 0.9988691 0.99846685 0.99905795 1.00031 0.9999127 0.99838483 0.99864966
1.00103 1.001404 0.99866176 0.99843436 1.0011731 1.0010924 0.9986691 1.0014602
1.0015845 1.0016099 0.99870306 0.99964094 1.0013922 0.9990855 1.0013622 1.0009217
0.9986403 1.0016139 0.99870265 1.0011698 1.0004476 0.9984095 0.998354 0.9994574
0.9984833 0.99896884 0.99847573 0.9985748 1.0010337 1.0010118 1.0015094 1.0011487
1.0011618 0.9984777 1.0011821 0.9991639 1.0013409 0.9984503 1.0015606 1.0011481
1.0011452 1.0011137 0.99869794 1.0015905 0.9984169 1.0014495 1.0014893 0.9990085
0.99915045 0.99843466 1.0015867 0.99839425 0.9990391 1.0008646 0.9984325 0.99878246

module.model.1.model.4.bias f4 [64]
00000000: c3c1 d73a edbb b5ba 93cb c3ba 3a2d c6b9
00000010: c624 eeb9 36c9 e5b9 1d2c d5ba 4121 d1ba
00000020: 7458 833a a7a8 d23a 6ee3 beba 8fe8 d0ba
00000030: 5db5 ac3a 9a94 3f3a 899e d5ba ef6e d03a
00000040: 66e4 d43a aed8 d63a 4305 b6ba 1eec a3ba
00000050: 2b89 c63a 3954 90ba 3d4a d43a aa95 923a
00000060: 57e2 d2ba 6016 d23a 76fe b4ba 0cdf b33a
00000070: 18fc 86b8 92ae d0ba 0002 d7ba 5ba5 a5ba
00000080: dee5 ceba 89a5 b6ba 3c44 cdba 57d9 c7ba
00000090: a9d8 c53a 8c40 ca3a 0c1e c83a c6fd aa3a
000000a0: 76dd ee39 a226 d0ba a0a8 d13a 6aec 89ba
000000b0: d338 c43a 9106 cbba fd6e d53a 2313 aa3a
000000c0: 05df cb3a bcb7 9e3a a412 d6ba d9a8 d63a
000000d0: 75b9 cfba 7a9b ce3a 672c cb3a 0669 bdba
000000e0: 39dd 27ba 459d ceba 4242 d63a 43a6 d5ba
000000f0: 6dcb 8fba 78ff 9db9 16bb d5ba 8b65 abba
0.0016460944 -0.001386521 -0.0014937989 -0.000377992 -0.00045422296 -0.00043828198 -0.0016263757 -0.0015955345
0.0010020868 0.0016071991 -0.0014563629 -0.0015938448 0.0013176609 0.0007308215 -0.0016297858 0.0015902201
0.0016242384 0.001639148 -0.0013887066 -0.0012506281 0.001514708 -0.0011011428 0.0016196441 0.0011183519
-0.0016089183 0.0016028397 -0.0013808745 0.0013723089 -6.436574e-05 -0.0015921167 -0.0016403794 -0.0012637781
-0.0015785058 -0.0013934831 -0.0015660594 -0.0015247267 0.0015094477 0.0015430613 0.0015267744 0.0013045601
0.000455599 -0.0015880654 0.0015995689 -0.0010522727 0.0014970548 -0.0015489628 0.0016283687 0.0012975674
0.0015554136 0.00121092 -0.001633246 0.0016377225 -0.0015848117 0.0015762888 0.0015500904 -0.0014450855
-0.0006403509 -0.0015763423 0.0016346651 -0.001630016 -0.001097066 -0.00030135713 -0.0016306366 -0.0013076527

module.model.1.model.4.running_mean f4 [64]
00000000: 6a47 81be 492f 0e3f 0535 57be 6067 2e3d
00000010: 52e4 273c a274 77bd 16df 31be dd51 5c3c
00000020: 1d98 143f 039d 4b3f 2883 bbbd 565d dbbe
00000030: dd91 cd3e 7bde ad3e d321 c53e e34b bd3d
00000040: 8bdb 0abf 82e7 df3d 345b 973e e26a dbbe
00000050: 8f6b 19be 5bce 08bf d30e 8e3d 7a83 bf3c
00000060: 9b61 21be 5225 69bf 4003 593d ce4c ac3e
00000070: 3846 2cbf 1801 bbbd 1b32 36be e367 113e
00000080: 87dc 873e 1a5e 193e 2ac4 e6be eefc 31bd
00000090: 285a b1be 6deb 6a3e bc12 d2be 5406 233e
000000a0: f0ac e23e 1350 4d3e dd46 dcbd 1a84 7bbd
000000b0: ee30 bcbd 19b9 cdbe 93be 95be 1bd9 353e
000000c0: b914 d53e 6f3a 3d3e bed5 4e3f 6175 92be
000000d0: 02e2 463e 514a e63e ad81 9cbd f0e2 b53e
000000e0: ebff 93be a899 383f 3c3a e6ba aec4 af3e
000000f0: 1c60 b63e b4b4 2b3e 8059 b1be f4a6 afbd
-0.25249797 0.555409 -0.21016319 0.042579055 0.010247307 -0.060413964 -0.17370257 0.013447252
0.58044606 0.79536456 -0.091558754 -0.42844647 0.40150347 0.33958802 0.38502368 0.0924299
-0.54241246 0.109328285 0.2956177 -0.42854983 -0.14982437 -0.53439873 0.06936421 0.023378123
-0.1575989 -0.9107257 0.052981615 0.33652347 -0.67294645 -0.09131068 -0.17792551 0.14199786
0.26535437 0.14977303 -0.45071536 -0.043454103 -0.34639096 0.2294137 -0.41029918 0.15920383
0.44272566 0.20050077 -0.107557036 -0.06140528 -0.0918902 -0.4018028 -0.2924696 0.177586
0.41617373 0.18479322 0.80794895 -0.28605178 0.19422153 0.44978574 -0.07641921 0.35524702
-0.28906187 0.7210946 -0.0017564963 0.34329742 0.356202 0.16768152 -0.34638596 -0.08576766

module.model.1.model.4.running_var f4 [64]
00000000: 5399 f83e 4e7c 1f3e fd59 8e3f ba66 f23e
00000010: 5c5a 3b40 5a24 8e3d 7d91 243e a88b 0d3e
00000020: 4960 313e 756d 193f 234b 5a3d ffc0 a73e
00000030: 576f 523e c692 2b3f e632 a73d 0fc8 a43d
00000040: a0c4 b03f 1362 6d3e 8be2 a93d cf37 003f
00000050: e4a2 a53d 29a7 553f d625 aa3c b55f ae3e
00000060: 5410 803f 8734 913e ea38 c33f 95cc 8b3e
00000070: 1dd0 5f3e c87e 9f3e 7d57 293e 1414 743e
00000080: 8e40 163e 0511 133f 77ba c63d 8b52 843d
00000090: 1f83 be3d bed7 693d d198 163f 3692 3c3e
000000a0: fb59 163e 4521 a93d b0dd 103e 4716 0d3e
000000b0: c42a 193f e7b3 9a3d 6898 a83f 98a3 d43d
000000c0: dbf4 a43f 5b43 0e3f 1fdf a23e 32e3 233f
000000d0: 358c d33d 5bc5 5e3e 28e9 353e e621 a83e
000000e0: 4cb1 743d af21 753e 4a1f 013f 2333 6f3f
000000f0: 62ee 0c3e 3270 323f 6dea 883d 51ba c73e
0.48554477 0.15574762 1.1121212 0.47344 2.92739 0.06940527 0.16071124 0.13822806
0.17321886 0.59932643 0.053294312 0.32764432 0.20550285 0.67020833 0.08164005 0.08045971
1.3810005 0.23181944 0.08295163 0.5008516 0.080877095 0.8345819 0.020769995 0.34057394
1.0004983 0.28360388 1.5251744 0.2730452 0.21856733 0.31151414 0.1653728 0.23835784
0.14673063 0.57447845 0.09703534 0.06461056 0.09302353 0.057090513 0.5882693 0.1841515
0.14682762 0.08258299 0.14147067 0.1377803 0.5983088 0.07553845 1.3171511 0.103827655
1.2887224 0.55571526 0.31810853 0.6401855 0.10329477 0.21754973 0.17764723 0.32838362
0.059739396 0.2393863 0.5043837 0.93437403 0.13762811 0.69702446 0.06685338 0.39009336

module.model.2.model.0.weight f4 [64, 64, 3, 3]
00000000: cee2 97bc af27 2dbd b0e1 7b3c 2c24 3a3c
00000010: 82f6 88bd ea49 333d 4297 163b 45b4 84bc
00000020: 7f6e 7e3b 4f90 f23a cc96 0dbc cb6f 94bb
00000030: 59bc 683d b636 8d3c 3a1e 43bb f69c 30bd
00000040: d8c3 7cbd fe32 4ebd 7665 783d 406a 4fbc
00000050: afbf 3e3d af4c e13c 6bbe 02bd 0d57 523d
00000060: ccf4 08bd 6b33 903c f45d 603d 1950 893c
00000070: dc7d 693d 0de1 1dbd 7eb6 b33b 0c26 18bd
00000080: fec2 c3bc 4e8b 0d3d 20b5 403d 4568 153d
00000090: 0911 25bd b1e1 7f3d 96bd 71bd 8e3e 92bd
000000a0: 4d0f 3f3d 9b93 61bd 59f6 513b 8797 20bd
000000b0: c522 813d d712 aebc e5e0 ad3c fe86 0a3b
000000c0: 6243 85bd b2e8 05bd afe6 153c aa63 57bd
000000d0: 30d9 a1bc 9d6a afbc 90a5 53bd 58d2 81bc
000000e0: f3f0 123d ba32 62bd b82c 0abd 66bd 37bc
000000f0: 8b56 863c 370d 1ebd d1ee ce3c 0e7f dcbc
00000100: bf3b 3ebd 09b7 d8bc fb0d 843b 2e72 8abd
00000110: 4947 1cbd a50c a2bc 6d9d fabb 74aa fbbc
00000120: 12b8 023d 9fa5 56bd 425a c43b 8fbd 663a
00000130: d23f 903d 6dd0 4e3d f387 3cbd b45b 04bd
00000140: 1d40 f0bb fc4b 1b3d 2132 3bbd ab60 86bd
00000150: b2c1 f13c 2257 41bd 6206 83bd a533 82bd
00000160: 4685 adbb 5035 893d db4a 583b b20e 68bd
00000170: fb03 803d aecd 683d 3411 c5bb 07cd a0bc
00000180: b038 debc 28e8 34bd d749 38bd 9b9a 3ebd
00000190: 6fd4 7a3d 96b5 6f3d cb2f 5d3d 71a7 2d3d
000001a0: 5f13 883d ffb4 583b b260 54bd f3b4 5f3c
000001b0: 88ee 7b3c 89e3 5a3c cff1 d9bb cbba 6f3d
000001c0: 03a0 5d3c fd6b 82bd 8599 6e3c d421 26bd
000001d0: b67b 3dbd 66a7 483d 90cd 7bbd 0a78 1dbc
000001e0: 40df a9bc 02bf 7938 6f3b 793d 6dae 9c3c
000001f0: 71f2 013d ced8 5ebd a033 fdbc 89a8 4bbd
00000200: b357 263c 0ef5 fa3c ecdc 35bd e582 0a3d
00000210: 1f29 db3a 8f7f 8ebd ec0e 84bd 7740 193c
00000220: 8e3d 3b3d 1b89 253b 606d 8d3d b20f 7d3d
00000230: bde3 64bd 735c 2dbd 8bed f43c 749a 2abd
00000240: ff60 6abd d985 fe3c 199e 90bd c1e9 a23c
00000250: 8a13 a1bb d9df 72bd b7d1 2f3d c212 6dbd
00000260: 5a4e 1a39 7fcd 133d e92a 893d dc09 3c3d
00000270: b2bb 6c3c f59d 10bd 1791 ecbc 4a73 603b
00000280: e13d 963c 18ce 07bd cdb0 123d ad19 0fbd
00000290: 2776 05bd 9c9b 3a3d 8134 803d 0c83 9abc
000002a0: 72f0 8c3c b3ae 5cbc 6274 113d 0424 6ebd
000002b0: 36bc 653c 8a98 fcbc fb20 8b3d fd67 843d
000002c0: ae8a 0fbd b7e1 0abd 878d 803d d0d8 63bd
000002d0: d6d1 93bd b0a2 84bd f109 8c3d 68c0 5bbd
000002e0: 255b 3bbd 63e5 7b3d 6c4e 173d 9073 3a3c
000002f0: 7875 8cbc 8705 f53c 4e97 693d 76da 033c
00000300: 004e f8bc 3aa2 d1ba 4184 2fbd 1df3 41bd
00000310: 79a7 273d 8850 633d d59b 05bd f05a debb
00000320: c778 a1bc ffff 53bd 03ad 94bc c442 78bd
00000330: 1d90 b83c 732c e53b 6c57 553c 15d3 3cbb
00000340: 6a1c 2ebb 5ede 3ebd 5aa2 c83c 8a01 ab3a
00000350: a96a 783c ae4e 343d c247 70bc e8f4 f23c
00000360: df8a 50bc 26ce 843d eb1d 503a 40ce 95bb
00000370: 2d72 1cbd b0ae f7bb 1ff5 703a e3bd 843d
00000380: 6d82 adbb ce8b ffbc 8700 11bd 20f8 e6bc
00000390: bd3b 243d 09ba a33b 7f83 4cbd ca9b 8f3d
000003a0: abdd 3bbd d405 0f3d f547 893d 5727 a1bc
000003b0: bd9b d93c 4949 f63c bca0 d23c a9ac 3c3d
000003c0: c2ca 2d3d 603b cf3c dec3 86bd 27b6 85bd
000003d0: 2f49 903d 7b22 26bd 41ef ae3c 826c 8a3d
000003e0: e7f6 d4bc 7c62 2a3d 7068 2c3d 4c8e 7e3d
000003f0: 2f59 15bd 2dd8 803c fca3 7c3d 0a92 5abd
-0.018540766 -0.042274173 0.015373632 0.011361163 -0.06687643 0.04377166 0.002297834 -0.01619924
0.0038823185 0.0018506142 -0.00864191 -0.0045299283 0.056820247 0.017238002 -0.0029772655 -0.04311844
-0.06171021 -0.0503416 0.060643636 -0.012659609 0.046569522 0.027502386 -0.031919878 0.05135255
-0.03343658 0.017602643 0.0547771 0.016761826 0.057004794 -0.038544703 0.0054844012 -0.03714566
-0.02389669 0.03455668 0.047047734 0.036476392 -0.04029945 0.062471095 -0.059018694 -0.071408376
0.04664545 -0.05507241 0.0032037704 -0.039207008 0.0630546 -0.021249218 0.021225402 0.002113759
-0.06506993 -0.03269262 0.009149238 -0.05258528 -0.019756883 -0.021413142 -0.051671565 -0.01584737
0.03587432 -0.055224158 -0.033734053 -0.01121459 0.016398689 -0.03858682 0.02526036 -0.026916053
-0.046443697 -0.026454465 0.004029987 -0.06760059 -0.03815392 -0.01978142 -0.007648161 -0.030720927
0.031913824 -0.052404042 0.005992205 0.000880205 0.07043423 0.05049174 -0.04602809 -0.032314017
-0.0073318616 0.03791426 -0.045702104 -0.06561407 0.029511306 -0.047202237 -0.06397702 -0.06357507
-0.0052954284 0.06699622 0.0033003602 -0.05665464 0.06250759 0.056836776 -0.0060140137 -0.019629015
-0.02712664 -0.044166714 -0.044992294 -0.046534162 0.06123775 0.058522783 0.054000657 0.042396013
0.0664432 0.0033066866 -0.05185003 0.0136539815 0.0153766945 0.013359913 -0.0066511403 0.05852775
0.013526919 -0.063682534 0.014562969 -0.040559605 -0.046260558 0.04898777 -0.061475337 -0.009611139
-0.020736337 5.9544116e-05 0.060847696 0.019126141 0.03172535 -0.05440598 -0.030908406 -0.049721275
0.010152745 0.03063443 -0.04440014 0.033816237 0.0016720629 -0.069579236 -0.064481586 0.0093537485
0.045713 0.0025258723 0.06905627 0.061782546 -0.05588125 -0.042324495 0.029898426 -0.041651204
-0.05722141 0.031069683 -0.07061405 0.019886853 -0.0049156593 -0.05929551 0.04292461 -0.057879217
0.00014715773 0.03608465 0.066976376 0.04590784 0.014449047 -0.03530689 -0.028877778 0.0034248405
0.018340053 -0.03315553 0.03581314 -0.034936596 -0.032583382 0.045558557 0.06260014 -0.018861316
0.017204497 -0.013469386 0.035511382 -0.058139816 0.014021924 -0.030834455 0.067934 0.06465147
-0.035044365 -0.033906665 0.06276994 -0.05562669 -0.072177574 -0.06476343 0.06837834 -0.05365029
-0.04574122 0.061498057 0.036940023 0.011380091 -0.017145857 0.029909862 0.05702906 0.008047691
-0.03031063 -0.0015993782 -0.042850737 -0.04735099 0.0409312 0.055496722 -0.032619316 -0.006785743
-0.019710911 -0.05175781 -0.018148905 -0.060610548 0.022529656 0.006993824 0.013021331 -0.0028812338
-0.002656723 -0.046598785 0.024491478 0.0013046723 0.0151621485 0.044020347 -0.014665546 0.029657796
-0.012728422 0.06484632 0.00079390284 -0.004571706 -0.038194824 -0.007558666 0.00091917993 0.064815305
-0.005295089 -0.031194594 -0.035400894 -0.028194487 0.040096033 0.0049965424 -0.049930092 0.07012136
-0.045865696 0.034917668 0.06703178 -0.019672079 0.02656352 0.030064242 0.02571141 0.0460631
0.042429693 0.025296867 -0.065803275 -0.065288834 0.07045209 -0.040560227 0.02135432 0.067589775
-0.025996638 0.04159783 0.042091787 0.062147424 -0.036462005 0.01572808 0.061679825 -0.05336193

module.model.2.model.0.bias f4 [64]
00000000: 44fa 873a 6006 823a a021 813a ec85 863a
00000010: dd6e 7a3a 6e70 7c3a bb65 883a cefe 813a
00000020: bfc5 7a3a d4f6 813a fc04 853a 11e5 853a
00000030: c641 833a e8c4 803a 7338 813a 929b 823a
00000040: 1fdd 7e3a 8a99 863a 812a 853a da10 833a
00000050: e1cc 813a 1cb6 813a e0b3 833a 75d0 803a
00000060: fcf5 7d3a 5e49 803a c4db 813a 6049 7e3a
00000070: 7e92 803a c706 833a b6b7 863a 9901 853a
00000080: 8e6b 813a 4c05 813a 7009 843a 466c 853a
00000090: cc34 853a 839a 853a a94a 793a ae53 873a
000000a0: ffcc 853a 8dea 843a bebc 843a 740d 813a
000000b0: 7c72 813a 3d0d 823a 527b 813a a1ea 7d3a
000000c0: 6a0d 823a 0eec 843a f5de 793a a328 853a
000000d0: 0c9f 833a 8d7d 833a 2ab7 813a 37eb 7c3a
000000e0: 1ca6 7e3a aead 823a 968f 823a 2374 813a
000000f0: 0c13 823a bf12 873a 64ad 803a 297f 853a
0.0010374268 0.0009920113 0.000985194 0.00102633 0.0009553263 0.00096297904 0.0010406295 0.0009917857
0.00095662096 0.000991548 0.001014858 0.0010215362 0.0010014109 0.0009824308 0.0009858742 0.0009964576
0.00097222807 0.0010269147 0.0010159762 0.0009999529 0.0009902978 0.0009896192 0.0010048114 0.000982775
0.00096878386 0.000978749 0.0009907414 0.0009700265 0.0009809283 0.0009996527 0.0010278139 0.0010147571
0.0009873973 0.0009843498 0.0010073613 0.0010179363 0.001016283 0.0010193143 0.00095097214 0.0010324621
0.0010208188 0.0010140702 0.001012705 0.0009845928 0.0009876038 0.0009922158 0.0009878671 0.00096861465
0.0009922211 0.001014115 0.00095318194 0.0010159205 0.0010041906 0.0010031924 0.0009896506 0.0009648087
0.0009714083 0.0009969973 0.0009961005 0.000987653 0.0009923889 0.0010305269 0.00098173 0.0010184991

module.model.2.model.1.weight f4 [64]
00000000: 3bbb 7f3f 7222 803f 5008 803f 06c1 7f3f
00000010: 44d7 7f3f a912 803f ddb2 7f3f fbc5 7f3f
00000020: af14 803f a8fc 7f3f 2a20 803f 8096 7f3f
00000030: 22f4 7f3f 8617 803f 160a 803f 4007 803f
00000040: 2efb 7f3f 39b6 7f3f 50d5 7f3f 46a7 7f3f
00000050: 8b19 803f 66d9 7f3f 1105 803f 4d02 803f
00000060: 690c 803f 5bfc 7f3f 6cfc 7f3f 459a 7f3f
00000070: 60c6 7f3f 75d5 7f3f ad2d 803f 8e18 803f
00000080: 0723 803f 5023 803f 4cdd 7f3f fe1e 803f
00000090: bd16 803f 129a 7f3f 91d6 7f3f 3932 803f
000000a0: ef1b 803f a70e 803f bee3 7f3f 2f1f 803f
000000b0: b90f 803f 8021 803f b401 803f 9615 803f
000000c0: fae2 7f3f 7c2a 803f 6e04 803f e3c5 7f3f
000000d0: cef5 7f3f 6d0e 803f ee24 803f f5cc 7f3f
000000e0: 7932 803f a0c1 7f3f 8328 803f 8e2d 803f
000000f0: fd01 803f 8df5 7f3f 12d6 7f3f 419c 7f3f
0.99895066 1.0010512 1.0002537 0.99903905 0.99937844 1.0005695 0.998823 0.9991147
1.0006312 0.999949 1.0009816 0.9983902 0.9998189 1.0007179 1.0003078 1.0002213
0.99992645 0.99887425 0.99934864 0.99864614 1.0007795 0.999411 1.0001546 1.0000702
1.0003787 0.9999444 0.9999454 0.9984477 0.9991207 0.99935085 1.0013939 1.0007493
1.001069 1.0010777 0.9994705 1.0009458 1.0006939 0.9984447 0.9993678 1.0015327
1.0008525 1.0004472 0.9995688 1.0009516 1.0004798 1.0010223 1.000052 1.0006588
0.99955714 1.0012965 1.0001352 0.99911326 0.99984443 1.0004402 1.001127 0.99922115
1.0015403 0.99904823 1.0012363 1.0013902 1.0000607 0.99984056 0.9993602 0.998478

module.model.2.model.1.bias f4 [64]
00000000: 9fd4 3aba 696f 523a 2f8d 4c3a dc12 b6ba
00000010: 6fb2 36ba 4b15 8c3a 4275 c2ba 63ef 18b8
00000020: a23d 6a3a ed6b 3a3a e913 d339 118b cdba
00000030: 4e2b 46ba 7ba1 893a 6750 2e3a 98d2 ac39
00000040: 0bce d039 27bd a7ba 634e 19ba 10a6 b9ba
00000050: 9611 3d3a 9d40 6638 285e 2639 7d69 b538
00000060: ae90 193a 3eda 933a 27e4 d8b6 bd4b c4ba
00000070: 08e4 8db8 f968 33ba 6224 743a 571b 30ba
00000080: 325f 783a 7d8c 8fb9 bd6d b6ba a6f5 abb9
00000090: 0a28 e6b9 5f7a d1ba 8640 7dba dcf2 b43a
000000a0: ccad 203a 1f44 653a 90fb 28ba 8410 043a
000000b0: 5b71 463a 1784 2b3a 8d35 b638 7ea3 3939
000000c0: 357a 0cba bdef 783a e4e0 bf39 4434 99ba
000000d0: 6f3e d439 ecf4 303a 1a55 d0b9 12b5 84ba
000000e0: ddaa c93a bcc9 97ba ae82 a33a a6e4 943a
000000f0: 047f 09ba 390d f3b9 a47f 2fb8 8edd cbba
-0.000712702 0.00080274657 0.00078030204 -0.0013891119 -0.00069693377 0.0010687498 -0.0014835971 -3.646257e-05
0.00089355756 0.0007111419 0.0004025989 -0.0015681704 -0.00075595535 0.0010500395 0.0006649554 0.000329633
0.00039826366 -0.0012797461 -0.00058481673 -0.001416387 0.00072123983 5.489645e-05 0.0001586607 8.650401e-05
0.0005858046 0.0011280251 -6.463862e-06 -0.0014976185 -6.765878e-05 -0.000684395 0.0009313283 -0.0006717941
0.00094746344 -0.00027379757 -0.0013918203 -0.00032798684 -0.0004389885 -0.0015981904 -0.0009660799 0.0013805288
0.00061294134 0.00087458076 -0.0006446177 0.00050378614 0.0007569992 0.0006542815 8.688411e-05 0.0001770388
-0.00053587864 0.0009496173 0.00036597915 -0.001168855 0.00040482308 0.00067503634 -0.00039736257 -0.0010124764
0.0015386004 -0.0011580507 0.0012474859 0.0011359646 -0.0005245062 -0.00046358423 -4.1842126e-05 -0.0015553699

module.model.2.model.1.running_mean f4 [64]
00000000: a502 a0be 1fa6 933e 6d18 36be b6cc a2bd
00000010: 5916 8fbe 2c4b 523e 7434 6cbe 84cd 6fbe
00000020: 6545 aebd 5893 1e3f 84f2 873d cf5a 3dbf
00000030: 1255 053f 00c2 073e dc21 70be fa68 2bbe
00000040: ecd4 c03e c9cd b73d 14af d03e a32c 87bd
00000050: 598f 973e 726e 2a3f 5d5e 09bd b238 8f3d
00000060: 7163 55bf 5b52 c7be bb55 fbbe 05c4 033f
00000070: 6b5b 8fbe caa8 a9be 8f3e 813f 3e39 203f
00000080: cf4a 12bf 0a0d 6dbe 1ccf 0f3f deb7 2f3f
00000090: b4da b83e 0abc 073e 1345 12be 5e7a b13b
000000a0: e6c4 7f3e a58f 6a3e dc4b 2cbe b316 c93e
000000b0: c963 06bf 52f3 6a3e 5cf3 9ebe 080b b4be
000000c0: 5e7e c9be 7f0c 313d 5334 063e 4923 4dbe
000000d0: 936d 993c d02c 09be ca68 933c 9b2c 64be
000000e0: 5e12 7ebd e8f5 413f 91b3 55bd 85ef c7bd
000000f0: e5df c73e f94f 9cbd 1601 09bf d703 363e
-0.31252018 0.28837678 -0.17782755 -0.07949202 -0.27946737 0.20536488 -0.23066884 -0.23418242
-0.0850933 0.6194358 0.06638053 -0.7396669 0.5208293 0.13257599 -0.23450416 -0.16739264
0.37662446 0.08974797 0.40758574 -0.06600311 0.29601553 0.66574776 -0.033537257 0.06993236
-0.8335486 -0.3893002 -0.49088845 0.5147098 -0.27999434 -0.33136588 1.0097216 0.62587345
-0.571454 -0.23149505 0.561754 0.68639934 0.36104357 0.13255325 -0.14284162 0.0054161986
0.24977455 0.22906359 -0.16825813 0.3927513 -0.5249601 0.22944382 -0.31045043 -0.35164666
-0.39354223 0.043224808 0.13105898 -0.20032991 0.018729007 -0.13396001 0.017994303 -0.2228264
-0.062029235 0.7576585 -0.0521732 -0.097624816 0.39038005 -0.07632441 -0.5351728 0.17774902

module.model.2.model.1.running_var f4 [64]
00000000: 4898 e63e b73a d13e ac30 533e a7c2 3d3e
00000010: 93b3 013e b069 8d3f 63ee 013e b56a dd3d
00000020: 8b58 463e 0828 a93e 6077 ce3d 2d80 473f
00000030: ba03 313f 173a 613e a3dc 8c3e d87f b83e
00000040: 1a70 da3e fc4e 923e 4624 753f 3d53 a53e
00000050: c8b0 f63d c45a c83e 7ab8 6d3f eb51 0d3f
00000060: 16e3 893e 380b b33e 00f2 373f 78b4 3d3e
00000070: 8a5e c33e f56b ad3e 5e3a 993f 1282 3e3e
00000080: 4cf9 0040 282b 313e 5684 f93d 68b3 c33e
00000090: 2cda 7f3e 4b5d a63e 84a1 103e a2ef 983e
000000a0: 76d1 bf3f 4c25 b23e 1784 f23e 4a14 d83d
000000b0: 18a6 ea3e 07a7 853e 6b09 373f f36d 163e
000000c0: 02e0 c43d b3ee 8b3e 7c0a be3f 6f56 833e
000000d0: 155e bf3e 36a6 4b3f 71c0 df3e d7d3 fe3e
000000e0: 1b1e 463f a16a b73e 6eda 523e eab9 553f
000000f0: 1908 2f3f c2c3 c13e e060 993e 69a9 e63e
0.45038056 0.40865108 0.20624036 0.18531285 0.12666158 1.1047878 0.12688594 0.108113684
0.19369714 0.33038354 0.10081363 0.77929956 0.6914631 0.21994816 0.27512082 0.36035037
0.42663652 0.28575885 0.95758474 0.32290068 0.12045437 0.3913175 0.92859614 0.5520312
0.26931065 0.34969497 0.7185364 0.18525875 0.38158065 0.33871427 1.1970937 0.18604305
2.0152159 0.17301619 0.12183444 0.38222814 0.2498557 0.32493052 0.14124113 0.29870325
1.4985797 0.3479408 0.47366402 0.10550745 0.45829844 0.26103994 0.71498746 0.1469038
0.096130386 0.2733055 1.484695 0.2565188 0.37376466 0.7955049 0.4370151 0.49770996
0.7738969 0.3582354 0.20591137 0.8348681 0.6837173 0.37844664 0.29956722 0.45051125
