output_gd_deblur_noise/ckpt/resnet_epoch3.pth (torch, 641727 bytes, 31 tensors)

module.model.0.weight f4 [64, 1, 1, 1]
0.03684416 -0.10720211 0.27162936 0.19501676 0.09958782 0.13161156 0.050495673 0.21286552
0.034826837 -0.16589798 -0.12970068 0.2474792 0.11137283 0.28598467 -0.0025931718 0.0068409913
-0.14079107 -0.03210343 0.1848097 -0.27865356 0.2059554 0.15307316 0.09955435 0.041825887
0.30197862 -0.22056486 -0.10460101 0.17209159 -0.28043306 0.161821 -0.24486415 0.18074028
0.25519606 0.2923803 0.2274439 -0.106775194 -0.26473957 -0.022574535 0.18012464 -0.011442685
0.107311234 -0.27506086 -0.05101662 0.298581 -0.21648516 0.23128039 -0.24934813 -0.28345016
0.08620475 0.14156392 0.14407988 -0.11872941 -0.17270887 0.10338752 0.11617452 0.08765637
0.0048749484 0.24384947 -0.27861848 -0.090871856 0.17390585 -0.11035157 -0.18000045 0.027260982
00000000: e7e9 163d c88c dbbd 0113 8b3e 79b2 473e
00000010: b3f4 cb3d 2ec5 063e 8dd4 4e3d 6bf9 593e
00000020: 96a6 0e3d 29e1 29be 41d0 04be 306b 7d3e
00000030: 7017 e43d 956c 923e 34f2 29bb 652a e03b
00000040: 892b 10be e37e 03bd c13e 3d3e aeab 8ebe
00000050: f9e5 523e 36bf 1c3e 27e3 cb3d 9f51 2b3d
00000060: f19c 9a3e c1db 61be 0e39 d6bd c738 303e
00000070: ec94 8fbe 67b4 253e abbd 7abe fb13 393e
00000080: 0fa9 823e dfb2 953e 0ee7 683e f4ac dabd
00000090: f28b 87be 3bee b8bc 9872 383e 197a 3bbc
000000a0: fec5 db3d c7d4 8cbe cef6 50bd 9cdf 983e
000000b0: 49ae 5dbe c4d4 6c3e 1e55 7fbe 6120 91be
000000c0: 1e8c b03d 22f6 103e ad89 133e 6828 f3bd
000000d0: 98da 30be d6bc d33d e8ec ed3d 2f85 b33d
000000e0: 08be 9f3b adb3 793e 15a7 8ebe 061b babd
000000f0: 6014 323e 0100 e2bd 0a52 38be 6c52 df3c

module.model.0.bias f4 [64]
0.0009095464 0.00053690944 0.00068663544 0.00058893586 0.0008020773 0.0009093948 0.00043598303 0.0011653817
0.0006710073 0.0010160082 0.0010754382 0.0013109104 0.0013172554 0.00080234784 0.0008581058 0.0011045849
0.0013212487 0.0015051792 0.00045753154 0.00067023997 0.0012056655 0.0006181444 0.0009791247 0.00087954494
0.0006642333 0.00073700363 0.0011715852 0.00090242125 0.0011619334 0.0008913342 0.0006823956 0.0005614244
0.0007482584 0.0006796833 0.00103109 0.0005504693 0.0011818294 0.0014089659 0.0013624992 0.0010468693
0.0006650009 0.0011603975 0.0011540051 0.0011865114 0.0015049007 0.00075403956 0.0006357765 0.0010188023
0.0014252762 0.0015235206 0.00089203345 0.0010027806 0.00080559816 0.0012978717 0.0009521553 0.0005475037
0.00072198716 0.00042774636 0.0014504866 0.00045096182 0.00077277434 0.0012347675 0.0006270712 0.00055483886
00000000: a06e 6e3a 62bf 0c3a 53ff 333a d162 1a3a
00000010: 7f42 523a 7464 6e3a a794 e439 b9bf 983a
00000020: 8ae6 2f3a 942b 853a b8f5 8c3a dbd2 ab3a
00000030: c2a7 ac3a a754 523a 81f2 603a b8c7 903a
00000040: c02d ad3a 6f49 c53a d8e0 ef39 0bb3 2f3a
00000050: 6c07 9e3a f80a 223a f955 803a 4391 663a
00000060: f11f 2e3a 7a33 413a e08f 993a 7790 6c3a
00000070: 044c 983a 6da8 693a cbe2 323a 8e2c 133a
00000080: c526 443a c62c 323a a425 873a 5f4d 103a
00000090: 9de7 9a3a 0dad b83a e395 b23a 1b37 893a
000000a0: 7453 2e3a 7b18 983a fc41 973a b784 9b3a
000000b0: 1740 c53a bdaa 453a 3daa 263a 5589 853a
000000c0: 55d0 ba3a deb0 c73a 5ad7 693a bc6f 833a
000000d0: c72e 533a 591d aa3a 0f9a 793a 5a86 0f3a
000000e0: bd43 3d3a 2543 e039 411e be3a 126f ec39
000000f0: 0294 4a3a ecd7 a13a 0962 243a 9b72 113a

module.model.1.model.0.weight f4 [64, 64, 3, 3]
0.03267992 -0.01492538 -0.03856711 -0.04467119 0.050613742 0.06925293 -0.045593508 0.027449206
0.06316836 -0.030636778 0.03796217 -0.045922488 -0.017989278 -0.06365847 -0.06303229 -0.0100573385
0.061602138 -0.026085006 0.013268699 0.062396266 0.0494575 0.043194477 -0.03246039 0.015937813
-0.021837613 -0.052153833 -0.04144713 -0.028327882 -0.059640232 0.0696701 0.059707586 0.034148555
-0.06767258 -0.015445077 -0.030854795 0.05486984 -0.0018834617 0.053415857 0.04899474 0.019889615
-0.055279538 -0.031739473 0.029285317 -0.062359523 -0.059512414 -0.019978993 -0.06933881 0.016238986
-0.0046860045 0.05522995 -0.05298659 -0.02679113 0.019457728 0.011008431 -0.058562405 0.03757993
0.035063643 -0.0018646151 -0.017054118 -0.05145288 0.0069490033 -0.04468575 -0.066150635 -0.06863354
-0.063904226 -0.070041455 -0.012279889 0.027915424 0.06568163 0.060148347 0.014933185 0.007930731
0.06367491 -0.007769816 0.024045952 0.028363718 -0.039201654 -0.04206242 0.05213771 0.010764881
0.019903611 -0.064023085 0.06148207 0.04518624 -0.05048773 -0.056511417 -0.06905831 -0.069911994
0.044655282 -0.054528784 0.025258405 0.019540168 -0.064128295 -0.007439441 0.0116978865 0.027053371
0.056591287 0.052460197 0.057306293 -0.0016270817 -0.06931916 0.02904869 0.030826783 -0.06133837
0.01717833 0.045797177 -0.02149284 -0.05997621 0.06468635 -0.04508394 -0.051515944 0.05604674
0.043129742 -0.019259894 -0.062427573 0.013951627 0.04689469 -0.015021969 0.04916048 0.046778265
0.03530643 0.07173279 -0.04489637 0.0013068769 -0.03281869 -0.0018545672 -0.02441102 -0.043297466
0.0007543853 0.027031217 0.034642752 -0.06962313 -0.037705854 0.03583899 -0.06398665 -0.036028355
0.026871078 0.024722096 -0.023154024 -0.0596704 0.069320135 0.054131374 -0.06075987 -0.064057805
-0.03606163 -0.016996305 -0.016806802 0.016212523 -0.053102683 0.058798704 0.06721253 -0.01977787
0.03543992 0.010394561 -0.004899264 -0.03859195 0.0046276134 0.048597187 0.009483416 0.0044209408
0.046550952 0.041800655 -0.06669703 0.027073503 -0.060371693 -0.06509623 -0.023003181 0.065023355
0.0063696876 -0.03424391 0.026335513 -0.04732067 0.01599782 -0.041624893 0.05649865 0.048933644
0.058012344 0.00333469 -0.04925801 0.0031662816 -0.02172241 0.05491374 0.03281265 0.0076306253
0.020714963 -0.0418495 0.06362587 -0.0027386416 0.006743242 0.07138379 0.018460723 0.057557397
-0.008166792 -0.057682104 -0.026889307 0.02598571 -0.01639445 -0.02507737 -0.033882786 0.057556387
0.068599485 0.027607212 0.06221963 -0.0037681977 -0.07144944 0.044637464 0.05564576 0.009346388
-0.017290467 0.021212183 0.016723813 0.05785421 0.00638786 -0.023624886 0.04220254 -0.06150159
-0.05118561 -0.045356944 0.056890596 0.034196313 0.0025251782 -0.035909735 0.041538548 -0.021414893
0.038540803 -0.052157708 0.03374342 0.050613366 -0.056868352 -0.023295222 0.026389709 -0.06334879
-0.06642607 -0.060940254 -0.04881995 0.040473074 -0.06798231 -0.022008836 -0.0024758512 -0.056693163
0.038762987 -0.005709268 -0.021212084 0.05682622 -0.04901696 0.018912485 0.030972175 0.049308296
-0.039265946 0.0026539785 -0.038281705 -0.055776723 -0.014144402 -0.011389797 -0.013787154 0.039143983
00000000: 61db 053d 9589 74bc 8cf8 1dbd 23f9 36bd
00000010: 5b50 4f3d 7bd4 8d3d 42c0 3abd 28dd e03c
00000020: 6a5e 813d fbf9 fabc 387e 1b3d 3819 3cbd
00000030: 405e 93bc 5f5f 82bd 1317 81bd 89c7 24bc
00000040: 8652 7c3d 39b0 d5bc f564 593c 3a93 7f3d
00000050: f393 4a3d b1ec 303d 30f5 04bd 0490 823c
00000060: cbe4 b2bc 429f 55bd 77c4 29bd e00f e8bc
00000070: 5149 74bd 33af 8e3d f18f 743d 5bdf 0b3d
00000080: ec97 8abd 590d 7dbc 32c3 fcbc 33bf 603d
00000090: 7dde f6ba 96ca 5a3d b5ae 483d 8cef a23c
000000a0: cc6c 62bd 4001 02bd c3e7 ef3c b36c 7fbd
000000b0: 4ac3 73bd fcaa a3bc 8201 8ebd 9f07 853c
000000c0: 0e8d 99bb cd38 623d 7708 59bd 1279 dbbc
000000d0: d065 9f3c b55c 343c 22df 6fbd 6aed 193d
000000e0: e59e 0f3d 1a66 f4ba 14b5 8bbc 41c0 52bd
000000f0: 77b4 e33b 6808 37bd fc79 87bd be8f 8cbd
00000100: 38e0 82bd e571 8fbd 9631 49bc e3ae e43c
00000110: 1784 863d 1d5e 763d 51aa 743c e6ef 013c
00000120: fe67 823d f199 febb 04fc c43c 075b e83c
00000130: ea91 20bd a549 2cbd 5a8e 553d 2f5f 303c
00000140: e60c a33c 891e 83bd 9fd4 7b3d 3515 393d
00000150: 39cc 4ebd 8478 67bd 716e 8dbd 052e 8fbd
00000160: 75e8 363d 9359 5fbd b7ea ce3c b412 a03c
00000170: b255 83bd 8ec6 f3bb 7ea8 3f3c 089f dd3c
00000180: 44cc 673d 81e0 563d 01ba 6a3d cd43 d5ba
00000190: 34f7 8dbd 85f7 ed3c 7388 fc3c f13d 7bbd
000001a0: 92b9 8c3c d295 3b3d c111 b0bc 9da9 75bd
000001b0: 477a 843d f0a9 38bd 6202 53bd 4491 653d
000001c0: d0a8 303d edc6 9dbc 0eb4 7fbd 5d95 643c
000001d0: a514 403d b41e 76bc 805c 493d 919a 3f3d
000001e0: 7a9d 103d a4e8 923d 42e5 37bd 834b ab3a
000001f0: e46c 06bd f314 f3ba 9ff9 c7bc af58 31bd
00000200: f1c1 453a 9270 dd3c 8fe5 0d3d 9296 8ebd
00000210: 7471 1abd e8cb 123d 6f0b 83bd 7892 13bd
00000220: bc20 dc3c fe85 ca3c 82ad bdbc f368 74bd
00000230: b7f7 8d3d dcb8 5d3d 57df 78bd bd30 83bd
00000240: 5cb5 13bd d63b 8bbc 6bae 89bc 20d0 843c
00000250: 3382 59bd e9d6 703d b9a6 893d 3305 a2bc
00000260: 7329 113d f34d 2a3c 018a a0bb 9812 1ebd
00000270: 3ca3 973b d80d 473d 5460 1b3c 8add 903b
00000280: 36ac 3e3d 2a37 2b3d 7498 88bd 40c9 dd3c
00000290: 4f48 77bd 2c51 85bd 2b71 bcbc f72a 853d
000002a0: d0b8 d03b 5843 0cbd 93bd d73c 52d3 41bd
000002b0: dc0d 833c dd7e 2abd 216b 673d a56e 483d
000002c0: 5a9e 6d3d d08a 5a3b c4c2 49bd 6481 4f3b
000002d0: 32f3 b1bc 3bed 603d 8f66 063d 530a fa3b
000002e0: 6db2 a93c 626a 2bbd 484e 823d c87a 33bb
000002f0: 6af6 dc3b aa31 923d f13a 973c 4ec1 6b3d
00000300: 02ce 05bc 1244 6cbd f746 dcbc fcdf d43c
00000310: a74d 86bc 0f6f cdbc adc8 0abd 3fc0 6b3d
00000320: e37d 8c3d 8528 e23c 03da 7e3d def3 76bb
00000330: 1654 92bd c6d5 363d cfec 633d 9821 193c
00000340: bda4 8dbc 2cc5 ad3c 6100 893c 89f8 6c3d
00000350: 4151 d13b fa88 c1bc 92dc 2c3d 17e9 7bbd
00000360: 01a8 51bd 34c8 39bd 1d06 693d 6f11 0c3d
00000370: 767d 253b 1616 13bd 5324 2a3d 496e afbc
00000380: f6dc 1d3d 52a3 55bd 8a36 0a3d f64f 4f3d
00000390: caee 68bd 9fd5 bebc 3b2f d83c 03bd 81bd
000003a0: 640a 88bd 7d9c 79bd 6ef7 47bd 18c7 253d
000003b0: 4f3a 8bbd e04b b4bc e441 22bb 1737 68bd
000003c0: f0c5 1e3d d014 bbbb f7c4 adbc 9cc2 683d
000003d0: 02c6 48bd 5bee 9a3c 5cb9 fd3c 7ff7 493d
000003e0: 54d5 20bd 5fee 2d3b 47cd 1cbd 2276 64bd
000003f0: ecbd 67bc 459c 3abc 84e3 61bc 7155 203d

module.model.1.model.0.bias f4 [64]
0.0011986496 0.0008767278 0.0009922318 0.00087526574 0.0008823452 0.001113782 0.0010436728 0.00085836754
0.0009914249 0.0010290737 0.000860065 0.0010669219 0.0009878716 0.00084036717 0.0009835288 0.0011226119
0.0010270331 0.0009952765 0.00090027583 0.0009041314 0.0011968233 0.0011662059 0.001040253 0.0010406274
0.0009280104 0.001254768 0.0011085983 0.0010715945 0.0009670203 0.00096126046 0.000986885 0.0009622636
0.0009636987 0.0010605089 0.0011030328 0.00090299576 0.0010493645 0.00094597426 0.0011725975 0.0010246453
0.0009533981 0.0010741624 0.0010876606 0.0010066398 0.0008009993 0.0010341621 0.0010223823 0.001072288
0.0011408766 0.0010060023 0.0011295307 0.001121172 0.0010849397 0.001138896 0.001020867 0.0011374493
0.00085035764 0.0008726938 0.0009612948 0.00084565405 0.0011936094 0.001097539 0.00075539766 0.0006947961
00000000: 021c 9d3a 35d4 653a c60d 823a 1772 653a
00000010: 2f4d 673a 53fc 913a d9cb 883a 1204 613a
00000020: b3f2 813a fce1 863a fc75 613a f5d7 8b3a
00000030: 787b 813a 164c 5c3a c0e9 803a 9b24 933a
00000040: 839d 863a f073 823a 7d00 6c3a 3b03 6d3a
00000050: bade 9c3a 60db 983a 1959 883a a965 883a
00000060: b945 733a 0777 a43a 634e 913a bf74 8c3a
00000070: a27f 7d3a 19fd 7b3a 5e5a 813a 6b40 7c3a
00000080: baa0 7c3a c600 8b3a a493 903a 05b7 6c3a
00000090: d48a 893a 42fb 773a d8b1 993a 644d 863a
000000a0: 77ed 793a e9ca 8c3a d58f 8e3a 3af1 833a
000000b0: 27fa 513a b98c 873a 7501 863a 048c 8c3a
000000c0: 7789 953a d6db 833a c30c 943a 4af4 923a
000000d0: 8934 8e3a 0247 953a 9dce 853a 7716 953a
000000e0: 89ea 5e3a 7dc5 643a 67ff 7b3a e2ae 5d3a
000000f0: e372 9c3a 4cdb 8f3a e105 463a fa22 363a

module.model.1.model.1.weight f4 [64]
0.99983615 1.0005507 1.0003226 1.0001929 1.0004787 0.9998171 1.0001585 1.0003052
1.0003939 1.0001616 1.0000356 0.99977565 0.99988663 1.0004157 0.99990034 1.0004199
1.0004879 0.99976957 1.0003673 1.0000161 0.9997552 0.9997585 0.9998126 1.0001423
1.0004675 0.99997365 0.99962944 1.0004494 0.99955267 1.0001128 0.9994381 0.9994989
0.99938023 0.99938065 0.99966115 0.9996219 0.9997084 1.0003924 0.9999548 0.99961835
1.000393 1.0005631 1.0005392 0.99944437 1.0004916 0.99954545 0.9996846 0.9997584
1.0002995 0.9995009 0.9994471 0.9994998 1.0000998 1.0002288 0.9994839 1.0003493
1.0005742 0.9997501 1.0001427 0.99968714 0.9996166 0.99956685 1.0005555 1.0004681
00000000: 43f5 7f3f 0c12 803f 920a 803f 5206 803f
00000010: b00f 803f 03f4 7f3f 3205 803f 000a 803f
00000020: e80c 803f 4c05 803f 2b01 803f 4cf1 7f3f
00000030: 92f8 7f3f 9f0d 803f 78f9 7f3f c20d 803f
00000040: fd0f 803f e6f0 7f3f 090c 803f 8700 803f
00000050: f5ef 7f3f 2cf0 7f3f b8f3 7f3f aa04 803f
00000060: 520f 803f 46fe 7f3f b7e7 7f3f ba0e 803f
00000070: afe2 7f3f b203 803f 2ddb 7f3f 29df 7f3f
00000080: 62d7 7f3f 69d7 7f3f cbe9 7f3f 39e7 7f3f
00000090: e4ec 7f3f dc0c 803f 0afd 7f3f fde6 7f3f
000000a0: e10c 803f 7412 803f ab11 803f 96db 7f3f
000000b0: 1c10 803f 36e2 7f3f 54eb 7f3f 2bf0 7f3f
000000c0: d009 803f 4adf 7f3f c4db 7f3f 38df 7f3f
000000d0: 4503 803f 7f07 803f 2dde 7f3f 720b 803f
000000e0: d112 803f 9fef 7f3f ad04 803f 7feb 7f3f
000000f0: e0e6 7f3f 9de3 7f3f 3412 803f 570f 803f

module.model.1.model.1.bias f4 [64]
-7.574497e-05 0.0005294855 0.00022595949 -0.00013390773 -2.3816174e-05 -4.399334e-05 0.000117621625 0.00016881505
0.00040554116 -0.00046938544 0.00017168045 -0.0002535199 -0.00013281556 0.0003840196 -0.00015257558 1.6925434e-05
0.0005099408 -1.6830332e-05 0.00035337041 -0.00024267715 -0.00052326353 -0.00047512984 -0.00048292236 -5.014629e-05
0.00048346966 -0.00016064066 -0.00046072734 -0.00017832278 -0.0005066805 8.066565e-05 -0.00041758135 -0.0005331139
-0.00057300227 -0.00038310618 -4.1055042e-05 -0.0004856957 -0.00035809397 5.8098714e-05 -0.00056147756 -0.00028100266
0.00045306573 0.0004789746 -0.00014607371 -0.0005637293 0.00047902385 -0.0004048487 -0.00014673441 -0.00030130308
-0.00025882447 -0.0005309002 -0.0005856327 -0.00014780383 -8.916663e-05 2.3913432e-05 -0.00050526625 -0.000402669
0.00032490242 -9.808903e-05 0.00020293228 0.00022377375 -0.0004620218 -0.0004812387 0.00060185854 0.0003895239
00000000: 45d9 9eb8 2ccd 0a3a 8aef 6c39 9569 0cb9
00000010: d8c8 c7b7 7d85 38b8 a1ab f638 f203 3139
00000020: d09e d439 d917 f6b9 1f05 3439 ddea 84b9
00000030: 6844 0bb9 3d56 c939 b2fc 1fb9 18fb 8d37
00000040: 8cad 053a dd2e 8db7 9344 b939 2777 7eb9
00000050: 9f2b 09ba d91a f9b9 be30 fdb9 2b54 52b8
00000060: 337a fd39 a671 28b9 c78d f1b9 28fc 3ab9
00000070: c1d2 04ba 0b2b a938 d2ee dab9 abc0 0bba
00000080: 8835 16ba a4db c8b9 8432 2cb8 f9a4 feb9
00000090: 8fbe bbb9 05af 7338 1f30 13ba 8a53 93b9
000000a0: 7489 ed39 e21e fb39 5d2b 19b9 3cc7 13ba
000000b0: 7e25 fb39 df41 d4b9 b8dc 19b9 37f8 9db9
000000c0: d5b2 87b9 1c2c 0bba 2585 19ba cafb 1ab9
000000d0: f8fe bab8 b499 c837 d873 04ba 511d d3b9
000000e0: aa57 aa39 26b5 cdb8 38ca 5439 cfa4 6a39
000000f0: 843b f2b9 c44e fcb9 0bc6 1d3a 0339 cc39

module.model.1.model.1.running_mean f4 [64]
-0.00035125806 0.00093196856 0.0017515024 -0.00015096685 -3.2199707e-05 0.0010842935 0.0023982753 0.0008360008
-0.00035351695 0.002287212 -3.6372992e-05 0.0015825755 0.0004312656 0.0008617261 0.0012356637 0.0016845809
0.00020833433 0.0012987924 3.4190194e-05 0.00041333924 -0.00068746513 0.0021569442 -4.9206123e-05 0.0021789898
-0.0009626781 0.0020792303 0.0013269024 0.0020958174 0.00017018933 -0.00023042253 0.002483221 0.0016403111
-0.0006438625 0.0007613808 0.00036803307 0.00043560253 0.00094211067 -0.00032677857 0.0010413182 0.0008049518
0.0004509044 0.00055352075 0.0021772303 0.0016987997 0.0016719314 0.0012209717 -0.0004333518 0.0005601532
-0.00031001595 0.0010916357 0.0026096941 0.0012406929 0.0007181152 0.0010917163 0.0020612346 -0.00050222734
0.0012363141 0.0025535293 0.0012173334 0.0010789899 0.00082170125 0.002125035 0.00076851534 -0.00021816108
00000000: 0f29 b8b9 5a4f 743a ab92 e53a db4c 1eb9
00000010: 2c0e 07b8 da1e 8e3a 622c 1d3b 1027 5b3a
00000020: 3e58 b9b9 0de5 153b 348f 18b8 6c6e cf3a
00000030: 7d1b e239 76e5 613a fef5 a13a 28cd dc3a
00000040: 5274 5a39 3e3c aa3a 7167 0f38 74b5 d839
00000050: 0137 34ba 855b 0d3b ac62 4eb8 62cd 0e3b
00000060: 3c5c 7cba b243 083b 75eb ad3a fb59 093b
00000070: da74 3239 949d 71b9 89bd 223b b5ff d63a
00000080: e2c8 28ba 6797 473a 90f4 c039 9561 e439
00000090: faf7 763a 7a53 abb9 d77c 883a 6703 533a
000000a0: 5d67 ec39 261a 113a ddaf 0e3b 42aa de3a
000000b0: b524 db3a 0309 a03a 7e33 e3b9 3fd7 123a
000000c0: a389 a2b9 3715 8f3a 6707 2b3b bf9e a23a
000000d0: e53f 3c3a ec17 8f3a c715 073b e8a7 03ba
000000e0: d10b a23a 1d59 273b ee8e 9f3a e56c 8d3a
000000f0: 7067 573a 2c44 0b3b 3176 493a 2bc2 64b9

module.model.1.model.1.running_var f4 [64]
0.0015596405 0.0018603579 0.0005194543 0.00019021536 0.0002927823 0.00017657812 0.0008063004 0.00028777553
0.0007845717 0.00018165508 0.0010162258 4.261507e-05 9.983336e-05 2.5713978e-05 0.00017685148 4.5330617e-05
0.0010067903 2.7884684e-05 0.00036851273 0.00022274796 7.409496e-05 5.3425e-05 0.0005292142 9.106537e-05
0.0012535411 0.00015322868 0.00049478875 0.0002721767 4.961976e-05 0.00014348754 0.0006699158 6.921677e-05
5.516842e-05 0.0018016074 7.0466966e-05 0.0011176754 0.0015128509 0.0011675463 0.002463782 2.700434e-05
0.00061443174 0.000103315906 6.6179346e-05 6.739093e-05 0.0002470341 3.8572016e-05 8.032144e-05 0.0006822477
0.0005222634 0.00012423274 0.00047230028 1.3594925e-05 0.003360813 0.00017488177 0.0005808115 0.0004079624
0.00023801076 0.00023148491 0.00067032326 0.0005948739 0.0006933084 0.0011245607 0.00060019793 0.00023276932
00000000: da6c cc3a 41d7 f33a fd2b 083a 8c74 4739
00000010: 9380 9939 d427 3939 e75d 533a 94e0 9639
00000020: b7ab 4d3a aa7a 3e39 e132 853a 95bd 3238
00000030: a15d d138 59b4 d737 3571 3939 6121 3e38
00000040: 47f6 833a e7e9 e937 f134 c139 7391 6939
00000050: 6e63 9b38 a814 6038 f7ba 0a3a 59fa be38
00000060: dc4d a43a 03ac 2039 b6b4 013a f0b2 8e39
00000070: d01e 5038 2575 1639 4a9d 2f3a 7828 9138
00000080: a464 6738 ea23 ec3a aac7 9338 f77e 923a
00000090: da4a c63a 5a08 993a 6777 213b 6187 e237
000000a0: d111 213a 4eab d838 c4c9 8a38 3b54 8d38
000000b0: 5b84 8139 63c8 2138 3f72 a838 ded8 323a
000000c0: 81e8 083a 7944 0239 129f f739 c215 6437
000000d0: 1641 5c3b 7860 3739 9a41 183a c9e3 d539
000000e0: 8792 7939 c2ba 7239 a2b8 2f3a 50f1 1b3a
000000f0: 24bf 353a ff65 933a 9a56 1d3a 8a13 7439

module.model.1.model.3.weight f4 [64, 64, 3, 3]
-0.06410719 0.042942394 0.02868809 -0.002947981 0.04443966 0.056648858 -0.014808728 -0.019423157
0.03843483 -0.036005292 0.046226777 0.057001747 0.054161705 0.013499098 -0.026813123 0.013333143
-0.029086078 0.062580295 0.011700574 -0.0640189 -0.03523701 -0.056249294 -0.004382406 0.06130481
-0.052685283 -0.031430155 0.05200506 -0.07233173 0.011330898 -0.022292273 -0.05444118 0.03309225
-0.0031461774 -0.020957299 -0.04678397 -0.021984985 -0.022778092 -0.030859306 0.058342945 0.04385907
-0.059216537 0.022232072 -0.016544865 0.0031480703 0.055368904 -0.051046245 -0.05827265 0.0041023204
-0.060243033 -0.024316583 0.029984182 0.026263118 -0.053742558 0.07134854 -0.005701477 0.012741394
-0.013389154 -0.00895055 0.04694237 -0.0020734745 0.034571555 0.049025934 -0.001884339 -0.03678428
-0.07060218 -0.051445793 -0.06809353 0.047432546 -0.070734836 0.069380485 0.032575782 -0.032728128
0.057275023 0.01711923 -0.012378358 0.0127594415 -0.045295015 0.012486658 -0.0025924616 -0.0652664
0.030306898 -0.020100933 -0.04305451 -0.067096554 0.05849385 -0.020843888 -0.043136902 0.038449053
-0.01285894 -0.06348765 -0.011781366 0.014083302 -0.047317643 0.03298924 -0.05206129 -0.053202
0.048715256 0.023178255 -0.055735942 0.068435036 -0.034453247 0.010149788 -0.058478303 0.04190814
-0.06667417 -0.046952426 0.029675659 0.022070697 -0.05905453 0.02295254 0.065262794 -0.05090246
-0.011959006 0.07105543 -0.0551511 -0.0072948528 -0.066948146 0.057645097 -0.048767995 0.048552662
-0.039384414 -0.03037179 0.068326205 0.058219858 -0.051413734 -0.071353726 0.053087946 -0.021510972
0.023583421 -0.0034185078 0.018715462 -0.046826374 -0.018478816 -0.0540514 0.03359402 -0.0671584
-0.0012802982 -0.026455663 0.062356994 -0.03824184 -0.071048476 0.021225216 0.001305786 -0.049852613
-0.050062563 0.0496625 -0.045334075 -0.06379683 0.03238617 0.018795662 0.026788093 0.038236346
0.010206308 -0.0054131537 -0.037367623 -0.051365893 0.014595384 0.057265162 -0.06609939 0.044990353
-0.056344323 0.0018136126 -0.05008107 0.029604014 -0.0036064675 -0.027186247 -0.060198817 -0.021748306
0.07227865 0.06363072 0.018180182 0.072563164 -0.06890634 0.0015398633 -0.033772495 0.053029794
-0.038714368 -0.056837093 -0.0682633 -0.026857786 -0.0021768122 -0.03894578 -0.060264103 -0.05819021
-0.045943208 -0.04447561 0.05314656 0.018288925 -0.067085095 0.030733982 -0.04409174 -0.03977289
-0.015749598 -0.016957749 -0.017883755 -0.0515989 -0.034872193 -0.053828947 -0.0037049989 0.033974197
-0.07146153 0.047335085 0.06835267 0.023422329 0.017810997 0.02359408 -0.045680977 0.03484888
0.060324717 -0.056139268 -0.06497422 0.0542512 0.06704475 -0.060628638 0.044556934 -0.010070833
-0.05673095 0.07085984 -0.0401763 0.012624091 0.06338397 0.02757513 0.00075424917 0.045161333
-0.03725413 0.059492644 -0.026756736 -0.054566458 -0.008490987 0.0037424127 -0.0037508 0.05594068
-0.030393086 -0.061662585 -0.055835027 0.027517714 0.0014802727 -0.0027758472 0.05926965 0.028851742
0.054300856 0.014235784 -0.043100845 0.007947193 -0.028295439 0.018366368 0.06280754 -0.019879283
0.013342961 -0.009304441 0.06703463 0.0635576 0.05553746 0.0289687 -0.066679984 0.051747587
00000000: a14a 83bd 5de4 2f3d 4903 eb3c ea32 41bb
00000010: 5c06 363d a208 683d 4fa0 72bc 501d 9fbc
00000020: d76d 1d3d 497a 13bd 4a58 3d3d aa7a 693d
00000030: aad8 5d3d 522b 5d3c 32a7 dbbc 4173 5a3c
00000040: ed45 eebc 192a 803d c4b3 3f3c 571c 83bd
00000050: af54 10bd a965 66bd 499a 8fbb c11a 7b3d
00000060: 86cc 57bd e8bc 00bd 4203 553d a822 94bd
00000070: 3ba5 393c 499e b6bc b7fd 5ebd bd8b 073d
00000080: 1930 4ebb a4ae abbc 8ca0 3fbd db19 b4bc
00000090: 1f99 babc a8cc fcbc 03f9 6e3d 91a5 333d
000000a0: 0a8d 72bd 0920 b63c 1989 87bc db4f 4e3b
000000b0: 81ca 623d de15 51bd 4daf 6ebd c26c 863b
000000c0: 66c1 76bd 9233 c7bc 63a1 f53c c025 d73c
000000d0: 2821 5cbd 2f1f 923d 75d3 babb 48c1 503c
000000e0: 2f5e 5bbc 54a5 12bc a446 403d 21e3 07bb
000000f0: e79a 0d3d 6bcf 483d edfb f6ba 1dab 16bd
00000100: e097 90bd d3b8 52bd 9f74 8bbd a148 423d
00000110: 6ddd 90bd 5b17 8e3d 2f6e 053d ee0d 06bd
00000120: 3799 6a3d a13d 8c3c 99ce 4abc fa0c 513c
00000130: 4487 39bd d794 4c3c 4ae6 29bb 64aa 85bd
00000140: 2c46 f83c b6aa a4bc ed59 30bd eb69 89bd
00000150: 3f97 6f3d cdc0 aabc 52b0 30bd c17c 1d3d
00000160: 4eae 52bc d005 82bd a106 41bc a6bd 663c
00000170: 25d0 41bd ba1f 073d 383e 55bd 57ea 59bd
00000180: a689 473d 53e0 bd3c 5f4b 64bd ab27 8c3d
00000190: d91e 0dbd 4c4b 263c f286 6fbd dfa7 2b3d
000001a0: 788c 88bd 3051 40bd 5e1a f33c 9bcd b43c
000001b0: 2ae3 71bd f706 bc3c 80a8 853d 197f 50bd
000001c0: b5ef 43bc 8285 913d 1fe6 61bd a909 efbb
000001d0: 1c1c 89bd 441d 6c3d f3c0 47bd 28df 463d
000001e0: 8d51 21bd 43ce f8bc 9cee 8b3d f277 6e3d
000001f0: 3597 52bd e721 92bd bf72 593d c737 b0bc
00000200: 0532 c13c 0b09 60bb 2b51 993c 03cd 3fbd
00000210: e360 97bc 0065 5dbd e299 093d 588a 89bd
00000220: aecf a7ba 8cb9 d8bc 0c6a 7f3d 7aa3 1cbd
00000230: dd81 91bd 81e0 ad3c e826 ab3a 4132 4cbd
00000240: 670e 4dbd e86a 4b3d 39b0 39bd eaa7 82bd
00000250: 5ca7 043d 5cf9 993c b472 db3c b79d 1c3d
00000260: 5c38 273c d360 b1bb cb0e 19bd 0b65 52bd
00000270: 7a21 6f3c e08e 6a3d 1e5f 87bd ce47 383d
00000280: 4ec9 66bd beb6 ed3a cf21 4dbd 1e84 f23c
00000290: 7c5a 6cbb b1b5 debc 0993 76bd 8129 b2bc
000002a0: d406 943d d350 823d 9bee 943c ff9b 943d
000002b0: c41e 8dbd 3dd5 c93a 0755 0abd c535 593d
000002c0: f592 1ebd 03ce 68bd a1cd 8bbd dc04 dcbc
000002d0: d9a8 0ebb 9c85 1fbd 7ed7 76bd dc58 6ebd
000002e0: f22e 3cbd 0f2c 36bd 35b0 593d a8d2 953c
000002f0: e963 89bd d5c5 fb3c 8a99 34bd e6e8 22bd
00000300: 4d05 81bc faea 8abc f480 92bc 5e59 53bd
00000310: 25d6 0ebd be7b 5cbd 91cf 72bb 8728 0b3d
00000320: 6c5a 92bd 6fe2 413d 7cfc 8b3d 2fe0 bf3c
00000330: 5ee8 913c 5f48 c13c fa1b 3bbd b3bd 0e3d
00000340: 0d17 773d 4af2 65bd 3411 85bd 8236 5e3d
00000350: c24e 893d bc55 78bd 5581 363d 2300 25bc
00000360: b65e 68bd f71e 913d e78f 24bd 46d5 4e3c
00000370: 74cf 813d 3de5 e13c ceb8 453a 17fb 383d
00000380: c997 18bd 8fae 733d f130 dbbc 1481 5fbd
00000390: c81d 0bbc 4443 753b fbcf 75bb 0e22 653d
000003a0: ecfa f8bc e891 7cbd 45b3 64bd d46c e13c
000003b0: b605 c23a fdea 35bb bcc4 723d 7d5a ec3c
000003c0: 936a 5e3d 353d 693c 838a 30bd f234 023c
000003d0: d6cb e7bc 1175 963c 3da1 803d e1d9 a2bc
000003e0: 6f9c 5a3c a771 18bc 7449 893d 7d2a 823d
000003f0: 3f7b 633d c44f ed3c 848f 88bd 47f5 533d

module.model.1.model.3.bias f4 [64]
0.0009330696 0.0010518671 0.0009953366 0.0010101859 0.0010042785 0.0009946456 0.0011764644 0.001066366
0.0010192181 0.0010002936 0.0010163187 0.0011522549 0.0009887124 0.0009695837 0.0010313436 0.00095519866
0.0010020486 0.0009414467 0.00096449093 0.0010067344 0.0008996253 0.0010320358 0.0009641586 0.0009975726
0.0010357839 0.0009866946 0.0010230715 0.0009939573 0.0010361141 0.0010585279 0.001024036 0.0009762959
0.0010153989 0.0010723516 0.0011288585 0.0011121621 0.0009634388 0.00097212894 0.0010103615 0.0009179157
0.0009806014 0.0010660806 0.0009816138 0.0010534825 0.00092838466 0.0010339195 0.0010014783 0.0009971636
0.001012669 0.0009442621 0.0010078626 0.0009629557 0.0011431555 0.0009805909 0.00091167924 0.0009569681
0.0010621027 0.001033271 0.00090861344 0.0010474788 0.0010217068 0.001035872 0.0010209912 0.0010323237
00000000: 3e99 743a cede 893a f475 823a 3768 843a
00000010: ffa1 833a c55e 823a 9833 9a3a 4ec5 8b3a
00000020: 4997 853a 491c 833a ff35 853a 4207 973a
00000030: af97 813a a92b 7e3a 262e 873a 4c66 7a3a
00000040: 2c57 833a 6bcb 763a e4d5 7c3a 67f4 833a
00000050: d5d4 6b3a 6045 873a 97bf 7c3a fbc0 823a
00000060: 24c3 873a fa53 813a 9518 863a ac47 823a
00000070: 38ce 873a 4dbe 8a3a f238 863a 1cee 7f3a
00000080: 2217 853a 268e 8c3a 35f6 933a f8c5 913a
00000090: 498f 7c3a 78d6 7e3a 1b6e 843a 48a0 703a
000000a0: 8687 803a bbbb 8b3a 7ea9 803a 0215 8a3a
000000b0: d75e 733a 9584 873a 0944 833a 42b3 823a
000000c0: 88bb 843a 5b88 773a 421a 843a dd6e 7c3a
000000d0: efd5 953a 2c87 803a c2fd 6e3a 0bdd 7a3a
000000e0: 4136 8b3a d26e 873a 0430 6e3a 8e4b 893a
000000f0: cbea 853a 19c6 873a c8d2 853a 094f 873a

module.model.1.model.4.weight f4 [64]
1.0001544 0.9995045 0.9993916 0.9994086 1.0002776 0.9995952 0.9993676 0.99953586
1.0001808 1.0005381 0.99952024 0.99936175 1.0005716 1.0005599 0.9995639 1.0006049
1.0005721 1.0006343 0.999395 0.9995847 1.0006087 0.99945587 1.0005934 1.0001806
0.99954563 1.0006154 0.9993972 1.0005199 1.0005238 0.99936324 0.9993592 1.000057
0.9994416 0.99944514 0.9993763 0.9993875 1.0005416 1.000283 1.000547 1.000536
1.0005554 0.99939746 1.0002517 0.99959147 1.0005943 0.99937147 1.0006335 1.0002756
1.0003179 1.0005145 0.9995721 1.0006241 0.99936 1.0005987 1.0006264 0.9994344
0.9994675 0.9993639 1.0006409 0.9993622 0.99952024 1.0004507 0.9993792 0.9993835
00000000: 0f05 803f 87df 7f3f 21d8 7f3f 3ed9 7f3f
00000010: 1909 803f 79e5 7f3f 8ed6 7f3f 95e1 7f3f
00000020: ed05 803f a211 803f 8fe0 7f3f 2cd6 7f3f
00000030: bb12 803f 5912 803f 6be3 7f3f d213 803f
00000040: bf12 803f c914 803f 5ad8 7f3f c8e4 7f3f
00000050: f213 803f 57dc 7f3f 7213 803f eb05 803f
00000060: 39e2 7f3f 2a14 803f 7fd8 7f3f 0911 803f
00000070: 2a11 803f 45d6 7f3f 01d6 7f3f de01 803f
00000080: 68db 7f3f a3db 7f3f 20d7 7f3f dcd7 7f3f
00000090: bf11 803f 4609 803f ed11 803f 9011 803f
000000a0: 3312 803f 83d8 7f3f 3f08 803f 3ae5 7f3f
000000b0: 7913 803f cfd6 7f3f c214 803f 0809 803f
000000c0: 6b0a 803f dc10 803f f5e3 7f3f 7314 803f
000000d0: 0fd6 7f3f 9e13 803f 8714 803f efda 7f3f
000000e0: 1add 7f3f 50d6 7f3f 0015 803f 33d6 7f3f
000000f0: 8fe0 7f3f c50e 803f 51d7 7f3f 99d7 7f3f

module.model.1.model.4.bias f4 [64]
0.0006238906 -0.00061921787 -0.00059898576 -0.00054455583 1.8405259e-05 -0.0005371292 -0.00064539356 -0.00062927254
0.00014059873 0.0006419884 -0.0006014941 -0.0006427298 0.00058381655 0.00050233374 -0.00064229505 0.00063568243
0.00059772393 0.00064704224 -0.00062603026 -0.00060539617 0.00062402675 -0.0005839958 0.0006372405 0.00041574318
-0.0006250751 0.000614472 -0.0006359143 0.0005893691 0.00040384015 -0.0006434225 -0.0006455818 -0.00040534596
-0.0006266064 -0.0006073829 -0.00063807744 -0.00063214265 0.0006266303 0.0006085055 0.0006142627 0.00059747463
0.0004860951 -0.0006297088 0.00062174554 -0.00048082246 0.0006221117 -0.0006363135 0.000643592 0.00036688274
0.0005899271 0.00058030704 -0.00063699926 0.00064698444 -0.00064135407 0.0006355475 0.00063382945 -0.0006205313
-0.0005733263 -0.0006366124 0.00064482907 -0.00064557453 -0.0005454949 -0.00021637435 -0.00064101093 -0.00063443655
00000000: 978c 233a 0253 22ba 4105 1dba 86c0 0eba
00000010: fe64 9a37 21ce 0cba a12f 29ba c4f5 24ba
00000020: af6d 1339 1d4b 283a 96ad 1dba de7c 28ba
00000030: 440b 193a 0caf 033a b15f 28ba eda3 263a
00000040: 93b0 1c3a 459e 293a 2e1c 24ba 73b3 1eba
00000050: ba95 233a 4b17 19ba 7c0c 273a 1bf8 d939
00000060: 14dc 23ba 8514 213a 7cb3 26ba e47f 1a3a
00000070: 82ba d339 5aab 28ba 433c 29ba 9d84 d4b9
00000080: d842 24ba c738 1fba a744 27ba 60b6 25ba
00000090: 7344 243a 1d84 1f3a 7906 213a d89f 1c3a
000000a0: 94da fe39 0b13 25ba a3fc 223a e616 fcb9
000000b0: 3615 233a 47ce 26ba bab6 283a 2b5a c039
000000c0: 56a5 1a3a bf1f 183a 4cfc 26ba 649a 293a
000000d0: 8b20 28ba df9a 263a 9327 263a 27ab 22ba
000000e0: 474b 16ba 56e2 26ba bf09 293a c63b 29ba
000000f0: 8bff 0eba 8ce2 62b9 8409 28ba 5150 26ba

module.model.1.model.4.running_mean f4 [64]
-0.34428146 0.46439627 -0.16712792 0.072292775 0.022975324 -0.12984625 -0.24312043 -0.036480863
0.46786612 0.8010549 0.009372184 -0.432727 0.39254594 0.3071177 0.37684643 0.07945142
-0.5940302 0.064528 0.24268274 -0.41285717 -0.112034194 -0.45873573 0.09537498 0.08639203
-0.21313429 -0.8451351 0.15891665 0.33343005 -0.6986958 -0.2187114 -0.22776242 0.11965776
0.28264013 0.10372083 -0.46037722 -0.068248026 -0.23105775 0.2623774 -0.46762955 0.114822686
0.36781436 0.12420515 -0.047569927 0.008746072 0.02836823 -0.29614484 -0.22848387 0.18968743
0.33302242 0.13279137 0.8129657 -0.16509165 0.1775868 0.43111163 -0.1609257 0.3494486
-0.42141291 0.7720289 0.16355363 0.31020764 0.30131888 0.27210543 -0.34212443 -0.083889216
00000000: a945 b0be 59c5 ed3e 9523 2bbe 3c0e 943d
00000010: bf36 bc3c 6af6 04be 90f4 78be f56c 15bd
00000020: 268c ef3e ef11 4d3f ca8d 193c 658e ddbe
00000030: c8fb c83e 883e 9d3e 04f2 c03e 6db7 a23d
00000040: 5d12 18bf 4227 843d d381 783e 0462 d3be
00000050: 2f72 e5bd 69df eabe f553 c33d 4eee b03d
00000060: e03f 5abe c65a 58bf 0cbb 223e 58b7 aa3e
00000070: badd 32bf e2f5 5fbe 8d3a 69be 210f f53d
00000080: 35b6 903e 966b d43d 90b6 ebbe 9fc5 8bbd
00000090: 679a 6cbe 5556 863e 246d efbe 2828 eb3d
000000a0: 2a52 bc3e 455f fe3d afd8 42bd af4b 0f3c
000000b0: 7e64 e83c 4ca0 97be adf7 69be 6c3d 423e
000000c0: ea81 aa3e 76fa 073e 851e 503f c90d 29be
000000d0: 50d9 353e aaba dc3e b5c9 24be edea b23e
000000e0: 6fc3 d7be b0a3 453f 9a7a 273e 89d3 9e3e
000000f0: 7846 9a3e 6751 8b3e ef2a afbe 1cce abbd

module.model.1.model.4.running_var f4 [64]
0.7344178 0.099825114 0.6827854 0.5256504 1.2212883 0.17127997 0.2145732 0.3370098
0.21270938 0.32204401 0.12985955 0.10398171 0.13209887 0.5253341 0.20179342 0.18879846
0.68096894 0.12845096 0.107563555 0.42269078 0.18622088 0.30177686 0.070812784 0.73498344
0.67477477 0.23981857 1.0332174 0.10325822 0.21952613 0.18009771 0.18583962 0.14214446
0.08696234 0.65336704 0.12500496 0.2323298 0.2600372 0.106073305 0.3626468 0.18242422
0.14538352 0.1379346 0.34433177 0.115354635 0.55205834 0.06938692 0.70835924 0.066669814
0.5207745 0.37064388 0.55697733 0.33527252 0.16795568 0.23122296 0.19728535 0.28341487
0.099143885 0.25746468 0.18966286 0.76500434 0.22129089 0.22561547 0.103395365 0.7688899
00000000: ce02 3c3f 1c71 cc3d 06cb 2e3f 0691 063f
00000010: 2d53 9c3f 0464 2f3e 14b9 5b3e 8c8c ac3e
00000020: 7dd0 593e f4e2 a43e e7f9 043e 5df4 d43d
00000030: ed44 073e 4c7c 063f efa2 4e3e 6254 413e
00000040: fb53 2e3f a688 033e 484a dc3d ed6a d83e
00000050: b0b0 3e3e 7f82 9a3e 4b06 913d e027 3c3f
00000060: 0abe 2c3f 0093 753e 7840 843f 0c79 d33d
00000070: 75cb 603e 896b 383e be4c 3e3e 518e 113e
00000080: 5019 b23d 1043 273f 4d01 003e dde7 6d3e
00000090: 9923 853e f63c d93d d7ac b93e 6acd 3a3e
000000a0: 6bdf 143e ba3e 0d3e 414c b03e 0d3f ec3d
000000b0: b253 0d3f bb1a 8e3d 0857 353f 2f8a 883d
000000c0: 7a51 053f 09c5 bd3e 1196 0e3f d7a8 ab3e
000000d0: 93fc 2b3e b6c5 6c3e 2c05 4a3e c11b 913e
000000e0: f30b cb3d 69d2 833e fb36 423e 53d7 433f
000000f0: 149a 623e be07 673e f3c0 d33d f8d5 443f

module.model.2.model.0.weight f4 [64, 64, 3, 3]
-0.01857294 -0.04256712 0.014891065 0.010882795 -0.06706736 0.04332998 0.0021813668 -0.016787242
0.0036537487 0.0026278961 -0.0077890083 -0.003670911 0.05769594 0.018100431 -0.00216544 -0.042290602
-0.060854133 -0.04945515 0.060749862 -0.012415776 0.04676618 0.02763253 -0.031987555 0.051372744
-0.033248924 0.017805599 0.054560278 0.017581392 0.0577721 -0.037816215 0.0064031957 -0.036282048
-0.023165878 0.035462316 0.047916602 0.037369356 -0.03952942 0.063027 -0.05827287 -0.070581995
0.047329575 -0.054272547 0.0040751775 -0.03839319 0.06373974 -0.021094862 0.021633212 0.0030010426
-0.064224586 -0.031871848 0.009986829 -0.051982895 -0.019044314 -0.020822048 -0.051146552 -0.01601224
0.036293667 -0.054677255 -0.03315487 -0.010662424 0.016743587 -0.03852716 0.025935637 -0.026045661
-0.045684863 -0.025690813 0.0049193725 -0.066673 -0.03767468 -0.018875409 -0.006707126 -0.029799826
0.03261936 -0.051643178 0.0065776235 0.0015473692 0.07127611 0.051276892 -0.045331102 -0.031552073
-0.0066460855 0.038654674 -0.044870812 -0.064783484 0.030333156 -0.046448343 -0.06317803 -0.06270546
-0.0044573434 0.06777647 0.003907489 -0.055955537 0.06324473 0.05679838 -0.005496072 -0.01932924
-0.026990406 -0.04389919 -0.044954494 -0.04743098 0.06085516 0.057597827 0.053463478 0.042349543
0.066639155 0.0026501513 -0.052685756 0.012787478 0.01625316 0.014205247 -0.0057948614 0.059356157
0.014363098 -0.06294656 0.015446397 -0.03964662 -0.04551989 0.049513146 -0.060925372 -0.00949326
-0.020235127 0.00047528697 0.061349146 0.01970783 0.032267746 -0.05399286 -0.030021116 -0.048965164
0.01085896 0.031530473 -0.04353597 0.034676835 0.00257317 -0.0687602 -0.06360642 0.010055864
0.04631053 0.002970942 0.06991651 0.062595956 -0.054997582 -0.04236438 0.030484732 -0.040866476
-0.057643212 0.030531865 -0.071498685 0.019054376 -0.0055182413 -0.05928018 0.04224327 -0.058705114
-0.0007148151 0.036927074 0.06782136 0.046658963 0.015265394 -0.034486998 -0.027962647 0.0042645046
0.019258002 -0.032541167 0.03664967 -0.03413005 -0.03171923 0.046439823 0.06352162 -0.017948467
0.017626382 -0.01263037 0.0362983 -0.058722246 0.013252221 -0.03167252 0.06736091 0.0639003
-0.03516631 -0.03475131 0.061863657 -0.056482065 -0.071755774 -0.06452228 0.06875226 -0.053911608
-0.04528429 0.061645176 0.037310265 0.0115469005 -0.017872037 0.029467072 0.057156086 0.007791957
-0.030930245 -0.0017017015 -0.04245754 -0.04794442 0.0400826 0.054715887 -0.032060735 -0.0058409283
-0.018907215 -0.0512555 -0.017370516 -0.059714615 0.023284141 0.0077083204 0.013833856 -0.0027906722
-0.0022363826 -0.04665427 0.024408951 0.0015936018 0.015376436 0.04452602 -0.01411924 0.030112203
-0.012562133 0.065411404 0.0011100684 -0.0046229544 -0.037446268 -0.0067192367 0.0011657604 0.06529839
-0.0046758745 -0.03201955 -0.036321655 -0.029140372 0.039171852 0.0041809366 -0.050748352 0.06915984
-0.046826337 0.033952832 0.06786519 -0.018863838 0.027284462 0.030894276 0.026593002 0.046800245
0.043209985 0.026210776 -0.06493008 -0.06448083 0.07122729 -0.039810844 0.022124417 0.068236515
-0.025516635 0.04247439 0.043020274 0.062922694 -0.03737887 0.014904605 0.060823854 -0.05405686
00000000: 4726 98bc dc5a 2ebd a7f9 733c c04d 323c
00000010: 9d5a 89bd c77a 313d 43f5 0e3b 6685 89bc
00000020: bb73 6f3b c838 2c3b f03a ffbb ab93 70bb
00000030: 9452 6c3d 5b47 943c 0eea 0dbb e938 2dbd
00000040: 2f42 79bd 7c91 4abd d9d4 783d 8a6b 4bbc
00000050: e58d 3f3d 9e5d e23c 6205 03bd 3a6c 523d
00000060: 0630 08bd 0cdd 913c 997a 5f3d da06 903c
00000070: 70a2 6c3d 2de5 1abd e6d1 d13b 7c9c 14bd
00000080: 5ec6 bdbc ef40 113d 3344 443d 9c10 193d
00000090: 9ae9 21bd 4d14 813d 88af 6ebd 4b8d 90bd
000000a0: a8dc 413d e44c 5ebd 1189 853b 2d42 1dbd
000000b0: fb89 823d 22cf acbc 2238 b13c 24ad 443b
000000c0: 2e88 83bd 0e8c 02bd cc9f 233c 04ec 54bd
000000d0: d202 9cbc 0093 aabc 0c7f 51bd 1a2c 83bc
000000e0: aba8 143d 42f5 5fbd 67cd 07bd 73b1 2ebc
000000f0: d929 893c a8ce 1dbd f976 d43c b65d d5bc
00000100: 0d20 3bbd 8a75 d2bc b032 a13b db8b 88bd
00000110: c450 1abd 9aa0 9abc 73c7 dbbb c41e f4bc
00000120: e19b 053d cc87 53bd 1b89 d73b 18d1 ca3a
00000130: 36f9 913d b807 523d 1bad 39bd bf3c 01bd
00000140: 68c7 d9bb 5d54 1e3d 75ca 37bd 34ad 84bd
00000150: 3d7d f83c 9e40 3ebd 7c63 81bd b86b 80bd
00000160: e80e 92bb 64ce 8a3d 650a 803b a231 65bd
00000170: 7486 813d 6ba5 683d 6518 b4bb 5b58 9ebc
00000180: fc1a ddbc a3cf 33bd 3422 38bd fd46 42bd
00000190: 4343 793d b3eb 6b3d 85fc 5a3d b776 2d3d
000001a0: 1c7a 883d 29ae 2d3b 05cd 57bd 9282 513c
000001b0: 5925 853c 20bd 683c d2e2 bdbb 711f 733d
000001c0: 3353 6b3c 20ea 80bd e212 7d3c 7f64 22bd
000001d0: 1073 3abd 4cce 4a3d e28c 79bd 9e89 1bbc
000001e0: 23c4 a5bc f02f f939 3e49 7b3d 5172 a13c
000001f0: 2f2b 043d 9e27 5dbd d8ee f5bc b28f 48bd
00000200: c8e9 313c 1926 013d c652 32bd 4c09 0e3d
00000210: a1a2 283b 26d2 8cbd 1544 82bd 5ac1 243c
00000220: 1cb0 3d3d 23b4 423b 6330 8f3d 4f32 803d
00000230: 2545 61bd 4686 2dbd 1ebb f93c 9b63 27bd
00000240: 4a1b 6cbd f61d fa3c e76d 92bd ec17 9c3c
00000250: 5dd2 b4bb c6cf 72bd 4707 2d3d c674 70bd
00000260: 6e62 3bba d840 173d ede5 8a3d 781d 3f3d
00000270: b41b 7a3c 3d42 0dbd ec11 e5bc 42bd 8b3b
00000280: f5c2 9d3c e349 05bd f71d 163d f4cb 0bbd
00000290: 06ec 01bd af37 3e3d a017 823d aa08 93bc
000002a0: 3465 903c 9def 4ebc 87ad 143d bd86 70bd
000002b0: d81f 593c 0bbb 01bd 84f4 893d 29de 823d
000002c0: 8c0a 10bd 6457 0ebd bf64 7d3d bd59 67bd
000002d0: b1f4 92bd 4224 84bd fccd 8c3d 6bd2 5cbd
000002e0: 057c 39bd a77f 7c3d a6d2 183d 362f 3d3c
000002f0: 6168 92bc ee64 f13c 801c 6a3d ac53 ff3b
00000300: 6d61 fdbc a10b dfba f5e7 2dbd 5e61 44bd
00000310: a72d 243d c41d 603d 1e52 03bd 4265 bfbb
00000320: 4ee3 9abc 4af1 51bd 9d4c 8ebc 5097 74bd
00000330: 62be be3c 1496 fc3b 66a7 623c b6e3 36bb
00000340: 4690 12bb 8c18 3fbd 48f5 c73c 67e0 d03a
00000350: 72ed 7b3c ea60 363d 6354 67bc dead f63c
00000360: 68d1 4dbc 6af6 853d b77f 913a 277c 97bb
00000370: 4261 19bd 0b2d dcbb 6ecc 983a 2abb 853d
00000380: 1438 99bb ef26 03bd 04c6 14bd cab7 eebc
00000390: aa72 203d 3d00 893b 81dd 4fbd ada3 8d3d
000003a0: f9cc 3fbd 2012 0b3d e8fc 8a3d 5688 9abc
000003b0: aa83 df3c fe15 fd3c 91d9 d93c 9db1 3f3d
000003c0: f4fc 303d fbb7 d63c 10fa 84bd 870e 84bd
000003d0: 9ddf 913d b210 23bd 443e b53c 96bf 8b3d
000003e0: 4308 d1bc a0f9 2d3d 0736 303d 9ddd 803d
000003f0: 961a 19bd 7232 743c 6f22 793d ba6a 5dbd

module.model.2.model.0.bias f4 [64]
0.0010273459 0.0009873452 0.0009871004 0.0010126865 0.0009746916 0.0009781015 0.0010211681 0.001006236
0.0009746383 0.0009996652 0.0010172103 0.0010055683 0.0010015165 0.0009887511 0.0009938033 0.001004492
0.0009805898 0.0010197897 0.0010121028 0.0009973893 0.0009925541 0.000995053 0.0009951179 0.000986621
0.0009749028 0.000990525 0.0009907061 0.0009864704 0.0009763639 0.0009966755 0.0010172077 0.0010109782
0.0009927029 0.0010062428 0.001000019 0.0010162577 0.0010068365 0.0010101708 0.00096116296 0.0010347671
0.0010164587 0.0010122646 0.0010111952 0.001001301 0.0009964379 0.0009948665 0.0009947016 0.00097229943
0.0009885894 0.001014041 0.00096413697 0.001012101 0.0010025601 0.0010061067 0.000993623 0.000973153
0.0009876302 0.000998522 0.0010073972 0.0009925996 0.0009988769 0.0010159507 0.000990558 0.0010087226
00000000: 02a8 863a cf69 813a 9861 813a 1fbc 843a
00000010: 7282 7f3a a433 803a b7d8 853a ade3 833a
00000020: de7e 7f3a 3307 833a ea53 853a 46cd 833a
00000030: 5145 833a fb98 813a 8142 823a 29a9 833a
00000040: 2287 803a 77aa 853a 89a8 843a d5ba 823a
00000050: 9718 823a 706c 823a 9e6e 823a 8251 813a
00000060: 9f90 7f3a 81d4 813a 95da 813a 744c 813a
00000070: acf2 7f3a e1a2 823a d453 853a cd82 843a
00000080: 951d 823a e8e3 833a 1213 833a f333 853a
00000090: d4f7 833a b567 843a 8ef6 7b3a 06a1 873a
000000a0: b23a 853a f7ad 843a 158a 843a 163e 833a
000000b0: e89a 823a 2e66 823a a660 823a e9e1 7e3a
000000c0: 8e93 813a 92e9 843a 23be 7c3a 79a8 843a
000000d0: 5668 833a 57df 833a 753c 823a 311b 7f3a
000000e0: 5f73 813a d7e0 823a a40a 843a 1e1a 823a
000000f0: bfec 823a a629 853a 9cd5 813a 1d37 843a

module.model.2.model.1.weight f4 [64]
0.99943197 1.0002794 1.0002764 0.9997138 0.9995113 1.0002735 0.99954146 0.99963343
0.99990475 1.0002929 1.0002193 0.99939036 0.9997581 1.0004704 1.0004749 0.9997372
1.0002755 0.99943614 0.99975044 0.9993808 1.0002286 0.99990356 1.0003943 1.0000427
1.0004052 0.99977416 1.0003057 0.999363 0.99984497 0.99977964 1.0005699 1.000332
1.0003835 1.0004479 0.9996912 1.0005707 1.000444 0.9994217 0.99949384 1.0006192
1.0002216 1.0003226 0.9998339 1.0004503 0.99995655 1.0004576 0.99963254 1.0005156
1.0000571 1.0003948 1.000357 0.9994834 0.99998 1.0001063 1.0005368 0.99976486
1.0006022 0.99944687 1.0004834 1.0005485 0.99998593 1.0001178 0.99998814 0.999395
00000000: c6da 7f3f 2809 803f 0f09 803f 3eed 7f3f
00000010: f9df 7f3f f608 803f f3e1 7f3f fae7 7f3f
00000020: c2f9 7f3f 9909 803f 3007 803f 0cd8 7f3f
00000030: 26f0 7f3f 6a0f 803f 900f 803f c7ee 7f3f
00000040: 0709 803f 0cdb 7f3f a5ef 7f3f 6cd7 7f3f
00000050: 7e07 803f aef9 7f3f ec0c 803f 6601 803f
00000060: 470d 803f 33f1 7f3f 040a 803f 41d6 7f3f
00000070: d7f5 7f3f 8ff1 7f3f ad12 803f e10a 803f
00000080: 910c 803f ad0e 803f c3eb 7f3f b312 803f
00000090: 8d0e 803f 1ada 7f3f d4de 7f3f 4a14 803f
000000a0: 4307 803f 920a 803f 1df5 7f3f c10e 803f
000000b0: 27fd 7f3f ff0e 803f ebe7 7f3f e510 803f
000000c0: df01 803f f00c 803f b30b 803f 25de 7f3f
000000d0: b0fe 7f3f 7c03 803f 9711 803f 97f0 7f3f
000000e0: bc13 803f c0db 7f3f d70f 803f f911 803f
000000f0: 14ff 7f3f dc03 803f 39ff 7f3f 5ad8 7f3f

module.model.2.model.1.bias f4 [64]
-0.00054158305 0.000104254126 0.00025655684 -0.00050485943 -0.0005616816 0.0005884762 -0.0006162277 -0.00013058067
8.056441e-05 0.00048608353 -0.00022300603 -0.0005727673 -0.00047707514 0.0004969193 0.0005766048 -0.00023811827
0.00042026845 -0.00058254215 -0.0004694024 -0.00055969856 0.00014245871 0.00041173102 0.0004220813 -1.5480138e-05
0.00031573002 0.00027815852 0.0003205794 -0.0006253007 0.00031413173 -0.00045662982 0.000136161 -0.00039521753
0.0004557029 -0.00036336412 -0.000537337 -5.148611e-05 0.00011342591 -0.0006189999 -0.000546659 0.00055938103
3.177278e-05 0.00052651163 -0.00034800626 2.7708775e-05 5.85725e-05 0.0005410979 -0.00035739108 0.0003818142
-8.431148e-05 7.845955e-05 0.0005179563 -0.00055691274 4.8271853e-05 -5.5550532e-05 -0.0004223867 -0.00041981429
0.0006033276 -0.0005841286 0.00046036832 0.00034892402 -0.00022225906 -0.0002446819 -0.00010034286 -0.0006257429
00000000: 06f9 0dba 02a3 da38 7a82 8639 8b58 04ba
00000010: d03d 13ba f843 1a3a 578a 21ba 7bec 08b9
00000020: b0f4 a838 07d9 fe39 bad6 69b9 c325 16ba
00000030: f11f fab9 b143 023a 4b27 173a 63af 79b9
00000040: 7a57 dc39 beb5 18ba 201a f6b9 bcb8 12ba
00000050: f860 1539 9add d739 cb4a dd39 58db 81b7
00000060: 9188 a539 ced5 9139 7013 a839 38eb 23ba
00000070: 0cb2 a439 d167 efb9 71c6 0e39 3335 cfb9
00000080: 68eb ee39 e881 beb9 13dc 0cba caf2 57b8
00000090: 12df ed38 6144 22ba aa4d 0fba 6da3 123a
000000a0: c343 0538 9905 0a3a 9c74 b6b9 2470 e837
000000b0: beab 7538 77d8 0d3a 3860 bbb9 3c2e c839
000000c0: 62d0 b0b8 a68a a438 75c7 073a c8fd 11ba
000000d0: 8277 4a38 eefe 68b8 c973 ddb9 851a dcb9
000000e0: a128 1e3a 3520 19ba 975d f139 caef b639
000000f0: 360e 69b9 a648 80b9 2a6f d2b8 e508 24ba

module.model.2.model.1.running_mean f4 [64]
-0.23791142 0.2653434 -0.1508654 -0.079055466 -0.21173437 0.24108255 -0.16637078 -0.15198663
-0.019069469 0.6270957 0.08915728 -0.74345624 0.49642614 0.13287836 -0.22781652 -0.19678883
0.35947928 0.12711994 0.4251662 -0.08651911 0.30200452 0.6859088 0.026683034 0.08768266
-0.7013387 -0.29110357 -0.5133162 0.5542483 -0.19981647 -0.3619499 0.97507983 0.57813406
-0.54754585 -0.3092876 0.5387227 0.65711606 0.25524876 0.12033438 -0.14258802 0.04722113
0.26227957 0.22958462 -0.22665186 0.41005448 -0.5005509 0.17217714 -0.30261186 -0.34116164
-0.31066614 0.02900247 0.15484142 -0.20791276 0.007848556 -0.15466802 0.024827722 -0.2112083
-0.094512604 0.6730556 -0.056091767 -0.07074945 0.330191 -0.06480898 -0.45257756 0.15931882
00000000: 0d9f 73be 17db 873e 767c 1abe d5e7 a1bd
00000010: e5d0 58be 58de 763e 1a5d 2abe 62a2 1bbe
00000020: 9337 9cbc 5889 203f 1898 b63d 2653 3ebf
00000030: 912b fe3e 4411 083e bc48 69be 0383 49be
00000040: ab0d b83e bb2b 023e 62af d93e ee30 b1bd
00000050: 56a0 9a3e b897 2f3f 6196 da3c f792 b33d
00000060: ef8a 33bf 870b 95be b168 03bf 37e3 0d3f
00000070: b09c 4cbe 7f51 b9be d59e 793f 9800 143f
00000080: f72b 0cbf f25a 9ebe bbe9 093f c238 283f
00000090: f7af 823e df71 f63d 9802 12be f26a 413d
000000a0: 8249 863e 3b18 6b3e 6d17 68be a9f2 d13e
000000b0: 1b24 00bf 344f 303e f1ef 9abe bdac aebe
000000c0: a20f 9fbe 9796 ed3c c08e 1e3e 15e7 54be
000000d0: 3b97 003c 4b61 1ebe 8263 cb3c fd46 58be
000000e0: d38f c1bd 5f4d 2c3f 7bc0 65bd 16e5 90bd
000000f0: cb0e a93e 92ba 84bd 3fb8 e7be 7924 233e

module.model.2.model.1.running_var f4 [64]
0.4782502 0.26203904 0.24409619 0.32895926 0.23847269 0.36766416 0.2718678 0.16599242
0.14431109 0.40220258 0.147819 0.8695696 0.776044 0.37754905 0.22445476 0.4682073
0.6365022 0.26994792 0.49011993 0.3871218 0.22335385 0.4241493 0.62214893 0.20849502
0.5374663 0.2923151 1.0250546 0.24796022 0.3262528 0.29263237 0.69094664 0.23477851
1.0138752 0.17145553 0.2342068 0.44593573 0.31616956 0.28548402 0.28812754 0.25100437
0.88324034 0.35877398 0.6540763 0.15501383 0.41492262 0.31948456 0.50702286 0.18507953
0.3783115 0.3962187 0.40555358 0.27857122 0.6835957 0.644633 0.49660984 0.23029315
0.35756975 0.5439747 0.3288503 0.55650955 0.51773584 0.38038176 0.21536945 0.40755174
00000000: 36dd f43e fb29 863e 5af4 793e 596d a83e
00000010: 2f32 743e 7a3e bc3e 4232 8b3e ebf9 293e
00000020: 49c6 133e 7fed cd3e dd5d 173e 1d9c 5e3f
00000030: d2aa 463f 1c4e c13e 78d7 653e deb8 ef3e
00000040: cff1 223f 9d36 8a3e 00f1 fa3e d434 c63e
00000050: dfb6 643e 192a d93e 2745 1f3f b87f 553e
00000060: 6497 093f 53aa 953e fd34 833f 49e9 7d3e
00000070: 9b0a a73e e9d3 953e e1e1 303f c769 703e
00000080: aac6 813f 0a92 2f3e e8d3 6f3e b051 e43e
00000090: fae0 a13e f62a 923e 7485 933e a583 803e
000000a0: 0a1c 623f 39b1 b73e 8b71 273f f2bb 1e3e
000000b0: bd70 d43e 7b93 a33e 40cc 013f 7d85 3d3e
000000c0: 0cb2 c13e 2ddd ca3e b8a4 cf3e e3a0 8e3e
000000d0: 2100 2f3f ab06 253f a543 fe3e f8d1 6b3e
000000e0: 6213 b73e ed41 0b3f 115f a83e 6977 0e3f
000000f0: 568a 043f 66c1 c23e cf89 5c3e 9faa d03e
