output_gd_deblur_noise/ckpt/resnet_epoch21.pth (torch, 641727 bytes, 31 tensors)

module.model.0.weight f4 [64, 1, 1, 1]
00000000: 3c0a 173d 8972 dabd fa9b 8a3e a11f 483e
00000010: 2766 cc3d a947 083e 2add 543d b9e3 593e
00000020: 0976 133d 7122 2abe 9374 05be 21a4 7d3e
00000030: bb26 e73d 3c92 923e 23ea 51bb 8990 c33b
00000040: 26d1 0ebe 4497 06bd 00e2 3d3e 3d68 8ebe
00000050: cda3 513e 5015 1e3e d870 cb3d 8920 2c3d
00000060: aa54 9b3e a77e 60be 368c d4bd ef72 2f3e
00000070: 002a 8fbe 209a 253e 0da1 7abe df70 383e
00000080: 9e25 823e 195a 963e 848a 693e ee10 dcbd
00000090: 9aa4 87be 98b4 bfbc 8341 393e 2638 2ebc
000000a0: 3787 d93d 6c43 8cbe e96e 4dbd 546d 983e
000000b0: b1ff 5ebe db62 6c3e f521 80be 14a4 90be
000000c0: 038f b23d fdab 103e 56b6 143e 0730 f1bd
000000d0: 84f3 2fbe 99cf d33d 8aa9 ed3d d241 b33d
000000e0: dad5 bb3b ff43 7a3e cc98 8ebe b476 bcbd
000000f0: d227 313e 28e8 e2bd bebb 38be 66ac d63c
0.036874995 -0.10666377 0.27072126 0.19543315 0.099804215 0.13308586 0.05196873 0.21278276
0.03600124 -0.16614701 -0.13032751 0.24769641 0.11286684 0.28627193 -0.0032030426 0.0059681577
-0.13946971 -0.032859102 0.18543243 -0.27813902 0.20472641 0.15437818 0.099336326 0.042023215
0.3033803 -0.21923314 -0.103783056 0.17133687 -0.2796173 0.16172075 -0.24475498 0.18011807
0.25419325 0.29365614 0.22806746 -0.107454166 -0.2649277 -0.023401543 0.18091397 -0.010633504
0.10621493 -0.2739519 -0.0501546 0.2977091 -0.21777226 0.23084585 -0.25025907 -0.28250182
0.087186836 0.14128108 0.1452268 -0.117767386 -0.17182738 0.103423305 0.11604603 0.087527886
0.00573228 0.24440001 -0.2785095 -0.09202328 0.17300346 -0.110794365 -0.18040368 0.026205253

module.model.0.bias f4 [64]
00000000: 42a5 7b3a 983a 8cb8 d8ea 2c38 fee6 eab9
00000010: 1185 193a ff1a 4939 bb34 82ba 98e9 893a
00000020: 35d3 f139 1645 ef3a dbc6 433a 72bc e33a
00000030: eb07 f13a 773b 503a a629 9539 9f69 b73a
00000040: 164d 0a3b 1d9d 1f3b bef0 0aba 7435 c339
00000050: 2654 003b cc51 f1b8 4a1e d73a dda7 2438
00000060: fde1 feb9 3fba 1a3a c213 8f3a 8e36 873a
00000070: 01cf a83a 6295 9cb6 1df6 1339 a992 d4b8
00000080: 5bf8 9339 bbdd 9539 f4f0 5e3a 5e04 c7b9
00000090: 1ac6 063b d48d 023b 65fb 033b 9240 5c3a
000000a0: 32ea 0c3a ad3a 9b3a 0a5b de3a 69be ba3a
000000b0: c98a 403b 7bd2 4039 93fe c138 df7c 953a
000000c0: f40e 0a3b 72f2 2b3b 19fe 663a aed9 9a3a
000000d0: 7257 263a 1aa6 a03a dc2b b339 95dd 1aba
000000e0: 205f 283a 09a0 87ba b432 263b 64a2 85ba
000000f0: 1633 643a 5796 0b3b ea00 6a38 7cb6 a0b9
0.00095995155 -6.686634e-05 4.122671e-05 -0.0004480406 0.0005856315 0.0001917891 -0.0009933928 0.0010521887
0.00046124464 0.0018254842 0.00074682914 0.0017374887 0.00183892 0.0007943431 0.00028450525 0.001399327
0.0021103076 0.0024355121 -0.00053001556 0.00037233124 0.0019581406 -0.000115070114 0.0016412225 3.9256982e-05
-0.0004861503 0.00059023866 0.0010915922 0.0010315941 0.0012879075 -4.6665527e-06 0.00014110697 -0.00010136265
0.00028223064 0.00028584697 0.0008504533 -0.00037959492 0.0020564855 0.0019920962 0.0020138856 0.0008401956
0.0005375474 0.0011843048 0.0016964388 0.001424742 0.0029379597 0.00018388957 9.250375e-05 0.0011405012
0.0021066042 0.0026237038 0.0008811667 0.0011814141 0.0006345428 0.0012256533 0.00034174218 -0.0005907652
0.0006422866 -0.0010347377 0.0025359811 -0.0010195491 0.0008705122 0.0021299326 5.57908e-05 -0.0003065354

module.model.1.model.0.weight f4 [64, 64, 3, 3]
00000000: f3e6 063d beb9 72bc 7bb9 1fbd 9901 37bd
00000010: f7cb 523d 7c68 8f3d f5a0 37bd 7f6c e23c
00000020: e3b6 813d 81e3 fdbc 9d62 1a3d ece3 3abd
00000030: 6591 92bc 421c 84bd e7b5 82bd 164e 31bc
00000040: 4c11 7b3d ea58 d7bc e6b8 5e3c e33f 803d
00000050: 1a39 493d 9199 303d 247b 01bd 2901 893c
00000060: 9ba7 acbc f593 54bd 7ffe 28bd af6e e5bc
00000070: 4d61 73bd f400 8e3d a23c 743d 8b59 0f3d
00000080: bdfb 88bd f99a 70bc 54b9 fabc 4583 613d
00000090: 622d ceba bf9a 5b3d f636 473d 166e a23c
000000a0: 4bf2 5ebd 7a9a fdbc 682a f63c c673 7ebd
000000b0: 9a03 73bd ad1d a1bc 0b97 8dbd 8123 823c
000000c0: 3ab5 9bbb 59b3 653d 18d3 55bd 1a38 d5bc
000000d0: c561 a13c be64 373c 35bc 6ebd a6a4 1a3d
000000e0: a42d 0e3d 7f1c feba 81bf 84bc 648a 4fbd
000000f0: 2dfc fb3b e638 36bd 901f 87bd 95e6 8bbd
00000100: df6e 82bd c927 90bd 5e53 4abc 0ea2 eb3c
00000110: 031f 883d b781 793d 5ad2 783c aaff 043c
00000120: a7f0 823d c164 fabb 67ad c13c b41d e83c
00000130: 1e16 1dbd d01d 29bd a8a3 583d 516c 333c
00000140: 5d6b a43c c2d3 83bd 63bd 7a3d a940 3a3d
00000150: 815b 4ebd f0f2 6abd 3b0e 8fbd 3bba 90bd
00000160: 1fbb 353d 4d2a 60bd d201 cc3c d4ca 9d3c
00000170: 52c6 82bd cc19 f0bb c5c2 313c 791e d73c
00000180: e0b3 643d f4aa 553d 30e8 693d 7cca aaba
00000190: 8185 8dbd 061f eb3c cdfa fb3c 9fc3 77bd
000001a0: 6d25 933c 60bb 3e3d 45f4 adbc 83e3 74bd
000001b0: ba1c 853d 70e5 37bd 9a90 54bd 6b62 653d
000001c0: 7923 343d c665 97bc 1788 7cbd 2398 683c
000001d0: 0bd6 403d e5c2 70bc 0b49 4a3d fb3c 3e3d
000001e0: 034d 103d c2a5 943d 4aad 34bd b5b4 073b
000001f0: d25e 05bd 8d4a daba 32b0 ccbc 4ff7 34bd
00000200: 6636 7639 af8d e33c 8a7f 0a3d a883 90bd
00000210: 359a 1bbd 26bd 113d f339 83bd f6ee 13bd
00000220: e454 d93c d12d c53c 9f7b bbbc c7fc 70bd
00000230: 825f 8f3d 7b50 603d 9ea8 78bd 6403 83bd
00000240: 2127 15bd 3689 8dbc 3581 87bc fbcb 853c
00000250: 93fb 5cbd 2095 6d3d 541d 883d 2663 a4bc
00000260: 5159 103d 8ac3 233c 3e73 aebb 9ef3 1dbd
00000270: 1246 a03b c195 433d 46db 0d3c a2d4 743b
00000280: 602c 3d3d d950 2a3d 3df0 87bd 4c9b df3c
00000290: c4a1 78bd b67b 85bd 8d7c b5bc 62c7 863d
000002a0: 5a94 e93b 673f 0bbd f145 d93c 333b 43bd
000002b0: e8fa 803c e03c 29bd ebcb 673d b4f4 443d
000002c0: 7862 6a3d 3f93 283b 3aea 4abd baa6 423b
000002d0: e34c afbc 6ece 613d aef8 043d 9ae0 f73b
000002e0: a3a5 b03c fc34 28bd c4e0 833d 2edc 22bb
000002f0: ad17 e33b 35d8 923d 73fe 983c 2a5f 6a3d
00000300: 2c0c 07bc edc9 68bd 27d8 d5bc e619 db3c
00000310: 964c 84bc c4e9 cbbc e87f 09bd bc8c 6c3d
00000320: 72bc 8b3d 9cba e13c 1e2a 813d 4ad6 43bb
00000330: 60c0 90bd 02d2 373d 39ac 643d 616c 1d3c
00000340: 8e8e 8cbc 1068 aa3c bebf 883c 0472 703d
00000350: 20b2 ea3b 4554 bbbc 87a9 2d3d ed37 7bbd
00000360: 9c52 50bd 1ada 38bd 03ad 673d 78bc 0b3d
00000370: a01c 5d3b 53dd 0fbd 7642 2d3d 9b55 adbc
00000380: fba2 1e3d 000d 57bd 8e28 093d 7a8c 503d
00000390: 438a 68bd 6ec9 c5bc bdb5 d13c 1e4c 83bd
000003a0: 929f 88bd 206b 7abd 9b70 49bd 9796 243d
000003b0: 77b3 8abd e049 b3bc 4ee4 59bb ca79 6bbd
000003c0: fdb1 1b3d 5ffa c4bb de6c afbc f612 6a3d
000003d0: cae4 47bd d61c 983c e625 fd3c f870 4d3d
000003e0: 269f 1dbd d3fb 5f3b 90c9 1bbd 87b3 63bd
000003f0: de60 6dbc 37d7 3ebc 7006 5dbc 3cbd 203d
0.032935094 -0.014814792 -0.038995247 -0.044679258 0.051464047 0.07002351 -0.044831235 0.027639626
0.06333711 -0.030992271 0.0376917 -0.04562752 -0.017891595 -0.06450702 -0.06382351 -0.01082184
0.061295792 -0.026287515 0.013593888 0.062621854 0.049126722 0.043115202 -0.031611577 0.016724186
-0.021076014 -0.051898915 -0.04125833 -0.02800688 -0.059418965 0.069337755 0.059628136 0.034997504
-0.0668864 -0.014685386 -0.03060595 0.05505683 -0.0015730078 0.053614374 0.0486364 0.019827884
-0.054430287 -0.03095745 0.030049518 -0.06212213 -0.059329607 -0.01966747 -0.06913575 0.01588607
-0.0047518285 0.056079242 -0.052203268 -0.026027728 0.01969994 0.011193452 -0.058284957 0.037754677
0.034711495 -0.0019387155 -0.016204597 -0.05066909 0.007689974 -0.044487856 -0.06597817 -0.068310894
-0.06368803 -0.070388384 -0.012348978 0.028763797 0.0664654 0.06091472 0.0151868705 0.008117596
0.06393557 -0.0076414053 0.023642255 0.028334476 -0.03835117 -0.041288197 0.05289045 0.010951118
0.020070726 -0.06436874 0.06121577 0.04547182 -0.050380234 -0.05736059 -0.06985136 -0.07066771
0.044367906 -0.05472784 0.024903212 0.019261755 -0.06385483 -0.007327294 0.010849659 0.026259648
0.055835605 0.052164987 0.057106197 -0.0013030316 -0.069102295 0.028701317 0.03075924 -0.060489293
0.017962182 0.046565413 -0.02123464 -0.059787285 0.0649962 -0.044896543 -0.051895715 0.05600206
0.04397914 -0.018481147 -0.061653223 0.0141964285 0.047079127 -0.014694904 0.049386065 0.046444874
0.035229694 0.07258178 -0.044110574 0.0020707075 -0.03256113 -0.0016654298 -0.02498636 -0.044181164
0.00023480653 0.027777521 0.033813037 -0.070563614 -0.03798886 0.035580777 -0.06407537 -0.036116563
0.026529737 0.024069699 -0.022886096 -0.058834817 0.070006385 0.054764252 -0.06070768 -0.06397131
-0.03641427 -0.017277341 -0.016541103 0.016332617 -0.053950857 0.058003545 0.06646219 -0.020066809
0.03524143 0.009995351 -0.0053237965 -0.03856241 0.0048911655 0.04775024 0.008658236 0.0037358184
0.046184897 0.04158101 -0.06637619 0.027295731 -0.060701147 -0.065177366 -0.022154117 0.06580998
0.0071282806 -0.033996012 0.026522608 -0.04766388 0.015744641 -0.04131782 0.056590956 0.04808493
0.057222813 0.002572253 -0.049539782 0.0029701428 -0.021398967 0.055128507 0.032463722 0.0075646164
0.021563357 -0.041066155 0.06439355 -0.0024850476 0.0069303126 0.071701445 0.018676018 0.05721966
-0.008242648 -0.056833196 -0.026104046 0.026745748 -0.0161498 -0.024891742 -0.033569247 0.057751402
0.068230525 0.027554803 0.06306861 -0.0029882365 -0.070679426 0.044878013 0.055828307 0.009608359
-0.01715782 0.020801574 0.016692992 0.058702484 0.0071623474 -0.022867331 0.042398002 -0.06133263
-0.050860032 -0.045129873 0.05656148 0.034115285 0.0033738986 -0.03512318 0.04229971 -0.021158984
0.03872965 -0.052502632 0.03348594 0.05091522 -0.05677248 -0.0241439 0.025599355 -0.064110026
-0.066710606 -0.06113732 -0.049179655 0.040182676 -0.067725115 -0.021885812 -0.0033247652 -0.057489194
0.03801154 -0.006011292 -0.021414217 0.05714699 -0.048802175 0.018568438 0.03090186 0.050156564
-0.038481854 0.0034177199 -0.03803402 -0.055591132 -0.014488427 -0.011647991 -0.013490304 0.039242968

module.model.1.model.0.bias f4 [64]
00000000: 099c b43a cf3c 693a 2b7d 653a c3c9 423a
00000010: f99f 3a3a e673 aa3a 60a1 993a ccf6 623a
00000020: 3cd4 923a 4156 783a 655f 453a f516 a23a
00000030: 4175 863a ca9b 3d3a dcc6 6e3a ecc9 a73a
00000040: cf15 813a 4800 6a3a 2289 4a3a fb20 633a
00000050: fac8 b73a 49ed ac3a b442 923a bcfc 753a
00000060: 5b86 8a3a e066 c03a ab35 a23a ec33 893a
00000070: 840f 963a 069d 6d3a 3727 7a3a 10b6 673a
00000080: d90a 773a 39fb 8c3a 3b4b 9b3a 201e 5c3a
00000090: 4439 993a 6bfa 8c3a b814 ae3a ea1f 963a
000000a0: 0f26 5e3a 78f3 a03a 2ec8 a13a ab7a 833a
000000b0: 22f5 3d3a 4e98 883a a243 783a 91bd 913a
000000c0: 04f4 ad3a 81a1 853a c23a a83a 7018 a63a
000000d0: 3ae2 833a 4f52 953a cf0c 853a b73c a53a
000000e0: 6e8d 253a d014 563a 3757 7f3a 85cf 263a
000000f0: c628 d33a c960 943a a726 bd39 d386 bd39
0.0013779412 0.0008897306 0.0008754308 0.00074305775 0.00071191747 0.0013004511 0.0011721067 0.00086579914
0.0011202167 0.0009473302 0.00075291685 0.0012366461 0.0010258333 0.0007232992 0.0009108612 0.0012801266
0.0009848418 0.00089264335 0.0007726123 0.0008664277 0.0014021688 0.0013193275 0.0011158795 0.00093836687
0.0010568606 0.0014679097 0.0012375613 0.0010467744 0.0011448716 0.0009064231 0.00095425866 0.000883908
0.00094239187 0.0010756023 0.0011847982 0.0008396823 0.001169004 0.0010755783 0.0013281321 0.0011453603
0.0008474299 0.0012279591 0.0012342983 0.0010031065 0.00072463055 0.0010421367 0.00094705273 0.0011119117
0.0013271575 0.0010195227 0.0012834894 0.0012672078 0.0010061928 0.0011392328 0.0010150912 0.0012606595
0.0006315325 0.00081665535 0.0009740474 0.000636332 0.0016110174 0.0011320348 0.00036077687 0.0003614934

module.model.1.model.1.weight f4 [64]
00000000: cde8 7f3f 483f 803f ac31 803f edca 7f3f
00000010: 2e39 803f afd6 7f3f c123 803f 1908 803f
00000020: ca21 803f 7ae0 7f3f b414 803f e88c 7f3f
00000030: 1721 803f 2cf1 7f3f 9d21 803f 742e 803f
00000040: f030 803f d1b7 7f3f 3a28 803f 99f0 7f3f
00000050: 6001 803f 95a5 7f3f 93b6 7f3f a5af 7f3f
00000060: 7227 803f 1abb 7f3f 37cf 7f3f fb17 803f
00000070: c09a 7f3f d7ea 7f3f dd86 7f3f 7294 7f3f
00000080: c188 7f3f 5884 7f3f 5dbb 7f3f 93fe 7f3f
00000090: 33f2 7f3f 3603 803f 6c06 803f e7c1 7f3f
000000a0: e507 803f c225 803f d43b 803f b890 7f3f
000000b0: a210 803f 75cd 7f3f a10e 803f 101a 803f
000000c0: 3d06 803f 4fb8 7f3f 8aa9 7f3f 90a9 7f3f
000000d0: 541d 803f 8d04 803f 94d5 7f3f 4920 803f
000000e0: d52e 803f 109b 7f3f b21b 803f 9b04 803f
000000f0: 30ab 7f3f b7d4 7f3f db39 803f 9433 803f
0.999646 1.0019312 1.0015159 0.99919015 1.001745 0.99936956 1.0010911 1.0002471
1.0010312 0.999519 1.0006318 0.9982438 1.0010098 0.99977374 1.0010258 1.0014176
1.0014935 0.99889857 1.0012276 0.999765 1.000042 0.99862033 0.9988796 0.9987739
1.0012038 0.9989487 0.9992556 1.0007318 0.99845505 0.9996771 0.9981516 0.99835885
0.99818045 0.99811316 0.9989527 0.99997824 0.9997894 1.000098 1.000196 0.99905246
1.0002409 1.0011523 1.0018258 0.998302 1.0005076 0.9992288 1.0004464 1.0007954
1.0001904 0.9989061 0.9986807 0.99868107 1.000895 1.0001389 0.9993527 1.0009853
1.0014292 0.9984598 1.0008452 1.0001405 0.99870586 0.9993395 1.0017656 1.001574

module.model.1.model.1.bias f4 [64]
00000000: e9c8 193a a594 033b ea54 bb3a c9eb 83ba
00000010: 71ad 3d3a 2d38 003a 0eda 903a a2bd 9db9
00000020: a788 5f3a e41a bdba 780d 883a f566 d2ba
00000030: 4e4a 393a 9cac c0b8 513e 893a 3f65 3938
00000040: 3824 b93a fe47 df39 fa3e 0837 baf3 8d39
00000050: 2b92 cdba 5033 b1ba daa0 f3ba 29f7 6aba
00000060: 611c a63a 8d56 57ba 7604 4aba f2cb caba
00000070: 1fa6 d9ba 3f41 98b9 ae58 96ba 7d78 94ba
00000080: a3dc 53ba 1906 55ba 2b57 45ba 5be2 2cba
00000090: 4f9f 84ba f9fa adba a994 e1ba 6bca 99ba
000000a0: 1eef f939 ce3f 803a 15a7 5db9 c95e bcba
000000b0: 816b a537 bc67 86b9 86d5 733a 7c30 363a
000000c0: 0c5b 97ba 155b c5ba 8136 b7ba 955c 0f3a
000000d0: 390a 7e3a c6d6 8a39 0551 d9b9 bcad 24ba
000000e0: f4d6 9039 5c0c 74ba 2c85 493a 7357 e33a
000000f0: 9eb0 b7ba ac58 1cba 6bcc 103b 6df9 ef3a
0.0005866425 0.0020077613 0.0014292274 -0.0010064776 0.00072356226 0.00048911833 0.0011051313 -0.0003008666
0.00085271377 -0.001442757 0.001037999 -0.0016052412 0.0007068262 -9.1874244e-05 0.0010470842 4.420173e-05
0.0014125174 0.00042587513 8.120895e-06 0.00027075206 -0.001568382 -0.0013519321 -0.0018587366 -0.00089632213
0.0012673252 -0.0008214496 -0.0007706353 -0.0015472157 -0.0016605294 -0.0002904031 -0.001147052 -0.0011327412
-0.00080818887 -0.0008126214 -0.00075279427 -0.0006595009 -0.0010118278 -0.0013273648 -0.0017210442 -0.0011733299
0.00047671137 0.000978464 -0.00021138445 -0.001437151 1.9719593e-05 -0.0002563576 0.0009301532 0.0006949974
-0.001154752 -0.0015057052 -0.0013978035 0.0005468813 0.00096908543 0.0002648143 -0.0004144983 -0.0006281992
0.00027625973 -0.0009309703 0.00076873857 0.0017344787 -0.0014014428 -0.0005964141 0.00220945 0.0018308588

module.model.1.model.1.running_mean f4 [64]
00000000: 1d3a b838 1ebd 7c3a 4abb 063b 1990 16ba
00000010: 261b 1fba f9cf bc3a d237 713b 5723 043a
00000020: 4a07 59ba 15af 5d3b 42f4 883a 1804 173b
00000030: 0b77 d3b9 ac40 e53a 4e02 ce3a 637b 183b
00000040: e158 483a baa8 1a3a 7819 8f3a d7ee 383a
00000050: 362b a3ba f576 003b 2066 73b9 cf9e 343b
00000060: 0ab9 38ba a794 273b cc1a b13a aaaf df3a
00000070: dd87 4f3a 4eba 00ba eb28 723b b7c7 153b
00000080: cc23 7738 135c fe38 e4c7 e339 8efb 6b3a
00000090: 35fb 943a 2080 89ba a61a 2b3b 9950 6e3a
000000a0: 74ea 213a bf9c 20ba 2db6 2f3b 6963 7b39
000000b0: d975 933a b057 9439 749e 94ba 02d9 033a
000000c0: 3188 cdb9 bb97 663a 6280 503b 6c18 ae3a
000000d0: e5cf 9e3a 49c7 723a 852f dd3a c736 24b9
000000e0: 9d50 8639 fa39 1a3b e1e6 0b3b 2469 773a
000000f0: 0f28 2d3a 6e97 5c3b d259 743a 0314 f7b8
8.784628e-05 0.0009641218 0.002055841 -0.0005743518 -0.0006069414 0.0014405242 0.0036806953 0.00050406664
-0.0008278979 0.003382628 0.0010448771 0.0023043212 -0.0004033375 0.0017490587 0.001571724 0.0023266904
0.00076426385 0.0005899776 0.0010917624 0.0007054633 -0.0012448791 0.0019602154 -0.0002321233 0.0027560478
-0.0007046616 0.0025570781 0.0013512014 0.0017065902 0.00079166685 -0.0004910574 0.0036950659 0.0022854635
5.8922727e-05 0.00012128814 0.00043445744 0.0009002023 0.001136637 -0.0010490455 0.0026108413 0.00090909895
0.0006176599 -0.00061268726 0.0026811466 0.00023974259 0.0011250331 0.00028294092 -0.0011338727 0.000502959
-0.00039202117 0.00087964133 0.0031814803 0.0013282425 0.0012116401 0.0009261263 0.0016875124 -0.00015660665
0.00025618533 0.0023533092 0.0021347331 0.00094379694 0.00066053955 0.0033659595 0.00093212456 -0.00011781605

module.model.1.model.1.running_var f4 [64]
00000000: a7fd 993a f301 b03a 9a2e 9c39 620a 7439
00000010: ab89 f639 d929 4839 bc50 363a 4303 d439
00000020: 7835 1c3a 0628 8d38 2d51 4e3a ccdf 1637
00000030: 8e57 9e39 cd06 be37 48a0 9739 15f2 c937
00000040: 11ef 9e3a 6b65 4738 a416 213a 6472 0f39
00000050: 7778 1138 1530 b137 185c 3c39 6083 3838
00000060: e8c9 583a 9cde 5b38 5203 6c39 cf1d 1839
00000070: 0f9e 7838 57d1 5b39 f104 ad39 4068 a436
00000080: c193 1738 b9f4 983a b8f2 0438 84d9 963a
00000090: 7b41 413a 5020 943a 32b8 cd3a 8be4 d138
000000a0: ca9a d439 3739 b838 c4be 1239 dc5f ef38
000000b0: 69c8 9439 5904 d338 7332 8039 b793 153a
000000c0: 9393 4a3a 9b60 1337 e109 6339 5336 d737
000000d0: e286 223b 021e 3539 d08d d139 bb9b 4639
000000e0: c186 e637 eaa3 8a37 ec86 4a3a be73 4a39
000000f0: 0420 a339 25a9 193a f3c8 3c3a b7a9 9039
0.0011748568 0.0013428315 0.0002978936 0.00023273521 0.00047023347 0.00019089076 0.00069547794 0.0004043822
0.0005958895 6.730859e-05 0.00078703725 8.9928035e-06 0.00030201342 2.2652932e-05 0.00028920383 2.4073795e-05
0.0012125691 4.753975e-05 0.00061450363 0.00013680157 3.4682886e-05 2.1122434e-05 0.00017963385 4.399137e-05
0.00082698325 5.242099e-05 0.00022507951 0.00014506954 5.927501e-05 0.00020963453 0.00033000813 4.899717e-06
3.6138812e-05 0.0011669613 3.1697302e-05 0.0011508917 0.0007372123 0.0011301134 0.0015695153 0.00010008466
0.00040551118 8.784461e-05 0.00013994711 0.00011414263 0.00028378077 0.00010062074 0.0002445165 0.000570591
0.0007727679 8.7843755e-06 0.00021652087 2.5655294e-05 0.0024799635 0.00017272684 0.00039969245 0.00018940766
2.7480886e-05 1.652721e-05 0.00077257934 0.00019307339 0.00031113636 0.00058616913 0.00072015746 0.00027592268

module.model.1.model.3.weight f4 [64, 64, 3, 3]
00000000: 3f4a 83bd 1d87 323d 3e02 ee3c b49b 4bbb
00000010: 9ed3 363d f770 693d e132 75bc 3bf8 9fbc
00000020: e9e9 1e3d eb00 0dbd 8800 443d 24ae 6f3d
00000030: bc38 643d 1675 773c 7811 cfbc d91e 733c
00000040: 68a7 e1bc a650 833d c469 593c 12c8 7fbd
00000050: 97af 09bd acf0 5fbd 9e9c 38bb 0a8e 803d
00000060: fa7f 51bd 1e00 f5bc 5d33 5b3d a0ff 93bd
00000070: e537 483c 8ccf aebc 4738 5ebd 97a6 093d
00000080: d301 13bb 5136 abbc 3bfd 3ebd 6c02 adbc
00000090: d842 b3bc 5928 f6bc 1793 733d 987c 353d
000000a0: c5f1 6ebd 51f1 be3c fcfe 85bc 7ed0 813b
000000b0: b536 653d 1007 4bbd 2b00 69bd 6f3f b43b
000000c0: 9678 70bd 3da7 babc aced 003d 11bb e33c
000000d0: 4ddc 55bd 1642 953d 225c 8abb 7da0 673c
000000e0: ded8 3fbc c6fb f2bb de54 463d 7ee9 18ba
000000f0: ccda 133d ae0b 4f3d ecb3 c5b9 8f94 0fbd
00000100: 733c 8dbd b1f6 4cbd f02b 88bd 07ba 493d
00000110: dc98 8dbd 87c1 903d 21b3 0b3d b7c3 febc
00000120: dd70 713d b255 993c 480d 2fbc 7501 6b3c
00000130: 2709 33bd 63e5 673c f8a0 8cba 4fae 82bd
00000140: 8f64 023d 12fe 97bc a300 2abd aa0d 86bd
00000150: 501b 763d a482 a0bc a1d8 2abd 75bc 233d
00000160: 3d59 39bc f82a 7ebd 7c43 28bc 27b2 803c
00000170: a661 3bbd 116b 0d3d 6df0 4ebd fac9 53bd
00000180: bac6 4d3d b974 ca3c 3637 5ebd 506a 8f3d
00000190: 10e7 08bd 4f3b 3f3c a9a1 69bd eb21 303d
000001a0: f686 85bd 349f 39bd 27e6 f73c 23a2 be3c
000001b0: e957 6cbd 4c1f c53c d74a 883d 5075 4dbd
000001c0: 5817 2cbc b25c 943d 7fba 5dbd fef7 cdbb
000001d0: bc6f 86bd a32e 6b3d 9205 48bd 3cdc 473d
000001e0: a2f0 21bd 87a9 f9bc 8109 8d3d a38e 6c3d
000001f0: 6b85 55bd c302 92bd 6a4a 5d3d 0962 aebc
00000200: affc c93c 556c 55bb 9beb 9c3c fc94 3cbd
00000210: 4ded 93bc da69 5dbd 1c79 0c3d 2336 86bd
00000220: 80cd 9839 3aa7 cdbc bbf8 823d a8b6 15bd
00000230: 131f 8ebd 9500 bb3c 9f9a 423b 9b7f 45bd
00000240: 6302 47bd 278d 523d 22df 33bd 8e22 7fbd
00000250: f51c 0b3d b2c6 a53c 1ce1 e73c 7dcf 223d
00000260: e325 403c 7731 65bb 472b 12bd e0c9 4abd
00000270: ac5c 873c 3646 723d b49f 83bd 9036 3f3d
00000280: e81b 5fbd dc96 6a3b 4d01 4bbd 4392 fc3c
00000290: acb9 1ebb dfab d9bc aa09 72bd ad29 a5bc
000002a0: cc55 953d c43c 833d f877 9f3c 0dcf 973d
000002b0: 2de2 89bd d7ae 453b afc4 02bd 4ec3 603d
000002c0: aea6 17bd b85d 63bd 0fa3 88bd 60ab cebc
000002d0: f93f 8bba ae36 1abd 3fd4 6fbd a251 67bd
000002e0: 8bac 35bd 28ff 2ebd a8b2 5f3d 1018 a23c
000002f0: dd9a 86bd 14a0 013d c7cf 2dbd 4a32 1ebd
00000300: 5dae 67bc 59cf 78bc 3203 86bc f487 53bd
00000310: 36c7 08bd 328a 57bd bfcf 0cbb 3cf0 103d
00000320: e9a3 8fbd 5757 483d 1622 8f3d 2391 cb3c
00000330: ad52 9b3c 9d52 cd3c 81c8 34bd a5d8 0f3d
00000340: 611a 7d3d fe44 66bd a0de 83bd 089a 643d
00000350: d99b 8b3d 40b4 75bd 46c4 3a3d d40e 18bc
00000360: b7e8 61bd 6f66 943d 5873 1ebd 2283 683c
00000370: 7118 853d b8d7 ee3c 1836 153b cc28 3f3d
00000380: e624 12bd 2f17 793d 3edd d1bc 1326 59bd
00000390: 8138 e5bb 8bec a63b dbdb 1cbb 8a3b 6b3d
000003a0: 5e35 edbc c207 77bd b6e6 5dbd d050 ef3c
000003b0: 5776 3d3b 362f a1ba ea67 793d db6e f93c
000003c0: c3ae 643d c415 813c e213 2abd 6e70 183c
000003d0: 1277 ddbc d64e a33c 76c5 833d e7fa 96bc
000003e0: 62c2 713c 60ef febb e16c 8c3d ef1e 853d
000003f0: 81f9 693d 825c fc3c 2686 87bd e319 5a3d
-0.06410646 0.043585885 0.029053804 -0.0031068148 0.044635408 0.056992497 -0.014965744 -0.019527545
0.038797293 -0.034424704 0.04785207 0.058515683 0.05571817 0.015103599 -0.025276884 0.014838898
-0.027545646 0.06411867 0.013269845 -0.06244666 -0.03361472 -0.054672882 -0.0028169523 0.06277092
-0.05114744 -0.029907282 0.05351578 -0.07226491 0.012220358 -0.0213392 -0.05425289 0.033606138
-0.0022431507 -0.020899924 -0.04662822 -0.021119319 -0.02188246 -0.030048536 0.059466448 0.044308275
-0.05833604 0.023308428 -0.016356938 0.003961622 0.055960376 -0.049567282 -0.056884926 0.005500726
-0.05870875 -0.022784824 0.03147666 0.027799161 -0.05221205 0.072879955 -0.004222409 0.0141373845
-0.01170942 -0.0074152676 0.04842078 -0.0005833133 0.036097333 0.050548248 -0.0003770882 -0.035053786
-0.068962954 -0.05003995 -0.066490054 0.049249675 -0.06913921 0.070681624 0.034106378 -0.031099183
0.058945525 0.01871762 -0.010684319 0.014343609 -0.0437099 0.014153811 -0.0010729125 -0.06380903
0.03183418 -0.018553767 -0.041504513 -0.06545575 0.06008464 -0.019593544 -0.0417105 0.03997465
-0.01131278 -0.062052697 -0.010269996 0.01570995 -0.04574742 0.034525935 -0.050522257 -0.05170629
0.05023835 0.02471386 -0.054251872 0.070026994 -0.033423483 0.011671855 -0.057038937 0.043001097
-0.065198824 -0.045317844 0.030261112 0.023270672 -0.057701025 0.024062775 0.066548996 -0.050160706
-0.010503612 0.07244243 -0.054132935 -0.0062856665 -0.065642804 0.057417523 -0.048833437 0.048794016
-0.039536126 -0.030476345 0.06886578 0.057753216 -0.05212919 -0.07129433 0.054026045 -0.021286981
0.024656622 -0.0032565792 0.019155314 -0.04604052 -0.01805749 -0.054056026 0.034295186 -0.065532945
0.0002914481 -0.025104154 0.06395098 -0.036551148 -0.06939521 0.022827426 0.0029694212 -0.048217397
-0.04858626 0.051404145 -0.043913968 -0.062288813 0.033963162 0.020236347 0.028305583 0.039748657
0.011727783 -0.003497211 -0.035685804 -0.04950893 0.016523682 0.05914899 -0.06426945 0.046682894
-0.054469973 0.0035795486 -0.049561787 0.030831462 -0.0024219556 -0.026571212 -0.059091248 -0.020161474
0.07291755 0.064080745 0.019466385 0.07412539 -0.06732593 0.0030164027 -0.031925853 0.054873757
-0.037024193 -0.0555093 -0.06671726 -0.025228202 -0.0010623924 -0.037649803 -0.058552023 -0.056474335
-0.044354003 -0.042723805 0.05461374 0.019786865 -0.065725066 0.031646803 -0.04243448 -0.038622178
-0.014140693 -0.015186154 -0.016358946 -0.051643327 -0.033393107 -0.052622028 -0.002148613 0.035385355
-0.07013685 0.04891142 0.06988923 0.02484948 0.018960321 0.025063807 -0.044136528 0.035118718
0.061792735 -0.05621814 -0.06438947 0.05581096 0.06816835 -0.059986353 0.045597337 -0.009280879
-0.055153575 0.072461 -0.03868422 0.014191421 0.064988025 0.029155597 0.0022767838 0.046669766
-0.03567972 0.060813125 -0.025618192 -0.053014826 -0.006995261 0.005094116 -0.0023934755 0.057429828
-0.028956112 -0.060310133 -0.0541751 0.02921334 0.0028909647 -0.0012297395 0.060890116 0.030448368
0.05583073 0.015757449 -0.041522868 0.009304149 -0.027034316 0.019935053 0.06434147 -0.018430186
0.014755817 -0.0077800006 0.068567045 0.06500041 0.05712271 0.03080583 -0.06617384 0.053247344

module.model.1.model.3.bias f4 [64]
00000000: 7866 623a 550b 913a bee3 843a aa09 853a
00000010: 43f1 843a c9b4 833a 3c4b c03a ef0b 933a
00000020: 6ca4 873a 5232 823a ceaf 853a 94dc af3a
00000030: c386 7c3a 6767 7b3a a4d0 893a b6d0 683a
00000040: 72c5 813a c477 593a c5c5 763a 0fb5 843a
00000050: a5b5 4c3a 2fcc 893a bc92 743a 720f 823a
00000060: 1ee6 8e3a d702 653a d2ba 893a e076 823a
00000070: 54d1 8a3a f56f 993a 56b1 903a 2e6e 7f3a
00000080: 9bdb 843a 19ba 943a 10ef b73a 3f11 aa3a
00000090: 1893 6b3a fe33 7c3a eaad 813a e4e7 603a
000000a0: 86e5 7f3a 4564 9c3a c3f9 6d3a 54f6 903a
000000b0: 9604 643a d629 973a 633a 7b3a 086b 7e3a
000000c0: c230 843a 6322 6f3a 27a1 833a 00f6 5f3a
000000d0: 0e1c a83a 5279 773a bf57 4e3a 7e6c 7b3a
000000e0: 996a 893a fcc2 8e3a 9482 4e3a 2cc5 923a
000000f0: 7814 863a dd2f 8b3a 2fd5 963a a89b 8c3a
0.0008636485 0.0011065999 0.0010138673 0.0010149975 0.0010142702 0.0010048385 0.0014670859 0.0011218766
0.0010348684 0.000993321 0.0010199489 0.0013417178 0.0009633118 0.0009590298 0.001051445 0.0008881198
0.0009900762 0.00082957395 0.0009413625 0.001012476 0.00078090496 0.0010513122 0.00093297265 0.0009922816
0.001090232 0.000873608 0.0010507947 0.000995364 0.0010590949 0.001170634 0.0011039178 0.0009743896
0.0010136248 0.0011346965 0.0014033038 0.001297511 0.0008986457 0.00096207845 0.0009893749 0.0008579476
0.00097616797 0.0011931738 0.000907805 0.001105974 0.0008698193 0.0011532854 0.00095835904 0.000970528
0.0010085332 0.00091222505 0.0010042534 0.0008543432 0.0012825744 0.00094403804 0.00078713516 0.0009591057
0.0010484039 0.001089185 0.0007877734 0.0011197678 0.0010229489 0.0010619123 0.0011507625 0.0010727542

module.model.1.model.4.weight f4 [64]
00000000: dd3c 803f ce99 7f3f 2f7d 7f3f 5aba 7f3f
00000010: 690d 803f b705 803f c869 7f3f e67a 7f3f
00000020: 5a3a 803f b741 803f 8a7f 7f3f 626b 7f3f
00000030: b13c 803f 762e 803f c873 7f3f 2a4b 803f
00000040: 2b53 803f eb4c 803f ef91 7f3f 74d7 7f3f
00000050: 6f41 803f d0bd 7f3f 0d3d 803f 2c30 803f
00000060: 0e7e 7f3f 0650 803f 1d8f 7f3f 8938 803f
00000070: 8c10 803f a36f 7f3f 0b61 7f3f 0fc1 7f3f
00000080: bd69 7f3f 6ba4 7f3f 6b71 7f3f b878 7f3f
00000090: 642d 803f ae32 803f b049 803f de36 803f
000000a0: b035 803f 3973 7f3f c53e 803f 05cb 7f3f
000000b0: 613d 803f d26d 7f3f 0348 803f 2a3d 803f
000000c0: 103b 803f 6a32 803f af86 7f3f b949 803f
000000d0: 2069 7f3f 7747 803f 4447 803f 8bb2 7f3f
000000e0: aec3 7f3f 576d 7f3f a549 803f ba6a 7f3f
000000f0: 1997 7f3f 982a 803f f06d 7f3f 8095 7f3f
1.0018574 0.9984406 0.9980039 0.99893725 1.0004092 1.0001744 0.99770784 0.99796903
1.0017807 1.0020055 0.99803984 0.9977323 1.0018522 1.0014179 0.99786043 1.0022938
1.0025381 1.0023474 0.9983205 0.9993813 1.0019969 0.99899006 1.0018631 1.0014701
0.9980172 1.0024421 0.9982775 1.0017253 1.000505 0.9977972 0.9975745 0.9990396
0.9977072 0.99860257 0.9978244 0.9979358 1.0013852 1.0015466 1.0022488 1.0016744
1.0016384 0.9978519 1.0019156 0.9991916 1.0018731 0.9977695 1.0021976 1.0018666
1.0018024 1.0015385 0.99814886 1.0022498 0.99769783 1.0021809 1.0021749 0.9988181
0.9990796 0.99776214 1.0022475 0.99772227 0.9983993 1.0012999 0.99777126 0.99837494

module.model.1.model.4.bias f4 [64]
00000000: 93e5 263b 7c66 faba 7bd6 06bb 97a6 2db9
00000010: 88f4 4cba e0c6 a8b9 9fc9 16bb aedf 15bb
00000020: dea5 eb3a 6000 173b 08b5 0dbb cbc6 16bb
00000030: 05df 053b d9bd 6d3a 48fa 1bbb 3b53 1d3b
00000040: 9631 293b 0278 1c3b a38a eaba 6455 efba
00000050: 69dc 0e3b b0ca b4ba 7444 1c3b 563f dd3a
00000060: 7de4 16bb af98 1e3b 7998 f4ba 4f28 fc3a
00000070: 2a03 19ba ce83 13bb e1c7 1cbb 0ac5 f0ba
00000080: f98a 16bb 0b16 00bb 8d68 12bb bcd3 0fbb
00000090: a334 0e3b e4b9 123b e263 0d3b 608a f23a
000000a0: c853 103a 8af1 11bb b4ef 183b 9cfb 97ba
000000b0: e23c 0b3b c033 10bb aad5 193b 46ff 063b
000000c0: 9b55 153b fd42 da3a 5915 13bb adcf 183b
000000d0: e4b4 15bb 5b46 193b 569d 133b 8415 03bb
000000e0: 8468 e5b9 fa09 14bb 7b88 1a3b 1223 18bb
000000f0: 5951 e9ba ad6c b4b7 4b35 18bb c9c7 eaba
0.0025466427 -0.0019104029 -0.0020574618 -0.00016560625 -0.00078184204 -0.0003219163 -0.002300836 -0.002286892
0.001797851 0.0023040995 -0.0021622796 -0.0023006673 0.002042712 0.0009069122 -0.0023800302 0.0024005908
0.002581691 0.0023875241 -0.00178941 -0.0018259701 0.0021798855 -0.0013793316 0.0023844512 0.0016879837
-0.0023024373 0.0024199893 -0.0018661163 0.0019238087 -0.00058369583 -0.0022508982 -0.0023922848 -0.0018369269
-0.0022971018 -0.0019544389 -0.002234015 -0.0021946272 0.0021698854 0.0022388631 0.0021574427 0.0018504374
0.00055056484 -0.0022269213 0.0023336234 -0.0011595371 0.0021246006 -0.0022003502 0.00234733 0.0020598932
0.002278662 0.0016652044 -0.0022443144 0.0023317144 -0.0022843415 0.0023387882 0.00225242 -0.0020001838
-0.00043756154 -0.0022588954 0.0023579884 -0.0023214263 -0.0017800733 -2.1508278e-05 -0.0023225124 -0.0017912324

module.model.1.model.4.running_mean f4 [64]
00000000: 76db 26be b5a6 123f 443e 9abe 6fd8 2d3d
00000010: 3d17 c83c 01a9 d5bd 3eb7 e5bd e789 a33d
00000020: 5d50 053f 832e 333f 5461 58bd 77b4 f4be
00000030: 5224 bf3e eb93 903e c506 de3e ad64 693d
00000040: 64df 01bf 747a b43d 19b9 5c3e 6153 00bf
00000050: dd5e 79be 0cb7 0cbf cac5 453d beba ffbc
00000060: 4861 d5bd 678d 6fbf 44ec 02bb d911 b13e
00000070: 0b38 30bf e79d 8fbc 5291 5bbe d5a9 623e
00000080: f9aa b53e ac6a 493e ded9 11bf 6851 eebd
00000090: 9329 a5be 8d3f 823e cdad c7be ecf1 083e
000000a0: a9f8 ec3e 66c1 113e 81a7 17be 7680 d5bd
000000b0: feab 26be 0910 c8be b586 8abe 7b05 4d3e
000000c0: f23b e63e f50a f33d ef27 603f c87a b6be
000000d0: 8db3 673e bc21 f63e 1f5d 7ebd 9004 b43e
000000e0: 460b 87be ae15 403f 1e90 443c 8104 b03e
000000f0: 39bb a83e 4d30 2b3e 0b40 a0be c1eb f5bd
-0.16294655 0.57285625 -0.3012563 0.042442735 0.024425143 -0.104326256 -0.11216591 0.07985287
0.5207575 0.69992846 -0.052827194 -0.47793934 0.37332398 0.28237852 0.4336454 0.056980778
-0.5073149 0.088124186 0.21554984 -0.50127226 -0.24352594 -0.5496681 0.04828433 -0.031216975
-0.104189456 -0.9357514 -0.001997725 0.3458393 -0.68835515 -0.017531348 -0.21442154 0.22135098
0.35482004 0.19669598 -0.56973064 -0.11636621 -0.3225828 0.2543911 -0.38999787 0.13373536
0.46283463 0.14233932 -0.14809991 -0.104248926 -0.16276547 -0.39074734 -0.27055898 0.20021622
0.4496761 0.11867324 0.87560934 -0.3564055 0.22627087 0.48072612 -0.062100526 0.3515973
-0.26375788 0.7503308 0.011997251 0.34378436 0.3295534 0.16717644 -0.3129886 -0.12007857

module.model.1.model.4.running_var f4 [64]
00000000: c464 ee3e 8e98 543e ba8f 813f ddcc 0a3f
00000010: a310 7140 7b36 2d3d 8044 3f3e fe5a 903d
00000020: 6891 0f3e c7aa 223f 4ad5 3b3e b895 f03e
00000030: e640 a83e d198 323f c253 ae3d 29bd a13d
00000040: 2433 b43f a147 123f a650 413d 9464 d73e
00000050: e89e 9a3d 1f75 a03f 8820 9c3d 686a a93e
00000060: b5e2 a03f fe6e ae3e ce5d e83f 3d3c f93e
00000070: a670 4c3e 5a3d 143f ab32 123e 04a7 b73e
00000080: eda2 ae3e fa81 093f a013 093e 6e28 063d
00000090: a19d 973d 2887 353e 79f0 373f 5ba7 363e
000000a0: 7cbe 243e d23c 9c3d 7ae2 e13d 0e95 453e
000000b0: cd08 233f 318d 883d ca83 cf3f fcb8 bc3d
000000c0: 7810 cd3f 224c 3e3f 49f5 9c3e f786 123f
000000d0: e671 ab3d cc2c 8a3e f3d2 d93d 5c0c 0e3f
000000e0: df29 4a3d 6d42 853e 29dc 1c3f 10bb 833f
000000f0: a371 8b3d 837d 293f 7ab4 d33d af23 8a3e
0.46561253 0.2076132 1.0121987 0.54218847 3.7666404 0.042288285 0.18678474 0.070486054
0.14020312 0.63541836 0.18343082 0.46989226 0.32862014 0.6976443 0.08512069 0.078974076
1.4078107 0.5714055 0.047196053 0.42068923 0.0754984 1.2535743 0.07623392 0.33088994
1.2569185 0.34069055 1.8153627 0.4867877 0.19964847 0.57906115 0.14277141 0.3586961
0.34108678 0.53713953 0.13386393 0.0327534 0.07403112 0.1772734 0.7185131 0.17837279
0.16088289 0.07628788 0.11029525 0.19295141 0.63685304 0.06667555 1.6212094 0.092149705
1.6020651 0.7433492 0.30655888 0.5723719 0.08371334 0.26987302 0.106359385 0.5548761
0.049356338 0.2602724 0.6127344 1.0291462 0.06808784 0.6620714 0.103371575 0.2698035

module.model.2.model.0.weight f4 [64, 64, 3, 3]
00000000: 05e1 96bc 75fd 2bbd bc58 813c 5ef3 403c
00000010: 1a87 88bd efd4 343d 3d01 233b f2c7 80bc
00000020: 4f6f 873b 89f3 ba3a ca9f 15bc 192d a4bb
00000030: 34c6 663d 1151 893c d6ad 5fbb c984 32bd
00000040: 49d3 7ebd e948 50bd cf7d 783d 78dc 50bc
00000050: 7d80 3e3d 9579 e13c 7a2e 02bd e4a4 523d
00000060: 3013 09bd 87f2 8f3c 9163 613d c56f 843c
00000070: e72a 673d 250b 20bd 9fc1 9d3b f8bb 1abd
00000080: 4b45 c8bc c7ba 0a3d d708 3e3d 39c1 123d
00000090: 806f 27bd c500 7e3d f810 74bd 558b 93bd
000000a0: f4c2 3c3d 5a1a 64bd 23e8 253b 7043 23bd
000000b0: 2205 803d 259f afbc 9ea9 ab3c 4a81 ca3a
000000c0: 1970 86bd bb19 08bd da77 0c3c 630e 59bd
000000d0: ffc0 a5bc 5ed0 b2bc f841 55bd 9388 81bc
000000e0: 11b6 113d 06de 63bd e2dc 0bbd 090f 3ebc
000000f0: 1067 833c 3b9a 1ebd 6711 cb3c c4a7 e1bc
00000100: 71aa 40bd 8b84 ddbc ce69 5c3b d0d9 8bbd
00000110: f92f 1ebd a46e a7bc e356 08bc 7c99 00bd
00000120: 98c4 003d 52b6 58bd 4389 b73b 45dd de39
00000130: ab16 8f3d 3cae 4c3d 9881 3ebd 3f83 06bd
00000140: c901 00bc 711b 193d 8095 3dbd b495 87bd
00000150: 1b06 ed3c c492 43bd 9934 84bd ba7a 83bd
00000160: 7f11 c1bb 740c 883d 3435 383b 0e31 6abd
00000170: 85b8 7d3d 966f 683d 03e4 d1bb 777f a2bc
00000180: d873 dfbc c3d1 35bd f54d 38bd cedd 3bbd
00000190: 3582 7c3d b67f 723d 851a 5f3d e972 2e3d
000001a0: 5a17 883d 07dd 7b3b c6d9 51bd c754 6a3c
000001b0: b791 733c bf22 533c 5b08 e9bb b8ad 6d3d
000001c0: 19f8 553c 3933 83bd cc37 663c 212e 28bd
000001d0: 77f0 3ebd fb8e 473d e8f9 7cbd 77a5 1dbc
000001e0: e3c1 abbc 88b7 00b9 e337 783d c429 9a3c
000001f0: 2ec0 003d c6b2 5fbd a9b4 00bd 867f 4dbd
00000200: a793 1f3c 9e52 f63c 8d1b 38bd 7839 083d
00000210: fdf9 8e3a da98 8fbd 8439 85bd 0478 123c
00000220: bccd 393d 4477 173b 2b28 8c3d 92c3 7a3d
00000230: d775 67bd 9b5d 2dbd a4a1 f13c b6c9 2cbd
00000240: bdc4 68bd 343b 013d 6a2b 8fbd 514f a83c
00000250: cb21 90bb 3965 72bd a518 323d c37d 6abd
00000260: b0fa 4c3a a243 113d 6ddd 873d 33c9 393d
00000270: 90f7 623c 933c 13bd 59ea f1bc 35cb 383b
00000280: 39bd 903c d8e6 09bd 357f 103d 3218 11bd
00000290: ce93 07bd 8c37 383d 20fa 7d3d e52a 9fbc
000002a0: 4663 8b3c 8a3d 64bc d7f0 0f3d dc1f 6cbd
000002b0: a18c 6f3c 9558 f7bc 8f31 8c3d 2da0 853d
000002c0: 5ab7 0ebd 0f28 08bd 22f1 813d 8a44 61bd
000002d0: e338 94bd b0c6 84bd cbb0 8b3d ec95 5abd
000002e0: 4749 3cbd 57cf 7b3d 66c1 163d 8d91 3c3c
000002f0: 1a48 87bc 2714 f73c 1b27 693d b524 063c
00000300: 806c f5bc 8089 ccba ffb1 30bd 87a2 40bd
00000310: 07c2 293d de3e 653d aba5 06bd 64f2 efbb
00000320: 4620 a5bc ed3f 55bd aba0 98bc af75 7abd
00000330: 1555 b43c 5ff9 d43b 4dce 4c3c 6f22 3bbb
00000340: 6149 3bbb 9368 3ebd 798f c93c 455f 9b3a
00000350: f223 773c 4832 333d 927b 75bc 70d4 f03c
00000360: 858e 54bc 07d5 833d 0417 f539 920d 99bb
00000370: 82fe 1ebd 1221 07bc f642 253a 0adf 833d
00000380: 1c65 c0bb b2bb fabc 1c49 0ebd 795a e1bc
00000390: 30d6 263d 2b15 b73b 260e 4abd cef0 903d
000003a0: 3825 39bd f4c8 113d f4fc 873d 3d10 a6bc
000003b0: a714 d53c 2a14 f13c db5d cd3c 745d 3a3d
000003c0: 484c 2b3d b79f c93c c721 88bd d891 86bd
000003d0: 017d 8f3d 3294 27bd 1a9b ab3c efca 893d
000003e0: ed59 d6bc d52a 283d 8a0d 2a3d f1a6 7c3d
000003f0: 17c4 12bd 32da 853c 1743 7f3d 0eb7 58bd
-0.018417845 -0.041989762 0.015789382 0.011776773 -0.066663936 0.04414838 0.0024872564 -0.015720341
0.004133142 0.0014263253 -0.009132335 -0.005010259 0.056341365 0.016762288 -0.0034130714 -0.043583665
-0.062213216 -0.050850783 0.060666855 -0.012747876 0.046509255 0.027523795 -0.031782605 0.051426783
-0.033465564 0.0175717 0.055026595 0.016166577 0.0564374 -0.03907313 0.004814341 -0.037776917
-0.024447104 0.03386953 0.04639515 0.035828803 -0.04087782 0.062012453 -0.059586495 -0.0720431
0.04608436 -0.055689193 0.0025315366 -0.039859235 0.06250979 -0.02143819 0.020954903 0.0015449908
-0.0656435 -0.033227663 0.008573497 -0.052992236 -0.02023363 -0.021827873 -0.052064866 -0.015812194
0.035574023 -0.05563166 -0.034146197 -0.011600264 0.016040355 -0.038721304 0.024788572 -0.027545817
-0.047037546 -0.02704074 0.00336324 -0.06828654 -0.03861997 -0.0204385 -0.008321497 -0.031396374
0.031437486 -0.05290825 0.0056010797 0.00042507998 0.069867454 0.04997085 -0.04651031 -0.03284001
-0.007812926 0.037379686 -0.046285152 -0.066203505 0.028933575 -0.04774739 -0.06455345 -0.064198926
-0.0058919783 0.06643 0.0028107883 -0.05717569 0.06194355 0.05674704 -0.006405355 -0.01983617
-0.027276918 -0.044389497 -0.04499622 -0.045865826 0.061647613 0.059203826 0.05446865 0.042590056
0.06645079 0.0038431303 -0.051233076 0.014302439 0.014866284 0.012886702 -0.0071115918 0.058027
0.013059639 -0.06406254 0.014051389 -0.041059617 -0.046616044 0.04872034 -0.061761767 -0.009621969
-0.020966476 -0.00012275402 0.060600173 0.018818744 0.031433277 -0.05461385 -0.03142229 -0.050170444
0.009739793 0.030068692 -0.04494815 0.03325793 0.0010908243 -0.07011576 -0.06505111 0.008939747
0.04536222 0.002311186 0.06843599 0.061221667 -0.056508865 -0.042325597 0.029496022 -0.042184554
-0.05682825 0.0315506 -0.069907025 0.020545634 -0.0043985597 -0.059178565 0.043480534 -0.057248842
0.0007819338 0.03546489 0.066340305 0.045357894 0.013852969 -0.03594644 -0.029530691 0.0028197293
0.017668353 -0.033667415 0.035277564 -0.035423465 -0.033099942 0.04497485 0.062006116 -0.019429633
0.01701511 -0.013930688 0.035141792 -0.05764757 0.014620931 -0.030193606 0.0684539 0.06524692
-0.034842826 -0.033241328 0.063448206 -0.054997005 -0.07237413 -0.06483209 0.0682083 -0.053365633
-0.04596832 0.06147703 0.036805533 0.011509311 -0.016513873 0.030160977 0.05692206 0.008187463
-0.029958963 -0.0015604943 -0.0431385 -0.04703 0.041444805 0.055968158 -0.032872837 -0.0073225964
-0.02015699 -0.052062918 -0.0186313 -0.061147388 0.022013227 0.006499454 0.012500358 -0.002855446
-0.0028577673 -0.04648645 0.024604546 0.0011853954 0.015084254 0.043749124 -0.014983075 0.029398173
-0.012973432 0.06437116 0.0004674719 -0.004670807 -0.038816936 -0.008247631 0.00063042284 0.06439026
-0.005871428 -0.030607078 -0.03473769 -0.027508961 0.04073161 0.00558724 -0.0493299 0.0707718
-0.04520151 0.035592034 0.06640044 -0.020271415 0.026010824 0.02942856 0.025069168 0.04549928
0.041820794 0.02461229 -0.066470675 -0.06570786 0.070062645 -0.040912814 0.020947982 0.0672816
-0.026165927 0.041056473 0.041516818 0.061682645 -0.035831537 0.016339395 0.06231984 -0.05290895

module.model.2.model.0.bias f4 [64]
00000000: 4467 883a 4e73 823a d928 813a b577 873a
00000010: e238 783a 25d3 7a3a 1d75 893a f52a 813a
00000020: fc1c 783a 3194 813a c0d8 843a e822 873a
00000030: a63d 833a c744 803a 9fc0 803a aa3d 823a
00000040: 9c18 7e3a cc10 873a ad5b 853a 985c 833a
00000050: 2bee 813a 5065 813a d00c 843a 1089 803a
00000060: c1f8 7b3a 3808 7f3a 70c2 813a 4d16 7c3a
00000070: bec9 803a 01fb 823a c42f 873a 566e 853a
00000080: 5821 813a d8e1 7f3a d583 843a 0974 853a
00000090: 96c3 853a ac29 863a e7f4 773a 3f41 873a
000000a0: 8910 863a b4dd 843a 6cdf 843a 7ced 7f3a
000000b0: e33e 813a ef0a 823a cc28 813a 2247 7d3a
000000c0: c338 823a 8ab5 843a 85aa 783a f440 853a
000000d0: 2f7f 833a 2544 833a 0695 813a f967 7b3a
000000e0: 71c1 7c3a dc95 823a d71f 823a 39fb 803a
000000f0: cab6 813a 59e2 873a 006f 803a 6711 863a
0.0010406752 0.0009952576 0.0009854092 0.0010335358 0.00094689254 0.0009568206 0.0010487173 0.0009854721
0.0009464768 0.0009886083 0.0010135397 0.0010310085 0.001001288 0.0009786122 0.000982303 0.000993659
0.0009692998 0.0010304688 0.0010174416 0.0010022102 0.0009912899 0.0009872112 0.0010074619 0.0009806473
0.00096119574 0.0009728703 0.0009899866 0.000961636 0.0009825749 0.0009993018 0.0010313918 0.0010179977
0.0009851856 0.00097611314 0.001011009 0.0010181676 0.0010205384 0.0010235808 0.00094587955 0.0010319127
0.0010228317 0.0010136873 0.0010137386 0.0009762866 0.0009860661 0.0009921471 0.0009854077 0.00096617837
0.0009935129 0.0010124904 0.00094858586 0.0010166452 0.001003241 0.0010014815 0.0009886331 0.0009590383
0.0009641862 0.0009962874 0.0009927702 0.0009840495 0.0009896394 0.001036714 0.0009798706 0.0010228575

module.model.2.model.1.weight f4 [64]
00000000: 53ab 7f3f 1032 803f 3b07 803f 6d8e 7f3f
00000010: 1bd0 7f3f 101e 803f c293 7f3f efaa 7f3f
00000020: c52d 803f 3bf4 7f3f 432c 803f fc5d 7f3f
00000030: 9cf4 7f3f 751e 803f 5503 803f fc0b 803f
00000040: f2f1 7f3f 7c9d 7f3f 25cb 7f3f 1883 7f3f
00000050: 3d28 803f 40c6 7f3f 8803 803f 1806 803f
00000060: db15 803f 4006 803f 05f5 7f3f 336e 7f3f
00000070: 3fab 7f3f 61e4 7f3f fd3a 803f e626 803f
00000080: 8633 803f 5626 803f 7fd6 7f3f 0d21 803f
00000090: 8b18 803f bf6b 7f3f 4fd7 7f3f ee40 803f
000000a0: ea25 803f 5b18 803f 26cf 7f3f a627 803f
000000b0: 7213 803f 1327 803f a509 803f 3c1a 803f
000000c0: 09cb 7f3f 4743 803f a405 803f cdb9 7f3f
000000d0: 97fc 7f3f ed1c 803f 252c 803f b5c3 7f3f
000000e0: 3b47 803f 83aa 7f3f 032f 803f ca48 803f
000000f0: 0e02 803f 57de 7f3f 6db1 7f3f 2872 7f3f
0.99870795 1.0015278 1.0002207 0.998267 0.9992692 1.0009174 0.99834836 0.998702
1.0013968 0.9998204 1.0013508 0.99752784 0.9998262 1.0009295 1.0001017 1.0003657
0.99978554 0.9984968 0.9991935 0.9980941 1.001228 0.9991188 1.0001078 1.000186
1.000667 1.0001907 0.99983245 0.99777526 0.99870676 0.99957854 1.0018002 1.0011871
1.0015724 1.0011699 0.9993667 1.0010086 1.000749 0.9977378 0.9993791 1.0019815
1.001157 1.0007433 0.9992546 1.00121 1.0005934 1.0011925 1.0002943 1.0008006
0.9991918 1.0020531 1.0001721 0.99892884 0.99994797 1.0008827 1.0013472 0.99908
1.0021738 0.99869555 1.0014347 1.0022213 1.0000627 0.9994864 0.99880105 0.99783564

module.model.2.model.1.bias f4 [64]
00000000: 178c 33ba d20c 9d3a 8333 7d3a d77b 0ebb
00000010: a926 2fba 7217 cd3a 4680 02bb 5bbd 3f38
00000020: 8094 e23a 8435 7e3a b0c1 4b3a ed42 21bb
00000030: 56bc 71ba e4bd d83a 7a81 453a 2a49 0a3a
00000040: b42e b239 216c ecba ffdc 06ba 4736 09bb
00000050: 7853 8e3a dd9f 1fb9 d773 0e39 8593 9839
00000060: 7271 973a b70d ea3a 44f1 0736 37d7 09bb
00000070: a54f 8db9 3489 d6b9 64d6 d73a 3bc3 37ba
00000080: 2639 b23a 8fdb aeb9 8c9e fcba 413a 64ba
00000090: 0df5 8fba d71e 15bb d48e 88ba 4bb9 df3a
000000a0: 3232 623a c420 af3a 1029 77ba a6bc 533a
000000b0: 968d 7d3a 703f ad39 fc14 a239 5484 6839
000000c0: 3b91 48ba e684 ed3a 1e05 e739 b6e1 c7ba
000000d0: a8fe 6f3a b8de b93a 699c 11ba a327 72ba
000000e0: 8729 0d3b 09f4 d6ba 9419 ca3a 8547 023b
000000f0: 0fff 36ba 771c 1fba feb6 f8b8 ea8e 0fbb
-0.0006849183 0.001198197 0.000965886 -0.0021741295 -0.0006681481 0.0015647246 -0.0019912883 4.57143e-05
0.0017286688 0.00096973055 0.0007772697 -0.0024606541 -0.00092214847 0.0016536084 0.0007534247 0.00052751845
0.00033985602 -0.0018037596 -0.00051446253 -0.0020936893 0.0010858616 -0.00015222975 0.00013585329 0.0002910161
0.0011554195 0.001785687 2.0257003e-06 -0.002103282 -0.00026952956 -0.00040919485 0.0016467092 -0.00070099876
0.0013597354 -0.0003335145 -0.0019273325 -0.000870619 -0.0010983065 -0.0022753978 -0.0010418543 0.0017068771
0.00086286955 0.0013361205 -0.0009428421 0.0008077122 0.0009672282 0.00033044396 0.00030914682 0.0002217454
-0.00076510356 0.0018121272 0.00044063566 -0.0015249762 0.0009155073 0.0014180755 -0.0005554618 -0.0009237474
0.0021539645 -0.0016399632 0.0015419 0.0019879055 -0.0006980756 -0.000606961 -0.000118596465 -0.0021905252

module.model.2.model.1.running_mean f4 [64]
00000000: 3419 c5be e340 8c3e 4861 58be 1c28 10bd
00000010: 482a abbe b9e1 523e 9e12 6ebe 2447 84be
00000020: ad40 05be cc7c 183f 0508 bd3d 2047 39bf
00000030: a6d1 0a3f c7c4 183e d0c9 74be 67a2 0dbe
00000040: 622b cc3e 24f8 813d 4200 c73e bfaa 0dbd
00000050: 5942 8e3e 0865 293f bf26 66bd 7c01 cf3d
00000060: 3592 53bf fe67 debe cc3f f0be 613e f13e
00000070: b4cf 9dbe caa5 95be 9b38 803f 6859 243f
00000080: 2305 0ebf b7e8 5bbe d8c9 123f 5d0f 2b3f
00000090: 4896 d43e e73f 303e f213 12be da31 6f3c
000000a0: 9c66 7a3e ab5a 6c3e c638 0cbe aa10 dd3e
000000b0: 9c97 08bf 1c41 8d3e 449a 9abe cc50 abbe
000000c0: 8523 cabe 97e2 693d e0fe e73d 2f45 30be
000000d0: 2b7c e73b 7df5 f3bd c130 553d a8d2 70be
000000e0: 9869 19bd 4be5 3e3f 6d92 bdbd d66d 90bd
000000f0: e267 db3e f876 a7bd 386a 08bf 7c04 413e
-0.3849579 0.27393255 -0.2113086 -0.0351945 -0.33430696 0.20593919 -0.2324929 -0.25835526
-0.13012953 0.59565425 0.09230045 -0.72374153 0.5422615 0.14918815 -0.2390511 -0.13831483
0.39876848 0.06346157 0.38867384 -0.034586664 0.27784994 0.66169786 -0.056189295 0.10107705
-0.8264497 -0.43438715 -0.46923673 0.47117904 -0.30822527 -0.2922805 1.0017275 0.64198923
-0.5547659 -0.21475492 0.5733924 0.6682032 0.41520905 0.17211877 -0.14265421 0.014599288
0.24453205 0.23081462 -0.13693532 0.43176776 -0.5335634 0.27588737 -0.3019582 -0.3346008
-0.39480224 0.05710086 0.113279104 -0.17213891 0.0070643625 -0.119120575 0.05204845 -0.23517859
-0.037454218 0.74568623 -0.09256444 -0.070521995 0.42852694 -0.08176988 -0.53287077 0.18849367

module.model.2.model.1.running_var f4 [64]
00000000: 1519 b73e 0e77 0a3f 64e5 943e b4a5 0c3e
00000010: 168a df3d 0e47 743f e8d4 0b3e 43f7 8f3d
00000020: 9d4c ab3e 17c1 6e3e 0636 303e 5fa4 3e3f
00000030: 776d 413f 0587 373e 0366 943e 1a48 3e3e
00000040: d2a8 853e 7675 a53e 92cd 7c3f c648 b13e
00000050: 0b90 973d 94fd f23e 1b61 173f b878 023f
00000060: af85 f93e 54d6 d63e 56ae c93e 6ab9 363e
00000070: c18f ea3e c654 1f3f 9749 a83f 23cf 403e
00000080: 6c88 1c40 678c 623e 90f7 0c3e b30f 9b3e
00000090: 22fd 8e3e 9abc 913e cf8a 503e c116 dd3e
000000a0: af3b b93f 4dd8 963e e7a4 f63e 68df b43d
000000b0: bb3e 873e 7c59 253e 81bc 313f 6d55 183e
000000c0: 1219 ce3d bfa9 593e bfda 0340 c68e 1e3e
000000d0: 1027 c93e 9afa 2c3f bc37 8d3e 3ddd 133f
000000e0: 9a98 823f fec2 903e 7349 e33d 4ad3 993f
000000f0: f50f 813f 202b a83e b329 c13e b49d 123f
0.35761324 0.54087913 0.2908126 0.13735086 0.1091501 0.9542092 0.13655436 0.07029583
0.3345689 0.23315845 0.17208108 0.7446956 0.75557655 0.179226 0.2898408 0.18582192
0.26105362 0.32316178 0.98751175 0.34625834 0.07400521 0.4745909 0.59132546 0.5096545
0.48734805 0.41960394 0.3939082 0.17844167 0.458128 0.6223873 1.3147458 0.18829016
2.4458265 0.22123872 0.13766313 0.30285415 0.279275 0.28464204 0.20365451 0.43181422
1.4471339 0.294619 0.48172686 0.08831674 0.26415047 0.16147417 0.6942826 0.14876337
0.100633755 0.21256159 2.0602262 0.15484151 0.39287615 0.6756989 0.27581584 0.5775946
1.020282 0.28273767 0.11097994 1.2017605 1.0082995 0.32845402 0.37727126 0.57271886
