output_gd_deblur_noise/ckpt/resnet_epoch7.pth (torch, 641727 bytes, 31 tensors)

module.model.0.weight f4 [64, 1, 1, 1]
0.03682314 -0.10699074 0.2714166 0.19519763 0.09965132 0.13212688 0.05097823 0.21283214
0.035269443 -0.1659903 -0.12989193 0.24760398 0.11189462 0.2860303 -0.0027725995 0.006578964
-0.14037757 -0.032335985 0.1850895 -0.27841994 0.20555514 0.15356456 0.09941514 0.041939914
0.30237538 -0.22010557 -0.10441687 0.17182927 -0.2801813 0.1617474 -0.24486648 0.18049575
0.25490505 0.29284164 0.22764385 -0.10687499 -0.2648272 -0.022926545 0.18043002 -0.011169106
0.10698205 -0.27465376 -0.050707776 0.2982767 -0.21695271 0.2310684 -0.249638 -0.2831168
0.08650804 0.14146884 0.14443272 -0.11848443 -0.17239311 0.103337675 0.116150774 0.08759112
0.005212129 0.24401544 -0.27862877 -0.09129312 0.17358437 -0.110488586 -0.18011881 0.026961336
00000000: dcd3 163d f61d dbbd 1ef7 8a3e e3e1 473e
00000010: fe15 cc3d 454c 073e 8cce 503d abf0 593e
00000020: b176 103d 5cf9 29be 6402 05be e68b 7d3e
00000030: 0229 e53d 9072 923e 80b4 35bb 5a94 d73b
00000040: 23bf 0fbe bd72 04bd 1a88 3d3e 0f8d 8ebe
00000050: 0c7d 523e 0740 1d3e 2a9a cb3d 30c9 2b3d
00000060: f2d0 9a3e 5b63 61be 83d8 d5bd 03f4 2f3e
00000070: ec73 8fbe 1ca1 253e 47be 7abe e1d3 383e
00000080: ea82 823e 57ef 953e 781b 693e 46e1 dabd
00000090: 6e97 87be 73d0 bbbc a6c2 383e a0fe 36bc
000000a0: 6819 db3d 6b9f 8cbe f5b2 4fbd b9b7 983e
000000b0: da28 5ebe 329d 6c3e 1ba1 7fbe aff4 90be
000000c0: 212b b13d 35dd 103e 2ce6 133e f7a7 f2bd
000000d0: d287 30be b4a2 d33d 75e0 ed3d f962 b33d
000000e0: 82ca aa3b 2fdf 793e 6ea8 8ebe e3f7 babd
000000f0: 1ac0 313e d747 e2bd 1171 38be 05de dc3c

module.model.0.bias f4 [64]
0.0009051997 0.00031663672 0.00042879677 0.00022557782 0.00076067226 0.0006896065 -2.710522e-05 0.0011597018
0.0005998482 0.001286198 0.001087921 0.0014827955 0.0014967974 0.00084520795 0.0006673361 0.0011746836
0.0015537583 0.0018663993 8.02041e-05 0.0005035883 0.0013817758 0.0003276857 0.0011881762 0.00065569865
0.00024845672 0.00067672954 0.0011876557 0.0008176769 0.0011498763 0.0006529383 0.0005159883 0.00027687685
0.00057241257 0.0005556235 0.0009986524 0.0002628324 0.0014601793 0.0016857827 0.0016082699 0.0009544528
0.00057858846 0.00121039 0.0013836266 0.0012661671 0.0019666923 0.0005429596 0.0004187048 0.0010635074
0.0016965014 0.0019145439 0.0008913318 0.0010380798 0.00077664363 0.0012571266 0.000714596 0.00015909423
0.00059294526 -4.9878276e-05 0.0018103201 -2.4953953e-05 0.00077773567 0.0015349819 0.000389452 0.0002615787
00000000: ec4a 6d3a 4302 a639 21d0 e039 1689 6c39
00000010: da67 473a b5c6 343a 0460 e3b7 2301 983a
00000020: 223f 1d3a a595 a83a 9298 8e3a 5c5a c23a
00000030: 3030 c43a f290 5d3a 2bf0 2e3a d7f7 993a
00000040: 7aa7 cb3a f8a1 f43a 4033 a838 3d03 043a
00000050: b41c b53a 3bcd ab39 94bc 9b3a 31e3 2b3a
00000060: 4c43 8239 8d66 313a 1dab 9b3a 5e59 563a
00000070: 72b7 963a f329 2b3a 6343 073a c829 9139
00000080: f50d 163a 43a7 113a 37e5 823a c4cc 8939
00000090: 7d63 bf3a 7bf5 dc3a 95cc d23a 3e34 7a3a
000000a0: 6aac 173a f3a5 9e3a ce5a b53a 85f5 a53a
000000b0: 9fe3 003b 6755 0e3a 9b85 db39 6365 8b3a
000000c0: 245d de3a 6ff1 fa3a 44a8 693a 2e10 883a
000000d0: ac97 4b3a 2bc6 a43a ba53 3b3a 88d2 2639
000000e0: e26f 1b3a 6434 51b8 4348 ed3a 3554 d1b7
000000f0: f5e0 4b3a 7231 c93a 5d2f cc39 8024 8939

module.model.1.model.0.weight f4 [64, 64, 3, 3]
0.032755375 -0.014871278 -0.0387059 -0.0447127 0.05093019 0.06954952 -0.045350946 0.027489472
0.06322383 -0.030759677 0.03785039 -0.045825567 -0.01792657 -0.06397424 -0.063334525 -0.010310065
0.061521336 -0.026153315 0.013379098 0.06249199 0.04934902 0.043137077 -0.03214453 0.016238509
-0.021587508 -0.052089937 -0.041383643 -0.028218796 -0.059546005 0.06956104 0.05965042 0.03446449
-0.06737197 -0.015195569 -0.030792698 0.054932803 -0.0017808402 0.05350187 0.04887778 0.01983577
-0.054963488 -0.031439885 0.029534137 -0.062302254 -0.05945133 -0.01987502 -0.069251135 0.016123481
-0.0047402238 0.05554609 -0.052686665 -0.02654181 0.019516949 0.011070509 -0.05846798 0.03765767
0.03494747 -0.0019177768 -0.016737785 -0.051153373 0.007192387 -0.044639006 -0.066092126 -0.06852555
-0.0638119 -0.07015488 -0.012335499 0.028231137 0.06598171 0.060398865 0.0149959605 0.00799328
0.06375484 -0.0077091986 0.02391469 0.028317694 -0.03888491 -0.0417649 0.052378688 0.010804688
0.01995903 -0.06414452 0.061371643 0.045280676 -0.050424322 -0.056827437 -0.0693608 -0.070163175
0.044579335 -0.054596424 0.025133863 0.019425636 -0.06403776 -0.007374226 0.011382204 0.026750632
0.05634011 0.052381884 0.05723839 -0.0015189497 -0.06922662 0.028935209 0.030771218 -0.06102239
0.017478524 0.046048004 -0.02142888 -0.059913013 0.06478611 -0.045002077 -0.051639475 0.055995736
0.04344593 -0.018960914 -0.062177382 0.01400993 0.04695592 -0.014911566 0.049256194 0.046669133
0.035249084 0.07204874 -0.044595726 0.001557179 -0.03275434 -0.0017910923 -0.024644542 -0.04362155
0.0005887361 0.027238585 0.03433231 -0.06995321 -0.037828933 0.035734642 -0.06402207 -0.036122467
0.026757691 0.024513263 -0.023135038 -0.059360016 0.069593154 0.054303262 -0.060770717 -0.06403468
-0.03618695 -0.017112033 -0.016718652 0.016278634 -0.05341826 0.05849581 0.0669619 -0.01985514
0.035372306 0.0102359615 -0.0050664437 -0.03857627 0.0047213645 0.04828185 0.0091733625 0.004177558
0.046436008 0.041721776 -0.06658779 0.027168041 -0.060479905 -0.06515367 -0.02268719 0.06532404
0.006618975 -0.034182005 0.026398543 -0.047438793 0.015892206 -0.04152404 0.056559585 0.04861782
0.057710685 0.0030831445 -0.04933089 0.0031001447 -0.021614809 0.05500547 0.032698676 0.007575391
0.021030646 -0.041549504 0.06387639 -0.0026761848 0.006805721 0.07149109 0.018552743 0.057446577
-0.0082232 -0.05736614 -0.026588941 0.026234869 -0.016333936 -0.025014943 -0.03378101 0.05764097
0.06847943 0.02755438 0.06253556 -0.003469009 -0.07120005 0.044694804 0.055706333 0.009429352
-0.017227894 0.021078369 0.016679127 0.058169946 0.006685068 -0.023380285 0.042246208 -0.06144529
-0.051074803 -0.04526068 0.056782555 0.03413859 0.0028410417 -0.035608996 0.04178869 -0.021350564
0.038604368 -0.052276976 0.03363626 0.05071264 -0.056806777 -0.023611004 0.026087865 -0.06360041
-0.06650013 -0.06100677 -0.048947528 0.0403541 -0.06789697 -0.021941291 -0.0027917286 -0.056996457
0.038512155 -0.0057904795 -0.021280847 0.056933645 -0.048925214 0.018799856 0.030916499 0.049623948
-0.038965866 0.0029037744 -0.03822066 -0.05571459 -0.014263691 -0.011497233 -0.013689458 0.039206162
00000000: 802a 063d a9a6 73bc 148a 1ebd aa24 37bd
00000010: 2d9c 503d fb6f 8e3d eac1 39bd 9a31 e13c
00000020: 7f7b 813d b8fb fbbc 0309 1b3d 97b3 3bbd
00000030: beda 92bc ed04 83bd 88b5 81bd 8ceb 28bc
00000040: ccfd 7b3d 7a3f d6bc 0134 5b3c 9af7 7f3d
00000050: 3322 4a3d 81b0 303d fca9 03bd 9f06 853c
00000060: 49d8 b0bc 425c 55bd e581 29bd 1b2b e7bc
00000070: 83e6 73bd 0576 8e3d 0054 743d a32a 0d3d
00000080: 51fa 89bd d6f6 78bc f840 fcbc 3801 613d
00000090: 156b e9ba c724 5b3d 1134 483d a07e a23c
000000a0: 6521 61bd 1cc7 00bd 93f1 f13c a630 7fbd
000000b0: 3d83 73bd f0d0 a2bc 8ad3 8dbd 6415 843c
000000c0: e153 9bbb 4c84 633d f9cd 57bd 366e d9bc
000000d0: 02e2 9f3c 1561 353c 1f7c 6fbd ee3e 1a3d
000000e0: 1425 0f3d e95d fbba ae1d 89bc 3386 51bd
000000f0: 1dae eb3b 64d7 36bd 4f5b 87bd 2057 8cbd
00000100: d0af 82bd 5dad 8fbd d51a 4abc fc44 e73c
00000110: 6b21 873d cd64 773d 9eb1 753c 3ff6 023c
00000120: e691 823d 729d fcbb bde8 c33c 82fa e73c
00000130: c945 1fbd ac11 2bbd 098b 563d 2506 313c
00000140: 1f81 a33c 345e 83bd d560 7b3d 3b78 393d
00000150: bc89 4ebd e3c3 68bd 090d 8ebd b6b1 8fbd
00000160: d298 363d 80a0 5fbd 88e5 cd3c 8322 9f3c
00000170: 3b26 83bd 7ea3 f1bb 6c7c 3a3c 2424 db3c
00000180: e3c4 663d 638e 563d cd72 6a3d 7f17 c7ba
00000190: b0c6 8dbd 8809 ed3c ec13 fc3c 9df2 79bd
000001a0: 1f2f 8f3c d59c 3c3d 9e8b afbc 5967 75bd
000001b0: 94ae 843d 1954 38bd ea83 53bd c95b 653d
000001c0: 5cf4 313d eb53 9bbc b6ad 7ebd e889 653c
000001d0: da54 403d a44f 74bc ddc0 493d 2228 3f3d
000001e0: 5861 103d 4a8e 933d 02aa 36bd 421a cc3a
000001f0: 6a29 06bd 16c3 eaba 5ae3 c9bc 83ac 32bd
00000200: 6955 1a3a 7423 df3c 09a0 0c3d a143 8fbd
00000210: 83f2 1abd 7d5e 123d 011e 83bd 27f5 13bd
00000220: f232 db3c 0ad0 c83c b185 bdbc 7d23 73bd
00000230: db86 8e3d 196d 5e3d b7ea 78bd 9d24 83bd
00000240: c438 14bd 892e 8cbc 8ef5 88bc c55a 853c
00000250: 1bcd 5abd 4d99 6f3d 5223 893d 3fa7 a2bc
00000260: 8de2 103d bcb4 273c 6904 a6bb 2702 1ebd
00000270: adb5 9a3b 30c3 453d df4b 163c e5e3 883b
00000280: af33 3e3d 74e4 2a3d 2e5f 88bd 838f de3c
00000290: c7b9 77bd 4a6f 85bd 7cda b9bc 9cc8 853d
000002a0: fde3 d83b 6e02 0cbd c241 d83c 2e4f 42bd
000002b0: 5f30 823c 1d15 2abd 06ab 673d 7b23 473d
000002c0: 0a62 6c3d 950e 4a3b 300f 4abd cc2b 4b3b
000002d0: 8a11 b1bc 6a4d 613d 0cef 053d fc3a f83b
000002e0: 7648 ac3c d02f 2abd a0d1 823d ee62 2fbb
000002f0: 8702 df3b ec69 923d ecfb 973c 1a4d 6b3d
00000300: 9aba 06bc c2f8 6abd 0dd1 d9bc 82ea d63c
00000310: bfce 85bc 23ec ccbc f55d 0abd f018 6c3d
00000320: f23e 8c3d b9b9 e13c a512 803d 5058 63bb
00000330: 55d1 91bd e611 373d 532c 643d 927d 1a3c
00000340: 8321 8dbc 8bac ac3c aaa2 883c 9c43 6e3d
00000350: 6a0e db3b 0388 bfbc 5c0a 2d3d 0eae 7bbd
00000360: d033 51bd 4363 39bd d394 683d e8d4 0b3d
00000370: c530 3a3b bdda 11bd 9e2a 2b3d 61e7 aebc
00000380: 9d1f 1e3d 6220 56bd 2dc6 093d 0fb8 4f3d
00000390: 39ae 68bd dd6b c1bc 38b6 d53c ef40 82bd
000003a0: 3831 88bd 3ce2 79bd 347d 48bd 574a 253d
000003b0: 910d 8bbd 39be b3bc 6ff5 36bb 1e75 69bd
000003c0: ecbe 1d3d 10be bdbb 2c55 aebc 4133 693d
000003d0: ce65 48bd 2802 9a3c 9944 fd3c 7b42 4b3d
000003e0: ac9a 1fbd 404d 3e3b 448d 1cbd fb34 64bd
000003f0: 42b2 69bc e45e 3cbc c049 60bc a496 203d

module.model.1.model.0.bias f4 [64]
0.0012702908 0.0008703569 0.00095947966 0.00082372664 0.00081939966 0.0011780974 0.0010887061 0.0008629381
0.0010340803 0.0010036683 0.00081264105 0.0011314258 0.0010027039 0.00079247204 0.0009581062 0.001186897
0.0010139341 0.0009552392 0.000850908 0.00089135446 0.0012656826 0.0012287225 0.0010705553 0.001017733
0.0009679738 0.0013328488 0.001156548 0.0010677864 0.00102394 0.0009556438 0.0009724138 0.0009307006
0.00095599366 0.0010669191 0.0011327823 0.0008815069 0.0010913505 0.0009939877 0.0012419382 0.001062041
0.0009108203 0.0011295102 0.001134061 0.0010059358 0.000756057 0.0010321902 0.0009942874 0.0010864843
0.0012185533 0.0010068282 0.001193462 0.0011734345 0.0010532321 0.0011433562 0.0010217096 0.0011771569
0.0007701336 0.00085146463 0.00096636545 0.0007710743 0.0013524872 0.0011106859 0.0006079381 0.00057171227
00000000: e37f a63a aa28 643a 9785 7b3a 5cef 573a
00000010: fbcc 563a 646a 9a3a eab2 8e3a cc36 623a
00000020: fa89 873a 858d 833a 6b07 553a 5a4c 943a
00000030: 296d 833a e6bd 4f3a 6b29 7b3a a891 9b3a
00000040: fce5 843a 0469 7a3a 780f 5f3a c9a9 693a
00000050: 43e5 a53a 160d a13a e051 8c3a 7465 853a
00000060: 9fbf 7d3a fcb2 ae3a 5097 973a f7f4 8b3a
00000070: ba35 863a 2b84 7a3a 96e9 7e3a 43fa 733a
00000080: a69b 7a3a ddd7 8b3a de79 943a ed14 673a
00000090: a50b 8f3a b148 823a 88c8 a23a 2f34 8b3a
000000a0: 1ec4 6e3a 130c 943a c6a4 943a 9bd9 833a
000000b0: 2032 463a 8e4a 873a c052 823a 5d68 8e3a
000000c0: ddb7 9f3a 8cf7 833a f16d 9c3a eecd 993a
000000d0: 9b0c 8a3a abdc 953a e3ea 853a d54a 9a3a
000000e0: cbe2 493a d334 5f3a b053 7d3a ec21 4a3a
000000f0: f145 b13a 6f94 913a 095e 1f3a f6de 153a

module.model.1.model.1.weight f4 [64]
0.99957234 1.0010042 1.000681 0.9999021 1.0009745 0.9995119 1.0005311 1.0003068
1.0005981 1.0001866 1.0001774 0.9993185 1.0002551 1.0002197 1.0001285 1.0007453
1.0008321 0.9995676 1.0007477 1.0000077 0.99981797 0.99936837 0.9993806 0.9998276
1.0006878 0.99959844 0.999471 1.000549 0.9991295 0.999943 0.9990649 0.9990868
0.99895173 0.99884045 0.9994214 0.9997012 0.99979234 1.0003797 1.0000668 0.9995304
1.0003295 1.0008094 1.000943 0.99904805 1.0005674 0.9995064 0.99992037 1.0000633
1.0001761 0.99929506 0.99916327 0.99935704 1.0004278 1.0002997 0.9993339 1.0005208
1.0009412 0.9993825 1.0004078 0.99980307 0.9993615 0.99950594 1.0009899 1.0008911
00000000: f9e3 7f3f e820 803f 5116 803f 96f9 7f3f
00000010: ef1f 803f 03e0 7f3f 6711 803f 0e0a 803f
00000020: 9913 803f 1d06 803f d005 803f 56d3 7f3f
00000030: 5c08 803f 3307 803f 3604 803f 6c18 803f
00000040: 441b 803f aae3 7f3f 8018 803f 4100 803f
00000050: 12f4 7f3f 9bd6 7f3f 68d7 7f3f b4f4 7f3f
00000060: 8a16 803f afe5 7f3f 55dd 7f3f fd11 803f
00000070: f3c6 7f3f 44fc 7f3f b8c2 7f3f 27c4 7f3f
00000080: 4dbb 7f3f 02b4 7f3f 15da 7f3f 6bec 7f3f
00000090: 64f2 7f3f 710c 803f 3002 803f 39e1 7f3f
000000a0: cc0a 803f 861a 803f e61e 803f 9dc1 7f3f
000000b0: 9812 803f a7df 7f3f c8fa 7f3f 1302 803f
000000c0: c505 803f cdd1 7f3f 2ac9 7f3f ddd5 7f3f
000000d0: 050e 803f d209 803f 59d4 7f3f 1111 803f
000000e0: d71e 803f 88d7 7f3f 5d0d 803f 18f3 7f3f
000000f0: 28d6 7f3f 9fdf 7f3f 7020 803f 331d 803f

module.model.1.model.1.bias f4 [64]
1.9209941e-05 0.0010257072 0.00051095523 -0.00036758767 0.00016953121 5.0798863e-05 0.0004919466 2.8243821e-06
0.00060364476 -0.00065717084 0.00047685567 -0.0006868907 0.00011351345 0.00025032542 0.00015628907 2.477942e-05
0.000807986 9.630576e-05 0.00032162314 -0.00011401154 -0.00088126335 -0.00085542595 -0.001002064 -0.00021899342
0.00073751627 -0.00040713314 -0.00056130154 -0.00058787444 -0.00093741604 -9.2534734e-05 -0.00056704925 -0.0007677671
-0.000677065 -0.0006445563 -0.00022767815 -0.0006199578 -0.0005061019 -0.00035375144 -0.0009973128 -0.00050110545
0.0005221164 0.0007196325 -0.00024130495 -0.0009108532 0.00044399835 -0.0003070173 0.00019106866 -2.0047051e-05
-0.0006289943 -0.0008424258 -0.00086550316 0.00018442517 0.00014199392 9.03841e-05 -0.0005973207 -0.0006338688
0.00041848476 -0.000274799 0.00045253435 0.0006992154 -0.00074499 -0.0005528967 0.0011360417 0.0008621422
00000000: 0925 a137 0671 863a a0f1 053a c8b8 c0b9
00000010: 30c4 3139 dd10 5538 faf5 003a 848a 3d36
00000020: ea3d 1e3a fd45 2cba 7c02 fa39 7410 34ba
00000030: 120e ee38 1c3e 8339 87e1 2339 66dd cf37
00000040: 06cf 533a c3f7 c938 879f a839 7b19 efb8
00000050: 9504 67ba aa3e 60ba b057 83ba 99a1 65b9
00000060: e155 413a 7c74 d5b9 4f24 13ba 961b 1aba
00000070: edbc 75ba 350f c2b8 08a6 14ba fa43 49ba
00000080: 107d 31ba 71f7 28ba e3bc 6eb9 aa84 22ba
00000090: ecab 04ba b777 b9b9 44b8 82ba 9e5c 03ba
000000a0: a3de 083a b8a5 3c3a ce06 7db9 53c6 6eba
000000b0: 73c8 e839 2af7 a0b9 9a59 4839 b72a a8b7
000000c0: 18e3 24ba 3dd6 5cba efe2 62ba 4162 4139
000000d0: 34e4 1439 988c bd38 8395 1cba 372a 26ba
000000e0: 1368 db39 e612 90b9 2242 ed39 8d4b 373a
000000f0: 6f4b 43ba 45f0 10ba 3ce7 943a 6201 623a

module.model.1.model.1.running_mean f4 [64]
-0.00019502015 0.0007967191 0.0018893173 -0.00024966543 -0.000210449 0.0011529651 0.0028515584 0.0007207774
-0.0005538461 0.002663 0.0003430217 0.0018661694 0.0001336022 0.0011779446 0.0013377371 0.001946151
0.00033879266 0.0010041161 0.00033476486 0.0005974352 -0.0007989036 0.0021656686 -0.00018284773 0.0023771843
-0.0008697992 0.002177397 0.0013756092 0.0019891975 0.00051506987 -0.0002960688 0.0028661652 0.0018626519
-0.00049905357 0.0005716251 0.0004001059 0.00057482655 0.000983807 -0.0005697751 0.0016351232 0.00077974296
0.0005637025 0.00017032993 0.0023986402 0.0013324595 0.0015112727 0.0009770152 -0.0006509977 0.00057984894
-0.0003868106 0.0010231698 0.0027626823 0.0012833972 0.00091096247 0.0010768697 0.001993425 -0.00039823982
0.0009387814 0.0024245111 0.0016278581 0.0012420554 0.0007894628 0.0026262323 0.0008168103 -0.00012986093
00000000: 537e 4cb9 eada 503a f8a2 f73a 87e5 82b9
00000010: f9ab 5cb9 171f 973a 36e1 3a3b 8df2 3c3a
00000020: fc2f 11ba ba85 2e3b 98d7 b339 419a f43a
00000030: 9117 0c39 4365 9a3a 0257 af3a fe15 ff3a
00000040: fb9f b139 8c9c 833a 6183 af39 339d 1c3a
00000050: 836d 51ba e4ed 0d3b d0ba 3fb9 89ca 1b3b
00000060: 3c03 64ba a9b2 0e3b c94d b43a 325d 023b
00000070: c105 073a af39 9bb9 46d6 3b3b 3a24 f43a
00000080: ebd2 02ba 1cd9 153a 4ec5 d139 f5af 163a
00000090: 16f3 803a f65c 15ba a151 d63a aa67 4c3a
000000a0: 6fc5 133a 989a 3239 8132 1d3b eca5 ae3a
000000b0: e615 c63a 310f 803a b7a7 2aba 0101 183a
000000c0: d7cc cab9 e21b 863a 1e0e 353b aa37 a83a
000000d0: a8cd 6e3a c025 8d3a 1fa4 023b d8ca d0b9
000000e0: 8e18 763a 8ce4 1e3b db5d d53a 77cc a23a
000000f0: f4f3 4e3a de1c 2c3b 361f 563a 472b 08b9

module.model.1.model.1.running_var f4 [64]
0.0009455883 0.0011101471 0.00028069378 0.00013101891 0.0002389281 0.00010621946 0.0005146812 0.00023136848
0.00049757876 9.72723e-05 0.00061044545 1.0528829e-05 0.00011245522 2.4578849e-06 0.00014300075 7.842608e-06
0.00074009533 2.235098e-05 0.0003021104 0.000120818964 2.2823118e-05 1.548201e-05 0.00022119429 4.4727007e-05
0.0007325382 4.6907844e-05 0.00025587738 0.00013874036 1.026222e-05 0.00010426805 0.00034720756 1.47410055e-05
5.3120816e-06 0.0010363573 3.0282185e-05 0.0007535431 0.00079852145 0.0007816727 0.0014166158 2.8529896e-05
0.00036358024 6.164275e-05 4.6506222e-05 1.9465906e-05 0.00018034405 3.814066e-05 8.113917e-05 0.00041724124
0.00040920268 4.2848842e-05 0.00022987953 1.0153777e-05 0.0020176987 0.000122032005 0.00032991346 0.00020027129
8.2568855e-05 8.266593e-05 0.00048217594 0.00026813737 0.00034208674 0.00060680945 0.00043822525 0.00015839448
00000000: 5be1 773a 5b82 913a 152a 9339 1f62 0939
00000010: c688 7a39 23c2 de38 aceb 063a 819b 7239
00000020: f26f 023a abfe cb38 4d06 203a faa4 3037
00000030: f0d5 eb38 24f2 2436 79f2 1539 bf93 0337
00000040: f502 423a 5d7e bb37 9264 9e39 3060 fd38
00000050: 4674 bf37 5ddf 8137 64f0 6739 4299 3b38
00000060: ce07 403a eabe 4438 4827 8639 d57a 1139
00000070: e62b 2c37 7caa da38 6909 b639 2350 7737
00000080: 6f3e b236 61d6 873a 7f06 fe37 6c89 453a
00000090: de53 513a 2be9 4c3a bdad b93a 7c53 ef37
000000a0: ea9e be39 3346 8138 ad0f 4338 b74a a337
000000b0: bd1a 3d39 39f9 1f38 4329 aa38 2cc1 da39
000000c0: 418a d639 98b8 3338 d10b 7139 245a 2a37
000000d0: 5e3b 043b 6feb ff38 3cf8 ac39 eaff 5139
000000e0: d128 ad38 ef5c ad38 8fcc fc39 ca94 8c39
000000f0: 1b5a b339 4b12 1f3a 99c1 e539 b216 2639

module.model.1.model.3.weight f4 [64, 64, 3, 3]
-0.06442401 0.0428667 0.028482841 -0.0033089533 0.044192083 0.056427546 -0.015166913 -0.019775175
0.038245853 -0.03553253 0.04666935 0.057440907 0.054672208 0.014008214 -0.026344365 0.013846737
-0.028568007 0.06308465 0.012221358 -0.063537195 -0.034768537 -0.055712946 -0.0038541546 0.06177786
-0.052154347 -0.03090354 0.052523147 -0.07265106 0.011374598 -0.022298317 -0.054747008 0.032894008
-0.0031567835 -0.021300057 -0.047113016 -0.021984879 -0.022753049 -0.030918201 0.058475524 0.043647025
-0.059233222 0.022327175 -0.016850598 0.003149982 0.05523256 -0.05052924 -0.05779561 0.0045652622
-0.059708256 -0.023782805 0.03049773 0.026808858 -0.053199947 0.071888976 -0.005203391 0.0131823355
-0.012872904 -0.008416072 0.04745223 -0.0015695721 0.035104044 0.049556494 -0.0013635809 -0.036312353
-0.0701501 -0.05102924 -0.06764083 0.047967162 -0.07031918 0.06980109 0.033071972 -0.032200404
0.057749275 0.01754761 -0.011892153 0.013262886 -0.044824492 0.012996123 -0.002074497 -0.06478809
0.030804563 -0.019704767 -0.042648863 -0.06658634 0.05901748 -0.020534407 -0.042689703 0.03897199
-0.012337273 -0.06302028 -0.011299235 0.014554393 -0.046860345 0.03350975 -0.051553663 -0.052730013
0.04924099 0.02370539 -0.055239834 0.068870425 -0.034289904 0.010549276 -0.058028195 0.04219905
-0.06624138 -0.046423964 0.029821929 0.022451235 -0.058795467 0.023026923 0.06546832 -0.05100683
-0.011686427 0.07129086 -0.05504328 -0.0072525474 -0.06673276 0.0573858 -0.048976783 0.048448354
-0.039564483 -0.030535012 0.06839285 0.05798466 -0.05172403 -0.071393184 0.053198505 -0.021806689
0.023717158 -0.0036790334 0.018485842 -0.04687015 -0.018662099 -0.054367717 0.0335297 -0.06663685
-0.00079382444 -0.026049538 0.06287346 -0.03769296 -0.07051754 0.02175526 0.0018498544 -0.04931001
-0.049612775 0.050184637 -0.04496227 -0.063294016 0.032908622 0.019240865 0.027308624 0.038749825
0.0107088005 -0.004908955 -0.03697715 -0.05089182 0.015106396 0.057755556 -0.06562922 0.045440752
-0.055864602 0.0022720825 -0.05026248 0.029828934 -0.0034910135 -0.027329898 -0.060077276 -0.021403577
0.0721697 0.06342104 0.01840321 0.07294975 -0.06855529 0.0018614697 -0.033305965 0.053517163
-0.038287304 -0.056559417 -0.06791997 -0.02645206 -0.0018143293 -0.038525067 -0.05970978 -0.057651617
-0.04547475 -0.04393284 0.053658776 0.018800627 -0.0666174 0.03092606 -0.0435776 -0.03939929
-0.01531639 -0.01644722 -0.017439745 -0.05169952 -0.03442022 -0.053475168 -0.0033293893 0.034266412
-0.07119526 0.047703788 0.06870136 0.023756737 0.017975729 0.023909265 -0.045306817 0.03479985
0.06080007 -0.05622938 -0.064823315 0.054766364 0.06739835 -0.060431857 0.04489758 -0.009842498
-0.05626166 0.07131423 -0.03975822 0.013135697 0.06389657 0.028058285 0.0012736066 0.04566761
-0.036735617 0.059972946 -0.026341287 -0.05403398 -0.007953188 0.0042391447 -0.0032648551 0.05648064
-0.029862221 -0.06115897 -0.055327 0.027993789 0.0018536447 -0.0022721179 0.05978965 0.029333891
0.05482499 0.014746355 -0.04257974 0.008426052 -0.0278626 0.018888123 0.06334859 -0.019364964
0.013833295 -0.008765209 0.06758069 0.06407416 0.05595096 0.029488001 -0.06679997 0.052122485
00000000: bcf0 83bd fe94 2f3d d954 e93c 06db 58bb
00000010: c202 353d 9220 673d a57e 78bc 8cff a1bc
00000020: afa7 1c3d 8f8a 11bd 5c28 3f3d 2847 6b3d
00000030: f7ef 5f3d b582 653c 23d0 d7bc 6ddd 623c
00000040: 7407 eabc 8632 813d 173c 483c ca1f 82bd
00000050: 7469 0ebd 4233 64bd fc95 7cbb c80a 7d3d
00000060: cc9f 55bd 6c29 fdbc 8322 573d 14ca 94bd
00000070: 865c 3a3c f6aa b6bc 663e 60bd debb 063d
00000080: 0ae2 4ebb 757d aebc 94f9 40bd a219 b4bc
00000090: 9a64 babc 2b48 fdbc 0884 6f3d 39c7 323d
000000a0: 899e 72bd 7be7 b63c 440a 8abc ee6f 4e3b
000000b0: 893b 623d c0f7 4ebd 17bb 6cbd 3298 953b
000000c0: a590 74bd 28d4 c2bc 60d6 f93c 409e db3c
000000d0: 30e8 59bd 873a 933d 3581 aabb b9fa 573c
000000e0: dfe8 52bc 91e3 09bc 455d 423d 1aba cdba
000000f0: 42c9 0f3d c0fb 4a3d 2fba b2ba 43bc 14bd
00000100: dbaa 8fbd 0904 51bd 4787 8abd 3779 443d
00000110: 8103 90bd e0f3 8e3d 7a76 073d 92e4 03bd
00000120: 818a 6c3d 01c0 8f3c 4ed7 42bc 934c 593c
00000130: e399 37bd b1ed 543c 49f4 07bb 9eaf 84bd
00000140: da59 fc3c e46b a1bc 93b0 2ebd 6b5e 88bd
00000150: 50bc 713d c637 a8bc 66db 2ebd 18a1 1f3d
00000160: 4622 4abc c710 81bd 6d20 39bc 8c75 6e3c
00000170: a2f0 3fbd 8541 093d ef29 53bd 6dfb 57bd
00000180: ecb0 493d ce31 c23c 2a43 62bd f00b 8d3d
00000190: 9273 0cbd dfd6 2c3c f9ae 6dbd e9d8 2c3d
000001a0: 90a9 87bd 0e27 3ebd 1e4d f43c a7eb b73c
000001b0: 84d3 70bd f5a2 bc3c 4114 863d 8aec 50bd
000001c0: 6d78 3fbc f100 923d 1075 61bd c7a6 edbb
000001d0: 2fab 88bd 5f0d 6b3d e19b 48bd c871 463d
000001e0: 5e0e 22bd 9024 fabc 8d11 8c3d 5381 6d3d
000001f0: 94dc 53bd 9736 92bd ade6 593d f1a3 b2bc
00000200: 7c4a c23c f01b 71bb 9f6f 973c eafa 3fbd
00000210: 42e1 98bc afb0 5ebd 7056 093d e778 88bd
00000220: a818 50ba d765 d5bc cdc3 803d ef63 1abd
00000230: 806b 90bd 1638 b23c d076 f23a 4bf9 49bd
00000240: c436 4bbd 688e 4d3d 5b2a 38bd 4ba0 81bd
00000250: 31cb 063d 059f 9d3c 56b6 df3c 23b8 1e3d
00000260: f773 2f3c 4ddb a0bb 5a75 17bd f173 50bd
00000270: d180 773c 1791 6c3d 9d68 86bd 1520 3a3d
00000280: 48d2 64bd 38e7 143b 08e0 4dbd cf5b f43c
00000290: 7dc9 64bb f3e2 dfbc 9713 76bd 8e56 afbc
000002a0: b5cd 933d e4e2 813d 54c2 963c ae66 953d
000002b0: b766 8cbd 8ffc f33a d66b 08bd d034 5b3d
000002c0: 26d3 1cbd d9aa 67bd a019 8bbd feb1 d8bc
000002d0: cace edba 76cc 1dbd 3e92 74bd 1a24 6cbd
000002e0: bb43 3abd ecf2 33bd 4ec9 5b3d c603 9a3c
000002f0: b46e 88bd a658 fd3c 6d7e 32bd 2661 21bd
00000300: 99f1 7abc 52bc 86bc ccdd 8ebc e0c2 53bd
00000310: 37fc 0cbd c708 5bbd e231 5abb f05a 0c3d
00000320: d2ce 91bd 0c65 433d 4cb3 8c3d 7d9d c23c
00000330: d641 933c 5ddd c33c a493 39bd 4a8a 0e3d
00000340: 7f09 793d c750 66bd 16c2 84bd b252 603d
00000350: 2508 8a3d 6587 77bd 86e6 373d 6e42 21bc
00000360: a072 66bd 320d 923d 84d9 22bd 1b37 573c
00000370: 34dc 823d 7dda e53c 25ef a63a f60d 3b3d
00000380: 1678 16bd 31a6 753d afc9 d7bc bc52 5dbd
00000390: 174e 02bc 86e8 8a3b 2ef7 55bb 3e58 673d
000003a0: 9ea1 f4bc d481 7abd 909e 62bd 3b53 e53c
000003b0: fff5 f23a d0e7 14bb fee5 743d a14d f03c
000003c0: 2b90 603d b29a 713c 1868 2ebd 6c0d 0a3c
000003d0: 1b40 e4bc 44bb 9a3c e8bc 813d 46a3 9ebc
000003e0: 0ba5 623c f39b 0fbc bf67 8a3d 5039 833d
000003f0: d52c 653d d290 f13c 6cce 88bd 637e 553d

module.model.1.model.3.bias f4 [64]
0.0009061564 0.0010766577 0.0010030416 0.0010130664 0.001009363 0.0010016458 0.0012951505 0.0010894198
0.0010262391 0.0009973762 0.0010189948 0.0012321121 0.0009789296 0.0009646064 0.0010404804 0.00093122513
0.000999876 0.0008984488 0.00095432944 0.0010068633 0.00085418456 0.0010413046 0.00094835827 0.0009955857
0.0010580809 0.0009465887 0.001036153 0.0009946167 0.0010455883 0.0011052369 0.0010539996 0.00097180135
0.001015402 0.0010993533 0.0012341092 0.0011827925 0.0009394094 0.00096709374 0.0010043242 0.00089022494
0.0009777488 0.0011202203 0.0009575506 0.0010793377 0.0009051564 0.0010787614 0.0009841298 0.0009878
0.0010115991 0.00093018595 0.0010063545 0.0009167795 0.0012021337 0.0009643198 0.00086259947 0.00095527875
0.0010623726 0.0010588974 0.00086309 0.0010782033 0.001022382 0.0010491946 0.0010699797 0.0010494766
00000000: 208b 6d3a a31e 8d3a 7e78 833a dec8 843a
00000010: 9a4c 843a a849 833a 0ac2 a93a ddca 8e3a
00000020: df82 863a 64ba 823a cb8f 853a d27e a13a
00000030: 6d4f 803a a4dd 7c3a bb60 883a 761d 743a
00000040: 450e 833a e185 6b3a f72b 7a3a baf8 833a
00000050: 5beb 5f3a 627c 883a 3f9b 783a 507e 823a
00000060: 4eaf 8a3a 7e24 783a 86cf 873a cc5d 823a
00000070: 1f0c 893a 99dd 903a 5c26 8a3a 7cc0 7e3a
00000080: 3d17 853a 2d18 903a d5c1 a13a ee07 9b3a
00000090: b342 763a 9084 7d3a 87a3 833a fc5d 693a
000000a0: ce27 803a 5bd4 923a 2204 7b3a 9078 8d3a
000000b0: 0548 6d3a 3a65 8d3a ebfd 803a 1179 813a
000000c0: a297 843a b9d7 733a a7e7 833a 0854 703a
000000d0: ea90 9d3a 68ca 7c3a 1220 623a ac6b 7a3a
000000e0: 4f3f 8b3a b3ca 8a3a fd40 623a 8052 8d3a
000000f0: 7301 863a 2185 893a 903e 8c3a 978e 893a

module.model.1.model.4.weight f4 [64]
1.0005614 0.9991338 0.9988536 0.99917215 1.0002785 0.9997436 0.9988128 0.9990531
1.0006378 1.001031 0.9990234 0.99883294 1.0008873 1.0008823 0.99908584 1.0010617
1.0011107 1.0011821 0.9989822 0.9996342 1.0010495 0.9992003 1.0010628 1.0005835
0.9990386 1.0011634 0.9989826 1.0008701 1.0004978 0.99882305 0.9987989 0.9997268
0.9989151 0.99916923 0.9988661 0.998932 1.0008204 1.0006988 1.0010726 1.0008727
1.0008973 0.99887383 1.0007576 0.9993046 1.0010179 0.9988521 1.0011681 1.0007478
1.0007786 1.0008701 0.9990694 1.0011717 0.9988296 1.0010684 1.0011102 0.999163
0.99926037 0.9988399 1.0011779 0.99881256 0.9992926 1.0006795 0.99884826 0.9989983
00000000: 6512 803f 3cc7 7f3f dfb4 7f3f bfc9 7f3f
00000010: 2009 803f 32ef 7f3f 32b2 7f3f f2c1 7f3f
00000020: e614 803f c921 803f ffbf 7f3f 84b3 7f3f
00000030: 131d 803f e91c 803f 17c4 7f3f ca22 803f
00000040: 6524 803f bc26 803f 4cbd 7f3f 07e8 7f3f
00000050: 6422 803f 97cb 7f3f d322 803f 1f13 803f
00000060: fec0 7f3f 1f26 803f 53bd 7f3f 831c 803f
00000070: 5010 803f deb2 7f3f 49b1 7f3f 18ee 7f3f
00000080: e6b8 7f3f 8ec9 7f3f b0b5 7f3f 02ba 7f3f
00000090: e21a 803f e616 803f 2623 803f 991c 803f
000000a0: 671d 803f 32b6 7f3f d318 803f 6dd2 7f3f
000000b0: 5b21 803f c5b4 7f3f 4726 803f 8118 803f
000000c0: 8319 803f 831c 803f 03c3 7f3f 6526 803f
000000d0: 4cb3 7f3f 0223 803f 6124 803f 25c9 7f3f
000000e0: 87cf 7f3f f9b3 7f3f 9926 803f 2eb2 7f3f
000000f0: a4d1 7f3f 4416 803f 85b4 7f3f 5abe 7f3f

module.model.1.model.4.bias f4 [64]
0.0011784096 -0.001061944 -0.001107089 -0.00049537816 -0.0002353349 -0.0005167633 -0.0012021567 -0.0011703047
0.0005994253 0.0011890364 -0.0010917821 -0.0011828791 0.0009749937 0.00066277734 -0.0011957423 0.0011635034
0.0011434857 0.0012033936 -0.0010831027 -0.00097532914 0.001126226 -0.00091098173 0.0011909833 0.00081751595
-0.0011781398 0.0011591694 -0.0010764546 0.0010338366 0.00018771419 -0.0011806542 -0.0012037567 -0.00088179467
-0.0011618241 -0.0010561344 -0.0011646237 -0.0011372098 0.0011237598 0.0011374087 0.0011281382 0.001004476
0.00047535708 -0.0011751477 0.0011611234 -0.00084353954 0.0011182469 -0.0011547835 0.0012003224 0.00087644963
0.0011283599 0.0009530147 -0.0011955445 0.0012072595 -0.0011746108 0.0011583822 0.0011501282 -0.0010964483
-0.00066985993 -0.0011670243 0.0012004424 -0.0012031355 -0.00083365524 -0.00034791944 -0.0011980252 -0.001044105
00000000: dd74 9a3a ee30 8bba be1b 91ba 44dc 01ba
00000010: 3bc4 76b9 6677 07ba af91 9dba e964 99ba
00000020: c022 1d3a 71d9 9b3a 211a 8fba d60a 9bba
00000030: b896 7f3a 3cbe 2d3a 74ba 9cba b280 983a
00000040: 03e1 953a 30bb 9d3a e5f6 8dba 3bad 7fba
00000050: e09d 933a f3ce 6eba c51a 9c3a 914e 563a
00000060: d06b 9aba 45ef 973a d317 8dba cd81 873a
00000070: 25d5 4439 2ec0 9aba 5fc7 9dba 3d28 67ba
00000080: 5948 98ba fd6d 8aba 49a6 98ba 6e0e 95ba
00000090: 1f4b 933a 1a15 953a 09de 933a 9fa8 833a
000000a0: 5939 f939 6a07 9aba d630 983a fb20 5dba
000000b0: 2492 923a 1b5c 97ba 2354 9d3a 8ac1 653a
000000c0: 7ae5 933a bcd3 793a d1b3 9cba e83c 9e3a
000000d0: 66f5 99ba dbd4 973a e6bf 963a b3b6 8fba
000000e0: 8a99 2fba d6f6 98ba 2a58 9d3a 87b2 9dba
000000f0: a889 5aba f568 b6b9 0e07 9dba 5ada 88ba

module.model.1.model.4.running_mean f4 [64]
-0.3089979 0.5205562 -0.19251168 0.03767789 0.039554484 -0.08772433 -0.22838622 -0.036892593
0.5686377 0.8180188 -0.080453634 -0.42191234 0.39517274 0.34671217 0.37822422 0.106904164
-0.5795784 0.083537884 0.2778545 -0.4106589 -0.12341745 -0.4946188 0.1019398 0.060825367
-0.18024032 -0.88991004 0.07339603 0.319555 -0.69111526 -0.11960824 -0.19465536 0.115853585
0.2576154 0.10182045 -0.43678975 -0.021400608 -0.33233437 0.24725412 -0.42776856 0.14418188
0.41354322 0.20174329 -0.08010028 -0.019762158 -0.054522257 -0.3601854 -0.286166 0.1844447
0.36292252 0.17230402 0.80217737 -0.23116253 0.18031201 0.413156 -0.12585723 0.38396633
-0.31186286 0.72354305 0.05496098 0.35405347 0.33717197 0.23876695 -0.3599725 -0.07595403
00000000: f934 9ebe 2c43 053f c821 45be 2254 1a3d
00000010: e203 223d d0a8 b3bd 14de 69be b01c 17bd
00000020: 3e92 113f ae69 513f e0c4 a4bd e504 d8be
00000030: 1554 ca3e 4284 b13e 9ba6 c13e 92f0 da3d
00000040: 405f 14bf e915 ab3d f242 8e3e e241 d2be
00000050: 4ac2 fcbd ad3e fdbe d0c5 d03d 0524 793d
00000060: eb90 38be 25d1 63bf a850 963d b79c a33e
00000070: eeec 30bf 2af5 f4bd bc53 47be a544 ed3d
00000080: 2ae6 833e 3d87 d03d e8a2 dfbe 5450 afbc
00000090: bb27 aabe 2f30 7d3e 7b04 dbbe 6aa4 133e
000000a0: f0bb d33e cb95 4e3e 9e0b a4bd 40e4 a1bc
000000b0: bb52 5fbd 396a b8be 5a84 92be 12df 3c3e
000000c0: fbd0 b93e 7770 303e 7f5b 4d3f dfb5 6cbe
000000d0: b6a3 383e 2f89 d33e b8e0 00be 3c97 c43e
000000e0: 7dac 9fbe 1e3a 393f c41e 613d 7f46 b53e
000000f0: cea1 ac3e 537f 743e 514e b8be c98d 9bbd

module.model.1.model.4.running_var f4 [64]
0.60318255 0.1172106 0.88269794 0.467233 2.0868058 0.115436256 0.17450328 0.21614721
0.18356736 0.49921274 0.04508154 0.23318441 0.15158367 0.6612872 0.112835966 0.12119961
1.1974453 0.17085695 0.09072328 0.5371898 0.12181867 0.53896517 0.03426815 0.51622605
0.82923895 0.27354974 1.3526807 0.15142536 0.22314383 0.17079319 0.18362288 0.16007432
0.09264678 0.6046553 0.11106131 0.12666066 0.14517835 0.0647559 0.4776124 0.17257553
0.14718999 0.1170618 0.2097685 0.12687571 0.57980615 0.06936917 1.0216151 0.08751955
0.9436435 0.4426355 0.49238747 0.52073485 0.15542747 0.20268756 0.19389658 0.3000678
0.07612423 0.24355413 0.32712677 0.8991337 0.17734043 0.4611478 0.08333632 0.55727226
00000000: 2c6a 1a3f 1c0c f03d 7ef8 613f 2a39 ef3e
00000010: 3a8e 0540 d869 ec3d fdb0 323e b255 5d3e
00000020: 15f9 3b3e d098 ff3e 6ca7 383d e5c7 6e3e
00000030: c038 1b3e 1e4a 293f 8b16 e73d 8037 f83d
00000040: e345 993f 20f5 2e3e 21cd b93d 4585 093f
00000050: 117c f93d 9ff9 093f c25c 0c3d 6427 043f
00000060: 0149 543f b60e 8c3e a424 ad3f 400f 1b3e
00000070: d17f 643e 69e4 2e3e a307 3c3e 86ea 233e
00000080: 98bd bd3d b1ca 1a3f 1d74 e33d 55b3 013e
00000090: a2a9 143e be9e 843d 9d89 f43e a4b7 303e
000000a0: f9b8 163e 19be ef3d 8ecd 563e b5eb 013e
000000b0: 2d6e 143f 6c11 8e3d 49c4 823f 733d b33d
000000c0: 9f92 713f 1fa1 e23e 361a fc3e e14e 053f
000000d0: 6128 1f3e 548d 4f3e d38c 463e 7da2 993e
000000e0: 05e7 9b3d 4166 793e 297d a73e a02d 663f
000000f0: bb98 353e 901b ec3e 3cac aa3d 65a9 0e3f

module.model.2.model.0.weight f4 [64, 64, 3, 3]
-0.018569505 -0.042407382 0.015160646 0.011149738 -0.06696791 0.04357773 0.0022336047 -0.016458258
0.0037733687 0.002178076 -0.008284285 -0.0041683232 0.05718647 0.01759703 -0.0026369842 -0.042763464
-0.061347798 -0.04996743 0.060684294 -0.012563512 0.04664685 0.027553366 -0.031940136 0.05135926
-0.033367664 0.017684907 0.0546839 0.017112799 0.057335317 -0.038231555 0.0058784964 -0.03677468
-0.023579715 0.034949437 0.04742454 0.036858566 -0.03996436 0.06272136 -0.05869334 -0.07104503
0.046953622 -0.054722548 0.003587289 -0.0388437 0.06336094 -0.021122327 0.021417072 0.0024984777
-0.06470093 -0.032341797 0.009513466 -0.052325178 -0.019453112 -0.021155257 -0.051464606 -0.01591661
0.036031198 -0.055010356 -0.03350446 -0.011002809 0.016549338 -0.03856464 0.025536498 -0.026542256
-0.04610946 -0.026121473 0.0044165375 -0.067199916 -0.03793216 -0.019388298 -0.0072428673 -0.030321913
0.032219507 -0.052079245 0.0062506637 0.0011720887 0.070796244 0.050830442 -0.045716964 -0.03198047
-0.007023604 0.038235985 -0.045346152 -0.065255344 0.02986439 -0.04687675 -0.06363181 -0.0631952
-0.004931817 0.06733623 0.003561835 -0.05635359 0.06283112 0.056818638 -0.005798719 -0.019516142
-0.02707303 -0.044044178 -0.044993766 -0.046930794 0.061027326 0.058117345 0.0537473 0.042331
0.06648363 0.0030040953 -0.052214418 0.0132736545 0.015749559 0.013716449 -0.006292269 0.058890063
0.01388672 -0.063366145 0.014935738 -0.040176667 -0.045948055 0.049206156 -0.061247833 -0.0095448345
-0.020524474 0.00023431 0.061057627 0.019382775 0.03196857 -0.05421482 -0.030537704 -0.049395908
0.010457693 0.031021122 -0.044025823 0.034190815 0.0020704153 -0.069213174 -0.06410038 0.009650821
0.045981098 0.0027277125 0.06944242 0.062136766 -0.05548315 -0.042306233 0.030170284 -0.04130537
-0.057424963 0.030815195 -0.07100912 0.019528266 -0.005184779 -0.05931191 0.042630263 -0.058230195
-0.0002165875 0.036450315 0.06734579 0.046235416 0.014806792 -0.034942452 -0.02848254 0.0037895292
0.018737564 -0.032874726 0.03616831 -0.03459383 -0.032220606 0.0459439 0.06299472 -0.018470662
0.01739893 -0.01311547 0.03583609 -0.05840139 0.013684349 -0.031198472 0.06767306 0.064320005
-0.035119507 -0.034275185 0.0623775 -0.05599337 -0.072011344 -0.06467411 0.06852866 -0.053767286
-0.045547668 0.06155144 0.037079923 0.011435103 -0.017465526 0.0297163 0.057077914 0.007944621
-0.030579044 -0.001662758 -0.04268927 -0.047597792 0.04057275 0.05516783 -0.032363553 -0.006379864
-0.019349696 -0.05153814 -0.01781695 -0.06023126 0.02285631 0.007304033 0.013368456 -0.0028346118
-0.0024827493 -0.046612322 0.024473684 0.0014308139 0.015259423 0.044240694 -0.014427091 0.029863428
-0.012626933 0.06510704 0.00095536554 -0.004561101 -0.037853252 -0.007180587 0.001047749 0.06503998
-0.0050063957 -0.031560745 -0.03580534 -0.0286092 0.039694205 0.004632176 -0.050295454 0.069707654
-0.046281874 0.03449882 0.06739505 -0.019321343 0.026879694 0.030429112 0.026091546 0.046386756
0.042777706 0.025695035 -0.06542136 -0.06494962 0.07077596 -0.04025057 0.02168153 0.06786909
-0.025787726 0.04197817 0.042488284 0.062489577 -0.03685899 0.015360997 0.061299853 -0.053663503
00000000: 131f 98bc 5db3 2dbd 5c64 783c 64ad 363c
00000010: 7926 89bd 907e 323d ab61 123b 78d3 86bc
00000020: 9f4a 773b 0dbe 0e3b cfba 07bc 6e96 88bb
00000030: 5c3c 6a3d a627 903c 41d1 2cbb be28 2fbd
00000040: d447 7bbd a6aa 4cbd 1890 783d 30d7 4dbc
00000050: c410 3f3d 99b7 e13c a9d3 02bd 165e 523d
00000060: 88ac 08bd f0df 903c 3afc 5f3d 2430 8c3c
00000070: 70d8 6a3d b198 1cbd 67a0 c03b 0ca1 16bd
00000080: 3f2a c1bc 2427 0f3d 3c40 423d 02f9 163d
00000090: abb1 23bd 0e74 803d 6d68 70bd 0f80 91bd
000000a0: 7152 403d c024 60bd b918 6b3b 921a 1fbd
000000b0: 61c3 813d bb08 adbc db72 af3c 80bd 233b
000000c0: ec81 84bd d578 04bd 5ede 1b3c ed52 56bd
000000d0: 225c 9fbc ca4d adbc 8dcc 52bd 8d63 82bc
000000e0: 7395 133d 8a52 61bd f93b 09bd 2045 34bc
000000f0: 7a92 873c f5f5 1dbd eb31 d13c 256f d9bc
00000100: 46dd 3cbd b3fc d5bc 9ab8 903b 1ca0 89bd
00000110: c15e 1bbd 35d4 9ebc 9355 edbb a965 f8bc
00000120: 9af8 033d 0c51 55bd 5ed2 cc3b c5a0 993a
00000130: 9ffd 903d 9533 503d b641 3bbd f4fd 02bd
00000140: 4326 e6bb 569d 1c3d e3bc 39bd 98a4 85bd
00000150: 2aa6 f43c d601 40bd 6551 82bd 7c6c 81bd
00000160: 149b a1bb 94e7 893d ad6d 693b 06d3 66bd
00000170: 9aad 803d a9ba 683d 2e03 bebb 51e0 9fbc
00000180: 42c8 ddbc ab67 34bd 624b 38bd 813a 40bd
00000190: caf7 793d 740c 6e3d 2126 5c3d 4563 2d3d
000001a0: 9228 883d 5be0 443b c9de 55bd be79 593c
000001b0: 3805 813c f5ba 603c 612f cebb b536 713d
000001c0: 2085 633c 1cc6 81bd 07b5 743c 4a90 24bd
000001d0: 0734 3cbd 658c 493d 02df 7abd f061 1cbc
000001e0: f122 a8bc 1db1 7539 9017 7a3d a0c8 9e3c
000001f0: 7af1 023d 5c10 5ebd 352a fabc 5d53 4abd
00000200: be56 2b3c 0220 fe3c 6c54 34bd ab0b 0c3d
00000210: ceaf 073b a3bf 8dbd 0f47 83bd 7a1e 1e3c
00000220: ad56 3c3d 6cc3 323b d437 8e3d 1f83 7e3d
00000230: 4d42 63bd 4d49 2dbd ac27 f73c d22f 29bd
00000240: 7036 6bbd 2670 fc3c 3b6d 91bd bef9 9f3c
00000250: 14e5 a9bb 0cf1 72bd 129d 2e3d c982 6ebd
00000260: c41b 63b9 ed4c 153d 97ec 893d 5961 3d3d
00000270: 3098 723c d11f 0fbd 3754 e9bc c059 783b
00000280: 857f 993c a6a7 06bd 3925 143d 43b2 0dbd
00000290: c1f9 03bd ac2f 3c3d 6003 813d c94f 97bc
000002a0: 3388 8e3c 45e2 56bc ddc8 123d 4c36 6fbd
000002b0: 5234 603c f093 ffbc 2c98 8a3d 35ba 833d
000002c0: 79d9 0fbd 2364 0cbd 8d7f 7f3d 4e59 65bd
000002d0: af7a 93bd dc73 84bd c158 8c3d 163b 5cbd
000002e0: 3190 3abd 5d1d 7c3d 1ee1 173d 4c5a 3b3c
000002f0: dd13 8fbc 996f f33c 88ca 693d 282a 023c
00000300: e780 fabc e6f0 d9ba f2da 2ebd e7f5 42bd
00000310: 9d2f 263d aaf7 613d a58f 04bd 2e0e d1bb
00000320: 4183 9ebc a819 53bd daf4 91bc 0eb5 76bd
00000330: 283d bb3c ab56 ef3b 5e07 5b3c e5c4 39bb
00000340: 9fb5 22bb 90ec 3ebd 097d c83c 268a bb3a
00000350: a902 7a3c bb35 353d 9b5f 6cbc 26a4 f43c
00000360: 32e1 4ebc d756 853d 7f71 7a3a 4a75 95bb
00000370: 030c 1bbd 214b ebbb 9f54 893a ae33 853d
00000380: b10c a4bb d745 01bd 9fa8 12bd d75d eabc
00000390: 6496 223d 82c9 973b 9b02 4ebd e3c2 8e3d
000003a0: 1092 3dbd a24e 0d3d 6a06 8a3d cb47 9ebc
000003b0: ce32 dc3c 7946 f93c f0bd d53c 0a00 3e3d
000003c0: ad37 2f3d 657e d23c a2fb 85bd 4e04 85bd
000003d0: fdf2 903d c8dd 24bd 779d b13c f3fe 8a3d
000003e0: c840 d3bc 4df1 2b3d 3208 2e3d 12f5 7f3d
000003f0: 74f9 16bd b1ac 7b3c 8e15 7b3d 43ce 5bbd

module.model.2.model.0.bias f4 [64]
0.0010341753 0.0009901165 0.0009852239 0.0010215057 0.0009626613 0.0009678476 0.0010336499 0.000997088
0.00096365286 0.0009943333 0.0010162371 0.0010150207 0.0010017364 0.0009846829 0.0009883638 0.0009998237
0.0009750103 0.0010241453 0.0010146056 0.0009986634 0.000990584 0.0009918555 0.0010014237 0.0009841374
0.0009717946 0.0009832544 0.0009903999 0.000976496 0.0009789119 0.0009988112 0.0010241421 0.0010131187
0.0009890283 0.000992743 0.0010048883 0.001017573 0.0010129431 0.0010155598 0.00095471425 0.001033729
0.0010193863 0.0010137411 0.0010126868 0.0009913864 0.0009901712 0.0009928206 0.0009906793 0.0009695868
0.0009907506 0.0010144633 0.00095665856 0.0010155475 0.0010039068 0.0010041416 0.000991579 0.00096827233
0.0009774582 0.0009976195 0.0010004657 0.0009897979 0.0009946073 0.0010256615 0.0009838898 0.001015031
00000000: 2a8d 873a ccc6 813a a122 813a 0be4 853a
00000010: 1b5b 7c3a 27b7 7d3a 897b 873a b9b0 823a
00000020: a69d 7c3a 4a54 823a 4233 853a 710a 853a
00000030: b24c 833a 7a10 813a fc8b 813a 840c 833a
00000040: d597 7f3a 9d3c 863a 84fc 843a 95e5 823a
00000050: 7cd6 813a 2601 823a 3442 833a 2cfe 803a
00000060: 08c0 7e3a 8be0 803a 4ed0 813a 8afb 7f3a
00000070: d54e 803a 8bea 823a 823c 863a 9fca 843a
00000080: 48a2 813a ed1e 823a 75b6 833a 1660 853a
00000090: bbc4 843a 881c 853a ca45 7a3a 307e 873a
000000a0: ee9c 853a 82df 843a 21bc 843a 68f1 813a
000000b0: a2c8 813a 8821 823a aed9 813a de2b 7e3a
000000c0: 13dc 813a bdf7 843a 45c8 7a3a 1f1c 853a
000000d0: 8695 833a 679d 833a dff7 813a a8d3 7d3a
000000e0: 0e1e 803a 8ec2 823a 0f22 833a 1bbc 813a
000000f0: 7c5d 823a 7d6f 863a ddf5 803a ca0a 853a

module.model.2.model.1.weight f4 [64]
0.99914014 1.0007155 1.0002867 0.9993853 0.9994229 1.0004026 0.9991203 0.99935836
1.0002728 1.0000968 1.0006621 0.9988469 0.9998113 1.0006257 1.0004392 1.0000223
1.0000879 0.9991051 0.9994803 0.9989522 1.0005531 0.99965066 1.0002656 1.0000316
1.0003577 0.99984586 1.0001059 0.99884236 0.99942935 0.9994719 1.0010517 1.0005352
1.0007683 1.0008526 0.99957967 1.0008328 1.0006043 0.99888015 0.99937487 1.0011479
1.0005894 1.000365 0.9996869 1.0007436 1.000288 1.0008289 0.9998558 1.0006034
0.99978673 1.0008733 1.0002389 0.9992368 0.9998821 1.0002468 1.0008982 0.99942094
1.0011318 0.99921817 1.0009471 1.000989 1.0000191 0.9999585 0.99967235 0.99887973
00000000: a6c7 7f3f 7217 803f 6509 803f b7d7 7f3f
00000010: 2eda 7f3f 310d 803f 59c6 7f3f f3d5 7f3f
00000020: f008 803f 2c03 803f b215 803f 6eb4 7f3f
00000030: a2f3 7f3f 8114 803f 640e 803f bb00 803f
00000040: e102 803f 5ac5 7f3f f1dd 7f3f 55bb 7f3f
00000050: 2012 803f 1be9 7f3f b408 803f 0901 803f
00000060: b90b 803f e6f5 7f3f 7803 803f 22b4 7f3f
00000070: 9ada 7f3f 64dd 7f3f 7622 803f 8a11 803f
00000080: 2d19 803f f01b 803f 74e4 7f3f 4a1b 803f
00000090: cd13 803f 9cb6 7f3f 08d7 7f3f 9d25 803f
000000a0: 5013 803f f60b 803f 7beb 7f3f 5e18 803f
000000b0: 7009 803f 291b 803f 8df6 7f3f c613 803f
000000c0: 06f2 7f3f 9e1c 803f d407 803f fccd 7f3f
000000d0: 46f8 7f3f 1608 803f 6f1d 803f 0dda 7f3f
000000e0: 1625 803f c3cc 7f3f 091f 803f 6820 803f
000000f0: a000 803f 48fd 7f3f 87ea 7f3f 95b6 7f3f

module.model.2.model.1.bias f4 [64]
-0.0006685803 0.00047509375 0.00057247275 -0.0009722471 -0.000684008 0.00088068953 -0.0011316284 -7.2393384e-05
0.00049485674 0.0006256125 0.00012765745 -0.0011065427 -0.0006409619 0.00080186804 0.000674594 9.291407e-05
0.00044068892 -0.0009731088 -0.0005791544 -0.0010320706 0.00050207373 0.00022939913 0.00027848402 5.415231e-05
0.00040585 0.0007444307 0.00013842796 -0.0011300092 0.00010592837 -0.0006615174 0.00056407193 -0.0005752185
0.0007312834 -0.0003102087 -0.0010094176 -0.00017584724 -0.00015485943 -0.0011690848 -0.0008549038 0.0010328381
0.00037003483 0.0007130106 -0.0005347826 0.00026783205 0.00048832386 0.00069589436 -0.00011562296 0.00027524505
-0.000334775 0.0005201683 0.00045250155 -0.00093601935 0.00021384723 0.0003227174 -0.00044669086 -0.00079269055
0.0011335165 -0.00091010897 0.0009161219 0.00074960064 -0.00042007957 -0.00040621238 -4.574396e-05 -0.0011553195
00000000: aa43 2fba 0116 f939 ff11 163a 66de 7eba
00000010: 004f 33ba 13de 663a 2653 94ba e7d1 97b8
00000020: 46b9 013a 2500 243a c9db 0539 6909 91ba
00000030: 3a06 28ba 7434 523a 3dd7 303a ddda c238
00000040: 440c e739 3a18 7fba 65d2 17ba 8b46 87ba
00000050: 999d 033a dc8a 7039 7e01 9239 9a21 6338
00000060: 44c8 d439 e625 433a f926 1139 d11c 94ba
00000070: dc25 de38 ae69 2dba 3ade 133a 43ca 16ba
00000080: 99b3 3f3a 82a3 a2b9 6f4e 84ba a263 38b9
00000090: c361 22b9 fa3b 99ba 9f1b 60ba 4c60 873a
000000a0: 3c01 c239 55e9 3a3a a730 0cba cf6b 8c39
000000b0: dc02 003a ae6c 363a 9b7a f2b8 c44e 9039
000000c0: bd84 afb9 e75b 083a bb3d ed39 325f 75ba
000000d0: 2e3c 6039 6532 a939 d531 eab9 90cc 4fba
000000e0: 8192 943a 6194 6eba e627 703a d980 443a
000000f0: 203e dcb9 e7f8 d4b9 34dd 3fb8 176e 97ba

module.model.2.model.1.running_mean f4 [64]
-0.25725454 0.27693185 -0.15468237 -0.090820916 -0.2659707 0.21710458 -0.21443461 -0.1826229
-0.065371715 0.62539613 0.05526689 -0.7318869 0.5253448 0.11508395 -0.23213188 -0.17575371
0.38558102 0.10015929 0.4211539 -0.08870298 0.32545814 0.6701366 -0.0013181864 0.06642317
-0.7953734 -0.34938136 -0.5019997 0.5195627 -0.22813866 -0.3330438 0.9887673 0.6269615
-0.574485 -0.26273975 0.55985725 0.6902902 0.30355176 0.11383134 -0.13727355 -0.00904179
0.2649324 0.2254377 -0.18664417 0.37987146 -0.506028 0.18710671 -0.2986531 -0.36832213
-0.38480684 0.023772316 0.13562088 -0.19946168 0.022582678 -0.12742624 0.005734622 -0.21494624
-0.071049534 0.7070609 -0.03813398 -0.08781067 0.35446736 -0.09675239 -0.5142966 0.18125457
00000000: deb6 83be 03ca 8d3e 0e65 1ebe 5100 babd
00000010: 502d 88be aa50 5e3e bf94 5bbe 7f01 3bbe
00000020: 9be1 85bd f619 203f 895f 623d f15c 3bbf
00000030: ff7c 063f 22b1 eb3d fbb3 6dbe c8f8 33be
00000040: e06a c53e 5020 cd3d 7ca1 d73e e8a9 b5bd
00000050: 73a2 a63e 128e 2b3f ffc6 acba df08 883d
00000060: 979d 4bbf 1de2 b2be 0d83 00bf 1002 053f
00000070: 2e9d 69be b884 aabe db1f 7d3f 8d80 203f
00000080: 7311 13bf d385 86be ce52 0f3f dcb6 303f
00000090: 236b 9b3e 6820 e93d 7091 0cbe 0424 14bc
000000a0: 38a5 873e 24d9 663e a61f 3fbe 837e c23e
000000b0: 0d8b 01bf e798 3f3e 0fe9 98be b894 bcbe
000000c0: 6705 c5be 29be c23c 33e0 0a3e af3f 4cbe
000000d0: 4fff b83c 067c 02be 7fe9 bb3b de1a 5cbe
000000e0: 6b82 91bd f101 353f 6032 1cbd 15d6 b3bd
000000f0: bf7c b53e 1e26 c6bd f1a8 03bf cc9a 393e

module.model.2.model.1.running_var f4 [64]
0.5343168 0.34528348 0.24612795 0.27331936 0.1712925 0.8065461 0.16074942 0.13765351
0.16986914 0.37216645 0.10314909 0.7828615 0.7668355 0.2480186 0.27573714 0.39464426
0.49899128 0.26792392 0.840447 0.33491042 0.1490453 0.4160966 0.8081472 0.4501361
0.3577127 0.32373285 0.9679844 0.22714743 0.32516828 0.29157254 0.9782087 0.23868488
1.65873 0.15338078 0.14052549 0.4411692 0.26763895 0.32440564 0.17094262 0.26625472
1.2550964 0.37468603 0.52437556 0.13265337 0.44235295 0.2943978 0.608135 0.17049964
0.16634275 0.3234592 1.0073822 0.28016815 0.48059958 0.8197578 0.5079396 0.37675723
0.6265562 0.42478287 0.2770002 0.64032483 0.56896895 0.4234014 0.23421921 0.44824687
00000000: fcc8 083f ffc8 b03e f708 7c3e 84f0 8b3e
00000010: 4d67 2f3e ce79 4e3f 7f9b 243e 0bf5 0c3e
00000020: 2df2 2d3e 9a8c be3e d53f d33d 9c69 483f
00000030: 554f 443f 96f8 7d3e 6b2d 8d3e d00e ca3e
00000040: c97b ff3e 532d 893e 8927 573f 6179 ab3e
00000050: 559f 183e 9d0a d53e bce2 4e3f 3d78 e63e
00000060: 1e26 b73e 50c0 a53e d3cd 773f 5699 683e
00000070: 757c a63e ff48 953e e36b 7a3f cf69 743e
00000080: 4451 d43f da0f 1d3e eae5 0f3e eee0 e13e
00000090: f907 893e 7f18 a63e 950b 2f3e 8a52 883e
000000a0: 00a7 a03f d9d6 bf3e 7a3d 063f 49d6 073e
000000b0: 167c e23e 4fbb 963e bcae 1b3f 7597 2e3e
000000c0: c155 2a3e 729c a53e e6f1 803f 3372 8f3e
000000d0: 2611 f63e a6db 513f 5408 023f 53e6 c03e
000000e0: fd65 203f 247d d93e f8d2 8d3e 54ec 233f
000000f0: f3a7 113f 11c8 d83e 29d7 6f3e 9d80 e53e
