output_gd_denoise/ckpt/resnet_epoch18.pth (torch, 641695 bytes, 31 tensors)

module.model.0.weight f4 [64, 1, 1, 1]
000000 da 8d 99 be 6e 55 88 be 03 e7 1a 3e 7b c3 1a 3e
       -0.29991037 -0.26627678 0.15127186 0.15113632
000010 b3 bf 75 be 9f 5b 89 be 9c 67 52 be 95 f3 1f 3d
       -0.23998909 -0.26827714 -0.20547336 0.039050657
000020 66 8f 4e be d0 a3 5e 3e 18 e5 15 3c be bd 1d 3d
       -0.2017189 0.21742177 0.0091488585 0.03851103
000030 d7 55 de bd fd bd 89 be 38 6d e7 3d 7e 98 7f 3e
       -0.108562164 -0.26902762 0.11300129 0.24960515
000040 35 57 25 3e ab 27 74 3c fb 26 80 3e 20 2a 2b 3e
       0.16146548 0.014902036 0.2502974 0.16715288
000050 71 f5 d7 3c 05 87 68 3e 5d 18 9f bd f8 09 7e 3e
       0.026362153 0.22707756 -0.07768319 0.2480849
000060 5d 71 85 be e5 aa 99 3d 72 bf 42 3e 7d e3 fd 3d
       -0.26063052 0.07503299 0.19018343 0.123969056
000070 2b 5b ba bd eb 95 ea bc b6 7f 63 3e de 06 80 3e
       -0.0909942 -0.02863594 0.22216687 0.2500524
000080 f3 77 87 3e 44 40 5b be b1 fe 0e 3e ec f1 21 3e
       0.26458701 -0.21411234 0.13964345 0.15814942
000090 03 b8 05 be d6 ae 3c 3d 46 46 ec 3d b4 90 e7 bd
       -0.13058476 0.046065174 0.11536841 -0.11306897
0000a0 b6 0b 76 3d 4a 35 44 3e b9 e0 fd bd 98 00 6e be
       0.060069762 0.19160953 -0.12396378 -0.23242414
0000b0 26 8d 93 3c bc a1 90 bd fb 9d fe 3d f2 ab 0c 3d
       0.01801164 -0.070620984 0.12432476 0.034343667
0000c0 d4 e8 18 bd 64 3c 2d 3e a4 b0 3a be a7 76 0e 3e
       -0.037331417 0.16917568 -0.18231446 0.1391245
0000d0 50 25 d0 3d 20 61 b1 bd a9 31 3c be 75 0a b6 bc
       0.10163367 -0.08661103 -0.18378319 -0.022221783
0000e0 4d e3 86 3e da 89 3a 3e 1c ec 38 be b8 80 80 3e
       0.26345292 0.18216649 -0.18058819 0.25098205
0000f0 fb 11 8a 3d 59 2e 28 3e 65 34 67 3e 89 08 3d 3e
       0.06741711 0.1642393 0.2257858 0.18460287

module.model.0.bias f4 [64]
000000 1a 4f cf 3a 32 24 13 3b 33 4a c0 b9 e4 8f 9d 3a
       0.0015816421 0.0022451994 -0.00036676376 0.0012021032
000010 1a 44 b6 3a 6b bb 12 b9 66 99 e6 39 a9 04 87 3a
       0.0013905794 -0.00013993464 0.0004398331 0.0010301071
000020 1b bd e3 39 c5 5b 1b ba 74 3d 25 3b b8 ca ee b8
       0.00043437709 -0.00059264555 0.002521363 -0.00011386484
000030 0a 52 5c b9 00 35 74 3a 01 06 ec 39 84 a5 bd 39
       -0.00021011397 0.0009315759 0.000450179 0.00036172208
000040 db cd ce 38 00 3f cd 3a 63 5e c1 b8 6b bb 9a 3a
       9.861189e-05 0.0015659034 -9.220538e-05 0.0011805122
000050 74 d1 1b 3b 08 63 b8 3a 4a a2 eb 3a c6 73 68 b8
       0.0023775967 0.00140676 0.0017977443 -5.5420933e-05
000060 2f 0e 47 3a cf 76 5f 3a e4 31 b7 3a 4c 3c 00 ba
       0.0007593361 0.0008524479 0.001397666 -0.00048917974
000070 7a 7b b8 3a 99 ac 58 39 98 b9 a1 b9 f1 2a 07 3b
       0.0014074885 0.00020663663 -0.0003084659 0.002062496
000080 fc 9f 18 3a e1 72 d5 3a 9a 15 b6 3a c9 a2 43 b9
       0.00058221794 0.0016284847 0.0013891936 -0.00018657291
000090 3e ef b4 3a 5a 93 dc 39 a7 1a f6 3a b0 36 28 3b
       0.001380421 0.00042071455 0.0018776254 0.0025667362
0000a0 aa d7 ad 3a b6 ae 0c ba 96 9c f3 3a f5 a2 95 3a
       0.0013263125 -0.000536661 0.0018586095 0.0011416363
0000b0 10 61 83 3a eb 32 1e 3b ae de dc 3a 93 42 2a 3b
       0.0010023434 0.0024139236 0.0016851032 0.0025979623
0000c0 f4 3a 0a b9 8c c8 19 3b 27 e8 b4 b9 a8 e7 be 3a
       -0.00013182667 0.0023465483 -0.00034505242 0.0014564889
0000d0 d4 ce 04 3b f0 1e a6 3a e9 79 08 3a 40 1d 90 b9
       0.002026488 0.0012674015 0.00052061543 -0.00027487613
0000e0 07 38 b7 38 9a ef db 39 43 e2 03 3b 8c 6b d6 3a
       8.736556e-05 0.00041949452 0.0020123876 0.0016358956
0000f0 ea ea 2d 3a 5a 39 34 3a 1d ec 1e 3b 1d 2c 84 3a
       0.0006634431 0.0006875001 0.0024249621 0.0010083948

module.model.1.model.0.weight f4 [64, 64, 3, 3]
000000 26 04 4e bd 8c 1f b0 bc 6f 2c 94 bd 96 34 04 bc
       -0.050296925 -0.021499418 -0.072350375 -0.008069178
000010 92 ae 68 bc 97 eb 6b bd 36 95 8a bd f1 dd 00 3d
       -0.014201777 -0.057597723 -0.06766741 0.03146166
000020 70 31 79 3b 97 4c 39 bd 47 da 6e 3d 10 2e 5d 3d
       0.0038023852 -0.045239057 0.058313634 0.053999007
000030 90 81 70 3d 4c f1 84 bd f2 48 dd 3b fa 61 cb bc
       0.05871731 -0.06491336 0.0067530805 -0.024826992
000040 c0 95 5d 3d 5a 30 9c bc 17 a5 1a bd eb e7 5e 3d
       0.05409789 -0.019066025 -0.0377551 0.054420393
000050 e6 46 8b bd 28 ff 8d 3a 5c d1 c1 3b 8a f9 7e bd
       -0.06800632 0.0010833489 0.00591485 -0.062249698
000060 14 6b 95 bc cb 77 8a 3d 70 88 d8 bc 94 40 de bc
       -0.018239535 0.0676113 -0.026432246 -0.027130403
000070 ad fb 1a bd c6 6b 11 bd 81 83 73 bd d5 fb 04 3d
       -0.037837673 -0.03550317 -0.059451584 0.03246673
000080 77 7d 02 bd 0c 29 83 bd 9f 5e 03 bd af e1 03 3c
       -0.031857934 -0.064043134 -0.03207266 0.008049413
000090 f2 64 86 3d fc 59 a0 3c 96 3a 96 bc 9d 52 2e bd
       0.065622225 0.019574158 -0.018338483 -0.042559255
0000a0 8b d9 2f 3d e0 28 57 bc f3 d0 68 bd 2a 00 f9 3c
       0.042932075 -0.013132304 -0.056839895 0.030395586
0000b0 87 25 d4 bc 86 60 28 bd ff 97 74 3d 09 ad 2b 3d
       -0.0258968 -0.041107677 0.059715267 0.041913066
0000c0 35 cf 74 3d 42 5d f8 3b ae 6e 33 3d 11 ce 90 bd
       0.05976792 0.0075794766 0.043806724 -0.07070554
0000d0 af 66 a8 3c 60 d2 35 3d c5 c4 83 3d 71 2f 92 bd
       0.020556776 0.044390082 0.06434015 -0.07137955
0000e0 10 7a 80 3d 65 c3 9a 3c 88 ac ec 3c 63 db b2 3b
       0.062732816 0.018892 0.028890863 0.005458282
0000f0 ec f3 10 b8 8f 9c 88 bd ee c6 ec bc 49 7e 58 bd
       -3.4559445e-05 -0.06670486 -0.02890345 -0.05285481
000100 1d 29 a9 3c b5 40 06 3d b9 17 8a 3d ad 30 c4 bc
       0.020649487 0.032776553 0.06742806 -0.023948992
000110 81 c0 85 bd fb 4a e9 bb 5e 7d 84 3d 35 dc 1a bd
       -0.06530858 -0.007119534 0.064692244 -0.037807662
000120 43 78 75 bd b1 3d 61 bc 7b 24 87 bd b1 7d 69 bd
       -0.059929144 -0.0137476185 -0.06598755 -0.057004634
000130 64 50 4b bb f9 06 3f 3c 07 2a f2 bb 65 d6 76 bd
       -0.0031023258 0.011659377 -0.007390264 -0.060263056
000140 6a 1a 57 3d d9 c5 ab bc f1 f2 85 3d 5a f4 e1 bc
       0.052515425 -0.020968365 0.06540478 -0.027582336
000150 95 da 91 bd 12 34 3d bd 65 2e 30 3c 08 dd 8c 3d
       -0.07121769 -0.046192236 0.010753249 0.06878096
000160 4d 8e 3d 3d 6c 14 e8 3b 4d 8a 23 bd 77 a3 73 bd
       0.046278287 0.0070825126 -0.039926816 -0.059482064
000170 d0 a1 56 bd ba cc 3d bc a6 3e 77 bd 9b 8d 15 bd
       -0.05240041 -0.011584455 -0.06036248 -0.036512
000180 d2 0b f2 3b 3e 9b 27 3d 78 fb 6d bc 25 07 bb 3b
       0.007386663 0.040919535 -0.014525287 0.005707639
000190 ab 46 08 3b 28 98 8a 3d 4b c7 a3 bc 33 ad ee bc
       0.0020794075 0.06767303 -0.019992491 -0.029135322
0001a0 50 3e 07 bd 55 c3 a2 bc 30 c9 65 3d fc 6f 4c 3d
       -0.03301841 -0.019868532 0.05610007 0.049911484
0001b0 f4 3d f9 3c d8 a4 80 3d dd 75 18 3d f1 1a fb 3c
       0.03042505 0.062814415 0.03722178 0.030652495
0001c0 9d 64 e9 bb 91 89 37 3d 3d 93 6d bd da a1 81 bb
       -0.0071225897 0.044808928 -0.058001745 -0.003956062
0001d0 04 90 b6 bc e1 35 15 bd 68 7f 50 3d 3d c9 0d 3d
       -0.022285469 -0.036428336 0.050902754 0.034615744
0001e0 02 5b bb 3c c8 f2 2a bd 16 a1 7d bc b9 cf 92 bd
       0.022870544 -0.04173544 -0.0154803 -0.07168526
0001f0 55 b8 d1 3c a9 24 94 bd bc aa fe bc 7e 2b 5c 3d
       0.025600592 -0.07233555 -0.031087272 0.053752415
000200 ac 5d 0c bd 26 72 3b bc 4c 13 af bc 7e 66 c1 bc
       -0.03426902 -0.011440789 -0.021371506 -0.023608442
000210 fc e2 56 bd 49 1e 15 3d 6f ed 39 3d f7 ca e3 bc
       -0.052462563 0.036405835 0.04539245 -0.027806742
000220 8a ff 70 3d e2 11 5b bd 56 fb 1c 3d 41 46 39 3b
       0.05883745 -0.05348385 0.03832563 0.0028270634
000230 d3 78 16 3d 61 77 04 3d 5b fa 25 bd 44 2d b0 bb
       0.03673632 0.03234041 -0.04052196 -0.00537649
000240 c9 d8 13 bd 45 85 30 3c 0a 37 2e bc 2e 88 06 bc
       -0.036095414 0.010773961 -0.0106332395 -0.008211179
000250 a7 a5 72 3d 45 30 15 bd 5a 12 89 3d 5c 52 5c 3d
       0.05924001 -0.036422987 0.066929534 0.05378948
000260 b2 39 21 3d 09 3f 80 3c 5e 98 68 bd 04 02 79 bc
       0.039361663 0.015655058 -0.056785934 -0.0151982345
000270 83 b4 3d bc d8 0e 2d 3d 5c 56 54 bc 65 9b 4f 3c
       -0.011578682 0.042250484 -0.012960043 0.012671326
000280 4c 0f 99 bb 1e 36 61 bc 14 73 24 3d bc 04 ee 3c
       -0.004671013 -0.013745813 0.04014881 0.029054992
000290 4b b0 1f 3c 8c 38 56 bd 52 77 21 3d 19 de 19 bd
       0.009746621 -0.05230002 0.039420433 -0.037565324
0002a0 b5 1e 8b bc a1 aa a0 3b 89 0e fa bc 11 4b b1 3c
       -0.016982416 0.004903153 -0.030524509 0.02164224
0002b0 52 0d af 3c 63 3a b9 ba 67 5d f4 3c 82 19 29 3d
       0.021368656 -0.001413178 0.029829694 0.04128409
0002c0 ad 64 bf 3c 26 6c 85 3d da cb bd bc cd ef 8b 3c
       0.023363436 0.06514768 -0.023168493 0.01708212
0002d0 ff 8a 83 3d 20 b5 26 bd 0c e7 0a 3d 8b 11 06 bc
       0.06422996 -0.040700078 0.03391175 -0.0081828935
0002e0 3b f3 22 bd 91 58 d8 3b 74 78 bd 3b c0 49 e2 3b
       -0.039782744 0.006602355 0.0057821814 0.0069057643
0002f0 1c 70 ae 3c 13 8c bb 3c 4c f1 04 bd e4 25 87 3d
       0.021293692 0.022893941 -0.03245668 0.06599024
000300 6f 45 45 bd f5 df 80 bc 99 4c 24 3d 70 b9 ab 3c
       -0.04816192 -0.015731791 0.04011211 0.020962447
000310 fb ac 2e 3d 06 b7 3d 3c 11 53 88 3d 01 f2 fe 3c
       0.042645436 0.011579281 0.06656469 0.031121256
000320 3a 8e 18 bd 20 4e 83 3d 3a 8d 26 3c a6 77 76 bd
       -0.037245013 0.064113855 0.010165507 -0.0601727
000330 b7 b1 55 3c 0e 81 58 bd d2 29 11 bc b8 f4 cf bb
       0.013042859 -0.05285745 -0.008860068 -0.0063463114
000340 ee fa 16 3b 13 0e 11 3d 47 c4 87 bd a4 25 39 bd
       0.002303775 0.035413813 -0.06629234 -0.045201913
000350 b1 e0 c8 ba de e7 41 bd a8 71 0b 3c f1 0e 29 bc
       -0.0015325752 -0.047340266 0.0085109845 -0.010318504
000360 08 1a 0d 3d 54 f8 4c bd e9 90 7e 3d 89 cc 42 3d
       0.034448653 -0.05004151 0.062149916 0.04755834
000370 31 48 2a bd 7c 67 f8 ba 97 f9 19 bd d4 ff b8 bc
       -0.041572753 -0.0018951739 -0.037591543 -0.022582926
000380 de c5 46 bd 08 1b 9c bc 92 39 a1 bc 6c 4e 4c 3d
       -0.048528545 -0.019055858 -0.019680772 0.049879476
000390 07 39 65 3d e9 45 9f 3c d9 ea bb 3c ee 01 b7 3c
       0.05596259 0.019442515 0.022939133 0.022339787
0003a0 71 9f 4d bd 96 11 67 3d 19 b7 86 bd 63 45 3a bc
       -0.050200883 0.056413256 -0.06577892 -0.011369082
0003b0 75 7c 20 3d 09 0b bc 3c 83 0d 37 bc 7f 24 d3 3c
       0.03918119 0.02295448 -0.011172655 0.025774239
0003c0 d9 f5 3e bd 59 9d 24 3d d7 0e 2e 3a 70 a3 8f bd
       -0.046621177 0.04018912 0.00066397846 -0.07013595
0003d0 ad 87 7b 3d d8 d3 f3 bc 8b c4 12 3d f2 ef 5e 3c
       0.061408687 -0.0297641 0.03583197 0.013607012
0003e0 33 c3 92 bc 13 17 20 bd 16 b2 67 3d ab 9a 89 3d
       -0.017915344 -0.039084505 0.05656632 0.06718954
0003f0 45 7f 8c bd 0e 4a 9c 3c 31 a6 72 bd 81 cb ca bc
       -0.06860212 0.01907828 -0.059240524 -0.024755241

module.model.1.model.0.bias f4 [64]
000000 02 00 8d 3a c7 8e a1 3a d7 73 30 3a 1a ca 78 3a
       0.0010757449 0.0012325876 0.00067311287 0.00094905647
000010 3a 78 98 3a 97 6e 97 3a 5f ae 88 3a d6 bc 2f 3a
       0.001163251 0.0011553344 0.0010427943 0.0006703859
000020 58 9b 8c 3a ea de 99 3a 6e 99 7c 3a 48 b4 80 3a
       0.0010727448 0.0011739407 0.00096359 0.0009819353
000030 8b 99 97 3a 9a be 44 3a 3f 65 92 3a 1e 8c a7 3a
       0.0011566145 0.00075052085 0.001116909 0.0012782847
000040 e6 cb 5f 3a 77 83 41 3a 65 db 75 3a f9 65 68 3a
       0.0008537158 0.00073819555 0.00093787006 0.0008865293
000050 01 48 a9 3a 86 ce 96 3a c0 18 98 3a 9d be af 3a
       0.0012915136 0.001150564 0.0011604056 0.0013408248
000060 89 18 83 3a 73 cf 93 3a c0 3b b4 3a c9 9a 80 3a
       0.0010001819 0.0011277035 0.0013750717 0.0009811755
000070 4d 15 9b 3a 95 61 6b 3a f7 d6 97 3a ca a8 39 3a
       0.001183191 0.00089790794 0.001158445 0.00070823415
000080 7f a1 81 3a 52 38 8e 3a 5f 08 50 3a 15 56 66 3a
       0.0009890049 0.0010850525 0.00079358177 0.0008786631
000090 7f 59 59 3a 67 88 b0 3a 4a 62 86 3a 15 5b aa 3a
       0.0008291229 0.0013468385 0.0010252681 0.0012997115
0000a0 ca 6c 68 3a 04 e6 4f 3a fa 18 90 3a 11 48 91 3a
       0.00088663085 0.00079306983 0.0010993772 0.00110841
0000b0 7f 50 7c 3a ce 68 31 3a b1 c5 9d 3a 7a 8f 62 3a
       0.0009625032 0.0006767631 0.0012037066 0.00086425955
0000c0 56 b8 9d 3a 6d d4 8e 3a 12 1a 93 3a d7 f2 76 3a
       0.0012033086 0.0010897048 0.001122298 0.0009420341
0000d0 fe 7c 86 3a b2 15 57 3a 33 79 c4 3a 05 c0 3d 3a
       0.0010260639 0.0008204832 0.0014989733 0.0007238391
0000e0 f0 90 9f 3a 5e de b2 3a 15 3a 8e 3a 28 e2 5a 3a
       0.0012173932 0.0013646593 0.001085105 0.000834974
0000f0 e3 f6 71 3a e4 54 ae 3a 8e 2d 30 3a 71 c1 39 3a
       0.00092302094 0.0013300446 0.00067206554 0.0007086015

module.model.1.model.1.weight f4 [64]
000000 d7 0c 80 3f b7 f3 7f 3f 81 b6 7f 3f 0f d1 7f 3f
       1.0003918 0.99981254 0.99887854 0.99928373
000010 27 0d 80 3f 0d af 7f 3f 32 f5 7f 3f d6 09 80 3f
       1.0004014 0.9987648 0.99983513 1.0003002
000020 d9 1b 80 3f ae 03 80 3f cd 27 80 3f a2 2a 80 3f
       1.0008498 1.0001123 1.0012146 1.001301
000030 3a b9 7f 3f f0 b7 7f 3f 47 33 80 3f 83 13 80 3f
       0.9989201 0.9989004 1.0015649 1.0005955
000040 df d9 7f 3f 09 3c 80 3f a8 c0 7f 3f b7 14 80 3f
       0.9994182 1.0018321 0.99903345 1.0006322
000050 35 3b 80 3f bd de 7f 3f b6 c0 7f 3f 78 e4 7f 3f
       1.0018069 0.99949247 0.9990343 0.9995799
000060 46 dc 7f 3f 4f 7e 7f 3f df 9d 7f 3f dc cb 7f 3f
       0.99945486 0.99802107 0.9985027 0.9992044
000070 05 bf 7f 3f a7 d0 7f 3f f4 ab 7f 3f db 26 80 3f
       0.9990085 0.99927753 0.99871755 1.0011858
000080 77 d5 7f 3f 92 1e 80 3f fb 06 80 3f 4f 28 80 3f
       0.99935097 1.0009329 1.000213 1.0012301
000090 20 0f 80 3f 8f 0f 80 3f 5b b7 7f 3f ad cb 7f 3f
       1.0004616 1.0004748 0.99889153 0.9992016
0000a0 8e e5 7f 3f d9 94 7f 3f 7b c3 7f 3f 29 1b 80 3f
       0.9995965 0.998365 0.99907655 1.0008289
0000b0 b5 eb 7f 3f 5c 04 80 3f 42 bd 7f 3f 4f 07 80 3f
       0.99969035 1.000133 0.9989816 1.000223
0000c0 c9 c7 7f 3f cb eb 7f 3f bf d0 7f 3f 87 fc 7f 3f
       0.9991422 0.99969167 0.99927896 0.999947
0000d0 47 18 80 3f 08 09 80 3f d3 25 80 3f 7b 93 7f 3f
       1.0007409 1.0002756 1.0011543 0.9983441
0000e0 ca 04 80 3f 3d 23 80 3f 42 05 80 3f 3e 18 80 3f
       1.0001462 1.0010754 1.0001605 1.0007398
0000f0 d8 17 80 3f 9a 8e 7f 3f 1a 04 80 3f 4f 12 80 3f
       1.0007277 0.9982697 1.0001252 1.0005587

module.model.1.model.1.bias f4 [64]
000000 89 8c 66 3a 08 39 de b9 7d 94 23 ba d4 4c a1 b9
       0.0008794745 -0.0004238563 -0.0006240083 -0.00030765554
000010 b7 eb 3b ba d3 54 cb ba 98 84 d1 b9 fe b0 82 b8
       -0.0007168608 -0.001551295 -0.00039962376 -6.2318504e-05
000020 5a 29 ed b9 9c ed 9a b9 62 ec 5f 3a 7c 65 40 3a
       -0.00045234972 -0.00029550202 0.00085419987 0.0007339341
000030 97 0a 93 b9 7f f4 87 ba 78 cf 93 3a 40 00 8b 3a
       -0.00028045915 -0.0010372548 0.001127704 0.0010604933
000040 5b b5 2d b9 19 35 e8 3a bd 49 70 ba aa 17 bb 3a
       -0.00016566126 0.001771602 -0.00091662613 0.001427402
000050 3b 32 f7 3a 44 fe 45 3a b8 40 92 ba 3a 28 42 ba
       0.0018859574 0.0007552842 -0.0011158204 -0.0007406507
000060 01 67 8a 38 3c 5b c7 ba 58 14 1d b9 d0 81 7e b9
       6.599539e-05 -0.0015209685 -0.00014980265 -0.00024271687
000070 7a e2 15 3a 8e b6 75 ba d3 54 aa ba 73 42 d5 3a
       0.00057176466 -0.0009373211 -0.001299525 0.0016270414
000080 67 7d b0 b9 bc 25 d9 b7 f3 5d a4 3a 63 d6 d6 3a
       -0.00033662768 -2.5885987e-05 0.0012540206 0.0016390797
000090 5b e7 01 3a c5 6c 39 3a cc 80 2e b8 d9 47 91 ba
       0.0004955434 0.0007073398 -4.1604784e-05 -0.0011084034
0000a0 36 cc 91 39 ee a1 b9 ba 1b b3 c6 ba b4 39 b4 3a
       0.00027808704 -0.0014162639 -0.0015159579 0.0013750107
0000b0 72 a9 26 b9 04 a0 68 ba 92 16 d9 b9 cb fb 29 3a
       -0.00015894117 -0.0008873942 -0.00041406282 0.00064843585
0000c0 41 78 28 ba 92 e0 5e ba 9e 6f fe b8 a5 33 68 3a
       -0.00064266106 -0.00085020915 -0.00012132454 0.00088577933
0000d0 df 5d 2a 3a 94 15 76 39 ac d3 d4 3a 45 24 7c ba
       0.0006498973 0.00023468427 0.00162374 -0.00096184417
0000e0 03 25 9a 3a 83 ce 91 3a 34 80 67 b9 b4 97 28 3a
       0.0011760298 0.0011124167 -0.00022077636 0.0006431297
0000f0 c2 b4 a5 3a 20 bc d2 ba 00 f9 a0 ba e9 51 50 39
       0.0012642371 -0.0016077794 -0.0012281239 0.0001986694

module.model.1.model.1.running_mean f4 [64]
000000 8d 7b 16 b9 3c 36 e8 b9 4d d4 33 3b 23 8c c8 3a
       -0.00014351141 -0.00044290896 0.0027439774 0.0015300553
000010 eb 02 65 ba 52 31 c1 3a ec 4c 94 b9 4e bd 88 3b
       -0.00087360915 0.001473943 -0.0002828607 0.0041729575
000020 4f db 6b 3b 0c 9f 53 3a ba 7f c8 3a bc 37 70 3b
       0.0035988872 0.0008072711 0.0015296855 0.0036654314
000030 62 51 fc 3a c0 d6 20 3a cf 56 84 3a e5 83 15 3b
       0.0019250328 0.0006135516 0.0010096672 0.002281421
000040 fb 84 ba 3a 57 39 1f 3b 10 91 4f ba 3f fd 8e 3a
       0.0014230305 0.0024295652 -0.00079180393 0.0010909213
000050 ff 87 79 3b df 64 4b 3b 3f ee 71 3b 33 c9 5f 3a
       0.0038075445 0.0031035466 0.0036915687 0.0008536756
000060 d3 3a fe 3a be 4f aa 3a 4f 05 01 b9 10 2d 8c ba
       0.0019396193 0.0012993736 -0.00012304376 -0.0010694582
000070 b1 89 f2 3a 5e 49 21 ba 68 e2 fb 3a 48 9b dc 39
       0.001850417 -0.0006152595 0.0019217255 0.00042077363
000080 03 39 4d 3a 62 7c 25 bb 2d a7 ce 3a 38 5f 95 b8
       0.0007828625 -0.002525114 0.0015766375 -7.1226095e-05
000090 cf 83 91 3a 58 c1 32 3a 56 f6 5c 3a 71 1f 49 ba
       0.0011101904 0.00068189716 0.0008429041 -0.00076722266
0000a0 40 b7 1b 3b 59 07 8e 39 87 ea 63 3b 0a 5b 59 3a
       0.0023760349 0.00027089825 0.003477724 0.0008291459
0000b0 3d 88 94 b9 fe 11 53 b9 0c 0b 49 3a b9 b9 1a 3b
       -0.00028330265 -0.0002012923 0.00076691876 0.0023609234
0000c0 8c b9 ec ba 7d 2e 8e 3b 7a 01 bc 3a 58 1f 1c 3a
       -0.0018060668 0.004339038 0.0014343702 0.00059555983
0000d0 8a 85 0a ba 57 e7 b7 ba 84 b0 10 3b 1d 3a ec 3a
       -0.0005284181 -0.0014030737 0.0022077868 0.001802269
0000e0 a2 9b 13 3b 79 45 56 3b 8e 47 43 3b 1f 04 49 3a
       0.0022523184 0.0032695218 0.0029797289 0.00076681556
0000f0 82 fd 82 3b d4 bd 2c 3a 40 51 4c 3a 3a 80 0a ba
       0.0039975056 0.0006589566 0.00077940896 -0.00052833895

module.model.1.model.1.running_var f4 [64]
000000 e2 50 c2 38 a4 ec 2e 3a 21 e5 7e 38 8c 0a 6b 3a
       9.2657065e-05 0.00066728354 6.0771712e-05 0.000896611
000010 ab 4b cb 39 55 2d 3c 3a 9e f4 56 3a ea c6 92 39
       0.00038775554 0.0007178386 0.0008199903 0.00027995493
000020 e9 02 a8 39 36 95 10 39 f1 d7 73 39 d8 2c 0a 3a
       0.00032045625 0.00013788496 0.0002325473 0.00052709645
000030 f0 9a 43 39 71 3b 93 3a b2 3e 93 3a b0 20 2a 3a
       0.00018654368 0.0011232925 0.0011233895 0.0006489856
000040 37 7b 3e 37 4f 57 07 39 98 33 6d 38 84 cd 16 39
       1.1353571e-05 0.00012907128 5.6553254e-05 0.00014381675
000050 e1 c1 89 3a bd b9 b6 3a 41 37 5a 37 5c 3b ad 37
       0.0010510051 0.0013940852 1.3006677e-05 2.0650848e-05
000060 52 8e 45 38 0a 7e 1f 38 bb 89 12 38 e4 e2 e2 39
       4.7101006e-05 3.8025937e-05 3.4937384e-05 0.00043275126
000070 01 01 e9 39 31 c9 0c 39 e8 af 99 39 de ce a1 39
       0.0004444197 0.0001342639 0.00029313494 0.0003086244
000080 53 d4 31 3b c2 77 99 3a a1 88 91 3a 8b 3c a5 39
       0.0027134612 0.0011708664 0.0011103341 0.0003151636
000090 5b 17 ba 3a a5 e2 40 38 a7 fe ea 38 83 b6 0f 38
       0.0014197634 4.5987446e-05 0.00011205422 3.4263834e-05
0000a0 6e 82 8b 3a 55 25 a9 38 82 c4 ca 39 f8 c0 8e 38
       0.001064373 8.0655016e-05 0.00038674852 6.807031e-05
0000b0 77 bf 80 39 4e 37 a8 35 3d 8e 81 39 17 01 be 39
       0.00024556715 1.2533071e-06 0.00024710773 0.00036240436
0000c0 5f ba 28 39 65 4a f9 38 6b 76 0e 39 5b a1 8a 38
       0.00016091157 0.00011887102 0.0001358629 6.6104076e-05
0000d0 c5 7c 09 3a 71 b3 56 39 b8 67 1b 3a b5 f4 cc 38
       0.00052447274 0.00020475478 0.0005928236 9.773058e-05
0000e0 82 39 fa 39 0a a1 56 39 16 e1 3c 39 1c 21 a2 37
       0.00047726562 0.00020468622 0.00018012928 1.9327323e-05
0000f0 af 61 32 39 7e bb 76 37 f3 5d eb 36 eb ae 1d 3a
       0.00017011793 1.47063965e-05 7.014483e-06 0.00060151395

module.model.1.model.3.weight f4 [64, 64, 3, 3]
000000 fa 83 25 3d 10 4e 53 3d 7e 9c f9 bc da 80 7c ba
       0.040409066 0.051588118 -0.03047013 -0.00096322375
000010 85 d4 01 bd 99 dd d3 bc 44 8d 04 3d 56 7f 81 3d
       -0.031696815 -0.025862502 0.032361284 0.063231155
000020 3e f1 b8 bc cf d6 59 3d ec a5 fd bc 17 86 20 bd
       -0.02257597 0.053183373 -0.030962907 -0.039190378
000030 0c c6 8f bd 62 72 81 3d e9 2b 66 bc 33 78 42 3d
       -0.07020196 0.06320645 -0.014048555 0.047477912
000040 34 6c 90 3d 92 de fb 3c 4b dc 8c 3d e1 5e 52 bd
       0.07051888 0.030745778 0.06877955 -0.051360015
000050 13 38 aa bc e3 72 12 3c f0 b6 8a 3d 9b 56 6c bd
       -0.020778691 0.008938524 0.06773174 -0.05769978
000060 1d 64 d8 3c 76 0e e9 3b c8 0d 00 3c 1e 3f 71 3d
       0.026414925 0.0071123196 0.007815786 0.058898084
000070 60 61 7f 3c dd 0a 10 bd 7d e7 1c 3b 81 4a 2a 3d
       0.015587181 -0.03516661 0.0023941689 0.04157496
000080 e9 8d 7a 3b 11 b0 68 3d 2b 53 80 bd e4 b4 8d 3d
       0.0038231558 0.056808535 -0.06265863 0.06919268
000090 a2 67 de 3b 3d 32 94 3c 1e 45 71 3d ff 4b 58 3c
       0.0067872563 0.018090362 0.058903806 0.013201713
0000a0 02 c7 34 bd 41 63 29 3c 66 49 8f bd 8e f7 20 3c
       -0.0441351 0.010338605 -0.069964215 0.009824647
0000b0 db c1 1e bc 91 fe 45 3d f2 fc 98 3c 9b a5 86 bd
       -0.009689773 0.048338477 0.018675301 -0.065745555
0000c0 22 dd f1 3c 0f e1 63 3d 2e b3 56 bd 65 2c 97 3d
       0.02952439 0.055634554 -0.052416973 0.073815145
0000d0 b2 2c aa bb f0 d5 c9 bc 0a e1 a9 3b 37 66 19 bd
       -0.0051933164 -0.024638146 0.0051842974 -0.037450995
0000e0 7e 54 3e 3d 37 36 2e 3d 11 ee 11 3d 1f 41 c3 bb
       0.046467297 0.042532172 0.03562743 -0.005958691
0000f0 9c 82 80 bd 86 c8 84 3c 68 82 9e 3c 72 f9 2b 3d
       -0.06274912 0.016208898 0.019349292 0.041985936
000100 23 85 3e 3d 84 3b 85 bd 76 57 1e bd 0e b7 63 bd
       0.046513688 -0.06505492 -0.038657628 -0.055594496
000110 3d 54 83 3d 89 00 3f bc e3 47 05 bc 2d 06 6d 3c
       0.064125516 -0.011657842 -0.008134815 0.014466804
000120 19 b7 40 bd 35 4f 2e 3d 47 9c 59 3c 89 aa 3b bd
       -0.047049616 0.042556006 0.013281888 -0.045816932
000130 89 2c 1d 3d 88 35 a1 bc cb 65 9a 3c 70 69 7c 3d
       0.03837255 -0.019678846 0.018847367 0.06162399
000140 28 f5 df 3b 4d be 70 bd 3c 46 32 bd ec 4c 4e 3d
       0.006834645 -0.058775235 -0.043524012 0.050366327
000150 c5 77 14 3d 33 ac 8b 3d 25 8e 3a 3d 16 6b 51 3c
       0.036247034 0.06819954 0.045545716 0.012781879
000160 4e 2e 3f bd 5a 72 1e 3d 46 c4 47 bd dd 34 82 3d
       -0.04667502 0.038683273 -0.048771165 0.06357739
000170 8d 9e 85 3c 6d bb d2 bc 35 fd b1 3b 31 ce 4c 3d
       0.016310954 -0.025724137 0.005431796 0.050001327
000180 a8 cd 1c bd 5b 3f 85 3d f9 52 24 bd 68 4a 8e bd
       -0.038282067 0.06506225 -0.04011819 -0.069477856
000190 71 a3 87 bc 80 ee f8 3c 98 f7 c1 bc 07 bc 35 3d
       -0.016557427 0.030387163 -0.023677632 0.04436877
0001a0 48 76 cb bc 0e 90 39 bc ed 07 09 bd a8 ce 7c bd
       -0.024836674 -0.011325849 -0.033454824 -0.06172052
0001b0 f7 1a 60 3d 72 27 64 3b 2a 9a 05 bd 27 7c 3f bd
       0.054713216 0.003481355 -0.032617725 -0.04674926
0001c0 25 a3 df bc 24 54 e3 bc ae 68 05 bd 1d 13 1b bc
       -0.027299473 -0.027750082 -0.032570533 -0.009465006
0001d0 6d c9 e1 bc 6d ec d0 3c 1d 8c 3f 3d a6 5f 18 3d
       -0.027561868 0.025503362 0.04676448 0.037200592
0001e0 96 30 18 3d 8e 49 03 bd c6 c6 7c ba 5f 09 83 bd
       0.03715571 -0.03205257 -0.00096426567 -0.06398272
0001f0 4d ce 04 bd e6 07 5a 3b df b1 eb bc 2b 25 a3 bb
       -0.032423306 0.0033268868 -0.028771339 -0.004978796
000200 1b c2 2c 3c 45 d2 94 3d 48 4f d7 bc 80 17 4a 3c
       0.010544325 0.07266668 -0.026282921 0.012334704
000210 6d b1 75 3a 90 b6 ff bc 2d e0 5b ba f4 95 c5 ba
       0.0009372447 -0.031214982 -0.0008387592 -0.0015074597
000220 c1 4b 5c 3d 1c 39 3d 3b 7f 25 82 bd 66 fe cc ba
       0.053783182 0.0028873151 -0.06354808 -0.0015639781
000230 18 85 cd bc 6a 32 92 3d 26 ed 71 bd 82 ef 2e bd
       -0.025087878 0.07138522 -0.059064053 -0.04270888
000240 38 7f 72 bd d5 c7 e2 bc 2c c8 ba bb 56 cd 83 3d
       -0.059203357 -0.027683178 -0.005700132 0.06435649
000250 ec a9 7e bd f3 63 04 3d 62 49 4e bd 1d 00 15 bd
       -0.06217377 0.03232188 -0.050362952 -0.03637706
000260 07 ca 42 bd af fd 9c bc 6b 74 b9 3c 50 3a 4d bc
       -0.04755595 -0.019163935 0.02263852 -0.01252611
000270 44 d4 08 bd 23 37 94 bc 28 0c 80 bd e9 85 65 bc
       -0.033405557 -0.018092697 -0.062523186 -0.014008977
000280 07 5f f3 bc aa c0 83 bd 16 96 3c 3d bf c0 56 3c
       -0.029708399 -0.06433232 0.04604157 0.013107478
000290 5b ae 28 3d 52 1e 3a 3d 8b 40 16 bc 40 d8 23 bd
       0.041181903 0.045439072 -0.009170662 -0.040001154
0002a0 18 65 3d bd fb 4b 0d 3d d9 85 41 bc 71 5b 6c bd
       -0.04623899 0.03449629 -0.011811697 -0.057704393
0002b0 2b 56 39 3c 3d 59 05 bd 3c 1c 11 3a 80 35 5e 3d
       0.011312048 -0.032555807 0.0005535518 0.05425024
0002c0 9e 79 16 3d be c3 4b 3d 79 0c f4 3c 04 fe 7a 3d
       0.036737077 0.04974722 0.029791104 0.061277404
0002d0 b3 88 14 3d 75 71 03 bd f0 41 09 bd dc 26 8e 3d
       0.03626318 -0.032090623 -0.03351015 0.069410056
0002e0 f1 fc bb bc 0c 96 8b 3d 4e 84 d9 bc f4 9c 75 3c
       -0.02294776 0.068157285 -0.026552346 0.014991034
0002f0 87 0a 21 bb fc c4 c8 bb 70 46 ba bb 88 f7 ea bc
       -0.0024572925 -0.006126998 -0.0056846663 -0.028682485
000300 b3 7c 12 3d 27 c8 85 bc db 93 e8 bb 98 28 8b 3d
       0.035763454 -0.016330792 -0.007097704 0.06794852
000310 3b 13 2f bd 0c 2b 8c bd ea a9 9e bc b9 66 61 3d
       -0.04274295 -0.06844148 -0.01936813 0.055029605
000320 7f 92 8b bd dc 74 86 bd 41 b5 be bc e9 ec 84 3c
       -0.06815051 -0.06565258 -0.023279788 0.016226249
000330 01 f7 0b bd 60 9e 6c 3d 99 31 45 bd e8 77 69 3d
       -0.03417111 0.057768226 -0.048143003 0.056999117
000340 89 bd 80 bb e5 45 87 bd b5 c0 68 bd 94 ec 48 bd
       -0.0039288444 -0.06605128 -0.056824405 -0.049053743
000350 60 e3 7b bd 10 ec 2b 3d b2 8e 32 bd 2f 58 8a 3d
       -0.06149614 0.041973174 -0.043593116 0.06755101
000360 a8 c9 63 bd 7a fb 5b 3d 8f 8d 72 3d c0 22 6d bc
       -0.055612236 0.053706624 0.059217032 -0.014473617
000370 9a f7 29 bd ed dc 23 3d 65 09 63 3d be 98 32 bc
       -0.041495897 0.040005613 0.05542888 -0.010900674
000380 db 71 35 bd 04 28 1d bd 23 cd 2c bd 6b 3d f7 3c
       -0.044298034 -0.03836824 -0.04218782 0.030180654
000390 e3 e9 01 bd af 0d 85 3d 4c 74 40 bb 5b 00 2f bc
       -0.031717192 0.064967506 -0.0029366193 -0.010681237
0003a0 2e 6e 43 3c 68 07 92 bd 4b 75 1e bd 23 56 f6 3c
       0.011928124 -0.07130319 -0.038686078 0.03007037
0003b0 c0 11 49 bd cd f8 3c bc 88 7e 00 3d 74 00 16 3d
       -0.049089193 -0.011533928 0.03137067 0.036621526
0003c0 8f 80 3b bd 2f ca f8 bc b1 36 85 bc 1d e1 be 3c
       -0.0457769 -0.030369846 -0.01626143 0.023300702
0003d0 db fb 93 3d d8 09 f5 3c cb 1e 2d bd de 7b 5c bc
       0.07225772 0.02991192 -0.042265695 -0.013457267
0003e0 22 78 84 3d 49 7b 62 3c a6 32 09 bd ec 2d 0b 3d
       0.06468226 0.013823339 -0.033495568 0.03397934
0003f0 e4 3a 9f 3c 34 0c e9 3b ce 7a 8e bd db 5e 4c 3d
       0.01943726 0.0071120504 -0.06957017 0.04989515

module.model.1.model.3.bias f4 [64]
000000 d8 65 74 3a ad 9f 5e 3a a6 8f 93 3a 28 ea 7f 3a
       0.0009323037 0.00084924215 0.001125802 0.000976237
000010 a1 32 82 3a cb c3 85 3a b4 fc 7a 3a ae 0f 84 3a
       0.0009933301 0.0010205446 0.0009574399 0.0010075474
000020 0c 12 76 3a 41 a8 9a 3a ce b6 6d 3a 0d 1e 5e 3a
       0.00093868445 0.0011799411 0.00090680725 0.0008473106
000030 8e ab 81 3a d3 6b 7b 3a 3e 95 84 3a 16 32 81 3a
       0.0009893046 0.0009590957 0.0010115278 0.0009856846
000040 a7 30 8d 3a 48 cd 86 3a 12 f8 82 3a 6c cb 88 3a
       0.0010771946 0.0010284567 0.0009992144 0.0010436601
000050 67 aa 66 3a b1 3a 7f 3a d3 00 80 3a c6 ca 79 3a
       0.00087991956 0.0009736224 0.0009765871 0.0009528812
000060 e7 f5 84 3a 75 da 71 3a 0f 1f 66 3a f0 d2 8d 3a
       0.0010144085 0.0009225973 0.0008778432 0.001082031
000070 62 8c 7c 3a 4a 5e 85 3a 78 bd ac 3a 10 c9 70 3a
       0.0009633956 0.0010175195 0.0013179025 0.0009185234
000080 df 03 88 3a 3a 3b 7a 3a 6f fb 89 3a 9d c8 7e 3a
       0.001037713 0.00095455686 0.0010527204 0.0009719225
000090 25 84 82 3a 05 d6 7d 3a 6a 7d 84 3a b1 5a 72 3a
       0.0009957595 0.00096830755 0.0010108177 0.00092450815
0000a0 d0 09 82 3a 47 b6 94 3a cb cd 87 3a 92 27 85 3a
       0.0009921137 0.0011345827 0.0010361014 0.0010158888
0000b0 bf c9 86 3a 51 6b 73 3a b0 64 80 3a ea ac 64 3a
       0.0010283514 0.0009285706 0.0009795632 0.0008723276
0000c0 4e 41 8d 3a b1 c0 6c 3a 9e 6a 88 3a 81 e6 81 3a
       0.0010776909 0.0009031399 0.0010407751 0.0009910614
0000d0 ca 56 81 3a e1 8f 7b 3a 5a 46 98 3a ad 73 9d 3a
       0.0009867784 0.000959633 0.0011617646 0.0012012623
0000e0 27 b1 87 3a 50 6b 79 3a 80 66 81 3a 33 83 7a 3a
       0.0010352478 0.0009514587 0.0009872466 0.00095562934
0000f0 8c 4b 93 3a 5a 77 82 3a 80 7e 54 3a ba fe 7d 3a
       0.0011237725 0.0009953782 0.0008106008 0.00096891413

module.model.1.model.4.weight f4 [64]
000000 98 3d 80 3f a6 31 80 3f 9a a9 7f 3f b8 2c 80 3f
       1.0018797 1.0015152 0.99868166 1.0013647
000010 2a 1d 80 3f df 94 7f 3f 7e 25 80 3f 3d 41 80 3f
       1.00089 0.99836534 1.0011442 1.0019909
000020 5a c6 7f 3f f7 95 7f 3f 09 48 80 3f 0f 27 80 3f
       0.99912035 0.99838203 1.0021983 1.001192
000030 fb ce 7f 3f 0d 3d 80 3f f8 72 7f 3f 4a 80 7f 3f
       0.999252 1.0018631 0.99784803 0.9980513
000040 98 bc 7f 3f dc 4c 80 3f 7a a6 7f 3f 2b 21 80 3f
       0.99897146 1.0023456 0.998634 1.0010122
000050 7c 41 80 3f c7 45 80 3f 36 35 80 3f 26 f0 7f 3f
       1.0019984 1.0021294 1.0016239 0.9997581
000060 ab 89 7f 3f 29 4c 80 3f 3f 3c 80 3f 05 b0 7f 3f
       0.9981944 1.0023242 1.0018386 0.9987796
000070 22 34 80 3f e6 f9 7f 3f d4 8b 7f 3f 58 45 80 3f
       1.001591 0.9999069 0.99822736 1.0021162
000080 8b a2 7f 3f 02 3d 80 3f 4d 3f 80 3f b4 ac 7f 3f
       0.99857396 1.0018618 1.0019318 0.998729
000090 be 04 80 3f 86 12 80 3f 3a a4 7f 3f a5 48 80 3f
       1.0001447 1.0005653 0.99859965 1.0022169
0000a0 9b da 7f 3f 6e a9 7f 3f 5c 87 7f 3f dd 33 80 3f
       0.9994294 0.99867904 0.99815917 1.0015827
0000b0 c6 48 80 3f f6 47 80 3f 02 39 80 3f 8c 3f 80 3f
       1.0022209 1.0021961 1.0017397 1.0019393
0000c0 6c 7f 7f 3f df 48 80 3f f3 b8 7f 3f 47 19 80 3f
       0.99803805 1.0022238 0.99891585 1.0007714
0000d0 3c 3f 80 3f da 3c 80 3f ca 82 7f 3f b4 84 7f 3f
       1.0019298 1.001857 0.99808943 0.99811864
0000e0 95 09 80 3f cb 14 80 3f bd 96 7f 3f cc e0 7f 3f
       1.0002924 1.0006346 0.99839383 0.9995239
0000f0 41 c9 7f 3f ec 7c 7f 3f e1 46 80 3f 30 37 80 3f
       0.99916464 0.9979999 1.002163 1.0016842

module.model.1.model.4.bias f4 [64]
000000 02 f8 fd 3a ba 45 e0 3a 6c 91 ba ba d8 51 0b 3b
       0.001937628 0.0017110624 -0.0014234013 0.00212585
000010 2e 32 64 3a f8 7e e6 ba a4 40 a6 3a 5b d5 05 3b
       0.0008704987 -0.0017585447 0.0012684059 0.002042136
000020 c6 70 a5 3a 73 46 e5 ba fd c8 03 3b 19 8e d6 3a
       0.001262211 -0.0017492309 0.0020108812 0.0016369253
000030 1a e9 b3 ba 36 d9 0a 3b f0 93 0c bb f9 ae 05 bb
       -0.0013726086 0.0021186597 -0.0021450482 -0.0020398481
000040 8d 5a ac ba 2e 84 1c 3b 9b 7d f0 ba b3 a5 ff ba
       -0.0013149545 0.0023882496 -0.001834798 -0.0019504338
000050 c5 51 06 3b 22 dd 0e 3b a6 c4 e6 3a b5 35 02 bb
       0.0020495516 0.0021799286 0.0017606213 -0.0019868438
000060 4f e6 03 bb b4 ab 10 3b ce b9 f7 3a 26 4b c5 ba
       -0.0020126288 0.0022075 0.0018899979 -0.0015052303
000070 fa 84 f8 3a 3f a8 2b ba 92 9b f7 ba c0 14 12 3b
       0.0018960529 -0.0006548203 -0.0018890968 0.00222902
000080 e2 01 7a 3a c9 17 fa 3a b1 bb cb 3a 40 f3 95 ba
       0.0009537024 0.0019080575 0.0015543607 -0.0011440292
000090 29 22 95 b9 0a 24 95 3a 82 cf b8 ba d1 3b 11 3b
       -0.00028444946 0.0011378538 -0.0014099928 0.0022160897
0000a0 97 03 cc 3a c7 12 cc ba ff db 03 bb 5d 36 02 3b
       0.0015565035 -0.0015569561 -0.0020120142 0.0019868829
0000b0 82 3a 13 3b e8 ee 08 3b 7e 7c e8 3a a8 cc 09 3b
       0.0022465293 0.0020894352 0.0017737297 0.0021026526
0000c0 61 08 ff ba ad 77 13 3b 59 72 b0 ba 0b 90 12 3a
       -0.0019457453 0.0022501752 -0.0013461813 0.0005590922
0000d0 d6 61 0b 3b 73 d5 f3 3a 8c 77 fe ba 59 df 05 bb
       0.0021268032 0.0018603042 -0.001941429 -0.0020427315
0000e0 41 d1 83 ba 69 ce 19 3b fa 6b 00 bb d4 2e 4c 3a
       -0.0010056869 0.0023468977 -0.001959561 0.00077889604
0000f0 25 5b 2f b8 5b 24 08 bb bc 6e 09 3b 1f 3e fc 3a
       -4.1808136e-05 -0.0020773623 0.0020970544 0.0019244588

module.model.1.model.4.running_mean f4 [64]
000000 c4 0a 7a be 55 aa c0 bd 0c 9d 33 bd ca f9 98 be
       -0.2441817 -0.09407488 -0.043850943 -0.29878074
000010 72 5f 3b 3e 75 30 c4 bd c0 4b 3f 3e c3 8c d4 3c
       0.18298128 -0.09579555 0.1868124 0.025946027
000020 43 1b d0 3d b5 54 1b bd 0c 3d 05 bf 0a 63 2a be
       0.1016145 -0.03792258 -0.52046275 -0.16639343
000030 68 40 33 bd 51 ae 69 3e 32 03 5a 3f 8b 54 40 3e
       -0.043762594 0.22820403 0.85161126 0.1878225
000040 32 50 61 be 83 dd 01 3e ca a7 2f 3f 43 e8 80 be
       -0.22003248 0.12682156 0.686154 -0.25177202
000050 1c 2e 00 bf b5 00 86 3e 1f 4e 37 3e 45 45 2f bf
       -0.5007036 0.26172414 0.17900895 -0.6846507
000060 cb e7 3d bd 68 03 ac 3e 79 09 90 be db ed 20 3c
       -0.046363633 0.3359635 -0.28132227 0.009822334
000070 c8 8d 73 3e bf 3d bb 3e d9 9d 32 be df e4 75 bd
       0.23784554 0.36570546 -0.17443027 -0.06003272
000080 f7 21 c4 bd 07 3d 66 3e 5d 33 42 be f1 41 89 3e
       -0.09576791 0.22484218 -0.18964906 0.26808122
000090 d5 91 d2 bd 2f 45 cf be 0c 2c c9 bd b5 2a 40 3e
       -0.102817215 -0.4048247 -0.098228544 0.18766291
0000a0 78 df 30 bd 56 d3 8e 3e a8 e2 cc be fe 90 f4 be
       -0.043181866 0.27895612 -0.40016675 -0.4776687
0000b0 2e d5 31 3f 21 f1 58 bf 87 d1 dd be 53 9f ae bd
       0.6946591 -0.84742934 -0.4332392 -0.085264824
0000c0 db 0c 4e 3e ee 3c 45 bf 76 98 fc be 74 41 64 bd
       0.20122091 -0.77046096 -0.49335068 -0.055726483
0000d0 ec 9c bd 3e d0 4f 45 be 8a a6 24 be ef 13 97 be
       0.37033784 -0.19268727 -0.16079155 -0.29507396
0000e0 54 9c 72 be 7f 19 1d bf e7 74 1c 3f 77 c0 9f be
       -0.23692447 -0.6136703 0.6111588 -0.31201527
0000f0 ba f7 c0 bd a5 af 52 be b6 c7 91 bc 6c d0 f9 3d
       -0.0942225 -0.20574816 -0.017795425 0.121979564

module.model.1.model.4.running_var f4 [64]
000000 6e 75 85 3e 5a 42 64 3d 56 d3 24 3d ae 32 31 3d
       0.26066154 0.05572734 0.04024061 0.043261223
000010 4d 58 3b 3f 5d 3e e5 3e 0e 47 20 3d 36 61 72 3e
       0.7318161 0.44774142 0.039130263 0.23669896
000020 82 2a 23 3d 78 72 1d 3f ec 77 47 3f da 22 e4 3d
       0.03983546 0.6150279 0.7791736 0.1113946
000030 12 2f b3 3f b1 9d a4 3e 14 9f d1 3e 34 49 ec 3d
       1.399874 0.3215156 0.4094168 0.115374
000040 79 b9 89 3e 03 70 ea 3f 5c 41 aa 3e 77 a3 72 3e
       0.26899317 1.8315433 0.3325299 0.2369517
000050 cf 11 a1 3e 81 53 ad 3e b9 42 d8 3e 45 ac 41 3e
       0.314589 0.3385277 0.42238405 0.18913372
000060 50 c0 a7 3e c0 35 8d 3e 69 88 29 3e 0c 7f 0f 3f
       0.3276391 0.2758007 0.16555943 0.56053233
000070 47 9d ce 3e 5e 3f 9d 3d 8a f4 c9 3c 7b fa e1 3e
       0.40354368 0.07678102 0.024652738 0.44136414
000080 a9 98 8b 3e c4 01 52 3e 87 8a 28 3f 74 c5 2b 3e
       0.27264908 0.20508486 0.65836376 0.16774541
000090 c4 04 ae 3e 55 80 2d 3f 19 82 4b 3f 29 58 3c 3f
       0.3398801 0.67773944 0.7949539 0.7357202
0000a0 9d 04 3f 3f 27 1e ec 3d d7 e0 a4 3d 1f 0d cc 3e
       0.74616414 0.115291886 0.08050697 0.3985376
0000b0 02 49 f8 3e 1e b7 ae 3e 33 e8 93 3e 77 a7 9b 3e
       0.484932 0.34124082 0.2888809 0.30401203
0000c0 bf 91 24 3d 8b 24 b9 3e 79 2f 1a 3e 7e 69 22 3f
       0.040178057 0.36160693 0.15057172 0.6344222
0000d0 e9 c2 1c 3e 73 2a b6 3e 6a 82 8b 3e fa 10 1f 3f
       0.15308727 0.3557926 0.27247936 0.6213528
0000e0 fe 4e 3a 3f ea 42 9c 3e 06 25 89 3f a4 04 b7 3e
       0.7277678 0.305198 1.0714424 0.35745728
0000f0 9c 26 9b 3d 13 a3 b6 3c 34 2f 34 3e e0 d1 2e 3f
       0.075757235 0.022294557 0.17596132 0.68288994

module.model.2.model.0.weight f4 [64, 64, 3, 3]
000000 44 49 db 3c f6 6a 71 bd a8 00 12 bd 75 9e e7 bc
       0.026768334 -0.058939897 -0.035645157 -0.0282738
000010 27 f0 ae bc 86 d5 57 bd 86 fe 5b 3c fd 43 8f 3d
       -0.021354748 -0.052693866 0.013427382 0.069953896
000020 4d a7 5e 3d 7c 43 86 3d 4c 18 73 bd e2 46 96 bc
       0.05435877 0.065558404 -0.059349343 -0.018344346
000030 50 78 a6 3c 97 f9 c6 3c 05 44 71 3d 66 91 37 3c
       0.020321041 0.024288936 0.05890276 0.011204099
000040 53 56 ef 3c 11 43 dd bc 5e 4f b6 bc 83 36 1e 3d
       0.029215967 -0.027009519 -0.022254642 0.038626205
000050 d9 d0 17 3c 04 11 08 3d 55 df 6c bd f9 6d 69 3d
       0.009266102 0.033219352 -0.057830174 0.056989644
000060 c9 26 35 3d e3 c2 5f 3d 31 27 6e 3b 31 42 91 bd
       0.04422644 0.054629218 0.0036339278 -0.07092703
000070 73 36 91 3d a0 8f 0d 3b 95 c9 88 bd 2c ec 88 3d
       0.070904635 0.00216005 -0.06679074 0.06685671
000080 33 c7 6f 3d 2f 96 7c bd b7 de 70 3d 7f d8 fd 3c
       0.05853958 -0.061666664 0.058806147 0.030987022
000090 3b 3b c0 3c 8d 5f 30 bd a0 e1 54 bd f7 e2 d2 3c
       0.023465743 -0.043059874 -0.051972985 0.02574299
0000a0 99 0c 40 3d 5d e3 12 bd ac 8f c4 bc 31 2c 1b bd
       0.046887014 -0.03586136 -0.02399429 -0.03788394
0000b0 6c e6 71 bd 38 6e 89 3b 5a 94 4d 3d 97 56 71 3d
       -0.059057638 0.0041940473 0.050190307 0.05892047
0000c0 fa 3b 10 3b 57 2f 74 bd 8f 29 34 3d 0e cd c6 3c
       0.0022008405 -0.05961546 0.043984946 0.0242677
0000d0 9c d6 d3 3c b4 dd 17 3d ea 6d 1e 3c c1 44 07 bc
       0.02585917 0.037076667 0.00966976 -0.008256138
0000e0 c8 12 ed bc 88 29 4e bd 99 8a 43 3d 0e fd 18 3d
       -0.02893962 -0.050332576 0.0477396 0.037350707
0000f0 00 a6 82 3d 69 9f 52 3c a8 c4 21 bd cb 36 6f 3c
       0.06379318 0.012855389 -0.039494187 0.014600466
000100 1a 08 04 ba f7 41 96 3c b4 09 3d 3c b7 7a 55 bd
       -0.00050366076 0.018342001 0.011537958 -0.052118983
000110 e3 8d 2b bd 2d b8 2a 3d a3 8a 08 3d 89 58 71 bd
       -0.04188336 0.04167955 0.03333534 -0.058922324
000120 13 a1 92 3c 89 3b 1d bd 7e 34 79 bd 33 0c 8d bc
       0.017899072 -0.038386855 -0.060841076 -0.017217731
000130 d5 5e 86 bd 19 87 22 3d 68 0a 56 3d 7c a9 32 3d
       -0.065610565 0.03967962 0.052256018 0.043618664
000140 19 cf 77 bd 93 99 f5 bb 37 39 21 3d 6c 5f 01 3a
       -0.060500238 -0.007495114 0.039361205 0.00049351784
000150 d4 7b 83 bd 5a d2 21 3c 7d 10 0d bc cd 92 6f 3d
       -0.06420103 0.009876812 -0.008609888 0.05848961
000160 50 fd 1e bd a5 05 2c 3d ec 1c be 3b 8b e8 d7 bc
       -0.038815796 0.04199757 0.0058017876 -0.026356002
000170 2c 43 db bc 1c 51 aa bb af af 30 3d cc 6f 36 3d
       -0.026765428 -0.0051976573 0.043136295 0.04454021
000180 4f 34 c1 bc 14 c3 36 bd 5d cc 6d 3d 88 2f 5a bd
       -0.023584513 -0.044619635 0.058056224 -0.053267986
000190 e6 96 3a 3c d0 8c 55 bd 86 43 cd bc a0 8e b9 bc
       0.011388516 -0.052136242 -0.025056612 -0.022651017
0001a0 8c 46 43 bd 37 43 97 bc ea 66 54 3c 33 49 7d 3d
       -0.0476747 -0.018464668 0.01296399 0.061837386
0001b0 ee 9a 64 bc 9e c8 d4 bc ca e9 ec 3c 0e 74 f6 3c
       -0.013952954 -0.025974568 0.028920073 0.030084636
0001c0 48 39 5b bd 19 3b 78 3b ea 1f 93 bc 44 4d 4d bd
       -0.053521425 0.0037877022 -0.017959554 -0.050122514
0001d0 2f a6 a8 39 a5 40 7f 3d 78 9d 30 bc b1 af 8a 3c
       0.00032167273 0.06231751 -0.010779731 0.01692948
0001e0 cb aa ee 3c e4 bd 5a bc ac a0 63 3b 00 82 b1 3c
       0.029134175 -0.0133509375 0.003473322 0.021668434
0001f0 ba 5e 7f 3d 58 ee e1 bc 02 bd 66 3d 48 87 46 bd
       0.062346198 -0.027579471 0.056332596 -0.048468858
000200 7b 3d 2a 3d 29 a9 3f bd a8 90 0a 3d 77 89 8f 3c
       0.04156254 -0.046792183 0.03382936 0.017521603
000210 69 df b4 3c 57 ee 73 bd c6 b7 ae 3b 22 e5 63 bd
       0.022079187 -0.05955347 0.005331966 -0.05563844
000220 5f dc 48 bd 46 1f 6b 3d b7 a3 94 bd b1 04 d6 bc
       -0.049038287 0.05740287 -0.07257789 -0.026125284
000230 e6 0c 03 bc 6a 1b 18 3d 57 b2 6e 3d c4 7e 18 3d
       -0.007998681 0.03713552 0.058275547 0.037230268
000240 73 a1 63 bd 65 93 9f 3c 5a 1f 19 bd 4b f3 5d bd
       -0.05557389 0.019479463 -0.037383415 -0.0541871
000250 ca 51 61 bd 44 c4 67 bd c4 4b 07 3c 54 20 1d bd
       -0.05500964 -0.056583658 0.00825781 -0.03836091
000260 11 a6 dd bc c9 27 ec bc 50 15 0b 3d 44 14 52 3c
       -0.027056726 -0.028827565 0.033955872 0.0128222145
000270 3a 55 82 bc 4b 13 66 bd 72 9e 3e 3d 7f e2 14 3d
       -0.01590978 -0.056170743 0.046537824 0.036348816
000280 e3 c1 8f bd de 21 80 3d 94 dd 5d 3d b5 43 3b bd
       -0.07019403 0.0625646 0.05416639 -0.045718867
000290 1a 2c 06 bd 43 29 88 3d 96 19 7c 3a 42 ff 76 bd
       -0.032756902 0.06648495 0.000961685 -0.060302027
0002a0 6f 9c 87 3d 6f 7b a8 bc 53 d9 54 bd 75 36 88 bd
       0.06621634 -0.02056667 -0.05196507 -0.06651012
0002b0 c7 06 27 3d f9 eb 12 3c 1e 7b 85 3d 10 13 1a bd
       0.040777948 0.008967393 0.06517623 -0.037615836
0002c0 a9 c5 78 3d 3a 4c 56 3d a8 3b 60 bd 02 6f 3b 3d
       0.06073538 0.05231879 -0.054744393 0.045760162
0002d0 32 d4 fc 3c b2 0a 13 3c 6b c8 06 bd ba a3 87 3d
       0.030862901 0.008974718 -0.032905977 0.06623025
0002e0 66 64 a1 3c 94 7e b4 bc 35 a2 f4 3b d9 af 8a 3c
       0.019701194 -0.022033013 0.0074656256 0.016929554
0002f0 12 37 59 bd 14 77 75 3d 72 6c 1a bd ef 15 e7 3c
       -0.053031035 0.059928015 -0.037701078 0.028208701
000300 cf e0 83 3d 5f e9 53 3d 81 41 22 3a d8 3f 60 3d
       0.06439363 0.051736232 0.00061895704 0.054748386
000310 b0 fa 23 3c 02 c1 4b 3c 78 01 28 bd fc 24 3f 3d
       0.010008499 0.012436153 -0.041017026 0.04666613
000320 8e 6c c5 3c aa c3 ee bc 8e 64 7b bd 28 b0 91 bd
       0.024099614 -0.029146034 -0.061375193 -0.07113677
000330 92 27 1f 3d 31 04 2b 3c 12 be 80 bd 5d 94 56 39
       0.038856097 0.010438011 -0.06286253 0.000204639
000340 33 d7 d4 3a cd e3 04 3d a6 17 49 3d 7c be 85 bc
       0.0016238451 0.03244381 0.04909482 -0.016326182
000350 05 cb 4e bd bb d7 82 bc 2d 03 94 3d d4 3b b6 bb
       -0.050486583 -0.015972009 0.07227168 -0.0055613313
000360 de d7 d2 3c 39 2a ff bc 08 b1 71 bd 14 d7 81 3d
       0.0257377 -0.031148063 -0.05900672 0.06339851
000370 1e 91 85 3d e6 f7 70 bd bb 7f c0 bc e3 37 75 3d
       0.065218195 -0.058830164 -0.023498407 0.05986775
000380 72 9b 60 ba 04 67 60 bd d0 97 42 3d 57 4c 6a bd
       -0.0008568085 -0.054785743 0.04750806 -0.05720171
000390 5e 0c 81 3c ef 4f f2 3c c3 c5 5f bc 61 95 82 bd
       0.015752967 0.029579131 -0.01365799 -0.06376148
0003a0 5c c3 60 3d 1f af 24 bb 9a 27 87 3d 08 bf f3 3c
       0.05487381 -0.0025128794 0.0659935 0.029754177
0003b0 06 02 87 bd 07 81 60 bd ac be d4 ba 8b 64 bb bb
       -0.06592183 -0.05481055 -0.0016231141 -0.0057187728
0003c0 0a 79 e1 3c 84 0f 5b 3d 37 1d d2 3b 71 01 a2 bb
       0.027523536 0.053481594 0.006412174 -0.0049440195
0003d0 10 b9 5f bd 11 d7 3a bc ec aa 3f bc 77 3e 7b bd
       -0.05461985 -0.011403815 -0.011698466 -0.061338868
0003e0 54 92 1c 3d b3 07 0e bd 57 ee fb 3c 06 5c 85 3d
       0.038225487 -0.03467531 0.030753298 0.06511693
0003f0 9f ab 4f bd 4b 6b 12 3c ef 0c 19 3d 1c 88 59 bd
       -0.05070078 0.008936713 0.03736585 -0.05310832

module.model.2.model.0.bias f4 [64]
000000 67 8c 82 3a 21 ab 84 3a 06 81 83 3a f7 20 85 3a
       0.0009960056 0.0010121801 0.0010032959 0.0010156919
000010 31 16 83 3a bb 4d 86 3a 13 fc 85 3a 31 37 82 3a
       0.001000112 0.0010246554 0.0010222219 0.0009934661
000020 55 3a 79 3a eb e7 83 3a ab d2 83 3a 77 ce 83 3a
       0.00095072883 0.0010063624 0.0010057291 0.0010056038
000030 37 be 7d 3a b8 32 83 3a 2b 2d 84 3a 20 7b 7b 3a
       0.00096795283 0.0010009622 0.0010084262 0.0009593237
000040 81 5c 83 3a 76 46 80 3a cc f5 80 3a d7 49 81 3a
       0.0010022075 0.0009786624 0.0009838878 0.0009863925
000050 1e ec 82 3a d1 95 82 3a 4a b5 81 3a 65 f8 83 3a
       0.0009988581 0.0009962862 0.0009895947 0.0010068534
000060 c3 5a 84 3a ac c6 81 3a 73 ee 84 3a 59 96 82 3a
       0.001009785 0.0009901128 0.0010141864 0.000996302
000070 05 3e 84 3a 5c 33 84 3a e9 0d 7e 3a 15 39 80 3a
       0.0010089284 0.0010086107 0.0009691404 0.0009782637
000080 f5 ee 84 3a 87 3e 83 3a db a4 7e 3a 39 eb 81 3a
       0.0010142016 0.0010013141 0.00097138964 0.0009912021
000090 31 2f 84 3a 51 be 82 3a f2 58 83 3a 1e 98 81 3a
       0.0010084865 0.0009974932 0.0010021015 0.0009887253
0000a0 e2 61 84 3a 38 7e 85 3a ab e8 82 3a b7 37 83 3a
       0.0010099972 0.0010184711 0.0009987553 0.0010011111
0000b0 f9 55 81 3a e3 8f 81 3a df b2 84 3a ed 5e 81 3a
       0.0009867541 0.00098848 0.0010124109 0.0009870209
0000c0 9a 7a 82 3a f9 9e 7c 3a d1 1d 83 3a a2 62 82 3a
       0.0009954751 0.0009636726 0.0010003393 0.0009947608
0000d0 e1 b3 7b 3a 5d 5a 83 3a 9a 19 82 3a 40 c9 82 3a
       0.0009601694 0.0010021437 0.0009925843 0.000997819
0000e0 0d a8 83 3a 11 5f 84 3a 69 71 84 3a d5 72 82 3a
       0.001004459 0.0010099133 0.00101046 0.0009952436
0000f0 5b f9 83 3a c8 16 84 3a 46 19 83 3a b9 43 83 3a
       0.001006882 0.001007759 0.0010002039 0.001001469

module.model.2.model.1.weight f4 [64]
000000 18 84 7f 3f 12 25 80 3f f8 9c 7f 3f 4b 95 7f 3f
       0.99810934 1.0011313 0.9984889 0.9983718
000010 16 be 7f 3f 9a c7 7f 3f 4f 75 7f 3f 15 8c 7f 3f
       0.99899423 0.9991394 0.99788374 0.99823123
000020 bb 3e 80 3f fe d4 7f 3f 0e 8f 7f 3f e6 9c 7f 3f
       1.0019144 0.99934375 0.9982766 0.99848783
000030 b2 43 80 3f d6 10 80 3f 6f e8 7f 3f a8 48 80 3f
       1.0020659 1.0005138 0.9996404 1.0022173
000040 79 69 7f 3f 18 49 80 3f fa 14 80 3f 01 f6 7f 3f
       0.99770314 1.0022306 1.0006402 0.9998475
000050 4e fb 7f 3f 7c 9f 7f 3f c1 f0 7f 3f d9 84 7f 3f
       0.99992836 0.9985273 0.99976736 0.99812084
000060 a1 18 80 3f 5f 0f 80 3f 30 3b 80 3f 19 02 80 3f
       1.0007516 1.0004691 1.0018063 1.000064
000070 c8 2b 80 3f a5 b4 7f 3f 12 2e 80 3f 33 0d 80 3f
       1.0013361 0.99885017 1.001406 1.0004028
000080 30 ba 7f 3f 1b f4 7f 3f fd 3e 80 3f 5e 33 80 3f
       0.99893475 0.9998185 1.0019222 1.0015676
000090 0b ad 7f 3f ae d7 7f 3f d9 de 7f 3f 47 20 80 3f
       0.9987342 0.99938476 0.99949414 1.000985
0000a0 51 ba 7f 3f 7f a4 7f 3f cd 0a 80 3f d4 8a 7f 3f
       0.9989367 0.99860376 1.0003296 0.9982121
0000b0 cb 48 80 3f cc f0 7f 3f 8b 20 80 3f af ee 7f 3f
       1.0022215 0.999768 1.0009931 0.9997358
0000c0 e1 75 7f 3f bc c2 7f 3f dc f6 7f 3f 8e 22 80 3f
       0.99789244 0.99906516 0.9998605 1.0010545
0000d0 59 2a 80 3f 39 9e 7f 3f e6 29 80 3f 58 40 80 3f
       1.0012923 0.99850804 1.0012786 1.0019636
0000e0 1b 33 80 3f ff 1b 80 3f 30 b4 7f 3f 2c 23 80 3f
       1.0015596 1.0008544 0.9988432 1.0010734
0000f0 9f f6 7f 3f f8 1d 80 3f e0 2f 80 3f 14 08 80 3f
       0.9998569 1.0009146 1.001461 1.0002465

module.model.2.model.1.bias f4 [64]
000000 34 60 f0 ba 30 98 1e 3a 36 f6 47 ba 2c 8c c6 ba
       -0.0018339218 0.00060498994 -0.0007627936 -0.0015147976
000010 30 1f 8a 3a ba 28 a1 ba 37 db fa ba 91 1e d9 ba
       0.0010537859 -0.0012295463 -0.0019138817 -0.0016564896
000020 05 27 f1 3a 01 57 03 ba 0c 9b e2 ba 0e 2e a6 ba
       0.001839847 -0.0005010218 -0.0017288639 -0.001267852
000030 a9 38 01 3b 05 36 77 ba 42 c0 1f 3a 39 fc 0c 3b
       0.001971761 -0.0009430352 0.00060940173 0.002151264
000040 86 a3 0d bb d5 c8 1b 3b 1e dc bd 3a 17 2d 33 3a
       -0.002161236 0.0023770828 0.0014485156 0.0006835027
000050 55 ca ea 38 15 e2 86 ba 70 a5 18 ba 9e ed af ba
       0.00011195677 -0.0010290766 -0.0005822992 -0.0013422256
000060 71 1b a6 3a 57 5d b7 38 5d 9e b0 3a f1 c5 3c 39
       0.0012672973 8.743506e-05 0.001347493 0.00018002816
000070 ae 55 db 39 4a ac 0e ba b2 8c 9d 3a 17 05 46 39
       0.0004183477 -0.0005442543 0.001202008 0.00018884648
000080 e6 8b 69 ba 35 6b f4 ba 0e d1 e1 3a 06 f4 de 3a
       -0.0008909091 -0.0018647673 0.0017228441 0.001700998
000090 18 81 8d ba c1 34 ad 39 af 39 b0 ba 95 f7 6a 3a
       -0.0010795919 0.00033036436 -0.0013444925 0.0008963284
0000a0 17 00 5f ba 7b 1c ad ba af 42 b6 39 e7 91 cf ba
       -0.0008506788 -0.001320734 0.00034763428 -0.0015836329
0000b0 8e cf 14 3b 10 89 8e 39 b5 82 ea 39 32 6f 55 ba
       0.002270672 0.0002718647 0.00044729342 -0.00081418746
0000c0 72 25 84 ba a2 0c 10 ba 60 ee 09 3a fa 70 8b 3a
       -0.001008196 -0.00054950465 0.0005261656 0.0010638528
0000d0 92 77 03 ba bb d3 b4 ba 89 37 9d 3a 4f fb f3 3a
       -0.0005015071 -0.0013796011 0.00119947 0.0018614325
0000e0 e6 86 f3 3a ff ee 3f 3a 33 08 5b ba 53 9c 03 3a
       0.0018579632 0.0007321685 -0.0008355409 0.00050205475
0000f0 05 9d 19 ba e6 85 7e 3a a5 b8 55 39 5f 97 e8 b8
       -0.00058598845 0.00097092835 0.00020382048 -0.00011090817

module.model.2.model.1.running_mean f4 [64]
000000 5e 52 de 3e 81 81 f6 3e a2 b8 cc bb 8b 82 8b 3d
       0.43422216 0.4814568 -0.006247596 0.068120085
000010 0d 59 97 be 81 b8 ec be 09 c9 38 be 19 b4 fa 3e
       -0.29560128 -0.46234515 -0.18045439 0.4896553
000020 9e 77 e3 be 4d 37 1d be 95 37 12 bf 42 17 ef 3d
       -0.44427198 -0.15353127 -0.5711606 0.11674358
000030 57 4b d6 bd 5c a8 fb 3d 83 4f 6d be 60 45 33 bf
       -0.10463589 0.122879714 -0.23174863 -0.7002773
000040 52 0d 00 3e d9 98 fe bd b0 50 32 3e d6 32 c8 3e
       0.12505081 -0.12431497 0.17413592 0.39101285
000050 06 57 eb be ea 3e d2 bd c9 21 d6 3d 02 f2 04 3f
       -0.4596483 -0.10265906 0.10455663 0.51931775
000060 48 cb d0 3d 86 a0 6d be ff c8 98 3e 03 e8 60 be
       0.10195023 -0.23205766 0.29840848 -0.21963505
000070 5f 59 a2 3e 7e 1f c6 3e 35 c3 be 3e a8 8e ca 3e
       0.3170881 0.38695902 0.37258306 0.39561963
000080 f9 50 10 3e 5f ff 09 3f 52 c7 2e bf fd be 4a 3d
       0.14093389 0.5390529 -0.6827289 0.049498547
000090 92 84 9c 3e 60 76 c0 bc 1c ba 05 be 68 28 c3 3e
       0.30569893 -0.023493946 -0.13059276 0.38116765
0000a0 4b 98 fe 3d b9 d9 84 be 90 9a 09 bf ca ef 32 3e
       0.12431391 -0.2594736 -0.5375147 0.17474285
0000b0 64 6d 03 bf 06 f7 1f 3d 43 e1 40 3e 9a 8c 70 3e
       -0.5133879 0.03905394 0.1883593 0.23491135
0000c0 13 36 97 3d 61 9d 2b be 86 fa 42 bf 40 b3 89 bd
       0.07383361 -0.16759254 -0.7616352 -0.06723642
0000d0 10 1d c4 be 17 21 b4 3d 26 fa 27 3f 0e 47 10 bd
       -0.38303423 0.08795374 0.6561607 -0.035224013
0000e0 71 fc 77 3d 40 9d 3e 3f f4 01 51 3e 03 12 72 3c
       0.06054348 0.74458694 0.20410901 0.014774802
0000f0 59 40 c6 be d3 d1 9d 3e b2 6a a7 be bc b4 21 be
       -0.38720968 0.30824146 -0.3269859 -0.15791601
