output_gd_denoise/ckpt/resnet_epoch47.pth (torch, 641697 bytes, 31 tensors)

module.model.0.weight f4 [64, 1, 1, 1]
000000 d8 27 97 be d3 a8 3f be e8 c4 e2 bc 87 01 88 3e
       -0.29522586 -0.18716745 -0.027681783 0.26563665
000010 53 14 80 3e 20 0e 2a 3e 1c 62 93 be 49 0e 1c 3e
       0.25015506 0.16606951 -0.2878579 0.15239824
000020 7c 9f 17 be 22 a9 cb 3d c4 c2 56 be ed 84 1e be
       -0.14806932 0.09944369 -0.20972735 -0.15480395
000030 58 c4 86 3e fd b0 89 bb 84 fe ea 3b 1c f4 89 be
       0.26321673 -0.004202007 0.007171454 -0.26944053
000040 94 2b a5 3d 34 42 b8 bd f0 b5 36 3e 5f da cf 3d
       0.080649525 -0.08997002 0.17842841 0.10149073
000050 9a 3f 8c bc 2a 87 71 3e 39 07 89 bc bf 5c 87 3e
       -0.017120171 0.23586717 -0.016727077 0.26437947
000060 7c b4 6e 3d df 4e 3f 3e 76 bc 72 ba 4d 6b 2d be
       0.058277592 0.1868243 -0.000925965 -0.16935463
000070 7c a6 57 3d ca 10 8d ba 33 2e 5d be aa 61 8d be
       0.052649006 -0.001076245 -0.21599655 -0.27613574
000080 a0 9f 19 be df 4b 37 be e8 4a 02 be de f3 8f 3d
       -0.15002298 -0.17900036 -0.12723887 0.07028936
000090 ca e4 97 be c0 9e 1c be bd 44 06 3e 67 c4 67 be
       -0.2966674 -0.15294933 0.13112159 -0.22633515
0000a0 f1 0f ed 3d 56 d6 14 3d 97 01 9b be 1c 76 71 3e
       0.11575306 0.03633722 -0.3027465 0.23580211
0000b0 1a 16 0f 3d ca 01 1f be 0e 7e b5 bd 42 4f 85 be
       0.034933187 -0.15528026 -0.08861934 -0.2603703
0000c0 1d d8 c0 3d aa 74 6b 3d 09 d9 cf 3d ca 7a 8c 3d
       0.0941622 0.057484306 0.10148818 0.06859358
0000d0 cd 61 7e 3e 05 45 2d 3e 3b 2f 72 bd a6 b8 45 be
       0.24841996 0.1692086 -0.059127074 -0.19308719
0000e0 2d 68 1d 3e 02 7d b4 3d 92 07 34 3e 81 61 07 3e
       0.15371771 0.08812906 0.17581013 0.13220789
0000f0 b0 0f 6b be c0 56 75 3b cc 69 01 3e e2 c2 c3 bc
       -0.22955203 0.003743574 0.12638015 -0.023896638

module.model.0.bias f4 [64]
000000 c6 6a c7 ba d4 71 4d ba 55 0a 20 3a 9c 36 ff ba
       -0.0015214316 -0.0007837091 0.0006105055 -0.0019471231
000010 9f 97 9e 39 2d 1e 0a 3a be 44 51 ba f2 1e d1 3a
       0.00030249075 0.0005268779 -0.00079829607 0.0015954657
000020 40 02 20 ba d4 b8 bc 3a 8d c8 6d 3b 86 50 2c 3b
       -0.0006103851 0.0014398345 0.0036282868 0.0026293113
000030 eb 41 3e 3b b3 51 cf 39 49 a3 6b 3b 47 e1 d7 ba
       0.002903099 0.00039542987 0.003595548 -0.0016470336
000040 7f 01 00 bb bb 29 fe b9 e3 49 e3 3a 52 97 37 39
       -0.0019532142 -0.00048477747 0.0017340746 0.00017508611
000050 0b e4 b7 ba 4f f4 37 3b 39 b6 65 3b 60 1f ec ba
       -0.0014029754 0.0028069203 0.003505124 -0.0018014722
000060 68 5f c5 3a 3c da 51 3b 11 de 2c 3b f5 88 9c 3a
       0.001505834 0.0032020947 0.002637748 0.0011942672
000070 69 69 0b 3b 1e 1e 7e 3b 41 c6 0f ba a5 4e bf 3a
       0.0021272546 0.0038775275 -0.0005484559 0.0014595581
000080 67 be 12 3a 17 23 65 3a 52 7b 49 3b d3 45 4a 3a
       0.000559783 0.00087408855 0.003074367 0.0007716093
000090 4a 8f e9 ba bb 34 18 3a d8 cd f9 39 e6 45 33 3b
       -0.0017819193 0.00058061973 0.00047646347 0.0027354895
0000a0 ad 19 e3 ba 45 4d 12 3b 42 65 73 3b c5 94 76 3b
       -0.0017326378 0.0022323888 0.0037139212 0.0037625295
0000b0 f6 77 6f 3b b0 ac 44 3b 0f be 7a 3a 4a f8 6a 3b
       0.0036540008 0.0030010156 0.0009565064 0.0035853558
0000c0 a7 11 6c ba 23 25 6c 3b 25 47 5f 3b a0 e0 27 3a
       -0.0009005316 0.0036032877 0.0034069505 0.0006404016
0000d0 45 2c 68 ba 7c c7 02 bb a8 35 f5 3a 20 a1 11 3b
       -0.00088566943 -0.0019955328 0.0018708007 0.0022221282
0000e0 75 f0 2d 3b 5e e1 26 3b bb cd e2 ba fc 8b 2d 3b
       0.0026541029 0.002546392 -0.0017303744 0.0026481142
0000f0 dd a0 65 3b e7 17 77 3b 12 ec 8f b9 86 29 43 3a
       0.003503851 0.0037703456 -0.00027450972 0.0007444847

module.model.1.model.0.weight f4 [64, 64, 3, 3]
000000 f6 4b e1 bc 81 6d fa 3c 95 88 3e bd 9c 2c 95 3d
       -0.027502041 0.030569794 -0.046516974 0.07283899
000010 7d 9e 09 3d 10 d6 78 bd 86 06 8f bd a4 da 30 3c
       0.03359841 -0.06075102 -0.06983666 0.0107943155
000020 70 b5 28 bd 86 2c cb 3c f8 dc 75 bd 41 0d 82 3d
       -0.041188657 0.024801504 -0.060025185 0.06350184
000030 cb fb 23 3d 09 6d 71 bd 23 5c 71 bd db 97 2d bd
       0.04003505 -0.058941875 -0.05892576 -0.04238115
000040 1a c2 8b 3d bf a1 90 3d 4b 8d 65 bd 8d b0 ec bc
       0.06824131 0.070621006 -0.05604295 -0.02889278
000050 e7 d4 8c 3c c1 90 3a bd 55 83 dd 3c d1 fb 2f bb
       0.017191363 -0.045548204 0.027040163 -0.0026852975
000060 a5 a8 3c 3d c8 cb 96 3d 64 32 0e 3c 82 a4 de 3c
       0.04605927 0.07363087 0.008679006 0.027178053
000070 e5 26 63 bd cb 35 df 3c b0 27 21 3c d1 5b 4a 3c
       -0.055457015 0.02724733 0.009836122 0.012350992
000080 2e ce 04 bd 66 19 4d bd 68 bb a3 3c 17 d4 3f 3d
       -0.03242319 -0.05007305 0.019986823 0.046833124
000090 3f 96 2c 3c a1 2a 86 3c 7f f6 6a bc f3 19 1f bc
       0.010533868 0.016377749 -0.014340996 -0.009710777
0000a0 6b ac 8b 3d 6e f4 81 bd e6 62 86 3d 58 2c 61 3b
       0.068199955 -0.063454494 0.06561832 0.0034358706
0000b0 a3 a7 8c bd 1a 0b 25 3c 18 50 5e bd 84 9a ae 3a
       -0.06867912 0.010073448 -0.054275602 0.0013321196
0000c0 16 98 1e 3d d3 fd fb 3c 81 69 81 bc 4b 11 85 bc
       0.03871926 0.030760681 -0.015797378 -0.016243597
0000d0 4e 4e 8e bb ee c9 ae bc 98 26 67 3d 15 da 4b 3d
       -0.0043428307 -0.021336522 0.05643329 0.049768526
0000e0 af 34 9e 3c 5f 93 45 3d 44 97 39 3c 51 b8 87 bd
       0.01931223 0.048236247 0.011327568 -0.066269524
0000f0 20 ee aa b9 3c 1c bf 3c 3e 05 e5 bb e1 61 66 bd
       -0.00032602344 0.023328893 -0.0069891503 -0.05624569
000100 56 b4 16 bd b1 20 8d 3d b6 e2 04 3d 2f 76 79 bd
       -0.036793076 0.06891001 0.03244277 -0.060903724
000110 cf 8f e1 3c cc e4 00 3b ab 0f 50 bd e2 3c 78 3d
       0.027534394 0.0019667624 -0.050796192 0.060604937
000120 77 d5 11 3d bb 2d 72 bd 37 5e 80 3d 24 7d dc bb
       0.035603967 -0.059125643 0.0626797 -0.006728785
000130 ea 49 63 3a c7 ec 8f 3b f2 9a d8 3c 51 fe 2d bb
       0.0008670377 0.0043922397 0.026441071 -0.002654929
000140 48 3e c0 bc 7f a3 35 3c 86 59 22 bd dd ae 79 bd
       -0.023467198 0.011086344 -0.039636157 -0.06095778
000150 fa 60 58 bd 56 e2 0c 3d 15 bc 03 bd 60 92 90 3d
       -0.05282686 0.03439554 -0.03216179 0.07059169
000160 59 df 0a 3d 19 76 85 bd 15 a6 61 3c 31 77 81 bd
       0.033904407 -0.06516666 0.013772507 -0.06321562
000170 11 88 71 bd 9a df 95 3d ee 24 44 bd ba 9d eb bc
       -0.058967654 0.07318039 -0.04788678 -0.028761733
000180 43 ce 26 3d 5d 47 24 bd 87 57 bc bc 66 16 51 3d
       0.04072405 -0.04010712 -0.022990955 0.05104675
000190 d9 93 74 3c f4 9c a2 bc 02 ed 3a bd 67 53 07 bd
       0.014927828 -0.019850232 -0.045636185 -0.033038523
0001a0 16 31 21 bc 52 44 bb bc db e3 81 3d 96 05 15 bc
       -0.009838363 -0.022859726 0.06342288 -0.00909557
0001b0 83 e9 19 bd ec c4 22 3c 21 1c 11 3d e0 76 85 bc
       -0.03757621 0.009934645 0.035427216 -0.016292036
0001c0 89 d1 d7 bc f8 d9 49 bb d2 67 89 bd b7 59 ed bc
       -0.026345031 -0.0030800086 -0.06709255 -0.028973443
0001d0 5a bc ea 3b 20 77 51 3d 99 f2 8b bc e6 60 ca ba
       0.0071635665 0.051138997 -0.017083453 -0.0015440255
0001e0 6d 1a ee 3c 3a 79 22 bd 3f 74 32 3c 46 cb a4 bc
       0.029065335 -0.039666392 0.010891973 -0.02011646
0001f0 43 d1 c9 3c f4 b2 24 3d 52 73 75 3d 16 1d b3 3c
       0.024635917 0.040209725 0.05992443 0.021864455
000200 ad b0 44 bd 55 77 29 3b 7f bb 58 3c 17 85 bf 3c
       -0.048020054 0.002585848 0.013228296 0.023378892
000210 04 c9 72 bd 75 4c 38 3d 0a f1 47 3d 63 26 53 bb
       -0.059273735 0.04499479 0.048813857 -0.0032218925
000220 5e 81 89 bd e4 37 66 bd ec 27 35 bd 8a 83 80 bd
       -0.06714128 -0.056205645 -0.044227526 -0.06275089
000230 2a 13 15 3d f8 80 64 bd ae 77 9b bc b7 ad ac bc
       0.03639523 -0.055787057 -0.018977966 -0.021078927
000240 07 62 04 bd 6a 26 37 3d df 45 7d 3d 18 86 52 bd
       -0.03232005 0.04471437 0.061834212 -0.051397413
000250 97 bd bf 3c 2f b4 0b bd a1 4f 5c bc 71 51 0b 3d
       0.023405833 -0.034107383 -0.013446719 0.034013215
000260 4b 1d b4 bc 3c 9e 63 bd 0e a5 4f bc 5b bb 78 3a
       -0.021986624 -0.055570826 -0.012673629 0.00094883674
000270 2f d5 e8 3b 85 50 8b 3d ec 3f 51 bd e5 a7 c4 bc
       0.0071054916 0.06802467 -0.05108635 -0.02400584
000280 e6 a2 42 3d 1c eb ec bc d1 a4 5a 3d 4f 2b ff bb
       0.047518633 -0.028920703 0.053379837 -0.007787145
000290 70 da 05 3d 5b 26 95 bd 50 92 85 3d 71 c3 36 bb
       0.03267902 -0.07282706 0.065220475 -0.0027887488
0002a0 0a d4 0f bd f3 ec 42 3d 44 6b 4c 3d 74 7d 1a 3c
       -0.035114326 0.047589254 0.049906984 0.009429324
0002b0 78 f2 bf ba 25 a6 24 bb 01 57 23 bd 39 7e 7d 3d
       -0.0014644405 -0.0025123444 -0.039877895 0.061887953
0002c0 64 28 4c bd 63 91 7e bd 38 e9 4f bc bf 31 e7 bc
       -0.049843207 -0.06215037 -0.012689881 -0.028221963
0002d0 9c d9 ee 3b 18 e1 78 bd 22 e3 cc 3c 0f 6a 81 3d
       0.0072891247 -0.06076154 0.02501065 0.06319057
0002e0 ee cf ef 3c 8b 79 94 3d ef 1e 81 3d 03 55 18 3d
       0.029273953 0.07249745 0.06304728 0.03719045
0002f0 47 d1 99 3c 10 51 aa 3c 08 a6 54 3d f6 eb 00 bd
       0.018776549 0.020790607 0.051916152 -0.03147503
000300 27 2a 0b bd 45 ed 29 bd 6f 23 8b bd 46 0c 3e 3c
       -0.033975746 -0.041486043 -0.06793868 0.011599606
000310 08 15 8d bd 64 39 33 3c 08 84 76 3d ac 63 e8 bc
       -0.06888777 0.010938976 0.06018451 -0.02836784
000320 77 82 bb bc 1c 9c 7b 3c 36 03 44 bc 0f 64 80 bd
       -0.022889359 0.015357044 -0.011963656 -0.06269085
000330 fe ee 5c 3d bc 9a 30 bd 01 eb 61 bc 32 09 09 bd
       0.05393886 -0.043116316 -0.013788939 -0.033456035
000340 a9 fc 15 3d cd 32 d8 3c c0 0d d7 3b fb 3b 44 3d
       0.03661791 0.026391411 0.0065629184 0.047908764
000350 42 66 47 bd 90 5c 0d 3d 71 0b 52 3d be b3 33 3d
       -0.048681505 0.034512103 0.051280443 0.043872587
000360 b8 bf fc bc a2 37 8e bc f3 f9 6f 3c b5 cb dc 3b
       -0.030853137 -0.017360512 0.014646995 0.006738151
000370 2f a0 1b bd 17 90 84 bd f9 22 18 3c b4 31 8d bd
       -0.03799456 -0.064727955 0.009285682 -0.06894246
000380 19 0e f4 bc 0d 6f 1a bc 36 70 2b ba 4d 7e ff 3c
       -0.029791879 -0.009425891 -0.0006539853 0.031188155
000390 c0 1c 8b 3b 9f 1f 5c bd aa 4f 2d 3d ef 6a d4 bc
       0.0042453706 -0.053741094 0.0423123 -0.025929896
0003a0 ee f4 53 bd bd 98 4f bd 3a c1 89 bc f1 9f fe bc
       -0.051747255 -0.050682772 -0.01681577 -0.031082125
0003b0 0d 8a 55 bc 7c 38 ba bb 9b ba 61 bd fc 96 0b 3d
       -0.013033402 -0.005683003 -0.0551096 0.034079537
0003c0 9e 9b 7e bd 86 79 b4 3c 44 7e ff 3c 9c 31 0d bc
       -0.062160127 0.022030603 0.031188138 -0.008617785
0003d0 28 a6 18 bc e6 97 e3 bc 13 0b 92 3c a6 dc f0 bc
       -0.0093169585 -0.027782392 0.017827546 -0.029402088
0003e0 65 3a d2 3c 6b ed 56 bd 1f 16 fb bc 7f 78 4b 3d
       0.02566261 -0.052472513 -0.030650197 0.04967546
0003f0 98 a0 19 bd 58 b8 6e 3d 28 ca 3a bd 23 a3 c3 bc
       -0.03750667 0.058281273 -0.045602947 -0.0238815

module.model.1.model.0.bias f4 [64]
000000 13 70 b7 3a 8e 38 39 3a b3 0c a8 3a 89 bd 58 3a
       0.0013995193 0.0007065617 0.0012821167 0.0008267989
000010 b7 7e a8 39 41 5f c1 3a 7f 29 95 3a 81 39 86 3a
       0.00032137867 0.0014753119 0.0011380165 0.0010240526
000020 64 4f 65 3a e0 11 b6 3a 7a ac 06 3a 2b e9 7c 3a
       0.0008747487 0.0013890825 0.00051373953 0.0009647782
000030 73 da aa 3a 67 96 88 3a 58 f9 87 3a 62 cc 73 3a
       0.0013035074 0.00104208 0.0010373993 0.000930017
000040 a8 68 a4 3a cd c9 98 3a 4a ac a8 3a 26 a5 a6 3a
       0.0012543397 0.0011656821 0.0012868729 0.0012714013
000050 20 01 9c 3a 26 9c 83 3a fb e1 a3 3a 93 28 3b 3a
       0.0011902191 0.0010041043 0.001250326 0.000713953
000060 c8 2c ae 3a 28 33 ba 39 a4 ad 5f 3a 5c 54 a4 3a
       0.0013288492 0.000355148 0.00085326494 0.0012537348
000070 34 26 8c 3a 3c 89 72 3a ec b4 a0 3a 65 1c 59 3a
       0.0010692538 0.0009252017 0.001226095 0.0008282124
000080 e0 c6 9a 39 e3 cf 58 3a 23 2b 89 3a a1 77 79 3a
       0.00029521342 0.00082707236 0.0010465126 0.0009516422
000090 54 60 ab 3a 4b c1 1b 3a 0c 38 8a 3a 11 60 a3 3a
       0.0013074973 0.00059415837 0.0010545268 0.0012464543
0000a0 e9 ae 4d 3a cb 5d ac 3a 6a a1 2f 3a c1 4d 83 3a
       0.0007846193 0.0013150511 0.0006699773 0.0010017679
0000b0 65 5d 92 3a 3d 72 97 3a 2c 91 50 3a 67 75 54 3a
       0.001116675 0.0011554431 0.00079562026 0.00081046525
0000c0 a8 b5 3e 3a ba 1d d5 3a 1e 65 ee 3a 1a a7 97 3a
       0.00072749937 0.001625947 0.0018188094 0.0011570186
0000d0 8d c2 ff 39 68 73 36 3a dd 40 9a 3a b5 62 c8 3a
       0.00048782342 0.0006959946 0.0011768598 0.0015288206
0000e0 69 0a cd 3a 59 f4 41 3a a3 dd b4 3a b2 89 84 3a
       0.0015643361 0.00073987764 0.0013798963 0.0010111837
0000f0 d2 ae 84 3a b8 83 a1 3a 80 0a 46 3a 76 03 97 39
       0.0010122901 0.001232258 0.0007554665 0.00028803543

module.model.1.model.1.weight f4 [64]
000000 89 ce 7f 3f 58 31 80 3f b1 84 7f 3f db 26 80 3f
       0.9992452 1.0015059 0.99811846 1.0011858
000010 a7 51 80 3f ec df 7f 3f 27 4d 80 3f a0 62 80 3f
       1.0024918 0.9995105 1.0023545 1.0030098
000020 25 29 80 3f 3f 97 7f 3f b0 69 7f 3f 90 31 80 3f
       1.0012556 0.9984016 0.9977064 1.0015125
000030 a0 de 7f 3f e2 82 7f 3f e9 46 7f 3f 0e 16 80 3f
       0.99949074 0.99809086 0.99717575 1.000673
000040 3f ae 7f 3f 1c 7c 7f 3f 79 0a 80 3f 24 1f 80 3f
       0.99875253 0.9979875 1.0003196 1.0009503
000050 e0 6b 7f 3f bf a6 7f 3f 76 ae 7f 3f 44 89 7f 3f
       0.9977398 0.9986381 0.9987558 0.99818826
000060 ba a4 7f 3f 5e d9 7f 3f d2 42 80 3f a6 1f 80 3f
       0.9986073 0.9994105 1.0020392 1.0009658
000070 fa 3d 80 3f 6a 56 7f 3f 78 a9 7f 3f 64 52 80 3f
       1.0018914 0.9974123 0.99867964 1.0025144
000080 5a 66 80 3f f1 6a 7f 3f c4 42 80 3f 03 c8 7f 3f
       1.0031235 0.99772555 1.0020375 0.9991457
000090 76 59 80 3f 76 f6 7f 3f 22 3d 80 3f eb 91 7f 3f
       1.0027301 0.99985445 1.0018656 0.9983203
0000a0 bd 03 80 3f e6 9a 7f 3f f1 2e 80 3f b0 3c 7f 3f
       1.0001141 0.9984573 1.0014325 0.99701977
0000b0 aa 3a 80 3f 59 4f 7f 3f 01 32 80 3f dd 3e 80 3f
       1.0017903 0.9973045 1.001526 1.0019184
0000c0 f3 39 80 3f 29 41 80 3f a2 eb 7f 3f 23 23 80 3f
       1.0017685 1.0019885 0.9996892 1.0010723
0000d0 58 a3 7f 3f c7 2f 80 3f b9 6e 80 3f db e2 7f 3f
       0.9985862 1.001458 1.003379 0.9995553
0000e0 2c 77 7f 3f 28 20 80 3f e0 72 7f 3f 5e c2 7f 3f
       0.99791217 1.0009813 0.9978466 0.99905956
0000f0 56 28 80 3f 1b e1 7f 3f 23 d5 7f 3f 6f 47 80 3f
       1.001231 0.9995286 0.99934596 1.00218

module.model.1.model.1.bias f4 [64]
000000 f7 62 da ba 6e 0f 29 39 e3 d4 c2 ba 6e 72 e2 3a
       -0.0016661574 0.00016122844 -0.001486447 0.0017276534
000010 d8 90 ea b9 d9 8f 8b ba b1 75 a8 3a 67 2f 1a 3b
       -0.00044739875 -0.0010647728 0.0012852458 0.002352679
000020 6d c5 21 3b cb 2b 05 3b f7 e1 07 bb a4 e3 89 3a
       0.0024684325 0.0020320292 -0.002073405 0.0010520113
000030 21 f6 0a bb 97 33 7d ba fa bf b3 b9 71 cf e9 3a
       -0.0021203833 -0.00096588716 -0.00034284574 0.0017838312
000040 1e 58 2f 38 48 d7 03 bb 2c 25 ba 3a df 5e 34 39
       4.1805317e-05 -0.0020117331 0.0014201752 0.0001720148
000050 2c fd 8b ba 8a ac 97 b9 92 69 41 bb 5e 42 92 ba
       -0.001068031 -0.00028929516 -0.0029512388 -0.0011158695
000060 ce b2 21 bb 96 04 17 39 aa a1 30 3b 63 9c 38 3a
       -0.0024673226 0.0001440219 0.0026951828 0.00070423464
000070 a9 42 75 ba b4 61 4f bb 7d 93 97 ba 3b 87 59 3b
       -0.00093559414 -0.003164393 -0.0011564341 0.0033192176
000080 44 fa 89 3a e7 9b c1 ba 70 cc d1 ba 57 f8 27 3a
       0.0010526855 -0.0014771194 -0.0016006362 0.000640755
000090 8e c9 4b 3b 0e 8e 27 3a 39 85 ad 3a fc 14 2f ba
       0.0031095478 0.0006391712 0.0013238556 -0.0006678847
0000a0 cf 82 24 ba 4b aa e8 ba 3f ee ca b8 1a e8 4c ba
       -0.00062755955 -0.0017750947 -9.6764874e-05 -0.0007816568
0000b0 e0 03 7d ba 21 1a cf ba b6 68 3d 3b c1 a9 05 3b
       -0.00096517615 -0.0015800634 0.0028901524 0.002039537
0000c0 54 f2 b0 ba 35 88 c2 ba 34 a6 18 bb ef 7b aa 3a
       -0.0013499954 -0.0014841618 -0.0023292424 0.0013006906
0000d0 9b 14 73 3a a0 3d 08 3b bb 21 21 3b 26 20 71 b9
       0.0009272785 0.0020788684 0.0024586755 -0.00022995527
0000e0 7c 41 9c ba 5b ab da 3a 71 64 a5 3a af 74 2b bb
       -0.0011921371 0.0016683148 0.0012618435 -0.0026162078
0000f0 64 69 22 bb a6 d0 b9 ba 93 d1 96 ba 4e 84 6e 3a
       -0.0024782056 -0.0014176562 -0.001150655 0.00090986944

module.model.1.model.1.running_mean f4 [64]
000000 be 4b 39 3a d5 9e 7c 39 00 3a c2 3b 00 d0 ab 3b
       0.00070684764 0.00024091762 0.0059273243 0.0052433014
000010 be 88 81 ba 70 f3 e8 3a c3 07 af 39 ed ba 98 b9
       -0.0009882671 0.0017772745 0.00033384384 -0.0002913097
000020 89 2c 5a 3b 5a 38 df b9 e7 8e 19 3b 23 3c 98 3a
       0.0033290705 -0.0004257586 0.0023431124 0.0011614602
000030 1f 33 87 3b e0 ed bb 3b 25 46 13 3b 8b de 26 3a
       0.004125967 0.005735144 0.002247223 0.0006365559
000040 8c a6 22 3b c3 60 29 ba d4 54 db 3a f0 f1 0a 3b
       0.0024818508 -0.0006461257 0.0016733655 0.0021201335
000050 00 0a 25 3a 6a 9f d0 3a c7 94 2e ba 85 7e a6 3a
       0.00062957406 0.001591665 -0.0006659743 0.0012702501
000060 df 0a a8 3a 66 93 2b bb 13 3c b4 3a 20 10 8c 39
       0.0012820623 -0.0026180386 0.0013750814 0.00026714895
000070 68 6e 83 3b b9 e9 8a 3a 79 09 8e ba 1b 4b 24 3b
       0.004010964 0.0010598219 -0.0010836563 0.002506918
000080 fa 7e 20 bb fb 1c 44 3b 05 8a 70 3b b1 e1 e0 3a
       -0.0024489746 0.00299245 0.003670336 0.0017157105
000090 da 3c 7a 3b 72 55 c0 39 7d 80 ef 3a dc ef 59 3b
       0.0038183243 0.00036684755 0.0018272545 0.003325454
0000a0 36 d1 51 3b c9 97 21 3b bf c8 fa b9 db f1 af 3a
       0.0032015569 0.0024657121 -0.00047833283 0.0013423519
0000b0 68 e5 0d 3a 69 b5 13 3a 2f 91 3f 3b 9b 88 4c 3a
       0.00054129073 0.0005634637 0.0029230823 0.0007802338
0000c0 13 bf 3b bb 8f ea fa ba 28 6f ff 3a a1 70 c3 ba
       -0.0028647825 -0.001914339 0.0019488083 -0.0014910885
0000d0 30 40 b4 3b a5 9b 0b bb 51 2b 2b bb 42 bd d3 b9
       0.005500816 -0.0021302488 -0.0026118348 -0.00040386064
0000e0 28 39 64 3b c2 a3 67 3a ec db 8c 3b 68 c6 1e 3b
       0.0034824107 0.00088363525 0.0042986777 0.0024227146
0000f0 3a 55 6b bb ec 34 a1 3a 27 78 c0 b9 d1 76 3a bb
       -0.0035908953 0.0012299097 -0.00036710614 -0.0028452168

module.model.1.model.1.running_var f4 [64]
000000 a0 e5 a4 38 e1 7f 53 3a 61 73 14 3b 3d c7 ba 39
       7.8629004e-05 0.00080680667 0.002265178 0.0003562513
000010 57 a1 0e 3a 99 6b b2 39 1a fe a1 39 69 0b 37 3a
       0.00054409116 0.00034030972 0.00030897633 0.0006982596
000020 ba 7d 90 39 55 80 51 39 eb bc 08 38 de de d5 39
       0.00027559494 0.000199796 3.260087e-05 0.00040792575
000030 73 cb 3e 39 1e a2 4f 39 57 ca 35 39 e5 6c 95 3a
       0.00018195603 0.00019801452 0.00017336883 0.0011400251
000040 3e c7 3a 3a 8e 3e 1c 3a ee f1 8c 3a 07 05 f2 37
       0.00071250263 0.0005960249 0.0010753253 2.885099e-05
000050 06 ef 38 39 a0 85 1d 39 db 43 1e 38 3b ef c4 39
       0.0001763665 0.00015022466 3.773333e-05 0.00037562274
000060 1b d9 e8 39 86 64 58 3a 9c 4a 18 39 35 4a 87 3a
       0.00044412244 0.0008254725 0.00014523644 0.0010321798
000070 bb 0e e0 39 5b 80 82 39 1f 6f e5 38 63 22 be 3a
       0.00042735584 0.00024891165 0.00010940269 0.0014506098
000080 9d 2c ad 39 aa 3a 1b 37 ad 90 97 38 00 b3 39 39
       0.0003303037 9.252379e-06 7.227189e-05 0.00017709658
000090 88 f9 98 39 97 93 31 38 12 01 72 38 bb b7 88 39
       0.00029177614 4.2337542e-05 5.7698293e-05 0.0002607683
0000a0 db 7f cf 3a 79 62 64 38 5c 13 6c 39 27 77 13 39
       0.001583095 5.4451146e-05 0.00022513926 0.000140634
0000b0 dd a3 e9 37 25 d1 ba 3a 25 57 5c 3a d6 22 98 3a
       2.785207e-05 0.0014253004 0.00084053195 0.0011607062
0000c0 ae d0 b8 38 33 e8 eb 38 77 17 1a 3a 3a 5d b5 39
       8.812673e-05 0.00011248924 0.00058781303 0.0003459247
0000d0 b2 97 9e 38 a4 bd 84 39 9b c3 64 39 5a c1 0f 38
       7.5622826e-05 0.00025318295 0.00021816643 3.427393e-05
0000e0 9e 4c 41 39 9f 07 07 3a 67 13 d6 39 6c c6 28 3a
       0.00018434456 0.0005150977 0.00040831717 0.00064382586
0000f0 32 28 4d 3a f3 e2 97 39 d5 8a 4b 39 be ed a1 39
       0.0007826119 0.00028970055 0.00019411308 0.00030885445

module.model.1.model.3.weight f4 [64, 64, 3, 3]
000000 26 cb 56 3d 76 40 91 bd 00 42 2e bd a1 7b 8a bd
       0.05243983 -0.07092373 -0.04254341 -0.067618616
000010 0b c9 c6 3c 40 3e 88 bc 86 e8 98 bc f5 a1 8b 3c
       0.024265787 -0.016631246 -0.018665563 0.017045
000020 d9 e4 05 bd 55 07 1e 3d 44 5e 76 3d 84 40 cb 3c
       -0.03268895 0.03858121 0.060148492 0.024811037
000030 d8 de 94 bc 94 05 0d 3d 98 3f 15 bc 8e 67 ab bc
       -0.018172666 0.034429148 -0.0091094 -0.020923402
000040 cd 62 c2 3c da e2 98 3c e9 c4 f0 3c 30 9c 3a 3d
       0.023728753 0.018662859 0.02939077 0.04555911
000050 b5 b1 65 3d 2a 39 53 3d b9 00 f0 3b 64 ce 6b 3d
       0.056077678 0.051568188 0.007324305 0.057569876
000060 7f 5c c5 3c dc 49 fd 3b 76 26 2d bd 6d 52 40 3c
       0.024091957 0.007729752 -0.042273007 0.011738402
000070 2d f9 4e bd 70 9d 0f 3d 85 3d 60 3c 3a 7c 4b 3c
       -0.0505306 0.035062253 0.013686542 0.012419755
000080 54 78 35 bc d1 ae 2d 3d 5e 3b 68 bd 57 fb ea bc
       -0.011076052 0.042403046 -0.056697242 -0.028684301
000090 c4 36 e3 3c f6 55 0b bd 5e ee 8e 3d 2c fe 3d 3c
       0.027736075 -0.034017526 0.06979059 0.011596244
0000a0 1b 12 06 3d 0f 79 4a bd 49 61 58 3c 1a 27 19 3d
       0.03273211 -0.049431857 0.013206788 0.037390806
0000b0 05 4d 3e bd de 11 85 3d 11 4d 88 bd 66 45 dc 3c
       -0.04646017 0.064975485 -0.06655324 0.02688856
0000c0 d1 8d 21 3d ed 8d d4 bc fa 0e ec bb f0 25 02 3d
       0.039441887 -0.025946582 -0.007203934 0.03177446
0000d0 bd 72 16 bd 0d b2 ef bc 19 b4 00 bc 2d 6f 58 bd
       -0.036730517 -0.029259706 -0.007855439 -0.0528404
0000e0 e7 04 04 bd c4 33 82 3d 50 83 85 bc 47 22 59 3d
       -0.032231238 0.0635753 -0.016297966 0.053011205
0000f0 1c 31 31 bd 7a e9 73 3c 4c 19 1e 3d 47 ad 57 3c
       -0.043259725 0.014887208 0.038598344 0.013163871
000100 42 ee 8d 3c 29 1c f0 3a 40 97 e2 bb 69 61 dd bc
       0.017325524 0.0018318939 -0.006915003 -0.027023988
000110 48 f0 88 bd 7c 7e 87 3d 91 1c 65 3d 9b 48 f0 3c
       -0.06686455 0.06615922 0.055935446 0.029331496
000120 3e dd 3e bd 71 6d 8a 3d 30 9d 0e 3d 42 67 95 bc
       -0.04659771 0.067591555 0.034817874 -0.018237714
000130 11 aa 67 bd 95 44 c9 bc aa c1 00 bd 5d 46 15 bd
       -0.056558672 -0.024568835 -0.031434692 -0.036444057
000140 6d d7 8e bd da 59 07 3d 3b 31 34 3c ec 5f 7b 3d
       -0.06974683 0.033044674 0.010998066 0.061370775
000150 98 e3 62 bc bd 7d 5f bd 04 4e ca bb 6c 72 a7 bc
       -0.013848208 -0.054563273 -0.006173851 -0.020440303
000160 0c 15 97 bd 37 e7 c6 bc 5f 65 74 bd 2e 53 94 bd
       -0.07377061 -0.024280174 -0.059666988 -0.07242428
000170 2a 7a 2b 3d df d5 90 bd 7d f5 9b 3c 40 74 fc 3c
       0.04186455 -0.07072043 0.019037956 0.030817151
000180 e4 40 f5 3b 5b d0 37 3d 9b b6 25 3d 78 4b 51 3d
       0.007484542 0.044876438 0.04045735 0.051097363
000190 e8 57 14 bd 24 a7 4b b9 65 d0 85 bc 67 2a 86 bd
       -0.036216646 -0.00019421853 -0.016334722 -0.06551056
0001a0 c4 4b 54 bd 23 6c 21 3d c4 9e 73 bd bf ae 2b 3c
       -0.05183007 0.039409768 -0.059477583 0.010478674
0001b0 92 ce 33 bd 8c 0a 83 3d 11 e9 b0 3b 2e 26 8b 3d
       -0.043898173 0.06398496 0.0053988774 0.067943916
0001c0 17 db a1 3c e3 3d 38 3c d6 51 58 bc 05 35 35 3d
       0.01975779 0.011245224 -0.013203105 0.044240016
0001d0 00 68 39 ba 49 03 73 3d e5 20 52 3d 54 33 40 3d
       -0.0007072687 0.059329305 0.051300902 0.04692395
0001e0 60 30 8d bd 90 b9 26 3d 17 b5 03 bc b0 7b 45 bd
       -0.068939924 0.04070431 -0.008038781 -0.04821366
0001f0 06 18 74 bd 54 e5 6a 3d 17 6c aa bc 63 6d c8 bc
       -0.059593223 0.05734761 -0.020803494 -0.024466222
000200 fe a6 ff 3c c2 ef 3d 3d eb 13 9d 3c cc 37 08 3c
       0.031207558 0.04637123 0.019174537 0.008314084
000210 8f 85 78 3d ec 9d 81 3d d8 42 26 bc e5 e6 23 3d
       0.060674246 0.06328949 -0.010147773 0.04001512
000220 b9 84 48 bc be 72 d5 3c 7d a3 9a bc 36 73 33 bd
       -0.012238675 0.02605569 -0.018876785 -0.043811046
000230 38 f2 10 3d 7a d2 d5 bb d8 85 79 3c ea 42 15 bd
       0.035387248 -0.006525335 0.015229665 -0.036440767
000240 a7 c0 74 3d db 94 62 3d 40 c3 d8 bc 3c 35 27 3d
       0.05975404 0.05531774 -0.02646029 0.040822253
000250 45 1b 19 3d 02 43 7b bd 21 4b 5e bd 60 0a 67 bc
       0.037379522 -0.0613432 -0.054270867 -0.014101595
000260 dd df 4a 3c b6 d1 a4 bc 49 4b 8e bd f7 65 4e 3d
       0.012382475 -0.02011953 -0.06947953 0.05039021
000270 a1 87 62 3d 69 6d 37 bd 82 8c 2d 3d a1 c2 66 3c
       0.055305127 -0.044782076 0.042370327 0.014084489
000280 f8 26 d5 3c ae 0a 04 3d 59 ec 52 bc ac 7d 1b 3d
       0.026019558 0.032236747 -0.0128737325 0.037961647
000290 26 c1 ba 3b 62 af 01 bd 99 28 32 bd 7e ae f9 bc
       0.0056992946 -0.0316614 -0.04349575 -0.030478712
0002a0 eb db 18 bd 3c 04 29 3d 25 32 41 3d df 2d e1 bc
       -0.037319105 0.041263804 0.047166962 -0.027487693
0002b0 53 ab 6b bd 61 94 2e 3a 14 ec cd bc d6 d3 ea 3c
       -0.057536434 0.00066596834 -0.025136985 0.028665464
0002c0 91 c9 86 3d 58 f6 10 3d 08 57 70 bd 40 a3 2d 3d
       0.065814145 0.03539118 -0.05867675 0.042392015
0002d0 63 fa 5b 3d 90 dd 83 3b b3 60 8e 3d 05 1f 45 3d
       0.053705584 0.004024215 0.06952038 0.048125286
0002e0 44 a2 f5 bc dd 65 85 bd 4a 87 b0 3c 7a 2a a9 bc
       -0.0299846 -0.065135695 0.021548886 -0.020650137
0002f0 3a 96 8a 3d 49 da 46 3d 6c 25 9a bc 36 a2 0a bd
       0.06766935 0.048548017 -0.018816672 -0.033846103
000300 df ed 2e 3d f4 c7 07 bd 43 72 c5 3c eb b6 9b bc
       0.04270732 -0.033149675 0.024102336 -0.01900812
000310 d5 a0 ed bc 36 52 ef 3c 53 66 8d bd e9 89 bb bc
       -0.029007355 0.029214006 -0.069042824 -0.02289291
000320 eb f1 d2 bc 15 e5 87 bd f0 72 6f bc d6 d8 6c bd
       -0.025750121 -0.06635491 -0.014614806 -0.05782398
000330 cc 6a 82 bd 0d 0b 3c 3d 69 f8 75 3d 5c 31 8b 3d
       -0.06368026 0.045908976 0.060051356 0.06796524
000340 75 d1 22 bd 14 c8 0b 3d ab c0 18 3d 37 25 23 bb
       -0.039750535 0.034126356 0.037293117 -0.0024894008
000350 2e 40 65 3c 37 f9 87 bc fa 99 a9 bc e5 2f ac bc
       0.013992352 -0.016598327 -0.020703305 -0.021018932
000360 29 df bb bc 5d ba 8b 3d a9 c3 3d 3d 40 63 8f 3d
       -0.02293356 0.06822655 0.046329174 0.07001352
000370 ad 99 5c 3d 9f 53 03 bd bc 57 1b 3c f7 9b e6 3c
       0.053857494 -0.03206217 0.009481367 0.028150542
000380 aa 0f 51 3c 26 78 08 3c b0 01 c1 3c 6b 64 ef bc
       0.012760082 0.008329427 0.023560375 -0.029222688
000390 0b f2 6f bd 85 7a 58 3d d6 60 22 bd d4 a2 53 3d
       -0.05858044 0.05285122 -0.03964313 0.051668957
0003a0 ef a8 88 3d 2b ff a6 3b a7 ce 93 bd bb 16 77 3d
       0.066728465 0.0050963364 -0.0721715 0.06032441
0003b0 67 c9 69 bb b4 01 a7 3c 3d 21 93 3c a0 9a 01 3d
       -0.0035673024 0.020386554 0.017960185 0.031641603
0003c0 d0 ce 5a 3c 44 f6 75 bd 77 5f 39 3d 48 93 cd 3c
       0.013354972 -0.06004931 0.045257058 0.025094643
0003d0 7d 85 fa 3b a1 1a 54 3d 79 8f 27 bd 8a 82 1e 3d
       0.0076453076 0.051783208 -0.04090831 0.03869871
0003e0 79 a4 f1 3b 87 5d 93 bd ec 2d 60 bd 31 f1 5e 3d
       0.007374343 -0.07195573 -0.054731295 0.054429237
0003f0 68 d9 f3 3c c1 af e5 bc 6e 2e a6 3c e3 71 9f 3c
       0.029766753 -0.028037908 0.020285811 0.019463485

module.model.1.model.3.bias f4 [64]
000000 68 25 8d 3a f8 28 7a 3a 5f 97 a3 3a 36 44 ce 3a
       0.0010768594 0.0009542848 0.0012481025 0.0015736881
000010 f1 8e 91 3a 70 ba 86 3a 24 8d 93 3a 7b 5d 71 3a
       0.0011105222 0.0010278951 0.0011257273 0.000920735
000020 2a dd 83 3a f3 e1 80 3a 5c fc 50 3a 3d 24 84 3a
       0.0010060419 0.0009832963 0.0007972175 0.0010081601
000030 ca 24 21 3a bd 62 85 3a 34 87 59 3a 03 f8 ad 3a
       0.00061471446 0.0010176521 0.000829804 0.0013272766
000040 8b 48 9e 3a a3 69 93 3a ea dd 80 3a d4 2c 9a 3a
       0.0012076063 0.0011246692 0.000983176 0.0011762627
000050 48 bc 87 3a dc 2b 7c 3a 9a 1d 83 3a 35 8d ac 3a
       0.0010355795 0.00096195727 0.0010003329 0.0013164642
000060 8c 31 7a 3a 6b 47 73 3a c4 f6 57 3a 72 f5 78 3a
       0.0009544126 0.00092803565 0.000823837 0.00094970234
000070 15 e3 68 3a 1e a4 7a 3a 4a 14 8c 3a 5f 50 a0 3a
       0.00088839355 0.00095611985 0.0010687199 0.0012230984
000080 e7 3a 81 3a c6 8f 69 3a 46 eb 41 3a 50 a6 6b 3a
       0.0009859473 0.00089096685 0.0007397424 0.0008989321
000090 f4 4f c3 3a 94 fe 83 3a 11 1c 7c 3a 3b 5d 53 3a
       0.0014901147 0.0010070377 0.00096172193 0.00080629037
0000a0 ca 22 88 3a b8 8d 4e 3a 3a 68 48 3a fe 2c 55 3a
       0.0010386345 0.0007879394 0.00076449255 0.00081320095
0000b0 0e 57 4b 3a 02 c4 7d 3a f9 2e 71 3a f8 84 84 3a
       0.00077568076 0.00096803915 0.000920042 0.0010110429
0000c0 8a 17 8f 3a c3 cd 59 3a b2 70 82 3a df bd 62 3a
       0.0010917049 0.0008308554 0.0009951799 0.0008649509
0000d0 a4 e5 7f 3a c3 b5 8d 3a cf 84 18 3a ec d0 2f 3a
       0.0009761697 0.0010811616 0.000581813 0.0006706852
0000e0 32 68 80 3a f5 02 72 3a 02 73 b1 3a b9 d2 73 3a
       0.0009796678 0.0009232008 0.0013538303 0.00093011145
0000f0 2b 35 77 3a a0 50 a7 39 e8 cd 89 3a c7 05 77 3a
       0.0009430225 0.00031912792 0.0010513635 0.0009423163

module.model.1.model.4.weight f4 [64]
000000 de 56 7f 3f f9 25 80 3f 0f 62 7f 3f 6d 1e 7f 3f
       0.99741924 1.0011588 0.99759 0.996558
000010 f3 f1 7f 3f bc 49 7f 3f c7 a3 7f 3f 73 4e 80 3f
       0.9997856 0.99721885 0.9985928 1.0023941
000020 7e 7a 80 3f ce 56 80 3f df 63 80 3f ae 3b 7f 3f
       1.0037382 1.0026491 1.0030478 0.9970044
000030 82 60 80 3f f3 70 80 3f e7 63 80 3f e8 35 7f 3f
       1.0029452 1.0034469 1.0030488 0.9969163
000040 b8 4a 7f 3f 60 48 7f 3f 87 7a 80 3f fe 3b 7f 3f
       0.99723387 0.9971981 1.0037392 0.99700916
000050 04 3e 7f 3f 9c 67 80 3f 34 2c 80 3f 87 46 7f 3f
       0.99704003 1.0031619 1.001349 0.9971699
000060 0b 4d 7f 3f 2b 74 80 3f 4d 66 80 3f 62 5b 80 3f
       0.99726933 1.0035452 1.003122 1.0027888
000070 08 70 80 3f d3 6b 80 3f ef 25 80 3f f9 ee 7f 3f
       1.0034189 1.0032905 1.0011576 0.9997402
000080 73 67 7f 3f c5 45 80 3f 4e 65 80 3f 60 7f 80 3f
       0.99767226 1.0021292 1.0030916 1.0038872
000090 69 41 7f 3f 13 52 7f 3f 5a 33 80 3f d4 f2 7f 3f
       0.9970918 0.9973461 1.0015671 0.999799
0000a0 fb 55 7f 3f 80 54 80 3f c1 5e 80 3f e5 5b 80 3f
       0.9974057 1.0025787 1.0028917 1.0028044
0000b0 eb 84 80 3f 0f 04 80 3f d0 3d 80 3f 55 61 80 3f
       1.0040563 1.0001239 1.0018864 1.0029703
0000c0 5d 56 7f 3f 84 81 80 3f 07 5d 80 3f f2 50 80 3f
       0.99741155 1.0039525 1.002839 1.0024703
0000d0 31 3f 7f 3f 4c 37 7f 3f c2 81 80 3f a0 5e 80 3f
       0.997058 0.9969375 1.0039599 1.0028877
0000e0 6e 75 80 3f 1b 44 80 3f bb 48 7f 3f 13 05 80 3f
       1.0035837 1.0020784 0.9972035 1.0001549
0000f0 e6 61 80 3f f8 74 80 3f 9c 29 7f 3f ad 63 7f 3f
       1.0029876 1.0035696 0.99672866 0.9976147

module.model.1.model.4.bias f4 [64]
000000 0d 67 3b bb df 8d 10 3b d9 bc 31 bb 99 b7 52 bb
       -0.0028595359 0.0022057218 -0.0027120619 -0.003215289
000010 ca 18 f6 ba a8 af 4e bb 6e a1 08 bb 58 af 31 3b
       -0.0018775698 -0.0031537805 -0.0020848173 0.002711257
000020 c9 9d 24 3b dc 68 4f 3b 84 88 4d 3b c2 1b 34 bb
       0.0025118461 0.0031648194 0.0031361887 -0.0027482365
000030 a3 0b 3c 3b 89 68 e2 3a d5 40 63 3b 9e 87 49 bb
       0.002869346 0.0017273586 0.0034676094 -0.0030751
000040 57 eb 55 bb dc 6e 3e bb 80 03 78 3b e9 56 5d bb
       -0.0032641494 -0.0029057777 0.0037843883 -0.0033773726
000050 a3 d0 3c bb 25 ca 53 3b ae ce 80 3b 95 53 48 bb
       -0.002881088 0.0032316532 0.003930888 -0.0030567397
000060 7e 46 63 bb 37 85 77 3b 3f 9f 50 3b 1a a8 4d 3b
       -0.0034679468 0.0037768611 0.00318332 0.0031380714
000070 7b e1 57 3b 90 b3 54 3b 8e 57 9c b9 74 2e 48 ba
       0.0032940793 0.003245566 -0.00029819872 -0.00076363166
000080 4e 25 16 bb 8c c1 57 3b 90 3e 5e 3b 11 f2 7f 3b
       -0.002291042 0.003292176 0.0033911802 0.0039054195
000090 64 57 41 bb a5 e9 55 bb 47 28 8d ba 32 dc 96 3a
       -0.0029501552 -0.0032640484 -0.001076945 0.0011509715
0000a0 d9 d8 3b bb cb 85 3f 3b de 3f 4d 3b 99 d9 48 3b
       -0.0028663187 0.0029224034 0.0031318585 0.0030647276
0000b0 f5 48 73 3b 19 77 bb 3a 16 e3 53 3b bb 76 4e 3b
       0.0037122343 0.0014302462 0.0032331399 0.0031503874
0000c0 7d e1 2a bb fb 44 75 3b cc 45 38 3b b5 53 3c 3b
       -0.0026074343 0.0037425149 0.0028117774 0.0028736417
0000d0 14 2d 3e bb f4 9f 63 bb be 2b 66 3b 96 01 4e 3b
       -0.0029018568 -0.003473279 0.0035121287 0.003143405
0000e0 97 b2 86 3b 8f 55 4d 3b f9 4b 3e bb a0 75 2f ba
       0.004110645 0.0031331514 -0.0029036982 -0.00066932477
0000f0 4c 3e 7b 3b bb 52 5d 3b 21 72 32 bb b4 c4 1f bb
       0.0038336692 0.0033771235 -0.002722867 -0.0024378719

module.model.1.model.4.running_mean f4 [64]
000000 ec 0f 4e 3f 5e 6f b4 be dc 66 04 bf 55 0c 0c 3c
       0.80493045 -0.35241216 -0.5171945 0.008547862
000010 da 22 8a bd 36 d1 5e 3e e3 91 05 bf b6 53 8c 3d
       -0.06744929 0.21759495 -0.5217573 0.06851904
000020 c8 5c 9f 3e a1 3c 32 3f 6c 0d 93 be 33 3e 90 3d
       0.31125474 0.6962376 -0.28721178 0.070431136
000030 1d 9b 53 be 4d 45 1c 3f 82 86 06 3d ee 12 0c be
       -0.2066464 0.61043245 0.03284312 -0.13679096
000040 cd fb 5c bf 1d 3c 60 3e f7 39 44 3f 98 f8 25 bf
       -0.8632172 0.21897931 0.7665095 -0.6483245
000050 64 94 bc 3e f0 14 d7 3e 14 e8 41 3e b9 58 33 3d
       0.36831963 0.42008162 0.18936187 0.043785784
000060 ff c2 14 3f b7 11 b7 3e 64 47 c7 be 3a 30 b3 3c
       0.5811004 0.35755703 -0.38921654 0.021873582
000070 e4 89 14 bf 16 99 c6 bd ab c9 af 3e 68 93 9c 3e
       -0.58022904 -0.096971676 0.34333548 0.30581212
000080 51 53 1d 3d 7a b4 15 3e ec 28 fd bd 61 1e 1a be
       0.038409535 0.14619628 -0.12361321 -0.15050651
000090 c2 f8 fb be 38 79 8b 3e 56 5c 0d be fb 5a 12 bf
       -0.49213225 0.2724092 -0.13804755 -0.57170075
0000a0 05 88 1b 3d aa 0c 32 be 1b da aa be e5 53 bc 3e
       0.037971515 -0.17387643 -0.33369526 0.36782756
0000b0 74 0c 13 bc 0c f4 88 3e 7c 8a 2f 3e 80 70 31 3f
       -0.008975137 0.26748693 0.17142671 0.69312286
0000c0 6b c3 2e 3e ee 51 c9 be af ea fb 3e 29 cd b4 be
       0.17066734 -0.3932032 0.49202487 -0.35312775
0000d0 7a db 75 3b 40 15 b8 3e a6 15 ab be 88 b7 db be
       0.0037514851 0.35953712 -0.33414954 -0.4291346
0000e0 15 1a fd bd 1f 2b 8e 3e b1 54 e4 3d 7a b5 e5 bd
       -0.123584904 0.27767274 0.11148966 -0.112162545
0000f0 b7 73 df 3d 9b c5 0f bf c1 3a 9f be 4b 9f 8f be
       0.10910743 -0.56160897 -0.31099513 -0.28051218

module.model.1.model.4.running_var f4 [64]
000000 cc 03 cd 3e b1 73 85 3d e1 72 e0 3e c5 d4 32 3d
       0.4004196 0.06516207 0.43837646 0.043659944
000010 b2 6d 61 3f e4 83 10 3f c4 d4 f9 3d 29 b6 c3 3e
       0.88058007 0.5645125 0.12198785 0.38224915
000020 d5 80 89 3e ca ed 65 3e f9 46 8c 3f 9b dd 46 3f
       0.26856104 0.2245399 1.0959159 0.77681893
000030 44 b7 0c 3f e2 9d 5d 3e 41 a8 72 3e 43 97 2c 3f
       0.5496714 0.21642259 0.23696996 0.6741831
000040 b1 f5 b4 3f b3 bd 25 3f cb 3e 25 3f 6a dd 23 3f
       1.4137479 0.64742583 0.6454894 0.64009726
000050 4a 6f 89 3d 51 06 83 3d 66 70 20 3f fe 9c bd 3e
       0.0671068 0.06397689 0.62671506 0.37033838
000060 f6 14 77 3e 81 fe 1a 3f 5f 92 1e 3e 95 06 7c 3e
       0.2412909 0.6054459 0.15485524 0.24611886
000070 0a 49 04 3f a6 14 94 3f 54 d6 51 3e 7d 03 60 3e
       0.5167395 1.1568801 0.20491916 0.2187633
000080 38 1c ec 3e 2a 4b e6 3e 1d 25 35 3f 43 ab 75 3f
       0.4611528 0.4497922 0.70759755 0.9596445
000090 0c a5 b7 3d f1 10 2b 3d cd 8f 0a 3f 98 d3 43 3e
       0.08967027 0.041764203 0.5412567 0.19123685
0000a0 66 7e 32 3f c5 e8 37 3e c3 05 e1 3e 99 24 a2 3e
       0.6972412 0.17959888 0.43949708 0.31668547
0000b0 e1 85 8f 3f 71 3e aa 3e c4 44 26 3f 39 a8 c2 3f
       1.1212732 0.33250764 0.6494868 1.5207587
0000c0 87 5b df 3e 74 2e 93 3d 67 17 fd 3e 8b 9d 95 3d
       0.43624517 0.071865946 0.49431917 0.073054396
0000d0 30 86 4f 3e 8e 80 5f 3e 1f b3 ce 3e 59 3d eb 3d
       0.20266032 0.21826383 0.40371034 0.114863105
0000e0 1d 47 25 3e d8 82 82 3e f3 3a 99 3d 53 bc c0 3e
       0.16140409 0.2549045 0.07481947 0.3764368
0000f0 f6 c3 07 3e 41 31 7e 3e 9e 6f eb 3e e0 70 a2 3e
       0.13258347 0.24823476 0.45983595 0.31726742

module.model.2.model.0.weight f4 [64, 64, 3, 3]
000000 4b 5f 96 bd d5 64 87 bb 42 af 82 3c 62 c2 38 bc
       -0.073423944 -0.004131893 0.01595271 -0.011276813
000010 bc 75 db 3c f3 89 16 bd ac b0 76 bd 1a 91 58 bd
       0.026789539 -0.036752652 -0.06022708 -0.052872755
000020 47 e7 d6 3b 63 55 6f 3d e2 40 83 3d 5e ea f7 bc
       0.006558332 0.05843104 0.0640886 -0.030263122
000030 6b 29 2b 3d d1 25 1f 3c 49 4f 1e 3d cf 3d 2d bc
       0.041787546 0.009713606 0.03864983 -0.010573818
000040 d2 fe 32 bd 55 1f 3d 3d ca c4 0b bc 87 e4 69 3d
       -0.043700047 0.04617246 -0.008530805 0.057102706
000050 ce b6 27 3d ba b1 42 bd d0 ba b2 3c a2 de c6 bc
       0.04094582 -0.047532775 0.021817595 -0.024276081
000060 4d aa 46 bd 0e c6 87 bd 9f ab 81 bc 65 75 76 bd
       -0.048502255 -0.06629573 -0.015828906 -0.06017055
000070 8c 3e 93 3d 5a b7 8d 3c d8 b8 4a bd dd ae 72 bd
       0.07189664 0.017299343 -0.049492687 -0.059248794
000080 b8 d5 16 bd b2 0a 89 ba a7 43 43 bd 60 1f 8c bd
       -0.03682491 -0.0010455458 -0.04767194 -0.06841922
000090 24 fa 2c 3d 88 63 9b bb 37 81 51 3d f9 91 b1 3c
       0.04223074 -0.0047420897 0.05114862 0.02167605
0000a0 e7 5c a0 bb b7 a1 09 bd 99 16 7d bd 9c 06 bd 39
       -0.0048938873 -0.03360149 -0.06178913 0.00036053814
0000b0 eb 6a 5f bd 6e 43 07 3d 5d e3 81 3c 21 69 74 3d
       -0.054545324 0.03302329 0.015855486 0.05967057
0000c0 69 cb 8c 3c 3e 04 f9 3b ed f3 16 bd 2f 22 2d bd
       0.017186837 0.0075993827 -0.03685372 -0.04226893
0000d0 9d 60 74 3d fb b6 ee bc 26 dc 7c 3c 25 b1 0a bd
       0.05966245 -0.029139986 0.015433347 -0.033860344
0000e0 4e d2 b3 bc e6 3b 3b 3c 99 ac 81 3d d5 f9 20 3d
       -0.021950867 0.011427855 0.063317485 0.03930076
0000f0 01 82 b0 bc de 9d 36 bd 07 ef 2b 3d 3f 62 01 bc
       -0.021546366 -0.044584148 0.041976 -0.007896959
000100 37 c4 8e bd 3c 04 1c 3d 1d 3e 56 bd d5 ee 73 bd
       -0.06971019 0.038089976 -0.05230533 -0.05955394
000110 de d2 7d 3d 41 ad 6d bd 08 b5 6b 3d 87 5f a8 3c
       0.061968677 -0.058026556 0.05754569 0.020553363
000120 4d fa f6 3c 12 ac 84 bd ae 95 1d 3d 95 d5 18 3d
       0.03014865 -0.06478132 0.038472824 0.037313063
000130 0c 45 8f 3d c2 20 56 3d 6d 12 8b 3c 67 c5 23 bd
       0.069955915 0.052277334 0.01697656 -0.03998318
000140 fb 35 48 3d 7c c2 68 3d cd a4 8f bc 3e c9 0d ba
       0.048879605 0.0568261 -0.017534638 -0.00054087106
000150 b3 82 f2 bb 9f 52 49 3d 6c a9 e7 3c a7 f7 a0 bc
       -0.0074008345 0.04915106 0.028279029 -0.01964934
000160 e1 15 ee 3c 19 50 f8 bc 25 1e 4e 3d e7 94 87 bd
       0.029063167 -0.030311631 0.050321717 -0.06620198
000170 6f ea 30 3c d5 4e 86 3d e6 c4 7f bd f2 d3 33 bd
       0.010798081 0.06558005 -0.062443636 -0.0439033
000180 85 bb 87 3d bc 3c 48 bd e2 6b d3 3c 5a f8 71 bc
       0.066275634 -0.048886046 0.025808278 -0.014768684
000190 21 da 0b 3c f4 a0 36 bd 2c 35 95 3d 8d 46 8f 3d
       0.008535893 -0.04458709 0.07285532 0.06995878
0001a0 89 bb 1e 3d fa 28 43 bd 60 55 ee bb 65 e1 84 bc
       0.038753066 -0.0476465 -0.007273361 -0.016220758
0001b0 cd b8 47 3d 7d 0e 4f 3d eb 06 24 bd 1e bb 56 bd
       0.048760224 0.050550926 -0.04004566 -0.052424543
0001c0 85 71 81 bd 3f 5c 57 3d 22 0f a2 3b 3d df dd 3c
       -0.0632048 0.052578207 0.0049456516 0.027083987
0001d0 69 83 1c 3c 88 10 8e 3d bc 48 da bc f3 74 3b bd
       0.009552815 0.06936747 -0.02664601 -0.04576583
0001e0 81 bc d3 bc 3c 11 38 bd 40 39 5e bd 12 5c 1d 3d
       -0.025846722 -0.04493831 -0.054253817 0.038417883
0001f0 e3 c7 7a 3d 38 84 54 bd f0 7d 4f bd c7 6e 7f bd
       0.061225783 -0.051883906 -0.050657213 -0.062361505
000200 ab a8 4e 3c 32 1d 7c 3c 3d b7 7c 3d 9c ef 1f 3b
       0.012613456 0.01538782 0.061698187 0.0024404293
000210 62 59 80 bc dd 89 d2 3c 11 23 25 3d 1e 81 43 bd
       -0.015667621 0.025700504 0.040316645 -0.047730558
000220 cf 76 fc 3c 71 9f 7c 3d 15 3a 21 3c 8d 66 91 3c
       0.030818371 0.061675493 0.009840508 0.017749095
000230 20 2c 16 bc dc ed 3c bd c3 7d 0b 3d 2d a2 82 bd
       -0.009165794 -0.046125278 0.034055483 -0.06378589
000240 4c 2f 91 3c c7 69 eb bb df bf 31 bd 94 4b f6 bc
       0.017722748 -0.0071842405 -0.043395873 -0.030065335
000250 6e 03 d4 bc 26 66 20 bd 8a 8d 64 3c 13 45 e7 3c
       -0.025880542 -0.039159916 0.013949761 0.02823118
000260 9e 8e 67 3d 4d 5d 36 bc c7 2e 09 bd 57 dd f1 3c
       0.056532495 -0.011130643 -0.033491876 0.029524488
000270 31 58 19 bd c1 ae 2a 3d 65 a2 80 bd ef 1a 84 3d
       -0.03743762 0.041670565 -0.06280974 0.0645045
000280 a1 47 3c 3c 69 ec bf 3c 6f 29 75 3d 56 83 59 3d
       0.011491687 0.023428159 0.059853967 0.053103767
000290 ea 8b 98 3c 9b 17 01 3d 8d 74 43 3d 24 cd 8a bd
       0.018621404 0.031516653 0.047718573 -0.06777409
0002a0 8a ac 8a bd ad 94 62 3d 2c f1 8a 3d f0 10 0d 3d
       -0.067711905 0.05531757 0.06784281 0.03443998
0002b0 87 64 3d 3d 91 a8 8c 3d a3 8c 3d bc 23 01 e2 3c
       0.04623845 0.06868089 -0.011569175 0.027588433
0002c0 69 a7 06 3d c5 f2 ee 3c 29 53 ef 3a 07 2d 14 bc
       0.0328745 0.029168496 0.0018259037 -0.0090439385
0002d0 1e c4 58 3d aa 6b df 3c 7e be 0b 3c f7 b0 a1 3b
       0.052921407 0.027273018 0.008529304 0.004934426
0002e0 50 74 88 bc c5 65 63 bd cc 13 e2 3c d1 20 82 bc
       -0.016657025 -0.055516977 0.02759733 -0.015884789
0002f0 da 8a fa 3c 26 66 b0 bc 2b a7 8c bc e6 e8 2c bd
       0.030583788 -0.021533083 -0.017169556 -0.042214297
000300 47 1d 7c bd b0 99 83 3c 40 15 d1 bc b2 52 8a 3d
       -0.06155136 0.016064495 -0.025522828 0.06754054
000310 60 4b c5 bc 94 b1 8a bd 8c 8b a4 3c 22 31 40 bc
       -0.024083793 -0.067721516 0.020086072 -0.011730464
000320 c9 9e 2c bd 14 64 1f 3d 86 ae 58 3d 63 4e a2 3c
       -0.042143617 0.0389138 0.052900814 0.019812768
000330 eb 42 a6 3c d3 1e 22 3d d8 c9 8f bd f7 c8 59 bd
       0.02029558 0.039580178 -0.070209205 -0.05317017
000340 96 a5 1f bd 4e 2a 5f bd 59 3c 3f bd 32 7d 83 3d
       -0.038976274 -0.054483704 -0.04668841 0.064203635
000350 ed 10 11 3d 79 f5 f8 3b b6 3f 2b bd b4 cf d3 bc
       0.035416532 0.007597622 -0.041808806 -0.025855877
000360 89 7c ef 3c 2c e9 a1 3c 02 0b 93 3c 2a 0d b4 bc
       0.029234188 0.019764505 0.017949585 -0.021978933
000370 f1 d5 c9 3a 1b 87 11 3d c7 2d 66 3c 85 27 99 3b
       0.0015398843 0.035529237 0.014049 0.0046739005
000380 63 de 6b 3d 09 e3 72 bd 9a 56 7c 3c dc 07 c7 bc
       0.05758513 -0.05929855 0.015401507 -0.02429574
000390 6e 0c 24 3d 74 dc da bb f3 d2 88 bd 18 f1 c0 bc
       0.040050916 -0.006679112 -0.0668086 -0.023552462
0003a0 34 a6 40 3d 9d 1f 82 3d 88 da 8d 3b 08 74 5e bd
       0.047033504 0.06353686 0.0043290295 -0.054309875
0003b0 fe 97 d7 3c 28 88 32 3d 17 3d d8 3c 8b 49 51 bb
       0.026317593 0.04358688 0.026396317 -0.0031934704
0003c0 0a 73 0b 3d 22 39 81 3d 68 05 83 3d a4 67 cc 3c
       0.034045257 0.06309725 0.063975155 0.024951763
0003d0 7b 6e 59 3d d7 41 d1 3c 81 fa 38 3d 5a 8e 06 bc
       0.053083878 0.02554409 0.045160774 -0.00821265
0003e0 e6 3c 43 3d c7 d2 59 bb 2a 50 85 bd b6 84 91 3d
       0.0476655 -0.0033237205 -0.06509431 0.07105391
0003f0 fa dd 81 3d 81 a4 4a 3d 9d 77 81 bc ed 1a 6f bd
       0.06341167 0.04947329 -0.015804106 -0.058375288

module.model.2.model.0.bias f4 [64]
000000 93 c0 78 3a 65 8d 82 3a 7b 7e 83 3a 8a 05 84 3a
       0.0009489145 0.0009960352 0.0010032201 0.0010072452
000010 f0 82 86 3a b5 8b 81 3a ad 1d 89 3a 43 bc 82 3a
       0.0010262411 0.0009883555 0.0010461115 0.0009974319
000020 81 05 80 3a 33 f9 83 3a 21 44 70 3a 9e c0 84 3a
       0.0009767265 0.0010068774 0.00091654254 0.0010128205
000030 b3 72 82 3a 58 e1 80 3a fb 91 83 3a 5f c9 81 3a
       0.0009952396 0.0009832783 0.0010038012 0.0009901932
000040 c9 5f 7a 3a 48 1c 86 3a 16 9a 84 3a 11 cb 82 3a
       0.0009551016 0.0010231817 0.0010116722 0.0009978731
000050 23 16 7b 3a fd 9d 83 3a 86 f5 82 3a 12 10 79 3a
       0.0009578189 0.0010041591 0.0009991385 0.0009500991
000060 bf c6 80 3a 60 de 87 3a 6b b9 83 3a 98 d5 82 3a
       0.0009824856 0.0010365956 0.0010049766 0.0009981869
000070 3d b6 8a 3a 23 75 85 3a 97 38 7b 3a bf 1d 7f 3a
       0.0010582876 0.0010182004 0.00095833227 0.00097319105
000080 59 d0 83 3a 35 46 87 3a 55 27 87 3a 3f 61 84 3a
       0.0010056599 0.0010320606 0.0010311404 0.0010099782
000090 1c 85 87 3a e8 77 88 3a d0 b2 8b 3a 24 83 85 3a
       0.0010339352 0.0010411711 0.0010658149 0.0010186178
0000a0 23 27 82 3a 50 08 89 3a c6 7d 81 3a 99 e0 84 3a
       0.0009929877 0.0010454748 0.0009879402 0.0010137736
0000b0 8f eb 86 3a ce fc 81 3a 17 d3 85 3a 3e da 89 3a
       0.0010293591 0.0009917261 0.0010210004 0.0010517312
0000c0 a0 1e 7e 3a 73 e4 84 3a 62 e4 82 3a d0 63 88 3a
       0.00096938945 0.0010138884 0.0009986276 0.0010405723
0000d0 7c fc 88 3a 13 22 84 3a 3e ce 7f 3a cd a2 87 3a
       0.0010451223 0.0010080956 0.00097582105 0.0010348201
0000e0 b2 e0 85 3a 9c 56 88 3a 1e 90 85 3a 04 51 83 3a
       0.0010214059 0.0010401788 0.0010190045 0.0010018651
0000f0 ed 8b 84 3a 9c 2b 85 3a 7f 34 86 3a 91 65 82 3a
       0.0010112502 0.0010160091 0.0010239034 0.0009948482

module.model.2.model.1.weight f4 [64]
000000 4b 71 80 3f 23 6e 7f 3f 13 f3 7f 3f b9 6b 80 3f
       1.0034574 0.9977743 0.99980277 1.0032874
000010 a8 df 7f 3f 1a 37 80 3f d3 a1 7f 3f 3e 3a 80 3f
       0.9995065 1.0016816 0.998563 1.0017774
000020 4f 3b 80 3f b7 a3 7f 3f 11 06 80 3f ca 59 80 3f
       1.00181 0.99859184 1.0001851 1.0027401
000030 75 4c 7f 3f 3b 99 7f 3f db 37 7f 3f 26 77 7f 3f
       0.9972604 0.99843186 0.99694604 0.9979118
000040 14 46 80 3f eb 7d 7f 3f a6 d1 7f 3f 17 1e 80 3f
       1.0021386 0.9980151 0.99929273 1.0009183
000050 c2 1f 80 3f 4b 4c 80 3f a2 00 80 3f a5 43 80 3f
       1.0009692 1.0023283 1.0000193 1.0020643
000060 6c 26 80 3f bf 46 7f 3f 93 87 7f 3f 6f 41 80 3f
       1.0011725 0.99717325 0.99816245 1.0019969
000070 8c 40 7f 3f 51 10 7f 3f bb 73 80 3f 6d df 7f 3f
       0.99707866 0.9963427 1.0035318 0.99950296
000080 c2 af 7f 3f ce 2d 80 3f 40 3d 7f 3f d3 b7 7f 3f
       0.9987756 1.0013978 0.99702835 0.9988987
000090 1d 3d 80 3f a7 bf 7f 3f 1f 69 7f 3f 90 b9 7f 3f
       1.001865 0.99901813 0.9976978 0.9989252
0000a0 30 60 80 3f 71 6b 7f 3f d8 0f 80 3f d1 7c 7f 3f
       1.0029354 0.9977332 1.0004835 0.9979983
0000b0 53 94 7f 3f b0 10 80 3f 2c 59 80 3f 3f 6c 7f 3f
       0.998357 1.0005093 1.0027213 0.99774545
0000c0 f6 5f 7f 3f 9c 49 7f 3f bb 69 7f 3f 3d 3f 80 3f
       0.997558 0.99721694 0.99770707 1.0019299
0000d0 83 3a 80 3f 26 14 80 3f 5c dc 7f 3f 3b 61 7f 3f
       1.0017856 1.0006149 0.99945617 0.99757737
0000e0 f0 27 7f 3f 4e e9 7f 3f 5c ff 7f 3f 14 48 80 3f
       0.99670315 0.9996537 0.9999902 1.0021996
0000f0 4d b0 7f 3f 2c 57 7f 3f 5a cd 7f 3f 6b 2b 80 3f
       0.9987839 0.9974239 0.99922717 1.001325

module.model.2.model.1.bias f4 [64]
000000 21 af 5a 3b 96 47 06 39 83 95 cc b9 51 12 7c 3b
       0.0033368545 0.00012805904 -0.00039021307 0.0038463066
000010 14 14 59 39 fa a6 ca 3a bf 09 5b b8 07 4a 00 3b
       0.00020702212 0.001546114 -5.2222746e-05 0.0019575374
000020 c7 21 cb 3a 6a 15 4c ba e8 6b 3c 3b 1c 98 34 3b
       0.0015497737 -0.00077851734 0.002875084 0.0027556485
000030 a8 b5 1d bb ec 24 0c bb 57 4b 29 bb 17 82 bd 3a
       -0.0024064574 -0.0021384312 -0.002583226 0.0014458325
000040 28 df 36 3b c0 1a a9 ba 95 76 34 39 58 47 00 ba
       0.0027904008 -0.0012901649 0.00017210313 -0.00048934435
000050 6a 79 fb 3a ef 35 0c 3b 14 8f 2d 3a 25 e1 e5 3a
       0.0019185964 0.0021394452 0.00066207466 0.0017538412
000060 c3 23 c0 3a 42 a5 4b bb 63 f7 e9 ba e0 51 af 3a
       0.0014659095 -0.0031073843 -0.0017850216 0.0013375841
000070 50 8f 42 bb 6a 72 4d bb a8 8c 56 3b b9 05 99 ba
       -0.0029687472 -0.0031348714 0.0032737646 -0.0011674679
000080 75 e4 87 3a 3f e6 46 3a d9 27 74 bb a3 c6 c5 3a
       0.0010367768 0.000758741 -0.0037255196 0.0015089106
000090 d8 fc a4 ba cb fd a1 ba 26 1e 02 bb 04 2d 1f ba
       -0.001258756 -0.0012358961 -0.0019854396 -0.00060720765
0000a0 66 11 42 3b 3c de 1b bb df 61 98 b9 48 5f 71 ba
       0.002961242 -0.0023783585 -0.0002906462 -0.00092076184
0000b0 fa 05 df ba f4 d8 97 3a 95 56 50 3b 67 bc 03 bb
       -0.0017015331 0.0011585043 0.0031789888 -0.002010131
0000c0 e6 14 d6 ba 5b 17 58 bb a4 fc 0e bb ad 49 dc 3a
       -0.0016333133 -0.0032972905 -0.0021818066 0.0016806625
0000d0 86 1f 4c 39 d8 77 7b ba d3 82 ae 3a c6 66 08 bb
       0.000194667 -0.0009592748 0.0013314135 -0.002081321
0000e0 a7 ff ff ba 7c 18 45 ba 5a 1a e1 39 8b 52 c9 3a
       -0.0019531146 -0.0007518602 0.00042934978 0.0015359683
0000f0 79 a4 2e ba 98 c7 10 bb a2 e1 f0 ba f9 25 2d 3b
       -0.00066620816 -0.0022091623 -0.0018377791 0.0026420339

module.model.2.model.1.running_mean f4 [64]
000000 7e 1a d4 bb b7 f9 b7 3d 5c 91 bc 3d 68 aa 84 3d
       -0.0064728847 0.08983176 0.092074126 0.06477815
000010 20 b6 eb be 2e 00 dc be 55 8f 03 bf c7 8c 1a bf
       -0.46037388 -0.42968887 -0.5139058 -0.6037106
000020 9d 25 ab 3d 53 ee e3 be 9d 29 46 3f 02 4a 67 bf
       0.083567835 -0.44517764 0.77407247 -0.903473
000030 12 28 81 be 81 a7 8a be 9a 9d e5 be 6a 21 d2 3d
       -0.25225884 -0.2708092 -0.44846803 0.102602795
000040 c8 94 8a 3d 71 64 10 be 0e 2c 86 be 27 10 1a bf
       0.06766659 -0.14100815 -0.26205486 -0.60180897
000050 da 13 d5 be 37 a6 09 3f 0e d1 04 3f e4 c1 95 bd
       -0.41616708 0.5376925 0.5188149 -0.07312372
000060 d8 ef a2 be 74 cf 85 3c 1a 7a e9 be d1 d4 18 3e
       -0.3182361 0.016334273 -0.4560097 0.14924933
000070 be 4f 9f be a5 3a a1 3e 2c 91 20 bf 45 bc 38 bf
       -0.31115526 0.31490055 -0.62721515 -0.72162277
000080 cf 41 ce 3c e8 92 fc bd 36 21 6a bd 62 c7 ee bc
       0.025177864 -0.12332708 -0.05716058 -0.029147808
000090 fd 11 b0 3e 05 20 d6 be 5b 53 ea be a3 b0 5a 3d
       0.34388724 -0.41821304 -0.4576672 0.05339111
0000a0 9e b8 28 bf 9c fa 8f 3e 4a 8d c2 3e 6b 90 39 3e
       -0.65906703 0.28120887 0.3799842 0.18121497
0000b0 11 96 ac 3e 39 b5 1f 3f ad e1 3b 3f 7a 2b 83 be
       0.33708242 0.623859 0.7339123 -0.25619107
0000c0 b6 dd 80 3d 3f c6 5b be 15 ec 2d 3d 56 6e 28 3f
       0.06292288 -0.21462344 0.042461473 0.6579336
0000d0 46 0a 81 3e cd 0d 0d 3d cd 53 e8 be ef 05 5e 3d
       0.2520315 0.03443699 -0.45376435 0.054204877
0000e0 cc c3 2c 3e d8 af 36 3e cb ba 82 3e d8 32 df 3e
       0.16871566 0.17840517 0.25533137 0.43593478
0000f0 6c 7a 37 bd 3a 2b 9f bf 60 2b 4a 3e 47 09 ad 3e
       -0.044794485 -1.2435067 0.19743109 0.3379614
