output_gd_denoise/ckpt/resnet_epoch4.pth (torch, 641699 bytes, 31 tensors)

module.model.0.weight f4 [64, 1, 1, 1]
00000000: 952c 97be baef 3ebe 958f e7bc 17ba 883e
00000010: fdde 7f3e fc9d 2b3e f931 93be 761c 1d3e
00000020: 1a21 16be f5a5 cb3d e90d 57be 07b2 1cbe
00000030: afe0 863e d6e7 02bb 0cd8 b13b 26e7 88be
00000040: e7b3 a83d 82df b3bd 79f6 343e d3fc d23d
00000050: 209a 8fbc acc2 703e 3d57 8abc 1cfc 863e
00000060: 000b 693d 5e02 403e a7a3 01bb 7a63 2ebe
00000070: 3eab 583d 6b59 77ba e93e 5cbe 4fe0 8dbe
00000080: 8c24 18be ed7c 36be ee6c 02be a118 943d
00000090: 26b5 98be 1e4e 1dbe d93c 063e de5d 69be
000000a0: bc62 e93d adbb 183d f590 9abe e287 713e
000000b0: 6f25 133d 2ca4 1ebe bf5d b6bd 8b97 84be
000000c0: 8293 c13d f7ed 6a3d 1d09 d03d de30 8c3d
000000d0: 2683 7f3e 13d0 2e3e 8544 6dbd c0ed 45be
000000e0: 4632 1e3e 491b b43d cd57 353e 9924 083e
000000f0: 76f2 6abe 9408 733b aa1b 023e 3402 c0bc
-0.295262 -0.18646136 -0.028266707 0.26704475 0.24987407 0.16759485 -0.28749064 0.15342888
-0.14661065 0.09943763 -0.210014 -0.15302287 0.26343295 -0.001997461 0.005427366 -0.26738852
0.08237439 -0.08782865 0.17672147 0.10302129 -0.017529547 0.23511761 -0.016887302 0.2636422
0.056895256 0.18750903 -0.0019781382 -0.17030135 0.052897684 -0.00094356266 -0.21508373 -0.27710196
-0.14857692 -0.17821093 -0.12736866 0.0723126 -0.29825705 -0.1536183 0.13109149 -0.22789714
0.11395785 0.037288357 -0.30188718 0.23586991 0.03592437 -0.15492314 -0.089045994 -0.25896868
0.09451963 0.057355847 0.10157988 0.06845258 0.24952373 0.17071562 -0.057926673 -0.19328976
0.15448865 0.08794267 0.17709275 0.13295211 -0.22944054 0.003708397 0.12705866 -0.02343855

module.model.0.bias f4 [64]
00000000: f9ad a239 5858 c039 5b53 1a3a a1d8 9239
00000010: 4898 193a 95e7 413a aa75 9a39 5100 533a
00000020: acd4 083a 5fbe 633a 0052 e13a c0dc c53a
00000030: 7dbc dd3a d857 8a3a b90e d33a 5d26 a439
00000040: f757 9539 4279 163a c72b b23a ac01 403a
00000050: 1403 bd39 3722 ac3a 66e9 c33a e434 8639
00000060: 2409 b93a 7599 d93a 72ba c83a 6af0 713a
00000070: dbc8 9c3a 89aa c03a 8a53 0c3a abca 713a
00000080: 0deb 5f3a e43f 1a3a 3119 de3a 98a7 323a
00000090: 49fb e439 4537 863a 2b7d 233a 546e ba3a
000000a0: 2520 d039 5bab d23a b2e9 c33a 86d6 d63a
000000b0: 729b da3a 87e2 cb3a c37e 443a 82d8 ca3a
000000c0: 1eb4 c439 d4cf ca3a c5d7 d33a 01e6 403a
000000d0: 9154 ff39 a57c 8039 175d 4c3a 4d5b bc3a
000000e0: 4772 d13a cace c93a 6f85 b139 0883 bb3a
000000f0: 724a dc3a 25e8 e23a 874d 3e3a be09 6a3a
0.00031028668 0.00036686915 0.0005887055 0.0002800869 0.00058591785 0.0007396874 0.00029460836 0.00080490584
0.0005219679 0.00086877303 0.0017190576 0.0015095696 0.0016917136 0.0010554744 0.001610241 0.000313091
0.00028485034 0.0005740115 0.0013593369 0.0007324468 0.00036051183 0.0013132755 0.0014946877 0.00025597878
0.0014117104 0.001660152 0.0015314354 0.0009229245 0.0011961715 0.0014699261 0.00053530245 0.000922362
0.00085418 0.0005884154 0.0016944763 0.00068151345 0.0004367477 0.001023986 0.0006236608 0.0014223554
0.000396968 0.0016072796 0.0014946966 0.0016390837 0.0016678406 0.0015555181 0.00074956956 0.0015475901
0.0003751823 0.0015473315 0.0016162327 0.0007358492 0.00048700397 0.0002450693 0.0007795854 0.0014370471
0.0015979492 0.0015396711 0.00033859487 0.0014306018 0.0016806854 0.0017311616 0.0007259477 0.00089278433

module.model.1.model.0.weight f4 [64, 64, 3, 3]
00000000: fcf7 ecbc f0ba ef3c 5477 42bd 8961 933d
00000010: afdc 033d 1505 7fbd 1afd 90bd 8ffe 1f3c
00000020: f511 2cbd 2480 bf3c 4236 7bbd d515 803d
00000030: 8666 203d 8b2e 77bd ec8a 77bd 1983 31bd
00000040: 4ea7 893d c8f4 8e3d c368 6bbd a575 f7bc
00000050: affd 843c 631a 3ebd 73fc d13c 5643 89bb
00000060: 5cdd 383d 9db8 943d 6c7e 013c 2350 ea3c
00000070: 19cd 5dbd 8011 e73c 318d 2f3c 9267 613c
00000080: 853e fdbc ac26 49bd 5831 ac3c 6b36 433d
00000090: c1e9 433c 57da 903c 653e 5bbc 57b7 10bc
000000a0: 408d 8e3d 87b9 7dbd 895c 883d 3367 923b
000000b0: c2f5 8abd b260 3c3c 4af7 58bd c94f 163b
000000c0: 9c33 223d 6dc2 033d 750c 6abc 0242 7abc
000000d0: dbb2 58bb 1bf2 a7bc 8050 613d a680 463d
000000e0: e856 963c 07fd 413d 8c8f 223c d2cf 8abd
000000f0: 9f62 a8ba f5ad b63c 63e9 ffbb f68c 60bd
00000100: bb5c 11bd c618 8f3d 267e 083d 5cb3 73bd
00000110: 11f4 ed3c a976 403b 2ad1 4bbd 65aa 7b3d
00000120: 79ff 0b3d a186 77bd e7ce 7c3d 0617 f9bb
00000130: 2bce 0cba 9703 3d3b a3cb d03c d22a 71bb
00000140: f9e6 c6bc f9ef 4c3c a504 1dbd adbe 75bd
00000150: e8c5 54bd b0a3 123d 6813 fbbc 4590 923d
00000160: 3f1e 0f3d 23bd 83bd 1744 4a3c bc25 84bd
00000170: b073 75bd 9e14 943d e6e7 49bd 9bf4 f7bc
00000180: 18e8 223d 337a 28bd 27f2 c2bc f13e 4b3d
00000190: ea26 5f3c 106f aabc 6f7f 3ebd dd13 0dbd
000001a0: 65d5 39bc 5606 c3bc 1b9a 7f3d 3719 22bc
000001b0: 9a15 14bd ac1f 383c c70c 153d 8989 7cbc
000001c0: d24d ccbc 897a cdba 286c 87bd a2de e4bc
000001d0: a112 033c 2db7 4b3d 88f2 96bc 0115 0ebb
000001e0: 8355 ea3c d0c6 27bd 2ae9 1e3c 98c8 a1bc
000001f0: 8abb c83c 3d80 293d 29e4 7a3d 03c7 bc3c
00000200: 0570 40bd fe42 653b 055f 6f3c add4 cc3c
00000210: 6cca 6dbd e63f 3d3d 2a37 4d3d e942 98bb
00000220: e52d 8cbd 6e26 6abd b8bd 38bd 4864 83bd
00000230: 60e4 0e3d 986d 68bd dae4 a3bc 5665 b3bc
00000240: a218 fdbc 2481 3c3d 7999 803d a8e8 4ebd
00000250: 2f47 cb3c 0185 05bd eb69 4cbc 6e91 0f3d
00000260: 884a adbc 3a75 69bd 630d 65bc 786a 1bb7
00000270: 344c cc3b 8670 883d 2c6c 57bd 236d ccbc
00000280: bf72 3e3d 8685 f3bc 7e77 603d c081 d4bb
00000290: 9cc9 093d 835a 93bd 8572 883d db6d a7ba
000002a0: 9bdc 0bbd d829 473d 53d8 4f3d 4fd1 313c
000002b0: 4a32 27b9 8b32 cbba a2b9 1fbd 2ba1 813d
000002c0: 84f5 45bd cd94 7abd 04e2 3ebc 8c4c e0bc
000002d0: 73d9 bf3b fc44 7ebd 01ec c43c 1d48 7f3d
000002e0: a641 e43c 7e5e 913d 5a72 7e3d 062a 143d
000002f0: 5855 933c 1df9 b53c 92fc 593d bef8 f9bc
00000300: 9591 07bd dd2b 24bd da0a 88bd 7ae5 4d3c
00000310: d4f6 8abd 33e4 403c 4697 703d bd61 f3bc
00000320: 2f19 c3bc 6da5 6d3c 491f 5bbc 8565 83bd
00000330: e475 593d 8a8d 34bd 240c 6cbc 2534 03bd
00000340: 2755 1b3d 900c e03c 9fcc f33b 8afd 493d
00000350: 3c38 41bd c14d 113d 5444 563d 5f13 373d
00000360: 5427 f1bc 679e 83bc 23c3 7f3c 2893 f93b
00000370: abe2 15bd 2c75 81bd 8d48 283c fb0d 8bbd
00000380: fcf3 ecbc 6b20 03bc c130 2a3a 28b1 033d
00000390: a4f2 a73b 305d 56bd 0183 333d 5c74 ccbc
000003a0: 3ab4 4fbd b024 4cbd b0b4 95bc 9881 05bd
000003b0: 9e27 5ebc d41c ccbb a39b 67bd bc17 073d
000003c0: bc49 7cbd 5631 b43c 6219 063d 1290 24bc
000003d0: 1815 2ebc 0d73 ebbc 1bdf 8a3c fe61 fcbc
000003e0: c0df c53c 03d6 5abd b7bf 01bd af24 483d
000003f0: 0fd0 13bd eb0a 743d a2d4 36bd d160 bcbc
-0.028926842 0.029263943 -0.04747708 0.07196338 0.032192882 -0.062260706 -0.07079525 0.009765281
-0.042009313 0.023376532 -0.06133104 0.06254164 0.039160274 -0.06034712 -0.06043522 -0.043337915
0.06721364 0.06980282 -0.057472955 -0.030207464 0.016234247 -0.046411883 0.025633072 -0.0041889353
0.04513298 0.07261775 0.0079036765 0.028602665 -0.054150674 0.028206587 0.010714815 0.013757603
-0.0309136 -0.049109146 0.021019623 0.04765932 0.011957587 0.017682238 -0.013381575 -0.008832774
0.06960535 -0.06194451 0.06658275 0.0044678687 -0.06785156 0.011497663 -0.05297021 0.002293574
0.0396 0.03216784 -0.014285197 -0.015274527 -0.003306559 -0.020501187 0.05500841 0.048462532
0.018351987 0.047360446 0.00992192 -0.0677792 -0.0012846774 0.022299746 -0.0078098043 -0.05482193
-0.035488825 0.06987147 0.03332343 -0.059497222 0.029047044 0.0029367602 -0.04976002 0.061441798
0.034179185 -0.060431127 0.061720755 -0.0076016216 -0.00053712976 0.002884125 0.025487727 -0.0036799205
-0.024280058 0.012508386 -0.038334507 -0.059996296 -0.05194655 0.035800636 -0.030648902 0.071564235
0.034940954 -0.06432559 0.012345335 -0.0645251 -0.05992478 0.07230495 -0.04929342 -0.030268004
0.039772123 -0.041132163 -0.023797108 0.049620572 0.013620118 -0.020804912 -0.04650825 -0.03444277
-0.011342381 -0.023806732 0.062402826 -0.009893707 -0.036153413 0.01123802 0.03638914 -0.01541365
-0.024939451 -0.0015676777 -0.06612426 -0.02793819 0.008000047 0.049735237 -0.018426195 -0.002168
0.028605228 -0.040961087 0.009699145 -0.01974897 0.024503488 0.041382063 0.061252747 0.023044115
-0.04698183 0.0034982557 0.014610057 0.025003755 -0.058054373 0.046203516 0.050101437 -0.004646648
-0.06844691 -0.057165556 -0.045102805 -0.064156115 0.034885764 -0.05674514 -0.020006586 -0.021898907
-0.030895535 0.046021596 0.062792726 -0.050514847 0.024814216 -0.032597546 -0.012476425 0.035050802
-0.021153703 -0.05699656 -0.013980242 -9.263509e-06 0.00623467 0.06662087 -0.052593395 -0.024954384
0.04649615 -0.029726755 0.054801457 -0.006485194 0.033639535 -0.07194998 0.06662468 -0.0012773828
-0.034145933 0.04862389 0.050743412 0.010853126 -0.00015945095 -0.0015502734 -0.038995393 0.063295685
-0.048329845 -0.061177064 -0.011650566 -0.02738025 0.0058547794 -0.062077507 0.024038317 0.062324632
0.027863335 0.07098101 0.062120773 0.03617289 0.017985031 0.022213513 0.053219385 -0.030514117
-0.033097822 -0.040080894 -0.06642695 0.0125669185 -0.0678536 0.011773157 0.058738016 -0.029709691
-0.02381572 0.014504773 -0.013374158 -0.06415848 0.053090945 -0.044080295 -0.014407191 -0.03203215
0.037923004 0.02734974 0.007440164 0.04931406 -0.04717277 0.035474543 0.052311257 0.044696208
-0.029437698 -0.016066743 0.015610489 0.0076164193 -0.03659312 -0.06321177 0.010271204 -0.06789776
-0.028924935 -0.0080033345 0.000649225 0.03215137 0.0051253606 -0.052334964 0.043826107 -0.024957828
-0.050708987 -0.049839675 -0.018274635 -0.032594293 -0.01355925 -0.0062290225 -0.05654491 0.03298162
-0.061593756 0.021996181 0.03273905 -0.010044115 -0.010625146 -0.028741384 0.016952088 -0.030808445
0.024154544 -0.053426754 -0.031676974 0.04886311 -0.036087092 0.059580725 -0.044636376 -0.022995384

module.model.1.model.0.bias f4 [64]
00000000: 7141 953a 8222 5d3a 492c 923a 5171 753a
00000010: b40f 383a 2dff a03a 5edc 8c3a 2c67 833a
00000020: 595f 763a ecba 993a 12d2 553a 782e 833a
00000030: de0e 943a 6ae2 833a bc3c 843a f247 763a
00000040: 86cb 903a e1fb 833a 532b 943a 1866 903a
00000050: 86ec 8b3a 19cc 803a 41f9 8e3a 21a0 663a
00000060: bce3 963a 9f9f 353a 92a5 803a 6619 963a
00000070: 6c3e 733a 921d 753a dd27 8c3a 295a 823a
00000080: 89e5 593a af0c 743a a4b1 8f3a 8469 813a
00000090: 2047 973a 98e2 583a 5dad 8d3a f060 953a
000000a0: 2b8f 7d3a 320c 973a c8b5 643a 9f56 7e3a
000000b0: 7a93 8a3a 40d9 7b3a 929d 803a ed82 783a
000000c0: 7b67 5a3a 5985 a23a 3faa ad3a 66f1 883a
000000d0: b4d3 583a ba13 683a a244 883a 6808 9e3a
000000e0: b330 9f3a 282c 763a 9197 953a 2004 7f3a
000000f0: 4d19 813a a379 953a c1c8 683a 551f 433a
0.0011387301 0.0008435623 0.0011152114 0.0009362894 0.0007021383 0.001228308 0.0010746827 0.0010025254
0.0009398363 0.0011728681 0.0008156608 0.0010008356 0.0011295935 0.0010061983 0.0010088901 0.0009394876
0.0011046983 0.0010069573 0.0011304416 0.0011016754 0.0010675348 0.0009826451 0.0010908024 0.0008797665
0.0011511962 0.00069283874 0.0009814969 0.0011451661 0.0009279016 0.00093504146 0.0010693033 0.0009945083
0.00083120965 0.00093097513 0.0010962975 0.0009873365 0.0011541583 0.0008273511 0.0010809113 0.0011396687
0.0009672518 0.001152402 0.0008724597 0.00097022386 0.0010572516 0.0009607263 0.0009812585 0.00094799587
0.000833146 0.001239936 0.001324959 0.0010447919 0.00082712923 0.0008853037 0.0010396431 0.0012056949
0.0012145251 0.0009390735 0.0011412968 0.00097280927 0.0009849459 0.0011404048 0.00088800123 0.00074433285

module.model.1.model.1.weight f4 [64]
00000000: fb05 803f ec0e 803f efd6 7f3f 7913 803f
00000010: c816 803f 95dd 7f3f 9917 803f 9416 803f
00000020: d304 803f 47f0 7f3f e0d0 7f3f cb0f 803f
00000030: cef3 7f3f 2ad3 7f3f c9d4 7f3f 1611 803f
00000040: fbfc 7f3f 55d6 7f3f 88e8 7f3f 8605 803f
00000050: ded7 7f3f b3f9 7f3f 4a06 803f 6cd2 7f3f
00000060: 1ae8 7f3f 64e7 7f3f 4a17 803f 080f 803f
00000070: ac13 803f f6cd 7f3f 28e1 7f3f 180e 803f
00000080: 6a12 803f 36f7 7f3f 6214 803f a5de 7f3f
00000090: 6516 803f be09 803f ec14 803f c0d9 7f3f
000000a0: 79f4 7f3f 14de 7f3f 6e08 803f 11d0 7f3f
000000b0: 0518 803f 11e6 7f3f 3816 803f e915 803f
000000c0: 8717 803f 7a16 803f b702 803f 7614 803f
000000d0: 5800 803f ea11 803f d318 803f 50f8 7f3f
000000e0: 73cf 7f3f 62e5 7f3f 65d7 7f3f 44ee 7f3f
000000f0: f607 803f 33e6 7f3f fdf6 7f3f c214 803f
1.0001825 1.0004554 0.9993734 1.0005943 1.0006952 0.9994748 1.0007201 1.000689
1.0001472 0.9997601 0.9992809 1.000482 0.9998139 0.99931586 0.9993406 1.0005214
0.9999539 0.9993642 0.9996419 1.0001686 0.9993876 0.99990386 1.0001919 0.99930453
0.99963534 0.9996245 1.0007107 1.0004587 1.0006003 0.99923646 0.99952936 1.0004301
1.000562 0.9998659 1.000622 0.99949104 1.0006834 1.0002973 1.0006385 0.99941635
0.9998241 0.9994824 1.0002573 0.9992686 1.000733 0.9996043 1.0006781 1.0006686
1.000718 1.0006859 1.0000829 1.0006244 1.0000105 1.0005467 1.0007576 0.9998827
0.9992592 0.99959385 0.9993804 0.9997294 1.000243 0.9996063 0.9998625 1.0006335

module.model.1.model.1.bias f4 [64]
00000000: 02db 95b9 22f1 f738 97fa 24ba 0f5c 163a
00000010: 2f12 07ba bc5c 23ba 47b0 2f3a d53e 353a
00000020: 1829 1c3a 3bb0 203a ea78 35ba afe0 df39
00000030: 0a0b 3bba a2ae 28ba 9bc5 c8b8 b536 373a
00000040: dae2 f139 12c0 2fba f817 ccb9 6b6d b8b9
00000050: b9b0 deb9 0f58 5b39 e0dc e4b9 4415 0aba
00000060: 275e aeb9 f5fe c9b9 b706 3b3a 1f59 eb39
00000070: 8e8b c3b9 89e9 45ba 7a2b 0fba 90ae 323a
00000080: 6d0b c5b9 521e ad38 e8bb feb9 2aaa 09ba
00000090: 46e4 1e3a c18e d0b9 67ec 4939 f9e2 8839
000000a0: f70a fdb9 2a74 3cba f0db 00ba 74a1 0ab9
000000b0: 9cdb a2b9 e1db a639 edae 433a 014b 373a
000000c0: b53d 03ba 1ece 19ba ddcd 22ba 338e 253a
000000d0: 5785 233a 35bc f539 534e 0a3a 915f a9b9
000000e0: 9529 c2b9 f642 a0b9 f5e4 b1b8 59de 38ba
000000f0: 1a3a 3dba 35cc 0fba 3c54 24ba 559a 8139
-0.00028582668 0.00011822792 -0.00062934443 0.00057357637 -0.0005152551 -0.0006231775 0.00067019876 0.0006913965
0.0005957051 0.0006129776 -0.00069226197 0.00042701277 -0.0007135129 -0.0006434714 -9.57355e-05 0.0006989048
0.0004613612 -0.0006704341 -0.0003892777 -0.00035176738 -0.00042474808 0.00020918272 -0.00043652114 -0.0005267451
-0.00033258015 -0.00038527665 0.00071344845 0.00044889093 -0.00037297275 -0.0007549753 -0.00054614956 0.0006816173
-0.0003758328 8.2549304e-05 -0.00048586656 -0.00052514917 0.0006061237 -0.00039779212 0.0001925692 0.0002610905
-0.0004826409 -0.00071889407 -0.0004915586 -0.00013220852 -0.0003106267 0.0003182581 0.00074647256 0.00069920724
-0.00050064485 -0.00058672007 -0.00062104856 0.000631544 0.0006237826 0.00046870267 0.00052759534 -0.00032305394
-0.00037033545 -0.00030567468 -8.482664e-05 -0.00070521754 -0.00072184356 -0.00054854463 -0.00062686554 0.00024719784

module.model.1.model.1.running_mean f4 [64]
00000000: 3a2d 2c3a db84 e739 cde4 5e3b 28e6 293b
00000010: 3070 7bb5 2f26 0b3b ab83 063b a600 a939
00000020: db01 9a3a 8367 0bba e2f6 f23a 8da2 a93a
00000030: 333e 263b 2125 433b e4c5 dd3a 28a8 1eba
00000040: 56b4 a53a fab1 d1b9 f0d2 dc38 b04a b33a
00000050: b726 9c3a 1ee5 f83a 69a4 bf3a 9c61 493a
00000060: fd9b 8f3a ab7c d9b9 cd1b 9e3a 9d95 1f3a
00000070: b1eb 493b c276 f838 0287 083a b24b dd3a
00000080: 17a9 7eba c332 b73a 09e0 173b b0c9 cc3a
00000090: 3133 373b 86da a23a 472c 62b9 f00a 083b
000000a0: bb91 ec3a 34b9 b839 7cbc 3839 a047 df3a
000000b0: 5309 213a 7225 5c3a dd19 073b 776c 533a
000000c0: 929f 2539 dd51 ad39 9d07 e53a 36dc 9439
000000d0: 2b05 383b 045f 4c39 866c 08ba 1293 413a
000000e0: f2ab 113b ad23 093b 1936 053b d23b a83a
000000f0: 34c4 78ba 88d3 b739 cde0 09ba 567e 4aba
0.00065680186 0.00044158738 0.0034010888 0.0025924537 -9.366804e-07 0.0021232476 0.0020525258 0.00032234675
0.001174982 -0.00053178536 0.0018536712 0.0012942121 0.0025366663 0.002977677 0.0016919938 -0.0006052279
0.0012642245 -0.0003999619 0.00010529708 0.0013678875 0.0011913393 0.0018989181 0.0014621142 0.00076820864
0.0010956522 -0.0004148235 0.0012062729 0.0006087663 0.003081065 0.00011847682 0.0005208106 0.0016883521
-0.00097145274 0.001397692 0.0023174307 0.0015624072 0.0027954096 0.0012424744 -0.00021569534 0.0020758472
0.0018048802 0.00035233202 0.00017617823 0.0017034896 0.0006143052 0.0008397914 0.002061478 0.0008065174
0.00015795071 0.00033058124 0.0017473582 0.0002839283 0.0028079252 0.00019490352 -0.00052041595 0.0007384281
0.0022227732 0.0020925805 0.0020326434 0.0012835211 -0.0009489686 0.00035062083 -0.0005259633 -0.0007724514

module.model.1.model.1.running_var f4 [64]
00000000: e6c2 5137 8325 d339 296e 023b 11c9 8138
00000010: 0182 a039 6e40 7d38 1b1b de39 24fc 8739
00000020: 93d9 7839 f250 1b39 8a37 9337 7545 9639
00000030: af8e c139 a1fb b539 490e 0f38 a4af 443a
00000040: f0fe 4a3a c4e8 193a 492a 8c39 06a1 d337
00000050: e433 0a38 408d fb37 aff8 ab37 cf3e 2a39
00000060: 9179 1539 9f47 ea39 af9c 0c38 24e0 2d3a
00000070: 89f7 9938 1dc2 0038 cb9e 9638 d4a0 2c3a
00000080: df30 2b39 be08 3137 3114 bd37 ec7b d137
00000090: 7b7e 5839 64f7 ef37 2dc7 0438 8a52 5939
000000a0: dba7 1a3a 7f22 5d38 cdba 9538 bafe e537
000000b0: c038 8d37 e225 a93a c1e4 d539 12e7 dc39
000000c0: d668 0e37 2670 2038 820f 0439 bcc1 3c39
000000d0: c372 0739 0575 8a39 6424 dc37 5de6 0838
000000e0: f2c4 c737 32af 4239 c7ed 3038 106f 7339
000000f0: 5d62 f639 4cfc b639 24b1 3a39 2070 1939
1.2502749e-05 0.00040273005 0.0019902086 6.188651e-05 0.0003061444 6.0379905e-05 0.00042363335 0.00025937066
0.00023732176 0.00014812106 1.7549628e-05 0.0002866198 0.00036918136 0.00034710488 3.410716e-05 0.0007502979
0.0007743677 0.00058711716 0.00026734386 2.5228142e-05 3.295009e-05 2.9987306e-05 2.050059e-05 0.00016235861
0.00014255034 0.0004468532 3.3524524e-05 0.0006632826 7.3417155e-05 3.069836e-05 7.182135e-05 0.00065852446
0.00016326037 1.0552058e-05 2.2539958e-05 2.4972447e-05 0.00020646483 2.860622e-05 3.165675e-05 0.00020725481
0.0005899646 5.2722633e-05 7.139668e-05 2.7417544e-05 1.6834936e-05 0.0012904967 0.0004079696 0.0004213383
8.488269e-06 3.825142e-05 0.00012594278 0.00018001249 0.00012917355 0.00026408597 2.624299e-05 3.263947e-05
2.3814358e-05 0.00018566547 4.2183117e-05 0.0002321566 0.00046994063 0.0003490172 0.00017804332 0.00014632987

module.model.1.model.3.weight f4 [64, 64, 3, 3]
00000000: f636 5a3d ae88 8fbd 273e 2cbd 58f5 88bd
00000010: 62a5 c73c 558c 80bc c38d 92bc 4c87 923c
00000020: 083e 04bd 0f82 233d e1db 7b3d 7149 d63c
00000030: 3aea 89bc c884 123d c6a3 ffbb a1d7 a0bc
00000040: ffc4 cc3c ae88 a33c 1d5e fb3c 42f1 3f3d
00000050: 5a08 6b3d b598 583d 535c 0d3c e72a 713d
00000060: fce7 cf3c b400 143c 26dc 27bd 3f47 5c3c
00000070: 060a 48bd 590d 163d c5fb 7b3c fa46 683c
00000080: c5b6 17bc 179b 343d 8a36 61bd 72da dbbc
00000090: d01b d93c fb70 10bd 41e6 8c3d 6b27 2d3c
000000a0: 6d3e 023d 8765 4fbd eb38 473c b023 153d
000000b0: aae4 40bd b2dc 823d d3c9 8bbd a4ac d63c
000000c0: 99d7 1d3d 0959 d1bc 5755 0bbc d7fd fc3c
000000d0: 5977 1cbd 0334 ebbc 5877 d6bb acf7 52bd
000000e0: a1db fcbc 6be4 843d 286f 75bc cb90 5e3d
000000f0: 40ed 2bbd eea6 843c f04f 233d 22b2 413c
00000100: d66f 833c ec7e 4a3a 5d08 04bc 4449 e6bc
00000110: e89e 8bbd 72f6 843d ae6a 603d 8728 e93c
00000120: 3c79 43bd 7197 873d 769b 093d abf6 9ebc
00000130: 1659 6bbd 0d44 d2bc e892 04bd 6232 1abd
00000140: 89a0 90bd f1bd 0c3d 332f 4a3c fd74 803d
00000150: cf08 4dbc e306 5abd e9bc 9dbb 2cdc 9cbc
00000160: 3666 94bd ce11 bcbc ece5 6fbd 7cc8 91bd
00000170: f2a3 313d 0102 8ebd f5c7 a73c bad9 023d
00000180: dd9c 0c3c 6d8b 3b3d 9d48 2b3d 1cc2 563d
00000190: 70f6 0ebd 16f3 993a 5597 75bc 716b 83bd
000001a0: c5c1 4ebd 69e8 263d 272e 6ebd 7415 423c
000001b0: a020 39bd 548c 803d 6b3a 8b3b 7fc0 883d
000001c0: c37f 973c 569c 233c 01be 6abc c9e1 303d
000001d0: 98aa e8ba 0b46 783d 8174 573d 0199 453d
000001e0: 8381 8abd d615 2c3d 8a56 dcbb f534 40bd
000001f0: 93ba 6ebd 5d53 703d a673 a9bc d07f d6bc
00000200: 025c ec3c 6843 383d c5fa 9b3c 007b 0e3c
00000210: 9a34 7a3d cc1e 7d3d c12b 43bc 232d 293d
00000220: 9623 33bc 23f5 df3c 62f9 8fbc d91d 2ebd
00000230: 6c59 163d cbc3 abbb 4778 873c fbe1 0fbd
00000240: d208 7a3d 2df5 673d dc2d cebc ea90 2c3d
00000250: 6d73 1e3d c6d8 75bd c003 59bd 7481 51bc
00000260: 5d01 603c 55c8 aebc 17ce 90bd f150 493d
00000270: 9287 5d3d 702e 3cbd 6a05 293d 8518 553c
00000280: d806 cc3c 12a6 fe3c 6497 3cbc e915 213d
00000290: 2950 e53b 6954 f8bc 0494 2cbd 6d5f eebc
000002a0: 465e 13bd 6683 2e3d 86c7 463d 5a1b ebbc
000002b0: 127b 70bd 81b7 d0b9 2290 d6bc 334e e13c
000002c0: fa55 843d ce8c 0c3d dc55 74bd d2b4 293d
000002d0: 6b10 5d3d 9d69 193b c6a4 8d3d 0e56 413d
000002e0: d50e edbc 778f 84bd dc74 b23c 0ab8 afbc
000002f0: 4a8f 8c3d 7b98 4c3d ea12 8fbc 07bf 05bd
00000300: 8133 343d 9ac1 02bd f78b d03c e816 91bc
00000310: 4d9a e3bc 8152 f83c 01d8 8cbd 9428 c2bc
00000320: 5c18 dbbc 9998 87bd b9a9 6fbc 6bdd 6abd
00000330: 01c2 80bd bdc2 3c3d c49f 763d fbec 8d3d
00000340: 1019 1dbd 187c 113d 4544 1e3d 09b7 93ba
00000350: 4b37 7b3c 2b11 7abc 5ac0 9ebc 391a a1bc
00000360: a137 b0bc 03d8 8e3d d80d 443d d354 923d
00000370: 4234 623d 55cb fabc afb1 313c d32c f23c
00000380: 1e41 673c 394f 1e3c 4de7 cb3c 168a e4bc
00000390: 4a88 6abd c306 5e3d 43b8 1cbd ea3a 593d
000003a0: bb78 8b3d b18e d23b d89a 90bd 1398 7d3d
000003b0: 7621 e0ba f024 b53c 5c16 9f3c a28a 073d
000003c0: 005e 753c 28c9 6ebd a18d 3f3d ff36 d83c
000003d0: c1ca 123c 6a74 593d 2334 22bd 55e0 233d
000003e0: 9f78 0e3c 74ba 90bd 36cc 5abd 5d29 643d
000003f0: 2f15 eb3c 595a efbc 12d9 9a3c c6c2 943c
0.05327507 -0.070084915 -0.04205146 -0.066874206 0.024370853 -0.015691916 -0.017889863 0.01788678
-0.03228572 0.039918955 0.06148899 0.026158066 -0.01683532 0.03577116 -0.0078015057 -0.01963407
0.024996279 0.019962635 0.030684525 0.04686094 0.05738101 0.052880008 0.008627969 0.058878805
0.025379173 0.009033371 -0.040981434 0.013444721 -0.048837684 0.036633823 0.015379851 0.014177078
-0.009259884 0.044093218 -0.054983653 -0.026837561 0.02650252 -0.035263997 0.06879855 0.01056848
0.031797815 -0.050633933 0.012159566 0.036410987 -0.04709307 0.063897505 -0.06825604 0.026205368
0.038535688 -0.02555515 -0.008504233 0.030882759 -0.038199756 -0.028711325 -0.0065449886 -0.05150573
-0.030866446 0.0648888 -0.014980115 0.054337304 -0.041974306 0.01619288 0.039871156 0.011822255
0.016044538 0.00077246013 -0.008058635 -0.028111108 -0.06817418 0.06492318 0.054789238 0.028461708
-0.04772304 0.06620682 0.033595525 -0.01940473 -0.057458006 -0.025667215 -0.032366663 -0.037645705
-0.0706187 0.03436083 0.012340355 0.06272314 -0.012514307 -0.053229224 -0.0048137796 -0.019147955
-0.07246058 -0.022957709 -0.05856888 -0.071183175 0.04336924 -0.06933976 0.02048109 0.03194592
0.008582321 0.045787264 0.041817296 0.05243121 -0.03490299 0.0011745419 -0.014989694 -0.06416977
-0.05047776 0.040748987 -0.058149483 0.011845935 -0.04519713 0.062767655 0.0042489073 0.06677341
0.018493539 0.009986004 -0.014327527 0.043184076 -0.0017751036 0.060613673 0.05260134 0.04824162
-0.06762984 0.042013012 -0.0067241834 -0.046925504 -0.0582834 0.05867325 -0.020685028 -0.026183993
0.028852466 0.04498616 0.019040475 0.008696318 0.06108532 0.06179695 -0.011912287 0.04130281
-0.010933777 0.02733857 -0.01757497 -0.042508934 0.036706373 -0.005241846 0.016536845 -0.03512762
0.061043568 0.056630302 -0.025168352 0.04213039 0.038684297 -0.060021184 -0.052982092 -0.012787212
0.0136722 -0.02133576 -0.070705585 0.049149457 0.054084368 -0.045942724 0.04126493 0.013006334
0.024905607 0.031085048 -0.011510704 0.039327536 0.006998081 -0.030313687 -0.042133346 -0.029098237
-0.035978578 0.04260578 0.048530124 -0.028699566 -0.05871112 -0.00039809573 -0.026191775 0.027503109
0.06461711 0.03431397 -0.059652194 0.04143221 0.053970736 0.0023408898 0.06916194 0.04720121
-0.028937737 -0.06472676 0.021784239 -0.021450061 0.06863268 0.049950104 -0.017465074 -0.03265288
0.04399443 -0.031922914 0.025457365 -0.017711118 -0.027783537 0.030312778 -0.06877137 -0.02370099
-0.026745014 -0.066209026 -0.014627867 -0.057340067 -0.06287003 0.046084154 0.060210958 0.06929966
-0.03835398 0.035518736 0.038639326 -0.0011269759 0.015333007 -0.015262882 -0.01937883 -0.019665824
-0.0215109 0.06974795 0.047864765 0.07145085 0.05522562 -0.030614534 0.010845586 0.02956239
0.014114646 0.009662443 0.024890566 -0.027897876 -0.05725888 0.054205667 -0.038261663 0.0530347
0.06810137 0.0064257015 -0.07060784 0.061912607 -0.0017099816 0.02211234 0.019419841 0.033091195
0.014976025 -0.058297306 0.046765927 0.026393412 0.008959473 0.053089537 -0.039600503 0.04000886
0.0086957505 -0.07066813 -0.053417407 0.05570351 0.028696625 -0.029217886 0.018902335 0.018159281

module.model.1.model.3.bias f4 [64]
00000000: 13d5 863a 90df 803a 6134 933a 3f21 9f3a
00000010: 917c 8b3a d87e 843a 24a5 8b3a 2db9 7b3a
00000020: 0e1c 853a 5e51 7d3a a8dc 6e3a 2a26 823a
00000030: 4a00 553a de5e 843a 6010 763a 0800 923a
00000040: accf 8d3a b023 893a a2aa 813a 6ddf 8b3a
00000050: 57ca 843a 20b5 813a 26a4 863a 5458 953a
00000060: 7473 7c3a b450 813a 64d7 743a 95af 803a
00000070: 7f82 803a c162 823a c9e8 863a c50b 923a
00000080: f4eb 7c3a b5da 773a d78e 693a a1de 7b3a
00000090: 0dfc 9b3a c5f9 833a e8f6 7e3a ca27 683a
000000a0: 53e3 803a 6948 6e3a 42fe 6c3a 8b0e 733a
000000b0: 1100 6e3a 1df3 833a 01a4 7b3a 0678 853a
000000c0: 0838 893a b4ec 7f3a b47f 813a db84 7b3a
000000d0: 3182 7e3a 5c51 873a 94f7 653a d2d3 623a
000000e0: 4ce6 853a 2805 7f3a e92a 993a ca71 7c3a
000000f0: f9f5 813a 0292 493a 2987 843a 4ed4 793a
0.001028689 0.0009832252 0.001123082 0.0012140645 0.0010641982 0.0010108603 0.0010654074 0.00096024835
0.0010155456 0.0009663309 0.000911186 0.0009929587 0.0008125348 0.0010099073 0.00093865953 0.0011138925
0.0010819337 0.0010462906 0.0009892771 0.0010671444 0.0010131103 0.0009895898 0.0010272309 0.0011394122
0.0009630241 0.000986597 0.0009339957 0.0009817953 0.0009804516 0.0009947644 0.0010292764 0.0011142424
0.0009648197 0.0009454892 0.00089095294 0.00096080644 0.0011900679 0.0010068944 0.0009726123 0.00088560267
0.0009833373 0.00090897694 0.0009040573 0.00092718814 0.00090789894 0.001006696 0.00095993286 0.0010182864
0.0010468969 0.00097627495 0.0009879977 0.0009594687 0.0009708731 0.001032393 0.0008772549 0.00086527795
0.0010215729 0.00097282464 0.0011685762 0.0009629993 0.0009915225 0.00076892984 0.0010111082 0.0009530232

module.model.1.model.4.weight f4 [64]
00000000: 44ce 7f3f ef09 803f 25cf 7f3f aacc 7f3f
00000010: 2fd9 7f3f 74d1 7f3f 9fd4 7f3f e10f 803f
00000020: a916 803f 0719 803f 2217 803f 9bcd 7f3f
00000030: 2c19 803f 3b17 803f 2619 803f d8cf 7f3f
00000040: 36d0 7f3f 24cf 7f3f 8914 803f dccd 7f3f
00000050: 0dcf 7f3f 0319 803f f0ee 7f3f cbcc 7f3f
00000060: bece 7f3f 0d19 803f e517 803f ee15 803f
00000070: 0119 803f 7c19 803f b2f0 7f3f 8bd7 7f3f
00000080: 77ce 7f3f 960e 803f 8919 803f 1415 803f
00000090: 9fcd 7f3f 1ad6 7f3f fd10 803f 380c 803f
000000a0: cfd3 7f3f 5f17 803f 3215 803f eb18 803f
000000b0: f418 803f 00e5 7f3f 8506 803f 7816 803f
000000c0: 6ed0 7f3f d418 803f 3019 803f 8918 803f
000000d0: d4ce 7f3f 53cd 7f3f 4e18 803f fb18 803f
000000e0: cf0c 803f 8e14 803f 6ed0 7f3f b4e1 7f3f
000000f0: 8a12 803f a119 803f bece 7f3f bed0 7f3f
0.9992411 1.0003031 0.9992545 0.9992167 0.9994077 0.99928975 0.9993381 1.0004846
1.0006915 1.0007638 1.000706 0.99923104 1.0007682 1.0007089 1.0007675 0.9992652
0.9992708 0.99925447 1.0006267 0.9992349 0.9992531 1.0007633 0.99973965 0.99921864
0.9992484 1.0007645 1.0007292 1.0006692 1.000763 1.0007777 0.99976647 0.9993827
0.99924415 1.0004451 1.0007793 1.0006433 0.9992313 0.9993607 1.0005184 1.0003729
0.9993257 1.0007132 1.0006468 1.0007604 1.0007615 0.999588 1.000199 1.0006857
0.99927413 1.0007577 1.0007687 1.0007488 0.9992497 0.99922675 1.0007417 1.0007623
1.0003909 1.0006273 0.99927413 0.9995377 1.0005658 1.0007821 0.9992484 0.9992789

module.model.1.model.4.bias f4 [64]
00000000: 55ce 42ba 79d5 ac39 844b 47ba 6dfd 4bba
00000010: 8da0 3fba a103 30ba 3f50 2dba 9556 e739
00000020: 4a6f ccb8 defb 3a3a b6e4 453a 472c 03ba
00000030: 0a7a 473a bf32 75b9 0df6 473a b04d 46ba
00000040: b80a 4aba bece 49ba 17c3 373a 9e20 4aba
00000050: a7af 48ba 808c 4d3a 1c36 463a 8ddc 4cba
00000060: 860e 4aba 7ef2 4f3a 3f84 383a a009 433a
00000070: 00ff 4b3a b9ea 4e3a 7380 23ba 100f 3bba
00000080: 46c2 45ba 4c45 2a3a 72f6 4e3a 6b24 293a
00000090: 27d8 49ba 7cdc 46ba 1c8c fcb9 07c5 0c3a
000000a0: 8e5c 3fba bf31 433a fc7e 413a f6b8 493a
000000b0: 9dbc 4a3a fbea b7b9 9e8c 4a3a 9e44 413a
000000c0: ac66 4dba 7e4b 4d3a 7313 463a ed63 4b3a
000000d0: 8f57 46ba ebb2 4dba 5ea6 4d3a e69e 483a
000000e0: c49a 403a 1519 4f3a 3508 46ba ca17 21ba
000000f0: 3c0e 4b3a 5836 4d3a e4e4 49ba 9291 40ba
-0.00074312586 0.00032965446 -0.00076025 -0.0007781599 -0.00073099957 -0.0006714408 -0.0006611384 0.00044124262
-9.748207e-05 0.0007132868 0.0007549034 -0.0005003851 0.0007609433 -0.00023383925 0.0007627912 -0.0007564677
-0.00077072857 -0.00076983485 0.00070099666 -0.0007710549 -0.0007655569 0.00078410655 0.00075611635 -0.0007814847
-0.00077078526 0.00079325575 0.0007038749 0.0007440094 0.00077818334 0.0007893253 -0.0006237097 -0.00071357284
-0.00075439026 0.00064953114 0.00078949996 0.0006452265 -0.0007699751 -0.00075859553 -0.00048169575 0.00053699355
-0.00072998635 0.00074460724 0.0007381288 0.0007695103 0.0007733794 -0.00035079554 0.0007726642 0.00073725905
-0.00078354287 0.00078313786 0.0007555999 0.00077587256 -0.0007566148 -0.000784679 0.000784492 0.0007653072
0.00073472806 0.0007900161 -0.00075543235 -0.00061452074 0.00077459565 0.0007828227 -0.0007701649 -0.00073459104

module.model.1.model.4.running_mean f4 [64]
00000000: cb47 553f 1266 6bbe 35f9 e7be 3fc4 08bd
00000010: 66a3 10be 38b1 363e f5ed f4be 6c85 423d
00000020: 6374 733e 5902 0d3f 5008 f1bd ac7c 0f3d
00000030: 5e28 32be 0f47 8f3e 0cd6 89bd dcc3 55bd
00000040: a04c 28bf 5d70 8b3d b018 3b3f 24a6 d4be
00000050: 59d9 983e 316b 863e c66e 1d3e 5071 6fbc
00000060: c5cb c43e b546 163e 29c4 6bbe cba1 59be
00000070: 363a 05bf d174 49be 6fc3 243e 3ba9 513e
00000080: 4851 d33d 17f5 2c3e 3b1c 41be d597 0f3d
00000090: 4ad9 43be 1e34 9a3e eb0c bdbc 0825 bfbe
000000a0: 76a6 1e3e 0a8d f6bd 070f 32be 66ac a83e
000000b0: 76c2 7b3d f55c a03e a5fe 143e 21da 243f
000000c0: 3747 db3b 5f15 92be b5e6 d13e 1b2b 7abe
000000d0: 27f0 2b3e a9bd c53e 805a 8fbe 2f97 e3be
000000e0: cc32 083d d189 a23e c493 023e 24f3 45be
000000f0: 93e7 eb3d b56a dcbe 11a7 12be 8755 32be
0.8331267 -0.22988155 -0.45307317 -0.03339028 -0.14124832 0.17841041 -0.47837797 0.047490522
0.23774867 0.5508171 -0.117691636 0.035031006 -0.17398211 0.279839 -0.06730279 -0.05218874
-0.6574192 0.06808541 0.73084545 -0.41533005 0.29853323 0.26253656 0.15374288 -0.014614418
0.38436714 0.1467541 -0.23024048 -0.21253125 -0.5204195 -0.19673468 0.16090177 0.20474713
0.103182375 0.1689037 -0.18858425 0.035056908 -0.19125858 0.30117887 -0.023077449 -0.3733294
0.15493187 -0.1203862 -0.17388545 0.3294403 0.06146475 0.3132092 0.14550264 0.6439534
0.006691839 -0.2853193 0.40996328 -0.24430506 0.1679083 0.38621262 -0.27998734 -0.4445128
0.03325157 0.3174577 0.1275168 -0.19331032 0.11518779 -0.4305016 -0.14321543 -0.17415439

module.model.1.model.4.running_var f4 [64]
00000000: 6048 e43e 4cfc df3d bc01 e43e c023 363d
00000010: ff05 3b3e ea07 4d3f d8fe 2a3e 80dd 543e
00000020: 3ff0 ee3d a55d 513e d0a5 293f bcba c33d
00000030: 00d9 6d3e d38a fa3e 3161 bc3e 0572 213e
00000040: 6773 813f 90ef 4d3f 6d45 b03e 03a8 8b3e
00000050: d167 d53e d171 513e 80b0 2f3e 3dfa b93e
00000060: eede 043e dce8 e93e 7dd8 033e b0cc 513f
00000070: a25b 753e 8e7a 3e3f 4283 393d 76bc 813d
00000080: 18c7 bb3d 7025 323e 1e71 cc3e b068 213f
00000090: 3c69 7d3d 7c6f 933e 5ec7 a23e 44c8 fb3d
000000a0: 51cf 893e ac70 e43d 508a c93e 2a59 ec3d
000000b0: 346a 7f3e f8c5 9e3d 4d32 823e f7f9 d53e
000000c0: 680d f23e 9491 d73d 23ca 2c3e 6a0d f93d
000000d0: f127 be3e f363 9c3e 272b 233e ddbe fc3d
000000e0: 836d f13e aee4 d83e 49fd 703d f533 c43d
000000f0: 3ef9 a03d 1833 083e b14b f73e d3d1 753e
0.44586468 0.10936794 0.44532573 0.044467688 0.18264006 0.800902 0.16698778 0.2078762
0.11666917 0.20445879 0.66268635 0.09557101 0.2322731 0.4893404 0.367929 0.15766151
1.0113343 0.8044367 0.34427968 0.2727662 0.41680768 0.20453574 0.17157173 0.3632373
0.12975666 0.4568547 0.12875552 0.81952953 0.23960736 0.74405754 0.045291193 0.06334774
0.091688335 0.17397094 0.39930052 0.63050365 0.061867937 0.28795993 0.3179273 0.12294057
0.26915982 0.11154303 0.39363337 0.11540444 0.24942857 0.07752603 0.25429 0.4179227
0.47275853 0.10525814 0.16873984 0.12160762 0.37139848 0.30545005 0.1593443 0.12341092
0.47153863 0.4236197 0.0588353 0.095802225 0.07860039 0.1330074 0.48299935 0.24005823

module.model.2.model.0.weight f4 [64, 64, 3, 3]
00000000: 1dae 91bd 3cca 10bb bff4 8e3c 22cf 17bc
00000010: 8dfe dc3c c34b 11bd dfcf 74bd 90e6 54bd
00000020: 27ea fd3b 3227 693d d118 7e3d 04a2 02bd
00000030: 60c7 2c3d c54e 133c 2484 173d 969d 40bc
00000040: c32e 3bbd 237b 363d ef1a 03bc 1b3e 673d
00000050: 5ed9 223d 75b8 42bd 9cd2 a83c c094 c0bc
00000060: 808d 4bbd ae1d 85bd 249a 89bc 5d12 7fbd
00000070: c2e4 8e3d ddbd 933c c694 4cbd ceaf 6ebd
00000080: dd81 1fbd db25 9939 1981 4abd 95d0 8abd
00000090: 5c1a 343d 4b04 bdbb bfcd 4f3d 6f5d a63c
000000a0: 00e1 b3bb efa4 02bd 9624 7cbd da50 9d39
000000b0: 900b 66bd 1f83 0d3d 2fd0 903c fbfd 7c3d
000000c0: 0546 9b3c f5b0 093c 4d44 10bd 3238 2ebd
000000d0: 0e60 7a3d 3e03 efbc af82 593c 95c8 14bd
000000e0: 3f01 c5bc 96e2 133c d059 7d3d 5c85 173d
000000f0: 802c b5bc eecf 3fbd 7079 253d e652 bfbb
00000100: 82d8 8bbd 044b 223d cb6f 53bd d045 6cbd
00000110: ccad 823d 5ef6 6dbd eb7a 703d de98 ab3c
00000120: 1e0e 063d 86e2 81bd d735 263d 3dda 213d
00000130: d6db 913d 36d9 5f3d f4ce 963c ed5a 1cbd
00000140: fd7d 4d3d cdec 6f3d 6d17 74bc a32a 243a
00000150: d9e9 a2bb 551b 4c3d 3d48 ec3c 46f2 a3bc
00000160: c820 fc3c e524 e5bc dfbb 4c3d a1bf 85bd
00000170: 5964 2e3c 48f6 883d 8d5e 7fbd c313 30bd
00000180: c4e3 873d a33b 49bd e12c de3c a615 82bc
00000190: f6e9 043c 4660 39bd 0cc4 943d 777c 8d3d
000001a0: 822b 193d 66b1 47bd 1fbb 03bc cf86 8abc
000001b0: ffb9 493d 79c2 493d 289b 2abd b863 5dbd
000001c0: 56e5 83bd 8338 573d 03c0 ab3b 0a84 dd3c
000001d0: ca8e 0f3c f379 903d 6771 c4bc dec8 30bd
000001e0: 8978 bebc 5164 34bd f46a 56bd afc5 213d
000001f0: 78e5 803d d46f 4cbd 02cd 47bd 9bba 78bd
00000200: 81fe 5d3c fc86 733c f65c 803d 8621 523b
00000210: 2070 70bc 1506 d23c 7e64 2a3d 1050 3ebd
00000220: b3ab f43c 6a29 803d 4abe 103c c04a 9a3c
00000230: e039 07bc 8783 3dbd f5ee 103d 9491 85bd
00000240: d2a8 853c 920c 10bc de1e 31bd cb8e 01bd
00000250: 61c7 d6bc b3f6 26bd 73a6 4a3c 6ae6 d83c
00000260: 9100 613d 59e5 3ebc 523c 05bd 7aa7 eb3c
00000270: 984e 14bd 74fa 293d 81a1 7fbd 63b7 853d
00000280: d73d 4e3c 021e c83c baee 6c3d dddf 5b3d
00000290: d2bf 8c3c 388c 003d 0150 3d3d 46f0 8ebd
000002a0: 8a05 8ebd cdfa 5c3d e7ff 893d d58d 063d
000002b0: c972 353d c3d4 883d 49f2 5bbc d98b d53c
000002c0: d244 003d ae6a ed3c 474a 0039 3215 34bc
000002d0: 83d2 5b3d 2d6f d33c 2105 113c 8aae 743b
000002e0: a751 85bc 5783 69bd 9a46 e73c b72f 91bc
000002f0: 8645 e93c 7c54 b0bc 8e80 80bc 9892 22bd
00000300: 40cd 79bd 45a2 923c fbdc d5bc 76fd 883d
00000310: 8095 c9bc 60cd 87bd e25d b93c 337f 21bc
00000320: 0b56 27bd 7245 283d 6eed 593d c851 b33c
00000330: 48a7 b63c 2fcb 263d 93ec 8dbd 5157 5ebd
00000340: d701 25bd ded0 5ebd a1ab 40bd 19b2 823d
00000350: bcec 0d3d 6c05 ee3b 0e8a 30bd c176 dbbc
00000360: 5efb fa3c 5da4 a13c 943b 8c3c cde4 b3bc
00000370: 246b 343a f4e4 193d 93b3 643c ce0f 8a3b
00000380: a1bb 683d 1be6 71bd 1350 8b3c 8cb8 bfbc
00000390: 37dc 2c3d e424 d4bb 91fb 85bd 7303 c0bc
000003a0: 16c9 423d 7c98 823d 4979 753b 7510 67bd
000003b0: f88d ce3c 69bf 2b3d 75ca df3c 7240 9ebb
000003c0: 0ec5 0f3d 2c0c 7b3d f172 813d 54cd cf3c
000003d0: 97fd 573d 0a10 dd3c 61c5 353d 613e 03bc
000003e0: ded6 3e3d 099f 41bb 0695 87bd 61af 8f3d
000003f0: 0509 813d fdf6 4a3d d943 8bbc e835 70bd
-0.071132876 -0.0022093197 0.017450688 -0.009265693 0.026976848 -0.035472643 -0.059768554 -0.051977694
0.0077488604 0.056922145 0.062035386 -0.03189279 0.042182326 0.008990948 0.036991253 -0.011756321
-0.045698892 0.044551026 -0.008002027 0.056455713 0.03975808 -0.047539193 0.020608239 -0.02350843
-0.04969549 -0.064998016 -0.016797133 -0.062273372 0.06977226 0.01803487 -0.04994657 -0.05827313
-0.038942207 0.0002921064 -0.049439523 -0.06778065 0.04397045 -0.005768334 0.050733324 0.020308224
-0.0054894686 -0.031895574 -0.06155833 0.00030005613 -0.05616337 0.034548875 0.017677395 0.061765652
0.018954286 0.008404006 -0.035221387 -0.04253406 0.06112676 -0.02917635 0.013275786 -0.036324102
-0.024048446 0.00902619 0.06185323 0.036992416 -0.022115946 -0.046829157 0.040399015 -0.0058387397
-0.06828405 0.03962232 -0.051620286 -0.057683766 0.063808054 -0.058096282 0.058710974 0.020946916
0.032728307 -0.06342034 0.04057869 0.03951477 0.071220085 0.054650508 0.01840923 -0.03817265
0.05016898 0.05857544 -0.014898163 0.0006262457 -0.0049717245 0.049830753 0.02884304 -0.020012986
0.03077735 -0.027971694 0.049983855 -0.06530691 0.010644042 0.066875994 -0.06234603 -0.042987596
0.0663524 -0.04912914 0.02712101 -0.015879463 0.008112421 -0.04525783 0.072639555 0.069085054
0.037395008 -0.048753165 -0.008040219 -0.016909985 0.049249645 0.04925773 -0.041651875 -0.054050177
-0.06440227 0.05254413 0.0052413954 0.0270405 0.008762071 0.0705451 -0.023979856 -0.043160312
-0.023250835 -0.04404098 -0.052348092 0.039495166 0.06293768 -0.049911335 -0.048779495 -0.060724836
0.013549448 0.014863726 0.06267731 0.0032063439 -0.01467517 0.025637666 0.041599743 -0.046463072
0.029867029 0.06257899 0.008834431 0.018834472 -0.008253545 -0.046268012 0.035384137 -0.065219074
0.016315851 -0.0087920595 -0.043242328 -0.03163032 -0.026218118 -0.040762614 0.012368786 0.026477057
0.05493218 -0.01165136 -0.03252823 0.028766382 -0.036207765 0.041498616 -0.06240988 0.06529119
0.012587986 0.024428371 0.057844855 0.05368029 0.01718131 0.031383723 0.046218876 -0.06979422
-0.0693465 0.05395012 0.067382626 0.032850105 0.04429892 0.06681206 -0.0134244645 0.026067661
0.031315632 0.028981533 0.00012234702 -0.0109913815 0.053667556 0.025809849 0.0088513205 0.0037335479
-0.016274286 -0.05701002 0.028231908 -0.017722948 0.028475534 -0.02152466 -0.0156863 -0.039690584
-0.060986757 0.017899642 -0.026106348 0.06688969 -0.02460742 -0.06630969 0.022627775 -0.009856987
-0.04085354 0.041081853 0.053204946 0.021889582 0.022296563 0.040721115 -0.069298886 -0.05428249
-0.040284958 -0.05439841 -0.047038678 0.06381626 0.034649596 0.00726383 -0.04310041 -0.026790025
0.03063744 0.019731695 0.017118253 -0.021959687 0.000688242 0.037571862 0.013958829 0.00421331
0.056819562 -0.059057336 0.017005956 -0.023403428 0.0422022 -0.0064741243 -0.06542123 -0.023439145
0.04755505 0.0637674 0.0037456325 -0.05641218 0.02521418 0.04193059 0.027318219 -0.00482946
0.035100035 0.061290905 0.063207515 0.025366463 0.052732076 0.026985187 0.04437769 -0.008010478
0.046591632 -0.0029544255 -0.06620221 0.07015873 0.063005485 0.049551953 -0.017000126 -0.05864516

module.model.2.model.0.bias f4 [64]
00000000: 499a 803a c9e7 823a 71d0 833a c1a9 843a
00000010: ba12 853a ac92 823a b305 863a eeab 823a
00000020: ef33 813a 06a7 833a 2312 793a 7296 843a
00000030: 7bed 813a 08df 803a 9dc6 823a f579 823a
00000040: 0f4b 7f3a d55e 853a 8659 833a 0fe5 823a
00000050: da82 7f3a 650d 843a 222a 833a f2cd 7e3a
00000060: 2f9d 813a 244f 853a a843 833a 4baf 833a
00000070: 9e43 863a b956 843a 2558 813a f13f 803a
00000080: 1cf7 833a 7f11 873a fb9e 843a c40a 843a
00000090: 73e6 853a ae5a 863a 7297 883a cdcf 843a
000000a0: b4a0 843a f298 863a cfbb 813a 4966 853a
000000b0: 3194 843a 0881 823a 9cae 843a ff02 873a
000000c0: ac8a 803a 6117 833a 4deb 823a d96a 853a
000000d0: c0b0 863a e5e3 833a 736d 813a 2840 863a
000000e0: 4b95 843a b62b 863a a356 843a b03c 833a
000000f0: 3df3 833a 7214 843a aca6 843a 3187 823a
0.0009811606 0.000998729 0.0010056627 0.0010121391 0.0010152676 0.0009961925 0.0010225087 0.0009969452
0.0009857396 0.0010044284 0.0009501299 0.0010115637 0.0009912694 0.0009832093 0.0009977404 0.0009954559
0.00097386626 0.0010175357 0.0010021187 0.0009986478 0.00097469764 0.0010074793 0.0010007063 0.00097200193
0.0009888763 0.001017068 0.001001467 0.0010046748 0.001024354 0.0010096646 0.0009868188 0.0009784681
0.0010068151 0.0010304897 0.0010118181 0.0010074009 0.0010215774 0.0010250413 0.0010421111 0.001013273
0.0010118694 0.001026897 0.000989789 0.0010177578 0.0010114965 0.0009956667 0.0010122838 0.0010300576
0.0009806952 0.0010001474 0.0009988338 0.0010178938 0.0010276064 0.0010062425 0.0009874537 0.0010242509
0.0010115294 0.0010236416 0.001009662 0.0010012593 0.0010066997 0.0010076894 0.0010120473 0.0009958503

module.model.2.model.1.weight f4 [64]
00000000: 2f18 803f 14ce 7f3f 06ef 7f3f 8e11 803f
00000010: e414 803f f40e 803f 91ee 7f3f f90f 803f
00000020: 8415 803f ace5 7f3f 9ae8 7f3f 1c14 803f
00000030: dbd0 7f3f 06f3 7f3f 23d2 7f3f 60d2 7f3f
00000040: b111 803f 7fd3 7f3f ec00 803f 4d0f 803f
00000050: 9311 803f 0d17 803f f0e3 7f3f b812 803f
00000060: 1d0f 803f 85d0 7f3f 89dd 7f3f 8917 803f
00000070: 34d1 7f3f 63ce 7f3f 5414 803f b80a 803f
00000080: d8d7 7f3f 31e3 7f3f 52d9 7f3f 62db 7f3f
00000090: 4717 803f 05eb 7f3f decd 7f3f f6ec 7f3f
000000a0: 0c19 803f 6ad6 7f3f 76f5 7f3f 9dcf 7f3f
000000b0: c8d1 7f3f 1605 803f bd19 803f decc 7f3f
000000c0: ced8 7f3f 57fc 7f3f 0bd8 7f3f d518 803f
000000d0: 9b04 803f ec05 803f 05f3 7f3f a5e3 7f3f
000000e0: 8dd5 7f3f 4cf6 7f3f 250b 803f b318 803f
000000f0: b6de 7f3f 0acf 7f3f f2f3 7f3f 3515 803f
1.000738 0.99923825 0.99974096 1.0005357 1.0006375 1.0004563 0.999734 1.0004874
1.0006566 0.99959826 0.99964297 1.0006137 0.99928063 0.999802 0.9993002 0.9993038
1.0005399 0.9993209 1.0000281 1.000467 1.0005363 1.0007035 0.9995718 1.0005713
1.0004612 0.9992755 0.9994741 1.0007182 0.99928594 0.99924296 1.0006204 1.0003271
0.99938726 0.9995604 0.9994098 0.99944127 1.0007104 0.99967986 0.99923503 0.9997095
1.0007644 0.99936545 0.9998392 0.9992617 0.99929476 1.0001552 1.0007855 0.9992198
0.9994019 0.99994415 0.9993903 1.0007578 1.0001405 1.0001807 0.99980193 0.99956733
0.9993523 0.99985194 1.0003401 1.0007538 0.99949205 0.9992529 0.99981606 1.0006472

module.model.2.model.1.bias f4 [64]
00000000: c28a 383a 4850 e4b9 145e 8eb9 21fe 363a
00000010: 9253 283a 7e7d ce39 5933 6d37 4b64 0f3a
00000020: e54b 273a 475b 5cb9 def6 143a 5243 1e3a
00000030: a00f 1aba 9742 a9b9 7a18 10ba 2a82 5539
00000040: dd29 243a 1193 25ba b50c 4a38 0c91 37b6
00000050: a14b 293a f091 263a 819c 86b9 d5e5 1d3a
00000060: 15b2 9a39 7bb4 44ba d2e0 10ba c5b4 203a
00000070: 6957 34ba 00c9 0fba bb0c 243a 13df 9038
00000080: 6062 6bb9 3afd 14ba 6ac6 43ba 2af6 ae39
00000090: c7f6 ceb9 133a 01ba 4395 48ba 2014 63b9
000000a0: 4d69 483a 97e8 39ba 3f1a deb9 cf97 3bba
000000b0: 497e 35ba b15c ea39 79e4 493a 6909 49ba
000000c0: 4a6b d4b9 f70e b2b9 f42e 16ba b6ba 223a
000000d0: 70f4 d3b9 34ed 0eba aac9 bb39 ffa4 18ba
000000e0: 6edb ccb9 74ac bbb9 6c03 e339 8b3b 2b3a
000000f0: 5414 e8b9 dd98 3fba a8f3 f9b9 17fa 3d3a
0.00070397195 -0.00043547363 -0.00027154444 0.0006980617 0.00064211444 0.0003938488 1.4138256e-05 0.0005469962
0.00063818536 -0.00021014838 0.0005682538 0.0006037253 -0.0005876962 -0.00032283805 -0.00054968114 0.00020361753
0.00062623416 -0.0006316165 4.8172387e-05 -2.7353553e-06 0.0006458108 0.0006354144 -0.00025675076 0.00060233223
0.0002950585 -0.00075037003 -0.0005526665 0.00061304524 -0.000687948 -0.00054849684 0.00062580005 6.908006e-05
-0.00022447994 -0.00056834857 -0.00074682257 0.00033371273 -0.00039475245 -0.0004929613 -0.0007651636 -0.00021655904
0.00076450856 -0.00070918485 -0.00042362695 -0.0007156105 -0.000692342 0.00044701018 0.00077015866 -0.0007668944
-0.00040515728 -0.00033961955 -0.00057290425 0.00062076317 -0.00040427176 -0.0005452216 0.0003581767 -0.0005822926
-0.000390734 -0.00035795907 0.00043299363 0.0006532005 -0.00044265634 -0.000730885 -0.0004767452 0.0007247044

module.model.2.model.1.running_mean f4 [64]
00000000: 791c ae3c 4cf1 493e 3960 363e caea c43d
00000010: 1235 b3be bbef fabe 3d1c c8be 239b c6be
00000020: 0ed1 02bd 6671 dabe 5163 363f aa8c 39bf
00000030: a7cc d7bd c67b 68be c1ad 74be 8c13 d53e
00000040: 93ac fa3d c925 aebb 60cc efbd cc53 0dbf
00000050: 1c04 86be 5fa7 063f c03f fb3e ff13 ad3b
00000060: 6851 67be 3edd 83bd 56ce edbe 642d 283d
00000070: 8d89 9cbe 8f91 ad3e 403a 0fbf dbd7 0dbf
00000080: 8e31 c73d 3fdd 47be 9a71 6ebe f703 003e
00000090: 65ae 1e3e 4b57 f3be d7fc d4be 7d24 df3d
000000a0: 96c4 1abf 6aef 4c3e 1948 d33e d639 a43e
000000b0: 9e63 803e 30ae 173f 200b 0f3f 34e2 41be
000000c0: b969 f83d 2a7c 0cbd bfc0 273e 29b5 0e3f
000000d0: ef31 d13d 12bf 95bd 3b48 dfbe 9826 883d
000000e0: 96a4 0a3e 2e8b 183c 014b d83d 4554 d43e
000000f0: 20b3 863d 8c24 8dbf 541a ca3c 4103 c03e
0.021253811 0.19720954 0.17810144 0.09615095 -0.35001427 -0.49011025 -0.39084044 -0.38790235
-0.03193765 -0.4266464 0.71245295 -0.7248026 -0.10537081 -0.22703466 -0.23894407 0.41616476
0.12239947 -0.005314563 -0.11708903 -0.5520599 -0.2617501 0.5259914 0.49072075 0.0052819247
-0.22589648 -0.06438683 -0.46446484 0.041058913 -0.30573693 0.33900115 -0.5594826 -0.55407494
0.09726249 -0.19517992 -0.23285523 0.12501512 0.15496214 -0.47527537 -0.41599151 0.108956315
-0.60456216 0.20013204 0.41265944 0.32075375 0.25076002 0.59250164 0.5587635 -0.18933946
0.1212954 -0.0342981 0.1638212 0.5574518 0.10214602 -0.073118344 -0.43609795 0.06647986
0.13539347 0.009310527 0.10561181 0.41470543 0.06577134 -1.1026778 0.024670757 0.37502483

module.model.2.model.1.running_var f4 [64]
00000000: ba83 f83e edbe 383e fda7 bb3e 3de3 043f
00000010: 9105 163f 89ac ce3f e83d 833e c5bd 933e
00000020: 99a1 fd3e 2799 633f c84a c13e 1038 3c3f
00000030: ad48 923f 0560 153f e4e1 453f c79e 1a3f
00000040: 5cee 353f 2549 1f3e 95bb 283e f1ca 893e
00000050: 11a4 ba3e 9ead bb3e 78f5 693f 04da 203f
00000060: 7680 a13e 346a a23e c9d1 c53e 6507 253e
00000070: 940f 473e 3509 473f 2464 0f3f 6eb9 153f
00000080: 6c0a 173f 2d14 463e bee9 873f acad 973e
00000090: 22e0 ca3e 4a6b c83e 2fdc f03e 3398 a73e
000000a0: 83a4 fe3e 8af5 283e 8681 8e3f 60ee 4b3e
000000b0: af4d 933e e5f0 b33f 1556 8c3e 7210 b93e
000000c0: 6727 c93e 5101 653f 411d 543f 84ac 323e
000000d0: e0a3 9a3e f24c 543f 7a74 e83e 653e 483e
000000e0: 60bb 963e 71d5 a93e 9831 993e dc3e d73e
000000f0: d4c8 3f3f fde3 303f b54b b13e dbb3 2d3e
0.48538 0.18041582 0.36651602 0.5190924 0.58602244 1.6146404 0.25633168 0.2885572
0.49537352 0.88905567 0.37752366 0.73523045 1.1428429 0.5834964 0.77297807 0.60398525
0.7106683 0.15555246 0.16477807 0.26912645 0.36453298 0.36655897 0.9139018 0.62832665
0.3154332 0.31721652 0.38636616 0.16116102 0.19439536 0.77748424 0.5601218 0.5848607
0.5900028 0.19343634 1.0618207 0.2962469 0.39624125 0.39144355 0.47042987 0.32733306
0.49734887 0.16499916 1.1133277 0.19915152 0.28770205 1.405789 0.27409425 0.3614536
0.39287874 0.89455134 0.8285714 0.17448622 0.30203152 0.8292991 0.45401365 0.19555052
0.2943983 0.33170655 0.2992065 0.42040145 0.74915814 0.6909788 0.34628072 0.1696314
