output_gd_denoise/ckpt/resnet_epoch32.pth (torch, 641695 bytes, 31 tensors)

module.model.0.weight f4 [64, 1, 1, 1]
-0.29526067 -0.18699673 -0.027832193 0.26585752 0.25018704 0.1662217 -0.28768653 0.15256779
-0.14777757 0.099516064 -0.20958064 -0.15446538 0.26324314 -0.0037100012 0.0067956382 -0.26885018
0.08097483 -0.08952111 0.17823413 0.10175037 -0.01710951 0.2358878 -0.016673984 0.2641663
0.05816431 0.18701617 -0.0011584156 -0.1695802 0.052699808 -0.0012285229 -0.21583027 -0.2764754
-0.14979935 -0.1788545 -0.12737331 0.070594914 -0.29711366 -0.15320313 0.13118312 -0.22651309
0.115496255 0.036519397 -0.30258387 0.23582032 0.035020605 -0.1552425 -0.08844502 -0.26020667
0.09429905 0.057403885 0.10145893 0.068483435 0.24859028 0.16945598 -0.05886609 -0.19323081
0.15383658 0.08823918 0.17614263 0.13221192 -0.22969584 0.0035537176 0.1262774 -0.023689901
00000000: 682c 97be 127c 3fbe 5700 e4bc 7a1e 883e
00000010: 8418 803e 0536 2a3e a64b 93be bb3a 1c3e
00000020: 0153 17be 14cf cb3d 4f9c 56be 2c2c 1ebe
00000030: cec7 863e 7e23 73bb f2ad de3b bba6 89be
00000040: 22d6 a53d d856 b7bd 0283 363e 7f62 d03d
00000050: 3e29 8cbc 928c 713e e197 88bc ce40 873e
00000060: b33d 6e3d 2b81 3f3e fad5 97ba 6fa6 2dbe
00000070: c1db 573d 6306 a1ba 9c02 5dbe 2f8e 8dbe
00000080: 0065 19be a225 37be 266e 02be 1194 903d
00000090: 481f 98be 48e1 1cbe de54 063e 0cf3 67be
000000a0: 4d89 ec3d 5d95 153d 46ec 9abe e27a 713e
000000b0: c471 0f3d e4f7 1ebe aa22 b5bd cf39 85be
000000c0: dc1f c13d 5620 6b3d b3c9 cf3d 0b41 8c3d
000000d0: 738e 7e3e de85 2d3e 921d 71bd 4cde 45be
000000e0: 5687 1d3e beb6 b43d bc5e 343e 9062 073e
000000f0: 6335 6bbe 7de5 683b dd4e 013e 5311 c2bc

module.model.0.bias f4 [64]
-0.0011345146 -0.00074557273 0.00060853176 -0.0015399663 0.00033704616 0.0006864757 -0.0007184003 0.0015211116
-0.00044154076 0.0013763171 0.0033438276 0.0024951007 0.0027385873 0.00047602813 0.0032355257 -0.0012908377
-0.0015332152 -0.0002485294 0.0016086246 0.00043900555 -0.0010687585 0.002463392 0.003103672 -0.0014635971
0.0015950106 0.0029045397 0.0024228757 0.0010474409 0.0018238346 0.003439599 -0.00046748604 0.001334861
0.0005095637 0.0006987562 0.0028397013 0.00074295123 -0.0013730315 0.000695097 0.00052610465 0.0025697749
-0.0013293152 0.0021564453 0.0032888725 0.0033274526 0.00324135 0.0027408695 0.0008515507 0.0031941216
-0.0007574869 0.0031227458 0.0031131182 0.0005186651 -0.00059850054 -0.0015844627 0.001563166 0.0019928108
0.0023816538 0.002374772 -0.0013098178 0.0025234648 0.0032394158 0.0033631462 -8.111508e-05 0.0008228455
00000000: feb3 94ba 8a72 43ba e085 1f3a b2d8 c9ba
00000010: 92b5 b039 9bf4 333a 0753 3cba 0960 c73a
00000020: 997e e7b9 8a65 b43a 1e24 5b3b d884 233b
00000030: df79 333b 6a93 f939 1d0b 543b 5331 a9ba
00000040: 2af6 c8ba 0d4d 82b9 7cd8 d23a 542a e639
00000050: 9615 8cba dc70 213b fa66 4b3b 2bd6 bfba
00000060: ad0f d13a 175a 3e3b 1cc9 1e3b 494a 893a
00000070: bc0d ef3a e56a 613b ea18 f5b9 81f6 ae3a
00000080: 3e94 053a bc2c 373a 481a 3a3b 9dc2 423a
00000090: 4bf7 b3ba 2c37 363a 49ea 093a ab69 283b
000000a0: 6b3c aeba 2653 0d3b 208a 573b 6411 5a3b
000000b0: d46c 543b 29a0 333b 9a3a 5f3a 7854 513b
000000c0: 1692 46ba fba6 4c3b 7505 4c3b 07f7 073a
000000d0: b1e4 1cba bfad cfba 26e3 cc3a d199 023b
000000e0: 8515 1c3b 10a2 1b3b 31ae abba b760 253b
000000f0: 614c 543b 3b68 5c3b 541c aab8 3ab4 573a

module.model.1.model.0.weight f4 [64, 64, 3, 3]
-0.02767144 0.030423876 -0.046610583 0.072783805 0.033459123 -0.060911883 -0.06990782 0.0107082445
-0.04121968 0.024632102 -0.060171068 0.06340814 0.039979987 -0.059081044 -0.05908652 -0.04245199
0.068155535 0.07059047 -0.056212686 -0.029040394 0.017099157 -0.045601472 0.026900366 -0.002844485
0.04599321 0.07354667 0.008656052 0.027347444 -0.05531082 0.02734085 0.009891843 0.012490633
-0.03226239 -0.050000727 0.020073919 0.04686537 0.010703135 0.016523505 -0.014247403 -0.009655261
0.06833921 -0.06329358 0.06569051 0.003522486 -0.06864691 0.010242874 -0.054129664 0.001426285
0.038775682 0.030900486 -0.015635813 -0.016170278 -0.00425529 -0.021302449 0.05626388 0.049622573
0.01921859 0.048181 0.011188253 -0.06643037 -0.00039723708 0.023242759 -0.007020151 -0.056076307
-0.036647417 0.06900418 0.03249922 -0.060764108 0.027696127 0.0020401427 -0.05070889 0.06063918
0.035434637 -0.059271436 0.06258635 -0.006783282 0.0007281766 0.0042318637 0.026371062 -0.0027401457
-0.023496479 0.011255471 -0.039491083 -0.060863547 -0.05277071 0.03453469 -0.032000113 0.070665166
0.03399146 -0.06513202 0.01360289 -0.06336248 -0.059060477 0.07312563 -0.0480264 -0.028921612
0.04065392 -0.040193133 -0.023019413 0.050877377 0.01478136 -0.019942401 -0.045689914 -0.033177357
-0.009997523 -0.022928566 0.0633381 -0.009122054 -0.03740698 0.010080083 0.03552145 -0.01623611
-0.02620573 -0.0029184592 -0.06701966 -0.028886463 0.0071975165 0.05097886 -0.017236782 -0.0015617271
0.029099215 -0.039768267 0.010814823 -0.019966828 0.024700286 0.04049293 0.060086552 0.021982076
-0.04789957 0.0026596994 0.013359732 0.023572473 -0.059158247 0.045096498 0.048931684 -0.003391302
-0.06728714 -0.056299258 -0.044282652 -0.0628901 0.03623442 -0.0558581 -0.019063886 -0.021109711
-0.03215067 0.044860985 0.06192766 -0.051341027 0.023546029 -0.03394658 -0.013372948 0.03410169
-0.021952795 -0.055740323 -0.012819657 0.00085573975 0.007051486 0.06788597 -0.05124647 -0.024074912
0.047433916 -0.028948566 0.053548872 -0.0076419483 0.032772914 -0.0727718 0.06535935 -0.002627553
-0.035041653 0.04767596 0.049940627 0.00959873 -0.0013185483 -0.0024179688 -0.039821018 0.062027946
-0.04968132 -0.062076185 -0.0126017425 -0.028186554 0.007118156 -0.06090838 0.024914304 0.063134
0.029133007 0.07233377 0.062980555 0.0371069 0.018749524 0.020959828 0.052061576 -0.03138097
-0.03392002 -0.04134688 -0.067777306 0.011672237 -0.06880111 0.010972393 0.060013536 -0.028522596
-0.022973245 0.015309419 -0.012104731 -0.062840134 0.05388578 -0.04319693 -0.013784077 -0.033286795
0.036763847 0.02648469 0.006618107 0.048047975 -0.048521027 0.034583926 0.051367 0.043904055
-0.030684795 -0.017217038 0.014741814 0.006793748 -0.0378566 -0.06456564 0.009361004 -0.06885485
-0.029753095 -0.009256621 -0.0005085928 0.031282764 0.004301845 -0.05360158 0.042474337 -0.025856188
-0.051659822 -0.050647493 -0.01697719 -0.03127909 -0.013021 -0.0056743515 -0.055257928 0.03402641
-0.06202024 0.022049613 0.031484023 -0.00878733 -0.009463436 -0.027875695 0.017772378 -0.029541658
0.025502188 -0.052543163 -0.030736258 0.049645834 -0.037337534 0.058425885 -0.045507032 -0.023823336
00000000: 37af e2bc 7e3b f93c bdea 3ebd ad0f 953d
00000010: 6f0c 093d bd7e 79bd d52b 8fbd a271 2f3c
00000020: f8d5 28bd 43c9 c93c f075 76bd 20dc 813d
00000030: 0ec2 233d f7fe 71bd b504 72bd 23e2 2dbd
00000040: 2195 8b3d bd91 903d 463f 66bd 1fe6 edbc
00000050: 8813 8c3c 9cc8 3abd 285e dc3c 8a6a 3abb
00000060: 6063 3c3d a39f 963d 1dd2 0d3c bf07 e03c
00000070: 998d 62bd ebf9 df3c 6611 223c 83a5 4c3c
00000080: 9125 04bd 90cd 4cbd 0f72 a43c e7f5 3f3d
00000090: 345c 2f3c 4d5c 873c f06d 69bc 1a31 1ebc
000000a0: 6df5 8b3d 11a0 81bd bf88 863d 82d9 663b
000000b0: c096 8cbd bad1 273c 11b7 5dbd 2ff2 ba3a
000000c0: 40d3 1e3d 0423 fd3c ad16 80bc 8877 84bc
000000d0: f66f 8bbb 7982 aebc f474 663d 0a41 4b3d
000000e0: 4e70 9d3c 7159 453d ef4e 373c a50c 88bd
000000f0: 4244 d0b9 9967 be3c 4b09 e6bb 45b0 65bd
00000100: 9a1b 16bd 1052 8d3d e71d 053d c9e3 78bd
00000110: fde2 e23c eab3 053b 20b4 4fbd ca60 783d
00000120: e923 113d 9bc6 72bd 462d 803d 4b46 debb
00000130: 1be3 3e3a 72ab 8a3b 2008 d83c 0494 33bb
00000140: b07b c0bc de68 383c 67c1 21bd 0e4c 79bd
00000150: 1a26 58bd 3f74 0d3d 8d12 03bd e6b8 903d
00000160: a13a 0b3d f063 85bd a8de 5e3c 30c4 81bd
00000170: 66e9 71bd e4c2 953d 55b7 44bd 04ed ecbc
00000180: ba84 263d 8ea1 24bd 3593 bcbc cc64 503d
00000190: 842d 723c 3f5e a3bc 5925 3bbd fbe4 07bd
000001a0: a7cc 23bc b0d4 bbbc 68b7 813d ab74 15bc
000001b0: 1038 19bd ef26 253c f17e 113d 9701 85bc
000001c0: 66ad d6bc 9f43 3fbb 9a41 89bd 4ea3 ecbc
000001d0: 25d9 eb3b 36cf 503d 2734 8dbc deb2 ccba
000001e0: 7a61 ee3c 0de4 22bd a830 313c 7991 a3bc
000001f0: 4158 ca3c eadb 253d 511d 763d c113 b43c
00000200: 5732 44bd 5a4e 2e3b c7e2 5a3c 0f1b c13c
00000210: eb4f 72bd 1bb7 383d 976c 483d 9b40 5ebb
00000220: d7cd 89bd 0d9a 66bd ba61 35bd 86cc 80bd
00000230: 8b6a 143d 77cb 64bd de2b 9cbc 46ee acbc
00000240: 6cb0 03bd 27c0 373d dca7 7d3d f84a 52bd
00000250: 9ae3 c03c 920b 0bbd 361a 5bbc 37ae 0b3d
00000260: 59d6 b3bc f74f 64bd 8a09 52bc b953 603a
00000270: 2710 e73b cd07 8b3d d2e7 51bd c038 c5bc
00000280: 114a 423d 8b25 edbc 1056 5b3d 4f69 fabb
00000290: e43c 063d 6209 95bd 1fdb 853d 0633 2cbb
000002a0: d687 0fbd de47 433d 8b8e 4c3d fe43 1d3c
000002b0: 24d3 acba c976 1ebb 5d1b 23bd 0411 7e3d
000002c0: a47e 4bbd 9943 7ebd 8a77 4ebc 7de7 e6bc
000002d0: 6c3f e93b 117b 79bd 1519 cc3c 664c 813d
000002e0: 58a8 ee3c ba23 943d f3fb 803d 68fd 173d
000002f0: 9a98 993c f2b3 ab3c 853e 553d 5589 00bd
00000300: b8ef 0abd 595b 29bd d4ce 8abd e93c 3f3c
00000310: 99e7 8cbd 8dc5 333c c1d0 753d 38a8 e9bc
00000320: 6332 bcbc 5bd4 7a3c ec52 46bc 54b2 80bd
00000330: 56b7 5c3d 44ef 30bd 9cd6 61bc bc57 08bd
00000340: b095 163d 6cf6 d83c b5dc d83b f4cd 443d
00000350: fcbd 46bd e0a7 0d3d 3466 523d bdd4 333d
00000360: ae5e fbbc bf0a 8dbc a687 713c 179e de3b
00000370: 860f 1bbd fe3a 84bd e65e 193c c603 8dbd
00000380: c3bc f3bc 15a9 17bc 1653 05ba 5b22 003d
00000390: 7ef6 8c3b 558d 5bbd 92f9 2d3d 5bd0 d3bc
000003a0: 4099 53bd bf73 4fbd bf13 8bbc 811e 00bd
000003b0: 0856 55bc e9ef b9bb 2356 62bd 475f 0b3d
000003c0: ef08 7ebd 64a1 b43c 64f5 003d bcf8 0fbc
000003d0: 870c 1bbc 925b e4bc 6197 913c 5901 f2bc
000003e0: f7e9 d03c 8037 57bd 9bca fbbc 6e59 4b3d
000003f0: 3eef 18bd fb4f 6f3d 9565 3abd 2829 c3bc

module.model.1.model.0.bias f4 [64]
0.0013680842 0.0007240365 0.0012660685 0.0008410484 0.00037619565 0.0014463727 0.0011300199 0.0010256063
0.00089423463 0.0013668562 0.00055263395 0.0009700318 0.0012830889 0.0010456806 0.0010357152 0.000932865
0.0012326562 0.0011430177 0.0012723624 0.0012576164 0.0011781746 0.0010107806 0.001218951 0.0007339051
0.0013022367 0.0004040965 0.0008764238 0.0012395361 0.0010513172 0.0009235339 0.0012103462 0.0008584543
0.0003706775 0.0008414681 0.0010525178 0.0009615067 0.0012994483 0.0006314348 0.0010605375 0.001229277
0.00080901664 0.0012969524 0.00069508713 0.000996598 0.0011056259 0.0011178046 0.00082280894 0.0008292402
0.00074387336 0.0015779033 0.0017554391 0.0011417256 0.00052592234 0.00072204636 0.0011665735 0.0014901719
0.0015226449 0.0007687629 0.0013568333 0.0010021093 0.0010058599 0.0012248437 0.00077154685 0.00035017866
00000000: 4a51 b33a 44cd 3d3a 36f2 a53a cd79 5c3a
00000010: 203c c539 3794 bd3a 2d1d 943a a36d 863a
00000020: 126b 6a3a 1528 b33a a3de 103a bb49 7e3a
00000030: 522d a83a 380f 893a d6c0 873a 838b 743a
00000040: 1491 a13a 4fd1 953a 66c5 a63a 9bd6 a43a
00000050: fb6c 9a3a 2b7c 843a 35c5 9f3a 8a63 403a
00000060: d0af aa3a eadc d339 cebf 653a ee77 a23a
00000070: 5acc 893a 5019 723a 7ba4 9e3a e509 613a
00000080: 7e57 c239 f895 5c3a a3f4 893a 9f0d 7c3a
00000090: 4052 aa3a df86 253a bc01 8b3a b11f a13a
000000a0: 3014 543a 80fe a93a 8236 363a 48a0 823a
000000b0: a6ea 903a 4c83 923a c6b1 573a 5e61 593a
000000c0: 7f00 433a a6d1 ce3a c316 e63a f4a5 953a
000000d0: 0dde 093a b647 3d3a b6e7 983a df51 c33a
000000e0: 7c93 c73a ce86 493a c5d7 b13a 3559 833a
000000f0: 0fd7 833a ef8a a03a a241 4a3a 2f98 b739

module.model.1.model.1.weight f4 [64]
0.99938244 1.0014048 0.9982314 1.0013788 1.0021656 0.99937373 1.0021293 1.0025147
1.0009127 0.9986926 0.9979933 1.001356 0.999699 0.9982993 0.9974051 1.0007268
0.9989419 0.99819106 1.0002707 1.0007077 0.9978733 0.998799 0.99927413 0.9983596
0.9987444 0.9993245 1.0018501 1.0009006 1.0018518 0.99756926 0.9987847 1.0021063
1.0026635 0.99819213 1.0018295 0.9990433 1.002356 0.99991345 1.0018051 0.9984712
1.0001445 0.9984604 1.001398 0.9974205 1.0018488 0.9977614 1.0015632 1.0017219
1.0015363 1.001741 0.9996418 1.0011271 0.9988255 1.001428 1.0029753 0.9996867
0.9980219 1.0005335 0.9982985 0.99913174 1.0012336 0.99941516 0.9995382 1.0018822
00000000: 87d7 7f3f 082e 803f 188c 7f3f 2e2d 803f
00000010: f646 803f f5d6 7f3f c645 803f 6752 803f
00000020: e81d 803f 51aa 7f3f 7d7c 7f3f 6f2c 803f
00000030: 46ec 7f3f 8b90 7f3f f155 7f3f d117 803f
00000040: a8ba 7f3f 7389 7f3f df08 803f 3117 803f
00000050: a074 7f3f 4bb1 7f3f 6ed0 7f3f 7f94 7f3f
00000060: b7ad 7f3f bbd3 7f3f a03c 803f 831d 803f
00000070: ae3c 803f b360 7f3f 5bb0 7f3f 0545 803f
00000080: 4757 803f 8589 7f3f f33b 803f 4dc1 7f3f
00000090: 344d 803f 54fa 7f3f 263b 803f cf9b 7f3f
000000a0: bc04 803f 1a9b 7f3f cf2d 803f f356 7f3f
000000b0: 953c 803f 4b6d 7f3f 3933 803f 6c38 803f
000000c0: 5732 803f 0d39 803f 86e8 7f3f ef24 803f
000000d0: 07b3 7f3f cb2e 803f 7f61 803f 78eb 7f3f
000000e0: 5d7e 7f3f 7b11 803f 7e90 7f3f 19c7 7f3f
000000f0: 6c28 803f acd9 7f3f bce1 7f3f ad3d 803f

module.model.1.model.1.bias f4 [64]
-0.0015571599 0.00017295993 -0.0015211672 0.0015768701 -0.00062255724 -0.0010821122 0.0012109475 0.0020476244
0.0020201534 0.0017123127 -0.0018858073 0.0009103122 -0.001949849 -0.0010572484 -0.0004515435 0.001642711
0.00021803279 -0.0017873393 0.0008714524 -4.1023915e-05 -0.0011339764 -0.0004997277 -0.002421285 -0.00096027635
-0.0019792214 -0.00022930428 0.002245715 0.00071887614 -0.00083701673 -0.0027220303 -0.0012042805 0.0027716544
0.0006750778 -0.0011834156 -0.0014641349 0.00022263474 0.0025290358 0.00019147966 0.0011526737 -0.0001897172
-0.00071402185 -0.0016953436 -0.00016726635 -0.00059171935 -0.00076829374 -0.0010464076 0.0024713792 0.0018338218
-0.0012982506 -0.001364179 -0.0020371198 0.0012432624 0.0010208209 0.0016943633 0.0020820606 -0.0002608446
-0.001229525 0.001107623 0.0009420768 -0.0022257594 -0.0021601254 -0.0013954592 -0.0011399185 0.0006387059
00000000: 9e19 ccba 945c 3539 e761 c7ba fbae ce3a
00000010: 1c33 23ba a9d5 8dba a8b8 9e3a 7031 063b
00000020: 8d64 043b ae6f e03a 312d f7ba 05a2 6e3a
00000030: 1392 ffba 5f93 8aba 25bd ecb9 3c50 d73a
00000040: bb9f 6439 2845 eaba 2e72 643a 1811 2cb8
00000050: efa1 94ba 2900 03ba 6cae 1ebb 0ebb 7bba
00000060: d3b5 01bb 6671 70b9 d82c 133b f672 3c3a
00000070: 3e6b 5bba 1764 32bb f3d8 9dba a5a4 353b
00000080: b4f7 303a d71c 9bba 37e8 bfba 0f73 6939
00000090: 2ebe 253b eec7 4839 5015 973a d3ee 46b9
000000a0: 322d 3bba 4b36 deba 3864 2fb9 9d1d 1bba
000000b0: 5267 49ba 9d27 89ba ddf6 213b d95c f03a
000000c0: 102a aaba 40ce b2ba 3381 05bb f7f4 a23a
000000d0: 11cd 853a 6615 de3a 2e73 083b f8c1 88b9
000000e0: 0328 a1ba a92d 913a b4f5 763a 0cde 11bb
000000f0: e490 0dbb d7e7 b6ba 5169 95ba d46e 273a

module.model.1.model.1.running_mean f4 [64]
0.0005908659 0.00032877407 0.005500398 0.004870823 -0.0009173066 0.0018075466 0.0005782073 -0.00016509279
0.0029261487 -0.00048236846 0.0022145915 0.00095006876 0.003849978 0.0052043195 0.0020308339 0.00044966087
0.0022430213 -0.00058333215 0.00133453 0.0018722677 0.00070751866 0.0016390589 -0.00019465019 0.0011602793
0.00113321 -0.0023258969 0.0012853877 0.00039229286 0.0038377726 0.0007913556 -0.000855257 0.0023117615
-0.0021775714 0.0026087675 0.003474164 0.0017166298 0.0035997091 0.0005043972 0.0014734586 0.0031308797
0.0029237191 0.0021157495 -0.0003682516 0.0014013796 0.00045619314 0.0005663947 0.0028970293 0.0007881972
-0.0022808663 -0.0014159726 0.001876946 -0.0012104283 0.0049568126 -0.0019041843 -0.002221967 -0.00013377059
0.0032346353 0.0011109629 0.003934553 0.0022825554 -0.00315947 0.0012570848 -0.00047952574 -0.0024787467
00000000: 57e4 1a3a 4f5f ac39 af3c b43b 6d9b 9f3b
00000010: 6777 70ba 33eb ec3a d692 173a c21c 2db9
00000020: a1c4 3f3b 66e6 fcb9 ae22 113b 090e 793a
00000030: ea4f 7c3b ff88 aa3b bd17 053b 76c0 eb39
00000040: a7ff 123b c2ea 18ba 65eb ae3a e166 f53a
00000050: c678 393a b1d5 d63a 031b 4cb9 8314 983a
00000060: 3888 943a 136e 18bb 747a a83a a8ac cd39
00000070: 2483 7b3b fa72 4f3a 5333 60ba ec80 173b
00000080: 96b5 0ebb dbf7 2a3b cdae 633b 8a00 e13a
00000090: 19e9 6b3b 8639 043a 1121 c13a 722f 4d3b
000000a0: de9b 3f3b 63a8 0a3b e511 c1b9 7fae b73a
000000b0: 352d ef39 1b7a 143a 16dc 3d3b 059f 4e3a
000000c0: 967a 15bb 2898 b9ba db03 f63a 3ca7 9eba
000000d0: c26c a23b d395 f9ba 6c9e 11bb c544 0cb9
000000e0: 2dfc 533b bb9d 913a 6ced 803b ed96 153b
000000f0: 1c0f 4fbb c4c4 a43a db68 fbb9 7872 22bb

module.model.1.model.1.running_var f4 [64]
5.5605044e-05 0.00066355924 0.002043743 0.0002850465 0.00044490906 0.00025844292 0.00029193243 0.00056783867
0.00022740471 0.00018589488 2.580109e-05 0.0003579905 0.00020636269 0.00019961782 0.00012896777 0.0009868416
0.00068731455 0.00056145724 0.0008638592 4.7481667e-06 0.00013533879 6.708661e-05 1.0986252e-05 0.00031758443
0.00036581437 0.00069678586 8.150494e-05 0.0009176431 0.00033767326 0.00017398014 9.057501e-05 0.0012205469
0.00026371406 9.298964e-06 2.637477e-05 0.00010576393 0.00025902406 2.4090492e-05 3.768104e-05 0.00023838531
0.0013237054 2.7541708e-05 0.00019096986 0.00011065483 9.433617e-06 0.0013393835 0.00071691634 0.0009719919
6.237542e-05 8.5303516e-05 0.00045948575 0.00030231316 4.797131e-05 0.0002179154 0.00014936388 3.0303583e-05
0.000112937865 0.0004027804 0.00031597086 0.0005401132 0.0006883608 0.00025288618 0.00017452017 0.00024665313
00000000: 7639 6938 b5f2 2d3a 51f0 053b 4b72 9539
00000010: af42 e939 9f7f 8739 820e 9939 02db 143a
00000020: 7d73 6e39 c7ec 4239 6b6f d837 acb0 bb39
00000030: 1063 5839 8050 5139 863b 0739 e958 813a
00000040: e62c 343a c22e 133a 9c74 623a 7152 9f36
00000050: bbe9 0d39 d9b0 8c38 9851 3837 7681 a639
00000060: c6ca bf39 82a8 363a a2ed aa38 fc8d 703a
00000070: bd09 b139 706e 3639 17f3 bd38 c2fa 9f3a
00000080: 1a43 8a39 bf02 1c37 633f dd37 94cd dd38
00000090: 9fcd 8739 f015 ca37 b50b 1e38 12f7 7939
000000a0: 2f80 ad3a 5e09 e737 153f 4839 5c0f e838
000000b0: 1445 1e37 418e af3a 71ef 3b3a 46cd 7e3a
000000c0: 8ccf 8238 fae4 b238 22e7 f039 c97f 9e39
000000d0: cd34 4938 3880 6439 909e 1c39 7334 fe37
000000e0: 0ed9 ec38 452c d339 e4a8 a539 6296 0d3a
000000f0: 1c73 343a cf95 8439 67ff 3639 3951 8139

module.model.1.model.3.weight f4 [64, 64, 3, 3]
0.052534953 -0.07082316 -0.042489108 -0.06753452 0.024260174 -0.016517116 -0.018584333 0.017138049
-0.032653496 0.03875561 0.06032353 0.024986604 -0.017999964 0.03460325 -0.008940057 -0.02075824
0.023891473 0.018829811 0.029558687 0.045728296 0.05624708 0.05173731 0.007492626 0.05773887
0.024256293 0.007896774 -0.042107444 0.011964426 -0.05030527 0.035270564 0.01390849 0.012649923
-0.010839179 0.0426231 -0.05647423 -0.028447341 0.027567618 -0.03418748 0.06965201 0.011451837
0.032600787 -0.049594406 0.013052295 0.037246235 -0.046558663 0.06481504 -0.06678647 0.02677801
0.039296 -0.025927596 -0.0073891785 0.031621583 -0.03694759 -0.029222561 -0.007683238 -0.05266559
-0.03205133 0.06374722 -0.016126053 0.053184565 -0.043093517 0.015056741 0.038763173 0.012983929
0.017154168 0.0016888183 -0.0070723556 -0.02717487 -0.067039624 0.065986134 0.05577389 0.029204916
-0.046754345 0.06740074 0.034648303 -0.01840048 -0.05668469 -0.024717638 -0.031578336 -0.036620855
-0.06987965 0.033219744 0.011178095 0.061551653 -0.013671838 -0.054386616 -0.005992824 -0.020270096
-0.07359882 -0.024106357 -0.059528746 -0.07226651 0.0420542 -0.07054767 0.019223247 0.030960448
0.0076192897 0.044985622 0.040628616 0.051273696 -0.036042 -1.3287044e-05 -0.016158033 -0.065334626
-0.051652066 0.039584056 -0.059304222 0.0106568085 -0.044074755 0.06382007 0.00524313 0.06778482
0.019588878 0.011076371 -0.013364715 0.04408839 -0.0008591787 0.05950116 0.051474843 0.047100782
-0.06876564 0.040878363 -0.007864061 -0.048043568 -0.05942013 0.057522226 -0.020832404 -0.024714092
0.030882547 0.046130005 0.019107696 0.008327855 0.060681075 0.06303894 -0.010425308 0.040183295
-0.012067731 0.026224015 -0.018708007 -0.043641746 0.035558637 -0.006360083 0.015398244 -0.036271326
0.059923124 0.05549018 -0.026290135 0.04099271 0.037549708 -0.061170697 -0.0541044 -0.013931513
0.012549481 -0.020282915 -0.06964327 0.050225563 0.05513736 -0.04494084 0.042219657 0.013931768
0.025863146 0.032077305 -0.012695938 0.03814108 0.005869593 -0.0314871 -0.043318633 -0.030299451
-0.037146755 0.041436456 0.04734243 -0.027650706 -0.057694606 0.0005230884 -0.025278592 0.028510932
0.06565685 0.03524224 -0.058812436 0.042261038 0.053711798 0.0037829697 0.06943491 0.047961127
-0.029880302 -0.065119125 0.02152782 -0.020809166 0.06776204 0.048752215 -0.018609198 -0.0336647
0.04289308 -0.03295855 0.024298504 -0.018820567 -0.028832452 0.02938484 -0.06903152 -0.023014475
-0.025898557 -0.06637009 -0.014645625 -0.057783682 -0.06358569 0.045916867 0.06006368 0.06814055
-0.039566476 0.03431089 0.037469182 -0.002311648 0.014168782 -0.016425258 -0.020531446 -0.020843653
-0.022747653 0.06842522 0.046530113 0.0702004 0.054035466 -0.031874236 0.009656212 0.028332327
0.012934055 0.0085049 0.023735976 -0.029047685 -0.05840748 0.053028047 -0.03946239 0.051846076
0.06690693 0.005269235 -0.07196505 0.060530305 -0.0033312317 0.020608038 0.01815126 0.03182906
0.013559766 -0.059827 0.04544667 0.02526434 0.007817154 0.051954247 -0.04073864 0.038868792
0.0075459476 -0.07179028 -0.054562006 0.054593395 0.029615548 -0.028203098 0.020097604 0.019275999
00000000: e42e 573d bc0b 91bd 0f09 2ebd 8a4f 8abd
00000010: 46bd c63c e74e 87bc 2c3e 98bc 1865 8c3c
00000020: acbf 05bd 34be 1e3d ce15 773d b5b0 cc3c
00000030: a974 93bc 23bc 0d3d 5179 12bc 2f0d aabc
00000040: 0db8 c33c fa40 9a3c 0f25 f23c 984d 3b3d
00000050: 5763 663d 80ea 533d b484 f53b 987f 6c3d
00000060: 22b5 c63c 7961 013c db78 2cbd 7106 443c
00000070: e60c 4ebd de77 103d 6fe0 633c 9f41 4f3c
00000080: d096 31bc 8f95 2e3d 8651 67bd 660a e9bc
00000090: 7cd5 e13c 2c08 0cbd b7a5 8e3d 7ca0 3b3c
000000a0: 6788 053d 8123 4bbd 4bd9 553c 828f 183d
000000b0: 4cb4 3ebd bfbd 843d 58c7 88bd 8f5d db3c
000000c0: d8f4 203d 1c66 d4bc ec20 f2bb a285 013d
000000d0: 5b56 17bd 2764 efbc acc3 fbbb e0b7 57bd
000000e0: 4148 03bd e78d 823d c91a 84bc 0fd8 593d
000000f0: d482 30bd 8db0 763c 22c6 1e3d 8cba 543c
00000100: e686 8c3c 575b dd3a 38bf e7bb d59d debc
00000110: 124c 89bd bd23 873d 2a73 643d 263f ef3c
00000120: 7c81 3fbd 6609 8a3d 61eb 0d3d 9abc 96bc
00000130: 352e 68bd a57c cabc 4958 01bd c0ff 15bd
00000140: 101d 8fbd 6d11 083d 5424 373c 961d 7c3d
00000150: d8ff 5fbc 80c4 5ebd 745f c4bb 790d a6bc
00000160: faba 96bd b27a c5bc 6ad4 73bd 7700 94bd
00000170: 0641 2c3d 4c7b 90bd 127a 9d3c c4a0 fd3c
00000180: 3cab f93b d842 383d 316a 263d 5e04 523d
00000190: c7a0 13bd 6beb 5eb7 da5d 84bc 29ce 85bd
000001a0: 1e91 53bd e422 223d fce8 72bd e599 2e3c
000001b0: bb87 34bd 19b4 823d 90ce ab3b c5d2 8a3d
000001c0: db78 a03c ab79 353c adf7 5abc 0796 343d
000001d0: 823a 61ba 7db7 733d 49d7 523d c0ec 403d
000001e0: 00d5 8cbd 1270 273d 43d8 00bc 55c9 44bd
000001f0: 8662 73bd 6d9c 6b3d b8a8 aabc 3575 cabc
00000200: 65fd fc3c d1f2 3c3d be87 9c3c 8e71 083c
00000210: b88c 783d 8f1a 813d e9ce 2abc 3d97 243d
00000220: bbb7 45bc bfd3 d63c 8941 99bc b0c1 32bd
00000230: efa5 113d 3e68 d0bb eb48 7c3c 3e91 14bd
00000240: f371 753d ac49 633d 695e d7bc f9e7 273d
00000250: b9cd 193d 208e 7abd 939c 5dbd 0041 64bc
00000260: 579c 4d3c 5b28 a6bc 21a1 8ebd 52b9 4d3d
00000270: b6d7 613d e313 38bd 85ee 2c3d 1242 643c
00000280: f3de d33c 7e63 033d a002 50bc d239 1c3d
00000290: b755 c03b 9ef8 00bd e16e 31bd 8e36 f8bc
000002a0: 3227 18bd 46b9 293d 23ea 413d bc83 e2bc
000002b0: 2e51 6cbd de1f 093a 0d15 cfbc c28f e93c
000002c0: 1977 863d 2b5a 103d 4fe5 70bd e919 2d3d
000002d0: e700 5c3d b3eb 773b e433 8e3d e372 443d
000002e0: 89c7 f4bc 2d5d 85bd 1c5b b03c fc77 aabc
000002f0: d3c6 8a3d 67b0 473d 5172 98bc ffe3 09bd
00000300: a7b0 2f3d 8bff 06bd a80d c73c 972d 9abc
00000310: 0932 ecbc 7ab8 f03c 6660 8dbd da88 bcbc
00000320: 3629 d4bc 0bed 87bd 34f4 6fbc 95ae 6cbd
00000330: 3739 82bd 5313 3c3d 5505 763d 468d 8b3d
00000340: 7510 22bd 9389 0c3d 4979 193d 057f 17bb
00000350: 2e24 683c 438e 86bc 9031 a8bc 4fc0 aabc
00000360: 4959 babc 8622 8c3d 5c96 3e3d 3ac5 8f3d
00000370: 4b54 5d3d 8f8e 02bd 1735 1e3c 3219 e83c
00000380: 5ce9 533c 2358 0b3c f371 c23c 69f5 edbc
00000390: af3c 6fbd f033 593d 51a3 21bd 8d5c 543d
000003a0: 8006 893d 8ca9 ac3b 6a62 93bd a0ee 773d
000003b0: cb50 5abb 30d2 a83c f4b1 943c 305f 023d
000003c0: c829 5e3c 280d 75bd 4a26 3a3d 29f7 ce3c
000003d0: 8513 003c facd 543d 8fdd 26bd e234 1f3d
000003e0: ff43 f73b c806 93bd 697c 5fbd 539d 5f3d
000003f0: 4e9c f23c 2f0a e7bc bba3 a43c b3e8 9d3c

module.model.1.model.3.bias f4 [64]
0.0010720352 0.0009638013 0.0012386538 0.001535601 0.001108208 0.0010246829 0.0011248231 0.00092503603
0.0010073464 0.0009828778 0.0008092817 0.0010067717 0.0006321772 0.0010150169 0.000844115 0.0013032373
0.001195747 0.0011182136 0.0009821369 0.0011637423 0.0010338741 0.00096439605 0.0010083612 0.0013006403
0.000951411 0.00093405147 0.0008390064 0.00095413846 0.00090308284 0.0009610289 0.0010655557 0.0012155885
0.0009847946 0.0008985446 0.0007556071 0.00090744375 0.0014574461 0.0010059129 0.00096366403 0.0008087645
0.0010320183 0.0008036015 0.000781512 0.0008249773 0.00079315464 0.0009740203 0.0009235633 0.0010128565
0.0010887085 0.0008617247 0.0009946845 0.0008803038 0.0009722269 0.0010747648 0.00061885145 0.0006943455
0.0009937428 0.00092845195 0.0013341347 0.00093464914 0.00095190457 0.0003796194 0.0010460706 0.00094227993
00000000: 8883 8c3a 9ca7 7c3a 535a a23a 3846 c93a
00000010: 4a41 913a a74e 863a cd6e 933a 1e7e 723a
00000020: f008 843a e8d3 803a fa25 543a a7f5 833a
00000030: b2b8 253a 510a 853a 9947 5d3a 63d1 aa3a
00000040: 9dba 9c3a 0691 923a 0cbb 803a b688 983a
00000050: 0f83 873a 86cf 7c3a fd2a 843a 3f7a aa3a
00000060: 1d68 793a 22db 743a c4f0 5b3a 261f 7a3a
00000070: ddbc 6c3a 8fed 7b3a 1eaa 8b3a 6254 9f3a
00000080: 3914 813a 4f8c 6b3a ef13 463a 85e1 6d3a
00000090: c707 bf3a d6d8 833a 669e 7c3a 4403 543a
000000a0: ca44 873a c9a8 523a 62de 4c3a 4a43 583a
000000b0: b5eb 4f3a 6555 7f3a 491b 723a d3c1 843a
000000c0: ffb2 8e3a 5ee5 613a 1360 823a 30c4 663a
000000d0: 0bdd 7e3a 1fdf 8c3a 6b3a 223a bd04 363a
000000e0: 7a40 823a 5b63 733a 22de ae3a 3e03 753a
000000f0: 3c89 793a a707 c739 4e1c 893a 5603 773a

module.model.1.model.4.weight f4 [64]
0.99773335 1.0007517 0.99775016 0.996995 0.999537 0.9976269 0.9984011 1.0019952
1.0030626 1.0023891 1.0026121 0.99729294 1.0026543 1.002867 1.0025985 0.99736434
0.99758244 0.997536 1.0030493 0.99739724 0.9974024 1.0026975 1.0007977 0.99746656
0.99736494 1.0029777 1.0026107 1.002307 1.0028089 1.0028062 1.0006045 0.9992335
0.9978806 1.0016793 1.0026854 1.0031576 0.9974738 0.99767786 1.0012072 1.0000683
0.99775225 1.00222 1.0024018 1.002466 1.0033349 0.99968386 1.0015832 1.0024635
0.9976557 1.0032631 1.0024955 1.0021932 0.99747276 0.99736816 1.0032648 1.0024979
1.0028626 1.0020081 0.9976035 0.99984676 1.0024519 1.0029961 0.9973084 0.9978725
00000000: 746b 7f3f a218 803f 8e6c 7f3f 103b 7f3f
00000010: a8e1 7f3f 7a64 7f3f 3797 7f3f 6141 803f
00000020: 5b64 803f 494e 803f 9855 803f 974e 7f3f
00000030: fa56 803f f25d 803f 2655 803f 4553 7f3f
00000040: 9061 7f3f 855e 7f3f eb63 803f 6d55 7f3f
00000050: c455 7f3f 6458 803f 241a 803f f859 7f3f
00000060: 4f53 7f3f 9361 803f 8c55 803f 994b 803f
00000070: 0b5c 803f f45b 803f cf13 803f c4cd 7f3f
00000080: 1a75 7f3f 0737 803f ff57 803f 7867 803f
00000090: 715a 7f3f d167 7f3f 8f27 803f 3d02 803f
000000a0: b16c 7f3f bf48 803f b44e 803f ce50 803f
000000b0: 476d 803f 48eb 7f3f e133 803f b950 803f
000000c0: 5d66 7f3f ed6a 803f c651 803f de47 803f
000000d0: 605a 7f3f 8553 7f3f fb6a 803f da51 803f
000000e0: cd5d 803f cd41 803f f162 7f3f f5f5 7f3f
000000f0: 5850 803f 2d62 803f 9a4f 7f3f 9274 7f3f

module.model.1.model.4.bias f4 [64]
-0.0024774105 0.0015828384 -0.0024390554 -0.0028188978 -0.0018312095 -0.002606405 -0.0020241311 0.0021610362
0.0018571831 0.0026547913 0.002682797 -0.0024448726 0.0025391048 0.0011985812 0.0028909873 -0.0026467463
-0.0027851479 -0.002582598 0.0031157658 -0.0028491232 -0.0025402142 0.002760507 0.0032142873 -0.0026779626
-0.0029902582 0.0031548196 0.002627555 0.0026021241 0.0027620364 0.0027737988 -0.0006717521 -0.0011401016
-0.0021178606 0.0026462772 0.0028828662 0.0031936085 -0.0025743975 -0.0027971475 -0.0013932724 0.0011758534
-0.0024883419 0.0024874911 0.0026452648 0.0026565564 0.0030710853 0.0008214709 0.0027843807 0.0026231925
-0.0023778034 0.0031094337 0.002462407 0.002506867 -0.0025033474 -0.0029270228 0.002966956 0.0026985526
0.003371214 0.0027451224 -0.0025041406 -0.0009791857 0.00316469 0.0028757977 -0.0023890696 -0.0021424606
00000000: 0d5c 22bb 3e77 cf3a 8fd8 1fbb 42bd 38bb
00000010: 3205 f0ba 38d0 2abb 49a7 04bb 2ca0 0d3b
00000020: b96c f33a 02fc 2d3b ddd1 2f3b 283a 20bb
00000030: 1c67 263b b619 9d3a b876 3d3b 0975 2dbb
00000040: 0787 36bb ce40 29bb e031 4c3b 5bb8 3abb
00000050: b979 26bb 9fe9 343b cba6 523b c280 2fbb
00000060: 35f8 43bb 17c1 4e3b 0f33 2c3b 6688 2a3b
00000070: 4803 353b 9fc8 353b 8518 30ba 766f 95ba
00000080: cecb 0abb 2a6d 2d3b 78ee 3c3b dc4b 513b
00000090: 39b7 28bb 5950 37bb 779e b6ba 181f 9a3a
000000a0: 7313 23bb 2d05 233b 2e5c 2d3b 9f19 2e3b
000000b0: 4344 493b fb57 573a 287a 363b dee9 2b3b
000000c0: ecd4 1bbb a4c7 4b3b 5660 213b 404a 243b
000000d0: 330f 24bb 4bd3 3fbb 4371 423b 33da 303b
000000e0: 96ef 5c3b 83e7 333b 821c 24bb 0558 80ba
000000f0: b066 4f3b e177 3c3b f091 1cbb 8668 0cbb

module.model.1.model.4.running_mean f4 [64]
0.831688 -0.3143711 -0.50453717 0.0037469296 -0.088400744 0.19098246 -0.4897394 0.056977812
0.2969731 0.6832147 -0.2326076 0.06506186 -0.19651745 0.554242 0.0182647 -0.1523913
-0.8070683 0.20958135 0.7423279 -0.584722 0.33163074 0.3204603 0.18750843 0.016426614
0.52517575 0.30800956 -0.31133994 -0.04301633 -0.56598884 -0.12561159 0.31642652 0.31753993
0.06529436 0.20306148 -0.12547465 -0.10427053 -0.4676414 0.24228519 -0.07962471 -0.5444721
0.051988315 -0.13242505 -0.2879625 0.3304389 0.030617138 0.3029798 0.18063827 0.71320486
0.1469278 -0.34753695 0.45675784 -0.30328634 0.027339382 0.35925746 -0.30854082 -0.47305918
-0.05237503 0.30854034 0.11496262 -0.105753966 0.088867396 -0.5478248 -0.18187973 -0.24754201
00000000: 81e9 543f 40f5 a0be 5929 01bf 0c8f 753b
00000010: 730b b5bd e890 433e 1fbf fabe 9161 693d
00000020: dc0c 983e 29e7 2e3f b030 6ebe 273f 853d
00000030: df3b 49be cee2 0d3f da9f 953c 770c 1cbe
00000040: 079c 4ebf 7e9c 563e 3409 3e3f 57b0 15bf
00000050: 81cb a93e 5f13 a43e 3602 403e 1b91 863c
00000060: eb71 063f 6eb3 9d3e f367 9fbe e431 30bd
00000070: a5e4 10bf 53a0 00be a802 a23e 9894 a23e
00000080: 0db9 853d 59ef 4f3e 6d7c 00be ca8b d5bd
00000090: b26e efbe 9c19 783e 4812 a3bd 8662 0bbf
000000a0: b3f1 543d 6f9a 07be d26f 93be 4a2f a93e
000000b0: cbd0 fa3c 2b20 9b3e 3df9 383e 9894 363f
000000c0: 3e74 163e 5df0 b1be 2adc e93e 5948 9bbe
000000d0: d7f6 df3c 98f0 b73e 10f9 9dbe d034 f2be
000000e0: 3387 56bd 00f9 9d3e 8671 eb3d 8995 d8bd
000000f0: 1c00 b63d 3f3e 0cbf ae3e 3abe a77b 7dbe

module.model.1.model.4.running_var f4 [64]
0.41464132 0.08130432 0.3817612 0.03335079 0.74744797 0.5570143 0.14889397 0.32243967
0.24037431 0.24544427 0.98081017 0.6650097 0.4996204 0.1879144 0.19783004 0.63088906
1.4145144 0.63804096 0.6004263 0.55759573 0.07550661 0.045289874 0.4371175 0.32442296
0.18550442 0.58266866 0.16096164 0.28728873 0.39040086 1.0550246 0.124864146 0.16701476
0.38509566 0.33292142 0.6866737 0.91013575 0.08549573 0.0329407 0.55016637 0.1750693
0.6450144 0.1473983 0.47309318 0.22570615 0.9248392 0.24634348 0.580434 1.2354417
0.39962164 0.0787902 0.42054233 0.049772274 0.18944144 0.21409975 0.3091519 0.10287168
0.19202682 0.23789203 0.06465567 0.31133258 0.0676703 0.21209809 0.41206923 0.24675177
00000000: de4b d43e e182 a63d 3476 c33e d79a 083d
00000010: c058 3f3f 7d98 0e3f a977 183e d016 a53e
00000020: af24 763e be55 7b3e 6016 7b3f 133e 2a3f
00000030: 3fce ff3e a26c 403e f593 4a3e f281 213f
00000040: cf0e b53f a756 233f 8ab5 193f 98be 0e3f
00000050: 36a3 9a3d e081 393d ddcd df3e c41a a63e
00000060: dff4 3d3e c629 153f 21d3 243e 8217 933e
00000070: 9fe2 c73e 0c0b 873f c6b8 ff3d eb05 2b3e
00000080: 422b c53e ad74 aa3e d9c9 2f3f a8fe 683f
00000090: 6318 af3d d4ec 063d b4d7 0c3f 5e45 333e
000000a0: aa1f 253f 94ef 163e 4539 f23e 831f 673e
000000b0: 43c2 6c3f 7741 7c3e 5397 143f f422 9e3f
000000c0: 359b cc3e c25c a13d 5351 d73e 03de 4b3d
000000d0: f0fc 413e f73c 5b3e 2849 9e3e 63ae d23d
000000e0: aea2 443e f899 733e 316a 843d fc66 9f3e
000000f0: ba96 8a3d 3e30 593e bdfa d23e 7fac 7c3e

module.model.2.model.0.weight f4 [64, 64, 3, 3]
-0.07313563 -0.0039243586 0.016099418 -0.011002164 0.026829945 -0.036611505 -0.060107287 -0.052741155
0.006702588 0.058439467 0.06396102 -0.030227257 0.041913617 0.009756407 0.038573556 -0.01067107
-0.0439142 0.046082262 -0.00814451 0.057363305 0.041010804 -0.047166906 0.021857088 -0.023899423
-0.048433084 -0.0658583 -0.015653439 -0.06045149 0.07159814 0.017343614 -0.04955739 -0.059169516
-0.03711254 -0.000850177 -0.04790167 -0.06833411 0.042321663 -0.004963538 0.050905775 0.021384565
-0.0052050077 -0.033661477 -0.061983354 4.3333137e-05 -0.054891475 0.033077754 0.015939238 0.059760448
0.01723959 0.0075611756 -0.03687046 -0.04240941 0.059605945 -0.02929773 0.014847985 -0.03434185
-0.02243845 0.010948216 0.06282125 0.03886018 -0.021928726 -0.0450623 0.041462738 -0.0077992296
-0.06971841 0.038060836 -0.05237578 -0.059514236 0.061971657 -0.058139477 0.057481762 0.020389868
0.030457076 -0.064695016 0.038631126 0.03757291 0.07007575 0.052493747 0.017114017 -0.039860025
0.04895182 0.057103865 -0.017206026 -0.00040496004 -0.0070570656 0.049258698 0.028359933 -0.019625174
0.029344792 -0.030009981 0.050486986 -0.06598221 0.010975169 0.065855876 -0.06221275 -0.04358426
0.06657625 -0.048631128 0.026097389 -0.015044982 0.008377293 -0.044861868 0.0726257 0.06968216
0.038499385 -0.04799883 -0.007497191 -0.016563145 0.04895555 0.050510924 -0.0400587 -0.052385528
-0.063208304 0.052754253 0.0052389735 0.027276412 0.0097087445 0.06964201 -0.026275525 -0.045420986
-0.025450183 -0.044747133 -0.053985253 0.038691245 0.061519686 -0.0515935 -0.05062517 -0.06233898
0.012564651 0.015203632 0.061662965 0.0023539395 -0.015806679 0.025520064 0.040207654 -0.047453173
0.030825743 0.0620076 0.00989089 0.01816636 -0.008824117 -0.045881014 0.034449182 -0.063778125
0.017297244 -0.007576276 -0.043648545 -0.030517222 -0.026304664 -0.039549034 0.013496744 0.027813716
0.056062344 -0.011117905 -0.033349846 0.029425802 -0.03721894 0.04174291 -0.0627125 0.0647742
0.011770822 0.023644768 0.059428133 0.052999016 0.018291326 0.031354163 0.04738271 -0.06815878
-0.06796563 0.055076197 0.06765599 0.034094676 0.04582222 0.06826939 -0.0119398525 0.02710647
0.032554507 0.028718904 0.0014767349 -0.00945641 0.05282417 0.026900515 0.008306525 0.0045749363
-0.016850537 -0.055923946 0.027546516 -0.016376836 0.030004343 -0.021463837 -0.016918207 -0.04187587
-0.061484512 0.016264735 -0.025599118 0.06744417 -0.024183637 -0.06762455 0.020511054 -0.01142888
-0.041923042 0.03934231 0.053128477 0.020138482 0.020774074 0.039873257 -0.0698723 -0.05341371
-0.03924955 -0.054654222 -0.04690232 0.06403568 0.035162818 0.0073643723 -0.042139247 -0.026159719
0.029377362 0.019714117 0.017812148 -0.0219618 0.0014259625 0.035772607 0.0140724825 0.004677073
0.057544023 -0.059331294 0.015445798 -0.024292512 0.04019067 -0.0067476183 -0.06685464 -0.02366314
0.04692432 0.06342262 0.0041719116 -0.054664634 0.026088059 0.043335576 0.026488988 -0.0034348674
0.03403858 0.06283061 0.06378523 0.024849888 0.052896544 0.025467105 0.044966433 -0.008421582
0.04738461 -0.0035530552 -0.06539288 0.07077005 0.06375832 0.049864683 -0.015687067 -0.058015596
00000000: 22c8 95bd e897 80bb ede2 833c 6c42 34bc
00000010: 79ca db3c f2f5 15bd 0f33 76bd 1c07 58bd
00000020: 62a1 db3b 395e 6f3d fffd 823d 279f f7bc
00000030: 9dad 2b3d 56d9 1f3c 4eff 1d3d b6d5 2ebc
00000040: 60df 33bd c1c0 3c3d 8d70 05bc c9f5 6a3d
00000050: f2fa 273d 1632 41bd a30d b33c b9c8 c3bc
00000060: c561 46bd b7e0 86bd a43b 80bc fb9b 77bd
00000070: 0ca2 923d 3214 8e3c b1fc 4abd bc5b 72bd
00000080: 5203 18bd 6ade 5eba 8b34 44bd c1f2 8bbd
00000090: 7b59 2d3d 2da5 a2bb 9382 503d af2e af3c
000000a0: c58e aabb 9ee0 09bd 42e2 7dbd 9ac0 3538
000000b0: e2d5 60bd 8a7c 073d 0193 823c 5fc7 743d
000000c0: 0a3a 8d3c bdc3 f73b 7b05 17bd 7db5 2dbd
000000d0: 5d25 743d cb01 f0bc f644 733c 0aaa 0cbd
000000e0: d7d0 b7bc 2560 333c 6da8 803d da2b 1f3d
000000f0: dfa3 b3bc 3f93 38bd d5d4 293d ae90 ffbb
00000100: 87c8 8ebd aee5 1b3d fc87 56bd 33c5 73bd
00000110: fed5 7d3d a923 6ebd ff71 6b3d a708 a73c
00000120: 1e81 f93c d27e 84bd ac3b 1e3d 0de6 193d
00000130: e083 8f3d af03 573d b232 8c3c 4444 23bd
00000140: b481 483d bee5 693d a7f3 8cbc d150 d4b9
00000150: f53e e7bb 7dc3 493d 1753 e83c f9c4 a0bc
00000160: 7d64 f03c 7ed7 f5bc 71cb 4e3d ae21 87bd
00000170: 32d1 333c 72df 863d ccd2 7ebd 6985 32bd
00000180: 2159 883d 6f31 47bd 31ca d53c 3a7f 76bc
00000190: ea40 093c 14c1 37bd c8bc 943d 85b5 8e3d
000001a0: 88b1 1d3d 6c9a 44bd ffaa f5bb 6faf 87bc
000001b0: 9d85 483d 8be4 4e3d 9714 24bd 3592 56bd
000001c0: 5b73 81bd d814 583d b2ab ab3b c872 df3c
000001d0: 6d11 1f3c 78a0 8e3d c53f d7bc 5b0b 3abd
000001e0: e77c d0bc c548 37bd a41f 5dbd b67a 1e3d
000001f0: 11fc 7b3d b553 53bd 575c 4fbd 2957 7fbd
00000200: f7db 4d3c a818 793c 4e92 7c3d 8d44 1a3b
00000210: 027d 81bc 740f d13c c8b0 243d 425e 42bd
00000220: 4586 fc3c aefb 7d3d 660d 223c 9ed1 943c
00000230: 0793 10bc bbed 3bbd 961a 0d3d 1b9e 82bd
00000240: f3b2 8d3c 6942 f8bb d1c8 32bd 41ff f9bc
00000250: e17c d7bc 2bfe 21bd 7321 5d3c 97d9 e33c
00000260: a1a1 653d e027 36bc d999 08bd 610e f13c
00000270: e372 18bd 9dfa 2a3d 696f 80bd 56a8 843d
00000280: 68da 403c acb2 c13c ea6a 733d 7f15 593d
00000290: b1d7 953c 396d 003d 5f14 423d d596 8bbd
000002a0: 9031 8bbd 9497 613d 398f 8a3d dca6 0b3d
000002b0: 15b0 3b3d d2d0 8b3d 5f9f 43bc 630e de3c
000002c0: e057 053d e843 eb3c 008f c13a 0fef 1abc
000002d0: 285e 583d 785e dc3c 1718 083c 59e9 953b
000002e0: 230a 8abc 8210 65bd 3ba9 e13c b728 86bc
000002f0: abcb f53c eed4 afbc 0d98 8abc 0886 2bbd
00000300: 2fd7 7bbd 9f3d 853c 3eb5 d1bc 2b20 8a3d
00000310: c31c c6bc bd7e 8abd cc06 a83c 3240 3bbc
00000320: 7fb7 2bbd 6725 213d 3f9d 593d 75f9 a43c
00000330: 642e aa3c 2452 233d 3519 8fbd 56c8 5abd
00000340: 23c4 20bd 1bdd 5fbd a61c 40bd 2325 833d
00000350: e306 103d d550 f13b 349a 2cbd e84c d6bc
00000360: cba8 f03c 807f a13c c8ea 913c 3ce9 b3bc
00000370: 5de7 ba3a 4c86 123d 4590 663c 2242 993b
00000380: 48b3 6b3d 5f05 73bd 5f10 7d3c 1701 c7bc
00000390: f99e 243d 201b ddbb 16eb 88bd 34d9 c1bc
000003a0: b733 403d b8e3 813d 88b4 883b 06e8 5fbd
000003b0: a0b6 d53c a580 313d 6fff d83c 831b 61bb
000003c0: 0a6c 0b3d 56ad 803d d5a1 823d fe91 cb3c
000003d0: 0caa 583d 64a0 d03c b92e 383d adfa 09bc
000003e0: 5d16 423d 60da 68bb b4ec 85bd e3ef 903d
000003f0: b993 823d e93e 4c3d 2a82 80bc c3a1 6dbd

module.model.2.model.0.bias f4 [64]
0.00095359 0.0009969951 0.0010036761 0.0010097959 0.0010244438 0.0009889242 0.001043688 0.0009975476
0.0009775404 0.001006615 0.00091885537 0.0010132473 0.0009949842 0.0009822465 0.0010027423 0.0009915658
0.00095777557 0.0010219814 0.0010132083 0.000998913 0.0009594405 0.0010045582 0.0009991999 0.0009513343
0.0009836878 0.0010353085 0.0010029225 0.0009981897 0.00105481 0.0010170822 0.00096344936 0.00097311387
0.0010058627 0.0010335068 0.0010286772 0.0010094756 0.0010325996 0.0010404657 0.0010646962 0.0010184076
0.0009956254 0.0010444598 0.0009880823 0.0010153869 0.0010283762 0.0009920996 0.0010217048 0.0010510929
0.0009699679 0.0010083033 0.0009979267 0.0010419438 0.0010440266 0.0010080845 0.0009760215 0.001033965
0.0010205508 0.0010383418 0.0010184444 0.0010022394 0.0010109143 0.0010166166 0.0010229422 0.0009953082
00000000: 57fa 793a 9bad 823a c88d 833a 215b 843a
00000010: a146 863a ca9e 813a 5ccc 883a 25c0 823a
00000020: d020 803a 65f0 833a 57df 703a f0ce 843a
00000030: 216a 823a b9be 803a 736e 833a 6df7 813a
00000040: 3b13 7b3a 01f4 853a a1cd 843a f5ed 823a
00000050: f682 7b3a 61ab 833a 96f7 823a f762 793a
00000060: 16ef 803a 30b3 873a 7f74 833a b0d5 823a
00000070: 8d41 8a3a 9e4f 853a fe8f 7c3a 9118 7f3a
00000080: 27d7 833a bc76 873a aed4 863a 6150 843a
00000090: 4b58 873a 3c60 883a 478d 8b3a 177c 853a
000000a0: a57f 823a 41e6 883a 8a82 813a bb16 853a
000000b0: 94ca 863a 5709 823a b9ea 853a d3c4 893a
000000c0: 7245 7e3a 0b29 843a ddcc 823a d591 883a
000000d0: b8d7 883a b421 843a b2db 7f3a 1c86 873a
000000e0: 01c4 853a f818 883a 537d 853a 935d 833a
000000f0: a880 843a fe3f 853a 3f14 863a 0075 823a

module.model.2.model.1.weight f4 [64]
1.002845 0.99778545 0.9997308 1.0025876 1.0000937 1.0015832 0.9987616 1.0015059
1.0016478 0.9986811 0.99996525 1.0023004 0.99755216 0.99875677 0.99734575 0.9979809
1.0017796 0.99840736 0.99918413 1.0007696 1.0008476 1.0020444 0.9995599 1.0018718
1.0009881 0.99751675 0.9986162 1.0019091 0.9974637 0.9969959 1.0028489 0.9996821
0.9988468 1.0008944 0.9974831 0.99907005 1.0018771 0.9991086 0.9979075 0.9989948
1.0025504 0.99808645 1.0004398 0.9979163 0.9984002 1.0007216 1.0024931 0.99789095
0.9979655 0.9978927 0.9981741 1.0019189 1.0013541 1.0006399 0.9996951 0.9980713
0.9972387 0.99997693 1.0001304 1.0019966 0.9988853 0.99759287 0.999289 1.0010616
00000000: 3a5d 803f de6e 7f3f 5cee 7f3f ca54 803f
00000010: 1203 803f e133 803f d7ae 7f3f 5831 803f
00000020: ff35 803f 91a9 7f3f b9fd 7f3f 614b 803f
00000030: 945f 7f3f 86ae 7f3f 0d52 7f3f ad7b 7f3f
00000040: 503a 803f a097 7f3f 88ca 7f3f 3819 803f
00000050: c61b 803f fe42 803f 28e3 7f3f 563d 803f
00000060: 6120 803f 425d 7f3f 50a5 7f3f 8f3e 803f
00000070: c859 7f3f 203b 7f3f 5a5d 803f 2beb 7f3f
00000080: 6db4 7f3f 4f1d 803f 0d5b 7f3f 0ec3 7f3f
00000090: 823d 803f 95c5 7f3f de76 7f3f 20be 7f3f
000000a0: 9253 803f 9882 7f3f 690e 803f 7177 7f3f
000000b0: 2897 7f3f a517 803f b251 803f c875 7f3f
000000c0: ab7a 7f3f e575 7f3f 5688 7f3f e13e 803f
000000d0: 5f2c 803f f814 803f 05ec 7f3f 9a81 7f3f
000000e0: 094b 7f3f 7dfe 7f3f 4604 803f 6d41 803f
000000f0: f2b6 7f3f 3f62 7f3f 67d1 7f3f c922 803f

module.model.2.model.1.bias f4 [64]
0.0027366327 -0.00030004513 -0.0004780349 0.0031209965 0.00066085224 0.0013865535 5.3359992e-05 0.0017914377
0.00141727 -0.0006111069 0.0023854973 0.0022997938 -0.0021883657 -0.0017779064 -0.00214666 0.0010222291
0.0022797687 -0.0010580907 -0.00021624478 -0.00062865554 0.0016554666 0.0017245838 0.0002299707 0.0017095202
0.0011192891 -0.0028158645 -0.0013944928 0.0014077411 -0.0025502262 -0.0025037609 0.0026622561 -0.0009603427
0.0007699973 0.0001991729 -0.0030703992 0.0014455995 -0.0008884066 -0.0012295113 -0.0019256449 -0.0006171982
0.002555087 -0.002128936 -0.0003203496 -0.0012978505 -0.0017047022 0.0013289189 0.002773438 -0.0019198029
-0.0013601525 -0.0026119002 -0.0016405027 0.0015280076 -5.659834e-05 -0.0009562468 0.001299028 -0.001826468
-0.0015776771 -0.00049578556 0.0004717327 0.0012285248 -0.00063194224 -0.0022332582 -0.0016738693 0.0022313371
00000000: 1459 333b 604f 9db9 c2a0 fab9 a289 4c3b
00000010: 0b3d 2d3a 04bd b53a dbce 5f38 adce ea3a
00000020: b1c3 b93a b132 20ba 0156 1c3b 23b8 163b
00000030: af6a 0fbb a408 e9ba faae 0cbb 51fc 853a
00000040: 2c68 153b a2af 8aba c4bf 62b9 5ccc 24ba
00000050: 3efc d83a 6e0b e23a 4a24 7139 fb11 e03a
00000060: 1cb5 923a 5e8a 38bb 6ac7 b6ba f483 b83a
00000070: b221 27bb 2316 24bb 3f79 2e3b 82bf 7bba
00000080: a5d9 493a 11d9 5039 c038 49bb 457a bd3a
00000090: f5e3 68ba 8e27 a1ba ec65 fcba 78cb 21ba
000000a0: 3f73 273b 9e85 0bbb 98f4 a7b9 a31c aaba
000000b0: 5070 dfba 1e2f ae3a 92c2 353b e5a1 fbba
000000c0: 2547 b2ba 6a2c 2bbb 2306 d7ba 6d47 c83a
000000d0: 0164 6db8 a3ac 7aba 2644 aa3a 1966 efba
000000e0: 0fca ceba 9bf7 01ba e452 f739 7406 a13a
000000f0: eda8 25ba db5b 12bb bc65 dbba a03b 123b

module.model.2.model.1.running_mean f4 [64]
-0.0034535879 0.10276347 0.10317585 0.10773629 -0.46084538 -0.43875894 -0.49509105 -0.5895812
0.0723017 -0.44589508 0.77788246 -0.8779021 -0.20941398 -0.2700021 -0.41096368 0.15794909
0.106986135 -0.086643815 -0.24166505 -0.580846 -0.40105864 0.5432197 0.5141928 -0.07180046
-0.30814275 0.0019314566 -0.43977302 0.1287258 -0.2938763 0.32860005 -0.62439364 -0.6893592
0.026987119 -0.119918354 -0.10580953 -0.009553472 0.31538323 -0.42059478 -0.44554433 0.083748795
-0.658647 0.2929321 0.38950136 0.21957606 0.3109925 0.6321183 0.7259404 -0.25599694
0.071569875 -0.15894705 0.054232642 0.66001093 0.24374379 0.038194943 -0.44546527 0.0702662
0.16491407 0.17867368 0.23191243 0.4533419 -0.038761947 -1.221413 0.1689942 0.3289323
00000000: 9755 62bb a775 d23d dc4d d33d d8a4 dc3d
00000010: edf3 ebbe 03a5 e0be 937c fdbe cbee 16bf
00000020: ea12 943d 5c4c e4be 4e23 473f 31be 60bf
00000030: 9e70 56be b73d 8abe d569 d2be 68bd 213e
00000040: 8c1b db3d 5072 b1bd 0b77 77be 53b2 14bf
00000050: 8f57 cdbe 7210 0b3f 24a2 033f 1f0c 93bd
00000060: e3c4 9dbe ee28 fd3a ee29 e1be b2d0 033e
00000070: f476 96be 443e a83e 43d8 1fbf d879 30bf
00000080: 1714 dd3c c197 f5bd abb2 d8bd 2a86 1cbc
00000090: e979 a13e 3358 d7be 631e e4be 7d84 ab3d
000000a0: 179d 28bf 32fb 953e b96c c73e 8cd8 603e
000000b0: 693a 9f3e 81d2 213f 3bd7 393f 0812 83be
000000c0: 3a93 923d 04c3 22be 0c23 5e3d 7af6 283f
000000d0: f997 793e 4d72 1c3d 0614 e4be bae7 8f3d
000000e0: 3cdf 283e 3cf6 363e 747a 6d3e 6e1c e83e
000000f0: d9c4 1ebd 4357 9cbf d10c 2d3e d069 a83e

module.model.2.model.1.running_var f4 [64]
0.27983645 0.30788204 0.8618205 0.4240522 1.2095098 2.2533402 0.13586035 0.39922687
0.17897785 0.45135108 0.39166108 1.2859757 1.3426417 0.1400791 0.7462717 0.34750354
0.90581006 0.17602621 0.27106783 0.494351 0.85989326 0.7445942 0.7180979 0.9550113
1.1029975 0.05530545 0.20828828 0.39834565 0.23103188 0.8179808 0.30745652 0.22558813
1.5434666 0.75566673 1.5518358 0.26924273 0.33257532 0.31561375 0.34364375 0.27794293
0.55110806 0.23447713 2.9679909 0.4586219 0.18860482 1.0020908 0.20065325 0.38250774
0.31351715 0.070880435 2.1777961 0.25101018 0.12487686 1.1866952 0.5449792 0.18074742
0.20753512 0.7391579 0.23353055 0.19585198 0.7173695 0.4021674 0.1855743 0.45323062
00000000: b946 8f3e b7a2 9d3e 45a0 5c3f 5f1d d93e
00000010: 38d1 9a3f ba36 1040 fa1e 0b3e 7767 cc3e
00000020: f845 373e 7d17 e73e cd87 c83e da9a a43f
00000030: afdb ab3f e570 0f3e aa0b 3f3f fceb b13e
00000040: 2be3 673f 3740 343e 67c9 8a3e 931b fd3e
00000050: f721 5c3f ba9d 3e3f 44d5 373f 9f7b 743f
00000060: 062f 8d3f f887 623d 8649 553e f6f3 cb3e
00000070: 9f93 6c3e 3167 513f f16a 9d3e 9300 673e
00000080: 5090 c53f 6073 413f 8ea2 c63f 2fda 893e
00000090: 5047 aa3e 2098 a13e 13f2 af3e 894e 8e3e
000000a0: 6b15 0d3f c61a 703e 90f3 3d40 7dd0 ea3e
000000b0: 9f21 413e 8344 803f 0c78 4d3e 0ed8 c33e
000000c0: 5285 a03e c329 913d 0361 0b40 6884 803e
000000d0: 70bf ff3d a1e5 973f c283 0b3f da15 393e
000000e0: 1684 543e 7439 3d3f a222 6f3e 6c8d 483e
000000f0: 87a5 373f e3e8 cd3e 3007 3e3e d80d e83e
