output_gd_denoise/ckpt/resnet_epoch8.pth (torch, 641695 bytes, 31 tensors)

module.model.0.weight f4 [64, 1, 1, 1]
0	0xbe99bf75	-0.30028883
1	0xbe88334f	-0.26601645
2	0x3e1b4aa5	0.15165193
3	0x3e1ae560	0.15126562
4	0xbe758f35	-0.2398041
5	0xbe8997c3	-0.26873598
6	0xbe526cad	-0.20549269
7	0x3d213b64	0.03936328
8	0xbe4ee8d9	-0.20206012
9	0x3e5e8a53	0.21732454
10	0x3c15e10c	0.009147894
11	0x3d1f66e6	0.03891649
12	0xbddffc64	-0.109368116
13	0xbe89fe59	-0.26951864
14	0x3de71447	0.112831645
15	0x3e7fc58b	0.249777
16	0x3e259844	0.16171366
17	0x3c71c25a	0.01475581
18	0x3e805f1d	0.25072566
19	0x3e2aa2c1	0.16663648
20	0x3cd894aa	0.026438076
21	0x3e682731	0.226712
22	0xbd9eec52	-0.07759918
23	0x3e7e2e84	0.24822432
24	0xbe853c61	-0.26022628
25	0x3d98afb5	0.074553885
26	0x3e422bed	0.18962069
27	0x3dff0a25	0.12453107
28	0xbdbbc9c7	-0.09169345
29	0xbceddb65	-0.02903528
30	0x3e63819d	0.22217412
31	0x3e802f2f	0.25035998
32	0x3e874822	0.2642222
33	0xbe5b3a29	-0.21408905
34	0x3e0ebe50	0.13939786
35	0x3e21e0d0	0.15808415
36	0xbe05c7d5	-0.13064511
37	0x3d3a886a	0.04554025
38	0x3decbf5a	0.11559935
39	0xbde6ecfb	-0.11275669
40	0x3d74bfef	0.059753355
41	0x3e44c1db	0.19214575
42	0xbdfd7feb	-0.12377914
43	0xbe6e97f3	-0.23300152
44	0x3c939f48	0.018020287
45	0xbd8fbe61	-0.07018734
46	0x3dfd9fc1	0.12383986
47	0x3d0e0380	0.034671307
48	0xbd187c14	-0.037227705
49	0x3e2d24d3	0.16908579
50	0xbe3acba6	-0.18241748
51	0x3e0e41b1	0.13892247
52	0x3dd0764f	0.101788156
53	0xbdb21d27	-0.086969666
54	0xbe3beccc	-0.1835205
55	0xbcb7af51	-0.022422465
56	0x3e86dbe9	0.26339653
57	0x3e39df1b	0.18151514
58	0xbe38db7e	-0.1805248
59	0x3e80802d	0.2509779
60	0x3d8916e6	0.06693821
61	0x3e28c626	0.16481838
62	0x3e672909	0.22574247
63	0x3e3cf63f	0.1845331

module.model.0.bias f4 [64]
0	0x3aabfa96	0.0013120945
1	0x3aebf7dd	0.0018002946
2	0x38a79efc	7.992794e-05
3	0x3a864433	0.0010243714
4	0x3ab72ed1	0.0013975744
5	0x39dfff71	0.00042724193
6	0x3a2bccb7	0.0006553637
7	0x3a7d5e7f	0.0009665265
8	0x3a3a00df	0.0007095467
9	0x37ff52a1	3.0436846e-05
10	0x3aff2ea2	0.0019468854
11	0x396cb44c	0.0002257388
12	0x398f5ae4	0.00027342804
13	0x3a5d6c1a	0.00084465893
14	0x3a29cbce	0.00064772076
15	0x3a247dc7	0.0006274846
16	0x39e94ca7	0.00044498334
17	0x3a9d2aab	0.0011990865
18	0x399cbc6d	0.00029895027
19	0x3a9f77d2	0.0012166447
20	0x3af2a00e	0.0018510835
21	0x3a93e49d	0.0011283342
22	0x3ad01941	0.0015876667
23	0x39d4706a	0.00040519546
24	0x3a77add6	0.0009448206
25	0x3a426aff	0.00074164564
26	0x3a8f9dd0	0.0010957066
27	0x3803d0d6	3.1427327e-05
28	0x3aa0df24	0.0012273532
29	0x3a04c2c2	0.00050644216
30	0x396d41b8	0.00022626563
31	0x3ad010d3	0.0015874155
32	0x3a3076ef	0.00067315897
33	0x3ab0fec5	0.0013503662
34	0x3aae50cb	0.0013299225
35	0x3964d335	0.00021822455
36	0x3a9897fb	0.0011641973
37	0x3a215cee	0.000615551
38	0x3ad35b16	0.0016125168
39	0x3b00da88	0.0019661505
40	0x3a8d7282	0.0010791572
41	0x385f5f5b	5.325615e-05
42	0x3adabace	0.0016687752
43	0x3a8c3d38	0.0010699397
44	0x3a8315d2	0.001000101
45	0x3af186af	0.001842698
46	0x3ab26161	0.0013609343
47	0x3af98d17	0.001903924
48	0x39b4da8b	0.00034495103
49	0x3add42f3	0.0016880914
50	0x390f33b6	0.00013656807
51	0x3aa2bd83	0.0012416098
52	0x3ad72230	0.0016413387
53	0x3a97d7ab	0.001158466
54	0x3a48348b	0.0007637224
55	0x39a65777	0.00031727154
56	0x39d7728c	0.0004109334
57	0x3a1a8ca2	0.000589559
58	0x3ad5c478	0.0016309163
59	0x3ab4a0e1	0.0013780856
60	0x3a554165	0.000813505
61	0x3a5cd277	0.00084236957
62	0x3aefe94c	0.0018303781
63	0x3a7c74e4	0.0009630455

module.model.1.model.0.weight f4 [64, 64, 3, 3]
0	0xbd4d8b52	-0.050181694
1	0xbcaeb428	-0.02132614
2	0xbd93f032	-0.07223548
3	0xbc035beb	-0.00801752
4	0xbc666c64	-0.014063928
5	0xbd6b6f65	-0.05747928
6	0xbd8a79e3	-0.06761529
7	0x3d01016c	0.031495497
8	0x3b7f2e0f	0.0038937365
9	0xbd38d46e	-0.045124464
10	0x3d6f8fef	0.058486875
11	0x3d5da690	0.054113925
12	0x3d70b6f7	0.05876824
13	0xbd84a90f	-0.06477558
14	0x3be12ace	0.006871558
15	0xbccaf685	-0.024775753
16	0x3d5db907	0.054131534
17	0xbc9b70cc	-0.018974684
18	0xbd1b223e	-0.037874453
19	0x3d5e3257	0.054247227
20	0xbd8b82b9	-0.06812043
21	0x3a8692fa	0.0010267191
22	0x3bbd4b63	0.005776809
23	0xbd7f754b	-0.06236772
24	0xbc95e4b5	-0.018297533
25	0x3d8a65ca	0.06757696
26	0xbcd94718	-0.026523158
27	0xbcdf3b8a	-0.02725007
28	0xbd1bb12d	-0.038010765
29	0xbd11e361	-0.035617236
30	0xbd73bf25	-0.05950846
31	0x3d046b3a	0.03232882
32	0xbd02f92a	-0.031975903
33	0xbd83479f	-0.06410145
34	0xbd038289	-0.03210691
35	0x3c02647b	0.007958527
36	0x3d86a10f	0.06573688
37	0x3ca1c574	0.019747473
38	0xbc95493f	-0.018223403
39	0xbd2e1d2c	-0.04250829
40	0x3d306a15	0.043069918
41	0xbc553756	-0.013013681
42	0xbd689b1f	-0.05678856
43	0x3cf94731	0.030429455
44	0xbcd365a3	-0.0258053
45	0xbd27e7a9	-0.040992413
46	0x3d754daa	0.05988852
47	0x3d2c2589	0.042027984
48	0x3d750568	0.05981961
49	0x3bfce193	0.00771732
50	0x3d33eae8	0.043925196
51	0xbd90b2a6	-0.070653245
52	0x3ca8adbe	0.02059066
53	0x3d363241	0.04448152
54	0x3d8400df	0.06445479
55	0xbd91d49e	-0.07120632
56	0x3d80b659	0.0628478
57	0x3c9b2e16	0.018942874
58	0x3cedcd66	0.029028606
59	0x3bb6bdc2	0.00557682
60	0x378ba739	1.664796e-05
61	0xbd888ae0	-0.06667113
62	0xbcec0736	-0.028812032
63	0xbd5905cf	-0.052984055
64	0x3ca7bea7	0.020476652
65	0x3d05cb12	0.032664366
66	0x3d89f3cf	0.06735956
67	0xbcc552d9	-0.024087356
68	0xbd85fdc3	-0.06542542
69	0xbbeba66a	-0.007191469
70	0x3d846ab8	0.064656675
71	0xbd1b3a70	-0.037897527
72	0xbd750047	-0.059814718
73	0xbc5e66a9	-0.013574281
74	0xbd86e818	-0.06587237
75	0xbd694886	-0.05695393
76	0xbb424784	-0.0029644677
77	0x3c40f8ab	0.011778037
78	0xbbf07db7	-0.007339205
79	0xbd76b2e6	-0.060229205
80	0x3d577a6b	0.05260698
81	0xbcacbe49	-0.021086829
82	0x3d85982e	0.065231666
83	0xbce2e3bd	-0.027696485
84	0xbd91f7a8	-0.07127315
85	0xbd3dc499	-0.04633007
86	0x3c2e3f93	0.010635274
87	0x3d8cbf54	0.068724304
88	0x3d3d6aa2	0.04624427
89	0x3be51a5e	0.0069916686
90	0xbd243cf8	-0.040097207
91	0xbd7456dc	-0.059653148
92	0xbd570f1c	-0.052504644
93	0xbc3fc1dd	-0.011703935
94	0xbd77d0ff	-0.06050205
95	0xbd16031c	-0.03662406
96	0x3bedc355	0.0072559514
97	0x3d277042	0.04087854
98	0xbc6f6566	-0.014611578
99	0x3bb6ddbf	0.0055806334
100	0x3af9d52a	0.001906072
101	0x3d8a5ce1	0.067559965
102	0xbca451b5	-0.020058492
103	0xbcefd05c	-0.029274158
104	0xbd07b98a	-0.03313593
105	0xbca353fe	-0.019937512
106	0x3d65a340	0.05606389
107	0x3d4c111e	0.04982101
108	0x3cfa2b8a	0.03053834
109	0x3d80ffc3	0.06298783
110	0x3d18eeee	0.037337236
111	0x3cfb8261	0.030701818
112	0xbbe4dfb4	-0.0069846753
113	0x3d380644	0.04492785
114	0xbd6d5f50	-0.057952225
115	0xbb80851d	-0.0039221183
116	0xbcb5cf5d	-0.022193605
117	0xbd14bd1a	-0.036313154
118	0x3d513528	0.051076084
119	0x3d0e41d0	0.034730732
120	0x3cbbc73b	0.022922149
121	0xbd2a622f	-0.04159754
122	0xbc7bafaa	-0.015361706
123	0xbd92b473	-0.07163324
124	0x3cd1ff97	0.02563457
125	0xbd93f4b3	-0.07224407
126	0xbcffa7cc	-0.031207941
127	0x3d5b7639	0.053579543
128	0xbd0cd4b3	-0.034382533
129	0xbc3c65f3	-0.011498916
130	0xbcb0341b	-0.02150922
131	0xbcc25cee	-0.023725953
132	0xbd572197	-0.05252227
133	0x3d14fab7	0.036371913
134	0x3d398ea1	0.045302037
135	0xbce4c397	-0.027925296
136	0x3d704a12	0.05866439
137	0xbd5b8981	-0.05359793
138	0x3d1cc113	0.038270067
139	0x3b303e83	0.0026892729
140	0x3d15fd2f	0.036618408
141	0x3d043be6	0.032283686
142	0xbd261dec	-0.04055588
143	0xbbb326bc	-0.005467264
144	0xbd14560e	-0.03621488
145	0x3c2daf6e	0.010600908
146	0xbc3014b0	-0.01074712
147	0xbc0775ba	-0.008267814
148	0x3d72151f	0.059102174
149	0xbd15abce	-0.0365408
150	0x3d88f3e9	0.06687147
151	0x3d5c2ea4	0.053755417
152	0x3d20da9e	0.03927099
153	0x3c7e14a6	0.015507853
154	0xbd694a49	-0.05695561
155	0xbc7ab79c	-0.015302565
156	0xbc3f2f6d	-0.011669022
157	0x3d2c809a	0.04211483
158	0xbc5626dc	-0.013070788
159	0x3c4e038c	0.012574088
160	0xbb9a1bc0	-0.004703015
161	0xbc629506	-0.013829475
162	0x3d23f6ee	0.040030412
163	0x3cec99a3	0.028881853
164	0x3c1dd12d	0.009632391
165	0xbd56729f	-0.052355405
166	0x3d20e6bf	0.039282557
167	0xbd1a59e3	-0.03768338
168	0xbc8b954d	-0.017038966
169	0x3b9f8c7e	0.004869043
170	0xbcfacd42	-0.030615453
171	0x3cb050c7	0.021522893
172	0x3cada2d8	0.021195814
173	0xbac820d6	-0.0015268575
174	0x3cf3e6f6	0.029773217
175	0x3d28894b	0.041146558
176	0x3cbe6e12	0.023245845
177	0x3d854dd6	0.06508987
178	0xbcbe1232	-0.023202036
179	0x3c8b321c	0.016991667
180	0x3d8343bc	0.06409404
181	0xbd2768ab	-0.040871304
182	0x3d0a749c	0.033802614
183	0xbc0750ef	-0.008259042
184	0xbd238289	-0.03991941
185	0x3bd49961	0.0064880108
186	0x3bbad0ad	0.0057011456
187	0x3be1336a	0.006872584
188	0x3cadb8b3	0.021206236
189	0x3cba9384	0.022775419
190	0xbd05a6a8	-0.03262964
191	0x3d86ea1c	0.065876216
192	0xbd457f9f	-0.048217412
193	0xbc8200ad	-0.015869463
194	0x3d23d0f9	0.039994214
195	0x3cab4292	0.020905767
196	0x3d2e8994	0.042611673
197	0x3c3c3a48	0.011488505
198	0x3d888cbc	0.06667468
199	0x3d002f19	0.031294916
200	0xbd181463	-0.037128817
201	0x3d836616	0.06415956
202	0x3c28d009	0.010303506
203	0xbd75fa7d	-0.060053337
204	0x3c566e0d	0.013087762
205	0xbd585d9f	-0.05282366
206	0xbc0fa6ce	-0.008767797
207	0xbbd3d781	-0.006464899
208	0x3b0ba230	0.0021306388
209	0x3d109654	0.035299614
210	0xbd87e178	-0.066348016
211	0xbd39b63a	-0.0453398
212	0xbad8594a	-0.0016506102
213	0xbd42236e	-0.04739707
214	0x3c0ae278	0.008476846
215	0xbc2a8c47	-0.010409421
216	0x3d0d927c	0.034563527
217	0xbd4c42ca	-0.049868383
218	0x3d7f0947	0.062264707
219	0x3d430235	0.047609527
220	0xbd29b7dc	-0.041435108
221	0xbae8e395	-0.001776802
222	0xbd19c383	-0.03753997
223	0xbcb8b980	-0.02254939
224	0xbd46662e	-0.04843729
225	0xbc9d1b06	-0.019177925
226	0xbca2a33c	-0.019853227
227	0x3d4bd84c	0.049766824
228	0x3d64fa6c	0.055902883
229	0x3c9e2607	0.019305242
230	0x3cbaf5e4	0.022822328
231	0x3cb680cd	0.022278214
232	0xbd4dc240	-0.05023408
233	0x3d66b39c	0.056323633
234	0xbd86f57d	-0.06589792
235	0xbc3d1a5f	-0.011541932
236	0x3d20052f	0.039067443
237	0x3cbb9576	0.022898417
238	0xbc394e76	-0.01131021
239	0x3cd22dc9	0.025656598
240	0xbd3f31ec	-0.04667847
241	0x3d247a33	0.0401556
242	0x3a1654ac	0.0005734663
243	0xbd8fe244	-0.070255786
244	0x3d7ad220	0.061235547
245	0xbcf4c2d1	-0.029878052
246	0x3d128896	0.03577479
247	0x3c5cad06	0.013468986
248	0xbc93ba6c	-0.018033229
249	0xbd20548c	-0.03914313
250	0x3d678e08	0.056531936
251	0x3d896b15	0.067098774
252	0xbd8c4497	-0.0684902
253	0x3c9db63c	0.019251935
254	0xbd722ca9	-0.059124622
255	0xbcca6717	-0.02470736

module.model.1.model.0.bias f4 [64]
0	0x3a8aec13	0.001059892
1	0x3a9879c6	0.0011632971
2	0x3a43e4d3	0.0007472757
3	0x3a7b491d	0.0009585785
4	0x3a935820	0.0011241473
5	0x3a90c8f6	0.0011046219
6	0x3a860209	0.0010223995
7	0x3a444db0	0.0007488383
8	0x3a87c3af	0.0010358001
9	0x3a8eb5fc	0.0010887976
10	0x3a7e4940	0.0009700246
11	0x3a808856	0.0009806256
12	0x3a9225dc	0.0011150199
13	0x3a5e2802	0.00084745896
14	0x3a8c9442	0.0010725337
15	0x3a9e9a2f	0.0012100394
16	0x3a6ef412	0.0009115349
17	0x3a56359d	0.0008171441
18	0x3a7461cc	0.0009322434
19	0x3a7342ea	0.00092796853
20	0x3aa04317	0.0012227026
21	0x3a918033	0.0011100828
22	0x3a9368e0	0.0011246465
23	0x3aa416f0	0.0012519043
24	0x3a83b93e	0.0010049713
25	0x3a8de1ed	0.0010824777
26	0x3aa78f10	0.0012783725
27	0x3a7f7852	0.0009745407
28	0x3a90fd06	0.0011061735
29	0x3a75884e	0.0009366319
30	0x3a934587	0.0011235931
31	0x3a4e5b50	0.0007871883
32	0x3a82af40	0.0009970441
33	0x3a8c18a4	0.0010688496
34	0x3a5894ce	0.000826192
35	0x3a70bf96	0.0009183822
36	0x3a66a1f2	0.00087979354
37	0x3aa089c4	0.0012248089
38	0x3a884bcf	0.0010398569
39	0x3a9fa894	0.0012180978
40	0x3a68916f	0.0008871769
41	0x3a642ca6	0.0008704163
42	0x3a89e56e	0.0010520646
43	0x3a8dce20	0.0010818876
44	0x3a804129	0.0009785044
45	0x3a4407b0	0.0007477952
46	0x3a9463a4	0.0011321199
47	0x3a692034	0.0008893043
48	0x3a969ec2	0.0011491405
49	0x3a886f50	0.001040915
50	0x3a8f19fe	0.001091778
51	0x3a7f4080	0.0009737089
52	0x3a890944	0.0010455032
53	0x3a63526e	0.0008671646
54	0x3ab43e82	0.0013751539
55	0x3a4c8ab0	0.00078026485
56	0x3a993c2f	0.001169091
57	0x3aa995c8	0.0012938315
58	0x3a8d180c	0.0010764613
59	0x3a6b5445	0.0008977096
60	0x3a792812	0.0009504567
61	0x3aa36b68	0.0012467923
62	0x3a3f759b	0.00073035964
63	0x3a4fe240	0.0007930137

module.model.1.model.1.weight f4 [64]
0	0x3f801223	1.0005535
1	0x3f7ff41d	0.9998186
2	0x3f7fcf11	0.99925333
3	0x3f7fdd19	0.99946743
4	0x3f7fff59	0.99999005
5	0x3f7fd90e	0.99940574
6	0x3f7ff47a	0.99982417
7	0x3f8007e2	1.0002406
8	0x3f8011b1	1.0005399
9	0x3f7ffd74	0.99996114
10	0x3f801b17	1.0008267
11	0x3f801386	1.0005958
12	0x3f7fce95	0.99924594
13	0x3f7fdac7	0.999432
14	0x3f801cb5	1.0008761
15	0x3f800845	1.0002524
16	0x3f7ff243	0.9997904
17	0x3f8025ef	1.0011576
18	0x3f7feb01	0.9996796
19	0x3f800db9	1.0004188
20	0x3f802445	1.0011069
21	0x3f7fe8e6	0.9996475
22	0x3f7fe5e9	0.9996019
23	0x3f7feedc	0.99973845
24	0x3f7fe49f	0.99958223
25	0x3f7fb4bb	0.9988515
26	0x3f7fc261	0.99905974
27	0x3f7fdae0	0.9994335
28	0x3f7ff0fe	0.999771
29	0x3f7fee90	0.9997339
30	0x3f7fc50a	0.9991003
31	0x3f801876	1.0007465
32	0x3f7fe89d	0.99964315
33	0x3f800bb9	1.0003577
34	0x3f80065d	1.0001942
35	0x3f8019ab	1.0007833
36	0x3f800901	1.0002748
37	0x3f800e94	1.0004449
38	0x3f7fc4e8	0.9990983
39	0x3f7fdbfc	0.99945045
40	0x3f7ffe83	0.9999773
41	0x3f7fb70f	0.998887
42	0x3f7fd57a	0.99935114
43	0x3f8016d7	1.000697
44	0x3f7ff8e7	0.9998917
45	0x3f800df2	1.0004256
46	0x3f7fc4b8	0.99909544
47	0x3f80086c	1.000257
48	0x3f7fd4a1	0.9993382
49	0x3f7ff3a8	0.99981165
50	0x3f7fce27	0.9992394
51	0x3f7ffa55	0.9999135
52	0x3f800e81	1.0004426
53	0x3f8002ed	1.0000893
54	0x3f801a9a	1.0008118
55	0x3f7fbf86	0.99901617
56	0x3f8003a3	1.000111
57	0x3f8016e2	1.0006983
58	0x3f7ff78c	0.999871
59	0x3f801a50	1.000803
60	0x3f8010e1	1.0005151
61	0x3f7fbb7d	0.9989546
62	0x3f800697	1.0002011
63	0x3f800a38	1.0003119

module.model.1.model.1.bias f4 [64]
0	0x3a549351	0.000810911
1	0xb9c8e70d	-0.0003831912
2	0xba001669	-0.0004886152
3	0xb987cb6f	-0.00025900776
4	0xba1079b6	-0.00055113004
5	0xba7e2a67	-0.00096956495
6	0xb9888302	-0.0002603755
7	0x39223ab7	0.00015471397
8	0xb9015f18	-0.00012337824
9	0xb9b8d240	-0.00035251863
10	0x39efa618	0.00045709382
11	0x3986c132	0.00025702413
12	0xb9ebd174	-0.00044978748
13	0xb9e9e504	-0.00044611853
14	0x3a23f6f7	0.0006254757
15	0x3a3d1c7f	0.0007214024
16	0xb894017e	-7.057468e-05
17	0x3a902fcc	0.0011000573
18	0xb9d9a46b	-0.00041511966
19	0x3a7ca171	0.0009637094
20	0x3a9299a8	0.0011184709
21	0x39ad7f0f	0.00033091797
22	0xba429a34	-0.0007423491
23	0xba02582f	-0.0004972247
24	0x3784e655	1.5842883e-05
25	0xba85882d	-0.0010187678
26	0xb9ca3a6e	-0.00038571976
27	0xb995702c	-0.0002850307
28	0x3a24cde5	0.0006286784
29	0xba231960	-0.0006221738
30	0xba7e0300	-0.0009689778
31	0x3a6416e1	0.0008700919
32	0xb97ce2ea	-0.00024117125
33	0xb9b36a1f	-0.00034220607
34	0x39d7afff	0.00041139123
35	0x3a766118	0.00093986234
36	0x396fa7d5	0.00022855338
37	0x3a0a84fa	0.0005284097
38	0xb98ca6f8	-0.00026827282
39	0xba41a6c3	-0.0007387215
40	0x398ffd69	0.0002746389
41	0xba76e612	-0.00094184384
42	0xba899422	-0.0010496418
43	0x3a4d9cc2	0.0007843488
44	0xb85f9230	-5.330349e-05
45	0xb9dcafb9	-0.00042092594
46	0xba105c6d	-0.00055069366
47	0x39cf2681	0.00039510804
48	0xb9ef2ede	-0.0004562055
49	0xb9ef0964	-0.0004559263
50	0xb995b1dd	-0.00028552013
51	0x398f7ac2	0.00027366547
52	0x39c0f5d7	0.0003680426
53	0x37847842	1.5791626e-05
54	0x3a804fea	0.0009789441
55	0xb9fb1f1a	-0.00047897623
56	0x3a546286	0.00081018393
57	0x3a0ce17b	0.00053741754
58	0xb9b7ca48	-0.0003505519
59	0x3a22c29a	0.00062088075
60	0x3a4068a4	0.00073398114
61	0xba817509	-0.0009876798
62	0xba367a52	-0.0006960976
63	0x38d3b248	0.000100944715

module.model.1.model.1.running_mean f4 [64]
0	0x38d1fca0	0.00010012952
1	0xb82c7203	-4.1114177e-05
2	0x3b34b58b	0.0027574028
3	0x3ada5342	0.0016656893
4	0xb9a8e75b	-0.0003221583
5	0x3ab5c17a	0.0013866865
6	0x3992be6e	0.0002798917
7	0x3b5d4746	0.0033764406
8	0x3b692ccd	0.0035579682
9	0x39e97036	0.00044524827
10	0x3a702d1b	0.00091619947
11	0x3b54c038	0.0032463204
12	0x3ad99eb6	0.0016603086
13	0x3a61fb85	0.0008620548
14	0x3a99eade	0.001174297
15	0x3b2dc988	0.0026517827
16	0x3ac79d2a	0.0015229334
17	0x3b1ab89a	0.0023608566
18	0xb86c379e	-5.6318582e-05
19	0x3a2edd99	0.0006670594
20	0x3b5bda99	0.0033547042
21	0x3b3ecd86	0.00291142
22	0x3b3b2883	0.0028558082
23	0x3a80c682	0.0009824785
24	0x3ad66349	0.0016356494
25	0x3a724612	0.00092420087
26	0xba372779	-0.0006986778
27	0xba8c8215	-0.001071992
28	0x3aac85c7	0.0013162427
29	0xb9e17330	-0.00043001166
30	0x3aecf484	0.0018078242
31	0x39b5ebd5	0.0003469872
32	0x3a480395	0.00076299283
33	0xbb153e7a	-0.0022772835
34	0x3a9fb436	0.0012184444
35	0xb877931d	-5.90264e-05
36	0x3a87d3c2	0.0010362791
37	0x3a2591ad	0.0006315958
38	0x3a955922	0.0011394361
39	0xb9a3e517	-0.00031260468
40	0x3b11d71b	0.0022253457
41	0x3a1fd2dc	0.0006096789
42	0x3b4236e9	0.002963478
43	0x3a30f776	0.0006750742
44	0x3a16d8ec	0.000575437
45	0x39f3b617	0.0004648424
46	0x3a22b778	0.00062071485
47	0x3b312fb6	0.0027036495
48	0xbabddaad	-0.0014484726
49	0x3b573b13	0.0032841607
50	0x3ab11d45	0.0013512751
51	0x3a1e140d	0.00060302095
52	0xb99c9ffa	-0.0002987383
53	0xba8b0ce5	-0.0010608701
54	0x3b131c14	0.0022447156
55	0x3ad22f6c	0.0016035861
56	0x3b1884e0	0.002327256
57	0x3b47e568	0.0030501727
58	0x3b31e484	0.0027144263
59	0x39ff69de	0.00048716267
60	0x3b65d60b	0.0035070207
61	0x3a0a8efc	0.00052855886
62	0x3a5b15ec	0.00083574536
63	0xb9a0d688	-0.00030677416

module.model.1.model.1.running_var f4 [64]
0	0x3887c48c	6.473911e-05
1	0x39e2453b	0.0004315766
2	0x3927e73b	0.00016012501
3	0x3a2ec5c0	0.000666704
4	0x3969aa88	0.0002228414
5	0x3a09a280	0.00052503496
6	0x3a2f0546	0.0006676506
7	0x39818924	0.00024706975
8	0x3968391b	0.00022146518
9	0x38d9eedc	0.00010391857
10	0x39060fa3	0.00012785061
11	0x39bb5ee5	0.0003573812
12	0x38018204	3.0877083e-05
13	0x3a866607	0.0010253795
14	0x3a47d1a8	0.0007622489
15	0x3a0be442	0.0005336442
16	0x3665b968	3.423158e-06
17	0x3880f7d8	6.14968e-05
18	0x37931d3c	1.7537379e-05
19	0x3899987f	7.324013e-05
20	0x3a2efbda	0.0006675102
21	0x3a8188ae	0.0009882653
22	0x36d36b3a	6.300773e-06
23	0x36d7c525	6.43045e-06
24	0x38176673	3.609662e-05
25	0x37cfbeb3	2.4765124e-05
26	0x373a31bc	1.1098044e-05
27	0x39d35efd	0.00040315828
28	0x398304e4	0.0002498991
29	0x394f06e1	0.00019743621
30	0x3967f2d6	0.0002212034
31	0x3959a429	0.00020755887
32	0x3b1abc98	0.0023610946
33	0x3a6b4fb6	0.00089764164
34	0x3a5ffb7d	0.00085442496
35	0x3991949b	0.00027767275
36	0x3a9cf4fa	0.0011974864
37	0x379bb0bb	1.8559736e-05
38	0x38532862	5.034393e-05
39	0x362bbf5c	2.5592371e-06
40	0x3a56892f	0.0008183894
41	0x3808870c	3.25507e-05
42	0x39af1e0d	0.0003340099
43	0x38e289d6	0.00010802194
44	0x39370b84	0.0001745653
45	0x36d3fe87	6.317921e-06
46	0x392d18ea	0.00016507847
47	0x39a87262	0.0003212868
48	0x38d125ee	9.9729616e-05
49	0x3927059c	0.00015928451
50	0x38840bf8	6.29648e-05
51	0x381d9143	3.7567002e-05
52	0x39a9be89	0.00032376152
53	0x393467c3	0.00017204792
54	0x39f502fa	0.0004673226
55	0x386e600e	5.683308e-05
56	0x398b9e98	0.00026630308
57	0x39442c72	0.00018708574
58	0x3914a27a	0.00014174907
59	0x37bb4d3c	2.2328102e-05
60	0x38a84c16	8.0250364e-05
61	0x36bf797e	5.706387e-06
62	0x37086967	8.130773e-06
63	0x39f09cc4	0.00045893167

module.model.1.model.3.weight f4 [64, 64, 3, 3]
0	0x3d248753	0.040168118
1	0x3d53b3f2	0.05168528
2	0xbcf9f721	-0.030513348
3	0xbab9d5d5	-0.0014178107
4	0xbd031316	-0.032000624
5	0xbcd51d80	-0.026015043
6	0x3d02c579	0.031926606
7	0x3d80a2c7	0.06281047
8	0xbcbcb692	-0.023036275
9	0x3d564271	0.052309457
10	0xbd01d6a4	-0.031698838
11	0xbd236058	-0.039886802
12	0xbd91b2bf	-0.07114171
13	0x3d7f1c0e	0.062282614
14	0xbc74d658	-0.014943682
15	0x3d3eadb7	0.046552386
16	0x3d8e63b3	0.0695261
17	0x3cf3abbc	0.029744975
18	0x3d8b25cc	0.067943186
19	0xbd5635a7	-0.05229726
20	0xbcb1774c	-0.02166333
21	0x3c047802	0.008085253
22	0x3d88cb6e	0.06679426
23	0xbd704659	-0.05866084
24	0x3cd0fb8c	0.025510572
25	0x3bcbf57b	0.006224332
26	0x3be0849a	0.006851745
27	0x3d6daee6	0.058028124
28	0x3c701bd7	0.014655075
29	0xbd13e8ce	-0.03611069
30	0x3ac4db06	0.0015018887
31	0x3d26b64a	0.04070119
32	0x3b3b2994	0.0028558718
33	0x3d64d0b1	0.055863086
34	0xbd82513f	-0.06363153
35	0x3d8bc4e8	0.06824666
36	0x3bdb56a8	0.00669368
37	0x3c956939	0.01823865
38	0x3d73644c	0.059421822
39	0x3c548963	0.012972209
40	0xbd35af7b	-0.044356804
41	0x3c3027c0	0.010751665
42	0xbd8f8169	-0.07007105
43	0x3c22a8ba	0.009927923
44	0xbc1f9912	-0.009741085
45	0x3d4276c8	0.04747656
46	0x3c91209b	0.017715743
47	0xbd888e38	-0.06667751
48	0x3cea4e93	0.02860192
49	0x3d5fedad	0.054670025
50	0xbd5a886b	-0.053352755
51	0x3d95327f	0.07285022
52	0xbbc9fa6f	-0.006163887
53	0xbcd1b5d3	-0.025599396
54	0x3b8e5ab6	0.0043443097
55	0xbd1cc613	-0.038274836
56	0x3d3a847c	0.045536503
57	0x3d2a4c3a	0.0415766
58	0x3d0e009b	0.034668546
59	0xbbe27ce0	-0.006911859
60	0xbd828051	-0.06372131
61	0x3c79417a	0.015213365
62	0x3c96e020	0.018417418
63	0x3d283437	0.04106542
64	0x3d3afda8	0.04565206
65	0xbd869bb5	-0.065726675
66	0xbd2236c6	-0.039603017
67	0xbd67c0c1	-0.05658031
68	0x3d8175a1	0.06321264
69	0xbc4d508a	-0.012531409
70	0xbc151418	-0.009099029
71	0x3c5c8723	0.0134599535
72	0xbd44b1df	-0.048021194
73	0x3d2a9f07	0.041655567
74	0x3c48ba00	0.012251377
75	0xbd3fdbb2	-0.046840377
76	0x3d1933c4	0.037402883
77	0xbca88ea8	-0.020575836
78	0x3c9258d6	0.017864626
79	0x3d7873bb	0.060657244
80	0x3bc12a25	0.0058949166
81	0xbd74cf80	-0.0597682
82	0xbd3667aa	-0.044532456
83	0x3d4a7f8f	0.049438056
84	0x3d106796	0.035255037
85	0x3d899405	0.067176856
86	0x3d368b4c	0.044566438
87	0x3c44b925	0.0120070325
88	0xbd425330	-0.047442615
89	0x3d1c730d	0.03819566
90	0xbd4b74f1	-0.04967207
91	0x3d8090fe	0.06277655
92	0x3c7b17cb	0.015325497
93	0xbcd93a25	-0.026516983
94	0x3b920b8f	0.0044569443
95	0x3d48b3c1	0.04899955
96	0xbd20b3c2	-0.03923393
97	0x3d8416cc	0.06449661
98	0xbd28178f	-0.041038092
99	0xbd8f6732	-0.07002105
100	0xbc87bb8a	-0.016568918
101	0x3cfa456c	0.030550681
102	0xbcc69958	-0.024243042
103	0x3d3402d7	0.04394802
104	0xbcca920b	-0.024727842
105	0xbc425d16	-0.011863014
106	0xbd0afbc3	-0.033931505
107	0xbd7eac7f	-0.062176224
108	0x3d5bf89c	0.05370389
109	0x3b2adf20	0.0026072934
110	0xbd093823	-0.0335008
111	0xbd43a719	-0.04776678
112	0xbce61fc1	-0.028091313
113	0xbce93b24	-0.028470583
114	0xbd0986ba	-0.03357575
115	0xbc2b08ec	-0.010439139
116	0xbce41fe2	-0.027847234
117	0x3cc9251b	0.024553826
118	0x3d3b7f4b	0.045775693
119	0x3d14653e	0.036229365
120	0x3d145d7c	0.036221966
121	0xbd073ed3	-0.0330189
122	0xbaff1793	-0.0019461982
123	0xbd84fc6c	-0.06493458
124	0xbd086476	-0.033298932
125	0x3b1ca51a	0.002390212
126	0xbcf2f71a	-0.029658843
127	0xbbc278bf	-0.005934804
128	0x3c1d253e	0.009591399
129	0x3d92fe7c	0.07177445
130	0xbcdf43e9	-0.027254062
131	0x3c39ae83	0.011333111
132	0xb7463b90	-1.1815588e-05
133	0xbd036624	-0.03207983
134	0xbaec1e31	-0.0018014369
135	0xbad4d42b	-0.0016237547
136	0x3d5c5046	0.053787492
137	0x3b500b11	0.0031744877
138	0xbd82a6a0	-0.063794374
139	0xbae4c184	-0.0017452692
140	0xbcccd6c0	-0.025004745
141	0x3d9143b1	0.07092989
142	0xbd72ecb6	-0.059307776
143	0xbd2f171f	-0.04274666
144	0xbd743e83	-0.05962993
145	0xbcdddfc9	-0.027084248
146	0xbbac7bd1	-0.0052637835
147	0x3d83279c	0.06404039
148	0xbd8052de	-0.06265806
149	0x3d023b7f	0.03179502
150	0xbd4eef62	-0.050521262
151	0xbd18271e	-0.03714668
152	0xbd45ae95	-0.048262198
153	0xbca57c25	-0.020200798
154	0x3cb1e1b3	0.021714067
155	0xbc5d8e14	-0.013522644
156	0xbd0c301d	-0.034225572
157	0xbc98152d	-0.018564785
158	0xbd81c4cb	-0.063363634
159	0xbc71e856	-0.014764866
160	0xbcfb09b6	-0.030644279
161	0xbd856728	-0.06513816
162	0x3d388873	0.045052003
163	0x3c47dfff	0.012199401
164	0x3d26270b	0.040564578
165	0x3d3603c9	0.044437204
166	0xbc27770c	-0.010221254
167	0xbd27d4dd	-0.040974487
168	0xbd41546e	-0.04719966
169	0x3d092216	0.033479773
170	0xbc51331e	-0.012768535
171	0xbd6fa9d6	-0.058511578
172	0x3c2d63b4	0.010582853
173	0xbd0941f9	-0.033510182
174	0xb9e2a838	-0.00043231412
175	0x3d59f04f	0.05320769
176	0x3d127deb	0.035764616
177	0x3d47ca58	0.048776954
178	0x3ced7d9c	0.02899056
179	0x3d7908a8	0.06079927
180	0x3d15a234	0.036531642
181	0xbd0182b1	-0.031618778
182	0xbd071027	-0.03297439
183	0x3d8e8ff2	0.06961049
184	0xbcb925d1	-0.02260104
185	0x3d8c5ea6	0.0685399
186	0xbcd9c2e3	-0.026582187
187	0x3c7be9ef	0.015375598
188	0xbb05468b	-0.0020336236
189	0xbbc4c8b5	-0.0060053715
190	0xbbb196cd	-0.005419588
191	0xbce95820	-0.028484404
192	0x3d12298b	0.03568415
193	0xbc84d589	-0.016215103
194	0xbbeb4e37	-0.007180955
195	0x3d8a97a4	0.067672044
196	0xbd2f2f67	-0.042769816
197	0xbd8c84ba	-0.06861253
198	0xbc9e3694	-0.019313134
199	0x3d630d81	0.0554328
200	0xbd8a9f51	-0.067686684
201	0xbd867263	-0.06564786
202	0xbcc22ed5	-0.023703972
203	0x3c80346f	0.015650002
204	0xbd09a1bb	-0.033601504
205	0x3d6cf1ea	0.057847895
206	0xbd46d857	-0.04854616
207	0x3d6b8c94	0.057507113
208	0xbb634645	-0.0034679335
209	0xbd87399c	-0.06602785
210	0xbd679ad0	-0.056544125
211	0xbd4b8b63	-0.049693476
212	0xbd7e4bdd	-0.062084068
213	0x3d2d0ade	0.042246692
214	0xbd31f15a	-0.04344306
215	0x3d892bf9	0.0669784
216	0xbd6712ac	-0.05641429
217	0x3d59ac29	0.0531427
218	0x3d6f095c	0.058358535
219	0xbc7c6800	-0.015405655
220	0xbd2dae16	-0.04240235
221	0x3d20a7d0	0.03922254
222	0x3d5ee557	0.054417934
223	0xbc428c38	-0.011874251
224	0xbd399550	-0.04530841
225	0xbd1f0488	-0.03882268
226	0xbd2e24c3	-0.042515527
227	0x3cf32f1c	0.02968555
228	0xbd047aa6	-0.03234353
229	0x3d8510a3	0.06497314
230	0xbb3837a9	-0.0028109348
231	0xbc39b75b	-0.011335219
232	0x3c3a0ee7	0.011356092
233	0xbd9199b4	-0.07109395
234	0xbd22ab24	-0.039713994
235	0x3cee5186	0.029091608
236	0xbd4c8aba	-0.049936987
237	0xbc4c9c89	-0.012488493
238	0x3cfa92f4	0.03058765
239	0x3d15bd32	0.036557384
240	0xbd3e56f9	-0.046469662
241	0xbcfb41db	-0.03067105
242	0xbc8491d5	-0.01618282
243	0x3cbcf3c2	0.023065452
244	0x3d93d9b2	0.072192565
245	0x3cf5067b	0.029910317
246	0xbd2eac84	-0.042644992
247	0xbc5d3f0b	-0.0135038
248	0x3d846358	0.06464261
249	0x3c5bfe2d	0.013427299
250	0xbd0b297f	-0.03397512
251	0x3d09e222	0.033662923
252	0x3c96d767	0.018413259
253	0x3bc8c198	0.006126594
254	0xbd907668	-0.07053834
255	0x3d484b77	0.048900094

module.model.1.model.3.bias f4 [64]
0	0x3a784488	0.0009470661
1	0x3a67d43b	0.00088435755
2	0x3a8fd568	0.0010973634
3	0x3a81daf8	0.0009907177
4	0x3a825094	0.0009942227
5	0x3a8540a6	0.0010166361
6	0x3a7cfd1a	0.0009650752
7	0x3a842960	0.0010083131
8	0x3a79d6fe	0.00095306325
9	0x3a95d2c7	0.0011430614
10	0x3a7616d5	0.00093875575
11	0x3a652f63	0.0008742718
12	0x3a81b857	0.0009896856
13	0x3a7e7787	0.0009707142
14	0x3a84988d	0.0010116264
15	0x3a81181c	0.0009849104
16	0x3a8b8901	0.0010645689
17	0x3a86e508	0.0010291645
18	0x3a82ca67	0.0009978533
19	0x3a87832f	0.0010338778
20	0x3a705a08	0.0009168689
21	0x3a8052cf	0.0009790304
22	0x3a8145ea	0.0009862755
23	0x3a7b14b9	0.0009577978
24	0x3a83c3d7	0.0010052872
25	0x3a7859a5	0.00094738073
26	0x3a707aa2	0.0009173547
27	0x3a8bbda4	0.0010661376
28	0x3a7ed0c4	0.00097204396
29	0x3a84fc52	0.0010145998
30	0x3aa185b1	0.0012323168
31	0x3a76713b	0.0009401028
32	0x3a886867	0.0010407091
33	0x3a7e2188	0.00096943276
34	0x3a898b9a	0.0010493875
35	0x3a806b92	0.0009797683
36	0x3a82ca70	0.0009978544
37	0x3a7eab09	0.0009714817
38	0x3a841596	0.0010077234
39	0x3a7747b8	0.0009432989
40	0x3a826274	0.0009947554
41	0x3a91b883	0.0011117611
42	0x3a863c0b	0.0010241283
43	0x3a858b77	0.0010188658
44	0x3a85f612	0.0010220429
45	0x3a798003	0.00095176714
46	0x3a816909	0.0009873222
47	0x3a6ef657	0.0009115687
48	0x3a8a1548	0.0010534907
49	0x3a73f3fd	0.00093060714
50	0x3a87802f	0.0010337884
51	0x3a82c9b0	0.000997832
52	0x3a81e324	0.0009909612
53	0x3a806653	0.000979612
54	0x3a935f23	0.0011243563
55	0x3a96b1ab	0.0011497041
56	0x3a87355e	0.0010315587
57	0x3a7e9f6e	0.0009713088
58	0x3a81bc62	0.0009898061
59	0x3a7dfadd	0.00096885656
60	0x3a917df7	0.0011100163
61	0x3a807358	0.00098
62	0x3a63c213	0.0008688282
63	0x3a7fe940	0.0009762235

module.model.1.model.4.weight f4 [64]
0	0x3f802440	1.0011063
1	0x3f802390	1.0010853
2	0x3f7fc7a6	0.99914014
3	0x3f80150e	1.0006425
4	0x3f801241	1.0005571
5	0x3f7fb840	0.9989052
6	0x3f801ca8	1.0008745
7	0x3f802671	1.0011731
8	0x3f7fdf19	0.99949795
9	0x3f7fbc83	0.9989702
10	0x3f802753	1.0012001
11	0x3f80120c	1.0005507
12	0x3f7fcd2b	0.99922436
13	0x3f8024a6	1.0011184
14	0x3f7faf9d	0.9987734
15	0x3f7faea5	0.9987586
16	0x3f7fc019	0.9990249
17	0x3f8029d0	1.001276
18	0x3f7fb7c9	0.9988981
19	0x3f801dc9	1.000909
20	0x3f802315	1.0010706
21	0x3f802805	1.0012213
22	0x3f801ece	1.0009401
23	0x3f7ff01a	0.9997574
24	0x3f7fb233	0.99881285
25	0x3f802a29	1.0012866
26	0x3f802496	1.0011165
27	0x3f7fc8e1	0.9991589
28	0x3f802075	1.0009905
29	0x3f7ffec2	0.99998105
30	0x3f7fbcc0	0.99897385
31	0x3f80248a	1.0011151
32	0x3f7fbc2d	0.9989651
33	0x3f80221b	1.0010408
34	0x3f80208d	1.0009934
35	0x3f7fbb82	0.9989549
36	0x3f7febd0	0.99969196
37	0x3f801317	1.0005826
38	0x3f7fc3d8	0.9990821
39	0x3f802994	1.0012689
40	0x3f7fcf63	0.9992582
41	0x3f7fcb5e	0.9991969
42	0x3f7fbb45	0.99895126
43	0x3f801de9	1.0009128
44	0x3f8028b7	1.0012425
45	0x3f802849	1.0012294
46	0x3f8020e3	1.0010036
47	0x3f8026d7	1.0011853
48	0x3f7fb11c	0.9987962
49	0x3f8029ba	1.0012734
50	0x3f7fca7c	0.9991834
51	0x3f7ffa0c	0.99990916
52	0x3f8020ec	1.0010047
53	0x3f802114	1.0010095
54	0x3f7fb14e	0.9987992
55	0x3f7fb38b	0.99883336
56	0x3f80033a	1.0000985
57	0x3f7ff838	0.99988127
58	0x3f7fce56	0.9992422
59	0x3f7fdeb5	0.999492
60	0x3f7fcb5a	0.99919665
61	0x3f7fb913	0.99891776
62	0x3f802756	1.0012004
63	0x3f8022ac	1.0010581

module.model.1.model.4.bias f4 [64]
0	0x3a93ef4e	0.0011286528
1	0x3a8bad8a	0.0010656577
2	0xba7726f8	-0.0009428109
3	0x3a9fb3ff	0.001218438
4	0x3a4b81d9	0.0007763184
5	0xba91da2c	-0.0011127642
6	0x3a6a48ff	0.0008937269
7	0x3a8efc5a	0.0010908947
8	0x3a445aeb	0.00074903545
9	0xba8c0620	-0.0010682978
10	0x3a957f13	0.0011405669
11	0x3a73aa4f	0.00092950923
12	0xba816e7d	-0.0009874847
13	0x3a9db25d	0.0012031306
14	0xba9f6e5f	-0.001216363
15	0xbaa1939e	-0.0012327319
16	0xba85e3d7	-0.0010214996
17	0x3aaa1d01	0.0012978615
18	0xba975042	-0.0011544304
19	0xba77313a	-0.00094296376
20	0x3a9718a4	0.0011527729
21	0x3aa373ab	0.0012470385
22	0x3a8505d6	0.0010148834
23	0xba9cf69c	-0.0011975351
24	0xba9d4a50	-0.0012000296
25	0x3aa2da93	0.0012424759
26	0x3a94f6ce	0.0011365057
27	0xba803b52	-0.0009783304
28	0x3a978177	0.0011558969
29	0xb9e239eb	-0.0004314923
30	0xba910a1f	-0.0011065638
31	0x3a9dc70c	0.001203747
32	0x39359f7d	0.00017320919
33	0x3a8d1852	0.0010764694
34	0x3a4fcb47	0.0007926714
35	0xba83001e	-0.0009994542
36	0xba1af54e	-0.0005911187
37	0x3a5865f3	0.0008254938
38	0xba6ef695	-0.0009115723
39	0x3aa7e334	0.0012808801
40	0x3a3c4462	0.00071818207
41	0xba796f89	-0.0009515216
42	0xba9d0a01	-0.0011981131
43	0x3a91917f	0.0011105983
44	0x3aa52bd2	0.001260156
45	0x3a9c8110	0.0011940319
46	0x3a8bf115	0.0010676706
47	0x3aa0aa48	0.0012257779
48	0xba9ac4a0	-0.0011807866
49	0x3aa64fa1	0.0012688526
50	0xba73d94f	-0.0009302096
51	0xb981a9ac	-0.00024731213
52	0x3aa00f6c	0.0012211627
53	0x3a7ef4fc	0.00097258366
54	0xba9ba20c	-0.0011873855
55	0xba9c723f	-0.0011935903
56	0xba169af7	-0.00057451375
57	0x3aa6b94a	0.0012720015
58	0xba9458dc	-0.0011317986
59	0x39342aa5	0.00017182024
60	0xb9f4b271	-0.00046672256
61	0xba9363bc	-0.0011244933
62	0x3a9b325e	0.0011840572
63	0x3a96f6d1	0.0011517649

module.model.1.model.4.running_mean f4 [64]
0	0xbe953cd3	-0.29147968
1	0xbdab5652	-0.08366074
2	0xbba66d61	-0.005078957
3	0xbe787d23	-0.24266486
4	0x3d036e45	0.032087583
5	0x3b5397a9	0.0032286441
6	0x3e284e22	0.16436055
7	0x3d63ad75	0.055585343
8	0x3df0d625	0.11759595
9	0xbd06310d	-0.032761622
10	0xbefb9aca	-0.49141532
11	0xbdc1047a	-0.09424682
12	0xbddc4140	-0.10754633
13	0x3e036322	0.12830785
14	0x3f5312b9	0.82450444
15	0x3e33b8d5	0.17550977
16	0xbe3a454b	-0.18190496
17	0x3ad83068	0.0016493918
18	0x3f2e0134	0.67970586
19	0xbe996ec2	-0.29967314
20	0xbee36589	-0.44413403
21	0x3ec87ee1	0.391593
22	0x3e65aca3	0.22429137
23	0xbf2bb6b5	-0.67075664
24	0xbcfc028f	-0.030762939
25	0x3e6af476	0.22944817
26	0xbe73c4a0	-0.23805475
27	0xbce5ea50	-0.02806583
28	0x3e68dece	0.22741243
29	0x3eda7dcd	0.42674103
30	0xbe19e9e6	-0.15030631
31	0x3dd6d122	0.10489108
32	0xbc85bf7e	-0.016326662
33	0x3e0ff457	0.14058052
34	0xbe7afc1d	-0.24510236
35	0x3e5a4bdc	0.21318
36	0xbc6b8b47	-0.014376468
37	0xbea8cfa5	-0.3297092
38	0xbe0b1f56	-0.13586172
39	0x3e3d4a18	0.18485296
40	0xbcff398e	-0.031155374
41	0x3e7c05c1	0.2461157
42	0xbee90d53	-0.45517978
43	0xbedcf5c9	-0.4315627
44	0x3f3c9c97	0.7367644
45	0xbf43ed61	-0.76534086
46	0xbe935ddd	-0.2878255
47	0xbe21068e	-0.15725157
48	0x3de17b6f	0.11009871
49	0xbf3a4a1e	-0.72769344
50	0xbee282ca	-0.4424041
51	0xbe5865ed	-0.21132632
52	0x3e812edf	0.25231072
53	0xbe581920	-0.21103334
54	0xbe80719f	-0.25086686
55	0xbeb2d07e	-0.34924692
56	0xbe90c271	-0.28273347
57	0xbf06186b	-0.5238101
58	0x3f1a84b1	0.6035872
59	0xbe7a71e6	-0.24457511
60	0xbdd72e71	-0.10506905
61	0xbdf72f35	-0.12069551
62	0xbd60e396	-0.054904543
63	0x3e66be29	0.22533478

module.model.1.model.4.running_var f4 [64]
0	0x3e5e7ea9	0.21728005
1	0x3d0c1a40	0.03420472
2	0x3d245aeb	0.04012577
3	0x3d600770	0.054694593
4	0x3f52c39c	0.82329726
5	0x3ee393bc	0.4444865
6	0x3d9a4e91	0.075345166
7	0x3e34b2a2	0.17646268
8	0x3d1854a0	0.03719008
9	0x3ed93eb1	0.42430642
10	0x3eed941d	0.46402064
11	0x3daa2e5c	0.083096236
12	0x3fb8b446	1.4430015
13	0x3e7506ab	0.23928325
14	0x3e9b6c91	0.30356267
15	0x3ced2abe	0.028951045
16	0x3e309454	0.17244083
17	0x3fd26a03	1.6438602
18	0x3eac5baa	0.33663684
19	0x3dda3924	0.1065543
20	0x3e10dfb7	0.1414784
21	0x3e3386fa	0.17531958
22	0x3e8f7595	0.28019395
23	0x3e383241	0.1798792
24	0x3e465f50	0.19372296
25	0x3dffbd38	0.124872625
26	0x3dc36523	0.09540775
27	0x3f137bff	0.5761108
28	0x3e46f273	0.19428425
29	0x3e3c72f9	0.18403234
30	0x3d30499c	0.04303895
31	0x3e66a7af	0.22524904
32	0x3e149ec7	0.14513694
33	0x3e3edc04	0.18638617
34	0x3edd4ddb	0.43223462
35	0x3e006525	0.12538584
36	0x3ebb3c65	0.36569515
37	0x3f190de1	0.597868
38	0x3f398282	0.72464764
39	0x3eeb16fc	0.45915973
40	0x3f5289c2	0.8224145
41	0x3e296d93	0.16545705
42	0x3decbc73	0.11559381
43	0x3ed8372b	0.4222959
44	0x3ecd8fbe	0.4014873
45	0x3ed5d32f	0.41762683
46	0x3e719e66	0.2359558
47	0x3e489883	0.19589429
48	0x3d415336	0.047198497
49	0x3e824328	0.2544186
50	0x3e0933f6	0.13398728
51	0x3f25bc6e	0.64740646
52	0x3e1b93e7	0.15193139
53	0x3e74b909	0.2389871
54	0x3e3b2192	0.18274525
55	0x3e8e5749	0.27800968
56	0x3f186a76	0.59537446
57	0x3e47c030	0.19506907
58	0x3f62caa0	0.8859043
59	0x3df63f27	0.12023764
60	0x3da39a2e	0.07988392
61	0x3d339d35	0.043851096
62	0x3dfdd74b	0.123945795
63	0x3f0479c2	0.5174829

module.model.2.model.0.weight f4 [64, 64, 3, 3]
0	0x3cdecb8e	0.027196672
1	0xbd6fa2a6	-0.058504723
2	0xbd100040	-0.03515649
3	0xbce42dd5	-0.027853886
4	0xbcac203d	-0.021011466
5	0xbd562680	-0.05228281
6	0x3c645a9e	0.01393762
7	0x3d903815	0.07041947
8	0x3d607db9	0.0548074
9	0x3d84c43c	0.06482741
10	0xbd759321	-0.059954766
11	0xbc9b4c2f	-0.018957226
12	0x3ca174bb	0.019708982
13	0x3cc2428e	0.023713376
14	0x3d6e8d50	0.058240235
15	0x3c2e702e	0.010646863
16	0x3ceb339b	0.02871113
17	0xbce280e5	-0.027649352
18	0xbcb937a7	-0.022609545
19	0x3d1cbf00	0.03826809
20	0x3c11f041	0.008907379
21	0x3d066273	0.032808732
22	0xbd6ea6a8	-0.058264405
23	0x3d679ac5	0.056544084
24	0x3d33f553	0.04393513
25	0x3d5e40bb	0.05426095
26	0x3b5b315d	0.003344617
27	0xbd90eaf8	-0.07076067
28	0x3d91503f	0.07095384
29	0x3b1549a4	0.002277949
30	0xbd88b673	-0.066754244
31	0x3d882fae	0.06649719
32	0x3d6fe4fe	0.058567993
33	0xbd7c4163	-0.061585795
34	0x3d70dee2	0.058806308
35	0x3cff53b4	0.031167842
36	0x3cc50a31	0.024052711
37	0xbd2dfe6a	-0.042478956
38	0xbd529657	-0.051412906
39	0x3cd77f0b	0.026305696
40	0x3d425dd5	0.047452766
41	0xbd108ac4	-0.035288587
42	0xbcbfddd7	-0.023421211
43	0xbd18e665	-0.037329096
44	0xbd6f860e	-0.058477454
45	0x3b9a3408	0.0047059096
46	0x3d4fa67a	0.050695874
47	0x3d737e5b	0.059446674
48	0x3b331095	0.0027323116
49	0xbd723193	-0.05912931
50	0x3d3607af	0.04444092
51	0x3ccb40dd	0.024811203
52	0x3cd84a98	0.026402757
53	0x3d19e968	0.03757611
54	0x3c1b9ed3	0.009498316
55	0xbc0a4c77	-0.008441082
56	0xbcee72e5	-0.02910752
57	0xbd4ec23d	-0.05047821
58	0x3d42e8ef	0.047585424
59	0x3d188fd6	0.037246548
60	0x3d8279d9	0.06370897
61	0x3c518a80	0.012789369
62	0xbd22119d	-0.03956758
63	0x3c7b5800	0.015340805
64	0x396b7b23	0.00022457218
65	0x3c9b8db9	0.018988477
66	0x3c487b6c	0.012236457
67	0xbd52b771	-0.051444475
68	0xbd28c44b	-0.041202825
69	0x3d2d9c2e	0.042385273
70	0x3d0b8445	0.03406169
71	0xbd6e7efd	-0.058226574
72	0x3c9194d5	0.017771164
73	0xbd1b2590	-0.03787762
74	0xbd793c35	-0.060848434
75	0xbc8fd9b2	-0.01755986
76	0xbd86a303	-0.06574061
77	0x3d20fcce	0.039303593
78	0x3d57f1c3	0.052720796
79	0x3d3455ca	0.044027127
80	0xbd77a8ff	-0.0604639
81	0xbc016087	-0.007896549
82	0x3d1f853a	0.038945414
83	0x38d9d04b	0.00010386164
84	0xbd844aef	-0.06459605
85	0x3c1b89e1	0.009493322
86	0xbc13652a	-0.008996287
87	0x3d6de513	0.05807979
88	0xbd20af84	-0.039229885
89	0x3d2a69c5	0.041604776
90	0x3b9f49b7	0.0048610824
91	0xbcdf1484	-0.027231462
92	0xbce1d9b2	-0.027569626
93	0xbbc929c6	-0.006139013
94	0x3d2ce2f6	0.042208634
95	0x3d328516	0.043583952
96	0xbcc978e1	-0.024593772
97	0xbd3a8df1	-0.045545522
98	0x3d6a573b	0.057212096
99	0xbd5dd5ee	-0.054159097
100	0x3c2db325	0.010601793
101	0xbd585566	-0.052815817
102	0xbcd41bb8	-0.025892124
103	0xbcbdc8e4	-0.023167081
104	0xbd45477f	-0.048163887
105	0xbc9f3342	-0.019433621
106	0x3c44310e	0.011974586
107	0x3d7a417f	0.06109762
108	0xbc68a801	-0.0142002115
109	0xbcd6ae1b	-0.026206067
110	0x3ceb20da	0.028702188
111	0x3cf469f1	0.029835673
112	0xbd5c275f	-0.053748485
113	0x3b6a17c0	0.0035719723
114	0xbc953cc6	-0.018217456
115	0xbd4e452f	-0.050358947
116	0x38eeee88	0.00011393154
117	0x3d80ee18	0.06295413
118	0xbc27202e	-0.010200543
119	0x3c8fc29b	0.01754885
120	0x3cf38e77	0.029731018
121	0xbc512205	-0.012764459
122	0x3b83a196	0.0040170653
123	0x3cb67357	0.022271795
124	0x3d80dd01	0.06292153
125	0xbcdd0edf	-0.02698463
126	0x3d6a00ec	0.057129785
127	0xbd4341ee	-0.047670297
128	0x3d2d8a56	0.042368256
129	0xbd3c5cb6	-0.045986854
130	0x3d0deab1	0.034647647
131	0x3c964e10	0.01834777
132	0x3cbb6265	0.022874067
133	0xbd7084ed	-0.058720518
134	0x3bcb84b6	0.0062108887
135	0xbd60c05a	-0.05487094
136	0xbd4616ae	-0.048361473
137	0x3d6dedcc	0.05808811
138	0xbd93602a	-0.07196076
139	0xbcd02851	-0.02540985
140	0xbbf142c4	-0.0073626954
141	0x3d1ab7f8	0.037773103
142	0x3d716434	0.05893345
143	0x3d1b3fd9	0.037902687
144	0xbd658fec	-0.056045458
145	0x3c9cc76e	0.019138064
146	0xbd1b38e3	-0.03789605
147	0xbd5ea9cb	-0.054361146
148	0xbd6330f7	-0.05546662
149	0xbd67662e	-0.05649393
150	0x3c04a323	0.008095535
151	0xbd1ca8b9	-0.038246844
152	0xbce1e9d5	-0.02757732
153	0xbcee1d40	-0.029066682
154	0x3d0a27ac	0.03372924
155	0x3c4e79d1	0.0126022855
156	0xbc845fa5	-0.016158888
157	0xbd671460	-0.056415915
158	0x3d3da85d	0.04630314
159	0x3d13dd39	0.036099646
160	0xbd903d51	-0.07042945
161	0x3d7f5ea5	0.06234612
162	0x3d6106c8	0.054938108
163	0xbd381e29	-0.044950638
164	0xbd031d05	-0.032010097
165	0x3d89c370	0.0672673
166	0x3ae50e04	0.001747549
167	0xbd73d5df	-0.059530135
168	0x3d893f24	0.06701496
169	0xbca1dcd2	-0.019758616
170	0xbd51a257	-0.05118021
171	0xbd89ce9a	-0.06728859
172	0x3d238a25	0.039926667
173	0x3c07399e	0.008253483
174	0x3d840001	0.06445313
175	0xbd1d7c94	-0.038448885
176	0x3d75ec3f	0.060039755
177	0x3d5376c6	0.051626943
178	0xbd638cc7	-0.055554178
179	0x3d3899f6	0.045068704
180	0x3cf54e7b	0.029944649
181	0x3c04f907	0.008116013
182	0xbd0a6778	-0.03379008
183	0x3d85e139	0.065370984
184	0x3c9a2561	0.018816652
185	0xbcbb586e	-0.022869315
186	0x3bd65f9e	0.00654216
187	0x3c82c050	0.015960842
188	0xbd5d34d8	-0.054005474
189	0x3d78af26	0.06071391
190	0xbd17bb79	-0.037044022
191	0x3ced4fa3	0.028968638
192	0x3d857acd	0.06517563
193	0x3d56c4da	0.052433826
194	0x3aa45cb1	0.0012539831
195	0x3d636803	0.055519115
196	0x3c2fb17a	0.010723466
197	0x3c5702c5	0.013123219
198	0xbd283d8d	-0.041074324
199	0x3d3ef80e	0.046623282
200	0x3cc525ef	0.02406594
201	0xbcef39fb	-0.029202452
202	0xbd7b87ea	-0.061408915
203	0xbd91ecc0	-0.071252346
204	0x3d1efa9e	0.038813226
205	0x3c2a6fa9	0.010402598
206	0xbd80bf13	-0.062864445
207	0xba5d21c8	-0.0008435515
208	0x3a125b7e	0.00055830914
209	0x3d00be73	0.031431627
210	0x3d44b7a6	0.048026703
211	0xbc8e4644	-0.01736749
212	0xbd531873	-0.05153699
213	0xbc8b9dff	-0.017043112
214	0x3d91cd01	0.071191795
215	0xbbd937bd	-0.006628959
216	0x3cd4e85d	0.025989706
217	0xbcfb9772	-0.030711863
218	0xbd6f8256	-0.058473907
219	0x3d82e28c	0.06390867
220	0x3d86afc2	0.06576492
221	0xbd6f0aa5	-0.05835976
222	0xbcbe740f	-0.0232487
223	0x3d75582d	0.059898544
224	0xba0aad4f	-0.0005290107
225	0xbd61df62	-0.055144675
226	0x3d415c29	0.04720703
227	0xbd6bc059	-0.057556484
228	0x3c7e6d3b	0.015528972
229	0x3cefc545	0.02926887
230	0xbc64a3a6	-0.013955032
231	0xbd82cab6	-0.0638632
232	0x3d5fcaf0	0.054636896
233	0xbb33792b	-0.0027385454
234	0x3d85841c	0.065193385
235	0x3ced1899	0.028942393
236	0xbd88d36b	-0.0668095
237	0xbd63d238	-0.055620402
238	0xbb08da2a	-0.002088199
239	0xbbd2b066	-0.0064297197
240	0x3cdacaf9	0.026708113
241	0x3d579b5d	0.0526384
242	0x3bb4796f	0.00550764
243	0xbba9c73b	-0.005181221
244	0xbd60bb9c	-0.05486642
245	0xbc3dfb84	-0.0115956105
246	0xbc43cefb	-0.011951203
247	0xbd7be7c1	-0.061500315
248	0x3d1bc088	0.03802541
249	0xbd0f3fef	-0.03497308
250	0x3cf9e75c	0.030505829
251	0x3d84ca67	0.06483918
252	0xbd4d102d	-0.050064255
253	0x3c1cc0ab	0.00956742
254	0x3d1bca47	0.038034704
255	0xbd56df05	-0.05245878

module.model.2.model.0.bias f4 [64]
0	0x3a82b2c1	0.0009971486
1	0x3a84762f	0.0010106022
2	0x3a837866	0.0010030388
3	0x3a84c29c	0.0010128799
4	0x3a8338a9	0.0010011393
5	0x3a8577cb	0.0010182796
6	0x3a855b3d	0.0010174286
7	0x3a8285bc	0.0009958069
8	0x3a7be87f	0.0009609535
9	0x3a83c91f	0.0010054446
10	0x3a83698c	0.0010025962
11	0x3a83c64c	0.0010053604
12	0x3a7f4550	0.00097378064
13	0x3a82facf	0.000999296
14	0x3a844fc4	0.0010094573
15	0x3a7e081f	0.0009690541
16	0x3a82ef13	0.0009989463
17	0x3a811781	0.0009848924
18	0x3a8184b9	0.0009881473
19	0x3a81839e	0.0009881144
20	0x3a833019	0.0010008841
21	0x3a82c01a	0.0009975464
22	0x3a81a114	0.0009889924
23	0x3a83ddf5	0.0010060655
24	0x3a845fb3	0.0010099321
25	0x3a82456d	0.0009938903
26	0x3a84bbd7	0.0010126781
27	0x3a829abf	0.0009964331
28	0x3a842f24	0.001008485
29	0x3a844080	0.0010090023
30	0x3a7f16aa	0.0009730855
31	0x3a8081c7	0.0009804302
32	0x3a84c2c7	0.0010128849
33	0x3a8347fd	0.0010015961
34	0x3a800ea3	0.0009769987
35	0x3a823c3f	0.0009936168
36	0x3a83fafc	0.0010069306
37	0x3a82bd6c	0.0009974665
38	0x3a832b60	0.0010007434
39	0x3a81c993	0.0009901993
40	0x3a844563	0.001009148
41	0x3a84ce8f	0.001013236
42	0x3a82c551	0.0009977018
43	0x3a83409f	0.0010013765
44	0x3a81e467	0.0009909988
45	0x3a81ef05	0.0009913152
46	0x3a84b8b5	0.0010125848
47	0x3a81b214	0.000989499
48	0x3a8286bd	0.0009958368
49	0x3a7e1bdf	0.0009693484
50	0x3a837661	0.0010029786
51	0x3a8285a9	0.0009958047
52	0x3a7d2f7f	0.00096582616
53	0x3a832cd4	0.0010007867
54	0x3a82462f	0.0009939129
55	0x3a830709	0.0009996603
56	0x3a83a45d	0.0010043491
57	0x3a84a6d6	0.0010120522
58	0x3a844c7e	0.0010093597
59	0x3a826b0b	0.0009950114
60	0x3a83eefe	0.0010065732
61	0x3a8407ee	0.0010073164
62	0x3a834938	0.0010016328
63	0x3a8336d8	0.0010010852

module.model.2.model.1.weight f4 [64]
0	0x3f7fba9c	0.9989412
1	0x3f802174	1.0010209
2	0x3f7fc0b9	0.99903446
3	0x3f7fbf13	0.9990093
4	0x3f7fc5c5	0.9991115
5	0x3f7ff7a5	0.9998725
6	0x3f7fabed	0.9987171
7	0x3f7fb735	0.99888927
8	0x3f8023d4	1.0010934
9	0x3f7fec80	0.99970245
10	0x3f7fbef7	0.99900764
11	0x3f7fc1bd	0.99904996
12	0x3f8027eb	1.0012182
13	0x3f801548	1.0006495
14	0x3f7fd60d	0.9993599
15	0x3f8026de	1.0011861
16	0x3f7fb032	0.9987823
17	0x3f80286e	1.0012338
18	0x3f800ab2	1.0003264
19	0x3f7fedc7	0.99972194
20	0x3f7fe0ab	0.9995219
21	0x3f7fb631	0.9988738
22	0x3f800c97	1.0003842
23	0x3f7fc0e6	0.99903715
24	0x3f7ffd7a	0.9999615
25	0x3f7ff518	0.9998336
26	0x3f801de3	1.0009121
27	0x3f800585	1.0001684
28	0x3f80197b	1.0007776
29	0x3f7fc9d6	0.9991735
30	0x3f8013d4	1.0006051
31	0x3f800a6b	1.0003179
32	0x3f7fdb5b	0.99944085
33	0x3f800a83	1.0003208
34	0x3f80271c	1.0011935
35	0x3f801b42	1.0008318
36	0x3f7fc798	0.9991393
37	0x3f7ff3d9	0.99981457
38	0x3f7fe0ad	0.99952203
39	0x3f80116c	1.0005317
40	0x3f7fd7c5	0.99938613
41	0x3f7fd791	0.99938303
42	0x3f80129d	1.000568
43	0x3f7fb49e	0.99884975
44	0x3f8029eb	1.0012792
45	0x3f7fec9c	0.9997041
46	0x3f800bfc	1.0003657
47	0x3f7ffd5a	0.9999596
48	0x3f7fb5cb	0.9988677
49	0x3f7fc5fc	0.99911475
50	0x3f7fdf45	0.9995006
51	0x3f800644	1.0001912
52	0x3f801de0	1.0009117
53	0x3f7fcbf4	0.9992058
54	0x3f801ddd	1.0009114
55	0x3f8024f8	1.0011282
56	0x3f801dc3	1.0009083
57	0x3f801c8a	1.000871
58	0x3f7fceda	0.99925005
59	0x3f801e5d	1.0009266
60	0x3f7ffcb3	0.99994963
61	0x3f801f2a	1.000951
62	0x3f801b00	1.000824
63	0x3f800673	1.0001968

module.model.2.model.1.bias f4 [64]
0	0xba873ea0	-0.0010318346
1	0x3a1c594b	0.00059642334
2	0xba3282b6	-0.00068096386
3	0xba62da03	-0.0008653702
4	0x39cb9d43	0.00038836346
5	0xba031079	-0.0004999708
6	0xba9d2fd4	-0.0011992403
7	0xba91b075	-0.001111521
8	0x3a86dbf5	0.0010288941
9	0xb99d9204	-0.00030054164
10	0xba601c7c	-0.00085491664
11	0xba7872df	-0.00094775663
12	0x3a94a9ad	0.0011342071
13	0xb95449d9	-0.00020245406
14	0xb88957e2	-6.5490385e-05
15	0x3a96db40	0.0011509433
16	0xba8f4b26	-0.001093243
17	0x3aab45ed	0.0013067104
18	0x3a288766	0.00064288673
19	0xb86b22e9	-5.606088e-05
20	0xb9b744a4	-0.0003495562
21	0xba826e10	-0.0009951014
22	0x38f06bcb	0.0001146417
23	0xba164163	-0.0005731789
24	0x39ca266a	0.00038557063
25	0xb9d5d3fd	-0.0004078447
26	0x3a26acd0	0.00063581485
27	0x39c3eb88	0.00037368783
28	0x393ee992	0.00018206824
29	0xba27d608	-0.00064024376
30	0x39c64929	0.00037820011
31	0x392b8e6e	0.0001636089
32	0xb9f68509	-0.00047019895
33	0xba8626a4	-0.0010234904
34	0x3a8bc0f4	0.0010662363
35	0x3a6c9f7b	0.000902645
36	0xba3d115d	-0.0007212365
37	0x399692d2	0.0002871962
38	0xba9244b7	-0.0011159395
39	0x39f1bd2a	0.0004610804
40	0xba1b2aec	-0.00059191766
41	0xba323331	-0.0006797789
42	0x3a0766d7	0.00051651656
43	0xba8cbe62	-0.0010737891
44	0x3aa98b67	0.0012935222
45	0x37640000	1.3589859e-05
46	0xb94eff49	-0.00019740792
47	0xba0c58c0	-0.0005353801
48	0xb9e5a9d0	-0.00043804804
49	0xba65f5a3	-0.00087722595
50	0xb90dbbf8	-0.00013516832
51	0x39451fe7	0.00018799269
52	0xba011405	-0.00049239426
53	0xba223ae1	-0.0006188583
54	0x3a4ec9d0	0.0007888349
55	0x3a8377bb	0.0010030189
56	0x3a85fbd5	0.0010222147
57	0x3a229f76	0.0006203571
58	0xba21862b	-0.0006161655
59	0x3a314e9a	0.00067637267
60	0xb9e155dc	-0.00042979314
61	0x3a75e105	0.0009379539
62	0xb9d19d1a	-0.00039980636
63	0xb90782f6	-0.0001292339

module.model.2.model.1.running_mean f4 [64]
0	0x3ecb14ea	0.39664394
1	0x3eda3f00	0.4262619
2	0x3d33c918	0.04389295
3	0x3d5da2b1	0.054110233
4	0xbe8b9498	-0.27261806
5	0xbef6ae4f	-0.48179862
6	0xbe165139	-0.14679421
7	0x3f010d38	0.50410795
8	0xbedcf177	-0.43152973
9	0xbe1087a2	-0.1411424
10	0xbf0ae652	-0.5425769
11	0x3de1ebbe	0.110312924
12	0xbdee5beb	-0.11638626
13	0x3dd9c0ea	0.106324986
14	0xbe6ec208	-0.23316205
15	0xbf27cfda	-0.6555153
16	0x3e12d029	0.1433722
17	0xbdfca782	-0.12336637
18	0x3e67b227	0.22626553
19	0x3ed7d5c2	0.42155272
20	0xbeea453f	-0.45755956
21	0xbdedf8fd	-0.11619756
22	0x3d9bf725	0.076154985
23	0x3f07347b	0.52814454
24	0x3dd012ce	0.10159837
25	0xbe4e6b8b	-0.20158212
26	0x3e8cb963	0.2748519
27	0xbe52e80e	-0.20596334
28	0x3e813954	0.2523905
29	0x3eca4083	0.39502344
30	0x3ed07a9e	0.4071855
31	0x3eca9ef0	0.39574385
32	0x3e38e570	0.18056273
33	0x3eef3230	0.46717978
34	0xbf2b9d24	-0.6703665
35	0x3d4508e2	0.048104174
36	0x3ea94957	0.33063766
37	0xbc2c0399	-0.010498905
38	0xbdd1d179	-0.10245032
39	0x3ebb776b	0.36614546
40	0x3e03ffd3	0.12890558
41	0xbe82f41f	-0.25576875
42	0xbf0130f0	-0.504653
43	0x3e49d499	0.19710006
44	0xbeff077c	-0.49810398
45	0x3d6b25f1	0.05740923
46	0x3e24e06b	0.16101234
47	0x3e67aae3	0.22623782
48	0x3d2e9189	0.042619262
49	0xbe0d167b	-0.13778107
50	0xbf3dab2e	-0.74089324
51	0xbd8c58ca	-0.06852873
52	0xbeb6ead3	-0.35726032
53	0x3db64ab1	0.08900965
54	0x3f27bfd2	0.6552707
55	0xbc8b71d6	-0.017022055
56	0x3d5758e4	0.052575007
57	0x3f35a747	0.7095837
58	0x3e5fb83f	0.21847628
59	0xbd2c9913	-0.04213817
60	0xbeb9fb1d	-0.36324397
61	0x3eb3463e	0.35014528
62	0xbe93f3bb	-0.2889689
63	0xbe16567c	-0.14681429

module.model.2.model.1.running_var f4 [64]
0	0x3e616d4b	0.22014348
1	0x3eafe6d4	0.34355795
2	0x3fb6e73d	1.4289318
3	0x3e440bdc	0.19145149
4	0x3e8c6c4f	0.27426383
5	0x3e992919	0.29914168
6	0x3df2488f	0.11830246
7	0x3ddad8b4	0.10685864
8	0x3f4bbd0b	0.7958533
9	0x3f322757	0.6959128
10	0x3e3d7516	0.18501696
11	0x3e632466	0.22181854
12	0x3e93b7fe	0.28851312
13	0x3dd2ab58	0.102865875
14	0x3e78baad	0.24289961
15	0x3ebb2a88	0.36555886
16	0x3eab5b42	0.33468062
17	0x3ed1acbd	0.409521
18	0x3ea5b991	0.32368138
19	0x3e99894b	0.2998756
20	0x3e9a3a14	0.30122435
21	0x3f80773f	1.0036391
22	0x3ed50fe0	0.41613674
23	0x3f15d710	0.58531284
24	0x3f7da51d	0.9908007
25	0x3e39b958	0.1813711
26	0x3f8b7ad6	1.0896862
27	0x3f6cb168	0.924582
28	0x3ef480d3	0.47754535
29	0x3e24feea	0.16112867
30	0x3dd6f053	0.10495057
31	0x3eb5d706	0.35515612
32	0x3fd0b7b7	1.6306065
33	0x3ea20218	0.31642222
34	0x3f78cd5e	0.97188365
35	0x3f1b8578	0.6075053
36	0x3e49a34b	0.19691198
37	0x3e889c94	0.2668196
38	0x3e22e9f6	0.15909562
39	0x3f300638	0.6875949
40	0x3e832735	0.2561585
41	0x3e303a28	0.17209685
42	0x3f43ba1e	0.7645587
43	0x3e39bda6	0.18138751
44	0x40057a44	2.0855875
45	0x3e81ec02	0.25375372
46	0x3e395425	0.18098505
47	0x3d9f082f	0.07765233
48	0x3f7bb34e	0.9832047
49	0x3d992983	0.07478621
50	0x3f406859	0.7515922
51	0x3ebc56de	0.36785024
52	0x3de78a20	0.11305642
53	0x3ef5cc89	0.4800761
54	0x3d99fc1b	0.075187884
55	0x3f13793f	0.5760688
56	0x3eb8386c	0.35980546
57	0x3e04e7be	0.12979028
58	0x3ec3d0e7	0.38245317
59	0x3f2174f6	0.63069093
60	0x3e8a3077	0.269901
61	0x3e574535	0.21022494
62	0x3e3b5099	0.18292464
63	0x3e50981e	0.20370528
