output_gd_denoise/ckpt/resnet_epoch5.pth (torch, 641699 bytes, 31 tensors)

module.model.0.weight f4 [64, 1, 1, 1]
-0.30048537 -0.26588547 0.1518503 0.15130465 -0.23976128 -0.26894137 -0.20546423 0.039470144
-0.20222187 0.21740355 0.009137778 0.03913807 -0.109671794 -0.26977304 0.112749994 0.24986607
0.16186355 0.014623007 0.25094843 0.16636866 0.026385894 0.2265276 -0.07763447 0.24834256
-0.26004386 0.07431469 0.1893064 0.12475734 -0.09194259 -0.029219495 0.22227386 0.2505508
0.26403278 -0.21405588 0.13928597 0.15804107 -0.13066079 0.045323044 0.11578053 -0.11256812
0.05959516 0.19242135 -0.12374395 -0.23326351 0.018043548 -0.06995374 0.123584434 0.034803938
-0.037218854 0.16900004 -0.18234102 0.13879186 0.10191518 -0.08716136 -0.18335326 -0.022531012
0.2633252 0.18126346 -0.1805366 0.25094414 0.06675208 0.16508391 0.22570659 0.18443054
00000000: 38d9 99be 2422 88be a57e 1b3e 9bef 1a3e
00000010: fb83 75be afb2 89be 3765 52be 72ab 213d
00000020: 4013 4fbe 099f 5e3e 9eb6 153c 3e4f 203d
00000030: 9b9b e0bd b11f 8abe 78e9 e63d e4dc 7f3e
00000040: 8fbf 253e 5695 6f3c 507c 803e 8c5c 2a3e
00000050: 3b27 d83c daf6 673e d2fe 9ebd 834d 7e3e
00000060: 7824 85be 4d32 983d 89d9 413e c780 ff3d
00000070: 664c bcbd b95d efbc c29b 633e 3248 803e
00000080: 4e2f 873e 7731 5bbe fba0 0e3e 85d5 213e
00000090: f1cb 05be a8a4 393d 581e ed3d 1d8a e6bd
000000a0: 0e1a 743d 1a0a 453e 786d fdbd a1dc 6ebe
000000b0: 10d0 933c e843 8fbd d619 fd3d 938e 0e3d
000000c0: cc72 18bd 590e 2d3e 9bb7 3abe 741f 0e3e
000000d0: e8b8 d03d a881 b2bd f5c0 3bbe f592 b8bc
000000e0: 90d2 863e 219d 393e 96de 38be c07b 803e
000000f0: 51b5 883d c20b 293e a11f 673e 5cdb 3c3e

module.model.0.bias f4 [64]
0.0012015429 0.0016154977 0.00028817297 0.00097045477 0.0013479328 0.00058185303 0.00074850675 0.00097380875
0.00083001825 0.00027288843 0.0017145993 0.00041076323 0.00045897308 0.0008461707 0.00074568414 0.00074733264
0.00059592316 0.0011187127 0.00046977017 0.0011975717 0.0016415775 0.0010369156 0.0014803025 0.00058728433
0.00097270805 0.00075865333 0.0010260632 0.00026847288 0.0011582996 0.0006603186 0.0004303697 0.0014248427
0.0007398906 0.0012555631 0.0012826144 0.00041551606 0.0010716565 0.0007059462 0.0014717947 0.0017203572
0.0010027473 0.00029477736 0.0015366803 0.0010855525 0.001012188 0.0016324834 0.0012531788 0.0016550225
0.0005207029 0.0014697013 0.00033908122 0.001172869 0.001479464 0.0010914508 0.0008561548 0.0005221004
0.00055701786 0.0006684446 0.0014512192 0.0012563786 0.0008787372 0.00090461737 0.0016176407 0.0009666355
00000000: 177d 9d3a 1cbf d33a ec15 9739 1e66 7e3a
00000010: 1fad b03a 7f87 183a 7037 443a 3347 7f3a
00000020: 9595 593a 7712 8f39 68bc e03a b55b d739
00000030: 53a2 f039 8ed1 5d3a 047a 433a a5e8 433a
00000040: ba37 1c3a c5a1 923a 7c4b f639 d7f7 9c3a
00000050: 332a d73a 1de9 873a b606 c23a fcf3 193a
00000060: 55fd 7e3a 5de0 463a f87c 863a d2c1 8c39
00000070: 16d2 973a 3b19 2d3a 3ea3 e139 cac1 ba3a
00000080: 38f5 413a b591 a43a 661d a83a 9fd9 d939
00000090: d376 8c3a 3f0f 393a 3ce9 c03a 9c7d e13a
000000a0: 9e6e 833a 598c 9a39 6f6a c93a 1949 8e3a
000000b0: 65ab 843a 0ef9 d53a b441 a43a 57ed d83a
000000c0: c87f 083a fea2 c03a b6c6 b139 f4ba 993a
000000d0: 93ea c13a 030f 8f3a 936f 603a 91dd 083a
000000e0: d604 123a 8f3a 2f3a d636 be3a 12ad a43a
000000f0: 0e5b 663a d823 6d3a 0407 d43a cf65 7d3a

module.model.1.model.0.weight f4 [64, 64, 3, 3]
-0.050111096 -0.0212295 -0.072168306 -0.007976007 -0.013982904 -0.05741071 -0.067566924 0.031533737
0.00395018 -0.045054097 0.05858351 0.054181144 0.058809485 -0.06469457 0.006940162 -0.024727687
0.054169763 -0.018918196 -0.03794693 0.054150686 -0.06818717 0.0009828992 0.0056957398 -0.06243602
-0.018348549 0.06753851 -0.026579304 -0.027322633 -0.038107295 -0.035683952 -0.059552368 0.032247767
-0.032044187 -0.06415253 -0.032145277 0.007902405 0.06580726 0.01984413 -0.018156128 -0.042467073
0.043150943 -0.012945036 -0.05674055 0.030467737 -0.02574877 -0.040921833 0.059985157 0.042095162
0.05986107 0.00779834 0.043993775 -0.07060489 0.020628905 0.044537965 0.064525105 -0.07110967
0.06291504 0.018984025 0.029109614 0.0056454465 6.459681e-05 -0.06663293 -0.02875553 -0.053060874
0.020380344 0.03259871 0.06731037 -0.02416852 -0.06549301 -0.0072485097 0.06461798 -0.037952926
-0.059744522 -0.013477618 -0.06580508 -0.056912903 -0.0028834448 0.011846698 -0.0072914027 -0.060190976
0.052663527 -0.021158917 0.065135136 -0.02776327 -0.07131648 -0.046411086 0.010566964 0.068673864
0.04620594 0.0069355085 -0.040190946 -0.05974848 -0.05256572 -0.01177476 -0.06058359 -0.036688704
0.0071754213 0.040838603 -0.0146637205 0.005504774 0.0018096578 0.06749395 -0.02010655 -0.029355405
-0.033203796 -0.01999332 0.056025013 0.04976533 0.03060796 0.06308455 0.037404712 0.030742107
-0.0069036465 0.04499662 -0.05790525 -0.003883898 -0.02213695 -0.03624261 0.051172733 0.03479796
0.022963598 -0.041516505 -0.015293085 -0.07158493 0.025672859 -0.07218757 -0.03128107 0.053483084
-0.03444902 -0.011543513 -0.02159023 -0.023794055 -0.05257415 0.036333587 0.045246102 -0.027997408
0.058567863 -0.053664677 0.03822673 0.002608266 0.036550123 0.032233212 -0.04059415 -0.005523382
-0.036287405 0.010504399 -0.010813764 -0.008311646 0.059021156 -0.036608998 0.06682043 0.053717103
0.039214946 0.01542271 -0.05705092 -0.015364658 -0.011728616 0.04203433 -0.013135715 0.012505335
-0.004740772 -0.013881906 0.039958384 0.0287853 0.009565575 -0.05239864 0.039201524 -0.037751712
-0.017089326 0.0048307125 -0.030671638 0.021450397 0.021099344 -0.0015934628 0.029729417 0.041065585
0.023177674 0.06503887 -0.023240242 0.016935669 0.06401426 -0.040967226 0.033738222 -0.008311697
-0.040000193 0.0064214147 0.005640135 0.00683458 0.021151986 0.022703324 -0.03272616 0.065809466
-0.048260737 -0.015950454 0.039925925 0.020855317 0.042573415 0.011432372 0.06674293 0.031391706
-0.037060976 0.06419833 0.010384578 -0.059984297 0.01313295 -0.052785352 -0.008710814 -0.0065370197
0.0020340926 0.03523281 -0.066391386 -0.045420837 -0.0017189385 -0.047447562 0.008438499 -0.010465598
0.034633987 -0.049771767 0.062331874 0.047650866 -0.041354112 -0.0017082454 -0.0374918 -0.022511207
-0.04838087 -0.019251756 -0.019949583 0.049700685 0.05585745 0.019224342 0.02275451 0.022225333
-0.05027221 0.056268007 -0.06597025 -0.011638416 0.039000794 0.022854796 -0.011391171 0.025588412
-0.046729255 0.040117398 0.0005174383 -0.070328474 0.061139032 -0.029944703 0.035730693 0.013387929
-0.01810147 -0.03919446 0.056493536 0.067042716 -0.06842114 0.019348694 -0.059056964 -0.024667645
00000000: 4b41 4dbd 7de9 adbc facc 93bd ccad 02bc
00000010: 8d18 65bc 7e27 6bbd 8760 8abd 8529 013d
00000020: 8370 813b a58a 38bd 43f5 6f3d 0ced 5d3d
00000030: 37e2 703d 967e 84bd 4c6a e33b b891 cabc
00000040: 1de1 5d3d 55fa 9abc 3d6e 1bbd 1ccd 5d3d
00000050: b7a5 8bbd a0d4 803a 54a3 ba3b e9bc 7fbd
00000060: b24f 96bc a151 8a3d d7bc d9bc b7d3 dfbc
00000070: 6516 1cbd 5629 12bd 2fed 73bd 3c16 043d
00000080: c440 03bd 6762 83bd c4aa 03bd 1779 013c
00000090: f5c5 863d 2890 a23c 29bc 94bc f4f1 2dbd
000000a0: 0bbf 303d 6b17 54bc c768 68bd 7a97 f93c
000000b0: 16ef d2bc a79d 27bd ffb2 753d fa6b 2c3d
000000c0: e230 753d 3889 ff3b d132 343d 4c99 90bd
000000d0: f3fd a83c 716d 363d bd25 843d f2a1 91bd
000000e0: 9ad9 803d 6384 9b3c 4977 ee3c 70fd b83b
000000f0: 2678 8738 d876 88bd b890 ebbc 5c56 59bd
00000100: aef4 a63c 3a86 053d 05da 893d 0ffd c5bc
00000110: 3321 86bd e884 edbb 6e56 843d 8774 1bbd
00000120: acb6 74bd 3ad1 5cbc d0c4 86bd 811d 69bd
00000130: 2df8 3cbb a718 423c b8ec eebb d08a 76bd
00000140: b6b5 573d 7755 adbc 9265 853d cc6f e3bc
00000150: 600e 92bd 8d19 3ebd 0f21 2d3c e2a4 8c3d
00000160: 7142 3d3d 4343 e33b 439f 24bd d2ba 74bd
00000170: 274f 57bd ecea 40bc 8026 78bd e546 16bd
00000180: cc1f eb3b 6146 273d 1a40 70bc 6461 b43b
00000190: 0a32 ed3a 453a 8a3d 7eb6 a4bc bf7a f0bc
000001a0: b400 08bd 08c9 a3bc 7c7a 653d bbd6 4b3d
000001b0: 8bbd fa3c 7932 813d af35 193d dfd6 fb3c
000001c0: fc37 e2bb 604e 383d 0e2e 6dbd ff88 7ebb
000001d0: 8d58 b5bc 2273 14bd 809a 513d 4e88 0e3d
000001e0: 281e bc3c 360d 2abd d98f 7abc 1f9b 92bd
000001f0: e34f d23c 14d7 93bd 9420 00bd 1411 5b3d
00000200: 6a1a 0dbd 0121 3dbc fedd b0bc c0eb c2bc
00000210: fe57 57bd 87d2 143d fa53 393d d25a e5bc
00000220: dbe4 6f3d 7ecf 5bbd a293 1c3d 71ef 2a3b
00000230: 95b5 153d f906 043d 0d46 26bd 7dfd b4bb
00000240: 1aa2 14bd a51a 2c3c 372c 31bc 922d 08bc
00000250: 2bc0 713d 51f3 15bd 26d9 883d 7706 5c3d
00000260: da9f 203d 89af 7c3c 3aae 69bd 0cbc 7bbc
00000270: 6229 40bc 312c 2c3d 2f37 57bc 2de3 4c3c
00000280: 7a58 9bbb ef70 63bc 67ab 233d 26cf eb3c
00000290: eeb8 1c3c f59f 56bd c791 203d 8aa1 1abd
000002a0: eafe 8bbc f44a 9e3b 1643 fbbc beb8 af3c
000002b0: 88d8 ac3c bddb d0ba 1b8b f33c 6334 283d
000002c0: 1bdf bd3c 1933 853d 5262 bebc acbc 8a3c
000002d0: e919 833d 40cd 27bd 1731 0a3d c92d 08bc
000002e0: 3ed7 23bd bb6a d23b e2d0 b83b 9df4 df3b
000002f0: ee46 ad3c 52fc b93c de0b 06bd 1dc7 863d
00000300: 0dad 45bd 87aa 82bc 5e89 233d c5d8 aa3c
00000310: 7661 2e3d d84e 3b3c 84b0 883d 9794 003d
00000320: 40cd 17bd 6a7a 833d 1424 2a3c 18b2 75bd
00000330: 962b 573c 7435 58bd cdb7 0ebc 7f34 d6bb
00000340: 694e 053b 4750 103d 35f8 87bd 330b 3abd
00000350: 014e e1ba 6058 42bd a141 0a3c e677 2bbc
00000360: 5edc 0d3d 7bdd 4bbd b54f 7f3d 8e2d 433d
00000370: ee62 29bd 34e7 dfba 0091 19bd 6c69 b8bc
00000380: 052b 46bd dcb5 9dbc 4f6d a3bc f292 4b3d
00000390: c8ca 643d 5e7c 9d3c ab67 ba3c e711 b63c
000003a0: 3cea 4dbd 4879 663d 691b 87bd 0eaf 3ebc
000003b0: 4cbf 1f3d fb39 bb3c 09a2 3abc ca9e d13c
000003c0: 2d67 3fbd 2452 243d b2a4 073a 6008 90bd
000003d0: ec6c 7a3d 984e f5bc 595a 123d 0b59 5b3c
000003e0: 8949 94bc 5f8a 20bd c465 673d b14d 893d
000003f0: 6220 8cbd 2781 9e3c b7e5 71bd cd13 cabc

module.model.1.model.0.bias f4 [64]
0.0010536463 0.0011276593 0.0007846345 0.0009652121 0.0011043089 0.0010793041 0.0010160371 0.00079162786
0.0010202074 0.0010415749 0.00096883357 0.0009786491 0.0010929785 0.00090202555 0.0010472743 0.0011745294
0.00093985687 0.00085519615 0.00093504635 0.0009492722 0.0011855776 0.001087975 0.0011058119 0.0012055392
0.0010045418 0.0010571895 0.0012240142 0.0009715703 0.0010662345 0.00095873646 0.001105542 0.0008217031
0.0010006342 0.001056695 0.00083868747 0.0009326698 0.000904425 0.0011647703 0.0010443918 0.0011756242
0.00088621693 0.0009106587 0.0010278923 0.001063971 0.0009914562 0.00078512134 0.0010943927 0.00090087514
0.0011216248 0.0010211797 0.00107456 0.0009832265 0.0010504163 0.0008903847 0.0013108242 0.00081039267
0.0011456772 0.0012548165 0.0010705314 0.00092967955 0.00096349965 0.0012055344 0.0007678917 0.0008325053
00000000: 811a 8a3a f8cd 933a eeaf 4d3a 4a06 7d3a
00000010: 75be 903a 7077 8d3a 8c2c 853a 3f85 4f3a
00000020: 7bb8 853a 7485 883a 52f9 7d3a 0446 803a
00000030: 4642 8f3a e975 6c3a b244 893a abf2 993a
00000040: ba60 763a 3e2f 603a e61d 753a 94d8 783a
00000050: 6265 9b3a 629a 8e3a e4f0 903a 2f03 9e3a
00000060: d4aa 833a 6591 8a3a 1a6f a03a fbb0 7e3a
00000070: e5c0 8b3a b753 7b3a d5e7 903a 9067 573a
00000080: b627 833a cd80 8a3a 5ddb 5b3a 697e 743a
00000090: ef16 6d3a 35ab 983a f9e3 883a 6717 9a3a
000000a0: 0351 683a 45b9 6e3a 58ba 863a f174 8b3a
000000b0: c0f3 813a 9ad0 4d3a ba71 8f3a b528 6c3a
000000c0: 7c03 933a 1bd9 853a 40d8 8c3a 9bdf 803a
000000d0: 1fae 893a b568 693a f6cf ab3a 8870 543a
000000e0: 8c2a 963a a878 a43a 1351 8c3a bdb5 733a
000000f0: 5e93 7c3a 0603 9e3a 574c 493a 7c3c 5a3a

module.model.1.model.1.weight f4 [64]
1.0005088 0.99985725 0.9994298 0.9995517 0.9998336 0.999683 0.9997907 1.000237
1.0004145 1.0000153 1.0006688 1.0003836 0.99944824 0.9996096 1.000642 1.0001632
0.999913 1.0008683 0.9998667 1.0002912 1.0008022 0.9997261 0.99970824 0.99981356
0.9996923 0.99917716 0.99927145 0.999539 0.9999946 0.9998293 0.9992818 1.000644
0.99972147 1.0002263 1.0001786 1.0006042 1.000213 1.0003726 0.9992507 0.99958026
1.0000838 0.99914503 0.999531 1.0005207 0.9998953 1.0004148 0.99923265 1.0002631
0.9994664 0.99980605 0.99939907 0.99997336 1.0003471 1.0000098 1.0006297 0.9992939
1.0000567 1.0004674 0.99983764 1.0007412 1.0003554 0.99921805 1.0001574 1.0002489
00000000: ac10 803f a5f6 7f3f a2da 7f3f 9fe2 7f3f
00000010: 18f5 7f3f 3aeb 7f3f 49f2 7f3f c407 803f
00000020: 950d 803f 8000 803f ea15 803f 920c 803f
00000030: d7db 7f3f 6ae6 7f3f 0915 803f 5905 803f
00000040: 4cfa 7f3f 741c 803f 44f7 7f3f 8b09 803f
00000050: 491a 803f 0dee 7f3f e1ec 7f3f c8f3 7f3f
00000060: d6eb 7f3f 13ca 7f3f 41d0 7f3f cae1 7f3f
00000070: a5ff 7f3f d0f4 7f3f efd0 7f3f 1a15 803f
00000080: bfed 7f3f 6a07 803f da05 803f cc13 803f
00000090: fb06 803f 360c 803f e5ce 7f3f 7ee4 7f3f
000000a0: bf02 803f f8c7 7f3f 43e1 7f3f 1011 803f
000000b0: 23f9 7f3f 980d 803f b6cd 7f3f 9f08 803f
000000c0: 08dd 7f3f 4af3 7f3f 9ed8 7f3f 41fe 7f3f
000000d0: 600b 803f 5200 803f a214 803f bad1 7f3f
000000e0: dc01 803f 510f 803f 5cf5 7f3f 4a18 803f
000000f0: a50b 803f c1cc 7f3f 2805 803f 2808 803f

module.model.1.model.1.bias f4 [64]
0.0006760561 -0.00030622465 -0.0003763164 -0.00026000946 -0.00047761822 -0.00070429425 -0.0002495262 0.00018320173
-3.047353e-05 -0.00022716972 0.00038118014 0.00015640658 -0.0003139508 -0.00026582513 0.00047275188 0.0005852904
-2.4701165e-05 0.0008334601 -0.0002232177 0.0007119107 0.00080307433 0.00020308637 -0.0005907672 -0.00031154903
3.5438836e-05 -0.0007603468 -0.00038354803 -0.00029708678 0.00060263305 -0.00048328153 -0.0007728691 0.00066237216
-0.00019380655 -0.000364376 0.0001678888 0.00067388976 0.0001890697 0.00040315904 -0.00030060828 -0.00056122587
0.0002817635 -0.00071212725 -0.0008081359 0.00055534247 -0.00010561241 -0.000285818 -0.0005400259 0.0003464409
-0.00042013373 -0.00035873734 -0.00027540248 0.00013904858 0.00028988463 -5.972659e-05 0.00073617074 -0.00026946198
0.00058763474 0.00030294957 -0.00034124704 0.00062670483 0.00046283667 -0.0007369101 -0.0005015449 0.00013002961
00000000: 5b39 313a c78c a0b9 554c c5b9 e151 88b9
00000010: d568 fab9 63a0 38ba d7d2 82b9 d719 4039
00000020: 68a1 ffb7 6834 6eb9 22d9 c739 1201 2439
00000030: c399 a4b9 725e 8bb9 afdb f739 2d6e 193a
00000040: 5935 cfb7 8f7c 5a3a 8c0f 6ab9 859f 3a3a
00000050: 6885 523a 95f3 5439 b7dd 1aba 6757 a3b9
00000060: 29a4 1438 0352 47ba f216 c9b9 50c2 9bb9
00000070: 05fa 1d3a f360 fdb9 5e9a 4aba 0ba3 2d3a
00000080: 8d38 4bb9 b809 bfb9 4e0b 3039 faa7 303a
00000090: 0341 4639 175f d339 f69a 9db9 3b1f 13ba
000000a0: a8b9 9339 0dae 3aba 15d9 53ba 6794 113a
000000b0: 3b7c ddb8 d8d9 95b9 8690 0dba 83a2 b539
000000c0: 6545 dcb9 e914 bcb9 e563 90b9 92cd 1139
000000d0: a8fb 9739 f082 7ab8 95fb 403a 9346 8db9
000000e0: 800b 1a3a 34d5 9e39 67e9 b2b9 7349 243a
000000f0: e3a8 f239 332d 41ba 1c7a 03ba 8f58 0839

module.model.1.model.1.running_mean f4 [64]
0.00019417115 9.3644885e-05 0.0027812952 0.0016964374 -0.00011791175 0.001329227 0.00048664043 0.0030629148
0.0035566045 0.00030378083 0.00062208757 0.0030726218 0.001535901 0.00095928414 0.0012173728 0.0027689468
0.0015390742 0.0022792397 0.00023416818 0.0005452822 0.0032284635 0.002881715 0.002520566 0.00096981775
0.0014848624 0.0007679215 -0.00092740176 -0.0011038703 0.0010350049 -0.00038127042 0.0017906994 0.00031873785
0.0007149656 -0.0021878306 0.0010416209 -1.4616611e-05 0.0010324683 0.00053436693 0.0012605945 -0.00016248503
0.0021634018 0.0007449207 0.002730938 0.0006024127 0.00089514 0.0007678683 0.0005433048 0.0028533437
-0.0013612198 0.0028563638 0.0012762381 0.0005521367 -0.00020470627 -0.00092301273 0.002208616 0.0015089096
0.00237 0.002947433 0.0026249937 0.00036418854 0.0033324305 0.0005108234 0.00086357706 -0.00017547708
00000000: 6c9a 4b39 3763 c438 6446 363b fe5a de3a
00000010: 6447 f7b8 7539 ae3a c623 ff39 2fbb 483b
00000020: ec15 693b c644 9f39 9713 233a 0a5e 493b
00000030: 4950 c93a 7878 7b3a 4190 9f3a 3877 353b
00000040: c3ba c93a 4c5f 153b 0b8b 7539 45f1 0e3a
00000050: a194 533b 28db 3c3b 1530 253b 5e3b 7e3a
00000060: b79f c23a 574e 493a e11c 73ba beaf 90ba
00000070: 00a9 873a 40e5 c7b9 e7b5 ea3a 451c a739
00000080: 876c 3b3a b561 0fbb ff86 883a de39 75b7
00000090: e353 873a c214 0c3a 883a a53a be60 2ab9
000000a0: dcc7 0d3b c846 433a 89f9 323b 3beb 1d3a
000000b0: d4a7 6a3a c54a 493a 916c 0e3a 2aff 3a3b
000000c0: f56a b2ba d531 3b3b 7247 a73a 44bd 103a
000000d0: 6ca6 56b9 56f6 71ba 6dbe 103b 9bc6 c53a
000000e0: 0052 1b3b b829 413b 1608 2c3b 8ff0 be39
000000f0: e864 5a3b c7e8 053a ad61 623a 4500 38b9

module.model.1.model.1.running_var f4 [64]
5.238523e-05 0.00034813062 0.00019711081 0.0005862131 0.00016839925 0.0004431353 0.00060491974 0.00023626369
0.00018544585 9.524237e-05 9.188874e-05 0.00029528068 9.373089e-06 0.0009991401 0.00064451486 0.0005050932
3.1294376e-06 4.0302948e-05 7.0336973e-06 5.477009e-05 0.00053524255 0.00084687263 3.3635517e-06 7.9707415e-06
5.1847925e-05 1.7956778e-05 8.4670955e-06 0.00039583494 0.00018001911 0.00021318358 0.00019442395 0.00017258598
0.0022262067 0.00081300025 0.0007567128 0.00025964613 0.0011120556 1.1772671e-05 3.149136e-05 5.486106e-06
0.0007172945 2.1430753e-05 0.00032358794 0.00010976622 0.00014194612 7.027607e-06 0.00014750064 0.0003007804
8.165212e-05 0.00016136137 4.1895186e-05 4.845478e-05 0.00025365167 0.00015940702 0.00041255803 5.3085347e-05
0.00020165171 0.00017520944 0.00014315227 2.040683e-05 5.3282445e-05 3.8463963e-06 1.4345495e-05 0.00041096046
00000000: 36b8 5b38 4d85 b639 88af 4e39 18ac 193a
00000010: 5494 3039 9d54 e839 7a93 1e3a 8dbd 7739
00000020: 3e74 4239 dcbc c738 64b4 c038 e7cf 9a39
00000030: 1c41 1d37 94f5 823a a9f4 283a 3b68 043a
00000040: 5403 5236 f60a 2938 0003 ec36 f0b8 6538
00000050: 854f 0c3a a900 5e3a 61b9 6136 13ba 0537
00000060: 4977 5938 e3a1 9637 e60d 0e37 1188 cf39
00000070: 83c3 3c39 088a 5f39 48de 4b39 32f8 3439
00000080: 8de5 113b 861f 553a 235e 463a 1d21 8839
00000090: 65c2 913a 3d83 4537 9715 0438 4b15 b836
000000a0: d208 3c3a 31c6 b337 3da7 a939 4a32 e638
000000b0: 5fd7 1439 afce eb36 67aa 1a39 10b2 9d39
000000c0: a63c ab38 1d33 2939 9db8 2f38 ed3b 4b38
000000d0: 8dfc 8439 7f26 2739 9a4c d839 f5a7 5e38
000000e0: 7872 5339 6db8 3739 251b 1639 552f ab37
000000f0: 977b 5f38 4b10 8136 6fad 7037 2e76 d739

module.model.1.model.3.weight f4 [64, 64, 3, 3]
0.040014904 0.051690355 -0.030697627 -0.0016569052 -0.032175127 -0.026163392 0.03170498 0.06259813
-0.02329325 0.05203919 -0.031892408 -0.04004506 -0.07145093 0.06198924 -0.0152190095 0.046252687
0.06917716 0.029397763 0.067667976 -0.052609425 -0.021952152 0.0077993833 0.066481836 -0.058985624
0.025192961 0.0059442874 0.006534346 0.057744075 0.014341547 -0.036426097 0.0012097815 0.040436998
0.00253216 0.05554549 -0.06396068 0.067942426 0.006620766 0.018211255 0.059578303 0.012824815
-0.044565372 0.010859155 -0.07016604 0.009929304 -0.009840722 0.04721134 0.0173987 -0.06698509
0.028292393 0.054353744 -0.05364062 0.07252303 -0.0064842626 -0.025905222 0.0040792054 -0.038510755
0.04524165 0.0412498 0.034349747 -0.0072274613 -0.06405496 0.014867924 0.018129608 0.040749807
0.045379993 -0.065877885 -0.03991797 -0.056921035 0.06291421 -0.012823194 -0.009417478 0.013120943
-0.04834754 0.041383978 0.011893106 -0.04719341 0.037064936 -0.02082863 0.01754332 0.060350697
0.0056086094 -0.06010433 -0.044875585 0.049160242 0.03491816 0.06681709 0.04422219 0.011814151
-0.047625884 0.03817157 -0.04996791 0.06257403 0.014973427 -0.026743766 0.0041185515 0.048649054
-0.039564867 0.06442578 -0.041323595 -0.07028009 -0.016606674 0.030540619 -0.024507841 0.04371056
-0.024708694 -0.012118921 -0.03417401 -0.062432896 0.053367317 0.002375308 -0.03373059 -0.04810868
-0.028259609 -0.028551733 -0.033923287 -0.010751238 -0.027690135 0.024241257 0.045436066 0.035896342
0.03591643 -0.033345148 -0.0022685828 -0.06524368 -0.033553366 0.0020998819 -0.029943474 -0.006250482
0.009269962 0.07148212 -0.027586266 0.010985513 -0.0003324413 -0.032335177 -0.0021151379 -0.0016952495
0.05371489 0.0032326393 -0.063933864 -0.0019004743 -0.025034094 0.070696294 -0.05947379 -0.042818867
-0.05985904 -0.026832733 -0.005042744 0.06396052 -0.06281115 0.031615604 -0.050603483 -0.03742618
-0.04855706 -0.020569868 0.021377644 -0.0138541395 -0.034454398 -0.018580973 -0.06358891 -0.014943629
-0.03092932 -0.06532447 0.04472132 0.011934548 0.040537067 0.04409886 -0.0105865775 -0.04128979
-0.04750987 0.033135418 -0.013061918 -0.058728497 0.010427354 -0.03380715 -0.0007716452 0.05283733
0.035416722 0.04844776 0.028781984 0.06078067 0.036642253 -0.031442076 -0.032767717 0.069681
-0.022513812 0.06862966 -0.026663965 0.015445265 -0.0019034825 -0.0059830756 -0.0053948537 -0.028508712
0.035603415 -0.016243711 -0.00731939 0.067500606 -0.042845596 -0.068761565 -0.019338775 0.055552397
-0.067495205 -0.06572522 -0.02395381 0.015364187 -0.033354495 0.057853673 -0.048757967 0.057610624
-0.0032226983 -0.06592494 -0.05634412 -0.049930338 -0.062280837 0.042159624 -0.043403763 0.06674459
-0.056654774 0.05301358 0.058105882 -0.015692146 -0.042688355 0.03898267 0.05407184 -0.012220661
-0.04565081 -0.039008833 -0.042641457 0.029430442 -0.032622546 0.06499512 -0.0028118307 -0.011617615
0.011089711 -0.07104744 -0.040071372 0.028767865 -0.05014189 -0.012789939 0.030361202 0.036694467
-0.04651391 -0.030558476 -0.015969384 0.022921223 0.072092555 0.029818736 -0.042864274 -0.013572445
0.06456383 0.013223881 -0.034225345 0.03347025 0.018054288 0.005783835 -0.070854165 0.048556972
00000000: abe6 233d 44b9 533d 9779 fbbc 832c d9ba
00000010: 11ca 03bd 9c54 d6bc 15dd 013d 7333 803d
00000020: 7cd1 bebc 0c27 553d 9da1 02bd 4a06 24bd
00000030: dd54 92bd 6ee8 7d3d 2759 79bc 7573 3d3d
00000040: c1ac 8d3d 94d3 f03c 8295 8a3d fb7c 57bd
00000050: 00d5 b3bc f891 ff3b a127 883d e99a 71bd
00000060: 7861 ce3c 4cc8 c23b 111e d63b 0d85 6c3d
00000070: cff8 6a3c 8833 15bd 8891 9e3a 44a1 253d
00000080: 98f2 253b ab83 633d d1fd 82bd 6625 8b3d
00000090: 03f3 d83b c52f 953c 6108 743d 2c1f 523c
000000a0: 2e8a 36bd 99ea 313c 36b3 8fbd 85ae 223c
000000b0: fb3a 21bc ae60 413d b887 8e3c 7b2f 89bd
000000c0: 73c5 e73c 08a2 5e3d 44b6 5bbd f486 943d
000000d0: f079 d4bb 3037 d4bc dbaa 853b 74bd 1dbd
000000e0: 4f4f 393d 8df5 283d 52b2 0c3d 57d4 ecbb
000000f0: 3f2f 83bd 9898 733c 8b84 943c 45e9 263d
00000100: 5fe0 393d fcea 86bd 0681 23bd 0826 69bd
00000110: 2ad9 803d 6018 52bc c44b 1abc 39f9 563c
00000120: 1208 46bd 3f82 293d 4ddb 423c e14d 41bd
00000130: 67d1 173d cea0 aabc 02b7 8f3c 4b32 773d
00000140: 6dc8 b73b f52f 76bd 76cf 37bd 405c 493d
00000150: 5806 0f3d 66d7 883d 5422 353d 2490 413c
00000160: 5c13 43bd cb59 1c3d 27ab 4cbd d026 803d
00000170: 1b53 753c be15 dbbc eaf4 863b 3b44 473d
00000180: c50e 22bd aaf1 833d ee42 29bd 02ef 8fbd
00000190: b80a 88bc 5230 fa3c abc4 c8bc d809 333d
000001a0: e369 cabc 708e 46bc 0cfa 0bbd a3b9 7fbd
000001b0: b097 5a3d 0eab 1b3b 1629 0abd 9b0d 45bd
000001c0: b280 e7bc 53e5 e9bc 25f3 0abd f625 30bc
000001d0: 6cd6 e2bc 9a95 c63c 2b1b 3a3d 0b08 133d
000001e0: 1b1d 133d ec94 08bd 81ac 14bb 7a9e 85bd
000001f0: 416f 09bd 2c9e 093b 044c f5bc d8d0 ccbb
00000200: 0ae1 173c 3865 923d 98fc e1bc 95fc 333c
00000210: 844b aeb9 e471 04bd 209e 0abb 2233 deba
00000220: 2504 5c3d b0da 533b c2ef 82bd 5619 f9ba
00000230: 4d14 cdbc 38c9 903d ca9a 73bd d662 2fbd
00000240: c12e 75bd 52d0 dbbc 9a3d a5bb bcfd 823d
00000250: 22a3 80bd 5d7f 013d 9945 4fbd 324c 19bd
00000260: c5e3 46bd 2482 a8bc 2b20 af3c 79fc 62bc
00000270: 0e20 0dbd 2037 98bc e73a 82bd 1fd6 74bc
00000280: 7c5f fdbc d6c8 85bd b42d 373d 1f89 433c
00000290: 320a 263d 02a1 343d 5373 2dbc 7c1f 29bd
000002a0: b699 42bd 01b9 073d a801 56bc 4b8d 70bd
000002b0: 7ed7 2a3c 5e79 0abd 3c48 4aba f56b 583d
000002c0: 2011 113d 2971 463d 32c8 eb3c 27f5 783d
000002d0: 3016 163d 68c9 00bd 7137 06bd eab4 8e3d
000002e0: e36e b8bc b58d 8c3d 636e dabc 230e 7d3c
000002f0: 467e f9ba ad0d c4bb 50c7 b0bb 1a8b e9bc
00000300: e3d4 113d 8811 85bc 7ed7 efbb c23d 8a3d
00000310: dd7e 2fbd ddd2 8cbd 5a6c 9ebc e98a 633d
00000320: ed3a 8abd f29a 86bd c83a c4bc 12ba 7b3c
00000330: b99e 08bd f9f7 6c3d 6fb6 47bd 1ef9 6b3d
00000340: e833 53bb a803 87bd 18c9 66bd c183 4cbd
00000350: 311a 7fbd 92af 2c3d 25c8 31bd 63b1 883d
00000360: d60e 68bd c524 593d 6f00 6e3d d18c 80bc
00000370: fcd9 2ebd 4bac 1f3d 6f7a 5d3d 2b39 48bc
00000380: 58fc 3abd bac7 1fbd cfa8 2ebd 1c18 f13c
00000390: 389f 05bd 291c 853d b146 38bb cf57 3ebc
000003a0: 9fb1 353c 5281 91bd e121 24bd 96aa eb3c
000003b0: 9561 4dbd e48c 51bc 0eb8 f83c f04c 163d
000003c0: 5f85 3ebd c555 fabc 3ad2 82bc 4ac5 bb3c
000003d0: 43a5 933d 6c46 f43c 7392 2fbd f65e 5ebc
000003e0: 0b3a 843d faa8 583c e02f 0cbd 1a18 093d
000003f0: 96e6 933c 5386 bd3b fd1b 91bd ade3 463d

module.model.1.model.3.bias f4 [64]
0.0009546368 0.0009044864 0.0010816338 0.0009965432 0.0009952256 0.0010142117 0.0009685325 0.0010077403
0.0009608017 0.0011209869 0.000953963 0.0008883358 0.000989891 0.0009768486 0.001011057 0.0009866935
0.0010539101 0.001028025 0.0009979832 0.0010305376 0.0009343839 0.0009817574 0.0009904149 0.00096077094
0.0010004449 0.00096123724 0.00093787606 0.0010561188 0.00097654096 0.0010122551 0.0011926088 0.0009495347
0.0010406125 0.0009758235 0.001044514 0.0009842805 0.0009977727 0.000973906 0.0010062215 0.00095403043
0.0009953373 0.0010981712 0.0010187682 0.0010187203 0.0010183355 0.0009618424 0.0009910924 0.0009313
0.0010396892 0.00094383425 0.001028113 0.001000099 0.0009932822 0.0009895489 0.0011024633 0.0011202462
0.0010289791 0.0009797862 0.0009914603 0.0009749673 0.001099157 0.0009776741 0.0008966552 0.0009805644
00000000: 9740 7a3a 0e1b 6d3a 9cc5 8d3a 719e 823a
00000010: 3b72 823a 4cef 843a 1ee5 7d3a 2716 843a
00000020: 50de 7b3a 14ee 923a 6013 7a3a 35df 683a
00000030: 3bbf 813a 9a09 803a 7185 843a f153 813a
00000040: 5b23 8a3a ccbe 863a c2ce 823a 1b13 873a
00000050: 71f1 743a 50ae 803a cfd0 813a 3fdc 7b3a
00000060: 5c21 833a 8afb 7b3a ccdb 753a 776d 8a3a
00000070: 8efe 7f3a a5ad 843a 5051 9c3a 32ea 783a
00000080: 2965 883a 68ce 7f3a 13e8 883a f902 813a
00000090: b2c7 823a ba4d 7f3a 31e3 833a e617 7a3a
000000a0: fa75 823a 83f0 8f3a 3088 853a 9586 853a
000000b0: ab79 853a 2724 7c3a 8be7 813a 7c22 743a
000000c0: 2e46 883a a56b 773a bfc1 863a c115 833a
000000d0: 0531 823a c0b3 813a 8880 903a 3ad5 923a
000000e0: cfde 863a 2b6c 803a e3f3 813a f394 7f3a
000000f0: 9711 903a 4d25 803a 830d 6b3a 4886 803a

module.model.1.model.4.weight f4 [64]
1.0008299 1.0008268 0.9993304 1.000371 1.0003637 0.9991823 1.0007087 1.0008477
0.99971855 0.9992067 1.0008427 1.0004405 0.99929583 1.000822 0.99911374 0.99910057
0.99926037 1.0009013 0.9991361 1.0007135 1.0007646 1.0008857 1.0006932 0.9999054
0.9991208 1.0009036 1.0008194 0.9993455 1.0007565 1.0000767 0.9992446 1.0007876
0.99919754 1.0007422 1.0007073 0.99916285 0.9996044 1.0005181 0.9992449 1.0008932
0.9994469 0.99939543 0.9992318 1.0006859 1.0008885 1.0008754 1.0007374 1.0008826
0.99911016 1.0009152 0.9993479 0.9997006 1.0006663 1.0007004 0.99911416 0.99914455
1.0000787 0.9996919 0.9995286 0.999618 0.99929667 0.99924946 1.0008632 1.00081
00000000: 321b 803f 181b 803f 1ed4 7f3f 280c 803f
00000010: eb0b 803f 69ca 7f3f 3917 803f c71b 803f
00000020: 8eed 7f3f 03cc 7f3f 9d1b 803f 6f0e 803f
00000030: dad1 7f3f ef1a 803f ebc5 7f3f 0ec5 7f3f
00000040: 87cf 7f3f 891d 803f 62c7 7f3f 6117 803f
00000050: 0e19 803f 061d 803f b716 803f cdf9 7f3f
00000060: 61c6 7f3f 9c1d 803f da1a 803f 1bd5 7f3f
00000070: ca18 803f 8302 803f 7ece 7f3f cf19 803f
00000080: 69cb 7f3f 5218 803f 2d17 803f 23c9 7f3f
00000090: 13e6 7f3f fa10 803f 84ce 7f3f 451d 803f
000000a0: c1db 7f3f 61d8 7f3f a8cd 7f3f 7a16 803f
000000b0: 1d1d 803f af1c 803f 2a18 803f ec1c 803f
000000c0: afc5 7f3f fd1d 803f 44d5 7f3f 61ec 7f3f
000000d0: d515 803f f316 803f f2c5 7f3f f0c7 7f3f
000000e0: 9402 803f cfeb 7f3f 1be1 7f3f f7e6 7f3f
000000f0: e8d1 7f3f d0ce 7f3f 491c 803f 8b1a 803f

module.model.1.model.4.bias f4 [64]
0.0008372785 0.00079475035 -0.00072825456 0.00087536697 0.0006189626 -0.0008242309 0.00072787184 0.0007393755
0.00058866997 -0.0008030398 0.00081893813 0.0007136731 -0.000803356 0.00086221716 -0.00087656075 -0.0008983044
-0.00077362586 0.0009093655 -0.0008654979 -0.0006073167 0.0008304215 0.000895117 0.0007483001 -0.00084579893
-0.0008782478 0.0008811192 0.0008343748 -0.0007406413 0.00086393696 -0.00021905791 -0.00081091834 0.000851707
-6.123292e-05 0.00078147947 0.0005931106 -0.000812808 -0.0005981512 0.00066448044 -0.000740954 0.00091319066
0.0005198319 -0.00070748164 -0.0008658102 0.00080685713 0.0008977408 0.0008640176 0.00079583435 0.00089292746
-0.0008708842 0.0009066127 -0.0007265139 -0.00040141123 0.0008739359 0.00065405114 -0.00087208813 -0.00086317107
-0.00037904072 0.0008730896 -0.0008371395 8.906643e-05 -0.0005224127 -0.0007691827 0.00085726124 0.0008566421
00000000: cf7c 5b3a cb56 503a 56e8 3eba e278 653a
00000010: e041 223a 3311 58ba a7ce 3e3a a6d2 413a
00000020: f950 1a3a 1783 52ba 02ae 563a ca15 3b3a
00000030: 4f98 52ba 6a06 623a ffc8 65ba 307c 6bba
00000040: 27cd 4aba 7c62 6e3a 95e2 62ba 5534 1fba
00000050: a5b0 593a 49a6 6a3a 9229 443a 9bb8 5dba
00000060: 363a 66ba e9fa 663a f2b9 5a3a 9927 42ba
00000070: d479 623a e9b2 65b9 cf93 54ba 1745 5f3a
00000080: 2c6a 80b8 33dc 4c3a fb7a 1b3a 9f12 55ba
00000090: 3fcd 1cba 8730 2e3a 953c 42ba 3063 6f3a
000000a0: 5445 083a 4a76 39ba 8af7 62ba 4483 533a
000000b0: 5e56 6b3a 3d7f 623a 8a9f 503a 5913 6a3a
000000c0: 0d4c 64ba c0a9 6d3a 8673 3eba 8174 d2b9
000000d0: d818 653a a174 2b3a d89c 64ba 6e46 62ba
000000e0: fcb9 c6b9 0de0 643a 7b73 5bba 2dc9 ba38
000000f0: 86f2 08ba faa2 49ba d4b9 603a 4790 603a

module.model.1.model.4.running_mean f4 [64]
-0.30338064 -0.13490196 -0.044089537 -0.2140028 -0.01859471 0.06585842 0.12109366 0.07514349
0.08890002 -0.01390553 -0.4533514 -0.068713844 -0.13824582 0.07408567 0.81613785 0.22893059
-0.17018086 -0.027808214 0.68582135 -0.37278 -0.4329074 0.40267467 0.2448526 -0.6624828
0.005045968 0.20652096 -0.22183362 -0.009866944 0.23034908 0.4243136 -0.14861824 0.14980108
-0.04630452 0.09695872 -0.22330797 0.20791334 0.004148962 -0.29788697 -0.1448773 0.1639978
-0.003999132 0.22773838 -0.4737603 -0.3931987 0.72859776 -0.6688986 -0.2438684 -0.20709738
0.12713854 -0.7212853 -0.41491297 -0.23188934 0.22656006 -0.23409206 -0.27612484 -0.36953422
-0.30015188 -0.520866 0.5672493 -0.26511258 -0.12967609 -0.13198541 -0.04121844 0.20489845
00000000: b554 9bbe bd23 0abe 3b97 34bd 8d23 5bbe
00000010: ef53 98bc c8e0 863d f4ff f73d d5e4 993d
00000020: 3711 b63d 05d4 63bc ad1d e8be d8b9 8cbd
00000030: 5090 0dbe 3aba 973d 69ee 503f c86c 6a3e
00000040: e443 2ebe 0dce e3bc fd91 2f3f 05dd bebe
00000050: 0aa6 ddbe 602b ce3e a4ba 7a3e 7998 29bf
00000060: a658 a53b 3b7a 533e 5a28 63be f6a8 21bc
00000070: a1e0 6b3e a23f d93e 612f 18be 7465 193e
00000080: cfa9 3dbd 4b92 c63d d8aa 64be 3ce7 543e
00000090: 04f4 873b a484 98be b75a 14be 0aef 273e
000000a0: 270b 83bb 4034 693e b690 f2be 5751 c9be
000000b0: 6285 3a3f f03c 2bbf a3b8 79be 5611 54be
000000c0: 9b30 023e 27a6 38bf 796f d4be 6674 6dbe
000000d0: 5cff 673e d4b5 6fbe 3c60 8dbe 9733 bdbe
000000e0: 82ad 99be 7957 05bf 4037 113f d6bc 87be
000000f0: cfc9 04be 2f27 07be abd4 28bd e6d0 513e

module.model.1.model.4.running_var f4 [64]
0.21330476 0.044398844 0.033931836 0.048972856 0.8698979 0.4970155 0.09260384 0.15885434
0.034743268 0.27640393 0.35345033 0.07835755 1.4229294 0.2408009 0.2787674 0.04553308
0.11899567 1.4674947 0.36177722 0.11328877 0.1007702 0.14829719 0.20989423 0.18661982
0.11693965 0.07544681 0.0628971 0.50905776 0.1695844 0.2539115 0.048213538 0.1807779
0.089060865 0.18601485 0.2859681 0.112280875 0.34459358 0.499525 0.7025729 0.27400368
0.83936006 0.17069593 0.13977924 0.43138674 0.3405741 0.39256927 0.22791357 0.18915813
0.0650594 0.23028237 0.13244824 0.62128025 0.17872705 0.16138218 0.17238142 0.15414093
0.46182483 0.1754391 0.73853374 0.07024245 0.05417498 0.08658787 0.094759725 0.4006289
00000000: 906c 5a3e 90db 353d 1cfc 0a3d c397 483d
00000010: a1b1 5e3f d178 fe3e 15a7 bd3d b6aa 223e
00000020: f54e 0e3d d184 8d3e 71f7 b43e ec79 a03d
00000030: 8d22 b63f 8394 763e 9aba 8e3e e580 3a3d
00000040: 00b4 f33d ded6 bb3f dd3a b93e f103 e83d
00000050: 9b60 ce3d 38db 173e 83ee 563e 4419 3f3e
00000060: 0e7e ef3d db83 9a3d 32d0 803d 9c51 023f
00000070: 88a7 2d3e b000 823e 8f7b 453d d81d 393e
00000080: 8b65 b63d ad7a 3e3e 696a 923e 84f3 e53d
00000090: 926e b03e bec1 ff3e d1db 333f 364a 8c3e
000000a0: 4de0 563f eaca 2e3e 4a22 0f3e b9de dc3e
000000b0: ba5f ae3e d7fe c83e 2d62 693e abb2 413e
000000c0: dd3d 853d 24cf 6b3e 83a0 073e 390c 1f3f
000000d0: 3904 373e 5f41 253e c184 303e 1fd7 1d3e
000000e0: 4e74 ec3e 4fa6 333e 8c10 3d3f 46db 8f3d
000000f0: 95e6 5d3d fb54 b13d 6311 c23d 3b1f cd3e

module.model.2.model.0.weight f4 [64, 64, 3, 3]
0.027396875 -0.058303732 -0.03493259 -0.027659588 -0.020861581 -0.0520915 0.014155779 0.07062236
0.055010572 0.06448485 -0.06025134 -0.019269852 0.019363543 0.023414224 0.057909478 0.010295067
0.02843694 -0.02796808 -0.02279121 0.038085535 0.008732925 0.032603536 -0.058457557 0.056351792
0.04374893 0.05407178 0.0031783222 -0.07061642 0.07106198 0.0023929623 -0.066663556 0.0664266
0.058631722 -0.061473712 0.058875695 0.031306997 0.024310376 -0.042218268 -0.05115913 0.02655292
0.047703803 -0.03503716 -0.02317317 -0.037089664 -0.05822805 0.004949637 0.050939124 0.059702616
0.0029837284 -0.058896035 0.044666447 0.025065623 0.026661547 0.037816398 0.009350532 -0.00859211
-0.02924824 -0.05062173 0.047442652 0.03712026 0.06358929 0.012674953 -0.03967566 0.015650421
0.00053330016 0.019257678 0.0125149125 -0.051173456 -0.040925026 0.04266681 0.034356683 -0.05795145
0.017548898 -0.03780138 -0.06103764 -0.017818257 -0.06593602 0.039025817 0.052755408 0.044082914
-0.06065808 -0.008126402 0.038695376 -0.000113489026 -0.064818755 0.009258471 -0.009209337 0.057857484
-0.0394739 0.041393224 0.0045061545 -0.027575457 -0.027884843 -0.006470897 0.04186314 0.043218274
-0.024963744 -0.045887947 0.056883186 -0.054444786 0.010328676 -0.053043623 -0.0261361 -0.023281002
-0.048256323 -0.019782454 0.01163259 0.060824353 -0.014348208 -0.0263478 0.028562943 0.029689241
-0.05388519 0.003438282 -0.01836339 -0.050494537 -1.3008591e-05 0.06323158 -0.009946116 0.017819686
0.029990694 -0.012508092 0.004243308 0.022532074 0.06316577 -0.02673414 0.057457317 -0.04734379
0.04269469 -0.045666944 0.034959774 0.0186584 0.023194036 -0.058393493 0.006550515 -0.054532364
-0.048059322 0.058382504 -0.07168457 -0.02510045 -0.007095187 0.038064003 0.059235316 0.038213428
-0.05635649 0.018871922 -0.03819276 -0.054489177 -0.055735797 -0.05650239 0.008003863 -0.03819569
-0.027856639 -0.029214123 0.033589143 0.012460278 -0.016307948 -0.05656281 0.046159804 0.035955004
-0.07056506 0.062214334 0.05525802 -0.044633254 -0.03170177 0.06757458 0.0020524445 -0.05922855
0.067333095 -0.019437917 -0.050872657 -0.06761872 0.039565064 0.007936095 0.06413532 -0.038816012
0.059724856 0.05131439 -0.055922773 0.044756673 0.029584412 0.0077765263 -0.034132008 0.06502652
0.01847079 -0.023202693 0.006192539 0.015595609 -0.0543715 0.06103805 -0.036763113 0.029284038
0.06551607 0.052737374 0.0015313898 0.05585701 0.01105052 0.013432933 -0.041155573 0.046546556
0.02399694 -0.029277705 -0.061483916 -0.07134896 0.038750723 0.010344541 -0.062907495 -0.0012250636
0.00017750285 0.03106517 0.047641866 -0.017726278 -0.05190329 -0.017426727 0.070806004 -0.00700778
0.025975723 -0.03059385 -0.058258083 0.06409959 0.06597908 -0.058201794 -0.023216834 0.05986477
-0.00040923015 -0.055408895 0.04697362 -0.05779749 0.015286179 0.029016158 -0.014189804 -0.06406179
0.054418553 -0.0029423726 0.064867176 0.028594334 -0.06718622 -0.055937473 -0.0022190823 -0.0066919075
0.026376346 0.052291427 0.0051344214 -0.0053359326 -0.05503066 -0.011734613 -0.012103154 -0.06162789
0.03789217 -0.035140406 0.030350866 0.064677976 -0.049793255 0.0098306555 0.038310602 -0.052184656
00000000: 696f e03c e5cf 6ebd 7a15 0fbd 5c96 e2bc
00000010: e8e5 aabc e65d 55bd a4ed 673c 75a2 903d
00000020: c452 613d a210 843d 1cca 76bd cfdb 9dbc
00000030: 4ba0 9e3c 30cf bf3c 7d32 6d3d a4ac 283c
00000040: 96f4 e83c 511d e5bc a2b4 babc 94ff 1b3d
00000050: 8b14 0f3c 498b 053d 3171 6fbd 23d1 663d
00000060: 1432 333d 5f7a 5d3d 664b 503b 579f 90bd
00000070: f288 913d 3fd3 1c3b e786 88bd ab0a 883d
00000080: d127 703d dccb 7bbd a427 713d c43b 003d
00000090: 8e26 c73c 10ed 2cbd 3c8c 51bd 8285 d93c
000000a0: 1065 433d 2083 0fbd a9d5 bdbc 55eb 17bd
000000b0: 8980 6ebd 9130 a23b 8ba5 503d bb8a 743d
000000c0: a88a 433b f83c 71bd 2af4 363d 6c56 cd3c
000000d0: 5169 da3c 5ee5 1a3d f932 193c ecc5 0cbc
000000e0: 019a efbc bb58 4fbd 3a53 423d 6a0b 183d
000000f0: 1a3b 823d 9baa 4f3c f282 22bd 5035 803c
00000100: 2bcd 0b3a 47c2 9d3c 590b 4d3c 429b 51bd
00000110: 00a1 27bd 65c3 2e3d 98b9 0c3d 805e 6dbd
00000120: b5c2 8f3c 9fd5 1abd 9b02 7abd 98f7 91bc
00000130: 7709 87bd 89d9 1f3d 0e16 583d 4990 343d
00000140: 9b74 78bd 9a24 05bc 0b7f 1e3d f500 eeb8
00000150: b2bf 84bd d8b0 173c c2e2 16bc f8fb 6c3d
00000160: 62af 21bd f18b 293d 5da8 933b ede5 e1bc
00000170: c16e e4bc d109 d4bb af78 2b3d a505 313d
00000180: c480 ccbc 00f5 3bbd 58fe 683d 7f01 5fbd
00000190: 9b39 293c 4544 59bd 601b d6bc cdb7 bebc
000001a0: 6ca8 45bd d00e a2bc 9e96 3e3c f522 793d
000001b0: bf14 6bbc 57d7 d7bc d5fc e93c da36 f33c
000001c0: b8b6 5cbd cd54 613b d26e 96bc 5cd3 4ebd
000001d0: 793f 5ab7 8f7f 813d 09f5 22bc 97fa 913c
000001e0: 0baf f53c beee 4cbc 730b 8b3b 2f95 b83c
000001f0: 0e5d 813d 8e01 dbbc 5d58 6b3d 90eb 41bd
00000200: a1e0 2e3d 430d 3bbd fb31 0f3d 80d9 983c
00000210: 6b01 be3c 042e 6fbd b4a5 d63b 545d 5fbd
00000220: dad9 44bd 7e22 6f3d 5ccf 92bd 759f cdbc
00000230: be7e e8bb 00e9 1b3d bba0 723d af85 1c3d
00000240: 10d6 66bd 4a99 9a3c 0370 1cbd 0b30 5fbd
00000250: 384b 64bd 0d6f 67bd a222 033c 1573 1cbd
00000260: 9b33 e4bc 7552 efbc c594 093d 3226 4c3c
00000270: 3f98 85bc 68ae 67bd 1012 3d3d 8e45 133d
00000280: 6a84 90bd 75d4 7e3d 3c56 623d 5cd1 36bd
00000290: b7d9 01bd 8b64 8a3d 4e82 063b a399 72bd
000002a0: efe5 893d 443c 9fbc d95f 50bd af7b 8abd
000002b0: fa0e 223d 6506 023c 6159 833d 8afd 1ebd
000002c0: 0da2 743d 0a2f 523d 470f 65bd c652 373d
000002d0: 025b f23c 3bd2 fe3b 01ce 0bbd a02c 853d
000002e0: 0e50 973c 9313 bebc c8ea ca3b ba84 7f3c
000002f0: a6b4 5ebd 0903 7a3d eb94 16bd 14e5 ef3c
00000300: 4a2d 863d 2503 583d eab8 c83a 52ca 643d
00000310: 3e0d 353c ce15 5c3c bf92 28bd 9aa7 3e3d
00000320: 3b95 c43c ccd7 efbc 8fd6 7bbd 671f 92bd
00000330: 14b9 1e3d 267c 293c a5d5 80bd 5092 a0ba
00000340: 0f20 3a39 627c fe3c 1e24 433d b336 91bc
00000350: 8b98 54bd 7fc2 8ebc bd02 913d 85a1 e5bb
00000360: 0acb d43c f49f fabc 07a0 6ebd a546 833d
00000370: 0a20 873d 0165 6ebd 3b31 bebc c334 753d
00000380: f18d d6b9 70f4 62bd 6967 403d 10bd 6cbd
00000390: e272 7a3c 4bb3 ed3c 5a7c 68bc d432 83bd
000003a0: fde5 5e3d d2d4 40bb 15d9 843d aa3e ea3c
000003b0: ee98 89bd b11e 65bd 066e 11bb ca47 dbbb
000003c0: 3513 d83c 892f 563d a63e a83b 0cd9 aebb
000003d0: d467 61bd 8942 40bc 4f4c 46bc 876d 7cbd
000003e0: d234 1b3d 63ef 0fbd 61a2 f83c e375 843d
000003f0: 03f4 4bbd c210 213c 94eb 1c3d 94bf 55bd

module.model.2.model.0.bias f4 [64]
0.000997333 0.001009232 0.0010028596 0.001011833 0.001001241 0.0010154622 0.0010144638 0.000996489
0.00096625835 0.0010052304 0.0010010592 0.0010050035 0.0009768641 0.0009985905 0.0010091217 0.0009737194
0.0009977483 0.0009880576 0.0009903457 0.0009882012 0.0010009743 0.00099788 0.0009892192 0.0010055058
0.0010091936 0.0009945963 0.001011256 0.0009967124 0.0010080626 0.0010087301 0.00097604614 0.0009818452
0.0010124751 0.0010016188 0.0009806518 0.0009945373 0.0010060004 0.0009976891 0.0009993949 0.0009910305
0.0010084482 0.0010115331 0.0009977339 0.0010010093 0.0009933497 0.0009930268 0.0010116964 0.0009906812
0.0009962433 0.0009713439 0.0010036627 0.000995641 0.00096941745 0.0010007507 0.0009941759 0.001000482
0.0010038418 0.0010110113 0.001008473 0.0009956791 0.0010055773 0.0010067503 0.0010016637 0.0010009715
00000000: f1b8 823a 3548 843a 6272 833a 7b9f 843a
00000010: 133c 833a 4219 853a c2f7 843a 9f9c 823a
00000020: 804c 7d3a efc1 833a f935 833a 52ba 833a
00000030: 1f0a 803a 23e3 823a 8144 843a 3441 7f3a
00000040: e1c6 823a b681 813a 7dce 813a 8886 813a
00000050: 2033 833a 4ccb 823a b0a8 813a 2dcb 833a
00000060: eb46 843a 1d5d 823a 1f8c 843a 1ea4 823a
00000070: f820 843a 5e37 843a 59dd 7f3a 42b1 803a
00000080: 07b5 843a c048 833a 3789 803a 225b 823a
00000090: c6db 833a e4c4 823a 21fe 823a 77e5 813a
000000a0: e82d 843a 6b95 843a 65c6 823a 4c34 833a
000000b0: 4933 823a 7328 823a e69a 843a bfd9 813a
000000c0: 6194 823a c9a1 7e3a 558d 833a 2b80 823a
000000d0: 8120 7e3a 9f2b 833a 024f 823a 9b22 833a
000000e0: 5793 833a e983 843a bd2e 843a 7281 823a
000000f0: 93cd 833a eff4 833a 424a 833a 0833 833a

module.model.2.model.1.weight f4 [64]
0.99923605 1.0007988 0.99926186 0.9992532 0.99928117 1.0000451 0.99910045 0.9991688
1.0007837 0.99975634 0.99932307 0.99925995 1.0008613 1.0006024 0.999391 1.0008255
0.99916524 1.0008711 1.0002717 0.9996683 0.999558 0.9991294 1.0004722 0.99929905
0.9998149 0.99980813 1.0006537 1.0002183 1.0005419 0.99936247 1.0004373 1.0002215
0.999594 1.0004563 1.0008575 1.0006179 0.9993056 0.99991983 0.99971503 1.0004086
0.9995436 0.9995958 1.0005023 0.99913627 1.0009015 0.99971706 1.0002093 0.9999488
0.99921507 0.99932593 0.99951786 0.9999659 1.0006996 0.9994018 1.000719 1.000808
1.000668 1.0007159 0.99941367 1.000719 1.0001142 1.0007896 1.000615 1.0001091
00000000: efcd 7f3f 2d1a 803f a0cf 7f3f 0fcf 7f3f
00000010: e4d0 7f3f 7a01 803f 0cc5 7f3f 87c9 7f3f
00000020: ae19 803f 08f0 7f3f a3d3 7f3f 80cf 7f3f
00000030: 391c 803f bd13 803f 17d8 7f3f 0d1b 803f
00000040: 4bc9 7f3f 8b1c 803f e708 803f 43ea 7f3f
00000050: 08e3 7f3f f2c6 7f3f 790f 803f 10d2 7f3f
00000060: dff3 7f3f 6df3 7f3f 6c15 803f 2707 803f
00000070: c211 803f 38d6 7f3f 540e 803f 4207 803f
00000080: 64e5 7f3f f40e 803f 191c 803f 3f14 803f
00000090: 7ed2 7f3f bffa 7f3f 53ed 7f3f 640d 803f
000000a0: 17e2 7f3f 83e5 7f3f 7610 803f 65c7 7f3f
000000b0: 8a1d 803f 75ed 7f3f dc06 803f a5fc 7f3f
000000c0: 8fcc 7f3f d3d3 7f3f 67e0 7f3f c4fd 7f3f
000000d0: ed16 803f ccd8 7f3f 8f17 803f 7a1a 803f
000000e0: e415 803f 7517 803f 93d9 7f3f 8f17 803f
000000f0: be03 803f e019 803f 2714 803f 9303 803f

module.model.2.model.1.bias f4 [64]
-0.0007415365 0.00038759247 -0.0006196858 -0.0006536572 0.00023807675 -0.00027653843 -0.00085991895 -0.00082653406
0.0007338176 -0.00027316224 -0.0005594043 -0.00078808324 0.0008238064 2.797202e-05 -0.00020018 0.0008089263
-0.0007221805 0.0009100388 0.0004349926 -0.0002108657 -0.00039748204 -0.0008012758 0.0002938932 -0.00041057693
0.0001538226 -0.00033608094 0.0004726254 0.00036751607 0.00010869105 -0.0005249351 0.00020020413 0.000107509506
-0.00035217017 -0.00067160063 0.0007607245 0.0006757786 -0.00057412154 0.0002165764 -0.0008339586 0.00036484495
-0.00046931216 -0.00049739244 0.00045977725 -0.0008172113 0.0009166613 -6.889857e-05 -0.00024558854 -0.000433533
-0.00031374782 -0.0007679871 -0.0002485866 -3.6160913e-05 -0.00033393185 -0.00043302533 0.0006477856 0.0007003771
0.00072981685 0.00051690213 -0.0005194139 0.0005726352 -0.0001511035 0.00077491615 -0.0004742211 -0.0001670369
00000000: ac63 42ba c835 cb39 6972 22ba 315a 2bba
00000010: 3ea4 7939 5cfc 90b9 2f6c 61ba c3ab 58ba
00000020: aa5d 403a 3737 8fb9 fda4 12ba 5f97 4eba
00000030: b6f4 573a 75a5 ea37 69e7 51b9 200e 543a
00000040: b750 3dba ac8f 6e3a b80f e439 d51b 5db9
00000050: 2365 d0b9 b50c 52ba ad15 9a39 b442 d7b9
00000060: 714b 2139 0534 b0b9 b5ca f739 2caf c039
00000070: 10f1 e338 cc9b 09ba e3ed 5139 ba76 e138
00000080: 7ba3 b8b9 5b0e 30ba 5b6b 473a bc26 313a
00000090: a580 16ba c918 6339 049e 5aba a948 bf39
000000a0: 030e f6b9 7163 02ba 420e f139 1f3a 56ba
000000b0: 194c 703a a37d 90b8 56c2 80b9 d04b e3b9
000000c0: 857e a4b9 be52 49ba bb54 82b9 7cab 17b8
000000d0: 9313 afb9 ad07 e3b9 28d0 293a 8399 373a
000000e0: 2e51 3f3a b780 073a 4729 08ba e61c 163a
000000f0: 8971 1eb9 be23 4b3a e1a0 f8b9 a026 2fb9

module.model.2.model.1.running_mean f4 [64]
0.37905487 0.4031899 0.069758184 0.052699987 -0.26021412 -0.4809897 -0.12866715 0.4976405
-0.41243458 -0.15464567 -0.53894746 0.1027315 -0.11184984 0.10742551 -0.23116708 -0.63267076
0.1550138 -0.11338915 0.23422992 0.42931694 -0.4394618 -0.10574921 0.057469413 0.516778
0.09446353 -0.19765429 0.27703905 -0.20376284 0.21236627 0.39509258 0.40392914 0.38674423
0.19811347 0.43961307 -0.65072554 0.058685698 0.34489527 0.0041188896 -0.11094137 0.35881296
0.12238646 -0.25507846 -0.48823392 0.1922649 -0.5090842 0.056718748 0.14828265 0.21460055
0.018835165 -0.13828726 -0.74023813 -0.05936367 -0.33565453 0.0960191 0.6469633 -0.018183386
0.04305796 0.68337226 0.21480614 -0.04983751 -0.35445982 0.35939962 -0.27829057 -0.144064
00000000: 7b13 c23e e86e ce3e 61dd 8e3d f1db 573d
00000010: c93a 85be 4844 f6be 52c1 03be bcca fe3e
00000020: a02a d3be 6f5b 1ebe 76f8 09bf e564 d23d
00000030: 8711 e5bd e801 dc3d 10b7 6cbe b6f6 21bf
00000040: f0bb 1e3e 9238 e8bd f8d9 6f3e 6ecf db3e
00000050: 2301 e1be 0b93 d8bd 0c65 6b3d 904b 043f
00000060: 1876 c13d e365 4abe 10d8 8d3e 35a7 50be
00000070: 8b76 593e 9349 ca3e cdcf ce3e 5703 c63e
00000080: 42de 4a3e f714 e13e f395 26bf 6a60 703d
00000090: 1d96 b03e c0f7 863b 3b35 e3bd 55b6 b73e
000000a0: c1a5 fa3d a599 82be ccf9 f9be 17e1 443e
000000b0: 5853 02bf eb51 683d 68d7 173e 3fc0 5b3e
000000c0: 344c 9a3c 2d9b 0dbe 3f80 3dbf 5227 73bd
000000d0: e9da abbe a9a5 c43d 639f 253f 53f5 94bc
000000e0: 8b5d 303d 7cf1 2e3f 24f6 5b3e 6b22 4cbd
000000f0: c27b b5be 3a03 b83e 1a7c 8ebe 8385 13be

module.model.2.model.1.running_var f4 [64]
0.2345738 0.3466228 1.3136914 0.17094792 0.29282263 0.28376698 0.18669227 0.15233491
0.7827592 0.68164754 0.15576616 0.24894059 0.3072557 0.11198726 0.1529583 0.23880719
0.27031317 0.30426526 0.3284717 0.30680156 0.32207766 1.0962051 0.40017435 0.59654516
1.2912693 0.16730385 0.84758633 0.7245352 0.52767456 0.15464894 0.19513722 0.31033063
1.4515802 0.29214808 0.908132 0.5630678 0.2526295 0.2966572 0.17385098 0.63295704
0.26115426 0.2637872 1.1401684 0.23784976 1.8611228 0.20559919 0.17456755 0.07930843
1.1837206 0.088023104 0.58713514 0.35624817 0.14163621 0.4013839 0.07318438 0.46864206
0.40390068 0.13003275 0.47877473 0.84497684 0.38673553 0.18162617 0.16484688 0.1545999
00000000: 1d34 703e 8b78 b13e 0a27 a83f f90c 2f3e
00000010: d9ec 953e e849 913e 422c 3f3e affd 1b3e
00000020: e862 483f 7480 2e3f 2a81 1f3e 48ea 7e3e
00000030: 9e50 9d3e 9459 e53d 1aa1 1c3e df89 743e
00000040: 7d66 8a3e a8c8 9b3e 712d a83e 1815 9d3e
00000050: 5de7 a43e 7350 8c3f a7e3 cc3e 2fb7 183f
00000060: 5048 a53f b351 2b3e 6bfb 583f 247b 393f
00000070: ae15 073f 4b5c 1e3e 0dd2 473e a8e3 9e3e
00000080: 61cd b93f 6f94 953e 577b 683f 3625 103f
00000090: a758 813e 74e3 973e fe05 323e 7909 223f
000000a0: 03b6 853e 1e0f 873e 0af1 913f e38e 733e
000000b0: 4639 ee3f 9888 523e d6c1 323e 756c a23d
000000c0: 2884 973f 7545 b43d 7d4e 163f 2966 b63e
000000d0: 1509 113e 3182 cd3e b1e1 953d daf1 ef3e
000000e0: 12cc ce3e 4e27 053e f621 f53e 6750 583f
000000f0: 3302 c63e 36fc 393e 9fcd 283e 704f 1e3e
