output_gd_denoise/ckpt/resnet_epoch10.pth (torch, 641699 bytes, 31 tensors)

module.model.0.weight f4 [64, 1, 1, 1]
00000000: 43b1 99be 073d 88be cd30 1b3e 57e2 1a3e
00000010: 389d 75be cd88 89be 1c6c 52be bbe1 203d
00000020: 2ecf 4ebe 2789 5e3e f20c 163c 95f2 1e3d
00000030: fc94 dfbd adeb 89be 1629 e73d fcb8 7f3e
00000040: 0a86 253e 4f49 723c ee4e 803e f6c8 2a3e
00000050: 3e6d d83c f344 683e 8bf2 9ebd 7d23 7e3e
00000060: 274a 85be 46f5 983d 5057 423e b5c8 fe3d
00000070: 8f72 bbbd 0e07 edbc cc7e 633e 3320 803e
00000080: 1f55 873e 903d 5bbe 0ed0 0e3e a6e7 213e
00000090: 57c7 05be c60f 3b3d 1591 ec3d 0f1e e7bd
000000a0: ab18 753d 6399 443e ac8d fdbd 0273 6ebe
000000b0: 17a4 933c 5102 90bd 27e8 fd3d 89b0 0d3d
000000c0: e093 18bd 3a2d 2d3e 6ecd 3abe 1f4f 0e3e
000000d0: f15a d03d dce5 b1bd abfe 3bbe af59 b7bc
000000e0: 19df 863e 760b 3a3e 95de 38be 0980 803e
000000f0: 2257 893d 3a9b 283e 782a 673e f0fe 3c3e
-0.30018052 -0.2660906 0.15155335 0.15125404 -0.23985755 -0.26862183 -0.20549053 0.039277773
-0.2019622 0.21732007 0.00915836 0.038805563 -0.109170884 -0.2693762 0.112871334 0.2497291
0.16164413 0.014787986 0.2506022 0.16678223 0.026419278 0.22682552 -0.07761105 0.24818225
-0.26033136 0.07468657 0.1897862 0.124406256 -0.0915271 -0.028934028 0.22216338 0.25024566
0.2643213 -0.21410203 0.13946554 0.15811023 -0.13064323 0.04566934 0.1155111 -0.1128503
0.05983798 0.19199137 -0.123805374 -0.2328606 0.01802258 -0.07031692 0.12397795 0.034592185
-0.0372504 0.16911784 -0.18242428 0.1389737 0.10173596 -0.0868642 -0.18358867 -0.022381632
0.26342085 0.18168435 -0.18053658 0.25097683 0.067060724 0.16465464 0.22574794 0.18456626

module.model.0.bias f4 [64]
00000000: b32e b43a 7b71 f93a abb9 0bb8 eee7 8a3a
00000010: 499b b93a 52a9 a739 8e63 1d3a b1f8 7e3a
00000020: 3d19 283a 2ca7 edb8 9076 083b 5e65 0639
00000030: 2855 2b39 5c36 603a f320 1c3a 20b4 123a
00000040: 36fb bc39 4e9a a53a 47b3 5439 104a 9f3a
00000050: b858 013b c9ad 9b3a cc4c d73a 48b7 9c39
00000060: a51c 703a 3a63 443a 8917 973a a55a d6b8
00000070: 170c a63a 9649 df39 bdc0 d738 e5c9 dd3a
00000080: 7d33 293a 2405 b93a 5cc9 b03a 0417 e338
00000090: 1ebe 9f3a 0581 143a c12f dd3a e732 0a3b
000000a0: 6673 943a 6f38 b5b8 809b e23a 5a20 8c3a
000000b0: 0964 823a 721a 013b 94dd bb3a afdd 063b
000000c0: 5a67 7939 5b5f ef3a 7605 c637 4f9d a83a
000000d0: e331 e33a 8664 9c3a 317e 393a c255 4539
000000e0: 71cb ac39 abba 0f3a 68b1 e23a 7183 bd3a
000000f0: fb06 4b3a 4665 543a a471 003b a798 7e3a
0.0013746828 0.0019031012 -3.33131e-05 0.0010597685 0.0014160658 0.00031978876 0.00060039095 0.0009726389
0.0006412452 -0.00011332179 0.0020822622 0.00012816998 0.00016339554 0.0008553022 0.00059558376 0.0005596299
0.0003604532 0.0012634487 0.00020284682 0.001215281 0.0019736718 0.0011877354 0.0016426085 0.00029891194
0.0009159542 0.00074915926 0.00115274 -0.00010221199 0.0012668398 0.000425887 0.00010287899 0.0016921131
0.0006454511 0.0014115912 0.0013487744 0.000108284905 0.0012187397 0.00056649774 0.0016875194 0.002108747
0.0011325895 -8.641264e-05 0.0017288774 0.0010690794 0.0009948026 0.00196996 0.0014333003 0.002057891
0.00023784992 0.0018262671 2.3605982e-05 0.0012864264 0.0017333593 0.0011931814 0.0007075994 0.00018819331
0.00032957972 0.0005482833 0.0017295303 0.0014458728 0.00077448756 0.0008102249 0.0019598985 0.0009712078

module.model.1.model.0.weight f4 [64, 64, 3, 3]
00000000: 28ab 4dbd 2414 afbc d4ff 93bd f999 03bc
00000010: 1e08 67bc 4990 6bbd d782 8abd d2f4 003d
00000020: 938c 7d3b 1af4 38bd f65f 6f3d 4b87 5d3d
00000030: a3a7 703d 83bc 84bd 9d23 e03b e719 cbbc
00000040: 77ac 5d3d 01a5 9bbc 4701 1bbd 5062 5e3d
00000050: 3373 8bbd 6fae 883a 4183 be3b 8754 7fbd
00000060: d1bd 95bc 236c 8a3d 2f13 d9bc 7ff9 debc
00000070: 3581 1bbd 55c4 11bd 44ae 73bd 2d92 043d
00000080: 6ad8 02bd e23d 83bd df75 03bd 2ccc 023c
00000090: 3a91 863d 7565 a13c e287 95bc 812c 2ebd
000000a0: 2543 303d 15bb 55bc ceac 68bd f72d f93c
000000b0: ea99 d3bc 7f07 28bd ac1d 753d 4106 2c3d
000000c0: eaf5 743d 1daa fb3b 04ca 333d 98bb 90bd
000000d0: 8f94 a83c 2718 363d 0bf1 833d a0ec 91bd
000000e0: b4a6 803d 800f 9b3c 977f ed3c 76b6 b53b
000000f0: 1100 34b4 2991 88bd 6d3b ecbc 2ee2 58bd
00000100: 831e a83c a6e9 053d cefd 893d b704 c5bc
00000110: 8ded 85bd 99ee eabb 2e71 843d df20 1bbd
00000120: e11f 75bd b326 5fbc c3f7 86bd c257 69bd
00000130: 7cb6 44bb e274 403c 590a f1bb 80bf 76bd
00000140: 4860 573d de7c acbc 29b0 853d 9da5 e2bc
00000150: 65ef 91bd ab9d 3dbd 99c2 2e3c e0c8 8c3d
00000160: 4477 3d3d e5e9 e53b 8a0e 24bd fe26 74bd
00000170: 6bf2 56bd 643e 3fbc 9aa9 77bd 24e4 15bd
00000180: 74eb ee3b df7d 273d e605 6fbc 55f6 b73b
00000190: bcd5 ff3a 436c 8a3d e52a a4bc fc81 efbc
000001a0: e898 07bd 4727 a3bc 64b0 653d ec2a 4c3d
000001b0: f5ec f93c bce7 803d 7fcf 183d b364 fb3c
000001c0: 4d17 e6bb 42e5 373d 6e70 6dbd e6e9 80bb
000001d0: cd03 b6bc ecdc 14bd 2505 513d 8322 0e3d
000001e0: 41a8 bb3c 2289 2abd 6233 7cbc 61bd 92bd
000001f0: 55e6 d13c c601 94bd 3165 ffbc 1da6 5b3d
00000200: ceb5 0cbd f420 3cbc 4fe6 afbc af1b c2bc
00000210: b50d 57bd 5207 153d 70a8 393d 2482 e4bc
00000220: 067a 703d 766a 5bbd a4d1 1c3d 2fad 323b
00000230: ec1d 163d fc4e 043d 5211 26bd 7257 b2bb
00000240: 1535 14bd 316f 2e3c b298 2fbc 5732 07bc
00000250: 0d3c 723d 1b8b 15bd 9ffd 883d 463b 5c3d
00000260: 7df4 203d 2cb6 7e3c 151b 69bd bd45 7abc
00000270: c5c8 3ebc faa6 2c3d 0fac 55bc 1679 4e3c
00000280: b5bc 99bb 5d36 62bc 9e17 243d 91f9 ec3c
00000290: 8f4d 1e3c 1f62 56bd af0d 213d 1d39 1abd
000002a0: 356f 8bbc b3f1 9f3b 5599 fabc a392 b03c
000002b0: a002 ae3c a742 c4ba 8508 f43c 26b0 283d
000002c0: 5caf be3c 8457 853d 32f9 bdbc bb65 8b3c
000002d0: 6356 833d 1039 27bd 6b92 0a3d b4f9 06bc
000002e0: e65b 23bd 0997 d53b ea98 bb3b e394 e13b
000002f0: 33ea ad3c efd4 ba3c bb76 05bd 9ff9 863d
00000300: 186f 45bd e6b2 81bc b2f1 233d ac68 ab3c
00000310: 2396 2e3d e8a1 3c3c 857d 883d 12fe ff3c
00000320: fb33 18bd 1c5f 833d 2434 283c a41b 76bd
00000330: b82d 563c 446a 58bd 6810 10bc 91d1 d2bb
00000340: 96a1 0e3b 6cb5 103d 31d9 87bd 488f 39bd
00000350: 9e40 d4ba 5010 42bd 1b15 0b3c 7824 2abc
00000360: c572 0d3d c172 4cbd 0bea 7e3d d5f2 423d
00000370: bede 29bd 52ff ecba 41d5 19bd 8cd2 b8bc
00000380: 4180 46bd aed7 9cbc a643 a2bc f7f6 4b3d
00000390: 190c 653d 9673 9e3c bb36 bb3c 8da9 b63c
000003a0: d7b5 4dbd 2ecd 663d 13e5 86bd cb5a 3cbc
000003b0: 2524 203d ccb6 bb3c 09b3 38bc 196f d23c
000003c0: b31e 3fbd b386 243d b8c9 1c3a b9d1 8fbd
000003d0: 1802 7b3d c984 f4bc 9799 123d f148 5d3c
000003e0: f678 93bc ed40 20bd c29a 673d 0978 893d
000003f0: 1154 8cbd 1456 9d3c 354c 72bd 2284 cabc
-0.050212055 -0.021371908 -0.0722653 -0.008032315 -0.014101056 -0.057510648 -0.06763237 0.03148348
0.0038688525 -0.04515467 0.058441125 0.054084104 0.05875362 -0.06481268 0.006840183 -0.024792625
0.054119553 -0.018999578 -0.037843015 0.054292977 -0.06809082 0.0010427962 0.0058139865 -0.06233647
-0.018278988 0.06758907 -0.026498405 -0.027218578 -0.03796502 -0.035587627 -0.059492365 0.032365967
-0.03194467 -0.064082876 -0.032094833 0.007983249 0.065706685 0.019701699 -0.01825327 -0.04252291
0.043032784 -0.013045092 -0.056805424 0.030417426 -0.025830228 -0.041022774 0.05984275 0.04199815
0.059804834 0.007680191 0.04389383 -0.07067031 0.02057865 0.044456627 0.0644246 -0.07125211
0.06281796 0.01892829 0.028991504 0.0055454327 -1.676383e-07 -0.06668312 -0.02883693 -0.052950077
0.020522362 0.032693528 0.067378625 -0.0240501 -0.0653945 -0.0071695563 0.064669 -0.037873145
-0.059844855 -0.013620066 -0.065902255 -0.056968458 -0.0030015996 0.011746617 -0.00735597 -0.060241222
0.052582055 -0.021055635 0.065277405 -0.027666861 -0.07125739 -0.046292942 0.010666513 0.06874251
0.04625632 0.007016408 -0.040052928 -0.0596075 -0.05247728 -0.01167259 -0.06046448 -0.036594525
0.007291252 0.040891524 -0.014588809 0.005614082 0.0019518654 0.067589305 -0.020039985 -0.029236786
-0.033104807 -0.01991619 0.056076422 0.04984562 0.030508498 0.062942 0.03730726 0.030687666
-0.0070218206 0.04489637 -0.05796855 -0.003934133 -0.02221861 -0.0363435 0.051030297 0.03470088
0.022907378 -0.041634686 -0.01539311 -0.071650274 0.025622526 -0.07226901 -0.031176182 0.053625215
-0.03435307 -0.011482466 -0.021472124 -0.023694841 -0.052503306 0.036383934 0.04532665 -0.027894087
0.05871012 -0.053568326 0.038285866 0.002726387 0.03664963 0.032301888 -0.04054386 -0.005442553
-0.036183435 0.010646627 -0.010717558 -0.008251748 0.0591393 -0.036509614 0.066889994 0.053767465
0.039295662 0.015546363 -0.056910593 -0.015275416 -0.011644547 0.04215143 -0.01304151 0.012602111
-0.004691685 -0.0138069065 0.040061586 0.028927596 0.009662046 -0.05233967 0.03931969 -0.037652124
-0.017020801 0.0048811077 -0.030590693 0.021554297 0.021241486 -0.0014973477 0.029789219 0.041183613
0.023276977 0.06510833 -0.023190115 0.017016282 0.06412961 -0.040825903 0.03383104 -0.008238245
-0.039882563 0.006518249 0.005725016 0.0068842038 0.021229839 0.022806613 -0.032583933 0.0659058
-0.04820165 -0.015832376 0.04002542 0.020923935 0.04262365 0.011513211 0.06664566 0.03124908
-0.037158947 0.06414625 0.010266338 -0.060084954 0.013072424 -0.052835718 -0.008792974 -0.0064336737
0.0021763793 0.035329267 -0.06633223 -0.04530266 -0.0016193574 -0.047378838 0.008488919 -0.010384671
0.03453328 -0.049914125 0.06223492 0.047594864 -0.04147219 -0.0018081462 -0.03755689 -0.022561334
-0.048462156 -0.019145813 -0.019807648 0.04979607 0.05591974 0.019342225 0.022853246 0.022297645
-0.050222244 0.05634802 -0.06586661 -0.011496256 0.03909697 0.022914313 -0.011273154 0.025687741
-0.046660136 0.04016752 0.0005980986 -0.07022423 0.061281294 -0.029848473 0.035791006 0.01350616
-0.018002015 -0.039124418 0.056544073 0.06712348 -0.06851972 0.019206084 -0.059154708 -0.024721209

module.model.1.model.0.bias f4 [64]
00000000: c577 8b3a 1ef1 9a3a c2d3 3e3a 5f84 7a3a
00000010: 8eb1 943a 8990 923a 447c 863a 43a2 3e3a
00000020: 77e7 883a dcd8 913a 7143 7e3a e49c 803a
00000030: cea0 933a 220f 573a d339 8e3a f901 a13a
00000040: 3efa 6a3a 92e3 503a 9a5a 743a 024f 703a
00000050: 0db9 a23a 5ff5 923a 71af 943a c13c a73a
00000060: 16a8 833a 7f9f 8f3a 4918 ab3a aadd 7f3a
00000070: 4bb9 933a 62a8 723a 437e 943a 715a 493a
00000080: ff71 823a dece 8c3a cb8f 563a 3e5f 6e3a
00000090: d644 633a 2aa4 a43a 58ce 873a 7c91 a23a
000000a0: 05a4 683a 62b0 5e3a 2d89 8b3a dbe8 8e3a
000000b0: 0eda 7e3a 81f5 3e3a e6e5 963a f181 673a
000000c0: 886b 983a 7bf1 893a cd45 903a 0ea3 7d3a
000000d0: fe7f 883a bcff 5f3a 8b9e b83a 1575 483a
000000e0: 99df 9a3a 7b28 ac3a 617d 8d3a 1d1a 673a
000000f0: 5c3e 773a 8256 a63a cfe2 3a3a b53d 4a3a
0.0010640553 0.0011821126 0.0007279479 0.0009556468 0.0011344419 0.0011181991 0.0010260423 0.00072721037
0.0010444958 0.0011127251 0.00096993806 0.0009812382 0.0011263133 0.0008203854 0.0010850973 0.0012283913
0.00089636806 0.0007968481 0.0009321362 0.00091670465 0.0012414769 0.0011212042 0.001134379 0.0012759195
0.00100446 0.0010957568 0.0013053502 0.00097605085 0.0011270432 0.00092566584 0.0011329133 0.00076810183
0.0009952186 0.0010742804 0.0008184879 0.00090931717 0.000866962 0.0012561132 0.0010361178 0.0012402977
0.00088745385 0.0008494911 0.001064574 0.0010903137 0.0009721824 0.0007284508 0.0011512607 0.00088313135
0.0011628726 0.0010524237 0.001100713 0.0009675481 0.0010414121 0.00085448823 0.0014085335 0.0007646841
0.0011815905 0.0013134623 0.0010794812 0.0008815842 0.00094315945 0.0012690576 0.0007129134 0.00077148835

module.model.1.model.1.weight f4 [64]
00000000: 6f11 803f eaf2 7f3f 78c8 7f3f afd9 7f3f
00000010: 2c03 803f 55ce 7f3f 96f5 7f3f 2908 803f
00000020: 8914 803f 56fe 7f3f 761d 803f 9818 803f
00000030: b4c7 7f3f fbd2 7f3f a521 803f d009 803f
00000040: 85ed 7f3f 5a2b 803f 6fe2 7f3f c80f 803f
00000050: 3c2a 803f 4de5 7f3f afdf 7f3f 06ec 7f3f
00000060: 46e1 7f3f 75a7 7f3f 69ba 7f3f 90d7 7f3f
00000070: b8e5 7f3f e5e8 7f3f f3bf 7f3f f419 803f
00000080: 6be4 7f3f 920f 803f 6b06 803f 521d 803f
00000090: f309 803f 7210 803f 17c1 7f3f 94d7 7f3f
000000a0: 1ff9 7f3f 0cae 7f3f becf 7f3f 7e19 803f
000000b0: 13f8 7f3f d20c 803f 27c2 7f3f 2a08 803f
000000c0: afd0 7f3f ccf2 7f3f d3c9 7f3f daf7 7f3f
000000d0: c210 803f a504 803f a31d 803f a9b5 7f3f
000000e0: 9b04 803f 861a 803f e4f9 7f3f f819 803f
000000f0: 1e13 803f b2b0 7f3f 9806 803f d50b 803f
1.000532 0.9998003 0.99915266 0.99941534 1.0000968 0.9992421 0.9998411 1.000249
1.0006267 0.9999746 1.0008991 1.0007505 0.999141 0.99931306 1.0010267 1.0002995
0.999718 1.001323 0.99954885 1.0004816 1.0012889 0.9995926 0.9995069 0.9996952
0.99953115 0.99864894 0.99893814 0.999383 0.999599 0.99964744 0.99902266 1.000792
0.99957913 1.0004752 1.0001959 1.0008948 1.0003036 1.0005019 0.99904007 0.9993832
0.99989504 0.9987495 0.99926364 1.000778 0.99987906 1.0003912 0.9990563 1.0002491
0.999278 0.99979854 0.99917334 0.99987566 1.0005114 1.0001417 1.0009044 0.99886566
1.0001405 1.0008094 0.9999068 1.0007925 1.0005834 0.9987899 1.0002012 1.0003611

module.model.1.model.1.bias f4 [64]
00000000: 3f31 5e3a 339b ddb9 80f2 0eba be38 8ab9
00000010: 11c3 19ba 6455 93ba a6ad 8fb9 054b fd38
00000020: f347 37b9 5192 c6b9 2e19 063a 171c bb39
00000030: a8c8 f2b9 617d 16ba 6a5e 3f3a f82e 4e3a
00000040: 87d6 cab8 f2fd a33a b20d 0bba 2be9 8f3a
00000050: 9ca7 ab3a f89e d339 93b9 59ba 789f 19ba
00000060: 14ee 6837 e890 98ba 5369 bab9 dcbb 8eb9
00000070: a133 203a 1327 38ba 21fc 8aba 3e79 843a
00000080: 2ce1 91b9 987f 9ab9 c90c 1a3a e0bb 903a
00000090: 4ce6 8539 4d19 203a 5227 60b9 abd7 5aba
000000a0: 2c2f 8c39 0c76 8bba f769 9aba 50a7 723a
000000b0: 712f 23b8 3a51 07ba 517f 09ba b60a e439
000000c0: 2dc5 f8b9 c641 0bba 5c89 95b9 c118 c739
000000d0: 6723 e039 3dd7 9138 ffd6 923a 983c 1bba
000000e0: 06a1 723a 153f 303a 91d0 b4b9 0acc 1c3a
000000f0: d47e 663a d2e0 95ba a9f6 56ba c0fb d738
0.0008475966 -0.00042268037 -0.00054530054 -0.00026363687 -0.0005865554 -0.0011240658 -0.00027404464 0.000120779536
-0.00017479043 -0.00037874517 0.00051154464 0.00035688348 -0.00046307337 -0.0005740729 0.00073001406 0.0007865275
-9.6720694e-05 0.0012511595 -0.000530447 0.0010979524 0.0013096216 0.00040363497 -0.0008305546 -0.00058602495
1.38837095e-05 -0.0011639865 -0.00035555157 -0.00027224317 0.0006111209 -0.00070248655 -0.0010603705 0.0010106934
-0.0002782432 -0.00029468234 0.0005876539 0.0011042319 0.0002553932 0.0006107286 -0.00021376953 -0.0008348177
0.00026738027 -0.0010640039 -0.0011780848 0.0009256499 -3.890641e-05 -0.0005161945 -0.0005245107 0.0004349553
-0.00047449153 -0.000531223 -0.00028521835 0.0003797468 0.00042750986 6.95423e-05 0.001120299 -0.000592181
0.0009255562 0.0006723267 -0.0003448767 0.0005981332 0.00087927026 -0.00114348 -0.00082002074 0.00010298891

module.model.1.model.1.running_mean f4 [64]
00000000: 8f95 3338 4530 08b9 a0a6 333b 00cd d63a
00000010: 3dab eab9 e3f3 b93a cf3c 1e39 c34c 693b
00000020: 0279 693b 9ee1 0a3a 9a9d 8c3a 8574 5b3b
00000030: 08bc e23a ee4a 533a 520f 963a 7adf 283b
00000040: 2fdd c43a 4904 1d3b 2fa9 72b9 0859 443a
00000050: 6a9f 613b c5b6 403b 2d9b 473b 609d 7e3a
00000060: f96b e03a 7727 853a 1bb1 14ba 2047 8bba
00000070: a522 c03a a388 f4b9 b0a9 ef3a 2176 be39
00000080: 34ac 4c3a c4f8 18bb 0ceb ab3a 5980 9db8
00000090: 3e41 893a c416 303a 1414 8c3a 2612 d5b9
000000a0: 9530 143b 51cc 0b3a d3be 4a3b 985c 3d3a
000000b0: 8681 c839 57ae 9b39 1ee5 2d3a 1ec1 2b3b
000000c0: 0f96 c6ba a382 673b 8a74 b53a a1a7 223a
000000d0: fbba b8b9 2091 95ba 2599 133b e29a d83a
000000e0: 8528 173b 647c 4b3b 7183 353b 90a1 113a
000000f0: 8dd5 6c3b d446 103a a580 573a 4795 c1b9
4.2816213e-05 -0.00012987953 0.0027412549 0.0016387999 -0.0004475954 0.0014187064 0.00015090707 0.0035598732
0.0035625105 0.0005297902 0.0010728121 0.00334862 0.0017298469 0.00080601766 0.0011448658 0.0025767968
0.0015019531 0.0023958853 -0.00023141944 0.00074900733 0.0034427294 0.0029405814 0.0030457482 0.0009712782
0.0017122022 0.0010158856 -0.0005672143 -0.0010626055 0.0014658762 -0.0004664111 0.0018284824 0.00036327637
0.00078076427 -0.0023341635 0.0013116314 -7.51025e-05 0.0010471714 0.00067172595 0.0010687136 -0.00040640048
0.0022611965 0.0005332875 0.0030936494 0.00072235754 0.00038243475 0.00029693797 0.00066335674 0.0026207636
-0.0015150922 0.0035325668 0.0013843935 0.0006204788 -0.00035234526 -0.0011411048 0.0022521701 0.0016525651
0.0023064923 0.0031049484 0.0027696753 0.0005555386 0.0036138028 0.0005503718 0.00082207687 -0.0003692305

module.model.1.model.1.running_var f4 [64]
00000000: c33b 9538 f6aa fc39 ba5d 0f39 415d 3b3a
00000010: 8f58 8739 f3aa 153a 8a4b 383a 0159 8539
00000020: d1d4 7f39 4c12 e938 c365 1d39 17a8 ce39
00000030: 39cd 6338 de3d 883a 9f67 5b3a 4fcc 103a
00000040: 4b4f 9336 c4ba 9e38 7afa d337 c95b b538
00000050: 0ba8 443a 69b2 8c3a 58d7 0a37 0303 0337
00000060: a80e 0638 63a4 eb37 a585 7337 d36d d639
00000070: 4950 9939 f98f 4239 bd30 7a39 e0ef 6d39
00000080: 48c5 1f3b cf9e 793a daa9 6e3a 62e8 9639
00000090: 410b a33a c0a8 ca37 ed44 8438 3f4e d436
000000a0: 5155 653a 054f 2b38 ec77 b339 707c d838
000000b0: 5a5b 4a39 7009 aa36 6eaa 3d39 8edd ad39
000000c0: 86e2 ea38 0041 2139 4a05 a138 1c2b 1438
000000d0: 378b c039 cdfa 3b39 5676 023a 9d62 8338
000000e0: ce2a a239 41dc 4839 021d 1839 5609 b237
000000f0: 09dc ce38 d722 e336 9487 c836 9529 003a
7.116005e-05 0.0004819256 0.00013672459 0.000714738 0.00025815188 0.00057093723 0.0007030299 0.0002543405
0.00024397975 0.00011113714 0.00015010596 0.00039416619 5.4312146e-05 0.0010394414 0.0008369628 0.00055236084
4.3901723e-06 7.568815e-05 2.5269797e-05 8.647849e-05 0.0007501847 0.0010734323 8.27558e-06 7.80891e-06
3.196174e-05 2.8090732e-05 1.4515045e-05 0.00040899086 0.0002924225 0.00018554916 0.00023860014 0.00022691442
0.0024379063 0.00095222605 0.00091042893 0.00028783368 0.0012439267 2.4158857e-05 6.307089e-05 6.3272014e-06
0.000874837 4.084317e-05 0.0003423089 0.00010322861 0.00019298252 5.0674935e-06 0.00018087935 0.00033162202
0.00011200183 0.00015378371 7.6780634e-05 3.53261e-05 0.00036724817 0.0001792714 0.000497674 6.264935e-05
0.0003093094 0.00019155537 0.00014506656 2.1223601e-05 9.86383e-05 6.769183e-06 5.976248e-06 0.00048890087

module.model.1.model.3.weight f4 [64, 64, 3, 3]
00000000: e6da 243d e5ab 533d 0373 f9bc 5bf1 a8ba
00000010: 28b3 02bd e492 d4bc 5142 033d c5de 803d
00000020: f3a3 bbbc 5b00 573d 0942 01bd 61d9 22bd
00000030: 9f49 91bd a4e8 7f3d 1dc6 71bc a57b 3f3d
00000040: 3ed6 8e3d 4b78 f53c 0b83 8b3d 9b62 55bd
00000050: 91ee afbc a677 073c f534 893d 506c 6fbd
00000060: 869b d23c 8212 d23b c64f e73b 6a6f 6e3d
00000070: 5f63 733c dd13 13bd 0ba7 dd3a 7f73 273d
00000080: b6d9 483b 8da6 653d abe2 81bd 992e 8c3d
00000090: f3b4 dc3b 2468 953c 1bf8 723d 63c9 553c
000000a0: 604c 35bd 31e9 2e3c 3769 8fbd 7484 223c
000000b0: daf7 1ebc c831 433d 40d1 923c 9125 88bd
000000c0: faed eb3c bdc6 603d d8b9 59bd 0ca0 953d
000000d0: 6321 c3bb c107 d0bc ba11 943b 0a18 1cbd
000000e0: 0653 3b3d 7825 2b3d 18d9 0e3d 91c5 dbbb
000000f0: 4311 82bd 63d5 7c3c e17b 983c e904 293d
00000100: abb9 3b3d 9e5b 86bd a961 21bd 23df 66bd
00000110: 52db 813d 9043 4abc 33af 11bc a51e 603c
00000120: f9d5 43bd a063 2b3d ec73 4c3c 46f0 3ebd
00000130: ed12 1a3d dd0b a7bc d614 943c 694c 793d
00000140: d9a9 c73b 0aed 73bd c080 35bd 424b 4b3d
00000150: 134a 113d 900a 8a3d c46d 373d 7832 473c
00000160: 18b8 41bd d7ba 1c3d 4cac 4abd 7ee2 803d
00000170: 69a8 7e3c 38ec d7bc 9a01 993b 679a 493d
00000180: 63d9 1fbd 0445 843d e94c 27bd 711b 8fbd
00000190: 7d98 87bc 4f2e fa3c 375f c5bc 8384 343d
000001a0: 6cb2 cabc 070c 40bc d172 0abd 5b22 7ebd
000001b0: 81df 5c3d 4a75 363b 8e7c 08bd 54be 42bd
000001c0: afe2 e4bc 8a35 e8bc 85a0 08bd f79a 27bc
000001d0: c828 e4bc 00cf ca3c ac61 3c3d 6443 153d
000001e0: 512e 153d 5563 06bd 1750 e3ba b791 84bd
000001f0: e1a7 07bd 3ba0 293b 926f f1bc 42c1 bbbb
00000200: 6284 203c c561 933d 8c89 ddbc 0548 3d3c
00000210: 41c2 4a39 0fac 02bd ae0d d1ba bb8b cfba
00000220: 266d 5c3d d004 4d3b 257f 82bd e667 dbba
00000230: b6d1 ccbc 2486 913d 4297 72bd b8f9 2ebd
00000240: 84ca 73bd 5739 dfbc 139c b0bb 243d 833d
00000250: 5027 80bd 0ba8 023d 90d7 4ebd 877f 17bd
00000260: fb03 45bd 4b9a a3bc 1c8f b33c 6705 5abc
00000270: ef83 0bbd ef95 97bc d86c 81bd 448d 6fbc
00000280: d66c f9bc be15 85bd d468 393d 56f1 4a3c
00000290: b383 263d 14ea 363d 8aa6 23bc adf7 26bd
000002a0: fd7d 40bd 700c 0a3d 76df 4dbc da02 6fbd
000002b0: 0598 2f3c d26d 08bd 21b0 63b9 08e3 5a3d
000002c0: d25f 133d 6fa7 483d 51c7 ee3c c14b 793d
000002d0: 3b67 153d a4ec 01bd b68d 07bd ff7b 8e3d
000002e0: 5da3 b9bc 9c3b 8c3d af78 d9bc 50f0 7a3c
000002f0: e9d3 0abb f64a c5bb d598 b2bb f36f e9bc
00000300: 3d51 123d fdd4 84bc a783 e9bb a2c5 8a3d
00000310: 4c10 2fbd f561 8cbd 6b29 9ebc 21b8 623d
00000320: 94d8 8abd 9565 86bd d827 c1bc a777 813c
00000330: f232 0abd 93e9 6c3d d364 46bd 541b 6b3d
00000340: 4dda 6dbb 0b5d 87bd 5f0f 68bd 4008 4bbd
00000350: e3da 7dbd e1e7 2c3d e83b 32bd 5368 893d
00000360: c469 66bd 5917 5a3d 3ec4 6f3d 5a34 79bc
00000370: b2e4 2cbd 2b52 213d e4cc 5f3d fd01 3fbc
00000380: 6fad 38bd a88f 1ebd 61cd 2dbd 7850 f43c
00000390: 03d3 03bd 7e10 853d 31ff 37bb 2a03 37bc
000003a0: 8783 3c3c 48a6 91bd 5ebd 21bd d90f f03c
000003b0: 46da 4bbd 1c4b 49bc 95e4 fb3c c99b 153d
000003c0: 9fe0 3dbd 192b fbbc 0127 85bc 9991 bd3c
000003d0: bfef 933d f049 f53c b534 2ebd a7c3 5cbc
000003e0: 1b73 843d a2c9 5d3c 829e 0abd 4646 0a3d
000003f0: c3b0 983c 20da cf3b 6f09 90bd bf2f 493d
0.04024782 0.051677603 -0.03045035 -0.0012889312 -0.031909138 -0.02594895 0.032045666 0.0629249
-0.022905326 0.052490573 -0.031557117 -0.03975809 -0.0709412 0.062477723 -0.014756707 0.046748776
0.06974457 0.029964587 0.06812104 -0.05209599 -0.021476062 0.0082682725 0.06699554 -0.058452904
0.025708925 0.0064108977 0.0070590703 0.05821172 0.014855235 -0.035907615 0.0016910745 0.04088163
0.0030647344 0.05606704 -0.063420616 0.06844825 0.006735438 0.018238135 0.059318643 0.013048503
-0.04426229 0.010675714 -0.0700249 0.009919275 -0.009702647 0.047654897 0.017922044 -0.0664779
0.0288 0.05487703 -0.05315575 0.07305917 -0.0059549077 -0.025394322 0.0045187147 -0.038108863
0.045733474 0.04178378 0.034875005 -0.0067069014 -0.06350949 0.015431735 0.018613758 0.04126445
0.045831364 -0.06560443 -0.039399777 -0.056365144 0.0634066 -0.01234521 -0.008891868 0.013679181
-0.047811482 0.041843057 0.01247881 -0.04661586 0.037615705 -0.020391399 0.018076342 0.060863886
0.0060932455 -0.05955223 -0.04431224 0.04963232 0.035471033 0.06740296 0.044782415 0.012158029
-0.047294706 0.03826412 -0.04948072 0.062932 0.015543082 -0.026357755 0.0046693804 0.049219515
-0.039025676 0.06458476 -0.04084483 -0.06987656 -0.016552204 0.03053966 -0.024093254 0.044071686
-0.024743281 -0.011721618 -0.033800904 -0.062044483 0.053924087 0.0027840906 -0.03332191 -0.047544792
-0.027940122 -0.028345842 -0.03335621 -0.010229818 -0.027851477 0.024756908 0.045991585 0.03644122
0.036421124 -0.032809574 -0.0017342594 -0.064731054 -0.033119086 0.0025882858 -0.029472146 -0.0057298252
0.0097971875 0.071963824 -0.027043127 0.011552815 0.00019336586 -0.03190237 -0.0015949511 -0.001583449
0.05381503 0.0031283386 -0.06371907 -0.0016739338 -0.025002342 0.071056634 -0.059226282 -0.04271862
-0.059519306 -0.027249021 -0.0053896992 0.06408146 -0.06257498 0.03189854 -0.050498545 -0.036986854
-0.0480995 -0.019971034 0.021918826 -0.013306952 -0.03406137 -0.018504111 -0.063195884 -0.014621083
-0.030447405 -0.064982876 0.045265988 0.0123866405 0.040652942 0.044656828 -0.0099884365 -0.040763546
-0.04699515 0.033703268 -0.012565484 -0.05835233 0.010717397 -0.033307858 -0.0002171402 0.05343917
0.035980053 0.048987802 0.029147776 0.06086326 0.0364754 -0.03171982 -0.03309413 0.06957244
-0.022660905 0.06847307 -0.026546804 0.015316084 -0.0021183437 -0.006020899 -0.005450348 -0.028495764
0.035722006 -0.016214842 -0.00712629 0.06775977 -0.04274015 -0.06854621 -0.019306859 0.05535138
-0.0677959 -0.06562344 -0.02357857 0.015804125 -0.03373999 0.05783994 -0.048435997 0.05739911
-0.0036293447 -0.066095434 -0.056655284 -0.049568415 -0.061976325 0.042213324 -0.043514162 0.067093514
-0.05625321 0.053244922 0.05853676 -0.0152102355 -0.04221029 0.039385002 0.05463876 -0.011658189
-0.045087274 -0.03871122 -0.042432193 0.029823527 -0.03218366 0.06497286 -0.002807569 -0.011170188
0.011505968 -0.07111794 -0.039487235 0.029304432 -0.04976871 -0.012285974 0.030748645 0.03652552
-0.046356793 -0.030660199 -0.01625395 0.023140715 0.07223462 0.029942483 -0.042530734 -0.0134743815
0.06467267 0.013536843 -0.03384257 0.033758424 0.018638974 0.006343141 -0.07033049 0.0491178

module.model.1.model.3.bias f4 [64]
00000000: 1b48 773a d434 653a 15db 903a a269 813a
00000010: 3a44 823a 2568 853a 788d 7c3a a12a 843a
00000020: 39d2 783a 3734 973a a8e9 733a 745a 633a
00000030: dfb3 813a a2a6 7d3a f89e 843a 590f 813a
00000040: bb25 8c3a 5fec 863a 7dce 823a 62ca 873a
00000050: 49d2 6d3a 0228 803a 57f6 803a 01c3 7a3a
00000060: 4617 843a c086 763a 9ba9 6d3a ce5a 8c3a
00000070: 9e35 7e3a 9e1e 853a 244d a43a 1311 753a
00000080: 715a 883a 8e28 7d3a d2c6 893a 6d23 803a
00000090: 8dc0 823a dd6b 7e3a f22e 843a 19e4 753a
000000a0: ac52 823a b498 923a bc9f 863a 9982 853a
000000b0: 3732 863a 0e08 783a e623 813a 913b 6c3a
000000c0: 3104 8b3a 9f22 723a 29d1 873a 6099 823a
000000d0: 65bc 813a 586c 7f3a 5bc7 943a 759e 983a
000000e0: f75c 873a 5b4c 7d3a a6a2 813a 6911 7d3a
000000f0: 7f15 923a f3d2 803a bfd5 5f3a 655f 7f3a
0.0009433047 0.0008743529 0.001105162 0.00098734 0.0009938546 0.0010178132 0.00096341176 0.0010083505
0.0009491775 0.0011535947 0.0009304532 0.00086728414 0.0009895525 0.00096760143 0.0010118177 0.0009846493
0.0010692397 0.0010293833 0.0009979751 0.0010359997 0.00090721674 0.0009777548 0.000983904 0.0009565801
0.0010077737 0.00094042346 0.00090661057 0.0010708214 0.00096973206 0.0010156219 0.0012535197 0.00093485526
0.001040293 0.0009657227 0.0010511524 0.0009776183 0.0009975597 0.0009705404 0.0010084792 0.00093799975
0.0009942851 0.0011184425 0.0010270993 0.0010186016 0.0010238354 0.00094616495 0.0009852618 0.00090115616
0.0010606108 0.00092367263 0.0010362017 0.0009963922 0.0009898065 0.00097436225 0.0011350916 0.0011643904
0.0010327388 0.0009662562 0.0009890392 0.00096537784 0.0011145322 0.0009828493 0.00085386256 0.0009741693

module.model.1.model.4.weight f4 [64]
00000000: bb29 803f cf27 803f 89c0 7f3f 6b1a 803f
00000010: 4715 803f 55ae 7f3f 211f 803f 792c 803f
00000020: f3d7 7f3f b7b3 7f3f a12e 803f 7d15 803f
00000030: e0cc 7f3f 1c2a 803f 22a2 7f3f 60a2 7f3f
00000040: 5fb9 7f3f 9331 803f 74b1 7f3f 7120 803f
00000050: 9a29 803f a92e 803f a723 803f 21ec 7f3f
00000060: a7a7 7f3f dd31 803f 4d2a 803f 63c2 7f3f
00000070: af24 803f 8cfb 7f3f f1b1 7f3f 962b 803f
00000080: 2db4 7f3f 3728 803f f026 803f b4b5 7f3f
00000090: 41f1 7f3f 5913 803f dabd 7f3f fd30 803f
000000a0: 71cd 7f3f 85c3 7f3f d7af 7f3f 7a22 803f
000000b0: d22f 803f 752f 803f 5626 803f 8e2c 803f
000000c0: 4ca5 7f3f c430 803f 0ec5 7f3f 9902 803f
000000d0: c327 803f 4527 803f b6a5 7f3f c9a7 7f3f
000000e0: f403 803f 2001 803f 84c2 7f3f 95dc 7f3f
000000f0: 1bca 7f3f 39ab 7f3f 2d2e 803f 5227 803f
1.0012735 1.0012149 0.9990316 1.0008062 1.0006493 0.99875385 1.00095 1.0013572
0.9993889 0.998836 1.001423 1.0006558 0.9992199 1.0012851 0.9985677 0.9985714
0.9989223 1.0015129 0.99880147 1.00099 1.0012696 1.001424 1.001088 0.9996968
0.9986519 1.0015217 1.0012909 0.99905986 1.0011195 0.99993205 0.9988089 1.0013301
0.998843 1.0012273 1.0011883 0.9988663 0.999775 1.0005904 0.99899065 1.001495
0.99922854 0.99907714 0.99877685 1.0010521 1.0014594 1.0014483 1.0011699 1.0013597
0.998616 1.0014882 0.99910057 1.0000793 1.0012134 1.0011984 0.9986223 0.99865395
1.0001206 1.0000343 0.9990618 0.99945956 0.99917763 0.9987064 1.0014092 1.0012

module.model.1.model.4.bias f4 [64]
00000000: 54f3 aa3a d839 a03a a726 8bba fe96 ba3a
00000010: 0795 593a e32e a7ba be7e 7f3a b2ed aa3a
00000020: 28e4 5f3a 226a a0ba 2c4d af3a 8b21 8c3a
00000030: daaa 8cba 6298 b83a 4097 baba aef5 baba
00000040: 5f0d 96ba cbfb c93a f249 acba be49 98ba
00000050: 7f38 b13a 6136 bf3a 0a59 9a3a e9fc b7ba
00000060: 69e3 b5ba dab2 bf3a 832e ac3a c0a8 91ba
00000070: a2a6 ad3a fde4 0cba 113d a8ba 1621 bb3a
00000080: 927c ae39 102e a53a 013c 753a 9fd0 8cba
00000090: 1f74 0fba dde4 6c3a b32d 84ba f0d1 c43a
000000a0: d2b6 663a e49d 8fba e2b3 b6ba 4437 aa3a
000000b0: 1e26 c23a 7dea b63a b672 a13a 4dbd ba3a
000000c0: ba70 b2ba a223 c33a e305 88ba 1266 cbb8
000000d0: 866a bb3a 6134 993a 3d5d b3ba d277 b6ba
000000e0: d40d 36ba 9b0b c73a 97b0 abba 8bb8 8e39
000000f0: db3c cfb9 41b3 b0ba 6d80 b53a 40f3 ad3a
0.0013042488 0.001222427 -0.0010616378 0.0014235673 0.00083001 -0.0012755062 0.0009746364 0.001304081
0.0008540773 -0.0012238661 0.001337444 0.0010691149 -0.001073207 0.00140835 -0.001423575 -0.0014263892
-0.0011448077 0.0015410123 -0.0013144596 -0.0011618657 0.0013520865 0.001458835 0.0011775803 -0.0014037165
-0.0013876978 0.0014625445 0.001313642 -0.0011112913 0.0013248513 -0.0005374698 -0.0012835582 0.0014276828
0.00033280678 0.0012602229 0.00093549496 -0.0010743326 -0.00054723205 0.0009036789 -0.001008442 0.001501618
0.0008801046 -0.0010957089 -0.0013939107 0.0012986441 0.0014812385 0.0013955381 0.0012317512 0.001424709
-0.0013613917 0.0014887939 -0.0010377731 -9.6988064e-05 0.0014298714 0.0011688584 -0.0013684403 -0.0013921207
-0.00069448096 0.0015185954 -0.0013098893 0.00027221846 -0.00039527458 -0.0013481156 0.0013847478 0.0013271347

module.model.1.model.4.running_mean f4 [64]
00000000: aeba 94be 602c 9bbd aade 4ebc 7ed3 76be
00000010: f695 873d 858d 15bd 68fe 2d3e 1132 593d
00000020: fd8f ff3d b674 ffbc 3156 fdbe 2efb e8bd
00000030: a09d c2bd 4785 1a3e a746 543f ebf0 343e
00000040: 7837 46be 36d2 3d3d 8ff8 2d3f e327 8ebe
00000050: 4ba3 ecbe ed90 b13e 4b90 573e 704b 2cbf
00000060: 0763 ffbc 76fc 853e cb20 6bbe 9715 88bc
00000070: 3925 6d3e d581 d13e a63e 25be a474 443d
00000080: 06cd c9bc 3243 383e 64ec 6bbe fd8d 603e
00000090: dec4 f8bc 3a7d b5be 2c2b e9bd be01 3e3e
000000a0: 7d24 1fbd 1dac 833e 2cea debe bb0d e0be
000000b0: 2d3e 393f 5dc6 4abf 7eb4 a8be a957 10be
000000c0: 1b62 0d3e d0d3 3bbf 0ff4 e5be 9385 36be
000000d0: 1872 903e ec81 53be ee1d 68be 389d b4be
000000e0: 0f10 87be f559 0cbf e1eb 1b3f 6869 85be
000000f0: 563a b4bd cb0a 08be a530 3fbd 7e16 433e
-0.29048675 -0.07576823 -0.012626329 -0.24104115 0.066204 -0.036511917 0.1699158 0.053026263
0.124786355 -0.031183582 -0.4947982 -0.11376034 -0.09502721 0.15089904 0.82920307 0.17670028
-0.19357097 0.04634305 0.67957395 -0.27764806 -0.46218333 0.34680882 0.21051137 -0.6730261
-0.03117515 0.26169175 -0.22961728 -0.016611857 0.2315873 0.40919366 -0.1613718 0.0479628
-0.024633896 0.17994383 -0.23039395 0.21929164 -0.030367311 -0.35447103 -0.113851875 0.18555352
-0.038853157 0.2571725 -0.43538034 -0.43760476 0.723605 -0.7920893 -0.32950205 -0.1409594
0.13806956 -0.73370075 -0.44912764 -0.17824392 0.28212047 -0.2065503 -0.22667667 -0.35276198
-0.2637944 -0.54824764 0.609068 -0.2605698 -0.08800189 -0.13285367 -0.04667725 0.19051549

module.model.1.model.4.running_var f4 [64]
00000000: 97d8 643e dce8 193d 16f3 2c3d a34f 423d
00000010: eea4 463f 05ed d93e 0cee 6b3d 9d43 3b3e
00000020: b9f0 143d c6ea fd3e 0895 0b3f 762e ae3d
00000030: 3dd7 b93f 2b13 843e 97e4 a83e 925d 3b3d
00000040: c0fd 4e3e 8fa9 e13f 7a1b a33e 2197 003e
00000050: 5da8 363e efab 3e3e da18 a23e fd9a 353e
00000060: c230 723e f09d 323e ac6f f83d 9041 163f
00000070: 73b4 6f3e 98d4 153e b52a 133d 49e7 7d3e
00000080: 3dfb 423e 645e 4a3e 977d 093f 4043 0d3e
00000090: 159c b43e 87e9 1d3f 1128 423f f43a 0f3f
000000a0: 8dc5 4b3f d15e 203e 3b5b d23d 3e16 db3e
000000b0: 1906 e03e 2268 cd3e 60a1 813e a24e 663e
000000c0: 2eb4 213d ff6c 883e 237d 0e3e fe8d 1d3f
000000d0: 5641 1d3e 9476 913e ced3 413e c857 c13e
000000e0: eceb 203f 9b7b 5b3e 5550 763f 9462 453e
000000f0: 2e16 bc3d 89aa dd3c fbe6 0f3e 3e6f 1a3f
0.22348247 0.037575588 0.042224012 0.04743923 0.7759541 0.42563644 0.057600066 0.18287511
0.036362384 0.4959318 0.5452428 0.085049555 1.451881 0.25795874 0.329869 0.045743532
0.20213985 1.762987 0.318569 0.12557651 0.17837663 0.18620275 0.31659585 0.17734905
0.23651412 0.17443061 0.12130675 0.5869379 0.2340868 0.1463188 0.0359294 0.2479526
0.19041152 0.1976257 0.5370726 0.13795185 0.3527533 0.6168446 0.75842386 0.5594933
0.79598314 0.1566117 0.10271307 0.42790407 0.43754652 0.4011851 0.25318432 0.22490934
0.039478473 0.26645657 0.13914923 0.6154479 0.15356955 0.2841078 0.18928453 0.37762284
0.6285999 0.2143387 0.96216327 0.19275886 0.09183918 0.027058857 0.14052956 0.6032599

module.model.2.model.0.weight f4 [64, 64, 3, 3]
00000000: 6fe4 dd3c 2a17 70bd 1083 10bd da0f e5bc
00000010: bcd3 acbc 0996 56bd f44f 623c bffb 8f3d
00000020: 3e06 603d be28 853d 8ae9 74bd 74eb 99bc
00000030: eef5 a23c 4794 c33c 154b 6f3d 6d6b 313c
00000040: 3c65 ec3c 1d11 e1bc 3a6f b8bc 1621 1d3d
00000050: 0065 133c bcd4 063d 9937 6ebd 7208 683d
00000060: 0255 343d bfa7 5e3d fc80 603b e20c 91bd
00000070: f43b 913d 7135 123b b5c7 88bd 804f 883d
00000080: 01ce 6f3d 2b6f 7cbd 3ec9 703d 06d1 fe3c
00000090: 93d7 c33c 6e98 2ebd e72b 53bd 8658 d63c
000000a0: 7ec8 413d 0821 11bd af07 c1bc c076 19bd
000000b0: 921c 70bd 91d2 953b 431b 4f3d f7eb 723d
000000c0: 87f9 293b c6b7 72bd 3187 353d b518 ca3c
000000d0: 2020 d73c 5e5f 193d c7b5 1c3c 0b2b 09bc
000000e0: 45ed edbc c780 4ebd 302b 433d 31c7 183d
000000f0: c593 823d 8e4a 523c c6e3 21bd c664 783c
00000100: 1298 4038 4843 9a3c bcbf 453c 8c61 53bd
00000110: 6470 29bd 49ec 2c3d 4fcd 0a3d 482c 6fbd
00000120: 9644 923c 7276 1bbd 1bfb 78bd 46e2 8ebc
00000130: 9379 86bd 8a85 213d 37ad 573d ca17 343d
00000140: 796a 77bd 68e9 febb 5109 203d 4192 6139
00000150: 2b0f 84bd 7b78 1d3c e999 11bc 7e5d 6e3d
00000160: bd2d 20bd 87dc 2a3d 4e89 a63b 4d5d ddbc
00000170: 2c46 e0bc 5627 c2bb e6c4 2d3d 9670 333d
00000180: 5193 c7bc 22ae 39bd f427 6b3d e20c 5dbd
00000190: 6d89 303c c0ba 57bd 10af d2bc 6aff bcbc
000001a0: 1dec 44bd 526c 9dbc 63c4 473c 95f0 7a3d
000001b0: 3a6f 67bc 2519 d6bc a8b1 eb3c 0406 f53c
000001c0: fcde 5bbd 407c 6e3b 239f 94bc 34fc 4dbd
000001d0: e4ce 3a39 399b 803d 4c7e 29bc f87e 8e3c
000001e0: 1f57 f23c 3a85 53bc d194 7e3b b939 b53c
000001f0: 3193 803d 853e debc e335 693d 140c 44bd
00000200: a9bf 2c3d cf27 3dbd f120 0d3d daba 943c
00000210: a4d1 b93c 7f54 71bd 77c4 c43b 0285 61bd
00000220: 5fc4 46bd 2c42 6d3d bbad 93bd 3992 d1bc
00000230: 0e27 f6bb 4413 1a3d 4ab9 703d 5893 1a3d
00000240: 18e5 64bd 04e5 9d3c 2996 1abd db60 5ebd
00000250: 679a 62bd 0562 67bd 32a0 053c a2bb 1cbd
00000260: dba6 e0bc 0682 edbc 3f71 0a3d 32a1 4f3c
00000270: 04c1 83bc 52c6 66bd 33f4 3d3d 242b 143d
00000280: bf18 90bd 0ca5 7f3d cb41 603d ace1 38bd
00000290: c3da 03bd d161 893d 6db7 cc3a 3b95 74bd
000002a0: 4fdb 883d 6070 a3bc f764 52bd 2d69 89bd
000002b0: c968 243d 4b31 0a3c 1860 843d 149c 1cbd
000002c0: c2a7 763d 5331 543d 74ad 62bd dc53 393d
000002d0: 4519 f73c ad54 083c 508c 09bd 404d 863d
000002e0: 47dc 9b3c 80b6 b9bc 336f dd3b 6299 843c
000002f0: 7447 5cbd bce9 773d f562 18bd b6d3 eb3c
00000300: d715 853d aa10 563d b7e9 8f3a f79e 623d
00000310: b9b9 2c3c 002e 543c 211b 28bd 9817 3f3d
00000320: 0a5e c53c 6ef9 eebc d569 7bbd bcd5 91bd
00000330: 2f15 1f3d eed0 2a3c 2ab7 80bd 1b0b 1fba
00000340: beff 503a 22ad 013d abb3 453d 7e63 8cbc
00000350: 0e24 52bd b8a5 89bc e14b 923d fd67 d1bb
00000360: 27c6 d43c 063d fcbc 1d02 70bd 87a8 823d
00000370: db6f 863d 456e 6fbd 7bb4 bebc 6563 753d
00000380: 86f9 1cba 7a5b 61bd 98cf 413d 4345 6bbd
00000390: 0414 803c 9cbb f03c 4fd6 62bc 0fa2 82bd
000003a0: b831 603d 556e 2dbb fbec 853d 13c9 ee3c
000003b0: c15d 88bd 64ff 62bd 23b8 01bb aa04 cdbb
000003c0: cb6e dc3c 4e75 583d 3fd1 bb3b aa45 a7bb
000003d0: dd66 60bd 4ae2 3cbc bf8c 42bc dda7 7bbd
000003e0: 5405 1c3d 25e5 0ebd cb8b fa3c a5f5 843d
000003f0: 86b4 4dbd b63c 1a3c a620 1b3d f485 57bd
0.027086465 -0.05861584 -0.03528124 -0.02796166 -0.021097057 -0.05238918 0.013813008 0.07030439
0.054693453 0.065019116 -0.059793033 -0.01878903 0.019892659 0.023874415 0.058421213 0.010828835
0.028856866 -0.02747398 -0.022513974 0.03836163 0.008996248 0.032917723 -0.05815849 0.05664868
0.044026382 0.054359194 0.0034256568 -0.07082535 0.07091513 0.0022309686 -0.06678716 0.066557884
0.05854607 -0.061629456 0.05878567 0.03110553 0.023906505 -0.042625837 -0.05155554 0.026165258
0.047310345 -0.03543189 -0.023563234 -0.037466764 -0.058620997 0.0045722206 0.05056311 0.059307065
0.0025936083 -0.05925729 0.04431838 0.024669984 0.026260436 0.037444465 0.0095648235 -0.008372079
-0.029043803 -0.05041578 0.04764861 0.03729934 0.06375841 0.012835158 -0.039523862 0.015160745
4.5917994e-05 0.01883091 0.012069639 -0.0516067 -0.04136695 0.042217527 0.033887204 -0.05839184
0.01785497 -0.037954755 -0.060786348 -0.01744188 -0.06566157 0.039433993 0.052655425 0.043968
-0.060404275 -0.007779289 0.039071385 0.00021512156 -0.064482056 0.009611244 -0.008886793 0.05819463
-0.03910612 0.041714218 0.005082286 -0.027022028 -0.02737721 -0.0059250994 0.042424105 0.043808542
-0.024362238 -0.04533208 0.05741115 -0.053967364 0.010774952 -0.052668333 -0.025718242 -0.02307101
-0.048076738 -0.01921669 0.012192818 0.061264593 -0.01412564 -0.026135037 0.028771237 0.029910095
-0.05367945 0.0036389977 -0.018142289 -0.050289348 0.00017815415 0.06279606 -0.010345053 0.017394528
0.029582558 -0.012910182 0.0038846026 0.02212225 0.062780745 -0.027129421 0.056936156 -0.04786308
0.04217497 -0.046180543 0.034455243 0.018155504 0.022682972 -0.058918472 0.0060048657 -0.055058487
-0.048527118 0.057924435 -0.07210871 -0.02558242 -0.00751198 0.03761603 0.058770455 0.037738174
-0.055882543 0.019274242 -0.03774086 -0.054291587 -0.05532303 -0.056489963 0.008155869 -0.038264878
-0.027423313 -0.028992664 0.033799406 0.012672709 -0.016083248 -0.056341477 0.046375465 0.036173955
-0.0703597 0.06241326 0.054750245 -0.045137092 -0.03219105 0.0670811 0.001561863 -0.05971263
0.06682455 -0.019951046 -0.05136582 -0.06709514 0.040138993 0.008434604 0.06463641 -0.038234785
0.06021858 0.05180485 -0.0553412 0.04524599 0.030163417 0.0083209695 -0.033581078 0.06557703
0.019025935 -0.02267003 0.0067576407 0.01618642 -0.05377908 0.06052564 -0.037203748 0.028787475
0.06498306 0.052261986 0.0010979687 0.055327382 0.010542327 0.01295042 -0.041041497 0.04665336
0.024092693 -0.029171672 -0.061380226 -0.07120845 0.03883856 0.010425789 -0.06284936 -0.00060670235
0.0007972679 0.031659253 0.048267048 -0.017137285 -0.051303916 -0.016802654 0.07143379 -0.00639057
0.025973393 -0.030790817 -0.058595765 0.063798 0.065643035 -0.05845477 -0.02327942 0.059909243
-0.00059881096 -0.05501888 0.047317117 -0.0574391 0.015634544 0.029386334 -0.01384504 -0.063785665
0.054734915 -0.0026463468 0.06539341 0.029148614 -0.06658507 -0.05541934 -0.0019793592 -0.0062566595
0.026908299 0.052846245 0.005731731 -0.00510474 -0.054785598 -0.011528561 -0.011874377 -0.061439384
0.03809102 -0.034886498 0.030584237 0.064921655 -0.05022099 0.009413889 0.037872933 -0.052617982

module.model.2.model.0.bias f4 [64]
00000000: 8cac 823a 4a89 843a 197a 833a 39d6 843a
00000010: 7435 833a 85ac 853a 7c89 853a 2675 823a
00000020: df33 7b3a 5fcf 833a 0183 833a 83c9 833a
00000030: 2bd7 7e3a ee08 833a b54d 843a 7d5e 7d3a
00000040: 2a07 833a 4be0 803a f25f 813a 8b7d 813a
00000050: ef24 833a 3ab8 823a 10a4 813a 21e7 833a
00000060: 0866 843a 7330 823a d9ce 843a 2e98 823a
00000070: ae34 843a 8242 843a 47be 7e3a 676c 803a
00000080: 8dcc 843a 2646 833a 83aa 7f3a 902b 823a
00000090: 3a0d 843a 96b9 823a 183c 833a f1bb 813a
000000a0: f24f 843a 9df2 843a 42c8 823a 5643 833a
000000b0: 23bd 813a 53d2 813a 29c0 843a 629c 813a
000000c0: 4b81 823a 54c9 7d3a 9463 833a a382 823a
000000d0: 7fc5 7c3a ad32 833a ab3e 823a e0f7 823a
000000e0: d5a9 833a f6ab 843a 6a58 843a 5864 823a
000000f0: 0efc 833a 0b0f 843a 6441 833a 3c39 833a
0.0009969636 0.0010111716 0.0010030895 0.0010134644 0.0010010437 0.001019851 0.0010188068 0.0009953126
0.00095826195 0.0010056308 0.0010033549 0.0010054562 0.00097213936 0.0009997168 0.0010093959 0.0009665264
0.0009996642 0.000983247 0.0009870513 0.0009879334 0.0010005514 0.0009973117 0.0009890813 0.0010063389
0.0010101208 0.0009932652 0.0010132446 0.0009963566 0.00100865 0.0010090622 0.00097176846 0.0009797931
0.0010131762 0.0010015413 0.0009752886 0.0009931196 0.0010074743 0.0009973522 0.0010012416 0.000989793
0.0010094626 0.0010143105 0.0009977894 0.0010014575 0.0009898286 0.00099046 0.0010128069 0.0009888525
0.0009956745 0.00096811843 0.0010024183 0.0009957146 0.00096424663 0.0010009609 0.0009936889 0.0009992085
0.0010045121 0.0010122049 0.001009715 0.0009948118 0.0010069625 0.0010075284 0.0010013995 0.0010011564

module.model.2.model.1.weight f4 [64]
00000000: a8ae 7f3f 3f24 803f 2ab9 7f3f 11b6 7f3f
00000010: 17c1 7f3f 53ee 7f3f 269e 7f3f 81ac 7f3f
00000020: f029 803f 7de8 7f3f 5cb4 7f3f e6b9 7f3f
00000030: e72e 803f 4f15 803f e6d7 7f3f 4d2e 803f
00000040: 75a0 7f3f bc2f 803f 010c 803f a7ef 7f3f
00000050: f8e3 7f3f 6aae 7f3f e008 803f 8bb4 7f3f
00000060: 8703 803f 71fb 7f3f d123 803f 6104 803f
00000070: f61d 803f 10c4 7f3f c518 803f 100c 803f
00000080: 3ed4 7f3f b406 803f 512d 803f c41f 803f
00000090: 98c1 7f3f 5bef 7f3f 81dc 7f3f 4214 803f
000000a0: 97d0 7f3f 3bcd 7f3f 7e12 803f 29aa 7f3f
000000b0: 3231 803f 48ed 7f3f a90f 803f d9fb 7f3f
000000c0: a4a7 7f3f 9ac0 7f3f e4e1 7f3f ed0b 803f
000000d0: 4e21 803f 40c3 7f3f 4421 803f 582b 803f
000000e0: be22 803f 591e 803f 27c9 7f3f 5a21 803f
000000f0: 65f7 7f3f 4a20 803f a31f 803f 7507 803f
0.9987588 1.0011061 0.9989191 0.99887186 0.99904007 0.9997303 0.9985069 0.99872595
1.0012798 0.99964124 0.9988458 0.99893034 1.0014313 1.0006503 0.9993881 1.001413
0.99854213 1.0014567 1.0003663 0.99975055 0.9995723 0.9987551 1.0002708 0.9988486
1.0001076 0.99993044 1.001093 1.0001336 1.0009143 0.9990854 1.0007559 1.0003681
0.9993323 1.0002046 1.001383 1.0009694 0.99904776 0.999746 0.9994584 1.0006182
0.9992766 0.9992253 1.0005643 0.9986902 1.0015013 0.9997144 1.0004779 0.99993664
0.99865174 0.9990326 0.99954057 1.000364 1.0010164 0.999073 1.0010152 1.0013227
1.0010602 1.0009261 0.9991631 1.0010178 0.9998687 1.0009854 1.0009655 1.0002276

module.model.2.model.1.bias f4 [64]
00000000: 0f9b 9eba 1b8b 323a 5b46 32ba b444 82ba
00000010: 7ea4 033a 59a4 2bba cdae b5ba d67b a6ba
00000020: f594 9e3a 5d18 b0b9 0192 87ba 4ac5 85ba
00000030: 62d0 ad3a 2dcf bbb9 a1eb 6038 2d6a b33a
00000040: d235 aeba 7d2f cb3a 1be8 503a 4046 a238
00000050: ad11 8db9 0534 8bba 2c0b 16b8 9dd7 3bba
00000060: e175 133a a7fb b9b9 5d06 483a 7bc7 b739
00000070: ad63 7139 87c1 2dba f56b 0c3a 003b 4739
00000080: 3c57 12ba 73b8 a2ba 9a84 a23a 600c 8a3a
00000090: ce0e 56ba b065 ad39 416e a1ba 7150 0c3a
000000a0: acd2 2eba b28e 54ba 9cb4 073a 47fa 9eba
000000b0: f8eb c63a 3979 a638 cc3f d4b8 77f6 1cba
000000c0: 8a49 0bba 2521 63ba 0775 a2b7 146d be39
000000d0: 0890 18ba 608f 48ba 43b5 663a 2ad9 9c3a
000000e0: 0c49 9e3a eed6 2e3a 28a6 2dba b73b 363a
000000f0: 9769 12ba aad4 7e3a da7f 99b9 e086 eeb8
-0.0012100654 0.00068108895 -0.0006800645 -0.0009938688 0.00050217647 -0.0006547622 -0.0013861299 -0.0012701701
0.0012098836 -0.00033587488 -0.0010343195 -0.0010205891 0.0013260955 -0.00035821777 5.362521e-05 0.0013688259
-0.0013291186 0.0015501824 0.0007969157 7.737847e-05 -0.00026906785 -0.0010620361 -3.577319e-05 -0.0007165613
0.00056251703 -0.00035473445 0.0007630343 0.00035053105 0.00023020683 -0.0006628264 0.0005356663 0.00019000098
-0.0005582457 -0.0012414589 0.0012399137 0.0010532252 -0.0008165658 0.00033072894 -0.0012316183 0.0005352563
-0.0006668966 -0.00081084215 0.0005176754 -0.0012129032 0.0015176525 7.938076e-05 -0.00010120831 -0.0005987654
-0.00053133874 -0.0008664302 -1.93664e-05 0.00036320894 -0.0005819802 -0.0007650759 0.0008800814 0.0011966575
0.0012076213 0.00066696 -0.00066241855 0.0006951647 -0.0005585192 0.00097210205 -0.0002927769 -0.00011373847

module.model.2.model.1.running_mean f4 [64]
00000000: d927 d23e 49cc e23e d6b5 d23c 01d6 703d
00000010: 4b67 90be f77f f3be 1acf 24be 1c5d ff3e
00000020: 0831 dfbe e346 11be a793 0bbf 5cb0 ed3d
00000030: 44ff ebbd e36f e53d 4e70 6dbe 89af 2bbf
00000040: 9b4e 0d3e 1d96 f7bd 101a 5f3e 580b d43e
00000050: 92d7 ecbe 02e3 e3bd bd7a b23d 2f01 073f
00000060: 4766 d43d e63b 57be 9325 8e3e 4bd5 56be
00000070: 7498 8a3e 7db1 c83e d931 ce3e 93ba c93e
00000080: 4332 293e 2ee2 f73e 26a4 2dbf ec54 263d
00000090: c27e a53e fb99 afbc ff1c dfbd d787 ba3e
000000a0: edee 033e de9c 83be 5d6d 03bf 10fb 433e
000000b0: a538 00bf 9c9f 5e3d e30b 2c3e 7bf5 6c3e
000000c0: 67af 623d fa72 0bbe 8f21 40bf 350d 8ebd
000000d0: bb60 b9be d379 ba3d 368f 273f c02f adbc
000000e0: 52b5 593d 50ef 383f 4059 623e 4fe8 fabc
000000f0: 3a0e bebe 8b55 ac3e d985 98be 977d 1bbe
0.41046026 0.44296482 0.025721472 0.05879784 -0.28203806 -0.47558567 -0.16094628 0.49875724
-0.43592095 -0.14187197 -0.54522175 0.116059035 -0.115232974 0.11202981 -0.23187372 -0.6706472
0.13799517 -0.12089179 0.21787286 0.41414905 -0.46258217 -0.11127283 0.08714817 0.5273618
0.1037107 -0.21018943 0.27763042 -0.20979802 0.27069438 0.39197913 0.40272406 0.39400157
0.1652308 0.4841475 -0.67828596 0.04060833 0.3232327 -0.021435728 -0.108942024 0.36431763
0.12884112 -0.25705618 -0.5133875 0.19138741 -0.5008643 0.054351434 0.1680141 0.23140518
0.055343058 -0.13618079 -0.75051206 -0.06936113 -0.36206612 0.091052674 0.654529 -0.021140933
0.053151436 0.7224016 0.22104359 -0.030628351 -0.3712023 0.33659014 -0.29789618 -0.15184627

module.model.2.model.1.running_var f4 [64]
00000000: 6eb6 3e3e 9688 a63e cb91 b43f 7777 383e
00000010: 3120 943e 876c 893e 8f0e dc3d 24da d23d
00000020: 5eec 483f 50d9 223f 3c65 613e c8c0 463e
00000030: a67e 883e f742 b53d 23b5 9c3e d96c fc3e
00000040: 2003 ac3e daab e73e 891d b93e 642f 833e
00000050: 316f 953e e5df 7c3f 5b51 c13e 0e12 1a3f
00000060: f63c 5d3f f333 303e 9d3a 9a3f ffa9 7a3f
00000070: 328e f43e 0ce0 223e 34e5 a73d c399 c23e
00000080: e35d ce3f 938e aa3e 2f5d 823f 141c 243f
00000090: 666c 3c3e 8deb 833e 0d2e 773e 833c 273f
000000a0: fc45 803e 44f5 053e 83f7 1f3f ab1e 3e3e
000000b0: c08e 0a40 fbb2 7a3e 20d8 683e ab7e 9a3d
000000c0: 30c1 5b3f 454a a83d 7d18 5c3f e56a d83e
000000d0: 29b2 e03d 6485 eb3e cefa d13d 02e4 163f
000000e0: 18ea b03e 11a4 0b3e db9d a93e eb4e 023f
000000f0: 8d7a 5f3e 2c63 6f3e 5ce5 4f3e a121 713e
0.18624279 0.32526082 1.4106992 0.18014322 0.2893081 0.26840612 0.10744964 0.10295513
0.7848567 0.6361284 0.22011274 0.19409478 0.26659125 0.08850663 0.30606946 0.49301794
0.33596134 0.452483 0.36155346 0.25622094 0.29186395 0.98779136 0.37757382 0.601838
0.86421144 0.17207317 1.2049137 0.97915643 0.47764736 0.1590578 0.08198014 0.38007936
1.6122402 0.333119 1.0184687 0.64105344 0.18400726 0.25765648 0.2413866 0.6532671
0.25053394 0.13081843 0.6248705 0.18566386 2.1649628 0.24482338 0.22738695 0.07543691
0.85841656 0.08217291 0.85974866 0.42269054 0.10971481 0.46000206 0.10252915 0.5894166
0.345536 0.13636805 0.33128247 0.5090167 0.21824093 0.23377675 0.20302337 0.23547985
