output_gd_denoise/ckpt/resnet_epoch3.pth (torch, 641697 bytes, 31 tensors)

module.model.0.weight f4 [64, 1, 1, 1]
000000 a9 ee 99 be cf 12 88 be f3 b2 1b 3e a3 04 1b 3e
       -0.30064896 -0.2657685 0.15204982 0.15138488
000010 13 96 75 be c0 c8 89 be 5b 54 52 be 1f f0 21 3d
       -0.2398303 -0.26910973 -0.20539992 0.039535638
000020 9e 32 4f be a0 b8 5e 3e 6c 26 16 3c c2 2c 21 3d
       -0.20234153 0.21750116 0.009164434 0.039349325
000030 f4 f4 e0 bd 67 39 8a be 18 b9 e6 3d 13 f5 7f 3e
       -0.10984221 -0.2699692 0.112657726 0.24995832
000040 46 e5 25 3e 5e eb 6c 3c c4 93 80 3e 6e 24 2a 3e
       0.16200742 0.014460413 0.25112736 0.1661546
000050 e7 e7 d6 3c 07 d1 67 3e 16 24 9f bd 6f 70 7e 3e
       0.026233627 0.22638331 -0.07770555 0.24847578
000060 ae 12 85 be 93 c7 97 3d 82 99 41 3e 6d f0 ff 3d
       -0.25990814 0.07411113 0.18906215 0.124970295
000070 55 a4 bc bd 48 a8 f0 bc 4f c5 63 3e d4 58 80 3e
       -0.09211031 -0.029377118 0.22243236 0.2506777
000080 5a 19 87 3e 2c 25 5b be 9a 8c 0e 3e 33 ca 21 3e
       0.2638653 -0.21400899 0.13920823 0.15799789
000090 21 d8 05 be 88 ff 38 3d 79 6b ed 3d 1f 25 e6 bd
       -0.13070728 0.04516557 0.115927644 -0.11237549
0000a0 05 83 73 3d c4 41 45 3e 29 69 fd bd d7 16 6f be
       0.05945112 0.19263369 -0.12373573 -0.23348556
0000b0 32 5e 94 3c c4 d9 8e bd ed a6 fc 3d 6f 05 0f 3d
       0.018111322 -0.06975129 0.12336526 0.03491729
0000c0 ac 85 18 bd b6 f1 2c 3e 8b 9e 3a be eb f3 0d 3e
       -0.037236854 0.1688908 -0.18224542 0.13862579
0000d0 ff 04 d1 3d 95 e6 b2 bd 37 8e 3b be 9a 8c b9 bc
       0.10206031 -0.08735386 -0.1831597 -0.022650052
0000e0 8a c9 86 3e 11 7f 39 3e 30 ed 38 be e6 71 80 3e
       0.26325637 0.18114878 -0.1805923 0.25086898
0000f0 27 83 88 3d de 38 29 3e f2 09 67 3e e6 be 3c 3e
       0.0666564 0.165256 0.22562388 0.18432197

module.model.0.bias f4 [64]
000000 03 80 91 3a 16 93 be 3a 07 fe f4 39 01 52 74 3a
       0.0011100773 0.0014539685 0.00046728572 0.0009320081
000010 ef 71 a9 3a 92 73 34 3a 34 0c 57 3a 1e c6 82 3a
       0.0012927632 0.00068836764 0.00082034175 0.0009977256
000020 c3 3b 72 3a 55 3b f4 39 e4 69 c8 3a df 10 15 3a
       0.00092404726 0.00046583512 0.0015290347 0.0005686413
000030 af 08 1e 3a c1 4b 63 3a 74 3a 5a 3a 78 ee 5d 3a
       0.00060285156 0.0008670651 0.000832475 0.00084660156
000040 96 19 3e 3a b6 b5 8d 3a 4b ab 1f 3a 66 1a 98 3a
       0.00072517374 0.00108116 0.00060908933 0.0011604547
000050 ec 5b c1 3a ad b7 7f 3a 27 d2 b4 3a 1c 2d 40 3a
       0.0014752126 0.0009754848 0.001379554 0.00073309406
000060 7a ee 7f 3a d9 cd 51 3a da 48 82 3a 02 e7 f2 39
       0.0009763014 0.0008003391 0.0009939924 0.0004632995
000070 ab a3 8f 3a 12 ba 50 3a 41 b2 18 3a 6d f9 ab 3a
       0.0010958811 0.0007962297 0.0005824902 0.0013120599
000080 14 64 56 3a 63 ca 9b 3a 62 86 a1 3a 21 4f 17 3a
       0.0008178365 0.0011885877 0.0012323374 0.0005771984
000090 8f bc 82 3a e3 96 4c 3a 21 f7 b0 3a b6 e8 c7 3a
       0.0009974408 0.00078044663 0.0013501385 0.0015251848
0000a0 0d 0d 7b 3a d9 5f 00 3a 64 6b b8 3a bf 4c 90 3a
       0.0009576835 0.0004897095 0.0014070091 0.00110092
0000b0 d1 e8 85 3a b3 8d c0 3a 12 e1 9b 3a cf 2c c1 3a
       0.001021648 0.0014690667 0.0011892638 0.0014738085
0000c0 1e 98 2a 3a e1 ba ac 3a ff ef 05 3a 51 f4 92 3a
       0.00065076526 0.0013178253 0.00051093096 0.0011211728
0000d0 d3 70 b0 3a 1a de 87 3a 7f 8d 72 3a 93 5b 30 3a
       0.0013461359 0.0010365874 0.0009252652 0.0006727513
0000e0 63 fe 30 3a c6 f4 41 3a 0b 7b aa 3a b9 62 97 3a
       0.0006751774 0.000739884 0.001300664 0.0011549807
0000f0 6c 1b 73 3a d9 83 7c 3a 2c d3 bd 3a c5 99 81 3a
       0.00092738005 0.0009632684 0.001448249 0.0009887746

module.model.1.model.0.weight f4 [64, 64, 3, 3]
000000 ea f6 4c bd ee 28 ad bc 04 aa 93 bd 55 ef 01 bc
       -0.050040163 -0.02113768 -0.07210162 -0.007930596
000010 2c cb 63 bc 04 e1 6a bd 74 44 8a bd 12 59 01 3d
       -0.01390342 -0.057343498 -0.06751338 0.031579085
000020 a1 47 83 3b 72 40 38 bd 93 55 70 3d 07 33 5e 3d
       0.0040063416 -0.044983335 0.05867536 0.054247882
000030 a1 11 71 3d ea 54 84 bd 96 9e e5 3b e5 21 ca bc
       0.058854703 -0.064615086 0.0070074303 -0.024674365
000040 ab 10 5e 3d 6e 84 9a bc 38 ba 1b bd f5 6c 5d 3d
       0.054215115 -0.018861976 -0.03801939 0.054058988
000050 6d c8 8b bd 5f 3e 75 3a 70 08 b8 3b 8b 01 80 bd
       -0.068253376 0.00093553023 0.00561624 -0.06250294
000060 ab c4 96 bc d0 39 8a 3d fa 31 da bc c3 6b e0 bc
       -0.018404325 0.06749308 -0.026635159 -0.027395135
000070 85 76 1c bd bb 6e 12 bd ee 1e 74 bd dd c2 03 3d
       -0.038198967 -0.035750132 -0.05959981 0.032168258
000080 ee 86 03 bd af 7f 83 bd 67 da 03 bd e5 8e 00 3c
       -0.0321111 -0.06420838 -0.032190707 0.007846569
000090 08 eb 86 3d c8 50 a3 3c 24 30 94 bc 9e c2 2d bd
       0.065877974 0.01993598 -0.018089361 -0.04242193
0000a0 69 12 31 3d 36 fd 52 bc f3 30 68 bd 9b f6 f9 3c
       0.043230448 -0.012877753 -0.056687307 0.030513098
0000b0 22 79 d2 bc 50 53 27 bd 48 13 76 3d e3 b1 2c 3d
       -0.025692526 -0.040850937 0.06007698 0.042161833
0000c0 7a 60 75 3d fa 11 01 3c 4c 79 34 3d 3d 7d 90 bd
       0.05990646 0.007877821 0.04406099 -0.07055137
0000d0 04 5d a9 3c 54 a8 36 3d ce 4a 84 3d cc 71 91 bd
       0.020674236 0.044594124 0.0645958 -0.07101783
0000e0 9a fc 80 3d ff e2 9b 3c fb 1d ef 3c d5 31 bb 3b
       0.0629818 0.019029139 0.0291891 0.0057127276
0000f0 07 13 f7 38 10 5f 88 bd cb 1a eb bc fe a5 59 bd
       0.00011781422 -0.06658757 -0.0286993 -0.053136818
000100 16 35 a6 3c 05 42 05 3d cd be 89 3d df a3 c6 bc
       0.020288985 0.032533664 0.067258455 -0.024248062
000110 ec 43 86 bd 48 83 ef bb 7e 3e 84 3d 4c ae 1b bd
       -0.06555924 -0.007309351 0.06457232 -0.03800802
000120 a6 6c 74 bd fc 4f 5b bc ce a1 86 bd 59 ee 68 bd
       -0.059673928 -0.013385769 -0.065738305 -0.05686793
000130 a9 c2 37 bb ec 32 43 3c 9f 2f ed bb 45 5b 76 bd
       -0.002803961 0.011913996 -0.007238343 -0.060145635
000140 b1 f0 57 3d c9 ec ad bc 7b 35 85 3d cb fa e3 bc
       0.052719776 -0.021231072 0.06504341 -0.027829548
000150 03 27 92 bd eb 6c 3e bd 2c 08 2c 3c e0 87 8c 3d
       -0.07136347 -0.04649059 0.010499995 0.068618536
000160 db 12 3d 3d 6b 6e e1 3b 55 fc 24 bd e6 18 75 bd
       0.04616056 0.006879618 -0.040279705 -0.059838198
000170 bb 8d 57 bd ac 0f 42 bc 18 7a 78 bd 0f 89 16 bd
       -0.0526254 -0.011844557 -0.060663313 -0.036751803
000180 6f 80 e8 3b 9c 15 27 3d df 18 71 bc ec ea b1 3b
       0.0070953886 0.040792093 -0.014715402 0.005429616
000190 69 35 e1 3a 03 18 8a 3d 3c 21 a5 bc 8f 21 f1 bc
       0.0017182055 0.06742861 -0.020157449 -0.029434947
0001a0 5c 46 08 bd 47 46 a4 bc 97 4a 65 3d bc 9c 4b 3d
       -0.033270225 -0.020053042 0.055979338 0.04971002
0001b0 81 50 fb 3c a5 62 81 3d db 7b 19 3d d9 33 fc 3c
       0.030678036 0.06317643 0.037471633 0.030786442
0001c0 3f 9d df bb 0b 95 38 3d 2f f7 6c bd f8 90 7b bb
       -0.006824165 0.045064013 -0.05785292 -0.0038385969
0001d0 61 e2 b4 bc d2 28 14 bd c9 fa 51 3d 40 ce 0e 3d
       -0.022080602 -0.03617174 0.051264558 0.034864664
0001e0 40 7d bc 3c d8 b9 29 bd c6 75 79 bc 18 7f 92 bd
       0.023008943 -0.041437 -0.015225833 -0.071531475
0001f0 05 af d2 3c 9d b9 93 bd 25 6d 00 bd f8 b0 5a 3d
       0.025718221 -0.07213137 -0.03135409 0.053391427
000200 9c 5f 0d bd b3 ea 3d bc b5 84 b1 bc d7 77 c3 bc
       -0.03451501 -0.011591601 -0.021669725 -0.023860855
000210 55 93 57 bd e1 a2 14 3d 90 19 39 3d 2f f2 e5 bc
       -0.05263074 0.036288146 0.045190394 -0.028069584
000220 b1 84 6f 3d f4 14 5c bd 60 62 1c 3d 05 ba 25 3b
       0.058476154 -0.05373092 0.038179755 0.0025287878
000230 60 6f 15 3d ef cc 03 3d 9d 75 26 bd 10 d2 b6 bb
       0.03648317 0.03217786 -0.04063951 -0.0055792406
000240 1f ee 14 bd 20 9a 2a 3c 94 41 32 bc 60 f4 08 bc
       -0.036359902 0.010412723 -0.010879893 -0.008359045
000250 d5 6c 71 3d 71 39 16 bd e0 bb 88 3d e5 d6 5b 3d
       0.05894168 -0.036675874 0.06676459 0.053671736
000260 62 65 20 3d cf 53 7b 3c 30 0d 6a bd 4c bf 7c bc
       0.039159186 0.015339806 -0.057141483 -0.015426468
000270 9f 29 41 bc fc d8 2b 3d c9 43 58 bc ef b8 4b 3c
       -0.011789708 0.04195498 -0.013199755 0.012434228
000280 e0 d4 9c bb 94 4d 64 bc cf 5f 23 3d cd 0e eb 3c
       -0.004786119 -0.013934512 0.039886292 0.028693581
000290 dc a2 1b 3c 1f d1 56 bd 69 3e 20 3d c8 e7 1a bd
       0.009499278 -0.052445527 0.03912202 -0.0378187
0002a0 c4 72 8c bc 2d ce 9c 3b 57 b8 fb bc b2 20 af 3c
       -0.017144568 0.0047853203 -0.030727549 0.021377895
0002b0 44 18 ac 3c 67 86 d9 ba b1 27 f3 3c 0c e1 27 3d
       0.021007665 -0.0016595841 0.029682012 0.040986106
0002c0 de 52 bd 3c d3 15 85 3d 74 c1 be bc b5 47 8a 3c
       0.023110803 0.06498303 -0.023285605 0.016879896
0002d0 d3 f0 82 3d b8 2c 28 bd 20 ee 09 3d 94 14 09 bc
       0.0639359 -0.041058272 0.03367436 -0.008366723
0002e0 8c 2a 24 bd 8c 45 d0 3b 92 b4 b6 3b b7 77 de 3b
       -0.04007964 0.006355947 0.005575725 0.0067891735
0002f0 46 d5 ac 3c fb 64 b9 3c 08 6c 06 bd 60 a4 86 3d
       0.02109779 0.022631159 -0.03281787 0.06574321
000300 51 de 45 bd 39 51 83 bc 23 43 23 3d b0 64 aa 3c
       -0.04830772 -0.01602994 0.03985895 0.020799965
000310 e3 31 2e 3d 6e 64 3a 3c ba d4 88 3d 10 f5 00 3d
       0.042528044 0.011376483 0.06681199 0.03148371
000320 9e 86 17 bd 01 91 83 3d 93 71 2b 3c 26 6b 75 bd
       -0.036993615 0.06424142 0.01046409 -0.059916638
000330 d2 00 58 3c e6 05 58 bd 22 ca 0d bc e3 91 d8 bb
       0.013183789 -0.05274 -0.008654149 -0.006609188
000340 6e 97 fe 3a c6 0a 10 3d db 10 88 bd 91 5e 3a bd
       0.0019423792 0.035166524 -0.0664384 -0.04550034
000350 76 15 ea ba 6a 92 42 bd 2b 83 09 3c 5d 62 2c bc
       -0.0017859179 -0.047502913 0.008393089 -0.0105214985
000360 a6 26 0e 3d 31 7d 4b bd a3 95 7f 3d 06 5d 43 3d
       0.034704827 -0.04967994 0.062398564 0.047696136
000370 97 0f 29 bd 6c 17 d7 ba fd 58 19 bd 62 0a b8 bc
       -0.041274633 -0.0016410179 -0.03743838 -0.022465888
000380 20 f0 45 bd 57 50 9e bc 5d 2d a4 bc 08 4e 4b 3d
       -0.048324704 -0.019325418 -0.020041162 0.049634963
000390 8a 97 64 3d b9 d5 9c 3c 05 dc b9 3c 4d 99 b5 3c
       0.05580858 0.01914488 0.022687921 0.022167826
0003a0 cb 19 4e bd 21 3f 66 3d 5c 41 87 bd a1 2f 40 bc
       -0.050317567 0.05621255 -0.06604263 -0.011730106
0003b0 e8 79 1f 3d df d6 ba 3c 62 ef 3b bc 80 12 d1 3c
       0.03893462 0.022807537 -0.0114706475 0.025521517
0003c0 8f a1 3f bd 95 22 24 3d dc 07 f2 39 77 2e 90 bd
       -0.046784934 0.040072042 0.00046163693 -0.070401125
0003d0 cc 0c 7a 3d 45 d9 f5 bc 71 28 12 3d a5 0b 5a 3c
       0.06104736 -0.030010829 0.0356831 0.01330844
0003e0 c7 d5 94 bc 25 c5 20 bd 21 36 67 3d 72 30 89 3d
       -0.018168343 -0.03925051 0.056448106 0.06698693
0003f0 da fb 8b bd f8 41 9f 3c 52 9f 71 bd de b7 c9 bc
       -0.06835146 0.019440636 -0.05898983 -0.024623808

module.model.1.model.0.bias f4 [64]
000000 f6 89 89 3a f8 ba 8f 3a 6f ef 56 3a d4 9a 7e 3a
       0.0010493386 0.0010965755 0.00081991305 0.0009712402
000010 48 57 8e 3a 7c 89 8a 3a 3c 6d 84 3a 49 c5 59 3a
       0.0010859752 0.0010569538 0.0010103355 0.0008307291
000020 01 ec 83 3a f7 e6 82 3a 15 89 7d 3a aa e8 7f 3a
       0.0010064841 0.0009987046 0.0009671611 0.00097621477
000030 91 88 8c 3a 34 30 7a 3a 4d 2e 86 3a f1 cf 95 3a
       0.0010721852 0.0009543926 0.0010237187 0.0011429769
000040 99 2d 7d 3a 32 e8 68 3a d4 91 76 3a 19 aa 7d 3a
       0.00096579787 0.00088846975 0.00094058854 0.00096765306
000050 20 d2 96 3a 9e f5 8b 3a 1d a0 8e 3a 29 a8 98 3a
       0.0011506714 0.0010678058 0.0010881458 0.0011646795
000060 44 6f 83 3a 50 b3 87 3a 0f d1 99 3a e9 f0 7d 3a
       0.0010027667 0.0010353122 0.0011735278 0.00096870825
000070 ca 25 87 3a 97 56 80 3a f6 ac 8e 3a ab 49 5f 3a
       0.0010310945 0.0009791431 0.0010885287 0.0008517752
000080 c7 bc 83 3a 83 ca 88 3a 45 3e 5e 3a b0 c3 76 3a
       0.0010050767 0.001043633 0.0008477907 0.0009413315
000090 71 40 73 3a 82 77 91 3a 82 da 88 3a 03 ad 95 3a
       0.0009279317 0.0011098238 0.0010441097 0.0011419359
0000a0 6a 0c 68 3a 98 1d 78 3a 30 d6 83 3a 96 57 89 3a
       0.00088519475 0.0009464859 0.001005834 0.0010478373
0000b0 eb 88 83 3a ee f5 56 3a 54 dc 8a 3a 3d eb 6e 3a
       0.0010035312 0.00082000985 0.0010594227 0.0009114033
0000c0 b1 95 8f 3a 85 cc 83 3a f5 e4 8a 3a 68 b4 81 3a
       0.0010954646 0.0010055458 0.0010596799 0.0009895684
0000d0 fe d9 89 3a 9e a9 6e 3a fa 3a a4 3a 51 f7 5b 3a
       0.0010517237 0.00091042544 0.0012529783 0.000839104
0000e0 15 38 93 3a df ca 9f 3a b8 6d 8b 3a 54 17 7c 3a
       0.0011231924 0.0012191198 0.0010637557 0.0009616513
0000f0 73 7b 7f 3a 08 67 99 3a 61 0c 53 3a 3c 61 63 3a
       0.00097458734 0.0011703679 0.0008050856 0.0008673852

module.model.1.model.1.weight f4 [64]
000000 61 0d 80 3f 39 f7 7f 3f be e2 7f 3f a7 e6 7f 3f
       1.0004083 0.99986607 0.99955356 0.9996132
000010 34 f0 7f 3f ff f7 7f 3f a1 f0 7f 3f b5 07 80 3f
       0.99975896 0.99987787 0.99976546 1.0002352
000020 40 0b 80 3f 98 03 80 3f aa 10 80 3f 7b 09 80 3f
       1.0003433 1.0001097 1.0005085 1.0002893
000030 fe e5 7f 3f f2 ed 7f 3f a8 0f 80 3f bb 02 80 3f
       0.99960315 0.9997245 1.0004778 1.0000833
000040 22 00 80 3f 94 14 80 3f 0c ff 7f 3f 5f 05 80 3f
       1.000004 1.000628 0.99998546 1.0001639
000050 dd 12 80 3f fb ef 7f 3f 5c f0 7f 3f 53 f6 7f 3f
       1.0005757 0.99975556 0.99976134 0.99985236
000060 be f3 7f 3f 53 d9 7f 3f 1c dc 7f 3f 61 e8 7f 3f
       0.99981296 0.99940985 0.99945235 0.9996396
000070 6f 01 80 3f 66 f5 7f 3f 3c dd 7f 3f 84 10 80 3f
       1.0000437 0.99983823 0.9994695 1.000504
000080 2c ef 7f 3f e8 06 80 3f a8 05 80 3f 7f 0f 80 3f
       0.9997432 1.0002108 1.0001726 1.0004729
000090 21 04 80 3f 5f 0b 80 3f 83 da 7f 3f 89 ea 7f 3f
       1.000126 1.000347 0.999428 0.9996725
0000a0 a8 04 80 3f cd d6 7f 3f b9 ec 7f 3f 9d 0b 80 3f
       1.0001421 0.99937135 0.99970585 1.0003544
0000b0 18 f8 7f 3f c0 0a 80 3f e8 d9 7f 3f 94 08 80 3f
       0.99987936 1.0003281 0.99941874 1.0002618
0000c0 c3 e4 7f 3f b3 f1 7f 3f a3 e1 7f 3f 1c ff 7f 3f
       0.9995844 0.9997818 0.9995367 0.9999864
0000d0 cb 09 80 3f b9 fc 7f 3f 7d 0f 80 3f 83 e1 7f 3f
       1.0002989 0.99995 1.0004727 0.9995348
0000e0 c0 01 80 3f a6 08 80 3f 4f f6 7f 3f e2 12 80 3f
       1.0000534 1.0002639 0.9998521 1.0005763
0000f0 e5 07 80 3f cf d9 7f 3f 31 02 80 3f 49 07 80 3f
       1.0002409 0.99941725 1.0000669 1.0002223

module.model.1.model.1.bias f4 [64]
000000 e7 61 03 3a 26 68 89 b9 45 3e a3 b9 8f 7d 89 b9
       0.0005011842 -0.00026208273 -0.00031136177 -0.00026224225
000010 9e 2f d2 b9 eb bb 02 ba c2 fe 7f b9 94 af 35 39
       -0.000400898 -0.00049871084 -0.000244136 0.00017326913
000020 40 31 7b 38 86 0a 9d b8 f2 56 a6 39 ac ef 2a 39
       5.988893e-05 -7.4883035e-05 0.00031726767 0.00016301748
000030 59 ca 27 b9 28 60 36 b9 47 d6 c4 39 5e 04 e7 39
       -0.00016001741 -0.00017392694 0.00037543682 0.00044063007
000040 54 ce 22 b7 d2 47 1f 3a b3 db a2 b8 a8 6c 01 3a
       -9.703992e-06 0.0006076071 -7.765684e-05 0.00049371505
000050 08 b1 16 3a 9a 45 91 38 2b a6 ee b9 b1 c5 36 b9
       0.00057484256 6.927103e-05 -0.00045518702 -0.00017430518
000060 ba 2f 9f 38 23 13 12 ba 0b a0 b0 b9 39 2e 95 b9
       7.5906006e-05 -0.00055723096 -0.00033688577 -0.00028453933
000070 96 cf 00 3a 63 af c8 b9 4f 93 17 ba b3 4e 04 3a
       0.0004913745 -0.00038277646 -0.00057821436 0.00050471275
000080 69 da 4a b9 53 fd 9e b9 47 62 7b 38 a2 ae ff 39
       -0.00019345585 -0.0003032485 5.993459e-05 0.00048767502
000090 f6 df ea 38 5e f0 ae 39 b0 62 77 b9 81 37 e1 b9
       0.000111997055 0.00033366954 -0.0002359252 -0.00042956698
0000a0 fa 15 8e 39 60 e0 05 ba ef e8 1a ba 5c 14 c7 39
       0.00027100724 -0.0005106982 -0.00059093436 0.00037971407
0000b0 8b 8a 1e b9 1a 6f 5f b9 50 0b ed b9 eb 47 a5 39
       -0.00015119665 -0.00021308326 -0.0004521259 0.00031524836
0000c0 98 3c bd b9 ca ac 9f b9 51 1e 86 b9 8e 71 90 38
       -0.00036094035 -0.0003045558 -0.0002558106 6.887606e-05
0000d0 ea 65 86 39 d1 e2 dd b8 40 64 0c 3a 4d dc cf b8
       0.00025634404 -0.00010580349 0.00053555146 -9.9115634e-05
0000e0 7d c0 de 39 7d 64 fb 38 9b df 9d b9 42 f9 09 3a
       0.00042486555 0.0001198733 -0.00030111973 0.00052632776
0000f0 a0 3b 87 39 6a be 12 ba 58 ae c4 b9 2c de 2e 39
       0.0002579363 -0.0005597832 -0.0003751393 0.00016676699

module.model.1.model.1.running_mean f4 [64]
000000 7e 59 8a 39 9b c4 3d 39 3a ce 36 3b c9 5a df 3a
       0.00026388088 0.00018097686 0.0027893917 0.0017040606
000010 ff 3d 35 38 15 88 a7 3a 51 df 26 3a 4b ea 37 3b
       4.32115e-05 0.0012781644 0.0006365674 0.0028063233
000020 54 de 68 3b 68 06 55 39 17 f3 c0 39 e5 c3 40 3b
       0.0035532909 0.0002031565 0.0003680221 0.0029413637
000030 72 94 bc 3a 2c bd 87 3a eb de a2 3a 2c 75 3b 3b
       0.0014387502 0.001035606 0.0012426054 0.0028603775
000040 d2 45 c8 3a 2e e5 0f 3b 92 7f ef 39 5b 3a f0 39
       0.0015279597 0.002195667 0.0004568068 0.00045819845
000050 a4 5c 4e 3b 50 62 3c 3b 84 3b 13 3b 39 6f 72 3a
       0.0031488324 0.0028745122 0.0022465894 0.0009248141
000060 27 a9 b0 3a ce ca 28 3a 70 a6 92 ba 52 c1 95 ba
       0.0013478146 0.00064389117 -0.0011188518 -0.0011425412
000070 73 95 4f 3a 97 94 b9 b9 86 3f eb 3a 21 99 98 39
       0.0007918693 -0.00035396658 0.0017948009 0.0002910579
000080 40 40 2c 3a fb 92 0b bb 3b b6 67 3a 55 33 0b 38
       0.00065708533 -0.0021297324 0.0008839105 3.318799e-05
000090 22 87 89 3a 73 b8 e4 39 1a aa b1 3a bd 84 2a b8
       0.0010492543 0.00043624974 0.0013554723 -4.065478e-05
0000a0 65 91 0a 3b e1 dd 62 3a 14 52 26 3b 5f ca 11 3a
       0.002114379 0.00086542784 0.0025378512 0.00055614667
0000b0 ed ea 96 3a 00 ff 86 3a 2c d5 f9 39 91 dc 43 3b
       0.0011514105 0.0010299385 0.00047651806 0.0029886106
0000c0 63 ed ab ba 29 8f 24 3b 97 d1 9d 3a 67 b8 02 3a
       -0.0013117011 0.0025109744 0.0012040612 0.00049865845
0000d0 33 ac 04 b9 12 04 56 ba b3 de 0d 3b 37 0f ba 3a
       -0.0001265265 -0.00081640587 0.0021647632 0.0014195208
0000e0 8d d9 1d 3b f0 39 3b 3b b8 6b 27 3b 24 51 8a 39
       0.002408597 0.002856847 0.0025546383 0.00026381866
0000f0 40 eb 51 3b 69 d3 06 3a 9a 2f 6a 3a 7d 6c 3a b8
       0.003203109 0.0005143197 0.0008933485 -4.4446893e-05

module.model.1.model.1.running_var f4 [64]
000000 88 46 3b 38 12 06 9d 39 04 fc 73 39 18 0f 11 3a
       4.464996e-05 0.00029949896 0.00023268169 0.000553356
000010 06 f3 13 39 e5 58 d0 39 f4 a8 19 3a 9f 11 7e 39
       0.00014109546 0.00039739083 0.0005861663 0.00024229892
000020 d2 6b 33 39 b4 ea c8 38 0b ad 92 38 94 37 89 39
       0.00017110936 9.58046e-05 6.994054e-05 0.00026172085
000030 bc 75 da 36 65 ad 86 3a f4 f6 1a 3a 3a 13 05 3a
       6.5106124e-06 0.0010275064 0.00059114327 0.00050764123
000040 34 1c a2 36 f2 ef eb 37 d9 88 1e 36 37 cc 3d 38
       4.8312595e-06 2.8125916e-05 2.362349e-06 4.52513e-05
000050 98 d4 f3 39 79 98 4b 3a b4 0e 42 36 62 41 50 37
       0.00046506966 0.00077665556 2.891681e-06 1.2412989e-05
000060 f7 46 9c 38 aa c4 5c 37 5a cf 11 37 f3 64 d9 39
       7.451878e-05 1.3158811e-05 8.690951e-06 0.00041464678
000070 1f fd 0e 39 90 ec 74 39 66 3e 42 39 64 8a 1f 39
       0.0001363647 0.0002335778 0.00018524527 0.00015214976
000080 59 33 12 3b 95 3b 50 3a c6 39 3b 3a 11 39 88 39
       0.0022308438 0.0007943449 0.0007142093 0.0002598246
000090 aa 16 8f 3a 0f d4 1a 37 67 be b5 37 95 7a 4d 37
       0.0010916789 9.228489e-06 2.1665544e-05 1.2247493e-05
0000a0 3b 12 2f 3a 4c 31 87 37 57 59 af 39 bb 0c e7 38
       0.0006678437 1.611621e-05 0.00033445164 0.000110173096
0000b0 a7 29 01 39 c5 e3 da 36 48 91 1f 39 4d 28 9d 39
       0.00012317915 6.523422e-06 0.00015217543 0.000299754
0000c0 b0 92 99 38 50 00 2d 39 b5 2c f2 37 99 3e 83 38
       7.322931e-05 0.00016498682 2.8869466e-05 6.2582265e-05
0000d0 5c 7d 60 39 a2 0a 25 39 15 54 cb 39 bd e8 77 38
       0.00021409005 0.00015739587 0.00038781823 5.9106143e-05
0000e0 8a 3d 31 39 f9 4a 35 39 3a 1c 24 39 2b 33 82 37
       0.0001690296 0.00017289435 0.00015650774 1.5521035e-05
0000f0 de b2 2a 38 9a 88 a5 36 b6 45 a4 37 29 de cf 39
       4.069774e-05 4.9332857e-06 1.9582785e-05 0.0003964764

module.model.1.model.3.weight f4 [64, 64, 3, 3]
000000 24 57 23 3d fd bf 53 3d 57 07 fd bc ee 06 f4 ba
       0.039878026 0.051696766 -0.030887289 -0.0018617788
000010 a4 68 04 bd de 84 d7 bc d4 10 01 3d 6a a8 7f 3d
       -0.032326356 -0.026308473 0.03151019 0.06241647
000020 51 ae c0 bc 47 82 54 3d dc ff 02 bd 8c 37 24 bd
       -0.02352062 0.051882055 -0.031982288 -0.040092036
000030 5f bb 92 bd 36 2d 7d 3d 88 03 7c bc 37 b4 3c 3d
       -0.071646444 0.061810695 -0.015381701 0.046070304
000040 e6 2d 8d 3d 87 df ee 3c d6 3f 8a 3d 04 4b 58 bd
       0.0689352 0.02915932 0.06750457 -0.052805915
000050 0d 59 b5 bc 11 c8 f9 3b 8b c1 87 3d 0d 7a 72 bd
       -0.02213719 0.0076227267 0.06628712 -0.059198428
000060 47 ad cc 3c 2b aa bd 3b 37 a4 cf 3b 43 cd 6b 3d
       0.024984969 0.005788108 0.0063367146 0.0575688
000070 3d 96 67 3c d6 0d 16 bd d1 60 87 3a 4e 0e 25 3d
       0.014134941 -0.03663429 0.0010328536 0.040296845
000080 ba 3a 18 3b ae b0 62 3d 9e 6e 83 bd 2d c4 8a 3d
       0.0023228363 0.055344276 -0.06417583 0.06775699
000090 2f 2b d7 3b 48 e4 94 3c 3f 85 74 3d 0f 16 50 3c
       0.006566427 0.01817526 0.059697386 0.012700572
0000a0 29 4e 37 bd fb 3c 33 3c df df 8f bd 7f 9e 22 3c
       -0.044752274 0.010939832 -0.07025122 0.009925484
0000b0 fc d5 22 bc 58 be 40 3d 5a dc 8c 3c 74 99 89 bd
       -0.009938713 0.047056526 0.017194916 -0.06718722
0000c0 20 19 e6 3c e7 d1 5d 3d 6b 5f 5c bd aa 15 94 3d
       0.028088152 0.054155257 -0.053801935 0.072306946
0000d0 ab 1b db bb 28 b3 d5 bc 19 70 80 3b 76 39 1e bd
       -0.006686648 -0.026086405 0.003919613 -0.038629018
0000e0 97 95 38 3d 0b 12 28 3d 78 db 0b 3d d8 8a f3 bb
       0.045064535 0.041032832 0.03414485 -0.007432323
0000f0 53 a2 83 bd 86 c6 6f 3c 1b 36 93 3c b5 10 26 3d
       -0.06427445 0.014634734 0.017970135 0.040543277
000100 a1 33 39 3d 53 02 87 bd 29 4f 24 bd f0 16 6a bd
       0.045215253 -0.0659224 -0.040114556 -0.05715078
000110 fc 73 80 3d f7 17 55 bc dd 87 1d bc 7b 60 53 3c
       0.06272122 -0.013006202 -0.009614912 0.012901421
000120 a8 ea 46 bd 28 e5 28 3d e4 d6 3e 3c 1a 47 42 bd
       -0.04856363 0.041234165 0.011647914 -0.04743109
000130 c2 da 16 3d 27 7b ab bc 4f 18 8e 3c 57 78 76 3d
       0.036829717 -0.020932747 0.017345576 0.06017336
000140 fe d7 b2 3b 30 13 77 bd 83 bb 38 bd c5 c9 48 3d
       0.005457877 -0.060321033 -0.0451007 0.049020547
000150 34 21 0e 3d 35 55 88 3d 70 25 34 3d 5e 0d 41 3c
       0.034699634 0.06656877 0.043981016 0.011782972
000160 03 2c 43 bd d5 d8 1c 3d e2 60 4d bd 36 10 80 3d
       -0.047649395 0.038292725 -0.050141223 0.06253092
000170 e1 39 71 3c be d7 db bc 4f 09 7f 3b f2 48 46 3d
       0.014723272 -0.026836272 0.003891546 0.04840941
000180 76 ef 22 bd d8 1a 84 3d 95 e7 29 bd bb 62 90 bd
       -0.03977915 0.064504325 -0.04148062 -0.07050081
000190 cf 4e 88 bc 3c 0f fa 3c ca 90 ca bc 59 2d 32 3d
       -0.016639141 0.030524842 -0.024727244 0.04350028
0001a0 f6 4d ca bc a0 22 4a bc d3 d4 0c bd f1 53 80 bd
       -0.024695378 -0.012337357 -0.034382652 -0.062660106
0001b0 a7 a9 59 3d 95 e5 14 3b a6 72 0a bd 33 07 46 bd
       0.05314031 0.002271985 -0.033800744 -0.04834671
0001c0 12 d1 e7 bc ee 15 e9 bc 2e f4 0b bd 7e 89 33 bc
       -0.028297935 -0.02845284 -0.034168415 -0.010958074
0001d0 04 07 e1 bc f9 f6 c4 3c 30 29 39 3d 9f 18 12 3d
       -0.027469166 0.024043547 0.045205295 0.03566801
0001e0 7c 56 12 3d 21 75 09 bd 67 cf 21 bb 19 01 86 bd
       0.03572701 -0.03355897 -0.0024690272 -0.06543178
0001f0 df f1 09 bd ed 12 fe 3a 86 ab f6 bc e6 57 d3 bb
       -0.033677932 0.0019384302 -0.030111086 -0.0064496873
000200 35 5d 14 3c 2c 07 92 3d 8b cb e3 bc bc 19 30 3c
       0.009055425 0.07130274 -0.027807018 0.010748323
000210 4e 92 0c ba 96 f7 04 bd 68 37 17 bb 1a 19 e5 ba
       -0.0005362377 -0.03246268 -0.0023073796 -0.0017478794
000220 be bf 5b 3d 4d a8 56 3b 56 2c 83 bd fc c5 05 bb
       0.053649656 0.0032754124 -0.06404941 -0.0020412197
000230 bf 53 cd bc 54 61 90 3d 1a 38 74 bd 18 ac 2f bd
       -0.025064347 0.07049814 -0.059623815 -0.04288873
000240 83 f6 75 bd b3 48 da bc db 12 9f bb fa f0 82 3d
       -0.060049545 -0.026645994 -0.0048545427 0.06393619
000250 f9 e4 80 bd c1 e5 00 3d 17 82 4f bd 2b 1e 1a bd
       -0.06293673 0.03146911 -0.050661173 -0.037626427
000260 1b e1 47 bd 70 9a aa bc 89 1a ad 3c d1 7e 66 bc
       -0.04879866 -0.020825595 0.021130817 -0.014068321
000270 5e 74 0d bd 34 21 97 bc f6 62 82 bd 4d 52 75 bc
       -0.034534805 -0.01844845 -0.063665316 -0.014973235
000280 4f 95 fe bc 73 d3 85 bd e2 3e 36 3d b4 eb 40 3c
       -0.031077055 -0.06534471 0.044493563 0.011774946
000290 80 7e 26 3d f5 ab 33 3d 6b 9b 31 bc 41 fb 29 bd
       0.040647984 0.043865163 -0.010840277 -0.04149938
0002a0 f1 6d 43 bd c2 ca 06 3d ee 98 58 bc 8e dd 70 bd
       -0.04771227 0.03290821 -0.013220055 -0.05880504
0002b0 e3 d8 2a 3c 3b 25 0b bd 80 18 83 ba cf 5b 57 3d
       0.010427686 -0.033971053 -0.0010001808 0.05257779
0002c0 f0 08 10 3d a5 93 45 3d 43 4a eb 3c 3e 74 79 3d
       0.035164773 0.048236508 0.028721934 0.060901873
0002d0 2b 89 16 3d fc 27 00 bd 47 82 05 bd 43 d8 8e 3d
       0.036751907 -0.031288132 -0.032594945 0.069748424
0002e0 76 db b7 bc 41 b1 8c 3d 4c 05 db bc be dc 7d 3c
       -0.022443514 0.06869746 -0.026735924 0.015494524
0002f0 1e fa eb ba 50 50 c3 bb a4 36 b0 bb c1 da e9 bc
       -0.0018003618 -0.0059605017 -0.0053776074 -0.028546693
000300 a4 8b 11 3d f3 4b 85 bc f9 1b f4 bb 36 ef 89 3d
       0.035533562 -0.016271567 -0.0074496237 0.06735079
000310 7a ca 2f bd 86 1a 8d bd 01 a1 9e bc 3a e2 63 3d
       -0.042917706 -0.068898246 -0.019363882 0.05563567
000320 60 e5 89 bd 6f c3 86 bd c4 0d c6 bc 80 c4 77 3c
       -0.06733203 -0.06580245 -0.024176486 0.015122533
000330 48 c4 07 bd f6 fe 6c 3d eb 76 48 bd 41 3c 6c 3d
       -0.033146173 0.057860337 -0.048941534 0.05767465
000340 f8 fc 45 bb a6 d5 86 bd a4 0e 66 bd 51 64 4d bd
       -0.0030210596 -0.06583719 -0.056166306 -0.050144497
000350 72 c8 7f bd 1c 42 2c 3d d3 9d 31 bd 59 4f 88 3d
       -0.06244702 0.042055234 -0.043363404 0.06655759
000360 b7 a7 68 bd e4 ee 58 3d a9 77 6d 3d 72 e3 81 bc
       -0.05680057 0.0529622 0.057975445 -0.015855525
000370 82 95 2f bd 4a 12 1f 3d 74 86 5c 3d 7b 46 4c bc
       -0.04286719 0.0388358 0.053839162 -0.012467976
000380 e1 ea 3b bd f2 6a 20 bd 53 00 2f bd e6 52 ef 3c
       -0.045878295 -0.03916449 -0.04272492 0.029214334
000390 f1 9b 06 bd b4 2c 85 3d 1b 9f 37 bb 88 3a 42 bc
       -0.03286356 0.06502667 -0.0028018418 -0.011854775
0003a0 2b f8 31 3c 86 73 91 bd 8a 2c 25 bd 18 c5 e9 3c
       0.0108623905 -0.071021125 -0.04032568 0.028536364
0003b0 78 c3 4d bd 94 11 55 bc 29 73 f7 3c 6f ed 16 3d
       -0.05023524 -0.013004679 0.03020628 0.036847528
0003c0 06 4a 3e bd 5a 0a f9 bc c0 11 81 bc 2b c2 ba 3c
       -0.046457313 -0.030400444 -0.015755534 0.022797665
0003d0 2c 77 93 3d 33 97 f3 3c 27 5c 30 bd 07 74 5f bc
       0.072004646 0.029735183 -0.043056633 -0.013638503
0003e0 44 11 84 3d c5 cb 55 3c 54 13 0d bd fa 62 08 3d
       0.06448606 0.013049071 -0.03444226 0.033297516
0003f0 32 dd 91 3c 4c bc b5 3b f1 85 91 bd a1 f0 45 3d
       0.01780567 0.0055461284 -0.071056254 0.048325185

module.model.1.model.3.bias f4 [64]
000000 79 40 7c 3a c2 3c 72 3a 27 c4 8b 3a 10 24 83 3a
       0.0009622644 0.0009240621 0.0010663316 0.0010005254
000010 22 9d 82 3a 8c a0 84 3a d4 f2 7e 3a d7 f1 83 3a
       0.0009965042 0.0010118647 0.0009725515 0.0010066581
000020 50 e9 7d 3a 2a fa 8f 3a 96 5f 7d 3a f9 ad 6c 3a
       0.00096859504 0.0010984589 0.00096654275 0.00090286095
000030 18 bf 81 3a 89 ce 80 3a ba 64 84 3a a2 a0 81 3a
       0.0009898869 0.0009827177 0.001010082 0.0009889791
000040 9c c0 88 3a 71 80 86 3a e5 dd 82 3a 3e bc 86 3a
       0.0010433379 0.0010261667 0.0009984343 0.0010279489
000050 81 fa 78 3a e0 ff 80 3a 6f 48 82 3a 9c da 7c 3a
       0.0009497777 0.0009841882 0.00099398 0.00096456124
000060 76 8d 82 3a 0b 5f 7f 3a d7 81 7a 3a e2 17 89 3a
       0.0009960372 0.00097416405 0.0009556091 0.0010459388
000070 24 92 80 3a 14 59 84 3a 5d 91 97 3a cf 1b 7b 3a
       0.0009809178 0.0010097348 0.0011563707 0.0009579034
000080 f2 2e 88 3a 2b a7 80 3a c7 21 88 3a a9 9a 81 3a
       0.0010389967 0.0009815445 0.0010386043 0.0009888011
000090 bd a9 82 3a 95 0c 80 3a 5c a8 83 3a 26 dd 7c 3a
       0.0009968799 0.0009769375 0.0010044682 0.0009645991
0000a0 e7 84 82 3a ea 35 8e 3a 61 ed 84 3a bf 6c 85 3a
       0.0009957821 0.0010849808 0.0010141545 0.0010179504
0000b0 47 fe 84 3a 5e 4d 7e 3a f1 5e 82 3a 0d d6 78 3a
       0.0010146581 0.00097008597 0.0009946508 0.0009492345
0000c0 18 95 86 3a c9 99 7a 3a b1 f1 85 3a 7c 50 83 3a
       0.0010267822 0.0009559659 0.0010219124 0.0010018493
0000d0 74 78 82 3a cd df 82 3a ed b5 8d 3a f9 3d 8f 3a
       0.0009954111 0.0009984911 0.0010811664 0.0010928503
0000e0 91 89 86 3a fe 34 81 3a e2 2d 82 3a 0c 70 80 3a
       0.0010264387 0.0009857712 0.0009931887 0.0009799018
0000f0 be 65 8e 3a f3 47 80 3a 92 8d 71 3a 1b 1c 81 3a
       0.0010864062 0.0009787068 0.0009214516 0.0009850295

module.model.1.model.4.weight f4 [64]
000000 f0 13 80 3f bc 13 80 3f 9d de 7f 3f ca 05 80 3f
       1.0006084 1.0006022 0.99949056 1.0001767
000010 ed 05 80 3f 49 d9 7f 3f a2 11 80 3f 65 13 80 3f
       1.0001808 0.99940926 1.0005381 1.0005919
000020 8b f9 7f 3f 4e d9 7f 3f 45 13 80 3f c0 0b 80 3f
       0.9999015 0.99940956 1.000588 1.0003586
000030 20 db 7f 3f 40 13 80 3f 14 d7 7f 3f d1 d6 7f 3f
       0.99943733 1.0005875 0.9993756 0.9993716
000040 b9 db 7f 3f 99 14 80 3f 2c d7 7f 3f d2 10 80 3f
       0.99944645 1.0006286 0.999377 1.0005133
000050 24 12 80 3f 8c 14 80 3f 8e 10 80 3f ba 00 80 3f
       1.0005536 1.000627 1.0005052 1.0000222
000060 2c d7 7f 3f 94 14 80 3f 6a 13 80 3f 63 df 7f 3f
       0.999377 1.000628 1.0005925 0.99950236
000070 88 11 80 3f 59 04 80 3f 02 dc 7f 3f 72 12 80 3f
       1.000535 1.0001327 0.9994508 1.0005629
000080 e3 d8 7f 3f 6a 11 80 3f fa 10 80 3f 1b d7 7f 3f
       0.9994032 1.0005314 1.0005181 0.999376
000090 b6 e6 7f 3f d8 0d 80 3f a9 d9 7f 3f 36 14 80 3f
       0.9996141 1.0004225 0.999415 1.0006168
0000a0 cf e9 7f 3f 31 e2 7f 3f 79 db 7f 3f c8 10 80 3f
       0.9996614 0.99954516 0.99944264 1.0005121
0000b0 54 14 80 3f 18 14 80 3f 77 11 80 3f c9 14 80 3f
       1.0006204 1.0006132 1.000533 1.0006343
0000c0 59 d6 7f 3f 02 15 80 3f 12 df 7f 3f 1a e8 7f 3f
       0.99936444 1.0006411 0.99949753 0.99963534
0000d0 fc 0d 80 3f 5b 0f 80 3f 8a d6 7f 3f db d7 7f 3f
       1.0004268 1.0004686 0.99936736 0.99938744
0000e0 b9 01 80 3f a3 e8 7f 3f 52 ef 7f 3f f7 f0 7f 3f
       1.0000526 0.9996435 0.9997455 0.9997706
0000f0 01 dd 7f 3f 93 dd 7f 3f 0e 14 80 3f 94 13 80 3f
       0.999466 0.9994747 1.000612 1.0005975

module.model.1.model.4.bias f4 [64]
000000 38 3f 1f 3a ad e6 17 3a 00 3f 0f ba 08 ab 21 3a
       0.0006074789 0.0005794566 -0.0005464405 0.0006167148
000010 37 b2 e4 39 54 aa 1b ba 5b c7 11 3a 77 b1 fb 39
       0.0004362033 -0.00059381616 0.00055610173 0.00048006672
000020 2a 5f f2 39 2e 75 1a ba 9a 96 18 3a b6 c7 0d 3a
       0.0004622874 -0.0005892095 0.0005820781 0.00054084824
000030 48 1a 1e ba 74 3c 1f 3a 0e 4a 22 ba 1b a8 26 ba
       -0.0006031138 0.0006074377 -0.00061908446 -0.0006357447
000040 9f f6 15 ba af 58 25 3a e3 e6 22 ba 28 71 cf b9
       -0.00057206483 0.00063074654 -0.00062142144 -0.00039566425
000050 20 5c 1b 3a 33 eb 24 3a f6 d9 0e 3a 30 58 19 ba
       0.00059265085 0.0006291151 0.0005449349 -0.0005849628
000060 11 8d 23 ba 0f 9a 21 3a 93 5d 1d 3a a4 be 0f ba
       -0.0006238977 0.0006164619 0.00060030184 -0.0005483425
000070 aa 00 23 3a a7 68 87 b8 05 d1 18 ba 5d ef 1d 3a
       0.00062180555 -6.456795e-05 -0.0005829486 0.00060247426
000080 ed 62 49 b9 fc 0d 14 3a 5d f1 f0 39 73 31 21 ba
       -0.00019205706 0.0005647836 0.00045956197 -0.0006149031
000090 84 79 06 ba 90 dc 05 3a 27 5a 16 ba 74 63 27 3a
       -0.00051298016 0.0005106414 -0.00057354796 0.0006385364
0000a0 39 19 dd 39 1f 8f 08 ba 5e a1 20 ba fc 65 18 3a
       0.00042171197 -0.0005209315 -0.0006127561 0.00058135367
0000b0 9b d1 23 3a 54 38 21 3a d8 cc 18 3a e8 4f 26 3a
       0.000624919 0.0006150056 0.0005828864 0.00063443044
0000c0 68 9f 23 ba 3c 98 26 3a db 5f 0f ba 01 e1 d7 b9
       -0.000624171 0.0006355082 -0.00054693007 -0.00041175637
0000d0 08 f1 20 3a 7f 18 da 39 99 37 23 ba 03 e2 20 ba
       0.0006139432 0.0004159845 -0.0006226241 -0.0006137194
0000e0 8e 26 8c b9 41 6f 1a 3a 47 79 1c ba c0 02 cd 38
       -0.00026731606 0.0005891212 -0.00059689995 9.775674e-05
0000f0 14 68 f6 b9 85 cd 09 ba 17 11 20 3a 64 2c 22 3a
       -0.0004699832 -0.000525676 0.0006106062 0.0006186424

module.model.1.model.4.running_mean f4 [64]
000000 93 df a3 be dd 4a 26 be 42 1c 9c bd e0 27 5a be
       -0.3200651 -0.16239496 -0.07622577 -0.21304274
000010 79 6b 01 bd 5d 6f e3 3d 88 e8 dc 3d a4 60 c0 3d
       -0.031596635 0.11105225 0.10786539 0.09393433
000020 72 17 55 3d e2 dd 26 3b ea 3e d8 be 07 d5 3b bd
       0.052024312 0.0025461842 -0.422355 -0.045857456
000030 6f 60 21 be 3e 7f 3f 3d f8 4e 51 3f 29 ac 8e 3e
       -0.15759443 0.046752207 0.8176112 0.27865723
000040 aa 96 29 be ae fc 18 bd 3d ec 2f 3f 26 ce d8 be
       -0.1656138 -0.03735035 0.68719846 -0.4234478
000050 9d 60 de be 2a 00 c2 3e 13 8f 79 3e 15 49 22 bf
       -0.43433085 0.3789075 0.24370985 -0.63392764
000060 52 46 2a 3d ef 5e 37 3e b6 86 5d be f9 d5 56 3b
       0.04157097 0.17907308 -0.2163342 0.0032781346
000070 a3 9b 67 3e fa e2 cd 3e 61 77 10 be e2 19 36 3e
       0.22617964 0.40212232 -0.1410804 0.17783311
000080 1b de b5 bd 46 17 bd 3d c5 71 43 be cd 87 51 3e
       -0.08880254 0.09232955 -0.19086368 0.2046196
000090 e6 16 0a 3d e1 13 8a be 8d af 0f be 29 8e 04 3e
       0.033713244 -0.2696829 -0.14031811 0.12944855
0000a0 86 79 61 3b d9 dc 5c 3e 05 d0 f7 be 61 a7 b7 be
       0.003440471 0.21568622 -0.48400894 -0.35869887
0000b0 ea c8 30 3f 0d d3 14 bf 82 50 69 be 67 74 72 be
       0.6905657 -0.5813454 -0.22784618 -0.23677216
0000c0 e5 18 18 3e d7 b1 39 bf ba ee c4 be 88 d7 63 be
       0.14853247 -0.7253699 -0.38463384 -0.22250187
0000d0 45 db 6c 3e af 42 84 be e3 e5 96 be 1e fd c3 be
       0.2313052 -0.25832126 -0.29472265 -0.3827905
0000e0 58 ac 9e be ff 91 03 bf 48 1d 0c 3f 68 08 82 be
       -0.30990863 -0.5139465 0.5473218 -0.25397038
0000f0 30 38 11 be bf 5b 11 be 5f 79 9d bc f3 01 47 3e
       -0.1418159 -0.14195155 -0.019222913 0.19434337

module.model.1.model.4.running_var f4 [64]
000000 2f 72 50 3e fb e8 84 3d 99 2b 62 3d 49 ae 36 3d
       0.20356058 0.0648975 0.05521736 0.044599805
000010 51 16 50 3f 4c c0 06 3f f3 1f cd 3d c8 76 0f 3e
       0.8128405 0.5263717 0.100158595 0.14010155
000020 1e 29 f4 3c e8 f7 24 3e e4 16 96 3e 90 b6 8d 3d
       0.029804762 0.16110194 0.2931434 0.06919587
000030 28 f0 b9 3f bf 70 85 3e a1 9a 93 3e c1 17 a5 3d
       1.4526415 0.2606258 0.2882891 0.08061171
000040 8c 2b aa 3d c0 53 af 3f 5e 61 b0 3e 91 7a 0b 3e
       0.08309087 1.3697433 0.34449285 0.13620974
000050 eb c0 be 3d 45 15 15 3e f9 cc 1c 3e 4b f5 29 3e
       0.0931414 0.14558895 0.15312566 0.16597478
000060 54 17 6e 3d 31 e1 81 3d e1 30 73 3d f5 79 bd 3e
       0.058127716 0.0634178 0.059372786 0.37007108
000070 e9 26 46 3e d5 41 a4 3e 7c 24 2d 3d 18 21 0f 3e
       0.1935078 0.32081476 0.042271122 0.13977468
000080 35 a7 91 3d 75 6f 61 3e 69 62 6e 3e 93 99 f7 3d
       0.0711197 0.22015174 0.23279728 0.12089839
000090 58 c5 96 3e 24 7f b1 3e 1d ae 38 3f e7 f3 22 3e
       0.29447436 0.34667313 0.72140676 0.15913354
0000a0 c3 f9 48 3f 12 b5 34 3e 96 ab 2f 3e a3 80 f2 3e
       0.78506106 0.17647198 0.17155299 0.47363767
0000b0 3b b7 9f 3e 2e 86 cb 3e 0c db 6c 3e ca e0 69 3e
       0.3119448 0.39750808 0.23130435 0.22839656
0000c0 a5 ad 9c 3d f7 58 59 3e 77 a8 17 3e 88 40 06 3f
       0.076503076 0.21225344 0.14810358 0.52442217
0000d0 43 40 63 3e 17 8c f4 3d 3b d4 23 3e 80 a9 dc 3d
       0.22192483 0.119407825 0.15998928 0.10774517
0000e0 97 45 9a 3e d4 a1 20 3e 40 b8 1a 3f f8 e8 7f 3d
       0.30131218 0.15686733 0.60437393 0.062478036
0000f0 dc 19 4f 3d 63 4c 11 3e 78 9c 9b 3d f5 cb b3 3e
       0.05056177 0.14189295 0.075982034 0.35116544

module.model.2.model.0.weight f4 [64, 64, 3, 3]
000000 08 c6 e1 3c a7 23 6e bd 08 57 0e bd b2 4f e1 bc
       0.027560249 -0.05813947 -0.03475097 -0.027503822
000010 78 f3 a9 bc bf bc 54 bd a4 c2 6a 3c 6e f7 90 3d
       -0.020745978 -0.051937815 0.0143286325 0.070784435
000020 d8 fd 61 3d 43 84 83 3d 1c c7 77 bd cd ef 9f bc
       0.055173725 0.06421711 -0.06049262 -0.019523526
000030 df 65 9c 3c 88 d1 bd 3c ae 1f 6c 3d c5 22 24 3c
       0.019091545 0.023171201 0.0576474 0.010018055
000040 ef 1d e7 3c c9 29 e7 bc 9b ea bb bc b5 60 1b 3d
       0.028212516 -0.028218167 -0.022939017 0.037934024
000050 28 a2 0c 3c 3d df 04 3d 4d 12 70 bd 43 2f 66 3d
       0.008583583 0.03243946 -0.058611203 0.056197416
000060 2b 91 32 3d c4 d8 5c 3d c9 62 47 3b 36 56 90 bd
       0.043595474 0.05391766 0.003042387 -0.070476934
000070 79 c7 91 3d 41 d4 24 3b 06 53 88 bd 3d fa 87 3d
       0.071181245 0.0025150927 -0.066564605 0.06639526
000080 8a 75 70 3d 1a 50 7b bd 5b 80 71 3d 72 cd 00 3d
       0.058705844 -0.061355688 0.0589603 0.031445928
000090 38 d5 c8 3c 92 12 2c bd d6 b7 50 bd d3 20 db 3c
       0.024515733 -0.042009898 -0.05095657 0.02674905
0000a0 a9 34 44 3d 01 b4 0e bd 09 3d bc bc a0 28 17 bd
       0.047901783 -0.034839634 -0.022978323 -0.036903977
0000b0 ef b4 6d bd 3c b3 a8 3b 86 76 51 3d 83 66 75 3d
       -0.05803388 0.0051483195 0.051138423 0.059912216
0000c0 c1 c9 50 3b a7 77 70 bd ff b3 37 3d 77 00 cf 3c
       0.0031858536 -0.05870786 0.044849392 0.025268776
0000d0 e6 20 dc 3c 7f b1 1b 3d 13 f4 16 3c d4 0c 0f bc
       0.026871156 0.03801107 0.009213465 -0.008731086
0000e0 df aa f0 bc 02 e6 4f bd 5f c7 41 3d b7 8d 17 3d
       -0.029378353 -0.050756462 0.047309276 0.037000384
0000f0 8f ff 81 3d 10 de 4d 3c 63 ef 22 bd 22 28 82 3c
       0.06347572 0.012565151 -0.03977908 0.015888277
000100 e4 92 4a 3a f5 6e 9f 3c 98 5d 50 3c 12 cd 50 bd
       0.0007727577 0.019462088 0.012717627 -0.05097682
000110 90 c6 26 bd aa 9f 2f 3d 68 a1 0d 3d bd 8a 6c bd
       -0.040716708 0.042876877 0.034577757 -0.0577495
000120 4a ff 8d 3c 12 a2 1a bd 9f c8 7a bd f7 e9 93 bc
       0.017333645 -0.03775222 -0.061226483 -0.0180559
000130 71 65 87 bd 9f d3 1e 3d 27 0f 58 3d ca b9 34 3d
       -0.06611145 0.038776036 0.052748825 0.044122495
000140 46 32 79 bd 1d 70 08 bc 36 9a 1d 3d 5e 15 a0 b9
       -0.06083896 -0.008327511 0.038477145 -0.00030533498
000150 03 26 85 bd fe 57 14 3c ba f6 19 bc 49 2f 6c 3d
       -0.06501391 0.009054182 -0.009397203 0.057662282
000160 8d 8d 22 bd af c8 28 3d cb d3 8b 3b 88 e2 e3 bc
       -0.039685775 0.04120701 0.004267191 -0.02781798
000170 70 3e e6 bc 2e e3 da bb 50 81 2a 3d 65 f7 2f 3d
       -0.028105944 -0.006679914 0.04162723 0.042960543
000180 5f 94 ce bc 46 ed 3c bd cf 01 68 3d 04 b0 5f bd
       -0.025217233 -0.04612472 0.05664235 -0.05461122
000190 8c 22 26 3c 6c e2 59 bd 4f 1e d7 bc c3 02 bf bc
       0.010140073 -0.05319445 -0.02625957 -0.023316747
0001a0 3c b3 45 bd b7 22 a4 bc 30 bc 3a 3c f3 4b 78 3d
       -0.048266634 -0.020036085 0.011397406 0.060619306
0001b0 5f 34 6d bc 58 db d8 bc 93 fd e8 3c f1 2c f2 3c
       -0.014477818 -0.026471779 0.028441226 0.029562445
0001c0 d3 32 5d bd c4 be 59 3b b3 74 97 bc ea 4c 4f bd
       -0.054003548 0.0033225277 -0.018488264 -0.05061046
0001d0 69 8f fd b8 f6 f2 81 3d 2f a9 1f bc ef bc 93 3c
       -0.00012090692 0.06345169 -0.009744926 0.018034426
0001e0 78 59 f7 3c ea 9c 49 bc 22 ac 90 3b 59 3b ba 3c
       0.03019403 -0.012305478 0.004415051 0.022733377
0001f0 d2 c0 81 3d 92 67 d9 bc 97 5a 6c 3d 49 e8 40 bd
       0.06335606 -0.026538644 0.05770358 -0.047096524
000200 11 e3 2f 3d 74 1c 3a bd fc 16 10 3d 50 9d 9a 3c
       0.042941157 -0.04543729 0.03517817 0.01887384
000210 87 f4 bf 3c 71 33 6e bd 34 c6 de 3b 22 48 5e bd
       0.02343203 -0.058154527 0.00679853 -0.05426801
000220 8a e0 43 bd fd 11 70 3d 96 60 92 bd c8 b6 cb bc
       -0.04782156 0.058610905 -0.071473286 -0.02486743
000230 cc 26 e2 bb ef cc 1c 3d 1b 96 73 3d cc 89 1d 3d
       -0.0069015976 0.038281377 0.059469324 0.03846149
000240 be c2 67 bd da 20 99 3c e2 68 1d bd d6 75 5f bd
       -0.056582205 0.018692423 -0.038430102 -0.054555736
000250 fb 19 65 bd 63 40 67 bd 9f 41 03 3c d8 02 1c bd
       -0.05593298 -0.05645789 0.008011251 -0.03808865
000260 9c d5 e5 bc 14 60 f0 bc 1b 14 09 3d ee 1c 4a 3c
       -0.028055958 -0.029342689 0.03346644 0.012335999
000270 99 a5 86 bc c0 33 68 bd e6 8f 3c 3d c1 c4 12 3d
       -0.016436385 -0.056689978 0.04603567 0.03583217
000280 0e c1 90 bd 15 5f 7e 3d 69 55 63 3d b7 d3 35 bd
       -0.07068072 0.062102396 0.055501375 -0.04439136
000290 db e2 00 bd b6 d8 8a 3d 1e d8 14 3b 54 b3 71 bd
       -0.031466346 0.067796156 0.0022711824 -0.05900891
0002a0 07 62 8a 3d eb 49 9d bc 87 72 4f bd d5 fd 8a bd
       0.067569785 -0.019200286 -0.05064633 -0.06786696
0002b0 32 f2 20 3d 7d ea fb 3b a2 d9 82 3d 07 1e 20 bd
       0.039293475 0.0076878653 0.063891664 -0.039091136
0002c0 28 9f 73 3d 3c 2e 51 3d 80 32 66 bd cd 50 36 3d
       0.059477955 0.051069483 -0.056200504 0.04451065
0002d0 dc 42 f0 3c 72 cf f6 3b c7 ca 0c bd b7 a7 84 3d
       0.029328756 0.0075320536 -0.03437307 0.064773016
0002e0 f8 42 95 3c 88 18 c0 bc a2 e2 c2 3b 6e 5a 7b 3c
       0.01822041 -0.023449197 0.005947427 0.015341384
0002f0 eb bf 5f bd 29 03 7b 3d a2 ac 15 bd 41 e5 f1 3c
       -0.054626387 0.06128231 -0.03654159 0.029528262
000300 c5 b8 86 3d 96 fd 58 3d a7 5b e5 3a e0 d6 65 3d
       0.06578211 0.052976213 0.0017498628 0.056113124
000310 ce 57 39 3c 52 16 60 3c e2 e5 28 bd 80 58 3e 3d
       0.011312438 0.013677197 -0.04123486 0.04647112
000320 fe 06 c4 3c 16 70 f0 bc a1 23 7c bd 9d 4e 92 bd
       0.023929115 -0.029350322 -0.061557416 -0.071439005
000330 37 7b 1e 3d cb 94 28 3c a8 eb 80 bd 27 46 c4 ba
       0.038691726 0.010289381 -0.06294948 -0.001497452
000340 dc cd b7 b8 3d 54 fc 3c 6a 07 42 3d 6a 29 93 bc
       -8.764464e-05 0.030801887 0.04737035 -0.017964084
000350 2e 9d 55 bd c1 f6 90 bc 74 75 90 3d 4f 48 ee bb
       -0.05215185 -0.017695786 0.070536524 -0.0072718034
000360 0a ab d4 3c c3 cb f9 bc 5a d8 6d bd f1 9f 83 3d
       0.025960464 -0.030492669 -0.058067657 0.06426991
000370 6a 84 87 3d 53 d0 6d bd c4 e8 bd bc 38 18 75 3d
       0.06617053 -0.05806 -0.02318228 0.05983755
000380 0c b3 9d b9 e3 eb 63 bd 6d 8c 3f 3d c8 9d 6d bd
       -0.00030078774 -0.05564488 0.04676478 -0.0580118
000390 9b ce 76 3c 15 d6 eb 3c 3c f2 6b bc 92 95 83 bd
       0.015063907 0.028788606 -0.014401015 -0.06425013
0003a0 75 14 5e 3d 3b fb 4c bb bd 66 84 3d 9d 2f e8 3c
       0.054218728 -0.0031277675 0.06464908 0.028343016
0003b0 b6 26 8a bd 33 ea 65 bd a4 0a 11 bb 4e d1 df bb
       -0.06745665 -0.056131553 -0.0022131586 -0.006830371
0003c0 b0 23 d6 3c d4 28 55 3d de 77 9f 3b 77 4f b3 bb
       0.026140064 0.05204089 0.004866584 -0.0054721194
0003d0 53 ff 61 bd d3 45 42 bc fc 77 48 bc f3 e0 7c bd
       -0.055175137 -0.011857468 -0.012235638 -0.061737966
0003e0 33 ba 1a 3d fb 85 10 bd 75 8f f7 3c d5 2c 84 3d
       0.03777523 -0.035284024 0.030219773 0.064538635
0003f0 ba 18 4b bd 23 5d 24 3c df c7 1d 3d 73 e3 54 bd
       -0.049584128 0.010031971 0.03852069 -0.051974725

module.model.2.model.0.bias f4 [64]
000000 13 be 82 3a 36 11 84 3a 3d 68 83 3a bf 7f 84 3a
       0.000997486 0.001007593 0.0010025572 0.0010108872
000010 7d 3a 83 3a 1d c9 84 3a 13 99 84 3a 8a b6 82 3a
       0.0010011938 0.0010130737 0.001011642 0.0009972614
000020 37 96 7e 3a b3 bd 83 3a ac 10 83 3a 5a a6 83 3a
       0.0009711715 0.0010051042 0.0009999475 0.0010044083
000030 e7 6c 80 3a 1f d2 82 3a 59 21 84 3a 2f 33 80 3a
       0.000979808 0.0009980834 0.0010080739 0.0009780879
000040 98 a8 82 3a 7e d9 81 3a 7b 19 82 3a 67 89 81 3a
       0.0009968458 0.0009906737 0.0009925807 0.0009882868
000050 bc 23 83 3a 21 d3 82 3a 6d bc 81 3a 84 b9 83 3a
       0.0010005157 0.0009981134 0.0009898074 0.0010049795
000060 b4 26 84 3a b4 6f 82 3a 13 55 84 3a 96 b1 82 3a
       0.0010082335 0.0009951503 0.0010096155 0.0009971138
000070 eb 11 84 3a 99 26 84 3a 44 51 80 3a 5f e4 80 3a
       0.0010076141 0.0010082304 0.0009789844 0.0009833685
000080 83 ae 84 3a 9d 49 83 3a d7 04 81 3a 3d 7a 82 3a
       0.0010122809 0.0010016445 0.0009843361 0.0009954643
000090 27 c2 83 3a 79 c4 82 3a ed ce 82 3a 65 03 82 3a
       0.0010052369 0.0009976766 0.0009979882 0.0009919225
0000a0 e8 14 84 3a 8c 6c 84 3a 0a cb 82 3a 6f 25 83 3a
       0.0010077031 0.001010315 0.0009978723 0.0010005663
0000b0 39 7f 82 3a f5 5b 82 3a 9f 75 84 3a bf ff 81 3a
       0.0009956128 0.0009945618 0.0010105855 0.0009918137
0000c0 90 a3 82 3a 1d 18 7f 3a c9 94 83 3a 3b 73 82 3a
       0.0009966958 0.0009731071 0.0010038848 0.0009952554
0000d0 42 2f 7f 3a 7c 31 83 3a 7c 4c 82 3a 5a 37 83 3a
       0.000973452 0.0010009254 0.0009941007 0.0010011003
0000e0 e1 7a 83 3a be 52 84 3a 65 09 84 3a 9b 9b 82 3a
       0.0010031128 0.001009546 0.00100736 0.0009964587
0000f0 de b2 83 3a be dc 83 3a d8 38 83 3a c3 2c 83 3a
       0.0010047813 0.0010060293 0.0010011448 0.0010007847

module.model.2.model.1.weight f4 [64]
000000 77 dc 7f 3f ed 12 80 3f e4 dd 7f 3f 29 dc 7f 3f
       0.9994578 1.0005776 0.99947953 0.9994531
000010 48 dc 7f 3f b0 03 80 3f ae d7 7f 3f 83 d8 7f 3f
       0.999455 1.0001125 0.99938476 0.99939746
000020 3e 12 80 3f f9 f0 7f 3f 3a e3 7f 3f ac db 7f 3f
       1.0005567 0.9997707 0.99956095 0.9994457
000030 ae 13 80 3f 88 10 80 3f 66 df 7f 3f 6e 12 80 3f
       1.0006006 1.0005045 0.99950254 1.0005624
000040 d4 da 7f 3f 29 14 80 3f b5 07 80 3f 25 ea 7f 3f
       0.9994328 1.0006152 1.0002352 0.9996665
000050 14 eb 7f 3f ab d6 7f 3f 41 0e 80 3f ed dc 7f 3f
       0.99968076 0.9993693 1.000435 0.9994648
000060 6b f5 7f 3f f9 f9 7f 3f 05 10 80 3f 59 08 80 3f
       0.99983853 0.99990803 1.0004889 1.0002548
000070 13 0b 80 3f f3 e1 7f 3f 2d 0c 80 3f f6 05 80 3f
       1.000338 0.99954146 1.0003716 1.0001819
000080 78 ea 7f 3f 4c 0f 80 3f 8e 13 80 3f 33 0f 80 3f
       0.99967146 1.0004668 1.0005968 1.0004638
000090 71 dc 7f 3f a5 00 80 3f 69 f8 7f 3f ab 0a 80 3f
       0.9994574 1.0000197 0.9998842 1.0003256
0000a0 4f e8 7f 3f fe eb 7f 3f a2 0d 80 3f f5 d6 7f 3f
       0.9996385 0.9996947 1.000416 0.99937373
0000b0 3a 14 80 3f 2a f1 7f 3f 39 02 80 3f 5d f9 7f 3f
       1.0006173 0.9997736 1.0000678 0.99989873
0000c0 07 dd 7f 3f fd e0 7f 3f 64 e5 7f 3f 7d f5 7f 3f
       0.99946636 0.9995268 0.999594 0.9998396
0000d0 cc 10 80 3f ad e1 7f 3f 82 11 80 3f eb 12 80 3f
       1.0005126 0.9995373 1.0005343 1.0005773
0000e0 68 10 80 3f 16 12 80 3f c5 e2 7f 3f b7 11 80 3f
       1.0005007 1.0005519 0.999554 1.0005406
0000f0 87 06 80 3f 2d 13 80 3f f1 0f 80 3f b7 00 80 3f
       1.0001992 1.0005852 1.0004865 1.0000218

module.model.2.model.1.bias f4 [64]
000000 d0 44 0a ba 56 dc 7a 39 e6 f0 f7 b9 ae f8 ff b9
       -0.0005274536 0.0002392394 -0.00047290995 -0.0004882267
000010 dd fe 1c 39 fb 5c 13 b9 d8 fd 1d ba 93 ec 1d ba
       0.00014972263 -0.0001405365 -0.00060269004 -0.0006024327
000020 32 de 08 3a c2 d9 89 b9 bc 38 b4 b9 34 a8 1d ba
       0.0005221098 -0.00026292918 -0.00034374546 -0.0006014139
000030 7d b1 1a 3a 4c 29 1a 39 d5 76 71 b9 20 21 12 3a
       0.00059010816 0.00014701969 -0.0002302782 0.0005574394
000040 09 fb f5 b9 29 ba 24 3a bd 33 a3 39 c6 fc 86 b9
       -0.00046917077 0.00062838435 0.0003112833 -0.00025746803
000050 1b 54 af b9 66 da 1b ba 51 0b af 39 bc 62 b3 b9
       -0.00033441265 -0.00059453247 0.00033387032 -0.00034215103
000060 74 18 94 38 a4 f2 3c b9 e3 93 c5 39 e6 44 b1 39
       7.061745e-05 -0.00018019468 0.00037684952 0.00033811404
000070 44 cb cd 37 f0 91 c9 b9 07 5c 27 39 d6 3d d4 38
       2.4532557e-05 -0.0003844644 0.00015960644 0.000101204656
000080 00 21 9d b9 e5 57 e3 b9 73 bc 08 3a 16 34 02 3a
       -0.0002996996 -0.000433623 0.00052160694 0.0004966868
000090 5c e4 f3 b9 1d 59 4d 39 14 77 1b ba 13 d3 a0 39
       -0.00046518713 0.00019583521 -0.0005930525 0.0003067484
0000a0 b3 4e c6 b9 eb de cc b9 b4 3c cb 39 20 14 1e ba
       -0.00037824138 -0.00039076 0.00038764405 -0.00060302205
0000b0 bd da 25 3a 3f 44 a7 b8 d5 58 83 b9 6c ac bb b9
       0.0006326845 -7.9758924e-05 -0.00025052452 -0.00035795884
0000c0 54 fe 79 b9 04 4c 17 ba 1e d1 88 b9 8c cc 14 b9
       -0.00023841235 -0.000577152 -0.00026095746 -0.0001419058
0000d0 50 e2 78 b9 ca 5d b1 b9 ce 78 07 3a e5 2c 03 3a
       -0.00023735431 -0.0003382995 0.00051678426 0.0005003943
0000e0 97 c0 0a 3a 7e 8f d9 39 18 e1 dc b9 90 f7 f2 39
       0.00052929803 0.00041496375 -0.00042129378 0.00046342285
0000f0 d9 83 ac 37 89 33 13 3a 6e 8c bc b9 2b d0 45 b9
       2.0565394e-05 0.00056152843 -0.00035962783 -0.00018864933

module.model.2.model.1.running_mean f4 [64]
000000 98 ea c3 3e 96 81 cb 3e e0 ff 8f 3d 90 4f 6a 3d
       0.38264918 0.39747304 0.07031226 0.057204783
000010 7c 1c 85 be 07 99 f2 be d6 a8 02 be 3b cd fa 3e
       -0.25998294 -0.47382376 -0.12759718 0.48984703
000020 08 57 ce be 92 ac 26 be 40 42 0a bf da 33 c3 3d
       -0.40300775 -0.16276768 -0.5400734 0.09531374
000030 95 cc c5 bd d1 7a ea 3d 3c 2c 5f be 06 98 21 bf
       -0.096581616 0.114492066 -0.21794218 -0.63122594
000040 ed ad 1f 3e 8b d7 d0 bd 4d f3 6b 3e f6 68 d7 3e
       0.15593691 -0.101973616 0.2304203 0.42072266
000050 cf b6 de be f2 bb b8 bd 7c 8a 2f 3d 01 e2 01 3f
       -0.43498847 -0.09020223 0.04285668 0.5073548
000060 0e f7 c6 3d b4 c7 5b be 1e e3 86 3e 19 a2 4d be
       0.09715091 -0.214629 0.26345152 -0.20081367
000070 f6 be 34 3e 93 7e cf 3e 9e 23 cb 3e 64 59 c3 3e
       0.17650971 0.40526256 0.3967561 0.38154137
000080 2d 29 46 3e bc c0 dc 3e 9b 22 21 bf 0c 85 55 3d
       0.19351645 0.43115795 -0.6294343 0.052128837
000090 4a 9f b5 3e 51 46 9d ba 36 1a f0 bd c0 5d b0 3e
       0.3547309 -0.0011999105 -0.11723749 0.34446526
0000a0 44 57 01 3e 84 39 87 be 15 c3 fa be 5d 55 33 3e
       0.12630945 -0.26411068 -0.4897696 0.17513032
0000b0 9f cb 09 bf 1e 16 8e 3d a5 c7 0d 3e 7e 6c 4a 3e
       -0.53826326 0.06937812 0.1384569 0.19767949
0000c0 b8 31 14 3b 88 66 07 be f4 c8 3b bf 36 63 85 bd
       0.0022612642 -0.13222706 -0.73353505 -0.065130636
0000d0 39 e8 9e be 9b 7f e3 3d 54 8b 20 3f 20 4a a5 bc
       -0.31036547 0.11108323 0.627126 -0.020176947
0000e0 9c af dc 3c 64 7f 2e 3f 43 1a 64 3e 45 d3 82 bd
       0.026939206 0.6816313 0.22275643 -0.06387953
0000f0 54 d8 b5 be 6a 26 b4 3e ec 8f 8a be 45 c2 1d be
       -0.35516608 0.35185558 -0.2706293 -0.15406139
