output_gd_denoise/ckpt/resnet_epoch9.pth (torch, 641697 bytes, 31 tensors)

module.model.0.weight f4 [64, 1, 1, 1]
000000 04 b8 99 be 6c 38 88 be 3f 3d 1b 3e 18 e4 1a 3e
       -0.30023205 -0.26605546 0.15160082 0.15126073
000010 63 96 75 be f7 8f 89 be 64 6c 52 be 94 0c 21 3d
       -0.23983149 -0.2686765 -0.2054916 0.039318636
000020 63 db 4e be 12 89 5e 3e 60 f9 15 3c da 29 1f 3d
       -0.20200877 0.21731976 0.009153694 0.038858272
000030 46 c7 df bd 94 f4 89 be fa 1e e7 3d e5 be 7f 3e
       -0.1092668 -0.2694441 0.11285205 0.24975164
000040 b2 8e 25 3e b0 08 72 3c 9a 56 80 3e d3 b6 2a 3e
       0.16167715 0.014772579 0.25066072 0.16671304
000050 5f 84 d8 3c f6 36 68 3e fd ee 9e bd 84 28 7e 3e
       0.026430307 0.22677216 -0.07760427 0.24820143
000060 82 43 85 be ed d3 98 3d 81 42 42 3e c1 e8 fe 3d
       -0.26028067 0.07462297 0.18970682 0.12446738
000070 b9 9d bb bd 52 6f ed bc 9f 7f 63 3e 69 27 80 3e
       -0.091609426 -0.028983746 0.22216652 0.25030068
000080 bf 4e 87 3e 22 3c 5b be 9d c7 0e 3e 7a e4 21 3e
       0.26427266 -0.21409658 0.13943334 0.15809813
000090 95 c7 05 be 17 ce 3a 3d 4c a6 ec 3d 21 07 e7 bd
       -0.13064416 0.0456067 0.11555156 -0.112806566
0000a0 ca ee 74 3d f1 ac 44 3e 54 86 fd bd d3 84 6e be
       0.05979804 0.19206597 -0.12379137 -0.23292856
0000b0 ae a1 93 3c 23 e2 8f bd b4 c5 fd 3d e6 d8 0d 3d
       0.01802143 -0.07025554 0.123912245 0.03463068
0000c0 b6 87 18 bd 7d 29 2d 3e 7c cd 3a be cc 48 0e 3e
       -0.0372388 0.16910358 -0.18242449 0.13894957
0000d0 7a 67 d0 3d da ff b1 bd 31 f6 3b be 41 85 b7 bc
       0.101759866 -0.08691378 -0.18355633 -0.022402408
0000e0 ad dd 86 3e 1c f6 39 3e e6 dc 38 be 1e 80 80 3e
       0.26341 0.1816029 -0.18053016 0.25097746
0000f0 a0 37 89 3d d0 af 28 3e d2 29 67 3e 31 fb 3c 3e
       0.06700063 0.16473317 0.22574547 0.18455197

module.model.0.bias f4 [64]
000000 63 2c b0 3a 82 df f2 3a 35 ef b1 37 f1 93 88 3a
       0.0013440963 0.0018529745 2.1211434e-05 0.0010420067
000010 f1 95 b8 3a 71 32 c4 39 30 62 24 3a 34 f4 7d 3a
       0.0014082772 0.00037421615 0.00062707346 0.0009687573
000020 5d c9 30 3a 30 7a 33 b8 4c 23 04 3b f8 0f 37 39
       0.00067438727 -4.279072e-05 0.002016264 0.00017458189
000030 5c d0 63 39 ee 95 5e 3a 20 b2 22 3a f4 4c 1b 3a
       0.00021726027 0.0008490969 0.0006206352 0.00059242477
000040 27 80 d2 39 32 3c a1 3a 37 c1 82 39 9f 7a 9f 3a
       0.00040149802 0.0012301265 0.00024939489 0.0012167281
000050 c1 d5 fa 3a 0a cf 97 3a 88 d7 d3 3a 75 f5 b7 39
       0.001913719 0.0011582088 0.0016162256 0.0003508736
000060 8a 1c 74 3a 51 0e 43 3a 50 46 93 3a d8 cb 1c b8
       0.0009312114 0.0007440793 0.0011236165 -3.7383143e-05
000070 5f 81 a3 3a 8b 88 f3 39 2c 3c 2b 39 f7 ff d6 3a
       0.0012474469 0.00046450304 0.00016330247 0.0016403188
000080 c3 94 2c 3a 2a 0b b5 3a 5e ab af 3a 58 05 29 39
       0.00065834465 0.0013812531 0.0013402512 0.00016119087
000090 b7 42 9c 3a 27 b2 1a 3a 3b 7c d8 3a 12 a6 05 3b
       0.0011921738 0.00059011806 0.0016516516 0.0020393175
0000a0 54 f7 90 3a 12 49 99 b7 d3 f1 de 3a 9f 06 8c 3a
       0.0011060038 -1.8273047e-05 0.0017009325 0.0010683126
0000b0 66 af 82 3a a5 fe f9 3a 4f 29 b7 3a d5 e5 01 3b
       0.0009970486 0.0019073082 0.0013974103 0.0019820828
0000c0 dd 4c 98 39 90 64 e6 3a 26 9b a4 38 75 a9 a5 3a
       0.00029048967 0.0017577577 7.849028e-05 0.0012639003
0000d0 7e 4f dd 3a 5d 42 9a 3a 73 b3 40 3a 27 39 84 39
       0.0016884652 0.0011769045 0.0007350959 0.00025219584
0000e0 2e 5c c1 39 02 fa 14 3a 50 73 dc 3a 26 3b b9 3a
       0.00036880508 0.0005683006 0.0016819034 0.0014132007
0000f0 b2 04 50 3a 88 84 58 3a cb 85 f8 3a ca 66 7d 3a
       0.000793527 0.0008259495 0.0018960772 0.0009666501

module.model.1.model.0.weight f4 [64, 64, 3, 3]
000000 59 9c 4d bd da e6 ae bc 83 f8 93 bd 2a 7e 03 bc
       -0.050197933 -0.021350313 -0.07225134 -0.008025685
000010 fb be 66 bc d1 80 6b bd df 7e 8a bd 45 fa 00 3d
       -0.014083619 -0.057495896 -0.0676248 0.031488676
000020 a5 4f 7e 3b 61 e5 38 bd 98 76 6f 3d ec 95 5d 3d
       0.0038804796 -0.045140628 0.05846271 0.054098055
000030 80 ae 70 3d 60 b3 84 bd 59 9f e0 3b 3d 0a cb bc
       0.058760166 -0.064795256 0.006854933 -0.024785155
000040 e5 b1 5d 3d 9d 8c 9b bc a0 10 1b bd ad 4b 5e 3d
       0.05412473 -0.018987948 -0.03785765 0.05427139
000050 77 7a 8b bd 40 bb 87 3a c7 f0 bd 3b f0 63 7f bd
       -0.06810468 0.0010355487 0.005796525 -0.062351167
000060 2f cf 95 bc 63 69 8a 3d 70 2b d9 bc 41 18 df bc
       -0.01828727 0.06758382 -0.02650997 -0.027233245
000070 d7 97 1b bd db d2 11 bd e1 b5 73 bd e2 7f 04 3d
       -0.037986603 -0.035601478 -0.059499625 0.03234852
000080 cf e7 02 bd 3c 42 83 bd 5a 7b 03 bd b9 9b 02 3c
       -0.03195935 -0.064091176 -0.03210006 0.0079716975
000090 96 98 86 3d c0 92 a1 3c 92 6a 95 bc a3 25 2e bd
       0.06572072 0.019723296 -0.018239293 -0.042516362
0000a0 6d 55 30 3d 24 7d 55 bc f9 a4 68 bd de 38 f9 3c
       0.04305022 -0.013030324 -0.056797955 0.030422624
0000b0 7d 81 d3 bc b0 f8 27 bd 50 34 75 3d e4 14 2c 3d
       -0.02581858 -0.04100865 0.059864342 0.04201211
0000c0 dc fc 74 3d 62 3c fc 3b 7c d9 33 3d a0 b7 90 bd
       0.059811458 0.007697628 0.04390858 -0.07066274
0000d0 72 9f a8 3c 59 24 36 3d 66 f8 83 3d 4e e1 91 bd
       0.020583842 0.044468258 0.064438626 -0.071230516
0000e0 07 ae 80 3d 32 1d 9b 3c 20 a4 ed 3c 3d 32 b6 3b
       0.06283193 0.01893482 0.029008925 0.005560188
0000f0 0b 24 f4 36 73 8e 88 bd 09 23 ec bc d4 f2 58 bd
       7.2759626e-06 -0.06667795 -0.0288253 -0.052965954
000100 46 f1 a7 3c 58 db 05 3d 3f f9 89 3d 6c 29 c5 bc
       0.02050079 0.032679886 0.06736993 -0.024067603
000110 2d f5 85 bd bf 41 eb bb 60 6e 84 3d d1 2c 1b bd
       -0.06540904 -0.0071794684 0.06466365 -0.037884537
000120 2f 11 75 bd 19 cc 5e bc 6f f0 86 bd ef 50 69 bd
       -0.05983084 -0.013598465 -0.06588828 -0.05696195
000130 ed 91 43 bb d8 b2 40 3c 16 cc f0 bb 0d ba 76 bd
       -0.0029841617 0.01176139 -0.0073485477 -0.060236026
000140 7e 6c 57 3d 53 9b ac bc d9 a4 85 3d ae c2 e2 bc
       0.0525937 -0.021070158 0.06525583 -0.027680721
000150 1e f3 91 bd f2 af 3d bd 01 85 2e 3c 9e c4 8c 3d
       -0.07126449 -0.046310373 0.010651828 0.06873439
000160 cf 71 3d 3d f0 88 e5 3b 76 24 24 bd 99 3d 74 bd
       0.046251114 0.0070048496 -0.040073834 -0.059629057
000170 dc ff 56 bd d6 7b 3f bc 1e bc 77 bd b2 f2 15 bd
       -0.0524901 -0.01168724 -0.060482137 -0.036608405
000180 ac 61 ee 3b eb 77 27 3d 80 32 6f bc 51 73 b7 3b
       0.007274827 0.040885847 -0.0145994425 0.0055984636
000190 7e 00 fd 3a 10 65 8a 3d 91 3c a4 bc d1 a6 ef bc
       0.0019302515 0.067575574 -0.020048412 -0.029254349
0001a0 40 a8 07 bd 79 3b a3 bc ad aa 65 3d dc 1e 4c 3d
       -0.03311944 -0.01992582 0.056070972 0.049834117
0001b0 0e 0a fa 3c 12 f3 80 3d 35 de 18 3d f5 71 fb 3c
       0.030522373 0.06296362 0.03732129 0.030693987
0001c0 f5 84 e5 bb c7 f4 37 3d de 68 6d bd 4e be 80 bb
       -0.007004375 0.044911172 -0.057961337 -0.003928936
0001d0 4c eb b5 bc 1f ce 14 bd cd 1b 51 3d 28 31 0e 3d
       -0.022206925 -0.036329385 0.051051904 0.034714848
0001e0 23 b6 bb 3c d7 76 2a bd 74 f5 7b bc 6a b9 92 bd
       0.022913998 -0.04161724 -0.015378345 -0.07164271
0001f0 42 f1 d1 3c a9 fb 93 bd 38 84 ff bc 85 8f 5b 3d
       0.025627736 -0.07225735 -0.031190977 0.053603668
000200 40 c4 0c bd 18 40 3c bc d6 0a b0 bc 59 3a c2 bc
       -0.034366846 -0.0114898905 -0.021489542 -0.023709463
000210 9a 16 57 bd df 01 15 3d 61 9c 39 3d 9c a0 e4 bc
       -0.05251179 0.036378738 0.04531515 -0.027908616
000220 66 63 70 3d fb 78 5b bd 2f ca 1c 3d c6 88 31 3b
       0.058688544 -0.053582173 0.038278755 0.002708958
000230 89 0e 16 3d 7b 46 04 3d c5 16 26 bd 49 b8 b2 bb
       0.036634956 0.032293778 -0.04054906 -0.0054540974
000240 6e 44 14 bd b9 14 2e 3c b6 d2 2f bc b7 50 07 bc
       -0.036198072 0.010625058 -0.01073139 -0.00825899
000250 c6 29 72 3d 7a 9a 15 bd 49 f9 88 3d d1 35 5c 3d
       0.05912187 -0.036524273 0.06688172 0.05376226
000260 67 e8 20 3d 6f 6a 7e 3c 57 31 69 bd e5 7a 7a bc
       0.039284136 0.015528305 -0.05693182 -0.015288089
000270 17 f8 3e bc fa 94 2c 3d ad e5 55 bc 38 43 4e 3c
       -0.011655829 0.042134263 -0.013055247 0.012589268
000280 51 e5 99 bb 72 62 62 bc 67 08 24 3d 4f cc ec 3c
       -0.004696526 -0.0138174165 0.040047076 0.028906016
000290 5a 13 1e 3c 8e 69 56 bd 67 fb 20 3d 87 48 1a bd
       0.009648168 -0.05234676 0.039302256 -0.037666824
0002a0 2f 80 8b bc ea c5 9f 3b 97 b1 fa bc fa 73 b0 3c
       -0.017028896 0.004875888 -0.03060226 0.021539677
0002b0 72 d5 ad 3c dc 11 c6 ba 68 f9 f3 3c e8 9d 28 3d
       0.021219943 -0.0015111524 0.029782012 0.041166216
0002c0 ad 90 be 3c 33 53 85 3d fd 03 be bc 9e 4d 8b 3c
       0.023262346 0.065100096 -0.023195261 0.017004784
0002d0 a7 4d 83 3d 85 4f 27 bd 7c 84 0a 3d a3 21 07 bc
       0.064112954 -0.04084732 0.033817753 -0.008247766
0002e0 08 6e 23 bd e6 1f d5 3b ea 3d bb 3b 03 6b e1 3b
       -0.039899856 0.0065040467 0.005714168 0.006879212
0002f0 1d d3 ad 3c 7a b6 ba 3c 56 8d 05 bd 5c f2 86 3d
       0.02121883 0.02279209 -0.03260549 0.06589195
000300 88 76 45 bd 6b d7 81 bc 52 e2 23 3d b2 57 ab 3c
       -0.048208743 -0.01584979 0.040010758 0.02091584
000310 b5 90 2e 3d 81 71 3c 3c 95 84 88 3d b5 15 00 3d
       0.042618472 0.011501671 0.06665913 0.0312707
000320 32 25 18 bd 36 62 83 3d 5c 7d 28 3c 0c 0c 76 bd
       -0.037144847 0.064152166 0.010283794 -0.060070083
000330 f3 49 56 3c cc 64 58 bd 0d df 0f bc 85 4b d3 bb
       0.013079154 -0.052830502 -0.008781207 -0.0064482116
000340 84 37 0d 3b df a6 10 3d ed dc 87 bd 92 a1 39 bd
       0.0021547982 0.03531539 -0.06633935 -0.0453201
000350 a1 2d d6 ba d6 18 42 bd 33 ff 0a 3c f8 54 2a bc
       -0.0016340503 -0.047386967 0.008483696 -0.010396235
000360 84 81 0d 3d 20 5c 4c bd a9 f8 7e 3d b8 f9 42 3d
       0.034547344 -0.049892545 0.06224886 0.04760143
000370 7b cc 29 bd e7 10 eb ba 65 cd 19 bd bb c7 b8 bc
       -0.041454773 -0.0017934114 -0.037549395 -0.022556176
000380 11 74 46 bd 0f f7 9c bc bd 70 a2 bc 9f e8 4b 3d
       -0.048450533 -0.019160775 -0.019829148 0.04978239
000390 1d 04 65 3d 2e 4f 9e 3c 44 18 bb 3c 4e 97 b6 3c
       0.055912126 0.019324865 0.02283872 0.022288945
0003a0 32 bb 4d bd 3f c1 66 3d b8 ec 86 bd 2d b5 3c bc
       -0.05022735 0.056336638 -0.06588119 -0.011517805
0003b0 a9 15 20 3d c8 a7 bb 3c 03 fc 38 bc 65 50 d2 3c
       0.039083157 0.022907153 -0.011290553 0.0256731
0003c0 44 27 3f bd 4f 81 24 3d a5 c5 19 3a 6e d9 8f bd
       -0.046668306 0.04016238 0.0005865938 -0.07023893
0003d0 76 eb 7a 3d d0 a1 f4 bc ea 91 12 3d b6 ff 5c 3c
       0.06125971 -0.029862314 0.035783686 0.013488701
0003e0 be 97 93 bc b1 49 20 bd 3f 95 67 3d fc 71 89 3d
       -0.018016692 -0.039132778 0.056538817 0.06711194
0003f0 e0 4c 8c bd 73 83 9d 3c 71 3d 72 bd 2e 77 ca bc
       -0.068506 0.019227719 -0.059140626 -0.024715032

module.model.1.model.0.bias f4 [64]
000000 18 33 8b 3a 0f c3 99 3a b1 3c 41 3a 8f e0 7a 3a
       0.0010620086 0.0011731106 0.00073714094 0.0009570205
000010 a2 0b 94 3a 16 b5 91 3a 36 3e 86 3a 0c 51 41 3a
       0.0011294971 0.001111659 0.0010241929 0.00073744426
000020 6a 5a 88 3a ef 5b 90 3a 22 4c 7e 3a 89 94 80 3a
       0.0010402922 0.0011013726 0.0009700676 0.0009809892
000030 cb eb 92 3a 03 6b 5a 3a 5b 72 8d 3a a7 dc 9f 3a
       0.0011209188 0.0008331986 0.0010791527 0.0012196497
000040 a9 ea 6c 3a 35 71 53 3a a8 54 74 3a 0e b9 71 3a
       0.00090376526 0.00080658804 0.0009320476 0.00092209957
000050 58 8d a1 3a 6c 43 92 3a 13 13 94 3a 11 bb a5 3a
       0.0012325449 0.0011159009 0.0011297188 0.0012644251
000060 27 b1 83 3a 8f cd 8e 3a ae 69 a9 3a f5 ac 7f 3a
       0.0010047302 0.0010895001 0.0012925172 0.00097532506
000070 47 6b 92 3a 0e 01 74 3a e0 e7 93 3a 2f c9 4b 3a
       0.0011170887 0.00093080185 0.0011284314 0.0007773814
000080 7b 8f 82 3a 8a 78 8c 3a b9 8d 57 3a 20 88 6f 3a
       0.0009960973 0.0010717076 0.00082227174 0.00091374107
000090 3f e2 64 3a ae ac a2 3a 17 0b 88 3a be 31 a1 3a
       0.0008731223 0.0012411082 0.0010379282 0.001229815
0000a0 c6 9e 68 3a 67 4d 61 3a 3d c0 8a 3a ca 67 8e 3a
       0.0008873757 0.00085946027 0.0010585856 0.0010864672
0000b0 79 9c 7f 3a cd 62 41 3a 92 b3 95 3a 4a 46 68 3a
       0.0009750794 0.0007377088 0.0011421314 0.00088605715
0000c0 d2 91 97 3a 1e 35 89 3a 6e b7 8f 3a 9f 73 7e 3a
       0.0011563844 0.0010468101 0.00109647 0.000970656
0000d0 a0 c4 88 3a 60 97 61 3a 9d 87 b6 3a b9 67 4a 3a
       0.0010434575 0.00086056255 0.0013925914 0.00077211444
0000e0 02 16 9a 3a eb ef aa 3a 8c 4d 8d 3a 9e 21 69 3a
       0.0011755826 0.0013041472 0.0010780557 0.0008893254
0000f0 03 2d 78 3a b5 f1 a4 3a 75 05 3d 3a 95 f8 4c 3a
       0.00094671565 0.0012584241 0.0007210591 0.0007819024

module.model.1.model.1.weight f4 [64]
000000 e1 11 80 3f 83 f3 7f 3f 9e cb 7f 3f 5f db 7f 3f
       1.0005456 0.99980944 0.9992007 0.9994411
000010 78 01 80 3f 88 d3 7f 3f 1d f5 7f 3f 01 08 80 3f
       1.0000448 0.99932146 0.9998339 1.0002443
000020 25 13 80 3f b0 fd 7f 3f 50 1c 80 3f 10 16 80 3f
       1.0005842 0.9999647 1.000864 1.0006733
000030 f6 ca 7f 3f db d6 7f 3f 30 1f 80 3f 00 09 80 3f
       0.9991907 0.9993722 1.0009518 1.0002747
000040 cd ef 7f 3f b7 28 80 3f c2 e6 7f 3f d5 0e 80 3f
       0.9997528 1.0012425 0.99961483 1.0004526
000050 59 27 80 3f 03 e7 7f 3f ed e2 7f 3f 65 ed 7f 3f
       1.0012008 0.9996187 0.99955636 0.9997161
000060 d0 e2 7f 3f f5 ad 7f 3f 54 be 7f 3f 28 d9 7f 3f
       0.99955463 0.9987481 0.9989979 0.9994073
000070 60 eb 7f 3f d8 eb 7f 3f 64 c2 7f 3f 23 19 80 3f
       0.9996853 0.99969244 0.9990599 1.0007671
000080 88 e6 7f 3f 9c 0d 80 3f 5d 06 80 3f 87 1b 80 3f
       0.9996114 1.0004153 1.0001942 1.0008401
000090 7c 09 80 3f 93 0f 80 3f d0 c2 7f 3f a5 d9 7f 3f
       1.0002894 1.0004753 0.99906635 0.99941474
0000a0 d2 fb 7f 3f 5a b2 7f 3f 65 d2 7f 3f 4d 18 80 3f
       0.9999362 0.9988152 0.9993041 1.0007416
0000b0 a0 f8 7f 3f 7e 0d 80 3f 46 c3 7f 3f 4c 08 80 3f
       0.99988747 1.0004117 0.9990734 1.0002532
0000c0 81 d2 7f 3f 4c f3 7f 3f 90 cb 7f 3f f0 f8 7f 3f
       0.9993058 0.99980617 0.99919987 0.99989223
0000d0 a1 0f 80 3f ca 03 80 3f 34 1c 80 3f 75 ba 7f 3f
       1.000477 1.0001156 1.0008607 0.99893886
0000e0 33 04 80 3f ce 18 80 3f 9c f8 7f 3f 2b 1a 80 3f
       1.0001281 1.000757 0.9998872 1.0007986
0000f0 15 12 80 3f fa b5 7f 3f a5 06 80 3f 03 0b 80 3f
       1.0005518 0.9988705 1.0002028 1.000336

module.model.1.model.1.bias f4 [64]
000000 f9 42 5a 3a 1e 05 d4 b9 55 3e 08 ba f9 9b 88 b9
       0.000832602 -0.00040439604 -0.00051972765 -0.0002605615
000010 9e 1e 15 ba 60 85 89 ba 79 66 8b b9 93 96 11 39
       -0.0005688461 -0.0010492019 -0.00026588494 0.00013884371
000020 3c e2 1b b9 e6 ef c1 b9 33 19 fd 39 9c 46 a0 39
       -0.00014866231 -0.00036990567 0.00048274695 0.00030570186
000030 a1 35 f2 b9 dc b5 05 ba be a5 31 3a ab c2 45 3a
       -0.00046197794 -0.00051006465 0.00067767117 0.00075439614
000040 6b ca b3 b8 87 51 9a 3a 44 68 f8 b9 fb 89 87 3a
       -8.5730884e-05 0.0011773565 -0.0004737993 0.0010340804
000050 cc 73 9f 3a 53 3d c0 39 d7 6d 4e ba 53 bf 0e ba
       0.0012165247 0.00036666784 -0.0007874644 -0.00054453796
000060 b5 96 66 37 e4 81 8f ba 6f 41 c3 b9 26 ed 91 b9
       1.37441575e-05 -0.0010948745 -0.0003724205 -0.00027833245
000070 15 c8 22 3a 97 d3 2d ba 0a 51 85 ba bf 24 76 3a
       0.0006209624 -0.00066309556 -0.0010171246 0.0009389631
000080 88 8e 88 b9 eb e9 a7 b9 54 cc 02 3a 2c 2d 86 3a
       -0.00026046135 -0.00032027005 0.00049895537 0.0010236851
000090 52 51 7c 39 2f f7 15 3a 6f c4 7d b9 42 e5 4e ba
       0.00024062887 0.0005720732 -0.00024201137 -0.00078924384
0000a0 c3 ba 8d 39 a8 cd 83 ba f8 61 92 ba 2d 71 60 3a
       0.00027032764 -0.0010055797 -0.0011168113 0.00085617864
0000b0 7b 9c 34 b8 a7 54 f5 b9 81 27 0d ba fe 36 d9 39
       -4.3061078e-05 -0.00046793112 -0.00053846097 0.00041430438
0000c0 d9 95 f3 b9 65 39 01 ba bd e1 96 b9 d4 49 aa 39
       -0.00046460217 -0.0004929512 -0.00028778418 0.00032479933
0000d0 14 5c d0 39 cc 2c 34 38 a6 bc 89 3a 51 ef 0c ba
       0.00039741455 4.2957065e-05 0.0010508492 -0.0005376237
0000e0 f8 8d 64 3a b3 ff 1e 3a 43 16 b7 b9 c1 57 1f 3a
       0.0008718665 0.0006065324 -0.00034921066 0.0006078445
0000f0 d4 3b 54 3a 47 ff 8b ba be 01 47 ba c8 c0 d1 38
       0.0008096073 -0.0010680937 -0.0007591507 0.00010001805

module.model.1.model.1.running_mean f4 [64]
000000 56 d6 94 38 4d 2b b4 b8 75 20 34 3b d2 95 d8 3a
       7.097113e-05 -8.591134e-05 0.0027485166 0.0016524142
000010 6f 37 ca b9 b1 f4 b7 3a ce aa 60 39 bb 63 63 3b
       -0.00038569744 0.0014034716 0.00021425934 0.0034696895
000020 80 4f 69 3b 1d 12 00 3a 69 b9 82 3a 10 32 58 3b
       0.0035600364 0.00048855116 0.000997347 0.0032988824
000030 4a 5b de 3a 43 7c 5a 3a f9 fc 97 3a 53 53 2b 3b
       0.0016964462 0.00083345565 0.0011595777 0.0026142194
000040 90 4c c6 3a 26 f9 1b 3b 2e e1 18 b9 5d 83 39 3a
       0.0015129019 0.0023799627 -0.00014579736 0.00070767646
000050 c4 b6 5e 3b 75 af 3f 3b 92 83 41 3b 27 40 80 3a
       0.0033983449 0.0029248868 0.0029527885 0.0009784744
000060 a1 a3 db 3a 9f 9b 7e 3a 79 8d 25 ba b7 c4 8b ba
       0.0016757139 0.00097125204 -0.00063153316 -0.0010663484
000070 39 c5 b6 3a ff f9 ea b9 1b 3b ee 3a 07 5a ba 39
       0.0013944275 -0.0004481822 0.0018175574 0.0003554376
000080 2f a3 4a 3a 4a 27 17 bb 93 0d a6 3a 2a 76 8f b8
       0.0007730005 -0.002306419 0.001266884 -6.840781e-05
000090 4b 7e 88 3a bf 6e 2b 3a ae 97 90 3a b3 70 bc b9
       0.0010413615 0.0006539635 0.0011031532 -0.00035942122
0000a0 4f 0a 13 3b 6f 93 15 3a b6 9f 46 3b c8 5c 37 3a
       0.0022436564 0.0005705868 0.0030307597 0.00069947215
0000b0 22 6e fa 39 ff 3d c6 39 c7 81 28 3a 5c 63 2e 3b
       0.0004776577 0.00037811694 0.000642803 0.0026609516
0000c0 f1 1b c2 ba aa 8d 5f 3b e5 7c b3 3a a2 d0 20 3a
       -0.0014809353 0.0034111538 0.0013693838 0.00061346043
0000d0 f8 0b ab b9 d9 6e 90 ba ce 71 13 3b bd 85 d5 3a
       -0.0003262458 -0.0011019363 0.0022498253 0.0016290467
0000e0 d9 cb 17 3b fc c1 49 3b 9b b8 33 3b bf f4 08 3a
       0.0023162274 0.003078579 0.0027423266 0.00052244583
0000f0 c2 5d 69 3b 8d 4d 0d 3a 16 3e 59 3a c3 20 b2 b9
       0.0035608863 0.0005390279 0.00082871446 -0.00033975215

module.model.1.model.1.running_var f4 [64]
000000 82 de 8e 38 de da ef 39 9e 7b 1b 39 fc 4b 35 3a
       6.812533e-05 0.000457487 0.00014828003 0.00069159246
000010 b5 8c 7c 39 d5 ef 0f 3a 5a f2 33 3a 1f 8f 83 39
       0.0002408501 0.0005490755 0.00068644213 0.000250929
000020 ab 71 74 39 16 71 e1 38 59 f8 11 39 92 54 c5 39
       0.00023311998 0.000107499 0.00013920794 0.00037637778
000030 1c 8d 2f 38 2b 67 87 3a 34 d4 51 3a 06 62 0e 3a
       4.185467e-05 0.0010330429 0.0008004338 0.0005431477
000040 0b cf 7f 36 85 fd 8f 38 30 62 b3 37 1e 71 a7 38
       3.8118476e-06 6.865993e-05 2.1384185e-05 7.98425e-05
000050 d9 15 3a 3a 24 49 87 3a 3d ed f4 36 48 30 e9 36
       0.00070985925 0.001032148 7.299385e-06 6.949562e-06
000060 8b 44 0c 38 46 4f de 37 09 58 54 37 d6 06 d5 39
       3.3442437e-05 2.6501377e-05 1.2656682e-05 0.0004063162
000070 43 71 8e 39 37 1c 49 39 82 57 71 39 3e 17 64 39
       0.00027168737 0.00019179365 0.0002301615 0.00021752433
000080 63 6d 1d 3b b1 af 72 3a f0 9f 67 3a 63 7b 94 39
       0.0024021498 0.00092577474 0.0008835783 0.0002832069
000090 58 31 a0 3a d9 c5 b2 37 36 fa 6d 38 b7 89 83 36
       0.0012221737 2.1311384e-05 5.673823e-05 3.9201364e-06
0000a0 4e 4a 5e 3a 4c 7e 19 38 f9 4b b1 39 44 49 de 38
       0.00084797 3.6595666e-05 0.00033816675 0.00010599432
0000b0 34 30 41 39 41 fd c0 36 3e 5e 35 39 f5 75 ab 39
       0.00018423871 5.7515285e-06 0.00017296613 0.00032703546
0000c0 e0 19 de 38 3c 8a 24 39 bc 91 92 38 44 45 16 38
       0.000105906045 0.00015691755 6.988968e-05 3.5827296e-05
0000d0 cc 69 b5 39 3c 72 38 39 20 6b fd 39 21 e6 79 38
       0.00034601835 0.00017590163 0.00048335735 5.958055e-05
0000e0 81 09 97 39 c1 d8 46 39 9c 03 16 39 b5 01 b7 37
       0.00028808045 0.00018963499 0.0001430646 2.1816095e-05
0000f0 a1 ae bb 38 c7 90 d0 36 ae 28 e3 36 7a b7 f8 39
       8.949382e-05 6.2157374e-06 6.769863e-06 0.00047438947

module.model.1.model.3.weight f4 [64, 64, 3, 3]
000000 22 b3 24 3d 89 b0 53 3d 81 aa f9 bc 06 12 b1 ba
       0.040209897 0.05168203 -0.03047681 -0.00135094
000010 03 e1 02 bd cf d2 d4 bc 3d 06 03 3d ed c1 80 3d
       -0.03195287 -0.025979428 0.03198837 0.062869884
000020 77 26 bc bc a3 a1 56 3d 2f 8d 01 bd 72 1e 23 bd
       -0.02296756 0.052400243 -0.031628784 -0.039823957
000030 c9 7d 91 bd c0 82 7f 3d e1 4d 73 bc 5d 15 3f 3d
       -0.0710407 0.062380552 -0.014850111 0.046651233
000040 b7 9d 8e 3d 9c 94 f4 3c e9 54 8b 3d 24 cb 55 bd
       0.069636755 0.029856019 0.06803305 -0.052195683
000050 8e b1 b0 bc 62 fc 05 3c b5 00 89 3d 44 d8 6f bd
       -0.02156904 0.0081778485 0.06689588 -0.058555856
000060 c9 ce d1 3c 32 08 cf 3b aa f0 e3 3b f9 0f 6e 3d
       0.025611298 0.0063181156 0.0069561796 0.0581207
000070 96 c3 71 3c 76 7d 13 bd dc 5d d1 3a 04 15 27 3d
       0.014756104 -0.03600832 0.0015973407 0.040791526
000080 d7 10 42 3b b5 3c 65 3d 6b 19 82 bd 05 fa 8b 3d
       0.0029612088 0.055966098 -0.06352504 0.06834797
000090 72 0d dc 3b cf 6c 95 3c 48 2e 73 3d 82 31 55 3c
       0.00671547 0.01824036 0.05937031 0.013012292
0000a0 d1 79 35 bd c0 8a 2f 3c 98 74 8f bd 7e 99 22 3c
       -0.044305626 0.010714233 -0.0700466 0.009924291
0000b0 c0 3e 1f bc 76 d4 42 3d 77 fa 91 3c 89 59 88 bd
       -0.009719551 0.0475659 0.017819626 -0.066577025
0000c0 39 20 eb 3c ed 5a 60 3d 07 21 5a bd d2 69 95 3d
       0.028701888 0.054774214 -0.053254154 0.07295574
0000d0 7a 87 c6 bb f2 dd d0 bc 17 3a 91 3b 65 6f 1c bd
       -0.0060586305 -0.025496457 0.0044319737 -0.03819217
0000e0 23 ec 3a 3d 12 ba 2a 3d ba 6d 0e 3d e9 1a df bb
       0.045635354 0.041681357 0.034772612 -0.006808628
0000f0 23 48 82 bd e4 10 7b 3c 59 ae 97 3c dd 9d 28 3d
       -0.06361415 0.015323851 0.018515753 0.041166175
000100 15 5c 3b 3d 6c 7c 86 bd 30 cb 21 bd 9b 4e 67 bd
       0.045742113 -0.065667 -0.039500415 -0.05647145
000110 cc a8 81 3d ac c5 4b bc 33 5e 13 bc ee 56 5e 3c
       0.063310236 -0.012437265 -0.008994627 0.01357053
000120 f9 42 44 bd 48 01 2b 3d 45 9c 4a 3c b8 64 3f bd
       -0.047915433 0.04174927 0.012366359 -0.046726912
000130 a8 a4 19 3d 54 ce a7 bc 39 38 93 3c 79 e0 78 3d
       0.037510544 -0.020484127 0.017971145 0.06076095
000140 5c 6a c4 3b 23 5d 74 bd 13 f3 35 bd 54 e5 4a 3d
       0.0059941243 -0.059659135 -0.044421267 0.04953511
000150 fb d9 10 3d 0c d0 89 3d f5 fd 36 3d 0d f2 45 3c
       0.035364132 0.06729135 0.044675786 0.012081635
000160 e2 06 42 bd 9b 93 1c 3d 98 0f 4b bd 43 b9 80 3d
       -0.047369845 0.038226705 -0.04957542 0.06285336
000170 c8 e6 7c 3c 17 93 d8 bc eb 91 95 3b 8c 28 49 3d
       0.015435882 -0.026437325 0.004564514 0.049110934
000180 fd 44 20 bd 9b 2c 84 3d f5 b1 27 bd 26 40 8f bd
       -0.039128292 0.0645382 -0.040941197 -0.06994657
000190 5b a8 87 bc 6e 3d fa 3c d2 f7 c5 bc 92 46 34 3d
       -0.01655977 0.03054687 -0.024166021 0.044012614
0001a0 c1 a1 ca bc 26 2b 41 bc aa b4 0a bd 1e 64 7e bd
       -0.024735333 -0.011790073 -0.0338637 -0.062107198
0001b0 f1 6c 5c 3d ce 9a 30 3b 57 db 08 bd c6 31 43 bd
       0.053814832 0.002694774 -0.033412304 -0.04765489
0001c0 4d 85 e5 bc ac bf e8 bc 90 12 09 bd 17 50 29 bc
       -0.028017664 -0.028411709 -0.03346497 -0.010334036
0001d0 9e 33 e4 bc 9e fb c9 3c ac f1 3b 3d 6e d5 14 3d
       -0.027856644 0.024656113 0.045884773 0.036336355
0001e0 ab c6 14 3d 0a d0 06 bd 1f 1c f1 ba be c6 84 bd
       0.036322277 -0.032913245 -0.0018395222 -0.064832196
0001f0 73 06 08 bd f6 25 23 3b fa 31 f2 bc 59 16 bf bb
       -0.033209275 0.0024894453 -0.029564846 -0.0058315215
000200 bd d8 1e 3c 92 30 93 3d 50 64 de bc 9a 80 3b 3c
       0.009695229 0.071869984 -0.027147442 0.011444235
000210 1e b4 c0 38 2d 09 03 bd f0 7f de ba 82 17 d2 ba
       9.188823e-05 -0.031991173 -0.0016975384 -0.0016028734
000220 d3 60 5c 3d ca 96 4e 3b 1a 92 82 bd 3e b9 df ba
       0.053803276 0.0031522983 -0.06375523 -0.0017068756
000230 ed d0 cc bc 25 66 91 3d 88 bf 72 bd ba 06 2f bd
       -0.025001967 0.07099561 -0.05926469 -0.042731024
000240 66 00 74 bd 2e 8e de bc b3 9d ae bb 00 33 83 3d
       -0.059570692 -0.027167406 -0.005328858 0.06406212
000250 b6 3c 80 bd 7e 72 02 3d 91 e0 4e bd 3c d1 17 bd
       -0.0626158 0.03184747 -0.050507132 -0.037064776
000260 80 56 45 bd cc 87 a4 bc f3 bb b2 3c 6d c6 5b bc
       -0.048178196 -0.020084284 0.021818137 -0.013414008
000270 3a da 0b bd ff db 97 bc 2f 99 81 bd c8 bf 70 bc
       -0.034143664 -0.01853752 -0.063280456 -0.014694162
000280 2b 3b fa bc 42 3f 85 bd 5f f9 38 3d 8a 66 49 3c
       -0.030545792 -0.06506206 0.045159694 0.012292514
000290 4a 50 26 3d d0 77 36 3d 89 89 25 bc b9 65 27 bd
       0.040603913 0.044547856 -0.010103592 -0.040868495
0002a0 b8 e8 40 bd 3d 98 09 3d e1 88 4f bc ec 56 6f bd
       -0.047096938 0.03359245 -0.012666912 -0.058432505
0002b0 fd 76 2e 3c a8 d7 08 bd 62 9f a9 b9 4a 6b 5a 3d
       0.010648486 -0.03340879 -0.0003235294 0.053324975
0002c0 71 f0 12 3d 1b 3a 48 3d e9 20 ee 3c cc 26 79 3d
       0.035873834 0.04888354 0.029068427 0.060828015
0002d0 ae 83 15 3d a2 b8 01 bd 2d 50 07 bd b9 85 8e 3d
       0.036502533 -0.03167022 -0.033035446 0.06959099
0002e0 84 63 b9 bc 94 4d 8c 3d 07 9a d9 bc af 72 7b 3c
       -0.02263046 0.06850734 -0.026562704 0.015347167
0002f0 9f 0d 08 bb e6 06 c5 bb 39 09 b2 bb 96 5e e9 bc
       -0.0020760072 -0.0060127852 -0.0054332283 -0.028487485
000300 f0 3e 12 3d 68 d1 84 bc 51 4d ea bb d2 af 8a 3d
       0.035704553 -0.016213134 -0.00715033 0.06771816
000310 fb 1d 2f bd ed 71 8c bd 1d 2d 9e bc 08 e3 62 3d
       -0.0427532 -0.06857667 -0.019308621 0.055392295
000320 b0 bc 8a bd e1 6a 86 bd 44 a4 c1 bc 96 dc 80 3c
       -0.067742705 -0.06563354 -0.023637898 0.015730184
000330 90 ec 09 bd 51 ee 6c 3d df 9b 46 bd eb 57 6b 3d
       -0.03367287 0.057844464 -0.048488494 0.057456892
000340 48 8f 68 bb 7c 4b 87 bd ce d6 67 bd ed 47 4b bd
       -0.0035485793 -0.066061944 -0.056601338 -0.04962914
000350 48 12 7e bd eb 01 2d 3d 9a 12 32 bd 0d 4c 89 3d
       -0.062029153 0.042238157 -0.04347477 0.06703959
000360 7b be 66 bd 43 e0 59 3d 86 66 6f 3d 02 ce 7a bc
       -0.056334 0.05319239 0.058447383 -0.015307905
000370 31 49 2d bd f2 fc 20 3d 43 5a 5f 3d 40 c1 40 bc
       -0.04230613 0.039303727 0.05452944 -0.011764824
000380 60 20 39 bd 49 c9 1e bd c2 f8 2d bd af c5 f3 3c
       -0.04519689 -0.03876618 -0.042473562 0.029757349
000390 d9 24 04 bd ff 0f 85 3d 40 16 38 bb c1 55 38 bc
       -0.032261703 0.06497192 -0.0028089434 -0.011250914
0003a0 ad 52 3b 3c 6d a0 91 bd c2 32 22 bd e0 31 ef 3c
       0.011433286 -0.07110677 -0.039599188 0.029198587
0003b0 0e 34 4c bd 2f f3 4a bc 79 3a fb 3c 61 a7 15 3d
       -0.04985433 -0.012387081 0.03066753 0.036536578
0003c0 c6 20 3e bd 3a 44 fb bc fb e8 84 bc 5b 46 bd 3c
       -0.046417974 -0.030672181 -0.016224375 0.023104837
0003d0 db e5 93 3d a3 2d f5 3c e6 6d 2e bd d8 fb 5c bc
       0.07221576 0.029928988 -0.042585276 -0.013487779
0003e0 29 6c 84 3d 8f ec 5c 3c 29 e1 0a bd d3 16 0a 3d
       0.064659424 0.013484134 -0.033906136 0.033713173
0003f0 f6 c6 97 3c 3d 58 cc 3b a1 3f 90 bd e3 be 48 3d
       0.01852749 0.0062361048 -0.07043386 0.04901017

module.model.1.model.3.bias f4 [64]
000000 dc bf 77 3a 3c 73 66 3a b3 5f 90 3a f3 a0 81 3a
       0.00094508915 0.0008790975 0.0011014849 0.0009889886
000010 94 49 82 3a 90 55 85 3a 74 c3 7c 3a cc 2a 84 3a
       0.0009940141 0.0010172594 0.0009642162 0.0010083555
000020 35 4f 79 3a a4 8d 96 3a ab f5 74 3a 7f 3a 64 3a
       0.0009510399 0.0011486304 0.00093444687 0.00087062264
000030 e1 b5 81 3a 97 09 7e 3a 65 9c 84 3a b1 11 81 3a
       0.0009896123 0.000969076 0.001011741 0.0009847191
000040 95 de 8b 3a 16 ea 86 3a cf cb 82 3a b8 a6 87 3a
       0.0010671193 0.0010293152 0.0009978953 0.0010349369
000050 d2 09 6f 3a f1 3b 80 3a 03 1d 81 3a 12 e9 7a 3a
       0.000911859 0.0009783489 0.0009850565 0.00095714733
000060 5d ef 83 3a 8c 62 77 3a e9 ff 6e 3a 28 11 8c 3a
       0.0010065843 0.0009436987 0.0009117113 0.0010686265
000070 4a 80 7e 3a 96 0e 85 3a 0b f5 a2 3a 7f bb 75 3a
       0.00097084476 0.0010151442 0.0012432648 0.00093739474
000080 d5 61 88 3a 38 a1 7d 3a 3a ad 89 3a aa 45 80 3a
       0.0010405133 0.00096752075 0.0010503896 0.0009786387
000090 38 c6 82 3a bf 88 7e 3a b2 22 84 3a 7a 8c 76 3a
       0.0009977287 0.0009709708 0.0010081141 0.0009405088
0000a0 c0 5a 82 3a 1a 2f 92 3a 16 70 86 3a 26 88 85 3a
       0.0009945258 0.0011152953 0.0010256793 0.001018767
0000b0 02 16 86 3a 0b be 78 3a 45 45 81 3a 32 89 6d 3a
       0.0010229948 0.0009488768 0.0009862563 0.0009061276
0000c0 9d 92 8a 3a 89 02 73 3a 7c ac 87 3a 5f b1 82 3a
       0.0010572259 0.0009270092 0.0010351087 0.0009971074
0000d0 15 cf 81 3a c7 09 80 3a 3c 1d 94 3a 75 b5 97 3a
       0.0009903634 0.0009768539 0.0011300216 0.0011574464
0000e0 9c 4a 87 3a ec f0 7d 3a b7 ae 81 3a b8 82 7d 3a
       0.0010321918 0.0009687084 0.0009893988 0.00096706627
0000f0 e9 cf 91 3a 2c a1 80 3a c1 b6 61 3a 2c a0 7f 3a
       0.0011124584 0.0009813658 0.00086103013 0.00097513455

module.model.1.model.4.weight f4 [64]
000000 0a 27 80 3f d0 25 80 3f 00 c4 7f 3f c7 17 80 3f
       1.0011914 1.001154 0.9990845 1.0007256
000010 d9 13 80 3f 15 b3 7f 3f f8 1d 80 3f 8b 29 80 3f
       1.0006057 0.9988263 1.0009146 1.0012678
000020 4f db 7f 3f 08 b8 7f 3f 0b 2b 80 3f ae 13 80 3f
       0.99944013 0.99890184 1.0013136 1.0006006
000030 e0 cc 7f 3f 74 27 80 3f c6 a8 7f 3f 41 a8 7f 3f
       0.9992199 1.001204 0.998669 0.9986611
000040 34 bc 7f 3f bb 2d 80 3f 56 b4 7f 3f 43 1f 80 3f
       0.9989655 1.0013956 0.99884546 1.000954
000050 5c 26 80 3f 68 2b 80 3f 43 21 80 3f c8 ed 7f 3f
       1.0011706 1.0013247 1.0010151 0.999722
000060 b1 ac 7f 3f 14 2e 80 3f 84 27 80 3f 80 c5 7f 3f
       0.9987288 1.0014062 1.0012059 0.99910736
000070 95 22 80 3f fd fc 7f 3f 45 b7 7f 3f 15 28 80 3f
       1.0010554 0.99995404 0.9988902 1.0012232
000080 fb b7 7f 3f 3a 25 80 3f bc 23 80 3f 59 b8 7f 3f
       0.99890107 1.0011361 1.0010905 0.9989067
000090 76 ee 7f 3f 46 13 80 3f d7 c0 7f 3f 5d 2d 80 3f
       0.9997324 1.0005882 0.99903625 1.0013844
0000a0 de cd 7f 3f 5f c7 7f 3f 7e b5 7f 3f 3b 20 80 3f
       0.99923503 0.9991359 0.9988631 1.0009836
0000b0 4d 2c 80 3f f0 2b 80 3f 9e 23 80 3f c4 29 80 3f
       1.001352 1.0013409 1.001087 1.0012746
0000c0 0b ab 7f 3f 50 2d 80 3f 9c c7 7f 3f 88 ff 7f 3f
       0.99870366 1.0013828 0.99913955 0.99999285
0000d0 60 24 80 3f 37 24 80 3f 50 ab 7f 3f 7e ad 7f 3f
       1.0011101 1.0011052 0.9987078 0.99874103
0000e0 86 03 80 3f 2c fd 7f 3f 63 c8 7f 3f 5d dd 7f 3f
       1.0001075 0.99995685 0.9991514 0.9994715
0000f0 95 ca 7f 3f 09 b2 7f 3f ca 2a 80 3f 10 25 80 3f
       0.9991849 0.99881035 1.0013058 1.001131

module.model.1.model.4.bias f4 [64]
000000 51 9f 9f 3a 43 3a 96 3a 9a 9d 83 ba 03 68 ad 3a
       0.0012178217 0.0011461455 -0.0010041476 0.001322985
000010 66 7c 53 3a 07 e1 9c ba 9f 44 75 3a e9 33 9d 3a
       0.0008067548 -0.0011968919 0.00093562336 0.001199362
000020 26 14 52 3a d4 69 96 ba 2c 9f a2 3a 03 fa 82 3a
       0.00080138666 -0.0011475631 0.0012407056 0.0009992722
000030 41 4d 87 ba 3e 63 ab 3a 13 38 ad ba 29 9b ae ba
       -0.0010322706 0.0013075841 -0.0013215564 -0.0013321388
000040 88 a5 8e ba 43 42 ba 3a f4 14 a2 ba 7b 0f 8a ba
       -0.0010883072 0.0014210421 -0.0012365864 -0.0010533178
000050 a3 58 a4 3a db 99 b1 3a cb d2 8f 3a 50 e7 aa ba
       0.0012538623 0.0013549881 0.0010972855 -0.0013038907
000060 de db a9 ba fa 89 b1 3a 36 d9 a0 3a 58 39 89 ba
       -0.0012959202 0.0013545149 0.0012271765 -0.001046936
000070 63 cc a2 3a a9 43 00 ba 12 d7 9c ba 31 99 ac 3a
       0.0012420531 -0.00048928946 -0.0011965951 0.0013168213
000080 be ad 84 39 61 4d 99 3a 83 29 62 3a a2 6d 88 ba
       0.0002530645 0.0011696034 0.00086274015 -0.001040865
000090 c8 c5 15 ba c5 16 63 3a a4 bd 7b ba b7 ab b6 3a
       -0.00057133706 0.0008662756 -0.0009603149 0.0013936673
0000a0 bf ff 50 3a 03 66 86 ba 0e 2d aa ba 4a 0c 9e 3a
       0.00079726795 -0.001025379 -0.0012983398 0.0012058106
0000b0 ee e4 b3 3a 1f eb a9 3a 00 dc 96 3a 64 f2 ad 3a
       0.0013724843 0.0012963748 0.0011509657 0.001327109
0000c0 21 e5 a6 ba c9 f7 b4 3a 1c 45 81 ba 76 23 37 b9
       -0.0012733081 0.0013806756 -0.0009862515 -0.0001746545
0000d0 93 ff ad 3a 0f 86 8c 3a 31 d4 a7 ba f4 b8 a9 ba
       0.001327502 0.0010721105 -0.0012804327 -0.0012948797
0000e0 3d f4 26 ba ed 26 b7 3a 6f 25 a0 ba fb 86 65 39
       -0.0006368792 0.0013973393 -0.0012218187 0.00021889426
0000f0 09 d9 e2 b9 97 4b a2 ba d0 85 a8 3a 85 af a2 3a
       -0.00043267783 -0.0012382147 0.0012857262 0.0012411928

module.model.1.model.4.running_mean f4 [64]
000000 c9 06 95 be 25 36 a0 bd f9 a9 fc bb 16 24 77 be
       -0.2910674 -0.07822827 -0.007710692 -0.2413486
000010 de 06 4a 3d 1b fe 91 bc ba dc 2b 3e 29 e4 5e 3d
       0.049322955 -0.017821362 0.16783419 0.05441681
000020 30 35 fa 3d 8d 6c 03 bd 9f a3 fc be d1 fc d5 bd
       0.12217176 -0.032085944 -0.49343583 -0.104486115
000030 79 b3 ce bd 63 85 0f 3e 38 8e 53 3f a1 0c 33 3e
       -0.100928254 0.14015727 0.82638884 0.17485286
000040 0e 50 40 be 5f f0 c8 3c cf f9 2d 3f cb 07 93 be
       -0.18780538 0.02452868 0.679593 -0.28716883
000050 71 03 e8 be 09 0c bd 3e df 5e 5e 3e bc 0e 2c bf
       -0.45315126 0.36923245 0.21715878 -0.6720998
000060 2a 46 00 bd 8c a9 7b 3e 96 86 6e be 0d bd bc bc
       -0.031316914 0.24576396 -0.23293528 -0.023039365
000070 6f 8b 6a 3e 7b 3e d6 3e 5e ee 1f be 95 28 9b 3d
       0.22904752 0.41844544 -0.15618274 0.075761
000080 b7 10 9c bc 81 28 25 3e 38 de 73 be b9 ff 5c 3e
       -0.019050939 0.16128732 -0.23815238 0.21581925
000090 26 20 b7 bc 0a 5f af be ab d5 fe bd ac d6 3d 3e
       -0.022354197 -0.34252197 -0.12443098 0.18538922
0000a0 58 67 13 bd 5b 02 81 3e 9b d5 e3 be d5 bb de be
       -0.03598723 0.2519711 -0.44498906 -0.4350268
0000b0 df f5 3a 3f 49 c0 47 bf b9 0c 9e be 7f 43 18 be
       0.7303142 -0.7802778 -0.30869082 -0.14869498
0000c0 30 0d fd 3d b0 07 3b bf 2f 2d e4 be 8f d0 47 be
       0.12356031 -0.73058605 -0.44565722 -0.19513153
0000d0 5c c6 88 3e d3 7e 55 be 6a 3f 74 be 58 1a b4 be
       0.26713836 -0.20849161 -0.23852316 -0.3517635
0000e0 15 b9 8b be 70 18 09 bf 4b 6c 1b 3f 6b 0f 81 be
       -0.27289644 -0.53552914 0.60712117 -0.25207075
0000f0 b0 5c c3 bd d7 59 01 be 10 9d 52 bd f5 92 55 3e
       -0.09539163 -0.12631927 -0.051419318 0.20856841

module.model.1.model.4.running_var f4 [64]
000000 a9 ed 61 3e 7b f6 11 3d fe 99 2a 3d ad 18 50 3d
       0.22063316 0.035635453 0.041650765 0.050804783
000010 6c e7 4b 3f 5c b6 dd 3e 6b 4d 85 3d ea 72 37 3e
       0.79649997 0.43303192 0.06508907 0.1791493
000020 96 9b 15 3d f5 68 ed 3e d0 a7 01 3f fa 27 ab 3d
       0.03652533 0.46369138 0.50646687 0.08357234
000030 85 5c b9 3f 37 3a 7e 3e 36 f4 a1 3e c3 8e 13 3d
       1.448136 0.24826895 0.3163163 0.03602482
000040 30 1e 40 3e 63 71 db 3f af eb a6 3e b3 cb eb 3d
       0.18761516 1.7143978 0.32601687 0.11513462
000050 e0 27 23 3e 8e 06 37 3e 16 3e 99 3e 37 83 36 3e
       0.1593318 0.17873594 0.2993018 0.17823492
000060 6e ed 5d 3e 00 00 1b 3e 88 10 e0 3d be 68 15 3f
       0.21672603 0.15136719 0.10940653 0.5836295
000070 ec 6f 5a 3e ac 6a 28 3e 21 73 20 3d 07 70 6f 3e
       0.21331757 0.16446942 0.039172295 0.23382579
000080 82 8b 2d 3e 95 84 45 3e c5 aa fa 3e 4e d1 06 3e
       0.1694775 0.19288857 0.48958412 0.13165781
000090 39 12 b8 3e e1 7f 1b 3f b4 95 3e 3f 61 8e 03 3f
       0.35951403 0.60742 0.7444718 0.5138913
0000a0 47 03 4f 3f 39 3f 25 3e 93 c0 de 3d ff 59 da 3e
       0.80864376 0.16137399 0.10876574 0.42646787
0000b0 b2 d7 d7 3e 07 ed d1 3e bc 60 7b 3e bc 40 58 3e
       0.4215675 0.4100115 0.2454862 0.21118444
0000c0 ea 66 2c 3d a3 27 85 3e 93 8e 0b 3e b4 f7 20 3f
       0.042090334 0.26006803 0.13628606 0.62877965
0000d0 9b e6 1c 3e 1a f4 86 3e b4 17 3d 3e 24 4e a9 3e
       0.15322344 0.2635811 0.18466073 0.3306743
0000e0 b3 c8 1c 3f d5 56 50 3e d7 85 6d 3f c8 53 21 3e
       0.6124374 0.20345624 0.9278235 0.15754616
0000f0 41 cd b2 3d 18 8b 0a 3d 6d 67 08 3e ee 08 11 3f
       0.08730555 0.033824056 0.13320704 0.5665425

module.model.2.model.0.weight f4 [64, 64, 3, 3]
000000 c9 53 de 3c f9 de 6f bd e7 43 10 bd e2 a2 e4 bc
       0.027139561 -0.058562253 -0.035221007 -0.0279097
000010 c1 7c ac bc 48 60 56 bd c0 4d 63 3c 01 19 90 3d
       -0.021055581 -0.052337915 0.0138735175 0.07036019
000020 f7 3f 60 3d 53 f8 84 3d e9 3a 75 bd 36 94 9a bc
       0.0547485 0.064926766 -0.059870634 -0.0188695
000030 45 3f a2 3c ee f2 c2 3c 11 f0 6e 3d ec 04 30 3c
       0.01980556 0.023797479 0.058334414 0.010743361
000040 ce d3 eb 3c 8b c1 e1 bc 97 ce b8 bc 6e f2 1c 3d
       0.02878752 -0.027558109 -0.022559447 0.038317136
000050 25 b3 12 3c 29 9e 06 3d 34 6d 6e bd 5d d3 67 3d
       0.008953844 0.032865677 -0.058209613 0.056598056
000060 5e 28 34 3d a5 76 5e 3d 99 01 5e 3b 63 fd 90 bd
       0.04398381 0.054312367 0.0033875464 -0.0707958
000070 a5 44 91 3d 3f 99 13 3b 4d c0 88 bd f9 3e 88 3d
       0.07093171 0.0022521762 -0.066773035 0.06652636
000080 dc d7 6f 3d fd 5a 7c bd f8 d1 70 3d 52 0d ff 3c
       0.05855547 -0.06161021 0.05879399 0.031134281
000090 47 6c c4 3c e2 4d 2e bd 94 e3 52 bd 60 e7 d6 3c
       0.023977412 -0.042554744 -0.051486567 0.026233375
0000a0 d7 10 42 3d 28 d8 10 bd 07 77 c0 bc a3 30 19 bd
       0.04737934 -0.035362393 -0.023494257 -0.0373999
0000b0 72 d3 6f bd 30 ee 97 3b 2d 5e 4f 3d 48 32 73 3d
       -0.05855126 0.0046365485 0.050626922 0.059374124
0000c0 ae 59 2e 3b 42 77 72 bd ce c4 35 3d 72 a7 ca 3c
       0.0026603746 -0.059195764 0.04437714 0.024738047
0000d0 bc af d7 3c b3 a1 19 3d 61 36 1c 3c ca af 09 bc
       0.026328914 0.037507724 0.009534449 -0.008403728
0000e0 69 2a ee bc 4f 9e 4e bd 1f 0d 43 3d 91 ae 18 3d
       -0.029072957 -0.050443944 0.047619935 0.037275854
0000f0 4f 88 82 3d 92 f6 51 3c ec f7 21 bd bc d4 79 3c
       0.06373655 0.012815135 -0.039543077 0.015248474
000100 3e 4d 0b 39 51 e4 9a 3c 38 16 47 3c 5c 0e 53 bd
       0.00013284848 0.018907698 0.012151293 -0.051527366
000110 5d 1c 29 bd 59 42 2d 3d aa 26 0b 3d 68 d7 6e bd
       -0.041286815 0.042299602 0.03397242 -0.058310896
000120 65 f9 91 3c b7 4a 1b bd 18 15 79 bd ca 53 8f bc
       0.017819116 -0.03791305 -0.060811132 -0.017496008
000130 81 8b 86 bd 8b 46 21 3d b1 d3 57 3d ca 39 34 3d
       -0.06569577 0.039373916 0.05269212 0.044000424
000140 29 82 77 bd 7f 5d 00 bc 12 cb 1f 3d ff 3d 2a 39
       -0.060426865 -0.007834791 0.039012022 0.00016235559
000150 7e 2b 84 bd c2 8f 1c 3c ee 73 12 bc 3e 24 6e 3d
       -0.06453608 0.009555759 -0.008938773 0.058140032
000160 fc 6a 20 bd f2 a5 2a 3d b1 f9 a2 3b 43 34 de bc
       -0.03916453 0.041662164 0.004973613 -0.02712453
000170 b1 0b e1 bc 12 9e c5 bb c8 55 2d 3d 08 fd 32 3d
       -0.027471395 -0.0060308063 0.042318135 0.04369834
000180 7a 82 c8 bc 49 1c 3a bd b2 c1 6a 3d 14 71 5d bd
       -0.024476279 -0.04543713 0.05731363 -0.054062918
000190 c5 21 2f 3c 86 07 58 bd 50 66 d3 bc 26 67 bd bc
       0.010689204 -0.05274155 -0.025805622 -0.023120474
0001a0 a9 1b 45 bd ef 4c 9e bc fd fe 45 3c 55 9a 7a 3d
       -0.048122082 -0.019323794 0.01208472 0.06118234
0001b0 af 02 68 bc 39 5f d6 bc c9 6d eb 3c 50 bc f4 3c
       -0.014160796 -0.026168453 0.028738873 0.02987495
0001c0 16 01 5c bd d0 6b 6c 3b d0 e9 94 bc ba 1e 4e bd
       -0.053711973 0.0036075003 -0.018177897 -0.050322272
0001d0 98 20 1b 39 72 c3 80 3d 40 58 28 bc 18 1c 8f 3c
       0.00014794094 0.06287278 -0.010274947 0.01746945
0001e0 4d ee f2 3c a3 5c 52 bc 5a 68 81 3b 1a d2 b5 3c
       0.029654646 -0.012839469 0.0039492073 0.02219491
0001f0 18 b7 80 3d ad aa dd bc 0d 99 69 3d 4f a9 43 bd
       0.06284922 -0.027058924 0.057030726 -0.047768887
000200 c2 22 2d 3d 4a c4 3c bd 27 84 0d 3d 5d 81 95 3c
       0.042269476 -0.046085633 0.03454986 0.018250162
000210 c5 95 ba 3c af ee 70 bd 12 15 c8 3b 1a 26 61 bd
       0.022776494 -0.058821376 0.0061060274 -0.054967977
000220 a0 70 46 bd 3b 95 6d 3d 6b 88 93 bd 6d e3 d0 bc
       -0.04844725 0.058003645 -0.07203754 -0.02549907
000230 dd c9 f3 bb 4f 62 1a 3d 5b 0b 71 3d 1d e6 1a 3d
       -0.0074398355 0.03769141 0.05884872 0.03781711
000240 09 35 65 bd 68 61 9d 3c 0b e3 1a bd b1 82 5e bd
       -0.05595878 0.019211486 -0.03781418 -0.054323856
000250 5c e1 62 bd 7b 62 67 bd e0 28 05 3c 3c b2 1c bd
       -0.0553907 -0.056490403 0.008127421 -0.038255915
000260 61 40 e1 bc 0e cb ed bc a4 4e 0a 3d cc 16 4f 3c
       -0.027496519 -0.029027488 0.033766404 0.012639713
000270 d5 0b 84 bc 21 eb 66 bd 81 d0 3d 3d 4c 06 14 3d
       -0.016118923 -0.05637658 0.046341423 0.036138818
000280 0e 2a 90 bd de 83 7f 3d e5 a1 60 3d 43 82 38 bd
       -0.07039271 0.062381618 0.054841895 -0.045046102
000290 2a 7e 03 bd af 91 89 3d db a9 d8 3a 60 37 74 bd
       -0.03210274 0.0671724 0.0016530113 -0.059623122
0002a0 30 0c 89 3d b4 aa a2 bc 84 05 52 bd 8c 9a 89 bd
       0.06691778 -0.019856788 -0.05127479 -0.067189306
0002b0 6d fc 23 3d 25 c1 08 3c 78 31 84 3d 0f 09 1d bd
       0.040035654 0.0083468305 0.06454748 -0.038338717
0002c0 03 4d 76 3d 03 d7 53 3d a5 19 63 bd dc f9 38 3d
       0.060132038 0.051718723 -0.05544438 0.04516016
0002d0 9d 38 f6 3c 12 b0 06 3c be f7 09 bd 75 18 86 3d
       0.030056292 0.008220689 -0.03368353 0.065476336
0002e0 58 05 9b 3c d0 82 ba bc 66 f7 d9 3b f9 b0 83 3c
       0.018923447 -0.022767454 0.0066518066 0.016075598
0002f0 1d bc 5c bd cf 49 78 3d ab 11 18 bd 7f 8c ec 3c
       -0.053890336 0.060617264 -0.037126224 0.028875588
000300 bd 46 85 3d f9 67 56 3d 47 cf 99 3a 3a 00 63 3d
       0.06507633 0.05234525 0.0011734747 0.055420138
000310 1b 28 2e 3c d3 8b 55 3c 4d 2a 28 bd df 09 3f 3d
       0.010629679 0.013033825 -0.041055966 0.046640273
000320 c2 45 c5 3c fc 15 ef bc c9 76 7b bd 46 e0 91 bd
       0.024081115 -0.029185288 -0.06139258 -0.07122855
000330 80 09 1f 3d 6f a6 2a 3c 6d ba 80 bd e3 a5 3d ba
       0.03882742 0.010415657 -0.06285558 -0.0007234497
000340 fd 14 32 3a 6c 37 01 3d 5b 37 45 3d 79 52 8d bc
       0.00067932886 0.031546995 0.048148494 -0.01725124
000350 ea 9c 52 bd 96 9e 8a bc 43 0d 92 3d 8b 43 d5 bb
       -0.051419176 -0.016921323 0.07131436 -0.006508296
000360 de dd d4 3c a4 e8 fb bc a9 c3 6f bd 1d c5 82 3d
       0.0259847 -0.03075058 -0.058536205 0.063852526
000370 32 8f 86 3d 95 3c 6f bd c4 90 be bc 49 5f 75 3d
       0.06570281 -0.058407385 -0.023262389 0.059905324
000380 1b ed 13 ba 9e 98 61 bd 48 9a 41 3d b4 7e 6b bd
       -0.00056429364 -0.055077188 0.047266275 -0.05749388
000390 d9 60 7f 3c 5d 4a f0 3c ee aa 63 bc aa b3 82 bd
       0.015587055 0.029332334 -0.013895733 -0.063819245
0003a0 f4 02 60 3d 8c 2f 30 bb da b9 85 3d 24 f7 ed 3c
       0.054690316 -0.002688381 0.06529589 0.02904851
0003b0 f1 96 88 bd 91 66 63 bd 48 48 05 bb d9 cd cf bb
       -0.06669415 -0.055517737 -0.0020337272 -0.0063416776
0003c0 1e a2 db 3c 28 0b 58 3d ac 3d b8 3b 3b 72 a8 bb
       0.026810702 0.052745014 0.0056225862 -0.0051405705
0003d0 7a 8e 60 bd de 64 3d bc b1 24 43 bc 58 c5 7b bd
       -0.054823376 -0.011559693 -0.011910603 -0.0614675
0003e0 2e e5 1b 3d 33 10 0f bd 87 3e fa 3c 35 e1 84 3d
       0.03806036 -0.03492756 0.030547393 0.06488267
0003f0 8f 64 4d bd b7 76 1b 3c 71 73 1b 3d ab 34 57 bd
       -0.05014473 0.009488753 0.03795189 -0.052540462

module.model.2.model.0.bias f4 [64]
000000 d9 af 82 3a 8b 80 84 3a 4d 79 83 3a a5 cc 84 3a
       0.000997062 0.001010911 0.0010030657 0.001013179
000010 4a 37 83 3a 12 93 85 3a 4b 74 85 3a c5 7d 82 3a
       0.0010010984 0.0010190925 0.0010181753 0.0009955695
000020 07 8a 7b 3a 0f cc 83 3a 0a 77 83 3a 15 c8 83 3a
       0.0009595458 0.0010055321 0.0010029983 0.0010054136
000030 ed 0b 7f 3a fd 01 83 3a 5d 4f 84 3a 78 b0 7d 3a
       0.0009729255 0.0009995099 0.0010094453 0.000967748
000040 36 fb 82 3a b5 fa 80 3a 94 71 81 3a 24 81 81 3a
       0.000999308 0.0009840342 0.0009875768 0.0009880406
000050 0d 2b 83 3a 44 bc 82 3a ad a1 81 3a f8 e2 83 3a
       0.0010007337 0.000997432 0.0009890102 0.0010062149
000060 bc 63 84 3a 20 3b 82 3a 79 c6 84 3a 31 99 82 3a
       0.0010100524 0.0009935834 0.001012995 0.0009963867
000070 4a 32 84 3a ef 41 84 3a 85 e7 7e 3a 68 76 80 3a
       0.0010085788 0.001009045 0.000972383 0.0009800913
000080 a5 c7 84 3a 29 47 83 3a 25 e0 7f 3a e0 33 82 3a
       0.00101303 0.0010015714 0.0009760878 0.0009933673
000090 5f 04 84 3a 4b bb 82 3a a6 34 83 3a 72 c2 81 3a
       0.0010072103 0.000997403 0.0010010197 0.0009899868
0000a0 16 4b 84 3a c7 e0 84 3a 5e c6 82 3a 62 42 83 3a
       0.0010093178 0.001013779 0.0009977331 0.001001429
0000b0 be cf 81 3a e1 df 81 3a 18 bd 84 3a ba a6 81 3a
       0.0009903831 0.000990864 0.0010127155 0.0009891607
0000c0 c0 83 82 3a 01 f3 7d 3a f0 6c 83 3a e5 84 82 3a
       0.0009957477 0.00096873945 0.0010026973 0.0009957819
0000d0 6e f7 7c 3a 44 2f 83 3a d1 41 82 3a 3d ff 82 3a
       0.0009649907 0.0010008593 0.0009937828 0.000999428
0000e0 a1 a7 83 3a fc aa 84 3a ef 52 84 3a 01 67 82 3a
       0.0010044464 0.0010121758 0.0010095517 0.000994891
0000f0 95 f6 83 3a 12 0c 84 3a b9 45 83 3a 0e 38 83 3a
       0.0010067994 0.0010074398 0.0010015286 0.0010011212

module.model.2.model.1.weight f4 [64]
000000 91 b4 7f 3f 0a 23 80 3f d2 bc 7f 3f 74 ba 7f 3f
       0.998849 1.0010693 0.9989749 0.9989388
000010 2e c3 7f 3f 12 f3 7f 3f ba a4 7f 3f bb b1 7f 3f
       0.99907196 0.9998027 0.9986073 0.9988057
000020 f3 26 80 3f a6 ea 7f 3f 6c b9 7f 3f c0 bd 7f 3f
       1.0011886 0.9996742 0.99892306 0.9989891
000030 7f 2b 80 3f 5c 15 80 3f c3 d6 7f 3f a1 2a 80 3f
       1.0013274 1.0006518 0.99937075 1.0013009
000040 3a a8 7f 3f 26 2c 80 3f 50 0b 80 3f c8 ee 7f 3f
       0.9986607 1.0013473 1.0003452 0.99973726
000050 09 e2 7f 3f 01 b2 7f 3f d6 0a 80 3f c2 ba 7f 3f
       0.9995428 0.9988099 1.0003307 0.99894345
000060 0e 01 80 3f fa f7 7f 3f d4 20 80 3f f7 04 80 3f
       1.0000322 0.9998776 1.0010018 1.0001515
000070 c5 1b 80 3f c1 c6 7f 3f 39 16 80 3f 56 0b 80 3f
       1.0008475 0.9991265 1.0006782 1.000346
000080 cc d7 7f 3f a5 08 80 3f 51 2a 80 3f 7a 1d 80 3f
       0.99938655 1.0002638 1.0012914 1.0008996
000090 84 c4 7f 3f a3 f1 7f 3f 35 de 7f 3f d3 12 80 3f
       0.99909234 0.99978083 0.99948436 1.0005745
0000a0 2a d4 7f 3f 70 d2 7f 3f b3 12 80 3f 36 af 7f 3f
       0.9993311 0.9993048 1.0005707 0.99876726
0000b0 a5 2d 80 3f e6 ec 7f 3f c3 0d 80 3f be fc 7f 3f
       1.001393 0.99970853 1.00042 0.9999503
0000c0 9f ae 7f 3f e8 c2 7f 3f 53 e0 7f 3f 0f 09 80 3f
       0.99875826 0.9990678 0.99951667 1.0002764
0000d0 ab 1f 80 3f aa c7 7f 3f 9d 1f 80 3f 39 28 80 3f
       1.0009664 0.9991404 1.0009648 1.0012275
0000e0 49 20 80 3f 9d 1d 80 3f e7 cb 7f 3f 06 20 80 3f
       1.0009853 1.0009037 0.99920505 1.0009773
0000f0 b0 f9 7f 3f e6 1f 80 3f 55 1d 80 3f 0c 07 80 3f
       0.9999037 1.0009735 1.0008951 1.000215

module.model.2.model.1.bias f4 [64]
000000 be 17 93 ba 0c 79 29 3a ca aa 32 ba 32 d2 73 ba
       -0.0011222286 0.0006464876 -0.00068156107 -0.0009301036
000010 01 6a e8 39 a3 6c 17 ba b7 2f aa ba 63 87 9c ba
       0.00044329467 -0.0005776381 -0.0012984191 -0.0011942204
000020 08 ea 92 3a b6 f8 a5 b9 47 b2 77 ba ee 33 81 ba
       0.0011208663 -0.00031656557 -0.00094488676 -0.0009857395
000030 a1 68 a1 3a 11 05 93 b9 c3 30 08 b7 c8 42 a5 3a
       0.0012314507 -0.000280418 -8.117585e-06 0.0012608403
000040 8d ec 9e ba 6b 85 bb 3a 2a 5b 3c 3a 02 69 0c 37
       -0.0012124941 0.001430673 0.00071852154 8.369099e-06
000050 1d 73 a3 b9 ab 90 87 ba 0a c2 2a 38 36 7b 28 ba
       -0.0003117555 -0.0010342797 4.071187e-05 -0.0006427051
000060 e1 09 f8 39 6c 00 cb b9 96 d2 36 3a 7d 37 bf 39
       0.00047309606 -0.00038719492 0.0006974129 0.000364717
000070 a6 cb 57 39 54 f4 2b ba 06 81 ee 39 81 ba 3b 39
       0.00020579863 -0.000655954 0.00045491027 0.00017903188
000080 c3 b7 06 ba 30 bb 94 ba 4d 83 97 3a a2 ea 7f 3a
       -0.0005139077 -0.001134729 0.0011559516 0.0009762441
000090 a9 b3 49 ba d3 b8 a2 39 1f ba 9a ba c3 4c 02 3a
       -0.0007694313 0.00031036753 -0.0011804736 0.0004970545
0000a0 22 43 25 ba 9f 42 43 ba b3 86 08 3a cb 43 96 ba
       -0.0006304254 -0.0007448587 0.000520806 -0.0011464296
0000b0 44 87 b8 3a f0 6e 44 38 c3 f3 21 b9 ba c2 14 ba
       0.0014078398 4.683336e-05 -0.00015444965 -0.00056747685
0000c0 f7 17 fd b9 89 36 66 ba 3b 5b a7 b8 58 e1 8f 39
       -0.00048273776 -0.000878193 -7.9801735e-05 0.0002744298
0000d0 4a ab 0e ba 40 f0 34 ba 9d b6 5a 3a eb 54 90 3a
       -0.0005442394 -0.0006902255 0.00083432515 0.0011011636
0000e0 16 48 92 3a a4 53 29 3a 46 de 27 ba 1f 20 35 3a
       0.0011160399 0.0006459302 -0.0006403666 0.00069093885
0000f0 d2 e6 03 ba 1a a4 7b 3a 02 0b b7 b9 13 6f fb b8
       -0.00050316483 0.0009599343 -0.0003491268 -0.00011989302

module.model.2.model.1.running_mean f4 [64]
000000 eb 9c ce 3e 4e b2 de 3e 9c e8 0b 3d b8 16 68 3d
       0.40354094 0.4349541 0.03415738 0.05666229
000010 3c 53 8e be 8f f2 f4 be b5 ab 1d be 80 64 00 3f
       -0.27797878 -0.47841308 -0.15397532 0.5015335
000020 2d cb de be e2 d1 10 be e6 28 0b bf 94 49 e8 3d
       -0.43514386 -0.14142564 -0.5435928 0.11342159
000030 b4 4e ed bd ce de e0 3d 11 f4 6e be 50 d9 29 bf
       -0.11587277 0.109799966 -0.23335291 -0.6634722
000040 a0 a8 10 3e c2 3c fa bd b9 c4 63 3e cd 4a d6 3e
       0.14126825 -0.1221862 0.22243012 0.41853943
000050 d2 ce eb be db 8d e9 bd 0e e6 a7 3d a0 3b 07 3f
       -0.4605623 -0.1140401 0.08198176 0.52825356
000060 a4 87 d4 3d 3d 8e 53 be aa 6c 8d 3e 11 58 54 be
       0.10377434 -0.20659728 0.27621967 -0.2073672
000070 da 3f 86 3e c4 85 c9 3e 58 af cf 3e 99 28 ca 3e
       0.2622059 0.39359868 0.40563464 0.394841
000080 bc 07 30 3e 38 a5 f3 3e f6 ce 2c bf 2c b3 2e 3d
       0.1719045 0.4758699 -0.675033 0.04265134
000090 1d 6b a7 3e d2 78 87 bc 43 ef d5 bd 27 d6 ba 3e
       0.32698908 -0.016537104 -0.10446026 0.3649151
0000a0 08 44 04 3e 6f 19 83 be c6 7c 02 bf 0d f0 46 3e
       0.12916577 -0.25605342 -0.5097164 0.1942751
0000b0 eb b3 ff be c5 90 64 3d 88 ea 28 3e 88 04 6a 3e
       -0.49941954 0.055802125 0.16495717 0.22853291
0000c0 19 2a 4b 3d 73 0d 0b be 1e e5 3e bf 94 86 8d bd
       0.049600694 -0.13579349 -0.74568355 -0.06910434
0000d0 88 f0 b7 be 3d 39 b7 3d 2b a5 27 3f c9 99 9b bc
       -0.35925698 0.08946464 0.654864 -0.018994229
0000e0 dd 02 59 3d b2 8a 37 3f 96 a7 61 3e cd b5 16 bd
       0.052981246 0.7169601 0.22036585 -0.036794472
0000f0 02 f8 bb be 98 79 af 3e d5 fc 95 be e7 67 19 be
       -0.36712652 0.34272456 -0.29294458 -0.14981042
