output_gd_denoise/ckpt/resnet_epoch37.pth (torch, 641699 bytes, 31 tensors)

module.model.0.weight f4 [64, 1, 1, 1]
0	0xbe972a80	-0.29524612
1	0xbe3f893e	-0.18704697
2	0xbce37be9	-0.027769046
3	0x3e881374	0.26577342
4	0x3e801637	0.2501695
5	0x3e2a236c	0.16615075
6	0xbe9355ca	-0.2877639
7	0x3e1c272f	0.15249322
8	0xbe177033	-0.14788894
9	0x3dcbc0db	0.09948894
10	0xbe56ad17	-0.20964466
11	0xbe1e5000	-0.15460205
12	0x3e86c539	0.26322344
13	0xbb802193	-0.0039102524
14	0x3be3d515	0.0069528916
15	0xbe89c422	-0.2690745
16	0x3da590ff	0.080842964
17	0xbdb7b7be	-0.08970593
18	0x3e3698e7	0.17831765
19	0x3dd02a52	0.10164322
20	0xbc8c2303	-0.017106539
21	0x3e718a79	0.2358798
22	0xbc88c9db	-0.016697815
23	0x3e874bc3	0.2642499
24	0x3d6e7802	0.058219917
25	0x3e3f7066	0.1869522
26	0xba8aafdd	-0.0010580976
27	0xbe2d8f20	-0.16949129
28	0x3d57caef	0.052683767
29	0xba99327d	-0.001168802
30	0xbe5d1190	-0.21588731
31	0xbe8d7cb8	-0.27634215
32	0xbe197e8e	-0.14989683
33	0xbe37379b	-0.17892306
34	0xbe026036	-0.12732014
35	0x3d905bc3	0.07048752
36	0xbe98085f	-0.29693887
37	0xbe1ccc77	-0.15312372
38	0x3e064fc3	0.13116364
39	0xbe67e160	-0.22644567
40	0x3decbf59	0.11559934
41	0x3d155402	0.03645707
42	0xbe9af3b9	-0.3026407
43	0x3e71782e	0.23581001
44	0x3d0f4ef4	0.034987405
45	0xbe1efe55	-0.15526707
46	0xbdb541f8	-0.08850473
47	0xbe854360	-0.26027966
48	0x3dc10389	0.094245024
49	0x3d6b49c5	0.0574434
50	0x3dcfce6c	0.10146794
51	0x3d8c53ac	0.06851897
52	0x3e7e79ee	0.248512
53	0x3e2d6ce6	0.16936073
54	0xbd71899a	-0.058969118
55	0xbe45ce5f	-0.19317006
56	0x3e1d79f9	0.1537856
57	0x3db49f23	0.088194154
58	0x3e343d6e	0.17601559
59	0x3e0761b9	0.13220872
60	0xbe6b269f	-0.22963952
61	0x3b6dbac1	0.0036274644
62	0x3e01557a	0.12630263
63	0xbcc2bfce	-0.0237731

module.model.0.bias f4 [64]
0	0xbaa7e9ba	-0.0012810745
1	0xba4b6acd	-0.000775975
2	0x3a1f949b	0.00060875126
3	0xbadeb781	-0.0016991944
4	0x39a85840	0.00032109208
5	0x3a259b2a	0.0006317372
6	0xba4897df	-0.0007652025
7	0x3acc3046	0.0015578351
8	0xba05e1c9	-0.0005107192
9	0x3ab825e6	0.001404938
10	0x3b62acce	0.0034587863
11	0x3b2711fc	0.0025492897
12	0x3b37f74a	0.002807098
13	0x39e3189a	0.00043315144
14	0x3b5d1070	0.0033731721
15	0xbabb2cc3	-0.0014280308
16	0xbade5132	-0.0016961454
17	0xb9acaf6a	-0.0003293709
18	0x3ad8fa45	0.0016554078
19	0x39b75c2c	0.00034973153
20	0xba9cccaa	-0.001196285
21	0x3b29a0fe	0.0025883312
22	0x3b555440	0.0032551438
23	0xbad17a78	-0.0015981933
24	0x3acd8576	0.0015680033
25	0x3b45ec33	0.00302006
26	0x3b23ee00	0.0025013685
27	0x3a9016e3	0.0010993149
28	0x3afc5b9b	0.0019253375
29	0x3b6caa8d	0.0036112398
30	0xba033c1f	-0.0005006212
31	0x3ab5000e	0.001380922
32	0x3a06720d	0.0005128689
33	0x3a457afa	0.00075332785
34	0x3b404cfc	0.0029342761
35	0x3a46d9b7	0.00075855426
36	0xbac919bf	-0.0015342756
37	0x3a2aaa2b	0.00065103424
38	0x3a05afd2	0.00050997466
39	0x3b2d7d63	0.0026472441
40	0xbac2cc21	-0.001486186
41	0x3b0f604a	0.002187746
42	0x3b625178	0.0034533422
43	0x3b64fb76	0.0034939921
44	0x3b5ea8c8	0.0033975113
45	0x3b3a13e1	0.0028393196
46	0x3a69c237	0.0008917185
47	0x3b5b2b38	0.0033442508
48	0xba575076	-0.0008213589
49	0x3b58a655	0.0033058126
50	0x3b5347b9	0.0032238795
51	0x3a0fbc8d	0.00054831133
52	0xba383e2c	-0.00070283073
53	0xbae4a4f7	-0.0017444183
54	0x3adbbca8	0.0016764598
55	0x3b0812bf	0.0020763127
56	0x3b22732f	0.0024787893
57	0x3b1fc9f3	0.0024381846
58	0xbac09b91	-0.00146948
59	0x3b289939	0.0025726093
60	0x3b5b61c9	0.0033475033
61	0x3b66913f	0.0035181788
62	0xb91d9c41	-0.00015030896
63	0x3a512b7d	0.00079791975

module.model.1.model.0.weight f4 [64, 64, 3, 3]
0	0xbce21e2c	-0.027602278
1	0x3cf9b700	0.030482769
2	0xbd3ec3ee	-0.04657357
3	0x3d951c74	0.07280818
4	0x3d094946	0.033517145
5	0xbd7938b1	-0.06084508
6	0xbd8f1be1	-0.06987739
7	0x3c300732	0.010743903
8	0xbd28c7dd	-0.04120623
9	0x3cca5a4e	0.024701264
10	0xbd763833	-0.06011219
11	0x3d81ef88	0.06344515
12	0x3d23db86	0.040004276
13	0xbd71c22d	-0.05902307
14	0xbd71beb4	-0.05901976
15	0xbd2dc261	-0.042421702
16	0x3d8ba7bf	0.068191044
17	0x3d9098b0	0.07060373
18	0xbd65f691	-0.056143347
19	0xbced6914	-0.02898077
20	0x3c8c6023	0.017135685
21	0xbd3aafea	-0.04557792
22	0x3cdcd844	0.026958592
23	0xbb36147d	-0.0027783208
24	0x3d3c80f2	0.04602141
25	0x3d96b1d9	0.073581405
26	0x3c0dfc3d	0.008666095
27	0x3cdf76ab	0.027278265
28	0xbd62cb7e	-0.055369847
29	0x3cdfac4a	0.027303834
30	0x3c21aa54	0.00986727
31	0x3c4bb189	0.012432464
32	0xbd046b9e	-0.032329194
33	0xbd4cede9	-0.050031576
34	0x3ca42685	0.020037899
35	0x3d3fe74f	0.046851452
36	0x3c2e3a57	0.0106340265
37	0x3c86e0f0	0.01646468
38	0xbc6a0927	-0.014284409
39	0xbc1e97ca	-0.009679744
40	0x3d8bd706	0.06828122
41	0xbd81c31b	-0.063360415
42	0x3d867892	0.06565966
43	0x3b647fca	0.0034866207
44	0xbd8c9e13	-0.06866088
45	0x3c26af85	0.010173683
46	0xbd5df4db	-0.05418859
47	0x3ab60ff2	0.001389025
48	0x3d1eb933	0.03875084
49	0x3cfca8e6	0.030842256
50	0xbc80a35f	-0.015702901
51	0xbc84b934	-0.016201593
52	0xbb8ca02b	-0.0042915544
53	0xbcaea15e	-0.02131718
54	0x3d66bd79	0.05633304
55	0x3d4b7ed1	0.04968149
56	0x3c9dbdf2	0.019255612
57	0x3d4572ff	0.048205372
58	0x3c384256	0.0112462845
59	0xbd87e9a2	-0.06636359
60	0xb9c04dab	-0.0003667896
61	0x3cbeb26a	0.023278434
62	0xbbe59867	-0.007006693
63	0xbd65f8c8	-0.05614546
64	0xbd165940	-0.03670621
65	0x3d8d3e88	0.068966925
66	0x3d0503d9	0.032474373
67	0xbd7920c3	-0.06082226
68	0x3ce2562f	0.027628986
69	0x3b03a59a	0.002008772
70	0xbd4fda19	-0.050745104
71	0x3d78513b	0.060624342
72	0x3d116c63	0.035503756
73	0xbd7288ee	-0.059212618
74	0x3d804099	0.06262321
75	0xbbdd7c61	-0.006759212
76	0x3a4e0ce1	0.00078601955
77	0x3b8cda16	0.004298459
78	0x3cd846f9	0.02640103
79	0xbb3143e2	-0.0027048518
80	0xbcc060f2	-0.023483727
81	0x3c37474d	0.011186433
82	0xbd21fecc	-0.039549634
83	0xbd797316	-0.06090077
84	0xbd584006	-0.052795433
85	0x3d0d3778	0.034476727
86	0xbd0358ec	-0.032067224
87	0x3d90a865	0.07063369
88	0x3d0b14c3	0.033955347
89	0xbd856bd2	-0.06514706
90	0x3c60013a	0.013672167
91	0xbd81a518	-0.06330317
92	0xbd71c2dd	-0.059023727
93	0x3d95cf95	0.07314984
94	0xbd447a5b	-0.04796825
95	0xbcec61b1	-0.028855177
96	0x3d26a418	0.040683836
97	0xbd247c4f	-0.040157612
98	0xbcbc7951	-0.023007067
99	0x3d50ad4e	0.050946526
100	0x3c732561	0.014840455
101	0xbca311d3	-0.01990596
102	0xbd3b0c64	-0.045666113
103	0xbd07a857	-0.033119526
104	0xbc22b73d	-0.009931383
105	0xbcbb9715	-0.02289919
106	0x3d81c9c6	0.06337313
107	0xbc15444c	-0.0091105215
108	0xbd198080	-0.037476063
109	0x3c2430c4	0.010021392
110	0x3d1157e6	0.035484217
111	0xbc85353e	-0.01626074
112	0xbcd72714	-0.026263751
113	0xbb43a8cb	-0.0029855247
114	0xbd8951f4	-0.067050844
115	0xbceceef1	-0.02892253
116	0x3beb5dd3	0.0071828156
117	0x3d511273	0.051042985
118	0xbc8cb60e	-0.017176654
119	0xbacc3733	-0.0015580415
120	0x3cee4a0f	0.029088048
121	0xbd22b763	-0.039725672
122	0x3c31b927	0.010847366
123	0xbca41280	-0.020028353
124	0x3cca1c2d	0.024671638
125	0x3d2560f1	0.040375654
126	0x3d75d8e2	0.06002129
127	0x3cb3b18d	0.021935249
128	0xbd446299	-0.047945593
129	0x3b2c3f17	0.0026282722
130	0x3c59fcff	0.013304948
131	0x3cc0757d	0.023493523
132	0xbd7285bd	-0.059209574
133	0x3d3887ce	0.04505139
134	0x3d483717	0.048880663
135	0xbb59b85e	-0.0033221464
136	0xbd89aefa	-0.06722827
137	0xbd667342	-0.056262262
138	0xbd354839	-0.04425833
139	0xbd80ae1f	-0.06283211
140	0x3d14b090	0.036301196
141	0xbd64ab9e	-0.05582773
142	0xbc9be138	-0.019028291
143	0xbcacd23f	-0.021096347
144	0xbd03f8fc	-0.032219872
145	0x3d37820f	0.044801768
146	0x3d7d8104	0.061890617
147	0xbd526508	-0.051365882
148	0x3cc06923	0.023487633
149	0xbd0b51a7	-0.034013417
150	0xbc5b9dd0	-0.013404325
151	0x3d0b87eb	0.03406517
152	0xbcb3f4dd	-0.021967346
153	0xbd64076e	-0.055671148
154	0xbc511277	-0.01276075
155	0x3a69f59a	0.0008924842
156	0x3be7d877	0.007075365
157	0x3d8b2618	0.06794375
158	0xbd51a21a	-0.051179983
159	0xbcc4fab7	-0.024045331
160	0x3d426ed9	0.047468994
161	0xbced0c0a	-0.028936405
162	0x3d5b0db6	0.053479873
163	0xbbfc54ae	-0.0077005243
164	0x3d061601	0.03273583
165	0xbd951630	-0.072796226
166	0x3d85bccb	0.0653015
167	0xbb3095c5	-0.0026944738
168	0xbd0fa870	-0.035072744
169	0x3d43222d	0.047640014
170	0x3d4c7f49	0.049926076
171	0x3c1c21ca	0.00952954
172	0xbab48bdd	-0.0013774593
173	0xbb20e99b	-0.0024553302
174	0xbd23359b	-0.039846044
175	0x3d7dd3df	0.061969634
176	0xbd4bc522	-0.049748547
177	0xbd7e64d1	-0.062107865
178	0xbc4f10ad	-0.012638253
179	0xbce70782	-0.028201822
180	0x3beb88bb	0.0071879304
181	0xbd793cd6	-0.060849033
182	0x3ccc68ad	0.024952257
183	0x3d815963	0.06315877
184	0x3cef2376	0.029191714
185	0x3d944747	0.072401576
186	0x3d810b21	0.06300951
187	0x3d182216	0.037141882
188	0x3c99b1cf	0.018761544
189	0x3cab2316	0.020890754
190	0x3d550100	0.052002907
191	0xbd00b049	-0.03141812
192	0xbd0b0976	-0.03394457
193	0xbd299823	-0.041404855
194	0xbd8af1f3	-0.067844294
195	0x3c3eba93	0.011641162
196	0xbd8cfa73	-0.06883707
197	0x3c3388cd	0.010957909
198	0x3d761a33	0.06008358
199	0xbce92506	-0.028460037
200	0xbcbbebdf	-0.02293962
201	0x3c7b2e80	0.015330911
202	0xbc455c79	-0.012045973
203	0xbd809195	-0.062777676
204	0x3d5cce5d	0.05390774
205	0xbd30cd62	-0.04316462
206	0xbc61df35	-0.013786127
207	0xbd08a032	-0.0333559
208	0x3d1657ed	0.036704946
209	0x3cd8a910	0.026447803
210	0x3bd81056	0.0065937443
211	0x3d449125	0.047989983
212	0xbd4703e2	-0.048587687
213	0x3d0d87bb	0.03455327
214	0x3d5240ab	0.051331203
215	0x3d33c675	0.043890435
216	0xbcfbeeb4	-0.030753471
217	0xbc8d840a	-0.017274875
218	0x3c70eaca	0.014704416
219	0x3bddd080	0.00676924
220	0xbd1b4bcb	-0.03791408
221	0xbd845e4c	-0.06463298
222	0x3c18d788	0.00932873
223	0xbd8d16da	-0.06889124
224	0xbcf3dfe9	-0.029769855
225	0xbc18caec	-0.009325724
226	0xba14b56b	-0.00056727853
227	0x3cfff64e	0.031245377
228	0x3b8c2609	0.004276995
229	0xbd5bca43	-0.05365969
230	0x3d2db30c	0.04240708
231	0xbcd4127c	-0.02588772
232	0xbd53bf51	-0.051696125
233	0xbd4f83c9	-0.05066279
234	0xbc8a8590	-0.01690939
235	0xbcff93f4	-0.03119848
236	0xbc555bb3	-0.013022351
237	0xbbb9f895	-0.0056753852
238	0xbd621567	-0.055196192
239	0x3d0b7a41	0.034052137
240	0xbd7e4ca1	-0.062084798
241	0x3cb47e9b	0.022033026
242	0x3d00709a	0.031357385
243	0xbc0ed650	-0.008718088
244	0xbc1a1481	-0.009404303
245	0xbce40e26	-0.027838778
246	0x3c91ca6f	0.017796723
247	0xbcf1876a	-0.029483516
248	0x3cd175b8	0.025568828
249	0xbd5717e2	-0.05251301
250	0xbcfb7ff4	-0.030700661
251	0x3d4b66e8	0.049658686
252	0xbd1937a0	-0.037406564
253	0x3d6f12c4	0.058367506
254	0xbd3a8d4e	-0.045544915
255	0xbcc35ead	-0.023848856

module.model.1.model.0.bias f4 [64]
0	0x3ab511c4	0.0013814499
1	0x3a3bddcd	0.0007166535
2	0x3aa6e519	0.0012733071
3	0x3a5aefcc	0.00083517726
4	0x39b980a8	0.00035381806
5	0x3abf2999	0.0014584541
6	0x3a949f7a	0.0011339032
7	0x3a865d94	0.0010251277
8	0x3a687f30	0.000886905
9	0x3ab4710a	0.0013766598
10	0x3a0cc9f9	0.00053706724
11	0x3a7dba6d	0.00096789637
12	0x3aa94bc8	0.0012916261
13	0x3a88fd88	0.0010451535
14	0x3a87de9d	0.0010366027
15	0x3a743f15	0.0009317261
16	0x3aa2b8d6	0.0012414705
17	0x3a9710a0	0.001152534
18	0x3aa7a93d	0.0012791526
19	0x3aa5c8c9	0.001264834
20	0x3a9b27b2	0.0011837392
21	0x3a84324a	0.0010085788
22	0x3aa14bb5	0.0012305888
23	0x3a3e377f	0.00072561944
24	0x3aac1ec4	0.0013131727
25	0x39c9aee7	0.0003846802
26	0x3a635417	0.0008671893
27	0x3aa33cc8	0.0012454027
28	0x3a8acd4f	0.0010589751
29	0x3a723ab6	0.0009240316
30	0x3a9f977a	0.0012175881
31	0x3a5df6c8	0.0008467254
32	0x39b2434c	0.00034000946
33	0x3a5b0c22	0.0008355995
34	0x3a898ca5	0.0010494186
35	0x3a7b09c9	0.0009576348
36	0x3aaae218	0.0013037352
37	0x3a21bd48	0.00061698677
38	0x3a8ab408	0.0010582218
39	0x3aa2020c	0.0012360229
40	0x3a517c05	0.00079911976
41	0x3aaaef5e	0.0013041308
42	0x3a337413	0.00068456045
43	0x3a82e9c3	0.0009987879
44	0x3a917f27	0.0011100516
45	0x3a946afc	0.0011323388
46	0x3a54d5e9	0.00081190333
47	0x3a576848	0.0008217138
48	0x3a4165e1	0.0007377547
49	0x3ad18882	0.0015986117
50	0x3ae988b6	0.0017817232
51	0x3a9677f3	0.001147984
52	0x3a05a54e	0.00050981797
53	0x3a3a82bb	0.0007114817
54	0x3a99814d	0.0011711508
55	0x3ac57efc	0.0015067752
56	0x3ac9df38	0.0015401607
57	0x3a466a4e	0.0007568941
58	0x3ab32e47	0.0013670408
59	0x3a83cba2	0.0010055194
60	0x3a84291b	0.0010083051
61	0x3aa10848	0.0012285793
62	0x3a487c80	0.00076479465
63	0x39aa27d2	0.00032454595

module.model.1.model.1.weight f4 [64]
0	0x3f7fd35a	0.9993187
1	0x3f802fb9	1.0014564
2	0x3f7f8875	0.9981759
3	0x3f802bfa	1.001342
4	0x3f804b25	1.0022932
5	0x3f7fd9f2	0.99941933
6	0x3f8048a7	1.0022172
7	0x3f8058aa	1.0027058
8	0x3f80224a	1.0010464
9	0x3f7fa2d1	0.99857813
10	0x3f7f7593	0.9978878
11	0x3f802eca	1.0014279
12	0x3f7fe779	0.99962574
13	0x3f7f8b62	0.99822056
14	0x3f7f4edb	0.997297
15	0x3f801762	1.0007136
16	0x3f7fb5d8	0.99886847
17	0x3f7f8353	0.9980976
18	0x3f8009bc	1.0002971
19	0x3f801984	1.0007787
20	0x3f7f6ff6	0.99780214
21	0x3f7faceb	0.99873227
22	0x3f7fc3ce	0.9990815
23	0x3f7f901a	0.99829257
24	0x3f7fa879	0.99866444
25	0x3f7fd584	0.99935174
26	0x3f803fd1	1.0019475
27	0x3f801eaa	1.0009358
28	0x3f803d50	1.0018711
29	0x3f7f5b77	0.9974894
30	0x3f7fad34	0.9987366
31	0x3f804a55	1.0022684
32	0x3f805d52	1.0028479
33	0x3f7f7e11	0.9980174
34	0x3f803f14	1.001925
35	0x3f7fc24c	0.9990585
36	0x3f8051f5	1.0025011
37	0x3f7ff7a2	0.9998723
38	0x3f803c72	1.0018446
39	0x3f7f9686	0.99839056
40	0x3f800467	1.0001343
41	0x3f7f99cc	0.9984405
42	0x3f802eb1	1.0014249
43	0x3f7f4c55	0.9972585
44	0x3f803ca3	1.0018505
45	0x3f7f61ac	0.9975841
46	0x3f803380	1.0015717
47	0x3f803af2	1.0017989
48	0x3f8034ff	1.0016173
49	0x3f803b96	1.0018184
50	0x3f7fe93a	0.9996525
51	0x3f802477	1.0011128
52	0x3f7facb5	0.99872905
53	0x3f802f5c	1.0014453
54	0x3f806713	1.0031456
55	0x3f7fe7bf	0.9996299
56	0x3f7f7ba9	0.99798065
57	0x3f80170f	1.0007037
58	0x3f7f8534	0.99812627
59	0x3f7fc583	0.99910754
60	0x3f8028da	1.0012467
61	0x3f7fdba1	0.999445
62	0x3f7fdd6b	0.9994723
63	0x3f804198	1.0020018

module.model.1.model.1.bias f4 [64]
0	0xbad37d30	-0.0016135331
1	0x393b787c	0.00017878594
2	0xbac7f2b0	-0.0015254822
3	0x3ad814ac	0.0016485653
4	0xba1380c8	-0.0005626795
5	0xba8cbdf8	-0.0010737767
6	0x3aa05cfc	0.0012234743
7	0x3b0e51aa	0.0021716156
8	0x3b0f894b	0.0021901901
9	0x3aef361d	0.001825038
10	0xbb011569	-0.00196966
11	0x3a7d3b57	0.00096600264
12	0xbb0471bc	-0.0020209393
13	0xba87040e	-0.0010300891
14	0xb9dd7165	-0.0004223689
15	0x3adf251a	0.0017024607
16	0x39264937	0.00015858268
17	0xbaf6e29a	-0.0018835843
18	0x3a8c8324	0.0010720235
19	0x37ae50a3	2.0779966e-05
20	0xba93fc1e	-0.0011290347
21	0xb9e52f22	-0.000437134
22	0xbb2b7466	-0.0026161908
23	0xba86deac	-0.001028975
24	0xbb0ebccc	-0.0021780012
25	0xb8df2b07	-0.00010641483
26	0x3b1e7d2b	0.0024183493
27	0x3a3babe7	0.00071590993
28	0xba694308	-0.0008898233
29	0xbb3dc194	-0.0028954493
30	0xba9e0821	-0.0012056866
31	0x3b4382a6	0.0029832511
32	0x3a54d264	0.0008118509
33	0xbaa981f8	-0.001293241
34	0xbac54d2d	-0.0015052907
35	0x39cb136f	0.00038733656
36	0x3b34183f	0.0027480272
37	0x39b3f292	0.0003432227
38	0x3aa017a5	0.0012214078
39	0xb9bfe68d	-0.00036602133
40	0xba351293	-0.000690737
41	0xbae1e5c5	-0.0017234614
42	0xb922c873	-0.00015524197
43	0xba2fb2fa	-0.000670239
44	0xba5ce222	-0.00084260304
45	0xbaa31fd8	-0.0012445403
46	0x3b2c65e6	0.0026305853
47	0x3afacaeb	0.0019133961
48	0xbaaee9ac	-0.0013344786
49	0xbabb91be	-0.0014310402
50	0xbb0d03cb	-0.0021517153
51	0x3aa63f51	0.0012683665
52	0x3a8269e5	0.0009949772
53	0x3af0b234	0.0018363656
54	0x3b11f15f	0.0022269113
55	0xb986d885	-0.0002571979
56	0xba9fdd58	-0.0012196703
57	0x3aadba09	0.0013254295
58	0x3a8ab81a	0.0010583431
59	0xbb1b8891	-0.0023732523
60	0xbb156335	-0.0022794728
61	0xbaba0d95	-0.0014194722
62	0xba95e550	-0.0011436138
63	0x3a423dff	0.0007409751

module.model.1.model.1.running_mean f4 [64]
0	0x3a249854	0.0006278802
1	0x399a3f0f	0.0002942015
2	0x3bb9e71c	0.0056733023
3	0x3ba4c72c	0.005028626
4	0xba796d18	-0.00095148524
5	0x3aea8411	0.0017892142
6	0x39fb2c49	0.00047907446
7	0xb95ed2ea	-0.00021250141
8	0x3b4a3d57	0.0030859315
9	0xb9eda143	-0.00045324312
10	0x3b14335c	0.002261362
11	0x3a8377bd	0.0010030192
12	0x3b81b716	0.003958593
13	0x3bb1304c	0.0054073688
14	0x3b09c601	0.002102256
15	0x3a0970b7	0.0005242931
16	0x3b1972d5	0.0023414392
17	0xba1f4114	-0.0006075066
18	0x3ac003a0	0.0014649518
19	0x3affe7f3	0.0019524082
20	0x3a2fdaf2	0.00067083456
21	0x3ad4ab41	0.0016225354
22	0xb9bc858f	-0.00035957663
23	0x3a9e6ab6	0.0012086246
24	0x3a9ac81f	0.0011808908
25	0xbb1fe99b	-0.0024400714
26	0x3aad418b	0.0013218386
27	0x39b808cf	0.00035101778
28	0x3b7fae73	0.0039013892
29	0x3a68571a	0.0008863077
30	0xba777468	-0.0009439648
31	0x3b1c1065	0.0023813483
32	0xbb15487c	-0.00227788
33	0x3b342194	0.0027485834
34	0x3b696471	0.0035612846
35	0x3ae17b40	0.0017202869
36	0x3b714260	0.0036813244
37	0x39ea8bac	0.00044736022
38	0x3ad2d20e	0.001608433
39	0x3b525ad9	0.0032097606
40	0x3b4669d1	0.0030275474
41	0x3b13d71c	0.0022558635
42	0xb9d75690	-0.0004107249
43	0x3ab47ed4	0.0013770708
44	0x3a00c04f	0.0004911469
45	0x3a12ad51	0.0005595284
46	0x3b3f53be	0.0029194201
47	0x3a4d86a8	0.0007840195
48	0xbb24468e	-0.0025066468
49	0xbad24988	-0.0016043643
50	0x3af8ace5	0.0018972425
51	0xbaad7a0e	-0.0013235228
52	0x3ba92f22	0.0051630894
53	0xbb0383a2	-0.0020067473
54	0xbb1b641a	-0.0023710788
55	0xb976e13b	-0.00023544293
56	0x3b5a650d	0.003332439
57	0x3a865f3d	0.0010251772
58	0x3b858b30	0.0040754303
59	0x3b197810	0.002341751
60	0xbb59f297	-0.0033256167
61	0x3aa57029	0.0012621927
62	0xb9e3e1c9	-0.00043465037
63	0xbb2bc4e5	-0.0026209888

module.model.1.model.1.running_var f4 [64]
0	0x3887a68c	6.4683234e-05
1	0x3a3cae78	0.0007197629
2	0x3b0bf790	0.0021357276
3	0x39a532f1	0.00031509207
4	0x39fc7940	0.00048155524
5	0x39989cca	0.00029108516
6	0x399c1fec	0.00029778422
7	0x3a22b9f6	0.000620752
8	0x3980fc94	0.00024602248
9	0x394a2778	0.00019278924
10	0x37f38955	2.9031808e-05
11	0x39c6f521	0.00037948138
12	0x394cff12	0.00019549977
13	0x3950aa14	0.00019899785
14	0x39195d60	0.00014626002
15	0x3a89bcec	0.0010508574
16	0x3a381dda	0.0007023491
17	0x3a172af0	0.0005766591
18	0x3a79370c	0.0009506799
19	0x3732af73	1.0650477e-05
20	0x391f71c3	0.00015205801
21	0x38cb5e02	9.6973046e-05
22	0x37928bdb	1.7469682e-05
23	0x39b35820	0.000342072
24	0x39d05cc6	0.00039741973
25	0x3a44b62f	0.0007503954
26	0x38daf744	0.00010441107
27	0x3a7e196f	0.0009693121
28	0x39c45b4b	0.00037452052
29	0x3954aff9	0.0002028345
30	0x38cce0be	9.7693395e-05
31	0x3aac9f73	0.0013170078
32	0x39981aa3	0.00029011545
33	0x371fddf4	9.528816e-06
34	0x382c3271	4.1054973e-05
35	0x390a13f1	0.00013168134
36	0x398f6245	0.00027348302
37	0x37f00836	2.8614053e-05
38	0x3838b5d6	4.4038366e-05
39	0x3981b81b	0.00024741967
40	0x3abbb9fa	0.0014322393
41	0x38175b86	3.6086443e-05
42	0x3957422a	0.00020528646
43	0x39002c3f	0.00012223514
44	0x3788b372	1.6296024e-05
45	0x3ab53368	0.0013824524
46	0x3a49a149	0.0007691575
47	0x3a89cec5	0.0010513893
48	0x38974635	7.213318e-05
49	0x38c6a6fe	9.4724805e-05
50	0x3a061613	0.00051149837
51	0x39a89525	0.00032154578
52	0x3864dbd6	5.4564174e-05
53	0x3971f3d7	0.00023074388
54	0x3938810b	0.0001759568
55	0x38014153	3.0816835e-05
56	0x39127e9c	0.0001397081
57	0x39eab37f	0.00044765693
58	0x39b96fdf	0.000353693
59	0x3a1925eb	0.0005842137
60	0x3a3f2fbd	0.00072931853
61	0x398ad615	0.00026480915
62	0x39401753	0.00018319236
63	0x398e77d4	0.0002717363

module.model.1.model.3.weight f4 [64, 64, 3, 3]
0	0x3d57082d	0.05249803
1	0xbd911ffd	-0.070861794
2	0xbd2e1d0a	-0.042508163
3	0xbd8a60be	-0.06756733
4	0x3cc6cb2a	0.024266798
5	0xbc87adde	-0.016562399
6	0xbc9881ac	-0.01861652
7	0x3c8c1774	0.017101027
8	0xbd05cbeb	-0.032665174
9	0x3d1e6a48	0.038675576
10	0x3d76c227	0.06024375
11	0x3ccc0990	0.024906904
12	0xbc941970	-0.018078536
13	0x3d0d684e	0.0345233
14	0xbc13bfce	-0.009017898
15	0xbcaaabbc	-0.020833842
16	0x3cc3192f	0.02381572
17	0x3c99a0a2	0.018753354
18	0x3cf184cb	0.029482266
19	0x3d3afd1e	0.045651548
20	0x3d661284	0.05617
21	0x3d5399d0	0.05166036
22	0x3bf2fff7	0.0074157673
23	0x3d6c2ece	0.057661824
24	0x3cc61718	0.024180934
25	0x3c002166	0.007820463
26	0xbd2cc84d	-0.04218321
27	0x3c424f24	0.011859689
28	0xbd4e7dc2	-0.0504129
29	0x3d101273	0.035173845
30	0x3c622d97	0.013804815
31	0x3c4d7fda	0.012542689
32	0xbc336d1e	-0.0109513085
33	0x3d2e2b02	0.042521484
34	0xbd67bdfd	-0.05657767
35	0xbce9f9e6	-0.028561544
36	0x3ce26e72	0.027640555
37	0xbd0bbb3f	-0.03411412
38	0x3d8ec570	0.06971252
39	0x3c3ca600	0.011514187
40	0x3d05c4ae	0.03265827
41	0xbd4ad9ad	-0.049523998
42	0x3c56eef5	0.013118495
43	0x3d18d0be	0.037308447
44	0xbd3e86bc	-0.04651521
45	0x3d84e3dd	0.06488774
46	0xbd889226	-0.066685006
47	0x3cdbcb69	0.026830392
48	0x3d2137e1	0.03935993
49	0xbcd46e49	-0.025931494
50	0xbbef78c5	-0.007308098
51	0x3d01cc37	0.031688895
52	0xbd16f432	-0.036853977
53	0xbcef7c8a	-0.02923419
54	0xbbfe533c	-0.007761387
55	0xbd580ac0	-0.052744627
56	0xbd039e07	-0.03213313
57	0x3d826494	0.0636684
58	0xbc84bd81	-0.016203644
59	0x3d5984e7	0.05310526
60	0xbd30d31e	-0.043170087
61	0x3c756c22	0.014979394
62	0x3d1e7736	0.038687907
63	0x3c56022b	0.01306204
64	0x3c8d2215	0.017228166
65	0x3ae5a44f	0.0017520281
66	0xbbe5828e	-0.0070040887
67	0xbcde12f0	-0.02710864
68	0xbd892479	-0.0669641
69	0x3d874a9d	0.06606028
70	0x3d64bc20	0.055843472
71	0x3cefb41b	0.029260686
72	0xbd3f39ab	-0.046685856
73	0x3d8a34d5	0.06748358
74	0x3d0e3859	0.034721706
75	0xbc9628d7	-0.01833002
76	0xbd67f402	-0.05662919
77	0xbcc9f246	-0.024651658
78	0xbd01168e	-0.03151565
79	0xbd15b04e	-0.03654509
80	0xbd8efee2	-0.06982209
81	0x3d07be19	0.033140276
82	0x3c35c96f	0.011095389
83	0x3d7bc718	0.061469167
84	0xbc614df6	-0.0137514975
85	0xbd5f184e	-0.054466538
86	0xbbc718c3	-0.00607595
87	0xbca6b339	-0.020349132
88	0xbd96e423	-0.073677324
89	0xbcc623df	-0.024187027
90	0xbd741d11	-0.059598032
91	0xbd94264f	-0.07233869
92	0x3d2be4a8	0.04196611
93	0xbd90a5fe	-0.070629105
94	0x3c9cc827	0.019138409
95	0x3cfd1553	0.030893957
96	0x3bf793d4	0.0075554643
97	0x3d38037e	0.044925205
98	0x3d261945	0.040551443
99	0x3d51b0c8	0.051193982
100	0xbd13f493	-0.036121916
101	0xb8c784f9	-9.5138275e-05
102	0xbc850764	-0.016238876
103	0xbd85f7ea	-0.065414265
104	0xbd53e72c	-0.051734135
105	0x3d21cf07	0.039504077
106	0xbd733c03	-0.059383404
107	0x3c2d4536	0.010575583
108	0xbd3438aa	-0.04399935
109	0x3d82d93f	0.06389093
110	0x3bae01cc	0.005310273
111	0x3d8af6a7	0.067853265
112	0x3ca11176	0.019661646
113	0x3c36ab21	0.011149199
114	0xbc59d7bc	-0.013296064
115	0x3d34d9d4	0.04415305
116	0xba502b48	-0.000794102
117	0x3d7366b1	0.059424106
118	0x3d5285a5	0.051396985
119	0x3d409951	0.047021214
120	0xbd8cfe18	-0.06884402
121	0x3d271e06	0.040800117
122	0xbc02237f	-0.007943033
123	0xbd451a3d	-0.048120726
124	0xbd73b481	-0.059498314
125	0x3d6b4a3e	0.05744385
126	0xbcaa8085	-0.020813236
127	0xbcc984eb	-0.024599513
128	0x3cfe2e9b	0.031028083
129	0x3d3d650d	0.046238948
130	0x3c9ccfd3	0.019142067
131	0x3c087519	0.0083286995
132	0x3d788e88	0.060682803
133	0x3d815497	0.06314962
134	0xbc28d660	-0.010305017
135	0x3d24476d	0.04010718
136	0xbc46fbfb	-0.012145038
137	0x3cd632c0	0.026147246
138	0xbc99e1cb	-0.018784424
139	0xbd3312cf	-0.04371911
140	0x3d115453	0.03548081
141	0xbbd2e311	-0.00643576
142	0x3c7b0753	0.01532157
143	0xbd14e249	-0.036348615
144	0x3d7521ab	0.05984656
145	0x3d62f7ed	0.05541222
146	0xbcd800f2	-0.026367638
147	0x3d2796fe	0.04091548
148	0x3d197c7e	0.03747224
149	0xbd7ae055	-0.061249096
150	0xbd5dec97	-0.054180708
151	0xbc65849f	-0.01400867
152	0x3c4c5b47	0.012472934
153	0xbca59503	-0.020212656
154	0xbd8e7c22	-0.0695727
155	0x3d4e03f3	0.050296735
156	0x3d622327	0.055209305
157	0xbd37cc40	-0.044872522
158	0x3d2d32e1	0.04228485
159	0x3c6553b5	0.013997008
160	0x3cd46bd3	0.02593032
161	0x3d03ab2e	0.03214567
162	0xbc5156f2	-0.012777077
163	0x3d1be30a	0.03805832
164	0x3bbdc3e6	0.005791175
165	0xbd014bb5	-0.03156634
166	0xbd31c5c3	-0.04340149
167	0xbcf8e291	-0.030381473
168	0xbd187a04	-0.03722574
169	0x3d296618	0.04135713
170	0x3d4193fc	0.04726027
171	0xbce1f1f1	-0.027581187
172	0xbd6c0a6d	-0.05762713
173	0x3a193e3e	0.00058457616
174	0xbcce9599	-0.025217818
175	0x3cea1aee	0.028577294
176	0x3d869a8f	0.065724485
177	0x3d109c6e	0.035305433
178	0xbd70a8b2	-0.05875463
179	0x3d2d54fc	0.042317376
180	0x3d5c0596	0.053716265
181	0x3b7f33c3	0.0038940764
182	0x3d8e4b04	0.06947902
183	0x3d44bfc4	0.048034444
184	0xbcf51abe	-0.029919978
185	0xbd855d55	-0.06511942
186	0x3cb077e1	0.021541538
187	0xbca9dc68	-0.02073498
188	0x3d8ab502	0.06772806
189	0x3d4759d4	0.04866965
190	0xbc991fe0	-0.018691957
191	0xbd0a2fc0	-0.033736944
192	0x3d2f61b3	0.042817783
193	0xbd074f53	-0.033034634
194	0x3cc667e5	0.024219463
195	0xbc9acd6f	-0.018896786
196	0xbcecc711	-0.028903516
197	0x3cf029c3	0.029316789
198	0xbd8d62df	-0.06903624
199	0xbcbc1cb4	-0.022962905
200	0xbcd3a47c	-0.025835268
201	0xbd87ea91	-0.06636537
202	0xbc6fc171	-0.014633522
203	0xbd6cbf71	-0.05779976
204	0xbd824d36	-0.06362383
205	0x3d3c109c	0.045914277
206	0x3d7601a8	0.060060173
207	0x3d8b6362	0.06806065
208	0xbd22689a	-0.039650537
209	0x3d0c30ff	0.034226414
210	0x3d1924f0	0.037388742
211	0xbb1cc4de	-0.0023921053
212	0x3c66c640	0.014085352
213	0xbc873750	-0.016505867
214	0xbca8d703	-0.020610338
215	0xbcab6897	-0.020923896
216	0xbcbb0d33	-0.022833442
217	0x3d8bf290	0.068333745
218	0x3d3e34d9	0.04643712
219	0x3d8f97e2	0.07011391
220	0x3d5cfd7c	0.05395268
221	0xbd02ec25	-0.031963486
222	0x3c1cd4a0	0.009572178
223	0x3ce76a27	0.02824886
224	0x3c528fc4	0.012851659
225	0x3c0a0bc3	0.008425656
226	0x3cc1ca3a	0.023656
227	0xbcee9d18	-0.029127643
228	0xbd6f9085	-0.058487434
229	0x3d58dfb7	0.052947726
230	0xbd21f9a7	-0.039544728
231	0x3d5407e1	0.051765326
232	0x3d88dc2b	0.06682619
233	0x3baa0bf3	0.0051894127
234	0xbd9396f6	-0.07206528
235	0x3d77887f	0.060432907
236	0xbb61a170	-0.00344285
237	0x3ca7e9e0	0.020497262
238	0x3c93f13f	0.018059371
239	0x3d020211	0.031740252
240	0x3c5c85f4	0.013459671
241	0xbd757df6	-0.05993458
242	0x3d39c4e9	0.045353804
243	0x3cce5569	0.025187211
244	0x3bfd99b7	0.0077392715
245	0x3d547c1c	0.051876172
246	0xbd272ed4	-0.040816143
247	0x3d1ee399	0.038791273
248	0x3bf4b5ab	0.0074679456
249	0xbd932e9c	-0.071866244
250	0xbd5fcd5d	-0.05463921
251	0x3d5f4e1f	0.05451786
252	0x3cf3281f	0.029682217
253	0xbce67031	-0.028129669
254	0x3ca55077	0.02017997
255	0x3c9e92c1	0.019357087

module.model.1.model.3.bias f4 [64]
0	0x3a8cca78	0.0010741493
1	0x3a7bcee9	0.0009605722
2	0x3aa2e80f	0.0012428778
3	0x3acb6652	0.0015518165
4	0x3a916750	0.0011093412
5	0x3a8679b6	0.0010259661
6	0x3a9396df	0.0011260173
7	0x3a720629	0.00092324853
8	0x3a83f8d7	0.0010068667
9	0x3a80dce0	0.0009831451
10	0x3a52d148	0.00080420496
11	0x3a840c74	0.0010074512
12	0x3a23bbfa	0.0006245967
13	0x3a852c04	0.0010160212
14	0x3a5bc623	0.00083837117
15	0x3aac2986	0.0013134934
16	0x3a9d61b4	0.0012007267
17	0x3a92f0ca	0.0011210677
18	0x3a80c73e	0.0009825004
19	0x3a993809	0.0011689673
20	0x3a879893	0.0010345153
21	0x3a7c7f83	0.0009632038
22	0x3a83c059	0.0010051831
23	0x3aab5eea	0.0013074551
24	0x3a79ab65	0.0009524136
25	0x3a74330c	0.0009315468
26	0x3a5a5d77	0.00083299674
27	0x3a79ac73	0.0009524293
28	0x3a6b4614	0.0008974981
29	0x3a7b66fc	0.0009590236
30	0x3a8bd87d	0.0010669377
31	0x3a9fc64d	0.0012189836
32	0x3a8127f0	0.0009853821
33	0x3a6abe24	0.0008954725
34	0x3a4458f6	0.0007490063
35	0x3a6cf64b	0.0009039386
36	0x3ac0d054	0.0014710524
37	0x3a83ed21	0.0010065177
38	0x3a7c7177	0.00096299447
39	0x3a53ab90	0.0008074576
40	0x3a87a28d	0.0010348127
41	0x3a50f6e1	0.0007971358
42	0x3a4b08cf	0.0007745148
43	0x3a56f212	0.00081995234
44	0x3a4e0e46	0.0007860403
45	0x3a7eb1f3	0.00097158476
46	0x3a71b97b	0.0009221059
47	0x3a84ad9f	0.0010122544
48	0x3a8edf9e	0.0010900383
49	0x3a5ee8c2	0.00085033115
50	0x3a826904	0.000994951
51	0x3a655513	0.0008748334
52	0x3a7f3601	0.0009735525
53	0x3a8d3522	0.0010773281
54	0x3a1e3a0f	0.0006035873
55	0x3a3373f2	0.00068455853
56	0x3a81988e	0.0009887384
57	0x3a72d02b	0.0009262587
58	0x3aafef23	0.0013422709
59	0x3a748f4d	0.0009329215
60	0x3a789f06	0.00094841456
61	0x39b9e365	0.00035455372
62	0x3a89610b	0.0010481192
63	0x3a76f3b6	0.0009420471

module.model.1.model.4.weight f4 [64]
0	0x3f7f638d	0.9976128
1	0x3f801cf6	1.0008838
2	0x3f7f67d3	0.997678
3	0x3f7f2f76	0.99681795
4	0x3f7fe74d	0.9996231
5	0x3f7f5991	0.9974604
6	0x3f7f99d6	0.9984411
7	0x3f80463a	1.0021431
8	0x3f806cca	1.00332
9	0x3f8051a0	1.002491
10	0x3f805b2c	1.0027823
11	0x3f7f45e6	0.9971603
12	0x3f805aff	1.002777
13	0x3f806543	1.0030903
14	0x3f805aba	1.0027688
15	0x3f7f47c5	0.99718887
16	0x3f7f58cc	0.9974487
17	0x3f7f55e3	0.9974043
18	0x3f806ca0	1.003315
19	0x3f7f4b77	0.99724525
20	0x3f7f4c3b	0.99725693
21	0x3f805e1a	1.0028718
22	0x3f8020bc	1.000999
23	0x3f7f5214	0.99734616
24	0x3f7f4ec8	0.99729586
25	0x3f8068bf	1.0031966
26	0x3f805bcf	1.0028018
27	0x3f805160	1.0024834
28	0x3f80636c	1.0030341
29	0x3f806221	1.0029947
30	0x3f801a51	1.0008031
31	0x3f7fd99d	0.99941427
32	0x3f7f6f7c	0.99779487
33	0x3f803cbd	1.0018536
34	0x3f805d23	1.0028423
35	0x3f8070b3	1.0034393
36	0x3f7f50d0	0.99732685
37	0x3f7f5fa6	0.9975532
38	0x3f802b75	1.0013262
39	0x3f7ffdf2	0.99996865
40	0x3f7f63ba	0.99761546
41	0x3f804d43	1.0023578
42	0x3f8054f2	1.0025923
43	0x3f80550e	1.0025957
44	0x3f80764f	1.0036105
45	0x3f7ff4e6	0.9998306
46	0x3f8037d0	1.0017033
47	0x3f8056f7	1.002654
48	0x3f7f5ffd	0.9975584
49	0x3f807384	1.0035253
50	0x3f805630	1.0026302
51	0x3f804b2e	1.0022943
52	0x3f7f5015	0.9973157
53	0x3f7f4890	0.99720097
54	0x3f8073ae	1.0035303
55	0x3f8056db	1.0026506
56	0x3f8066d5	1.0031382
57	0x3f8042fa	1.002044
58	0x3f7f58fb	0.9974515
59	0x3f7ffcf9	0.9999538
60	0x3f80569e	1.0026433
61	0x3f806959	1.003215
62	0x3f7f4153	0.9970905
63	0x3f7f6f33	0.9977905

module.model.1.model.4.bias f4 [64]
0	0xbb2c1c48	-0.0026261974
1	0x3aedc97c	0.0018141712
2	0xbb2735a8	-0.002551416
3	0xbb432e36	-0.0029782183
4	0xbaf45271	-0.0018640292
5	0xbb38aca1	-0.0028179067
6	0xbb0849b3	-0.0020795881
7	0x3b1b1e36	0.002366913
8	0x3b09df0c	0.0021037487
9	0x3b3a61c2	0.0028439616
10	0x3b3b4b32	0.0028578755
11	0xbb2b32da	-0.002612284
12	0x3b2f03f7	0.0026705244
13	0x3ab6e64d	0.0013954133
14	0x3b4bcf8c	0.003109905
15	0xbb387876	-0.0028147972
16	0xbb4289f8	-0.0029684287
17	0xbb31dcbc	-0.0027139625
18	0x3b5d4072	0.0033760336
19	0xbb47fd96	-0.003051614
20	0xbb2f3b52	-0.0026738239
21	0x3b4080b1	0.002937358
22	0x3b649e0f	0.003488425
23	0xbb395950	-0.0028281994
24	0xbb50886a	-0.003181959
25	0x3b5e59a0	0.0033927932
26	0x3b39eb28	0.0028368924
27	0x3b37a154	0.0028019743
28	0x3b41de07	0.0029581802
29	0x3b419dbc	0.002954348
30	0xba101e88	-0.00054977136
31	0xba849fcc	-0.0010118424
32	0xbb0fc6ea	-0.002193863
33	0x3b3d7076	0.0028906143
34	0x3b49aac1	0.0030771943
35	0x3b6351b8	0.003468616
36	0xbb3256ed	-0.0027212456
37	0xbb430196	-0.0029755584
38	0xbaab361c	-0.001306239
39	0x3a9910d1	0.0011677985
40	0xbb2cd845	-0.0026374024
41	0x3b2de351	0.0026533196
42	0x3b39aa2d	0.0028330192
43	0x3b387ae6	0.0028149425
44	0x3b59393c	0.0033145687
45	0x3a892965	0.0010464607
46	0x3b4167fa	0.0029511438
47	0x3b38af4f	0.0028180664
48	0xbb2206af	-0.0024723222
49	0x3b5b884e	0.0033497992
50	0x3b2a427f	0.0025979576
51	0x3b2d50c2	0.002644584
52	0xbb2de0f1	-0.002653178
53	0xbb4d87c7	-0.0031361447
54	0x3b501111	0.0031748454
55	0x3b3c33e0	0.0028717443
56	0x3b6f8df4	0.0036553117
57	0x3b3dc792	0.0028958065
58	0xbb2e2231	-0.0026570673
59	0xba66f670	-0.0008810526
60	0x3b6000d0	0.0034180172
61	0x3b49353a	0.0030701892
62	0xbb24d9de	-0.0025154273
63	0xbb12c98f	-0.002239797

module.model.1.model.4.running_mean f4 [64]
0	0x3f510675	0.8165048
1	0xbea8a4c1	-0.32938197
2	0xbf0223ff	-0.50836176
3	0x3b43420d	0.0029794008
4	0xbd9df6ea	-0.07713111
5	0x3e4c9b1c	0.19981045
6	0xbf000e8e	-0.5002221
7	0x3d73fce7	0.05956736
8	0x3e9abac8	0.30220628
9	0x3f30c862	0.6905576
10	0xbe8215cc	-0.25407255
11	0x3d89d9cb	0.06730994
12	0xbe4a2985	-0.19742401
13	0x3f146d13	0.57978934
14	0x3cdd4c41	0.0270139
15	0xbe138899	-0.14407577
16	0xbf54df37	-0.831531
17	0x3e5ceb29	0.21574081
18	0x3f40b11e	0.7527026
19	0xbf1d45e0	-0.61434746
20	0x3eb0d0af	0.34534213
21	0x3ebab965	0.3646957
22	0x3e440d7c	0.19145769
23	0x3ce99c45	0.028516898
24	0x3f0cc43f	0.5498695
25	0x3ea72346	0.326441
26	0xbeae9753	-0.34099826
27	0xbc9f1072	-0.019417021
28	0xbf1300a4	-0.5742285
29	0xbde41f5c	-0.11138794
30	0x3ea7baaa	0.327596
31	0x3e9ed6e3	0.3102332
32	0x3d682ff0	0.05668634
33	0x3e3ab241	0.18232061
34	0xbdf5cf8a	-0.120024756
35	0xbdfb52b8	-0.12271637
36	0xbef51154	-0.47864783
37	0x3e839879	0.25702265
38	0xbdd4b35a	-0.10385771
39	0xbf0e7bca	-0.5565764
40	0x3d45f629	0.04833046
41	0xbe19442a	-0.14967409
42	0xbe9b6ac6	-0.303549
43	0x3eb2284b	0.34796366
44	0x3c7f214c	0.015571903
45	0x3e9447bf	0.28960988
46	0x3e372beb	0.17887847
47	0x3f34366c	0.7039554
48	0x3e23a8a5	0.15982302
49	0xbebb345c	-0.36563385
50	0x3ef19bee	0.47189277
51	0xbea5e094	-0.32397902
52	0x3c986f8c	0.018607877
53	0x3eb76a2c	0.3582319
54	0xbea36976	-0.31916398
55	0xbee78cd1	-0.45224622
56	0xbd9b3477	-0.07578366
57	0x3e99e916	0.30060643
58	0x3de4d416	0.11173265
59	0xbddcc2f7	-0.10779374
60	0x3dcc2eee	0.09969889
61	0xbf0d3790	-0.55162907
62	0xbe6ee952	-0.23331192
63	0xbe88389f	-0.26605698

module.model.1.model.4.running_var f4 [64]
0	0x3ed0669d	0.40703288
1	0x3d9b2603	0.075756095
2	0x3ed0e017	0.40795967
3	0x3d13974a	0.036032952
4	0x3f4e5e89	0.80613
5	0x3f0e620c	0.5561836
6	0x3e0baa3b	0.13639157
7	0x3eb40cfd	0.3516616
8	0x3e7d1a92	0.24717167
9	0x3e70969d	0.23494954
10	0x3f83b4ed	1.0289589
11	0x3f3718c3	0.7152216
12	0x3f054339	0.520557
13	0x3e45aa40	0.19303226
14	0x3e576196	0.2103332
15	0x3f25ded7	0.6479315
16	0x3fb539ec	1.4158301
17	0x3f23308f	0.6374597
18	0x3f1e632c	0.61870074
19	0x3f183694	0.5945828
20	0x3d896d01	0.06710244
21	0x3d52a9e6	0.05143156
22	0x3f0427d4	0.5162327
23	0x3eaf059b	0.34183964
24	0x3e5d04fa	0.2158393
25	0x3f186fc7	0.5954556
26	0x3e1e66ce	0.15468904
27	0x3e87f17b	0.26551422
28	0x3edee8c0	0.4353695
29	0x3f8cd1ae	1.1001489
30	0x3e1f86b8	0.15578735
31	0x3e3bf90a	0.1835672
32	0x3ed33e31	0.41258386
33	0x3ec32baf	0.38119265
34	0x3f2f48f3	0.68470687
35	0x3f6e8063	0.9316465
36	0x3db2c66e	0.08729254
37	0x3d0f9ef7	0.03506371
38	0x3f0874ec	0.5330341
39	0x3e3d93c7	0.18513404
40	0x3f2b3c16	0.6688856
41	0x3e235b5a	0.15952817
42	0x3eea1da3	0.45725736
43	0x3e876acb	0.26448664
44	0x3f810698	1.0080137
45	0x3e8fff53	0.28124484
46	0x3f1d0106	0.61329687
47	0x3fae09f9	1.3596793
48	0x3ed2e638	0.41191268
49	0x3d93ac15	0.072105564
50	0x3ee83738	0.4535463
51	0x3d6f44ef	0.05841535
52	0x3e4bf9d0	0.19919515
53	0x3e5dbf7f	0.21655081
54	0x3eb1b893	0.3471113
55	0x3dcefb16	0.101064846
56	0x3e346d64	0.17619854
57	0x3e7775b3	0.24165992
58	0x3d89abef	0.06722247
59	0x3eabd85f	0.33563516
60	0x3dba48f0	0.09095943
61	0x3e66baa2	0.22532132
62	0x3edec8be	0.4351253
63	0x3e8a5031	0.27014306

module.model.2.model.0.weight f4 [64, 64, 3, 3]
0	0xbd960dca	-0.07326849
1	0xbb83fa60	-0.0040276498
2	0x3c833d6c	0.0160205
3	0xbc364642	-0.011125149
4	0x3cdb8fa2	0.026801888
5	0xbd16481c	-0.036689863
6	0xbd766df9	-0.06016347
7	0xbd584b3d	-0.052806128
8	0x3bd93e8b	0.00662977
9	0x3d6f79c4	0.058465734
10	0x3d8323a4	0.06403282
11	0xbcf77546	-0.030207288
12	0x3d2b88d8	0.04187855
13	0x3c1fe037	0.009758047
14	0x3d1e34ed	0.038624693
15	0xbc2df501	-0.0106174955
16	0xbd3378ef	-0.043816503
17	0x3d3d0119	0.046143625
18	0xbc0790eb	-0.008274297
19	0x3d6aa50c	0.057286307
20	0x3d27f72a	0.0410072
21	0xbd41affd	-0.047286976
22	0x3cb317dc	0.021861963
23	0xbcc4d44c	-0.024027012
24	0xbd466762	-0.048438437
25	0xbd8731b0	-0.06601274
26	0xbc809650	-0.015696675
27	0xbd771b6b	-0.060328882
28	0x3d92e428	0.071724236
29	0x3c8decfa	0.017324913
30	0xbd4ad86a	-0.049522795
31	0xbd727bdf	-0.059200164
32	0xbd178290	-0.03698975
33	0xba71d661	-0.00092253654
34	0xbd43cbdc	-0.047801837
35	0xbd8c00c9	-0.06836087
36	0x3d2d20d2	0.042267628
37	0xbba00e02	-0.0048844824
38	0x3d50d226	0.050981663
39	0x3cb00c5f	0.021490274
40	0xbba73d55	-0.005103747
41	0xbd09e5f9	-0.033666585
42	0xbd7da7b0	-0.061927497
43	0x391623ba	0.00014318424
44	0xbd6051a5	-0.054765362
45	0x3d074a30	0.033029735
46	0x3c82149e	0.015878972
47	0x3d74829d	0.059694875
48	0x3c8cd5ec	0.01719185
49	0x3bf7789e	0.0075522205
50	0xbd171ff9	-0.036895726
51	0xbd2d8b74	-0.04236932
52	0x3d741d61	0.05959833
53	0xbcefaa54	-0.029256023
54	0x3c76de28	0.015067615
55	0xbd0be7c9	-0.034156594
56	0xbcb64b52	-0.022252712
57	0x3c3661ca	0.011131713
58	0x3d81087f	0.063004486
59	0x3d1fded0	0.03903085
60	0xbcb28d17	-0.021795793
61	0xbd37d503	-0.04488088
62	0x3d2a9ca5	0.041653294
63	0xbc00dd68	-0.007865287
64	0xbd8ed6b3	-0.069745444
65	0x3d1bd0c7	0.038040902
66	0xbd5684fe	-0.052372925
67	0xbd73f452	-0.059559174
68	0x3d7db2e3	0.061938178
69	0xbd6e05f1	-0.058111135
70	0x3d6b6e81	0.05747843
71	0x3ca7558d	0.020426536
72	0x3cf85b29	0.030316906
73	0xbd849e71	-0.06475533
74	0x3d1dde95	0.03854235
75	0x3d19692a	0.037453808
76	0x3d8f61bb	0.070010625
77	0x3d569094	0.052383974
78	0x3c8b961e	0.017039355
79	0xbd2391fc	-0.039934143
80	0x3d484a09	0.04889873
81	0x3d695ec3	0.056975137
82	0xbc8e3d37	-0.017363174
83	0xb9fccc96	-0.00048217614
84	0xbbec54b9	-0.007212248
85	0x3d498731	0.049201194
86	0x3ce7e185	0.028305778
87	0xbca0e1da	-0.019638944
88	0x3cef5343	0.029214507
89	0xbcf70272	-0.030152533
90	0x3d4ea08d	0.050446082
91	0xbd8748e9	-0.066057034
92	0x3c330fc9	0.010929056
93	0x3d86ab9d	0.065757014
94	0xbd7f1a4e	-0.062280945
95	0xbd32f36f	-0.043689188
96	0x3d8828ec	0.0664843
97	0xbd477e40	-0.048704386
98	0x3cd4f266	0.02599449
99	0xbc74f1db	-0.014950241
100	0x3c0a13de	0.008427588
101	0xbd3764e7	-0.044773962
102	0x3d94e096	0.07269399
103	0x3d8ee5b1	0.06977404
104	0x3d1e13b8	0.038593024
105	0xbd441c06	-0.047878288
106	0xbbf32eba	-0.0074213417
107	0xbc86c5ad	-0.016451681
108	0x3d48473f	0.04889607
109	0x3d4f09c7	0.050546434
110	0xbd23f3dc	-0.040027484
111	0xbd56815f	-0.05236947
112	0xbd816734	-0.063185126
113	0x3d57e498	0.05270824
114	0x3ba8b60b	0.0051486543
115	0x3cdf0196	0.027222436
116	0x3c1e88cb	0.009676169
117	0x3d8e6284	0.06952384
118	0xbcd895be	-0.02643859
119	0xbd3aaea0	-0.04557669
120	0xbcd1e0b7	-0.025619848
121	0xbd37a5cb	-0.044835847
122	0xbd5da315	-0.054110605
123	0x3d1e0227	0.03857627
124	0x3d7b74f3	0.06139083
125	0xbd53dbdc	-0.051723346
126	0xbd4f879f	-0.050666448
127	0xbd7f7d44	-0.062375322
128	0x3c4db917	0.012556336
129	0x3c7a02c0	0.015259445
130	0x3d7c88bd	0.06165384
131	0x3b1aca76	0.0023619211
132	0xbc8146dc	-0.015780859
133	0x3cd17699	0.025569247
134	0x3d24bbe0	0.040218234
135	0xbd42c876	-0.047554456
136	0x3cfca038	0.030838117
137	0x3d7d84b5	0.061894137
138	0x3c2208e8	0.009889819
139	0x3c93a1d9	0.01802151
140	0xbc127f35	-0.008941461
141	0xbd3c3bb1	-0.045955364
142	0x3d0c8929	0.034310494
143	0xbd8294af	-0.063760154
144	0x3c8ee90d	0.017445112
145	0xbbf3b3ea	-0.007437219
146	0xbd327b70	-0.04357475
147	0xbcf8b215	-0.030358354
148	0xbcd65482	-0.026163343
149	0xbd216cad	-0.039410282
150	0x3c5fbf73	0.013656485
151	0x3ce51477	0.02796386
152	0x3d665020	0.056228757
153	0xbc35fe43	-0.011107984
154	0xbd08d195	-0.033402998
155	0x3cf16e75	0.029471615
156	0xbd18c6e0	-0.037299037
157	0x3d2aecfc	0.041729912
158	0xbd807da9	-0.06273968
159	0x3d8479d0	0.064685464
160	0x3c3f4bf6	0.011675825
161	0x3cc1160f	0.023570089
162	0x3d74153a	0.059590556
163	0x3d5930f7	0.053025212
164	0x3c96d848	0.018413678
165	0x3d00a88f	0.03141075
166	0x3d429953	0.047509503
167	0xbd8b495c	-0.068011016
168	0xbd8afa26	-0.06785993
169	0x3d61fb95	0.055171568
170	0x3d8ab2bc	0.06772372
171	0x3d0c2b4b	0.034220975
172	0x3d3c5109	0.04597572
173	0x3d8c200c	0.0684205
174	0xbc415e08	-0.011802204
175	0x3cdf759e	0.027277764
176	0x3d05d415	0.03267296
177	0x3cec8478	0.02887176
178	0x3ad27551	0.0016056692
179	0xbc1870e6	-0.009304261
180	0x3d5873b1	0.052844707
181	0x3cdd797e	0.027035471
182	0x3c092de4	0.008372758
183	0x3b9a2127	0.004703659
184	0xbc89953d	-0.016794795
185	0xbd647626	-0.055776738
186	0x3ce1b989	0.02755429
187	0xbc84ad08	-0.016195789
188	0x3cf7913c	0.03022062
189	0xbcb02e93	-0.021506583
190	0xbc8b958d	-0.017039085
191	0xbd2c28f8	-0.04203126
192	0xbd7c0306	-0.06152632
193	0x3c846713	0.01616243
194	0xbcd18e70	-0.025580615
195	0x3d8a2e7b	0.06747147
196	0xbcc5e9af	-0.02415928
197	0xbd8a9e77	-0.06768506
198	0x3ca6a7a1	0.020343604
199	0xbc3d3736	-0.011548808
200	0xbd2c134c	-0.04201059
201	0x3d20794e	0.039178185
202	0x3d594b2f	0.053050216
203	0x3ca3eac6	0.02000941
204	0x3ca8b7ef	0.020595519
205	0x3d22e1e6	0.039766215
206	0xbd8f582d	-0.0699924
207	0xbd5a6ef7	-0.05332848
208	0xbd205dd6	-0.03915199
209	0xbd5fac81	-0.054607872
210	0xbd3fd73c	-0.046836123
211	0x3d8340f8	0.06408876
212	0x3d105f2c	0.035247013
213	0x3bf3b4d9	0.00743733
214	0xbd2c20c5	-0.04202344
215	0xbcd574b3	-0.026056623
216	0x3cf00291	0.029298099
217	0x3ca17c54	0.019712605
218	0x3c92345a	0.017847229
219	0xbcb426d7	-0.021991177
220	0x3abf69e7	0.0014603705
221	0x3d120573	0.035649728
222	0x3c664a9e	0.014055876
223	0x3b98c8db	0.0046626157
224	0x3d6bb986	0.057549976
225	0xbd7309a1	-0.059335355
226	0x3c7c575d	0.015401688
227	0xbcc72df8	-0.024313912
228	0x3d244c61	0.040111903
229	0xbbdcbc9f	-0.0067363526
230	0xbd88f114	-0.06686607
231	0xbcc1a6ce	-0.023639109
232	0x3d4047a5	0.046943326
233	0x3d81f12c	0.06344828
234	0x3b8a6772	0.0042237574
235	0xbd5f57e7	-0.05452719
236	0x3cd66d12	0.026175056
237	0x3d31e655	0.043432552
238	0x3cd8a6f0	0.02644679
239	0xbb5aecf6	-0.00334054
240	0x3d0b5a34	0.03402157
241	0x3d80e480	0.06293583
242	0x3d82c4bd	0.06385181
243	0x3ccbb55c	0.024866752
244	0x3d58e426	0.052951954
245	0x3cd09e6d	0.025466168
246	0x3d3873dc	0.045032367
247	0xbc09144a	-0.008366654
248	0x3d4278f6	0.04747864
249	0xbb64af1d	-0.0034894415
250	0xbd85b6b9	-0.06528992
251	0x3d912113	0.070863865
252	0x3d8259a1	0.063647516
253	0x3d4bb73a	0.049735285
254	0xbc80ac32	-0.01570711
255	0xbd6e1c08	-0.0581322

module.model.2.model.0.bias f4 [64]
0	0x3a797e6a	0.00095174334
1	0x3a82a1c4	0.0009966423
2	0x3a838947	0.0010035419
3	0x3a843d21	0.0010089019
4	0x3a865f64	0.0010251817
5	0x3a81958d	0.0009886489
6	0x3a88f0a2	0.0010447691
7	0x3a82be21	0.0009974876
8	0x3a801699	0.000977236
9	0x3a83f3f7	0.0010067214
10	0x3a709c85	0.00091785967
11	0x3a84c9f4	0.0010130988
12	0x3a826e26	0.000995104
13	0x3a80cdf9	0.000982701
14	0x3a837c9e	0.0010031646
15	0x3a81e586	0.0009910322
16	0x3a7acb50	0.0009567039
17	0x3a8600b1	0.0010223595
18	0x3a84bee9	0.0010127696
19	0x3a82e302	0.0009985866
20	0x3a7b5531	0.00095875846
21	0x3a83a6cb	0.0010044215
22	0x3a82f72a	0.0009991874
23	0x3a793c3d	0.00095075724
24	0x3a80de7b	0.0009831929
25	0x3a87ca0a	0.0010359895
26	0x3a8389a5	0.0010035528
27	0x3a82d393	0.0009981267
28	0x3a8a70bc	0.0010562162
29	0x3a855de6	0.0010175079
30	0x3a7c0a05	0.000961453
31	0x3a7f19e2	0.0009731335
32	0x3a83d45b	0.0010057794
33	0x3a876632	0.0010330139
34	0x3a86f705	0.0010297006
35	0x3a84565b	0.0010096537
36	0x3a876c73	0.0010332003
37	0x3a886be9	0.0010408136
38	0x3a8b9d9e	0.0010651832
39	0x3a857d8f	0.0010184514
40	0x3a825db6	0.0009946141
41	0x3a88f62f	0.0010449345
42	0x3a81809e	0.000988025
43	0x3a8502dc	0.0010147947
44	0x3a86db72	0.0010288788
45	0x3a8203b2	0.0009919314
46	0x3a85e344	0.0010214825
47	0x3a89ce9a	0.0010513843
48	0x3a7e3465	0.00096971384
49	0x3a845e68	0.0010098936
50	0x3a82d4d7	0.0009981644
51	0x3a888842	0.0010416585
52	0x3a88e921	0.0010445454
53	0x3a842230	0.001008099
54	0x3a7fce60	0.00097582303
55	0x3a8792fc	0.0010343487
56	0x3a85d093	0.0010209255
57	0x3a8832fc	0.0010391171
58	0x3a858643	0.0010187108
59	0x3a835b9f	0.0010021812
60	0x3a848524	0.001011048
61	0x3a853b80	0.0010164827
62	0x3a8623fb	0.0010234112
63	0x3a826e37	0.000995106

module.model.2.model.1.weight f4 [64]
0	0x3f8064cc	1.0030761
1	0x3f7f6db8	0.9977679
2	0x3f7fefc1	0.9997521
3	0x3f805d8e	1.0028551
4	0x3f7ff7cd	0.9998749
5	0x3f803610	1.0016499
6	0x3f7fa961	0.99867827
7	0x3f803501	1.0016176
8	0x3f80381f	1.0017127
9	0x3f7fa645	0.9986308
10	0x3f80019e	1.0000494
11	0x3f8050f5	1.0024706
12	0x3f7f5823	0.9974386
13	0x3f7fa5f6	0.9986261
14	0x3f7f4774	0.99718404
15	0x3f7f7923	0.99794215
16	0x3f803ed4	1.0019174
17	0x3f7f8f1e	0.99827754
18	0x3f7fcbb4	0.999202
19	0x3f801ac5	1.000817
20	0x3f801d1a	1.0008881
21	0x3f804694	1.0021539
22	0x3f7fed84	0.99971795
23	0x3f803fa9	1.0019428
24	0x3f8022b4	1.001059
25	0x3f7f5496	0.9973844
26	0x3f7f9b5e	0.99846447
27	0x3f803ff9	1.0019523
28	0x3f7f5027	0.9973168
29	0x3f7f2ad0	0.996747
30	0x3f8065da	1.0031083
31	0x3f7fe674	0.9996102
32	0x3f7fb2a2	0.9988195
33	0x3f802366	1.0010803
34	0x3f7f4f02	0.9972993
35	0x3f7fbfa8	0.9990182
36	0x3f803de6	1.001889
37	0x3f7fc397	0.9990782
38	0x3f7f719f	0.9978275
39	0x3f7fbccc	0.99897456
40	0x3f80587c	1.0027003
41	0x3f7f7a0c	0.99795604
42	0x3f800ebe	1.0004499
43	0x3f7f7949	0.9979444
44	0x3f7f9590	0.9983759
45	0x3f801556	1.0006511
46	0x3f8054db	1.0025896
47	0x3f7f71c2	0.99782956
48	0x3f7f7021	0.9978047
49	0x3f7f6532	0.99763787
50	0x3f7f7cde	0.9979991
51	0x3f803f85	1.0019385
52	0x3f80315d	1.0015064
53	0x3f8014d0	1.0006351
54	0x3f7fe77b	0.99962586
55	0x3f7f7446	0.99786794
56	0x3f7f3d17	0.9970259
57	0x3f7ff6fb	0.9998624
58	0x3f8002a5	1.0000807
59	0x3f80441a	1.0020783
60	0x3f7fb45a	0.9988457
61	0x3f7f5d3c	0.9975164
62	0x3f7fcf5d	0.99925786
63	0x3f8025c6	1.0011528

module.model.2.model.1.bias f4 [64]
0	0x3b4224bc	0.0029623946
1	0xb91bb871	-0.00014850662
2	0xb9f10222	-0.0004596869
3	0x3b5ebc46	0.0033986731
4	0x3a01a594	0.00049456325
5	0x3abea451	0.001454482
6	0x371bb2f3	9.280385e-06
7	0x3af4890c	0.0018656566
8	0x3ac04860	0.0014670007
9	0xba2f6a65	-0.0006691574
10	0x3b28c0bd	0.0025749647
11	0x3b2208d4	0.00247245
12	0xbb159e6f	-0.002283003
13	0xbafc6768	-0.0019256892
14	0xbb17866e	-0.0023120898
15	0x3a9a993a	0.0011794933
16	0x3b22107c	0.0024729064
17	0xba94ee56	-0.0011362534
18	0xb8c0757d	-9.177157e-05
19	0xba1cb9c6	-0.000597861
20	0x3ae62a98	0.0017560301
21	0x3af4723b	0.0018649766
22	0x39c66a64	0.0003784477
23	0x3ae41178	0.0017400226
24	0x3aa3d498	0.0012499271
25	0xbb417872	-0.0029521254
26	0xbac7290f	-0.0015194732
27	0x3ab73dba	0.0013980188
28	0xbb3165ca	-0.0027068728
29	0xbb3386ab	-0.00273935
30	0x3b3db00a	0.0028944039
31	0xba891f1e	-0.0010461544
32	0x3a6550cd	0.0008747697
33	0x39d2b70e	0.00040190708
34	0xbb59c853	-0.0033230975
35	0x3ac28e1a	0.0014843375
36	0xba85e54a	-0.0010215428
37	0xbaa3068c	-0.0012437864
38	0xbb002889	-0.001955541
39	0xba1f6ab2	-0.00060812675
40	0x3b31743e	0.0027077342
41	0xbb123381	-0.002230853
42	0xb9a91907	-0.0003225284
43	0xba9987e0	-0.0011713468
44	0xbae1d30d	-0.0017229036
45	0x3aa89d3b	0.0012864241
46	0x3b4057b1	0.0029349143
47	0xbb005ce3	-0.0019586615
48	0xbac14875	-0.0014746325
49	0xbb3c38e4	-0.0028720433
50	0xbaf0f8e8	-0.0018384727
51	0x3acf5ece	0.0015821101
52	0x37dcf246	2.6338861e-05
53	0xba7ca7f6	-0.0009638065
54	0x3aadc06e	0.0013256201
55	0xbafe5a97	-0.001940566
56	0xbae21e58	-0.0017251475
57	0xba1a138a	-0.00058775453
58	0x39f027e4	0.00045806088
59	0x3aad86b2	0.0013238995
60	0xba281a87	-0.0006412644
61	0xbb134a9b	-0.0022474888
62	0xbae57267	-0.0017505408
63	0x3b1ce74e	0.002394158

module.model.2.model.1.running_mean f4 [64]
0	0xbbc5b942	-0.0060340473
1	0x3dc6f46d	0.09714589
2	0x3dcdea3d	0.10054443
3	0x3dc12a2b	0.09431871
4	0xbeec67e6	-0.46173018
5	0xbedd2525	-0.43192402
6	0xbf00fef3	-0.5038902
7	0xbf183fac	-0.59472156
8	0x3da06206	0.078311965
9	0xbee4be74	-0.44676554
10	0x3f46be79	0.7763439
11	0xbf63719d	-0.88845235
12	0xbe65b582	-0.22432521
13	0xbe8ab6c4	-0.27092564
14	0xbedabce4	-0.42722237
15	0x3e0b5737	0.13607489
16	0x3dc0a38c	0.09406194
17	0xbdd82a35	-0.10554925
18	0xbe7fcfc3	-0.24981599
19	0xbf1661a6	-0.5874275
20	0xbed00184	-0.40626156
21	0x3f0a7aee	0.54093826
22	0x3f03f8ce	0.5155152
23	0xbd97e2b9	-0.07416291
24	0xbe9fa95d	-0.311839
25	0x3c15adf0	0.009135708
26	0xbee3b180	-0.4447136
27	0x3e0bef13	0.13665418
28	0xbe9a0d4b	-0.30088267
29	0x3ea561ae	0.32301086
30	0xbf2050f7	-0.6262354
31	0xbf336f8a	-0.7009207
32	0x3cde1cd4	0.027113356
33	0xbdf4e2d5	-0.11957327
34	0xbdb5eac3	-0.08882668
35	0xbc90f46d	-0.017694676
36	0x3ea8034a	0.3281501
37	0xbed7008f	-0.41992614
38	0xbee5a3b3	-0.44851455
39	0x3d95eaa3	0.07320144
40	0xbf287328	-0.65800714
41	0x3e94b7c1	0.29046443
42	0x3ec634c8	0.38712144
43	0x3e540bc4	0.20707613
44	0x3ea4f650	0.32219172
45	0x3f207809	0.6268316
46	0x3f3b1696	0.7308134
47	0xbe830d28	-0.25595975
48	0x3d8aac87	0.06771188
49	0xbe3a579f	-0.18197487
50	0x3d414a89	0.047190223
51	0x3f28e8e2	0.6598035
52	0x3e7cbff0	0.24682593
53	0x3d1b7451	0.037952725
54	0xbee62dc2	-0.44956785
55	0x3d81f1a5	0.06344918
56	0x3e2b42ec	0.16724747
57	0x3e3723a8	0.17884696
58	0x3e786d8e	0.24260542
59	0x3ee53628	0.4476788
60	0xbd29fd29	-0.041501198
61	0xbf9d2f31	-1.2280027
62	0x3e3a11f8	0.18170917
63	0x3ea90533	0.3301178

module.model.2.model.1.running_var f4 [64]
0	0x3e94b571	0.2904468
1	0x3e9ccc98	0.30624843
2	0x3f4f7f03	0.8105318
3	0x3ed4c643	0.41557512
4	0x3f9ba6e9	1.2160312
5	0x400e5657	2.2240198
6	0x3e130596	0.143576
7	0x3ed8754b	0.42276987
8	0x3e444f49	0.1917087
9	0x3ecd48c3	0.40094575
10	0x3ec72ecb	0.38902888
11	0x3fa7b500	1.3102112
12	0x3fbd7ba6	1.480336
13	0x3e0e006d	0.1386735
14	0x3f43a738	0.7642703
15	0x3eba168a	0.3634532
16	0x3f67da14	0.90567136
17	0x3e1f7e06	0.15575418
18	0x3e9a2491	0.30106023
19	0x3ef8ffef	0.48632762
20	0x3f6a3d3a	0.91499674
21	0x3f44b9e7	0.76846164
22	0x3f465d4d	0.77486116
23	0x3f80d98e	1.0066392
24	0x3f8cfcda	1.1014664
25	0x3d544d31	0.051831428
26	0x3e651065	0.22369535
27	0x3ed115bd	0.40836897
28	0x3e627f23	0.22118811
29	0x3f520cdf	0.8205089
30	0x3e987b9c	0.29781806
31	0x3e690118	0.22754323
32	0x3fcae897	1.5852231
33	0x3f44d63b	0.7688939
34	0x3fc67b6f	1.5506419
35	0x3e82e690	0.2556653
36	0x3ea099d1	0.31367353
37	0x3eb043a6	0.34426612
38	0x3ea72a7e	0.32649606
39	0x3e93a300	0.28835297
40	0x3f10e15c	0.5659387
41	0x3e800708	0.25005364
42	0x403bdb6d	2.9352677
43	0x3eeedfbd	0.46655074
44	0x3e4d87b5	0.200713
45	0x3f7d5509	0.9895788
46	0x3e4f2fc4	0.20233065
47	0x3ed04297	0.40675804
48	0x3e983ed6	0.2973544
49	0x3d6c08a5	0.05762543
50	0x40050d01	2.0789187
51	0x3e84494a	0.25837165
52	0x3e1a4550	0.15065503
53	0x3f9da00d	1.2314469
54	0x3f0949e1	0.53628355
55	0x3e59e47a	0.21278563
56	0x3e5354f6	0.20637879
57	0x3f50aac3	0.8151056
58	0x3e6f4d3d	0.23369308
59	0x3e423551	0.18965651
60	0x3f2c1272	0.67215645
61	0x3ec913a7	0.39272806
62	0x3e55a628	0.20864165
63	0x3f05eb98	0.5231261
