output_nn_deblur_noise/ckpt/resnet_epoch37.pth (torch, 641723 bytes, 31 tensors)

module.model.0.weight f4 [64, 1, 1, 1]
000000 a8 1a 30 be 95 46 4a be 0e 0c 79 3e 89 a8 28 3e
       -0.17197669 -0.19753487 0.24321005 0.16470541
000010 00 e3 4c be a3 8a 58 3d 97 31 5e bd 1c 48 05 be
       -0.20008469 0.05286659 -0.05424651 -0.13015789
000020 c4 8f 30 3d 89 23 88 be ff 61 be bd 5f 24 5e 3e
       0.043105856 -0.2658961 -0.09296035 0.21693562
000030 ef 2f e0 bd 66 c7 19 be 47 3e fc bc 95 2b 74 3c
       -0.109466426 -0.1501747 -0.030791415 0.014902969
000040 e0 32 98 3d eb 32 a0 3c fb fc 1b 3e 93 73 be bd
       0.07431579 0.01955553 0.15233223 -0.09299388
000050 38 69 dc bd a3 3e 0d 3e 01 3b ae 3c d9 3e 43 3e
       -0.107622564 0.13793425 0.02126837 0.19066943
000060 e1 01 05 bd c8 e4 7c 3e 50 ac cb ba 93 bd 54 be
       -0.032472495 0.24696648 -0.0015539024 -0.20775442
000070 7a f9 c4 3d a6 42 72 be 83 2f 90 bd 27 c3 b0 bd
       0.096178964 -0.23658237 -0.07040312 -0.08630972
000080 4d 98 25 be 85 c1 78 be b0 54 97 be b3 72 52 3e
       -0.1617138 -0.24292572 -0.295568 0.20551567
000090 3e 5d b0 bd 32 b7 c6 bc b0 c3 54 bd 61 70 52 3e
       -0.086115345 -0.024257276 -0.051944435 0.20550682
0000a0 4d 11 5c 3d c9 8c e8 3d 91 da 35 be d1 aa 8d be
       0.053727437 0.11354978 -0.17759158 -0.27669385
0000b0 ac 9a 1c be 27 ba 88 be cf 50 be 3d b9 ea 3c 3e
       -0.15293378 -0.26704523 0.09292757 0.18448915
0000c0 3b f8 32 be 95 bf 62 3d a8 25 30 bd f5 33 50 3e
       -0.17477505 0.055358488 -0.04300466 0.2033232
0000d0 8c 8b 9c bc 9b 99 34 be 63 a1 72 3e 86 0f 08 3e
       -0.01910951 -0.17636721 0.23694377 0.13287172
0000e0 39 cb d3 bc 56 5b 97 be f2 3f de 3c 0c e5 5f 3e
       -0.02585374 -0.2956187 0.0271301 0.21864718
0000f0 a3 b4 1e be 77 b1 97 3e f3 a4 8e bc 66 25 e4 3d
       -0.15498595 0.29627582 -0.017412638 0.11139946

module.model.0.bias f4 [64]
000000 d7 6d 72 3b 22 cf 2d 3b dd 2d 26 3a 8d 71 c8 3a
       0.003699174 0.0026521166 0.00063392316 0.001529263
000010 5c 11 dd 3a c0 1b 2f 3b 78 02 d5 3a 5d aa 35 3b
       0.0016866135 0.002671942 0.0016251346 0.0027719953
000020 3c 69 1f 3b 53 34 9a 39 c0 d9 08 3b 83 1f 36 3a
       0.00243242 0.00029412154 0.0020881742 0.00069474446
000030 46 82 aa ba e8 5a c3 39 31 d1 5d 3b ba 0e 1c 3b
       -0.0013008795 0.0003726103 0.0033846612 0.0023812489
000040 70 b9 66 ba c5 e3 6b 3a 30 e7 09 3b 8e 69 01 3b
       -0.0008801436 0.0008998479 0.002104234 0.0019746753
000050 da 41 3f 3b 3c 12 26 ba 85 bb 0b 3a d5 49 30 ba
       0.0029183538 -0.00063351146 0.0005330372 -0.0006724869
000060 94 25 2f 3b d6 5b cb 3a 7f ed af 3a ef 8b 81 b8
       0.002672528 0.001551504 0.001342222 -6.177264e-05
000070 1d c5 b4 3a 95 19 82 b9 0c 8b 52 b9 2d 78 10 3a
       0.0013791654 -0.00024814592 -0.0002007896 0.00055110716
000080 da 9d 0a 3b df 1b b1 3a 16 ec dd 3a 6d fd fb 3a
       0.0021151216 0.0013512335 0.0016931321 0.0019225307
000090 91 a8 03 3b 2a 8b ab 39 c8 12 4d 39 bd ae 41 ba
       0.0020089487 0.00032719347 0.0001955732 -0.0007388404
0000a0 c3 60 e3 3a a2 a7 0e 3b 55 7d ca b9 35 74 5d ba
       0.0017347563 0.0021767397 -0.00038621822 -0.0008447797
0000b0 48 b6 5c 3b 12 f6 a7 ba b2 92 9e 3a 63 a1 35 3a
       0.0033677984 -0.0012814424 0.0012098162 0.00069286505
0000c0 73 0e 63 3b 3f 52 11 b9 8e 41 12 3b f6 82 44 3a
       0.0034646064 -0.00013858917 0.0022316906 0.00074963213
0000d0 c7 9b a9 3a 36 c8 50 3b 8e 09 8a ba 20 d7 f1 3a
       0.0012940102 0.0031857616 -0.0010531412 0.0018450953
0000e0 65 0a f8 3a 89 d8 bb 39 6c 1c 26 ba 0a d9 2a 3b
       0.0018923996 0.0003582875 -0.00063366327 0.0026069307
0000f0 12 f7 43 3b 55 72 09 3a a4 6c af 3a 4f 6d 1f b9
       0.0029901904 0.0005243172 0.0013383818 -0.00015204142

module.model.1.model.0.weight f4 [64, 64, 3, 3]
000000 1d a3 06 3d d7 b1 49 3b 64 4c 90 bc 2b 91 36 bd
       0.0328704 0.0030776167 -0.01761455 -0.044572037
000010 03 30 dd bc 76 b1 86 3d ad 84 75 bd df f5 5f bd
       -0.027000433 0.06576817 -0.059940983 -0.05467784
000020 ca 85 68 bd 98 2c 7b 3d 84 ea 31 3d 27 70 e5 bc
       -0.056768216 0.061321825 0.043436542 -0.02800758
000030 82 ea 15 3d 92 16 17 3d 75 05 a5 3c 6a 1c 78 3d
       0.036600597 0.03688676 0.020144204 0.060573973
000040 cd 49 28 3d 02 92 13 3d 70 5d 20 3d 31 f6 83 39
       0.041086007 0.036027916 0.03915161 0.00025169694
000050 41 de 0b 3d 9b c6 28 3d 85 77 24 bb 47 71 0a bc
       0.034147505 0.04120503 -0.0025095653 -0.008449859
000060 2b bf 68 3d a9 43 8b bd f4 5e 74 3d 6a fd 34 bd
       0.056822937 -0.068000145 0.059660867 -0.044186987
000070 74 12 4c bc 15 72 67 bb 56 e6 04 3c fa a3 2f 3d
       -0.012455571 -0.00353158 0.008111557 0.04288099
000080 8c bc 3a bd 47 0a 89 3d 60 4d f8 bc 86 ae 88 bc
       -0.04558997 0.066914134 -0.030310333 -0.016684782
000090 63 7e 39 bc 7b 85 e5 bc 9a 2a 1d 3c b6 6a 2d bd
       -0.011321637 -0.02801775 0.009592677 -0.042338096
0000a0 be 26 ab 3c 80 9f 3f 3b 52 b6 05 bc 0b 00 7f bb
       0.020892497 0.0029239357 -0.008161144 -0.0038909938
0000b0 5a 86 12 3d ea 26 34 3d 2e 38 45 3c 6d 10 8f 3d
       0.03577266 0.043982424 0.01203732 0.06985555
0000c0 25 5e 6b 3d 36 4b 94 39 a1 a2 26 bd 03 47 54 bd
       0.05746283 0.00028284796 -0.04068244 -0.051825535
0000d0 cb d6 82 3d b2 ad 53 bd 31 23 ba bc f7 91 50 3d
       0.06388625 -0.05167932 -0.022721859 0.050920453
0000e0 87 7b d8 bb bb 87 61 bd ae e7 69 3c d8 d6 54 3b
       -0.0066065225 -0.055061083 0.014276428 0.003247669
0000f0 fa 7c 53 3d 9a d0 7b bd 54 89 e0 bc 70 59 7f ba
       0.05163286 -0.061478235 -0.027409233 -0.0009740805
000100 86 1d a2 3b ac 15 44 3d 59 52 3b 3c 2a 35 83 bd
       0.004947367 0.04787223 0.011433207 -0.064066246
000110 63 0d 58 3c 39 06 2e 3c 90 54 ee bb f5 e8 2a 3a
       0.013186785 0.010621601 -0.007273264 0.00065196987
000120 ef b2 8d 3d c0 51 42 3d 0f 91 71 bd 12 de cc bc
       0.069188945 0.047441244 -0.05897623 -0.025008235
000130 b3 e2 02 bd 1e af 4d bd 58 a4 3c bd 67 69 b3 3c
       -0.03195448 -0.050215833 -0.046055168 0.021900846
000140 17 af 94 3c 3d c3 35 bd 4f 9e 74 bd 0c c3 92 bc
       0.018149896 -0.044375647 -0.059721287 -0.017915271
000150 8a 0c 3b bd c3 ba 61 3d c3 67 2d 3d 9b 01 bd bc
       -0.045666255 0.05510975 0.042335283 -0.023072055
000160 c3 85 71 bd bd 27 8e 3c 0e 25 90 bd 79 c1 50 bd
       -0.058965456 0.017352933 -0.070383176 -0.05096576
000170 fd fd f2 bc a7 e4 1b 3d 37 ae 91 3d 1f 72 45 3c
       -0.029662127 0.038059857 0.07113307 0.012051134
000180 a6 18 54 3d e8 ad c8 bc 08 34 bd bc a2 74 67 bc
       0.05178132 -0.024496987 -0.0230961 -0.0141269285
000190 ad 3c 50 bd ae 40 6d 3d bd 3d b4 bb a0 3c 87 bb
       -0.050839115 0.05792301 -0.005500524 -0.0041271
0001a0 85 95 b5 bc e6 02 56 3d 34 33 85 bd c2 5a 94 bc
       -0.022166023 0.052248858 -0.06503907 -0.018109683
0001b0 06 24 76 3d 77 67 0d bc af f2 99 3c e7 29 88 3d
       0.06009295 -0.008630625 0.018792478 0.06648617
0001c0 25 b2 f4 3c 57 71 04 3d 77 b4 6d bd be 8a 47 bb
       0.029870102 0.03233465 -0.058033433 -0.0030447687
0001d0 39 df 85 3d 4c a3 00 bd 2b 36 53 bd 75 0a 10 3c
       0.06536717 -0.031405732 -0.05156533 0.008791556
0001e0 d7 1b 86 bd a4 24 b6 ba c8 8e 37 bd 3a 65 81 3c
       -0.06548279 -0.0013896418 -0.0448139 0.015795339
0001f0 3d a5 2f 3d 80 57 78 3c ae be 33 3c af 81 84 3d
       0.042882193 0.01515758 0.010970755 0.06470048
000200 a0 89 02 3d bb 17 cd bc 77 ed e4 3c c3 7f 0a 3d
       0.03186953 -0.02503573 0.027945263 0.03381325
000210 6b 03 11 3c b0 30 21 bd 74 ce 46 3d f7 fc 2f 3d
       0.008850913 -0.039353073 0.048536733 0.042965855
000220 fa 36 88 bd 09 e7 3c bd 87 47 6c bd 83 8b 47 3d
       -0.06651111 -0.04611877 -0.0576854 0.048717033
000230 56 cc 61 3d de 3c 45 bd c0 9e 32 bd f1 3d 8e 3d
       0.05512651 -0.04815375 -0.043608427 0.06945408
000240 79 3c fc bc 44 78 f4 39 d7 d8 c6 3c 82 a0 89 3d
       -0.030790554 0.00046628912 0.02427332 0.067200676
000250 32 e1 85 3d 64 fb 45 bd e9 df e8 bc 1d fa a6 bc
       0.06537093 -0.048335448 -0.028427081 -0.020382935
000260 cf 6e f4 3c 20 3b 1f bd 8f dd 39 3d de c6 03 bd
       0.029837994 -0.038874745 0.04537731 -0.032172076
000270 41 80 87 bd 99 95 79 3d c9 13 fb bc e5 7d 8c bb
       -0.06616259 0.060933683 -0.030649083 -0.0042874687
000280 2f d1 6a bd af 9b 05 bd e2 db 90 3c 9c 8f 39 3d
       -0.0573284 -0.032619175 0.017682973 0.045302972
000290 f3 a7 57 bd 9d 7d fe bb 01 a3 c9 bc 67 58 1f 3d
       -0.052650403 -0.007766439 -0.02461386 0.038902666
0002a0 d2 d8 5c bd 02 69 dc bc 9b c4 37 3c 45 53 83 bd
       -0.053917713 -0.02690554 0.011216308 -0.06412367
0002b0 b2 6e ec 3c 08 91 b7 bc 5a 39 71 3d fa db 11 bd
       0.028861377 -0.022408023 0.058892585 -0.035610177
0002c0 47 06 24 bb 38 b5 03 bb 28 06 70 3d 7e e1 8c 3d
       -0.0025028156 -0.0020097028 0.05859962 0.06878947
0002d0 37 7d f6 bc 7f 0b 46 bd c8 bc 80 bd d9 81 93 bd
       -0.030089004 -0.048350807 -0.06286007 -0.07202501
0002e0 07 a3 54 bd 1d 12 17 bd 8c ab 8b 3c fa dd 05 3d
       -0.051913287 -0.03688251 0.017049573 0.032682396
0002f0 be a5 44 3d a2 52 29 bd 34 1c 17 bd 05 83 60 3b
       0.048009627 -0.04133857 -0.03689213 0.0034257781
000300 c9 b5 1c bd 37 e4 f2 bc c6 01 5a 3c ce 9d 16 3b
       -0.0382593 -0.029649837 0.013306087 0.0022982243
000310 7f 5d 87 3c 46 a4 08 bc ce 58 89 3b 66 be 70 bd
       0.016524075 -0.008339947 0.0041914945 -0.058775328
000320 bd e2 20 3d 07 db a7 bc 3c 2a 98 bc 46 17 de 3c
       0.039278734 -0.020490183 -0.018574826 0.027110707
000330 b4 c3 2f 3d d8 b2 62 3d 07 d2 17 bd 2e 57 03 3d
       0.042911246 0.05534634 -0.037065532 0.032065563
000340 6d 34 21 bb 34 56 3f bc 72 c4 f5 3c 3a fb 38 bd
       -0.0024597899 -0.011678267 0.030000899 -0.045161463
000350 5f b7 ce bc ba c2 21 3d 95 22 a9 3c 1f e9 94 3d
       -0.025233923 0.039492346 0.020646373 0.07271027
000360 63 1b 42 3d 91 7d 90 3d 60 58 d5 bc 95 31 0e bc
       0.0473894 0.070552 -0.026043117 -0.008678813
000370 2d de dc bb 90 29 42 3d 38 ef 48 bd 88 75 f9 bc
       -0.0067403526 0.04740292 -0.04905626 -0.030451551
000380 bf e3 7c 3c 83 e9 89 3c c6 55 03 bd cb 12 56 ba
       0.015435158 0.01683498 -0.03206422 -0.00081662525
000390 fe 19 3b 3d 29 d9 8a 3d ec 17 4a bc bf 46 86 3d
       0.045679085 0.06779701 -0.012334805 0.065564625
0003a0 c7 8b 1f bd b0 b6 1d 3b cf e9 f9 bb 49 59 4b bc
       -0.03895166 0.002406519 -0.007626749 -0.012411424
0003b0 8f 2b 19 bd 4a 03 3d 3d 18 05 63 bd c2 e0 18 3d
       -0.037395056 0.046145715 -0.05542478 0.03732372
0003c0 67 76 78 3d c8 e2 8b bd a1 5e 90 bd b4 e0 1f bc
       0.060659792 -0.068303645 -0.07049299 -0.009758163
0003d0 1d 5e 7e bd ac e8 a2 3c 01 7e c9 bc 1d 34 0b bd
       -0.062101472 0.019886337 -0.024596216 -0.033985246
0003e0 fe bf 0e 3d 4b 63 51 3d 17 35 40 3d 25 9e ee bc
       0.034851067 0.051120084 0.04692563 -0.029128144
0003f0 32 6b 7c bd 83 dd 3e 3d 82 42 6a 3b 98 34 78 3d
       -0.061625667 0.04659797 0.0035745208 0.060597032

module.model.1.model.0.bias f4 [64]
000000 1d 71 1d 3a 92 11 a6 3a 79 1b ca 39 ab 24 8b 3a
       0.000600593 0.0012670031 0.0003854891 0.0010615786
000010 0a e5 62 3a 2d 78 5b 3a 10 67 63 3a e4 67 82 3a
       0.00086553453 0.00083720946 0.00086747203 0.0009949175
000020 ff 7c 82 3a 8e c1 ca 3a e6 0f 55 3a 59 96 4e 3a
       0.0009955465 0.0015469061 0.0008127674 0.000788068
000030 4e 87 4f 3a 9d 69 66 3a 7a 84 7f 3a 29 e8 98 3a
       0.00079165853 0.00087895413 0.00097472186 0.0011665869
000040 bc e4 90 3a 3f 0c 32 3a 22 07 b1 3a 3d 96 ce 3a
       0.0011054496 0.0006791986 0.0013506154 0.0015761327
000050 c0 64 a6 3a 65 a6 e0 3a a0 b5 9d 3a 22 be b4 3a
       0.0012694821 0.0017139433 0.0012032278 0.0013789574
000060 81 57 74 3a 4c a8 96 3a 31 2b 71 3a a3 05 01 3a
       0.00093209004 0.0011494248 0.00091998564 0.00049217994
000070 20 8f c0 3a 97 43 82 3a 27 d8 b0 3a 46 25 cb 3a
       0.0014691092 0.0009938356 0.0013492153 0.0015498779
000080 18 9f 75 3a 61 0f 89 3a a6 f5 b9 3a 5a 52 0f 3a
       0.0009369715 0.0010456854 0.0014187589 0.00054672884
000090 0b ba ed 39 ed 9b 5d 3a 9c 4f 0f 3a b8 6c a8 39
       0.00045342775 0.0008453716 0.000546688 0.0003212446
0000a0 e1 39 3a 3a 98 68 b1 3a 1a bb 29 3a 1a 68 f5 3a
       0.00071039615 0.00135352 0.00064747187 0.0018723041
0000b0 cf ef 4a 3a 7b fe ab 3a a7 4c 8e 3a ba 5c a0 3a
       0.0007741423 0.0013122106 0.0010856584 0.0012234666
0000c0 ee 51 a7 3a 80 dc 05 3a d5 c6 59 3a 19 3f f2 39
       0.0012765506 0.00051064044 0.00083075213 0.00046204848
0000d0 dc 9b 82 3a 1d ff 9b 3a f5 a0 98 3a 4c e7 e8 39
       0.0009964663 0.0011901591 0.0011644649 0.00044422818
0000e0 19 b0 50 3a e4 c5 65 3a 30 46 2d 39 9b 61 23 3a
       0.0007960811 0.0008765145 0.00016524713 0.0006232501
0000f0 f6 a7 44 3a ee 97 b1 3a d8 5e 83 3a 5c 2d bf 3a
       0.0007501835 0.0013549307 0.0010022772 0.0014585662

module.model.1.model.1.weight f4 [64]
000000 ab 9b 7f 3f d6 d3 7f 3f e3 32 80 3f 8f 38 80 3f
       0.99846905 0.9993261 1.0015529 1.001726
000010 3f 0e 80 3f ef a5 7f 3f 25 09 80 3f a3 15 80 3f
       1.0004348 0.9986257 1.0002791 1.0006603
000020 b1 a5 7f 3f 23 3a 80 3f e6 28 80 3f d5 9c 7f 3f
       0.998622 1.0017742 1.0012481 0.9984868
000030 78 be 7f 3f 54 f6 7f 3f 77 13 80 3f 1d f4 7f 3f
       0.9990001 0.9998524 1.000594 0.9998186
000040 42 e2 7f 3f 49 1c 80 3f 17 22 80 3f 3b 9b 7f 3f
       0.9995462 1.0008632 1.0010403 0.9984624
000050 98 a1 7f 3f 70 cc 7f 3f cc ba 7f 3f 77 f2 7f 3f
       0.9985595 0.9992132 0.99894404 0.99979347
000060 d4 ab 7f 3f fa d0 7f 3f ec cd 7f 3f 2d cb 7f 3f
       0.99871564 0.9992825 0.99923587 0.99919397
000070 98 f8 7f 3f 58 1d 80 3f 3a 11 80 3f 5f cf 7f 3f
       0.999887 1.0008955 1.0005257 0.999258
000080 25 07 80 3f e4 36 80 3f 47 2a 80 3f 9c 75 7f 3f
       1.000218 1.0016751 1.0012902 0.9978883
000090 9e 22 80 3f 6f 03 80 3f 26 17 80 3f 30 1e 80 3f
       1.0010564 1.0001048 1.0007064 1.0009212
0000a0 6b dc 7f 3f 28 13 80 3f 19 28 80 3f 08 9d 7f 3f
       0.99945706 1.0005846 1.0012237 0.99848986
0000b0 85 ae 7f 3f 8d 0f 80 3f d9 cb 7f 3f a9 e0 7f 3f
       0.9987567 1.0004746 0.9992042 0.9995218
0000c0 f2 ac 7f 3f 1f 10 80 3f 49 d6 7f 3f 10 db 7f 3f
       0.9987327 1.000492 0.9993635 0.9994364
0000d0 0a 12 80 3f 8b 0d 80 3f 3d 26 80 3f 64 09 80 3f
       1.0005505 1.0004133 1.0011669 1.0002866
0000e0 5f 3a 80 3f eb f4 7f 3f 86 f6 7f 3f ce e1 7f 3f
       1.0017813 0.9998309 0.9998554 0.99953926
0000f0 33 22 80 3f 10 09 80 3f 07 1d 80 3f d5 f9 7f 3f
       1.0010437 1.0002766 1.0008858 0.9999059

module.model.1.model.1.bias f4 [64]
000000 48 85 9b ba b5 64 cd ba 9a 14 25 3b ec 08 e2 3a
       -0.0011865282 -0.0015670272 0.0025189281 0.001724509
000010 f4 22 e7 3a 77 d5 ab ba 4c 48 cf 3a 6d ed a5 3a
       0.0017634318 -0.0013109882 0.0015814393 0.0012659259
000020 bb d1 1d bb 24 f5 28 3a 6f f6 6c 39 07 e1 d8 ba
       -0.0024081308 0.000644522 0.00022598518 -0.0016546556
000030 ea ae 81 b9 a1 20 11 ba b5 ec 03 ba 67 52 b2 3a
       -0.00024735118 -0.0005536173 -0.00050325255 0.001360488
000040 58 d3 40 ba e2 b2 95 39 99 f6 c1 39 bf b8 af ba
       -0.00073557114 0.00028552773 0.00036995558 -0.0013406499
000050 4c 11 de ba 94 7b fd ba 4d eb 40 b8 4b ea 04 bb
       -0.0016942411 -0.0019339197 -4.5995508e-05 -0.002028125
000060 f9 7d d2 ba 5b c4 4d 3a 4a 18 bc 37 b9 21 2f 38
       -0.0016059271 0.00078493886 2.2422657e-05 4.1754658e-05
000070 c6 7c b5 b7 d1 80 6e 3a 12 79 05 bb 57 98 82 ba
       -2.1634984e-05 0.00090981746 -0.0020366353 -0.0009963614
000080 8a 3c 3a ba 5e 1b 0c 39 0c 23 a4 b7 a6 ed 6a ba
       -0.0007104358 0.00013361636 -1.9566643e-05 -0.0008961804
000090 b5 df 84 3a 9c eb 35 3a d6 39 af 3a 12 db ea 3a
       0.0010137471 0.00069397106 0.0013368677 0.0017918071
0000a0 ca 2b dc 3a e0 6a 0b 3b 25 c8 dd 3a a7 ad ef ba
       0.0016797718 0.002127342 0.001692061 -0.0018286005
0000b0 21 8b 01 3b 48 b5 c6 39 89 a5 b2 3a b7 4d e9 ba
       0.0019766765 0.00037900568 0.0013629656 -0.001779965
0000c0 d3 ed 8e 3a eb 67 9b 3a 74 48 67 39 ef 89 2e 3b
       0.0010904617 0.0011856531 0.00022056868 0.0026632508
0000d0 b2 e1 84 b7 5e 6e eb 3a 00 a2 63 3a 1c 24 2b 3a
       -1.5840724e-05 0.0017961969 0.00086835027 0.0006528513
0000e0 e9 d6 b5 3a 3f cd c6 3a 2b 12 0b 3b 7f 44 e4 3a
       0.0013873252 0.0015167369 0.0021220546 0.0017415433
0000f0 f5 92 2f 3a 6a d7 c7 b8 72 a9 f2 b8 a9 93 b6 ba
       0.00066976185 -9.5291834e-05 -0.00011571021 -0.0013929504

module.model.1.model.1.running_mean f4 [64]
000000 1a c5 6d 3a eb 15 3d 3b fe b1 0a ba 4b 04 4a 39
       0.0009070203 0.0028852175 -0.0005290805 0.0001926582
000010 a3 3c 66 3a 76 c1 46 3b ba d4 d2 3a 78 1e 7f bb
       0.0008782839 0.0030327714 0.0016085126 -0.0038928073
000020 3a a9 8e ba 37 7c 2b 3a 3d b6 40 3a 03 03 80 3b
       -0.0010884174 0.0006541642 0.00073513744 0.003906609
000030 9d 48 80 39 26 c6 97 39 24 be 57 3a c6 2b 1c bb
       0.00024468164 0.00028948596 0.0008229932 -0.0023829802
000040 85 f7 6f 3a a6 7b 87 3a a2 77 ab 3b 16 a5 13 38
       0.000915401 0.0010336533 0.005232767 3.520128e-05
000050 13 d0 c6 39 6c 22 a6 3a 99 c9 ee 3a 43 ea 05 3b
       0.0003792053 0.0012675053 0.001821804 0.002043382
000060 8f a5 35 3b 30 6b d5 3b b3 a8 c0 38 fd 02 be 39
       0.0027717089 0.006513022 9.186696e-05 0.0003624185
000070 d7 ed 8b 3b 1f f1 67 3b 0f 99 5f bb 71 63 2a 3b
       0.004270296 0.0035391522 -0.003411833 0.0025999213
000080 06 ea 44 3b b4 fb 85 3a 83 07 43 3a 11 5f 60 39
       0.0030046715 0.0010222108 0.0007439779 0.0002139772
000090 8e 91 45 ba f0 9c 8c 3a 87 d5 aa b9 bd 95 92 b9
       -0.0007536643 0.0010727923 -0.00032584017 -0.00027958854
0000a0 f3 97 7e bb 09 f3 71 3b 55 74 1f ba 38 00 05 3b
       -0.0038847893 0.0036918542 -0.00060827035 0.002029432
0000b0 c1 56 ec b9 1e 07 23 3b 63 1a 4d 3a 45 e5 71 3b
       -0.00045078064 0.0024876068 0.00078240613 0.0036910337
0000c0 d4 17 d2 ba 66 af 6e bb 13 c5 4e 3a 9a a7 74 3a
       -0.001602883 -0.0036420464 0.0007887643 0.0009332836
0000d0 24 32 e1 38 e2 0d 87 b8 bf 4d 20 39 1b 83 8c 3a
       0.000107381755 -6.4398875e-05 0.00015287752 0.0010720225
0000e0 0f af 47 3a 4b f5 d4 3a 2f 78 91 bb 71 f4 93 b9
       0.00076173333 0.0016247419 -0.004439376 -0.00028220148
0000f0 95 4f 20 3b 86 1b 57 3b 76 8f db ba 52 78 f7 3a
       0.0024461497 0.0032822802 -0.0016751129 0.0018880463

module.model.1.model.1.running_var f4 [64]
000000 fe d9 0a 38 64 df 50 37 bc bf 2c 38 0a 61 c0 36
       3.3104785e-05 1.2449778e-05 4.1186562e-05 5.7333427e-06
000010 47 d3 f9 37 96 ef a3 34 6f bf 03 36 c8 72 eb 37
       2.9781497e-05 3.0535438e-07 1.963195e-06 2.8067632e-05
000020 6f b2 24 36 97 e6 9a 38 3c 4a 04 35 b0 33 67 38
       2.4541766e-06 7.386243e-05 4.928186e-07 5.512283e-05
000030 66 53 38 36 da ed 12 37 ab 0a f3 37 9c df 3a 38
       2.746668e-06 8.757657e-06 2.8972825e-05 4.4554108e-05
000040 94 9c 45 38 25 94 83 38 d6 04 5f 37 94 6a c2 34
       4.7114285e-05 6.274161e-05 1.3292962e-05 3.6212862e-07
000050 64 3c cb 35 2e 37 76 37 bc 05 a0 37 1a 0d 29 39
       1.5142255e-06 1.467559e-05 1.9076157e-05 0.00016121977
000060 45 d3 0a 37 38 e8 41 38 96 14 8a 36 01 52 5d 35
       8.274631e-06 4.6231056e-05 4.115117e-06 8.2448247e-07
000070 e3 e8 6c 37 f1 7c dd 38 8d f3 a9 37 10 da 85 36
       1.4120919e-05 0.00010561373 2.0259782e-05 3.9890947e-06
000080 fe 6f 95 38 bd e4 02 39 62 8f 17 39 14 68 97 36
       7.125734e-05 0.00012482978 0.00014453896 4.512267e-06
000090 0c bc 15 37 d8 1f ac 38 f8 64 51 37 19 52 d4 37
       8.924875e-06 8.2075305e-05 1.2480879e-05 2.5310599e-05
0000a0 3e 86 41 38 57 b4 ba 35 75 a7 ce 38 5e c5 ca 34
       4.613981e-05 1.3910566e-06 9.854037e-05 3.7769036e-07
0000b0 2a 98 2f 37 81 42 3a 38 a0 6e 9e 37 04 43 3a 38
       1.0466241e-05 4.4407792e-05 1.8886582e-05 4.440827e-05
0000c0 d2 3a f9 35 47 b1 43 38 70 c1 1b 37 e1 69 e9 37
       1.8569065e-06 4.6656725e-05 9.283758e-06 2.7825068e-05
0000d0 5c b8 d0 34 d2 0e 54 38 f3 f3 3a 36 1a 30 84 36
       3.8877158e-07 5.055854e-05 2.7858157e-06 3.9395063e-06
0000e0 3d 08 be 38 58 c1 3e 37 74 5b 24 38 e7 ed 24 38
       9.0614405e-05 1.1369899e-05 3.918582e-05 3.932221e-05
0000f0 e9 88 23 34 25 b2 71 38 35 0b 99 35 4f c8 45 38
       1.5230366e-07 5.7624788e-05 1.140265e-06 4.7155012e-05

module.model.1.model.3.weight f4 [64, 64, 3, 3]
000000 7b f6 11 3c 26 89 1b 3d 83 1f 51 bd 07 4f 3f bd
       0.008908863 0.03797259 -0.051055443 -0.046706226
000010 c2 a7 44 3a 5b 53 e0 ba cc 4e 0a bd 95 00 80 bd
       0.00075018045 -0.0017114686 -0.033766553 -0.06250111
000020 80 ad 85 3d 33 c7 5a 3d da 5a 52 bd e9 82 5c 3d
       0.06527233 0.053412627 -0.051356174 0.053835783
000030 a2 16 80 bd 45 76 2e bd 6a a1 4c bd ae 67 d6 bb
       -0.06254317 -0.04259326 -0.049958624 -0.0065431213
000040 ef a3 25 3d cb d0 f2 3c 53 ac 7b bd ba d8 fd bc
       0.040439542 0.029640576 -0.061443638 -0.030987132
000050 18 c4 e1 ba b8 ae b8 bc 09 49 1d bd 5f 1f 7f bd
       -0.0017224578 -0.02254425 -0.03839973 -0.062285777
000060 67 2f 22 3d 1a f2 12 bd 2f f1 7a bd 11 01 12 bd
       0.039595988 -0.035875417 -0.061265167 -0.03564555
000070 f0 ba 2b bc 2c 6c 4b 3d 0d 2e 8f 3d f9 15 9d 3c
       -0.010481581 0.049663708 0.06991205 0.019175516
000080 ef a4 1a bd 82 76 87 3d 37 49 7b bd 90 cc 7c 3b
       -0.03775495 0.066144004 -0.06134912 0.0038574077
000090 6c ff 8b bc 8f 6a ee bc a0 05 34 bd 94 e6 34 3c
       -0.017089568 -0.029103545 -0.043950677 0.011041302
0000a0 d4 09 fe 3b 16 82 17 3b a5 d7 dc bc 21 e7 36 3d
       0.0077526364 0.0023118309 -0.026958296 0.044654015
0000b0 1a 44 dc bc 2a c4 e8 3c 4d 96 09 bd 64 6b 8b 3c
       -0.026887942 0.02841385 -0.033590604 0.017018981
0000c0 48 fd 55 bd 74 d1 24 3d ab 4d 1d bd 81 a2 c3 bc
       -0.0522435 0.040238813 -0.038404148 -0.023881199
0000d0 b3 fd d3 bc 51 59 36 bd 76 8d 63 bc c4 71 f1 bc
       -0.02587781 -0.044518773 -0.013888707 -0.029473193
0000e0 5e 13 59 bc 45 2f 2e 3d 88 2a 4a bd d6 57 f1 3c
       -0.013249246 0.04252555 -0.049356967 0.029460829
0000f0 79 04 35 3d 18 df 22 bc 7d f9 8d bd 1c 67 ff 3c
       0.04419372 -0.009940885 -0.06932352 0.031177096
000100 bb c7 7e 3c 28 6f ae bc a9 0f 86 3d 02 e6 61 bd
       0.015550549 -0.021293238 0.06545956 -0.055150993
000110 8e bf 6d 3a 41 7d eb bc 4f 8f ff bc 4b c1 72 3c
       0.00090693764 -0.02874625 -0.031196265 0.014816592
000120 d9 6b 03 3d 26 1b 85 3d de f1 4e 3d 21 2f 83 bd
       0.032085273 0.06499319 0.05052363 -0.064054735
000130 74 c5 1b bd 72 f5 4b 3d d4 96 68 bd cd e7 02 3d
       -0.038030103 0.04979462 -0.056784466 0.031959344
000140 cb fc 6c bd ff 55 15 3d 6e 49 86 3d b6 74 02 bd
       -0.05785827 0.036458965 0.06556974 -0.031849585
000150 01 13 67 bd fd 06 28 bd b2 d3 f4 bc e4 8b c9 bb
       -0.056414608 -0.04102229 -0.0298861 -0.0061507095
000160 ab 72 92 3d 76 45 b2 3c 3a a6 5b 3d bb 65 6e 3d
       0.071507774 0.021761637 0.053625323 0.058202486
000170 33 39 59 bd a2 9b f1 bc d8 58 fa 3c 2b c1 a8 3c
       -0.053033065 -0.029493157 0.030559942 0.020599922
000180 ee 45 2b bd 3d e0 8d bc 48 18 1a bd 10 37 4d 3d
       -0.041814737 -0.01731884 -0.037620813 0.05010134
000190 dd 56 c3 bc 02 fe 8b bd 24 4b 00 3d d6 8f 01 3d
       -0.02384513 -0.068355575 0.03132166 0.031631313
0001a0 d3 e1 a9 3c b9 0d 9b bc d9 54 1f bd 5f 6c 59 ba
       0.020737564 -0.018927442 -0.038899276 -0.00082940416
0001b0 6f 7f d8 bc 21 b2 25 3d 82 25 66 3d b7 3b 6b 3d
       -0.026427953 0.04045308 0.056188114 0.057429995
0001c0 41 68 2e 3b 3a 0c b5 bb 14 dd e9 bc 92 35 67 3d
       0.0026612433 -0.005525139 -0.028547801 0.056447573
0001d0 0f 13 54 3c 93 37 04 bd c9 b1 db 3c 9b 32 31 3d
       0.012943997 -0.032279562 0.026818173 0.04326115
0001e0 55 5f c5 bc e7 47 93 3d 44 54 f9 bb 9b 35 ac bb
       -0.02409331 0.07191449 -0.007608922 -0.0052554137
0001f0 e6 a7 b6 3c 2c d5 8e bd 6f df 8f 3d 27 6b 97 bc
       0.022296857 -0.06974253 0.070250385 -0.018483711
000200 c7 47 c4 bc 9a 94 77 bd 46 8b 2c bd 14 3c 19 bd
       -0.023960007 -0.060444452 -0.04212501 -0.03741081
000210 55 40 bb bc e0 17 53 3d 3f 3e 2b bd e1 df cf bb
       -0.022857824 0.05153644 -0.04180741 -0.006343827
000220 72 06 70 3d da 7a 9e bc 24 09 0c 3b 45 5b 4a bd
       0.058599897 -0.01934569 0.0021367753 -0.049403448
000230 6a dc 4f 3b e4 d4 66 bd 06 49 5a 3d 3d 5b ea 3b
       0.003171707 -0.056355372 0.053292297 0.0071519897
000240 2a 1b 2c bd 93 02 0c bd 63 fd b9 3c e8 00 00 3c
       -0.042018093 -0.034182142 0.022703832 0.007812716
000250 9f 9b 01 bd 63 4f a5 bc 30 f5 ef 3c 85 eb 69 3c
       -0.031642552 -0.020179456 0.02929172 0.014277344
000260 01 7d 84 3d da 32 f5 bc b4 ce 1e 3d 98 39 ea bc
       0.06469155 -0.029931474 0.038771346 -0.028591916
000270 54 9a 2c 3b 0b 2f fd bc 02 f2 8c bd 68 f9 14 3d
       0.0026337104 -0.03090622 -0.06882097 0.036370665
000280 97 90 7c 3c d1 ab ae 3c 95 22 86 3c 41 7b 68 bd
       0.015415332 0.021322163 0.016373912 -0.05675817
000290 9c 42 49 3d 8c fb 5e bd 20 44 73 3d 57 0b 5c bc
       0.04913579 -0.054439113 0.05939114 -0.013430438
0002a0 0a 01 3b bd 0e 85 f4 38 22 f0 7b bd 6a ff cb 3c
       -0.045655288 0.0001165961 -0.061508305 0.024902064
0002b0 88 4f 80 3c 26 3e 89 3c dc 13 21 3d 80 72 41 bb
       0.015662923 0.016753267 0.03932558 -0.002951771
0002c0 0b 65 d0 bb 59 03 9a bc e8 11 a2 3b d5 d8 80 bc
       -0.0063597015 -0.018800424 0.0049459822 -0.015728394
0002d0 3a e9 0a 3d 2a 69 4b bd 0a 14 27 3d 13 07 01 bd
       0.03391383 -0.04966084 0.040790595 -0.031500887
0002e0 9f 9a 73 bd 6e 1d f3 bc 9f 54 8f bd 5d 0c c7 3c
       -0.05947363 -0.02967712 -0.06998562 0.024297887
0002f0 31 d6 85 3d 8d d1 15 3d ab 0d a1 3c d8 b5 e8 3c
       0.065349944 0.036576796 0.019659838 0.028407022
000300 76 07 ba 3b 3f b5 4a bd d7 ae 62 3d 66 a7 72 3d
       0.005677159 -0.049489256 0.05534252 0.059241675
000310 1d d7 4a 3d f6 4d 18 3d 27 83 bd bc e5 0f 8e bd
       0.049521554 0.037183724 -0.023133827 -0.069366254
000320 fb 27 ac bb 97 a9 20 3c 3a bd 5e bc 39 0d 9f bb
       -0.0052537895 0.009806058 -0.01359492 -0.004853871
000330 e8 2e 1e bd dd 2c 3e bd 5d c8 df 3b 7a 45 8e bc
       -0.038618952 -0.046429504 0.006829305 -0.017367113
000340 c3 d9 95 3d cc 69 10 3d af ff 00 3d c6 6a 14 3d
       0.073169254 0.035257146 0.03149384 0.03623464
000350 c8 34 09 3d e6 73 ba 3c 44 07 34 bd 8d db 68 3d
       0.0334976 0.022760343 -0.04395224 0.056850005
000360 15 b6 13 3d aa ab 84 bd 75 c1 90 bd 93 fa 0a bd
       0.03606232 -0.06478055 -0.07068149 -0.033930372
000370 83 36 20 bd b8 1c 59 3b 3b 77 56 bb 29 16 ef bb
       -0.039114486 0.003312869 -0.0032724875 -0.007296343
000380 cf ab 99 3b 81 95 21 bd 3d dc 3c 3d ad 38 55 3c
       0.0046896706 -0.03944922 0.046108473 0.013014001
000390 c0 1f 8c bd 09 b6 34 bd 37 32 d6 3c 2a 30 33 3d
       -0.06841993 -0.044118915 0.026146991 0.043747105
0003a0 61 68 5e 3d 09 e5 2f bd 7d e5 83 3d 44 84 44 bd
       0.054298762 -0.042943034 0.06440256 -0.0479777
0003b0 42 c3 8e 3d 85 0b 63 3d 6c 56 69 3d 06 9e 8c bc
       0.06970836 0.055430908 0.056967184 -0.017165195
0003c0 f2 62 c2 bc 1b 8b 88 3d 58 62 dd 3b f8 05 6f bd
       -0.023728821 0.06667157 0.0067561083 -0.0583553
0003d0 b7 dc 94 bb c4 d4 3e 3d 1d 23 da 3c 92 a3 0e bd
       -0.004542913 0.046589628 0.026628071 -0.03482396
0003e0 71 46 6f bd be 9f 3d bd e8 d9 eb bc b8 5e b4 bc
       -0.058416788 -0.04629492 -0.02879043 -0.022017822
0003f0 c6 4e 5d 3d ec a6 8a bd 01 fb f3 bc 48 7a 26 bd
       0.054030202 -0.06770119 -0.029782774 -0.04064396

module.model.1.model.3.bias f4 [64]
000000 00 6c 79 3a 44 06 63 3a e0 46 84 3a 96 e1 83 3a
       0.00095146894 0.00086602964 0.0010091923 0.0010061737
000010 77 7c 85 3a 13 0b 7c 3a f3 b1 7b 3a 67 e8 89 3a
       0.0010184188 0.00096146873 0.00096014066 0.0010521532
000020 e3 0a 7b 3a 36 ac 7f 3a b8 97 88 3a c2 c2 85 3a
       0.00095765124 0.00097531395 0.0010421192 0.0010205137
000030 60 d7 65 3a 8b 84 81 3a a4 1c 81 3a cb fa 80 3a
       0.000876775 0.000988142 0.0009850455 0.0009840367
000040 82 4c 75 3a 9a d7 61 3a a0 3c 58 3a 62 d0 88 3a
       0.0009357409 0.0008615196 0.000824878 0.001043808
000050 31 d8 7f 3a 8a 2d 81 3a 70 cd 83 3a e3 2d 9a 3a
       0.0009759693 0.0009855491 0.0010055732 0.0011762943
000060 55 eb 87 3a 4b 95 82 3a ed c5 92 3a 36 d1 81 3a
       0.0010369817 0.0009962706 0.0011197902 0.0009904269
000070 ca e6 83 3a 17 49 be 3a f3 3b 89 3a 6d b9 86 3a
       0.0010063287 0.0014517632 0.0010470137 0.001027865
000080 e6 65 80 3a 7b 68 79 3a 25 64 7b 3a 98 8f 80 3a
       0.0009795993 0.0009514165 0.0009589813 0.0009808419
000090 f3 25 82 3a 93 49 82 3a 5d 25 85 3a d5 95 84 3a
       0.0009929523 0.000994014 0.001015823 0.0010115454
0000a0 6e 06 90 3a a9 be 69 3a 12 cc 8a 3a 70 48 6e 3a
       0.0010988244 0.0008916655 0.0010589382 0.00090897735
0000b0 d6 b4 7b 3a ae 66 87 3a 4a 39 84 3a 57 96 64 3a
       0.0009601837 0.0010330284 0.0010087874 0.0008719912
0000c0 73 84 63 3a 84 f0 84 3a be c3 80 3a e5 aa 7f 3a
       0.0008679099 0.001014248 0.0009823961 0.00097529433
0000d0 d9 0c 88 3a 81 40 81 3a 4e 5c 90 3a 55 01 83 3a
       0.0010379805 0.0009861143 0.0011013837 0.0009994904
0000e0 b9 ce 87 3a 73 32 81 3a 07 ca 7f 3a d6 8e 6e 3a
       0.0010361291 0.0009856954 0.00097575824 0.00091002637
0000f0 65 b1 81 3a b7 fe 76 3a 3c e3 84 3a 79 70 82 3a
       0.0009894787 0.0009422111 0.0010138522 0.0009951732

module.model.1.model.4.weight f4 [64]
000000 f2 43 80 3f 56 3b 80 3f 51 aa 7f 3f 73 13 80 3f
       1.0020735 1.0018108 0.9986926 1.0005935
000010 f1 ea 7f 3f 8a ec 7f 3f 66 32 80 3f 81 68 7f 3f
       0.9996787 0.99970305 1.001538 0.99768835
000020 90 38 80 3f be db 7f 3f 3d de 7f 3f 37 a2 7f 3f
       1.0017262 0.99944675 0.99948484 0.99856895
000030 88 41 80 3f cc 2a 80 3f 27 2f 80 3f 1d ff 7f 3f
       1.0019999 1.001306 1.001439 0.99998647
000040 1f c4 7f 3f 45 27 80 3f c9 37 80 3f 57 a6 7f 3f
       0.9990863 1.0011984 1.0017024 0.9986319
000050 7a 28 80 3f 78 32 80 3f b8 09 80 3f ca 88 7f 3f
       1.0012352 1.0015402 1.0002966 0.998181
000060 c1 76 7f 3f 58 19 80 3f 03 98 7f 3f fc 38 80 3f
       0.9979058 1.0007734 0.99841326 1.001739
000070 12 12 80 3f ae 7d 7f 3f 07 b1 7f 3f 3b b8 7f 3f
       1.0005515 0.99801147 0.998795 0.9989049
000080 d3 1c 80 3f da 39 80 3f 30 a6 7f 3f 16 32 80 3f
       1.0008796 1.0017655 0.99862957 1.0015285
000090 07 1b 80 3f e9 dc 7f 3f 22 cf 7f 3f 7b e5 7f 3f
       1.0008248 0.9994646 0.99925435 0.99959534
0000a0 32 76 7f 3f a7 4a 80 3f c7 65 7f 3f 57 3d 80 3f
       0.99789727 1.0022782 0.99764675 1.001872
0000b0 f5 4a 80 3f 95 aa 7f 3f e3 b9 7f 3f 15 3f 80 3f
       1.0022875 0.9986966 0.99893016 1.0019251
0000c0 d6 42 80 3f 04 c6 7f 3f fa 11 80 3f b2 3b 80 3f
       1.0020397 0.9991152 1.0005486 1.0018218
0000d0 84 37 80 3f b7 30 80 3f 33 a8 7f 3f 6a 32 80 3f
       1.0016942 1.0014867 0.99866027 1.0015385
0000e0 80 93 7f 3f 00 24 80 3f 4e e5 7f 3f 4c 3b 80 3f
       0.9983444 1.0010986 0.99959266 1.0018096
0000f0 89 3d 80 3f 5c f7 7f 3f 4d 33 80 3f f0 18 80 3f
       1.0018779 0.99986815 1.0015656 1.000761

module.model.1.model.4.bias f4 [64]
000000 83 ba 05 3b cc de 01 3b ba 88 e0 ba 41 3f cf ba
       0.002040536 0.0019816635 -0.0017130591 -0.0015811698
000010 f0 44 f7 ba 44 3d 8e 3a 1b 93 dd 3a 49 44 8f ba
       -0.001886515 0.0010851999 0.0016904803 -0.0010930385
000020 0b 1d eb 3a 72 f1 bb ba a3 7d fa 3a bb 0f 2f 39
       0.0017937733 -0.0014338924 0.0019110929 0.0001669516
000030 f3 8d 04 3b 93 5f c8 3a 54 6b ec 3a a4 71 ad b9
       0.002022621 0.0015287272 0.0018037357 -0.000330818
000040 bd fb 2e 3a 6b 9e f0 3a 0f d6 fb 3a 77 be f4 ba
       0.0006675085 0.0018357759 0.0019213575 -0.0018672486
000050 72 cb ef 3a 06 60 f1 39 4c 0f 1e bb 03 14 05 bb
       0.0018294884 0.00046038645 -0.0024118004 -0.0020306117
000060 f4 11 17 bb 7b e2 05 3a cc 0e 02 bb 5a 31 f5 3a
       -0.0023051472 0.00051072956 -0.0019845245 0.0018706725
000070 44 c1 10 3a 22 cf 10 bb e0 4b 03 bb 54 23 ff ba
       0.0005521963 -0.0022096117 -0.0020034239 -0.0019465485
000080 bb 0d 15 39 1b 4c ed 3a 88 7c d9 ba e7 dc cf 3a
       0.00014214862 0.0018104346 -0.0016592899 0.0015858681
000090 5d a1 01 3b 58 84 50 38 82 63 38 b7 90 7f 30 ba
       0.0019780018 4.971432e-05 -1.0990423e-05 -0.00067328755
0000a0 7c 20 f3 ba 3d 67 18 3b 0c a5 02 bb 5d ae 06 3b
       -0.001854911 0.0023254894 -0.0019934801 0.0020550706
0000b0 1e 13 07 3b 4c 5d 02 bb 1d 2c 7d 3a 68 44 fe 3a
       0.002061076 -0.0019892035 0.00096577575 0.0019399049
0000c0 ad 4f 07 3b 04 a4 cb ba 25 50 ff 3a 22 d6 09 3b
       0.0020646856 -0.0015536551 0.0019478841 0.0021032174
0000d0 0b 4f 05 3b 0f bc e7 3a 43 be f2 ba 44 85 f6 3a
       0.0020341303 0.0017679947 -0.0018519837 0.0018808027
0000e0 b7 21 0e bb fe e8 ec 3a 22 ca 8a ba 24 cc f1 3a
       -0.0021687576 0.0018074808 -0.0010588805 0.001844768
0000f0 fa 3e 12 b9 ac a4 b1 3a 1d d8 fa 3a 7a 44 04 bb
       -0.00013947106 0.0013553104 0.0019137893 -0.0020182417

module.model.1.model.4.running_mean f4 [64]
000000 a0 fd e4 be 46 6e 1d bf 68 bb 64 3e 5c 8d 43 3d
       -0.4472475 -0.6149639 0.22337115 0.047742233
000010 bf d0 c7 3e f1 9b a1 3d 4e 4d b5 be d2 40 c9 bd
       0.39026448 0.078910716 -0.3541054 -0.098268166
000020 0f 1e a4 3e 52 62 85 3e 5e f1 cf be 6a 4e 28 3e
       0.32054183 0.26051575 -0.40613836 0.16436163
000030 99 94 a3 be c6 10 12 3e 83 80 92 bd eb da 56 3e
       -0.3194931 0.14264211 -0.07153418 0.20981948
000040 1d 0f 9c 3e 3c f3 12 be 4d 94 de be ab 64 59 3d
       0.3048028 -0.14350599 -0.4347252 0.05307452
000050 3d 48 e0 bd 0c 18 80 3e 75 d7 11 3e ed 49 1c bc
       -0.10951278 0.25018346 0.14242347 -0.00953911
000060 20 17 d4 3e 5b 09 94 3b e4 74 c4 bb e0 64 ab 3e
       0.41423893 0.004517717 -0.0059953798 0.334754
000070 06 85 93 3e c1 b0 4c 3d 4f 2f 98 3e 8f 68 87 3e
       0.28812426 0.049973253 0.29723594 0.2644696
000080 05 d9 3b be f8 33 d3 bc 27 69 d4 3e 98 90 8e 3e
       -0.18344505 -0.025781617 0.41486475 0.2784469
000090 63 c9 02 be 2b c9 db be 3a 5b 2a 3e e2 50 e0 bd
       -0.12772135 -0.42926916 0.16636363 -0.10952927
0000a0 ae 8f c9 be a0 5c e7 be f9 23 94 be c6 22 83 be
       -0.3936743 -0.45187855 -0.28933695 -0.25612468
0000b0 98 6d 18 bf 78 f2 0e 3e 95 41 8d b9 f8 5f 87 be
       -0.59542227 0.13959682 -0.00026942478 -0.26440406
0000c0 d9 3f 25 be 0c a6 64 3d c3 58 1f bf b8 a2 94 bd
       -0.16137637 0.055822417 -0.62244815 -0.07257599
0000d0 7b bd ff 3e c4 62 b7 3e 95 4b 9f 3d e6 09 61 bd
       0.4994925 0.3581754 0.07778088 -0.05494108
0000e0 fe 51 3e be 89 a0 60 3e ee 6b 91 3e 01 63 30 be
       -0.18585965 0.2193624 0.28402656 -0.17225267
0000f0 54 6e e5 bc be 6c d2 be 62 99 3a 3d 84 40 a0 3d
       -0.02800671 -0.4109859 0.045556433 0.078248054

module.model.1.model.4.running_var f4 [64]
000000 8c c3 ed 3e a2 9c 08 3e b0 af 01 3d 08 9c d9 3c
       0.46438253 0.13341 0.03166169 0.02656366
000010 9e f2 90 3d ed f7 cf 3c 95 96 96 3f 2b 21 ba 3c
       0.070775256 0.025386775 1.1764704 0.022720894
000020 c7 e0 dd 3e e1 f0 75 3e 03 6f 06 3e da 32 2e 3d
       0.43335554 0.2401767 0.13128285 0.042528965
000030 51 df 5b 3d a1 da 1a 3e 3d d5 9c 3f c6 93 db 3c
       0.053679768 0.15122463 1.2252575 0.026803862
000040 e4 cd 87 3d 98 f7 bf 3e 8e 8a a9 3e b2 fb 12 3f
       0.066310674 0.37493587 0.3311352 0.57415307
000050 dd dd 2a 3e fe 68 53 3d 2a 2f 9f 3c 0b 7b 7d 3e
       0.16686197 0.0516138 0.01943167 0.24753968
000060 ab 6c 1f 3e 02 f3 0c 3f a0 e5 df 3e b8 80 ab 3d
       0.15568797 0.550583 0.43729877 0.083741605
000070 10 37 04 3f f4 f6 d0 3c 18 38 ce 3e c1 00 18 3d
       0.5164652 0.025508381 0.4027717 0.037110094
000080 4f 17 95 3e f3 00 53 3e 62 be c3 3e c5 74 ea 3e
       0.29119346 0.20605831 0.38231188 0.45792213
000090 3c e8 5d 3f 13 93 d0 3e 9b 59 d9 3d 5d 81 b2 3e
       0.86682487 0.4073721 0.10612794 0.3486432
0000a0 ca 20 8c 3d 9f 63 06 3e 58 cd 02 3f 67 6e 93 3d
       0.068421915 0.1312394 0.5109458 0.07198792
0000b0 ac 47 2a 3f 13 9b 95 3f 0c e5 21 3f e0 93 09 3e
       0.6651561 1.168795 0.6324012 0.13435316
0000c0 45 70 25 3d 63 cf c2 3e 67 15 dd 3e b4 97 e1 3d
       0.04039027 0.38048849 0.4318039 0.11015263
0000d0 98 bc 62 3e a9 74 70 3e 9f 88 36 3d 8b a9 31 3e
       0.22142255 0.23482002 0.044563886 0.17349832
0000e0 8f 44 c8 3e 01 c6 9e 3e 1e fa f0 3e 9f 89 33 3f
       0.39114806 0.3101044 0.47065824 0.7013187
0000f0 5d c1 1d 3e e4 25 1c 3f a3 c0 a2 3e ff a6 70 3e
       0.15405793 0.60995317 0.31787595 0.23501204

module.model.2.model.0.weight f4 [64, 64, 3, 3]
000000 29 32 7c bd 4e 82 a6 bc d0 94 03 3d 2d 34 f0 bc
       -0.061571274 -0.020325806 0.03212434 -0.029321754
000010 6d c7 0f 3d ef b8 ff bc 00 9c 5e 3d fb 6a a3 3c
       0.035102297 -0.031216113 0.054347992 0.019948473
000020 20 21 1c bd 30 cc 52 bd 37 41 dd bb 24 dd 66 3c
       -0.038117528 -0.05146426 -0.006752159 0.01409081
000030 27 41 6a 3d 37 99 18 3d 4d b1 c5 3c f8 5f 00 bd
       0.05719104 0.037255492 0.024132395 -0.031341523
000040 29 00 8f bd fd c4 71 bd c0 18 20 bd 0a 45 3d 3d
       -0.069824524 -0.059025753 -0.039086103 0.04620842
000050 3c 69 70 bd b4 53 a6 bc 47 16 dc 3c 4e d6 7b bd
       -0.05869411 -0.020303585 0.026866091 -0.061483674
000060 bb 5b 4d ba 06 42 a3 3c 65 97 13 bd 5e 98 77 3d
       -0.00078337983 0.019928943 -0.036033053 0.060448043
000070 af 17 12 bb b2 0a 02 bd 1b 27 6a 3c c7 27 1c bb
       -0.0022291949 -0.03174848 0.01429155 -0.002382742
000080 23 5e d3 3c 48 15 92 3d 6f 7b 02 bd 96 3a 88 bd
       0.025801724 0.07132965 -0.031855997 -0.066517994
000090 6a 79 18 bd 05 3f f8 3c 83 4a 5f 3c 6e 48 99 3d
       -0.037225164 0.030303488 0.013628605 0.07484518
0000a0 f5 a9 c0 bc a9 5a 63 bd 59 18 7a 3c c1 c1 2a bd
       -0.023518542 -0.055506382 0.015264594 -0.041688684
0000b0 01 50 81 bd b8 8f 93 bd aa 7b 16 bc 4d b4 30 3d
       -0.06314088 -0.072051466 -0.009184757 0.0431407
0000c0 29 09 7d 3d be ab 00 3b 03 fc 5c bd 14 2f 2a 3d
       0.061776314 0.0019633616 -0.053951275 0.041548803
0000d0 b2 0b ed 3b d7 1a 3f 3d 0c 2d ae 3c b7 a5 81 3c
       0.00723406 0.046656456 0.021261714 0.01582609
0000e0 e7 c9 47 3d 59 12 59 3c 47 5f d4 bc af 8c 87 3d
       0.048776533 0.013249003 -0.025924338 0.0661863
0000f0 4c 90 d2 bc 6c b9 2d 3d 22 a1 8a 3d c0 20 88 3d
       -0.025703572 0.04241316 0.06769015 0.066468716
000100 2f ab 62 3d e7 4c d9 bb f7 6d 77 bb d7 30 2f bd
       0.055339035 -0.006631482 -0.0037754753 -0.042771187
000110 54 2d 9e bc 6c a3 80 bb 93 36 96 bd f2 a7 09 bd
       -0.019308724 -0.0039257314 -0.07334628 -0.03360743
000120 3a 32 cf bc 9d c3 83 3d a0 fb e7 3a 09 00 12 bc
       -0.025292505 0.06433795 0.0017698891 -0.008911141
000130 3f 42 ec 3c 21 17 d8 bc 21 0b 84 3d 3e ee 67 bd
       0.028840182 -0.026378216 0.06447435 -0.05662369
000140 92 ed 07 bd 02 19 97 bc eb 02 5e 3d 99 27 52 3d
       -0.03318555 -0.018444542 0.054202 0.051307295
000150 d6 d1 02 3d 76 15 43 bd fb 8d 55 bc bb f3 66 3b
       0.031938396 -0.04762789 -0.013034339 0.003524049
000160 41 e0 67 bd ea 94 85 bd e1 8c 09 3d d8 37 82 bd
       -0.05661035 -0.06522544 0.03358162 -0.063583076
000170 bf 82 26 bd fa 9e 66 bb d6 c3 eb bb c3 40 6b 3d
       -0.040652033 -0.0035189972 -0.0071949763 0.05743481
000180 c6 e7 87 3d 3d 5c 2d bd e6 41 95 bd 7e 99 19 bd
       0.06636004 -0.042324293 -0.0728796 -0.037499897
000190 d2 f9 8e bd 30 1c 31 bd c4 3d 6b bd 7e 47 b7 bc
       -0.06981243 -0.043239772 -0.05743195 -0.022372957
0001a0 ff b4 b6 3c 95 30 8e bd 5a 93 0a bc 72 e3 51 bd
       0.022303103 -0.0694286 -0.008457983 -0.0512423
0001b0 68 1d 8c bc 90 ba 7e 3d 53 74 08 3d 20 53 58 bd
       -0.017103866 0.06218964 0.03331406 -0.05281365
0001c0 23 56 34 3d 7d d8 39 bc 15 f4 7f bd 15 4e af 3b
       0.04402746 -0.011343119 -0.062488634 0.0053498843
0001d0 65 ff c1 bc ed da 48 bd 2f ff 7e 3c 7d 1f 59 3d
       -0.023681352 -0.04903691 0.01556377 0.053008545
0001e0 83 54 19 bd 63 35 51 bd b6 21 b4 3c bf b5 06 3c
       -0.037434112 -0.051076304 0.02198873 0.008222043
0001f0 ad ce 6b 3c 87 03 dc 3c 63 ef 22 3d 68 16 d5 bc
       0.014392537 0.02685715 0.03977908 -0.02601166
000200 47 e8 48 3d 9a 9e 85 3c 54 70 05 bc ac 28 1a 3d
       0.049049642 0.016310979 -0.008144457 0.037636444
000210 30 00 b3 3c 0a 0e b8 3c 29 cf 43 bc 44 8a 9b bc
       0.021850675 0.022467632 -0.011951246 -0.018986829
000220 e7 1f 9f 3c 15 76 0b bd 4f 45 1a bc ea 72 78 bd
       0.019424392 -0.03404816 -0.0094159385 -0.060656466
000230 9c 86 49 3d 1b 17 10 bc 7f 9f dc 3c 1a 4f 98 bc
       0.04920064 -0.008794571 0.026931522 -0.018592406
000240 d3 36 61 3b eb 5c 8f 3d 24 ec 00 3b 78 d4 87 bd
       0.0034364953 0.070001446 0.0019672 -0.06632322
000250 07 81 14 3d dd 9a 7b 3d d7 d8 51 3d f0 83 7c bd
       0.036255863 0.061426986 0.051232185 -0.061649263
000260 06 55 83 bd fa 06 b5 bc e4 b3 89 3c 71 69 73 3d
       -0.06412701 -0.022098053 0.016809411 0.05942673
000270 7c 31 25 3d 65 34 91 bd 21 e4 43 3d a0 1e 76 bd
       0.040330395 -0.070900716 0.047824983 -0.0600878
000280 79 e9 6c bd 0a fa 0c bc 99 e3 57 3b db 3e 04 3d
       -0.057839844 -0.008604536 0.0032942055 0.032286506
000290 1c a8 5c 3d de 88 1d ba ae c9 3a 3c 03 1c 53 3d
       0.05387126 -0.00060094695 0.011400623 0.051540386
0002a0 b1 a9 4e 3d 30 ee a7 bc e8 49 e4 bc fb 45 5b bd
       0.0504548 -0.020499319 -0.027867272 -0.053533535
0002b0 7b 12 4f bd 45 8c 8a 3d c8 a7 8b 3d a1 ba 96 3d
       -0.050554734 0.067650355 0.06819111 0.073598154
0002c0 f9 b4 c4 bc a3 f5 d7 bc df 3f 81 3d ad 29 7d bd
       -0.024012076 -0.026362246 0.063110106 -0.061807323
0002d0 a5 39 c8 3c b5 8e 11 3d 71 73 2b 3d 59 8f ea bc
       0.02444155 0.035536487 0.04185814 -0.028632807
0002e0 7f f3 7a bd 01 ab 54 bc ec b1 5b bd 98 b1 4e 3d
       -0.061267372 -0.012980224 -0.053636476 0.050462335
0002f0 00 e5 f5 bc b8 08 36 3d 6e 2d d4 bc fe 78 25 3d
       -0.030016422 0.04444191 -0.025900569 0.04039859
000300 8e 32 af bc 3a dd 93 3c 53 a5 fc bc 44 88 81 3d
       -0.021386411 0.018049825 -0.030840551 0.06324819
000310 90 b7 87 bd f0 24 7c 3c 5e ae 2f 3d a7 39 04 3d
       -0.06626809 0.015389666 0.0428909 0.032281544
000320 6d 43 aa bc f8 51 0d bd 0a 60 8f bd a5 83 00 bd
       -0.020784104 -0.034502 -0.0700074 -0.031375546
000330 11 8a 9a 3c ec 7a 09 bd 43 fb 2d bc 21 1c be bc
       0.018864663 -0.033564493 -0.0106189875 -0.023206772
000340 0d 2a 5f bd c0 0f 2b 3d b8 9c fb bc 72 9e 51 bc
       -0.054483462 0.041763067 -0.030714378 -0.012794124
000350 cb fc 81 bd ad ba 8a bc c6 84 ff 3c fe 22 04 bd
       -0.063470446 -0.016934717 0.031191241 -0.032259934
000360 16 9f 58 3d fd 19 32 bd 4f f0 dd bb 40 ba 49 bd
       0.05288609 -0.043481816 -0.006773032 -0.049249887
000370 69 d3 8f b9 2e 29 9d 3c dd 39 a1 3c d4 ee 74 3d
       -0.00027432598 0.019184675 0.019680912 0.059798077
000380 7a 44 e3 bc ac 32 58 bd bc fe 87 bd 6a 7b 1a 3d
       -0.027742613 -0.0527827 -0.066403836 0.037715353
000390 48 b9 f5 ba ce a2 69 3d 37 c3 92 bd a8 13 a9 bc
       -0.0018747235 0.05704003 -0.071661405 -0.020639256
0003a0 18 89 bc bc 1b 1d a6 3c 91 14 87 bd 5f 0b 23 bd
       -0.02301459 0.02027755 -0.065957196 -0.039805766
0003b0 f9 ad 74 3d 14 99 e5 bc a5 4b 28 3c c6 bb 77 bd
       0.059736226 -0.028027095 0.010271941 -0.06048181
0003c0 90 bb 2f 3d cd 5a 4a bc a0 d0 20 3d b0 bf e8 bc
       0.042903483 -0.01235075 0.03926146 -0.028411716
0003d0 ce d9 69 3d 4e ed 94 3c b2 39 1e 3b 2b b4 29 3d
       0.05709248 0.018179562 0.0024143276 0.041431587
0003e0 e6 0a be bc 52 ef 9d 3c 4b 27 26 3d 36 4d e4 bb
       -0.023198556 0.019279156 0.040564816 -0.006967212
0003f0 12 ae 8e 3d 2f 4b 90 3d 58 33 ab 3b 94 f5 89 bd
       0.06966795 0.0704559 0.0052246265 -0.067362934

module.model.2.model.0.bias f4 [64]
000000 34 d0 83 3a 0a 02 82 3a 73 4e 85 3a 4f 44 83 3a
       0.0010056556 0.000991882 0.0010170474 0.0010014864
000010 b2 f8 82 3a 24 e0 80 3a 05 1b 85 3a 36 b8 82 3a
       0.000999233 0.0009832424 0.0010155147 0.0009973112
000020 32 60 86 3a 3e b9 82 3a 3d bb 80 3a 30 3a 81 3a
       0.0010252057 0.0009973419 0.0009821426 0.000985926
000030 b1 be 83 3a 34 d8 82 3a e6 62 84 3a fe f3 82 3a
       0.0010051337 0.0009982646 0.0010100275 0.0009990928
000040 6d 25 84 3a 3c fc 83 3a 4c 2a 83 3a 9b af 81 3a
       0.0010081955 0.0010069679 0.0010007112 0.0009894253
000050 7b c6 82 3a d8 8b 85 3a ce 64 81 3a 7e de 82 3a
       0.0009977365 0.0010188771 0.0009871961 0.0009984521
000060 fc da 80 3a 53 19 84 3a e6 b3 83 3a 01 aa 82 3a
       0.0009830887 0.0010078348 0.0010048121 0.0009968878
000070 35 55 82 3a 03 76 86 3a c5 75 87 3a 6a 9c 82 3a
       0.0009943607 0.0010258559 0.0010334781 0.0009964828
000080 66 bc 83 3a 3c b7 83 3a 34 e3 80 3a cd 70 83 3a
       0.0010050654 0.0010049115 0.0009833337 0.0010028124
000090 0c 5f 81 3a 1d 30 82 3a 33 77 82 3a 18 64 82 3a
       0.0009870245 0.0009932552 0.0009953737 0.0009948043
0000a0 51 ee 83 3a c9 37 84 3a 20 60 85 3a 1c 33 83 3a
       0.0010065531 0.0010087426 0.0010175742 0.0010009739
0000b0 0d 6c 82 3a e8 ea 7e 3a 56 23 83 3a 5b dd 81 3a
       0.0009950415 0.0009724335 0.0010005038 0.0009907888
0000c0 6e f8 77 3a 7f 00 82 3a 01 70 84 3a 94 89 82 3a
       0.0009459321 0.0009918361 0.001010418 0.0009959214
0000d0 7c d2 81 3a 7d 12 82 3a cb 58 83 3a 5e a1 86 3a
       0.0009904648 0.0009923723 0.0010020969 0.001027148
0000e0 13 eb 83 3a 9b 22 83 3a 7c 8c 7e 3a 6f 69 7a 3a
       0.0010064564 0.001000482 0.0009710265 0.0009552454
0000f0 d8 2c 7f 3a 0a 42 86 3a be b1 82 3a c8 6e 85 3a
       0.000973416 0.001024307 0.0009971184 0.001018011

module.model.2.model.1.weight f4 [64]
000000 83 d0 7f 3f cd 42 80 3f 17 fd 7f 3f 34 86 7f 3f
       0.9992754 1.0020386 0.9999556 0.9981415
000010 e5 18 80 3f 74 15 80 3f bf 3d 80 3f 95 25 80 3f
       1.0007597 1.0006547 1.0018843 1.0011469
000020 48 c4 7f 3f 15 c6 7f 3f d2 53 7f 3f 4f 2e 80 3f
       0.99908876 0.99911624 0.99737275 1.0014132
000030 8b 8e 7f 3f b3 05 80 3f 1d f2 7f 3f 50 99 7f 3f
       0.9982688 1.0001739 0.9997881 0.9984331
000040 bb ea 7f 3f 56 aa 7f 3f 5e 2f 80 3f 93 01 80 3f
       0.99967545 0.99869287 1.0014455 1.000048
000050 b8 08 80 3f b3 7c 7f 3f 30 1a 80 3f 39 71 7f 3f
       1.0002661 0.9979965 1.0007992 0.9978214
000060 79 2a 80 3f 94 c2 7f 3f 91 17 80 3f 61 2c 80 3f
       1.0012962 0.9990628 1.0007192 1.0013543
000070 ba 37 80 3f d4 77 7f 3f de 88 7f 3f 80 41 80 3f
       1.0017006 0.9979222 0.9981822 1.0019989
000080 0f 71 7f 3f cb 0e 80 3f f1 04 80 3f 34 0e 80 3f
       0.9978189 1.0004514 1.0001508 1.0004334
000090 5a 39 80 3f f3 0b 80 3f 95 da 7f 3f 04 f6 7f 3f
       1.0017502 1.0003647 0.99942905 0.99984765
0000a0 5e 06 80 3f 80 72 7f 3f 7c af 7f 3f 6e 7e 7f 3f
       1.0001943 0.9978409 0.9987714 0.9980229
0000b0 75 31 80 3f d1 a1 7f 3f 66 b2 7f 3f 83 05 80 3f
       1.0015093 0.9985629 0.9988159 1.0001682
0000c0 fc 46 80 3f 17 21 80 3f a8 ee 7f 3f ea 3b 80 3f
       1.0021663 1.0010098 0.99973536 1.0018284
0000d0 ec 42 80 3f 63 2b 80 3f 4f 26 80 3f 39 86 7f 3f
       1.0020423 1.001324 1.0011691 0.9981418
0000e0 cb 9e 7f 3f 1f 0d 80 3f b8 3c 80 3f d2 38 80 3f
       0.99851674 1.0004004 1.001853 1.001734
0000f0 94 52 80 3f 40 d7 7f 3f 3d 1f 80 3f 5e 7a 7f 3f
       1.0025201 0.9993782 1.0009533 0.9979609

module.model.2.model.1.bias f4 [64]
000000 19 11 10 bb 7e 62 d4 3a 59 e8 93 ba 91 91 0a 38
       -0.0021982847 0.0016203669 -0.0011284455 3.3037333e-05
000010 80 87 6d ba c4 e7 51 3a 8e 48 72 3a e9 90 c4 3a
       -0.00090610236 0.0008007253 0.0009242379 0.00149968
000020 21 48 c7 ba 45 42 e0 b9 f4 f5 0f bb 82 ed 07 3b
       -0.0015203991 -0.00042773984 -0.0021966668 0.002074093
000030 42 f7 8d ba f8 d1 dc 39 c9 bf 81 ba 03 07 90 ba
       -0.0010831135 0.0004211811 -0.0009899075 -0.0010988418
000040 ae 18 15 b8 83 5a 03 bb 4e 9a b1 3a f3 1d 07 b9
       -3.5547353e-05 -0.0020042963 0.0013550015 -0.0001288576
000050 74 eb aa 3a 36 36 04 bb 39 bc ec 3a e4 aa 01 bb
       0.0013040141 -0.0020173914 0.0018061466 -0.0019785697
000060 23 aa 0f 3b 84 20 0a bb c8 3c 2a 3a 00 50 97 3a
       0.0021921478 -0.002107651 0.00064940425 0.0011544228
000070 2f 98 de 3a 5a 07 1a bb d8 bf b0 b9 e9 cd e0 3a
       0.001698261 -0.0023502917 -0.0003371227 0.001715121
000080 8d fa 0a bb 68 a4 f4 ba bc b2 93 3a a9 71 0b 3b
       -0.0021206469 -0.001866472 0.0011268477 0.0021277464
000090 2d 0d 0c 3b 2a cb b8 3a 44 bb 1d 3a 58 bd e6 39
       0.0021370158 0.0014098634 0.00060169795 0.0004401009
0000a0 4b 17 84 3a f8 87 2c bb 12 ad 97 ba c6 85 05 bb
       0.0010077743 -0.002632616 -0.0011571965 -0.0020373925
0000b0 b6 5f c5 3a 95 3a c5 3a aa ac 87 ba 73 ce 72 3a
       0.0015058431 0.0015047366 -0.001035114 0.0009262331
0000c0 e4 3c 24 3b 69 aa bc 3a b4 31 cc ba a8 b5 9c 3a
       0.0025060708 0.0014394048 -0.0015578778 0.0011955993
0000d0 de ca 1b 3b 7b d4 44 ba 68 5b 42 39 5f 5d e3 ba
       0.0023772041 -0.00075084687 0.00018535333 -0.0017346552
0000e0 f5 e8 b8 ba 64 86 09 b9 c9 7e e5 3a e9 2d f0 3a
       -0.0014107513 -0.00013115403 0.0017509098 0.0018324229
0000f0 79 b1 0d 3b bf 1d a9 ba f7 54 d2 3a 65 54 8d ba
       0.0021620675 -0.0012902542 0.001604705 -0.0010782598

module.model.2.model.1.running_mean f4 [64]
000000 c3 0f 6a 3e 15 9c a9 3e 6b 5f 90 bd d7 2b d0 3e
       0.22857575 0.33126894 -0.070494495 0.40658447
000010 a1 ce 34 be 20 c9 10 be a7 6e ea 3d c1 43 52 3f
       -0.17656948 -0.14139223 0.114468865 0.82134634
000020 dc 07 09 3f 61 a0 47 3d 0f ba fc 3e fd 4a 23 3e
       0.5352762 0.048736934 0.493607 0.15946575
000030 a6 c6 7a bd 34 a4 8b 3e 2e fb 30 be 47 68 55 3e
       -0.061224602 0.27273715 -0.17283317 0.2084056
000040 99 f1 cd be 20 4b 5f 3e f0 e8 89 be 25 6f f7 3d
       -0.40223387 0.21806002 -0.2693553 0.12081746
000050 d4 9d 09 3e 11 f1 56 be b3 d3 85 bf df 97 67 3c
       0.13439113 -0.20990397 -1.045523 0.01413533
000060 0b 23 4f bc ed 84 a5 3e bd 8e 3f 3e 64 e0 09 bf
       -0.012642632 0.32327977 0.18706794 -0.5385802
000070 95 dc ac 3d c1 fb 1c bf 47 0d 08 bf fa 72 05 3d
       0.0844051 -0.61321646 -0.5314526 0.032580353
000080 46 e9 f1 bc 1e 28 f8 3e 1c c3 da be c8 24 81 3b
       -0.029530179 0.48468107 -0.42726982 0.0039411522
000090 11 18 53 bf 14 cd 4e be ac c8 3e 3e 72 b9 ec 3d
       -0.824586 -0.20195419 0.18631238 0.115588084
0000a0 8e 8b 04 bf ea 17 de 3e d7 c1 5c 3e f4 71 f8 3e
       -0.51775444 0.4337762 0.21558319 0.4852444
0000b0 c8 aa 0d bd 6c 7e 0b 3d 4a d1 24 bd b5 18 0a bf
       -0.034586698 0.034056112 -0.040238656 -0.5394395
0000c0 e0 96 1f be 1d 69 e2 3e b3 c4 89 3e f7 35 52 be
       -0.15584898 0.4422082 0.26907882 -0.20528398
0000d0 21 77 90 3d 50 41 0d 3d 33 10 05 3f 0e 8d a9 be
       0.07053972 0.034486115 0.51977843 -0.3311543
0000e0 b9 f9 90 bc 1d 16 df be 20 ed 4d bd bf a6 1a bf
       -0.017697202 -0.4357156 -0.05027497 -0.60410684
0000f0 25 c1 b3 bd 4c 11 73 3d 40 db 78 be 3d 94 a8 be
       -0.08777074 0.059342667 -0.24302387 -0.32925597
