output_nn_deblur_noise/ckpt/resnet_epoch6.pth (torch, 641723 bytes, 31 tensors)

module.model.0.weight f4 [64, 1, 1, 1]
0	0xbe2edd55	-0.17076619
1	0xbe49c1f0	-0.19702888
2	0x3e78ff50	0.24316144
3	0x3e286ac3	0.16446976
4	0xbe4dde4c	-0.20104331
5	0x3d59c683	0.05316783
6	0xbd6185aa	-0.055059113
7	0xbe067a86	-0.13132676
8	0x3d322e3d	0.043501128
9	0xbe8811d8	-0.26576114
10	0xbdbf2118	-0.09332484
11	0x3e5e2bff	0.2169647
12	0xbdde62f1	-0.10858715
13	0xbe18e347	-0.1493045
14	0xbcf9839a	-0.03045826
15	0x3c6f7e51	0.0146175185
16	0x3d97f51f	0.074198
17	0x3c9c69de	0.01909345
18	0x3e1c3da2	0.15257886
19	0xbdc02bd9	-0.09383363
20	0xbddbb225	-0.10727338
21	0x3e0e60a5	0.13904054
22	0x3caf7536	0.021418195
23	0x3e4314ad	0.19050856
24	0xbd05e94c	-0.032693192
25	0x3e7bfdd4	0.24608546
26	0xba9c23e9	-0.0011912558
27	0xbe546be3	-0.2074428
28	0x3dc4e073	0.09613123
29	0xbe727465	-0.23677213
30	0xbd8ef2e5	-0.06979922
31	0xbdb093d3	-0.08621945
32	0xbe261f98	-0.1622299
33	0xbe78c00a	-0.24292007
34	0xbe96f656	-0.29484814
35	0x3e51f7ea	0.20504728
36	0xbdb02a30	-0.086017966
37	0xbcc8f879	-0.024532543
38	0xbd55b849	-0.0521777
39	0x3e537576	0.20650277
40	0x3d5d90d5	0.0540932
41	0x3de97fb5	0.11401311
42	0xbe3697cc	-0.17831343
43	0xbe8dd29f	-0.27699754
44	0xbe1bda03	-0.15219884
45	0xbe88db22	-0.26729685
46	0x3dbd6189	0.09247119
47	0x3e3d1170	0.18463683
48	0xbe331637	-0.17488943
49	0x3d62ad26	0.05534091
50	0xbd2f7dcc	-0.04284458
51	0x3e5076d7	0.20357834
52	0xbca86e8b	-0.020560523
53	0xbe344070	-0.17602706
54	0x3e725bc8	0.23667824
55	0x3e08e2f7	0.1336783
56	0xbcdbe768	-0.026843742
57	0xbe975b63	-0.2956191
58	0x3ce0d859	0.027446913
59	0x3e5fa3d1	0.21839835
60	0xbe1f4f2c	-0.15557545
61	0x3e976ebe	0.29576677
62	0xbc9531cf	-0.018212227
63	0x3de59beb	0.112113796

module.model.0.bias f4 [64]
0	0x3ae6f77b	0.0017621362
1	0x3ac53d70	0.0015048217
2	0x3a0f97c6	0.0005477633
3	0x3a360fc4	0.0006945098
4	0x3abcb145	0.0014396092
5	0x3aeaf5f2	0.0017926081
6	0x3ab1c962	0.0013564045
7	0x3ad64f85	0.0016350603
8	0x3a872038	0.0010309285
9	0x3a61cdc1	0.00086137286
10	0x3ac6507c	0.0015130187
11	0x3a81470a	0.000986309
12	0x392093af	0.00015313805
13	0x3a273bce	0.0006379456
14	0x3af676d1	0.0018803721
15	0x3adad482	0.0016695412
16	0x3a01d5f6	0.0004952842
17	0x3ac2f589	0.00148742
18	0x3ae567bb	0.0017502228
19	0x3a9ced2d	0.0011972539
20	0x3ad7e7e6	0.0016472309
21	0x3a359ac1	0.0006927662
22	0x3a4eb490	0.0007885182
23	0x39a3379d	0.00031131218
24	0x3ab7cffb	0.0014023775
25	0x3aa9b62c	0.0012947968
26	0x3a97e296	0.0011587914
27	0x39fe31ed	0.00048483853
28	0x3abf9d31	0.001461899
29	0x3a427fd6	0.0007419562
30	0x39c50fe2	0.00037586602
31	0x3a5b81d1	0.0008373531
32	0x3ab10349	0.0013505007
33	0x3a2d5c78	0.0006613205
34	0x3acc80be	0.0015602333
35	0x3a91f6dc	0.0011136192
36	0x3aca8f9d	0.0015454177
37	0x3aba4093	0.0014209918
38	0x3a050a96	0.0005075125
39	0x3a635b18	0.0008672937
40	0x3a95f9ec	0.001144228
41	0x3aae994a	0.001332083
42	0x39a27b63	0.00030990978
43	0x3a122bcf	0.0005575986
44	0x3af48f35	0.0018658402
45	0x397b4d2a	0.00023965971
46	0x3a6504ab	0.00087363523
47	0x3a9a3a7b	0.0011766696
48	0x3afa6a81	0.0019105227
49	0x398dbf03	0.0002703593
50	0x3acb93cf	0.0015531721
51	0x3a7a54cd	0.00095493795
52	0x3a9f893c	0.0012171636
53	0x3adcdeb4	0.0016851039
54	0x39198eb1	0.00014644374
55	0x3aa7b5ad	0.0012795232
56	0x3a9f886d	0.0012171395
57	0x3a52bf3d	0.0008039361
58	0x39aa0d03	0.0003243462
59	0x3ac40483	0.0014954958
60	0x3ae0f9fc	0.0017164345
61	0x3aa9bae1	0.0012949371
62	0x3a5e9d5b	0.0008492076
63	0x3a57ba4f	0.0008229361

module.model.1.model.0.weight f4 [64, 64, 3, 3]
0	0x3d068b07	0.03284743
1	0x3b70fdde	0.003677241
2	0xbc8b002d	-0.016967857
3	0xbd347623	-0.044057976
4	0xbcdb29e2	-0.02675337
5	0x3d86c89b	0.06581231
6	0xbd72f66a	-0.05931703
7	0xbd5b95c6	-0.053609632
8	0xbd65455d	-0.055974353
9	0x3d7b1a55	0.06130441
10	0x3d345f6f	0.044036325
11	0xbce01d35	-0.027357677
12	0x3d1809b9	0.037118647
13	0x3d181911	0.03713328
14	0x3ca567bc	0.020191066
15	0x3d7ab5e5	0.061208624
16	0x3d2caf6a	0.042159475
17	0x3d16da4f	0.03682929
18	0x3d20495f	0.039132472
19	0xb9b93535	-0.00035325592
20	0x3d09276f	0.033484872
21	0x3d269368	0.04066792
22	0xbb34965a	-0.0027555437
23	0xbc0b4f42	-0.008502783
24	0x3d65eca8	0.056133896
25	0xbd8d892d	-0.0691093
26	0x3d70efb6	0.058822356
27	0xbd3518eb	-0.044213217
28	0xbc55ff9f	-0.013061433
29	0xbb898bf2	-0.004197591
30	0x3bf81425	0.007570761
31	0x3d2ea254	0.042635277
32	0xbd3af666	-0.04564514
33	0x3d879b48	0.066214144
34	0xbd00b93b	-0.03142665
35	0xbc8f9e46	-0.017531525
36	0xbc39b99f	-0.011335759
37	0xbce09876	-0.027416449
38	0x3c27e00d	0.010246289
39	0xbd2b47ef	-0.041816648
40	0x3cad29b6	0.021138053
41	0x3b42dc78	0.002973346
42	0xbbf68791	-0.007523485
43	0xbb38afb0	-0.002818089
44	0x3d15cf9f	0.036574956
45	0x3d33baee	0.043879442
46	0x3c3b2e9e	0.011424689
47	0x3d8da748	0.06916672
48	0x3d68f5aa	0.05687491
49	0x3823641b	3.895546e-05
50	0xbd26ed06	-0.040753387
51	0xbd579d88	-0.052640468
52	0x3d806bf6	0.06270592
53	0xbd57777a	-0.052604176
54	0xbcbaba34	-0.022793867
55	0x3d53025a	0.051515914
56	0xbbc39494	-0.0059686396
57	0xbd5f823e	-0.054567568
58	0x3c6de1c1	0.014519156
59	0x3b5799ba	0.0032898025
60	0x3d55b573	0.052174997
61	0xbd77b005	-0.0604706
62	0xbcda80b2	-0.026672695
63	0xba835b67	-0.0010021747
64	0x3bb5c695	0.0055473545
65	0x3d46bc46	0.048519395
66	0x3c43ba00	0.011946201
67	0xbd82b4b2	-0.06382121
68	0x3c58c5b4	0.01323073
69	0x3c381660	0.011235803
70	0xbbcba332	-0.0062145228
71	0x3abc6198	0.0014372347
72	0x3d8d880d	0.06910715
73	0x3d3fd0ad	0.046829868
74	0xbd746267	-0.059664156
75	0xbcd18d65	-0.025580117
76	0xbd03e5c5	-0.032201547
77	0xbd4dfbf5	-0.050289113
78	0xbd3fd872	-0.046837278
79	0x3ca9c8a7	0.020725561
80	0x3c8d3564	0.017237373
81	0xbd35ce20	-0.04438603
82	0xbd7229ae	-0.05912178
83	0xbc8d6699	-0.017260836
84	0xbd38e708	-0.045142204
85	0x3d62bd2d	0.055356193
86	0x3d2d9e5d	0.042387355
87	0xbcb7b133	-0.022423362
88	0xbd6d1891	-0.057884756
89	0x3c94cead	0.018164957
90	0xbd9037f0	-0.07041919
91	0xbd4e4c50	-0.050365746
92	0xbcedb33f	-0.029016135
93	0x3d1df907	0.03856757
94	0x3d922f2a	0.07137902
95	0x3c462a66	0.0120950695
96	0x3d568d9b	0.05238114
97	0xbcc014bc	-0.023447387
98	0xbcb6d71e	-0.022319373
99	0xbc67e553	-0.014153796
100	0xbd52b860	-0.051445365
101	0x3d6a878e	0.05725818
102	0xbbc600fd	-0.0060425983
103	0xbb8f47af	-0.004372559
104	0xbcb60614	-0.022219695
105	0x3d532567	0.05154934
106	0xbd877b03	-0.066152595
107	0xbc9b4441	-0.018953444
108	0x3d7609a7	0.0600678
109	0xbc03ad0b	-0.008036862
110	0x3c9f4870	0.01944372
111	0x3d893a42	0.06700565
112	0x3cf6b8b8	0.030117378
113	0x3d04ac24	0.03239073
114	0xbd6b196f	-0.057397302
115	0xbb0179fa	-0.0019756542
116	0x3d878624	0.06617382
117	0xbd00b491	-0.0314222
118	0xbd50c30b	-0.050967257
119	0x3c1ab889	0.009443411
120	0xbd850ad1	-0.06496204
121	0xba95dbaa	-0.0011433263
122	0xbd37598a	-0.044763125
123	0x3c86a5a0	0.016436398
124	0x3d340b75	0.04395624
125	0x3c82c756	0.015964191
126	0x3c3125cb	0.010812233
127	0x3d85b5b6	0.06528799
128	0x3d04f964	0.0324644
129	0xbcc98fe4	-0.024604745
130	0x3ce6e761	0.028186502
131	0x3d0a877c	0.033820614
132	0x3c175639	0.009236866
133	0xbd1d6df8	-0.038434952
134	0x3d4964c3	0.04916836
135	0x3d2ebe6a	0.04266206
136	0xbd897ee0	-0.067136526
137	0xbd3fe382	-0.046847828
138	0xbd6f1cbd	-0.058377016
139	0x3d468d8e	0.04847484
140	0x3d616596	0.05502852
141	0xbd4961a3	-0.04916538
142	0xbd3814bb	-0.044941645
143	0x3d8bf077	0.068329744
144	0xbcfcb208	-0.03084661
145	0xb919f804	-0.0001468361
146	0x3cc16131	0.023605915
147	0x3d887f4d	0.06664906
148	0x3d855f12	0.06512274
149	0xbd462e4c	-0.048383996
150	0xbceee5c2	-0.029162291
151	0xbcb05bcc	-0.021528147
152	0x3ced52f5	0.028970221
153	0xbd20445e	-0.0391277
154	0x3d37460b	0.044744533
155	0xbd06aa4e	-0.03287726
156	0xbd88da39	-0.06682248
157	0x3d788ab5	0.060679156
158	0xbcfba476	-0.03071807
159	0xbbac6b35	-0.0052618035
160	0xbd702c73	-0.05863614
161	0xbd09f672	-0.033682294
162	0x3c908a2c	0.01764401
163	0x3d371489	0.04469732
164	0xbd5a63e0	-0.053317904
165	0xbc084275	-0.008316626
166	0xbccba8e6	-0.02486081
167	0x3d1f1bda	0.03884492
168	0xbd5fd018	-0.054641813
169	0xbce5a7b3	-0.028034067
170	0x3c29a42a	0.010354081
171	0xbd83631c	-0.06415388
172	0x3cf1585c	0.029461078
173	0xbcb24415	-0.02176098
174	0x3d735308	0.059405357
175	0xbd10db38	-0.035365313
176	0xbb211b77	-0.002458302
177	0xbab76479	-0.0013991735
178	0x3d74562c	0.059652492
179	0x3d8e7b68	0.069571316
180	0xbcf6cfa3	-0.030128306
181	0xbd4398ac	-0.04775302
182	0xbd7ed910	-0.062218726
183	0xbd927904	-0.07151988
184	0xbd539f79	-0.051665757
185	0xbd16e685	-0.036840934
186	0x3c90934b	0.01764836
187	0x3d0a2dd2	0.033735104
188	0x3d47d4f9	0.04878709
189	0xbd297e5f	-0.041380282
190	0xbd199ca1	-0.03750289
191	0x3b34c178	0.0027581137
192	0xbd1ef49b	-0.038807493
193	0xbcf4e56f	-0.029894559
194	0x3c592d00	0.013255358
195	0x3acf5b71	0.0015820098
196	0x3c7c513a	0.015400225
197	0xbc169902	-0.009191753
198	0x3b842d6a	0.004033734
199	0xbd734d57	-0.05939993
200	0x3d1e06be	0.03858065
201	0xbcaccf72	-0.021095011
202	0xbc9a27cd	-0.018817807
203	0x3cdd9263	0.027047342
204	0x3d2c3a81	0.04204798
205	0x3d5da0a7	0.05410829
206	0xbd1bcb32	-0.03803558
207	0x3d033e1b	0.03204165
208	0xbb48f69d	-0.003066457
209	0xbc4a3192	-0.01234092
210	0x3cf15b78	0.029462561
211	0xbd39fccf	-0.045407113
212	0xbccf215a	-0.025284458
213	0x3d1eebd7	0.038799133
214	0x3ca005d1	0.019534023
215	0x3d9330e6	0.07187061
216	0x3d41ab35	0.047282416
217	0x3d91b642	0.07114841
218	0xbcd04a07	-0.025425924
219	0xbc067b4c	-0.008208107
220	0xbbd4ea6c	-0.006497672
221	0x3d42418b	0.047425788
222	0xbd4702a2	-0.048586495
223	0xbcf19bc5	-0.029493222
224	0x3c840333	0.016114807
225	0x3c89b60a	0.016810436
226	0xbd05cfd3	-0.0326689
227	0xbac200b2	-0.0014801233
228	0x3d38e36f	0.045138773
229	0x3d8a57de	0.067550406
230	0xbc4afaf2	-0.012388932
231	0x3d84d7ac	0.06486449
232	0xbd241d04	-0.040066734
233	0x3acc7bb2	0.0015600829
234	0xbc103904	-0.008802656
235	0xbc4e9b14	-0.012610216
236	0xbd1a8ad9	-0.03773007
237	0x3d395b6c	0.045253202
238	0xbd62104a	-0.055191316
239	0x3d18419c	0.037171945
240	0x3d763461	0.060108546
241	0xbd8c51b8	-0.06851524
242	0xbd9107a3	-0.07081535
243	0xbc2001fa	-0.009766096
244	0xbd7be8ef	-0.06150144
245	0x3ca846fa	0.020541657
246	0xbcc52ec4	-0.024070151
247	0xbd0a31b0	-0.033738792
248	0x3d0ef721	0.03490365
249	0x3d540f9c	0.0517727
250	0x3d44a28f	0.04800659
251	0xbce7f3fb	-0.028314581
252	0xbd7ca8ca	-0.061684407
253	0x3d3c5e31	0.045988265
254	0x3b3e2212	0.0029012007
255	0x3d75e93c	0.060036883

module.model.1.model.0.bias f4 [64]
0	0x3a4ce278	0.0007815729
1	0x3a914fc2	0.0011086392
2	0x3a3f5e40	0.0007300116
3	0x3a8d20f8	0.0010767272
4	0x3a734a5d	0.00092807953
5	0x3a655292	0.00087479607
6	0x3a781104	0.0009462985
7	0x3a872deb	0.0010313367
8	0x3a6a1552	0.00089295686
9	0x3aa85368	0.001284224
10	0x3a6979d1	0.00089063967
11	0x3a5be0b2	0.0008387669
12	0x3a59351f	0.0008285809
13	0x3a80a931	0.0009816048
14	0x3a7c68ae	0.00096286356
15	0x3a93f0ac	0.0011286936
16	0x3a917293	0.0011096768
17	0x3a55cc88	0.00081557827
18	0x3aa15a83	0.00123103
19	0x3aa70f46	0.0012745641
20	0x3a934718	0.0011236398
21	0x3ab2a510	0.0013629515
22	0x3a96ff97	0.0011520264
23	0x3a8eb290	0.0010886956
24	0x3a82fb51	0.0009993111
25	0x3a8c237f	0.0010691731
26	0x3a75cc6e	0.00093764707
27	0x3a43671c	0.0007454024
28	0x3aa67b93	0.0012701623
29	0x3a7dd858	0.0009683422
30	0x3a999157	0.0011716288
31	0x3aa659dc	0.0012691575
32	0x3a796409	0.00095135026
33	0x3a730f10	0.0009271959
34	0x3a98fb9c	0.0011671665
35	0x3a330ddc	0.00068303733
36	0x3a33d393	0.0006859835
37	0x3a727c95	0.00092501316
38	0x3a4653ff	0.0007565617
39	0x3a2ccc74	0.0006591745
40	0x3a51ef7b	0.00080084027
41	0x3a9bd7fa	0.0011889928
42	0x3a662dfd	0.00087806565
43	0x3abac264	0.0014248607
44	0x3a7b6766	0.00095902977
45	0x3a9b80bc	0.0011863927
46	0x3a84c3ef	0.0010129194
47	0x3a888c84	0.0010417853
48	0x3a9b3da0	0.0011843927
49	0x3a378b02	0.000700161
50	0x3a656990	0.0008751387
51	0x3a3ed037	0.0007278951
52	0x3a7eb9ea	0.00097170344
53	0x3a93a5ef	0.0011264662
54	0x3a998873	0.0011713639
55	0x3a408504	0.00073440396
56	0x3a70771a	0.0009173021
57	0x3a7870e9	0.0009477274
58	0x3a297a8d	0.00064651
59	0x3a59f34c	0.0008314147
60	0x3a65ff4c	0.0008773699
61	0x3a994be7	0.0011695594
62	0x3a846f9e	0.0010104065
63	0x3a9f9592	0.0012175313

module.model.1.model.1.weight f4 [64]
0	0x3f7fccc6	0.99921834
1	0x3f7fdd57	0.9994711
2	0x3f80193a	1.0007699
3	0x3f8019c6	1.0007865
4	0x3f7ff9d0	0.9999056
5	0x3f7fcffe	0.99926746
6	0x3f80182d	1.0007378
7	0x3f800365	1.0001036
8	0x3f7febd2	0.9996921
9	0x3f801e9b	1.000934
10	0x3f80123d	1.0005566
11	0x3f7fcdf9	0.99923664
12	0x3f7fe39e	0.9995669
13	0x3f7fef49	0.99974495
14	0x3f800f69	1.0004703
15	0x3f7feedc	0.99973845
16	0x3f7fd816	0.99939096
17	0x3f801262	1.000561
18	0x3f8010bd	1.0005108
19	0x3f7fd2bd	0.99930936
20	0x3f7fcc34	0.99920964
21	0x3f7fd6ec	0.9993732
22	0x3f7ff6bd	0.9998587
23	0x3f7ffdea	0.9999682
24	0x3f7fcc3b	0.99921006
25	0x3f7ff153	0.99977607
26	0x3f7fe672	0.99961007
27	0x3f7ff1a2	0.9997808
28	0x3f7feb81	0.99968725
29	0x3f800b1e	1.0003393
30	0x3f8000b2	1.0000212
31	0x3f8001ea	1.0000584
32	0x3f7fee31	0.99972826
33	0x3f80184d	1.0007416
34	0x3f801ace	1.000818
35	0x3f7fc6ac	0.99912524
36	0x3f8013be	1.0006025
37	0x3f8012ac	1.0005698
38	0x3f800ac2	1.0003283
39	0x3f8018b1	1.0007535
40	0x3f7ff951	0.999898
41	0x3f800b3b	1.0003427
42	0x3f801584	1.0006566
43	0x3f7fcebc	0.99924827
44	0x3f7feb20	0.9996815
45	0x3f800cad	1.0003868
46	0x3f7feaa6	0.9996742
47	0x3f7ff14a	0.9997755
48	0x3f7fe04e	0.99951637
49	0x3f801033	1.0004944
50	0x3f7fe517	0.9995894
51	0x3f7fc980	0.9991684
52	0x3f8010ad	1.0005089
53	0x3f8006a7	1.000203
54	0x3f800ded	1.000425
55	0x3f8006a5	1.0002028
56	0x3f8018a8	1.0007524
57	0x3f8001c7	1.0000542
58	0x3f7fee20	0.99972725
59	0x3f7fddaf	0.9994764
60	0x3f80131b	1.000583
61	0x3f80058a	1.000169
62	0x3f801064	1.0005002
63	0x3f7fddf9	0.9994808

module.model.1.model.1.bias f4 [64]
0	0xba4bbcf3	-0.0007771991
1	0xba3f96f2	-0.00073085644
2	0x3a7baaee	0.00096003606
3	0x3a0f8f55	0.0005476375
4	0x3a3e29fc	0.0007254181
5	0xb9ebecad	-0.0004499903
6	0x3a7c01ac	0.0009613286
7	0xb8f8f085	-0.00011870362
8	0xba2085e1	-0.0006123465
9	0x3a41f0ce	0.00073982484
10	0x388d896d	6.7490015e-05
11	0xba2a234f	-0.0006490247
12	0xb8e458c2	-0.0001088842
13	0xba5337d8	-0.00080573326
14	0x3989cb41	0.00026282112
15	0x3a01548e	0.0004933559
16	0xba547086	-0.00081039255
17	0x39e08a35	0.00042827582
18	0xb8a87df3	-8.034324e-05
19	0xba32e267	-0.0006823898
20	0xba663223	-0.00087812747
21	0xba5d235d	-0.00084357505
22	0xb920e85f	-0.00015345354
23	0xba0afa0a	-0.0005301541
24	0xba7296b7	-0.00092540256
25	0x3a56c1f9	0.00081923563
26	0x39753f3b	0.00023388576
27	0xb921aba7	-0.00015418102
28	0xb9dbbdc6	-0.00041912327
29	0x3a3d06f9	0.0007210817
30	0xba54484f	-0.0008097933
31	0x38112146	3.4601682e-05
32	0xba673566	-0.00088199077
33	0x3a2459f5	0.0006269508
34	0x3a0d72da	0.00053958374
35	0xb7b92f56	-2.2075761e-05
36	0x3a4f0e9d	0.0007898601
37	0x3a3ba90a	0.00071586727
38	0x39d04161	0.00039721563
39	0x3a6b31e1	0.0008971971
40	0x3a7dd3a8	0.00096827233
41	0x3a73d084	0.00093007856
42	0x3a134347	0.000561763
43	0xba617923	-0.00086011196
44	0x3a25cd26	0.000632482
45	0x38dca470	0.00010521046
46	0x3a6e9ed0	0.00091026444
47	0xba21a253	-0.0006165851
48	0x39f7d617	0.0004727102
49	0x3a83802d	0.0010032706
50	0x3904bf4c	0.00012659765
51	0x3a80502d	0.0009789519
52	0x39583258	0.0002061812
53	0x3a6b46c0	0.0008975081
54	0xb7de789e	-2.6520629e-05
55	0x3956819e	0.00020456917
56	0x3a1b4464	0.0005922972
57	0x3a5edc4c	0.0008501455
58	0x3a482530	0.0007634936
59	0x3a36989c	0.00069654896
60	0x386d02aa	5.6507684e-05
61	0x38084287	3.2486885e-05
62	0xb7c9986a	-2.403204e-05
63	0xba40aa8e	-0.00073496334

module.model.1.model.1.running_mean f4 [64]
0	0x3a78664b	0.0009475692
1	0x3ab10b4b	0.0013507394
2	0x39cf8239	0.0003957914
3	0x3ae8a9be	0.0017750782
4	0x3a8689ed	0.0010264494
5	0x3b2e210b	0.0026569988
6	0x3a91848d	0.0011102125
7	0xba88d700	-0.0010440052
8	0xb999715f	-0.00029266902
9	0x3a74fd6b	0.00093456235
10	0x3ac84bfc	0.0015281434
11	0x3afd312d	0.0019317024
12	0x3a24fa09	0.00062933617
13	0x3a5f3179	0.0008514147
14	0x3ac1b8a3	0.0014779757
15	0xbabb5713	-0.0014292918
16	0x39dac7df	0.00041729116
17	0x3a6ad103	0.0008957537
18	0x3b44a749	0.0030006936
19	0xb99ee506	-0.00030306744
20	0x3a7036a2	0.00091634144
21	0x3a789841	0.0009483137
22	0x3b06244b	0.002046841
23	0x3b24240f	0.0025045907
24	0x3ad0deee	0.0015935579
25	0x3b62606b	0.0034542333
26	0x39377add	0.0001749801
27	0x3a34dd65	0.00068994454
28	0x3b2d0f10	0.0026406683
29	0x3b2c58c7	0.0026298033
30	0xbb313599	-0.0027040003
31	0x3b316fb1	0.002707463
32	0x3a946ae9	0.0011323366
33	0x3a9501ba	0.0011368312
34	0xba107db9	-0.0005511898
35	0x3a91084a	0.0011065092
36	0x3a711195	0.00091960403
37	0x3a4e192a	0.0007862026
38	0x39dad0bf	0.00041735728
39	0x39182478	0.00014509435
40	0xba9d873a	-0.001201845
41	0x3b3ad928	0.0028510783
42	0x380ea7f6	3.4011864e-05
43	0x3b03df94	0.0020122277
44	0x390146ce	0.00012328775
45	0x3ad64cc3	0.0016349781
46	0x3b02c77e	0.0019955332
47	0x3b7b1acf	0.003831554
48	0xba482fc9	-0.0007636515
49	0xba34c499	-0.00068957504
50	0x39cbc626	0.0003886681
51	0x3abc4be9	0.0014365885
52	0x39ac70cc	0.00032890437
53	0xb9c8b733	-0.00038283467
54	0x3a1527eb	0.0005689847
55	0x3a341701	0.0006869883
56	0x3a8eb2c0	0.0010887012
57	0x3afdc187	0.0019360044
58	0xba9e6a61	-0.0012086147
59	0x3a0c2991	0.000534677
60	0x3b01241c	0.001970536
61	0x3b0214f0	0.0019848906
62	0xb9eae63a	-0.0004480349
63	0x3a945ff0	0.0011320096

module.model.1.model.1.running_var f4 [64]
0	0x386ae302	5.6001365e-05
1	0x3748d88e	1.19713495e-05
2	0x37a2014c	1.9312509e-05
3	0x3672ff10	3.6209276e-06
4	0x3781bf32	1.546703e-05
5	0x35e245a0	1.6858576e-06
6	0x37077277	8.073278e-06
7	0x37f27aae	2.8905775e-05
8	0x3768ed9b	1.3883599e-05
9	0x384bb1b9	4.856449e-05
10	0x358a8547	1.032059e-06
11	0x38aaa612	8.137165e-05
12	0x35e04738	1.6710028e-06
13	0x3624725f	2.4504477e-06
14	0x3785af77	1.5936543e-05
15	0x38038af0	3.136223e-05
16	0x37ae4735	2.0775575e-05
17	0x388c6db8	6.696157e-05
18	0x377bb371	1.5002545e-05
19	0x35f3f913	1.8177401e-06
20	0x36ee290a	7.0977303e-06
21	0x37c2b428	2.3210494e-05
22	0x3856b2f4	5.118824e-05
23	0x392b4121	0.00016332093
24	0x3534a692	6.7297617e-07
25	0x38260c86	3.9589147e-05
26	0x37305164	1.0509368e-05
27	0x3692c290	4.373789e-06
28	0x374bedde	1.2155126e-05
29	0x38b37507	8.557183e-05
30	0x37a7d3dd	2.0006608e-05
31	0x36afb631	5.2366163e-06
32	0x388a66eb	6.599523e-05
33	0x38d18ffa	9.992714e-05
34	0x38f01b7e	0.000114492126
35	0x351b108d	5.7766084e-07
36	0x3608c63c	2.0380967e-06
37	0x38cdf493	9.820717e-05
38	0x36d9cc99	6.4909223e-06
39	0x3720a8b4	9.576022e-06
40	0x3809dd23	3.2869295e-05
41	0x359053bd	1.0753207e-06
42	0x38a0e8b5	7.6727396e-05
43	0x36207ec4	2.3915645e-06
44	0x37cef105	2.4669347e-05
45	0x3856426b	5.1083432e-05
46	0x380771fb	3.229266e-05
47	0x383a4462	4.4409542e-05
48	0x36774a00	3.6848942e-06
49	0x37e53099	2.7321557e-05
50	0x36933b58	4.38785e-06
51	0x36bb8b22	5.5892315e-06
52	0x358bb40a	1.0408705e-06
53	0x37b1d80c	2.1200649e-05
54	0x361dc06c	2.3506827e-06
55	0x36b97046	5.5265e-06
56	0x386fe579	5.7195753e-05
57	0x3825853d	3.9463153e-05
58	0x382ebfbf	4.166341e-05
59	0x378c83d4	1.6750688e-05
60	0x3599fcc0	1.1472948e-06
61	0x38769081	5.878555e-05
62	0x35b7cab6	1.3693559e-06
63	0x3749663f	1.200434e-05

module.model.1.model.3.weight f4 [64, 64, 3, 3]
0	0x3c02c25b	0.007980908
1	0x3d17ccf7	0.037060704
2	0xbd54faa8	-0.051996857
3	0xbd43b2a4	-0.047777787
4	0xb9a83b72	-0.00032087747
5	0xbb376405	-0.00279832
6	0xbd0f0004	-0.034912124
7	0xbd825a53	-0.06364884
8	0x3d836c3e	0.0641713
9	0x3d5dfddc	0.054197177
10	0xbd4f1956	-0.05056127
11	0x3d5a90fa	0.053360917
12	0xbd7c2383	-0.061557304
13	0xbd2a9781	-0.04164839
14	0xbd4a5f6c	-0.049407408
15	0xbbb56d27	-0.0055366936
16	0x3d23c9e4	0.03998746
17	0x3cf62553	0.030047094
18	0xbd7870d9	-0.060654495
19	0xbcf7638b	-0.030198833
20	0xba60583a	-0.00085580687
21	0xbcb26dda	-0.021780897
22	0xbd1ba10f	-0.037995394
23	0xbd7aee89	-0.06126264
24	0x3d256d7c	0.040387616
25	0xbd12f29b	-0.035875898
26	0xbd7a067d	-0.061041344
27	0xbd14b98d	-0.036309768
28	0xbc3a104b	-0.011356424
29	0x3d479eda	0.048735477
30	0x3d8d4c85	0.068993606
31	0x3c997890	0.018734246
32	0xbd1b2188	-0.037873775
33	0x3d8668c9	0.06562955
34	0xbd7f70c2	-0.062363394
35	0x3b3a5bde	0.0028436105
36	0xbc90fe13	-0.017699277
37	0xbcf512f0	-0.029916257
38	0xbd37c9aa	-0.044870056
39	0x3c27b10b	0.010235081
40	0x3bf214af	0.0073877196
41	0x3aadd2d0	0.001326168
42	0xbce49de4	-0.02790732
43	0x3d32d3e1	0.043659095
44	0xbce4b82c	-0.027919851
45	0x3cef20d2	0.029190455
46	0xbd068470	-0.032841146
47	0x3c941090	0.018074304
48	0xbd531464	-0.051533118
49	0x3d256acb	0.04038505
50	0xbd18839b	-0.037234884
51	0xbcbe25c0	-0.02321136
52	0xbcdcdaba	-0.026959766
53	0xbd3239d6	-0.043512188
54	0xbc78074f	-0.015138461
55	0xbcfb834a	-0.030702252
56	0xbc6ae5f6	-0.0143370535
57	0x3d28d131	0.041215125
58	0xbd4f8190	-0.05066067
59	0x3ced265f	0.02894896
60	0x3d318f4c	0.04334955
61	0xbc2eb3e2	-0.010663005
62	0xbd903d42	-0.07042934
63	0x3d02329d	0.03178655
64	0x3c84aa19	0.01619439
65	0xbca7a37d	-0.0204637
66	0x3d86fd0b	0.06591233
67	0xbd5f1264	-0.054460898
68	0x3aea1196	0.0017858024
69	0xbcef33d9	-0.029199528
70	0xbd00bf9e	-0.03143274
71	0x3c80b9dc	0.015713625
72	0x3d0561c8	0.032563955
73	0x3d86799e	0.065661654
74	0x3d522958	0.05130896
75	0xbd81fc0f	-0.063469045
76	0xbd193692	-0.037405558
77	0x3d4f3c85	0.050594825
78	0xbd65e714	-0.056128576
79	0x3d05f763	0.03270663
80	0xbd6a9e41	-0.05727983
81	0x3d1198fa	0.03554628
82	0x3d8446a4	0.06458786
83	0xbd070f8a	-0.032973804
84	0xbd6b593b	-0.057458144
85	0xbd2cbeb6	-0.042174064
86	0xbcfd9dae	-0.030958977
87	0xbbf27a0a	-0.007399802
88	0x3d8ffaf7	0.070302896
89	0x3ca83b71	0.020536156
90	0x3d597c97	0.053097334
91	0x3d6b51a4	0.057450905
92	0xbd5cf094	-0.05394037
93	0xbcf8e817	-0.030384107
94	0x3d001ef1	0.031279508
95	0x3ca3956b	0.019968709
96	0xbd2c15ef	-0.042013105
97	0xbc952d23	-0.01821
98	0xbd1d8a08	-0.038461715
99	0x3d505eb7	0.050871577
100	0xbcbdde71	-0.023177357
101	0xbd8a7253	-0.06760087
102	0x3d03923a	0.032121874
103	0x3d049faf	0.03237885
104	0x3cb09189	0.021553772
105	0xbc955158	-0.018227264
106	0xbd1cb21b	-0.038255792
107	0xb89b1a59	-7.3958836e-05
108	0xbcdf46f3	-0.02725551
109	0x3d22a365	0.039706606
110	0x3d6274f7	0.055287328
111	0x3d673a27	0.056451943
112	0x3b4b3aa3	0.0031010292
113	0xbbc321fd	-0.0059549795
114	0xbced7d4d	-0.028990412
115	0x3d639ef6	0.05557152
116	0x3c453f65	0.01203904
117	0xbd06d9fc	-0.03292273
118	0x3cd44736	0.025912862
119	0x3d2dd1d2	0.04243643
120	0xbccc766e	-0.024958815
121	0x3d9198fc	0.071092576
122	0xbc0a123c	-0.008427199
123	0xbbccaed9	-0.0062464294
124	0x3cae99ba	0.021313537
125	0xbd8f7393	-0.07004466
126	0x3d8e2b29	0.06941826
127	0xbca0126b	-0.019540032
128	0xbccce8e2	-0.02501339
129	0xbd7c2340	-0.061557055
130	0xbd313c80	-0.043270588
131	0xbd1ded10	-0.03855616
132	0xbcc513c3	-0.024057275
133	0x3d4e1cfc	0.05032061
134	0xbd2fb51d	-0.042897332
135	0xbbe35f58	-0.006938856
136	0x3d6c996e	0.05776351
137	0xbca5f933	-0.020260429
138	0x3ab8c053	0.0014095403
139	0xbd4e45ce	-0.05035954
140	0x3b074b0b	0.0020644094
141	0xbd6aa501	-0.057286266
142	0x3d55edd3	0.05222876
143	0x3bc55a2e	0.006022713
144	0xbd2f7f6f	-0.04284614
145	0xbd0f4868	-0.03498116
146	0x3cb30311	0.021852048
147	0x3be9c32e	0.007133863
148	0xbd059e9b	-0.03262196
149	0xbcae5c7c	-0.021284334
150	0x3ce804b2	0.028322551
151	0x3c5840ac	0.013199013
152	0x3d827208	0.06369406
153	0xbcfc9651	-0.030833395
154	0x3d1ad22a	0.037798084
155	0xbcf21380	-0.029550314
156	0x3ad49232	0.0016217886
157	0xbd0328b4	-0.03202124
158	0xbd8f77a9	-0.07005245
159	0x3d107175	0.03526445
160	0x3c68e8bc	0.014215644
161	0x3ca5a225	0.020218918
162	0x3c8bbd68	0.01705809
163	0xbd649438	-0.055805415
164	0x3d4d4be7	0.050121214
165	0xbd5c3035	-0.05375691
166	0x3d7265c8	0.059179097
167	0xbc4bac44	-0.012431208
168	0xbd3e3ca2	-0.046444543
169	0x39830d88	0.0002499635
170	0xbd7ea9ad	-0.062173534
171	0x3ccdc3c1	0.025117757
172	0x3c6f73e6	0.014615035
173	0x3c8ea257	0.017411394
174	0x3d1c6b6e	0.03818839
175	0xbb0b9609	-0.0021299145
176	0xbbb0f68e	-0.0054004854
177	0xbc939c5d	-0.018018896
178	0x3b9d6e0b	0.004804378
179	0xbc71ad36	-0.014750769
180	0x3d06c340	0.03290105
181	0xbd4fb3f1	-0.050708715
182	0x3d23cc37	0.039989676
183	0xbd05d5c8	-0.03267458
184	0xbd777471	-0.06041378
185	0xbcfb8510	-0.030703098
186	0xbd91d1ee	-0.07120119
187	0x3cbdb3ad	0.023156965
188	0x3d83d038	0.06436199
189	0x3d126657	0.03574213
190	0x3c9a94dc	0.01886981
191	0x3ce0a3c9	0.027421849
192	0x3b9a972b	0.0047177277
193	0xbd4f2768	-0.05057469
194	0x3d5e9040	0.054336786
195	0x3d6e5598	0.058187097
196	0x3d46145d	0.048359264
197	0x3d133443	0.035938513
198	0xbcc4ecaa	-0.024038631
199	0xbd900d6d	-0.07033811
200	0xbbca866b	-0.0061805747
201	0x3c1205a0	0.008912474
202	0xbc6faae2	-0.014628144
203	0xbbc7d15a	-0.0060979547
204	0xbd22953c	-0.039693102
205	0xbd4302c3	-0.047610056
206	0x3bbc1058	0.005739253
207	0xbc95f5eb	-0.01830574
208	0x3d93dd81	0.07219983
209	0x3d0c4854	0.034248665
210	0x3cf8a39f	0.030351458
211	0x3d0f9923	0.035058152
212	0x3d0474d1	0.032337967
213	0x3cb0e7b6	0.021594863
214	0xbd38b3a0	-0.04509318
215	0x3d642403	0.055698406
216	0x3d19f074	0.03758283
217	0xbd82619b	-0.06366273
218	0xbd91e6e2	-0.071241155
219	0xbd0ae5e9	-0.033910666
220	0xbd20f0f4	-0.03929229
221	0x3b8a2b3f	0.004216581
222	0xbb6161f5	-0.0034390662
223	0xbbda28ef	-0.0066577117
224	0x3bafc494	0.00536401
225	0xbd25b12d	-0.04045217
226	0x3d3868b4	0.045021728
227	0x3c43b0cf	0.01194401
228	0xbd8ec1bf	-0.06970548
229	0xbd39b122	-0.045334943
230	0x3ccb78eb	0.024837932
231	0x3d2e4023	0.042541634
232	0x3d5987b6	0.05310794
233	0xbd348199	-0.044068906
234	0x3d85d804	0.06535342
235	0xbd41221a	-0.047151662
236	0x3d9025bd	0.07038448
237	0x3d66c015	0.056335527
238	0x3d6c39d0	0.05767232
239	0xbc8510df	-0.016243396
240	0xbcbbb8d6	-0.022915285
241	0x3d89d854	0.067307144
242	0x3bf95b18	0.007609736
243	0xbd6d9a37	-0.0580084
244	0xbbb32b87	-0.0054678353
245	0x3d3a3f6e	0.045470648
246	0x3cd2ddb7	0.025740488
247	0xbd129acd	-0.03579216
248	0xbd732d6a	-0.059369482
249	0xbd42b228	-0.047533184
250	0xbcf6fb12	-0.030149017
251	0xbcba8f2d	-0.02277335
252	0x3d5fb5a6	0.054616593
253	0xbd894b59	-0.067038245
254	0xbced6294	-0.02897767
255	0xbd246b27	-0.04014125

module.model.1.model.3.bias f4 [64]
0	0x3a7ee365	0.00097232155
1	0x3a6db413	0.00090676657
2	0x3a828702	0.0009958448
3	0x3a8297c1	0.0009963439
4	0x3a84499e	0.001009274
5	0x3a7e118b	0.0009691945
6	0x3a7eddfa	0.0009722408
7	0x3a87bd8f	0.0010356175
8	0x3a7e3d3b	0.0009698455
9	0x3a802488	0.0009776512
10	0x3a88395a	0.0010393069
11	0x3a839189	0.001003788
12	0x3a73cf8c	0.0009300641
13	0x3a81754d	0.0009876877
14	0x3a81b743	0.0009896535
15	0x3a823cd2	0.0009936339
16	0x3a7bd60f	0.00096067874
17	0x3a7081c8	0.00091746124
18	0x3a6da9a5	0.00090661115
19	0x3a86f9a8	0.0010297792
20	0x3a8064a2	0.0009795616
21	0x3a80b5ba	0.0009819784
22	0x3a82c352	0.0009976423
23	0x3a922414	0.0011149668
24	0x3a86ee17	0.0010294345
25	0x3a827acf	0.0009954813
26	0x3a8da1f6	0.0010805714
27	0x3a820f48	0.0009922767
28	0x3a848ef8	0.0010113409
29	0x3aa4482b	0.0012533715
30	0x3a867687	0.0010258713
31	0x3a852acb	0.0010159848
32	0x3a810503	0.0009843413
33	0x3a7e163c	0.0009692644
34	0x3a7fae75	0.0009753474
35	0x3a81b8d7	0.0009897006
36	0x3a82a264	0.0009966609
37	0x3a828c4c	0.0009960025
38	0x3a86c728	0.0010282742
39	0x3a84338a	0.0010086161
40	0x3a8b8107	0.0010643312
41	0x3a77e4eb	0.00094564137
42	0x3a888989	0.0010416965
43	0x3a775ce0	0.00094361417
44	0x3a7fa825	0.00097525335
45	0x3a858b6c	0.0010188646
46	0x3a846a75	0.0010102527
47	0x3a72cc2f	0.0009261993
48	0x3a6d7ee9	0.00090597436
49	0x3a8476c7	0.0010106199
50	0x3a817da8	0.0009879367
51	0x3a81c261	0.0009899848
52	0x3a868524	0.0010263068
53	0x3a82044f	0.0009919497
54	0x3a8bfdea	0.0010680531
55	0x3a83fbc6	0.0010069541
56	0x3a863ae5	0.0010240941
57	0x3a810147	0.00098423
58	0x3a80a4a1	0.0009814688
59	0x3a764f39	0.00093959604
60	0x3a82cdf0	0.0009979587
61	0x3a7af27a	0.0009572875
62	0x3a85367c	0.0010163332
63	0x3a822352	0.0009928739

module.model.1.model.4.weight f4 [64]
0	0x3f801e57	1.0009259
1	0x3f8021e4	1.0010343
2	0x3f7fcd9a	0.999231
3	0x3f800e05	1.0004278
4	0x3f7fe0f9	0.99952656
5	0x3f800429	1.000127
6	0x3f8019e8	1.0007906
7	0x3f7fc01a	0.999025
8	0x3f801f47	1.0009545
9	0x3f7fe64d	0.99960786
10	0x3f7fd041	0.99927145
11	0x3f7fd511	0.9993449
12	0x3f801f8a	1.0009625
13	0x3f801a1f	1.0007972
14	0x3f801d03	1.0008854
15	0x3f800957	1.000285
16	0x3f7ff322	0.99980366
17	0x3f80196e	1.000776
18	0x3f80143e	1.0006177
19	0x3f7fcdf5	0.9992364
20	0x3f801969	1.0007755
21	0x3f801438	1.000617
22	0x3f8007d4	1.0002389
23	0x3f7fc03d	0.9990271
24	0x3f7fbf1f	0.99901
25	0x3f800d2b	1.0004019
26	0x3f7fcff2	0.99926674
27	0x3f80197c	1.0007777
28	0x3f800c50	1.0003757
29	0x3f7fc5d1	0.9991122
30	0x3f7fd052	0.99927247
31	0x3f7fe8be	0.9996451
32	0x3f800cc5	1.0003897
33	0x3f801ffa	1.0009758
34	0x3f7fd101	0.9992829
35	0x3f801db0	1.000906
36	0x3f800a8c	1.0003219
37	0x3f7ffc04	0.9999392
38	0x3f7ff79f	0.99987215
39	0x3f7fee5b	0.99973077
40	0x3f7fc215	0.9990552
41	0x3f801fac	1.0009665
42	0x3f7fc4bc	0.9990957
43	0x3f801a56	1.0008037
44	0x3f802048	1.0009851
45	0x3f7fe11d	0.9995287
46	0x3f7ff339	0.99980503
47	0x3f801dcf	1.0009097
48	0x3f8020b2	1.0009978
49	0x3f7fdf02	0.9994966
50	0x3f800798	1.0002317
51	0x3f801c00	1.0008545
52	0x3f801e58	1.000926
53	0x3f801990	1.0007801
54	0x3f7fd153	0.9992878
55	0x3f801736	1.0007083
56	0x3f7fc020	0.99902534
57	0x3f801a03	1.0007938
58	0x3f7ff6d6	0.99986017
59	0x3f80211a	1.0010102
60	0x3f801f5f	1.0009574
61	0x3f8009f6	1.000304
62	0x3f801e3c	1.0009227
63	0x3f8018fe	1.0007627

module.model.1.model.4.bias f4 [64]
0	0x3a73c6e6	0.00092993525
1	0x3a8319d8	0.0010002209
2	0xba760ce1	-0.00093860744
3	0xba41efea	-0.00073981157
4	0xba62b20f	-0.00086477486
5	0x3a31b773	0.000677935
6	0x3a62291a	0.00086273404
7	0xba21b314	-0.00061683473
8	0x3a819c78	0.000988855
9	0xba387a74	-0.000703729
10	0x3a5e7c3e	0.00084871415
11	0x39b1477f	0.0003381334
12	0x3a7cab6d	0.00096385815
13	0x3a6ae447	0.00089604076
14	0x3a819f7a	0.0009889447
15	0x392eef48	0.00016683072
16	0x3a36c51f	0.00069721224
17	0x3a807a14	0.0009802007
18	0x3a837bfc	0.0010031457
19	0xba5f2470	-0.00085122045
20	0x3a81a320	0.0009890534
21	0x39397017	0.00017684732
22	0xba7ed2c0	-0.0009720735
23	0xba7e54b9	-0.0009701956
24	0xba7c5c6f	-0.0009626811
25	0x39e3a12d	0.000434169
26	0xba62e285	-0.000865497
27	0x3a81cca4	0.0009902907
28	0x393eeba9	0.00018207602
29	0xba7b0efd	-0.00095771236
30	0xba73a5e2	-0.0009294433
31	0xba3b5789	-0.00071465276
32	0xb93a836b	-0.000177873
33	0x3a882edd	0.0010389943
34	0xba442212	-0.00074818835
35	0x3a60a838	0.00085699884
36	0x3a6afce0	0.0008964073
37	0x39980386	0.00028994324
38	0xb89601bd	-7.152881e-05
39	0xb9b5a3d4	-0.00034645072
40	0xba7419d3	-0.00093117094
41	0x3a83fa4a	0.0010069099
42	0xba77ae1f	-0.00094482483
43	0x3a752027	0.00093507994
44	0x3a772480	0.0009427741
45	0xba5424ed	-0.00080926606
46	0x3a5a5bbf	0.0008329711
47	0x3a801d45	0.0009774348
48	0x3a83cd57	0.0010055703
49	0xba47f5ea	-0.00076278916
50	0x3a820653	0.0009920098
51	0x3a7c349f	0.0009620878
52	0x3a7b56d7	0.000958783
53	0x3a6940fe	0.0008897929
54	0xba6c0150	-0.0009002881
55	0x3a5c8d28	0.0008413368
56	0xba85968f	-0.0010191965
57	0x3a80b967	0.0009820879
58	0xb9e28d62	-0.00043211418
59	0x3a827115	0.0009951914
60	0xba030c20	-0.000499906
61	0x3a798c1a	0.0009519473
62	0x3a8190cf	0.0009885075
63	0xba502c1f	-0.0007941145

module.model.1.model.4.running_mean f4 [64]
0	0xbefd107f	-0.49426648
1	0xbf162ec6	-0.5866512
2	0x3e24809f	0.1606469
3	0x3d93933b	0.07205816
4	0x3edebd9d	0.43504038
5	0x3e0c6a68	0.13712466
6	0xbecd34cf	-0.40079352
7	0xbe34ad57	-0.17644249
8	0x3ea1d954	0.3161112
9	0x3e95e1b8	0.29273772
10	0xbe82f63e	-0.25578493
11	0x3dd2d485	0.10294441
12	0xbe907432	-0.2821365
13	0x3e87621a	0.26442033
14	0xbcf01923	-0.029308861
15	0x3e81e837	0.25372478
16	0x3e82cd28	0.25547147
17	0xbe013869	-0.12619175
18	0xbf0a65fc	-0.54061866
19	0x3d205979	0.039147828
20	0xbda72c7e	-0.08162783
21	0x3e106f69	0.14105
22	0x3d9eb5a3	0.07749488
23	0xbdf58c2e	-0.11989628
24	0x3ec381c6	0.38184947
25	0xbbed4467	-0.00724082
26	0xbbd7e249	-0.0065882546
27	0x3ea7ddf2	0.32786518
28	0x3ea9cf9a	0.331662
29	0xbdba8a18	-0.091083705
30	0x3e1f0d98	0.1553253
31	0x3e989759	0.2980297
32	0xbe4e1edc	-0.2012896
33	0xbc8545f3	-0.016268706
34	0x3ee9cde4	0.45664895
35	0x3e2a69ed	0.1664197
36	0xbe369f23	-0.17834143
37	0xbe99490f	-0.29938552
38	0x3e6e8918	0.23294485
39	0xbe2732e6	-0.1632801
40	0xbeb80aba	-0.35945684
41	0xbe68478b	-0.22683541
42	0xbd9264e3	-0.07148149
43	0xbe1276be	-0.14303109
44	0xbf0d2caa	-0.55146277
45	0xbb5399e5	-0.0032287773
46	0x3cf83058	0.03029649
47	0xbe5c21a3	-0.21497206
48	0xbd03429b	-0.03204594
49	0x3d8d3a66	0.06895904
50	0xbee75a7c	-0.45186222
51	0xbdf1c878	-0.118058145
52	0x3efbe8bc	0.49201
53	0x3eace253	0.33766422
54	0x3e1cf043	0.15326028
55	0x3ca29573	0.019846654
56	0xbeb4b9f9	-0.35298136
57	0x3eb0f5df	0.34562585
58	0x3e8b493a	0.27204305
59	0xbdf5a090	-0.119935155
60	0x3dc7fce2	0.097650304
61	0xbe3919a7	-0.18076192
62	0x3e098be6	0.13432273
63	0xbdeac624	-0.114635736

module.model.1.model.4.running_var f4 [64]
0	0x3e78ee3f	0.24309634
1	0x3e352d11	0.17692973
2	0x3cea7fdc	0.028625421
3	0x3d05195e	0.032494895
4	0x3e157fe2	0.14599565
5	0x3d132bc7	0.03593042
6	0x3f8b7167	1.0893983
7	0x3d1f5936	0.038903438
8	0x3ed23dd3	0.41062793
9	0x3e861496	0.2618758
10	0x3d7798cc	0.060448453
11	0x3ce3794c	0.0277678
12	0x3d75555a	0.05989585
13	0x3db766ef	0.0895518
14	0x3f6ec454	0.9326832
15	0x3d615e95	0.05502184
16	0x3d15784a	0.03649167
17	0x3dca5369	0.098791905
18	0x3d88fece	0.06689225
19	0x3ea77dea	0.32713252
20	0x3eadadf2	0.33921772
21	0x3d782d87	0.060590293
22	0x3d2d284d	0.042274762
23	0x3e0cac57	0.13737617
24	0x3e6ca365	0.23109205
25	0x3f2b281e	0.6685809
26	0x3e0e8937	0.13919531
27	0x3e3e1cc8	0.18565667
28	0x3df3c01f	0.119018786
29	0x3c66eb17	0.014094136
30	0x3ea75ecf	0.3268952
31	0x3d76d615	0.06026276
32	0x3e57f405	0.2108918
33	0x3e12bed1	0.14330603
34	0x3dbe146e	0.092812404
35	0x3f13bd70	0.57710934
36	0x3faaebfc	1.3353267
37	0x3ec3df5f	0.38256356
38	0x3cbe9d09	0.02326824
39	0x3e8fb41f	0.2806711
40	0x3d5f8031	0.054565612
41	0x3dc0c06a	0.094117
42	0x3ec84efd	0.39122763
43	0x3dbabe7d	0.09118364
44	0x3f2bad9a	0.6706177
45	0x3f61175d	0.87926275
46	0x3edaaafe	0.42708582
47	0x3daee1d0	0.08539164
48	0x3dab36cc	0.08360061
49	0x3ed13186	0.40858096
50	0x3f2e2f5f	0.6804103
51	0x3dc2bd51	0.095087655
52	0x3d8ea0c4	0.06964257
53	0x3e64e621	0.22353412
54	0x3d23854d	0.039922047
55	0x3d941fa8	0.072326005
56	0x3ed72801	0.42022708
57	0x3e02f0f4	0.12787229
58	0x3ebfeb87	0.3748438
59	0x3e98f40d	0.29873696
60	0x3db336a7	0.087506585
61	0x3e809518	0.2511375
62	0x3e906499	0.2820175
63	0x3e45b3a6	0.19306812

module.model.2.model.0.weight f4 [64, 64, 3, 3]
0	0xbd7b9ea6	-0.061430596
1	0xbca3d80b	-0.020000478
2	0x3d05108e	0.03248649
3	0xbced76fe	-0.028987404
4	0x3d120a24	0.035654202
5	0xbcfe3b0d	-0.031034017
6	0x3d60c74e	0.05487757
7	0x3ca563d9	0.020189213
8	0xbd1b80f2	-0.03796477
9	0xbd4db0c7	-0.050217416
10	0xbbae3083	-0.0053158416
11	0x3c7ff53a	0.015622431
12	0x3d6f1be7	0.05837622
13	0x3d1e7dc3	0.038694154
14	0x3cd30735	0.025760273
15	0xbcf5eef7	-0.030021174
16	0xbd8c1075	-0.068390764
17	0xbd6bea65	-0.057596583
18	0xbd26b6ef	-0.040701803
19	0x3d35eba1	0.044414166
20	0xbd781732	-0.060568996
21	0xbcb4f7c0	-0.022090793
22	0x3ccd3637	0.025050266
23	0xbd81c5c6	-0.063365504
24	0xbae60ebc	-0.0017551999
25	0x3c9adb05	0.018903265
26	0xbd185a62	-0.03719557
27	0x3d74f011	0.059799258
28	0xbb3568ab	-0.0027680795
29	0xbd035ce7	-0.03207102
30	0x3c6ba7e8	0.014383294
31	0xbb12c1cf	-0.002239335
32	0x3cd3bc3d	0.025846595
33	0x3d92b185	0.071627654
34	0xbd014020	-0.031555295
35	0xbd888342	-0.066656604
36	0xbd1e8cdc	-0.038708553
37	0x3ce9eb63	0.028554624
38	0x3c3dc905	0.011583571
39	0x3d950af9	0.072774835
40	0xbcd202af	-0.025636045
41	0xbd6baaf7	-0.05753609
42	0x3c5a7f84	0.013336066
43	0xbd31f03c	-0.043441996
44	0xbd84d6c3	-0.06486275
45	0xbd926002	-0.07147218
46	0xbc125ab1	-0.008932755
47	0x3d30dcb2	0.04317922
48	0x3d7d7c53	0.061886143
49	0x3ad96d0a	0.0016588282
50	0xbd5c8e52	-0.053846665
51	0x3d2c2da4	0.042035714
52	0x3bf75e2f	0.0075490694
53	0x3d402f21	0.046919946
54	0x3ca27f41	0.01983607
55	0x3c6a31d6	0.014294108
56	0x3d41b140	0.04728818
57	0x3c3f8023	0.011688265
58	0xbce23ba7	-0.027616335
59	0x3d84229c	0.06451914
60	0xbcdf443e	-0.02725422
61	0x3d263399	0.04057655
62	0x3d86c180	0.06579876
63	0x3d89e8a5	0.067338265
64	0x3d675765	0.05647983
65	0xbbadb450	-0.005301036
66	0xbb2c956c	-0.002633418
67	0xbd2a0f11	-0.041518275
68	0xbc93e6c4	-0.018054374
69	0xbb5cc707	-0.0033687965
70	0xbd9386b4	-0.07203427
71	0xbd03a74b	-0.032141965
72	0xbccffd08	-0.02538921
73	0x3d839b4e	0.064261064
74	0x3ace8543	0.0015756268
75	0xbc186822	-0.009302171
76	0x3ce8ba59	0.02840917
77	0xbcdd32a9	-0.027001696
78	0x3d824953	0.06361642
79	0xbd6a29a8	-0.057168633
80	0xbd09e203	-0.033662807
81	0xbca36231	-0.019944282
82	0x3d58446e	0.052799635
83	0x3d4b9085	0.04969837
84	0x3cff13c3	0.031137353
85	0xbd48460b	-0.048894923
86	0xbc7354fc	-0.014851805
87	0x3afeff9b	0.0019454838
88	0xbd6ee7f8	-0.05832669
89	0xbd896a02	-0.067096725
90	0x3d0f188c	0.03493552
91	0xbd7dcc56	-0.061962448
92	0xbd2109d3	-0.03931601
93	0xbb1cbe29	-0.0023917055
94	0xbbbfc3d2	-0.005852201
95	0x3d710eab	0.05885188
96	0x3d8b787f	0.06810092
97	0xbd262cd0	-0.04057008
98	0xbd920071	-0.071289904
99	0xbd18af90	-0.037276804
100	0xbd8e4a67	-0.06947785
101	0xbd301006	-0.04298403
102	0xbd6b135e	-0.057391517
103	0xbcb6fc05	-0.02233697
104	0x3cb43dd3	0.022002136
105	0xbd8ef219	-0.0697977
106	0xbc1200d0	-0.0089113265
107	0xbd553265	-0.052050013
108	0xbc86b4b8	-0.016443595
109	0x3d81fbdd	0.06346867
110	0x3d0f41f0	0.034974992
111	0xbd526b0c	-0.05137162
112	0x3d39d4fe	0.04536914
113	0xbc23aa8a	-0.00998939
114	0xbd7934a6	-0.060841225
115	0x3be6768b	0.0070331744
116	0xbcb654a2	-0.022257153
117	0xbd4975e2	-0.049184687
118	0x3c7f6f01	0.01559043
119	0x3d59d3b6	0.05318042
120	0xbd1a666e	-0.03769534
121	0xbd52de1a	-0.051481344
122	0x3cae71d8	0.02129452
123	0x3bf066d4	0.007336477
124	0x3c5d18f2	0.013494717
125	0x3cd88b98	0.026433751
126	0x3d21b591	0.039479796
127	0xbcd71878	-0.026256785
128	0x3d479782	0.048728473
129	0x3c835c2a	0.016035158
130	0xbc0ac977	-0.0084708845
131	0x3d19bbbe	0.03753256
132	0x3cb10fc3	0.021613961
133	0x3cb59fbe	0.022170898
134	0xbc4871ae	-0.012234135
135	0xbca0276d	-0.01955005
136	0x3c9707d7	0.018436356
137	0xbd0ff8be	-0.03514933
138	0xbc2c5313	-0.010517853
139	0xbd7ca55e	-0.061681144
140	0x3d464234	0.04840298
141	0xbc1b911f	-0.009495049
142	0x3cd6281f	0.026142178
143	0xbc9fa260	-0.019486606
144	0x3b57e966	0.0032945513
145	0x3d8edef8	0.06976122
146	0x3aaef13b	0.0013347039
147	0xbd87ef64	-0.06637457
148	0x3d129336	0.035784923
149	0x3d77d02d	0.060501266
150	0x3d4cc824	0.049995556
151	0xbd814a95	-0.063130535
152	0xbd868b28	-0.06569511
153	0xbcb007c4	-0.021488078
154	0x3c8f2d94	0.017477788
155	0x3d7608d2	0.060067005
156	0x3d272cd1	0.040814225
157	0xbd90673a	-0.07050939
158	0x3d440b75	0.04786249
159	0xbd77e628	-0.06052223
160	0xbd714836	-0.058906756
161	0xbc1b3583	-0.009473207
162	0x3baa9627	0.005205888
163	0x3d0c48a4	0.034248963
164	0x3d64d992	0.055871554
165	0x3aa1e9e6	0.0012353032
166	0x3c58dfd2	0.013236957
167	0x3d5b1ff8	0.053497285
168	0x3d5685ac	0.052373573
169	0xbc98526d	-0.018593991
170	0xbcd3e70b	-0.025867006
171	0xbd618aae	-0.055063896
172	0xbd531a13	-0.05153854
173	0x3d86b778	0.06577963
174	0x3d89083d	0.066910245
175	0x3d931282	0.071812645
176	0xbccfee77	-0.025382264
177	0xbce23f3a	-0.02761804
178	0x3d7b7737	0.06139299
179	0xbd828347	-0.063726954
180	0x3cc91956	0.024548214
181	0x3d12d3f1	0.035846654
182	0x3d2d4d14	0.042309836
183	0xbce9d43f	-0.02854359
184	0xbd79e903	-0.061013233
185	0xbc4f7ed1	-0.012664513
186	0xbd5b9b1f	-0.053614732
187	0x3d4e71ab	0.05040137
188	0xbcf6cd29	-0.030127125
189	0x3d32f50c	0.043690726
190	0xbcdad354	-0.026712097
191	0x3d1e64ff	0.038670536
192	0xbcb73158	-0.022362396
193	0x3c8cdf17	0.017196221
194	0xbd025e5e	-0.031828277
195	0x3d8116d4	0.06303182
196	0xbd8872d1	-0.066625245
197	0x3c71db16	0.014761707
198	0x3d31b48f	0.043385085
199	0x3d04b068	0.032394797
200	0xbcaa1371	-0.020761224
201	0xbd0c1ca0	-0.034206986
202	0xbd8fa86f	-0.07014548
203	0xbd0198b9	-0.03163979
204	0x3c9a3dac	0.018828236
205	0xbd0baee1	-0.034102324
206	0xbc3b4e96	-0.011432311
207	0xbcb8020d	-0.022461915
208	0xbd5bd76d	-0.053672243
209	0x3d2e6c79	0.042583916
210	0xbcf70a1a	-0.030156184
211	0xbc455660	-0.012044519
212	0xbd8078e4	-0.06273058
213	0xbc88f3a4	-0.01671774
214	0x3d0142c8	0.03155783
215	0xbd021443	-0.031757604
216	0x3d589077	0.052872147
217	0xbd320ac3	-0.043467294
218	0xbbdbd86c	-0.006709149
219	0xbd4a02ca	-0.049319066
220	0xb9e7153c	-0.00044075574
221	0x3c9bc7c5	0.019016156
222	0x3c9fbe69	0.019499974
223	0x3d74ac54	0.059734657
224	0xbce7138f	-0.028207568
225	0xbd59e1f2	-0.053193994
226	0xbd88ebf2	-0.06685628
227	0x3d19d0d8	0.037552685
228	0xbb1aff00	-0.0023650527
229	0x3d67295d	0.05643593
230	0xbd93873b	-0.072035275
231	0xbcaece9e	-0.021338757
232	0xbcc2a794	-0.023761548
233	0x3ca07064	0.019584842
234	0xbd867767	-0.06565743
235	0xbd23d83e	-0.040001146
236	0x3d73ea72	0.059549756
237	0xbce1cd20	-0.027563632
238	0x3c2e878b	0.010652433
239	0xbd7712db	-0.060320716
240	0x3d2fe486	0.042942546
241	0xbc425074	-0.011860002
242	0x3d230aa2	0.039805062
243	0xbce96330	-0.02848968
244	0x3d6912b3	0.0569026
245	0x3c954a3b	0.018223872
246	0x3b0e7820	0.002173908
247	0x3d2875d2	0.041127987
248	0xbcc0ffec	-0.023559533
249	0x3c99287c	0.018696062
250	0x3d24f8a3	0.04027618
251	0xbbf378f5	-0.0074301907
252	0x3d8decf9	0.069299646
253	0x3d8dd626	0.06925611
254	0x3b81b4a0	0.0039582998
255	0xbd8ab3ae	-0.067725524

module.model.2.model.0.bias f4 [64]
0	0x3a8369eb	0.0010026073
1	0x3a8237ed	0.000993488
2	0x3a84d159	0.0010133191
3	0x3a83c365	0.0010052739
4	0x3a830253	0.00099952
5	0x3a81a526	0.0009891137
6	0x3a84b424	0.0010124487
7	0x3a82ce3f	0.0009979679
8	0x3a852cd1	0.0010160451
9	0x3a82bfa7	0.000997533
10	0x3a81b9a5	0.0009897245
11	0x3a81d2b9	0.0009904719
12	0x3a8345f7	0.0010015358
13	0x3a82d168	0.0009980621
14	0x3a848451	0.0010110234
15	0x3a8315d2	0.001000101
16	0x3a83f5f5	0.0010067808
17	0x3a83bbe7	0.0010050506
18	0x3a838496	0.001003402
19	0x3a822933	0.0009930491
20	0x3a82d9fe	0.000998318
21	0x3a84c1db	0.0010128574
22	0x3a8287ed	0.0009958722
23	0x3a82dedf	0.0009984634
24	0x3a81bdd7	0.0009898496
25	0x3a83a97c	0.0010045017
26	0x3a83e175	0.0010061698
27	0x3a82cef7	0.0009979893
28	0x3a828d26	0.0009960278
29	0x3a84e204	0.0010138159
30	0x3a85e1dc	0.0010214406
31	0x3a82c951	0.000997821
32	0x3a8368e4	0.0010025767
33	0x3a83543f	0.0010019614
34	0x3a8139e9	0.0009859178
35	0x3a837475	0.0010029214
36	0x3a81f4f6	0.0009914923
37	0x3a82a490	0.0009967256
38	0x3a827850	0.0009954069
39	0x3a826e8b	0.0009951157
40	0x3a842a44	0.0010083397
41	0x3a83a1d7	0.0010042739
42	0x3a84fd5f	0.0010146311
43	0x3a8328ee	0.0010006705
44	0x3a82c364	0.0009976444
45	0x3a8061ad	0.0009794735
46	0x3a829ac5	0.0009964338
47	0x3a822702	0.0009929838
48	0x3a7e6c32	0.00097054534
49	0x3a826f28	0.000995134
50	0x3a83f40d	0.001006724
51	0x3a8337cf	0.0010011139
52	0x3a825cac	0.0009945831
53	0x3a81f697	0.0009915408
54	0x3a8358e2	0.0010020996
55	0x3a859f99	0.0010194659
56	0x3a83b333	0.0010047912
57	0x3a83457e	0.0010015217
58	0x3a804c3a	0.0009788342
59	0x3a7f2d3b	0.0009734218
60	0x3a812062	0.000985157
61	0x3a85881e	0.0010187661
62	0x3a82e50a	0.0009986472
63	0x3a84d372	0.0010133816

module.model.2.model.1.weight f4 [64]
0	0x3f7feb4c	0.9996841
1	0x3f80201d	1.00098
2	0x3f8003db	1.0001177
3	0x3f7fcd36	0.999225
4	0x3f800b15	1.0003382
5	0x3f800872	1.0002577
6	0x3f8016d7	1.000697
7	0x3f801749	1.0007106
8	0x3f7fd87b	0.999397
9	0x3f7fe1dd	0.99954015
10	0x3f7fbec6	0.9990047
11	0x3f8011ed	1.000547
12	0x3f7fcace	0.9991883
13	0x3f8003a3	1.000111
14	0x3f7fede4	0.9997237
15	0x3f7fd0a7	0.99927753
16	0x3f7fe628	0.99960566
17	0x3f7ff6bb	0.99985856
18	0x3f800b95	1.0003535
19	0x3f7fe740	0.99962234
20	0x3f8013c4	1.0006032
21	0x3f7fbff7	0.9990229
22	0x3f80020d	1.0000626
23	0x3f7fd293	0.99930686
24	0x3f8010c3	1.0005115
25	0x3f7fe46b	0.99957913
26	0x3f7fea97	0.9996733
27	0x3f801c76	1.0008686
28	0x3f801dee	1.0009134
29	0x3f7fc57f	0.9991073
30	0x3f7fceee	0.99925125
31	0x3f8019c9	1.0007869
32	0x3f7fc054	0.99902844
33	0x3f7fed95	0.99971896
34	0x3f801110	1.0005207
35	0x3f7ffe77	0.9999766
36	0x3f802130	1.0010128
37	0x3f7ff15d	0.99977666
38	0x3f7ffca3	0.9999487
39	0x3f800932	1.0002806
40	0x3f7ffa4f	0.99991316
41	0x3f7fbf35	0.99901134
42	0x3f7fd19b	0.9992921
43	0x3f7fc234	0.99905705
44	0x3f8016ed	1.0006996
45	0x3f7fe743	0.9996225
46	0x3f800413	1.0001243
47	0x3f8009e5	1.000302
48	0x3f802060	1.000988
49	0x3f801646	1.0006797
50	0x3f80034e	1.0001009
51	0x3f80131d	1.0005833
52	0x3f801dab	1.0009054
53	0x3f801a78	1.0008078
54	0x3f80029c	1.0000796
55	0x3f7fc017	0.9990248
56	0x3f7fd237	0.9993014
57	0x3f7ffdc2	0.9999658
58	0x3f801e89	1.0009319
59	0x3f8018cd	1.0007569
60	0x3f8021a8	1.0010271
61	0x3f7febbe	0.9996909
62	0x3f801063	1.0005001
63	0x3f7fbb91	0.9989558

module.model.2.model.1.bias f4 [64]
0	0xba06f78a	-0.00051485805
1	0x3a732688	0.0009275456
2	0xba5630c2	-0.00081707176
3	0xb9204574	-0.00015284662
4	0xba4fe8f7	-0.0007931138
5	0x394d67ed	0.00019589039
6	0x3982d958	0.00024957466
7	0x3a7371bb	0.00092866615
8	0xba56e5bc	-0.0008197685
9	0xb8cf247f	-9.877327e-05
10	0xba806c00	-0.0009797812
11	0x3a6f9de0	0.00091406517
12	0xba1ca22a	-0.0005975092
13	0x39cb0963	0.0003872617
14	0xba50b954	-0.00079621864
15	0xba14ede1	-0.00056811987
16	0x388c56b2	6.6918685e-05
17	0xba12054a	-0.0005570246
18	0x398e111a	0.00027097092
19	0xba09e634	-0.0005260438
20	0x3a81c273	0.0009899869
21	0xba802a36	-0.0009778205
22	0x3a15363c	0.00056919805
23	0xba5dec27	-0.00084656704
24	0x3a3c4818	0.00071823737
25	0xba70eaaa	-0.0009190241
26	0xb9e421bb	-0.0004351268
27	0x3a4a8d34	0.00077267294
28	0x3a80bd7b	0.0009822095
29	0xba71e5d6	-0.00092276686
30	0x3965352e	0.00021858953
31	0x3a59d1d5	0.00083091605
32	0xba642450	-0.0008702921
33	0xba4d7252	-0.00078371644
34	0x3a44e84e	0.0007511423
35	0x3a5bdb40	0.0008386858
36	0x3a81f7ec	0.0009915805
37	0x39f63923	0.00046963347
38	0x3a2a31de	0.0006492416
39	0x39e289e4	0.00043208816
40	0x39c8ccf8	0.00038299686
41	0xba870703	-0.0010301772
42	0xba46d874	-0.00075853546
43	0xba8428f2	-0.0010083003
44	0x3a3746e1	0.0006991458
45	0x3a7d5f1e	0.00096653576
46	0x39b05f0a	0.00033640146
47	0x399ad446	0.00029531325
48	0x3a832bc2	0.0010007548
49	0x3a5266a1	0.0008026157
50	0xba17ed98	-0.0005795597
51	0x37191d37	9.126313e-06
52	0x3a7beca0	0.000961015
53	0xb74f821c	-1.2368455e-05
54	0xba1b5826	-0.0005925916
55	0xba3efe38	-0.00072858064
56	0xba46e816	-0.0007587684
57	0xb9a9d122	-0.00032390008
58	0x3a8027e0	0.0009777509
59	0x3a3fd73f	0.0007318146
60	0x3a87ae2f	0.0010351593
61	0xb9ec61bc	-0.00045086246
62	0x3a578885	0.0008221942
63	0xba5097b8	-0.0007957178

module.model.2.model.1.running_mean f4 [64]
0	0x3e1b435f	0.15162419
1	0x3eb526a1	0.35381034
2	0xbd932b27	-0.07185965
3	0x3ebda54b	0.3704017
4	0xbe82dfa1	-0.2556124
5	0xbda85f5b	-0.082213126
6	0x3dcd8ddc	0.10036823
7	0x3f6f6ff8	0.93530226
8	0x3efcb69a	0.49358064
9	0x3ddafa96	0.10692327
10	0x3f0bea0f	0.5465402
11	0x3e742ad3	0.23844461
12	0xbd2b7362	-0.041858084
13	0x3e9cc7a9	0.3062108
14	0xbe01f722	-0.1269193
15	0x3e3f8273	0.18702106
16	0xbef16869	-0.4714997
17	0x3e55571a	0.20834008
18	0xbe8844ce	-0.26614994
19	0x3d783525	0.060597558
20	0x3e5ecbe6	0.21757469
21	0xbe625499	-0.22102584
22	0xbf890126	-1.0703475
23	0x3d847fe1	0.064697035
24	0x3c4f2148	0.012642212
25	0x3e5b280e	0.21401998
26	0x3dcc1f73	0.09966936
27	0xbf07fdd1	-0.5312167
28	0x3da8a84c	0.08235225
29	0xbf300d0a	-0.68769896
30	0xbf0eed4e	-0.5583085
31	0x3d6f65f7	0.05844685
32	0xbdbfa5d2	-0.093577996
33	0x3ed69d68	0.41916966
34	0xbebd5e31	-0.36985925
35	0x3ce7e089	0.028305309
36	0xbf534ec5	-0.8254207
37	0xbe90a8f6	-0.28253907
38	0x3e372ea3	0.17888884
39	0x3e396020	0.18103075
40	0xbf05809a	-0.52149355
41	0x3e9c00d2	0.30469376
42	0x3e46daf3	0.1941946
43	0x3f04d623	0.51889247
44	0x3c1aa9e3	0.009439918
45	0x3da01b07	0.07817655
46	0xbd7636be	-0.0601108
47	0xbf045c0f	-0.5170297
48	0xbe37b373	-0.17939548
49	0x3ee6e875	0.45099226
50	0x3e724591	0.2365935
51	0xbe641d22	-0.22276738
52	0x3d69b674	0.057058766
53	0xbda7c850	-0.081925035
54	0x3ef0fe34	0.47068942
55	0xbe96dc54	-0.29464972
56	0x3cb812c6	0.02246989
57	0xbee2170b	-0.44158205
58	0xbd178eae	-0.037001304
59	0xbf06e1fb	-0.5268857
60	0xbe4d8d56	-0.20073447
61	0x3e0a8cd5	0.13530286
62	0xbe4235fb	-0.18965904
63	0xbe749f57	-0.23888908

module.model.2.model.1.running_var f4 [64]
0	0x3fa11c36	1.2586734
1	0x3f5ab3da	0.8543068
2	0x3f00061e	0.50009334
3	0x3de92cb4	0.113854796
4	0x3f495942	0.7865182
5	0x3d9d3ec0	0.07677984
6	0x3e15bd6f	0.14623044
7	0x3eaaccd3	0.33359393
8	0x3e905321	0.28188422
9	0x3e8b705a	0.27234155
10	0x3e3a3f91	0.18188311
11	0x3f0d3847	0.55164
12	0x3e2cb5af	0.16866182
13	0x3ea4c2f4	0.32179987
14	0x3dbaf04a	0.09127863
15	0x3dcd5931	0.100267775
16	0x3f06f17e	0.5271224
17	0x3ec471a4	0.3836795
18	0x3df91e9e	0.12164043
19	0x3e093337	0.13398443
20	0x3e064596	0.13112482
21	0x3e281985	0.16415985
22	0x3f27f0d1	0.6560183
23	0x3ec99a46	0.39375514
24	0x3e312e80	0.17302895
25	0x3e6b1c11	0.22959925
26	0x3df2af7e	0.11849879
27	0x3f790f1e	0.9728869
28	0x3e3b1c95	0.18272622
29	0x3e84569a	0.25847322
30	0x3e2d7644	0.16939646
31	0x3eab69d1	0.3347917
32	0x3ec9fc80	0.39450455
33	0x3dee56fd	0.116376854
34	0x3ea790f2	0.32727772
35	0x3efe3a89	0.49654034
36	0x3ee04366	0.4380142
37	0x3f020865	0.5079406
38	0x3f39b381	0.72539526
39	0x3eee9145	0.46595207
40	0x3ead1adc	0.33809555
41	0x3ed1681c	0.40899742
42	0x3e82e112	0.2556234
43	0x3ee002ac	0.43752038
44	0x3f213bb6	0.62981737
45	0x3dc5fb30	0.09667051
46	0x3e1a226e	0.15052196
47	0x3f075a7b	0.5287244
48	0x3d86bb92	0.06578745
49	0x3e7efe99	0.24901809
50	0x3e983e47	0.29735014
51	0x3e1855a0	0.14876413
52	0x3fa07e49	1.2538539
53	0x3eb00011	0.3437505
54	0x3ff60f81	1.9223481
55	0x3db0053c	0.085947484
56	0x3ee7776d	0.45208302
57	0x3e16c2ad	0.147227
58	0x3f22c2a1	0.6357823
59	0x3e9be873	0.30450782
60	0x3ed4943c	0.41519344
61	0x3db7b6b7	0.08970397
62	0x3e95466e	0.29155296
63	0x3e4aedd4	0.19817287
