output_nn_deblur_noise/ckpt/resnet_epoch47.pth (torch, 641723 bytes, 31 tensors)

module.model.0.weight f4 [64, 1, 1, 1]
0	0xbe3035f1	-0.17208077
1	0xbe4a3cb2	-0.19749716
2	0x3e790433	0.24318008
3	0x3e28ac79	0.16472043
4	0xbe4cd735	-0.2000397
5	0x3d589748	0.052878648
6	0xbd5e2e22	-0.054243214
7	0xbe052ad8	-0.13004625
8	0x3d30660e	0.043066077
9	0xbe881e6c	-0.2658571
10	0xbdbe59f3	-0.092945
11	0x3e5e27e4	0.21694905
12	0xbde04ae5	-0.10951785
13	0xbe19e0b4	-0.15027124
14	0xbcfbd11a	-0.030739356
15	0x3c731f03	0.014838937
16	0x3d982cb5	0.07430402
17	0x3ca01518	0.019541308
18	0x3e1bf077	0.15228449
19	0xbdbe446e	-0.09290396
20	0xbddc6f6b	-0.10763439
21	0x3e0d27af	0.1378467
22	0x3cae0a6a	0.0212452
23	0x3e4348a6	0.19070682
24	0xbd0503e2	-0.032474406
25	0x3e7cf138	0.24701393
26	0xbad0ee1f	-0.0015940106
27	0xbe54d373	-0.20783786
28	0x3dc4f920	0.09617829
29	0xbe724ce8	-0.2366215
30	0xbd9060ab	-0.07049688
31	0xbdb0b7a3	-0.08628776
32	0xbe258f32	-0.16167906
33	0xbe78becf	-0.24291538
34	0xbe975751	-0.29558805
35	0x3e526ff7	0.20550524
36	0xbdb06898	-0.086137
37	0xbcc66cb3	-0.024221754
38	0xbd54d268	-0.05195847
39	0x3e5259e0	0.20542097
40	0x3d5bf685	0.053701896
41	0x3de86bf7	0.11348718
42	0xbe35d7a4	-0.17758042
43	0xbe8dac90	-0.27670717
44	0xbe1ca790	-0.15298295
45	0xbe88b2cc	-0.2669891
46	0x3dbe6f82	0.09298612
47	0x3e3cf033	0.18451004
48	0xbe32feca	-0.17480007
49	0x3d62e033	0.055389594
50	0xbd304335	-0.043032844
51	0x3e503803	0.20333867
52	0xbc9bb0bf	-0.019005178
53	0xbe3496fe	-0.17635724
54	0x3e72a59a	0.23695984
55	0x3e080485	0.13282974
56	0xbcd356c5	-0.02579821
57	0xbe975c32	-0.29562527
58	0x3cde02b3	0.027100896
59	0x3e600097	0.21875225
60	0xbe1eaa95	-0.1549476
61	0x3e97b406	0.29629534
62	0xbc8d6c0b	-0.017263433
63	0x3de3fdb4	0.111323744

module.model.0.bias f4 [64]
0	0x3b8127ed	0.003941527
1	0x3b359b0c	0.0027710823
2	0x3a4a611f	0.00077201606
3	0x3af2a1ee	0.0018511394
4	0x3ad3b4d8	0.0016151918
5	0x3b309d90	0.0026949383
6	0x3ad59290	0.0016294289
7	0x3b39c93c	0.0028348705
8	0x3b3072d8	0.002692392
9	0x39a01bd7	0.0003053832
10	0x3b05e804	0.0020432482
11	0x3a217537	0.0006159129
12	0xbac2c341	-0.0014859216
13	0x39b4af20	0.00034462754
14	0x3b6623ce	0.0035116556
15	0x3b21c73d	0.0024685406
16	0xba8ecd08	-0.0010894844
17	0x3a5a4385	0.0008326101
18	0x3b034fb8	0.002003653
19	0x3b08ec29	0.0020892716
20	0x3b47e5e7	0.0030502023
21	0xba567c6c	-0.00081819925
22	0x39ac9bbc	0.00032922428
23	0xba2e40ca	-0.00066472276
24	0x3b3798a2	0.002801456
25	0x3ad0e2e0	0.0015936755
26	0x3ab3a29a	0.0013705075
27	0xb923c886	-0.00015619592
28	0x3ab3f68f	0.0013730096
29	0xb9f17bf2	-0.00046059449
30	0xb919d307	-0.00014669831
31	0x39f3efe9	0.0004652732
32	0x3b16b9e5	0.0022998985
33	0x3ac527b0	0.0015041735
34	0x3adb3a92	0.0016725829
35	0x3b074091	0.002063785
36	0x3b0850c1	0.0020800086
37	0x386ead35	5.6904933e-05
38	0x387026df	5.725666e-05
39	0xba90ba37	-0.0011041824
40	0x3af581b9	0.0018730677
41	0x3b0e70dc	0.002173475
42	0xba03dde8	-0.000503032
43	0xba9312bf	-0.0011220797
44	0x3b65f9bb	0.0035091478
45	0xbabceb6d	-0.0014413424
46	0x3aad82c5	0.0013237825
47	0x3a24ad44	0.0006281922
48	0x3b6da6df	0.0036262793
49	0xb92c9f86	-0.00016462625
50	0x3b1d0078	0.0023956578
51	0x3a37acb9	0.00070066337
52	0x3a9fd508	0.0012194226
53	0x3b5f362e	0.0034059393
54	0xba9cb753	-0.001195649
55	0x3afb3704	0.0019166176
56	0x3af902f8	0.0018998077
57	0x391bf65a	0.00014873725
58	0xba4c5ffe	-0.00077962864
59	0x3b320807	0.002716543
60	0x3b510a2e	0.0031896937
61	0x39ed1880	0.00045222417
62	0x3ac0b61e	0.0014702713
63	0xb9c6d6e6	-0.00037925615

module.model.1.model.0.weight f4 [64, 64, 3, 3]
0	0x3d06a4f7	0.032872166
1	0x3b44867e	0.002998739
2	0xbc910e75	-0.017707089
3	0xbd36b50c	-0.044606254
4	0xbcdddb71	-0.027082177
5	0x3d86a1f6	0.0657386
6	0xbd75abb5	-0.059978206
7	0xbd6083d9	-0.05481324
8	0xbd68f3cb	-0.056873124
9	0x3d7b2ff4	0.06132503
10	0x3d319845	0.043358106
11	0xbce6368e	-0.028102186
12	0x3d15c760	0.036567092
13	0x3d16c11e	0.036805265
14	0x3ca4c1fe	0.020112034
15	0x3d77f4c6	0.06053617
16	0x3d27baea	0.04094974
17	0x3d13212a	0.0359203
18	0x3d2058c2	0.039147146
19	0x39acd3e2	0.00032964261
20	0x3d0c466d	0.03424685
21	0x3d28e908	0.04123786
22	0xbb1f2378	-0.0024282616
23	0xbc09d2fd	-0.00841212
24	0x3d68ea01	0.05686379
25	0xbd8afa0b	-0.06785973
26	0x3d74d7e7	0.059776213
27	0xbd3502ec	-0.04419224
28	0xbc4acc4f	-0.0123778125
29	0xbb60d269	-0.0034305102
30	0x3c056e0b	0.008143912
31	0x3d2ff93a	0.04296229
32	0xbd3a92c4	-0.045550123
33	0x3d892004	0.066955596
34	0xbcf72491	-0.030168803
35	0xbc87b769	-0.016566949
36	0xbc396d98	-0.011317633
37	0xbce629a1	-0.028096022
38	0x3c1b981e	0.009496717
39	0xbd2d8da4	-0.042371407
40	0x3caa7cda	0.020811487
41	0x3b3d6ac2	0.0028902744
42	0xbc065637	-0.008199266
43	0xbb83f78c	-0.0040273126
44	0x3d12143c	0.03566383
45	0x3d341c74	0.043972448
46	0x3c467635	0.012113144
47	0x3d8f4b6c	0.069968075
48	0x3d6b7e1d	0.057493318
49	0x39be9b8a	0.0003635551
50	0xbd2669a8	-0.040628105
51	0xbd541413	-0.051776957
52	0x3d8324e1	0.064035185
53	0xbd531f92	-0.05154378
54	0xbcba1d5b	-0.022719076
55	0x3d503f3b	0.05084155
56	0xbbdb69e0	-0.006695971
57	0xbd61abb7	-0.0550954
58	0x3c68979d	0.014196304
59	0x3b5326c2	0.0032219146
60	0x3d535a7b	0.05159996
61	0xbd7c579b	-0.061606985
62	0xbce153f6	-0.027505856
63	0xba7ec803	-0.0009719135
64	0x3b9f8923	0.004868643
65	0x3d43b4c9	0.047779832
66	0x3c3ac280	0.0113989115
67	0xbd835f84	-0.064147025
68	0x3c57931e	0.013157634
69	0x3c2d6b61	0.010584683
70	0xbbf2ba2a	-0.0074074464
71	0x3a0fb5bc	0.00054820976
72	0x3d8daca3	0.069176935
73	0x3d42a11e	0.047516935
74	0xbd711a62	-0.05886305
75	0xbccca23e	-0.024979707
76	0xbd028db7	-0.03187343
77	0xbd4d7523	-0.05016054
78	0xbd3c74e5	-0.046009917
79	0x3cb4a316	0.022050422
80	0x3c95ccef	0.018286197
81	0xbd35bd68	-0.044370085
82	0xbd74efdb	-0.059799057
83	0xbc93907a	-0.018013228
84	0xbd3b2e63	-0.045698535
85	0x3d616568	0.05502835
86	0x3d2d4178	0.042298764
87	0xbcbd5202	-0.023110393
88	0xbd721607	-0.05910304
89	0x3c8d3d06	0.017241012
90	0xbd9023f3	-0.07038107
91	0xbd511447	-0.05104473
92	0xbcf3bea4	-0.02975399
93	0x3d1bc0d4	0.038025692
94	0x3d9183b4	0.071051985
95	0x3c44fa85	0.012022619
96	0x3d53f2b3	0.051745128
97	0xbcc9c5ad	-0.024630392
98	0xbcbe0b32	-0.023198698
99	0xbc678631	-0.014131115
100	0xbd4feaf4	-0.050761178
101	0x3d6da94a	0.058022775
102	0xbbb32769	-0.0054673445
103	0xbb8493b1	-0.0040459265
104	0xbcb54590	-0.022127897
105	0x3d562e94	0.052290514
106	0xbd84e963	-0.064898275
107	0xbc936787	-0.017993702
108	0x3d762db5	0.060102183
109	0xbc0ea9c1	-0.008707465
110	0x3c991f3a	0.018691648
111	0x3d881a1b	0.06645604
112	0x3cf40689	0.029788272
113	0x3d044691	0.03229386
114	0xbd6ddb8a	-0.058070697
115	0xbb508c22	-0.0031821807
116	0x3d85a303	0.06525233
117	0xbd009d8c	-0.03140025
118	0xbd5387c4	-0.051643148
119	0x3c0e71d3	0.00869413
120	0xbd862cc2	-0.065515056
121	0xbac0d674	-0.001471235
122	0xbd37b477	-0.04484984
123	0x3c811564	0.01575727
124	0x3d2f15a3	0.042745244
125	0x3c7685ed	0.015046579
126	0x3c33966f	0.010961159
127	0x3d845667	0.064617924
128	0x3d024443	0.03180338
129	0xbccd6b96	-0.025075715
130	0x3ce44398	0.027864262
131	0x3d0a82ae	0.033816032
132	0x3c109cdb	0.00882646
133	0xbd21aaa6	-0.039469384
134	0x3d46895c	0.04847084
135	0x3d2fe7c0	0.042945623
136	0xbd8811dc	-0.066440314
137	0xbd3c5698	-0.04598102
138	0xbd6c2f2a	-0.057662167
139	0x3d47e15e	0.04879891
140	0x3d6228ef	0.05521482
141	0xbd44fb78	-0.04809138
142	0xbd31eee4	-0.043440714
143	0x3d8e9be1	0.06963325
144	0xbcfc3ae9	-0.03078981
145	0x3a0ef8f6	0.0005453968
146	0x3cc7a348	0.02436985
147	0x3d89b333	0.06723633
148	0x3d860c0a	0.06545265
149	0xbd45d832	-0.048301883
150	0xbce88394	-0.028383054
151	0xbca5ceb7	-0.02024017
152	0x3cf55eb9	0.029952394
153	0xbd1f3b2d	-0.038874794
154	0x3d3a2e6d	0.04545443
155	0xbd034fa3	-0.03205837
156	0xbd876da7	-0.066127114
157	0x3d79ed04	0.06101705
158	0xbcfa9ee1	-0.030593337
159	0xbb8a7efd	-0.004226564
160	0xbd6a29c0	-0.057168722
161	0xbd0500aa	-0.032471336
162	0x3c90cf4b	0.01767697
163	0x3d39e0a5	0.045380253
164	0xbd573c65	-0.05254783
165	0xbbfd6f87	-0.0077342424
166	0xbcc8f84c	-0.02453246
167	0x3d1f8474	0.038944677
168	0xbd5cabe0	-0.05387485
169	0xbcdb3ddc	-0.026762895
170	0x3c39be63	0.011336896
171	0xbd835209	-0.06412131
172	0x3cebc9b0	0.028782696
173	0xbcb852f0	-0.022500485
174	0x3d711570	0.058858335
175	0xbd1230ab	-0.035690945
176	0xbb25f1d7	-0.002532115
177	0xbb061fbb	-0.002046569
178	0x3d6f7a29	0.05846611
179	0x3d8cab42	0.06868602
180	0xbcf67a34	-0.030087568
181	0xbd465e64	-0.04842986
182	0xbd80ec44	-0.06295064
183	0xbd9393dd	-0.07205937
184	0xbd54f8ab	-0.05199496
185	0xbd172eb9	-0.036909793
186	0x3c8b606d	0.017013753
187	0x3d0551d1	0.03254873
188	0x3d443b0d	0.047907878
189	0xbd295449	-0.041340146
190	0xbd16c9d5	-0.036813576
191	0x3b66ef93	0.0035238012
192	0xbd1c915d	-0.038224567
193	0xbcf23adc	-0.029569082
194	0x3c5a964f	0.0133415
195	0x3b197369	0.0023414737
196	0x3c888512	0.016665015
197	0xbc06c455	-0.00822552
198	0x3b894c49	0.004190002
199	0xbd706d14	-0.058697775
200	0x3d2153da	0.039386608
201	0xbca79254	-0.020455517
202	0xbc9780fc	-0.018494122
203	0x3cde7a99	0.027158068
204	0x3d2ff9b7	0.042962756
205	0x3d635307	0.055499103
206	0xbd174575	-0.036931474
207	0x3d03543d	0.032062758
208	0xbb1c1194	-0.0023814188
209	0xbc3dbb79	-0.0115803415
210	0x3cf60b48	0.030034676
211	0xbd38a603	-0.045080196
212	0xbcce6c76	-0.025198203
213	0x3d21ee11	0.03953368
214	0x3caa48dc	0.020786695
215	0x3d9524cf	0.07282411
216	0x3d4214a3	0.047382962
217	0x3d9052c4	0.07047036
218	0xbcd5f5f4	-0.026118256
219	0xbc0ed78a	-0.008718381
220	0xbbdf7f64	-0.006820606
221	0x3d422168	0.04739514
222	0xbd490e9f	-0.04908621
223	0xbcfa732b	-0.030572494
224	0x3c7b9e75	0.015357603
225	0x3c89df1a	0.016830016
226	0xbd03043b	-0.031986456
227	0xba3bc33b	-0.00071625755
228	0x3d3b3c1f	0.045711633
229	0x3d8b03f2	0.06787862
230	0xbc4973ba	-0.012295658
231	0x3d865c7e	0.0656061
232	0xbd1ef7b2	-0.03881044
233	0x3b2563c5	0.002523647
234	0xbbfa5b20	-0.0076402575
235	0xbc4c7743	-0.012479606
236	0xbd18b63f	-0.03728318
237	0x3d3cea2c	0.04612176
238	0xbd636513	-0.055516314
239	0x3d1988b1	0.037483875
240	0x3d78a248	0.06070164
241	0xbd8bd7e0	-0.06828284
242	0xbd902f83	-0.07040312
243	0xbc1fc930	-0.009752557
244	0xbd7eafaa	-0.062179245
245	0x3ca21a7b	0.019788017
246	0xbcc9c1e7	-0.024628593
247	0xbd0b8977	-0.034066644
248	0x3d0e994c	0.034814164
249	0x3d513aa4	0.051081315
250	0x3d3fa4c7	0.046788003
251	0xbcef89ae	-0.029240455
252	0xbd7c7027	-0.061630394
253	0x3d3f2ed9	0.046675537
254	0x3b710455	0.0036776264
255	0x3d78574d	0.06063013

module.model.1.model.0.bias f4 [64]
0	0x3a1b5225	0.0005925021
1	0x3aa82b43	0.0012830276
2	0x39b6aa68	0.00034840708
3	0x3a8b1604	0.001061142
4	0x3a619804	0.0008605721
5	0x3a604b9b	0.0008556188
6	0x3a608f51	0.00085662777
7	0x3a827ab5	0.0009954782
8	0x3a819da3	0.0009888898
9	0x3acdf0b7	0.0015711997
10	0x3a50b3ca	0.0007961361
11	0x3a47afd7	0.000761745
12	0x3a51d7ed	0.0008004893
13	0x3a634102	0.000866905
14	0x3a7fa5cf	0.00097521854
15	0x3a99a07f	0.0011720805
16	0x3a8fc4b9	0.0010968662
17	0x3a2ec8da	0.00066675025
18	0x3ab27457	0.0013614994
19	0x3ad20bab	0.0016025206
20	0x3aa5a7c5	0.00126385
21	0x3ae5f4cf	0.0017544272
22	0x3a9e5a92	0.0012081435
23	0x3ab848e3	0.0014059808
24	0x3a72913c	0.0009253209
25	0x3a979f79	0.0011567912
26	0x3a728948	0.0009252024
27	0x39f9045f	0.00047496238
28	0x3ac234d6	0.0014816772
29	0x3a81d077	0.0009904046
30	0x3ab43490	0.0013748575
31	0x3acf14d2	0.0015799052
32	0x3a7941b7	0.00095083885
33	0x3a8922b3	0.0010462612
34	0x3abc7347	0.0014377617
35	0x3a0c03b4	0.0005341128
36	0x39e22120	0.0004313076
37	0x3a5d4325	0.0008440486
38	0x3a0d3508	0.00053866254
39	0x399800e5	0.00028992366
40	0x3a3968c1	0.00070727995
41	0x3ab3ad50	0.0013708267
42	0x3a246e6e	0.0006272559
43	0x3afaf0dd	0.0019145269
44	0x3a497c1b	0.00076860347
45	0x3aae5a2d	0.0013302021
46	0x3a916b71	0.0011094642
47	0x3aa3e89f	0.001250524
48	0x3aa7eceb	0.0012811696
49	0x3a01aa2a	0.0004946316
50	0x3a5a8145	0.00083353027
51	0x39e1bbe4	0.00043055334
52	0x3a844886	0.0010092414
53	0x3a9c99f1	0.0011947734
54	0x3a97e909	0.0011589836
55	0x39dd3a5e	0.00042195892
56	0x3a4d71ef	0.0007837107
57	0x3a64ccbb	0.0008728017
58	0x38f88c0c	0.00011851647
59	0x3a20ac9c	0.00061292364
60	0x3a405494	0.0007336822
61	0x3ab39759	0.0013701721
62	0x3a844abd	0.0010093075
63	0x3ac1ac90	0.0014776159

module.model.1.model.1.weight f4 [64]
0	0x3f7f9468	0.99835825
1	0x3f7fd65a	0.9993645
2	0x3f8033ad	1.001577
3	0x3f803d6a	1.0018742
4	0x3f8010ce	1.0005128
5	0x3f7fa0e3	0.9985487
6	0x3f800507	1.0001534
7	0x3f801463	1.0006222
8	0x3f7fa225	0.9985679
9	0x3f803a8f	1.0017871
10	0x3f802ad9	1.0013076
11	0x3f7f9720	0.99839973
12	0x3f7fb823	0.99890345
13	0x3f7ff7db	0.9998757
14	0x3f800f98	1.0004759
15	0x3f7ff571	0.9998389
16	0x3f7fe1c7	0.99953884
17	0x3f801eba	1.0009377
18	0x3f802629	1.0011646
19	0x3f7f95c9	0.9983793
20	0x3f7f9fbd	0.99853116
21	0x3f7fc8bf	0.9991569
22	0x3f7fb47e	0.99884784
23	0x3f7ff292	0.9997951
24	0x3f7fab4e	0.99870765
25	0x3f7fd291	0.99930674
26	0x3f7fcbe5	0.99920493
27	0x3f7fc7db	0.9991433
28	0x3f7ffca7	0.9999489
29	0x3f801f56	1.0009563
30	0x3f8011c5	1.0005423
31	0x3f7fc9eb	0.9991748
32	0x3f800923	1.0002788
33	0x3f803aad	1.0017906
34	0x3f802cae	1.0013635
35	0x3f7f713e	0.9978217
36	0x3f8021cc	1.0010314
37	0x3f800178	1.0000448
38	0x3f801798	1.00072
39	0x3f801e37	1.0009221
40	0x3f7fdd1c	0.9994676
41	0x3f80148f	1.0006274
42	0x3f80296d	1.0012642
43	0x3f7f990e	0.9984292
44	0x3f7fabaf	0.99871343
45	0x3f800fc2	1.0004809
46	0x3f7fc7dd	0.9991434
47	0x3f7fe1ba	0.99953806
48	0x3f7fa922	0.9986745
49	0x3f800dbd	1.0004193
50	0x3f7fd0a9	0.99927765
51	0x3f7fe1c4	0.99953866
52	0x3f801206	1.00055
53	0x3f800e09	1.0004283
54	0x3f802935	1.0012575
55	0x3f8009bf	1.0002974
56	0x3f803dd8	1.0018873
57	0x3f7ff03a	0.9997593
58	0x3f7ff877	0.999885
59	0x3f7fe13f	0.99953073
60	0x3f802563	1.001141
61	0x3f800a09	1.0003062
62	0x3f801db1	1.0009061
63	0x3f7ff97d	0.99990064

module.model.1.model.1.bias f4 [64]
0	0xbaa8e1b0	-0.0012884643
1	0xbad68d24	-0.0016368967
2	0x3b2faf58	0.0026807394
3	0x3aeff84c	0.0018308251
4	0x3af93e05	0.0019015676
5	0xbac8366f	-0.0015275012
6	0x3ad5e393	0.0016318433
7	0x3ab136c7	0.0013520353
8	0xbb234bff	-0.0024917123
9	0x3a221103	0.00061823445
10	0x399a2747	0.00029402433
11	0xbae842f5	-0.001772015
12	0xb9a370dd	-0.00031173872
13	0xba065a99	-0.00051251944
14	0xba22fd87	-0.0006217588
15	0x3abc4dfc	0.0014366503
16	0xba37340d	-0.0006988652
17	0x399dd854	0.0003010655
18	0x3a012f66	0.00049280224
19	0xbab59813	-0.0013854526
20	0xbad7fe5e	-0.0016479006
21	0xbb06b8bb	-0.0020556885
22	0xb85fe38e	-5.337927e-05
23	0xbb0cecd2	-0.002150346
24	0xbad62d31	-0.0016340372
25	0x3a561caf	0.00081677263
26	0xb85dc77d	-5.2876294e-05
27	0x37ea81f7	2.7955493e-05
28	0x37bc58a4	2.2452623e-05
29	0x3a7b0d73	0.0009576894
30	0xbb0a37fd	-0.00210905
31	0xba942a65	-0.0011304138
32	0xba3e2fd6	-0.0007255053
33	0x3946a350	0.0001894359
34	0xb7e36e1b	-2.711178e-05
35	0xba823677	-0.0009934445
36	0x3a853084	0.0010161554
37	0x3a2e1d91	0.0006641979
38	0x3ab271c4	0.0013614227
39	0x3af3d6e0	0.0018603466
40	0x3ae18385	0.0017205334
41	0x3b113e53	0.0022162392
42	0x3ae62e4a	0.0017561403
43	0xbafaa076	-0.0019121307
44	0x3b07ff16	0.0020751408
45	0x39d9c9fc	0.00041539955
46	0x3ab07773	0.0013463333
47	0xbaf6125a	-0.001877378
48	0x3a98e1f6	0.0011664021
49	0x3a998d8e	0.001171516
50	0x3926a8a0	0.00015893811
51	0x3b367878	0.00278428
52	0xb894b9b1	-7.091778e-05
53	0x3af7a304	0.0018893187
54	0x3a7fb81c	0.00097549125
55	0x3a2d6ee5	0.0006615951
56	0x3ac32ff6	0.0014891613
57	0x3ac62ec1	0.0015120135
58	0x3b1319aa	0.0022445717
59	0x3ae87c17	0.0017737177
60	0x3a48e462	0.0007663426
61	0xb8aaa8b1	-8.137653e-05
62	0xb9342f9c	-0.00017183874
63	0xbac1c002	-0.0014781954

module.model.1.model.1.running_mean f4 [64]
0	0x3a5dea12	0.000846536
1	0x3b4a7dd5	0.0030897756
2	0xba225bdb	-0.0006193497
3	0xb7998a8e	-1.830354e-05
4	0x3a5f47a4	0.000851745
5	0x3b4b3913	0.003100936
6	0x3addcf4e	0.0016922744
7	0xbb8cad26	-0.004293102
8	0xba8efaf3	-0.0010908529
9	0x3a210b26	0.0006143324
10	0x3a4fa98c	0.0007921688
11	0x3b87a0f7	0.0041390616
12	0x390787c4	0.0001292518
13	0x3966a7fb	0.00021997087
14	0x3a2954d4	0.0006459479
15	0xbb1e035b	-0.0024110887
16	0x3a786879	0.0009476017
17	0x3a8f6b75	0.0010942059
18	0x3bb3b333	0.0054840087
19	0xb7220820	-9.657844e-06
20	0x3942406d	0.00018525282
21	0x3ab14552	0.0013524687
22	0x3ae8ca5e	0.0017760505
23	0x3afa9020	0.0019116439
24	0x3b3db21d	0.0028945275
25	0x3be1e6e4	0.0068939794
26	0x390e5eb4	0.00013577455
27	0x39ad7b4b	0.00033088992
28	0x3b8e7a94	0.0043481085
29	0x3b63c616	0.003475552
30	0xbb6136ca	-0.0034364932
31	0x3b2a5856	0.0025992594
32	0x3b5a2170	0.003328409
33	0x3a80d353	0.0009828605
34	0x3a777417	0.0009439601
35	0x3886a2e1	6.4199565e-05
36	0xba8faf6c	-0.0010962314
37	0x3aa4e1d3	0.0012579508
38	0xb9e1dacb	-0.00043078358
39	0xb97052cf	-0.00022919032
40	0xbb8b5ab6	-0.004252757
41	0x3b80f660	0.00393562
42	0xba2aa659	-0.0006509773
43	0x3b043c78	0.0020177644
44	0xba07acd3	-0.0005175594
45	0x3b283705	0.002566756
46	0x3a1bbff8	0.00059413863
47	0x3b6b8928	0.0035939906
48	0xbae1dc9e	-0.0017231887
49	0xbb81db23	-0.0039628907
50	0x3a67c355	0.00088410574
51	0x3a6458fa	0.00087107683
52	0xb7c444aa	-2.3396995e-05
53	0x38a400ab	7.820254e-05
54	0x3916cd8a	0.00014381684
55	0x3a89db50	0.0010517631
56	0x3a4670e1	0.0007569921
57	0x3abee88e	0.0014565156
58	0xbb9fb68b	-0.0048740557
59	0xb9d9ad55	-0.00041518608
60	0x3b28091a	0.002564019
61	0x3b5630b5	0.003268284
62	0xbaef9029	-0.0018277216
63	0x3afe3cf6	0.001939683

module.model.1.model.1.running_var f4 [64]
0	0x38069701	3.2088723e-05
1	0x376223e3	1.3479005e-05
2	0x383f17f0	4.5560242e-05
3	0x36d781e3	6.42262e-06
4	0x3809f28e	3.2889242e-05
5	0x34b2d581	3.3310428e-07
6	0x35e412c6	1.6992788e-06
7	0x37e512ec	2.7307738e-05
8	0x36319c52	2.6466046e-06
9	0x38a3aec4	7.804998e-05
10	0x34e1cb40	4.20574e-07
11	0x385e53ce	5.3006974e-05
12	0x36284401	2.5073534e-06
13	0x372b5bf5	1.0213805e-05
14	0x37fa0ca9	2.9808218e-05
15	0x38499fb9	4.8070888e-05
16	0x385bb164	5.2378877e-05
17	0x388a6173	6.598504e-05
18	0x377542e5	1.4618713e-05
19	0x34c1e9e2	3.6119224e-07
20	0x35d06dc1	1.552915e-06
21	0x376a7839	1.3975478e-05
22	0x37955bd5	1.7804947e-05
23	0x393065d2	0.00016822599
24	0x372c3752	1.0264879e-05
25	0x3850a0d9	4.9740866e-05
26	0x367d4418	3.7739574e-06
27	0x35382e5c	6.8612803e-07
28	0x3781dcb3	1.548077e-05
29	0x38eb6dd5	0.00011226131
30	0x37ac5cec	2.0547268e-05
31	0x368c0570	4.172958e-06
32	0x389f9a96	7.610505e-05
33	0x390d19bd	0.00013456396
34	0x3921cd65	0.00015430672
35	0x36cf57d9	6.1793075e-06
36	0x371bc6ad	9.284978e-06
37	0x38b1dd2e	8.4812156e-05
38	0x37656825	1.3673712e-05
39	0x37ebbf80	2.8103357e-05
40	0x384d472d	4.8942096e-05
41	0x35f61b72	1.8336416e-06
42	0x38dc34d6	0.00010500259
43	0x34c52c30	3.672626e-07
44	0x3743e013	1.1675077e-05
45	0x3841f1e5	4.6240068e-05
46	0x3799095e	1.8243383e-05
47	0x38491a64	4.7946713e-05
48	0x36024c85	1.941605e-06
49	0x3854b2dc	5.0711315e-05
50	0x3721a6ca	9.635181e-06
51	0x380935de	3.2713513e-05
52	0x351d2e5e	5.855453e-07
53	0x386dd9e9	5.6708148e-05
54	0x364fc0d3	3.0957642e-06
55	0x3686f445	4.021948e-06
56	0x38ce1d14	9.828262e-05
57	0x3714cc6c	8.869083e-06
58	0x3829d499	4.0490737e-05
59	0x383584be	4.327739e-05
60	0x342d406c	1.6135317e-07
61	0x387d0cd7	6.033186e-05
62	0x3588f76e	1.0204801e-06
63	0x38616496	5.373786e-05

module.model.1.model.3.weight f4 [64, 64, 3, 3]
0	0x3c134073	0.008987534
1	0x3d1be005	0.03805544
2	0xbd50bf88	-0.05096391
3	0xbd3ef542	-0.046620615
4	0x3a5e02f4	0.0008469068
5	0xbad321a1	-0.0016108045
6	0xbd09e581	-0.033666138
7	0xbd7f9127	-0.062394287
8	0x3d85e760	0.06538272
9	0x3d5a794f	0.053338345
10	0xbd52b2c4	-0.051440015
11	0x3d5c9e03	0.05386163
12	0xbd804bfc	-0.06264493
13	0xbd2ee178	-0.042695493
14	0xbd4cf593	-0.050038885
15	0xbbd959a4	-0.0066330004
16	0x3d25f5d3	0.04051764
17	0x3cf286a7	0.029605223
18	0xbd7c05ea	-0.061529078
19	0xbcfeadf3	-0.031088805
20	0xbaf4fb09	-0.0018690537
21	0xbcb95343	-0.02262271
22	0xbd1d8b9c	-0.03846322
23	0xbd7f9d42	-0.062405832
24	0x3d21e3bc	0.039523825
25	0xbd12f0b3	-0.03587408
26	0xbd7b0abb	-0.06128953
27	0xbd11e28c	-0.035616443
28	0xbc2aa52e	-0.0104153585
29	0x3d4bccd9	0.049755905
30	0x3d8f4030	0.06994665
31	0x3c9cf063	0.019157594
32	0xbd1abbed	-0.037776876
33	0x3d876b98	0.06612319
34	0xbd7afe85	-0.061277885
35	0x3b80963a	0.0039241584
36	0xbc8bbe35	-0.017058471
37	0xbcedd2e7	-0.02903123
38	0xbd33a990	-0.04386288
39	0x3c356f47	0.011073894
40	0x3bfdc283	0.007744135
41	0x3b1d3b85	0.0023991775
42	0xbcdc2d1f	-0.026876984
43	0x3d374765	0.04474582
44	0xbcdb83ca	-0.02679624
45	0x3ce83601	0.028346064
46	0xbd09f5df	-0.033681747
47	0x3c8ab1e8	0.016930535
48	0xbd563393	-0.05229528
49	0x3d24c777	0.040229287
50	0xbd1daec3	-0.038496744
51	0xbcc40fe5	-0.02393336
52	0xbcd2f9b7	-0.025753839
53	0xbd368e6d	-0.04456942
54	0xbc618583	-0.013764742
55	0xbcf074e5	-0.029352615
56	0xbc5745bd	-0.0131391855
57	0x3d2ea9c3	0.042642366
58	0xbd49a4ce	-0.049229436
59	0x3cf183cc	0.029481791
60	0x3d352ccf	0.044232186
61	0xbc226ca6	-0.009913599
62	0xbd8dc56a	-0.06922419
63	0x3cff0f93	0.031135356
64	0x3c7dd58b	0.015492807
65	0xbcaf16ef	-0.02137324
66	0x3d860aa6	0.06545
67	0xbd622230	-0.055208385
68	0x3a59011f	0.000827806
69	0xbcea4b17	-0.028600259
70	0xbcfeb37e	-0.031091448
71	0x3c719b9b	0.014746572
72	0x3d0349e7	0.0320529
73	0x3d84fd93	0.06493678
74	0x3d4e9e7a	0.050444104
75	0xbd8343d8	-0.064094245
76	0xbd1bf441	-0.038074736
77	0x3d4ba5af	0.049718555
78	0xbd68cee4	-0.05683793
79	0x3d029655	0.03188165
80	0xbd6d2e89	-0.057905708
81	0x3d158e2e	0.036512546
82	0x3d8676f3	0.065656565
83	0xbd020306	-0.031741165
84	0xbd66b701	-0.05632687
85	0xbd27a7cb	-0.040931504
86	0xbcf403ad	-0.029786909
87	0xbbc66b5d	-0.006055279
88	0x3d92a960	0.07161212
89	0x3cb31808	0.021862045
90	0x3d5bc3ba	0.053653456
91	0x3d6eaedf	0.05827224
92	0xbd58dddd	-0.05294596
93	0xbcf0fa73	-0.029416298
94	0x3cf96df1	0.030447932
95	0x3ca904a5	0.020632097
96	0xbd2b5f8d	-0.04183917
97	0xbc8d38af	-0.017238943
98	0xbd19d008	-0.03755191
99	0x3d4ce7ae	0.050025634
100	0xbcc3e886	-0.023914587
101	0xbd8c27f2	-0.068435565
102	0x3cfff4dd	0.03124469
103	0x3d013e52	0.031553574
104	0x3ca92e4b	0.020651957
105	0xbc9b7bfd	-0.01898002
106	0xbd1f8cde	-0.0389527
107	0xba6b5751	-0.000897755
108	0xbcd7f3ca	-0.026361365
109	0x3d25f8d6	0.04052051
110	0x3d66858f	0.056279715
111	0x3d6b8b2a	0.057505764
112	0x3b2a367f	0.0025972424
113	0xbbb4f40c	-0.0055222567
114	0xbce9ffd6	-0.028564375
115	0x3d678bd6	0.056529842
116	0x3c5576cb	0.013028811
117	0xbd0417b4	-0.032249168
118	0x3cdc5f50	0.026900917
119	0x3d318a06	0.04334452
120	0xbcc5213e	-0.024063703
121	0x3d934a7f	0.071919434
122	0xbbf6f5ac	-0.0075366106
123	0xbba9b09e	-0.005178525
124	0x3cb713a6	0.022348236
125	0xbd8ece60	-0.06972957
126	0x3d8ff97e	0.07030009
127	0xbc96b5af	-0.01839718
128	0xbcc36b91	-0.023855003
129	0xbd7736a6	-0.06035485
130	0xbd2c283c	-0.042030558
131	0xbd18cdaf	-0.03730553
132	0xbcba8312	-0.022767577
133	0x3d5388e2	0.051644213
134	0xbd2aefd8	-0.04173264
135	0xbbcf5acf	-0.006327964
136	0x3d704249	0.058656964
137	0xbc9dce92	-0.01926354
138	0x3b0cb6f1	0.0021471346
139	0xbd4a2e22	-0.049360402
140	0x3b55628a	0.0032559955
141	0xbd6693c5	-0.056293268
142	0x3d5aa2bd	0.053377856
143	0x3bed381c	0.007239355
144	0xbd2bdad9	-0.041956756
145	0xbd0bbf7b	-0.034118157
146	0x3cba974f	0.022777228
147	0x3c002f9c	0.007823851
148	0xbd0152bc	-0.031573042
149	0xbca49c90	-0.020094186
150	0x3cf08db2	0.02936444
151	0x3c6b59ff	0.014364718
152	0x3d84af36	0.06478731
153	0xbcf4a401	-0.02986336
154	0x3d1f23bf	0.03885245
155	0xbce98312	-0.028504882
156	0x3b2ffadc	0.0026852405
157	0xbcfc7180	-0.03081584
158	0xbd8cbbd7	-0.06871765
159	0x3d15534a	0.036456384
160	0x3c7e1493	0.015507835
161	0x3caf7f33	0.021422958
162	0x3c860f8d	0.016364837
163	0xbd68c6af	-0.056830104
164	0x3d48f0d3	0.049057793
165	0xbd5ee8a5	-0.054421086
166	0x3d738630	0.059454143
167	0xbc5d3108	-0.0135004595
168	0xbd3a8449	-0.045536313
169	0x3974449d	0.00023295214
170	0xbd7b7b36	-0.0613968
171	0x3ccbd779	0.024883019
172	0x3c81530a	0.015786666
173	0x3c88d062	0.016700927
174	0x3d21a116	0.039460264
175	0xbb46a0a3	-0.003030815
176	0xbbd36d11	-0.0064522107
177	0xbc9ac488	-0.018892542
178	0x3ba27078	0.004957255
179	0xbc81b756	-0.015834492
180	0x3d0b5733	0.034018707
181	0xbd4aef9b	-0.04954491
182	0x3d276b30	0.040873706
183	0xbd008825	-0.031379838
184	0xbd73304d	-0.059372235
185	0xbcf22c47	-0.029562129
186	0xbd8f1200	-0.06985855
187	0x3cc809a9	0.024418669
188	0x3d860e5b	0.06545707
189	0x3d16053a	0.03662608
190	0x3ca1759e	0.019709405
191	0x3ce97637	0.028498752
192	0x3bbcb112	0.005758413
193	0xbd4a4eeb	-0.04939167
194	0x3d630ace	0.055430226
195	0x3d72e3b0	0.05929917
196	0x3d4b49ae	0.049630813
197	0x3d18c487	0.037296798
198	0xbcbcf910	-0.023067981
199	0xbd8de91d	-0.069292285
200	0xbba9b9af	-0.005179606
201	0x3c2139c3	0.009840432
202	0xbc5d3e80	-0.013503671
203	0xbb9b86a4	-0.004746275
204	0xbd1dd771	-0.03853554
205	0xbd3ddc35	-0.046352584
206	0x3be31bac	0.006930789
207	0xbc8da861	-0.017292203
208	0x3d96057d	0.073252656
209	0x3d10cc99	0.03535137
210	0x3d01556e	0.031575613
211	0x3d14cddc	0.036329135
212	0x3d09a0d7	0.033600654
213	0x3cbb2b3c	0.022847764
214	0xbd33a028	-0.04385391
215	0x3d6949d2	0.056955166
216	0x3d12f264	0.035875693
217	0xbd84e59b	-0.06489106
218	0xbd90a8b0	-0.070634246
219	0xbd0b2e26	-0.033979557
220	0xbd2041e4	-0.03912534
221	0x3b558677	0.0032581368
222	0xbb580b98	-0.0032965895
223	0xbbf0ab0f	-0.0073446105
224	0x3b97882d	0.0046243877
225	0xbd2139c6	-0.039361738
226	0x3d3d49a5	0.04621281
227	0x3c56f204	0.013119224
228	0xbd8bedfc	-0.06832501
229	0xbd3448f2	-0.04401488
230	0x3cd7286b	0.02626439
231	0x3d3396dc	0.043845043
232	0x3d5ecbdd	0.054393638
233	0xbd2f7e56	-0.042845093
234	0x3d83ac4f	0.0642935
235	0xbd44ea1b	-0.048074823
236	0x3d8e935f	0.069617026
237	0x3d62a0a1	0.05532897
238	0x3d690ec2	0.05689884
239	0xbc8d78fa	-0.0172696
240	0xbcc31fd6	-0.023818891
241	0x3d8870f5	0.0666217
242	0x3bda585e	0.006663366
243	0xbd6f7c04	-0.05846788
244	0xbb92857b	-0.0044714785
245	0x3d3f3aff	0.046687122
246	0x3cdad8ab	0.026714643
247	0xbd0e45f6	-0.03473469
248	0xbd6edd87	-0.058316734
249	0xbd3d2b88	-0.046184093
250	0xbceaee86	-0.02867819
251	0xbcb401a2	-0.021973435
252	0x3d5d21b6	0.053987227
253	0xbd8ac669	-0.06776125
254	0xbcf4a27c	-0.029862635
255	0xbd2693a7	-0.040668156

module.model.1.model.3.bias f4 [64]
0	0x3a793816	0.00095069536
1	0x3a6455f0	0.00087103155
2	0x3a84525b	0.0010095345
3	0x3a83b03b	0.0010047028
4	0x3a8582c3	0.0010186065
5	0x3a7c8a4e	0.0009633646
6	0x3a7bb2fd	0.00096015615
7	0x3a8a9105	0.0010571784
8	0x3a7afae5	0.00095741294
9	0x3a7fbc9f	0.0009755585
10	0x3a88bec1	0.0010432826
11	0x3a85e9c7	0.0010216766
12	0x3a671083	0.0008814411
13	0x3a819f36	0.0009889368
14	0x3a811dc3	0.0009850789
15	0x3a80ecb4	0.0009836168
16	0x3a750ff0	0.0009348383
17	0x3a61530e	0.0008595445
18	0x3a57b67c	0.00082287914
19	0x3a88e12b	0.0010443082
20	0x3a800c0e	0.0009769218
21	0x3a8129c9	0.0009854372
22	0x3a83e576	0.0010062892
23	0x3a9a82c0	0.0011788234
24	0x3a87fc8d	0.0010374949
25	0x3a8291d3	0.0009961672
26	0x3a92f03e	0.0011210514
27	0x3a81ebf7	0.0009912242
28	0x3a83e01b	0.0010061295
29	0x3abf63b8	0.0014601862
30	0x3a8942ac	0.001047214
31	0x3a87098c	0.0010302528
32	0x3a805177	0.0009789903
33	0x3a7984d2	0.0009518388
34	0x3a7b2dbd	0.00095817057
35	0x3a80897b	0.0009806597
36	0x3a821f43	0.000992753
37	0x3a825810	0.0009944458
38	0x3a84fcc2	0.0010146128
39	0x3a84a60c	0.0010120287
40	0x3a900d08	0.0010990212
41	0x3a6a296a	0.0008932563
42	0x3a8aec99	0.0010599076
43	0x3a6ec7c6	0.0009108748
44	0x3a7bbc61	0.0009602961
45	0x3a877a7a	0.0010336183
46	0x3a843b19	0.0010088413
47	0x3a64af53	0.0008723635
48	0x3a6354d4	0.0008672003
49	0x3a84cd81	0.0010132046
50	0x3a80c7b4	0.0009825141
51	0x3a7f9b73	0.0009750642
52	0x3a88207d	0.0010385659
53	0x3a813a46	0.0009859286
54	0x3a907953	0.0011022486
55	0x3a83227b	0.0010004783
56	0x3a87e177	0.0010366876
57	0x3a814c61	0.0009864682
58	0x3a7fbbfe	0.0009755491
59	0x3a6e6b17	0.0009094937
60	0x3a81aeda	0.0009894029
61	0x3a76f531	0.00094206916
62	0x3a84f427	0.0010143564
63	0x3a8285fa	0.0009958141

module.model.1.model.4.weight f4 [64]
0	0x3f804641	1.002144
1	0x3f8039eb	1.0017675
2	0x3f7fac10	0.9987192
3	0x3f8016ed	1.0006996
4	0x3f7fe8fd	0.99964887
5	0x3f7fe34f	0.9995622
6	0x3f80326f	1.0015391
7	0x3f7f581a	0.9974381
8	0x3f80373c	1.0016856
9	0x3f7fd916	0.9994062
10	0x3f7fdc0a	0.9994513
11	0x3f7fa067	0.9985413
12	0x3f804034	1.0019593
13	0x3f802a51	1.0012914
14	0x3f802c7f	1.0013579
15	0x3f7ffc72	0.99994576
16	0x3f7fbc7e	0.9989699
17	0x3f8025c1	1.0011522
18	0x3f8037fa	1.0017083
19	0x3f7fa6f4	0.99864125
20	0x3f802726	1.0011947
21	0x3f803539	1.0016242
22	0x3f800b0c	1.0003371
23	0x3f7f89ba	0.9981953
24	0x3f7f75cb	0.9978911
25	0x3f801b56	1.0008342
26	0x3f7f9a6b	0.99845
27	0x3f803d9c	1.0018802
28	0x3f8010da	1.0005143
29	0x3f7f79c9	0.99795204
30	0x3f7fb39b	0.9988343
31	0x3f7fb5c2	0.99886715
32	0x3f801fc1	1.000969
33	0x3f8037ea	1.0017064
34	0x3f7fa83a	0.9986607
35	0x3f803124	1.0014997
36	0x3f801ef2	1.0009444
37	0x3f7fd32b	0.9993159
38	0x3f7fd152	0.9992877
39	0x3f7fe275	0.9995492
40	0x3f7f7198	0.99782705
41	0x3f8048e4	1.0022244
42	0x3f7f59b8	0.99746275
43	0x3f803cad	1.0018517
44	0x3f804aba	1.0022805
45	0x3f7fa260	0.9985714
46	0x3f7fafe1	0.99877745
47	0x3f803de4	1.0018888
48	0x3f8044b1	1.0020963
49	0x3f7fc845	0.9991496
50	0x3f801150	1.0005283
51	0x3f803bb4	1.001822
52	0x3f803630	1.0016537
53	0x3f8031d2	1.0015204
54	0x3f7fa78c	0.9986503
55	0x3f803199	1.0015136
56	0x3f7f8c71	0.9982367
57	0x3f801fbc	1.0009685
58	0x3f7fe181	0.99953467
59	0x3f803aa2	1.0017893
60	0x3f803f84	1.0019383
61	0x3f7fef16	0.9997419
62	0x3f8030a5	1.0014845
63	0x3f801564	1.0006528

module.model.1.model.4.bias f4 [64]
0	0x3b08ce66	0.0020874976
1	0x3b0219e8	0.0019851867
2	0xbadb0011	-0.0016708394
3	0xbac78158	-0.0015221043
4	0xbb026036	-0.0019893772
5	0x3a79996a	0.00095214567
6	0x3add1515	0.0016867245
7	0xbaaa53b1	-0.0012994913
8	0x3aeaa357	0.0017901462
9	0xbacab7eb	-0.0015466189
10	0x3af35b38	0.0018566614
11	0x3962d84f	0.00021633621
12	0x3b03d596	0.002011632
13	0x3ac638f5	0.0015123176
14	0x3aeb3bd5	0.0017946908
15	0xb9cfcdbd	-0.00039635404
16	0x3a06cb3a	0.00051419775
17	0x3af23f8c	0.0018482073
18	0x3af68fe5	0.0018811194
19	0xbafafbe4	-0.0019148556
20	0x3aeff1af	0.001830628
21	0x3a1145a7	0.000554169
22	0xbb248b57	-0.0025107467
23	0xbb075bf9	-0.0020654185
24	0xbb1bfa8f	-0.0023800468
25	0x3a11b2d5	0.0005557959
26	0xbb017e14	-0.0019758986
27	0x3af7a561	0.0018893891
28	0x3a10d961	0.0005525556
29	0xbb15f52a	-0.0022881725
30	0xbb02ff6c	-0.001998867
31	0xbb07e640	-0.0020736605
32	0x39b4f57c	0.00034515176
33	0x3ae8fddb	0.001777585
34	0xbad95645	-0.0016581496
35	0x3acab9f1	0.0015466792
36	0x3b051f10	0.0020312704
37	0xb8a854eb	-8.0266815e-05
38	0xb68bc45b	-4.1653816e-06
39	0xba3b4b31	-0.0007144688
40	0xbaf747c0	-0.0018865988
41	0x3b15136b	0.002274717
42	0xbb0a50ed	-0.0021105364
43	0x3b050431	0.0020296688
44	0x3b0821b2	0.0020772037
45	0xbb06514b	-0.0020495232
46	0x3a6fc632	0.000914666
47	0x3afaf4a8	0.00191464
48	0x3b0a6e7c	0.0021122983
49	0xbac3e179	-0.0014944515
50	0x3b00641d	0.0019590922
51	0x3b0ae68e	0.002119455
52	0x3b04a53d	0.0020240091
53	0x3aeaea92	0.0017922691
54	0xbaf7e833	-0.0018913805
55	0x3af2638e	0.0018492804
56	0xbb130dd7	-0.002243867
57	0x3ae3907f	0.0017361789
58	0xba97e682	-0.0011589082
59	0x3af2908b	0.0018506212
60	0xb92344f6	-0.00015570581
61	0x3aa8b3a3	0.0012870919
62	0x3afb0320	0.0019150712
63	0xbb0d8ba0	-0.0021598116

module.model.1.model.4.running_mean f4 [64]
0	0xbee9e30c	-0.45681036
1	0xbf1be7d4	-0.60900617
2	0x3e67c872	0.22635058
3	0x3d6d672d	0.057959724
4	0x3ecaedb5	0.3963448
5	0x3daed917	0.085375
6	0xbeb31021	-0.34973243
7	0xbdcaed58	-0.09908551
8	0x3ea8401b	0.3286141
9	0x3e8b5e13	0.2722021
10	0xbedcab42	-0.4309941
11	0x3e2f531a	0.17121544
12	0xbea785f8	-0.32719398
13	0x3e1349af	0.14383577
14	0xbdbc5290	-0.09195435
15	0x3e5af951	0.21384169
16	0x3ea12b55	0.31478372
17	0xbe21ccd8	-0.15800798
18	0xbede6377	-0.4343526
19	0x3d9b1b3f	0.07573556
20	0xbdd71821	-0.10502649
21	0x3e826512	0.25467736
22	0x3e245bb8	0.16050613
23	0xbb468fbf	-0.0030298082
24	0x3edcd5fc	0.43132007
25	0x3c3cc770	0.011522159
26	0xbc0d4f91	-0.008624927
27	0x3eb7111c	0.3575524
28	0x3e8d7b46	0.27633113
29	0x3d82056b	0.0634869
30	0x3e983b0c	0.2973255
31	0x3e890a73	0.26765785
32	0xbe47a73b	-0.19497387
33	0xbc8dee07	-0.017325414
34	0x3edb6609	0.42851284
35	0x3e943668	0.2894776
36	0xbde5b147	-0.112154536
37	0xbee250b7	-0.44202206
38	0x3e2d4e97	0.16924511
39	0xbde3fc60	-0.11132121
40	0xbecd86dd	-0.40141955
41	0xbeef431e	-0.46730894
42	0xbe97cd9a	-0.2964905
43	0xbe85ec93	-0.26157054
44	0xbf1cf3fa	-0.6130978
45	0x3e0a70e1	0.13519622
46	0xbac68f6c	-0.0015148944
47	0xbe8c4cc4	-0.27402318
48	0xbe216b85	-0.15763672
49	0x3d337736	0.04381486
50	0xbf22be11	-0.6357127
51	0xbd96efb7	-0.07369941
52	0x3f0277d1	0.50964075
53	0x3ebe7f1f	0.3720636
54	0x3d9fc84d	0.07801876
55	0xbd6b0e2e	-0.05738657
56	0xbe3cef65	-0.18450697
57	0x3e569e10	0.20958734
58	0x3e94d6fa	0.29070264
59	0xbe4a95bc	-0.19783682
60	0xbd22136c	-0.039569303
61	0xbedce0c0	-0.4314022
62	0x3d1209ad	0.03565376
63	0x3dc6433b	0.09680792

module.model.1.model.4.running_var f4 [64]
0	0x3ef8439c	0.48489082
1	0x3e00e0f0	0.12585807
2	0x3d02477b	0.03180645
3	0x3ce935c0	0.028468013
4	0x3d89beb5	0.067258276
5	0x3cfaff50	0.03063932
6	0x3f993609	1.1969615
7	0x3cc4198b	0.023937961
8	0x3ee2805c	0.44238555
9	0x3e6e6fc1	0.23284818
10	0x3e1c4ad4	0.1526292
11	0x3d39315c	0.04521309
12	0x3d5d9061	0.05409277
13	0x3e27d0aa	0.16388193
14	0x3fa1e249	1.2647182
15	0x3cd6c25e	0.026215728
16	0x3d98c087	0.07458597
17	0x3edbafc5	0.4290754
18	0x3ec44e40	0.3834095
19	0x3f152089	0.5825277
20	0x3e2cf0e4	0.16888767
21	0x3d5f9fc3	0.05459572
22	0x3ce9e6f2	0.028552506
23	0x3e7ed98a	0.24887672
24	0x3e1184e7	0.14210854
25	0x3f0bc262	0.5459348
26	0x3ee623fa	0.44949323
27	0x3da7db2b	0.081961
28	0x3f0ef235	0.5583833
29	0x3cf383f3	0.029726004
30	0x3ed0ba4f	0.40767142
31	0x3d2682ed	0.040652204
32	0x3e993d07	0.29929373
33	0x3e4b8739	0.19875802
34	0x3ec80453	0.390658
35	0x3ee66ee6	0.45006484
36	0x3f5c77b7	0.8612017
37	0x3edec9fc	0.43513477
38	0x3df7fded	0.121089794
39	0x3ebda37e	0.37038797
40	0x3d885d8c	0.06658468
41	0x3e087208	0.1332475
42	0x3f05e17f	0.52297205
43	0x3d774586	0.060369037
44	0x3f2b7e8b	0.66989964
45	0x3f9da9ca	1.231744
46	0x3f242e1f	0.64132875
47	0x3e20dbbe	0.15708825
48	0x3d44017e	0.047852986
49	0x3ec59c69	0.38595894
50	0x3edbf4d9	0.4296024
51	0x3dd340d1	0.10315097
52	0x3e61aca4	0.22038513
53	0x3e679532	0.22615507
54	0x3d3e99a6	0.04653325
55	0x3e49fa5e	0.19724414
56	0x3ecff747	0.40618345
57	0x3eb50fac	0.3536352
58	0x3eef0ef9	0.4669111
59	0x3f395cfe	0.7240752
60	0x3e1e838b	0.15479867
61	0x3f263337	0.649219
62	0x3ea5306f	0.32263514
63	0x3e6b38cd	0.22970887

module.model.2.model.0.weight f4 [64, 64, 3, 3]
0	0xbd7c1392	-0.0615421
1	0xbca65462	-0.020303909
2	0x3d03b447	0.032154348
3	0xbcf01cc0	-0.029310584
4	0x3d0fc94e	0.03510409
5	0xbcff6612	-0.0311766
6	0x3d5e9593	0.054341864
7	0x3ca389fe	0.01996326
8	0xbd1c0188	-0.038087398
9	0xbd52ee25	-0.051496644
10	0xbbdf4602	-0.0068137655
11	0x3c6589fa	0.014009947
12	0x3d6a23fd	0.057163227
13	0x3d185314	0.037188604
14	0x3cc4e44f	0.024034647
15	0xbd00845c	-0.031376228
16	0xbd8f1e7b	-0.069882356
17	0xbd721044	-0.059097543
18	0xbd1f844b	-0.038944524
19	0x3d3df0cf	0.04637223
20	0xbd6fb714	-0.058524206
21	0xbca510e8	-0.020149663
22	0x3cdd7376	0.027032595
23	0xbd7b2472	-0.061314054
24	0xba367d38	-0.0006961408
25	0x3ca40ef4	0.020026661
26	0xbd13242e	-0.035923176
27	0x3d77b672	0.060476728
28	0xbb11227f	-0.0022145805
29	0xbd021476	-0.031757794
30	0x3c69ba52	0.014265614
31	0xbb1e4d28	-0.0024154875
32	0x3cd33c7a	0.025785673
33	0x3d9200b9	0.07129044
34	0xbd02a119	-0.031891916
35	0xbd883339	-0.06650395
36	0xbd17d795	-0.03707083
37	0x3cf9c0a3	0.030487364
38	0x3c62e216	0.013847848
39	0x3d99b51d	0.07505248
40	0xbcbee8a6	-0.023304295
41	0xbd627d79	-0.05529544
42	0x3c7d3996	0.015455624
43	0xbd2a0448	-0.04150799
44	0xbd80eeaf	-0.06295525
45	0xbd93f566	-0.072245404
46	0xbc1938ad	-0.009351891
47	0x3d302624	0.043005124
48	0x3d7c3f74	0.06158395
49	0x3af0554e	0.001833597
50	0xbd5d86b8	-0.054083556
51	0x3d296ad5	0.04136165
52	0x3be89ee4	0.0070990194
53	0x3d3e93c6	0.046527646
54	0x3caf72ff	0.02141714
55	0x3c831929	0.016003208
56	0x3d48826c	0.048952505
57	0x3c5c1c85	0.013434534
58	0xbcd2a5c5	-0.02571381
59	0x3d87fa97	0.06639593
60	0xbcd1165e	-0.02552336
61	0x3d2eb5c5	0.042653818
62	0x3d8b28c4	0.06794885
63	0x3d88113c	0.06643912
64	0x3d626845	0.05527522
65	0xbbdcc755	-0.0067376294
66	0xbb7c481e	-0.0038495134
67	0xbd2f9624	-0.042867795
68	0xbc9ebe0b	-0.019377729
69	0xbb7fafd3	-0.0039014712
70	0xbd9660ed	-0.07342706
71	0xbd09fee9	-0.033690367
72	0xbccf5414	-0.025308646
73	0x3d83b6cb	0.06431349
74	0x3ae49030	0.0017437991
75	0xbc11d2f1	-0.00890039
76	0x3cec47ef	0.028842894
77	0xbcd80e90	-0.026374131
78	0x3d842400	0.06452179
79	0xbd67db37	-0.056605544
80	0xbd07e897	-0.0331808
81	0xbc9609b0	-0.018315166
82	0x3d5e93b0	0.054340065
83	0x3d52d134	0.051469043
84	0x3d031913	0.032006335
85	0xbd429191	-0.047502104
86	0xbc529381	-0.0128525505
87	0x3b6fe7a5	0.0036606577
88	0xbd6730c7	-0.056443002
89	0xbd85340f	-0.0650407
90	0x3d08f1ad	0.033433605
91	0xbd829f28	-0.06378013
92	0xbd273101	-0.04081822
93	0xbb6e5703	-0.003636778
94	0xbbf0ebe8	-0.007352341
95	0x3d6a9b73	0.057277154
96	0x3d878fab	0.06619199
97	0xbd2e1dbf	-0.042508837
98	0xbd95983d	-0.07304428
99	0xbd19abc7	-0.037517335
100	0xbd8f0d9c	-0.06985018
101	0xbd313ba4	-0.04326977
102	0xbd6b3d7e	-0.05743169
103	0xbcb75d4e	-0.022383358
104	0x3cb6c6b9	0.022311555
105	0xbd8e1ccd	-0.06939087
106	0xbc0a1d3a	-0.00842982
107	0xbd51b59b	-0.051198583
108	0xbc8bd6a0	-0.017070115
109	0x3d7ea207	0.06216624
110	0x3d080230	0.03320521
111	0xbd58a16a	-0.05288831
112	0x3d3402a5	0.043947835
113	0xbc3b6e9d	-0.0114399465
114	0xbd802b41	-0.0625825
115	0x3bac7310	0.00526274
116	0xbcc277d7	-0.023738785
117	0xbd48dbde	-0.049037807
118	0x3c7e9035	0.015537311
119	0x3d58f81a	0.052970983
120	0xbd194dbf	-0.03742766
121	0xbd513207	-0.0510731
122	0x3cb43ce7	0.022001697
123	0x3c07b8d6	0.008283814
124	0x3c6c7e4c	0.014434408
125	0x3cdc0c04	0.026861198
126	0x3d22e0ee	0.03976529
127	0xbcd55f4c	-0.026046418
128	0x3d48bb7e	0.04900693
129	0x3c8593bf	0.016305802
130	0xbc05c20b	-0.008163939
131	0x3d19fcd0	0.037594616
132	0x3cb301f8	0.021851525
133	0x3cb7f7ff	0.022457121
134	0xbc4431a9	-0.0119747305
135	0xbc9b1c37	-0.018934352
136	0x3c9fb606	0.019495975
137	0xbd0b1d71	-0.033963624
138	0xbc189d0b	-0.009314786
139	0xbd78132b	-0.060565155
140	0x3d49d0db	0.049271446
141	0xbc0efd2d	-0.008727354
142	0x3cdd2823	0.026996678
143	0xbc97abf2	-0.018514607
144	0x3b61496c	0.0034376038
145	0x3d8f69ce	0.070026025
146	0x3b051d82	0.0020311777
147	0xbd87d815	-0.06633011
148	0x3d14aef5	0.036299665
149	0x3d7bfa2e	0.061517887
150	0x3d5235b3	0.051320743
151	0xbd7bfe57	-0.061521854
152	0xbd830b0e	-0.06398593
153	0xbcb59a42	-0.022168282
154	0x3c890333	0.016725158
155	0x3d730eef	0.059340414
156	0x3d24f47f	0.040272232
157	0xbd915823	-0.07096889
158	0x3d439b97	0.047755804
159	0xbd76151c	-0.060078725
160	0xbd6cd6ae	-0.057821922
161	0xbc0c87de	-0.008577315
162	0x3b4cc812	0.003124718
163	0x3d038835	0.03211232
164	0x3d5bec9a	0.053692438
165	0xba49ac04	-0.0007693174
166	0x3c381a22	0.011236699
167	0x3d526258	0.05136332
168	0x3d4def6b	0.050277155
169	0xbca96508	-0.020678058
170	0xbce5d663	-0.02805633
171	0xbd5aaf31	-0.05338973
172	0xbd4eae07	-0.050458934
173	0x3d8af4f7	0.067850046
174	0x3d8be462	0.0683067
175	0x3d97149e	0.07376979
176	0xbcc37991	-0.023861678
177	0xbcd711c2	-0.026253585
178	0x3d81952d	0.06327281
179	0xbd7c5a7d	-0.061609734
180	0x3cc81d0a	0.02442791
181	0x3d116221	0.035493974
182	0x3d2b2e04	0.04179193
183	0xbceaa610	-0.028643638
184	0xbd7b19ba	-0.06130383
185	0xbc558605	-0.013032441
186	0xbd5bbb0d	-0.053645182
187	0x3d4ea96d	0.050454546
188	0xbcf6140f	-0.030038862
189	0x3d362dfa	0.04447744
190	0xbcd3de5a	-0.025862861
191	0x3d2616ba	0.040549017
192	0xbcaeb0b4	-0.021324493
193	0x3c9441e1	0.01809782
194	0xbcfbe85c	-0.030750446
195	0x3d8186a5	0.063245095
196	0xbd87b1ba	-0.066256955
197	0x3c7d1e6f	0.01544915
198	0x3d2ef866	0.04271736
199	0x3d03e78a	0.032203235
200	0xbcaacae4	-0.020848699
201	0xbd0dfb24	-0.034663334
202	0xbd8f841c	-0.0700762
203	0xbd00b9bc	-0.03142713
204	0x3c9940d6	0.018707674
205	0xbd09b339	-0.033618186
206	0xbc2e1237	-0.01062446
207	0xbcbec78f	-0.023288516
208	0xbd5f92ea	-0.054583468
209	0x3d2a9b45	0.041651983
210	0xbcfc2ca5	-0.030783007
211	0xbc533dd5	-0.01289316
212	0xbd82318a	-0.06357105
213	0xbc8b0ab1	-0.016972871
214	0x3cfef7e7	0.031124068
215	0xbd047a62	-0.032343276
216	0x3d5884f0	0.052861154
217	0xbd323187	-0.043504264
218	0xbbdf0bc8	-0.0068068244
219	0xbd49cbad	-0.049266506
220	0xb992d137	-0.00028003167
221	0x3c9d08a9	0.019169169
222	0x3ca131ae	0.01967701
223	0x3d74e60e	0.05978971
224	0xbce331aa	-0.027733643
225	0xbd5839cb	-0.05278949
226	0xbd880125	-0.06640843
227	0x3d1a50c2	0.037674673
228	0xbaf4b85b	-0.0018670665
229	0x3d69b0be	0.05705332
230	0xbd92cdcd	-0.0716816
231	0xbca8d710	-0.020610362
232	0xbcbc485f	-0.022983728
233	0x3ca62cef	0.020285098
234	0xbd872903	-0.06599619
235	0xbd22f90d	-0.039788295
236	0x3d74c999	0.05976257
237	0xbce600d7	-0.028076572
238	0x3c27afbf	0.010234772
239	0xbd77c17c	-0.060487255
240	0x3d2fa902	0.042885788
241	0xbc4b15de	-0.01239535
242	0x3d20a260	0.039217353
243	0xbce8d74f	-0.02842298
244	0x3d69c20b	0.05706982
245	0x3c949c14	0.01814083
246	0x3b1e5c76	0.0024163998
247	0x3d29a388	0.04141572
248	0xbcbe21f3	-0.023209548
249	0x3c9e31cb	0.019310853
250	0x3d262107	0.04055884
251	0xbbe437f1	-0.0069646765
252	0x3d8eb32b	0.06967767
253	0x3d9069a0	0.07051396
254	0x3badc432	0.0053029293
255	0xbd89ecb1	-0.067345984

module.model.2.model.0.bias f4 [64]
0	0x3a83d598	0.0010058163
1	0x3a81fe26	0.0009917661
2	0x3a854c50	0.0010169838
3	0x3a833f18	0.001001331
4	0x3a82fa50	0.0009992812
5	0x3a80c9c8	0.000982576
6	0x3a8523db	0.001015778
7	0x3a82b7eb	0.0009973025
8	0x3a867234	0.0010257424
9	0x3a82c03e	0.0009975506
10	0x3a80ac2a	0.0009816934
11	0x3a813b31	0.0009859559
12	0x3a83bbd3	0.0010050483
13	0x3a82d946	0.0009982965
14	0x3a84357f	0.0010086744
15	0x3a82f0e0	0.0009989999
16	0x3a8413b7	0.0010076676
17	0x3a840351	0.0010071789
18	0x3a832630	0.0010005888
19	0x3a81a34b	0.0009890584
20	0x3a82c9fb	0.0009978408
21	0x3a8595a4	0.0010191691
22	0x3a81539c	0.0009866836
23	0x3a82d9e4	0.0009983149
24	0x3a80bf30	0.0009822603
25	0x3a842499	0.0010081708
26	0x3a83a748	0.001004436
27	0x3a82a9b1	0.0009968785
28	0x3a8256c2	0.0009944069
29	0x3a868abe	0.0010264737
30	0x3a87a739	0.0010349519
31	0x3a829799	0.0009963393
32	0x3a83c1fc	0.0010052319
33	0x3a83c04b	0.0010051815
34	0x3a80df8e	0.000983225
35	0x3a8372d2	0.0010028726
36	0x3a815d6f	0.0009869764
37	0x3a8226b6	0.000992975
38	0x3a828340	0.0009957328
39	0x3a826995	0.0009949679
40	0x3a83d577	0.0010058124
41	0x3a84437a	0.001009091
42	0x3a856695	0.0010177667
43	0x3a8335ad	0.0010010503
44	0x3a826f9f	0.0009951479
45	0x3a7ee34c	0.0009723201
46	0x3a8338d7	0.0010011446
47	0x3a81da08	0.0009906897
48	0x3a776e93	0.0009438779
49	0x3a81faca	0.000991666
50	0x3a847ad2	0.0010107404
51	0x3a827e07	0.0009955772
52	0x3a81c9d3	0.0009902067
53	0x3a8214b9	0.0009924389
54	0x3a835db9	0.0010022438
55	0x3a869802	0.001026869
56	0x3a83f464	0.0010067341
57	0x3a830c45	0.0009998163
58	0x3a7e7f83	0.0009708332
59	0x3a7a3103	0.00095440465
60	0x3a7f1752	0.0009730953
61	0x3a864c60	0.001024615
62	0x3a82b366	0.0009971678
63	0x3a8565f0	0.0010177474

module.model.2.model.1.weight f4 [64]
0	0x3f7fcd21	0.99922377
1	0x3f804575	1.0021197
2	0x3f8000b6	1.0000217
3	0x3f7f7ef6	0.998031
4	0x3f801aff	1.0008239
5	0x3f801850	1.000742
6	0x3f804068	1.0019655
7	0x3f802681	1.001175
8	0x3f7fc25b	0.9990594
9	0x3f7fc0e1	0.99903685
10	0x3f7f4702	0.99717724
11	0x3f802c6e	1.0013559
12	0x3f7f927f	0.9983291
13	0x3f80064d	1.0001923
14	0x3f7ff9bf	0.9999046
15	0x3f7f9439	0.99835545
16	0x3f7ff8a7	0.9998879
17	0x3f7fa461	0.998602
18	0x3f803264	1.0015378
19	0x3f8003fd	1.0001217
20	0x3f8003b5	1.0001131
21	0x3f7f76ec	0.99790835
22	0x3f801bf2	1.0008528
23	0x3f7f6c27	0.997744
24	0x3f802fdd	1.0014607
25	0x3f7fc1d5	0.9990514
26	0x3f801aa8	1.0008135
27	0x3f802b66	1.0013244
28	0x3f80376e	1.0016916
29	0x3f7f72bc	0.99784446
30	0x3f7f7a1f	0.99795717
31	0x3f804923	1.002232
32	0x3f7f6e67	0.99777836
33	0x3f801280	1.0005646
34	0x3f8003f0	1.0001202
35	0x3f800cca	1.0003903
36	0x3f8038f8	1.0017385
37	0x3f800fc0	1.0004807
38	0x3f7fcc32	0.9992095
39	0x3f7fefa9	0.9997507
40	0x3f800b87	1.0003518
41	0x3f7f6aa6	0.9977211
42	0x3f7faaba	0.99869883
43	0x3f7f7c6f	0.99799246
44	0x3f8031b5	1.0015169
45	0x3f7f90cb	0.9983031
46	0x3f7fa19a	0.9985596
47	0x3f8004f9	1.0001518
48	0x3f804a87	1.0022744
49	0x3f802117	1.0010098
50	0x3f7fecbf	0.9997062
51	0x3f803f2d	1.001928
52	0x3f80466d	1.0021492
53	0x3f802ce8	1.0013704
54	0x3f802977	1.0012654
55	0x3f7f84e5	0.99812156
56	0x3f7f96c6	0.99839437
57	0x3f800f2a	1.0004628
58	0x3f803c47	1.0018395
59	0x3f803cdf	1.0018576
60	0x3f8055c3	1.0026172
61	0x3f7fd751	0.9993792
62	0x3f801e3c	1.0009227
63	0x3f7f79b4	0.9979508

module.model.2.model.1.bias f4 [64]
0	0xbb1a0363	-0.0023500554
1	0x3ae06600	0.0017120242
2	0xba89b055	-0.0010504822
3	0xb7ca8593	-2.4142477e-05
4	0xba69cf4f	-0.0008919136
5	0x3a81ec9d	0.0009912435
6	0x3a6a5c80	0.0008940175
7	0x3ac32b47	0.0014890217
8	0xbad18523	-0.0015985112
9	0xba124bc7	-0.000558075
10	0xbb1adf44	-0.0023631612
11	0x3b0397cd	0.0020079494
12	0xba81da2f	-0.0009906943
13	0x39cf153a	0.00039497932
14	0xba66ad76	-0.00087996514
15	0xba933f4d	-0.0011234075
16	0x39364722	0.00017383372
17	0xbb0d0960	-0.002152048
18	0x3aba160e	0.0014197247
19	0xb78898fe	-1.6283706e-05
20	0x3aa3d5c6	0.0012499623
21	0xbb0a7c71	-0.0021131302
22	0x3af6a710	0.0018818099
23	0xbb04e133	-0.002027583
24	0x3b1d1042	0.002396599
25	0xbb122630	-0.0022300594
26	0x3a5cdd0d	0.0008425273
27	0x3a95c6b2	0.0011427014
28	0x3adbe984	0.0016777967
29	0xbb22a13f	-0.0024815348
30	0xb9fe1d6d	-0.0004846858
31	0x3af63ff5	0.0018787371
32	0xbb10721c	-0.002204067
33	0xbb01503a	-0.0019731657
34	0x3a92f637	0.0011212294
35	0x3b0a9831	0.0021147842
36	0x3b0df788	0.0021662433
37	0x3ac457bf	0.0014979764
38	0x39e30879	0.00043303127
39	0x39ab6981	0.00032694268
40	0x3a98eda1	0.0011667499
41	0xbb3ad020	-0.00285054
42	0xbaa27f64	-0.0012397585
43	0xbb0872fd	-0.0020820491
44	0x3ac0978e	0.0014693604
45	0x3ac0358c	0.0014664396
46	0xbaa9bbb7	-0.001294962
47	0x3a831dd3	0.0010003395
48	0x3b2ffe7c	0.0026854565
49	0x3abe6706	0.0014526553
50	0xbad7007d	-0.0016403344
51	0x3aadb02f	0.0013251359
52	0x3b266baa	0.0025393763
53	0xba59cd6c	-0.00083085033
54	0x394840d9	0.00019097644
55	0xbaf15e7b	-0.0018414998
56	0xbac86b01	-0.0015290679
57	0xb898071d	-7.24925e-05
58	0x3ae275c1	0.0017277525
59	0x3afaf6f2	0.0019147082
60	0x3b105100	0.0022020936
61	0xbab3f23a	-0.0013728805
62	0x3ad35148	0.0016122246
63	0xba857053	-0.001018057

module.model.2.model.1.running_mean f4 [64]
0	0x3e758f86	0.23980531
1	0x3ea7c22f	0.32765338
2	0xbd9de95e	-0.07710527
3	0x3ed04a7d	0.4068183
4	0xbe319cb1	-0.1734493
5	0xbe1307e0	-0.14358473
6	0x3df05fa9	0.11736996
7	0x3f53f9c8	0.8280301
8	0x3f096c7f	0.53681177
9	0x3d533164	0.051560774
10	0x3effaeb6	0.4993798
11	0x3e2b542c	0.16731328
12	0xbd8ce398	-0.068793476
13	0x3e8deab3	0.27718124
14	0xbe3986ff	-0.18117903
15	0x3e5af98a	0.21384254
16	0xbed0845a	-0.40725976
17	0x3e5fcfe6	0.2185665
18	0xbe8a74d4	-0.27042258
19	0x3e095e6a	0.13414922
20	0x3deff0b9	0.11715836
21	0xbe56e83a	-0.20987025
22	0xbf872c08	-1.0560312
23	0x3bc09d49	0.005878125
24	0x3a844ea5	0.0010094239
25	0x3eaddd3d	0.33957854
26	0x3e3d62ea	0.18494764
27	0xbf0b58a2	-0.5443212
28	0x3da43129	0.08017189
29	0xbf1ba84e	-0.6080369
30	0xbf082cdd	-0.53193456
31	0x3d25b9c9	0.04046038
32	0xbce5da9f	-0.028058348
33	0x3effd6c3	0.49968538
34	0xbedc1372	-0.42983586
35	0x3b76c618	0.0037654694
36	0xbf552503	-0.832596
37	0xbe475f93	-0.19470052
38	0x3e4e0e17	0.20122562
39	0x3e00dca8	0.12584174
40	0xbf05a7e5	-0.5220931
41	0x3ee537a5	0.44769016
42	0x3e5f4969	0.21805348
43	0x3efb7164	0.49109948
44	0xbd1b10cc	-0.037857816
45	0x3ce8dbd8	0.028425142
46	0xbd294da2	-0.041333802
47	0xbf0c3227	-0.54764026
48	0xbe237e02	-0.15966037
49	0x3ee5a57d	0.4485282
50	0x3e8acb32	0.2710815
51	0xbe544f4d	-0.20733376
52	0x3d7ae710	0.061255515
53	0x3d33fda2	0.043943055
54	0x3f0abf6a	0.54198325
55	0xbeadda78	-0.3395574
56	0xbc96af38	-0.018394098
57	0xbee75e81	-0.45189288
58	0xbd4decbf	-0.050274607
59	0xbf1dbe19	-0.6161819
60	0xbda07a78	-0.07835859
61	0x3d6bf1a7	0.057603505
62	0xbe8366e8	-0.2566445
63	0xbeadebb8	-0.33968902

module.model.2.model.1.running_var f4 [64]
0	0x3fb3cfad	1.4047753
1	0x3ec59540	0.3859043
2	0x3ea9ebbf	0.33187672
3	0x3e9ed6b0	0.3102317
4	0x3f2b4c03	0.6691286
5	0x3ead6459	0.33865622
6	0x3e051b48	0.12998688
7	0x3f57da95	0.84317905
8	0x3e314fe2	0.17315629
9	0x3db61c8a	0.08892162
10	0x3f5896f0	0.8460531
11	0x3f285770	0.6575842
12	0x3ebd2640	0.36943245
13	0x3e980258	0.29689288
14	0x3d86c8d7	0.06581276
15	0x3e8a4ed3	0.27013263
16	0x3ede86a4	0.43462098
17	0x3e828fc2	0.25500304
18	0x3efc75cd	0.49308625
19	0x3f0e028c	0.55472636
20	0x3e3e35d8	0.18575227
21	0x3e8257b5	0.2545754
22	0x3e552302	0.20814136
23	0x3efd8fea	0.4952386
24	0x3e3c3368	0.18378985
25	0x3f0c0150	0.546895
26	0x3ea79e96	0.3273818
27	0x3ff3b998	1.9041014
28	0x3ec7225d	0.38893405
29	0x3e3d6974	0.18497258
30	0x3dfe34ee	0.12412439
31	0x3f8503e0	1.0391808
32	0x3dc7a048	0.09747368
33	0x3e7673e2	0.24067643
34	0x3f3b2d8a	0.7311636
35	0x3f2b2d0c	0.6686561
36	0x3f3a9bf0	0.7289419
37	0x3f933d11	1.1503011
38	0x3ec76007	0.3894045
39	0x3f1accfb	0.60469025
40	0x3eea17a4	0.4572116
41	0x3fc2722e	1.5191095
42	0x3ec83431	0.3910232
43	0x3f1fcdd9	0.62423474
44	0x3f0d7090	0.5524988
45	0x3e02809f	0.12744378
46	0x3e919a81	0.2843819
47	0x3e9e5572	0.30924565
48	0x3ea556c1	0.3229275
49	0x3f13425d	0.5752314
50	0x3eb00299	0.34376982
51	0x3ee1b158	0.44080615
52	0x3f9ded42	1.233803
53	0x3ef53209	0.47889736
54	0x3f8aae68	1.0834475
55	0x3d49a702	0.049231537
56	0x3f809bf9	1.0047599
57	0x3dc37e2b	0.09545549
58	0x3f55553a	0.8333317
59	0x3e2585bf	0.16164301
60	0x3f0c3dd6	0.54781854
61	0x3d54adfc	0.051923737
62	0x3eb41a9c	0.3517655
63	0x3dd13a79	0.10216231
