output_nn_deblur_noise/ckpt/resnet_epoch18.pth (torch, 641723 bytes, 31 tensors)

module.model.0.weight f4 [64, 1, 1, 1]
0	0xbe2f8885	-0.17141922
1	0xbe4a4a3b	-0.19754879
2	0x3e793676	0.24337181
3	0x3e2878d3	0.16452341
4	0xbe4d2495	-0.20033486
5	0x3d5886aa	0.0528628
6	0xbd5ecd19	-0.054394815
7	0xbe05d1f3	-0.1306837
8	0x3d316a98	0.043314546
9	0xbe882a2e	-0.2659468
10	0xbdbeabe5	-0.0931013
11	0x3e5dfee5	0.21679266
12	0xbddfbdf8	-0.109249055
13	0xbe195ee6	-0.14977607
14	0xbcfce036	-0.03086863
15	0x3c7651cf	0.015034153
16	0x3d981062	0.07425
17	0x3c9eae2c	0.019370161
18	0x3e1c226c	0.15247506
19	0xbdbf5184	-0.0934172
20	0xbddc4137	-0.10754626
21	0x3e0db2f7	0.13837801
22	0x3caebc5f	0.021330057
23	0x3e432db4	0.19060403
24	0xbd048ab6	-0.032358848
25	0x3e7caf26	0.24676189
26	0xbab4191e	-0.0013740396
27	0xbe546c6d	-0.20744486
28	0x3dc4ab90	0.096030354
29	0xbe722f94	-0.23650962
30	0xbd8f9dc4	-0.07012513
31	0xbdb0a1cb	-0.086246096
32	0xbe25c2f6	-0.16187653
33	0xbe78dd31	-0.24303128
34	0xbe97329c	-0.295308
35	0x3e525033	0.20538406
36	0xbdb035be	-0.086040005
37	0xbcc8a071	-0.024490567
38	0xbd54dc09	-0.051967654
39	0x3e52eb1d	0.20597501
40	0x3d5cd6df	0.053915855
41	0x3de8f17f	0.11374187
42	0xbe361b72	-0.17783907
43	0xbe8da66b	-0.2766603
44	0xbe1c4e9c	-0.15264362
45	0xbe88d55b	-0.26725277
46	0x3dbe06de	0.092786536
47	0x3e3cdf74	0.18444616
48	0xbe32ef28	-0.17474043
49	0x3d62247e	0.055210583
50	0xbd2fb4cc	-0.04289703
51	0x3e50231a	0.2032589
52	0xbca15d85	-0.019697914
53	0xbe34a777	-0.17642008
54	0x3e726d2e	0.23674461
55	0x3e084baf	0.13310121
56	0xbcd6bbed	-0.026212657
57	0xbe975c20	-0.29562473
58	0x3ce0d1e9	0.027443843
59	0x3e5fa774	0.21841222
60	0xbe1ede03	-0.15514378
61	0x3e979fc5	0.29614082
62	0xbc92552d	-0.01786288
63	0x3de4db67	0.1117466

module.model.0.bias f4 [64]
0	0x3b370013	0.0027923628
1	0x3b12175f	0.0022291762
2	0x39e9f981	0.00044627118
3	0x3a600f7f	0.0008547231
4	0x3ae5e2cb	0.0017538903
5	0x3b1de2e2	0.0024091532
6	0x3aca3408	0.0015426883
7	0x3b19ce7e	0.0023469026
8	0x3adf09e5	0.0017016499
9	0x39bd5a08	0.00036115968
10	0x3b068ab0	0.0020529442
11	0x3a679b2c	0.0008835073
12	0xba29a8aa	-0.0006471971
13	0x3a10506a	0.00055051467
14	0x3b37f944	0.0028072158
15	0x3b052356	0.0020315251
16	0xb942dc6a	-0.00018583392
17	0x3aa4b607	0.0012566455
18	0x3b0ff682	0.0021966998
19	0x3ad23517	0.001603755
20	0x3b223f49	0.002475696
21	0xb88b5746	-6.6442924e-05
22	0x3a5451c1	0.00080993405
23	0xb9bad4d5	-0.00035635257
24	0x3b0a88e7	0.002113873
25	0x3aaf4b04	0.0013373797
26	0x3ab0678d	0.0013458595
27	0x3967130c	0.00022036972
28	0x3ac7478a	0.0015203815
29	0x39acd294	0.0003296329
30	0xb9163801	-0.00014325978
31	0x3a42e8c3	0.0007435197
32	0x3ae381b0	0.0017357375
33	0x3a501dcb	0.000793901
34	0x3adcb1b0	0.0016837623
35	0x3aceaaea	0.0015767489
36	0x3af00395	0.0018311614
37	0x3a874843	0.0010321218
38	0x39c37ab1	0.0003728471
39	0x3967cab7	0.00022105394
40	0x3aa6077a	0.0012667023
41	0x3af93e74	0.0019015805
42	0xb909bd55	-0.0001313587
43	0xb80e55f4	-3.393549e-05
44	0x3b37afd4	0.0028028386
45	0xba263b93	-0.0006341275
46	0x3a87d560	0.0010363273
47	0x3a72d157	0.00092627615
48	0x3b39768c	0.002829942
49	0xb88024fd	-6.110405e-05
50	0x3af2a838	0.0018513268
51	0x3a5ecfcf	0.0008499594
52	0x3ab32b50	0.0013669524
53	0x3b25c5c2	0.0025294875
54	0xba12cd2a	-0.000560003
55	0x3ad3627b	0.0016127372
56	0x3ae18f2f	0.001720881
57	0x3a3159dd	0.0006765405
58	0xb9a4901b	-0.00031387885
59	0x3b12a730	0.0022377484
60	0x3b1be503	0.0023787625
61	0x3a850461	0.00101484
62	0x3a7c1e53	0.0009617556
63	0x3a0237fb	0.0004967448

module.model.1.model.0.weight f4 [64, 64, 3, 3]
0	0x3d06323e	0.03276276
1	0x3b5629d4	0.003267874
2	0xbc8e4d32	-0.017370794
3	0xbd364061	-0.04449499
4	0xbcdc546d	-0.026895726
5	0x3d86b45c	0.065773696
6	0xbd74fa61	-0.059809092
7	0xbd5e3d88	-0.0542579
8	0xbd67305b	-0.0564426
9	0x3d7abbcf	0.061214264
10	0x3d32b193	0.04362638
11	0xbce36aef	-0.02776095
12	0x3d163c3c	0.036678538
13	0x3d17841f	0.036991235
14	0x3ca51845	0.020153174
15	0x3d78a98f	0.06070858
16	0x3d2a03b7	0.04150745
17	0x3d14eb72	0.03635735
18	0x3d20c5e7	0.039251234
19	0x388004fe	6.1044455e-05
20	0x3d0ad2c2	0.0338924
21	0x3d286ef0	0.041121423
22	0xbb2b4c73	-0.0026138097
23	0xbc0ab8fe	-0.008466957
24	0x3d682357	0.056674328
25	0xbd8c26b9	-0.06843323
26	0x3d72f4e3	0.059315573
27	0xbd34962f	-0.04408854
28	0xbc4f3270	-0.012646303
29	0xbb78534d	-0.0037891448
30	0x3c03839c	0.008026984
31	0x3d2f36b9	0.042776797
32	0xbd3ad141	-0.045609716
33	0x3d88bae2	0.0667627
34	0xbcfbdea1	-0.030745806
35	0xbc8b8aae	-0.017033901
36	0xbc3b3f32	-0.011428641
37	0xbce3f5c5	-0.027827153
38	0x3c213f9a	0.009841824
39	0xbd2d1727	-0.042258408
40	0x3cac00f9	0.020996558
41	0x3b405d2e	0.0029352414
42	0xbc037b5a	-0.008025015
43	0xbb636698	-0.0034698602
44	0x3d13e0bb	0.03610299
45	0x3d347f24	0.044066563
46	0x3c421c0e	0.011847509
47	0x3d8e7f5f	0.06957888
48	0x3d6af6dc	0.05736433
49	0x393c05e5	0.00017931273
50	0xbd26cf6b	-0.040725153
51	0xbd550868	-0.05200997
52	0x3d81e857	0.063431434
53	0xbd553fd4	-0.052062824
54	0xbcbb1c6f	-0.022840707
55	0x3d515a76	0.05111166
56	0xbbd0ab1c	-0.006368054
57	0xbd613ac0	-0.05498767
58	0x3c6b97c4	0.014379445
59	0x3b54dcd0	0.0032480247
60	0x3d53f2e2	0.051745303
61	0xbd7a2deb	-0.061078947
62	0xbcde0e18	-0.02710633
63	0xba8de482	-0.0010825547
64	0x3ba8604b	0.005138432
65	0x3d451562	0.048116095
66	0x3c3c9929	0.011511126
67	0xbd82fec8	-0.06396252
68	0x3c5821a5	0.013191615
69	0x3c302a34	0.0107522495
70	0xbbe0accd	-0.006856537
71	0x3a7f6084	0.000974186
72	0x3d8de296	0.069279835
73	0x3d418b2c	0.047251865
74	0xbd72b245	-0.059252042
75	0xbccd9e23	-0.02509982
76	0xbd035042	-0.03205896
77	0xbd4ddb43	-0.050257932
78	0xbd3d55a7	-0.046224263
79	0x3cafb2a1	0.021447482
80	0x3c919335	0.01777039
81	0xbd3634f7	-0.044484105
82	0xbd73d85c	-0.05953251
83	0xbc90b3b5	-0.017663816
84	0xbd3ab9ac	-0.045587227
85	0x3d622844	0.05521418
86	0x3d2d780f	0.042350825
87	0xbcbbe1c1	-0.022934796
88	0xbd6fc9f9	-0.058542226
89	0x3c90e6a6	0.017688107
90	0xbd905eb4	-0.07049313
91	0xbd4ff8cb	-0.050774377
92	0xbcf10157	-0.029419584
93	0x3d1c3490	0.038136065
94	0x3d91e4d4	0.071237236
95	0x3c458094	0.012054581
96	0x3d549e13	0.051908564
97	0xbcc549d7	-0.024083061
98	0xbcba977f	-0.022777317
99	0xbc65dc0c	-0.014029514
100	0xbd510519	-0.051030252
101	0x3d6c33c4	0.057666555
102	0xbbb70c25	-0.0055861645
103	0xbb8aa5d1	-0.0042311926
104	0xbcb5bbc0	-0.022184253
105	0x3d556327	0.052096512
106	0xbd861701	-0.065473564
107	0xbc973344	-0.018457063
108	0x3d75a9dc	0.059976444
109	0xbc0a5e21	-0.008445294
110	0x3c9c04e8	0.019045308
111	0x3d885174	0.06656161
112	0x3cf58ddf	0.029974876
113	0x3d048742	0.032355554
114	0xbd6d29bc	-0.05790113
115	0xbb2c1daa	-0.0026262798
116	0x3d868ed3	0.0657021
117	0xbd011690	-0.031515658
118	0xbd5270ae	-0.05137699
119	0x3c142278	0.009041421
120	0xbd85f307	-0.065404944
121	0xbaa87451	-0.0012852048
122	0xbd377fdd	-0.044799674
123	0x3c828232	0.015931223
124	0x3d315ec4	0.043303266
125	0x3c7dcbd1	0.015490488
126	0x3c31af69	0.010845044
127	0x3d84e759	0.064894386
128	0x3d035d9c	0.032071695
129	0xbccc9fb2	-0.024978492
130	0x3ce5c4ad	0.028047884
131	0x3d0a53e1	0.0337714
132	0x3c123ab0	0.008925125
133	0xbd1faae0	-0.03898132
134	0x3d47d767	0.048789408
135	0x3d3028d8	0.0430077
136	0xbd889724	-0.06669453
137	0xbd3e2e9a	-0.04643116
138	0xbd6cc86c	-0.057808325
139	0x3d471fa1	0.048614148
140	0x3d616c94	0.05503519
141	0xbd464050	-0.048401177
142	0xbd34ab7f	-0.044108864
143	0x3d8d488f	0.06898605
144	0xbcfb89a5	-0.030705282
145	0x398eaaef	0.00027211706
146	0x3cc4c37c	0.024018995
147	0x3d89717c	0.067110986
148	0x3d85aa26	0.06526594
149	0xbd460833	-0.048347663
150	0xbcea3623	-0.028590268
151	0xbcaaa1a2	-0.020829026
152	0x3cf18839	0.029483901
153	0xbd1f1434	-0.038837627
154	0x3d391255	0.0451835
155	0xbd04eff7	-0.03245541
156	0xbd87bfd4	-0.06628385
157	0x3d7924eb	0.060826223
158	0xbcfb7629	-0.030695992
159	0xbb945eb0	-0.004527889
160	0xbd6cdaa4	-0.0578257
161	0xbd0761b2	-0.033052154
162	0x3c91a733	0.017779922
163	0x3d38c8db	0.045113426
164	0xbd58b8bf	-0.052910563
165	0xbc00ab2f	-0.007853313
166	0xbcca7e46	-0.024718415
167	0x3d1f3f16	0.038878523
168	0xbd5d7e98	-0.054075807
169	0xbce0015c	-0.027344398
170	0x3c31f094	0.010860581
171	0xbd838c91	-0.06423295
172	0x3cedff19	0.029052304
173	0xbcb5912d	-0.022163952
174	0x3d718b18	0.05897054
175	0xbd116f33	-0.03550644
176	0xbb23aaf0	-0.0024973713
177	0xbaf64fda	-0.0018792108
178	0x3d71b8df	0.059014197
179	0x3d8d89d7	0.069110565
180	0xbcf765ec	-0.030199967
181	0xbd45441c	-0.048160657
182	0xbd803ef5	-0.06262008
183	0xbd935ac8	-0.071950495
184	0xbd543527	-0.051808503
185	0xbd17105e	-0.036880843
186	0x3c8cb2ce	0.017175104
187	0x3d079117	0.033097353
188	0x3d45f3d9	0.048328254
189	0xbd28f3ba	-0.04124806
190	0xbd17e737	-0.037085738
191	0x3b4fbf1e	0.0031699608
192	0xbd1d135c	-0.03834854
193	0xbcf3bdbc	-0.029753558
194	0x3c59c47b	0.0132914735
195	0x3b0c2993	0.0021387085
196	0x3c83c5b3	0.016085481
197	0xbc0e5c79	-0.008689039
198	0x3b8b5cc2	0.004253001
199	0xbd718b7f	-0.058970924
200	0x3d1fc0b5	0.03900214
201	0xbca8b957	-0.02059619
202	0xbc990291	-0.018677982
203	0x3cddcdb0	0.027075619
204	0x3d2ef3c0	0.042712927
205	0x3d60c08f	0.05487114
206	0xbd1972b1	-0.037462894
207	0x3d03bc79	0.032162163
208	0xbb2dc677	-0.0026516
209	0xbc437ebe	-0.011932073
210	0x3cf512ac	0.02991613
211	0xbd39686f	-0.04526561
212	0xbcced56e	-0.025248256
213	0x3d2124a1	0.039341573
214	0x3ca5933e	0.020211812
215	0x3d94345a	0.07236548
216	0x3d41a0e8	0.047272593
217	0x3d90e428	0.07074767
218	0xbcd38dab	-0.025824388
219	0xbc0d0812	-0.008607881
220	0xbbd97cc3	-0.006637187
221	0x3d421010	0.0473786
222	0xbd488725	-0.04895701
223	0xbcf64fdb	-0.030067375
224	0x3c80b17a	0.015709627
225	0x3c8ab97c	0.016934149
226	0xbd041cff	-0.032254215
227	0xba8ca290	-0.00107296
228	0x3d3ac1ee	0.045595102
229	0x3d8aa265	0.067692555
230	0xbc4a6820	-0.012353927
231	0x3d85f738	0.06541294
232	0xbd2153cf	-0.039386567
233	0x3b06db75	0.0020577584
234	0xbc025424	-0.007954631
235	0xbc4ae4d9	-0.012383663
236	0xbd19ff9e	-0.03759729
237	0x3d3bd8e4	0.04586114
238	0xbd629958	-0.05532202
239	0x3d17cdac	0.03706138
240	0x3d77b64b	0.060476582
241	0xbd8bfb8d	-0.06835089
242	0xbd90acbd	-0.07064197
243	0xbc21a487	-0.0098658865
244	0xbd7d97ec	-0.061912462
245	0x3ca4f8fa	0.020138253
246	0xbcc8d66e	-0.02451631
247	0xbd0ac693	-0.03388078
248	0x3d0ed0b7	0.034867015
249	0x3d51f55c	0.051259384
250	0x3d41f106	0.047349
251	0xbcebdde9	-0.028792338
252	0xbd7c0cb4	-0.061535552
253	0x3d3e14c2	0.046406515
254	0x3b590e91	0.0033120255
255	0x3d77d4d8	0.060505718

module.model.1.model.0.bias f4 [64]
0	0x3a2d3212	0.00066068873
1	0x3a9d2ec9	0.0011992092
2	0x3a111e28	0.00055358047
3	0x3a8d3a0b	0.0010774744
4	0x3a68a382	0.0008874462
5	0x3a5d12b0	0.00084332656
6	0x3a6618ab	0.00087774795
7	0x3a86149c	0.0010229531
8	0x3a783f57	0.00094698876
9	0x3abd4faf	0.0014443303
10	0x3a6148ee	0.0008593936
11	0x3a60dae2	0.0008577538
12	0x3a4693be	0.0007575116
13	0x3a783f0e	0.0009469845
14	0x3a7a66a6	0.0009552039
15	0x3a976b93	0.0011552445
16	0x3a91b276	0.0011115808
17	0x3a3ed392	0.0007279451
18	0x3aae8f6e	0.0013317892
19	0x3ac23b72	0.0014818741
20	0x3aa2c7ca	0.0012419161
21	0x3acd4585	0.0015660977
22	0x3a992e89	0.0011686842
23	0x3aa4dd75	0.0012578206
24	0x3a7fcf77	0.00097583927
25	0x3a92c646	0.0011198006
26	0x3a6a7822	0.0008944293
27	0x3a180a49	0.00057998725
28	0x3ab7267b	0.001397326
29	0x3a7f0dfb	0.0009729561
30	0x3aa67c51	0.0012701844
31	0x3abb9aeb	0.0014313137
32	0x3a7a55cf	0.00095495296
33	0x3a823ad5	0.0009935746
34	0x3aabf906	0.0013120479
35	0x3a1e87e3	0.00060474704
36	0x3a0e633c	0.0005431657
37	0x3a6360d3	0.0008673791
38	0x3a242380	0.00062613934
39	0x39ec2358	0.0004503976
40	0x3a3b9bea	0.0007156717
41	0x3aa710e7	0.0012746126
42	0x3a42edd0	0.00074359495
43	0x3ae0297a	0.0017102205
44	0x3a5c7bea	0.00084107986
45	0x3aa3fa7c	0.0012510563
46	0x3a86845b	0.0010262834
47	0x3a93560c	0.0011240854
48	0x3aa3fd0a	0.0012511325
49	0x3a0ff171	0.00054909947
50	0x3a5c27b5	0.0008398251
51	0x3a185371	0.00058107736
52	0x3a7e5911	0.0009702603
53	0x3a97768b	0.0011555714
54	0x3a9b24a0	0.0011836477
55	0x3a11d86d	0.0005563561
56	0x3a5ebb79	0.00084965635
57	0x3a69f66a	0.0008924963
58	0x39b98a34	0.0003538892
59	0x3a334170	0.0006838059
60	0x3a505c90	0.0007948363
61	0x3aa8abc9	0.0012868579
62	0x3a836e38	0.0010027355
63	0x3ab428a3	0.0013745021

module.model.1.model.1.weight f4 [64]
0	0x3f7faf6b	0.9987704
1	0x3f7fd4c4	0.9993403
2	0x3f802562	1.0011408
3	0x3f8026b8	1.0011816
4	0x3f800011	1.000002
5	0x3f7fb4a0	0.99884987
6	0x3f8018e6	1.0007598
7	0x3f8012ea	1.0005772
8	0x3f7fbf8c	0.9990165
9	0x3f8036e7	1.0016755
10	0x3f801ee9	1.0009433
11	0x3f7fa99a	0.99868166
12	0x3f7fd998	0.99941397
13	0x3f7fe73c	0.9996221
14	0x3f801bc8	1.0008478
15	0x3f7feed9	0.9997383
16	0x3f7fe3ee	0.9995717
17	0x3f80181a	1.0007355
18	0x3f801829	1.0007373
19	0x3f7faf7d	0.9987715
20	0x3f7fac12	0.99871933
21	0x3f7fd88f	0.9993982
22	0x3f7fd7a0	0.9993839
23	0x3f7ffacb	0.99992055
24	0x3f7fabfe	0.99871814
25	0x3f7fe06d	0.9995182
26	0x3f7fd793	0.99938315
27	0x3f7fd7d1	0.99938685
28	0x3f7ff000	0.99975586
29	0x3f8017b6	1.0007236
30	0x3f800cee	1.0003946
31	0x3f7fe682	0.999611
32	0x3f800052	1.0000098
33	0x3f802af0	1.0013103
34	0x3f8025a7	1.001149
35	0x3f7f8ed7	0.9982733
36	0x3f801ed0	1.0009403
37	0x3f800c27	1.0003709
38	0x3f8010e2	1.0005152
39	0x3f801c54	1.0008645
40	0x3f7feafe	0.99967945
41	0x3f800d97	1.0004147
42	0x3f8023e6	1.0010955
43	0x3f7fae7f	0.99875635
44	0x3f7fbd11	0.9989787
45	0x3f801173	1.0005325
46	0x3f7fd2c0	0.99930954
47	0x3f7fe699	0.9996124
48	0x3f7fc064	0.9990294
49	0x3f80190f	1.0007647
50	0x3f7fd9ab	0.9994151
51	0x3f7fc2b0	0.99906445
52	0x3f8012f9	1.000579
53	0x3f800f11	1.0004598
54	0x3f8019c6	1.0007865
55	0x3f80068e	1.0002
56	0x3f8029f3	1.0012802
57	0x3f7ffdaa	0.99996436
58	0x3f7ff30c	0.99980235
59	0x3f7fe3a7	0.99956745
60	0x3f8019cc	1.0007873
61	0x3f8005ce	1.0001771
62	0x3f8017e4	1.0007291
63	0x3f7fe5a5	0.99959785

module.model.1.model.1.bias f4 [64]
0	0xba80ff45	-0.0009841701
1	0xba9efab8	-0.0012129163
2	0x3ae9075a	0.001777868
3	0x3a97cdb9	0.0011581696
4	0x3aa5bfc6	0.0012645654
5	0xba56258e	-0.0008169048
6	0x3ac82ed2	0.0015272743
7	0x3a234826	0.00062287075
8	0xbadad3ad	-0.0016695164
9	0x3a518629	0.00079927087
10	0x37e6e831	2.752626e-05
11	0xbab1edd5	-0.0013574908
12	0x38a4ee1c	7.864481e-05
13	0xba695cb2	-0.00089020573
14	0x3840f805	4.6007353e-05
15	0x3a825497	0.0009943423
16	0xba4815dc	-0.0007632652
17	0x39cd2992	0.0003913162
18	0xb8b2c2b8	-8.5239706e-05
19	0xba9f07b7	-0.0012133037
20	0xbaca9291	-0.0015455057
21	0xbab2b7aa	-0.0013635058
22	0x38817d2e	6.174516e-05
23	0xbab5379d	-0.0013825778
24	0xbac5cb0b	-0.0015090419
25	0x3a6eb3e0	0.0009105783
26	0x39afded0	0.0003354461
27	0xb88b2bdb	-6.636205e-05
28	0xb922b744	-0.00015517796
29	0x3a776f31	0.0009438871
30	0xbad2ac08	-0.0016072998
31	0xb9f5cefa	-0.0004688425
32	0xba835e20	-0.0010022558
33	0x39b4efb0	0.00034510856
34	0x39a2447d	0.00030950076
35	0xba29a4c3	-0.000647139
36	0x3a72880a	0.0009251839
37	0x3a487925	0.00076474465
38	0x3a75cede	0.0009376834
39	0x3abad01c	0.0014252695
40	0x3acf4d0d	0.001581581
41	0x3ae012d1	0.0017095451
42	0x3aa0dafe	0.0012272296
43	0xbac4c991	-0.0015013685
44	0x3aa8e901	0.0012886823
45	0x39b1f00a	0.00033938914
46	0x3aaa3717	0.0012986389
47	0xbaa0df3a	-0.0012273558
48	0x3a52a6e5	0.00080357335
49	0x3abac56f	0.0014249514
50	0x398c8eaf	0.00026809188
51	0x3af95686	0.0019022978
52	0x38ea7940	0.00011180574
53	0x3ac78200	0.0015221238
54	0x39d2e0da	0.0004022185
55	0x3a03857c	0.0005017144
56	0x3a7f7036	0.0009744199
57	0x3abcdcf6	0.0014409113
58	0x3ad1728f	0.0015979576
59	0x3ac53b20	0.0015047528
60	0x39d5872f	0.00040727246
61	0xb8a2a331	-7.755159e-05
62	0xb8e7a1a5	-0.00011045047
63	0xbaa76460	-0.0012771003

module.model.1.model.1.running_mean f4 [64]
0	0x3a87284c	0.0010311692
1	0x3b0a78af	0.0021129062
2	0xb9154b9a	-0.00014237911
3	0x3a71fe8b	0.000923135
4	0x3a775e99	0.00094363984
5	0x3b3904c4	0.00282316
6	0x3ab46ee8	0.0013765963
7	0xbb2c3246	-0.0026275082
8	0xba6cb2b3	-0.0009029314
9	0x3a4a5e6d	0.0007719759
10	0x3a70b4c4	0.00091822096
11	0x3b4d9ce9	0.0031374043
12	0x3a0d87be	0.00053989503
13	0x3a01028a	0.0004921338
14	0x3aab696f	0.0013077686
15	0xbb088a75	-0.002083448
16	0x3a2b5fd2	0.00065374107
17	0x3a6d7dbe	0.00090595696
18	0x3b8e8190	0.004348941
19	0x38cba36f	9.710236e-05
20	0x3a559a88	0.0008148332
21	0x3a7eb469	0.0009716214
22	0x3b059cc2	0.0020387624
23	0x3b14bc42	0.0022695218
24	0x3b151171	0.0022745992
25	0x3ba98bb0	0.0051741228
26	0x37a0c1cc	1.916373e-05
27	0x39eab0ce	0.00044763688
28	0x3b70724e	0.0036689225
29	0x3b55143e	0.0032513286
30	0xbb4f5874	-0.0031638416
31	0x3b2f9019	0.002678877
32	0x3b080366	0.0020753979
33	0x3a9d79f3	0.0012014493
34	0x393ed3c7	0.00018198705
35	0x3a4778ab	0.00076092285
36	0x391a437a	0.00014711721
37	0x3a54d7b8	0.0008119303
38	0x38389866	4.401095e-05
39	0xb980aa13	-0.00024540778
40	0xbb36cbda	-0.00278925
41	0x3b47bfe5	0.0030479368
42	0xb9bb93ca	-0.0003577753
43	0x3b068411	0.0020525495
44	0xb9beac1e	-0.0003636786
45	0x3b029e9c	0.0019930964
46	0x3aafa2b7	0.0013399933
47	0x3b7d36a4	0.0038637305
48	0xbaa81da7	-0.001282622
49	0xbb1f9ed4	-0.0024356144
50	0x39e55943	0.0004374479
51	0x3aa0c5c0	0.0012265965
52	0x39ae0725	0.0003319319
53	0xba05ab70	-0.00050990935
54	0x39881178	0.00025952957
55	0x3a7e5d3f	0.0009703226
56	0x3a7cb78d	0.00096403883
57	0x3aff0890	0.0019457508
58	0xbb4905a7	-0.0030673535
59	0x3943ff67	0.00018691794
60	0x3b1150bd	0.0022173368
61	0x3b413011	0.0029478113
62	0xbab55b95	-0.0013836498
63	0x3ad18f9a	0.0015988231

module.model.1.model.1.running_var f4 [64]
0	0x3833a034	4.2826126e-05
1	0x375e3664	1.3244895e-05
2	0x380afbbc	3.313621e-05
3	0x368fb61f	4.282934e-06
4	0x37c8b7a3	2.392737e-05
5	0x3503f58d	4.9158626e-07
6	0x36dca8bb	6.5761537e-06
7	0x380c29f7	3.3417684e-05
8	0x36b3c427	5.357451e-06
9	0x38994fef	7.310497e-05
10	0x34cc93b1	3.810542e-07
11	0x3892a9ea	6.9934715e-05
12	0x36a9b97e	5.0581866e-06
13	0x368624c4	3.9977913e-06
14	0x37f19d03	2.8802553e-05
15	0x382bd72a	4.0969964e-05
16	0x38257f8d	3.9457856e-05
17	0x3892714c	6.982926e-05
18	0x37793ad6	1.4855255e-05
19	0x34f5ff25	4.5820448e-07
20	0x3621c45c	2.4105166e-06
21	0x37b1d489	2.1199014e-05
22	0x3811522a	3.4647215e-05
23	0x393c0a79	0.00017932979
24	0x365e8a6f	3.3161157e-06
25	0x3850881e	4.9717833e-05
26	0x36f34db7	7.2510115e-06
27	0x35bfbb7d	1.4285175e-06
28	0x3770d809	1.4355414e-05
29	0x38e0410c	0.00010693268
30	0x37b9b498	2.2137814e-05
31	0x36a415ec	4.890133e-06
32	0x3898265d	7.2550705e-05
33	0x3900f587	0.00012298497
34	0x3916e0c4	0.00014388846
35	0x35d3ea91	1.5788993e-06
36	0x36e002fa	6.6760667e-06
37	0x38caa5d3	9.662998e-05
38	0x372a2334	1.0140986e-05
39	0x37a7a28b	1.9983641e-05
40	0x3844068c	4.673614e-05
41	0x35328cf1	6.6515264e-07
42	0x38ceb651	9.8568045e-05
43	0x34fdd063	4.7276544e-07
44	0x372a3d4e	1.0147063e-05
45	0x385d524e	5.276716e-05
46	0x37c570c9	2.353675e-05
47	0x384729b1	4.7484125e-05
48	0x360aa545	2.0659802e-06
49	0x3836d1d9	4.3587617e-05
50	0x37000a0c	7.631734e-06
51	0x378a9623	1.6520795e-05
52	0x34b89592	3.4381497e-07
53	0x382bda41	4.097284e-05
54	0x361ee197	2.3675145e-06
55	0x36af8d14	5.23183e-06
56	0x38abb6e2	8.18798e-05
57	0x37baa223	2.2248429e-05
58	0x383943e5	4.417067e-05
59	0x380b322e	3.3186916e-05
60	0x347c0f0e	2.3474806e-07
61	0x3880a7d5	6.134777e-05
62	0x35a9f24b	1.2661998e-06
63	0x38021c39	3.10207e-05

module.model.1.model.3.weight f4 [64, 64, 3, 3]
0	0x3c0cbe5c	0.008590307
1	0x3d1a3eae	0.037657432
2	0xbd527888	-0.05138448
3	0xbd40c819	-0.047065828
4	0x39c4603f	0.00037455742
5	0xbb091a55	-0.0020920236
6	0xbd0bff77	-0.034179177
7	0xbd80dcb2	-0.06292094
8	0x3d84d264	0.06485441
9	0x3d5bd490	0.053669512
10	0xbd511056	-0.05104097
11	0x3d5bc173	0.053651284
12	0xbd7ea8c0	-0.06217265
13	0xbd2ce193	-0.04220731
14	0xbd4bb0ca	-0.049729146
15	0xbbca768c	-0.0061786827
16	0x3d24ba9f	0.04021704
17	0x3cf3c19c	0.029755406
18	0xbd7a8052	-0.061157532
19	0xbcfb32d2	-0.030663881
20	0xbaaaa240	-0.0013018325
21	0xbcb683d3	-0.022279656
22	0xbd1cb181	-0.03825522
23	0xbd7d69ad	-0.06186836
24	0x3d235820	0.039878964
25	0xbd133b48	-0.035945207
26	0xbd7ab2b2	-0.061205573
27	0xbd129831	-0.035789672
28	0xbc30922e	-0.010777039
29	0x3d4a04ba	0.049320914
30	0x3d8ec82a	0.06971772
31	0x3c9cdb3c	0.019147508
32	0xbd1a4890	-0.037666857
33	0x3d878b80	0.066184044
34	0xbd7c9f1c	-0.061675176
35	0x3b69a881	0.0035653415
36	0xbc8d4318	-0.017243907
37	0xbcf0b886	-0.029384863
38	0xbd3549fd	-0.044260014
39	0x3c31ea0c	0.010859024
40	0x3bfde93d	0.0077487514
41	0x3b027153	0.0019903972
42	0xbcdf8b24	-0.027288027
43	0x3d3565a6	0.044286393
44	0xbcdf3542	-0.027247075
45	0x3ceb6fe6	0.02873988
46	0xbd084f24	-0.0332786
47	0x3c8ef633	0.017451381
48	0xbd54b211	-0.05192763
49	0x3d250f1b	0.04029761
50	0xbd1b611c	-0.037934408
51	0xbcc16374	-0.023606993
52	0xbcd7b1e9	-0.026329951
53	0xbd34d5ef	-0.044149335
54	0xbc6b59eb	-0.0143647
55	0xbcf545fa	-0.029940594
56	0xbc600ddf	-0.013675182
57	0x3d2c37de	0.042045467
58	0xbd4c3252	-0.049852677
59	0x3cf028cb	0.029316327
60	0x3d3418c8	0.043968946
61	0xbc258a74	-0.010103811
62	0xbd8ece4f	-0.06972944
63	0x3d007440	0.031360865
64	0x3c811e91	0.015761646
65	0xbcabd8cb	-0.020977398
66	0x3d8640f9	0.06555361
67	0xbd60f377	-0.054919686
68	0x3aa1dfb6	0.0012349996
69	0xbcee8e73	-0.02912066
70	0xbd00edd0	-0.031476796
71	0x3c78128f	0.015141143
72	0x3d03facf	0.03222161
73	0x3d859337	0.0652222
74	0x3d502e33	0.05082531
75	0xbd82d2da	-0.06387873
76	0xbd1af728	-0.037833363
77	0x3d4d342d	0.050098587
78	0xbd67b332	-0.05656738
79	0x3d04154c	0.032246873
80	0xbd6c2e34	-0.05766125
81	0x3d144674	0.0362
82	0x3d85950c	0.06522569
83	0xbd041711	-0.03224856
84	0xbd6895ca	-0.056783475
85	0xbd299c27	-0.041408684
86	0xbcf7f690	-0.030268937
87	0xbbd75049	-0.00657085
88	0x3d91900e	0.071075544
89	0x3caed705	0.021342764
90	0x3d5b0b97	0.05347785
91	0x3d6d3cf9	0.057919476
92	0xbd5aa4d1	-0.053379837
93	0xbcf4493d	-0.029820079
94	0x3cfd4d0a	0.030920524
95	0x3ca749a8	0.020420864
96	0xbd2b1172	-0.041764684
97	0xbc909559	-0.01764934
98	0xbd1b5203	-0.03792001
99	0x3d4e5e8a	0.05038313
100	0xbcc145e4	-0.023592897
101	0xbd8b626d	-0.068058826
102	0x3d017d5a	0.031613685
103	0x3d02bafc	0.031916603
104	0x3cac7edd	0.021056587
105	0xbc992509	-0.018694418
106	0xbd1e6b66	-0.038676642
107	0xba11579f	-0.00055443676
108	0xbcdad177	-0.026711209
109	0x3d249b26	0.040187024
110	0x3d64c509	0.05585197
111	0x3d69e84f	0.057106312
112	0x3b3dcbb3	0.0028960526
113	0xbbb6960a	-0.0055720853
114	0xbce9d4ec	-0.028543912
115	0x3d65e8ca	0.056130208
116	0x3c4e9462	0.012608619
117	0xbd04cbf6	-0.032421075
118	0x3cd8f44b	0.026483675
119	0x3d30103c	0.042984232
120	0xbcc6da09	-0.02427389
121	0x3d93006d	0.071778156
122	0xbc006826	-0.007837331
123	0xbbb6235f	-0.005558416
124	0x3cb4494d	0.022007609
125	0xbd8ed24d	-0.069737054
126	0x3d8f6306	0.07001309
127	0xbc9a3181	-0.018822433
128	0xbcc77364	-0.024347015
129	0xbd792470	-0.060825765
130	0xbd2e235d	-0.042514194
131	0xbd1ae61a	-0.0378171
132	0xbcbe85f2	-0.02325723
133	0x3d515220	0.05110371
134	0xbd2ca033	-0.042144965
135	0xbbd3cfdf	-0.006463989
136	0x3d6ef7ce	0.058341794
137	0xbca1210f	-0.019669084
138	0x3b04133c	0.0020153066
139	0xbd4b5f05	-0.049651165
140	0x3b38c15a	0.0028191418
141	0xbd68001f	-0.05664074
142	0x3d58c685	0.052923698
143	0x3bddf5b3	0.0067736744
144	0xbd2d33fe	-0.04228591
145	0xbd0d0efe	-0.034438126
146	0x3cb7ac07	0.022420896
147	0x3bfc3c3a	0.0076976093
148	0xbd02d1a1	-0.0319382
149	0xbca82f22	-0.020530287
150	0x3ced505f	0.028968988
151	0x3c63eb04	0.013911013
152	0x3d83b8cf	0.06431734
153	0xbcf7a080	-0.0302279
154	0x3d1d7279	0.038439248
155	0xbced019c	-0.028931431
156	0x3b1a8032	0.0023574946
157	0xbd00265e	-0.03128659
158	0xbd8dcddc	-0.0692403
159	0x3d136fca	0.035995282
160	0x3c75f083	0.015010956
161	0x3cab5c8d	0.020918155
162	0x3c8784f2	0.016542885
163	0xbd67135c	-0.056414947
164	0x3d4aba00	0.04949379
165	0xbd5e44f7	-0.05426499
166	0x3d72bee0	0.059264064
167	0xbc5603a5	-0.013062392
168	0xbd3c8067	-0.04602089
169	0xb47b97fd	-2.343149e-07
170	0xbd7d3f40	-0.061827898
171	0x3ccc95df	0.024973808
172	0x3c794315	0.0152137475
173	0x3c8b4be1	0.017003955
174	0x3d1f0a1d	0.038828004
175	0xbb2d0e68	-0.0026406292
176	0xbbc3f633	-0.005980277
177	0xbc97594c	-0.018475197
178	0x3ba04447	0.004890952
179	0xbc7af54c	-0.015317272
180	0x3d094da0	0.033521295
181	0xbd4d0350	-0.050051987
182	0x3d25eb1d	0.040507425
183	0xbd02e2f8	-0.031954736
184	0xbd751b55	-0.05984052
185	0xbcf668ca	-0.030079264
186	0xbd9055a4	-0.07047585
187	0x3cc37217	0.023858113
188	0x3d850f24	0.064970285
189	0x3d14d55b	0.036336284
190	0x3c9f3fc2	0.019439582
191	0x3ce5d872	0.02805731
192	0x3baf1089	0.0053425473
193	0xbd4c4b6e	-0.049876623
194	0x3d61369c	0.05498372
195	0x3d716995	0.05893858
196	0x3d491b05	0.049098033
197	0x3d166ca2	0.036724694
198	0xbcbfdcee	-0.023420777
199	0xbd8eb4eb	-0.06968101
200	0xbbb6793f	-0.005568653
201	0x3c1d1b3b	0.009589012
202	0xbc64c508	-0.013962992
203	0xbbad68f1	-0.005292051
204	0xbd1fad30	-0.038983524
205	0xbd3faf41	-0.046797995
206	0x3bd298a2	0.0064268867
207	0xbc90e2ff	-0.017686365
208	0x3d9528a5	0.07283143
209	0x3d0ef1f9	0.03489873
210	0x3cfef7c0	0.031123996
211	0x3d12c89f	0.03583586
212	0x3d0785f2	0.033086725
213	0x3cb73f59	0.022369074
214	0xbd35b33b	-0.04436038
215	0x3d6721ff	0.056428906
216	0x3d16c5c0	0.036809683
217	0xbd8378e3	-0.06419542
218	0xbd90f480	-0.07077885
219	0xbd0a05b5	-0.03369685
220	0xbd1fc60d	-0.039007235
221	0x3b752690	0.0037407018
222	0xbb4e107e	-0.0031442936
223	0xbbe44c23	-0.006967084
224	0x3ba54660	0.0050437897
225	0xbd230d8b	-0.039807837
226	0x3d3b3ac8	0.045710355
227	0x3c4eba74	0.012617696
228	0xbd8cfe47	-0.06884437
229	0xbd367042	-0.04454065
230	0x3cd267cf	0.025684265
231	0x3d31776e	0.043326788
232	0x3d5cc2d1	0.05389673
233	0xbd31898d	-0.04334407
234	0x3d84b700	0.06480217
235	0xbd430c83	-0.047619354
236	0x3d8f67ce	0.07002221
237	0x3d6496f6	0.05580803
238	0x3d6a8088	0.057251483
239	0xbc8970ce	-0.016777422
240	0xbcbfacc9	-0.02339782
241	0x3d890574	0.06690493
242	0x3be8e8b0	0.0071078166
243	0xbd6dada6	-0.058026932
244	0xbb9ee77d	-0.004849373
245	0x3d3d4510	0.04620844
246	0x3cd760de	0.026291307
247	0xbd102102	-0.03518773
248	0xbd70cfd3	-0.058791947
249	0xbd3f73e9	-0.0467414
250	0xbcefe0aa	-0.029281933
251	0xbcb63de0	-0.022246301
252	0x3d5e033d	0.054202307
253	0xbd8a3583	-0.06748488
254	0xbcf17ca8	-0.029478386
255	0xbd25f8e4	-0.040520564

module.model.1.model.3.bias f4 [64]
0	0x3a7ab0f7	0.0009563113
1	0x3a60bb2d	0.0008572813
2	0x3a83ec62	0.0010064954
3	0x3a83f8e8	0.0010068687
4	0x3a851b4f	0.0010155233
5	0x3a7b5980	0.00095882267
6	0x3a7c2bf4	0.00096195866
7	0x3a88fc2b	0.0010451128
8	0x3a7b71e9	0.0009591864
9	0x3a7fc440	0.00097567216
10	0x3a88a8ca	0.001042628
11	0x3a84c098	0.0010128198
12	0x3a651d2c	0.00087400037
13	0x3a81341d	0.000985745
14	0x3a81250f	0.0009852963
15	0x3a818588	0.0009881714
16	0x3a76b7d2	0.00094115466
17	0x3a64c044	0.00087261596
18	0x3a5ceeaf	0.00084279006
19	0x3a885ea9	0.0010404187
20	0x3a7efbc1	0.00097268453
21	0x3a8108f5	0.0009844588
22	0x3a832212	0.001000466
23	0x3a98306b	0.0011611109
24	0x3a8793da	0.0010343746
25	0x3a827de9	0.0009955737
26	0x3a916d6a	0.001109523
27	0x3a81a188	0.0009890059
28	0x3a840941	0.0010073559
29	0x3ab7cfcc	0.001402372
30	0x3a8887c2	0.0010416436
31	0x3a85a349	0.0010195757
32	0x3a80b61c	0.0009819898
33	0x3a796fae	0.0009515238
34	0x3a7c9024	0.0009634516
35	0x3a80c5d3	0.0009824581
36	0x3a82402f	0.0009937341
37	0x3a821ca5	0.000992675
38	0x3a866245	0.0010252675
39	0x3a847403	0.0010105375
40	0x3a8f313e	0.001092471
41	0x3a6ca8f8	0.0009027864
42	0x3a8a3638	0.0010544723
43	0x3a6f4243	0.0009127
44	0x3a7c71e1	0.00096300064
45	0x3a86e0f5	0.0010290431
46	0x3a84195a	0.0010078356
47	0x3a66962f	0.0008796183
48	0x3a649d4f	0.00087209506
49	0x3a85195c	0.0010154652
50	0x3a80d245	0.000982829
51	0x3a8022cb	0.0009775994
52	0x3a879aaf	0.0010345782
53	0x3a8171e4	0.0009875861
54	0x3a8f6dfe	0.0010942814
55	0x3a82fbb7	0.000999323
56	0x3a876782	0.001033053
57	0x3a810d84	0.0009845947
58	0x3a80177e	0.0009772626
59	0x3a6fb3f9	0.00091439445
60	0x3a8224ed	0.0009929218
61	0x3a77532e	0.0009434697
62	0x3a84ac9e	0.0010122245
63	0x3a82253a	0.0009929307

module.model.1.model.4.weight f4 [64]
0	0x3f80393a	1.0017464
1	0x3f803b38	1.0018072
2	0x3f7facbc	0.99872947
3	0x3f8008fc	1.0002742
4	0x3f7fe487	0.9995808
5	0x3f80037f	1.0001067
6	0x3f802d04	1.0013738
7	0x3f7f8fb0	0.99828625
8	0x3f80377f	1.0016936
9	0x3f7fe119	0.99952847
10	0x3f7fcfa6	0.9992622
11	0x3f7fb72b	0.9988887
12	0x3f803ca4	1.0018506
13	0x3f802aa8	1.0013018
14	0x3f803165	1.0015074
15	0x3f800715	1.0002161
16	0x3f7fdb06	0.9994358
17	0x3f802b2d	1.0013176
18	0x3f802dc6	1.0013969
19	0x3f7fac6c	0.9987247
20	0x3f802900	1.0012512
21	0x3f802630	1.0011654
22	0x3f8005a8	1.0001726
23	0x3f7f8dd3	0.9982578
24	0x3f7f874b	0.99815816
25	0x3f80158c	1.0006576
26	0x3f7fa428	0.9985986
27	0x3f802e01	1.0014039
28	0x3f801543	1.0006489
29	0x3f7f93c2	0.99834836
30	0x3f7fb48a	0.99884856
31	0x3f7fc51e	0.9991015
32	0x3f800f71	1.0004712
33	0x3f803ba5	1.0018202
34	0x3f7faee3	0.9987623
35	0x3f8032a6	1.0015457
36	0x3f8014bc	1.0006328
37	0x3f7ffe1a	0.99997103
38	0x3f7fde42	0.99948514
39	0x3f7fe8a3	0.9996435
40	0x3f7f8eba	0.9982716
41	0x3f8040ad	1.0019737
42	0x3f7f8fdb	0.9982888
43	0x3f8035c5	1.0016409
44	0x3f803ec8	1.0019159
45	0x3f7fc6fa	0.9991299
46	0x3f7fdea4	0.999491
47	0x3f803957	1.0017499
48	0x3f803b4a	1.0018094
49	0x3f7fcc20	0.99920845
50	0x3f80127d	1.0005642
51	0x3f80354c	1.0016265
52	0x3f803490	1.0016041
53	0x3f802f7c	1.0014491
54	0x3f7fb123	0.99879664
55	0x3f802a89	1.0012981
56	0x3f7fa42c	0.9985988
57	0x3f802b4c	1.0013213
58	0x3f7ff574	0.99983907
59	0x3f803a03	1.0017704
60	0x3f803403	1.0015873
61	0x3f800b72	1.0003493
62	0x3f80356a	1.0016301
63	0x3f8021a1	1.0010263

module.model.1.model.4.bias f4 [64]
0	0x3ae4abbb	0.0017446199
1	0x3aeec0d8	0.0018215431
2	0xbad9218f	-0.0016565787
3	0xbac88e98	-0.0015301285
4	0xbac63d69	-0.0015124503
5	0x3aa62954	0.0012677112
6	0x3ac77f97	0.001522052
7	0xba50ccdf	-0.00079650985
8	0x3ae21d9a	0.0017251254
9	0xba96f088	-0.0011515776
10	0x3ad43ef1	0.0016193074
11	0x39c4f7dc	0.00037568703
12	0x3aef0286	0.0018235005
13	0x3ac66e98	0.0015139161
14	0x3ae08fe3	0.0017132725
15	0x36f622c4	7.3354186e-06
16	0x3a86924b	0.0010266987
17	0x3ae37390	0.0017353166
18	0x3aed3b6e	0.0018099376
19	0xbacd4a87	-0.001566247
20	0x3ae2aa14	0.0017293119
21	0x399f74ad	0.00030413773
22	0xbaefbad9	-0.0018289938
23	0xbaebd6ed	-0.001799313
24	0xbaf493e9	-0.0018659803
25	0x3a285620	0.0006421525
26	0xbade638b	-0.0016966922
27	0x3ae7d8be	0.0017688496
28	0x3a2862aa	0.00064233935
29	0xbaee0afc	-0.0018161233
30	0xbae1465d	-0.0017187108
31	0xbac1f16a	-0.0014796678
32	0xb9ad461e	-0.00033049373
33	0x3aee6cf0	0.0018190425
34	0xbab2cbd8	-0.0013641072
35	0x3acf62ac	0.0015822253
36	0x3ae5128c	0.0017476841
37	0x39fffbce	0.00048825
38	0xb91f507a	-0.00015193401
39	0xba116689	-0.000554659
40	0xbad36b49	-0.0016129996
41	0x3b03d7f8	0.002011774
42	0xbad7ce12	-0.0016464612
43	0x3aee53c3	0.0018182922
44	0x3ae6f44e	0.0017620416
45	0xbacebe9f	-0.0015773362
46	0x3aa2a545	0.0012408873
47	0x3aec7d99	0.0018042802
48	0x3aeee711	0.0018226822
49	0xbab919f3	-0.0014122113
50	0x3ae51bdc	0.0017479616
51	0x3af4175e	0.0018622687
52	0x3aec7527	0.0018040285
53	0x3ad6984f	0.0016372296
54	0xbad1e5fd	-0.0016013976
55	0x3ad62965	0.0016339241
56	0xbae9d298	-0.0017839251
57	0x3ae4e73a	0.001746393
58	0xba382ec8	-0.0007026014
59	0x3ae49053	0.0017438032
60	0xb9b0590b	-0.00033635678
61	0x3acc3aca	0.0015581485
62	0x3ae9c0d5	0.0017833958
63	0xbab540f4	-0.0013828562

module.model.1.model.4.running_mean f4 [64]
0	0xbee6cc5b	-0.45077786
1	0xbf2813a3	-0.65654963
2	0x3e50b2bf	0.20380686
3	0x3d2912a8	0.041277558
4	0x3ed9d7e9	0.4254754
5	0x3d92b855	0.07164065
6	0xbecd1c16	-0.4006049
7	0xbd9f6aef	-0.07784068
8	0x3e992710	0.29912615
9	0x3e8b0211	0.27150014
10	0xbeb03964	-0.34418786
11	0x3e230184	0.15918547
12	0xbeabd747	-0.3356268
13	0x3e2fc70f	0.17165779
14	0xbd03d54f	-0.03218585
15	0x3e736ef3	0.23772793
16	0x3e8bfe85	0.2734262
17	0xbdddb5bd	-0.108256795
18	0xbefb60ad	-0.49097195
19	0x3c7d0252	0.015442448
20	0xbe1a1d42	-0.15050223
21	0x3e58d892	0.21176365
22	0x3dd5eb1b	0.104452334
23	0xbd21d2f5	-0.039507825
24	0x3ec2ad16	0.3802268
25	0xbcfdb5b4	-0.030970432
26	0x3b389f2e	0.002817105
27	0x3e984a46	0.29744166
28	0x3ea2c3d1	0.3179002
29	0x3a9de7b0	0.0012047198
30	0x3e8ce8a9	0.27521256
31	0x3e899fa3	0.26879606
32	0xbe553299	-0.20820083
33	0xbd824762	-0.063612714
34	0x3ed9cb4b	0.42537913
35	0x3e6ed0af	0.23321794
36	0xbe3d3bbc	-0.18479818
37	0xbec58580	-0.38578415
38	0x3e53595a	0.20639554
39	0xbe02bef1	-0.12768151
40	0xbec5d0f4	-0.3863598
41	0xbec5e890	-0.38653994
42	0xbe5eddf0	-0.2176435
43	0xbe715f97	-0.23571621
44	0xbf1a57d5	-0.6029027
45	0x3dd9f8b6	0.10643141
46	0xbd3af136	-0.045640193
47	0xbe8291f8	-0.2550199
48	0xbe0806de	-0.1328387
49	0x3d72c563	0.059270274
50	0xbf1c322a	-0.61014044
51	0xbdb30608	-0.08741385
52	0x3effb31c	0.49941337
53	0x3eab4e37	0.3345811
54	0x3df59432	0.11991157
55	0xbd932245	-0.07184271
56	0xbe77825d	-0.24170823
57	0x3e8b41b1	0.27198556
58	0x3e945ee8	0.28978658
59	0xbde9e259	-0.114201255
60	0x3c1eb5f8	0.009686939
61	0xbeae9f93	-0.3410612
62	0x3dbac8c9	0.09120328
63	0x3ca39136	0.019966703

module.model.1.model.4.running_var f4 [64]
0	0x3eb851f3	0.36000022
1	0x3e1e6c18	0.15470922
2	0x3ce3b6fe	0.027797218
3	0x3d07710f	0.033066805
4	0x3dc2ef9e	0.095183596
5	0x3d02e811	0.031959597
6	0x3f8c9972	1.0984328
7	0x3cd401cf	0.025879769
8	0x3ecf3aa9	0.40474442
9	0x3e9ece26	0.31016654
10	0x3d9b225a	0.075749114
11	0x3d1c5de1	0.038175467
12	0x3d3a44d2	0.04547579
13	0x3df76dd9	0.12081499
14	0x3f923384	1.1421971
15	0x3d199c5f	0.037502643
16	0x3d120ef6	0.0356588
17	0x3e71144f	0.23542903
18	0x3e243aaf	0.16038011
19	0x3f08eb2d	0.5348385
20	0x3e415cf0	0.18883109
21	0x3d1c7504	0.038197532
22	0x3c11e2fd	0.008904216
23	0x3e776003	0.2415772
24	0x3e3b0a61	0.18265678
25	0x3f2ce287	0.67533153
26	0x3ebbb2ab	0.3665975
27	0x3e067ec3	0.13134293
28	0x3eb0442f	0.3442702
29	0x3c81ef83	0.015861278
30	0x3ed8123b	0.4220141
31	0x3d03cbe2	0.03217686
32	0x3e6594ce	0.22420046
33	0x3e6940bc	0.227786
34	0x3e96fbac	0.29488885
35	0x3ef7cb67	0.4839737
36	0x3f7f331b	0.99687356
37	0x3ecd9cf8	0.4015882
38	0x3d127332	0.03575439
39	0x3eb5ae3b	0.3548449
40	0x3d5d1af1	0.05398077
41	0x3ddd4f67	0.108061604
42	0x3ef2b38f	0.47402617
43	0x3dba5a81	0.090992935
44	0x3f174126	0.59083784
45	0x3f8ac12e	1.0840204
46	0x3f1a5a6d	0.6029423
47	0x3d9c2532	0.07624282
48	0x3ce0343e	0.027368661
49	0x3ebdcf23	0.37072095
50	0x3f09b168	0.53786325
51	0x3e03c5ea	0.12868467
52	0x3e33cfa9	0.17559685
53	0x3e6aef57	0.22942863
54	0x3d369a25	0.044580597
55	0x3dd55b9f	0.10417866
56	0x3edb5348	0.42836976
57	0x3e5b6572	0.21425417
58	0x3efc4fd2	0.49279648
59	0x3f139e8b	0.5766379
60	0x3de39f7d	0.11114404
61	0x3ef85b8a	0.4850734
62	0x3e9df88a	0.30853683
63	0x3e8621fd	0.26197806

module.model.2.model.0.weight f4 [64, 64, 3, 3]
0	0xbd7c1f7b	-0.06155346
1	0xbca5e1fe	-0.020249363
2	0x3d03de70	0.032194555
3	0xbcef6b5b	-0.029225996
4	0x3d10750a	0.035267867
5	0xbcffa087	-0.031204475
6	0x3d5f4f97	0.054519262
7	0x3ca3efb4	0.02001176
8	0xbd1c0dc5	-0.03809907
9	0xbd515b0b	-0.051112216
10	0xbbce1d0b	-0.0062900833
11	0x3c6f78ff	0.01461625
12	0x3d6b990c	0.057519004
13	0x3d1a8996	0.03772887
14	0x3cca68f2	0.024708245
15	0xbcfdb415	-0.030969659
16	0xbd8e0df3	-0.06936254
17	0xbd6fb451	-0.058521573
18	0xbd22d999	-0.0397583
19	0x3d3a347d	0.045460213
20	0xbd739dd2	-0.05947668
21	0xbcac58d7	-0.021038456
22	0x3cd5d98f	0.026104717
23	0xbd7f1ab5	-0.06228133
24	0xba9eec8c	-0.001212494
25	0x3c9f7cba	0.019468654
26	0xbd15b87f	-0.036552902
27	0x3d76c139	0.060242865
28	0xbb1b4fc8	-0.0023698676
29	0xbd024b90	-0.031810343
30	0x3c6b4a18	0.014360927
31	0xbb15b694	-0.002284442
32	0x3cd3c6c6	0.025851618
33	0x3d926064	0.07147291
34	0xbd01df37	-0.031707015
35	0xbd883a1d	-0.06651709
36	0xbd1b481a	-0.03791056
37	0x3cf1ae06	0.029501926
38	0x3c501391	0.0126999775
39	0x3d9769e3	0.07393243
40	0xbcc86f10	-0.024467021
41	0xbd67288a	-0.056435145
42	0x3c6be756	0.0143984165
43	0xbd2e16b0	-0.042502105
44	0xbd82fa29	-0.063953705
45	0xbd92ab43	-0.07161572
46	0xbc113cb8	-0.008864574
47	0x3d319e07	0.043363597
48	0x3d7e63e4	0.062106982
49	0x3b0aa00f	0.0021152531
50	0xbd5c078d	-0.05371814
51	0x3d2bd25c	0.04194866
52	0x3bf6e622	0.007534758
53	0x3d403dfa	0.046934105
54	0x3ca9523f	0.0206691
55	0x3c78806a	0.015167335
56	0x3d451fa0	0.048125863
57	0x3c4e21b3	0.012581277
58	0xbcda7ab5	-0.02666984
59	0x3d860643	0.06544163
60	0xbcd7e0ca	-0.026352305
61	0x3d2a5b0b	0.04159073
62	0x3d88d5c0	0.066813946
63	0x3d8894d1	0.066690095
64	0x3d642369	0.055697832
65	0xbbc99bfe	-0.006152629
66	0xbb5e6bff	-0.0033938882
67	0xbd2d5d4a	-0.042325296
68	0xbc9ad8d9	-0.01890223
69	0xbb7d29e4	-0.0038629705
70	0xbd9559b1	-0.07292498
71	0xbd07b38d	-0.033130217
72	0xbccf8af1	-0.025334807
73	0x3d83b71e	0.06431411
74	0x3ae0fd96	0.0017165418
75	0xbc149ce0	-0.009070605
76	0x3ceaf561	0.028681459
77	0xbcd9d1f8	-0.026589379
78	0x3d835bdc	0.06414005
79	0xbd68cca1	-0.056835774
80	0xbd08a7e6	-0.033363245
81	0xbc9c4b01	-0.019078733
82	0x3d5b7153	0.05357487
83	0x3d4f3372	0.05058617
84	0x3d01584b	0.031578343
85	0xbd456f93	-0.04820211
86	0xbc62bf76	-0.013839593
87	0x3b3ab0ef	0.0028486808
88	0xbd6af917	-0.057366457
89	0xbd874764	-0.066054136
90	0x3d0be0d6	0.034149967
91	0xbd80c203	-0.06287005
92	0xbd240a56	-0.04004892
93	0xbb47a515	-0.0030463387
94	0xbbd84e50	-0.0066011325
95	0x3d6dca23	0.0580541
96	0x3d895d91	0.067072995
97	0xbd2a4b63	-0.0415758
98	0xbd93dd6e	-0.07219969
99	0xbd1965bf	-0.03745055
100	0xbd8ec0fd	-0.06970403
101	0xbd30ca71	-0.043161813
102	0xbd6b5756	-0.057456337
103	0xbcb7610d	-0.022385145
104	0x3cb58fed	0.022163356
105	0xbd8e9895	-0.069626965
106	0xbc0e1441	-0.008671821
107	0xbd534500	-0.051579475
108	0xbc8ae668	-0.01695557
109	0x3d802bd2	0.06258358
110	0x3d0afd11	0.03393275
111	0xbd563f7d	-0.05230664
112	0x3d365d3d	0.044522513
113	0xbc3146ea	-0.01082013
114	0xbd7d94c9	-0.06190947
115	0x3bc2a9b0	0.0059406385
116	0xbcbdd5b1	-0.023173185
117	0xbd492557	-0.049107876
118	0x3c7f3c0c	0.015578281
119	0x3d59700b	0.053085368
120	0xbd19c8a2	-0.037544854
121	0xbd51ce4a	-0.051222123
122	0x3cb23ac8	0.021756545
123	0x3c00d6d1	0.007863716
124	0x3c66574f	0.014058902
125	0x3cdac2c0	0.026704192
126	0x3d226765	0.039649386
127	0xbcd5bf35	-0.026092151
128	0x3d489038	0.048965663
129	0x3c8497e2	0.016185705
130	0xbc076cbb	-0.008265669
131	0x3d1a0f9b	0.03761254
132	0x3cb20e11	0.021735223
133	0x3cb713ce	0.02234831
134	0xbc4573de	-0.012051551
135	0xbc9df4ba	-0.019281734
136	0x3c9b7f33	0.018981552
137	0xbd0d77ef	-0.034538206
138	0xbc229fb9	-0.009925776
139	0xbd7a6bc8	-0.061137944
140	0x3d47ee91	0.0488115
141	0xbc160bf0	-0.00915812
142	0x3cd96750	0.026538521
143	0xbc9be88a	-0.019031782
144	0x3b5a37e7	0.003329748
145	0x3d8f07af	0.069838874
146	0x3ad49fe8	0.0016221972
147	0xbd87f089	-0.06637675
148	0x3d137f96	0.036010347
149	0x3d79c245	0.060976285
150	0x3d4fa92b	0.05069844
151	0xbd7f3253	-0.062303852
152	0xbd84c7f8	-0.064834535
153	0xbcb38013	-0.021911656
154	0x3c8babf2	0.017049763
155	0x3d74678c	0.059669062
156	0x3d25c809	0.04047397
157	0xbd90f676	-0.07078259
158	0x3d43d5e5	0.047811408
159	0xbd772a57	-0.060343113
160	0xbd6e91f6	-0.058244668
161	0xbc127c4b	-0.008940767
162	0x3b8595f8	0.0040767156
163	0x3d0789c8	0.033090383
164	0x3d600471	0.054691736
165	0x392f4e27	0.00016718415
166	0x3c47502d	0.0121651115
167	0x3d5670a7	0.052353527
168	0x3d51f4ef	0.051258978
169	0xbca152ce	-0.019692805
170	0xbcdd5d2c	-0.027021967
171	0xbd5ddfe3	-0.054168593
172	0xbd50d9d1	-0.050988976
173	0x3d88e3a9	0.06684048
174	0x3d8a9077	0.06765836
175	0x3d952fd3	0.07284512
176	0xbcc9cc66	-0.024633598
177	0xbcdc418f	-0.02688673
178	0x3d7f8683	0.06238414
179	0xbd804928	-0.062639534
180	0x3cc82992	0.024433885
181	0x3d11f6e3	0.03563584
182	0x3d2c2f43	0.04203726
183	0xbceabcad	-0.02865442
184	0xbd7aa7f7	-0.06119534
185	0xbc52bda7	-0.012862599
186	0xbd5bd1d6	-0.053666912
187	0x3d4e77bc	0.050407156
188	0xbcf64898	-0.030063912
189	0x3d34dec0	0.044157743
190	0xbcd6b2cb	-0.026208302
191	0x3d229e60	0.03970182
192	0xbcb25cd0	-0.021772772
193	0x3c910c77	0.017706139
194	0xbd001bad	-0.031276394
195	0x3d8159b7	0.0631594
196	0xbd880a02	-0.06642534
197	0x3c7741d3	0.015091377
198	0x3d313aaa	0.043268837
199	0x3d04c8f3	0.032418203
200	0xbca99f37	-0.020705802
201	0xbd0c0d91	-0.034192625
202	0xbd8f3e54	-0.0699431
203	0xbd008bb8	-0.031383246
204	0x3c9c59f1	0.019085856
205	0xbd09b32d	-0.03361814
206	0xbc3126ce	-0.010812474
207	0xbcbbdecb	-0.022933384
208	0xbd5de086	-0.0541692
209	0x3d2c6c0e	0.042095236
210	0xbcfa281c	-0.030536704
211	0xbc4d0629	-0.012513676
212	0xbd8163c5	-0.06317858
213	0xbc8a72be	-0.016900416
214	0x3d004779	0.03131816
215	0xbd0355b0	-0.03206414
216	0x3d589e1f	0.05288517
217	0xbd32116b	-0.043473642
218	0xbbdcbfb7	-0.0067367214
219	0xbd49d103	-0.049271595
220	0xb9afa154	-0.000334988
221	0x3c9cbc27	0.019132687
222	0x3ca09f70	0.019607276
223	0x3d74ce04	0.059766784
224	0xbce4afe7	-0.027915908
225	0xbd58db5c	-0.052943572
226	0xbd8856a5	-0.06657151
227	0x3d1a53fe	0.037677757
228	0xbb07bf32	-0.0020713327
229	0x3d68b107	0.05680945
230	0xbd930411	-0.0717851
231	0xbcab6ed1	-0.020926865
232	0xbcbefc35	-0.023313621
233	0x3ca4074f	0.020023016
234	0xbd86d871	-0.06584252
235	0xbd237e45	-0.039915342
236	0x3d7426f8	0.059607476
237	0xbce42a5f	-0.027852235
238	0x3c2a7784	0.010404471
239	0xbd77ad48	-0.06046799
240	0x3d2fb510	0.042897284
241	0xbc47c126	-0.012192046
242	0x3d2183f1	0.03943247
243	0xbce90a8c	-0.028447412
244	0x3d69a435	0.057041366
245	0x3c954063	0.018219179
246	0x3b17d500	0.002316773
247	0x3d295510	0.041340888
248	0xbcbef267	-0.023308946
249	0x3c9c0928	0.019047335
250	0x3d25bb6a	0.040461935
251	0xbbe993e1	-0.0071282242
252	0x3d8e68bd	0.06953571
253	0x3d8f73ad	0.07004485
254	0x3b9c890b	0.004777079
255	0xbd8a3ec2	-0.06750251

module.model.2.model.0.bias f4 [64]
0	0x3a83a757	0.0010044378
1	0x3a820607	0.0009920009
2	0x3a85403d	0.0010166239
3	0x3a8373fc	0.0010029073
4	0x3a831af1	0.0010002536
5	0x3a813949	0.0009858991
6	0x3a84fbef	0.0010145883
7	0x3a82bee6	0.0009975105
8	0x3a860ad9	0.0010226622
9	0x3a82ab2c	0.0009969226
10	0x3a811394	0.0009847754
11	0x3a815b72	0.0009869172
12	0x3a83a855	0.0010044674
13	0x3a82d074	0.0009980337
14	0x3a84f02c	0.0010142378
15	0x3a82f799	0.0009992003
16	0x3a84371c	0.0010087225
17	0x3a83e33f	0.0010062231
18	0x3a83462b	0.0010015419
19	0x3a81e370	0.0009909701
20	0x3a82b1f8	0.0009971252
21	0x3a856812	0.001017811
22	0x3a81efe8	0.0009913417
23	0x3a82edaa	0.0009989042
24	0x3a81483e	0.0009863449
25	0x3a83ef3a	0.0010065802
26	0x3a83dbcb	0.001006001
27	0x3a82a4b8	0.0009967303
28	0x3a824cdf	0.0009941122
29	0x3a862f49	0.0010237481
30	0x3a86cc4a	0.0010284272
31	0x3a82ac94	0.0009969645
32	0x3a83b030	0.0010047015
33	0x3a8381d1	0.0010033195
34	0x3a80fca8	0.0009840922
35	0x3a836bea	0.0010026668
36	0x3a81701b	0.0009875329
37	0x3a825a4e	0.0009945126
38	0x3a824dcf	0.0009941402
39	0x3a825714	0.0009944164
40	0x3a843ec9	0.0010089512
41	0x3a840359	0.0010071798
42	0x3a856237	0.0010176365
43	0x3a832c1b	0.0010007651
44	0x3a827b85	0.0009955025
45	0x3a7f1e90	0.0009732032
46	0x3a82d4ea	0.0009981666
47	0x3a81beff	0.000989884
48	0x3a7a2644	0.0009542445
49	0x3a821f7b	0.0009927595
50	0x3a84449a	0.0010091246
51	0x3a82c61b	0.0009977253
52	0x3a81fb48	0.0009916807
53	0x3a820193	0.0009918682
54	0x3a835626	0.0010020181
55	0x3a86b067	0.0010275961
56	0x3a83c773	0.0010053947
57	0x3a83572a	0.0010020484
58	0x3a7ef488	0.0009725769
59	0x3a7bc36b	0.00096040097
60	0x3a7fcaa6	0.0009757675
61	0x3a85ff4d	0.001022318
62	0x3a82a776	0.000996812
63	0x3a85797c	0.00101833

module.model.2.model.1.weight f4 [64]
0	0x3f7fe07e	0.9995192
1	0x3f80398f	1.0017565
2	0x3f7ff2b7	0.9997973
3	0x3f7fa71b	0.9986436
4	0x3f800c87	1.0003823
5	0x3f800bcf	1.0003604
6	0x3f802ccd	1.0013672
7	0x3f8026ff	1.0011901
8	0x3f7fca8b	0.9991843
9	0x3f7fd06a	0.9992739
10	0x3f7f84c9	0.9981199
11	0x3f802a41	1.0012895
12	0x3f7f9a4d	0.9984482
13	0x3f8005ab	1.000173
14	0x3f7fdbdc	0.99944854
15	0x3f7fac90	0.99872684
16	0x3f7fd2e3	0.9993116
17	0x3f7fc932	0.99916375
18	0x3f802316	1.0010707
19	0x3f7fedd4	0.9997227
20	0x3f801819	1.0007354
21	0x3f7f92f1	0.9983359
22	0x3f800c79	1.0003806
23	0x3f7f9142	0.9983102
24	0x3f8019be	1.0007856
25	0x3f7fc693	0.99912375
26	0x3f8003a3	1.000111
27	0x3f80304d	1.001474
28	0x3f8032ac	1.0015464
29	0x3f7f899e	0.9981936
30	0x3f7fb11e	0.99879634
31	0x3f802b11	1.0013143
32	0x3f7f8cb7	0.9982409
33	0x3f7ff96d	0.9998997
34	0x3f800930	1.0002804
35	0x3f800f44	1.0004659
36	0x3f8038ca	1.0017331
37	0x3f80000a	1.0000012
38	0x3f7ffdb4	0.99996495
39	0x3f80052a	1.0001576
40	0x3f7ff2cd	0.9997986
41	0x3f7f92d4	0.99833417
42	0x3f7fba01	0.99893194
43	0x3f7f9013	0.99829215
44	0x3f802944	1.0012593
45	0x3f7fccde	0.9992198
46	0x3f7fe4ba	0.99958384
47	0x3f800c7b	1.0003809
48	0x3f8039c9	1.0017635
49	0x3f801fbd	1.0009686
50	0x3f7ff997	0.9999022
51	0x3f802e3b	1.0014108
52	0x3f803476	1.001601
53	0x3f80252c	1.0011344
54	0x3f8016c9	1.0006953
55	0x3f7f914f	0.998311
56	0x3f7fb82a	0.9989039
57	0x3f8002dc	1.0000873
58	0x3f8036ab	1.0016683
59	0x3f802b31	1.0013181
60	0x3f804304	1.0020452
61	0x3f7fe145	0.9995311
62	0x3f801e01	1.0009156
63	0x3f7f8680	0.99814606

module.model.2.model.1.bias f4 [64]
0	0xbab6663a	-0.0013915964
1	0x3ac86706	0.0015289492
2	0xbaabdbdc	-0.0013111788
3	0xb7e97c01	-2.7833508e-05
4	0xba97fee0	-0.0011596344
5	0x39bc5226	0.0003591936
6	0x3a3eefd6	0.0007283663
7	0x3ad23d85	0.0016040063
8	0xba9ec14a	-0.0012112048
9	0xb90e378f	-0.00013562872
10	0xbadb6476	-0.0016738314
11	0x3af7bd0d	0.0018900946
12	0xba913648	-0.0011078799
13	0x3a150be7	0.00056856725
14	0xbaa3a9f5	-0.0012486564
15	0xba756842	-0.0009361544
16	0xb9bfe152	-0.00036598236
17	0xbab504d8	-0.0013810648
18	0x3a7d241e	0.0009656566
19	0xba0be1b8	-0.0005336064
20	0x3ac74f20	0.0015206076
21	0xbadbe6db	-0.0016777174
22	0x3aa43f54	0.001253108
23	0xbada0b83	-0.0016635511
24	0x3ab7cb6d	0.0014022418
25	0xbad55834	-0.0016276897
26	0xb8e134eb	-0.00010738693
27	0x3aa46fd8	0.0012545539
28	0x3ad7043e	0.0016404463
29	0xbaf765aa	-0.0018874903
30	0x38971087	7.2033195e-05
31	0x3aaacf33	0.0013031721
32	0xbad9e075	-0.001662268
33	0xbab85c1a	-0.0014065534
34	0x3a8563df	0.0010176859
35	0x3afd894f	0.0019343289
36	0x3af839cf	0.0018938127
37	0x3a8010c4	0.0009770622
38	0x3a899eb3	0.0010499567
39	0x3a22ea88	0.00062147574
40	0x39f62145	0.00046945564
41	0xbaf83ad7	-0.0018938434
42	0xba928ce8	-0.0011180909
43	0xbae7a5d2	-0.001767332
44	0x3aa6fbda	0.0012739853
45	0x3acc82e7	0.0015602977
46	0xb920d1d1	-0.00015336952
47	0x3a3d7ada	0.0007228084
48	0x3af18ee6	0.0018429428
49	0x3aad2b38	0.0013211733
50	0xba9c9841	-0.0011947231
51	0x3a31ab75	0.0006777563
52	0x3aeaebd1	0.0017923062
53	0xb9c691b9	-0.00037874075
54	0xb932da0a	-0.00017056629
55	0xbab84e0c	-0.0014061346
56	0xba84f9f9	-0.0010145298
57	0xb9b77834	-0.00034994038
58	0x3add0d2a	0.0016864885
59	0x3abcb958	0.0014398498
60	0x3af67c11	0.0018805285
61	0xba5aaa31	-0.00083414005
62	0x3abe6f9b	0.0014529111
63	0xbaa2e0e1	-0.0012426638

module.model.2.model.1.running_mean f4 [64]
0	0x3e577f8c	0.21044749
1	0x3ea599ab	0.32343802
2	0xbd9dd4de	-0.07706617
3	0x3ecad4db	0.3961552
4	0xbe41e07c	-0.1893329
5	0xbe1456ae	-0.1448619
6	0x3e04bf01	0.12963487
7	0x3f5e559f	0.868494
8	0x3f09ba80	0.538002
9	0x3ccbcb33	0.024877166
10	0x3efb429d	0.4907426
11	0x3e0de76e	0.13857815
12	0xbd3c2219	-0.045930956
13	0x3e95d93b	0.29267296
14	0xbe26153c	-0.16219038
15	0x3e38f233	0.18061142
16	0xbedb06c4	-0.427786
17	0x3e430d94	0.19048148
18	0xbe91183d	-0.28338805
19	0x3db1ef6e	0.08688246
20	0x3e2f5516	0.17122301
21	0xbe59f5ee	-0.21285221
22	0xbf866fbd	-1.050285
23	0x3d15b050	0.036545098
24	0xbc5276b3	-0.012845683
25	0x3e855dc4	0.260481
26	0x3e245809	0.16049208
27	0xbf06b8f7	-0.52625984
28	0x3da40786	0.080092475
29	0xbf28acba	-0.6588856
30	0xbf090562	-0.5352384
31	0x3d324460	0.04352224
32	0xbd87f4c6	-0.06638484
33	0x3ed09c20	0.40744114
34	0xbed296b9	-0.41130617
35	0x3bf5e134	0.007503653
36	0xbf55488a	-0.8331381
37	0xbe71792d	-0.23581381
38	0x3e05eaab	0.130778
39	0x3e063e43	0.13109688
40	0xbf0739c9	-0.5282255
41	0x3ebaee83	0.36510095
42	0x3e62c7ce	0.22146532
43	0x3ef41eef	0.4767985
44	0x3b469340	0.003030017
45	0x3d8947e3	0.067031644
46	0xbd0fb6fc	-0.035086617
47	0xbf0ae5e5	-0.5425704
48	0xbe3bc449	-0.18336596
49	0x3ee078ba	0.43842107
50	0x3e8cb62c	0.27482736
51	0xbe540235	-0.20703967
52	0x3d9827d6	0.07429473
53	0xbb904b03	-0.0044034733
54	0x3efcf994	0.49409163
55	0xbeb0e704	-0.3455125
56	0x3bbdbb9b	0.0057901866
57	0xbed980ad	-0.42480984
58	0xbd6c99c9	-0.05776385
59	0xbf0ff853	-0.5623829
60	0xbe13d171	-0.14435364
61	0x3debc201	0.11511613
62	0xbe5e82b9	-0.21729554
63	0xbe93492f	-0.28766772

module.model.2.model.1.running_var f4 [64]
0	0x3fadccb5	1.3578097
1	0x3f219e9d	0.6313265
2	0x3f080755	0.5313619
3	0x3e9c48dc	0.30524337
4	0x3f62468c	0.88388896
5	0x3e93a780	0.2883873
6	0x3e0594d0	0.13045049
7	0x3f47c6c2	0.78037655
8	0x3e4b0d27	0.19829236
9	0x3e71ec99	0.23625411
10	0x3ed6ea7d	0.41975775
11	0x3f04a1a7	0.5180916
12	0x3e8dfa07	0.27729818
13	0x3eb7afea	0.358764
14	0x3d8193a7	0.063269906
15	0x3dae5d28	0.08513862
16	0x3f218777	0.6309733
17	0x3e71f872	0.2362993
18	0x3ead4047	0.33838102
19	0x3e94849b	0.2900742
20	0x3e0fc5c3	0.14040284
21	0x3e9f8e51	0.31163266
22	0x3eaaa4ce	0.3332886
23	0x3f01ca39	0.5069919
24	0x3e8f4ca7	0.2798817
25	0x3e84a164	0.2590438
26	0x3e8a4dc5	0.27012458
27	0x3fd7720b	1.6831678
28	0x3ea938a5	0.3305103
29	0x3e3fb741	0.1872225
30	0x3e585f53	0.21130113
31	0x3f02bfe1	0.51074034
32	0x3e64e129	0.22351517
33	0x3e5c3994	0.2150634
34	0x3f016542	0.5054513
35	0x3f177623	0.5916464
36	0x3f1f6fc9	0.62279946
37	0x3f628071	0.88477236
38	0x3f45b30c	0.7722633
39	0x3f1ff34a	0.62480605
40	0x3ec2bf4f	0.38036582
41	0x3f43e57a	0.7652203
42	0x3e8eb047	0.27868864
43	0x3ebf1cdc	0.37326705
44	0x3f595e67	0.8490967
45	0x3e037c2a	0.12840334
46	0x3e674be0	0.22587538
47	0x3ebdc48d	0.3706402
48	0x3e538be8	0.20658839
49	0x3e8e1d83	0.2775689
50	0x3e812b61	0.25228408
51	0x3e91873a	0.28423482
52	0x3f899442	1.074837
53	0x3ef78386	0.48342532
54	0x3f85b12a	1.0444691
55	0x3d462795	0.048377592
56	0x3f0ef549	0.55843025
57	0x3e0fece3	0.14055209
58	0x3f59879a	0.84972537
59	0x3e80bd02	0.25144202
60	0x3f089614	0.53354
61	0x3d8e9e69	0.06963808
62	0x3f04bb24	0.51848054
63	0x3e155ccd	0.14586182
