output_nn_deblur_noise/ckpt/resnet_epoch5.pth (torch, 641723 bytes, 31 tensors)

module.model.0.weight f4 [64, 1, 1, 1]
-0.17068107 -0.19694823 0.24312589 0.16448568 -0.2011417 0.053227868 -0.05515654 -0.13134769
0.043512817 -0.2657075 -0.09335469 0.21704754 -0.108500555 -0.14924972 -0.03043378 0.014547721
0.07418366 0.019072447 0.15254554 -0.0938789 -0.10720676 0.13913399 0.021421053 0.19051418
-0.032787606 0.24598072 -0.001173004 -0.20747252 0.09618017 -0.236801 -0.06975446 -0.08621587
-0.16226926 -0.24290426 -0.29478535 0.2049871 -0.086010374 -0.024483215 -0.052231785 0.20655285
0.054131724 0.11404598 -0.17834443 -0.27706578 -0.15214188 -0.26727515 0.09242179 0.18468143
-0.17492805 0.055412944 -0.0428097 0.20365226 -0.020664277 -0.17594002 0.23666418 0.13377027
-0.026924105 -0.29564586 0.027405098 0.21842934 -0.15562779 0.29571205 -0.018262206 0.112175286
00000000: 05c7 2ebe ccac 49be fef5 783e ef6e 283e
00000010: 17f8 4dbe 7705 5a3d d3eb 61bd 0280 06be
00000020: 7f3a 323d d00a 88be be30 bfbd b641 5e3e
00000030: 8a35 debd ebd4 18be 4350 f9bc 9059 6e3c
00000040: 9aed 973d d23d 9c3c e634 1c3e 9543 c0bd
00000050: 388f dbbd 2479 0e3e 347b af3c 2616 433e
00000060: 4c4c 06bd 5fe2 7b3e 7cbf 99ba ad73 54be
00000070: 1cfa c43d f67b 72be 6ddb 8ebd f291 b0bd
00000080: ea29 26be e5bb 78be 1bee 96be 23e8 513e
00000090: 3526 b0bd 0691 c8bc fff0 55bd 9782 533e
000000a0: 3ab9 5d3d f090 e93d ec9f 36be 91db 8dbe
000000b0: 15cb 1bbe 4ad8 88be a347 bd3d 211d 3d3e
000000c0: 5720 33be aff8 623d 3959 2fbd 388a 503e
000000d0: 2148 a9bc 9f29 34be 1858 723e 13fb 083e
000000e0: f18f dcbc e55e 97be a880 e03c f1ab 5f3e
000000f0: e45c 1fbe 9267 973e 9f9a 95bc 28bc e53d

module.model.0.bias f4 [64]
0.0016688702 0.0014307137 0.0005682408 0.0007145719 0.0013929683 0.0017017941 0.0013370209 0.0015578355
0.0009645839 0.00092164753 0.0014247866 0.0009779483 0.0002625401 0.0006461202 0.0017784927 0.0016156796
0.0005732952 0.001478034 0.0016664187 0.0011478176 0.0015615962 0.0007851315 0.0007983862 0.00039895764
0.0013432435 0.0012943164 0.0011305242 0.00051980355 0.0014325926 0.0007598161 0.00044945197 0.0008336579
0.0013185426 0.0006894043 0.0015255664 0.0010613324 0.0014977354 0.001419534 0.0005279801 0.0009111026
0.0011479354 0.0012853494 0.00036895226 0.00059990725 0.0017508293 0.0003428795 0.0008551994 0.0012014726
0.0017898326 0.00032995353 0.001484285 0.00095018605 0.001182934 0.0015923905 0.00023365162 0.0012527725
0.0011540545 0.0007883725 0.0004236269 0.0013923821 0.0016228 0.0012949229 0.0008693382 0.0008319352
00000000: febd da3a c986 bb3a fff5 143a 1c52 3b3a
00000010: 4394 b63a bc0e df3a fa3e af3a 4930 cc3a
00000020: 21dc 7c3a b89a 713a e8bf ba3a 802e 803a
00000030: 89a5 8939 6560 293a 501c e93a 36c5 d33a
00000040: 3149 163a 97ba c13a bc6b da3a 5e72 963a
00000050: 79ae cc3a 48d1 4d3a ca4a 513a 302b d139
00000060: c60f b03a 0da6 a93a 192e 943a 6d43 083a
00000070: d5c5 bb3a 652e 473a 6ca4 eb39 d689 5a3a
00000080: f3d2 ac3a 24b9 343a 84f5 c73a 681c 8b3a
00000090: a94f c43a a80f ba3a 2568 0a3a 0fd7 6e3a
000000a0: 5276 963a 2b79 a83a ef6f c139 1843 1d3a
000000b0: 157c e53a 82c4 b339 762f 603a bb7a 9d3a
000000c0: d198 ea3a 9dfd ac39 578c c23a e815 793a
000000d0: ae0c 9b3a c2b7 d03a 6100 7539 1234 a43a
000000e0: a543 973a c8aa 4e3a 3d1a de39 9780 b63a
000000f0: 22b4 d43a 67ba a93a 4de4 633a 3a16 5a3a

module.model.1.model.0.weight f4 [64, 64, 3, 3]
0.032906782 0.0037539138 -0.016882114 -0.04396876 -0.026727032 0.06584101 -0.05923094 -0.053520348
-0.055905543 0.061364286 0.044113062 -0.02727177 0.037208036 0.037159573 0.020219777 0.06129562
0.042249262 0.036898654 0.03906958 -0.0004305215 0.03339811 0.04057754 -0.0027817595 -0.008531662
0.056041643 -0.069202326 0.058749862 -0.0442767 -0.013138778 -0.004284506 0.0074801934 0.042609096
-0.04567403 0.066120856 -0.03152033 -0.017604655 -0.011275812 -0.027339747 0.010332217 -0.0417273
0.021164201 0.0030019511 -0.0074364687 -0.00272834 0.036644306 0.043810084 0.01134634 0.06907807
0.056782246 1.3020988e-05 -0.04078258 -0.05274282 0.06260632 -0.052683808 -0.022739477 0.05159146
-0.005884373 -0.054480232 0.014544945 0.0033177538 0.05225229 -0.060386684 -0.026608955 -0.0009435273
0.0056238 0.048604913 0.01203508 -0.063795105 0.013259211 0.011320608 -0.0061260834 0.0015052583
0.069038756 0.046751525 -0.059752412 -0.025672484 -0.03222787 -0.050318558 -0.046938643 0.020626303
0.01715882 -0.04432543 -0.05904492 -0.017174698 -0.045052547 0.055382453 0.04241611 -0.0223351
-0.057794232 0.018235104 -0.070361204 -0.050289344 -0.028930783 0.038656242 0.07140521 0.012123543
0.052464534 -0.023359777 -0.022252113 -0.014217144 -0.051522676 0.057171293 -0.006133113 -0.0043986924
-0.022248544 0.05145641 -0.066246 -0.019026374 0.060127646 -0.007960098 0.019529697 0.06709514
0.030143753 0.03241951 -0.057310503 -0.0018860775 0.06624329 -0.031362068 -0.05089049 0.009529416
-0.06487256 -0.0011170709 -0.04473443 0.016523704 0.044046134 0.016033845 0.010858057 0.06536209
0.032545947 -0.02452046 0.02821226 0.033847883 0.009299537 -0.03835923 0.04922401 0.04257758
-0.06721816 -0.046940494 -0.058475807 0.048448786 0.054997824 -0.04928047 -0.0450557 0.0682327
-0.030912207 -0.00022472806 0.023518438 0.066557705 0.06509627 -0.048413247 -0.029259082 -0.021624293
0.028894832 -0.03920773 0.044663418 -0.032968916 -0.06691964 0.060652006 -0.030749189 -0.0053753085
-0.058747068 -0.033774838 0.017579362 0.044619687 -0.05340522 -0.008407702 -0.024887133 0.038815822
-0.05473694 -0.028128898 0.010279604 -0.06409545 0.029537492 -0.021675501 0.05949414 -0.035339236
-0.0024298856 -0.0013150873 0.05974043 0.069639 -0.030070318 -0.047676563 -0.062133383 -0.071431115
-0.051639367 -0.036812294 0.017732041 0.03382298 0.048854515 -0.041444466 -0.037580352 0.0026709952
-0.03889824 -0.029920617 0.0132265175 0.0014877722 0.015305984 -0.009265507 0.0039606863 -0.059478894
0.03849137 -0.021188922 -0.01884371 0.027017862 0.04194031 0.054003537 -0.03811974 0.031978555
-0.0031437383 -0.0124277165 0.029372144 -0.045433294 -0.025313308 0.038706522 0.01944077 0.07179793
0.0473325 0.07122327 -0.025342964 -0.008122322 -0.006471949 0.047453355 -0.048517104 -0.029413907
0.016174229 0.016746972 -0.032746304 -0.0015670728 0.04504814 0.06752411 -0.012417909 0.06477134
-0.040160302 0.0014869382 -0.008902182 -0.0126390625 -0.03776629 0.045199513 -0.055165652 0.03717887
0.060068008 -0.068535216 -0.07084023 -0.009705376 -0.061424553 0.020627847 -0.023980461 -0.033712544
0.034932397 0.05186102 0.04809711 -0.028244339 -0.061750166 0.045910556 0.0028136002 0.059945527
00000000: 43c9 063d 3904 763b 5c4c 8abc 9618 34bd
00000010: a6f2 dabc a7d7 863d 249c 72bd 2738 5bbd
00000020: 36fd 64bd 1e59 7b3d e6af 343d 0c69 dfbc
00000030: 7467 183d a334 183d f2a3 a53c 1e11 7b3d
00000040: 900d 2d3d 0b23 173d 6d07 203d 9eb7 e1b9
00000050: 75cc 083d a234 263d 2e4e 36bb 62c8 0bbc
00000060: ec8b 653d f3b9 8dbd b2a3 703d 7c5b 35bd
00000070: 0744 57bc 0b65 8cbb 691c f53b e086 2e3d
00000080: b114 3bbd 5f6a 873d 761b 01bd a337 90bc
00000090: 2fbe 38bc 9bf7 dfbc 7648 293c 3fea 2abd
000000a0: 8c60 ad3c 62bc 443b 9fad f3bb f3cd 32bb
000000b0: 5718 163d 3472 333d 00e6 393c ce78 8d3d
000000c0: 8094 683d b874 5a37 a20b 27bd db08 58bd
000000d0: be37 803d faca 57bd 2448 babc 9151 533d
000000e0: b3d1 c0bb aa26 5fbd ec4d 6e3c ac6e 593b
000000f0: 7f06 563d 0758 77bd 06fb d9bc 0c57 77ba
00000100: db47 b83b f215 473d c92e 453c 02a7 82bd
00000110: 293d 593c 127a 393c 50bd c8bb 164c c53a
00000120: 3164 8d3d 877e 3f3d f2be 74bd 1a4f d2bc
00000130: 5f01 04bd d51a 4ebd bc42 40bd 7ef8 a83c
00000140: a790 8c3c 958e 35bd 16d9 71bd f4b1 8cbc
00000150: 0589 38bd b6d8 623d 84bc 2d3d 1af8 b6bc
00000160: a5b9 6cbd c961 953c 8919 90bd 33fc 4dbd
00000170: 4000 edbc 0256 1e3d e53c 923d d3a1 463c
00000180: 0de5 563d 015d bfbc 104a b6bc 06ef 68bc
00000190: 7109 53bd 722c 6a3d 48f8 c8bb e822 90bb
000001a0: 9442 b6bc f5c3 523d fcab 87bd 33dd 9bbc
000001b0: 6848 763d 126b 02bc befc 9f3c 2d69 893d
000001c0: 08f0 f63c 52ca 043d 6bbe 6abd 4236 f7ba
000001d0: 90aa 873d 8375 00bd 8c72 50bd 4521 1c3c
000001e0: e8db 84bd ae6a 92ba 733b 37bd b85c 873c
000001f0: b869 343d 6959 833c fee5 313c 8fdc 853d
00000200: e64e 053d 22df c8bc 661d e73c 14a4 0a3d
00000210: 165d 183c 911e 1dbd 1e9f 493d d465 2e3d
00000220: ada9 89bd ad44 40bd 5484 6fbd 3c72 463d
00000230: 6645 613d 51da 49bd 538c 38bd 96bd 8b3d
00000240: 993b fdbc fba4 6bb9 bda9 c03c 684f 883d
00000250: 3151 853d f84c 46bd beb0 efbc 6e25 b1bc
00000260: dbb4 ec3c 4998 20bd fdf0 363d 6a0a 07bd
00000270: 2a0d 89bd 3d6e 783d b9e5 fbbc 5b23 b0bb
00000280: c4a0 70bd 7c57 0abd 9802 903c 22c3 363d
00000290: 6fbf 5abd 75c0 09bc 1ae0 cbbc 57fd 1e3d
000002a0: d733 60bd 936e e6bc c96b 283c 7a44 83bd
000002b0: 9cf8 f13c d290 b1bc 21b0 733d e0bf 10bd
000002c0: b73e 1fbb 025f acba 62b2 743d e49e 8e3d
000002d0: 0756 f6bc 8048 43bd 937f 7ebd 7a4a 92bd
000002e0: cd83 53bd 7dc8 16bd c942 913c f789 0a3d
000002f0: ac1b 483d acc1 29bd dbed 19bd dd0b 2f3b
00000300: c353 1fbd 151c f5bc 09b4 583c 5a01 c33a
00000310: f3c5 7a3c 5ace 17bc a5c8 813b 24a0 73bd
00000320: 20a9 1d3d 6494 adbc 205e 9abc 9054 dd3c
00000330: 9ac9 2b3d d032 5d3d 7223 1cbd f2fb 023d
00000340: 2d07 4ebb 9f9d 4bbc da9d f03c 4318 3abd
00000350: db5d cfbc bb8a 1e3d 4042 9f3c cb0a 933d
00000360: b9df 413d 81dd 913d 0c9c cfbc 7d13 05bc
00000370: a512 d4bb 735e 423d dfb9 46bd 6ff5 f0bc
00000380: d17f 843c f230 893c fd20 06bd 3d66 cdba
00000390: 6684 383d 154a 8a3d 7c74 4bbc d6a6 843d
000003a0: 217f 24bd 5ee5 c23a 75da 11bc 1214 4fbc
000003b0: d3b0 1abd 2023 393d 61f5 61bd df48 183d
000003c0: df09 763d 315c 8cbd af14 91bd 4c03 1fbc
000003d0: 5098 7bbd bbfb a83c ac72 c4bc 2a16 0abd
000003e0: 4615 0f3d 396c 543d 7a01 453d ac60 e7bc
000003f0: beed 7cbd b50c 3c3d 6164 383b 7189 753d

module.model.1.model.0.bias f4 [64]
0.0007949436 0.0010949031 0.00075221324 0.0010738041 0.0009345496 0.0008825724 0.0009585935 0.0010247112
0.00089350354 0.0012619201 0.00089319353 0.00084234617 0.0008383549 0.0009799608 0.00096844387 0.0011230599
0.001099325 0.00083255814 0.0012143097 0.0012413526 0.0011085431 0.0013315721 0.0011466182 0.0010708589
0.0009974724 0.001064939 0.0009447911 0.0007639991 0.0012463622 0.0009764183 0.0011565656 0.001250639
0.00094404246 0.00092639215 0.001155241 0.0006995107 0.000710403 0.00093867455 0.0007752227 0.00068869547
0.0008222933 0.0011806168 0.0008938571 0.0013828658 0.0009734432 0.0011765158 0.0010171959 0.0010307938
0.0011682935 0.00072897057 0.00087807473 0.00074889185 0.0009719433 0.0011240133 0.0011626107 0.00075461186
0.0009261005 0.0009581342 0.00068357144 0.000848735 0.00088773714 0.0011519418 0.0010079431 0.0011929412
00000000: c363 503a da82 8f3a 2d30 453a e3be 8c3a
00000010: 90fc 743a 6e5c 673a 1f4a 7b3a 9a4f 863a
00000020: 023a 6a3a 0367 a53a 3425 6a3a e5d0 5c3a
00000030: 0cc5 5b3a 0772 803a 2bdf 7d3a a333 933a
00000040: 3a17 903a 0840 5a3a 7929 9f3a e2b4 a23a
00000050: 894c 913a 2588 ae3a 1f4a 963a 105c 8c3a
00000060: 9fbd 823a 6c95 8b3a dcab 773a 1d47 483a
00000070: fa5c a33a 53f6 7f3a e797 973a 7bec a33a
00000080: 9e79 773a 20d9 723a 756b 973a 5e5f 373a
00000090: 573a 3a3a 6211 763a 5138 4b3a 9289 343a
000000a0: 2b8f 573a edbe 9a3a bc51 6a3a 4741 b53a
000000b0: ab2e 7f3a 5235 9a3a 6e53 853a b31b 873a
000000c0: 6d21 993a 6318 3f3a 992e 663a 4851 443a
000000d0: 03ca 7e3a a153 933a be62 983a 25d1 453a
000000e0: 8dc5 723a 4c2b 7b3a b431 333a a47d 5e3a
000000f0: 08b7 683a c1fc 963a f51c 843a 775c 9c3a

module.model.1.model.1.weight f4 [64]
0.9993038 0.9994768 1.0007222 1.0007282 0.9999004 0.9993403 1.0006512 1.0000782
0.9997472 1.0008293 1.0005054 0.9993288 0.99958676 0.9997985 1.0003861 0.9997446
0.9994253 1.0004803 1.0004612 0.9993879 0.9992916 0.9994238 0.99990386 0.99996835
0.9992839 0.9997828 0.99966824 0.99984634 0.9996955 1.0002702 0.9999905 1.0000744
0.9997054 1.0006511 1.0007286 0.9992412 1.0005397 1.0005281 1.0003006 1.000706
0.9999371 1.0003477 1.0005841 0.9993183 0.9997646 1.0003617 0.99974626 0.9997839
0.9995612 1.0004599 0.99966323 0.99924207 1.0004715 1.0001544 1.00038 1.0002149
1.0006729 1.0000354 0.9997414 0.999492 1.0005469 1.0001777 1.0004685 0.9995122
00000000: 60d2 7f3f b6dd 7f3f aa17 803f dd17 803f
00000010: 79f9 7f3f c4d4 7f3f 5715 803f 9002 803f
00000020: 6fef 7f3f 2d1b 803f 9010 803f 03d4 7f3f
00000030: ebe4 7f3f cbf2 7f3f a70c 803f 43ef 7f3f
00000040: 56da 7f3f bd0f 803f 1d0f 803f e3d7 7f3f
00000050: 93d1 7f3f 3dda 7f3f b3f9 7f3f edfd 7f3f
00000060: 12d1 7f3f c4f1 7f3f 42ea 7f3f eef5 7f3f
00000070: 0bec 7f3f db08 803f 61ff 7f3f 7002 803f
00000080: b1ec 7f3f 5615 803f e017 803f 45ce 7f3f
00000090: af11 803f 4e11 803f da09 803f 2217 803f
000000a0: e1fb 7f3f 650b 803f 2413 803f 53d3 7f3f
000000b0: 93f0 7f3f da0b 803f 5fef 7f3f d6f1 7f3f
000000c0: 3ee3 7f3f 120f 803f eee9 7f3f 54ce 7f3f
000000d0: 730f 803f 0f05 803f 740c 803f 0b07 803f
000000e0: 0d16 803f 2901 803f 0def 7f3f b5de 7f3f
000000f0: ec11 803f d305 803f 5a0f 803f 08e0 7f3f

module.model.1.model.1.bias f4 [64]
-0.00070370943 -0.00066042907 0.00086022203 0.0004726795 0.0006494545 -0.000411202 0.0008549192 -0.00015284795
-0.0005097586 0.0006952474 8.257996e-05 -0.00056453364 -0.00012877512 -0.00073283067 0.00021638967 0.00042160452
-0.00075260043 0.00036212627 -5.3798478e-05 -0.0005978291 -0.0007774615 -0.0007606782 -0.00017372437 -0.0004420226
-0.00083170016 0.00074607524 0.00022690119 -0.000110123656 -0.0004136703 0.00064176566 -0.00070282584 4.7857768e-05
-0.0008044926 0.00061671 0.0004927104 6.016073e-05 0.0007369742 0.0006620113 0.00034406382 0.00081751
0.00085816515 0.00082289573 0.00049769547 -0.0007695124 0.0005569062 8.8309775e-05 0.0008211887 -0.0005518932
0.00043383328 0.00088996626 0.00010796649 0.00087003945 0.0001991185 0.0008026961 -3.4910492e-05 0.00019708011
0.00052885915 0.0007383395 0.0006704442 0.0005842637 1.732241e-05 5.5237866e-05 -1.2032969e-05 -0.00063357106
00000000: 2479 38ba a520 2dba 8680 613a f8d1 f739
00000010: 2740 2a3a 9996 d7b9 a81c 603a cf45 20b9
00000020: 52a1 05ba 4341 363a c72e ad38 36fd 13ba
00000030: cf07 07b9 6f1b 40ba a9e6 6239 cd0a dd39
00000040: 294a 45ba c4db bd39 ada5 61b8 a2b7 1cba
00000050: 8fce 4bba 4068 47ba c829 36b9 45bf e7b9
00000060: 7406 5aba 4394 433a 53ec 6d39 30f2 e6b8
00000070: e3e1 d8b9 2a3c 283a d83d 38ba e3ba 4838
00000080: 96e4 52ba b5aa 213a 3c29 013a 1855 7c38
00000090: 8031 413a d48a 2d3a 7763 b439 2b4e 563a
000000a0: 7df6 603a 99b7 573a c777 023a 1ab9 49ba
000000b0: 58fd 113a f332 b938 0a45 573a edac 10ba
000000c0: 1e74 e339 a04c 693a 116c e238 5c13 643a
000000d0: 77ca 5039 066c 523a db6c 12b8 4aa7 4e39
000000e0: 23a3 0a3a 208d 413a c0c0 2f3a 4629 193a
000000f0: 984f 9137 35af 6738 35e1 49b7 3c16 26ba

module.model.1.model.1.running_mean f4 [64]
0.000924359 0.0012662603 0.00044918168 0.0018450039 0.0010280315 0.0026358198 0.0010613116 -0.0008885406
-0.0002189851 0.00097148406 0.0016003271 0.0017915077 0.0006392863 0.0009061826 0.0014848716 -0.0013391221
0.0003944243 0.0008962136 0.002827474 -0.00036755626 0.0008951614 0.00095984596 0.0020092719 0.00252761
0.0015081828 0.0032530266 0.00020878183 0.00074567716 0.0025473025 0.0025615736 -0.0026212302 0.002693062
0.0010225462 0.0010984058 -0.00063600845 0.0011544258 0.0009940855 0.0008008293 0.0004651424 0.00019837826
-0.001004596 0.0028583072 0.00010564081 0.002007354 0.00019340837 0.0016138398 0.0020804473 0.003820592
-0.00067596603 -0.0004904966 0.00040549357 0.0014588962 0.0003192318 -0.00029512684 0.00061407883 0.00064113754
0.0010765585 0.001925311 -0.0009877927 0.0005671878 0.0019253216 0.0018754464 -0.00029454203 0.0010907407
00000000: af50 723a a5f8 a53a 2580 eb39 0fd4 f13a
00000010: 03bf 863a b8bd 2c3b b51b 8b3a f3ec 68ba
00000020: 5d9f 65b9 31ab 7e3a 11c2 d13a 06d1 ea3a
00000030: c795 273a e38c 6d3a 06a0 c23a 7b85 afba
00000040: bcca ce39 e0ef 6a3a 244d 393b 91b4 c0b9
00000050: 44a9 6a3a 2c9e 7b3a fdad 033b 42a6 253b
00000060: 38ae c53a bb30 553b 72ec 5a39 8c79 433a
00000070: a5f0 263b 13e0 273b f2c8 2bbb 157e 303b
00000080: f506 863a 62f8 8f3a ceb9 26ba 1a50 973a
00000090: f94b 823a bfee 513a 5bde f339 c203 5039
000000a0: a6ac 83ba 7052 3b3b 7a8b dd38 d08d 033b
000000b0: aacd 4a39 7a87 d33a 1d58 083b e662 7a3b
000000c0: 5033 31ba ab94 00ba 6d98 d439 6f38 bf3a
000000d0: 915e a739 41bb 9ab9 22fa 203a 0312 283a
000000e0: 4f1b 8d3a b85a fc3a d378 81ba 54af 143a
000000f0: 135b fc3a 8ad1 f53a c36c 9ab9 2ff7 8e3a

module.model.1.model.1.running_var f4 [64]
6.105614e-05 1.2023197e-05 1.8384477e-05 3.5486407e-06 1.5003897e-05 2.407823e-06 7.698813e-06 3.1171552e-05
1.51767845e-05 4.725555e-05 1.2706023e-06 8.61036e-05 1.4514511e-06 2.8930488e-06 1.4886344e-05 3.1523443e-05
2.0916212e-05 6.782847e-05 1.4948358e-05 2.4076749e-06 8.452444e-06 2.5722578e-05 5.4377684e-05 0.00016701232
6.937177e-07 3.920816e-05 1.19396045e-05 5.333782e-06 1.2518705e-05 8.564502e-05 2.1033326e-05 5.1319967e-06
6.835237e-05 0.00010025738 0.00011434041 7.3627746e-07 1.6842226e-06 0.000100291596 6.3295674e-06 8.707482e-06
3.2136e-05 1.3320088e-06 7.669421e-05 3.2715525e-06 2.7737922e-05 5.268068e-05 3.552564e-05 4.519141e-05
4.0073687e-06 2.667361e-05 4.2347797e-06 5.0635194e-06 1.0957937e-06 1.9863248e-05 2.4510177e-06 5.6310764e-06
5.6058863e-05 4.266804e-05 4.3443317e-05 1.591435e-05 1.3620876e-06 6.106473e-05 1.5503476e-06 1.1081904e-05
00000000: 440b 8038 3db7 4937 5d38 9a37 2f25 6e36
00000010: 3fb9 7b37 1696 2136 262a 0137 33be 0238
00000020: cb9f 7e37 4334 4638 9089 aa35 8592 b438
00000030: 7bcf c235 3326 4236 5cc0 7937 0a38 0438
00000040: 3975 af37 223f 8e38 b5ca 7a37 8a93 2136
00000050: f8ce 0d37 d1c6 d737 9813 6438 0720 2f39
00000060: eb37 3a35 7173 2438 3650 4837 d7f8 b236
00000070: 6e07 5237 529c b338 b970 b037 8433 ac36
00000080: 6658 8f38 4541 d238 0aca ef38 9aa4 4535
00000090: 730d e235 a453 d238 9262 d436 5a16 1237
000000a0: c4c9 0638 79c7 b235 e4d6 a038 d88c 5b36
000000b0: bcae e837 73f5 5c38 5e01 1538 e88b 3d38
000000c0: 0977 8636 24c1 df37 7b18 8e36 4de7 a936
000000d0: 2f13 9335 00a0 a637 2a7c 2436 94f2 bc36
000000e0: bf20 6b38 76f6 3238 e836 3638 ce7f 8537
000000f0: f9d0 b635 e10f 8038 8a15 d035 6aec 3937

module.model.1.model.3.weight f4 [64, 64, 3, 3]
0.007902429 0.03698483 -0.052075878 -0.047868513 -0.00040841475 -0.0028877603 -0.035003442 -0.06373916
0.064086705 0.05428142 -0.050493777 0.053327285 -0.06146959 -0.041573785 -0.0493584 -0.005448955
0.039962094 0.030096471 -0.060579363 -0.030134544 -0.0008000416 -0.02170653 -0.037953034 -0.06118088
0.04046128 -0.035850905 -0.061011925 -0.03638243 -0.011432577 0.04866219 0.06889225 0.018686421
-0.037887648 0.06554262 -0.06245257 0.002754241 -0.017761882 -0.029986307 -0.044948015 0.010149102
0.0073446548 0.0012419356 -0.027986452 0.04358113 -0.028000783 0.029252643 -0.032778736 0.018155381
-0.051483396 0.040406592 -0.03714393 -0.023156649 -0.027031338 -0.0434257 -0.01523389 -0.030792946
-0.014418138 0.04111481 -0.05075567 0.028915543 0.04327801 -0.010733009 -0.070517145 0.03185628
0.016264092 -0.020391181 0.06597711 -0.054388694 0.0018641035 -0.029177232 -0.031386722 0.015793541
0.032622445 0.0657304 0.051377874 -0.06340119 -0.03733653 0.050665446 -0.056060277 0.032771774
-0.057219032 0.035461105 0.064507134 -0.03306398 -0.057543326 -0.042267583 -0.031044004 -0.0075027067
0.070208564 0.020437894 0.053035185 0.057386167 -0.05401632 -0.030462975 0.031316496 0.019897664
-0.042077478 -0.01828834 -0.038537808 0.050943512 -0.023115646 -0.06753559 0.03219668 0.03244598
0.021623997 -0.018156514 -0.03819179 -3.6533338e-06 -0.027321588 0.039646395 0.055216204 0.05637243
0.0031449406 -0.0060002464 -0.029049316 0.05550135 0.011969725 -0.032998398 0.025836479 0.042365674
-0.025054328 0.07099773 -0.008507699 -0.0063382206 0.021219388 -0.0700963 0.06934192 -0.019631295
-0.025096307 -0.06164906 -0.04336155 -0.03864622 -0.024156718 0.050227307 -0.042987764 -0.00700924
0.057684727 -0.020335954 0.001317991 -0.05045526 0.0019697766 -0.057373524 0.05214054 0.0059302193
-0.04292057 -0.03505077 0.021778218 0.007055996 -0.032711193 -0.021380797 0.028239297 0.0131099215
0.063616246 -0.030913139 0.037716832 -0.02962791 0.0015241874 -0.0321137 -0.07015336 0.035171498
0.01411678 0.020132639 0.017141875 -0.055719275 0.05021094 -0.05368208 0.059168704 -0.0123465685
-0.046495404 0.0002997655 -0.06221438 0.025151022 0.014550787 0.017465891 0.038116794 -0.0020574648
-0.0053256373 -0.017956734 0.0048038345 -0.014681812 0.032822084 -0.050794486 0.039917424 -0.03276406
-0.060488276 -0.030785464 -0.071289875 0.023068318 0.064281195 0.0356619 0.018793965 0.027339617
0.0046355245 -0.050662562 0.054255746 0.058086786 0.048266754 0.035841726 -0.024122376 -0.07042263
-0.0062580085 0.008818853 -0.014713225 -0.006197901 -0.039784797 -0.04771335 0.0056535793 -0.018385075
0.07212046 0.034167133 0.030253064 0.034961227 0.032245416 0.021497088 -0.045184236 0.05560865
0.03766794 -0.063604355 -0.071298264 -0.033952042 -0.03932456 0.004292814 -0.003479467 -0.006594571
0.00542385 -0.04053371 0.044936396 0.0118607115 -0.069812186 -0.045431733 0.024733117 0.042444535
0.053011727 -0.044158537 0.065427065 -0.04709191 0.07043292 0.05640603 0.057731226 -0.016172756
-0.022848353 0.06736629 0.007677292 -0.058035098 -0.005556385 0.045373656 0.025666084 -0.035871282
-0.059443787 -0.047637563 -0.03025864 -0.022839695 0.054684784 -0.0669671 -0.028905677 -0.0400767
00000000: 3179 013c 687d 173d 844d 55bd c611 44bd
00000010: 8020 d6b9 9440 3dbb c55f 0fbd ad89 82bd
00000020: e43f 833d 3256 5e3d 90d2 4ebd b66d 5a3d
00000030: 89c7 7bbd 4649 2abd 092c 4abd 268d b2bb
00000040: 4baf 233d e08c f63c 1122 78bd b8dc f6bc
00000050: e2b9 51ba e5d1 b1bc a474 1bbd cd98 7abd
00000060: baba 253d 66d8 12bd a4e7 79bd be05 15bd
00000070: b44f 3bbc 0152 473d 6117 8d3d 4414 993c
00000080: 1430 1bbd 363b 863d 44ce 7fbd 7f80 343b
00000090: 5e81 91bc d8a5 f5bc 691b 38bd 6b48 263c
000000a0: 6eab f03b 72c8 a23a d843 e5bc 2182 323d
000000b0: e661 e5bc 3da3 ef3c ff42 06bd 98ba 943c
000000c0: 41e0 52bd 6281 253d 3c24 18bd 03b3 bdbc
000000d0: d370 ddbc 26df 31bd 9197 79bc 7d41 fcbc
000000e0: 0e3a 6cbc 0168 283d 2de5 4fbd 4ae0 ec3c
000000f0: 4844 313d 81d9 2fbc 4b6b 90bd bb7b 023d
00000100: 463c 853c 680b a7bc 021f 873d aec6 5ebd
00000110: ef54 f43a 1705 efbc 5d8f 00bd 7561 813c
00000120: 1d9f 053d a99d 863d 9b71 523d 7cd8 81bd
00000130: 30ee 18bd 9286 4f3d 769f 65bd b23b 063d
00000140: 815e 6abd aa3f 113d 511c 843d 196e 07bd
00000150: 8db2 6bbd c620 2dbd ff4f febc 44d9 f5bb
00000160: 82c9 8f3d 5f6d a73c 6c3b 593d c20d 6b3d
00000170: 3740 5dbd 7d8d f9bc ba45 003d 6d00 a33c
00000180: 6f59 2cbd 6ed1 95bc d2d9 1dbd 25aa 503d
00000190: 065d bdbc 1950 8abd aae0 033d 13e6 043d
000001a0: cf24 b13c f8bc 94bc ff6e 1cbd cc2b 75b6
000001b0: 86d1 dfbc 4264 223d 632a 623d c7e6 663d
000001c0: 591b 4e3b b79d c4bb d5f8 edbc 6255 633d
000001d0: aa1c 443c 5429 07bd 06a7 d33c a187 2d3d
000001e0: bc3e cdbc 4267 913d e063 0bbc d9b0 cfbb
000001f0: 48d4 ad3c a68e 8fbd 2303 8e3d cfd1 a0bc
00000200: c596 cdbc ba83 7cbd e19b 31bd 804b 1ebd
00000210: 4fe4 c5bc 26bb 4d3d f013 30bd c4ad e5bb
00000220: d246 6c3d 9697 a6bc 70c0 ac3a 2daa 4ebd
00000230: 5e17 013b 8000 6bbd 5291 553d 4952 c23b
00000240: 7bcd 2fbd 6591 0fbd 3c68 b23c fc35 e73b
00000250: 2cfc 05bd c826 afbc 1956 e73c ffca 563c
00000260: 3c49 823d 8d3d fdbc f77c 1a3d 3bb6 f2bc
00000270: 3ec7 c73a a889 03bd 91ac 8fbd fd0f 103d
00000280: 114a 673c 34ed a43c 1e6d 8c3c e539 64bd
00000290: fda9 4d3d bee1 5bbd e25a 723d 4349 4abc
000002a0: f771 3ebd d829 9d39 81d4 7ebd 8409 ce3c
000002b0: 6d66 6e3c a114 8f3c 5b20 1c3d 88d6 06bb
000002c0: af82 aebb 001a 93bc 7c69 9d3b fc8b 70bc
000002d0: 7370 063d e10d 50bd 7480 233d 9b33 06bd
000002e0: 8ec2 77bd cc31 fcbc 6d00 92bd c5f9 bc3c
000002f0: dca5 833d 3612 123d cdf5 993c 55f7 df3c
00000300: 99e5 973b 8c83 4fbd 463b 5e3d 69ec 6d3d
00000310: 5cb3 453d c6ce 123d 4a9c c5bc bd39 90bd
00000320: fb0f cdbb f37c 103c bd0f 71bc c317 cbbb
00000330: 62f5 22bd 136f 43bd a941 b93b 4c9c 96bc
00000340: e4b3 933d d6f2 0b3d 46d5 f73c 8133 0f3d
00000350: c513 043d a91a b03c 1b13 39bd e5c5 633d
00000360: b349 1a3d 0043 82bd d304 92bd 4c11 0bbd
00000370: ca12 21bd bcaa 8c3b c507 64bb 4517 d8bb
00000380: 8dba b13b ad06 26bd 3a0f 383d 6e53 423c
00000390: b1f9 8ebd a016 3abd 1b9d ca3c 52da 2d3d
000003a0: d322 593d 95df 34bd a0fe 853d 72e3 40bd
000003b0: 223f 903d 020a 673d 9477 6c3d ba7c 84bc
000003c0: 782c bbbc 56f7 893d cb91 fb3b 36b6 6dbd
000003d0: 5612 b6bb bad9 393d ae41 d23c c4ed 12bd
000003e0: 547b 73bd 9b1f 43bd f8e0 f7bc 501a bbbc
000003f0: 27fd 5f3d 0c26 89bd 99cb ecbc 7727 24bd

module.model.1.model.3.bias f4 [64]
0.0009750519 0.0009162689 0.0009936903 0.0009954008 0.0010082527 0.00097119604 0.0009741242 0.0010324854
0.00097195455 0.0009779822 0.0010376966 0.0010033989 0.00093883096 0.0009884359 0.0009904968 0.0009934633
0.0009635468 0.00092557207 0.0009186887 0.0010278814 0.000981252 0.0009817675 0.0009972301 0.0011067264
0.001028598 0.0009955815 0.0010756192 0.000993028 0.0010121197 0.0012287106 0.0010228229 0.0010155456
0.0009848538 0.0009727526 0.0009771279 0.0009905924 0.0009971135 0.0009966894 0.0010275912 0.0010085442
0.0010595034 0.0009520188 0.0010392386 0.00094838074 0.0009774416 0.0010173814 0.0010105743 0.0009337402
0.00091236585 0.0010098068 0.0009890113 0.0009917192 0.0010244036 0.0009926521 0.0010628933 0.0010081137
0.0010222159 0.0009841174 0.0009821706 0.0009444349 0.0009981185 0.0009596949 0.0010171522 0.0009929477
00000000: a09a 7f3a c431 703a b73e 823a 1c78 823a
00000010: 5927 843a dd97 7e3a 5e5c 7f3a 7654 873a
00000020: c4ca 7e3a a32f 803a 5203 883a 7b84 833a
00000030: e11b 763a 688e 813a 8fd3 813a 1937 823a
00000040: 8896 7c3a 17a2 723a 28d4 703a fab9 863a
00000050: 5a9d 803a a7ae 803a 7db5 823a 930f 913a
00000060: 06d2 863a 2c7e 823a cbfb 8c3a 7e28 823a
00000070: 1aa9 843a b00c a13a 3e10 863a 0e1c 853a
00000080: 3616 813a 5200 7f3a f912 803a c4d6 813a
00000090: 94b1 823a 59a3 823a 3db0 863a 2131 843a
000000a0: 09df 8a3a e690 793a 1037 883a c19c 783a
000000b0: 7f1d 803a a859 853a 3f75 843a 3ec6 743a
000000c0: d62b 6f3a 7e5b 843a b6a1 813a 93fc 813a
000000d0: 4845 863a e11b 823a c850 8b3a af22 843a
000000e0: e0fb 853a 80fd 803a 2dbc 803a f493 773a
000000f0: 4dd3 823a 0994 7b3a f751 853a cc25 823a

module.model.1.model.4.weight f4 [64]
1.0008117 1.0009111 0.999317 1.0004303 0.99955374 1.0001376 1.0007046 0.9991425
1.0008451 0.9996331 0.999337 0.9994141 1.0008448 1.0007211 1.0007862 1.0002574
0.9998228 1.0006838 1.0005045 0.99931705 1.0006982 1.0005542 1.0002507 0.99913996
0.99912804 1.0003664 0.9993447 1.0006784 1.0003493 0.9992162 0.99934834 0.99972206
1.0003582 1.0008556 0.9993582 1.0007999 1.0003046 0.99990606 0.99990284 0.99974567
0.9991598 1.0008441 0.99919885 1.0007025 1.0008597 0.99956566 0.99984866 1.0007964
1.0008771 0.9995403 1.0001715 1.0007734 1.0008174 1.0006778 0.9993584 1.0006336
0.9991278 1.0006815 0.9998447 1.0008932 1.0008378 1.0002896 1.0008157 1.0006949
00000000: 991a 803f db1d 803f 3dd3 7f3f 1a0e 803f
00000010: c1e2 7f3f 8204 803f 1717 803f cec7 7f3f
00000020: b11b 803f f4e7 7f3f 8dd4 7f3f 9ad9 7f3f
00000030: af1b 803f a117 803f c319 803f 6f08 803f
00000040: 63f4 7f3f 6816 803f 8810 803f 3ed3 7f3f
00000050: e116 803f 2912 803f 3708 803f a3c7 7f3f
00000060: dbc6 7f3f 020c 803f 0ed5 7f3f 3b16 803f
00000070: 720b 803f a2cc 7f3f 4bd5 7f3f c9ed 7f3f
00000080: bd0b 803f 091c 803f f0d5 7f3f 361a 803f
00000090: fb09 803f d8f9 7f3f a2f9 7f3f 55ef 7f3f
000000a0: f0c8 7f3f a91b 803f 7fcb 7f3f 0517 803f
000000b0: 2c1c 803f 89e3 7f3f 15f6 7f3f 191a 803f
000000c0: be1c 803f e0e1 7f3f 9f05 803f 5819 803f
000000d0: c91a 803f 3616 803f f4d5 7f3f c314 803f
000000e0: d7c6 7f3f 5516 803f d2f5 7f3f 451d 803f
000000f0: 741b 803f 7d09 803f bb1a 803f c516 803f

module.model.1.model.4.bias f4 [64]
0.00081927073 0.0008826509 -0.00082499965 -0.0006378513 -0.0007695958 0.00059624366 0.0007669805 -0.00055275
0.0008755623 -0.0006338178 0.00075987907 0.00032071237 0.000847365 0.0008007199 0.0008776639 0.00016051288
0.0006038761 0.00086389174 0.0008772586 -0.00075542554 0.0008740551 0.000168151 -0.00086027064 -0.0008571394
-0.0008503965 0.00037478626 -0.00076179183 0.00086481497 0.00012121847 -0.00084058347 -0.0008203125 -0.0006107542
-0.00015967608 0.0009145604 -0.0006678029 0.0007588365 0.0007880735 0.00022652563 -6.4691194e-05 -0.0003244252
-0.0008320615 0.00088244176 -0.0008429193 0.00081911363 0.00082786503 -0.00071785395 0.0007361541 0.0008578423
0.0008884019 -0.000674404 0.0008762719 0.00085213775 0.0008403574 0.0007853738 -0.0008005343 0.0007411873
-0.00089949265 0.000859329 -0.00040435456 0.00088048505 -0.0005071979 0.00084225327 0.0008746856 -0.0007112096
00000000: 54c4 563a b361 673a ca44 58ba 7a35 27ba
00000010: b3be 49ba 3c4d 1c3a 310f 493a 6de6 10ba
00000020: fe85 653a cb26 26ba 9f32 473a 4925 a839
00000030: b421 5e3a 67e7 513a 0713 663a 594f 2839
00000040: 704d 1e3a cb76 623a d4f7 653a c007 46ba
00000050: d820 653a b151 3039 c983 61ba a7b1 60ba
00000060: 25ed 5eba f67e c439 fcb2 47ba c0b4 623a
00000070: ac36 fe38 9a5a 5cba 3d0a 57ba 051b 20ba
00000080: b96e 27b9 1cbf 6f3a 7e0f 2fba a8ec 463a
00000090: b896 4e3a 8387 6d39 d2aa 87b8 9d17 aab9
000000a0: b41e 5aba aa53 673a 5bf7 5cba c9b9 563a
000000b0: 1505 593a 5d2e 3cba 77fa 403a d2e0 603a
000000c0: a4e3 683a 7cca 30ba 9db5 653a ff61 5f3a
000000d0: 6e4b 5c3a 8be1 4d3a f3da 51ba 3d4c 423a
000000e0: eecb 6bba 9844 613a 8dff d3b9 5ad0 663a
000000f0: 7af5 04ba a9ca 5c3a 284b 653a 7870 3aba

module.model.1.model.4.running_mean f4 [64]
-0.50249326 -0.5642203 0.15925065 0.07466906 0.42576873 0.14452516 -0.39943683 -0.19651587
0.3187493 0.2908129 -0.24304685 0.09165803 -0.27903444 0.27512974 -0.021102669 0.24608476
0.25189963 -0.1322141 -0.5310368 0.040637147 -0.05088567 0.13592319 0.0800092 -0.12955707
0.3850225 0.0039854296 -0.0068534245 0.34320024 0.32751247 -0.10677117 0.13862182 0.29935905
-0.19967799 -0.0025353152 0.45227304 0.1554072 -0.17837241 -0.2779076 0.2225266 -0.16024722
-0.35708526 -0.20751996 -0.062092315 -0.12175024 -0.5378593 -0.010742156 0.050423894 -0.20377842
-0.025203453 0.06706366 -0.4169185 -0.11410314 0.4918372 0.33591834 0.14114833 0.041415326
-0.361636 0.3492036 0.26957333 -0.13035052 0.1070868 -0.1617727 0.14182435 -0.13999568
00000000: 66a3 00bf be70 10bf 9a12 233e 18ec 983d
00000010: 5cfe d93e 67fe 133e fc82 ccbe 753b 49be
00000020: 1c33 a33e 6ee5 943e 46e1 78be 35b7 bb3d
00000030: 9add 8ebe cedd 8c3e 81df acbc a5fd 7b3e
00000040: fdf8 803e 2263 07be 07f2 07bf 2373 263d
00000050: 7e6d 50bd 732f 0b3e dddb a33d 9caa 04be
00000060: ab21 c53e 3598 823b b192 e0bb f1b7 af3e
00000070: b7af a73e d8aa dabd e1f2 0d3e 9745 993e
00000080: 6378 4cbe 8827 26bb 5590 e73e 1123 1f3e
00000090: 42a7 36be e849 8ebe 03de 633e d917 24be
000000a0: e1d3 b6be 1d80 54be 8354 7ebd 3158 f9bd
000000b0: 26b1 09bf deff 2fbc 4989 4e3d 4aab 50be
000000c0: 7977 cebc ac58 893d 5776 d5be e8ae e9bd
000000d0: 16d2 fb3e 7dfd ab3e 3089 103e 1ea3 293d
000000e0: 5b28 b9be d0ca b23e 8405 8a3e 9b7a 05be
000000f0: 5350 db3d bea7 25be 673a 113e 075b 0fbe

module.model.1.model.4.running_var f4 [64]
0.2518188 0.18497509 0.03110727 0.031093156 0.16059957 0.041351818 1.1338948 0.045812562
0.41654652 0.24873118 0.06828479 0.028655034 0.07730624 0.094828546 0.930629 0.05871041
0.038454168 0.08552274 0.0664592 0.30361238 0.3772057 0.06583679 0.05383396 0.12384405
0.24643974 0.65944153 0.11572919 0.20413698 0.10011239 0.016294349 0.31526256 0.06374108
0.22173701 0.13362443 0.08559453 0.6108263 1.4094771 0.37763444 0.025161108 0.26967633
0.060490344 0.094034046 0.3822117 0.08910769 0.7123625 0.8574119 0.40690467 0.0875324
0.091248535 0.40749067 0.69719756 0.09341896 0.06474335 0.2255065 0.04016619 0.066748224
0.40903553 0.11566683 0.36899617 0.27018854 0.091877535 0.23046695 0.28584817 0.18366022
00000000: 65ee 803e 1c6a 3d3e acd4 fe3c 13b7 fe3c
00000010: 3774 243e 8660 293d 7723 913f f4a5 3b3d
00000020: 9645 d53e 63b3 7e3e e5d8 8b3d f6bd ea3c
00000030: bc52 9e3d 7835 c23d b43d 6e3f 547a 703d
00000040: 1e82 1d3d 8c26 af3d c31b 883d 1573 9b3e
00000050: 1b21 c13e 70d5 863d 0081 5c3d f3a1 fd3d
00000060: b35a 7c3e 29d1 283f 6d03 ed3d 4909 513e
00000070: ba07 cd3d ba7b 853c 186a a13e af8a 823d
00000080: 070f 633e d8d4 083e 2f4c af3d 1d5f 1c3f
00000090: bf69 b43f 4d59 c13e ab1e ce3c 0413 8a3e
000000a0: b9c4 773d ec94 c03d 40b1 c33e 187e b63d
000000b0: 645d 363f 597f 5b3f cf55 d03e 3044 b33d
000000c0: 83e0 ba3d 9ea2 d03e 8a7b 323f 7152 bf3d
000000d0: 2998 843d 2deb 663e 4e85 243d 4bb3 883d
000000e0: 1b6d d13e bbe2 ec3d 11ed bc3e 2756 8a3e
000000f0: 4a2a bc3d 87ff 6b3e b15a 923e 6d11 3c3e

module.model.2.model.0.weight f4 [64, 64, 3, 3]
-0.06142536 -0.019981075 0.032511465 -0.028968975 0.035690423 -0.03102399 0.05490812 0.020197976
-0.03796122 -0.050106075 -0.0051978696 0.01574177 0.058483828 0.038811687 0.025887104 -0.029897641
-0.068271294 -0.05749222 -0.040806435 0.044294056 -0.06069212 -0.022212593 0.024928879 -0.06348497
-0.0018070708 0.018849032 -0.0372576 0.05974019 -0.0028260213 -0.03210768 0.014387753 -0.0022338398
0.025847865 0.071651794 -0.03153246 -0.06667145 -0.038784876 0.028459283 0.011465559 0.07264869
-0.025761187 -0.057649173 0.013226271 -0.04353372 -0.06494869 -0.07146291 -0.008949435 0.04315431
0.061845794 0.001590567 -0.053864144 0.042041723 0.0075486833 0.046918295 0.019730268 0.014186404
0.04718522 0.011580354 -0.0277293 0.06440832 -0.027365679 0.0404584 0.06568109 0.06744317
0.056591 -0.0051884395 -0.0025269496 -0.041411933 -0.017938871 -0.00329515 -0.071920976 -0.03201696
-0.025375225 0.06427436 0.0015782138 -0.009310576 0.028395277 -0.027033707 0.063570626 -0.057190742
-0.033681337 -0.020035874 0.05272435 0.049608417 0.03110004 -0.048959374 -0.014958304 0.0018520639
-0.05842541 -0.067206986 0.03500707 -0.061884515 -0.03926657 -0.0023308003 -0.0057898522 0.058912013
0.06820823 -0.040466465 -0.071194045 -0.03723685 -0.06943592 -0.042948406 -0.05736702 -0.022317912
0.021998856 -0.06979772 -0.00892296 -0.05208753 -0.01640285 0.06356412 0.035089538 -0.05126576
0.045465898 -0.00989502 -0.060718723 0.0071577844 -0.022167206 -0.049175113 0.015609074 0.05320481
-0.037697934 -0.0514971 0.021252574 0.007288262 0.013441114 0.026415 0.039490003 -0.026248395
0.048726987 0.01604159 -0.008470044 0.037544988 0.021620518 0.022171104 -0.012233838 -0.019558188
0.01839385 -0.035199776 -0.010563767 -0.061721694 0.048377667 -0.009509708 0.026119996 -0.019516049
0.0033080762 0.06977071 0.0013203308 -0.06636152 0.035773948 0.060459614 0.049923852 -0.06321338
-0.06578541 -0.02140602 0.017551318 0.060133506 0.04088132 -0.070447095 0.047913317 -0.060487274
-0.05895388 -0.009522554 0.0053339247 0.034380805 0.05600543 0.0013501926 0.013352726 0.053623147
0.052494135 -0.018477501 -0.025742792 -0.055164143 -0.051591948 0.06565829 0.06682926 0.071696125
-0.025456859 -0.02769499 0.06128139 -0.06384934 0.024587216 0.0358927 0.042360388 -0.028505873
-0.060972013 -0.012623597 -0.053589273 0.05042015 -0.030116076 0.043639638 -0.026766388 0.038546517
-0.022425558 0.017145647 -0.03188223 0.06302669 -0.06663651 0.0147377355 0.04340623 0.03240477
-0.020759553 -0.034205277 -0.070160225 -0.0316634 0.018802326 -0.034149256 -0.011502364 -0.022383647
-0.053591013 0.04266529 -0.03007741 -0.011960732 -0.06265477 -0.016657144 0.031616528 -0.0316964
0.0528882 -0.043449603 -0.0066909282 -0.049311433 -0.00043957526 0.019015796 0.019502088 0.059744697
-0.028226806 -0.053198144 -0.06686743 0.037558865 -0.0023785736 0.056410648 -0.072045855 -0.021365464
-0.023795143 0.01955253 -0.06562422 -0.039994325 0.05956075 -0.027517194 0.010694958 -0.060285438
0.04296662 -0.011802124 0.039866958 -0.028476005 0.056905966 0.018240362 0.0021742152 0.04111884
-0.02357417 0.018670863 0.040269338 -0.007451747 0.06927959 0.069161385 0.0038547374 -0.06774502
00000000: 2999 7bbd 5aaf a3bc be2a 053d 5850 edbc
00000010: 1f30 123d 0626 febc 56e7 603d 3a76 a53c
00000020: 397d 1bbd 073c 4dbd e452 aabb e2f4 803c
00000030: bd8c 6f3d 01f9 1e3d 3111 d43c e6eb f4bc
00000040: d2d1 8bbd f67c 6bbd a624 27bd af6d 353d
00000050: 4d98 78bd 2ff7 b5bc a637 cc3c 6804 82bd
00000060: 3cdb ecba 4969 9a3c 6d9b 18bd 21b2 743d
00000070: c534 39bb 5883 03bd 9cba 6b3c 9d65 12bb
00000080: e7be d33c 2dbe 923d 2e28 01bd 0b8b 88bd
00000090: e4dc 1ebd 7123 e93c 0ada 3b3c d6c8 943d
000000a0: 2009 d3bc 8a21 6cbd 00b3 583c 6a50 32bd
000000b0: d203 85bd 255b 92bd a7a0 12bc 93c2 303d
000000c0: 0452 7d3d 927a d03a a6a0 5cbd f133 2c3d
000000d0: f25a f73b 662d 403d 5fa1 a13c 176e 683c
000000e0: 4a45 413d 86bb 3d3c 8f28 e3bc 82e8 833d
000000f0: fd2d e0bc b5b7 253d cf83 863d a51f 8a3d
00000100: f7cb 673d c903 aabb 2e9b 25bb 8f9f 29bd
00000110: 8af4 92bc 71f3 57bb 4e4b 93bd 3724 03bd
00000120: b4df cfbc 47a2 833d 11dc ce3a 638b 18bc
00000130: 369d e83c cb75 ddbc 5131 823d d740 6abd
00000140: 71f5 09bd 4622 a4bc 7df5 573d 3232 4b3d
00000150: 83c5 fe3c a089 48bd ad13 75bc f4c0 f23a
00000160: 7c4f 6fbd d1a3 89bd 9363 0f3d 9e7a 7dbd
00000170: fcd5 20bd 57c0 18bb cdb8 bdbb b94d 713d
00000180: c2b0 8b3d 2ac0 25bd 2fce 91bd ab85 18bd
00000190: 6b34 8ebd abea 2fbd aef9 6abd 0ed4 b6bc
000001a0: f236 b43c 1bf2 8ebd 9b31 12bc bc59 55bd
000001b0: 455f 86bc e82d 823d 0cba 0f3d 0cfc 51bd
000001c0: 733a 3a3d b91e 22bc 32b4 78bd d98b ea3b
000001d0: 0098 b5bc d86b 49bd 34bd 7f3c 49ed 593d
000001e0: 2669 1abd a0ee 52bd e119 ae3c 5fd2 ee3b
000001f0: 1e38 5c3c 4564 d83c 45c0 213d e006 d7bc
00000200: f395 473d a769 833c f0c5 0abc c6c8 193d
00000210: 831d b13c 2da0 b53c 7070 48bc 7e38 a0bc
00000220: b3ae 963c a42d 10bd a613 2dbc e3cf 7cbd
00000230: a927 463d 9bce 1bbc 9af9 d53c 1fe0 9fbc
00000240: 4fcc 583b f2e3 8e3d f30e ad3a 8ce8 87bd
00000250: b487 123d 80a4 773d f47c 4c3d 0476 81bd
00000260: 80ba 86bd ad5b afbc c8c7 8f3c 8d4e 763d
00000270: 2c73 273d 9146 90bd c140 443d 81c1 77bd
00000280: a079 71bd 7d04 1cbc 34c8 ae3b e3d2 0c3d
00000290: f365 653d f2f8 b03a 64c5 5a3c f2a3 5b3d
000002a0: 1704 573d 215e 97bc 8ce2 d2bc ccf3 61bd
000002b0: 1452 53bd db77 863d c7dd 883d 6bd5 923d
000002c0: e78a d0bc 9be0 e2bc 3202 7b3d 71c3 82bd
000002d0: 216b c93c 3904 133d 1682 2d3d 2685 e9bc
000002e0: cabd 79bd 34d3 4ebc 6d80 5bbd 5c85 4e3d
000002f0: fdb5 f6bc 7abf 323d 2f45 dbbc f4e2 1d3d
00000300: ceb5 b7bc 0775 8c3c f196 02bd 2314 813d
00000310: b978 88bd 8b76 713c bbca 313d ddba 043d
00000320: f00f aabc d51a 0cbd 2ab0 8fbd 7bb1 01bd
00000330: 5607 9a3c 17e0 0bbd 6974 3cbc e95d b7bc
00000340: 4082 5bbd cdc1 2e3d e764 f6bc f2f6 43bc
00000350: 2551 80bd 9074 88bc 5580 013d 16d4 01bd
00000360: 4ca1 583d 36f8 31bd 933f dbbb c9fa 49bd
00000370: cb76 e6b9 04c7 9b3c d8c2 9f3c dbb6 743d
00000380: e73b e7bc 4ce6 59bd cbf1 88bd 53d7 193d
00000390: d8e1 1bbb da0e 673d c78c 93bd a006 afbc
000003a0: 08ee c2bc a12c a03c fe65 86bd 17d1 23bd
000003b0: f9f5 733d bd6b e1bc e839 2f3c dded 76bd
000003c0: c4fd 2f3d b25d 41bc 894b 233d 8346 e9bc
000003d0: 3b16 693d d06c 953c 477d 0e3b 3b6c 283d
000003e0: 9e1e c1bc a3f3 983c 76f1 243d c92d f4bb
000003f0: 75e2 8d3d 7ca4 8d3d c39f 7c3b e7bd 8abd

module.model.2.model.0.bias f4 [64]
0.001002434 0.0009938222 0.001012708 0.001005719 0.0009993846 0.0009892262 0.0010118698 0.0009980773
0.0010145683 0.0009976624 0.0009905313 0.0009910301 0.0010010899 0.0009982049 0.0010100054 0.0010002233
0.001006405 0.001004781 0.0010035585 0.0009932462 0.0009986734 0.0010116607 0.0009962331 0.0009983721
0.0009902313 0.0010041866 0.00100593 0.0009982616 0.0009965813 0.0010124209 0.0010200148 0.0009979917
0.0010021295 0.0010019161 0.0009863398 0.0010028788 0.0009923979 0.0009970599 0.000995738 0.0009952721
0.0010079527 0.0010037781 0.0010136901 0.0010006271 0.0009979062 0.0009807972 0.0009963327 0.0009937937
0.0009734894 0.0009954919 0.0010062221 0.0010015038 0.0009950743 0.000991867 0.0010020015 0.001017852
0.0010045758 0.0010015432 0.000980066 0.000975645 0.0009868955 0.0010181353 0.0009990309 0.0010124226
00000000: 1a64 833a 2443 823a d7bc 843a 54d2 833a
00000010: c8fd 823a eca8 813a b7a0 843a ebd1 823a
00000020: 43fb 843a ffc3 823a b7d4 813a 74e5 813a
00000030: 0137 833a 33d6 823a 2862 843a ed19 833a
00000040: 59e9 833a dbb2 833a d689 833a d02f 823a
00000050: ebe5 823a b399 843a 0994 823a cfdb 823a
00000060: a6ca 813a e99e 833a 69d9 833a 1ad8 823a
00000070: b89f 823a 35b3 843a 04b2 853a 0bcf 823a
00000080: e359 833a ba52 833a 1248 813a 0773 833a
00000090: 5913 823a c7af 823a 6c83 823a ca73 823a
000000a0: 481d 843a 3491 833a ccdd 843a 7927 833a
000000b0: 2dcc 823a 188e 803a 6197 823a 2f42 823a
000000c0: c531 7f3a 2a7b 823a 36e3 833a e444 833a
000000d0: 276d 823a 8901 823a 9755 833a 7269 853a
000000e0: f8ab 833a 3746 833a 8f75 803a 6dc2 7f3a
000000f0: b85a 813a f472 853a eaf1 823a 44b3 843a

module.model.2.model.1.weight f4 [64]
0.9996956 1.0008646 1.0001584 0.9993241 1.0003074 1.000281 1.0006322 1.0006354
0.9994242 0.9995709 0.99912035 1.0004588 0.9992909 1.0001227 0.9998004 0.9993391
0.999652 0.999921 1.0002794 0.9996719 1.0005319 0.99912983 1.0000495 0.99941313
1.0005137 0.99966717 0.99969393 1.0007554 1.0008175 0.99922055 0.9993344 1.0006918
0.9991368 0.99975115 1.0005319 0.99994254 1.000896 0.99974394 0.9999097 1.0002754
0.99994904 0.9991273 0.99933594 0.9991677 1.0006418 0.99967974 1.0001503 1.0002387
1.0008738 1.0006266 1.0000945 1.0004816 1.0008179 1.0007163 0.9999988 0.9991333
0.9993592 0.9999276 1.0008292 1.0006913 1.0008986 0.9996813 1.0004408 0.9990831
00000000: 0dec 7f3f 551c 803f 3105 803f b4d3 7f3f
00000010: 130a 803f 3509 803f b714 803f d214 803f
00000020: 44da 7f3f e1e3 7f3f 5ac6 7f3f 090f 803f
00000030: 87d1 7f3f 0504 803f ebf2 7f3f b0d4 7f3f
00000040: 32e9 7f3f d3fa 7f3f 2809 803f 7fea 7f3f
00000050: 6e11 803f f9c6 7f3f 9f01 803f 8ad9 7f3f
00000060: d510 803f 30ea 7f3f f1eb 7f3f c118 803f
00000070: ca1a 803f ebcc 7f3f 61d4 7f3f ab16 803f
00000080: 6ec7 7f3f b1ef 7f3f 6e11 803f 3cfc 7f3f
00000090: 5c1d 803f 38ef 7f3f 15fa 7f3f 0609 803f
000000a0: a9fc 7f3f cfc6 7f3f 7bd4 7f3f 74c9 7f3f
000000b0: 0815 803f 03eb 7f3f ed04 803f d207 803f
000000c0: a21c 803f 8814 803f 1903 803f c80f 803f
000000d0: cd1a 803f 7917 803f ecff 7f3f 33c7 7f3f
000000e0: 01d6 7f3f 41fb 7f3f 2c1b 803f a716 803f
000000f0: 721d 803f 1deb 7f3f 720e 803f e9c3 7f3f

module.model.2.model.1.bias f4 [64]
-0.0004450356 0.0008199165 -0.00071850826 -0.000120987905 -0.0007064231 0.00022601453 0.0002404909 0.0008215763
-0.00075754494 -0.000117609474 -0.0008734972 0.0007939756 -0.0005200972 0.00035106344 -0.00068226625 -0.0005317968
0.00012027243 -0.00046195055 0.00019694837 -0.00044832076 0.0008699445 -0.00086994044 0.0005041915 -0.0007425099
0.0006726517 -0.000813516 -0.0003865444 0.00067541015 0.00087213505 -0.00081128627 0.00024634053 0.00073691836
-0.00076186383 -0.00070362794 0.00070943875 0.0007112226 0.0008713501 0.0003986308 0.00053647865 0.0003977249
0.00039193244 -0.00090506405 -0.0006931064 -0.00088892283 0.0006341946 0.0008641214 0.00032911115 0.00022814318
0.0008824332 0.0007240164 -0.0005083106 -4.6948346e-05 0.0008566095 -9.722052e-06 -0.00060225197 -0.0006322807
-0.00070582074 -0.00033435435 0.0008622743 0.00063891057 0.00091076765 -0.00044908622 0.0007330934 -0.00069901155
00000000: ab53 e9b9 aaef 563a 465a 3cba e3ba fdb8
00000010: 402f 39ba 50fe 6c39 492c 7c39 0d5f 573a
00000020: fb95 46ba 1ba5 f6b8 68fb 64ba cd22 503a
00000030: 2257 08ba f00e b839 1dda 32ba 4768 0bba
00000040: c53a fc38 f431 f2b9 ed83 4e39 980c ebb9
00000050: fd0c 643a b70c 64ba b82b 043a ffa4 42ba
00000060: e454 303a 2242 55ba 1ca9 cab9 020e 313a
00000070: fe9f 643a 80ac 54ba 4427 8139 c12d 413a
00000080: d1b7 47ba ac73 38ba a1f9 393a 5771 3a3a
00000090: 516b 643a 52ff d039 79a2 0c3a bc85 d039
000000a0: 487c cd39 d241 6dba 95b1 35ba 9a06 69ba
000000b0: 1440 263a 3586 623a 8d8c ac39 b839 6f39
000000c0: 1753 673a ebcb 3d3a 2640 05ba 67ea 44b8
000000d0: 178e 603a e51b 23b7 72e0 1dba a4bf 25ba
000000e0: d406 39ba 484c afb9 400a 623a 907c 273a
000000f0: 95c0 6e3a 5573 ebb9 112d 403a df3d 37ba

module.model.2.model.1.running_mean f4 [64]
0.14621712 0.35194194 -0.077413596 0.37692982 -0.26417765 -0.07099399 0.101681285 0.92859095
0.48186687 0.12054951 0.55168647 0.24692686 -0.03647174 0.30409494 -0.12171289 0.18641576
-0.47188774 0.20749883 -0.2681517 0.05083225 0.23054908 -0.21562506 -1.0544751 0.06111074
0.015484761 0.20664312 0.095347516 -0.52892154 0.09087586 -0.68674237 -0.55832714 0.0651999
-0.099434346 0.42906076 -0.35702056 0.033680115 -0.8172976 -0.27918828 0.18358855 0.17770225
-0.5255383 0.29633835 0.19322546 0.5155293 0.011207034 0.07885868 -0.05780354 -0.5076301
-0.16983815 0.44717935 0.2239854 -0.22708553 0.061535385 -0.09397718 0.45321828 -0.28473908
0.027331367 -0.4408654 -0.02536593 -0.52268165 -0.19823624 0.12706903 -0.1663985 -0.23138489
00000000: f1b9 153e bc31 b43e 058b 9ebd f2fc c03e
00000010: 4b42 87be 4c65 91bd 473e d03d 23b8 6d3f
00000020: 41b7 f63e a9e2 f63d 533b 0d3f 65da 7c3e
00000030: 6463 15bd 55b2 9b3e 9c44 f9bd c6e3 3e3e
00000040: 459b f1be 937a 543e 2e4b 89be 7a35 503d
00000050: 0f15 6c3e d1cc 5cbe 0af9 86bf 414f 7a3d
00000060: ccb3 7d3c 419a 533e 8f45 c33d 6767 07bf
00000070: 1f1d ba3d 59ce 2fbf 87ee 0ebf 8687 853d
00000080: 3ca4 cbbd daad db3e 66cb b6be 29f4 093d
00000090: 6a3a 51bf c4f1 8ebe a3fe 3b3e 94f7 353e
000000a0: ae89 06bf a9b9 973e e5dc 453e baf9 033f
000000b0: b59d 373c a980 a13d 68c3 6cbd 0cf4 01bf
000000c0: 0dea 2dbe b1f4 e43e 6e5c 653e 1c89 68be
000000d0: 870c 7c3d 1c77 c0bd 3a0c e83e 52c9 91be
000000e0: 08e6 df3c 1cb9 e1be 36cc cfbc 77ce 05bf
000000f0: 71fe 4abe 621e 023e 5e64 2abe 29f0 6cbe

module.model.2.model.1.running_var f4 [64]
1.1926454 0.8367655 0.47714198 0.12240074 0.7834625 0.079632536 0.15110305 0.308831
0.297575 0.25544077 0.15571071 0.5185141 0.17066991 0.3208852 0.09510916 0.10495012
0.5524738 0.36923727 0.117288664 0.13029271 0.12204395 0.18510272 0.7258051 0.38994727
0.16156402 0.22472692 0.12698935 0.8993104 0.19278406 0.31451523 0.14731617 0.31424108
0.42306072 0.10927917 0.30844465 0.5309503 0.41116965 0.4966701 0.7157552 0.4556139
0.32921368 0.39551765 0.24224524 0.4410348 0.598092 0.10076333 0.14644 0.5261568
0.06857819 0.25499502 0.28440684 0.142595 1.2387313 0.36308354 1.9403387 0.08887621
0.39407578 0.14752309 0.6377737 0.2840249 0.3682942 0.09152862 0.32619536 0.19539797
00000000: 9ba8 983f 4436 563f f44b f43e 3dad fa3d
00000010: 0091 483f 6216 a33d c2ba 1a3e 191f 9e3e
00000020: c05b 983e 22c9 823e a172 1f3e 57bd 043f
00000030: 18c4 2e3e 114b a43e 97c8 c23d 17f0 d63d
00000040: ec6e 0d3f ab0c bd3e 0a35 f03d 746b 053e
00000050: 2ef2 f93d 918b 3d3e 5dce 393f 2ba7 c73e
00000060: 0a71 253e d01e 663e 7f09 023e 3539 663f
00000070: 2f69 453e 2408 a13e 0dda 163e 35e4 a03e
00000080: 6a9b d83e c2cd df3d 75ec 9d3e 5cec 073f
00000090: d484 d23e 8b4b fe3e bc3b 373f 3a46 e93e
000000a0: b28e a83e 4a81 ca3e 230f 783e 50cf e13e
000000b0: 8f1c 193f 015d ce3d 5ef4 153e 36b2 063f
000000c0: b972 8c3d b58e 823e c69d 913e 6c04 123e
000000d0: bf8e 9e3f 16e6 b93e 055d f83f bb04 b63d
000000e0: 4dc4 c93e 4b10 173e 2345 233f b66b 913e
000000f0: 0f91 bc3e 5b73 bb3d 1403 a73e 6816 483e
